checkpoints/A_epoch_130.pth (torch, 843999 bytes, 48 tensors)

gnn_node.node_encoder.weight f4 [1, 128]
0	0xbf3979e1	-0.724516
1	0x3ec75c03	0.38937387
2	0xbf2a09d4	-0.66421247
3	0x3ef79964	0.48359215
4	0xbbf4ff1a	-0.0074766995
5	0x3f62ea05	0.88638335
6	0x3f0d0b9a	0.5509583
7	0xbe137ea9	-0.14403786
8	0x3d26ba6a	0.040705122
9	0xbf22e4c7	-0.63630337
10	0xbe8e8e0f	-0.27842757
11	0xbf231156	-0.6369833
12	0xbf6c2f5b	-0.9225976
13	0x3f49b04e	0.78784645
14	0xc046b896	-3.1050162
15	0xbf6fdc12	-0.93695176
16	0xbe2c4648	-0.16823685
17	0x3e699ffd	0.22814937
18	0x3dd3d807	0.10343938
19	0xbf8a3846	-1.0798423
20	0xbf3a941c	-0.72882247
21	0xbf65f377	-0.8982462
22	0xbe7c3c32	-0.24632338
23	0xbfb734ea	-1.4313023
24	0xbf84aa6c	-1.0364509
25	0xbfd79025	-1.6840864
26	0xc0035bc3	-2.0524757
27	0xbf97c3d6	-1.1856639
28	0xbeda7b96	-0.42672414
29	0xbf37d044	-0.71802163
30	0xbeabdd79	-0.33567408
31	0xc035e080	-2.8418274
32	0xbea69fc3	-0.32543764
33	0xbfc46097	-1.5341977
34	0x3db9691f	0.090532534
35	0x3f040447	0.51569027
36	0x3f05aa9b	0.5221345
37	0xbf92e434	-1.1475892
38	0xbd13633e	-0.035983317
39	0x3ea83bb2	0.32858044
40	0xbfd7d82e	-1.6862848
41	0xbf1c4360	-0.61040306
42	0x3f037a27	0.51358265
43	0xbff0e06b	-1.8818487
44	0x3e4a6cd7	0.19768082
45	0x3e8949b1	0.26814035
46	0xbfae030b	-1.3594679
47	0xc01c1046	-2.4384933
48	0xbe5df3c3	-0.21675019
49	0xbfe2dd7f	-1.7723845
50	0xbf58633f	-0.8452644
51	0xbf42be08	-0.76071215
52	0x3e2b15ac	0.16707486
53	0xbf125959	-0.57167584
54	0xbf8c5b96	-1.096545
55	0xbe8128fa	-0.25226575
56	0x3ee1d082	0.4410439
57	0x3f181b8a	0.5941702
58	0x3dded773	0.108809374
59	0x3e318512	0.17335919
60	0xbf9cbe9d	-1.224567
61	0x3ded8460	0.11597514
62	0x3e808487	0.2510111
63	0x3c7acada	0.015307153
64	0xc00cbf28	-2.1991673
65	0xbe9594a3	-0.29214963
66	0xbffc7926	-1.9724472
67	0xbfbc4f3b	-1.4711679
68	0xbffeac6d	-1.989637
69	0x3f9d8800	1.2307129
70	0x3f5c62f8	0.86088514
71	0xbf50ebc9	-0.8160978
72	0x3eb2dfdd	0.3493642
73	0xbfa3a738	-1.2785406
74	0xbf07253d	-0.52791196
75	0xbcdc1c8f	-0.026869087
76	0xbe8af3f8	-0.27139258
77	0xbe23411a	-0.15942803
78	0x3df16765	0.11787299
79	0xbe6b6410	-0.2298739
80	0xbfab158f	-1.3365954
81	0xbfa45ec4	-1.284142
82	0xbfd5d840	-1.6706619
83	0x3f2d8e21	0.67794997
84	0x3f0bbedc	0.54588103
85	0x3ed6c78f	0.41949126
86	0x3ec91149	0.39271
87	0xbe1cde80	-0.15319252
88	0xbf20c7b1	-0.62804705
89	0x3e393423	0.18086295
90	0xbfe68a76	-1.8011005
91	0xbef2223b	-0.4729174
92	0xbf3e2c49	-0.74286324
93	0x3f161b56	0.5863546
94	0xbfbb0559	-1.4611007
95	0xbf07c74f	-0.53038496
96	0xbf5fc13c	-0.8740423
97	0xbe858aa6	-0.26082343
98	0xbd456cd1	-0.04819948
99	0xbe39fe8b	-0.18163507
100	0xbfa1e211	-1.2647115
101	0xbfa2d974	-1.2722611
102	0xbff94607	-1.9474496
103	0xbf492c23	-0.7858297
104	0xbfd0fa83	-1.632645
105	0x3ee4f2ec	0.44716585
106	0x3f5cf2d3	0.8630802
107	0xbfc828f2	-1.5637496
108	0xbf12e5be	-0.5738181
109	0xbf70d2e6	-0.94071805
110	0xbf7de3ae	-0.99175537
111	0xbf526f4d	-0.8220108
112	0xbebe81f2	-0.37208515
113	0xc0053e47	-2.081926
114	0xbfa39729	-1.2780505
115	0xbfb58593	-1.4181389
116	0xbe595291	-0.21222903
117	0xc0132d0e	-2.299625
118	0x3eb65d70	0.35618162
119	0xbdf13a3a	-0.11778684
120	0xbf4dfdf1	-0.8046561
121	0xbf74f291	-0.95682627
122	0x3ede64f1	0.43436387
123	0x3e1d7a9a	0.153788
124	0xbf202801	-0.6256104
125	0x3f195510	0.5989542
126	0xbfc7bf59	-1.560527
127	0x3efc9b36	0.49337167

gnn_node.virtualnode_embedding.weight f4 [1, 128]
0	0xbf083ee4	-0.53220963
1	0xbefe741a	-0.49697953
2	0xbf505995	-0.8138669
3	0xbf00c169	-0.5029512
4	0xbeb0253d	-0.3440341
5	0xbf6cc109	-0.9248205
6	0xbf00ca79	-0.5030895
7	0xbf26750a	-0.6502234
8	0xbf0ec773	-0.55773085
9	0xbe186e06	-0.1488572
10	0xbd771b50	-0.06032878
11	0xbf1f8b2c	-0.62321734
12	0xbe9b21a6	-0.3029911
13	0xbf9cf587	-1.2262429
14	0xbf610f3a	-0.8791386
15	0xbe07bc1a	-0.13255349
16	0xbe966999	-0.2937744
17	0xbe6b6d01	-0.229908
18	0xbf6b86cc	-0.9200256
19	0xbe882c45	-0.26596275
20	0xbeaac240	-0.33351326
21	0xbe3c7eff	-0.1840782
22	0xbd46c383	-0.0485263
23	0xbc9efab3	-0.019406652
24	0xbebc763b	-0.36808953
25	0xbec0fa1f	-0.37690827
26	0xbde30cb3	-0.110864066
27	0xbe5acfd8	-0.21368349
28	0xbefb213c	-0.49048793
29	0xbebfac0d	-0.37435952
30	0xbdb33c7b	-0.0875177
31	0xbc80a954	-0.015705742
32	0xbe4fdaff	-0.20298384
33	0xbeaf9ae1	-0.3429785
34	0xbf47409d	-0.7783297
35	0xbec3a9a0	-0.3821535
36	0x3e0b28a9	0.1358973
37	0xbf100b72	-0.56267464
38	0xbf3a269b	-0.7271516
39	0xbeb58b93	-0.3545805
40	0xbe863bf8	-0.26217628
41	0xbecb1215	-0.39662233
42	0xbf814321	-1.0098611
43	0xbecf3d43	-0.40476426
44	0xbe5b9fbf	-0.21447657
45	0xbed5303c	-0.41638362
46	0x3e0b7399	0.13618316
47	0xbea3b7e7	-0.31976244
48	0xbf660704	-0.89854455
49	0xbe9ba918	-0.30402446
50	0xbeb37dd5	-0.3505694
51	0xbed3f650	-0.4139886
52	0xbeb7c2f4	-0.35890925
53	0x3d594279	0.05304191
54	0xbf0355dc	-0.51302886
55	0xbe25764a	-0.16158405
56	0xbe841806	-0.25799578
57	0xbf1af482	-0.6052934
58	0xbf67ab46	-0.9049572
59	0xbf266d8a	-0.65010893
60	0xbe9e2271	-0.30885652
61	0xbe9f72b5	-0.31142202
62	0xbeba824d	-0.36427537
63	0xbeac3957	-0.33637497
64	0xbfb47d37	-1.4100713
65	0xbd4fea85	-0.050760765
66	0xbf267cac	-0.65033984
67	0xbf2fa9ea	-0.68618643
68	0xbee83ae0	-0.45357418
69	0xbf4b97e9	-0.7952867
70	0xbf2466b8	-0.64219236
71	0x3c95f681	0.018306019
72	0xbef271d9	-0.47352484
73	0xbf003806	-0.50085485
74	0xbec26760	-0.37969494
75	0xbeecfb37	-0.46285412
76	0xbef44008	-0.47705102
77	0xbeb90569	-0.3613694
78	0xbeeca3ed	-0.46218815
79	0xbed7118c	-0.42005575
80	0xbe9d5a20	-0.30732822
81	0xbd2a22b3	-0.041536998
82	0xbed9ecec	-0.4256357
83	0xbf9916dc	-1.1960101
84	0xbbc9f2ce	-0.006162978
85	0xbe9984a6	-0.29984015
86	0xbee69c4e	-0.45041126
87	0xbf11f8d4	-0.57020307
88	0xbe81e1be	-0.2536754
89	0xbdfc2fc9	-0.12313802
90	0xbed0f7f1	-0.40814164
91	0xbecbaf66	-0.39782256
92	0xbe208ac8	-0.15677941
93	0xbe347e8e	-0.17626402
94	0xbee5534f	-0.44790122
95	0xbe701dc7	-0.23448859
96	0xbee4ce2e	-0.44688553
97	0xbef2d7d3	-0.47430286
98	0xbec3fdac	-0.38279474
99	0xbeb3fee6	-0.3515541
100	0xbef16edb	-0.4715489
101	0xbea2573c	-0.3170718
102	0xbce9adb6	-0.028525215
103	0x3d91bc84	0.071160346
104	0xbb8a2dc4	-0.0042168815
105	0xbf4ec54e	-0.80769813
106	0xbf4570d7	-0.77125305
107	0xbf36a0e1	-0.7133923
108	0xbe33a53a	-0.17543498
109	0xbf15f662	-0.58579075
110	0xbecb1e1c	-0.3967141
111	0xbf14b812	-0.5809337
112	0xbe89ec18	-0.26937938
113	0xbe7d267e	-0.24721715
114	0xbdb5f605	-0.08884815
115	0xbe366f53	-0.17815904
116	0xbf5d202a	-0.86377203
117	0xbf7291b7	-0.94753593
118	0xbdb3a80e	-0.08772288
119	0xbed7de78	-0.42161918
120	0xbed30bc4	-0.41219914
121	0xbedeca2b	-0.43513617
122	0xbf0bebc3	-0.5465662
123	0xbe5091f5	-0.20368178
124	0xbebdd92a	-0.37079746
125	0xbf0317e4	-0.5120833
126	0xbdb41690	-0.08793366
127	0xbebecaf6	-0.37264222

gnn_node.convs.0.mlp.0.weight f4 [256, 128]
0	0x3cfe3532	0.031031225
1	0xbf83040b	-1.0235609
2	0xbfb676ed	-1.4255043
3	0xbf24328e	-0.6413964
4	0x3e1839ba	0.14865771
5	0xbf2a8977	-0.66616005
6	0xbe569f72	-0.20959261
7	0xbf830361	-1.0235406
8	0xbea89b79	-0.32931116
9	0x3ccc28ce	0.024921801
10	0xbeffc967	-0.49958345
11	0x3db35c5c	0.087578505
12	0x3d1a9c03	0.03774644
13	0xbdcd7c57	-0.100334816
14	0x3d823234	0.06357232
15	0xbd03ebc5	-0.03220727
16	0xbf28a9d2	-0.65884125
17	0xbe5cd08c	-0.2156393
18	0xbea38e9b	-0.31944737
19	0x3d059d8f	0.032620963
20	0xbf4be627	-0.7964806
21	0xbc9c8da6	-0.019110512
22	0x3ea8e39c	0.32986152
23	0xbd268b6f	-0.040660318
24	0xbddae3bf	-0.1068797
25	0xbe102be0	-0.14079237
26	0x3e0767f0	0.13223243
27	0xbd123311	-0.035693232
28	0xbfaba329	-1.3409168
29	0x3e79980d	0.24374409
30	0x3ccb5d3e	0.024824735
31	0x3dff69c4	0.12471345
32	0xbf9b67c4	-1.2141042
33	0xbdf74d14	-0.12075248
34	0xbdda460a	-0.1065789
35	0x3eba34d4	0.3636843
36	0xbf4e9c00	-0.8070679
37	0x3dbc9139	0.092073865
38	0xc04c6b3c	-3.194045
39	0xbf25f42d	-0.6482571
40	0xbc234768	-0.009965755
41	0x3ea52aa8	0.32259107
42	0xbe1119f5	-0.14170058
43	0x3e3c235a	0.1837286
44	0x3ec31fc6	0.3811018
45	0x3f50e5fa	0.81600916
46	0x3e06e0d0	0.13171697
47	0xbde3e843	-0.11128285
48	0x3f25d52c	0.647784
49	0xbdb8fc5f	-0.09032511
50	0x3f2732d7	0.6531195
51	0xc03995d4	-2.8997698
52	0xbf63db15	-0.8900617
53	0xbee9675d	-0.45586672
54	0xbd8d4857	-0.06898563
55	0xbcd4d530	-0.025980562
56	0x3e2b6f52	0.16741684
57	0x3e1becbf	0.1522703
58	0xbedcf9e8	-0.43159413
59	0xbeae118a	-0.33997756
60	0x3d264060	0.040588737
61	0xbd2a835b	-0.041629177
62	0xbeebe70a	-0.46074706
63	0xbe3dfbd5	-0.18553098
64	0xbe62b4aa	-0.2213923
65	0xbdf59cf9	-0.11992831
66	0x3c4b1678	0.012395494
67	0xbd5609b0	-0.052255332
68	0x3e13b582	0.14424708
69	0xbd9f1c64	-0.07769087
70	0xbea042a4	-0.31300843
71	0x3c0d4be0	0.008624047
72	0xbd1cce1a	-0.03828249
73	0x3d0cf03e	0.0344088
74	0xbd6bf663	-0.05760802
75	0xbf16f9a2	-0.5897466
76	0x3dd0b436	0.101906225
77	0xbfaa8c3d	-1.3324047
78	0xbfc2863d	-1.5197216
79	0xbd1aebd5	-0.037822563
80	0x3d8a2560	0.0674541
81	0x3dc9e93d	0.0985894
82	0x3c17e966	0.009271955
83	0xbc227742	-0.009916129
84	0xbe4154e4	-0.1888004
85	0x3d792a84	0.06083156
86	0x3e06418c	0.13110942
87	0x3f06421a	0.5244461
88	0xbdd4baef	-0.10387217
89	0xbabdeeff	-0.0014490782
90	0x3da133bb	0.07871195
91	0xbdb95d54	-0.09051004
92	0xc04cfd5b	-3.2029636
93	0x3e82e1ae	0.25562805
94	0x3dc55735	0.09635774
95	0xbdbe5594	-0.092936665
96	0x3dfbe5b9	0.122996755
97	0xbf92b0ae	-1.1460168
98	0xbf16d9df	-0.58926195
99	0xbe57745b	-0.2104048
100	0x3d4a3b19	0.049372766
101	0x3dba5878	0.09098905
102	0xbdc727f9	-0.09724421
103	0x3cccf6aa	0.025019962
104	0x3d147468	0.036243826
105	0x3d1df21b	0.038560968
106	0xba846e98	-0.001010376
107	0xbd88b70c	-0.066755384
108	0x3e42f624	0.19039208
109	0xbdb74add	-0.08949826
110	0x3f05ccf5	0.52265865
111	0xbcf9679a	-0.030444909
112	0x3e88050d	0.26566353
113	0x3d8937d6	0.06700103
114	0xbaeabb9f	-0.0017908699
115	0x3bb1d367	0.0054268125
116	0xbea875a7	-0.32902262
117	0x3e25f70e	0.16207525
118	0xbc83e125	-0.016098568
119	0xbf177629	-0.59164673
120	0x3eb7fa4c	0.3593315
121	0xc063a50a	-3.5569482
122	0x3bb1cc1c	0.005425943
123	0x3de452b1	0.11148585
124	0x3ea08dc2	0.31358153
125	0xbef0a0f3	-0.46997795
126	0x3dea917a	0.11453529
127	0xbedf9cfc	-0.43674457
128	0xbd492d3f	-0.049115416
129	0xbcae4bdc	-0.021276407
130	0xbeb4a1db	-0.35279736
131	0x3f097b23	0.53703517
132	0x3dd09e4f	0.10186445
133	0x3e346cfe	0.17619702
134	0x3f1ee6a5	0.62070686
135	0x3f491fd1	0.78564173
136	0xbe69b9c9	-0.22824778
137	0xbd7a3eca	-0.061095037
138	0xbf452b64	-0.77019334
139	0x3da86919	0.08223171
140	0xbdb7e1b2	-0.08978595
141	0x3d76be25	0.06023993
142	0x3d8adb79	0.06780142
143	0xbd25dabf	-0.040491816
144	0xbe5be6a9	-0.21474709
145	0xbde8a105	-0.11358837
146	0x3eae553d	0.34049407
147	0x3d26a979	0.040688965
148	0xbf2675d7	-0.6502356
149	0x3f9d5ae0	1.2293358
150	0x3e29d380	0.16584587
151	0xbd1d492d	-0.038399864
152	0xbc661a03	-0.014044288
153	0xbca5c1c9	-0.020234006
154	0x3d2bea55	0.041971523
155	0xbcf7d24c	-0.030251645
156	0xbeb27ef7	-0.3486249
157	0xc00affe4	-2.1718683
158	0xbf18eaf8	-0.59733534
159	0xbb9e8d37	-0.0048386115
160	0xbe4aa20d	-0.1978838
161	0xbd1ec637	-0.03876325
162	0x3d965bfe	0.07341765
163	0xbf8be553	-1.0929359
164	0xbf2cda72	-0.6752082
165	0x3baa4ff9	0.0051975218
166	0x3f90f3a1	1.132435
167	0xbc025b13	-0.007956284
168	0x3d2c140b	0.042011302
169	0x3f341341	0.7034188
170	0xbda948af	-0.082658164
171	0x3d80410e	0.06262408
172	0xbf12f0f3	-0.5739891
173	0x3f460b9e	0.77361476
174	0x3ce37fd6	0.027770918
175	0xbd0ffa66	-0.035150908
176	0x3fa8e3a7	1.3194474
177	0xbd9e8033	-0.07739296
178	0x3e1f10a4	0.15533692
179	0x3e1c4de6	0.15264091
180	0x3edae4c6	0.42752665
181	0xbe6aef87	-0.22942935
182	0x3c305248	0.010761805
183	0xbda06cdd	-0.07833264
184	0xbd869143	-0.06570675
185	0xbd1ddae8	-0.038538843
186	0xbf51f033	-0.8200714
187	0x3eba011e	0.36328977
188	0xbdd761ef	-0.10516726
189	0xbf02af50	-0.51048756
190	0x3e33e95c	0.17569488
191	0xbd2d4e2a	-0.04231087
192	0x3dbda510	0.09259999
193	0x3dde3b7d	0.1085119
194	0xbd8a6800	-0.06758118
195	0x3d1d9b9b	0.038478475
196	0x3bcccf56	0.0062503023
197	0xbe8d9e5c	-0.2765988
198	0xbe52bd0a	-0.20579925
199	0x3d67f856	0.056633316
200	0x3d115bfa	0.035488106
201	0xbd7a8e3f	-0.061170813
202	0x3b68c7d3	0.0035519495
203	0xbf2c3659	-0.6727043
204	0x3f951595	1.1647211
205	0xbda8eec4	-0.08248666
206	0x3dfab682	0.12241842
207	0xbf0c4436	-0.5479158
208	0x3c015bfc	0.007895466
209	0xbd18e190	-0.03732449
210	0xbd90881d	-0.070572115
211	0x3dfb5c16	0.122734234
212	0xbdca5633	-0.098797224
213	0x3e6a0042	0.22851661
214	0xbf8b52ca	-1.088464
215	0xbe5102b2	-0.20411184
216	0x3d47d6c4	0.0487888
217	0xbf4415b9	-0.76595646
218	0x3d99f9a8	0.07518321
219	0x3e180b30	0.14848018
220	0xbee1b8d9	-0.4408634
221	0xbc908fb1	-0.017646642
222	0xbccb2d5f	-0.024801908
223	0xc047d9ea	-3.1226754
224	0xbe7860b1	-0.24255635
225	0xc006348e	-2.0969577
226	0x3ffb2372	1.9620192
227	0x3dd5d3b8	0.10440773
228	0xbb9ca73f	-0.0047806795
229	0xbd29cfd9	-0.041457985
230	0x3db51137	0.08841174
231	0x3da46008	0.08026129
232	0xbd84509e	-0.06460689
233	0x3e197fc0	0.14990139
234	0xbe3990e3	-0.18121676
235	0x3db51a96	0.088429615
236	0xbcb961d9	-0.022629665
237	0xbd20fc92	-0.03930337
238	0x3f2a0c48	0.6642499
239	0x3c263997	0.010145566
240	0x3f5b3b1c	0.8563707
241	0xbd403b14	-0.04693134
242	0x3d50a52d	0.050938774
243	0x3d44c8a4	0.04804291
244	0x3d981d2f	0.07427441
245	0xbd3972ee	-0.04527562
246	0x3be6ba52	0.007041254
247	0xbd5b0eb9	-0.053480837
248	0x3e55406e	0.20825359
249	0x3f70a51d	0.9400194
250	0xbdaf03ec	-0.0854567
251	0xbe6f2f80	-0.23357964
252	0x3e1b36ef	0.15157674
253	0x3eaf60de	0.3425359
254	0x3d8f76cb	0.0700508
255	0xbcd17c35	-0.025571922

gnn_node.convs.0.mlp.0.bias f4 [256]
0	0xbdac8013	-0.08422866
1	0xbc7395fd	-0.014867303
2	0x3ce8f922	0.028439108
3	0xba9b1bb4	-0.0011833818
4	0xbd71b782	-0.059012897
5	0xba0e313f	-0.00054242084
6	0x39eb14f2	0.00044838298
7	0x3d995bec	0.07488236
8	0xbd82d377	-0.0638799
9	0x3d0a4f63	0.033767115
10	0x3d17e005	0.037078876
11	0xbd9d96ac	-0.07694754
12	0xbd88d1eb	-0.06680664
13	0xbd390115	-0.045167048
14	0x3cdd4ee5	0.027015159
15	0x3d930fe2	0.07180764
16	0x3d1e3289	0.038622413
17	0xbd410eac	-0.047133133
18	0xbc835c0b	-0.0160351
19	0xbd5a9550	-0.05336505
20	0x3d7e2c82	0.062054165
21	0x3d7a6d0c	0.06113915
22	0xbcaf0894	-0.021366395
23	0xbd402212	-0.046907492
24	0xbd134198	-0.035951227
25	0x3d5a6c95	0.05332621
26	0xbda375f8	-0.07981485
27	0x3b2cbe23	0.0026358448
28	0x3d0202d1	0.031740967
29	0xbdabb283	-0.08383658
30	0x3d379ba2	0.044826157
31	0xbdaab6f7	-0.08335679
32	0xbd5ef7e8	-0.05443564
33	0x3d949061	0.072541006
34	0xbd768b51	-0.060191456
35	0x3d8614d1	0.06546939
36	0x3db269fb	0.087116204
37	0xbbfe9ad4	-0.007769922
38	0xbd607ac7	-0.05480459
39	0xbd71367e	-0.05888986
40	0xbaf94159	-0.0019016668
41	0xbc833fe1	-0.01602167
42	0xbd54fd21	-0.051999215
43	0x3cfa3669	0.030543523
44	0xbdc3d99b	-0.09562989
45	0x3d98a4fc	0.07453343
46	0x3d32e942	0.043679483
47	0x3d24490e	0.040108733
48	0xbc7dba9c	-0.015486386
49	0xbc4d2844	-0.012521807
50	0x3d9d5c12	0.07683577
51	0x3da38829	0.07984955
52	0xbda90e60	-0.08254695
53	0x3b4b5267	0.0031024457
54	0x3d5e9783	0.05434371
55	0x3c54dadd	0.012991634
56	0x3d819dd4	0.063289315
57	0x3da4fdf5	0.08056251
58	0xbc965834	-0.018352605
59	0x3c0652d1	0.008198456
60	0xbd8536c4	-0.06504586
61	0x3d91e2b1	0.07123316
62	0x3a2a18ac	0.0006488662
63	0x3cc8d157	0.024513884
64	0xbda372ef	-0.07980906
65	0x3d697e4e	0.05700522
66	0x3c1814e7	0.009282327
67	0xbd098681	-0.03357554
68	0xbd4bc1f8	-0.04974553
69	0xbd9a80ca	-0.07544096
70	0x3d848a29	0.064716645
71	0x3ce713ad	0.028207624
72	0x3d10b369	0.03532735
73	0xbd5ffc32	-0.05468387
74	0x3d8ead08	0.06966597
75	0xbc5a3e0c	-0.013320457
76	0x3d9c98a9	0.07646305
77	0xbd808b82	-0.06276609
78	0xbc7b4584	-0.015336398
79	0x3d8e91ee	0.06961428
80	0xbd80f0b2	-0.06295909
81	0xbd1c5905	-0.038170833
82	0xbcfaa5cc	-0.030596636
83	0x3d2cd5f7	0.04219624
84	0x3da9f76b	0.08299144
85	0x3d07a09d	0.033112157
86	0x3c92b068	0.017906383
87	0xbc490b33	-0.0122707365
88	0xbc3d857c	-0.01156747
89	0xbd898bcc	-0.06716117
90	0xbdb22d64	-0.08700064
91	0xbd096f82	-0.033553608
92	0xbcb0a89d	-0.021564776
93	0xbd193973	-0.037408303
94	0xbc77b22a	-0.015118161
95	0x3ce9e686	0.028552305
96	0x3cf0fecf	0.029418377
97	0x3a8b2cda	0.0010618225
98	0x3d30e6ba	0.043188788
99	0xb99fb432	-0.000304611
100	0x3a95be8f	0.0011424589
101	0xbd575b6f	-0.052577432
102	0xbd51f354	-0.051257446
103	0xbd831f32	-0.064024344
104	0x3d605668	0.054769903
105	0x3d1b2f3c	0.037886843
106	0x3e05c260	0.1306243
107	0xbd917d6d	-0.07104001
108	0xbd6258cb	-0.05526046
109	0xbd81f427	-0.063453965
110	0xbd81e04d	-0.0634161
111	0x3d5b4b70	0.05353874
112	0xbce69cc3	-0.028150922
113	0x3d974fe4	0.07388285
114	0x3d8793fa	0.06620021
115	0xbd9d4d71	-0.076807864
116	0x3d9b4afd	0.07582662
117	0x3d734cb0	0.059399307
118	0xbb39796a	-0.0028301128
119	0xbbf8b49c	-0.0075898897
120	0x3c49f0f4	0.012325514
121	0xbc3a9959	-0.0113891
122	0x3d59549c	0.053059205
123	0xbd487856	-0.048942886
124	0xbd9ea106	-0.077455565
125	0xbd178c2e	-0.03699892
126	0xbd8edc1a	-0.06975575
127	0x3d864054	0.06555238
128	0xbc8016a3	-0.015635794
129	0x3d35a050	0.04434234
130	0xbda74607	-0.081676535
131	0xbd96e761	-0.07368351
132	0x3d59c3db	0.053165298
133	0x3d9eeae7	0.07759648
134	0x3d2baa48	0.04191044
135	0xbd79126b	-0.06080858
136	0x3d6c8f5a	0.0577539
137	0xbd5b9419	-0.053608034
138	0x3cbfc5b2	0.023409698
139	0x3b623b4d	0.003452021
140	0x3c46ed34	0.012141515
141	0x3d33d188	0.043900996
142	0xbd81ea71	-0.06343544
143	0xbda8d3f8	-0.08243555
144	0xbc40fc55	-0.011778911
145	0x3d83e48c	0.06440076
146	0x3d550479	0.05200622
147	0xba2f02c8	-0.00066761347
148	0x3d68b0d1	0.05680925
149	0xbd961338	-0.073278844
150	0x3c50a8f8	0.012735598
151	0x3d8b324e	0.06796704
152	0x3db2ccc8	0.08730465
153	0xbc241349	-0.010014364
154	0xbd781742	-0.060569055
155	0x3b71a438	0.0036871564
156	0x3d2c73fc	0.0421028
157	0x3d2d31e2	0.0422839
158	0x3d527f4b	0.051390927
159	0xbd883981	-0.06651593
160	0x3be7424c	0.0070574638
161	0x3d855ae6	0.06511478
162	0x3d2356a9	0.039877567
163	0x3cb591ec	0.022164308
164	0xbd37ed31	-0.044903938
165	0x3c683f8b	0.014175306
166	0xbd5e087d	-0.054207314
167	0x3d00f0d9	0.03147969
168	0x3d8aad95	0.067713894
169	0x3d3bc802	0.04584504
170	0xbd89dc83	-0.067315124
171	0x3d32f450	0.043690026
172	0x3d6a8094	0.057251528
173	0xbc71d2f0	-0.014759764
174	0xbd25ac75	-0.04044767
175	0xbc56db43	-0.0131137995
176	0xbc62a963	-0.01383433
177	0xbdc202eb	-0.09473213
178	0x3d3aac94	0.04557474
179	0xbd08eb95	-0.033427794
180	0x3b2c1246	0.002625601
181	0xbcbda5d4	-0.023150362
182	0x3b3e663d	0.0029052638
183	0xbc869d5c	-0.016432457
184	0x3c8edb2b	0.017438492
185	0xbbe77499	-0.00706346
186	0x3cc6efbc	0.024284236
187	0xbdb03cbb	-0.086053334
188	0x3ca615cc	0.020274065
189	0xbd4be2e2	-0.04977692
190	0x3d6fa194	0.058503702
191	0x3cc33cf1	0.02383277
192	0x3dad0b57	0.084494285
193	0x3db48084	0.08813575
194	0xbd37bf01	-0.04485989
195	0xbdb50189	-0.088381834
196	0x3b4029e1	0.0029321837
197	0x3de9e80d	0.11421213
198	0xbc417934	-0.011808682
199	0xbd9836dd	-0.07432339
200	0xbcd1c5ca	-0.025607008
201	0xbdb7148f	-0.08939468
202	0xbd8ee19e	-0.06976627
203	0x3c031532	0.008000659
204	0xbdb69be7	-0.08916455
205	0x3bb3bf4b	0.0054854504
206	0x3cf2e73e	0.02965128
207	0xbd57f204	-0.05272104
208	0x3d2d1661	0.04225767
209	0x3b3f2e2e	0.0029171812
210	0xbd90f0a7	-0.07077151
211	0x3d8a7c4b	0.06761988
212	0xbca153c2	-0.01969326
213	0xbda875b0	-0.08225572
214	0x3d42eb9c	0.047587976
215	0xbcee7f31	-0.029113384
216	0x3d83b6a9	0.06431324
217	0x3c8b0ee7	0.01697488
218	0xbd9ab902	-0.07554819
219	0xbda6f9fd	-0.0815315
220	0x3c80f4f8	0.01574181
221	0x3c308927	0.010774887
222	0x3c6e92d7	0.014561377
223	0xbc161dd6	-0.009162387
224	0xbd486d94	-0.048932627
225	0x3c0f33d0	0.00874038
226	0x3c2ca562	0.010537477
227	0x3d80cc05	0.06288914
228	0x3d2d74b0	0.04234761
229	0x3d22cf03	0.039748203
230	0xbd78567f	-0.060629364
231	0x3de8d245	0.11368231
232	0x3d5fa126	0.054597043
233	0x3cbb909e	0.022896107
234	0x3d98fc27	0.07469969
235	0xbda9e1e2	-0.08295037
236	0xbd73122c	-0.059343502
237	0x3c83807c	0.016052477
238	0x3be9464c	0.0071189757
239	0x3c84aceb	0.016195735
240	0x3c950e6b	0.018195352
241	0xbb04747a	-0.0020211027
242	0xbd4ded86	-0.050275348
243	0xbc9e6cbf	-0.019338964
244	0x3d927c09	0.07152564
245	0x3d589048	0.052871972
246	0x3d8c51cd	0.0685154
247	0x3d76850e	0.060185485
248	0xbd3914e8	-0.045185953
249	0xbd02b8ea	-0.03191463
250	0xbd318607	-0.04334071
251	0xbd936fff	-0.07199096
252	0xbd3f68a5	-0.046730656
253	0xbc4035cb	-0.011731575
254	0x3d2a2ef9	0.041548703
255	0x3d20717f	0.03917074

gnn_node.convs.0.mlp.1.weight f4 [256]
0	0x3fc07dec	1.5038428
1	0x3f33887c	0.70130134
2	0x3f075780	0.5286789
3	0x3efd137e	0.49428934
4	0x3ee572e6	0.44814223
5	0x3fd38e82	1.6527865
6	0x3fb8da69	1.4441653
7	0x3de76c2f	0.11299931
8	0x3fe9d07b	1.8266748
9	0x3f96d48d	1.1783615
10	0x3f821e9b	1.016559
11	0x3fbe6075	1.4873186
12	0x3ffdf91a	1.9841645
13	0x3eea2e92	0.45738655
14	0x3f8bc2d9	1.0918838
15	0x3f8363cc	1.026483
16	0x3fbd5fec	1.4794898
17	0x3f106ad5	0.5641301
18	0x3ed39cb5	0.41330495
19	0x3e7d902d	0.2476203
20	0x3e28337e	0.16425893
21	0x3fe10abd	1.7581402
22	0x3fce0299	1.6094543
23	0x3f6bbcda	0.9208504
24	0x3f0803d9	0.5313087
25	0x3fb7edc2	1.4369433
26	0x3fb234ec	1.39224
27	0x3eee58c8	0.4655211
28	0x400717be	2.110824
29	0x3fadd8ed	1.3581825
30	0x3f91b7ce	1.1384218
31	0x3f820871	1.0158826
32	0x3e927df3	0.28611717
33	0x3ea2ff55	0.31835428
34	0x3b50c17f	0.0031853614
35	0x3f0a257b	0.5396344
36	0xbba4c61e	-0.0050285
37	0x3f304b5a	0.6886498
38	0xbad12212	-0.0015955588
39	0xbc2ed88b	-0.010671745
40	0x400d7b92	2.2106671
41	0x3f9ae77f	1.2101897
42	0x40140d90	2.3133278
43	0x3fad039d	1.3516728
44	0x3fdd6402	1.7296145
45	0x3f0372df	0.51347154
46	0x4000ea8b	2.0143154
47	0x3fbd68bc	1.4797587
48	0x3dae04c7	0.08497005
49	0x40052968	2.0806522
50	0x3f609b66	0.8773712
51	0xbc8a772e	-0.016902532
52	0x3f2c8e09	0.6740423
53	0x3fd86ddb	1.6908525
54	0x3f2fb204	0.68631005
55	0x3f97f1fd	1.1870724
56	0x3f9fe034	1.2490296
57	0x3f0b8705	0.545029
58	0x3e10030d	0.14063664
59	0x3d113d33	0.035458755
60	0x3f7dfcf2	0.9921409
61	0x3f86723b	1.050361
62	0x3c8c4707	0.017123712
63	0x402cf796	2.7026114
64	0x3f1e9503	0.61946124
65	0x3f5011df	0.8127727
66	0x3c2fea61	0.010737033
67	0x3e073964	0.13205487
68	0x3f1755e0	0.5911541
69	0x3f7234bf	0.94611734
70	0x400e509c	2.22367
71	0x3f5b5a78	0.8568492
72	0x3e8b4e88	0.27208352
73	0x3f091ca5	0.53559333
74	0x3f1fe186	0.62453496
75	0x3fc05c90	1.5028248
76	0x3c484cae	0.012225313
77	0x3efca15f	0.49341866
78	0x3f9ac28a	1.2090619
79	0x4003c957	2.0591638
80	0x401c3987	2.4410112
81	0x3fb54891	1.416277
82	0x3fc8b066	1.5678833
83	0x3dc01a58	0.09380025
84	0x3fb71b13	1.4305137
85	0x4004e0ca	2.07622
86	0x3fc52646	1.5402305
87	0x3ff717ae	1.9304101
88	0x3fc5e584	1.5460668
89	0x3e810148	0.2519629
90	0x3fc7ca81	1.5608674
91	0x3ff7a12d	1.9346062
92	0x400efce3	2.234185
93	0x3fc1615b	1.5107836
94	0x3fdc2e3a	1.7201607
95	0xbbda83db	-0.0066685504
96	0x3be29ef7	0.0069159227
97	0x3ec4f418	0.3846748
98	0x3fcb7d4a	1.589761
99	0x3f957d68	1.1678896
100	0x3feccb0a	1.8499463
101	0x3fa8d02f	1.3188533
102	0x3f6b8674	0.92002034
103	0x3c154ca7	0.009112514
104	0x3ff1ff10	1.8905964
105	0x3f1bb7ee	0.6082753
106	0x3fd9ebe7	1.7025117
107	0x3ff2a770	1.8957348
108	0xbbdca774	-0.006733829
109	0x3e09a217	0.13440739
110	0x3f927bb4	1.1444001
111	0x4003ffcb	2.0624874
112	0x3df6c6fe	0.120496735
113	0x3f99ab38	1.2005377
114	0x3f7ce45e	0.9878596
115	0x3fbc520d	1.471254
116	0x3f9a3b87	1.2049416
117	0x3fd5a5eb	1.6691259
118	0x3f7238f9	0.94618183
119	0x3f9037ee	1.1267068
120	0x3f7c858b	0.9864127
121	0x3ff18183	1.8867649
122	0x3b14e0d9	0.0022717027
123	0x3f20c1ca	0.627957
124	0x3fc40dff	1.5316771
125	0x3ff9d68f	1.9518603
126	0x3fa29b78	1.2703695
127	0x3f9b5fcf	1.2138613
128	0x3fcbc8e7	1.5920686
129	0x3f4900f6	0.7851709
130	0x4004bf23	2.074166
131	0x3fe2081c	1.7658725
132	0x3f4adcf4	0.792434
133	0x3f8eb1b2	1.1147978
134	0x3fd6a38a	1.6768658
135	0x3eca3410	0.39492846
136	0x3ddeba2d	0.10875354
137	0x4002530e	2.0363193
138	0x3fbf17ad	1.49291
139	0x3f1945e9	0.598723
140	0x3d3170db	0.043320518
141	0x3fb78de4	1.4340177
142	0x3f9caa85	1.2239538
143	0x3f5b0af7	0.85563606
144	0x400c7590	2.1946754
145	0x3e73f54c	0.23824042
146	0x400207ca	2.0317254
147	0x3ef0a909	0.47003964
148	0x3fbed840	1.4909744
149	0x3bbae184	0.005703153
150	0x3e449686	0.19198045
151	0x3cb42d0c	0.021994136
152	0x3f949ab2	1.1609709
153	0x3d0e8060	0.034790397
154	0x3fa2e87b	1.2727197
155	0x3fdd44e2	1.7286646
156	0x3fd8dff2	1.6943343
157	0x3fb24921	1.3928567
158	0x3f82e813	1.0227073
159	0x3fd50985	1.664353
160	0x3fc7660a	1.5578015
161	0x3fc9cc66	1.5765502
162	0x3f5d1188	0.86354876
163	0x3feaca1e	1.8342931
164	0x3e7fb202	0.24970248
165	0x3f7b7686	0.9822773
166	0x3fe27669	1.7692386
167	0x3e94f1c1	0.29090694
168	0x3fe631e3	1.7983974
169	0x3f0436bc	0.5164602
170	0x3fc147ba	1.5100014
171	0x3e99060b	0.29887423
172	0x3f249be3	0.64300364
173	0x3f4425ab	0.76619977
174	0x3f956608	1.1671762
175	0x3ed381e9	0.4131005
176	0x3f82e9a2	1.0227549
177	0x3fff4da8	1.9945574
178	0x3d1905d0	0.03735906
179	0x3f29ec09	0.66375786
180	0x3896b7a0	7.18676e-05
181	0x3fcdfcf7	1.6092824
182	0x3e03f6cd	0.12887116
183	0x3f70af69	0.94017655
184	0x3fa53d58	1.2909346
185	0x3faf8eaf	1.3715419
186	0x4000fa61	2.015282
187	0x3fe50b48	1.7894068
188	0x3b8f941b	0.004381669
189	0x3ea7e628	0.32792783
190	0x3f7c902e	0.986575
191	0x3edb99cf	0.42890784
192	0x3fcfd733	1.6237549
193	0x3f94ee25	1.1635176
194	0x3c7c3689	0.015393862
195	0x3b1afecf	0.0023650413
196	0x3fc09b43	1.5047382
197	0x3fd9d46e	1.7017953
198	0x3ef7f4b9	0.48428896
199	0x3f09022b	0.53518933
200	0x3f7c5dfc	0.9858091
201	0x3f911a1a	1.133609
202	0x3fba15dd	1.4537922
203	0x3fdb21c1	1.7119676
204	0x3ff3510e	1.9009111
205	0x4003d05d	2.0595925
206	0x3f9856ad	1.1901451
207	0x3ef82fa1	0.48473838
208	0x3fab2571	1.3370801
209	0x3f5a5144	0.8528025
210	0x3fe88a95	1.8167292
211	0x3f4b5f3e	0.79442203
212	0x3f511035	0.81665355
213	0x3eda03d3	0.42581043
214	0x3e85650e	0.2605366
215	0x3e1990aa	0.14996591
216	0x3f770b8d	0.96502
217	0x3f414027	0.75488514
218	0x3fbb5b42	1.4637225
219	0x3e872821	0.26397803
220	0x3eebe74d	0.46074906
221	0x3df04e8d	0.11733732
222	0x3f9a189d	1.2038761
223	0x3e81fa1e	0.25386137
224	0x3faeadf5	1.3646837
225	0x3ff81be6	1.9383514
226	0x3ebc18f0	0.36737776
227	0x3cc24cfb	0.023718348
228	0x3f99a08b	1.2002119
229	0x3db3e89a	0.087845996
230	0x3f499853	0.78748053
231	0x4032f71a	2.796332
232	0x3fc84ed8	1.5649061
233	0x3fbc4376	1.4708087
234	0x3f2b8b9b	0.67009896
235	0x3da1140b	0.07865151
236	0x3fcd8f77	1.6059407
237	0x3fbcccfe	1.4750059
238	0x3f933052	1.1499121
239	0x3fe219d0	1.7664127
240	0x3f5c2480	0.85993195
241	0x40172a13	2.361943
242	0x3e850839	0.25982836
243	0x3fc3db8a	1.5301373
244	0x4012baa1	2.292641
245	0x3e7291b9	0.23688401
246	0x3feb208c	1.8369308
247	0x3f1ac590	0.60457706
248	0x40147092	2.3193707
249	0x3f076418	0.52887106
250	0x3f4b7d84	0.79488397
251	0x3f321bd0	0.6957369
252	0x3f3d8ffd	0.74047834
253	0x3fae9bef	1.3641337
254	0x3f3b3a5e	0.73135936
255	0x3febeea1	1.8432199

gnn_node.convs.0.mlp.1.bias f4 [256]
0	0x3f0ae9bd	0.54262906
1	0xbeb42df2	-0.35191303
2	0xbeda57a0	-0.42644978
3	0xbf6f1894	-0.9339688
4	0xbf0481bc	-0.5176046
5	0xbeea2146	-0.4572851
6	0xbf17de7f	-0.5932388
7	0xbe854f59	-0.260371
8	0xbe9346be	-0.2876491
9	0x3e3a82a7	0.18213902
10	0xbeaf662b	-0.34257635
11	0xbec39e8e	-0.38206905
12	0x3eab99a8	0.33515668
13	0xbe97ebb7	-0.29672024
14	0xbebd176d	-0.36931935
15	0xbdd57a49	-0.10423715
16	0xbf016488	-0.50544024
17	0xbf8b5c3c	-1.0887523
18	0xbf14616b	-0.5796115
19	0xbf16ae94	-0.58860135
20	0xbf272a88	-0.6529927
21	0xbf27dcb7	-0.6557116
22	0xbe3cd800	-0.18441772
23	0xbe40e616	-0.18837771
24	0x3e978870	0.2959628
25	0xbed5b126	-0.41736716
26	0xbf17a41c	-0.59234786
27	0x3e449b3d	0.19199844
28	0xbeece82e	-0.4627089
29	0x3e2e9c93	0.17051916
30	0xbf199f55	-0.60008746
31	0xbee0708e	-0.43835872
32	0xbf459256	-0.77176416
33	0xbf665713	-0.89976615
34	0xbdf3dac7	-0.11906963
35	0xbfc34ae5	-1.5257231
36	0xbe25c1e5	-0.16187246
37	0xbfa791fb	-1.3091425
38	0x3da949b2	0.082660094
39	0xbe426613	-0.1898425
40	0xbf060d84	-0.52364373
41	0xbe776b4e	-0.24162027
42	0xbe82e6c5	-0.25566688
43	0xbf13be8d	-0.5771263
44	0xbf1fd2b5	-0.6243089
45	0xbf6a373e	-0.9149054
46	0xbec5287a	-0.38507444
47	0xbef39b76	-0.47579545
48	0xbfbbad65	-1.4662291
49	0xbf045c7c	-0.5170362
50	0xbf018308	-0.5059056
51	0xbfa51c84	-1.2899327
52	0xbe6a8eef	-0.22906087
53	0xbed91ca9	-0.42404678
54	0xbcc1ec9e	-0.023672398
55	0xbf0e952f	-0.55696386
56	0xbea2b519	-0.31778792
57	0xbfa79ab9	-1.3094093
58	0xbc74d648	-0.014943667
59	0xbf25fb1a	-0.64836276
60	0xbdaefd7b	-0.08544441
61	0xbe688d03	-0.22710042
62	0xbf27ef24	-0.65599275
63	0xbee80f4f	-0.4532418
64	0x3c2d7eff	0.01058936
65	0xbe6c340e	-0.23066732
66	0xbecabed0	-0.39598703
67	0xbeae3caf	-0.34030673
68	0xbf12320a	-0.57107604
69	0xbdf967e8	-0.12178022
70	0xbe9c9098	-0.30579066
71	0x3e9229a9	0.2854741
72	0xbeffc583	-0.49955377
73	0xbf49b8a6	-0.78797376
74	0xbe882d06	-0.2659685
75	0xbf0d1fd3	-0.55126685
76	0xbedfe91c	-0.43732536
77	0xbf8a27ea	-1.0793431
78	0x3f4d1cef	0.80122274
79	0xbf04ffdc	-0.5195291
80	0xbf1d0442	-0.6133462
81	0xbec9f8ce	-0.39447635
82	0xbefa7604	-0.48918164
83	0x3dfdeea4	0.12399033
84	0xbe297c0a	-0.16551223
85	0xbecd29ea	-0.4007104
86	0xbeece919	-0.4627159
87	0xbefee036	-0.49780434
88	0xbda9b65a	-0.08286734
89	0xbf1252ec	-0.5715778
90	0xbe3943db	-0.18092291
91	0xbf2339cf	-0.63760084
92	0xbf1eaaac	-0.61979175
93	0xbea5296c	-0.32258165
94	0xbea1c444	-0.3159505
95	0xbd9c6a9a	-0.0763752
96	0x3ea2d7a3	0.31805143
97	0xbf785a0f	-0.9701242
98	0xbf0dbce3	-0.55366343
99	0xbf014720	-0.50499153
100	0xbe0f18ba	-0.13974276
101	0xbf05cc1a	-0.5226456
102	0xbf31567a	-0.6927258
103	0xbe3a0b64	-0.18168408
104	0xbf057caf	-0.5214338
105	0xbf9379c9	-1.1521541
106	0xbea73691	-0.32658818
107	0xbe43cb2d	-0.19120474
108	0xbef4feb0	-0.4785056
109	0xbd17ed43	-0.037091505
110	0x3e8ed176	0.2789418
111	0x3d883f5d	0.066527106
112	0xbf2abf8d	-0.66698533
113	0xbe9d87a1	-0.3076754
114	0xbcf6c62c	-0.030123793
115	0xbf05d924	-0.52284455
116	0xbf467ce9	-0.7753435
117	0xbf17c882	-0.59290326
118	0xbe3ab03c	-0.1823129
119	0xbeaeaa65	-0.34114376
120	0xbc4b9f48	-0.012428112
121	0xbefdd294	-0.4957472
122	0x3d263d03	0.04058553
123	0xbebafed4	-0.36522543
124	0xbea521cd	-0.3225235
125	0xbef4d42d	-0.47818127
126	0xbebb787e	-0.36615366
127	0xbe5eceb6	-0.21758541
128	0xbf2a3e50	-0.6650133
129	0xbea9d1e5	-0.3316795
130	0xbd9641dd	-0.07336781
131	0xbf13a1fe	-0.57669055
132	0xbeda0c5e	-0.4258756
133	0xbca37364	-0.019952483
134	0xbe4be466	-0.19911346
135	0xbf96ef5b	-1.1791795
136	0xbf1f711c	-0.62281966
137	0x3cde6cdc	0.027151518
138	0xbf25be4a	-0.64743483
139	0xbf6b74bd	-0.91975003
140	0x3ed43df9	0.4145353
141	0xbea70c21	-0.3262644
142	0xbf065580	-0.5247421
143	0xbe192de9	-0.1495892
144	0xbf0806b0	-0.53135204
145	0xbf1ad47a	-0.60480464
146	0xbecf8f55	-0.4053904
147	0xbe2f11c4	-0.17096621
148	0xbede9e80	-0.434803
149	0xbf08ec19	-0.53485256
150	0xbf12acfb	-0.572952
151	0x3e4a447d	0.19752689
152	0x3e1707b3	0.14749031
153	0xbf7042c7	-0.93851894
154	0x3cfabc43	0.030607348
155	0xbf1c062a	-0.60946906
156	0xbf0fcc49	-0.5617109
157	0x3cdea7fa	0.027179707
158	0xbf0c38d2	-0.547742
159	0xbed946fe	-0.42436975
160	0xbd9fde2a	-0.07806046
161	0xbf2b9ee5	-0.6703933
162	0xbe923524	-0.28556168
163	0xbf1c2cbe	-0.6100577
164	0xbf2e50d6	-0.68092096
165	0xbf003866	-0.5008606
166	0x3e084cd6	0.1331056
167	0xbe67477f	-0.22585867
168	0xbecf9cf4	-0.40549433
169	0xbede1f55	-0.4338328
170	0xbf16375b	-0.58678216
171	0xbdcb25d4	-0.099193245
172	0xbf644206	-0.89163244
173	0xbf40f8e7	-0.75379795
174	0xbedd8b05	-0.43270126
175	0x3f610d43	0.8791086
176	0xbec9313d	-0.39295378
177	0xbeb00d19	-0.34384993
178	0xbdbe6663	-0.092968725
179	0x3f3a58ff	0.7279205
180	0xbd8161d0	-0.063174844
181	0xbf000449	-0.5000654
182	0xbf80afcf	-1.0053653
183	0xbf2fa640	-0.6861305
184	0xbe855688	-0.2604258
185	0xbca8d362	-0.020608608
186	0x3d2ad08c	0.041702792
187	0xbe615570	-0.22005248
188	0xbedd665b	-0.43242154
189	0xbf3893cc	-0.7210052
190	0x3fb2ce90	1.3969288
191	0xbf0d0809	-0.55090386
192	0xbdf13bd5	-0.1177899
193	0xbeb1e6d9	-0.34746435
194	0x3db85311	0.09000219
195	0xbdf89ea0	-0.1213963
196	0xbeaddb90	-0.33956575
197	0xbe553a7a	-0.20823088
198	0xbf0699ea	-0.52578604
199	0xbf62a50d	-0.885331
200	0xbd4b70b6	-0.049668036
201	0xbea5e93f	-0.32404515
202	0xbdc2c0e9	-0.09509451
203	0x3d911256	0.070835754
204	0xbf185264	-0.5950072
205	0xbf1a96e3	-0.60386485
206	0x3ef940a6	0.48682135
207	0xbee3212f	-0.44361255
208	0xbf3306d6	-0.69932306
209	0xbe4def99	-0.2011093
210	0xbede142e	-0.4337477
211	0xbf531e16	-0.8246778
212	0xbf9e999d	-1.2390629
213	0xbf297077	-0.6618723
214	0xbf71cd94	-0.9445431
215	0xbf6e6f4c	-0.93138576
216	0xbf06208c	-0.5239341
217	0xbe50fcd5	-0.20408948
218	0xbf21b255	-0.6316274
219	0xbf283973	-0.6571266
220	0xbf692ffe	-0.91088855
221	0xbe699b81	-0.22813226
222	0xbf0bd80f	-0.54626554
223	0x3f15190f	0.5824136
224	0xbf050fec	-0.5197742
225	0xbe1a9388	-0.15095341
226	0xbda8c0a6	-0.0823987
227	0xbf79bff2	-0.9755851
228	0xbeb083bb	-0.34475502
229	0xbf0732b8	-0.52811766
230	0xbe863fed	-0.26220647
231	0xbda22679	-0.07917494
232	0xbf2e00bc	-0.6796987
233	0xbf0250a4	-0.509043
234	0xbf4241ba	-0.7588154
235	0xbf1c3604	-0.6101992
236	0xbf140d19	-0.57832485
237	0xbe31af57	-0.17352043
238	0xbdbf039c	-0.0932686
239	0xbe8fa110	-0.28052568
240	0xbe9c590d	-0.3053669
241	0x3ed25882	0.4108315
242	0xbdc176d1	-0.094464906
243	0xbeaf4e84	-0.3423959
244	0xbee5ce9d	-0.44884196
245	0xbf4525f5	-0.7701104
246	0xbefbd81e	-0.49188322
247	0xbf7e79a7	-0.99404377
248	0xbe5cb217	-0.21552311
249	0xbf81c2f3	-1.0137619
250	0xbf8d9c2e	-1.1063287
251	0x3ca4e6cb	0.020129582
252	0x3e188122	0.1489301
253	0xbe9bcfd2	-0.30431992
254	0xbea98b62	-0.33114153
255	0xbf033fec	-0.5126941

gnn_node.convs.0.mlp.1.running_mean f4 [256]
0	0x40feb290	7.959297
1	0xc065e9c3	-3.5923927
2	0xc124f7e2	-10.310518
3	0x411e1c34	9.881886
4	0x3f983ba7	1.1893204
5	0x40574983	3.3638618
6	0xc0183bb9	-2.3786452
7	0xbf60eef2	-0.878646
8	0x408f0dd7	4.4704394
9	0x3f7e4c66	0.99335325
10	0xbf2a0c0f	-0.6642465
11	0xc1014250	-8.07869
12	0x40d6a25e	6.70732
13	0x3ddf773d	0.10911415
14	0x404b346f	3.1750753
15	0x40b82c16	5.7553816
16	0xbf4cf547	-0.80061764
17	0x4092c827	4.5869327
18	0xc09c4d58	-4.8844414
19	0xc08c7d22	-4.390275
20	0xc02f72dc	-2.7413855
21	0xc103d0b8	-8.238457
22	0x412e213a	10.883112
23	0x409db1ee	4.92797
24	0xc0aafdb9	-5.343472
25	0xbf3d1191	-0.7385493
26	0xc0dab8ce	-6.835059
27	0x40f70f6e	7.7206335
28	0xc1198f1e	-9.597441
29	0xc094b38c	-4.6469173
30	0xc0dd75ca	-6.9206285
31	0x411ab8e2	9.670137
32	0x3fb90f6b	1.445783
33	0x40a6becb	5.21079
34	0x3fba90b4	1.457541
35	0x411c0f87	9.753791
36	0x404bc905	3.1841443
37	0x414f289a	12.9474125
38	0x40087cae	2.1326098
39	0x4027575c	2.614707
40	0xbf6816dc	-0.9065988
41	0xc13b3c90	-11.702286
42	0x4021ed59	2.5301116
43	0xbf77fb0a	-0.9686743
44	0xc05a2c36	-3.4089484
45	0xbf0b7ca5	-0.5448707
46	0xc081a03c	-4.05081
47	0xc06e809e	-3.7266002
48	0x40b614c2	5.690034
49	0xc0954c6a	-4.665578
50	0x4115f77a	9.372919
51	0x40f4001a	7.6250124
52	0xc0c6a72c	-6.2079067
53	0xc0cb0208	-6.343998
54	0x40a11d56	5.034831
55	0xbfbad845	-1.459725
56	0xc1123c93	-9.139789
57	0xc10289a8	-8.1586075
58	0x413961e1	11.586396
59	0xc027c90b	-2.6216457
60	0xc0daf4ee	-6.8423986
61	0xbfc35ee3	-1.5263332
62	0xc01b6769	-2.4281867
63	0xc0db9857	-6.862346
64	0x411c2ca2	9.760897
65	0x3f2e56a7	0.6810097
66	0x3f63e313	0.8901836
67	0xc084a247	-4.1448092
68	0x3e201a45	0.15635021
69	0xbf52ff8c	-0.82421184
70	0x4087b823	4.2412276
71	0xc0cc8285	-6.3909326
72	0xbf4b4bfb	-0.7941281
73	0x3fee1e30	1.8602962
74	0xbff04915	-1.8772303
75	0xc06bc500	-3.683899
76	0xbfe578e5	-1.7927519
77	0xbf81c115	-1.0137049
78	0x413a0fc3	11.628848
79	0x411057d2	9.0214405
80	0xc0a8168f	-5.2527537
81	0x4049f891	3.1557963
82	0xc0b37e1e	-5.609145
83	0x41092b1a	8.573023
84	0x3f0ae657	0.5425772
85	0x40842cdf	4.1304774
86	0xc0ac5ef1	-5.3865895
87	0x415406ad	13.25163
88	0xbf1835c8	-0.59457064
89	0xc08c8311	-4.3909993
90	0x410f6909	8.963143
91	0xc1293223	-10.57474
92	0xbf9fd249	-1.2486049
93	0x412d4ceb	10.831279
94	0x409a9a4a	4.831334
95	0x3fe27b99	1.7693969
96	0x4030c253	2.7618606
97	0x40fb4341	7.8519597
98	0xbfc64501	-1.5489808
99	0xc04f63f0	-3.2404747
100	0xbed0c911	-0.40778401
101	0xc194cc82	-18.599857
102	0xc0b9af3c	-5.802641
103	0x3f8e3854	1.111094
104	0x4125bd1c	10.358669
105	0x41072945	8.447576
106	0xc0ddd903	-6.9327407
107	0xc1531707	-13.193122
108	0x401abe23	2.417855
109	0x4082be63	4.0857406
110	0x3fe8d78f	1.8190783
111	0xc0d6ce1d	-6.7126603
112	0xbfe990eb	-1.824735
113	0xc106d374	-8.426624
114	0xc00df47e	-2.2180476
115	0x4081a0f8	4.0508995
116	0xbfd32745	-1.6496359
117	0xc0d17278	-6.545223
118	0x3ea03eb1	0.3129783
119	0xc0246663	-2.5687492
120	0xbf48da00	-0.7845764
121	0xc02acbb3	-2.6686828
122	0x40a188ba	5.0479403
123	0xc0d3a8aa	-6.614339
124	0x4131b672	11.107042
125	0xc0e40594	-7.125681
126	0xc0f78ec7	-7.736179
127	0xbf504e07	-0.8136906
128	0xbf0bea98	-0.54654837
129	0xc089c1e8	-4.30492
130	0x402d9600	2.7122803
131	0xbfbed2c3	-1.4908069
132	0xc1161727	-9.380652
133	0x40cd921c	6.4240856
134	0x406240cd	3.5352051
135	0x40df78ba	6.983487
136	0xc0067816	-2.1010795
137	0xc0f3080f	-7.5947337
138	0xc0fd10d9	-7.9083066
139	0x4029e184	2.6543894
140	0xbf33c88e	-0.702279
141	0x40d7249f	6.7232203
142	0xc0b49a0b	-5.643804
143	0xc083ecc6	-4.122653
144	0x4089b1f6	4.3029737
145	0x404c6d32	3.1941648
146	0x404955ff	3.1458738
147	0xc09c4661	-4.883591
148	0xc0b17e85	-5.5466943
149	0xc05db17d	-3.463958
150	0x413ae88f	11.681777
151	0x409159e5	4.5422235
152	0x3fb4db81	1.4129487
153	0x40962489	4.69196
154	0x4077b637	3.8704965
155	0xc145f274	-12.371693
156	0xc09ab0a7	-4.834064
157	0xc0371a46	-2.8609786
158	0xbfa21dc8	-1.2665339
159	0x404dde52	3.2166944
160	0xc0a49f78	-5.1444664
161	0xc096dc8f	-4.7144237
162	0xc12e6ad1	-10.901078
163	0xc076c9bd	-3.8560631
164	0xbf781a07	-0.96914715
165	0xc114b766	-9.294775
166	0xc0f6b451	-7.7095113
167	0xc002feb7	-2.0467966
168	0x40a51a0a	5.1594286
169	0x3fe3c48e	1.7794359
170	0xc0e094a1	-7.018143
171	0x410b82df	8.719451
172	0x40bde43f	5.934112
173	0x41306986	11.025763
174	0xbc6d8238	-0.014496379
175	0xc050e4e5	-3.2639706
176	0x3f53405c	0.8252008
177	0x4093e83e	4.6221
178	0xbfea7fab	-1.8320211
179	0xc0c6b6ef	-6.2098308
180	0x3f3e6f8b	0.7438895
181	0xc0b4fe8e	-5.6560736
182	0x3f1b4aa7	0.60660785
183	0xc12f0419	-10.9385
184	0x40733232	3.7999387
185	0x40e47760	7.139572
186	0x4146c9e8	12.4242935
187	0x41570fa0	13.441315
188	0x40812345	4.0355554
189	0x412a5847	10.646552
190	0xc038d046	-2.887712
191	0xbf9debd1	-1.233759
192	0x40b79631	5.737084
193	0xbf81a514	-1.0128503
194	0x4099af57	4.802654
195	0x40115290	2.2706642
196	0x40544288	3.3165607
197	0x40eaad14	7.3336277
198	0x3f492d6d	0.7858494
199	0xc0397e9e	-2.898353
200	0x40de049d	6.938063
201	0x3f947f96	1.1601436
202	0xc0128fa3	-2.290017
203	0xc0b4d691	-5.651192
204	0xc1733912	-15.201433
205	0x3f1427d9	0.578733
206	0x41596346	13.586737
207	0x3fb7f7fa	1.4372551
208	0xc16f8878	-14.970818
209	0xc0cd1f05	-6.4100366
210	0x3ffe4b95	1.9866816
211	0x410df989	8.873422
212	0x4101813d	8.094052
213	0xc14830f7	-12.511954
214	0xbf0797bb	-0.529659
215	0xbf025492	-0.50910294
216	0xc12cdd1d	-10.803983
217	0x3ffdc501	1.9825746
218	0xc0ea6ad3	-7.32554
219	0xc0463ed0	-3.0975838
220	0x4177772b	15.466594
221	0xbfeb9d82	-1.8407443
222	0xbf5ac6ee	-0.8545979
223	0x3faa3fff	1.330078
224	0xc053da84	-3.3102121
225	0xc12e0253	-10.875567
226	0x41626f1c	14.152126
227	0xbe693f4d	-0.22778054
228	0xc120b3a7	-10.04386
229	0xc0ac8b46	-5.392001
230	0x4014e4d5	2.3264668
231	0x418b9681	17.448488
232	0xc12972f1	-10.590562
233	0xbf7a65b1	-0.9781142
234	0x4106f733	8.435351
235	0x3feb8ac2	1.840172
236	0xc051b5a8	-3.2767124
237	0xc0e538e0	-7.1631927
238	0x40b4734d	5.639075
239	0x3f5abcee	0.85444534
240	0xc124f9b1	-10.31096
241	0x4147be52	12.483965
242	0xc1280107	-10.500251
243	0xc0ac7d66	-5.3903074
244	0x403d97a7	2.9623811
245	0x3f01506f	0.50513357
246	0xc0329375	-2.79025
247	0xbdc8654a	-0.09784944
248	0xc11fcd9a	-9.987696
249	0xbfeaddde	-1.8348958
250	0x40f1ef54	7.560465
251	0x3fb73fc4	1.4316335
252	0xc08ac1f4	-4.336176
253	0xc0a0a333	-5.019922
254	0x403e5d43	2.9744422
255	0x4044b980	3.073822

gnn_node.convs.0.mlp.1.running_var f4 [256]
0	0x43667c55	230.48567
1	0x41e551a8	28.664871
2	0x42405901	48.086918
3	0x428201a7	65.00323
4	0x418ae0e4	17.35981
5	0x426128a9	56.289707
6	0x42ad26b5	86.5756
7	0x4228d2ec	42.20598
8	0x42d70a90	107.52063
9	0x4286727b	67.223595
10	0x432b2a93	171.1663
11	0x42a923b5	84.56974
12	0x43a4ab62	329.33893
13	0x42b262d0	89.19299
14	0x432136b8	161.21375
15	0x421f98de	39.899284
16	0x4260f1cc	56.23613
17	0x42af5c6d	87.68052
18	0x4136c752	11.423662
19	0x429ff486	79.977585
20	0x42822b3f	65.084465
21	0x42ceb39d	103.35081
22	0x423d2485	47.285664
23	0x42427018	48.609467
24	0x41e9906d	29.19552
25	0x4236bdec	45.68547
26	0x4295ec43	74.96145
27	0x42daa6a3	109.32546
28	0x4259c9cc	54.447067
29	0x42177c47	37.871365
30	0x4286b9fb	67.36324
31	0x42f1e31a	120.94356
32	0x42a6987c	83.29782
33	0x432ebd32	174.73904
34	0x412cfe63	10.812106
35	0x42071b3a	33.77659
36	0x42136853	36.85188
37	0x4206fffc	33.749985
38	0x4271d5a5	60.458637
39	0x420ae581	34.724125
40	0x4396fc44	301.97083
41	0x41c8a419	25.080126
42	0x423bbd92	46.935127
43	0x421dbeaa	39.436195
44	0x42c3e44e	97.94591
45	0x42920d27	73.02569
46	0x426af011	58.73444
47	0x42d49dc7	106.30816
48	0x4256ea4c	53.728806
49	0x42365c85	45.59035
50	0x41eed634	29.854591
51	0x426e8bd7	59.636562
52	0x4196a7f6	18.832012
53	0x4332156f	178.08372
54	0x43305b64	176.357
55	0x42c3283e	97.5786
56	0x421d3f44	39.311783
57	0x41b6a506	22.830578
58	0x428c917f	70.28417
59	0x427af000	62.734375
60	0x415d1280	13.817017
61	0x42c92bef	100.58581
62	0x422fa154	43.907547
63	0x43b206c5	356.0529
64	0x4278f80f	62.242245
65	0x43b251a5	356.63785
66	0x40d36411	6.605965
67	0x42a3ae85	81.84086
68	0x419155ef	18.16696
69	0x4215697e	37.35302
70	0x4316247d	150.14253
71	0x417b71a1	15.715241
72	0x42c19cb9	96.8061
73	0x429969df	76.70678
74	0x425d1276	55.26803
75	0x42915448	72.66461
76	0x42556320	53.3468
77	0x42281eb1	42.029972
78	0x435fa167	223.63048
79	0x42c8d3a0	100.41333
80	0x43359803	181.5938
81	0x421096ad	36.147144
82	0x42ad25ff	86.57421
83	0x423e1077	47.51608
84	0x4239468d	46.318897
85	0x430bbb16	139.7308
86	0x4332dc87	178.86143
87	0x425a31a3	54.548473
88	0x42866d31	67.213264
89	0x42581ca2	54.02796
90	0x42648d34	57.137894
91	0x423b5655	46.83431
92	0x42d75c65	107.68046
93	0x4290bc9f	72.3684
94	0x4337a5df	183.64793
95	0x4199346c	19.150597
96	0x427009b6	60.009483
97	0x42b6ca5e	91.39525
98	0x42c0a3e0	96.32007
99	0x42a02ee0	80.09155
100	0x43acc320	345.5244
101	0x41cff930	25.996674
102	0x42628fce	56.640434
103	0x410e634f	8.899245
104	0x42b7d02f	91.90661
105	0x428a8a99	69.2707
106	0x41eee89a	29.863575
107	0x427155d2	60.33381
108	0x41b77bfa	22.935535
109	0x4236f1b3	45.736034
110	0x425c9d37	55.15353
111	0x427d325a	63.29917
112	0x42890440	68.5083
113	0x42889177	68.28411
114	0x429d2fb2	78.593155
115	0x429ce4b9	78.446724
116	0x4185d447	16.728651
117	0x43006ab9	128.41689
118	0x43390aab	185.04167
119	0x42c4fc1e	98.49242
120	0x42b6a35f	91.319084
121	0x4393f465	295.90933
122	0x42dbfd17	109.994316
123	0x421145ae	36.318047
124	0x42481388	50.019073
125	0x4283b5c9	65.85505
126	0x4266833c	57.62816
127	0x43221a97	162.10387
128	0x419c427c	19.532463
129	0x4288999d	68.300026
130	0x43a264aa	324.78644
131	0x42af927d	87.78611
132	0x42a807c8	84.0152
133	0x42417547	48.36453
134	0x43303af3	176.23027
135	0x42ee3b34	119.11563
136	0x41f131be	30.149288
137	0x427896ba	62.147194
138	0x42b41d5b	90.057335
139	0x42cde53c	102.94772
140	0x42207772	40.116646
141	0x435d4a31	221.28981
142	0x42fdc5b0	126.88611
143	0x421296a8	36.647125
144	0x43d6c8f9	429.5701
145	0x426cd920	59.212036
146	0x41b7b776	22.96458
147	0x42a2d777	81.42083
148	0x4341fb96	193.98276
149	0x4128ef97	10.558494
150	0x41e02dcc	28.022362
151	0x42b5316d	90.596535
152	0x4291a3dc	72.82004
153	0x42e885f3	116.26162
154	0x42c08bb9	96.272896
155	0x42c04a83	96.14553
156	0x439ee5b5	317.7946
157	0x424b1791	50.773014
158	0x4336c03c	182.75092
159	0x41cd5d70	25.670624
160	0x42a94e01	84.65235
161	0x428494ff	66.29101
162	0x419ce712	19.612827
163	0x42744de1	61.076054
164	0x427582ee	61.37786
165	0x42a33fa3	81.62429
166	0x4284e907	66.45513
167	0x426e39fc	59.556625
168	0x421a38f4	38.55562
169	0x41390c12	11.565447
170	0x42ec0dc0	118.026855
171	0x421f60c7	39.84451
172	0x42fe0a9c	127.02072
173	0x41e9f742	29.245731
174	0x428843fa	68.13277
175	0x42d2aa19	105.33222
176	0x428c99f3	70.30068
177	0x42da2c12	109.086075
178	0x4276b2eb	61.674725
179	0x4305a7e8	133.65588
180	0x410a8683	8.65784
181	0x4308a50a	136.64468
182	0x424165c0	48.349365
183	0x42bbad9a	93.839066
184	0x41b0f8e6	22.121532
185	0x428ae58d	69.44834
186	0x42e0180c	112.04697
187	0x429529e5	74.581825
188	0x412b753e	10.716124
189	0x42b81760	92.045654
190	0x43215617	161.33629
191	0x418df404	17.744148
192	0x435ae718	218.90271
193	0x42c2f508	97.47858
194	0x4284d512	66.41615
195	0x41f7c9fc	30.973625
196	0x43609f31	224.62184
197	0x42aeab2b	87.33431
198	0x41cf0ba9	25.880693
199	0x4298e885	76.45414
200	0x4260913b	56.141827
201	0x4283e999	65.956245
202	0x41b8c136	23.094341
203	0x428f9be0	71.80444
204	0x42b32706	89.57622
205	0x43388a00	184.53906
206	0x43673672	231.21268
207	0x41b595c0	22.69812
208	0x427dc2de	63.4403
209	0x420d5d64	35.3412
210	0x437501c6	245.00693
211	0x41981ff8	19.01561
212	0x42c23228	97.09796
213	0x42198213	38.377026
214	0x42a5a4b7	82.82171
215	0x4280dd74	64.432526
216	0x41ac904f	21.570463
217	0x41807576	16.057354
218	0x426585b8	57.380585
219	0x423c976e	47.14788
220	0x428e7d29	71.24445
221	0x4288e13e	68.439926
222	0x43084b95	136.29524
223	0x42830e5c	65.528046
224	0x4339596a	185.34927
225	0x43016717	129.4027
226	0x41f38eaf	30.44467
227	0x42ca458f	101.13586
228	0x42ac0fd6	86.03093
229	0x42263e26	41.56069
230	0x41f31ce9	30.389116
231	0x42bca3ad	94.31968
232	0x42e7f9ad	115.98765
233	0x420488da	33.133644
234	0x424c39e3	51.05653
235	0x41bce76d	23.613
236	0x41edfe94	29.749306
237	0x4395ee1c	299.86023
238	0x43381c64	184.1109
239	0x4309c3be	137.76462
240	0x426cebb2	59.23017
241	0x423d017f	47.25146
242	0x42412ef7	48.295864
243	0x4305d079	133.81435
244	0x43c09c11	385.21927
245	0x42151690	37.272034
246	0x4320de5d	160.8686
247	0x41cb13e4	25.384712
248	0x42ae797c	87.237274
249	0x429d137d	78.53806
250	0x428f87a5	71.76493
251	0x422f18e0	43.774292
252	0x42755f97	61.34335
253	0x42feac57	127.3366
254	0x4254ae8b	53.170452
255	0x431bb3e1	155.70265
