checkpoints/A_epoch_10.pth (torch, 843938 bytes, 48 tensors)

gnn_node.node_encoder.weight f4 [1, 128]
0	0xbe725400	-0.23664856
1	0x3ee49bf6	0.4465024
2	0xbe2a6955	-0.16641743
3	0x3f3298e5	0.6976455
4	0x3e916aa7	0.28401682
5	0x3f92f7cc	1.1481872
6	0x3f3396da	0.70152056
7	0x3df8878c	0.121352285
8	0x3e88fee9	0.2675698
9	0xbf2b8645	-0.67001754
10	0xbe34469f	-0.17605065
11	0xbebb62b9	-0.36598757
12	0xbf43a880	-0.76428986
13	0x3fb593d8	1.4185743
14	0xc0120019	-2.281256
15	0xbf3d4726	-0.7393669
16	0x3dd444de	0.10364698
17	0x3e45519f	0.19269417
18	0x3f1220d9	0.5708137
19	0xbf651328	-0.89482355
20	0xbefb9f3a	-0.49144918
21	0xbf2e0f9f	-0.67992586
22	0xbe696c2d	-0.22795172
23	0xbfc6269a	-1.548053
24	0xbf80cdbd	-1.0062786
25	0xbfbb23c4	-1.462029
26	0xbff1dbc6	-1.8895195
27	0xbf8d676b	-1.1047186
28	0xbe06265c	-0.1310057
29	0xbf150bdc	-0.5822122
30	0xbe91090b	-0.28327212
31	0xc0331450	-2.7981148
32	0xbe8d5115	-0.27600923
33	0xbf7c5846	-0.98572195
34	0x3ee9960f	0.45622298
35	0x3f13cf27	0.57737964
36	0x3efdb175	0.4954945
37	0xbf2fa229	-0.6860681
38	0x3e5dbe4e	0.21654627
39	0x3ed93789	0.42425182
40	0xbfaf7e7b	-1.3710474
41	0xbe71c8d0	-0.2361176
42	0x3f4fad23	0.8112356
43	0xbfdb505c	-1.7133899
44	0x3ea3f654	0.3202387
45	0x3eed809b	0.4638718
46	0xbfa92d07	-1.3216866
47	0xc00f1f30	-2.2362785
48	0x3e4c7a93	0.19968633
49	0xbfcac6d3	-1.5841926
50	0xbf2726d3	-0.65293616
51	0xbef2edbb	-0.47447
52	0x3eb7e38d	0.35915795
53	0xbf2883f8	-0.6582637
54	0xbf14e692	-0.5816432
55	0xbe81f315	-0.2538077
56	0x3f0d1eb7	0.5512499
57	0x3f409927	0.7523369
58	0x3ef08dc3	0.46983156
59	0x3ea23246	0.3167898
60	0xbf642dff	-0.89132684
61	0x3eacc436	0.33743447
62	0x3eb77169	0.35828713
63	0x3e26fcc1	0.16307355
64	0xbf89e125	-1.0771834
65	0xbd1d459f	-0.038396474
66	0xbfbfc604	-1.4982305
67	0xbf5c5dac	-0.8608043
68	0xbfcbf75d	-1.5934864
69	0x3fc54fd7	1.541499
70	0x3f735031	0.9504424
71	0xbf70fe9b	-0.941385
72	0x3f01a726	0.50645673
73	0xbf36f3ab	-0.7146556
74	0xbeabcce6	-0.33554763
75	0x3e20a5cb	0.15688245
76	0xbc21e85e	-0.009882061
77	0x3ce39597	0.027781291
78	0x3eb2ee72	0.34947544
79	0x3d43d319	0.04780874
80	0xbf88e392	-1.0694449
81	0xbfb7738c	-1.4332137
82	0xbfc01b04	-1.5008245
83	0x3f5e9420	0.8694477
84	0x3ed851fb	0.42250046
85	0x3eeaaadb	0.45833477
86	0x3ef5de4f	0.4802117
87	0x3d9e2347	0.07721572
88	0xbee169de	-0.44026083
89	0x3e5b9fa3	0.21447615
90	0xbfc4fa75	-1.5388933
91	0xbe0cba54	-0.13742954
92	0xbf273fb4	-0.6533158
93	0x3f1c67cf	0.610959
94	0xbf9bdafa	-1.2176201
95	0xbee51aac	-0.44746912
96	0xbf0eae5a	-0.5573479
97	0xbe609eb7	-0.21935545
98	0x3e602c46	0.21891889
99	0x3bb773d6	0.0055985255
100	0xbf4e2053	-0.8051807
101	0xbf98b797	-1.1931027
102	0xbfdf37e0	-1.7438927
103	0xbf80cb07	-1.0061959
104	0xbfd86518	-1.6905851
105	0x3f342dc9	0.7038236
106	0x3f8ccbcb	1.0999693
107	0xbf7d63e9	-0.98980576
108	0xbe90db3b	-0.2829226
109	0xbf2789f9	-0.65444905
110	0xbf1ff47c	-0.6248243
111	0xbf22adb6	-0.6354631
112	0xbe3915e6	-0.1807476
113	0xbff62a32	-1.9231627
114	0xbfb5e694	-1.4210992
115	0xbfa71e9e	-1.3056219
116	0x3e9d0f92	0.30675942
117	0xbfc8816f	-1.56645
118	0x3ea78ce8	0.3272469
119	0x3dede1d5	0.1161534
120	0xbf001f99	-0.50048214
121	0xbf3050c3	-0.6887323
122	0x3f1f4a23	0.622225
123	0x3e87a96a	0.2649644
124	0xbe96acca	-0.29428703
125	0x3f5d4bd2	0.8644382
126	0xbfbf0ada	-1.4925187
127	0x3f0d544e	0.55206764

gnn_node.virtualnode_embedding.weight f4 [1, 128]
0	0xbd35811b	-0.044312578
1	0xbedf394e	-0.43598408
2	0xbe3b5f1a	-0.18297997
3	0xbe987d66	-0.2978317
4	0xbdd8d1fd	-0.10586927
5	0xbf1d728a	-0.615029
6	0xbea10605	-0.31449905
7	0xbeb7926a	-0.35853893
8	0xbe96dfdc	-0.29467666
9	0xbe3aff0a	-0.18261352
10	0x3d1a1390	0.037616313
11	0xbeaf1ba8	-0.34200788
12	0xbe142763	-0.1446815
13	0xbf0df9c9	-0.55459267
14	0xbd634c02	-0.05549241
15	0x3d8539df	0.06505179
16	0xbc917e79	-0.017760502
17	0xbe67e547	-0.22646056
18	0xbeae8ab8	-0.3409021
19	0xbda5d607	-0.08097463
20	0xbda4909c	-0.080353945
21	0x3d29d158	0.04145941
22	0xbcc4f51f	-0.024042664
23	0xbe0b6080	-0.1361103
24	0xbeacff4a	-0.3378852
25	0xbe1e74ee	-0.15474293
26	0x3d555b30	0.052088916
27	0xbe07eb25	-0.13273294
28	0xbe43d823	-0.19125418
29	0xbe05bf03	-0.13061146
30	0xbcfced3b	-0.030874839
31	0x3ce58f85	0.028022537
32	0xbe2a9b80	-0.16660881
33	0x3e526d3b	0.2054948
34	0xbea95282	-0.3307076
35	0xbe3bb50d	-0.18330784
36	0x3dd941a9	0.10608227
37	0xbdcf2d0d	-0.10116015
38	0xbef0447a	-0.46927243
39	0xbe7af54a	-0.24507633
40	0x3d5932ef	0.05302709
41	0xbc8cc216	-0.017182391
42	0xbf2db154	-0.67848706
43	0xbe71e225	-0.23621424
44	0xbda51ee4	-0.080625325
45	0xbe5774b9	-0.2104062
46	0x3e32262b	0.17397372
47	0xbdf0b2b5	-0.11752836
48	0xbec8ee11	-0.3924413
49	0xbded4508	-0.11585432
50	0xbdf8a97f	-0.12141704
51	0xbe04c601	-0.12966157
52	0xbded9640	-0.116009235
53	0xbd73f249	-0.059557233
54	0x3aeffee0	0.0018310212
55	0xbe2700b7	-0.16308866
56	0xbe191576	-0.14949593
57	0xbf03d800	-0.51501465
58	0xbec94f48	-0.393183
59	0xbee72694	-0.4514662
60	0x3cc7b078	0.024376139
61	0xbd9cfd85	-0.076655425
62	0xbe727aa2	-0.23679593
63	0xbe8d4889	-0.27594402
64	0xbe939fd7	-0.28832886
65	0x3e4fd9f4	0.20297986
66	0xbe346051	-0.17614867
67	0xbd9b38c7	-0.07579189
68	0xbd6b5e57	-0.057463016
69	0xbee48a13	-0.44636592
70	0xbed58f68	-0.41710973
71	0xbddb14e5	-0.10697345
72	0xbe95ffc5	-0.292967
73	0x3d810814	0.06300369
74	0xbe3fd634	-0.18734056
75	0xbe8b26c2	-0.27178007
76	0xbe4a65ba	-0.19765368
77	0xbe0ba807	-0.13638316
78	0xbe371f45	-0.17883022
79	0xbe18b12f	-0.1491134
80	0xbd23ee8f	-0.04002243
81	0xbe4323d4	-0.19056636
82	0xbe82f83e	-0.2558002
83	0xbf48df0b	-0.78465337
84	0xbdf347cd	-0.11878929
85	0xbe6f09a2	-0.23343518
86	0xbe87e1d5	-0.26539484
87	0xbeab347f	-0.3343849
88	0xbd584f52	-0.05281002
89	0xbdc61b7a	-0.096732095
90	0xbe156f1b	-0.14593165
91	0xbd075aed	-0.033045698
92	0xbd8a9665	-0.06766967
93	0xbe176dff	-0.14788054
94	0xbe515bbf	-0.20445155
95	0xbde7e3a8	-0.11322719
96	0xbddf2431	-0.10895575
97	0xbea85cc9	-0.3288329
98	0xbdf3dfda	-0.11907931
99	0xbe433538	-0.1906327
100	0xbc44d028	-0.012012519
101	0xbe739e85	-0.23790939
102	0x3e3337f9	0.1750182
103	0xbe18cc06	-0.14921579
104	0xbd7e8275	-0.062136132
105	0xbef22bd1	-0.47299054
106	0xbf20830d	-0.6269997
107	0xbe0ec59f	-0.13942574
108	0x3d8358b8	0.06413406
109	0xbe99353a	-0.2992342
110	0xbd1a12d2	-0.037615605
111	0xbec886a3	-0.3916522
112	0xbda508c2	-0.08058311
113	0xbdb53325	-0.08847646
114	0xbe6d6e59	-0.23186626
115	0xbd8690c7	-0.06570583
116	0xbe84243e	-0.258089
117	0xbe5b90a8	-0.214419
118	0xbe5bdf5d	-0.21471925
119	0xbe308029	-0.17236389
120	0xbde749d1	-0.11293376
121	0xbe29df3b	-0.16589062
122	0xbeb73973	-0.35786018
123	0xbddc4f53	-0.107573174
124	0xbdb15c0a	-0.08660133
125	0xbe9376ba	-0.2880152
126	0xbca2e82a	-0.019886095
127	0xbea3e118	-0.3200767

gnn_node.convs.0.mlp.0.weight f4 [256, 128]
0	0xbc725dbc	-0.014792856
1	0xbded778e	-0.11595069
2	0xbe9d9051	-0.30774167
3	0xbdea87ef	-0.114517085
4	0x3dc7501c	0.097320765
5	0xbe0ed0e7	-0.13946877
6	0xbd4fe216	-0.05075272
7	0xbdb79479	-0.08963866
8	0xbe8d2d88	-0.275738
9	0xbc4d040f	-0.012513175
10	0xbf206f94	-0.62670255
11	0x3db77cd8	0.08959359
12	0x3d04147a	0.03224609
13	0xbd9cda07	-0.07658773
14	0xbbb31277	-0.0054648477
15	0xbd3a215f	-0.04544198
16	0xbeffb44b	-0.4994224
17	0x3cbd7975	0.023129204
18	0x3d41f678	0.04735419
19	0xbcb98d9f	-0.022650538
20	0xbf80501c	-1.0024447
21	0x3c3beb94	0.01146974
22	0x3e778a77	0.24173914
23	0xbd278337	-0.04089662
24	0xbda38b95	-0.079856075
25	0xbd8e8a76	-0.06960003
26	0x3be6a637	0.0070388573
27	0xbda430e5	-0.080171384
28	0xbccfc443	-0.02536214
29	0x3f26119b	0.64870614
30	0x3e7b081f	0.24514817
31	0x3d0ada3d	0.033899534
32	0xbf816010	-1.0107441
33	0xbd5890c0	-0.05287242
34	0x3de2f424	0.110817224
35	0x3e4d534e	0.2005131
36	0xbe91ff6c	-0.28515184
37	0x3d699a82	0.057032116
38	0xbe14cdd9	-0.1453165
39	0xbd442793	-0.047889303
40	0xbd9cc07e	-0.076539025
41	0xbd0d45d7	-0.034490433
42	0xbe1125d5	-0.14174588
43	0x3d462cbb	0.048382502
44	0x3e066af0	0.13126731
45	0xbce599c5	-0.028027425
46	0x3d9a6917	0.075395755
47	0x3ba29259	0.0049612937
48	0xbbe7b6ea	-0.0070713656
49	0xbdc53e96	-0.09631078
50	0xbe1815df	-0.14852093
51	0xbf1e35ed	-0.61801034
52	0xbea07dfc	-0.31346118
53	0xbe0edbce	-0.13951036
54	0x3b9432a4	0.0045226384
55	0xbcd51880	-0.02601266
56	0xbd2c35ca	-0.042043485
57	0xbdec15e5	-0.115276136
58	0x3d7f700b	0.062362712
59	0xbcf4484c	-0.02981963
60	0x3d9fcb50	0.07802451
61	0xbcbda387	-0.023149265
62	0xbeba707d	-0.36413947
63	0xbd2a1984	-0.04152824
64	0xbd9c154d	-0.0762125
65	0xbde369b2	-0.11104144
66	0x3cb6cbd9	0.022313999
67	0xbd2bc0fc	-0.04193209
68	0x3da50138	0.08056873
69	0xbd4207f8	-0.04737088
70	0x3d01be09	0.031675372
71	0xbca4b87c	-0.0201075
72	0xbd1ccad1	-0.03827936
73	0x3b5646ee	0.0032696086
74	0xbc3cc19c	-0.011520769
75	0xbddf0b97	-0.108908825
76	0x3e827e34	0.2548691
77	0xbe2343c9	-0.15943827
78	0xbde71a54	-0.112843186
79	0xbe566a29	-0.20938934
80	0x3db0b29e	0.086278185
81	0xbb508619	-0.003181821
82	0x3aed9c16	0.0018128182
83	0x3cae9761	0.021312417
84	0xbe1a7664	-0.15084225
85	0xbe42883b	-0.1899728
86	0x3de97ed5	0.114011444
87	0xbde2dc8d	-0.11077223
88	0xbd84010a	-0.06445511
89	0xbe355b2f	-0.17710565
90	0xbc1a2033	-0.009407091
91	0xbb95543d	-0.004557161
92	0xc00e04f7	-2.219053
93	0xbeab8a10	-0.3350377
94	0x3d890879	0.06691069
95	0x3f32e669	0.6988283
96	0x3ec0b7b7	0.37640163
97	0xbddd23c3	-0.10797837
98	0xbe72ea9c	-0.23722309
99	0xbe59f108	-0.21283352
100	0x3c958b1a	0.018254805
101	0x3c9b05f5	0.018923739
102	0x3d3266a8	0.043554932
103	0x3d765f29	0.060149346
104	0x3d353276	0.044237576
105	0x3d18b306	0.037280105
106	0xbbd07663	-0.006361769
107	0x3d7950b9	0.060868
108	0xbdbcb69c	-0.092145175
109	0xbda14542	-0.07874538
110	0x3ec7c4da	0.39017373
111	0xbcfa340b	-0.030542394
112	0x3d824fb4	0.063628584
113	0xbc4b0c14	-0.012393016
114	0xbd09fb44	-0.03368689
115	0xbcbab95f	-0.02279347
116	0xbe4315b2	-0.19051245
117	0x3d27df5a	0.04098449
118	0xbcd2ea24	-0.025746413
119	0x3bbd7303	0.0057815327
120	0x3e251e32	0.161248
121	0xbfedb203	-1.856995
122	0xbde124ec	-0.109933704
123	0x3c21f8e9	0.009886005
124	0x3ea4f2db	0.32216534
125	0xbea7d359	-0.32778433
126	0x3d669a3f	0.056299444
127	0xbdf4bd75	-0.119501986
128	0xbd7fdfbb	-0.062469225
129	0xbd5e6aee	-0.054301195
130	0xbdd25966	-0.10270958
131	0x3d9ff5e8	0.07810575
132	0xbe14bf97	-0.1452621
133	0x3d96e115	0.0736715
134	0x3db9959f	0.09061741
135	0x3e1fc374	0.15601903
136	0x3de07376	0.109595224
137	0xbd7423c3	-0.059604418
138	0xbd96d43d	-0.073647
139	0x3da6de74	0.08147898
140	0xbda357a9	-0.07975704
141	0x3dabc513	0.08387198
142	0x3d7e8bb2	0.062144943
143	0xbd1a7e15	-0.037717897
144	0xbd386c4f	-0.045025166
145	0xbc42bfe9	-0.011886575
146	0x3dc08b39	0.094015546
147	0x3d5879f6	0.052850686
148	0xbe189c92	-0.14903477
149	0x3f17026a	0.5898806
150	0x3e521784	0.20516783
151	0xbcc9ad88	-0.024618879
152	0x3b674556	0.003528913
153	0xbca61670	-0.02027437
154	0x3caba963	0.020954793
155	0xbd211982	-0.039330967
156	0xbdc29e98	-0.095029056
157	0x3daff036	0.085907385
158	0x3e4a44e3	0.1975284
159	0x3cbb90bc	0.022896163
160	0xbea065c4	-0.3132764
161	0xbd3185b1	-0.04334039
162	0x3e4f317c	0.2023372
163	0x3c93eca6	0.018057179
164	0x3e61bbea	0.2204434
165	0x3bef17ba	0.0072965296
166	0x3dd35f7e	0.10320948
167	0x3c9427b8	0.018085346
168	0x3d1323d9	0.03592286
169	0xbdda3d0e	-0.106561765
170	0xbda91819	-0.082565494
171	0x3d958c61	0.07302166
172	0x3d3888ff	0.045052525
173	0x3d758319	0.059939478
174	0x3d0ff14d	0.03514223
175	0xbce715b8	-0.028208598
176	0x3c6ae173	0.014335978
177	0xbd6052ff	-0.05476665
178	0xbe960c1e	-0.2930612
179	0xbe95ef14	-0.29283965
180	0x3dddfd93	0.10839381
181	0xbd86dd29	-0.06585152
182	0x3c16d642	0.0092063565
183	0xbd99247f	-0.07477664
184	0x3e44d6f5	0.19222625
185	0x3d7a8748	0.06116417
186	0xbd33d858	-0.043907493
187	0xbd093cc6	-0.033505224
188	0xbda8462a	-0.08216508
189	0x3e02c6e6	0.12771186
190	0x3bc60965	0.0060436004
191	0xbd39d063	-0.04536475
192	0x3cd690ec	0.026192151
193	0x3ddfe4b1	0.10932291
194	0xbd80e000	-0.062927246
195	0x3d06427a	0.03277824
196	0x3ca48c16	0.02008633
197	0x3daa6bec	0.08321366
198	0x3aff57e5	0.0019481151
199	0x3d73fa46	0.05956485
200	0x3d1139d2	0.035455532
201	0xbd205f40	-0.039153337
202	0x3b6e0348	0.0036317874
203	0xbd3d46f3	-0.04621024
204	0x3e751dfa	0.23937216
205	0xbdef8a04	-0.11696246
206	0xbdf9e94d	-0.12202702
207	0xbdbbc5f9	-0.0916862
208	0x3d074ebe	0.03303408
209	0xbd204ea0	-0.039137483
210	0xbd991bed	-0.074760295
211	0xbd2332d1	-0.039843384
212	0xbdc46e76	-0.09591381
213	0xbb97ab3d	-0.0046285675
214	0xbd583984	-0.052789226
215	0x3d700f57	0.05860838
216	0x3d4579dc	0.048211917
217	0xbd930c1a	-0.071800426
218	0x3d99c2cc	0.07507858
219	0x3ed34bc9	0.41268757
220	0xbeb4950f	-0.35269973
221	0x3d617586	0.05504372
222	0xbcee598f	-0.02909544
223	0xbcdf8c6b	-0.027288636
224	0x3ba4b085	0.0050259256
225	0xbea27a5f	-0.31733987
226	0x3dd80b7b	0.10549065
227	0x3e037811	0.1283877
228	0x3cd6e47d	0.026231999
229	0xbd23ea22	-0.04001821
230	0x3d9af529	0.07566292
231	0x3dab6fcb	0.08370932
232	0xbd7bc1ec	-0.061464235
233	0x3e1c7501	0.15279008
234	0xbc84de24	-0.016219206
235	0x3db3e4be	0.087838635
236	0xbc893e3a	-0.016753305
237	0xbcf4cacf	-0.029881863
238	0x3f642e41	0.8913308
239	0x3bb0ebe0	0.0053992122
240	0x3f438af9	0.7638393
241	0xbd29c3c3	-0.04144646
242	0x3d2cb669	0.042166147
243	0x3d782484	0.0605817
244	0xbc6604cf	-0.014039232
245	0xbd3b394a	-0.045708932
246	0xbc23a545	-0.009988134
247	0x3d63ed16	0.055646025
248	0xbd688cbc	-0.05677484
249	0xbe86c629	-0.2632306
250	0xbd32e327	-0.04367366
251	0xbe6dd138	-0.23224342
252	0x3f0c4be5	0.54803306
253	0x3db739dd	0.089465834
254	0x3d54006e	0.051758222
255	0xbdaafff0	-0.083495975

gnn_node.convs.0.mlp.0.bias f4 [256]
0	0xbd88eb69	-0.06685526
1	0xbc37c80c	-0.0112171285
2	0x3cdd526e	0.027016845
3	0x3ab3edaa	0.0013727446
4	0xbd71a564	-0.05899562
5	0x3bf22d68	0.0073906668
6	0x3be30997	0.0069286334
7	0x3d9a411a	0.075319484
8	0xbd8d193e	-0.0688958
9	0x3d2a9439	0.041645262
10	0x3d0ff054	0.035141304
11	0xbd8b8a63	-0.068135045
12	0xbd9006ae	-0.07032524
13	0xbd382adb	-0.044962745
14	0x3ce377ad	0.027767027
15	0x3d8db6a3	0.06919601
16	0x3d67ced9	0.05659375
17	0xbd409118	-0.047013372
18	0xbc7e648f	-0.015526905
19	0xbd5be2de	-0.053683154
20	0x3d7edc56	0.062221847
21	0x3d91a5c0	0.071116924
22	0xbcb2d095	-0.021827975
23	0xbd42c8b6	-0.047554694
24	0xbd175e32	-0.036955066
25	0x3d3e6245	0.046480436
26	0xbd9f9769	-0.07792551
27	0x3bd886a3	0.006607847
28	0x3cf9d4dc	0.030497007
29	0xbda543ac	-0.08069548
30	0x3d366a35	0.04453488
31	0xbdaf2ac9	-0.085530825
32	0xbd5dfdb6	-0.054197036
33	0x3d94e174	0.07269564
34	0xbd75bb2d	-0.059992958
35	0x3d841945	0.06450132
36	0x3db42fa2	0.08798148
37	0xbb9cb504	-0.004782321
38	0xbd63477f	-0.055488106
39	0xbd6f8415	-0.058475573
40	0x3b1549dd	0.0022779622
41	0xbcd51627	-0.02601154
42	0xbd7752ff	-0.060381886
43	0x3d0e70c7	0.03477552
44	0xbdb647a6	-0.089003846
45	0x3d984eb6	0.07436888
46	0x3d3f3a88	0.04668668
47	0x3d57ba07	0.052667644
48	0xbc747a9e	-0.014921812
49	0x3c1e4f99	0.009662532
50	0x3d94b840	0.072617054
51	0x3da515f9	0.080608316
52	0xbda44287	-0.080205016
53	0x3b8dbb93	0.004325339
54	0x3d5f1e81	0.05447245
55	0x3ba9a2a3	0.0051768585
56	0x3d77b904	0.06047918
57	0x3da9a2b7	0.082829885
58	0xbc85589f	-0.01627761
59	0x3c05a04e	0.008155895
60	0xbd7929f8	-0.06083104
61	0x3d92bf85	0.07165436
62	0x3a18af1e	0.00058244343
63	0x3cfdaeb0	0.030967087
64	0xbda5330c	-0.08066377
65	0x3d8045b2	0.06263293
66	0x3c196a23	0.009363684
67	0xbd084711	-0.0332709
68	0xbd425529	-0.047444496
69	0xbd9d868b	-0.07691678
70	0x3d986935	0.07441942
71	0x3ce80535	0.028322795
72	0x3d10b302	0.035326965
73	0xbd6025cf	-0.054723557
74	0x3d961be4	0.073295385
75	0xbc97c833	-0.01852808
76	0x3d9cbefe	0.07653616
77	0xbd7f9eb8	-0.062407225
78	0xbbead46c	-0.007166436
79	0x3d1a3f29	0.03765789
80	0xbd8006ac	-0.062512726
81	0xbcff6e6a	-0.03118058
82	0xbcf1cc7e	-0.029516455
83	0x3d35ae7d	0.044355858
84	0x3d968f6a	0.07351573
85	0x3c72bca2	0.014815481
86	0x3ccb7228	0.024834707
87	0xbb83831b	-0.0040134317
88	0xbc214ddc	-0.009845223
89	0xbd89d77f	-0.06730556
90	0xbdaca957	-0.084307365
91	0xbd078dce	-0.03309422
92	0xbca9cc9f	-0.020727454
93	0xbd36ee84	-0.04466106
94	0xbc74946d	-0.014927966
95	0x3cef5210	0.029213935
96	0x3ceb7ddb	0.028746536
97	0x3b1a9c75	0.002359179
98	0x3d04db4c	0.0324357
99	0xbbe4ac7e	-0.0069785705
100	0x3a129876	0.00055921765
101	0x3b4882fb	0.0030595649
102	0xbd410df2	-0.04713244
103	0xbd81c093	-0.06335559
104	0x3d938151	0.072023995
105	0x3d1f96ce	0.038962178
106	0x3dacf1a7	0.08444529
107	0xbd9a8b49	-0.07546098
108	0xbd616ed5	-0.05503734
109	0xbd86e5b6	-0.06586783
110	0xbd4aeffd	-0.049545277
111	0x3d450a21	0.048105363
112	0xbce620c1	-0.02809179
113	0x3d98954e	0.074503526
114	0x3d93c919	0.07216091
115	0xbd9a9d64	-0.07549551
116	0x3d97beb5	0.07409421
117	0x3d86a89e	0.0657513
118	0xbbfd0391	-0.0077213724
119	0xbb84dd81	-0.0040547256
120	0x3c693d38	0.014235787
121	0xbc6525d9	-0.013986074
122	0x3d5bc820	0.05365765
123	0xbd46d86d	-0.048546243
124	0xbda7c540	-0.08191919
125	0xbd1e3eb4	-0.038634017
126	0xbd53b91e	-0.051690213
127	0x3d77d9c7	0.060510423
128	0xbc5d7dbd	-0.013518748
129	0x3d29d7a7	0.041465428
130	0xbd83c128	-0.06433326
131	0xbdb49c58	-0.08818883
132	0x3d5a565b	0.05330501
133	0x3dad41e7	0.084598355
134	0x3d13b2d2	0.03605921
135	0xbd744106	-0.059632324
136	0x3d6ba5e6	0.05753126
137	0xbcd6735c	-0.026178055
138	0x3cc42efc	0.023948185
139	0x3b8208a0	0.0039683133
140	0x3c457486	0.012051707
141	0x3d327acb	0.043574136
142	0xbd84c9f6	-0.064838335
143	0xbd972531	-0.073801406
144	0xbcb01080	-0.021492243
145	0x3d8471b2	0.06466998
146	0x3d6aa841	0.057289366
147	0xba93232c	-0.0011225692
148	0x3d5c1bf1	0.053737585
149	0xbd9565bf	-0.07294797
150	0x3c668599	0.014069938
151	0x3d8d61f4	0.06903449
152	0x3da9c42e	0.082893714
153	0xbc1c20a2	-0.009529265
154	0xbd683b8c	-0.056697413
155	0x3a83c791	0.0010053982
156	0x3d204cd0	0.039135754
157	0x3d36b67f	0.044607636
158	0x3d4b7407	0.0496712
159	0xbd842c54	-0.064537674
160	0x3ba564ec	0.005047431
161	0x3d831daa	0.06402142
162	0x3d483adf	0.04888427
163	0xba27edab	-0.000640596
164	0xbd37fbc4	-0.044917837
165	0x3c9fd73c	0.019511811
166	0xbdb1f2e2	-0.08688904
167	0x3ce71b41	0.028211238
168	0x3d7a89c1	0.06116653
169	0x3d3bd6ab	0.04585902
170	0xbd83124e	-0.06399976
171	0x3d360744	0.044440523
172	0x3d6d13e0	0.057880282
173	0xbc8928af	-0.016743032
174	0xbd483a2e	-0.04888361
175	0xbcd5fba2	-0.026120964
176	0xbc8be529	-0.017077046
177	0xbdabb057	-0.083832435
178	0x3d3abff7	0.04559323
179	0xbd06393e	-0.032769434
180	0x3b44204e	0.0029926482
181	0xbcfc5add	-0.030805046
182	0x3b449162	0.0029993881
183	0xbc89eeb1	-0.01683745
184	0x3c7034e5	0.014661049
185	0x3c3e3b66	0.011610841
186	0x3c75bfea	0.014999369
187	0xbdacad72	-0.084315196
188	0x3ca71ff5	0.02040098
189	0xbd47fe57	-0.04882654
190	0x3d69d2b5	0.05708571
191	0x3cc3937b	0.023874035
192	0x3dab65fb	0.083690606
193	0x3db56025	0.08856229
194	0xbd3472aa	-0.044054665
195	0xbdb3fc1b	-0.0878832
196	0xbb7a2b80	-0.00381729
197	0x3db0de08	0.08636099
198	0xbc433a4c	-0.0119157545
199	0xbd9979c0	-0.07493925
200	0xbcce72e7	-0.025201274
201	0xbdafa0f7	-0.085756235
202	0xbd6117db	-0.05495439
203	0x3cc1e68b	0.023669502
204	0xbdaef8b0	-0.08543527
205	0x3c5680c2	0.013092222
206	0x3cd65a36	0.026166063
207	0xbd57ef3d	-0.05271839
208	0x3d2ec725	0.042670388
209	0x3cf4cfe7	0.029884292
210	0xbd7b0334	-0.06128235
211	0x3d98542b	0.07437929
212	0xbc9388c9	-0.01800956
213	0xbda2d7f4	-0.07951346
214	0x3d44ab73	0.04801507
215	0xbceeb6d3	-0.029139912
216	0x3d7b628d	0.061373282
217	0x3c5192f8	0.012791388
218	0xbd8993a0	-0.0671761
219	0xbda92f4f	-0.082609765
220	0x3c85d509	0.016336935
221	0x3c29c1b6	0.010361126
222	0x3c30db1f	0.01079443
223	0xbc082ec7	-0.008311934
224	0xbd3e0e13	-0.04640014
225	0x3d2cb195	0.042161543
226	0x3c5cf8da	0.013487065
227	0x3d81d3f3	0.06339254
228	0x3d27a8f0	0.040932596
229	0x3d225a1b	0.039636713
230	0xbd32c34c	-0.04364328
231	0x3d78f996	0.0607849
232	0x3d7bf6ec	0.06151478
233	0x3cb4452a	0.022005636
234	0x3d98fbd8	0.074699104
235	0xbda99e73	-0.08282175
236	0xbd775721	-0.060385827
237	0x3be22bdc	0.006902201
238	0x3ae58a49	0.0017512526
239	0x3b271ad5	0.002549817
240	0x3c8da9f0	0.017292947
241	0x3d4b29f2	0.04960055
242	0xbd4ce4de	-0.050022952
243	0xbc945bf4	-0.018110253
244	0x3d921ac0	0.071340084
245	0x3d5ad727	0.05342784
246	0x3db1c12d	0.086794235
247	0x3d7620f4	0.06009002
248	0xbd180dfd	-0.037122715
249	0xbd025130	-0.031815708
250	0xbd2c3aee	-0.042048387
251	0xbd90bc62	-0.07067181
252	0xbd2c8b75	-0.042125184
253	0xbc3d71a7	-0.011562741
254	0x3d294596	0.041326128
255	0x3d22692e	0.03965109

gnn_node.convs.0.mlp.1.weight f4 [256]
0	0x3fbbd693	1.4674858
1	0x3f1556b1	0.58335406
2	0x3f5afe4a	0.85544264
3	0x3f23f882	0.6405107
4	0x3f0b0ec1	0.5431939
5	0x3f9b3763	1.2126278
6	0x3f54a975	0.8307107
7	0x3edaf65e	0.42766088
8	0x3fce0328	1.6094713
9	0x3fb7ceb4	1.4359956
10	0x3f8086c3	1.0041126
11	0x3f81eb48	1.0149927
12	0x4007cf6d	2.1220353
13	0x3f05b076	0.52222383
14	0x3f862649	1.0480434
15	0x3f4d9f20	0.8032093
16	0x3fa408cc	1.2815185
17	0x3f0b66a8	0.54453516
18	0x3f155502	0.58332837
19	0x3f3c2e97	0.7350859
20	0x3edbce09	0.4293063
21	0x3fa6fa8d	1.3045212
22	0x3f4ee44d	0.8081711
23	0x3f7106a6	0.9415077
24	0x3ef9ca0c	0.48786962
25	0x3f8953a6	1.0728652
26	0x3f998e86	1.199662
27	0x3f971bdd	1.1805378
28	0x3faef69a	1.3669007
29	0x3f48cd92	0.78438675
30	0x3fa0648d	1.2530686
31	0x3f39b7bc	0.7254598
32	0x3edfb92c	0.43695962
33	0x3ee544f9	0.44779184
34	0x3edd619a	0.43238527
35	0x3ee1d9fe	0.44111627
36	0x3f38fae4	0.7225783
37	0x3f593182	0.8484117
38	0x3f37b6ae	0.7176312
39	0x3ee5a787	0.44854376
40	0x3f846dc3	1.0345997
41	0x3f74276e	0.95372665
42	0x3fa1a91d	1.2629734
43	0x3f84cfb1	1.0375882
44	0x3fd23ebf	1.6425399
45	0x3f61d432	0.8821441
46	0x3f5d6300	0.86479187
47	0x3f9de9a8	1.2336931
48	0x3ef722e5	0.4826881
49	0x3fba0d23	1.4535259
50	0x3ed18548	0.40921998
51	0x3ea736e8	0.32659078
52	0x3ee4f525	0.4471828
53	0x3f9f196c	1.2429633
54	0x3f742964	0.9537566
55	0x3fb029f0	1.3762798
56	0x3f41e1f1	0.75735384
57	0x3e9ebf50	0.31005335
58	0x3f5bd9e6	0.8587936
59	0x3ec5f2c4	0.38661778
60	0x3f190e83	0.5978777
61	0x3f1e6265	0.6186889
62	0x3ec0f676	0.37688035
63	0x3fd0d1d0	1.631403
64	0x3f85e75e	1.0461233
65	0x3f97ee67	1.186963
66	0x3e80a692	0.25127083
67	0x3eeaa630	0.45829916
68	0x3f01993e	0.50624454
69	0x3eff7fbf	0.4990215
70	0x3fd8e89b	1.6945986
71	0x3f13e29b	0.5776765
72	0x3ee5ce2a	0.44883853
73	0x3e806c12	0.2508245
74	0x3f89e826	1.0773971
75	0x3f2ac24a	0.6670271
76	0x3f079168	0.5295625
77	0x3f0537ec	0.52038455
78	0x3fb2f484	1.398087
79	0x3fbbdf06	1.4677436
80	0x3f9fa674	1.2472672
81	0x3f9e9b57	1.2391156
82	0x3f97f83a	1.1872628
83	0x3f4a56c1	0.79038626
84	0x3f2754d3	0.65363806
85	0x3fe8971d	1.8171116
86	0x3fa4657a	1.2843468
87	0x3f955fad	1.1669823
88	0x3f4e3631	0.8055144
89	0x3f2b878c	0.67003703
90	0x3f476b6a	0.77898276
91	0x3f810b7f	1.0081633
92	0x3fb8e23e	1.4444044
93	0x3faf2fcf	1.3686465
94	0x3ff4f494	1.9137139
95	0x3f15ad73	0.5846779
96	0x3f69512b	0.9113948
97	0x3f056b93	0.5211727
98	0x3fa70c9a	1.3050721
99	0x3fa25c2b	1.2684377
100	0x3ff6f48f	1.9293383
101	0x3ef70dda	0.48252755
102	0x3f0cbf40	0.54979324
103	0x3ede41b2	0.43409497
104	0x3f9fd4eb	1.2486852
105	0x3f253d74	0.64546895
106	0x3f83361c	1.0250888
107	0x3f887726	1.0661361
108	0x3edc9676	0.43083543
109	0x3f874378	1.0567465
110	0x3f7b11dc	0.98074126
111	0x3f5a7bbe	0.85345066
112	0x3ec70f56	0.38878888
113	0x3f1d99bf	0.6156272
114	0x3f4424cd	0.76618654
115	0x3f941c65	1.1571165
116	0x3f5af08e	0.8552331
117	0x3fb6a10d	1.4267899
118	0x3f072168	0.5278535
119	0x3f8f5406	1.1197517
120	0x3fa126b3	1.2589935
121	0x3fd5402e	1.6660211
122	0x3f6403b4	0.8906815
123	0x3f431093	0.76197165
124	0x3f3ed3f4	0.74542165
125	0x3fbd5011	1.4790059
126	0x3fa0198c	1.2507796
127	0x3fa39f03	1.2782902
128	0x3f7aae5a	0.9792229
129	0x3f63668b	0.88828343
130	0x4003a1f9	2.056761
131	0x3fb9f718	1.4528532
132	0x3f1aa3be	0.604061
133	0x3f2cffc6	0.6757778
134	0x3fc80750	1.5627232
135	0x3efaf2a3	0.49013242
136	0x3e963639	0.29338244
137	0x3fb01b1c	1.3758273
138	0x3f4f4f35	0.80980235
139	0x3ecebd19	0.40378645
140	0x3ec4364e	0.3832268
141	0x3fa933df	1.3218955
142	0x3f30abbb	0.6901204
143	0x3fa3798a	1.2771466
144	0x3fdc1281	1.7193147
145	0x3f30e1f5	0.69094783
146	0x3f82dd85	1.0223852
147	0x3f384fb7	0.71996635
148	0x3fc67e70	1.5507336
149	0x3f09bb88	0.53801775
150	0x3e8277fe	0.25482172
151	0x3f13ee27	0.57785267
152	0x3f9b1b5c	1.2117724
153	0x3ef0e8d4	0.47052634
154	0x3f878979	1.0588828
155	0x3f94c97f	1.1623992
156	0x3fd327db	1.6496538
157	0x3f7b5440	0.9817543
158	0x3fa68d67	1.3011903
159	0x3f442825	0.76623756
160	0x3f98153c	1.188148
161	0x3f9821ea	1.188535
162	0x3f34aba8	0.70574427
163	0x3fac21b0	1.3447781
164	0x3ee46782	0.4461022
165	0x3fa4038c	1.2813582
166	0x3f7a5d11	0.9779826
167	0x3f8b1b1e	1.086765
168	0x3fce2112	1.6103842
169	0x3f1d6c3d	0.61493284
170	0x3f83ba7b	1.0291284
171	0x3efe4d40	0.49668312
172	0x3f3864ae	0.72028625
173	0x3f04cbb8	0.5187335
174	0x3f9b6a7f	1.2141875
175	0x3f57b774	0.842643
176	0x3fa4e5a3	1.288258
177	0x3fe89dd9	1.8173171
178	0x3ed06b72	0.40706974
179	0x3f685554	0.907552
180	0x3ef3d86f	0.47626063
181	0x3fc37efe	1.527313
182	0x3eeb8bed	0.46005192
183	0x3f1dc6c5	0.61631423
184	0x3f22f79d	0.6365908
185	0x3f9c0825	1.2189986
186	0x3f8088f8	1.00418
187	0x3f30e400	0.690979
188	0x3e9d06c1	0.30669215
189	0x3ec51856	0.3849513
190	0x3f8d9ec7	1.106408
191	0x3f19c369	0.600638
192	0x3fdbd807	1.7175301
193	0x3faab446	1.3336265
194	0x3f351f1f	0.7075061
195	0x3f1f5e9c	0.6225374
196	0x3f91f03e	1.1401441
197	0x3fb49b23	1.4109844
198	0x3f338e01	0.70138556
199	0x3f127ed8	0.572248
200	0x3f492e55	0.7858632
201	0x3f45100e	0.7697762
202	0x3f96b270	1.1773205
203	0x3fc2243f	1.5167311
204	0x3fb43c3e	1.4080884
205	0x3fe37a5c	1.7771716
206	0x3fa1d1de	1.2642171
207	0x3f105d45	0.5639232
208	0x3f974a0e	1.1819475
209	0x3f349b84	0.705498
210	0x3fe1de7c	1.7646022
211	0x3ef813a8	0.48452497
212	0x3f5af0e4	0.8552382
213	0x3ebb5202	0.36586004
214	0x3e9e1690	0.3087659
215	0x3ec8c256	0.39210767
216	0x3f900d70	1.1254101
217	0x3eece090	0.46265078
218	0x3f406950	0.75160694
219	0x3f3b693f	0.7320747
220	0x3f1910bc	0.5979116
221	0x3f23f212	0.64041245
222	0x3f9c521b	1.2212557
223	0x3f611646	0.8792461
224	0x3f7307de	0.9493388
225	0x3fc1ba36	1.5134952
226	0x3f456c57	0.7711844
227	0x3f044784	0.51671624
228	0x3f85f7d5	1.0466257
229	0x3f1d4f6d	0.6144932
230	0x3f75a1f4	0.95950246
231	0x3fbc74ab	1.4723104
232	0x3f3f113b	0.74635667
233	0x3f97944c	1.1842132
234	0x3e881310	0.26577044
235	0x3f00e926	0.50355756
236	0x3f8f2a4c	1.1184783
237	0x3fb28019	1.3945342
238	0x3f2c2457	0.6724295
239	0x3f84ba1a	1.0369294
240	0x3efa975b	0.489436
241	0x3fb6b4a1	1.4273874
242	0x3f83854a	1.0275052
243	0x3fa7ebe5	1.3118864
244	0x3fdd2b5d	1.7278858
245	0x3ed4d741	0.41570476
246	0x3fdbd024	1.7172894
247	0x3f022a4b	0.50845784
248	0x3ff54f31	1.9164792
249	0x3ec6194e	0.3869118
250	0x3f0c9465	0.5491393
251	0x3f7edbc0	0.9955406
252	0x3f97bb04	1.1853948
253	0x3f6aa67e	0.91660297
254	0x3ecb851e	0.39749998
255	0x3fdbe996	1.718066

gnn_node.convs.0.mlp.1.bias f4 [256]
0	0x3f0b66db	0.5445382
1	0xbe01bc16	-0.12669405
2	0xbe2e06a9	-0.16994728
3	0xbe8af27a	-0.2713812
4	0xbecc4ebc	-0.3990382
5	0xbe2ba265	-0.16761167
6	0x3cbabd80	0.022795439
7	0x3e983eea	0.297355
8	0x3d9b74cb	0.07590636
9	0x3e503220	0.20331621
10	0x3ed3bdf1	0.4135585
11	0xbe13d9f8	-0.14438617
12	0x3e8b873a	0.27251607
13	0xbe9a4184	-0.3012811
14	0x3e0a7a10	0.13523126
15	0x3d802cd8	0.06258553
16	0xbd4e58a2	-0.050377496
17	0xbf1c9af5	-0.61173946
18	0xbdcdcd19	-0.10048885
19	0xbe8aab29	-0.2708371
20	0xbee21c74	-0.44162333
21	0x3cd79e92	0.02632073
22	0xbe43dd1f	-0.1912732
23	0x3e934002	0.28759772
24	0xbccb4b5b	-0.024816206
25	0xbe8e15af	-0.27750918
26	0xbe118798	-0.14211881
27	0x3f34069a	0.70322573
28	0x3ec24dbe	0.37949938
29	0xbe4e9138	-0.20172584
30	0x3dcd5bf7	0.100273065
31	0xbe758caf	-0.23979448
32	0xbef9b635	-0.48771825
33	0xbf1c2fd6	-0.6101049
34	0x3d381b85	0.04494812
35	0xbf2698a2	-0.6507665
36	0x3df7caad	0.12099204
37	0xbeec68d5	-0.4617373
38	0x3e996e7f	0.29967114
39	0x3e871293	0.26381359
40	0x3e3dd74c	0.1853916
41	0xbe3eb5b7	-0.18624006
42	0x3ee2ad21	0.44272712
43	0xbd310254	-0.04321511
44	0x3dfe312f	0.12411725
45	0xbe77499c	-0.24149173
46	0xbe4809a3	-0.19534926
47	0xbe237dcc	-0.15965956
48	0xbf1ae321	-0.6050282
49	0x3dfef844	0.12449697
50	0xbf07c998	-0.5304198
51	0xbf1cf963	-0.61318034
52	0x3d2f120b	0.042741816
53	0xbd78f670	-0.060781896
54	0x3cc053bf	0.023477433
55	0x3da5a234	0.080875784
56	0x3ce1ad63	0.027548498
57	0xbe17e734	-0.1483429
58	0x3e977feb	0.2958978
59	0xbf009ece	-0.50242317
60	0x3d649585	0.055806655
61	0xbe0cceb1	-0.13750722
62	0xbe923534	-0.28556216
63	0x3e608425	0.21925409
64	0x3e70f32f	0.23530267
65	0x3eaa841d	0.3330392
66	0xbe497a08	-0.19675457
67	0xbb8fbf77	-0.004386838
68	0x3d29a607	0.0414181
69	0xbe67f543	-0.22652154
70	0x3ccad97f	0.024761913
71	0xbda292da	-0.07938166
72	0xbeab369d	-0.33440104
73	0xbe33f715	-0.17574723
74	0x3d237ee1	0.039915923
75	0xbe99c190	-0.3003049
76	0xbbd302b2	-0.0064395303
77	0xbe59d870	-0.2127397
78	0x3ee11e7e	0.43968576
79	0xbd30ad61	-0.043134097
80	0x3eaf7829	0.34271362
81	0x3db194fd	0.086709954
82	0x3e85d62b	0.2613996
83	0x3e84a045	0.25903526
84	0xbdda1adf	-0.106496565
85	0xbdfc578d	-0.123213865
86	0xbd2ed4a3	-0.042683255
87	0xbe6f4058	-0.23364389
88	0x3ca4ce55	0.020117918
89	0xbdbaafbd	-0.09115551
90	0xbe9bbf25	-0.3041927
91	0xbe0930b2	-0.13397482
92	0xbc005d65	-0.007834767
93	0xbddf521c	-0.10904333
94	0x3e3fc0d3	0.187259
95	0x3e310b4e	0.17289469
96	0x3f09dc33	0.5385162
97	0xbf2a076d	-0.6641758
98	0xbe291798	-0.16512907
99	0x3e239080	0.15973091
100	0x3e55314f	0.20819591
101	0xbece9773	-0.40349922
102	0xbf503718	-0.81334066
103	0x3ebe0ceb	0.3711923
104	0xbddb236e	-0.10700117
105	0xbedff620	-0.43742466
106	0xbdafcc23	-0.08583858
107	0xbdd0bd30	-0.10192335
108	0xbe5dd979	-0.2166499
109	0x3eb1c59b	0.34721074
110	0xbdac247f	-0.084053986
111	0x3e12c6b1	0.14333607
112	0xbeb8ab2e	-0.360681
113	0xbe718206	-0.23584756
114	0x3e0cda41	0.13755132
115	0xbe137392	-0.14399555
116	0xbeacacd2	-0.337256
117	0x3d860714	0.06544319
118	0xbd83e6d2	-0.0644051
119	0xbbc34acb	-0.0059598438
120	0x3e3cc560	0.18434668
121	0xbc551969	-0.013006547
122	0x3de10fe5	0.1098936
123	0x3e154408	0.14576733
124	0xbe2ee2dd	-0.17078729
125	0x3ee2c45f	0.44290444
126	0x3db42dd5	0.08797804
127	0x3f1bfb88	0.6093068
128	0xbda8b2da	-0.08237238
129	0x3e54284e	0.207185
130	0x3e89fbba	0.26949865
131	0xbdf53913	-0.11973777
132	0xbef25e8e	-0.47337765
133	0x3d67e70d	0.05661683
134	0x3dd366d3	0.103223465
135	0xbefd1173	-0.49427375
136	0xbecd7e81	-0.40135577
137	0x3dd86f26	0.10568075
138	0xbe5dcde4	-0.21660572
139	0xbf0de77e	-0.55431354
140	0x3eb6dd91	0.35715917
141	0x3e1e3ae4	0.15452152
142	0xbec079b0	-0.3759284
143	0x3e562d9a	0.20915833
144	0x3ef11ec3	0.47093782
145	0xbe22cc90	-0.15898347
146	0xbeb5337a	-0.35390836
147	0xbe6a9028	-0.22906554
148	0xbbf4b89f	-0.0074682976
149	0x3cd67fd5	0.026184002
150	0xbe5a82fa	-0.21339026
151	0xbbb2aef5	-0.0054529854
152	0xbd9d6c43	-0.07686665
153	0xbf15ef6d	-0.5856846
154	0x3ebc3811	0.36761525
155	0xb8ae60fa	-8.31503e-05
156	0x3c421b22	0.011847289
157	0x3ea01f3a	0.31273824
158	0x3e1f5776	0.15560707
159	0xbe0728aa	-0.13199106
160	0x3d7336a5	0.059378285
161	0xbc609dfb	-0.0137095405
162	0xbdadf1c3	-0.08493378
163	0x3df188c5	0.11793665
164	0xbeff72e4	-0.49892342
165	0x3e674ec6	0.22588643
166	0xbe366e96	-0.17815623
167	0x3e80d327	0.25161096
168	0xbe37de62	-0.17955926
169	0xbe9bccae	-0.30429596
170	0xbe162f4c	-0.1466648
171	0xbe7f4ecd	-0.24932404
172	0xbf0de3d0	-0.5542574
173	0xbf10d264	-0.5657103
174	0x3de162b2	0.11005153
175	0x3f2dee70	0.6794195
176	0x3df23bca	0.1182781
177	0xbdbd3962	-0.092394605
178	0x3e93dfe4	0.28881752
179	0x3f2db5f1	0.67855746
180	0x3e00532b	0.12531726
181	0xbd2d6c4b	-0.042339604
182	0xbeb5800c	-0.35449255
183	0xbe5b3d64	-0.21410137
184	0x3e334cd4	0.17509776
185	0x3ed23fe6	0.41064376
186	0x3f0461d1	0.51711756
187	0xbe297a7f	-0.16550635
188	0xbe200e1c	-0.15630382
189	0xbf0b71c5	-0.54470474
190	0x3f46172a	0.77379096
191	0xbeb0d7ee	-0.3453974
192	0x3e849b7c	0.25899875
193	0x3e94e9f3	0.2908474
194	0x3f1b4cba	0.6066395
195	0x3e9a4af5	0.30135313
196	0xbc319bb3	-0.010840344
197	0x3e791984	0.2432614
198	0xbe957155	-0.29188028
199	0xbf006295	-0.50150424
200	0x3e5b617f	0.2142391
201	0xbcd2acee	-0.025717225
202	0xbda57cef	-0.0808047
203	0x3f0485ac	0.5176647
204	0x3d231d89	0.03982309
205	0x3e762ebf	0.2404127
206	0x3ed8725a	0.42274743
207	0xbeb0f3b2	-0.34560925
208	0xbdbde317	-0.092718296
209	0xbede2275	-0.43385664
210	0x3e262b99	0.16227569
211	0xbee4b82f	-0.4467177
212	0xbf1b408e	-0.6064538
213	0xbece5809	-0.4030154
214	0xbea2a7a5	-0.31768528
215	0xbedefae2	-0.43550783
216	0x3db0e196	0.08636777
217	0xbd9aa4d3	-0.07550969
218	0xbe449471	-0.19197251
219	0xbd98244d	-0.07428799
220	0xbef2ceac	-0.47423303
221	0x3e310ae8	0.17289317
222	0xbe405db8	-0.18785751
223	0x3f1459e0	0.5794964
224	0xbe02b4d2	-0.1276429
225	0x3ef6d48d	0.48209038
226	0x3eda8b2d	0.42684308
227	0xbe0ff10c	-0.14056796
228	0x3d8bad29	0.06820137
229	0xbe2ab9fc	-0.1667251
230	0x3e0c3132	0.13690642
231	0x3e90a6f6	0.2825238
232	0xbd0506a2	-0.03247703
233	0x3ccdcdef	0.02512261
234	0xbee9ca60	-0.45662212
235	0xbee2f2d6	-0.44325894
236	0xbe150957	-0.14554344
237	0x3d5a7df3	0.05334277
238	0xbe14e62b	-0.14540927
239	0xbdee2353	-0.11627831
240	0xbf037276	-0.5134653
241	0x3f1ec3de	0.6201762
242	0x3e58a606	0.21157083
243	0x3de06cda	0.10958262
244	0x3e97bb25	0.29634967
245	0xbecea68d	-0.40361443
246	0xbd841060	-0.06448436
247	0xbe972324	-0.29518998
248	0x3f1eacc0	0.61982346
249	0xbf0c16f5	-0.5472253
250	0xbf1d4373	-0.61431044
251	0x3e8a2c08	0.26986718
252	0x3e48a125	0.19592722
253	0xbb13cf7a	-0.0022554086
254	0xbc8f9979	-0.017529236
255	0x3e8d1a81	0.27559283

gnn_node.convs.0.mlp.1.running_mean f4 [256]
0	0xbff1d49b	-1.8893007
1	0x407cc281	3.9493716
2	0xc03ad839	-2.9194472
3	0x40106f07	2.2567766
4	0xc001325d	-2.018699
5	0xc08b8a43	-4.3606277
6	0xc09579d5	-4.671122
7	0x3f930d24	1.1488385
8	0xbf91fec8	-1.1405878
9	0xc0ae20a4	-5.4414845
10	0xbfdbef15	-1.7182337
11	0xc0b0a13a	-5.519681
12	0xc0753e74	-3.8319368
13	0x4075bec8	3.8397694
14	0xbfd6983c	-1.6765208
15	0x40801b84	4.003359
16	0xc0db692e	-6.8565893
17	0x3e399557	0.18123375
18	0x40c3b157	6.115398
19	0xbfd0a98a	-1.6301739
20	0x40e022ab	7.004232
21	0xc0a0c157	-5.023601
22	0xbfafe179	-1.3740684
23	0xc04872eb	-3.132014
24	0x408a5e4f	4.3240123
25	0xc0634aa0	-3.5514297
26	0xc0775e84	-3.8651438
27	0x411a4392	9.641497
28	0xc01ec4da	-2.4807649
29	0xc08d6819	-4.418957
30	0xc09a35b4	-4.8190556
31	0xc0257f44	-2.5858927
32	0x3daabc5f	0.0833671
33	0x41062c13	8.38576
34	0x409be88e	4.872138
35	0x40eebfa9	7.460896
36	0x40c6016f	6.187675
37	0x40c608f8	6.188595
38	0x408a12c9	4.314793
39	0x40a3c7c9	5.118138
40	0x40199b70	2.4001122
41	0xc08e0404	-4.43799
42	0xbfd30246	-1.6485069
43	0xc0ce14ef	-6.4400554
44	0xc0cc1abc	-6.3782635
45	0x3fa39d63	1.2782406
46	0xc08b2574	-4.348322
47	0xc05e3534	-3.4719973
48	0x409a389f	4.8194118
49	0xc0ad82dd	-5.4222245
50	0x4086ae04	4.208742
51	0x40a0bb0b	5.0228324
52	0x40a7fde1	5.249741
53	0xc0cb1f37	-6.3475604
54	0xbff07f49	-1.8788844
55	0xc0716585	-3.7718213
56	0xc02eb82b	-2.7299907
57	0x407fc47f	3.9963682
58	0x40e1556b	7.041677
59	0x403b932d	2.930858
60	0x40a2970a	5.0809374
61	0xbf61bd8e	-0.8817986
62	0xc06dcf91	-3.7157938
63	0x3f86394b	1.0486234
64	0x3f8b3ce4	1.0877957
65	0xbf7ec615	-0.99521
66	0x40c0175f	6.002853
67	0x3fc44fbf	1.5336837
68	0x405e336e	3.471889
69	0xc042cc5d	-3.0437233
70	0xc05dc0f1	-3.4649012
71	0x408bbac3	4.366548
72	0xc0509da9	-3.2596228
73	0x408319ad	4.0968843
74	0xc02f10db	-2.7354038
75	0xc0b469e8	-5.637928
76	0x4000c721	2.0121539
77	0x40c8bc4a	6.2729845
78	0x3f41d19b	0.7571046
79	0xc0243ef0	-2.5663414
80	0xbecb0b06	-0.39656848
81	0xbfccd468	-1.6002321
82	0x3edb5f00	0.42845917
83	0x40d09080	6.517639
84	0xc0071f05	-2.1112683
85	0xc07eee0d	-3.9832795
86	0xc0ea21f4	-7.3166447
87	0xc058bafb	-3.3864124
88	0xbf06c1b6	-0.5263933
89	0xc09b4a6e	-4.8528357
90	0xbf4f5f91	-0.810052
91	0xc0a453b1	-5.135216
92	0xc099885d	-4.797896
93	0xc08c285d	-4.379927
94	0xbf7a00ef	-0.97657675
95	0x40a54965	5.1652093
96	0x40b518c4	5.659273
97	0x40c85c77	6.261287
98	0xc07b87f4	-3.930173
99	0xc0ef177b	-7.4716163
100	0xc036bb41	-2.855179
101	0x3ef99d71	0.4875293
102	0x40f11433	7.5337157
103	0x40a01f58	5.003826
104	0xc07a9fdb	-3.9160068
105	0x409f83b1	4.9848256
106	0xc0bce5a1	-5.903031
107	0xc0b9185d	-5.784224
108	0x4095cf61	4.681565
109	0xc062c448	-3.54323
110	0xbfcdc64b	-1.6076139
111	0xbf485959	-0.78261334
112	0x408f025e	4.469039
113	0xbfb91ca6	-1.4461868
114	0xc012dd1e	-2.294746
115	0xc01c7b1e	-2.4450145
116	0x40c17e83	6.0466933
117	0xc1053341	-8.325013
118	0xc0532b39	-3.299513
119	0xc05e6b4b	-3.4752986
120	0xc09d7516	-4.9205427
121	0xc063a811	-3.557133
122	0x3ff5ab3d	1.9192883
123	0xc066b666	-3.6048827
124	0xbf1283b7	-0.5723223
125	0xbe3a68c4	-0.18204027
126	0xc0c90b71	-6.2826467
127	0xbffda14f	-1.9814852
128	0xc024484f	-2.5669134
129	0xc07cf780	-3.9526062
130	0xc0075519	-2.114569
131	0xc046a306	-3.1037002
132	0xbfcb1ebd	-1.5868756
133	0xbe99ebf4	-0.3006283
134	0xbfaf6592	-1.3702872
135	0x40aa4ea5	5.3221
136	0xbf1db4cf	-0.61604017
137	0xc0c60667	-6.1882815
138	0xc02042c3	-2.5040748
139	0x407dc922	3.9654012
140	0x409dfe2b	4.9372764
141	0xbf0a452e	-0.5401181
142	0xc0835aa2	-4.1048136
143	0xbf28a511	-0.6587687
144	0x3fa73552	1.3063147
145	0x401692ee	2.3527179
146	0xc0a71176	-5.2208815
147	0xc02fb039	-2.7451308
148	0xc0bd6974	-5.9191227
149	0x40464efa	3.0985703
150	0x407ced51	3.9519846
151	0x410505ce	8.313917
152	0x3e0ebbe1	0.13938858
153	0x40b8125b	5.7522407
154	0xc0927ec4	-4.5779743
155	0xbfccb914	-1.5993981
156	0xc02d595f	-2.7085798
157	0xc0a77006	-5.2324247
158	0xc00ee536	-2.23274
159	0xbfa838b1	-1.3142301
160	0xc0dd2b4a	-6.9115343
161	0xc0126cc8	-2.2878895
162	0xc0960b01	-4.6888433
163	0xc06fd839	-3.7475722
164	0x3f6b0753	0.9180805
165	0xbf8f232e	-1.1182611
166	0xc0bf59b0	-5.979698
167	0xc03e3568	-2.9720097
168	0xc00b6fbd	-2.178695
169	0xbf8cbe79	-1.0995628
170	0xc0b03045	-5.5058923
171	0x40aae7b1	5.3407826
172	0x410041d5	8.016072
173	0x40b86e48	5.763462
174	0xc0ba4dc4	-5.821993
175	0x3f36dec2	0.7143365
176	0xc06b8a9e	-3.6803355
177	0xc0a0aa51	-5.0207906
178	0x40184465	2.3791745
179	0xbeefcf20	-0.4683771
180	0x408b45e2	4.3522806
181	0xc0d29faf	-6.5819926
182	0x4081d556	4.057292
183	0xbfa28c0e	-1.2698991
184	0x40139db6	2.306501
185	0xc09ab9b6	-4.83517
186	0x40d48e8e	6.6424017
187	0xbfdd1488	-1.7271891
188	0x40e05d3e	7.011382
189	0x40f31aea	7.5970354
190	0xc0057cd1	-2.0857432
191	0xbf3b59c3	-0.7318384
192	0x3fa0cd06	1.2562568
193	0xc070c02f	-3.76173
194	0x40dc8946	6.891757
195	0x40d86f53	6.7635894
196	0xc08ee19c	-4.46504
197	0xbf082aeb	-0.5319049
198	0xc012dd5f	-2.2947614
199	0x40e1be35	7.0544686
200	0xc09dd493	-4.932199
201	0xbfa96a71	-1.3235608
202	0xc0a5ffd2	-5.187478
203	0xbdc3c5a9	-0.09559185
204	0xc0a67692	-5.201974
205	0x3f466da3	0.7751104
206	0x3eefcca8	0.46835828
207	0xbf93ca44	-1.1546102
208	0xc09ed26d	-4.9631867
209	0x40b64c26	5.6967955
210	0xc030cdd8	-2.7625637
211	0x40b3514e	5.603675
212	0x4101357f	8.075561
213	0x4080ee22	4.029069
214	0x4068e175	3.6387608
215	0x4005d576	2.0911536
216	0xc0712da3	-3.7684104
217	0x40ac0ecd	5.3768067
218	0xc04a4ab0	-3.1608086
219	0xc09f597d	-4.979674
220	0x40c24950	6.0714493
221	0x4080edb7	4.029018
222	0xc097c53e	-4.7428274
223	0x40dcf3f7	6.904781
224	0xc06490e2	-3.571343
225	0xc0a0702c	-5.013693
226	0x40dfe584	6.996767
227	0x40be418b	5.945501
228	0xc0aa71e1	-5.326401
229	0xc04b572d	-3.1771958
230	0x40a822f3	5.2542663
231	0x4030006c	2.7500257
232	0xbf7fba82	-0.99893963
233	0xc0b738da	-5.72569
234	0x4095e376	4.684016
235	0xbfe82080	-1.8134918
236	0xc045d6c8	-3.0912342
237	0xc0445299	-3.0675414
238	0xbf6bb4b9	-0.92072636
239	0xc038a72c	-2.8852034
240	0x40a913d8	5.2836723
241	0x3ffb27fe	1.962158
242	0xc00b24d6	-2.1741233
243	0xc0afb6a4	-5.491045
244	0xbf32c26c	-0.69827914
245	0x40928aa8	4.579426
246	0xc08dc268	-4.429981
247	0x40c5f068	6.1855965
248	0xc03ae4d8	-2.9202175
249	0x40a39422	5.1118326
250	0x409859db	4.7609687
251	0xbea543e3	-0.32278356
252	0xbf8341a2	-1.0254405
253	0xc01b8973	-2.4302642
254	0x404ff2fe	3.249206
255	0x3f0e2a38	0.5553317

gnn_node.convs.0.mlp.1.running_var f4 [256]
0	0x4226c04a	41.687782
1	0x41ea6999	29.301561
2	0x417219d7	15.131309
3	0x41ce634b	25.798483
4	0x41b27655	22.30778
5	0x4276d937	61.712124
6	0x42046ab1	33.10419
7	0x41850453	16.627111
8	0x429006a8	72.013
9	0x420593d5	33.394367
10	0x4212cf24	36.702286
11	0x41c79943	24.949835
12	0x437063cd	240.38985
13	0x4208fb56	34.245445
14	0x42a930b0	84.59509
15	0x423bce59	46.95151
16	0x421c8bb1	39.136417
17	0x41e21b5c	28.26336
18	0x421dda53	39.463207
19	0x41318120	11.094025
20	0x4260eaa9	56.22916
21	0x419bb52f	19.463469
22	0x417881c4	15.531681
23	0x41825c2d	16.295008
24	0x41afbaf0	21.966278
25	0x4207fb50	33.995422
26	0x4272fbcc	60.745895
27	0x425a1f99	54.530857
28	0x421443cc	37.066208
29	0x420a3a74	34.557083
30	0x41bdc925	23.723215
31	0x41a5653e	20.674435
32	0x41e27a5d	28.309748
33	0x428b6e2c	69.71518
34	0x41ed282e	29.644619
35	0x4231a5b8	44.411835
36	0x42075540	33.833252
37	0x420378d3	32.867992
38	0x4220fa7b	40.24461
39	0x421852e3	38.080944
40	0x423f8950	47.884094
41	0x41aa87f9	21.316393
42	0x423f4d8b	47.825726
43	0x4200fca0	32.246704
44	0x41db691e	27.426327
45	0x41ac7e50	21.561676
46	0x41205318	10.020287
47	0x423395d5	44.89632
48	0x4219ee3f	38.482662
49	0x41b068c2	22.051151
50	0x415443c9	13.266549
51	0x415bb913	13.732684
52	0x41cf8c4f	25.94351
53	0x42133a63	36.80702
54	0x422dfb96	43.49569
55	0x4141071c	12.064236
56	0x413fff29	11.999795
57	0x41590f02	13.566164
58	0x4288a43e	68.320786
59	0x419c4ac4	19.536507
60	0x420f69c4	35.853287
61	0x41862110	16.766144
62	0x4190d140	18.102173
63	0x428bbeef	69.87292
64	0x414bbe4c	12.733959
65	0x4235dd61	45.46619
66	0x41eeb2cc	29.837303
67	0x41c21421	24.259829
68	0x41ee0355	29.751627
69	0x413ae572	11.681017
70	0x428b621a	69.691605
71	0x41dc725c	27.55584
72	0x4236a9ed	45.665943
73	0x41a62009	20.765642
74	0x41514204	13.078617
75	0x41bffd82	23.998783
76	0x42009b74	32.15181
77	0x42562634	53.537308
78	0x425333d7	52.800625
79	0x4295855b	74.76046
80	0x42215bce	40.339653
81	0x420073a4	32.11293
82	0x41464b9f	12.393462
83	0x42691e4e	58.279594
84	0x41daf70d	27.37063
85	0x42bc77f3	94.234276
86	0x421d28ce	39.28985
87	0x426643a0	57.56604
88	0x42247a88	41.11966
89	0x418dae63	17.71015
90	0x417488f2	15.283434
91	0x4199e264	19.235542
92	0x4227540f	41.83209
93	0x42ca9143	101.283714
94	0x43164260	150.25928
95	0x421539b1	37.30634
96	0x42356939	45.352757
97	0x425d7179	55.360813
98	0x422180e1	40.37586
99	0x420b8142	34.87623
100	0x4322b258	162.69666
101	0x41d8869d	27.06573
102	0x4253d38a	52.95658
103	0x41e2715e	28.305355
104	0x4269f239	58.486546
105	0x4205b260	33.424194
106	0x41de1789	27.761492
107	0x41cca872	25.582249
108	0x41adcdfd	21.72558
109	0x417f03ad	15.938397
110	0x4117634d	9.461743
111	0x41f1fa83	30.24732
112	0x41bd7d32	23.68613
113	0x425912bf	54.268307
114	0x41a937ca	21.15224
115	0x422128f3	40.28999
116	0x41c409dd	24.504816
117	0x4248b53d	50.17699
118	0x4188862b	17.065512
119	0x4273ad6b	60.919353
120	0x4183d75b	16.480154
121	0x42c9abf3	100.83584
122	0x41f536c7	30.651747
123	0x418ae7fe	17.363277
124	0x418d568f	17.667265
125	0x424518b4	49.274124
126	0x4208298c	34.040573
127	0x421e3504	39.551773
128	0x4209baf2	34.432564
129	0x413ce955	11.806966
130	0x434992a6	201.57285
131	0x42be458d	95.13584
132	0x41c1d244	24.227669
133	0x415f1bad	13.944257
134	0x429ff0b4	79.97012
135	0x421b966a	38.89689
136	0x418d232f	17.64218
137	0x41fc66dc	31.550224
138	0x418ba028	17.453201
139	0x41cb5cc4	25.420296
140	0x42416b9c	48.355087
141	0x42384c9d	46.074818
142	0x4189f628	17.245193
143	0x4167ba2b	14.482951
144	0x422a23c7	42.53494
145	0x4189461d	17.159235
146	0x41f12f5b	30.148123
147	0x41281e66	10.5074215
148	0x41b7ed56	22.990887
149	0x4181c76b	16.222372
150	0x41d1af04	26.210457
151	0x421ed8ff	39.71191
152	0x416b1527	14.692664
153	0x4204b34d	33.1751
154	0x419b3ae1	19.40375
155	0x425b0679	54.75632
156	0x42d0e87c	104.45407
157	0x41bf0e04	23.881844
158	0x42909dde	72.308334
159	0x415fbefb	13.984126
160	0x419aded5	19.358805
161	0x42321593	44.52107
162	0x41a100fa	20.125477
163	0x41167dd7	9.405723
164	0x41f15687	30.16725
165	0x416193ad	14.098554
166	0x41971484	18.885017
167	0x412549dc	10.330532
168	0x42b37be1	89.74195
169	0x41b8088d	23.004175
170	0x419ea3ba	19.829945
171	0x41939cb6	18.451519
172	0x42015da9	32.341465
173	0x4256e5da	53.724464
174	0x41ee0f01	29.757326
175	0x4196fa3b	18.872183
176	0x412e9a2e	10.912642
177	0x432dbb39	173.73134
178	0x41c5e43a	24.736439
179	0x41deb1cc	27.836815
180	0x41ef47d9	29.910082
181	0x42435f7a	48.84324
182	0x41d9dcf1	27.232882
183	0x419bbadb	19.466238
184	0x41d4c168	26.594437
185	0x41d67595	26.807413
186	0x411feb0b	9.994884
187	0x424798e7	49.89932
188	0x4200e441	32.222904
189	0x424331ff	48.798824
190	0x42386caf	46.106136
191	0x415c2c4a	13.760813
192	0x42acd3aa	86.41341
193	0x415cc3de	13.797819
194	0x4216aade	37.666862
195	0x42649c8c	57.152878
196	0x4301b5f5	129.71077
197	0x41febb0b	31.84133
198	0x412d027a	10.813105
199	0x42c5dee7	98.935356
200	0x421bf994	38.99373
201	0x414667fb	12.400386
202	0x41609475	14.036244
203	0x42227cc6	40.62185
204	0x41f7a5e9	30.95601
205	0x42b3f09d	89.96995
206	0x4232dc67	44.715237
207	0x41ba2030	23.265717
208	0x42aeadd3	87.3395
209	0x420490e6	33.141502
210	0x42fdff09	126.998116
211	0x421e4009	39.562534
212	0x4234eb50	45.229797
213	0x42135466	36.83242
214	0x41c3c195	24.469522
215	0x41938ead	18.444666
216	0x4115aabc	9.354183
217	0x4209bdb5	34.43526
218	0x4217218b	37.782757
219	0x41751446	15.31745
220	0x41e82869	29.019732
221	0x4217f6af	37.990902
222	0x423feb9c	47.980087
223	0x42828460	65.258545
224	0x42454c6f	49.324642
225	0x4268e1d9	58.220554
226	0x4225984a	41.39872
227	0x422c4763	43.069714
228	0x420d61fc	35.345688
229	0x4191e9e1	18.239199
230	0x41bf6ed8	23.929123
231	0x41fb11ec	31.38375
232	0x414e5215	12.89504
233	0x41d68fe3	26.820257
234	0x41bee168	23.860062
235	0x41b18e65	22.194529
236	0x4246bc88	49.684113
237	0x42cf44e0	103.63452
238	0x41c3c97a	24.473377
239	0x41abd2ea	21.477985
240	0x42174ecf	37.82696
241	0x4192e8a7	18.3636
242	0x41286595	10.5248
243	0x41d97a22	27.184635
244	0x42e57726	114.73271
245	0x420779ab	33.868816
246	0x425b0b6d	54.761158
247	0x42370b88	45.76126
248	0x420538e2	33.30555
249	0x42300792	44.007393
250	0x42529277	52.643032
251	0x41c86857	25.050947
252	0x41bc4087	23.531507
253	0x424fbdac	51.935226
254	0x4186a898	16.832321
255	0x42ae17ec	87.04672
