checkpoints/A_epoch_40.pth (torch, 843938 bytes, 48 tensors)

gnn_node.node_encoder.weight f4 [1, 128]
00000000: fbb6 1dbf 7be9 cb3e 75f5 c7be 4372 053f
00000010: bb81 363e 9621 6c3f fcd7 093f 347e b93c
00000020: 5e7a 0f3e 1dee 4abf 0d3f 83be bed3 0dbf
00000030: 146a 3bbf f613 923f 5505 2ac0 3513 6bbf
00000040: 43df 85bd 2920 553e dba6 c33e 6b1c 87bf
00000050: 3596 1ebf 2ecc 4fbf a3c5 5cbe 191a cbbf
00000060: 7949 87bf a5f8 e3bf 5aca efbf 434a a7bf
00000070: 0457 90be 7935 25bf b264 96be ad31 33c0
00000080: 26bb 92be 2a4e 8dbf bb0e 913e 6a3b 113f
00000090: ad1c ef3e 81c3 64bf e65c 6f3d e07d a33e
000000a0: 484f abbf bb5a b4be c1ca 3d3f 4674 eabf
000000b0: 5832 8c3e 66b1 d63e f816 adbf ceb2 22c0
000000c0: 6425 3d3d d611 c9bf a66a 3cbf 66a3 23bf
000000d0: 941b 793e 2bfe 2ebf 6423 80bf f002 b5be
000000e0: 7084 093f 190f 553f 890a 853e 3256 833e
000000f0: acb5 8dbf 559e 7f3e ea6d 9a3e 1d67 4e3e
00000100: 14b3 d5bf 88db 05be 39e8 d7bf 92d3 85bf
00000110: 7851 f1bf c71e b13f b63b 6e3f c1a5 63bf
00000120: 1f9a be3e 1d06 86bf cd48 15bf 3b56 bd3d
00000130: 9668 dcbd 6408 bfbd eecc 6a3e cff0 d5bd
00000140: 7ad8 a3bf f0f3 aebf e6e2 aebf 64b5 303f
00000150: e599 f73e 0494 e13e 3712 eb3e f25f 503b
00000160: b64c 04bf 4060 153e 1bcf edbf 5a60 abbe
00000170: b564 34bf 2578 113f 98d6 a4bf fad4 e7be
00000180: 211d 29bf 87f8 83be 9aff 843d c674 8dbc
00000190: ca17 92bf 8c29 99bf 7500 01c0 bb1b 2dbf
000001a0: 7c0e e0bf 76a2 e73e 566f 853f 7284 99bf
000001b0: 7b7c 5fbe d75f 42bf 7d0a 51bf 1aed 51bf
000001c0: 2794 93be 950a e7bf 3cc7 a0bf 1a39 8dbf
000001d0: ac7d bf3d a426 fbbf ccb2 ef3e 36a8 d23c
000001e0: b766 23bf 36b6 53bf a5c8 0f3f 9e3d 473e
000001f0: 29be f5be 44fe 463f a913 c2bf ca9d 033f
-0.6160733 0.3982657 -0.39054456 0.52127475 0.17822926 0.9223875 0.5384519 0.022643186
0.14011523 -0.7926958 -0.2563404 -0.5540122 -0.7320874 1.1412342 -2.6565754 -0.9182618
-0.065367244 0.2081305 0.38213238 -1.0555547 -0.6194795 -0.8117093 -0.21559767 -1.5867339
-1.0569297 -1.7810255 -1.8733628 -1.3069538 -0.28191388 -0.6453472 -0.293737 -2.799907
-0.28658408 -1.1039479 0.2833155 0.56731284 0.46701565 -0.89360815 0.058438204 0.31931973
-1.338357 -0.35225472 0.741375 -1.8316734 0.2738216 0.4193222 -1.3522635 -2.5421634
0.046178237 -1.5708568 -0.7360023 -0.639212 0.24326926 -0.6835658 -1.00108 -0.35353804
0.5371771 0.8322616 0.259846 0.256517 -1.1071067 0.24962743 0.30161983 0.20156522
-1.6695275 -0.13072026 -1.6867744 -1.0455191 -1.8852987 1.3837517 0.9305986 -0.88924795
0.3722696 -1.0470616 -0.5831421 0.09244963 -0.10762136 -0.09327772 0.22929737 -0.10446321
-1.2800438 -1.3668194 -1.3662994 0.6902678 0.483596 0.4405824 0.45912334 0.003179547
-0.5167955 0.14587498 -1.8578829 -0.33471948 -0.70466167 0.5682395 -1.2877989 -0.45279676
-0.6606007 -0.2577555 0.06494065 -0.017267596 -1.141351 -1.1965804 -2.015653 -0.6762044
-1.750442 0.45241135 1.0424602 -1.1993544 -0.2182483 -0.7592749 -0.8165663 -0.82002413
-0.2882397 -1.8050104 -1.2560802 -1.1033051 0.09350142 -1.9621167 0.468161 0.025714975
-0.63828605 -0.82699907 0.56165534 0.19457099 -0.47996643 0.7773173 -1.516225 0.5141264

gnn_node.virtualnode_embedding.weight f4 [1, 128]
00000000: 00f5 d8be 7862 fabe d928 dabe 2486 e6be
00000010: 0c32 52be ecb5 56bf 0ebb fabe 192d f2be
00000020: f9fe dfbe bd4e 9cbe 1da4 28bd d009 0abf
00000030: 3a59 e6bd 0b0c 60bf 6a95 dcbe f926 e9bd
00000040: a5db 43be 629c 53be e209 0bbf ae81 77be
00000050: c1e6 60be 60b4 c9bd 2935 7bbc 67fb 32be
00000060: 53ee c6be 8c8e f2be b5c4 8b3d ba80 abbe
00000070: 101f aebe decd 67be a092 25bd c6de d63c
00000080: e792 3bbe 6eb9 b23d e1d6 03bf c579 87be
00000090: 9b7a 9d3d 210e 9ebe b53a 1fbf aca0 b7be
000000a0: 2c8d af3d 397b 08be 9392 48bf cc80 b5be
000000b0: 7d3d 07be d066 86be e5d7 123e 89ca d8be
000000c0: 5f0d 20bf b4ed d1bd 9d1c 6bbe 2c6e 97be
000000d0: 9ac3 3abe 8747 92bd bfd0 d5be 1da2 86be
000000e0: 8e3f 2bbe 2510 bfbe e91b 38bf 8b74 0fbf
000000f0: 3600 44be fcd5 2dbe 53c5 9ebe 9cb1 15be
00000100: c474 61bf b9a0 e23d f7b2 babe af61 85be
00000110: ecd5 b2be a43a 1ebf 6ef1 fbbe 729e 60bd
00000120: 22ea e6be afef 89be cbaf debe 4bc0 a8be
00000130: f259 9fbe 522f 81be e356 a8be cb70 9ebe
00000140: 7552 80be 244f febd f95a f8bd 3691 88bf
00000150: d1c7 83bd 56ea 83be a20c a7be 0e86 cfbe
00000160: 65cb 11be 6478 21be 290a eebe 9d05 80be
00000170: b9c5 f3bd 491c 45be 269c 8cbe 2843 f8bd
00000180: 011c 61be 7a37 e1be 3638 85be e1b2 3fbe
00000190: ad45 b2be a12e 77be df1f c6bd a81e 393e
000001a0: 09da f9bd 2d7b 50bf 8e43 20bf 73ac b2be
000001b0: 1580 383e 37e1 cebe f37a 65be 7236 14bf
000001c0: 1fa8 41be 882f f33c 9ae2 88bd 34f3 0b3e
000001d0: e1cb 0ebf 8b2f 1cbf 0fb4 c03c 9557 87be
000001e0: 38e3 82be 55d7 9cbe 42ec d5be 321c 31be
000001f0: 8e52 8ebe 54c4 bebe e58e 32bd 8660 b7be
-0.4237442 -0.4890325 -0.4260929 -0.45024216 -0.20526904 -0.8387134 -0.48970836 -0.47300032
-0.43749216 -0.30528823 -0.041172136 -0.5392122 -0.11247487 -0.87518376 -0.43082744 -0.113843866
-0.19126756 -0.20665124 -0.54311955 -0.24170563 -0.21963026 -0.09848857 -0.015332499 -0.17478715
-0.38853702 -0.4737438 0.06824628 -0.33496648 -0.34008074 -0.22637126 -0.040423036 0.026229274
-0.18317758 0.08726774 -0.51499754 -0.2646009 0.07689401 -0.30870155 -0.62198955 -0.3586477
0.08571848 -0.13328256 -0.78348655 -0.35449827 -0.1320705 -0.26250315 0.1434017 -0.42342022
-0.625204 -0.102504164 -0.22960134 -0.29576242 -0.18238679 -0.07142549 -0.41760823 -0.26295558
-0.16723463 -0.37317005 -0.7191759 -0.56037205 -0.19140705 -0.1697616 -0.3100992 -0.14618534
-0.88068795 0.11065812 -0.36464664 -0.2605109 -0.34928834 -0.6180823 -0.49207634 -0.054838605
-0.45100504 -0.26940677 -0.43493494 -0.32959208 -0.3112331 -0.25231415 -0.3287879 -0.3094543
-0.2506291 -0.124174386 -0.12126727 -1.0669315 -0.06434596 -0.25764722 -0.32626826 -0.40531963
-0.14237745 -0.15768582 -0.46492127 -0.25004283 -0.11902947 -0.19249071 -0.27462882 -0.12122184
-0.21983339 -0.43987638 -0.26019448 -0.1872058 -0.34818783 -0.24138881 -0.09674048 0.180781
-0.1219979 -0.8143795 -0.6260308 -0.34897193 0.1801761 -0.404062 -0.22410183 -0.57895577
-0.1891179 0.02968575 -0.06683846 0.13666993 -0.55779845 -0.61010045 0.023523359 -0.26434007
-0.2556398 -0.30633035 -0.41781813 -0.17295912 -0.2779736 -0.3725916 -0.043593306 -0.3581583

gnn_node.convs.0.mlp.0.weight f4 [256, 128]
00000000: 4101 5ebc a276 ccbe 3ed6 35bf 70a0 f1be
00000010: 8f06 493e bcf5 a0be d678 f2bc 7b22 82be
00000020: debf 16be 9850 8a3b de37 38bf a6f4 b73d
00000030: e0f9 453d 033e cdbd 28a7 153d b586 46bd
00000040: 9475 abbf 02a8 fdbc c7a7 d3bd d2c6 dcbc
00000050: 5feb 8dbf 8092 d33d dfb5 b93e af61 d73b
00000060: 77a0 82bd 9a48 1ebe 49f9 4c3d 3ea3 ccbd
00000070: 7e5d 95bd a68a f63e 2014 6e3e 62e4 5a3d
00000080: 1959 81bf cb5f 93bd 2442 153e a40b 9d3e
00000090: 5b98 20bf aaf5 893d 1a44 c3bf a74e e1bd
000000a0: 96a6 90bd e752 a7bd 8c25 11be 0a01 8f3d
000000b0: f898 543e 2ffd 9ebc 8d4f 443d e6ed 843c
000000c0: f3bd a4bd 86ba ecbd c0ca 553e 9b6c c0bf
000000d0: 6adb b3be 01b9 3fbe fb42 c0ba e591 0bbd
000000e0: ba11 413e fc9d 2dbc 42a7 4bbe b01c 8d3c
000000f0: eb95 af3d f972 8dbc 65fd 8dbe 2436 3bbe
00000100: 8d71 9cbd c2c1 e2bd bbd1 7d3c 22ea 24bd
00000110: 09b2 503d 0a5a 9fbd 2e40 01be 12a1 53bc
00000120: 44cb 1cbd 9d15 803d 2120 0a3b 737e 69be
00000130: 1619 993e f0ee 44bf 4f37 9fbf 2a86 7fbd
00000140: 8bdb ff3c d3c7 613d a1d4 7f3d edc6 1c3c
00000150: c945 2abe 97be fe3d b520 8c3e 592b aebd
00000160: f4e4 c4bd aab2 eebc adec 90ba d3a3 393e
00000170: 7cd4 40c0 d0b1 c6bd f180 453d 6c0c 153f
00000180: 27c1 64be f8be f2be 62fe debe 48ed 57be
00000190: d5fa da3c dbda c4bc 310a 14bd 63d3 393d
000001a0: e9ef b23d 4389 1b3d 1a86 b9bb 482d 8b3d
000001b0: 27e6 423e e833 9fbd dfc3 be3e 3cd1 edbc
000001c0: 3dd0 083f 1eec 7d3b 0b31 183c 185b 3cbd
000001d0: b8c5 a8be d5f9 c03d f3e8 75bc c6d4 1ebf
000001e0: 69fe 8d3e d0bf 43c0 3247 b03b 822e dbbe
000001f0: c207 25be d7ce 39bf fbf8 763d 763d 5dbf
00000200: fe0e 78bd 5bbe 753c 3d7b a7be b268 fc3e
00000210: 2ccf 06be 658e 59be e8d7 68bd 0431 cebc
00000220: 63ca 9a3d 71b3 73bd 48e2 98be bddf a63d
00000230: 6835 a0bd bfe2 763d f54b 923d 28d4 19bd
00000240: 5931 513d 745b acbc a16e 843d 6a6c 633d
00000250: d6f0 50bf 1068 7b3f f204 993d 3491 c4bc
00000260: bafc c639 bff3 90bc 4363 a83c 33a4 1dbd
00000270: c090 cd3d 4f1a 34bf 8752 efbe fcbd 9b3c
00000280: 4250 a0be 9f30 2abd e339 80be 58a4 fd3c
00000290: 9d9a 4ebe b8c1 0b3c b047 023f 5610 a93d
000002a0: 0b1b 183d 1792 afbe 4718 a9bd 569e 9d3d
000002b0: 1d5b 50be 94f8 4e3e e74f 2a3d f026 09bd
000002c0: cec1 083e 70f9 4fbd 3680 08bf e6cc 3bbe
000002d0: 622d a13d 4180 95bd 9138 253c b5fd 98bd
000002e0: 18dc 323e 94df da3d c6ff a7be 56f0 53bd
000002f0: a521 a9bd cee5 9abe 7a4c 3e3e 5679 38bd
00000300: 7964 d13c d9fe df3d eaa9 85bd d434 f93c
00000310: 4b58 b63c 8b0f 8fbe 418b dfbd e4b3 723d
00000320: a539 113d b9d9 1fbd 8443 863b 023b eebd
00000330: 5cfa 403f d560 f1bc 38e4 a43d 25b6 edbe
00000340: eb50 0f3d 920d 18bd d9c3 97bd 99c2 45bd
00000350: 3aef 51bf 68a1 04be 3134 01be ff2a 66bd
00000360: dcc0 3c3d 649c edbd 1ccd 933d dc50 0d3f
00000370: ebbe 69bf 2351 9a3d 6591 ffbc 3379 6ebf
00000380: c305 05bf 2fd3 1bbf 9683 2a3f 8f5e d53d
00000390: d966 d23c 63f8 1ebd a8b7 9e3d 6b2c ad3d
000003a0: 1273 5fbd 7abe 193e d664 bebb a8bb b63d
000003b0: c79a bfbc 155e ecbc eef4 2f3f 2af5 b03b
000003c0: ab8f 933f 910e 33bd 6d9e 313d 8c60 793d
000003d0: 4ad8 973d 75ac 2abd fab6 ea3b 42e9 b1be
000003e0: c062 69bd c5d9 fb3d adf6 aebd c005 0cbe
000003f0: a1b4 003f 20a5 c23e b974 5a3d ccea 0c3e
-0.013550104 -0.3993426 -0.7103003 -0.47192717 0.19631408 -0.3143748 -0.029598635 -0.25416932
-0.14721629 0.0042210333 -0.71960247 0.0898221 0.048334002 -0.100215934 0.036536366 -0.04846831
-1.3395257 -0.030963901 -0.10334735 -0.026950274 -1.1087455 0.10330677 0.3627157 0.006572924
-0.063782625 -0.15457383 0.050042424 -0.099920735 -0.07293223 0.48152655 0.23249865 0.05344046
-1.0105315 -0.071960054 0.14576012 0.30672944 -0.62732476 0.0673631 -1.5255158 -0.1100133
-0.07063024 -0.08170109 -0.14174479 0.0698262 0.20761478 -0.019407837 0.047927428 0.01622672
-0.080440424 -0.11559014 0.20878124 -1.5033144 -0.35128337 -0.18722917 -0.0014668399 -0.034074683
0.18854418 -0.010596748 -0.19888023 0.017225593 0.085735165 -0.017266737 -0.27732387 -0.18282372
-0.076388456 -0.110721126 0.015491898 -0.04026235 0.050951038 -0.077808455 -0.12622139 -0.01291682
-0.038279787 0.062541224 0.002107628 -0.22802143 0.29901952 -0.7692709 -1.2438754 -0.06238381
0.031232616 0.055122208 0.062458638 0.009568912 -0.16628183 0.12438696 0.27368703 -0.08504362
-0.09613982 -0.029137928 -0.0011056863 0.181289 -3.012969 -0.09701884 0.04821867 0.5822208
-0.22339307 -0.47411323 -0.43553454 -0.2108661 0.026730934 -0.02403014 -0.03614253 0.04536761
0.087371655 0.0379727 -0.005661738 0.06795746 0.19033109 -0.07773572 0.37258813 -0.029030435
0.53442746 0.0038745473 0.0092890365 -0.04598531 -0.32963347 0.09422652 -0.015009153 -0.62043417
0.27733162 -3.0585823 0.005379581 -0.4280892 -0.1611624 -0.7258124 0.06029604 -0.86421907
-0.060561173 0.014998998 -0.3271121 0.49298626 -0.13164967 -0.21245725 -0.05684653 -0.025169857
0.075581335 -0.0594973 -0.2986014 0.081481434 -0.078226864 0.060274836 0.07143394 -0.037555844
0.051072452 -0.021039702 0.06466413 0.055523314 -0.81617486 0.9820566 0.07471646 -0.02399502
0.000379538 -0.017694352 0.020555144 -0.03848667 0.100373745 -0.70352644 -0.4674265 0.01901149
-0.31311232 -0.041550275 -0.25044164 0.030962154 -0.20176168 0.008530073 0.50890636 0.08255069
0.037135165 -0.34291145 -0.08256584 0.07696216 -0.20347257 0.20212013 0.041580107 -0.0334844
0.1335518 -0.05077499 -0.53320634 -0.18339881 0.07869984 -0.07299853 0.010084287 -0.07470266
0.17466772 0.106871754 -0.32812327 -0.051742874 -0.0825837 -0.30253452 0.18583861 -0.04503759
0.025560604 0.1093728 -0.06526549 0.030420698 0.022258898 -0.27941546 -0.109152324 0.05925359
0.035455365 -0.039025996 0.004097404 -0.116323486 0.7538202 -0.029465118 0.08051342 -0.46428028
0.03498928 -0.037122317 -0.07410402 -0.048281286 -0.82005656 -0.12952197 -0.12617566 -0.056193348
0.046082363 -0.11602095 0.07216856 0.55201507 -0.9130694 0.07535007 -0.03119726 -0.93153685
-0.51961917 -0.60869116 0.66607034 0.10418426 0.025683807 -0.0388111 0.077498734 0.08455738
-0.0545531 0.15014067 -0.0058103604 0.08922511 -0.023389233 -0.028853456 0.6873311 0.0054003196
1.1528219 -0.043715063 0.043363977 0.06088309 0.07414301 -0.041668374 0.007162926 -0.34748274
-0.05697894 0.122973956 -0.085431434 -0.13674068 0.5027562 0.38016605 0.05333397 0.13761443

gnn_node.convs.0.mlp.0.bias f4 [256]
00000000: ea4e 90bd 8948 44bc 595a d53c f555 813a
00000010: 5db7 71bd 5c4d 0c3a 4d4d bd3b d65b 993d
00000020: f62f 88bd 2e4e 323d 1817 0f3d e73a 90bd
00000030: 6d15 96bd 1b81 38bd d6b2 e33c 8771 8c3d
00000040: 044f 693d 6872 41bd ae1b 80bc a7aa 5abd
00000050: 672e 7e3d ba4d 703d 009d b2bc d587 3abd
00000060: 40a2 16bd c7d6 4a3d 66e3 9fbd 73dd 0e3b
00000070: 1f2f 0b3d c5e9 a4bd 8a4f 353d 623c b0bd
00000080: 9aa3 5ebd acca 933d 518b 76bd 471c 833d
00000090: 72e4 b23d 5818 c2bb 1b88 61bd 8102 71bd
000000a0: 1624 373a 63b5 d0bc 73f5 6dbd 5be3 1c3d
000000b0: c528 bcbd 94e1 973d db17 4d3d b9d9 3c3d
000000c0: 139a 7abc 9451 95bb 3f82 933d c9f3 a33d
000000d0: b64b a4bd a813 6b3b aad4 5e3d a703 0e3c
000000e0: 0b3d 763d 3080 a93d ca20 91bc 0c01 063c
000000f0: 09a1 7abd 89ee 913d 16aa 183a 81f2 083d
00000100: 0c31 a0bd 26eb 743d e714 183c de0d 0abd
00000110: 2943 42bd ef5a 9ebd 2f50 893d 0603 e23c
00000120: 7eb3 103d eb96 60bd 51ab 933d a804 83bc
00000130: 8584 9c3d 3a1e 80bd 88ac 00bc 1f3a 203d
00000140: c5e8 85bd 8fe2 06bd c9f8 e4bc f3fc 343d
00000150: 2bd5 983d 3f98 083d 4ae9 993c b573 443b
00000160: d113 17bc 6691 89bd 3150 abbd 740c 03bd
00000170: 8176 4abc 7a59 35bd f20c 22bc c620 ea3c
00000180: 01ee f13c ce69 083b 10fc 093d 5a5f 9ebb
00000190: 2c38 60bb 97e7 b2b9 a45d 40bd dd15 83bd
000001a0: 084f 933d a181 1b3d 229c b73d 41d4 9abd
000001b0: a957 62bd 2d01 82bd 642b 4bbd 2674 4a3d
000001c0: b6e3 e5bc 2b93 983d 5f2c 923d 47cb 9bbd
000001d0: 4334 973d efd3 823d 6be6 c0bb d981 a1bb
000001e0: 26f2 693c a501 35bc ff26 5a3d 19f0 45bd
000001f0: 4b78 a7bd af53 2fbd b496 6ebd d2fb 773d
00000200: 83b5 55bc faf4 2e3d 730a 9bbd 52e5 aabd
00000210: 17b2 5a3d 898e ab3d 966e 2a3d 4ef8 75bd
00000220: 0785 6c3d 31ef 11bd 8fb3 cb3c c211 803b
00000230: f709 473c 9f03 293d 45bd 84bd fa64 a0bd
00000240: c78c 9dbc 9cee 833d 6e6c 513d 1096 09ba
00000250: 9d03 643d fb20 96bd 3141 643c 3641 8c3d
00000260: 2b85 b53d d741 1dbc efdf 71bd 19fa b43a
00000270: 84f8 243d 557e 2f3d 65c5 4f3d 3564 87bd
00000280: f65e 8a3b 312e 7d3d 8043 443d 3e9a d93b
00000290: 98f3 37bd f77b 353c c148 bfbd ed4a 003d
000002a0: 4b3b 6d3d f6c6 3b3d 0e3b 80bd fa23 343d
000002b0: ebfa 6a3d b5ec 94bc 8655 32bd 844b c8bc
000002c0: 6010 73bc 1365 b5bd 17e0 3a3d b2f7 09bd
000002d0: 1a87 2c3b 3ad3 04bd e29d 3e3b 2677 8bbc
000002e0: b57d 553c 9710 833b f53b c33c 7dfa b1bd
000002f0: cc15 a63c df5c 49bd 4eb9 623d f13c c33c
00000300: 118d b13d 2ac9 b23d f019 3abd cdae b4bd
00000310: 815c a3bb c954 bc3d 857a 41bc 2f38 98bd
00000320: 1134 d5bc d3cd afbd 3f12 86bd 8eb3 e63c
00000330: c4c4 b1bd 6791 7d3c 85cb be3c 04f2 57bd
00000340: d0d4 2d3d c0c0 cc3c b1ba 8dbd 09df 983d
00000350: 5dba 98bc d934 a2bd b1cf 433d 32c6 eebc
00000360: b12d 803d 8d3d 4d3c f744 87bd fe5a a8bd
00000370: 386b 7d3c adcd 303c 5e6b 753c 201c ebbb
00000380: b8fd 40bd c4d7 043d 7cef 483c 4e52 813d
00000390: ecf4 2f3d b2dd 223d c14e 42bd 945c 843d
000003a0: de69 773d f63b 9f3c ce91 963d e2e1 a9bd
000003b0: 3de0 73bd 34d0 1a3c 77d8 023a e86d 7eba
000003c0: 00d6 853c c488 ef3c 965e 4dbd ece7 8fbc
000003d0: 9dc2 953d 0594 583d 7d2d a73d 7768 753d
000003e0: 4155 b6bc bd09 03bd 97b3 2cbd 47a6 95bd
000003f0: 33f0 34bd 9b9a 42bc 7f5a 273d 9d53 1a3d
-0.07046302 -0.011980184 0.026044058 0.0009867536 -0.05901276 0.00053521036 0.0057770372 0.074882194
-0.06649773 0.04353159 0.034934133 -0.07042485 -0.073283054 -0.045045 0.027795237 0.06857591
0.05696012 -0.047228247 -0.015638199 -0.053385403 0.06205597 0.058667876 -0.021803379 -0.045539696
-0.036775827 0.049521234 -0.07807045 0.0021799474 0.033980485 -0.080524005 0.044265307 -0.08605267
-0.05435524 0.07216391 -0.060191456 0.06401878 0.08734979 -0.005923312 -0.05506144 -0.05884028
0.0006986273 -0.025477117 -0.058095407 0.03830276 -0.09187464 0.074160725 0.05007158 0.046106074
-0.015295523 -0.004556844 0.07202577 0.08005483 -0.08022253 0.003586987 0.05440203 0.008667863
0.06011681 0.08276403 -0.01771583 0.0081789605 -0.06118873 0.07125575 0.00058236846 0.033434395
-0.07821855 0.059794568 0.009282327 -0.03370463 -0.04742733 -0.07732188 0.06704747 0.027589332
0.035327427 -0.054831427 0.072104104 -0.015993431 0.076424636 -0.06255765 -0.007853635 0.03911793
-0.06538538 -0.032930907 -0.027950661 0.044186544 0.074625336 0.03334832 0.018787999 0.0029976193
-0.009221033 -0.06717186 -0.08364905 -0.031994298 -0.012357355 -0.044274785 -0.009890782 0.02858008
0.029532434 0.0020815018 0.03368765 -0.004833144 -0.0034213169 -0.00034123354 -0.046964303 -0.064006545
0.071928084 0.03796542 0.08965327 -0.075600155 -0.05525938 -0.063478805 -0.049601927 0.049427174
-0.028062683 0.07449945 0.07137369 -0.076071315 0.07383015 0.063880794 -0.005886843 -0.004928809
0.014278924 -0.011047755 0.053259846 -0.048324678 -0.08177241 -0.042804416 -0.05824919 0.06054289
-0.013043764 0.042714097 -0.075703524 -0.08344521 0.053392496 0.08376796 0.04160937 -0.060051255
0.057744052 -0.0356285 0.024865894 0.003908367 0.012148372 0.04126322 -0.06481413 -0.0783176
-0.019232167 0.064419955 0.051128797 -0.00052484963 0.05566751 -0.07330509 0.0139315585 0.068483755
0.088632904 -0.009598217 -0.05905145 0.0013807445 0.040276065 0.04284509 0.05072536 -0.0661091
0.004222746 0.06181163 0.047915936 0.0066407016 -0.044910043 0.011076919 -0.093400486 0.031321455
0.057917874 0.04584404 -0.06261264 0.043979622 0.0573682 -0.018179277 -0.043538593 -0.024450071
-0.014835447 -0.08857169 0.045623865 -0.033683486 0.0026325644 -0.032428004 0.0029085805 -0.017024588
0.013030459 0.0039997804 0.0238323 -0.08690355 0.020274065 -0.049160834 0.0553525 0.02383277
0.086694844 0.08729775 -0.045434892 -0.08822403 -0.0049853926 0.09195859 -0.011808996 -0.07432591
-0.026025804 -0.0858418 -0.06546449 0.02816179 -0.08680108 0.015476561 0.023290405 -0.05272104
0.042439282 0.024994254 -0.06920374 0.074644156 -0.018643552 -0.07920236 0.04780549 -0.029147241
0.06258715 0.012526882 -0.06604951 -0.082204804 0.0154674575 0.010791224 0.014979212 -0.0071749836
-0.047116965 0.032432333 0.012264129 0.063145265 0.042958185 0.039762206 -0.047438387 0.064629704
0.060403697 0.019437771 0.07352029 -0.08295037 -0.059540022 0.009449054 0.0004991362 -0.00097057084
0.016337395 0.02924002 -0.050139032 -0.017566644 0.0731251 0.052875537 0.08162973 0.05991408
-0.02225745 -0.03199171 -0.042163458 -0.073071055 -0.044174384 -0.011877681 0.04085779 0.037677396

gnn_node.convs.0.mlp.1.weight f4 [256]
00000000: 7a52 d63f cec7 043f c834 263f f70c 083f
00000010: 26a9 e53e 442d b03f 6acf 883f f4b6 143e
00000020: c2ee d33f fc43 b73f 47e9 5e3f f6cb 7e3f
00000030: 6d56 1640 9dab e53e 105d 993f 131e 833f
00000040: 12b8 b63f 4b78 ea3e 9d97 d73e 75cc e73e
00000050: 06ff 973e b110 ab3f 6d1a 753f 6e39 1f3f
00000060: 0e21 0d3f d484 b13f a5ca 993f 771c 503f
00000070: a2a1 c73f 00db 3d3f 8515 9a3f 2b28 543f
00000080: d2d2 d73e bbb3 073f 30f9 8e3b aed6 be3e
00000090: c18b 6b3e 2ccd 0c3f e743 aa3e e0dc 2d3d
000000a0: 3a08 be3f 80fe 513f 6fd7 d73f 70eb 943f
000000b0: b7c5 d53f 6ee7 383f 422d af3f 069d ae3f
000000c0: 5231 c03e 8f80 e13f 2c1f dd3e e9c9 8d3e
000000d0: ce9d 923e 27f8 ba3f ef83 4b3f 4fda 9e3f
000000e0: f5e9 683f eb33 f93e ef44 b13e d69d 8d3e
000000f0: 69c9 db3e 948a 893f 979f bf3e a4d3 1640
00000100: 3840 493f c2bc 943f 61ea 2f3c d67d 903e
00000110: bf15 5a3e ca0d 9c3e 71c6 fd3f 2d89 273f
00000120: ea4f ad3e 0990 243e 28cc 433f 6a94 953f
00000130: 91a1 8a3e 6d05 8c3e 9044 a33f 2454 d13f
00000140: 9a41 d73f 89c4 843f c201 b33f e191 a43e
00000150: be7d 393f 3d46 0e40 5a4a b73f c796 ce3f
00000160: 049b 8c3f ca8c f63e dadc 883f b895 ae3f
00000170: f017 f43f da37 b73f eb95 fa3f 7a19 5b3e
00000180: f660 c13e 1226 053f 6901 bf3f cefe a63f
00000190: 37dd 0140 ff14 7d3f ce1b 413f 0fc4 903d
000001a0: 74bf c63f 948a 103f d753 c23f 115d b23f
000001b0: a103 b23c 607a 3c3f d92a 853f 2a1d bc3f
000001c0: 2022 933e 98f5 253f 68c9 513f 869c ab3f
000001d0: 74de 5f3f 8c44 d53f 2f23 713f dd9a 9a3f
000001e0: 73ca 8f3f 1795 e73f 167c c63e 66dd 023e
000001f0: b731 583f 0ff5 e33f 8064 a63f b67b bf3f
00000200: 07e5 883f d341 043f 4f18 1940 c5aa ba3f
00000210: 1286 083f 51fc 003f e1aa be3f 0575 a83e
00000220: 1254 2b3e 416b ca3f de3e 813f f254 b93e
00000230: 6c80 e93b 9fd7 c23f e045 8b3f 7807 873f
00000240: dd67 0440 46cd d73e 1b3a cc3f daaa 2f3f
00000250: cfe7 c33f f38e 573e 43f8 503e 8a1e 823e
00000260: 6356 aa3f 4a5c b83e 1e8b 963f 01c7 a03f
00000270: 0475 e43f 3f70 7f3f 0fc7 ae3f 7e68 8a3f
00000280: 502a a73f aa44 b83f e85c 2a3f b5c5 bf3f
00000290: 2a8f c13e a71e 7c3f 0696 0640 81e6 cf3e
000002a0: 83d5 ca3f 58cb 0a3f 9ed8 9f3f e588 bb3e
000002b0: 36d6 103f 2b6d 0b3f 26af b73f 81d4 4c3f
000002c0: 05ce 933f 99f6 de3f 1777 c13d 5c4f 4c3f
000002d0: b816 c23c 4b2b d33f 5639 873e 4de9 1f3f
000002e0: 9174 853f ab57 9f3f 1e83 c83f a084 853f
000002f0: 1b94 8f3b a044 c83e e0ef ad3f c86b dd3e
00000300: aab6 d83f d699 9e3f 41d2 623e dd1d 373e
00000310: 4cd5 b83f a4d6 aa3f 9163 033f ac56 133f
00000320: 3258 043f bee4 6d3f 03f5 aa3f 86cd ce3f
00000330: 5381 c53f 215d e83f cf8e ac3f f637 f93e
00000340: ce2b 863f 510e 4e3f 5f38 0540 a423 113f
00000350: 06ac 2e3f a8ae 0b3f ba5f 7d3e c873 b13e
00000360: 8420 613f 54d6 c33e 2dc2 8d3f 446a 123f
00000370: e064 c23e 83bf 853e e610 983f 3753 1b3f
00000380: 4e90 9f3f b545 e63f 834f c23e ca43 533e
00000390: 2c3f 873f b88c e93e 78a1 533f 52ac 0240
000003a0: ef5b 6c3f 158a b93f c1bb 913e 0b14 a13d
000003b0: 681f 9a3f 3f2c d53f 9527 753f 7a7f b93f
000003c0: 7dbd 183f 1256 0440 ff99 e13e f8bd a93f
000003d0: d839 eb3f 8f03 ab3e 3ebf ed3f b398 8b3e
000003e0: 693c 0b40 a65c af3e 45e1 133f e884 443f
000003f0: 0b52 853f 8f85 6f3f ae3e a43e c10b c93f
1.674392 0.5186738 0.6492429 0.5314478 0.44855613 1.3763814 1.0688298 0.14522916
1.6557238 1.4317622 0.870747 0.9952997 2.349025 0.44857493 1.1981525 1.0243553
1.4274924 0.457949 0.4210786 0.45273176 0.29686755 1.3364469 0.9574345 0.62197006
0.5512856 1.3868661 1.2014967 0.81293434 1.5596201 0.7416229 1.2037817 0.8287379
0.4215303 0.5300862 0.0043632016 0.37273163 0.2300253 0.5500057 0.3325493 0.04244697
1.484626 0.8202896 1.686262 1.163435 1.6700963 0.72228134 1.3685687 1.364167
0.37537628 1.7617358 0.43187845 0.27693108 0.2863602 1.460698 0.7949819 1.2410372
0.9098199 0.48672423 0.34622905 0.27659482 0.429271 1.0745416 0.37426445 2.3566675
0.78613615 1.1620104 0.010737033 0.28221005 0.21297358 0.3047927 1.9826185 0.6544369
0.33850032 0.1607057 0.7648339 1.1685917 0.2707639 0.2734789 1.2755299 1.6353803
1.6816895 1.0372478 1.3984911 0.32142547 0.7245749 2.223037 1.4319565 1.6139764
1.0984807 0.4815429 1.0692399 1.363944 1.9069805 1.431392 1.9577001 0.21396437
0.37769288 0.52011216 1.4922305 1.304651 2.029127 0.9886016 0.7543305 0.07068645
1.5527177 0.56461453 1.5181836 1.3934652 0.021730246 0.7362423 1.0403701 1.46964
0.28736973 0.6482787 0.81947947 1.3407142 0.8744881 1.6661544 0.9419431 1.207851
1.1233658 1.8092374 0.38766545 0.1277977 0.8445086 1.7809161 1.299942 1.4959629
1.0694894 0.5166294 2.3921087 1.4583365 0.53329575 0.50385004 1.4895898 0.3290178
0.16731289 1.5813981 1.009731 0.3619762 0.007125905 1.5222052 1.0880699 1.0549154
2.0688393 0.421488 1.5955232 0.68620074 1.5305117 0.21050625 0.20407204 0.25413924
1.3307613 0.3600791 1.1761205 1.2560731 1.784821 0.9978065 1.3654498 1.0813138
1.3059788 1.4395955 0.66548014 1.498221 0.37804538 0.9848427 2.1029067 0.40605548
1.5846409 0.5421653 1.2487981 0.3662788 0.5657686 0.5446345 1.4350326 0.80011755
1.1547247 1.7419006 0.09446543 0.7980859 0.023692474 1.6497587 0.2641093 0.62465364
1.0426198 1.2448629 1.5665014 1.0431099 0.004381669 0.39114857 1.3588829 0.43246293
1.6930745 1.2390697 0.22150518 0.17882486 1.4440093 1.3346753 0.513238 0.57554126
0.51697075 0.9292716 1.3356022 1.6156471 1.5430092 1.8153421 1.3481082 0.48675507
1.0482118 0.80490595 2.0815656 0.5669501 0.68231237 0.5456338 0.24743548 0.34658647
0.8794024 0.38249457 1.1074883 0.571934 0.37967587 0.26122674 1.1880157 0.6067385
1.2465913 1.7990023 0.37951288 0.20631328 1.0566154 0.45615172 0.82668257 2.0417676
0.9232778 1.4495264 0.28463557 0.07865151 1.2040834 1.6654128 0.9576352 1.4492028
0.59664136 2.0677533 0.44062802 1.3261099 1.8377028 0.33401152 1.8573987 0.27264938
2.1755621 0.34250373 0.5776561 0.767653 1.0415663 0.9356317 0.3207907 1.5706712

gnn_node.convs.0.mlp.1.bias f4 [256]
00000000: ca17 193f a9e8 8abe 6835 a5be 9dd2 42bf
00000010: c478 04bf c1a1 d4be 1f68 cfbe 49d2 79be
00000020: 15d9 06be 0881 493e 0eb9 8dbd 1086 8ebe
00000030: eb39 013e 7066 42be f1b4 f2bd 1619 3bbe
00000040: 510e e5be 7012 98bf 136f a5be a367 d9be
00000050: 5a95 08bf c7b2 9fbe 4c2a 9fbe 022b 1f3e
00000060: 3954 4bbe 8e49 10be 0cca dcbe 0afb 923e
00000070: c36b f63d 97e4 a8be bab1 99be 2e65 90be
00000080: 40f6 1abf 3737 56bf 65b3 f3bd 3907 9cbf
00000090: 0926 d9bc 1737 a4bf 0a00 233d 4abe 7a3d
000000a0: b0c3 61bc e0df ecbe 261f d83c 75df 83be
000000b0: 9eac d5be ead6 07bf 9f36 9ebe fde7 cfbe
000000c0: 4009 9fbf 5fc2 fbbd 4817 51bf 28aa 81bf
000000d0: 67e8 10bd e4b0 c4be 79a7 71bd 6f9e d1be
000000e0: e9c0 99be c9ed 2ebf 15b4 ff3c 9461 ebbe
000000f0: 2884 febd 5d1f 3bbd 43bf 94be f4cc 1b3d
00000100: 9c4e 393e c7e0 693e d0be cabe 4e75 b7bd
00000110: 668c 88be 8221 5ebe d6f3 13be 99c3 09be
00000120: 701b c9be b101 07bf ef96 f0bd cf50 09bf
00000130: 2c9e 92be 7a83 39bf b33d 513f 0ef9 dabe
00000140: 8882 f1bd d1b4 9bbe b559 9fbd 0570 713d
00000150: 1dbe 82be 9fa6 afbe e412 c3be 7f8e adbe
00000160: a1c1 efbd 7a45 b3be eee5 83be f498 0ebe
00000170: 4472 debe 8e55 61be 751a e13d 8db1 0ebc
00000180: 5373 9a3e 5afd 84bf 9703 e2be 1600 e73d
00000190: 16a9 0c3c d173 0cbf a14c 81bf ef12 89bd
000001a0: 2df0 d9be 9519 63bf 9fd9 90bc 98b7 5fbe
000001b0: 78c8 ecbe 8410 e63e 9a88 533e bf33 7e3e
000001c0: a50a 0ebf c5c4 84be 8397 1b3d 6330 b0be
000001d0: 258c 22bf 2176 b5be 0793 d3bc 002c 76be
000001e0: 8427 653e aad6 a8be 3974 d5bc ee1f d6bd
000001f0: 6b5d 7ebe c7f8 2b3e 593d 01be a780 f73e
00000200: 547b aebe 9585 74be 4f30 eb3d 5631 e8be
00000210: 9005 babe 5c82 fabd 178e 1cbe 2427 8ebf
00000220: 9d55 14bf 5752 84bc 60ab 93be 0d20 50bf
00000230: 81bf b43e bc67 4f3d 9cb3 d8be a54b 173e
00000240: a862 3f3e 225d f8be 3830 f0bd 5086 c8be
00000250: 31a7 ddbe 3edd b3be b150 29bf 0bc2 243d
00000260: 50eb babd 9b9f 55bf 4f01 2b3f 01fe a9be
00000270: a197 aabe 6a0f c73e 075b 58be 0cf3 afbe
00000280: e363 ca3c adbc 8bbe 4d3b 85be 91e1 8abd
00000290: 6a0b 0cbf 7bbd 8ebe fe56 963e aa48 d9bd
000002a0: c413 dbbe f0b7 d0be 4e7b 00bf e52e 19be
000002b0: a4d8 54bf 1ba6 7abf 7dfe 61bc 5a80 af3f
000002c0: 9d3b 07be 4ec1 9cbe 1ccf 8d3d 2ecc 4c3f
000002d0: 954e 7f3d 4729 d3be 71ee 70bf b15d edbe
000002e0: aa18 7cbe c9db fa3e 1038 4c3f 427c e73c
000002f0: 5b66 ddbe befc 4cbf ac3b 823f d87c 0cbf
00000300: 742f ecbd c0e6 983e 0a16 203f 4385 07bd
00000310: 326a 3dbe 9d96 3b3e e858 fabe ba86 5abf
00000320: 3ceb 833d 7034 17bd a7d7 7cbe 31fb f43e
00000330: 440e c2be e467 90be cae9 f63e b4ec e1be
00000340: bc38 cbbe f454 eabe d2d5 0bbe e61c 26bf
00000350: a00c 91bf 4305 f9be 347a 5bbf c95b 5cbf
00000360: 12a3 9cbe 4da8 4dbe 2ea1 abbe a014 f6be
00000370: cfff 64bf 1c5b 16be 3a10 d9be eb55 463f
00000380: 0c77 97be c33c 8a3e b81b 2ebc 2c74 33bf
00000390: 5247 84be 6114 bbbe a10d 2ebe 8b80 123e
000003a0: 1e3a d9be dcbb 3fbe e2d2 30bf 0436 1cbf
000003b0: a8af d3be 3125 b1bd f0e0 53bd 2e30 99bc
000003c0: 05a2 1bbf f1d5 4a3f 21e8 d2bc 83cc 80be
000003d0: 984b 46bd ff23 31bf c695 e8be 9d43 1ebf
000003e0: 97a9 dc3e 11a5 51bf b34e 90bf 8442 25be
000003f0: ce3c 1d3e f3e7 25be dbd4 91be c95e a5be
0.59801924 -0.2713063 -0.32267308 -0.7610262 -0.51746774 -0.41529658 -0.40509126 -0.24396624
-0.13168748 0.19678128 -0.06920062 -0.27836657 0.1261975 -0.1898439 -0.11850918 -0.18271288
-0.44737485 -1.1880627 -0.32311305 -0.4246188 -0.5335289 -0.31191084 -0.31086957 0.1554375
-0.19856347 -0.14090559 -0.431229 0.28707153 0.12032273 -0.329869 -0.30018407 -0.28202194
-0.60532 -0.83678 -0.11899451 -1.2189704 -0.026507394 -1.2829312 0.03979496 0.06121663
-0.013779566 -0.46264553 0.02638204 -0.25756422 -0.4173326 -0.5306231 -0.30901048 -0.4060668
-1.2424698 -0.12292933 -0.8167615 -1.0130053 -0.035377886 -0.38416207 -0.058997605 -0.40941188
-0.3002999 -0.6833158 0.0312138 -0.45972884 -0.124275506 -0.045684207 -0.2905217 0.038037255
0.18096393 0.22839652 -0.39598703 -0.08957921 -0.26669616 -0.2169247 -0.14448485 -0.13453521
-0.39278746 -0.52736956 -0.11747538 -0.5363893 -0.286363 -0.7246624 0.8173477 -0.4276814
-0.11792475 -0.3041139 -0.07780782 0.05894472 -0.2553567 -0.3430681 -0.3810035 -0.33897778
-0.11706854 -0.35013944 -0.2576136 -0.13925534 -0.43446553 -0.22005293 0.109913744 -0.008709324
0.3016611 -1.0389817 -0.44143364 0.11279313 0.008585235 -0.5486422 -1.010151 -0.066930644
-0.42566052 -0.8871091 -0.017681895 -0.21847379 -0.46246696 0.44934475 0.20657578 0.24824427
-0.5548499 -0.25931373 0.03798629 -0.34411916 -0.63495094 -0.35441688 -0.025826944 -0.24040222
0.22378355 -0.32976276 -0.026056396 -0.10455309 -0.24840324 0.1679412 -0.12621059 0.4834034
-0.34078467 -0.23879083 0.114838235 -0.4535014 -0.3633237 -0.12231895 -0.15288578 -1.1105695
-0.57943135 -0.016152544 -0.28841686 -0.81298906 0.35302356 0.05063604 -0.4232453 0.1477495
0.18689978 -0.48508555 -0.11727947 -0.39164972 -0.4329162 -0.35129732 -0.6613875 0.040224116
-0.091269135 -0.83446664 0.6679887 -0.33201602 -0.3331881 0.38878947 -0.21128474 -0.34365118
0.024705833 -0.27292386 -0.26021805 -0.06781305 -0.54704916 -0.27878937 0.29363245 -0.10609563
-0.42788517 -0.40765333 -0.5018815 -0.14959295 -0.8314307 -0.97909707 -0.013793585 1.3711045
-0.13206334 -0.3061623 0.069242686 0.79999053 0.0623308 -0.4124243 -0.9411383 -0.46360543
-0.24618784 0.48995808 0.79773045 0.028257493 -0.43242154 -0.80073154 1.017446 -0.54877996
-0.115324885 0.29863548 0.6253363 -0.033086073 -0.18497542 0.18319173 -0.48895955 -0.85361826
0.06441352 -0.036915243 -0.2469164 0.47847894 -0.3790151 -0.28204262 0.48225242 -0.44125903
-0.39691722 -0.4576794 -0.13655785 -0.64887846 -1.1331978 -0.48636827 -0.8573334 -0.86077553
-0.30593163 -0.20083733 -0.33521408 -0.4806261 -0.8945283 -0.14683193 -0.42395192 0.7747485
-0.29583013 0.26999483 -0.010626726 -0.7009914 -0.25835663 -0.36538985 -0.16997387 0.14306848
-0.42427152 -0.18724006 -0.6907178 -0.6101992 -0.41344953 -0.08649672 -0.05172819 -0.018699732
-0.607941 0.792327 -0.025745453 -0.2515603 -0.048411936 -0.6919555 -0.45426768 -0.6182192
0.43098137 -0.81892496 -1.1274017 -0.16138655 0.15355226 -0.16201763 -0.28482708 -0.32298878

gnn_node.convs.0.mlp.1.running_mean f4 [256]
00000000: f744 3140 7596 8d3d 2ad9 96c0 a41b dd3f
00000010: d29a 813d 0227 05c0 68fe 3ac0 cd0d 1bbf
00000020: 1c51 0640 af1f fabf 3983 3ebf 1927 94c0
00000030: 4c44 f73e 1830 85bf f123 ecbc e6d6 2f40
00000040: ce5c a8c0 b559 6ebf 0fbf aebe d0b9 58c0
00000050: a547 d7bf e40b 46c0 0f4f 2740 6540 d83e
00000060: ba65 ef3e dc11 06c0 bf44 57c0 5766 c240
00000070: 7ae5 5cc0 e41c 87bf 3735 77c0 9a7f 4740
00000080: 6106 dfbf bddc 0b40 b256 2340 630c 6240
00000090: c112 7540 efd3 d340 1a4f 6f3f ded9 3440
000000a0: 5af5 8040 9141 6cc0 88dd 4640 0d77 80c0
000000b0: 29f0 d8c0 b036 a5bf f0b9 babf 1245 cebf
000000c0: 9dfb 0340 1a87 6ac0 dad5 ff3f 18b4 8640
000000d0: 1de6 25c0 dc94 a9c0 5187 eebf c676 b4c0
000000e0: 3d73 3ac0 b049 00bf 2011 8d40 2462 38c0
000000f0: 2ab3 d23f 8509 b8bf cd2a f1bf 675b 0740
00000100: 296e 6a40 b683 0340 35aa 0540 1f19 a9bf
00000110: 8f92 0b3e 9be7 fd3f f48f c8bf a56a b3be
00000120: 88ad 27bf c10f d43f b19a f6be 7ecf 8cc0
00000130: 7e23 a8bf 7714 0640 0162 be40 89b7 cbbe
00000140: ee8a f23f 582a 08be f4a8 c93d 16e8 9540
00000150: f36b e4bf 2aa0 4c3e aeaf e8c0 b164 7e3f
00000160: 75cf 84bc 5f68 8dc0 ced6 4140 1252 28c0
00000170: fc96 23c0 ed04 bebf c627 8e40 e0c9 db3f
00000180: c4fd 2e40 7aa5 5640 8b89 2cc0 153a 7ec0
00000190: 2980 9dbd d79a c8c0 3c6e 52bf c6cc e43f
000001a0: 581b cdbf c02f 8f40 087d 75c0 61d8 ccc0
000001b0: c951 1a40 d6b1 3a3f 3b6e 2bbf 26e6 863e
000001c0: 520c f3bf b2ac 91be 7262 67bd a4fd 82bf
000001d0: d2d7 e4bf 2ca5 04c1 920b 20c0 5d67 4abc
000001e0: f529 88c0 7166 39c0 949f ef3f 6d48 66bf
000001f0: 494c e240 2017 82be 6567 82c0 958b 76bd
00000200: 89fe 2cc0 5811 9bc0 46d7 833f 025c 73ba
00000210: cd86 d93e 81ef 7c3f bc00 f23f fe2c 5a40
00000220: 8534 05c0 217b 96c0 d3ee 57c0 18c2 e9bf
00000230: 4eb7 3d3f 8bbc 3d40 4be8 f8bf 7916 f6bf
00000240: cd05 9e40 544d 993f 4fd6 eebf d0d1 edbf
00000250: e9f1 c3c0 888a ea3d a77e c53f 190d 9840
00000260: 7bae 2dbe 064f bb3e 435d 2e3d 787a 83c0
00000270: 0239 c6bf 1c39 d63e b22e 22c0 7b26 e3bf
00000280: a9b3 d1c0 e4bc 6cc0 2bb2 8ec0 27ff 29c0
00000290: 774b e1bf 7110 a2c0 518f 2ec0 d7d5 e7bf
000002a0: d302 e33f f935 783f c7e1 aac0 e459 5140
000002b0: a5ac 0940 368b b73e e459 64c0 7360 423f
000002c0: 09be 0cc0 83eb 26c0 b486 153c 4ab3 84bf
000002d0: b797 0340 dffb d6c0 93d6 3fbf 2035 3abf
000002e0: e861 bdbe 9f53 4dbc 3e87 c540 1ae4 be40
000002f0: 3985 6140 0c31 a440 215b ffbf 4490 a5bf
00000300: f06f 6840 ca57 bcbf 8f8d 9840 3ab9 5340
00000310: c800 82bf a56e 2e40 5fa6 c33c 8839 40c0
00000320: 2831 ab3e 4906 b1be 9b0b bac0 adc4 1f3f
00000330: 12f4 b4c0 ea3d 3440 81cc a740 2e35 2d3e
00000340: 30c0 12c0 6317 3c3c ffd6 e6bf c4b8 5c40
00000350: 8bfb 8f40 8594 5cc0 1500 0140 8dae 8ebf
00000360: 7958 81c0 47b2 c23e 8eb1 9ac0 74cf 04c0
00000370: bffa d140 9610 2dbf 3ec3 88c0 70cd 0a40
00000380: 486f 64c0 c49a 86c0 642b 9540 3692 5940
00000390: 3bb1 dfc0 6f37 f0bf 2874 5c40 cd17 0a41
000003a0: a386 93c0 463e 5bc0 d663 3740 cb93 893e
000003b0: 5f70 45c0 5dc9 72c0 f057 0940 3a26 69bf
000003c0: f153 45c0 2ce6 f540 7a2a 27c0 49fa 91c0
000003d0: d98a ae40 b1bf 3ebf 35ae b0c0 a4c1 edbe
000003e0: 1b9f bdbf 0153 2640 5a83 1b40 c486 203e
000003f0: 2a4a e7bf 2c48 fdbf 3883 cb3f 1109 a140
2.7698343 0.06913463 -4.7140093 1.727406 0.06328358 -2.0805058 -2.9217777 -0.60567933
2.0987005 -1.9540919 -0.7441898 -4.6297727 0.48294294 -1.0405302 -0.028825732 2.7474914
-5.2613287 -0.9310563 -0.3413014 -3.386341 -1.6818739 -3.0944757 2.6142004 0.4223663
0.467573 -2.09484 -3.363571 6.0749927 -3.4515061 -1.0555692 -3.862623 3.1171632
-1.7423822 2.1853478 2.5521665 3.532006 3.8292696 6.619621 0.93480074 2.8257976
4.02995 -3.6915019 3.1072712 -4.0145326 -6.7793164 -1.2907314 -1.4587994 -1.6114829
2.0622323 -3.664496 1.9987137 4.209484 -2.59217 -5.2994213 -1.8635045 -5.6394987
-2.9132836 -0.5011244 4.4083405 -2.88099 1.6460927 -1.4377905 -1.8841187 2.1149538
3.6629736 2.054914 2.0885136 -1.3210791 0.13630126 1.9836305 -1.5668931 -0.350423
-0.6549916 1.6567308 -0.48164895 -4.4003286 -1.3135831 2.094999 5.9494634 -0.39788464
1.8948648 -0.13297403 0.098466784 4.684581 -1.7845443 0.19982973 -7.2714453 0.9937239
-0.016212204 -4.4189906 3.0287356 -2.6300092 -2.5560904 -1.4845253 4.442355 1.7170982
2.7342386 3.35385 -2.695895 -3.972295 -0.0769046 -6.2689013 -0.82199454 1.7874992
-1.602397 4.474579 -3.8357563 -6.4014134 2.4112418 0.72927606 -0.66965073 0.26347464
-1.8988135 -0.2845207 -0.05649037 -1.0233655 -1.7878363 -8.290325 -2.5007062 -0.012353745
-4.2551217 -2.8968775 1.8720574 -0.8995426 7.071812 -0.25408268 -4.0751214 -0.06019171
-2.7030356 -4.845867 1.0300071 -0.00092834246 0.42485657 0.98802954 1.8906474 3.408996
-2.0813305 -4.7025304 -3.3739517 -1.8262358 0.74107826 2.9646327 -1.944589 -1.9225608
4.938208 1.1976724 -1.8659152 -1.8579655 -6.12328 0.11452204 1.5429276 4.751599
-0.1696109 0.36583728 0.04256941 -4.1087 -1.5486147 0.41840446 -2.5341 -1.7746118
-6.553181 -3.699029 -4.459249 -2.6561983 -1.7601155 -5.064507 -2.7274973 -1.8112134
1.7735237 0.96957356 -5.3400607 3.2711115 2.1511624 0.35848397 -3.5679865 0.7592842
-2.1990988 -2.6081245 0.009126354 -1.0367215 2.056135 -6.718246 -0.7493679 -0.7273731
-0.3698876 -0.012532144 6.172759 5.9653444 3.5237563 5.130987 -1.9949685 -1.2934651
3.6318321 -1.4714291 4.76728 3.3081803 -1.0156488 2.7255032 0.023883043 -3.0035114
0.3343594 -0.34575108 -5.8139167 0.6240948 -5.6547937 2.816279 5.243714 0.16914818
-2.2929802 0.011480185 -1.8034362 3.4487772 4.499456 -3.446565 2.01563 -1.1147019
-4.04205 0.3802664 -4.834174 -2.075162 6.5618587 -0.67603433 -4.2738333 2.168789
-3.569292 -4.2063923 4.6615467 3.399549 -6.9903846 -1.8766917 3.4445896 8.630811
-4.610185 -3.4256759 2.8654685 0.2687057 -3.0849836 -3.7935402 2.1459923 -0.91073954
-3.0832484 7.684347 -2.6119676 -4.5618024 5.454449 -0.7451125 -5.5212655 -0.464368
-1.481418 2.5988162 2.429892 0.15676409 -1.8069508 -1.978765 1.589942 5.0323567

gnn_node.convs.0.mlp.1.running_var f4 [256]
00000000: 0494 7542 ebeb 2641 f774 4f41 444a 8942
00000010: d53c 6b41 70a0 0d42 d3dc ce41 f94b 9941
00000020: 8c3c 2142 014b d241 ddb5 8242 126f 0742
00000030: cd61 4f43 551d 2842 534e e542 1e3b bc41
00000040: b9e1 a241 15ec 3642 ff1f 2141 bc0b 9641
00000050: 17f2 0542 7811 ce41 7039 0342 9948 f341
00000060: 9ba4 5e41 7060 7341 30f6 2642 c5e3 4d42
00000070: ac7e c341 2ad8 f241 02a7 8a42 260e 4642
00000080: 05f5 2b42 1ebb a042 fdcf 3f41 2dd5 5b41
00000090: 8784 ef41 fd8a f041 afed ba41 0b3e a741
000000a0: 81de 7a42 649d d540 feb0 2842 1689 c841
000000b0: e712 9d42 ee05 7642 98af be41 316b 1a42
000000c0: cd71 c841 014e f040 2bab 3c41 9e83 9c41
000000d0: 0ac0 1741 393f 9842 4892 c942 7526 2642
000000e0: a896 4742 067d 2341 b962 8a42 04aa b541
000000f0: 2c2e 2a41 8442 c141 45d3 ba40 b33f 8942
00000100: 4ccd af41 3c4c a842 0ec2 f440 6c3d ca41
00000110: 015b c540 3b15 9441 84ae f341 54f6 6941
00000120: 54f1 2942 3d8c 9f41 c929 0542 8ef8 8041
00000130: 8457 d941 1469 1142 010e a642 bc85 3042
00000140: eb07 6e42 f21d 1442 4f22 2e42 2c9b 3842
00000150: f799 e241 f7bb ea41 c200 c942 4a80 1642
00000160: 0961 4c42 578c 8341 732f 2742 9637 1142
00000170: 9be5 1e42 8db3 4942 1b95 d942 7525 8441
00000180: b8c8 1342 2d27 6a42 eac9 1542 754d 0d42
00000190: 061c 2243 1578 3041 52b8 4442 dbff 0141
000001a0: 6fd8 1942 6e5b 8942 fe47 d141 4f2b 7942
000001b0: 5591 5a41 8b01 f441 4569 f041 77a4 2e42
000001c0: 0810 ca41 4541 5842 b0b1 8741 7cf5 1442
000001d0: dfab 7341 e115 7f42 83d4 fe41 8b3a 5642
000001e0: 508b 4942 fc3b 0943 0f73 4342 3347 4841
000001f0: 52be 8f41 2b38 b441 a3f9 1641 08b2 8642
00000200: b8d5 4042 0a45 8f41 3688 3243 c3c2 0442
00000210: 5b0a 2542 65f7 f440 5e24 c742 f36b d041
00000220: 7e61 9e41 8f89 3d41 2a7b 0042 2cea 4442
00000230: 53b0 8541 d96d 9642 2d1e 6e41 f4fd c441
00000240: db19 9d42 7b6e 0842 8d08 b441 aee6 7641
00000250: 0317 8e42 3b64 3741 6883 5141 6df8 ec41
00000260: a07f db41 4948 3e42 8f70 3742 4ec9 c942
00000270: 9775 bc42 0732 2742 8360 d642 1e2a 2541
00000280: 9217 3642 2934 6842 0c6b 8e41 8506 f541
00000290: 6b97 0a42 d90c a541 258f c541 4ad6 d540
000002a0: 7534 0542 c102 fa40 ac5b b441 3808 7e41
000002b0: 22b9 3f42 1d0f 5941 4a67 9441 ca70 b541
000002c0: 32a9 e141 ebf4 a342 b184 8241 8bdb 2242
000002d0: 219b e440 1e09 ae42 9c37 0542 a622 2542
000002e0: 25e7 a941 896f 1842 c476 cc41 ae22 4c42
000002f0: 08a6 d040 8d4d 8942 0e11 6a42 dad1 1c41
00000300: 6274 c842 85ef 0742 86da e241 ff75 e441
00000310: 54ea 0143 32e6 3e42 0695 8441 d1bc 3642
00000320: e80c 0742 ce2b c441 8c4a a640 97f2 e141
00000330: c4a2 9642 0e5a a542 f523 ab42 d386 8641
00000340: 0718 9d42 d132 3441 c0b8 1d43 e3a4 1941
00000350: 615f 3f42 b3ba 5041 76a2 c641 e21c 2342
00000360: 6e58 a640 cc6a 9141 b484 3542 6c27 3641
00000370: e884 d041 cfa7 9c41 4ca4 0f42 57bf fd41
00000380: 9800 9942 a3dd b041 dbb0 2442 d4fa 8c41
00000390: 813e 9b42 374e 3741 9028 a641 b214 ce41
000003a0: 4a12 b941 0b9e 8641 8bb9 7141 108a 9f41
000003b0: fd6d 6342 bd31 1343 586b 0f42 2f7c 2642
000003c0: 5133 6d41 e40f ff41 2b10 8641 5909 bd42
000003d0: 726a b942 2a9b 8c41 6076 b042 a586 ca41
000003e0: d4c3 7841 d312 5242 b0ed 9042 403d a541
000003f0: de68 3a42 b6a1 8142 8e73 5541 2462 7942
61.394547 10.432597 12.966056 68.64505 14.702352 35.406677 25.857824 19.162096
40.309128 26.286623 65.3552 33.858467 207.38203 42.028645 114.65298 23.528866
20.360216 45.73055 10.070312 18.75573 33.486416 25.75853 32.80609 30.410448
13.915187 15.211044 41.740417 51.47243 24.436852 30.355549 69.32619 49.513817
42.989277 80.36546 11.988278 13.739545 29.93971 30.067865 23.366056 20.905294
62.71729 6.6754627 42.172844 25.066936 78.53692 61.50579 23.83574 38.60468
25.055567 7.509522 11.791789 19.564266 9.484385 76.12348 100.785706 41.537556
49.897125 10.218023 69.19282 22.708015 10.636272 24.157478 5.8382897 68.62441
21.975243 84.148895 7.6486883 25.279991 6.167359 18.510366 30.460213 14.622639
42.485672 19.943476 33.290806 16.121365 27.167732 36.352615 83.02735 44.1306
59.507732 37.029243 43.533504 46.151535 28.325178 29.34178 100.50148 37.625282
51.09476 16.443525 41.796337 36.304283 39.724224 50.425343 108.79122 16.51829
36.946014 58.538258 37.44718 35.32564 162.10947 11.029317 49.18 8.124965
38.46136 68.67857 26.160152 62.292294 13.660481 30.500753 30.051401 43.66061
25.257828 54.06374 16.961761 37.23973 15.229461 63.771366 31.853765 53.55717
50.386047 137.23431 48.862362 12.517383 17.96793 22.527426 9.435946 67.34772
48.20871 17.90871 178.53207 33.190197 41.260113 7.6551995 99.57103 26.05271
19.797604 11.846084 32.120277 49.228683 16.711096 75.21455 14.882367 24.624
78.5505 34.10789 22.504175 15.431318 71.044945 11.46197 13.094582 29.621302
27.437317 47.57059 45.85992 100.89317 94.22967 41.798855 107.1885 10.3227825
45.523018 58.050938 17.802269 30.628183 34.64787 20.631273 24.694895 6.6824083
33.301228 7.812836 22.544762 15.877007 47.930794 13.56619 18.550434 22.680073
28.207615 81.978355 16.31479 40.714397 7.1439366 87.01781 33.304306 41.283836
21.237864 38.10892 25.557991 51.033867 6.5202675 68.65147 58.516655 9.801233
100.22731 33.983906 28.3567 28.557615 129.91534 47.7248 16.572765 45.68439
33.762604 24.521389 5.1966 28.243452 75.3179 82.67589 85.57023 16.815832
78.54693 11.262406 157.72168 9.602756 47.843143 13.045581 24.829327 40.778206
5.1982946 18.177147 45.379593 11.3846245 26.064896 19.581938 35.910446 31.718428
76.50116 22.108221 41.17271 17.622475 77.62208 11.456595 20.769806 25.760105
23.13393 16.82717 15.107799 19.942413 56.85741 147.19429 35.854828 41.621273
14.825028 31.88276 16.757895 94.51826 92.7079 17.575764 88.2312 25.315744
15.54781 52.518383 72.46423 20.654907 46.60241 64.81584 13.340712 62.34584

gnn_node.convs.0.mlp.3.weight f4 [128, 256]
00000000: 4c6c 5f3e adee c9bc ff95 383c 7693 0bbc
00000010: e770 663d dd1f e53e c546 25be 2a4d dfbd
00000020: 09c4 053e 3763 0ebe 2f31 e5bd 9f35 4b3d
00000030: 1300 183e 877c 6bbc d65f 9bbd 9949 8ebe
00000040: b5c1 a13e 6912 8bbd a0f0 ca3c 371d 17bd
00000050: e393 c3bd 89c7 22be 6370 773e 6bcd 73bd
00000060: 6366 bdbd 0de9 083e dbf4 a13e 37d2 4cbe
00000070: f501 ce3e 9443 89bd 6663 66bc e680 bebd
00000080: d93a 23be 437e 6cbd 7108 12be 10f1 6c3d
00000090: 251d 83be 8162 243c 7ac2 c1bd 527e 15be
000000a0: a050 1fbe b243 af3d f8e5 4ebe 716d 183d
000000b0: 657e 7a3e 3bf0 a0bd b8f6 b4bd 9a3b 133f
000000c0: c69d 51bc 3d88 553d e903 29bd 5a56 293d
000000d0: 0943 393d 0425 183d bb5c 0abe 9d3b 273e
000000e0: fbd5 093e e26d 07bd 2789 38be 018f 8dbc
000000f0: 490e 4cbe a937 97be 9402 083b d542 3b3d
00000100: 0b31 6dbd ccda 973b e9f3 25bc 9621 86be
00000110: 3302 dabd 8cfc 74bd da69 c33e 642c ebbd
00000120: 8866 2cbd cccb e4bd 9541 66bd f98f c63c
00000130: a2d4 cdbb 1321 adbc e806 853e f10d 5e3f
00000140: 3562 d23c 7976 2d3e efce 01be 9924 bcbe
00000150: c294 59be d2a8 3c3f 4465 253e 6cc0 413f
00000160: cfe8 1bbe b996 85bd aa67 2bbc 8bae 48bc
00000170: 3af1 5e3f 33f8 7d3d 3d5e 363e 86f0 d7bd
00000180: 6c46 c3be 7adc 88bc 3993 263f 99e3 c73c
00000190: 4a73 883e cc4a eabd 9102 27be 5376 e4bd
000001a0: 79b3 493f ac4e 3fbc 312f ddbd 7653 a1bd
000001b0: 5da0 f1bd 5f15 44be 6ac4 14bd d89b 2e3e
000001c0: 34b6 4dbe dc9d 483d 1b0f 813c 09a2 153f
000001d0: 8fa7 9c3d 29ba 183e 056a d0be c436 353a
000001e0: ad2c e0bd 3af3 bd3d 02d2 18be 68d7 75bd
000001f0: 6a15 41be cbcb 953e 4b23 38be 2016 ee3e
00000200: 8fb1 283e 92e5 e83c efe4 6f3e e053 173f
00000210: 32dc b3bd 78d1 f2bd ab63 013d 03ce 803c
00000220: bbb4 d8bd a992 f43d 6011 f3bd c64f 543c
00000230: 303f 32bd b2b8 e03d 0125 a23d e53b 00be
00000240: baad 2bbe f8ef 29be 1975 03be b008 0abe
00000250: 7728 ed3d f6fc 11bd 2812 453d 935c 8abe
00000260: ab80 68bd c980 06bd f835 3bbe 691b c63d
00000270: 304e 973d 5217 e0bd 3f6b 6c3d 19e3 a7ba
00000280: 9075 333e 4bc5 33bd 945c 1ebe 74d5 853d
00000290: a533 0fbe 05f7 0fbd 3ae5 79bd b5ba a7bd
000002a0: 9853 b23e 3503 073d a004 b53d 2289 6cbd
000002b0: 37f7 b6bd 5dd0 efbd e3b5 b83d 67f0 bfbd
000002c0: a5ff afbd cd0f 5f3f 626e 10bd f0a4 693e
000002d0: 4eaa d9bd d077 953d 1c84 e3bd 13d4 3abc
000002e0: 6cb2 fbbd 48fa 73be d574 6dbe bab5 23be
000002f0: 55a6 bdbd 0dfd 5f3d 1609 0d3f d9e0 3fbd
00000300: 9eb8 df3d c811 93bd 9416 07be 9bb4 3fbe
00000310: f638 3abd ca41 b33d 5275 91bd 14d4 15bd
00000320: fb95 56be 528a c6be 1008 04be 4dbc c23e
00000330: bdd4 473e b29b 03b9 1a35 a73d 60f4 d6bd
00000340: c2f3 6c3e 3a00 0e3e 6b06 c93d 00ae 15be
00000350: 26e0 dfbb 4fdf 21be 0f48 87bc c66d cfbd
00000360: 170c 5f3e ef4a a4bd 7a72 51be d4fd ed3d
00000370: 4551 24be e4a0 5a3d 9bf9 af3e 7215 7ebe
00000380: 77f0 cd3d e1d2 ef3d 7f43 6dbe ceb0 9a3c
00000390: ac9f 81be 701d 6abd fe74 9e3d 6c77 5f3d
000003a0: e6b2 e3bd 7d4c d33d cdb4 b3bd ff17 563c
000003b0: 333f 393e 3f68 1f3e 0697 22be 285e 85bd
000003c0: 452c 3abe a3cc 7d3e c5e5 a3bd f9f8 bfbd
000003d0: f02b 04be 5795 c6bd 473a a23d c0e5 e5bd
000003e0: c380 6e3e b3c5 943d 4298 bf3c edab afbe
000003f0: dced a2bd a2ea fe3c d115 b9bc 7f2b e23d
0.21818656 -0.024649942 0.011266231 -0.008519044 0.056260016 0.44750872 -0.16140278 -0.1090339
0.13063063 -0.13905035 -0.11191022 0.049611684 0.14843778 -0.014372951 -0.07586639 -0.27790526
0.315931 -0.06790621 0.024772942 -0.036893096 -0.095496915 -0.15896429 0.24163966 -0.059522074
-0.09248044 0.13370152 0.31632122 -0.20002066 0.40235868 -0.06702343 -0.014061784 -0.09301929
-0.15940417 -0.0577376 -0.14261033 0.057847083 -0.25608173 0.010033251 -0.094609216 -0.14598969
-0.155581 0.08557834 -0.20204914 0.037213746 0.24462278 -0.0785832 -0.0883612 0.5751282
-0.012793964 0.05213188 -0.041263495 0.041342117 0.045229945 0.037144676 -0.13511936 0.16331334
0.13460533 -0.033063777 -0.1802107 -0.017280104 -0.19927324 -0.29534653 0.002075349 0.045718033
-0.0579081 0.004634237 -0.0101289535 -0.261975 -0.10644951 -0.05981116 0.38166696 -0.11483076
-0.04208997 -0.11171684 -0.056214888 0.024238573 -0.0062814513 -0.021133935 0.25981832 0.8674002
0.025681594 0.16939725 -0.12676595 -0.36746672 -0.21248153 0.736951 0.16151911 0.7568424
-0.15225528 -0.06522889 -0.010461727 -0.012248646 0.8708683 0.06200428 0.17809387 -0.10543923
-0.38139665 -0.016706694 0.65068394 0.02440052 0.2665046 -0.114400476 -0.16309573 -0.11155381
0.7878948 -0.011676472 -0.10800017 -0.07877247 -0.11798165 -0.19148777 -0.036320128 0.17051637
-0.20089036 0.04897867 0.015754273 0.5845037 0.07649147 0.14914764 -0.40705886 0.0006912763
-0.10946021 0.092749074 -0.14923862 -0.06001988 -0.18855825 0.29257044 -0.17982213 0.46501255
0.16473983 0.02842978 0.23427175 0.5911236 -0.08782233 -0.11856359 0.03158919 0.015723234
-0.105813466 0.11942036 -0.118685484 0.012958473 -0.04351729 0.10972728 0.07917214 -0.12522848
-0.1676549 -0.16595447 -0.12837638 -0.13479877 0.11579984 -0.035641633 0.04811302 -0.27023754
-0.056763332 -0.032837663 -0.18282306 0.09673197 0.0738796 -0.10941948 0.057719465 -0.0012808769
0.17525315 -0.043889325 -0.15465003 0.065348536 -0.13984545 -0.035147686 -0.061009623 -0.081899084
0.34829402 0.032962043 0.08838773 -0.057747968 -0.08933871 -0.11709664 0.09019067 -0.09372025
-0.08593682 0.87133485 -0.03526152 0.22816825 -0.10628186 0.07298243 -0.11109182 -0.0114031015
-0.12289891 -0.23825943 -0.23189099 -0.15987292 -0.09260241 0.054684687 0.5509199 -0.04684529
0.10923885 -0.07181126 -0.13192207 -0.1872124 -0.04546448 0.08752783 -0.07102455 -0.036579207
-0.2095565 -0.38777405 -0.128937 0.38034287 0.19514747 -0.00012551135 0.08164425 -0.104958296
0.23139861 0.13867274 0.09815677 -0.14617157 -0.0068321405 -0.15807842 -0.016513852 -0.101283595
0.21781956 -0.08022105 -0.20453826 0.116206795 -0.16046627 0.053376094 0.3437012 -0.24812868
0.10055631 0.11710144 -0.23170279 0.018883135 -0.25317132 -0.05715698 0.07737158 0.05455725
-0.111181065 0.10317323 -0.087747194 0.013067245 0.18090515 0.1556711 -0.15877923 -0.065120995
-0.1818095 0.24785094 -0.080028094 -0.0937366 -0.12907386 -0.09696453 0.07921272 -0.11225462
0.23291306 0.07264271 0.023388032 -0.34310856 -0.07955524 0.031117741 -0.02259341 0.110434525
