checkpoints/A_epoch_190.pth (torch, 843999 bytes, 48 tensors)

gnn_node.node_encoder.weight f4 [1, 128]
-0.70503235 0.39750558 -0.670258 0.48168883 -0.020400409 0.8581384 0.5639535 -0.15087287
0.06722028 -0.647424 -0.27642086 -0.6082873 -0.94223636 0.8043086 -3.0879052 -0.9197709
-0.17777319 0.21999612 0.10636973 -1.0766675 -0.7249293 -0.89795905 -0.25280377 -1.375643
-1.0510474 -1.6910175 -2.0172133 -1.1546658 -0.43730187 -0.74755615 -0.34467077 -2.7958398
-0.34835982 -1.5407318 0.10320942 0.5152984 0.5149587 -1.103427 -0.03308696 0.31944922
-1.6979084 -0.62930197 0.49956173 -1.8048666 0.18213217 0.27127737 -1.3760319 -2.417605
-0.21851628 -1.7149863 -0.84406 -0.7718491 0.17439112 -0.5447425 -1.0949177 -0.31156173
0.4593388 0.57175666 0.13515182 0.19724019 -1.2060587 0.1088694 0.24584848 -0.050269656
-2.1906989 -0.27463198 -1.9986851 -1.4759102 -1.967733 1.1995836 0.84088194 -0.7593626
0.33868638 -1.2753195 -0.49738634 -0.013793623 -0.2662362 -0.15696009 0.1280685 -0.21714649
-1.3392091 -1.2833374 -1.7133609 0.6596033 0.54326004 0.42443353 0.3864089 -0.15287557
-0.61462 0.18704885 -1.7978199 -0.47592387 -0.74140453 0.58284366 -1.427733 -0.52401066
-0.87006754 -0.2593077 -0.05346447 -0.21911351 -1.2333083 -1.280553 -1.9629434 -0.81746215
-1.6360351 0.43797654 0.88363314 -1.5477428 -0.5911702 -0.9927995 -1.0021113 -0.80921227
-0.37790135 -2.0599391 -1.2734643 -1.4356736 -0.22854799 -2.3128078 0.290151 -0.13089025
-0.79870045 -0.9525968 0.4261561 0.15697065 -0.6360385 0.61201316 -1.5755792 0.50886786
00000000: 007d 34bf da85 cb3e 0796 2bbf eb9f f63e
00000010: c21e a7bc f5ae 5b3f 425f 103f 6b7e 1abe
00000020: c9aa 893d 94bd 25bf 0987 8dbe b7b8 1bbf
00000030: 6736 71bf 2be7 4d3f 3da0 45c0 1b76 6bbf
00000040: 2d0a 36be aa46 613e 5fd8 d93d 3ed0 89bf
00000050: f794 39bf a5e0 65bf 7f6f 81be 1215 b0bf
00000060: b988 86bf 4373 d8bf 061a 01c0 17cc 93bf
00000070: 08e6 dfbe d75f 3fbf b078 b0be 0aef 32c0
00000080: 385c b2be b336 c5bf 765f d33d 99ea 033f
00000090: 55d4 033f 193d 8dbf 3186 07bd d98e a33e
000000a0: 1055 d9bf ef19 21bf 8ec6 ff3e de05 e7bf
000000b0: db80 3a3e dee4 8a3e d021 b0bf 0aba 1ac0
000000c0: bbc2 5fbe ac84 dbbf 5114 58bf e797 45bf
000000d0: 9693 323e 3f74 0bbf 4326 8cbf 0585 9fbe
000000e0: 752e eb3e a55e 123f 3d65 0a3e 55f9 493e
000000f0: 2260 9abf ecf6 de3d b4bf 7b3e 8ee7 4dbd
00000100: 6934 0cc0 909c 8cbe ead4 ffbf a0ea bcbf
00000110: adde fbbf f58b 993f 0a44 573f 9665 42bf
00000120: 4d68 ad3e ab3d a3bf 6ca9 febe a6fe 61bc
00000130: 1c50 88be 25ba 20be 6424 033e a65b 5ebe
00000140: 346b abbf 6644 a4bf 694f dbbf c3db 283f
00000150: 1713 0b3f 5a4f d93e 63d7 c53e 6a8b 1cbe
00000160: bc57 1dbf bc89 3f3e f61e e6bf 4bac f3be
00000170: b0cc 3dbf 3e35 153f f4bf b6bf 9025 06bf
00000180: bfbc 5ebf fbc3 84be 8ffd 5abd 4b5f 60be
00000190: 0cdd 9dbf 29e9 a3bf bb41 fbbf 3345 51bf
000001a0: 9969 d1bf 763e e03e c835 623f 701c c6bf
000001b0: ee56 17bf 1c28 7ebf 2f45 80bf 8928 4fbf
000001c0: 497c c1be 0bd6 03c0 e100 a3bf 27c4 b7bf
000001d0: 7c08 6abe 0b05 14c0 ac8e 943e 1808 06be
000001e0: a277 4cbf 62dd 73bf 2231 da3e eabc 203e
000001f0: 6bd3 22bf e5ac 1c3f 94ac c9bf 2a45 023f

gnn_node.virtualnode_embedding.weight f4 [1, 128]
-0.5127263 -0.48885065 -0.81932944 -0.5061807 -0.3560988 -0.950308 -0.49322835 -0.6546728
-0.540835 -0.15997812 -0.057344265 -0.5944974 -0.32262784 -1.2097777 -0.86202484 -0.11537466
-0.303539 -0.23901579 -0.92407787 -0.26279145 -0.3295831 -0.18319575 -0.055423293 0.036254182
-0.38268247 -0.38384143 -0.07561249 -0.18268459 -0.5012815 -0.4100591 -0.09623124 0.030285437
-0.22488265 -0.34951398 -0.76741284 -0.39799863 0.12700991 -0.51851285 -0.7245598 -0.36377773
-0.2737945 -0.40956828 -1.0238876 -0.32777843 -0.23108841 -0.41279653 0.11961822 -0.29886937
-0.89847755 -0.24662918 -0.34643614 -0.42515102 -0.35133335 0.07997255 -0.511393 -0.22088149
-0.23848286 -0.6277073 -0.8760096 -0.6296058 -0.29034758 -0.31995356 -0.36909536 -0.40195283
-1.4015915 -0.03324316 -0.67657167 -0.69092953 -0.43167147 -0.82641363 -0.6669186 0.0750439
-0.48420316 -0.49763322 -0.3491702 -0.454015 -0.47349036 -0.35888118 -0.4509777 -0.40315393
-0.3099391 -0.040726595 -0.46833107 -1.2258371 -0.009352983 -0.29996562 -0.45870456 -0.57185876
-0.24025047 -0.1162943 -0.40485853 -0.40447414 -0.15547888 -0.1797154 -0.41453102 -0.22813703
-0.4444848 -0.47336596 -0.3895844 -0.38903406 -0.44014937 -0.3253618 -0.044018496 0.039529152
-0.0076115415 -0.8168864 -0.7560729 -0.6973888 -0.19278646 -0.63822085 -0.4015914 -0.5681344
-0.27653182 -0.22523585 -0.08426177 -0.19569798 -0.88009125 -0.960724 -0.15375344 -0.4352566
-0.40721875 -0.42980462 -0.55477256 -0.20264333 -0.3820805 -0.4982169 -0.102982216 -0.36171627
00000000: 0842 03bf a24a fabe 93bf 51bf 0f95 01bf
00000010: 9552 b6be 6347 73bf 6d88 fcbe a398 27bf
00000020: 2a74 0abf 4ed1 23be d2e1 6abd fb30 18bf
00000030: 7a2f a5be ffd9 9abf a9ad 5cbf 8d49 ecbd
00000040: 7769 9bbe 8ec0 74be 5e90 6cbf 9a8c 86be
00000050: 1ebf a8be ab97 3bbe 8903 63bd 447f 143d
00000060: f5ee c3be dd86 c4be b9da 9abd ab11 3bbe
00000070: fc53 00bf 44f3 d1be e214 c5bd 2a19 f83c
00000080: a347 66be 7ff3 b2be 2b75 44bf 7ac6 cbbe
00000090: e30e 023e 42bd 04bf c07c 39bf 1341 babe
000000a0: cb2e 8cbe efb2 d1be c00e 83bf 93d2 a7be
000000b0: 71a2 6cbe 115a d3be 66fa f43d 6805 99be
000000c0: a002 66bf 5c8c 7cbe 1460 b1be 65ad d9be
000000d0: f7e1 b3be a6c8 a33d a7ea 02bf c22e 62be
000000e0: da34 74be 6db1 20bf 2a42 60bf d92d 21bf
000000f0: 70a8 94be f4d0 a3be 11fa bcbe c3cc cdbe
00000100: 5a67 b3bf fb29 08bd cd33 2dbf c2e0 30bf
00000110: 0b04 ddbe d88f 53bf 2dbb 2abf 9eb0 993d
00000120: 7ae9 f7be c8c9 febe 70c6 b2be a774 e8be
00000130: 546d f2be 46bf b7be 8de6 e6be 316a cebe
00000140: 56b0 9ebe eed0 26bd 17c9 efbe 3be8 9cbf
00000150: 413d 19bc 1895 99be 53db eabe 5665 12bf
00000160: 3804 76be b52b eebd 9e49 cfbe 3c17 cfbe
00000170: db35 1fbe 5007 38be 693d d4be c19c 69be
00000180: 8393 e3be 065d f2be 9b77 c7be 792f c7be
00000190: 425b e1be d295 a6be bd4c 34bd 52e9 213d
000001a0: 3d6a f9bb 781f 51bf fe8d 41bf 1388 32bf
000001b0: d069 45be 7162 23bf 639d cdbe 4271 11bf
000001c0: 9495 8dbe 3aa4 66be 6f91 acbd 0d65 48be
000001d0: a94d 61bf 02f2 75bf 8b71 1dbe f4d9 debe
000001e0: fa7e d0be 5a0f dcbe 9305 0ebf bc81 4fbe
000001f0: 0ea0 c3be 4916 ffbe 57e8 d2bd e032 b9be

gnn_node.convs.0.mlp.0.weight f4 [256, 128]
0.029355451 -1.0964229 -1.3743658 -0.62966686 0.14396952 -0.6216235 -0.1689346 -0.96499896
-0.40109873 0.026125519 -0.52068007 0.08403887 0.037489854 -0.0997995 0.049227197 -0.03104945
-0.66690916 -0.23291245 -0.26822722 0.034704093 -0.7633287 -0.038231876 0.35740796 -0.04381184
-0.1077013 -0.14209814 0.12457098 -0.039153717 -1.3938004 0.26262417 -0.02269647 0.12401777
-1.1862801 -0.12523556 -0.054801032 0.36066738 -0.83766025 0.09664112 -3.1810904 -0.6572731
-0.01868227 0.3087108 -0.14153388 0.17918155 0.38297084 0.8066706 0.13207339 -0.110139206
0.6347847 -0.09186088 0.67581946 -2.9087777 -0.9300902 -0.45566013 -0.06768831 -0.023549818
0.22760263 0.15227531 -0.48027775 -0.33861402 0.045716774 0.0143948095 -0.48633716 -0.18545605
-0.2191498 -0.119221166 0.006855326 -0.050693024 0.14729297 -0.07769189 -0.3055949 0.011432993
-0.038087662 0.02751119 -0.05766363 -0.58109397 0.08335267 -1.3000745 -1.3956653 -0.022039548
0.06796636 0.094709374 0.013360458 -0.015076165 -0.208024 0.08187187 0.15112688 0.58827686
-0.10303107 0.025148194 0.07982246 -0.117981195 -3.120788 0.256137 0.09854298 -0.11725118
0.14257754 -1.0815923 -0.52756244 -0.21056606 0.04798307 0.0870759 -0.097362556 0.02451241
0.03451039 0.03857202 0.024968512 -0.055085436 0.18988092 -0.08743429 0.5827115 -0.035170604
0.27980343 0.071912155 -0.004802312 0.0070105493 -0.32863295 0.16736706 -0.015917595 -0.6055165
0.31482708 -3.5248554 0.005402065 0.09289367 0.30484593 -0.36915532 0.11997177 -0.41965175
-0.04778633 -0.030768896 -0.31321734 0.4650946 0.14073615 0.17526296 0.6471398 0.8244411
-0.2962224 -0.059313938 -0.83648884 0.08259712 -0.09027617 0.0605209 0.075713925 -0.041315608
-0.22282496 -0.034347773 0.39397886 0.04290614 -0.6273566 1.2089351 0.21882668 -0.03828599
-0.008857504 -0.021947471 0.04531015 -0.028555445 -0.40756586 -2.1469843 -0.56042296 -0.01231911
-0.23259492 -0.039466966 0.16069528 -1.0427098 -0.67489517 0.010401291 1.074054 0.01657588
0.041644145 0.74192977 -0.08289659 0.06406714 -0.57911146 0.7746444 0.028002162 -0.034805093
1.3917909 -0.0764357 0.19927046 0.08997454 0.4479244 -0.22931781 0.011731536 -0.07785424
0.007854102 -0.038543284 -0.77531564 0.3536914 -0.10195161 -0.5284779 0.1294628 -0.04214169
0.09420974 0.10945398 -0.062633194 0.041496135 0.0043982323 -0.2765999 -0.163772 0.05732276
0.035554368 -0.063920565 0.0022425822 -0.7476808 1.1670744 -0.077676445 0.10617813 -0.5189175
0.010499131 -0.035696827 -0.070317805 0.2009688 -0.090734586 0.31619406 -1.0607628 -0.20916742
0.049433567 -0.7937626 0.07954758 0.103260055 -0.43030372 -0.0006468439 -0.023397673 -3.1049345
-0.19351777 -2.1222095 1.9538244 0.105390504 0.00059396087 -0.03914519 0.08893523 0.0810742
-0.06492506 0.14986007 -0.11819968 0.093179844 -0.0231841 -0.04183587 0.6938691 0.011440046
0.8015588 -0.047277156 0.05252336 0.047925383 0.07417772 -0.048699982 0.0069153067 0.010425833
0.23826073 0.9227699 -0.08541278 -0.21792032 0.16763408 0.2671436 0.06983525 -0.055986658
00000000: d87a f03c 9657 8cbf 38eb afbf d931 21bf
00000010: bf6c 133e b822 1fbf 31fd 2cbe 2c0a 77bf
00000020: d05c cdbe 2f05 d63c 4a4b 05bf 921c ac3d
00000030: f68e 193d ae63 ccbd 75a2 493d 6b5b febc
00000040: 8fba 2abf 9a80 6ebe 1455 89be e125 0e3d
00000050: 8269 43bf 0799 1cbd 2dfe b63e 0b74 33bd
00000060: 8092 dcbd 2d82 11be 121f ff3d a65f 20bd
00000070: 0d68 b2bf ad76 863e f3ed b9bc 07fd fd3d
00000080: 07d8 97bf c03d 00be 0c77 60bd 65a9 b83e
00000090: e770 56bf c8eb c53d fc96 4bc0 0d43 28bf
000000a0: 8f0b 99bc 580f 9e3e 42ee 10be 5e7b 373e
000000b0: c114 c43e f781 4e3f 3f3e 073e aa90 e1bd
000000c0: 4081 223f 8f21 bcbd 8102 2d3f 6a29 3ac0
000000d0: 641a 6ebf 494c e9be 2ba0 8abd 8ceb c0bc
000000e0: aa10 693e 0fee 1b3e f7e6 f5be d15e adbe
000000f0: 8341 3b3d 35d8 6b3c 2f01 f9be 31e8 3dbe
00000100: ce68 60be 3a2a f4bd a4a2 e03b 7da3 4fbd
00000110: f8d3 163e ed1c 9fbd ef76 9cbe 7351 3b3c
00000120: cf01 1cbd 265f e13c b330 6cbd 93c2 14bf
00000130: ceb4 aa3d d768 a6bf 29a5 b2bf 488c b4bc
00000140: f231 8b3d fdf6 c13d d3e5 5a3c 0502 77bc
00000150: 3e04 55be 70ac a73d 01c1 1a3e 5099 163f
00000160: f401 d3bd 9603 ce3c f579 a33d 20a0 f1bd
00000170: feba 47c0 6424 833e e7d0 c93d 6321 f0bd
00000180: d9ff 113e 9e71 8abf 550e 07bf a19e 57be
00000190: e589 443d d954 b23d 0566 c7bd 40ce c83c
000001a0: c45a 0d3d b2fd 1d3d c48a cc3c 44a1 61bd
000001b0: 2570 423e c010 b3bd 952c 153f 0d0f 10bd
000001c0: 6542 8f3e ae46 933d b65c 9dbb c0b8 e53b
000001d0: 9442 a8be 4562 2b3e 9e65 82bc 2103 1bbf
000001e0: 0431 a13e 3b97 61c0 ce03 b13b 093f be3d
000001f0: c414 9c3e ed01 bdbe c2b3 f53d 98dc d6be
00000200: 99bb 43bd 0d0f fcbc 065e a0be e120 ee3e
00000210: 231d 103e 2278 333e f4aa 253f 920e 533f
00000220: 76aa 97be 2cf3 72bd 2224 56bf ae28 a93d
00000230: b6e2 b8bd c3e4 773d e70f 9b3d 8e3a 29bd
00000240: 3a2c 64be 40b0 0cbd 99b7 c93e 59be 2f3d
00000250: 719a 20bf 63be 9a3f 1a14 603e c5d1 1cbd
00000260: 111f 11bc 2fcb b3bc 2397 393d 1ced e9bc
00000270: 79ac d0be 3168 09c0 e177 0fbf 18d6 49bc
00000280: 5d2d 6ebe 1da8 21bd 4e8d 243e 8477 85bf
00000290: eec5 2cbf 2d6a 2a3c 9a7a 893f 24ca 873c
000002a0: 0d93 2a3d 1cef 3d3f b0c5 a9bd a235 833d
000002b0: a640 14bf 184f 463f ca64 e53c c98f 0ebd
000002c0: 3426 b23f 528a 9cbd 8e0d 4c3e 9244 b83d
000002d0: 5956 e53e 4ad2 6abe a135 403c 0b72 9fbd
000002e0: 7eae 003c 90df 1dbd 167b 46bf 0a17 b53e
000002f0: 01cc d0bd 544a 07bf e591 043e c49c 2cbd
00000300: 09f1 c03d 6929 e03d d545 80bd daf7 293d
00000310: 0c1f 903b 819e 8dbe d9b3 27be 45cb 6a3d
00000320: 75a1 113d c9e8 82bd 49f8 123b 0268 3fbf
00000330: b262 953f d414 9fbd eb73 d93d c7d7 04bf
00000340: 8c04 2c3c d636 12bd c802 90bd c4ca 4d3e
00000350: 0ed3 b9bd 30e4 a13e 13c7 87bf fc2f 56be
00000360: da7a 4a3d 0734 4bbf d7e9 a23d 027a d33d
00000370: c550 dcbe f690 29ba 7aac bfbc 3fb7 46c0
00000380: 8629 46be 48d2 07c0 eb16 fa3f fad6 d73d
00000390: 0ab4 1b3a b556 20bd ad23 b63d 3b0a a63d
000003a0: 6ef7 84bd eb74 193e ac12 f2bd 13d5 be3d
000003b0: 95ec bdbc 175c 2bbd 68a1 313f 086f 3b3c
000003c0: f532 4d3f b1a5 41bd bc22 573d 684d 443d
000003d0: 7dea 973d a279 47bd cc99 e23b 1dd1 2a3c
000003e0: 9ffa 733e a63a 6c3f e5ec aebd 8126 5fbe
000003f0: 45a8 2b3e 0cc7 883e c905 8f3d 4452 65bd

gnn_node.convs.0.mlp.0.bias f4 [256]
-0.08370604 -0.015920347 0.02895155 -0.0012363339 -0.059012897 0.00027314422 0.0021783144 0.07488236
-0.06391718 0.032921914 0.03713782 -0.07741098 -0.06660755 -0.04518782 0.026904684 0.07253125
0.037710525 -0.047128323 -0.017134322 -0.05336505 0.062054165 0.06362498 -0.020526793 -0.047615536
-0.03658533 0.053219113 -0.07994781 0.0029787724 0.029889042 -0.084034644 0.04503047 -0.08343004
-0.05443564 0.07254685 -0.060191456 0.06604136 0.087116204 -0.007639622 -0.054811683 -0.05888986
-0.0019832097 -0.01593405 -0.048120506 0.030022057 -0.09620439 0.07456389 0.04507397 0.040027834
-0.015486446 -0.011137379 0.07799484 0.07984955 -0.08286174 0.0036388037 0.05430354 0.01339439
0.060969204 0.08006977 -0.018439349 0.008198456 -0.062045027 0.07169638 0.00064886885 0.025493493
-0.07957965 0.057067033 0.009282327 -0.033575527 -0.049959287 -0.0753267 0.06421827 0.029268026
0.03532735 -0.054731954 0.06955919 -0.01347525 0.07646305 -0.06267546 -0.0152864065 0.070867375
-0.06363732 -0.037021443 -0.030195873 0.04222523 0.08497264 0.03225033 0.01798252 -0.011960743
-0.011478845 -0.06716117 -0.08909724 -0.0321966 -0.021560026 -0.036719672 -0.014984172 0.028552305
0.029420864 0.0010501253 0.042641755 0.00039050318 0.0016613194 -0.06179017 -0.05174589 -0.064024344
0.055426113 0.03787822 0.13072671 -0.07242076 -0.05526046 -0.063449204 -0.06403322 0.051175594
-0.028150922 0.07333025 0.06526062 -0.07705414 0.0758727 0.05990738 -0.0027480482 -0.0075891577
0.0123028 -0.011224252 0.05305925 -0.04875197 -0.07721619 -0.035878364 -0.06954181 0.06548136
-0.01643288 0.04497635 -0.081805825 -0.073780894 0.053211015 0.077156335 0.043052897 -0.060816992
0.0577539 -0.05524752 0.02511063 0.0035097578 0.012151254 0.044761613 -0.06331086 -0.08178152
-0.011567146 0.06440076 0.05009268 -0.0005803504 0.05678243 -0.073278844 0.012711919 0.06796361
0.08737768 -0.010014559 -0.061440073 0.0028668689 0.042359762 0.04228686 0.051386043 -0.06451666
0.007788075 0.06465089 0.04053369 0.025331192 -0.044903938 0.014130721 -0.05243656 0.031520024
0.0660822 0.04584504 -0.06660957 0.04374561 0.057231687 -0.014818313 -0.040255733 -0.013175247
-0.013590812 -0.09404373 0.045574784 -0.03370446 0.002625601 -0.022730252 0.0029052638 -0.016210612
0.014731997 -0.007760348 0.024039634 -0.08572925 0.020274065 -0.04982808 0.058549028 0.02383277
0.08422138 0.088212505 -0.04485952 -0.088381834 0.0027906045 0.11408371 -0.011808682 -0.07432339
-0.02634563 -0.08930227 -0.072142065 0.008755694 -0.08901836 0.0050476566 0.030053496 -0.05272104
0.043182474 0.0021532709 -0.0708407 0.06745183 -0.01980884 -0.08198523 0.04760636 -0.029113384
0.062970035 0.017606908 -0.07459813 -0.08155623 0.0154986875 0.010774887 0.014365603 -0.009247844
-0.048613098 0.008940302 0.0110051725 0.06288914 0.041586757 0.039748203 -0.06119337 0.11390459
0.0549447 0.023197826 0.074425094 -0.08295037 -0.059028648 0.015813077 0.007022312 0.016031884
0.017833807 -0.003325146 -0.050218668 -0.019484298 0.07184409 0.052871972 0.06793171 0.060106866
-0.041763857 -0.03184346 -0.043425664 -0.07193065 -0.047052123 -0.012316887 0.041714273 0.039074685
00000000: 136e abbd 636b 82bc cd2b ed3c 7b0c a2ba
00000010: 82b7 71bd cc34 8f39 0dc2 0e3b ec5b 993d
00000020: 03e7 82bd 21d9 063d d41d 183d a689 9ebd
00000030: 8a69 88bd dd16 39bd 3667 dc3c 448b 943d
00000040: 5a76 1a3d a109 41bd 475d 8cbc 5095 5abd
00000050: 822c 7e3d d04d 823d ce27 a8bc 8208 43bd
00000060: 80da 15bd 49fc 593d adbb a3bd 8237 433b
00000070: ddd9 f43c 5b1a acbd df71 383d 5edd aabd
00000080: e8f7 5ebd 7193 943d 518b 76bd b140 873d
00000090: fb69 b23d cb55 fabb 3782 60bd 7e36 71bd
000000a0: bdf8 01bb 2088 82bc 021a 45bd d1f0 f53c
000000b0: cf06 c5bd f4b4 983d 7c9f 383d 3af4 233d
000000c0: ddba 7dbc 8e79 36bc c2bb 9f3d 2988 a33d
000000d0: 6ab3 a9bd ff78 6e3b 646d 5e3d 2574 5b3c
000000e0: d8ba 793d 9ffb a33d 1e0e 97bc d152 063c
000000f0: ed22 7ebd 8dd5 923d da18 2a3a bbd7 d03c
00000100: a8fa a2bd 1fbf 693d e714 183c 7e86 09bd
00000110: 1ca2 4cbd e344 9abd de84 833d 80c3 ef3c
00000120: 69b3 103d 9d2e 60bd 0c75 8e3d 4cc7 5cbc
00000130: a998 9c3d fe5b 80bd d673 7abc ea22 913d
00000140: 4954 82bd cca3 17bd 565d f7bc 5df4 2c3d
00000150: 2306 ae3d ec18 043d 1450 933c fef6 43bc
00000160: c411 3cbc cc8b 89bd 9d78 b6bd 95e0 03bd
00000170: a79e b0bc 5e67 16bd 2c80 75bc 86e6 e93c
00000180: 0604 f13c 5ca4 893a 1fa9 2e3d 73bc cc39
00000190: a1c0 d93a b017 7dbd 80f3 53bd 321f 83bd
000001a0: 7e06 633d 3126 1b3d 39dd 053e 5651 94bd
000001b0: cb58 62bd a8f1 81bd d923 83bd 809d 513d
000001c0: c39c e6bc 2c2e 963d 5ca7 853d 90ce 9dbd
000001d0: 2563 9b3d 7161 753d 9918 34bb 78ae f8bb
000001e0: af91 493c ede5 37bc a854 593d 25b0 47bd
000001f0: 8623 9ebd 31f5 12bd f06b 8ebd 171b 863d
00000200: 3f9e 86bc 1f39 383d d089 a7bd 701a 97bd
00000210: cbf3 593d 2404 9e3d 3c58 303d 3d1b 79bd
00000220: 5a8f 6c3d 394b 62bd cfb4 cd3c f703 663b
00000230: 0e16 473c f457 373d 20a9 81bd 127d a7bd
00000240: 2084 3dbc 8ce4 833d fb2d 4d3d a822 18ba
00000250: b194 683d 3813 96bd a745 503c 8130 8b3d
00000260: 12f3 b23d 1b14 24bc 96a8 7bbd 14e2 3b3b
00000270: 6e81 2d3d fd34 2d3d 2c7a 523d 5021 84bd
00000280: 1c33 ff3b b067 843d a806 263d 5c83 cf3c
00000290: 31ed 37bd 8a84 673c b8c7 56bd 241b 013d
000002a0: 1b56 873d 02c8 3b3d 996a 88bd 992e 333d
000002b0: c66b 6a3d 82c8 72bc 32e3 24bd fedc 57bc
000002c0: ffab 5ebc 009a c0bd a0ac 3a3d b00d 0abd
000002d0: 4612 2c3b cb34 babc 3d66 3e3b 1ecc 84bc
000002e0: 795e 713c 844a febb c4ee c43c d192 afbd
000002f0: cc15 a63c 8718 4cbd 1bd1 6f3d f13c c33c
00000300: 427c ac3d c2a8 b43d 9ebe 37bd 8901 b5bd
00000310: 93e2 363b b8a4 e93d 3479 41bc dd36 98bd
00000320: cad2 d7bc 1ce4 b6bd 38bf 93bd 0b74 0f3c
00000330: 424f b6bd d066 a53b c032 f63c 04f2 57bd
00000340: 1be0 303d e41d 0d3b ee14 91bd 2f24 8a3d
00000350: 2646 a2bc dfe7 a7bd e3fe 423d 317f eebc
00000360: 6ff6 803d 5d3c 903c e8c6 98bd f406 a7bd
00000370: 35ee 7d3c 2789 303c b55d 6b3c 4584 17bc
00000380: 871e 47bd 587a 123c 0a4f 343c 05cc 803d
00000390: e056 2a3d 03cf 223d e6a5 7abd cf46 e93d
000003a0: b20d 613d 5e09 be3c 2f6c 983d e2e1 a9bd
000003b0: 06c8 71bd 6d8a 813c 6c1b e63b 4c55 833c
000003c0: 3418 923c b1ea 59bb 17b2 4dbd 899d 9fbc
000003d0: ff22 933d 4890 583d c81f 8b3d 9e32 763d
000003e0: 9410 2bbd 4a6e 02bd 1cdf 31bd 6050 93bd
000003f0: bab9 40bd c5cc 49bc 96dc 2a3d c70c 203d

gnn_node.convs.0.mlp.1.weight f4 [256]
1.4495511 0.7347969 0.48357186 0.48062196 0.44814223 1.6411879 1.4259008 0.11299931
1.8351634 1.1354618 1.0245757 1.4913 1.9457887 0.50995475 1.0988473 1.0557479
1.5357112 0.6273094 0.45471936 0.2476203 0.16425893 1.7778739 1.6074907 0.94580764
0.5634559 1.4450628 1.390431 0.4735541 2.1099668 1.3530011 1.1460575 1.0108258
0.23237269 0.3226262 0.0031853614 0.57254535 -0.0050285 0.7097871 -0.03127654 -0.010671745
2.1912766 1.218982 2.303356 1.3810232 1.7528273 0.54482025 1.9871106 1.4746495
0.083111316 2.1038697 0.9540248 -0.016902532 0.68185395 1.7240808 0.72621495 1.2129004
1.343343 0.5703956 0.13763605 0.025920523 0.9457744 1.0969796 0.011763227 2.6523235
0.6923485 0.77308106 0.010737033 0.11976644 0.5969642 1.0257596 2.2188153 0.8710743
0.26850396 0.54814434 0.59225816 1.5077659 0.0004113523 0.49764574 1.1024494 2.026042
2.4024556 1.3870528 1.571033 0.07646941 1.3834558 2.069701 1.5400636 1.8884346
1.5614088 0.2519629 1.5656534 1.9391817 2.2541428 1.5443817 1.7645019 -0.0064120363
-0.014351032 0.37961736 1.5604637 1.1967865 1.847154 1.3185433 0.9620845 0.009112514
1.8589655 0.6086714 1.6877848 1.8743378 -0.006733829 0.16026098 1.1294829 2.0726132
0.124613866 1.239778 0.9921429 1.4605983 1.2397754 1.6691402 0.9932169 1.1506609
1.0140942 1.922487 -0.034501612 0.6730851 1.5388659 1.9334265 1.2551419 1.1939837
1.5883273 0.7992327 2.038116 1.7674627 0.8194653 1.10001 1.6765784 0.43492892
0.10875354 2.0141962 1.5013658 0.7072178 0.0869286 1.4149595 1.2226477 0.8560593
2.1396132 0.23824042 1.9910665 0.4330737 1.4575869 0.005703153 0.20673026 -0.027710894
1.1452277 0.059039745 1.2603223 1.7416674 1.6943476 1.4072044 1.0223671 1.6638813
1.5731449 1.6035904 0.83740467 1.8140357 0.24970248 0.9781292 1.7401534 0.37138355
1.7585297 0.5164602 1.5262166 0.3935372 0.6074177 0.78990144 1.1607536 0.37068704
1.0557764 2.028219 0.050958414 0.6225176 7.18676e-05 1.6406162 0.12887116 0.92713326
1.2872548 1.3668592 2.0076847 1.7934419 0.004381669 0.33016837 0.9514145 0.42890784
1.6713923 1.1855425 -0.010388159 0.0023650413 1.531146 1.6613711 0.48428896 0.5318423
0.991798 1.1301855 1.4511354 1.7015666 1.9133981 2.0666838 1.1041188 0.48473838
1.3503456 0.8252426 1.782252 0.7916888 0.84590316 0.44134668 0.3080052 0.14996591
0.96949095 0.84835297 1.4821866 0.34703302 0.4274577 0.11733732 1.2345159 0.27065632
1.3902771 1.8846228 0.4020838 0.020482734 1.2345508 0.08490327 0.79394144 2.7766306
1.5698116 1.4592206 0.6756712 0.07865151 1.6141254 1.5115898 1.1083738 1.7177993
0.86534506 2.318036 0.2064749 1.5823429 2.2385411 0.23688401 1.8416868 0.62842953
2.3091335 0.5788797 0.7968607 0.72265804 0.71734375 1.3729571 0.7865183 1.8928154
00000000: e48a b93f a61b 3c3f bb96 f73e 1514 f63e
00000010: e672 e53e 7212 d23f eb83 b63f 2f6c e73d
00000020: a2e6 ea3f d056 913f 4c25 833f ebe2 be3f
00000030: 9b0f f93f 658c 023f 07a7 8c3f bf22 873f
00000040: 2f92 c43f 5997 203f fad0 e83e 2d90 7d3e
00000050: 7e33 283e 5f91 e33f 41c2 cd3f 7320 723f
00000060: a53e 103f d1f7 b83f a5f9 b13f af75 f23e
00000070: b209 0740 242f ad3f 03b2 923f bd62 813f
00000080: 1bf3 6d3e 432f a53e 7fc1 503b 5592 123f
00000090: 1ec6 a4bb 9bb4 353f d41b 00bd 8bd8 2ebc
000000a0: e03d 0c40 9a07 9c3f 2f6a 1340 5ec5 b03f
000000b0: a55c e03f 5779 0b3f a459 fe3f 51c1 bc3f
000000c0: 4436 aa3d cda5 0640 f83a 743f 2e77 8abc
000000d0: fb8d 2e3f aeae dc3f 39e9 393f 5240 9b3f
000000e0: aaf2 ab3f 7205 123f 77f0 0c3e 4757 d43c
000000f0: 451e 723f d469 8c3f 8dba 403c abbf 2940
00000100: c03d 313f a4e8 453f 61ea 2f3c 1b48 f53d
00000110: a5d2 183f 174c 833f 1201 0e40 bafe 5e3f
00000120: 5a79 893e 3053 0c3f 3b9e 173f 79fe c03f
00000130: c5aa d739 6ccb fe3e 101d 8d3f acaa 0140
00000140: d5c1 1940 f28a b13f 9c17 c93f fe9b 9c3d
00000150: 1415 b13f fb75 0440 ce20 c53f 3ab8 f13f
00000160: 3edc c73f 4801 813e 5567 c83f 1b37 f83f
00000170: e043 1040 4dae c53f 33db e13f 0f1c d2bb
00000180: 9720 6bbc 355d c23e 46bd c73f 4d30 993f
00000190: 8b6f ec3f 07c6 a83f 2b4b 763f a74c 153c
000001a0: 95f2 ed3f e4d1 1b3f 5509 d83f 4dea ef3f
000001b0: 74a7 dcbb 741b 243e e592 903f b2a5 0440
000001c0: 8e35 ff3d 0cb1 9e3f 14fd 7d3f e3f4 ba3f
000001d0: f6b0 9e3f 63a6 d53f 7643 7e3f db48 933f
000001e0: d7cd 813f 0e14 f63f 9051 0dbd 4e4f 2c3f
000001f0: 8ff9 c43f 857a f73f 7da8 a03f 75d4 983f
00000200: 4f4e cb3f 849a 4c3f 7e70 0240 383c e23f
00000210: 7ac8 513f 21cd 8c3f 1f9a d63f 01af de3e
00000220: 2dba de3d 97e8 0040 c12c c03f 3a0c 353f
00000230: 9f07 b23d 651d b53f b87f 9c3f b426 5b3f
00000240: 6cef 0840 4cf5 733e 44db fe3f d6bb dd3e
00000250: 3592 ba3f 84e1 ba3b 19b1 533e f501 e3bc
00000260: d296 923f a9d3 713d 3e52 a13f f5ee de3f
00000270: 62e0 d83f 461f b43f eddc 823f 10fa d43f
00000280: d05c c93f 7342 cd3f 2760 563f 5232 e83f
00000290: 02b2 7f3e ad66 7a3f 59bd de3f fc25 be3e
000002a0: 8017 e13f bc36 043f 115b c33f b57d c93e
000002b0: ba7f 1b3f fb36 4a3f 9393 943f b1ca bd3e
000002c0: ae23 873f 57ce 0140 c5b9 503d 505d 1f3f
000002d0: a0b7 9638 b6ff d13f cdf6 033e 9b58 6d3f
000002e0: c4c4 a43f 3ef5 ae3f e87d 0040 818f e53f
000002f0: 1b94 8f3b d40b a93e e78f 733f cf99 db3e
00000300: 2ff0 d53f dbbf 973f 1933 2abc cffe 1a3b
00000310: 98fc c33f cfa7 d43f b9f4 f73e d126 083f
00000320: 79e6 7d3f eba9 903f cebe b93f efcc d93f
00000330: 3bea f43f 8c44 0440 c453 8d3f a12f f83e
00000340: 20d8 ac3f 1943 533f d520 e43f 1eac 4a3f
00000350: 1c8d 583f 31f8 e13e dcb2 9d3e aa90 193e
00000360: 8f30 783f a92d 593f 4ab8 bd3f 50ae b13e
00000370: bcdb da3e 8d4e f03d 9e04 9e3f 7793 8a3e
00000380: 9af4 b13f 523b f13f eedd cd3e 68cb a73c
00000390: c305 9e3f c4e1 ad3d bf3f 4b3f 51b4 3140
000003a0: 96ef c83f bec7 ba3f caf8 2c3f 0b14 a13d
000003b0: a99b ce3f c67b c13f 31df 8d3f d9e0 db3f
000003c0: 4187 5d3f b45a 1440 286e 533e 368a ca3f
000003d0: 4244 0f40 b991 723e 65bc eb3f c2e0 203f
000003e0: d8c8 1340 7631 143f 10ff 4b3f 1e00 393f
000003f0: d7a3 373f 0fbd af3f 4359 493f c647 f23f

gnn_node.convs.0.mlp.1.bias f4 [256]
0.50702906 -0.31794876 -0.45709863 -0.9674113 -0.5176046 -0.4962586 -0.6208275 -0.260371
-0.2826205 0.21481527 -0.35893616 -0.38896847 0.30702683 -0.2911455 -0.350997 -0.10394628
-0.46073875 -1.0103083 -0.5884367 -0.58860135 -0.6529927 -0.64250636 -0.22932285 -0.18898389
0.29357427 -0.43547606 -0.62576824 0.18976419 -0.49375296 0.16897728 -0.60633135 -0.4503769
-0.8124613 -0.91100824 -0.11906963 -1.4741112 -0.16187246 -1.2812539 0.05959128 -0.1898425
-0.520363 -0.22664899 -0.2760081 -0.5657208 -0.6114336 -0.9037253 -0.43277895 -0.48213068
-1.4698842 -0.50849813 -0.4323244 -1.2899327 -0.2377268 -0.41024363 -0.034865852 -0.53679883
-0.31051004 -1.3094265 -0.04689737 -0.65337265 -0.06437298 -0.18369298 -0.65672505 -0.47707814
0.026055835 -0.2534322 -0.39598703 -0.35102543 -0.62297577 -0.13300432 -0.3210057 0.37338662
-0.50302804 -0.7994999 -0.26304057 -0.55032784 -0.4632694 -1.0814369 0.87158674 -0.57820326
-0.6312969 -0.45318246 -0.51128674 0.07346958 -0.20325474 -0.39777863 -0.4715583 -0.55501753
-0.06886288 -0.5715778 -0.17873333 -0.6245732 -0.644849 -0.3203892 -0.283846 -0.07652033
0.32433578 -0.9773059 -0.5744231 -0.49284652 -0.14100341 -0.49670705 -0.61596745 -0.18168408
-0.5648043 -1.1892067 -0.37634704 -0.24437524 -0.4785056 -0.08449204 0.20051211 0.033631675
-0.663013 -0.3234073 -0.06894939 -0.55806655 -0.7430362 -0.5892655 -0.15022516 -0.36007214
0.01304259 -0.46077442 -0.0044625257 -0.37555084 -0.36545143 -0.49621224 -0.37320605 -0.27516544
-0.694728 -0.3302586 -0.10422913 -0.5823297 -0.42826697 -0.058654588 -0.23966274 -1.1298662
-0.62281966 0.0410884 -0.6581296 -0.81058145 0.4978465 -0.32999754 -0.5415381 -0.19586831
-0.60027695 -0.60480464 -0.42335364 -0.14820288 -0.45735767 -0.53485256 -0.58839923 0.23224866
0.17974228 -0.925566 0.0354752 -0.6092854 -0.5544149 0.029786196 -0.55122566 -0.4461903
-0.08654071 -0.6557789 -0.25861573 -0.6333968 -0.68092096 -0.5242155 0.076480664 -0.21532774
-0.45749253 -0.4338328 -0.5902032 -0.04023436 -0.9027271 -0.74171215 -0.44710407 0.8674073
-0.3804109 -0.3376432 -0.089653105 0.71104926 -0.063174844 -0.47827557 -1.0053653 -0.69888467
-0.22226512 -0.022543298 -0.015866049 -0.23541093 -0.43242154 -0.7295734 1.3615148 -0.55090386
-0.09338374 -0.34348533 0.105464906 -0.1213963 -0.31949404 -0.2168468 -0.52578604 -0.88947976
-0.048811063 -0.33623353 -0.066392675 0.0028439555 -0.64193034 -0.646448 0.49494562 -0.44361255
-0.70611537 -0.21468465 -0.45922312 -0.83890456 -1.2015033 -0.65515685 -0.90893346 -0.93138576
-0.54791343 -0.17671074 -0.6268042 -0.5901257 -0.9640579 -0.22813226 -0.53080004 0.6096173
-0.50299174 -0.2406341 -0.029704543 -0.97662383 -0.31794983 -0.5315745 -0.2597891 -0.14570487
-0.6899127 -0.5458928 -0.75549847 -0.6101992 -0.59151036 -0.18057032 -0.12548964 -0.31529698
-0.31034037 0.34639913 -0.11865588 -0.34683084 -0.489862 -0.7701104 -0.47942948 -1.0108267
-0.2532003 -0.9909133 -1.1072323 -0.007224451 0.0965929 -0.34262842 -0.34488684 -0.5029547
00000000: a8cc 013f 2eca a2be d508 eabe 44a8 77bf
00000010: bc81 04bf 9b15 febe 8dee 1ebf 594f 85be
00000020: a2b3 90be 89f8 5b3e 7bc6 b7be e026 c7be
00000030: 9f32 9d3e 0611 95be e1b5 b3be cae1 d4bd
00000040: f3e5 ebbe c851 81bf caa3 16bf 94ae 16bf
00000050: 882a 27bf 4c7b 24bf 9cd3 6abe fe84 41be
00000060: 5e4f 963e b8f6 debe 5932 20bf 8b51 423e
00000070: 30cd fcbe 6108 2d3e 8838 1bbf cd97 e6be
00000080: 77fd 4fbf d637 69bf c7da f3bd adaf bcbf
00000090: e5c1 25be 2100 a4bf fc15 743d 1366 42be
000000a0: 8236 05bf ac16 68be ef50 8dbe 14d3 10bf
000000b0: ea86 1cbf 8b5a 67bf 3495 ddbe d5d9 f6be
000000c0: 2a25 bcbf ef2c 02bf a059 ddbe 841c a5bf
000000d0: a76e 73be 740b d2be 7fcf 0ebd a66b 09bf
000000e0: 2cfb 9ebe 4a9b a7bf 7517 40bd 6e43 27bf
000000f0: fbd5 83bd 031a 3cbe 221f 28bf 9643 f4be
00000100: 0c73 d53c dec1 81be d0be cabe 9bb9 b3be
00000110: 577b 1fbf 4932 08be dc5a a4be 882c bf3e
00000120: 72c6 00bf 07ac 4cbf 41ad 86be 49e2 0cbf
00000130: a631 edbe 866c 8abf 4f20 5f3f 2105 14bf
00000140: ac9c 21bf 8807 e8be b0e3 02bf 3877 963d
00000150: 0322 50be a4a9 cbbe 1770 f1be a115 0ebf
00000160: fb07 8dbd ec52 12bf df05 37be 07e4 1fbf
00000170: d314 25bf 0e0a a4be 4354 91be b1b6 9cbd
00000180: 570f a63e b830 7abf 640d 13bf 6156 fcbe
00000190: 3363 10be 6350 febe 0bb0 1dbf 640b 3abe
000001a0: 0497 10bf ed37 98bf 8fb0 c0be 813d 7abe
000001b0: b0fe f4be 2a0a adbd 0c53 4d3e 5ec1 093d
000001c0: 38bb 29bf a495 a5be 5635 8dbd 73dd 0ebf
000001d0: 9f37 3ebf 1bda 16bf a0d4 19be 605b b8be
000001e0: 96b0 553c a0ea ebbe 613a 92bb 3348 c0be
000001f0: 731c bbbe 880f febe dd14 bfbe 7ce2 8cbe
00000200: b2d9 31bf a817 a9be 1576 d5bd 8f13 15bf
00000210: cf45 dbbe cb3f 70bd 266a 75be 759f 90bf
00000220: 1c71 1fbf 4f4c 283d 2e7b 28bf 4482 4fbf
00000230: bde5 fe3e 70f5 a8be 3ea2 0abf b491 48be
00000240: c0ab 19bf 7ad4 1abf cfc1 d8be 7fc2 17be
00000250: c92a eabe 19ec 08bf 55a1 16bf 98d2 6d3e
00000260: 5c0e 383e e5f1 6cbf 714e 113d 21fa 1bbf
00000270: 23ee 0dbf 2e02 f43c 201d 0dbf 0e73 e4be
00000280: 413c b1bd 20e1 27bf 4869 84be 4b26 22bf
00000290: d650 2ebf fd32 06bf e5a1 9c3d e07e 5cbe
000002a0: 763c eabe 551f debe 8f17 17bf c9cc 24bd
000002b0: 2019 67bf d9e0 3dbf d3ea e4be 680e 5e3f
000002c0: 38c5 c2be 92df acbe 0c9c b7bd 5307 363f
000002d0: d061 81bd 89e0 f4be cfaf 80bf 1bea 32bf
000002e0: 7899 63be b9ac b8bc 84f9 81bc 900f 71be
000002f0: 5b66 ddbe 53c5 3abf 1e46 ae3f 0908 0dbf
00000300: f93f bfbd 4fdd afbe fcfd d73d a09e f8bd
00000310: b994 a3be 160d 5ebe ea99 06bf f2b4 63bf
00000320: 1cee 47bd cd26 acbe e2f8 87bd a861 3a3b
00000330: 8c55 24bf 9e7d 25bf 8369 fd3e 2f21 e3be
00000340: fac3 34bf 4bd6 5bbe 4b1f ebbe 73c2 56bf
00000350: dcca 99bf 5cb8 27bf ddaf 68bf 4c6f 6ebf
00000360: 0e44 0cbf a9f3 34be 3d76 20bf 7a12 17bf
00000370: 80cc 76bf 819b 69be 83e2 07bf e10f 1c3f
00000380: 11c4 00bf c968 76be f156 f3bc 0504 7abf
00000390: 52ca a2be 4415 08bf 1403 85be a833 15be
000003a0: 1e9e 30bf a1bf 0bbf 5968 41bf 0436 1cbf
000003b0: 396d 17bf 6de7 38be 5b80 00be 9b6e a1be
000003c0: efe4 9ebe 3a5b b13e db01 f3bd d093 b1be
000003d0: 31cf fabe f525 45bf c877 f5be c562 81bf
000003e0: 78a3 81be 7eac 7dbf cab9 8dbf 16bb ecbb
000003f0: 80d2 c53d fe6c afbe 0295 b0be a4c1 00bf

gnn_node.convs.0.mlp.1.running_mean f4 [256]
9.1303005 -3.7968209 -11.737598 9.553686 1.5583484 3.6141531 -1.8506145 -0.56876737
4.8994904 1.4315879 -0.50381047 -8.77993 8.2630825 0.6572591 3.9097002 6.2930207
-0.8867646 5.2923284 -5.4050303 -4.28671 -2.6099722 -7.4289217 11.996474 5.928121
-6.2370043 0.1610361 -6.761308 7.4996505 -9.197041 -4.040493 -8.969254 12.049131
1.8696697 4.295682 1.1316236 9.816584 2.7183878 13.046606 1.1357803 2.380454
0.49216574 -12.8804655 3.3390703 -1.9089499 -3.6568143 -1.9468888 -3.0096173 -3.8079839
6.5806975 -4.802276 10.328118 7.6082363 -5.8235683 -5.662323 6.145957 -2.1626737
-9.671562 -7.903729 12.00323 -2.7172399 -7.6039777 -0.92007744 -3.0226305 -5.6992807
10.57513 2.2603462 0.63735616 -4.342321 0.8200582 -0.5429046 5.741775 -7.1566753
-0.28751162 2.6382537 -0.7844461 -3.1060925 -2.2304566 -1.9511412 13.617139 10.298985
-4.9782047 3.0359383 -5.8670278 8.203658 1.5223707 5.209938 -4.7040834 15.354043
-0.28214088 -4.0475373 10.451311 -10.626704 -0.1224391 12.476556 5.3513947 1.5422605
2.15111 7.0119033 -1.435624 -2.4054217 -0.3560064 -22.146532 -7.1639433 1.0544555
11.896272 8.419655 -8.057103 -13.399108 2.1644084 3.8844016 2.1548247 -6.4617653
-1.603516 -8.224893 -1.7033284 4.559113 -1.1529545 -6.26325 1.5327803 -2.3027678
-0.5254757 -1.7604264 4.8400292 -6.49631 12.24255 -6.676266 -8.421014 0.21064506
-0.8564051 -4.776518 3.8808289 -1.5058988 -9.500542 7.660852 4.8935766 5.8625875
-2.0125325 -8.450598 -7.851057 2.6936264 -0.76772577 8.421313 -5.1617866 -4.6684856
5.979696 4.101673 3.256026 -5.5639696 -5.25977 -3.8265858 12.587014 4.382965
2.4443755 3.7364037 4.4359093 -12.675722 -4.3937297 -3.259229 -1.2920034 3.2825496
-4.1818056 -4.425878 -11.538467 -4.583571 -0.61203015 -9.887828 -8.3875675 -1.8783478
5.354555 2.108672 -7.1514306 8.619191 6.7605968 11.492929 0.5123146 -2.7469363
1.788195 4.93329 -1.203597 -6.152109 0.7887891 -5.8767858 0.78108466 -11.051462
4.269858 8.115346 12.756845 14.517087 3.9754572 9.620238 -2.5511596 -0.8929848
6.624458 -0.81075644 4.3201804 1.7369651 4.187417 8.8745 1.1529474 -2.4773817
7.198929 1.6081315 -3.0781803 -5.401598 -15.635279 1.4787819 16.052906 1.940804
-15.643543 -7.3984585 2.3215883 9.6580515 8.799891 -14.457062 -1.1717854 -0.2860786
-11.39792 1.7599703 -7.011657 -3.3762803 16.558262 -1.440718 -0.2971889 1.3624208
-2.6079347 -9.774423 15.193828 -1.1353027 -10.305119 -5.2059097 1.8291336 19.025564
-10.491015 -1.383963 8.795823 2.3437407 -3.0228267 -7.262343 6.60723 1.2585698
-11.295229 13.102648 -10.740989 -5.9676886 4.64818 0.9997147 -2.8964825 0.04507567
-9.354681 -3.6304703 6.2159853 1.3338593 -4.809032 -5.700672 2.703878 3.176212
00000000: b615 1241 1dff 72c0 34cd 3bc1 e6db 1841
00000010: f677 c73f 494e 6740 f0e0 ecbf bd9a 11bf
00000020: a0c8 9c40 463e b73f b9f9 00bf 987a 0cc1
00000030: 9635 0441 2242 283f 8738 7a40 6d60 c940
00000040: 0103 63bf c15a a940 02f6 acc0 ba2c 89c0
00000050: c909 27c0 bab9 edc0 8ff1 3f41 2bb3 bd40
00000060: 8a95 c7c0 a6e6 243e a35c d8c0 23fd ef40
00000070: 1427 13c1 b84b 81c0 1082 0fc1 3ec9 4041
00000080: 5651 ef3f 3a76 8940 0bd9 903f ba10 1d41
00000090: 11fa 2d40 e6be 5041 4061 913f 5c59 1840
000000a0: 26fd fb3e 6316 4ec1 54b3 5540 7858 f4bf
000000b0: 3f09 6ac0 a733 f9bf 929d 40c0 02b6 73c0
000000c0: 1395 d240 3fac 99c0 f93f 2541 ac76 f340
000000d0: ac5a bac0 c031 b5c0 aeab c440 3f69 0ac0
000000e0: b8be 1ac1 59eb fcc0 3b0d 4041 42e7 2dc0
000000f0: c953 f3c0 328a 6bbf c772 41c0 8260 b6c0
00000100: bc33 2941 83a9 1040 c629 233f 4bf4 8ac0
00000110: 56ef 513f ccfb 0abf 9fbc b740 7c03 e5c0
00000120: b934 93be 26d9 2840 76d1 48bf 38ca 46c0
00000130: cdbf 0ec0 ffbe f9bf cddf 5941 a4c8 2441
00000140: 744d 9fc0 d04c 4240 b1be bbc0 2f42 0341
00000150: 0bdd c23f d0b7 a640 da87 96c0 29aa 7541
00000160: c574 90be 6d85 81c0 9238 2741 fb06 2ac1
00000170: 5ac1 fabd f99f 4741 a03e ab40 cb68 c53f
00000180: c9ab 0940 8361 e040 87c2 b7bf 6ef2 19c0
00000190: 7946 b6be 192c b1c1 063f e5c0 66f8 863f
000001a0: 2157 3e41 e8b6 0641 e5e9 00c1 bf62 56c1
000001b0: ab85 0a40 099a 7840 a6e8 0940 c8c6 cec0
000001c0: 0340 cdbf 2999 03c1 aa06 dabf 41e4 9140
000001d0: 0394 93bf 8b6c c8c0 2532 c43f 8c60 13c0
000001e0: 9385 06bf a755 e1bf 85e1 9a40 c6e1 cfc0
000001f0: 7ce1 4341 f9a3 d5c0 79bc 06c1 57b3 573e
00000200: 5d3d 5bbf 3cd9 98c0 805f 7840 4bc1 c0bf
00000210: 3802 18c1 b325 f540 2e98 9c40 519a bb40
00000220: 55cd 00c0 a635 07c1 dc3b fbc0 6064 2c40
00000230: ad89 44bf b3bd 0641 5b2d a5c0 3c64 95c0
00000240: ab59 bf40 e840 8340 bb62 5040 0a0c b2c0
00000250: 0950 a8c0 c8e6 74c0 6964 4941 4041 8c40
00000260: a670 1c40 3d21 6f40 f8f2 8d40 c2cf 4ac1
00000270: 6f99 8cc0 3597 50c0 5e60 a5bf 4b15 5240
00000280: 5ad1 85c0 cba0 8dc0 909d 38c1 9dac 92c0
00000290: 02ae 1cbf 8b34 1ec1 7a33 06c1 b36d f0bf
000002a0: 8458 ab40 7bf4 0640 85d8 e4c0 35e8 0941
000002b0: cf56 d840 0ae3 3741 0d27 033f cecd 2fc0
000002c0: 93e3 e43f 83dd 9d40 770f 9abf 14de c4c0
000002d0: 15ee 493f a10e bcc0 2af5 473f cad2 30c1
000002e0: ada2 8840 75d8 0141 0a1c 4c41 fd45 6841
000002f0: e46d 7e40 7fec 1941 3346 23c0 a79a 64bf
00000300: 8ffb d340 bc8d 4fbf eb3e 8a40 df54 de3f
00000310: 52ff 8540 f4fd 0d41 c893 933f 6c8d 1ec0
00000320: a05d e640 41d7 cd3f e800 45c0 e4d9 acc0
00000330: 1a2a 7ac1 ba48 bd3f 5a6c 8041 446c f83f
00000340: f44b 7ac1 2cc0 ecc0 e794 1440 6187 1a41
00000350: 5bcc 0c41 2050 67c1 10fd 95bf e578 92be
00000360: e15d 36c1 b546 e13f 7f5f e0c0 fa14 58c0
00000370: 5277 8441 7369 b8bf 2529 98be ce63 ae3f
00000380: 67e8 26c0 0964 1cc1 eb19 7341 9951 91bf
00000390: c4e1 24c1 d096 a6c0 0d21 ea3f 5b34 9841
000003a0: 33db 27c1 b325 b1bf b1bb 0c41 d9ff 1540
000003b0: fe75 41c0 1d65 e8c0 6e6e d340 d118 a13f
000003c0: 42b9 34c1 72a4 5141 17db 2bc1 4ef7 bec0
000003d0: e4bd 9440 4ded 7f3f f85f 39c0 44a1 383d
000003e0: c6ac 15c1 a059 68c0 5ae9 c640 e7bb aa3f
000003f0: 97e3 99c0 e86b b6c0 560c 2d40 0f47 4b40

gnn_node.convs.0.mlp.1.running_var f4 [256]
172.42097 27.256584 35.348454 62.840477 15.495356 46.354214 73.67702 34.767765
118.381256 64.4905 112.534386 81.7589 300.0486 68.84139 159.59074 35.551
36.319393 69.274704 10.169885 75.99579 63.07345 87.26519 44.989292 37.611687
27.087511 37.843925 66.07504 96.882416 43.757523 36.023293 65.5252 124.55854
89.2843 146.01942 8.687301 27.980577 28.283327 28.796633 46.02473 29.708015
211.34421 24.143618 45.767277 36.982914 78.82719 63.150383 53.042175 102.67778
48.712433 42.58219 27.016026 41.000275 17.686857 153.78828 177.0969 78.66968
25.06367 18.001959 52.73966 61.355312 11.751685 77.32212 33.388992 263.40198
51.416977 265.97308 5.654363 86.607704 16.754728 27.440006 115.25898 15.979879
85.66733 59.07813 45.909107 56.835007 46.510853 38.192337 165.11827 80.595505
118.53125 35.953354 52.455074 34.698555 41.961884 96.73416 172.1017 44.655502
60.288654 49.03786 48.424603 40.026123 84.761246 63.44338 144.13248 14.860977
54.91439 75.033806 99.05353 69.01618 344.94653 21.326353 47.542706 8.376528
84.24086 58.98367 26.03555 43.561012 18.08703 34.29787 60.70195 41.1797
69.75787 59.224262 78.30401 67.10027 14.273881 115.45899 143.67352 84.06163
89.216896 274.56454 82.84663 26.249092 52.775997 57.65018 59.615498 110.9226
19.849628 55.20548 320.22073 79.88624 57.45065 47.52379 143.74484 83.91958
29.860275 78.456696 76.22589 67.31297 26.193073 157.27963 96.16445 29.172205
305.7568 54.675552 23.06211 65.69866 197.58939 9.484139 27.677462 66.396736
66.03675 74.69351 93.61421 91.229546 293.81836 58.492405 199.05289 28.286085
61.124428 59.658367 17.706917 49.420048 60.51694 73.751076 49.44226 16.925444
33.101395 10.133836 94.7724 37.921993 124.36616 28.547592 70.55308 87.429115
54.736137 95.93904 51.528507 114.237144 6.705267 133.2878 47.34871 86.50633
19.362795 65.047066 104.65418 74.84104 8.201152 79.72604 149.05142 13.576472
214.7858 78.82342 51.160244 25.376507 219.56465 71.87956 23.184547 69.84648
40.065468 54.260193 22.725088 39.82135 76.06375 128.38081 154.45685 20.219229
60.458405 41.946655 263.24432 18.891996 90.254944 28.792694 59.38244 62.495785
18.9893 12.70126 50.013737 27.275818 78.320694 56.37599 103.06388 51.11346
184.87273 107.71519 25.148579 78.146385 82.83746 39.9211 28.90971 72.97165
100.35646 33.357487 44.777344 20.978622 30.139349 300.37918 181.63647 115.38787
61.13956 36.06791 46.160107 120.56382 306.42517 33.022495 160.7872 21.467302
57.54405 58.435314 54.00638 41.505375 61.229626 99.29667 36.555225 121.392586
00000000: c56b 2c43 7c0d da41 d164 0d42 a65c 7b42
00000010: faec 7741 b76a 3942 a25a 9342 3112 0b42
00000020: 34c3 ec42 23fb 8042 9b11 e142 8f84 a342
00000030: 3906 9643 cbae 8942 3b97 1f43 3934 0e42
00000040: 0f47 1142 a68c 8a42 d9b7 2241 d8fd 9742
00000050: 364b 7c42 c787 ae42 09f5 3342 5e72 1642
00000060: 39b3 d841 2e60 1742 6c26 8442 ccc3 c142
00000070: b407 2f42 da17 1042 e70c 8342 f91d f942
00000080: 9091 b242 f904 1243 2fff 0a41 39d8 df41
00000090: 4144 e241 815f e641 5319 3842 04aa ed41
000000a0: 1e58 5343 2126 c141 b111 3742 81ee 1342
000000b0: 85a7 9d42 fe99 7c42 302b 5442 065b cd42
000000c0: 88d9 4242 2a54 2a42 d220 d841 4800 2442
000000d0: af7e 8d41 cdc9 1943 ce18 3143 e056 9d42
000000e0: 6582 c841 0304 9041 69f5 5242 d76b 7542
000000f0: e706 3c41 eda4 9a42 548e 0542 74b3 8343
00000100: fcaa 4d42 8efc 8443 8bf0 b440 2537 ad42
00000110: af09 8641 2285 db41 9984 e642 96ad 7f41
00000120: ac55 ab42 0150 6c42 eda2 3742 0c57 6342
00000130: 1d0b 3a42 f4c4 1842 471e 2543 e630 a142
00000140: 0010 ed42 3cd0 0f42 ffd1 5142 52cb 0a42
00000150: f8d8 2742 e477 c142 091a 2c43 3c9f 3242
00000160: 9527 7142 c526 4442 cbb2 4142 c01a 2042
00000170: c285 a942 05c6 7d42 ea21 1043 90c6 6d41
00000180: 56a8 5b42 4f11 9642 681b c642 4908 8a42
00000190: 2879 ac43 5f9c aa41 bb2b 3e42 4206 0641
000001a0: 527b a842 47ef 6b42 ce48 d041 7a3e 2e42
000001b0: 3db2 9041 0531 0942 ccce 7242 03b8 2442
000001c0: 0884 8b42 a5e5 6c42 a79b 9c42 5733 8642
000001d0: d161 6441 01eb e642 6cac 0f43 8e1f a842
000001e0: 0d6f b242 4348 8943 79b1 a542 24fe d141
000001f0: 9f1a 5342 c999 6642 4576 6e42 5fd8 dd42
00000200: 0acc 9e41 69d2 5c42 411c a043 c1c5 9f42
00000210: 77cd 6542 5c18 3e42 aebe 0f43 d3d6 a742
00000220: d8e1 ee41 d4e9 9c42 a873 9842 3ea0 8642
00000230: 6a8b d141 9647 1d43 3354 c042 ad60 e941
00000240: dfe0 9843 c4b3 5a42 347f b841 b765 8342
00000250: e296 4543 09bf 1741 716b dd41 21cb 8442
00000260: d112 8442 1463 9542 7a3a bb42 8775 b642
00000270: c0e8 9243 39f8 6942 8a0d 4743 e749 e241
00000280: 6a7f 7442 2ba2 6e42 c4a7 8d41 21ae 4542
00000290: 5911 7242 8d80 9342 e0c4 4542 4f67 8741
000002a0: d467 0442 3124 2241 788b bd42 1fb0 1742
000002b0: 79bb f842 7861 e441 2d1b 8d42 b5db ae42
000002c0: cef1 5a42 cae0 bf42 311d 4e42 6b79 e442
000002d0: 8c91 d640 ad49 0543 1465 3d42 3e03 ad42
000002e0: 01e7 9a41 1918 8242 f14e d142 9dae 9542
000002f0: eb37 0341 bc73 9f42 2a0d 1543 3b39 5941
00000300: 2ac9 5643 97a5 9d42 17a4 4c42 1603 cb41
00000310: 8d90 5b43 56c2 8f42 f479 b941 66b1 8b42
00000320: 0a43 2042 700a 5942 fbcc b541 1049 1f42
00000330: a420 9842 7d61 0043 f474 1a43 fbc0 a141
00000340: 68d5 7142 60c9 2742 469f 8343 cf22 9741
00000350: 8882 b442 7057 e641 9e87 6d42 affb 7942
00000360: 16ea 9741 5c38 4b41 110e 4842 e034 da41
00000370: 32a4 9c42 0481 6142 b520 ce42 2f74 4c42
00000380: 6bdf 3843 2d6e d742 4a30 c941 f34a 9c42
00000390: c8ac a542 35af 1f42 1647 e741 7cf1 9142
000003a0: 82b6 c842 116e 0542 001c 3342 38d4 a741
000003b0: 631d f141 8930 9643 f0a2 3543 97c6 e642
000003c0: e98e 7442 8a45 1042 f3a3 3842 ad20 f142
000003d0: 6c36 9943 0917 0442 86c9 2043 09bd ab41
000003e0: 1b2d 6642 c3bd 6942 8806 5842 8105 2642
000003f0: 23eb 7442 e597 c642 8d38 1242 01c9 f242

gnn_node.convs.0.mlp.3.weight f4 [128, 256]
0.4139744 0.7075891 0.10127311 0.16110264 0.056208644 1.4122673 -0.49246472 -0.10819814
-0.41526774 -0.16617319 -0.10237405 -0.047915183 -0.45239908 0.21456252 -0.19048055 -0.5644056
0.11022403 -0.29963034 0.24600954 -0.013458871 -0.086406656 -0.13058706 1.0009753 -0.38858554
-0.4390599 -0.18459535 0.5246101 -0.30386445 0.53789663 0.3244055 -0.3102187 -0.03318864
-0.17621323 -0.064981155 -0.14260982 0.17912276 -0.25014532 -0.027930722 -0.09957851 -0.16169758
-0.3767734 0.5635185 -0.049409233 0.19667362 0.2618868 0.004540095 -0.6798047 0.8498461
0.027901303 0.40235642 0.10596495 0.1503785 0.07050953 -0.17131072 -0.42665368 0.21286139
0.3638929 -0.7457357 -0.2812515 -0.18163997 -0.2180056 -0.11211259 0.25391358 -0.39322713
-0.49719334 -0.26169163 -0.0101289535 -0.26310503 -0.30751482 0.90513176 0.65723413 0.13775569
-0.054075785 -0.24250877 0.05812663 -0.36573008 0.023091031 0.0781444 0.17075019 1.8487345
-0.2990266 0.21261394 -0.36875072 -0.28711495 -0.65656686 0.58184135 -0.019375041 1.0401875
-0.69083047 -0.06129394 0.07904878 -0.11697959 2.0619802 0.7020368 -0.12855881 -0.14590847
-0.24116598 0.29118755 0.49942008 0.08080459 -0.13329998 -0.06684934 -0.279091 -0.110227525
2.315159 0.10246083 -0.4463541 0.05560996 -0.11841816 -0.38374466 0.013268928 0.272769
-0.21103245 -0.16682695 -0.08437744 2.2362304 0.102037184 0.30954775 -0.27645096 -0.36661306
-0.16238192 0.20471668 0.27331617 -0.6699583 0.41111833 0.7612637 -0.56490135 0.3651125
0.17033711 -0.29312202 -0.62308127 1.1472409 -0.12013815 -0.07661685 -0.17592856 -0.017294424
-0.10632359 -0.110160954 -0.27426648 0.015265909 -0.08506191 -0.20645228 -0.71081054 -0.11058744
-0.49949008 -0.16666538 -0.5036195 -0.1278727 0.0384752 -0.03287338 0.03180541 -0.09969762
0.15683322 0.41613618 -0.25224894 -0.011121046 0.1529298 -0.42836422 0.17966937 0.4878401
0.18423519 0.4650779 0.6735455 0.035364863 -0.14161867 -0.25341088 -0.5226471 -0.13810891
0.24383077 0.03304306 0.066619836 0.13730687 -0.3671842 -0.3688131 0.007456106 -0.21727502
-0.017208451 1.2826293 -0.0040788692 0.14886652 -0.11107485 -0.30549815 -0.11421931 -0.46254674
0.06840604 -0.4954955 -0.29554045 -0.41321757 -0.09260241 0.3405534 0.6931898 -0.0467505
-0.42246017 -0.2723153 -0.08180146 -0.22010897 -0.07574206 0.10301928 -0.071495995 -0.037576165
-0.6526235 -0.116801105 -0.42524976 0.6024748 0.24888654 -0.26739278 0.08679948 -0.10494971
0.07217147 0.11077954 -0.1225991 -0.074338034 -0.16422762 -0.44159386 0.054242525 -0.21087642
-0.09591575 -0.33020037 -0.5640807 0.012701846 -0.32556334 0.068801634 0.23142025 -0.6382202
0.506634 0.117966235 -0.04547005 0.1722042 -0.66842526 -0.25363767 -0.27362818 -0.2725718
-0.12492861 0.22889173 -0.23380229 0.013067245 0.105261326 -0.35329998 -0.17401911 -0.5319864
0.061752547 0.42332083 -0.08018892 -0.6134571 -0.4469186 -0.097958334 -0.32798824 -0.54659164
0.017957475 0.16864277 0.38765603 -0.742161 -0.058389094 -0.24827173 -0.34579235 -0.25680333
00000000: 74f4 d33e 8f24 353f 4768 cf3d 17f8 243e
00000010: 093b 663d 2dc5 b43f 5624 fcbe fd96 ddbd
00000020: f99d d4be 4e29 2abe 7ca9 d1bd b642 44bd
00000030: daa0 e7be 47b6 5b3e 550d 43be e37c 10bf
00000040: 23bd e13d 2669 99be ede9 7b3e 9982 5cbc
00000050: f9f5 b0bd 9db8 05be f51f 803f aff4 c6be
00000060: 76cc e0be 9006 3dbe d94c 063f 1f94 9bbe
00000070: 98b3 093f 7a18 a63e fcd4 9ebe d0f0 07bd
00000080: 3e71 34be d714 85bd 4f08 12be f56b 373e
00000090: 0c13 80be f8ce e4bc d1ef cbbd 0d94 25be
000000a0: 71e8 c0be c042 103f 5661 4abd cf64 493e
000000b0: 0716 863e 14c5 943b ae07 2ebf 848f 593f
000000c0: 4691 e43c a901 ce3e 2704 d93d d2fc 193e
000000d0: 4d67 903d 146c 2fbe 5a72 dabe 56f8 593e
000000e0: 2c50 ba3e 89e8 3ebf 3200 90be d4ff 39be
000000f0: dc3c 5fbe 499b e5bd f600 823e 1155 c9be
00000100: 2090 febe 72fc 85be e9f3 25bc b4b5 86be
00000110: 9572 9dbe b7b6 673f 7f40 283f d40f 0d3e
00000120: 927e 5dbd 3854 78be 3016 6e3d f940 bbbe
00000130: 6729 bd3c 2c0a a03d 23d9 2e3e 55a3 ec3f
00000140: 041a 99be 78b7 593e e5cc bcbe bb00 93be
00000150: c414 28bf 8ef3 143f 68b8 9ebc dd24 853f
00000160: 44da 30bf 5b0f 7bbd 54e4 a13d ff92 efbd
00000170: 7cf7 0340 afb8 333f eca4 03be 0869 15be
00000180: 37f4 76be 8916 953e fdb3 ff3e e07c a53d
00000190: ca7f 08be 4fe8 88bd 04e5 8ebe f8be e1bd
000001a0: 912b 1440 fcd6 d13d 8688 e4be 45c7 633d
000001b0: 3885 f2bd 2e7a c4be eb65 593c 61a8 8b3e
000001c0: e418 58be afd4 2abe 14ce acbd 661e 0f40
000001d0: dff8 d03d 0b7d 9e3e fb8a 8dbe b5b4 bbbe
000001e0: 7247 26be 40a1 513e 19f0 8b3e 6382 2bbf
000001f0: 1a7e d23e 2ee2 423f 609d 10bf 07f0 ba3e
00000200: da6c 2e3e 1714 96be 4182 1fbf cad8 923f
00000210: fe0a f6bd 4ce9 9cbd 9e26 34be 09ad 8dbc
00000220: 2fc0 d9bd 119c e1bd a86c 8cbe dd1d 7a3c
00000230: f034 aebd 3a68 53be aef7 35bf ab7b e2bd
00000240: 2abd ffbe 54aa 2abe 35ed 00bf 10f1 02be
00000250: 2c98 1d3d 3da6 06bd 6446 023d 442e ccbd
00000260: e398 203e cd0f d53e c626 81be 0c35 36bc
00000270: a199 1c3e 8e52 dbbe 3ffb 373e 2dc6 f93e
00000280: 26a8 3c3e b11e ee3e 7a6d 2c3f bfda 103d
00000290: 7c04 11be 12bf 81be 33cc 05bf 6c6c 0dbe
000002a0: c6ae 793e 2958 073d fb6f 883d 2c9a 0c3e
000002b0: 91ff bbbe 12d5 bcbe 5a52 f43b 587d 5ebe
000002c0: bdf8 8cbc 322d a43f 09a8 85bb 7770 183e
000002d0: 367b e3bd 416a 9cbe d0eb e9bd edd2 ecbe
000002e0: 7718 8c3d 96b1 fdbe 1451 97be 4191 d3be
000002f0: 55a6 bdbd 045d ae3e e374 313f 747d 3fbd
00000300: b34c d8be e96c 8bbe 8687 a7bd 3f64 61be
00000310: a71e 9bbd c6fb d23d 7e6c 92bd 77e9 19bd
00000320: 5512 27bf 6b35 efbd 56ba d9be ca3b 1a3f
00000330: 1ddc 7e3e b5e7 88be edc3 b13d e0ef d6bd
00000340: a3ce 933d 62e0 e23d 3d15 fbbd 8a3e 98bd
00000350: 492b 28be 9718 e2be 692d 5e3d fdef 57be
00000360: 7a6f c4bd 0610 a9be 9867 10bf 671b 503c
00000370: 3db0 a6be dfe7 8c3d 6ef9 6c3e 6662 23bf
00000380: c4b2 013f 4898 f13d ce3e 3abd 4c56 303e
00000390: eb1d 2bbf ccdc 81be fe18 8cbe 888e 8bbe
000003a0: 92da ffbd 9862 6a3e de69 6fbe ff17 563c
000003b0: 4093 d73d bce3 b4be 1132 32be 4330 08bf
000003c0: 3df0 7c3d 82bd d83e 173a a4bd 860b 1dbf
000003d0: 84d2 e4be 619e c8bd 13ee a7be 6eed 0bbf
000003e0: 8e1b 933c b1b0 2c3e da7a c63e 43fe 3dbf
000003f0: 6729 6fbd f23a 7ebe b20b b1be ba7b 83be
