checkpoints/A_epoch_150.pth (torch, 843999 bytes, 48 tensors)

gnn_node.node_encoder.weight f4 [1, 128]
00000000: 32e7 37bf bc01 ce3e 518e 28bf ee5f f23e
00000010: d57d 92bc eb07 5d3f 6b71 0e3f b4eb 17be
00000020: d464 7a3d b189 25bf 9390 8cbe 1f7c 21bf
00000030: 9028 6fbf 48fc 493f 7218 45c0 f084 6dbf
00000040: ca20 38be a2a8 653e 5871 f43d f047 88bf
00000050: 9181 36bf 8949 64bf 7408 81be c614 b2bf
00000060: 72e3 85bf 83de d7bf 4bfc 01c0 1b58 94bf
00000070: b2f2 dbbe 3052 40bf 346c b0be 6017 34c0
00000080: 5f9e a9be c75c c4bf 6e50 b63d a5c0 053f
00000090: 9699 033f 57a2 8ebf 5947 2abd 83fd a53e
000000a0: 70c5 d9bf 55df 20bf 83b2 fd3e 4276 e7bf
000000b0: 3e61 433e a773 8a3e 3105 b0bf 3bc1 1ac0
000000c0: 4584 57be 2d59 debf aa1f 57bf c646 45bf
000000d0: 3c8a 273e 2b59 0fbf a487 8ebf 87a0 8ebe
000000e0: 06fe e93e 9a67 113f 7bd5 063e 7a12 433e
000000f0: 9066 9bbf 7668 ef3d fe4a 7a3e 0989 bebc
00000100: 7dc8 0cc0 f083 85be 8377 00c0 0b28 bdbf
00000110: 9125 fcbf deaf 9c3f 4dda 5a3f bae5 43bf
00000120: 2e6e b73e 8662 a0bf 9208 05bf 2acf bbbc
00000130: 7930 8abe 7d41 18be 97ae 0a3e 333e 5dbe
00000140: 49b1 a9bf dec6 a4bf d8a9 d6bf a47c 293f
00000150: 7999 0b3f e457 d53e 1380 c73e 945a 1bbe
00000160: 0f42 22bf 6d43 423e a071 e6bf 8f7b f4be
00000170: e7f6 3dbf a361 153f 7253 bbbf cb54 03bf
00000180: b31f 60bf 664f 86be 8882 55bd a2aa 58be
00000190: 830e a0bf 01db a3bf f675 f8bf 8a1e 50bf
000001a0: 01bc d2bf ffe7 e23e c2a8 5f3f 740d c7bf
000001b0: 91fe 17bf 581d 76bf d2f3 81bf 1f28 50bf
000001c0: 962b c2be 7ae1 03c0 8b41 a0bf 594b b7bf
000001d0: 1360 51be 2d0a 14c0 a1fa 9e3e 5e8a 11be
000001e0: 6a00 4ebf 0252 72bf c0f9 db3e 25db 243e
000001f0: 33b5 23bf 5a50 1c3f c1b8 c7bf 88aa 003f
-0.7183715 0.40235698 -0.6584216 0.47338814 -0.017882267 0.86340207 0.5564181 -0.14836007
0.061131313 -0.64663225 -0.2745405 -0.6308002 -0.9342127 0.78900576 -3.079617 -0.9278097
-0.17981258 0.2242761 0.11935681 -1.0646954 -0.7129145 -0.89174706 -0.25201762 -1.391259
-1.0460036 -1.686478 -2.0310237 -1.1589388 -0.429586 -0.7512541 -0.34457552 -2.8139267
-0.3312864 -1.5340813 0.089020595 0.5224708 0.5140623 -1.1143292 -0.04157195 0.32419977
-1.7013378 -0.6284078 0.49550256 -1.8082964 0.19080064 0.2704136 -1.3751584 -2.4180439
-0.2104655 -1.7370964 -0.8403269 -0.77061117 0.16361326 -0.55995435 -1.1135144 -0.27856848
0.45701617 0.5679871 0.13167374 0.19050017 -1.2140675 0.11689846 0.2444267 -0.023258703
-2.1997368 -0.26077223 -2.0072944 -1.4777845 -1.9698964 1.224117 0.8548935 -0.7652241
0.35826248 -1.2530067 -0.519662 -0.022925932 -0.26990107 -0.14868732 0.13543163 -0.21605758
-1.3257228 -1.287319 -1.6770582 0.6620581 0.54531056 0.41668618 0.389649 -0.15171272
-0.6338205 0.18971033 -1.8003426 -0.47750518 -0.7420487 0.58352107 -1.463484 -0.5130126
-0.8754837 -0.2623245 -0.052126437 -0.21158841 -1.2504429 -1.280121 -1.9410999 -0.812966
-1.6463624 0.44317624 0.8736688 -1.555098 -0.5937281 -0.96138525 -1.0152533 -0.8131122
-0.37923878 -2.060637 -1.2520002 -1.4319869 -0.20446806 -2.313121 0.3105059 -0.14212939
-0.8046938 -0.94656384 0.42963982 0.16099222 -0.63948363 0.61060107 -1.5603257 0.5026021

gnn_node.virtualnode_embedding.weight f4 [1, 128]
00000000: 41ac 06bf cbcc f7be 65b8 4ebf fa7f 03bf
00000010: 1a85 b3be cadb 71bf 2ddf ffbe 0dbd 27bf
00000020: 1ac3 0bbf aa01 23be fbfa 62bd a8f5 1dbf
00000030: cd13 a1be 76cf 9cbf b18e 5abf 1cc0 fcbd
00000040: aa82 9cbe e93e 6cbe 773a 68bf 166b 80be
00000050: 7ed7 a2be 6cb0 35be 6b4f 60bd 0e0e a93c
00000060: ec59 c1be c533 c2be 0c1e b7bd 6b71 3fbe
00000070: a3b2 fcbe 1fb4 d2be fb1c c4bd 01ca 473c
00000080: 6813 58be f48b afbe 24ca 47bf 45e7 c7be
00000090: 4fa9 023e 8f87 07bf 0b9a 3bbf 36e8 b7be
000000a0: 90f0 8dbe 9a2f d1be bd93 83bf b494 a9be
000000b0: 1634 63be 65e2 d3be 50c5 f63d 2e3f 99be
000000c0: d113 64bf 0098 89be 9701 b0be ef0f d9be
000000d0: eb40 babe ada1 843d c8ad 07bf 6365 40be
000000e0: 103b 76be 80a8 21bf e73f 61bf 6335 22bf
000000f0: fec1 98be 17b4 9fbe faed bdbe 71f8 bfbe
00000100: b68f b4bf b3c8 9ebc 7468 2fbf 895b 31bf
00000110: ea1f debe fc47 4dbf d5dd 26bf 71af 8d3d
00000120: 83e3 edbe 5c5d f3be 062e bebe 26a9 ecbe
00000130: af6a f4be a1e9 b3be e338 e3be b06d cebe
00000140: d1c8 97be 5622 37bd 3833 ddbe 1f1a 9cbf
00000150: 2c05 e5bb 82f7 9cbe da4e e9be a5c6 11bf
00000160: 61d6 84be aa5c e8bd 8494 d0be d8dd cfbe
00000170: d9b4 1fbe 3e62 37be e98b e6be d487 5dbe
00000180: da47 e5be e916 f4be d767 c6be e754 c3be
00000190: 7720 eabe 545d a6be 27ac b5bc fc52 343d
000001a0: 59ec 92bc b4ca 4fbf 3235 42bf 056a 34bf
000001b0: 9708 48be 9c4c 1bbf 40cc d4be dd70 12bf
000001c0: 95f4 8dbe f958 67be eb9a 80bd 339e 44be
000001d0: 8f23 5bbf 8a06 76bf 9a99 08be ea36 e4be
000001e0: a4da d3be 23f1 d8be 5621 0dbf 8393 4abe
000001f0: 87b7 c4be a92e fcbe 0cad b3bd d2f7 bbbe
-0.5260659 -0.48398432 -0.80750114 -0.5136715 -0.35062486 -0.94475996 -0.49974957 -0.65522844
-0.54594576 -0.15918604 -0.055415135 -0.61702967 -0.3146042 -1.2250812 -0.8537398 -0.123413295
-0.3056844 -0.23070873 -0.9071421 -0.250817 -0.31805032 -0.17743081 -0.05476324 0.020636585
-0.37763917 -0.37930122 -0.08941278 -0.1869561 -0.4935504 -0.41153046 -0.0957584 0.012194158
-0.21101153 -0.34286463 -0.7804282 -0.39043632 0.12759899 -0.5294122 -0.73281926 -0.3591935
-0.27722597 -0.4085663 -1.0279461 -0.33121264 -0.22187838 -0.41383663 0.12049353 -0.29931015
-0.8909274 -0.2687378 -0.34376213 -0.4239497 -0.36377653 0.0647615 -0.52999544 -0.18788676
-0.24045968 -0.63147736 -0.8798813 -0.6336271 -0.29835504 -0.31192085 -0.37095624 -0.37494233
-1.4106357 -0.01938281 -0.6851876 -0.69280297 -0.43383723 -0.80187964 -0.6518224 0.069182284
-0.4646264 -0.47532165 -0.37144488 -0.462228 -0.47737643 -0.35139182 -0.4437934 -0.4031806
-0.29645398 -0.04471048 -0.4320314 -1.2195472 -0.006989142 -0.30657583 -0.4556797 -0.5694373
-0.25944808 -0.11345799 -0.40738308 -0.4059894 -0.15596332 -0.1790857 -0.45028618 -0.21633846
-0.4478138 -0.4767373 -0.387511 -0.38150713 -0.45727894 -0.3249308 -0.022176815 0.044024453
-0.017934965 -0.81168675 -0.7586242 -0.7047427 -0.19534527 -0.6066377 -0.4156208 -0.57203466
-0.27725664 -0.22592534 -0.06279548 -0.19200973 -0.85601133 -0.9610373 -0.13339844 -0.44573146
-0.41377747 -0.42371473 -0.5512899 -0.19782834 -0.3842127 -0.4925435 -0.087732404 -0.3671251

gnn_node.convs.0.mlp.0.weight f4 [256, 128]
00000000: 56a6 043d e3a3 88bf 6fbc b2bf 553d 21bf
00000010: a8c7 093e 5d61 1ebf ed14 32be 6c9b 7abf
00000020: 5e09 c8be 81d7 d73c f46d 01bf be98 af3d
00000030: dad4 133d 97e1 ccbd fee2 613d 94f6 01bd
00000040: 78ab 28bf 3077 72be 47fb 92be b78a 133d
00000050: d9d2 4cbf 1d3a 08bd 9cab b33e 702d 29bd
00000060: bfb8 ddbd 757a 0cbe 9787 fc3d b793 1abd
00000070: dbf9 b0bf d9f5 823e 26d3 41bc a261 013e
00000080: 5d4d 96bf 6e26 f7bd e971 7bbd 6dcf bb3e
00000090: 9893 52bf f5a9 c23d 6e4e 4cc0 639a 28bf
000000a0: c25c 81bc 4ee6 943e def6 10be a5ab 393e
000000b0: 6d44 c53e 8689 503f 0d1d 063e ed85 e2bd
000000c0: d1cb 1e3f a5e7 b6bd f23a 2d3f 80bf 39c0
000000d0: 2df0 65bf e856 e9be ab22 8dbd f1b8 cebc
000000e0: 7817 433e e2ed 1b3e 2556 e4be f819 adbe
000000f0: 72e1 473d 1884 29bb 4c9f f6be bbba 3dbe
00000100: 15ae 61be 91fe f4bd 1be1 283c 7f22 57bd
00000110: 80e5 0f3e e115 9fbd 089d 95be 584d 283c
00000120: 8d7c 1cbd 50a9 f93c f417 70bd 49a2 15bf
00000130: acf9 c73d e665 a8bf b5bd bbbf 78b2 e03b
00000140: 51c5 873d d9f7 c13d deeb 4d3c 5a6b c6bb
00000150: c32b 51be 95e6 713d be1a 1f3e 1f5c 133f
00000160: d351 d4bd fe0f 1f3b f7fc a43d dd9f d9bd
00000170: 75f4 49c0 388a 813e 5751 c93d c857 d1bd
00000180: 9b25 0b3e f94d 8dbf 280d 0fbf 20e9 57be
00000190: 723c 4e3d fb1a b23d a2f6 c6bd 8697 c73c
000001a0: defb 163d dd92 1d3d 34af 07bb 6c52 6abd
000001b0: ea53 413e b240 b5bd 8a86 103f 937f 0cbd
000001c0: 8ad1 8a3e 22bc 933d 1db0 b7bb c3c9 ed3b
000001d0: 1d8f a8be 24c5 273e 3dbb 83bc 92e5 1dbf
000001e0: 66e3 af3e 7c64 61c0 3c13 ad3b 6b3b d13d
000001f0: 1c58 a23e 58b9 d4be b1c9 f73d c95d d8be
00000200: 176b 47bd ddd3 9abc 604c 9fbe cf3c fe3e
00000210: 7783 de3d cb2f 433e 070f 223f f018 523f
00000220: 761b 90be d4b3 71bd c02d 53bf 23a5 a73d
00000230: 044b b9bd ba2d 773d 495b 9a3d f02c 27bd
00000240: 3859 68be f530 7cbd dd8c b93e 16f5 303d
00000250: 6f74 22bf 3d98 9b3f 5b1c 503e c1c7 20bd
00000260: 4f3b 1fbc 3adc b9bc a4e6 343d 2f7f ecbc
00000270: 73e6 c2be 6643 0bc0 cda0 10bf 5f08 28bc
00000280: 8f66 6bbe 4123 22bd d288 123e ed2a 88bf
00000290: c8a9 33bf e047 203c fee0 8b3f c042 ec3c
000002a0: 5284 293d 20cf 373f 997b a9bd d678 813d
000002b0: 9d29 12bf 49a9 443f d5e3 e03c 138b 15bd
000002c0: 9827 af3f d85d 9ebd acf5 353e 6cc6 e93d
000002d0: 4d24 e03e f0db 6abe f395 2d3c a5e9 9fbd
000002e0: 5b08 f2bc fadb 1dbd be33 46bf 1664 bb3e
000002f0: 7e62 d2bd d572 04bf f4cf 1f3e 7501 2dbd
00000300: 114e c53d e5b9 df3d ae8d 84bd f712 263d
00000310: c918 ba3b c89b 8dbe 7dba 3dbe 2901 6b3d
00000320: 3ecf 113d 5184 82bd 943c 2c3b e07b 31bf
00000330: 836b 953f 4eb0 ccbd 6b6c b83d 53c9 05bf
00000340: 54e8 1b3c f520 11bd 1950 91bd 7bbd 3a3e
00000350: 3fac acbd 37a0 8c3e fb45 88bf d21b 5fbe
00000360: d2b0 493d 008b 43bf 7785 9d3d 1546 fa3d
00000370: 6d38 dcbe a365 fcbc 5884 c6bc 2eaa 47c0
00000380: b165 65be 9d36 08c0 4be1 f83f 7081 d63d
00000390: ccea 34ba 354b 21bd 3235 b53d 47ec a43d
000003a0: 8b21 84bd 3088 193e 80bf 10be 8508 bc3d
000003b0: 3e55 bdbc f0bf 2bbd e334 2b3f 7984 243c
000003c0: 5137 523f 0255 43bd 6c62 543d 172e 433d
000003d0: 720d 983d 9d95 46bd e25f e53b 4078 d8bc
000003e0: b1ec 653e 3d43 6e3f 7e05 afbd d466 65be
000003f0: 09e8 263e 6929 8b3e 0379 8f3d d1b2 4abd
0.032385193 -1.0675014 -1.3963755 -0.6298421 0.13455069 -0.61867315 -0.17390795 -0.97893405
-0.39069647 0.026347877 -0.505584 0.08574055 0.036091663 -0.10003965 0.055148117 -0.031729296
-0.6588664 -0.23678279 -0.28707334 0.03602096 -0.8000923 -0.033258546 0.35091865 -0.0413031
-0.10826253 -0.13718589 0.12330549 -0.037738528 -1.382625 0.25578192 -0.011830127 0.126349
-1.1742359 -0.12067877 -0.06138793 0.3668169 -0.8225646 0.09505073 -3.192287 -0.65860575
-0.0157913 0.2908196 -0.14156672 0.18131883 0.38528767 0.81459844 0.1309702 -0.110607006
0.6202975 -0.089309014 0.6766807 -2.9023132 -0.89819604 -0.45574117 -0.06891378 -0.025234671
0.19051921 0.15227464 -0.44596973 -0.33808875 0.048798986 -0.0025866088 -0.4816841 -0.18528263
-0.22039063 -0.11962617 0.010307576 -0.052523132 0.14052391 -0.07767845 -0.29221368 0.010272346
-0.03820472 0.030476242 -0.058616593 -0.5845075 0.09764418 -1.3156097 -1.4667269 0.0068572126
0.06629432 0.09471101 0.012568442 -0.006055278 -0.2042685 0.05905779 0.15537545 0.5756244
-0.10367169 0.0024271007 0.08056062 -0.106261946 -3.1555455 0.25300765 0.098299675 -0.10221821
0.13588564 -1.103942 -0.5587945 -0.21085024 0.050350614 0.08696552 -0.0971501 0.024364244
0.036861293 0.038470138 -0.0020703794 -0.05720751 0.18879667 -0.0885023 0.5645529 -0.03430135
0.2711299 0.07213618 -0.005605711 0.007256718 -0.32921687 0.16383797 -0.016080493 -0.6167842
0.3435318 -3.521758 0.005281834 0.10216411 0.31707847 -0.41547656 0.120990165 -0.42259052
-0.048686113 -0.018899852 -0.31112957 0.49655768 0.10864919 0.190612 0.6330418 0.820693
-0.2814595 -0.059009388 -0.82491684 0.08185794 -0.09047511 0.060346343 0.075369425 -0.04081434
-0.22690284 -0.061570127 0.36240283 0.043202482 -0.63458914 1.2155834 0.20323317 -0.039253
-0.00971873 -0.02268802 0.04416527 -0.02886924 -0.38066444 -2.1759887 -0.5649536 -0.010255902
-0.22988342 -0.039584402 0.14310005 -1.06381 -0.7018094 0.009782761 1.0928037 0.028840423
0.041385956 0.7180042 -0.082755275 0.06321876 -0.57094747 0.7682081 0.027452389 -0.036509585
1.3683958 -0.07732743 0.17769498 0.11414799 0.43777695 -0.22935462 0.010594833 -0.07808236
-0.029545 -0.038539864 -0.774227 0.36599797 -0.10272692 -0.5173772 0.15606672 -0.042237718
0.096340306 0.109241284 -0.06472336 0.04054543 0.005679224 -0.27657914 -0.18528171 0.057374153
0.035598032 -0.063728936 0.0026281225 -0.69329643 1.1673435 -0.09994565 0.09005054 -0.5226032
0.009515841 -0.03543182 -0.070953555 0.18236344 -0.08431291 0.27465984 -1.0646356 -0.21787956
0.049240895 -0.7638397 0.07691472 0.12220398 -0.430118 -0.030810183 -0.024233028 -3.119762
-0.22402073 -2.1283333 1.9443754 0.10473907 -0.00069014425 -0.039378364 0.08848037 0.08052879
-0.0645171 0.14993358 -0.14135551 0.091813125 -0.023111936 -0.041931093 0.66877574 0.01004135
0.82115656 -0.04768849 0.051851675 0.047651377 0.074244395 -0.048482526 0.0069999555 -0.026424527
0.22453572 0.9307135 -0.085459694 -0.22402507 0.16299452 0.2718003 0.07005503 -0.04948694

gnn_node.convs.0.mlp.0.bias f4 [256]
00000000: e579 abbd cc34 7dbc 61ea ea3c 3c27 96ba
00000010: 82b7 71bd bbfc 67b8 5b53 e13a ec5b 993d
00000020: ce5f 83bd 681d 093d 2cf7 173d eb3c 9ebd
00000030: 9d52 88bd 9219 39bd a16b dc3c 247b 943d
00000040: a74e 1d3d b300 41bd 8c15 89bc 5095 5abd
00000050: 822c 7e3d 334f 803d a79e a7bc d34b 41bd
00000060: d8aa 14bd 2c6f 593d 150a a4bd e159 413b
00000070: f73a ea3c b14a abbd dc4d 383d 95ce aabd
00000080: e8f7 5ebd cd95 943d 518b 76bd 79e4 863d
00000090: fb69 b23d 3152 ffbb 287f 60bd 7e36 71bd
000000a0: e14f d7ba 3188 8ebc b747 4abd d237 f93c
000000b0: 36c1 c3bd 07af 983d 8b13 383d f922 263d
000000c0: ebba 7dbc bdc0 3ebc b2af 9c3d 2988 a33d
000000d0: 98fe a8bd a518 7a3b 4168 5e3d efbf 5b3c
000000e0: 9065 7d3d f171 a43d 1cfb 96bc d152 063c
000000f0: 5bc6 7fbd c9b2 923d da18 2a3a f7f4 cc3c
00000100: 590e a3bd 8b80 693d e714 183c 8186 09bd
00000110: 595e 4cbd 833b 9abd 52d1 843d ffef f43c
00000120: 69b3 103d 1d05 60bd df63 8e3d bf94 5bbc
00000130: a998 9c3d 1781 80bd 7261 7fbc a8bd 903d
00000140: 2d12 81bd 5bbd 17bd 4a94 fabc 44da 2c3d
00000150: 3d78 ac3d 46b5 053d 9036 933c 5ac0 44bc
00000160: b707 3ebc cc8b 89bd 1e6e b5bd 1a56 06bd
00000170: 5d6b b0bc 262d 18bd a04a 7abc 86e6 e93c
00000180: 6901 f13c 7965 8c3a 0cde 2f3d 230c cf39
00000190: b457 c53a d9a0 72bd d008 54bd 321f 83bd
000001a0: 4050 633d 2e8c 1b3d afe4 063e 2e98 91bd
000001b0: cb58 62bd a3f1 81bd f8cd 81bd 43d9 503d
000001c0: c39c e6bc ed84 963d 8049 863d 81c8 9dbd
000001d0: aa68 9b3d ccd8 753d 1537 3bbb e042 f9bb
000001e0: 4cdb 463c 7482 39bc 6b54 593d 2b65 47bd
000001f0: bc53 9dbd f6b5 15bd dff7 8dbd b3c2 853d
00000200: 3ea4 7fbc ca51 373d 7d78 a7bd bcb3 96bd
00000210: 9a89 593d 4bd6 9d3d 4f7c 2e3d 8e1e 79bd
00000220: 5a8f 6c3d 9d7d 61bd 3ff9 ca3c a92a 663b
00000230: 6800 473c 0c69 353d 10fd 81bd 2e92 a7bd
00000240: c107 40bc 8ce4 833d 1fc1 533d e506 30ba
00000250: 8d89 683d 3813 96bd e5d8 503c d330 8b3d
00000260: cf38 b33d 6b13 24bc 7d0f 7bbd c1e5 323b
00000270: 1c24 2d3d 54eb 293d 067a 523d 69b8 82bd
00000280: c4d5 de3b d043 853d 6a11 233d d864 ce3c
00000290: 31ed 37bd 8684 683c b815 55bd 3c02 013d
000002a0: c698 873d 02c8 3b3d f481 88bd 46d2 323d
000002b0: e96c 6a3d 2522 77bc a9c1 25bd 7805 57bc
000002c0: c19c 60bc dfc2 c0bd 94ac 3a3d c51b 0abd
000002d0: 4612 2c3b 81e3 babc 3d66 3e3b 3297 84bc
000002e0: 83df 793c 97aa 08bc f33b c63c f333 b0bd
000002f0: cc15 a63c afb4 4bbd 5e4a 703d f13c c33c
00000300: b586 ac3d 2210 b43d 62bc 37bd 8901 b5bd
00000310: c063 313b c002 ea3d 3479 41bc dd36 98bd
00000320: 5076 d2bc fb04 b7bd ffb2 94bd 39ae f73b
00000330: 73ab b8bd 1f0f a33b eb0a f63c 04f2 57bd
00000340: 3a7f 313d e217 1b3b affb 90bd 8b07 893d
00000350: bab3 a1bc 9b67 a7bd e4fd 423d 317f eebc
00000360: 9ecd 823d a989 8e3c 9c45 99bd f8fd a6bd
00000370: 5d91 7f3c 2789 303c 3f53 6c3c 7166 15bc
00000380: 6075 46bd 8318 133c a265 2f3c 05cc 803d
00000390: eed2 293d 03cf 223d 736b 79bd 4f5c e83d
000003a0: 88ec 603d 5a55 c03c 8184 983d e2e1 a9bd
000003b0: 043f 72bd 0841 813c bc51 e53b f68f 833c
000003c0: 3f31 933c 65d4 3dbb 7fb7 4dbd a6fa 9dbc
000003d0: ce53 923d 4890 583d 13f6 8b3d 767b 763d
000003e0: db66 32bd bc7c 02bd e290 30bd b23c 93bd
000003f0: aea5 40bd 1e00 44bc 7908 2a3d 16b0 1f3d
-0.08372859 -0.015454482 0.028676214 -0.0011455785 -0.059012897 -5.5310065e-05 0.001719098 0.07488236
-0.06414758 0.03347531 0.037100956 -0.07726463 -0.06656382 -0.0451904 0.02690679 0.0725005
0.038405087 -0.047119807 -0.016733907 -0.05336505 0.062054165 0.06265106 -0.020461394 -0.047191452
-0.03629574 0.053084537 -0.080097355 0.0029503035 0.02859257 -0.08363856 0.044996127 -0.08340184
-0.05443564 0.07255135 -0.060191456 0.065865465 0.087116204 -0.0077917804 -0.054808766 -0.05888986
-0.0016427004 -0.017398925 -0.0493848 0.030422125 -0.095583364 0.07455259 0.044940513 0.040560696
-0.015486459 -0.011642632 0.07650699 0.07984955 -0.08251685 0.0038161662 0.054298643 0.01341246
0.061864436 0.08029545 -0.018430285 0.008198456 -0.062445026 0.07163007 0.00064886885 0.025019152
-0.07961721 0.057007354 0.009282327 -0.03357554 -0.049894664 -0.07530882 0.06485237 0.029899595
0.03532735 -0.054692376 0.06952643 -0.013402163 0.07646305 -0.06274622 -0.015587198 0.07067424
-0.06302295 -0.037045818 -0.030588288 0.04220034 0.08421371 0.03264358 0.017970353 -0.012008751
-0.011598519 -0.06716117 -0.08858894 -0.032796957 -0.02153557 -0.037152432 -0.015276581 0.028552305
0.029419618 0.0010711394 0.04293637 0.0003949116 0.0015056045 -0.059235428 -0.051766217 -0.064024344
0.055496454 0.037975483 0.13173173 -0.07109104 -0.05526046 -0.06344917 -0.063381135 0.050988447
-0.028150922 0.07349572 0.06556988 -0.07704259 0.075883225 0.060021207 -0.0028566767 -0.007606849
0.012137245 -0.011322606 0.053059023 -0.048680466 -0.07681987 -0.036550485 -0.06932043 0.065312766
-0.015603123 0.044755735 -0.08177278 -0.073585 0.053109743 0.07706889 0.04259902 -0.060820155
0.0577539 -0.055051435 0.024777053 0.0035120642 0.012146093 0.044289634 -0.06347096 -0.081821784
-0.011720599 0.06440076 0.051697847 -0.00067148946 0.056771804 -0.073278844 0.012747024 0.06796422
0.0875107 -0.010014395 -0.061294068 0.0027297589 0.042270765 0.041484192 0.051385902 -0.0638283
0.006800385 0.06507075 0.03981153 0.02519457 -0.044903938 0.014191752 -0.052022666 0.03149627
0.06620936 0.04584504 -0.066654116 0.043657564 0.05723277 -0.015083824 -0.04046789 -0.013123862
-0.013709248 -0.09412169 0.04557474 -0.03371789 0.002625601 -0.02281356 0.0029052638 -0.016185377
0.015251043 -0.008341453 0.024198508 -0.086036585 0.020274065 -0.04973286 0.058664672 0.02383277
0.08424131 0.087921396 -0.04485739 -0.088381834 0.0027067512 0.11426306 -0.011808682 -0.07432339
-0.025691181 -0.08936497 -0.07260703 0.0075586108 -0.09017076 0.004976168 0.030034503 -0.05272104
0.043334223 0.0023665358 -0.07079255 0.06690892 -0.01973902 -0.08174058 0.04760541 -0.029113384
0.063868746 0.017399626 -0.0748398 -0.081539094 0.015598622 0.010774887 0.014424144 -0.009118662
-0.04845178 0.008978012 0.0107053835 0.06288914 0.041460924 0.039748203 -0.060893487 0.113457315
0.054913074 0.023478199 0.07447148 -0.08295037 -0.059142128 0.01577808 0.006998269 0.016059857
0.017967818 -0.0028965708 -0.050223824 -0.019284558 0.07144891 0.052871972 0.06834044 0.060176335
-0.043555122 -0.031857237 -0.04310692 -0.07189311 -0.047033004 -0.011962919 0.041511986 0.038986288

gnn_node.convs.0.mlp.1.weight f4 [256]
00000000: 1aea bc3f 4c49 373f 007c ff3e 6b09 f63e
00000010: e672 e53e b782 d23f 0ade b83f 2f6c e73d
00000020: 2306 eb3f 9d1a 913f 3cc9 803f 5a27 c03f
00000030: b724 fc3f ede3 fe3e 0f8e 883f 8b9f 873f
00000040: 8231 c53f 42f3 1e3f da91 dd3e 2d90 7d3e
00000050: 7e33 283e dc44 e23f 0aa0 cd3f e016 6f3f
00000060: 2a84 0a3f ab22 b73f fe1b b23f c8dd f53e
00000070: ea3c 0740 fc59 ac3f e774 903f 5a52 823f
00000080: 3367 813e 2b69 a53e 7fc1 503b f756 113f
00000090: 1ec6 a4bb 9c80 333f 3108 96bc 8bd8 2ebc
000000a0: c8c8 0d40 3205 9c3f 456b 1440 8ede af3f
000000b0: b6ea dd3f 77a5 0e3f 9ca9 fe3f 4544 bd3f
000000c0: 07b8 9c3d 88ec 0540 b615 6b3f 2e77 8abc
000000d0: 633d 283f 9923 de3f 3982 2f3f 8451 9a3f
000000e0: ebfd a73f f1ef 0d3f 8b9d 073e 549e da3c
000000f0: d23f 743f 5de4 883f e20b 673c 3acb 2a40
00000100: 2946 2c3f d871 4c3f 61ea 2f3c 9127 063e
00000110: cd48 193f 6f8f 7c3f 57cc 0e40 7f49 633f
00000120: 0fc5 893e 1bfe 0e3f 7361 193f d705 bf3f
00000130: 36bb 253a 2b6b fb3e e5ba 913f 86b3 0240
00000140: 5674 1b40 f5a6 b03f 6237 cb3f 1491 9a3d
00000150: 60ce b43f ee5f 0440 2a86 c63f 8ecc f13f
00000160: a668 c83f 4801 813e 575a c83f 7999 f73f
00000170: 2420 1040 303d c23f 7a98 e13f 913b ccbb
00000180: 983e 033c c76f c73e 0838 c93f 1abc 973f
00000190: 8165 ed3f 5196 a93f 88dd 723f a74c 153c
000001a0: 2c56 ee3f 897e 1c3f 9b72 da3f 14de f03f
000001b0: 74a7 dcbb 20bb 0e3e 119d 913f c8e7 0340
000001c0: 0a6b f83d 9d73 9d3f d375 793f 6f31 ba3f
000001d0: 6747 9f3f 416a d63f 293c 7c3f c714 933f
000001e0: 2c35 813f ad76 f63f 76a3 59bc e65e 283f
000001f0: d98f c53f 712d f83f 7a01 a23f d1b5 983f
00000200: df25 c83f 55d9 493f 4d34 0340 581f e23f
00000210: c01f 4f3f 8edc 8d3f bd7e d43f 4cd4 da3e
00000220: 2dba de3d a1bd 0040 786b bf3f 4d6f 323f
00000230: 14aa 9d3d 5b95 b63f cab3 9c3f d724 5a3f
00000240: d6a8 0a40 4cf5 733e ded4 0040 ecb8 e33e
00000250: 5080 bc3f 84e1 ba3b 3924 4a3e e32e 083c
00000260: 9b06 923f 73c3 283d 08ea a13f 2f1a df3f
00000270: 970b da3f eed1 b43f 33c3 7f3f f4d0 d43f
00000280: 82a1 c83f cee8 cc3f 975b 593f a563 e93f
00000290: 02b2 7f3e 3b5e 773f 9395 df3f 839f ac3e
000002a0: 136b e23f bc36 043f 13fe c13f f89f ab3e
000002b0: 6307 213f 0c34 443f 350f 953f ded7 c73e
000002c0: 50ec 853f 660f 0140 720f 2d3d 76af 213f
000002d0: a0b7 9638 c612 cf3f cdf6 033e 21de 6c3f
000002e0: c404 a63f aefb af3f cfde 0040 4d2c e53f
000002f0: 1b94 8f3b 1310 af3e 43e0 763f cf99 db3e
00000300: ae58 d23f 9a58 973f a85a 603c cffe 1a3b
00000310: 7a27 c23f 8904 d83f b9f4 f73e cf4b 093f
00000320: 0044 7d3f 3285 913f f4a7 bb3f d5b3 d83f
00000330: f25d f63f 65b0 0340 e2c6 913f a12f f83e
00000340: c01d ac3f 3322 553f 549c e33f 6cf5 473f
00000350: 376d 583f 2284 d73e 5e70 963e aa90 193e
00000360: 2b04 793f 031b 523f 90ec bb3f 61c3 a23e
00000370: a6f3 db3e 8d4e f03d 81a7 9c3f f2f7 8a3e
00000380: 89f3 b03f 6e0b f33f 83b9 c23e 9ca5 bb3c
00000390: a7d7 9c3f f77b c23d da2e 4a3f 7f0a 3140
000003a0: 9071 c83f 9fe8 bc3f 861b 293f 0b14 a13d
000003b0: 2703 cb3f 6bd1 c03f 14e2 8e3f e04a dc3f
000003c0: 49f9 593f 9ecc 1440 e44c 623e 8e77 c73f
000003d0: d076 1140 b991 723e 16a9 e93f f84e 1d3f
000003e0: 4514 1440 3453 0d3f 59e6 4e3f 6c35 353f
000003f0: d9cd 3a3f e482 ad3f f6bd 433f 7bfc ed3f
1.4758942 0.7159622 0.49899292 0.4805406 0.44814223 1.6446141 1.4442761 0.11299931
1.8361248 1.1336247 1.0061412 1.5012009 1.9698704 0.4978327 1.0668353 1.0595564
1.5405734 0.6208993 0.43275338 0.2476203 0.16425893 1.7677264 1.6064465 0.9339428
0.54107916 1.4307455 1.3914793 0.48020768 2.113093 1.3464961 1.1285676 1.0181382
0.25274047 0.323068 0.0031853614 0.5677332 -0.0050285 0.7011812 -0.018314453 -0.010671745
2.2153797 1.2189085 2.3190472 1.3739793 1.7337253 0.5572123 1.9895511 1.4786459
0.07652288 2.0925617 0.91830003 -0.016902532 0.6571867 1.7354614 0.6855808 1.2056127
1.3124365 0.55444247 0.13243692 0.026686825 0.9540988 1.0694691 0.014101954 2.668654
0.67294556 0.7986121 0.010737033 0.13101031 0.5987671 0.9865636 2.231222 0.8878402
0.26908156 0.55856484 0.5991432 1.4923657 0.0006322147 0.491052 1.1385161 2.0422072
2.4289756 1.3800951 1.5876276 0.07547203 1.4125481 2.068355 1.5509694 1.889055
1.5656936 0.2519629 1.565257 1.9343711 2.2519617 1.5174923 1.7624657 -0.006232687
0.008010529 0.38952467 1.5720224 1.1854279 1.8546602 1.3248998 0.9486928 0.009112514
1.8620048 0.6113058 1.7066225 1.8817773 -0.006733829 0.1393857 1.1376058 2.0610218
0.12129791 1.2300907 0.9744541 1.4546336 1.2443665 1.6751176 0.985293 1.1490716
1.0094352 1.9254967 -0.013283601 0.65769804 1.5434524 1.9388868 1.2656701 1.1930486
1.5636557 0.7884725 2.0500672 1.7665815 0.8090782 1.1082933 1.6601177 0.42740095
0.10875354 2.011574 1.4954672 0.6970108 0.076984555 1.426433 1.2242367 0.85212463
2.166555 0.23824042 2.0129924 0.44477022 1.4726658 0.005703153 0.1974038 0.00831196
1.1408266 0.04120202 1.2649546 1.7429866 1.7034787 1.4126565 0.99907225 1.6626267
1.5674288 1.6008546 0.8490538 1.8233534 0.24970248 0.9662816 1.7467521 0.33715448
1.7688926 0.5164602 1.5155662 0.33520484 0.62901896 0.7664192 1.1645266 0.3903188
1.0462742 2.0165648 0.042251058 0.6315836 7.18676e-05 1.6177604 0.12887116 0.9252644
1.2970204 1.3748682 2.0135992 1.7904145 0.004381669 0.3419195 0.96435946 0.42890784
1.6433313 1.1823914 0.013693489 0.0023650413 1.5168297 1.6876384 0.48428896 0.536313
0.98931885 1.1368773 1.466063 1.692988 1.924742 2.0576413 1.1388819 0.48473838
1.3446579 0.8325531 1.7782083 0.7810886 0.8454165 0.42092997 0.29382604 0.14996591
0.97271985 0.82072467 1.4681568 0.31789687 0.42959327 0.11733732 1.2238618 0.27142292
1.3824321 1.8987863 0.3803216 0.022906117 1.2253312 0.09496301 0.7897774 2.7662656
1.5659657 1.475849 0.6605762 0.07865151 1.5860337 1.5063909 1.1162744 1.721035
0.85146004 2.3249888 0.22099644 1.558336 2.2728767 0.23688401 1.8254726 0.6144862
2.3137372 0.5520508 0.8082023 0.7078464 0.7297035 1.355557 0.7646173 1.8592676

gnn_node.convs.0.mlp.1.bias f4 [256]
00000000: 76dd 073f f87d a6be f593 e6be 17f9 75bf
00000010: bc81 04bf 27a2 f5be 4651 19bf 594f 85be
00000020: 8ce5 91be b0f8 543e fe5d bbbe d9e1 b9be
00000030: 30be 9a3e 1a52 8bbe 57e8 c9be a5e2 d3bd
00000040: fe77 eebe a143 82bf a383 14bf 94ae 16bf
00000050: 882a 27bf 82bc 27bf e915 5bbe 1afe 40be
00000060: 5819 8d3e f5bb e3be c6a0 1cbf 6651 413e
00000070: fa63 f2be d3ae 343e eb93 1fbf 5f2e e1be
00000080: c76d 4bbf 0cc2 66bf c7da f3bd 4d9e bcbf
00000090: e5c1 25be 3c0a a5bf f4ed 6a3d 1366 42be
000000a0: 1c71 02bf 462a 6ebe 18a5 83be 01fa 10bf
000000b0: 558a 1fbf 915b 63bf 75bd d8be 50ef f4be
000000c0: 33f7 bcbf e319 00bf 13c6 f4be 841c a5bf
000000d0: a850 79be 68ec c4be e542 2fbd 0ab2 0abf
000000e0: 96db 9dbe a850 a9bf 5b75 41bd 3d2a 27bf
000000f0: abca a8bd 7506 51be 600a 28bf 0517 f3be
00000100: 6c9b 163d d1db 6dbe d0be cabe d380 aebe
00000110: 166c 17bf adb9 0dbe ac0a 9cbe d808 b03e
00000120: c590 00bf 85be 47bf d86e 89be 9ddf 0fbf
00000130: 2b17 edbe c776 8bbf bbbe 563f a2f2 0dbf
00000140: fe49 1dbf 05c1 e5be 3c77 f8be 7310 a13d
00000150: c568 3ebe ce08 d2be e04b e8be 8168 0cbf
00000160: e1ca 87bd ec52 12bf 703b 3dbe ec21 22bf
00000170: 9584 22bf ad45 acbe f4bd 95be 419c 9cbd
00000180: a3cc a23e e260 76bf 05d3 10bf 71f9 febe
00000190: 8fb0 0cbe 14c2 00bf 898a 25bf 640b 3abe
000001a0: eb61 10bf 11fc 94bf d64c adbe 3973 69be
000001b0: b0fe f4be 1a98 8fbd ab03 553e 62fb 003d
000001c0: 3fa3 2abf 8f5d 9abe cb26 89bd 5a25 10bf
000001d0: d9b5 3cbf d033 14bf 433e 25be 550b b3be
000001e0: 8c39 af3b 5de8 ecbe 171c b8bc 4935 c2be
000001f0: bef0 b3be 6b35 f6be 3280 bcbe 86ab 82be
00000200: e9d5 35bf d9fb acbe ebcf babd dc20 13bf
00000210: ae73 d8be 926d 59bd 79f5 82be 9941 92bf
00000220: 1c71 1fbf 4cac 153d a766 29bf f93e 52bf
00000230: 0e94 ec3e 455b a4be 03ec 0abf 8fb8 3ebe
00000240: e042 12bf 7ad4 1abf 7407 dabe 2efa 23be
00000250: b038 e2be 19ec 08bf 2f79 15bf 8e3c 493e
00000260: 7c7d 3a3e 9af7 70bf 0ae7 153d fbcc 1cbf
00000270: a45e 0fbf 7d1e 343d 3a73 13bf 8154 e9be
00000280: 46e2 93bd 8a32 27bf 0db5 87be f6da 21bf
00000290: d650 2ebf 3c8b 08bf bf58 cc3d 3f96 61be
000002a0: 3ce5 e2be 551f debe beb8 16bf 6c5b 7abd
000002b0: 6f39 61bf 5f8c 43bf 41ac e0be 5b5a 5d3f
000002c0: a6f5 c5be 17ef abbe 1aed cabd 9c2a 383f
000002d0: d061 81bd 1478 fdbe cfaf 80bf a5f2 35bf
000002e0: bacc 5bbe d6bc 35bc d6e5 9bbb 1f35 63be
000002f0: 5b66 ddbe 75e0 36bf c76d b13f 0908 0dbf
00000300: e386 f8bd c9a1 aebe 1eb6 ba3d a09e f8bd
00000310: bc92 abbe e25d 42be ea99 06bf 3c48 62bf
00000320: 9f88 2cbd 602e aabe 6dbf 8ebd 11a4 273d
00000330: 6e7c 1cbf 7f1d 26bf 2acc f73e 2f21 e3be
00000340: a5b7 35bf 6cea 57be 981e edbe 1d84 56bf
00000350: b52a 9abf c3d6 2cbf 9da9 6bbf 4c6f 6ebf
00000360: bdff 0abf 94ba 3dbe fbdf 1fbf c4a6 1abf
00000370: e4d5 72bf 819b 69be 27ba 08bf b25b 1c3f
00000380: 2939 02bf 9950 56be c2d8 7cbd f1cc 79bf
00000390: 555a a7be 3120 06bf 220a 8bbe 3d8b 0fbe
000003a0: 3dc9 2fbf 175d 06bf bb89 41bf 0436 1cbf
000003b0: 1cd2 1cbf b738 2fbe 8f05 07be 0f0b a0be
000003c0: c9a2 a3be 4b32 bb3e 26ec 07be 8184 a8be
000003d0: fa6a eebe f525 45bf 1163 fcbe 7f91 81bf
000003e0: c046 76be 8302 80bf d3fd 8cbf 7305 7fb9
000003f0: 9e0a f13d 4615 b4be 288f b2be 9ac4 06bf
0.530723 -0.32517982 -0.45034757 -0.96083206 -0.5176046 -0.47975275 -0.5988964 -0.260371
-0.28495443 0.20797992 -0.36595148 -0.3630512 0.30223227 -0.27211076 -0.39435074 -0.103459634
-0.46575922 -1.0176889 -0.5801336 -0.58860135 -0.6529927 -0.65522015 -0.21395077 -0.18846932
0.27558398 -0.44479337 -0.6118282 0.18878707 -0.473419 0.17644815 -0.6233508 -0.4398069
-0.7946438 -0.9013984 -0.11906963 -1.473581 -0.16187246 -1.2893748 0.057355836 -0.1898425
-0.5095384 -0.23258314 -0.25711894 -0.56631476 -0.6232045 -0.88811594 -0.42332044 -0.4783883
-1.4762939 -0.500395 -0.4780737 -1.2899327 -0.24347174 -0.38461614 -0.042788405 -0.54177916
-0.30831593 -1.3227739 -0.04723106 -0.65298826 -0.08241781 -0.2041262 -0.6564083 -0.474785
0.036769316 -0.23228385 -0.39598703 -0.3408266 -0.591493 -0.13840361 -0.30476892 0.34381747
-0.502209 -0.78025085 -0.2684238 -0.5620058 -0.46306738 -1.0895623 0.8388478 -0.55448353
-0.6144103 -0.44873825 -0.4852847 0.078644656 -0.18594654 -0.41022342 -0.45370388 -0.5484696
-0.06630493 -0.5715778 -0.18479705 -0.6333301 -0.63483554 -0.33646908 -0.29246485 -0.076469906
0.3179675 -0.9624158 -0.5657199 -0.49799684 -0.13739227 -0.5029614 -0.6466451 -0.18168408
-0.5639941 -1.1639425 -0.33847684 -0.2279786 -0.4785056 -0.07011433 0.2080218 0.031489737
-0.66655344 -0.30149505 -0.06696852 -0.56306994 -0.7371498 -0.5789156 -0.16137032 -0.34969583
0.0053474363 -0.4627103 -0.022474332 -0.37931278 -0.3514461 -0.4808763 -0.36816555 -0.25521487
-0.71029526 -0.33785895 -0.091216885 -0.57472014 -0.42275757 -0.05308301 -0.25577906 -1.1426269
-0.62281966 0.03654127 -0.6617226 -0.8212734 0.46206707 -0.32100883 -0.54266375 -0.18625091
-0.57133293 -0.60480464 -0.4258381 -0.16013405 -0.44183874 -0.53485256 -0.58388036 0.19652006
0.18211931 -0.9412781 0.03659729 -0.61250275 -0.56003785 0.04397439 -0.57597697 -0.45572284
-0.072208926 -0.6531149 -0.26505318 -0.6322473 -0.68092096 -0.53337455 0.099778645 -0.2202997
-0.44315517 -0.4338328 -0.58875644 -0.061122343 -0.8797826 -0.76386064 -0.4388142 0.86465997
-0.38663977 -0.3358085 -0.09908505 0.71940017 -0.063174844 -0.49505675 -1.0053653 -0.7107337
-0.21464816 -0.011092385 -0.004757623 -0.22188233 -0.43242154 -0.71436244 1.3861626 -0.55090386
-0.121351026 -0.34107807 0.09116767 -0.1213963 -0.33510387 -0.18981126 -0.52578604 -0.8839147
-0.04212248 -0.33238506 -0.06970105 0.04092795 -0.61127365 -0.6488876 0.48397952 -0.44361255
-0.70983344 -0.21085519 -0.46312404 -0.8379534 -1.2044283 -0.675152 -0.92055684 -0.93138576
-0.54296476 -0.18528205 -0.6245114 -0.60410714 -0.9485762 -0.22813226 -0.53409046 0.61077416
-0.5086847 -0.20929183 -0.061730154 -0.9757834 -0.32686105 -0.5239287 -0.27156168 -0.14017959
-0.6866644 -0.52485794 -0.75600785 -0.6101992 -0.612581 -0.17111479 -0.13185714 -0.31258437
-0.31960133 0.36561808 -0.13273677 -0.32913592 -0.46565992 -0.7701104 -0.49294332 -1.0122527
-0.24050426 -1.0000767 -1.1014961 -0.00024320725 0.11769603 -0.3517248 -0.34874845 -0.5264374

gnn_node.convs.0.mlp.1.running_mean f4 [256]
00000000: d347 0641 0fb6 82c0 ce80 32c1 c286 1d41
00000010: 7cd1 ab3f d5f3 5540 0562 cfbf f4bf 61bf
00000020: 8c0c 8e40 ea79 ca3f df2f 64bf 8d40 0cc1
00000030: ce04 ff40 3d5f 323e 5499 7a40 ade7 c740
00000040: af4c 23bf fdae a940 7237 b2c0 78b0 8ec0
00000050: 39c8 34c0 a6d5 f4c0 ab59 3541 04b5 c340
00000060: 6e5f bfc0 e50a 9cbe 8d54 dfc0 4393 f340
00000070: 3671 14c1 2a2e 95c0 5d8b 04c1 6c3c 3041
00000080: 421a e73f acea 9140 6efc 9c3f f55e 2141
00000090: b31f 3040 fa84 4f41 62d2 a93f 741c 1640
000000a0: de2a 793e 8847 4ec1 dd9d 4140 024e edbf
000000b0: 3b88 49c0 916e 5abf 5ffd 43c0 08ba 88c0
000000c0: 7a5f cd40 c959 96c0 6b13 1b41 f9fa f740
000000d0: 30d4 c6c0 ed16 c0c0 116e c040 96b8 b3bf
000000e0: 79b8 1dc1 1756 01c1 8cfc 3d41 96c5 36c0
000000f0: 1a6f f0c0 729d 21bf 57e6 37c0 5289 cac0
00000100: eb8b 2041 4911 b43f 3934 373f 0811 89c0
00000110: 4c0e 473e d7e8 8fbf 60a3 9140 b8a6 e1c0
00000120: 6fdb 21bf 7fcc 1c40 fb98 8fbf 2ade 33c0
00000130: 697f ecbf 733e c0bf 114f 4c41 bc39 1e41
00000140: a677 97c0 fc7b 2940 f9e9 aac0 1d1d 0441
00000150: 615c b13f bdac 8d40 c768 99c0 9b4b 6a41
00000160: 3795 c4bd db0e 84c0 e608 1841 d40e 2ac1
00000170: 267f aabf ce1f 4541 1ded a040 1eed c33f
00000180: 5415 0340 5111 f640 7247 dbbf 7366 1ec0
00000190: 04fa fcbc d754 a7c1 ac13 cfc0 4060 6b3f
000001a0: bca5 3041 d362 0941 6f77 ebc0 fdfc 55c1
000001b0: 11e2 1140 5107 8740 f7ab 1d40 1d73 d6c0
000001c0: 6dfc e1bf 7bb8 02c1 64fd f4bf 2aca 8040
000001d0: 0968 b9bf 0f62 c6c0 a93d af3f 39b0 20c0
000001e0: f743 02bf c1e2 e4bf 7b52 a240 2330 cbc0
000001f0: 49c1 3541 89a5 e5c0 6e4e ffc0 e9d2 6cbe
00000200: bfa7 3abf 15d6 9ec0 577d 7140 0d9a e9bf
00000210: a86c 1fc1 3730 e340 f91d 9240 f6cf c740
00000220: e389 03c0 a8b0 08c1 abca f6c0 724d 2c40
00000230: 5fba 2fbf a872 ef40 3f20 b1c0 1109 85c0
00000240: ee0e ab40 00e1 7740 ff71 3f40 bc1c a1c0
00000250: cb99 9cc0 aeae 70c0 50bf 4541 f222 8d40
00000260: 8ae1 be3f 2ebe 8740 e2b4 9440 0a6e 4dc1
00000270: 982b 90c0 7d01 3dc0 f80c 55bf f707 4840
00000280: 5d3a 8ac0 e7ae 94c0 fdc3 36c1 6c16 82c0
00000290: b981 44bf f62f 18c1 6db4 05c1 7340 d7bf
000002a0: 6e99 ab40 ec2a f93f 234f e8c0 1a28 0841
000002b0: 82ff d340 e5c1 3841 64b7 303e e8d0 50c0
000002c0: 7df2 cd3f 9600 a540 6cd9 e6bf 652e d3c0
000002d0: b799 253f bd0e abc0 a47a 363f 8609 36c1
000002e0: 5e9c 7a40 71bb 0041 057e 4141 5767 5f41
000002f0: 6ddd 8140 9529 2341 1f60 45c0 b456 8cbf
00000300: ab7c cc40 68b6 f3be 8ef2 9240 4a58 e13f
00000310: f705 8e40 6d9a 0041 f483 5d3f d305 2fc0
00000320: 29d3 f640 6cde 9a3f 1a80 41c0 caeb b8c0
00000330: 1830 7dc1 4cf4 a73f 6722 7241 a229 d93f
00000340: 8d92 77c1 45d5 d9c0 acc2 2640 02d2 0c41
00000350: 7cd3 0a41 f56e 5ac1 7024 a5bf cd07 75be
00000360: dbc5 2fc1 1a56 db3f 1af4 eac0 2054 40c0
00000370: cc8b 8141 a29d ecbf 4680 20bf 1aaf 853f
00000380: ac1e 32c0 232b 21c1 4d48 6b41 c08e 67bf
00000390: 8c5c 1fc1 f95c aac0 b447 1040 1e3d 9241
000003a0: f015 24c1 7800 bcbf 7619 0d41 9594 0340
000003b0: d110 42c0 3268 e0c0 f7fd b740 c771 853f
000003c0: 56d1 2fc1 2f99 4941 b76c 27c1 80f6 a3c0
000003d0: e96c 8640 4df6 613f 111e 19c0 918d 9dbd
000003e0: 98a5 18c1 b727 1fc0 e404 dd40 304f c63f
000003f0: ce47 8bc0 770c b5c0 7dc7 3940 cbab 2840
8.392535 -4.084724 -11.156446 9.8454 1.3423305 3.3430073 -1.6201788 -0.8818352
4.4390316 1.5818455 -0.89135545 -8.765759 7.9693365 0.17419143 3.9156084 6.2470307
-0.63788885 5.302611 -5.569268 -4.4590416 -2.8247206 -7.65108 11.334392 6.1158466
-5.980399 -0.30477062 -6.979071 7.6117263 -9.277639 -4.6618853 -8.284024 11.014751
1.8054888 4.5598965 1.2264535 10.085683 2.7519348 12.969965 1.3267329 2.3454866
0.24332759 -12.892464 3.0252602 -1.8539431 -3.1489398 -0.8532496 -3.0623395 -4.272709
6.417905 -4.69846 9.692241 7.7493863 -6.213402 -6.0027986 6.013436 -1.4040706
-9.857537 -8.083518 11.874157 -2.8558097 -7.513562 -0.6313087 -2.8734338 -6.3292627
10.03416 1.4067775 0.7156406 -4.283329 0.19439048 -1.1242932 4.551193 -7.0516014
-0.63225454 2.4499815 -1.1218561 -2.8104348 -1.8476382 -1.5019058 12.769303 9.889095
-4.7333555 2.6481924 -5.341061 8.257108 1.3856317 4.427336 -4.79404 14.643458
-0.09598773 -4.1268134 9.502172 -10.62862 -1.3320053 12.320265 5.0289445 1.5306737
2.0481768 7.689614 -1.7131178 -2.475003 -0.030880935 -20.916426 -6.4711514 0.9194374
11.0404625 8.586627 -7.3583293 -13.374265 2.279423 4.219643 2.463621 -6.701552
-1.7655159 -8.170039 -1.9139829 4.024678 -1.4484874 -6.19947 1.3690692 -2.5107558
-0.50884956 -1.78817 5.0725684 -6.349626 11.359689 -7.176457 -7.978324 -0.23127331
-0.7291221 -4.963633 3.7732751 -1.8250138 -9.964027 7.0996356 4.566159 6.244136
-2.055291 -8.543129 -7.7122397 2.692227 -0.68643755 7.482746 -5.5351863 -4.1573567
5.3455725 3.873108 2.9913328 -5.0347576 -4.8937736 -3.7606616 12.359207 4.410516
1.4912579 4.2419653 4.6470804 -12.839365 -4.5053215 -2.9532158 -0.83222914 3.1254861
-4.3196244 -4.6463504 -11.422849 -4.065237 -0.7676044 -9.511709 -8.356549 -1.6816543
5.362479 1.9466224 -7.2596602 8.50979 6.62494 11.547338 0.17257458 -3.2627506
1.6089627 5.1563215 -1.8035102 -6.5994134 0.64687675 -5.345549 0.71280885 -11.377325
3.915794 8.045762 12.0932665 13.962729 4.0582795 10.197652 -3.0839918 -1.096396
6.3902183 -0.47600102 4.5921087 1.7605069 4.438228 8.037702 0.8652947 -2.7347305
7.7132764 1.2099128 -3.0234437 -5.778783 -15.824242 1.3121428 15.133399 1.696583
-15.473279 -6.807284 2.6056318 8.801271 8.676632 -13.652089 -1.2901745 -0.23928757
-10.985805 1.7135651 -7.3422976 -3.0051346 16.19326 -1.8485606 -0.6269573 1.0444062
-2.783122 -10.073031 14.705152 -0.90452194 -9.960094 -5.323849 2.2543764 18.279842
-10.255356 -1.4687643 8.818716 2.0559437 -3.0322764 -7.012719 5.7497516 1.0425347
-10.988607 12.599898 -10.464042 -5.1238403 4.2007947 0.8826645 -2.39246 -0.07693017
-9.540428 -2.486799 6.906847 1.5492916 -4.352515 -5.6577716 2.9028008 2.6354854

gnn_node.convs.0.mlp.1.running_var f4 [256]
00000000: ce7c 4843 87cf f241 dc4d 1542 5d0c 8342
00000010: 5033 8241 5360 4842 ebef 8a42 d651 2042
00000020: 7f6d d642 1e52 8242 5f9b 0f43 6f80 a542
00000030: 72c0 8e43 fbe7 9442 4530 1943 f668 2442
00000040: 06df 0942 d4fc 8542 f8b9 3041 903b 9b42
00000050: 57a0 8042 3d66 ab42 59a1 4d42 cff5 1e42
00000060: 6064 db41 9eec 1942 6e44 8842 bb2e be42
00000070: 85d0 3642 24e6 1642 74d9 6c42 0683 f842
00000080: 037b ac42 3247 1f43 d91f 1e41 3a32 e741
00000090: ed18 f041 b48d fc41 34dd 4f42 3f03 f141
000000a0: 4af6 6943 4c86 d641 560b 4f42 f3f9 2142
000000b0: d64f a342 5b09 7a42 6411 4f42 dc89 cb42
000000c0: 3ff0 3e42 75c4 3542 6d76 e841 2423 3f42
000000d0: 390b a241 4636 1543 c056 2e43 6ed9 9942
000000e0: f57b e841 3870 9f41 ecb1 7e42 b420 7542
000000f0: 6195 3f41 2ced ae42 bcbe 1042 dffb 9343
00000100: 5c80 6242 c23b 9a43 0176 c240 3376 9d42
00000110: f9eb 8041 80ce 0642 ca91 0943 bd64 8141
00000120: 90a1 b342 5f2c 8342 7b9d 4042 7af0 5b42
00000130: 4138 4c42 d6dd 1442 b9e4 3d43 fbdd b142
00000140: bd8f 0843 6d70 1842 6c2b 6e42 caf4 2e42
00000150: 7930 2642 5535 e142 fef8 2143 15b0 5042
00000160: fd24 6a42 36d9 4342 df1c 5442 d849 2142
00000170: 83bc cf42 543a 7d42 0ea9 1043 e9dc 8141
00000180: 4fca 4e42 4c21 9d42 dbf0 b942 07df 8742
00000190: 5f9d 9843 bd7f b341 4297 5742 91e7 1741
000001a0: b935 b742 bdc1 8442 5e28 c441 b88c 4442
000001b0: 1333 9f41 23e2 1d42 76fa 7c42 1233 4442
000001c0: cbbf 8942 60b8 7242 18f0 a742 89af 8e42
000001d0: 63ba 6741 7695 db42 da7e 1743 e912 a642
000001e0: 6ae9 aa42 7d0b 8143 f5c8 c242 8289 de41
000001f0: 3ee2 6542 46cb 7b42 e9bd 5a42 392d 0443
00000200: 6d5e a741 f464 5e42 d165 9243 2e0b a442
00000210: da04 8442 d365 3742 5609 1a43 6b5d bf42
00000220: f993 e241 a955 a342 8a83 9042 9da6 8642
00000230: 1fc0 e441 e210 4143 cecb c642 560a 0442
00000240: 93a5 b143 0faf 5042 3c0a b041 192c 8642
00000250: 053d 3743 55a5 1441 ba47 eb41 9c20 9642
00000260: 516e 8542 7f2e b642 b339 ba42 d807 b342
00000270: 559c 8443 0309 5042 0398 3143 92af c141
00000280: 8fd9 8742 82e8 6b42 bd41 9f41 b8d1 3942
00000290: cb9d 6c42 6292 8342 0e98 5d42 8071 e841
000002a0: 48e4 0842 acbe 2841 abdf cf42 0e39 1542
000002b0: d0c6 f342 f589 fa41 8e44 8e42 5fdc c442
000002c0: ef1f 5f42 ad77 b242 4b49 6042 cdff 0043
000002d0: f944 f840 a181 f442 50a6 3042 80c3 a842
000002e0: 392d 9b41 ed95 7c42 b7f2 f142 abaf a342
000002f0: add0 1841 4987 a642 0758 1f43 f3ec 7241
00000300: ee51 4643 8055 9b42 2a84 6642 3192 cd41
00000310: fc03 4643 7364 af42 865b c741 8ff1 8b42
00000320: 443b 2c42 f06e 6a42 9ebf bd41 7c50 5442
00000330: 677a 9742 f0d2 0b43 d4bf 3743 f34a ab41
00000340: e84c 6642 674d 2142 6ce9 6f43 8fde 9b41
00000350: 8eed ab42 6fb3 f441 4052 8342 2f3a 6542
00000360: 8dc2 ad41 aaf7 5b41 4e40 5f42 8352 f741
00000370: f9eb 9642 abac 8142 e3da e242 cce3 5b42
00000380: e838 2d43 0c7a e642 8dc7 e641 4066 a842
00000390: d9ee 9542 3410 1942 c0a3 f241 6530 b442
000003a0: 23c9 c242 83c0 0042 fc34 3c42 b4af b141
000003b0: 8fb0 0042 7353 8543 9871 5043 9ec4 0843
000003c0: 7188 7542 26f0 3942 2342 3842 19af eb42
000003d0: 0240 a343 38fa fc41 b095 1743 f760 ac41
000003e0: 6cff 8642 5f56 8442 2c70 6d42 ea60 2e42
000003f0: ed88 8242 2ef5 fc42 17e1 1e42 5dec 0a43
200.48752 30.351332 37.326035 65.52415 16.275055 50.094067 69.46859 40.079918
107.21386 65.160385 143.60692 82.75085 285.50348 74.45309 153.18855 41.1025
34.467796 66.993805 11.045403 77.61633 64.31316 85.699684 51.407566 39.740047
27.424011 38.48107 68.13365 95.09127 45.703632 37.724747 59.212357 124.255905
86.24026 159.2781 9.882775 28.899525 30.01217 31.569191 51.96602 30.126585
233.96207 26.815575 51.76107 40.49409 81.65593 62.509136 51.766983 101.76926
47.734615 45.441853 29.057825 47.784317 20.25548 149.212 174.33887 76.92467
29.060526 19.929794 63.67375 61.281937 11.973969 87.46323 36.186264 295.96774
56.62535 308.46686 6.076905 78.73086 16.115221 33.70166 137.56949 16.174189
89.81555 65.58666 48.15379 54.98484 51.054935 37.216637 189.89345 88.933556
136.56148 38.10979 59.542404 43.73905 41.547337 112.604164 161.97263 52.171955
58.53612 48.96212 53.028194 40.322113 103.86819 63.30696 144.66037 16.232866
51.697567 78.56503 92.97042 67.9356 305.22946 22.437372 53.897713 9.494035
91.60493 66.378395 24.51971 49.13742 19.899939 39.470837 63.24459 49.049873
68.874596 60.680054 83.96893 71.34284 14.483005 109.791916 151.49551 83.036934
85.45589 258.08975 97.392494 27.817142 57.47094 62.94851 54.68546 132.17665
20.921106 55.598587 292.79544 82.021835 66.009476 45.849438 154.03647 95.68246
28.322252 81.667305 72.25691 67.32542 28.59381 193.06595 99.398056 33.010094
355.29355 52.170956 22.004997 67.08613 183.23836 9.290364 29.410023 75.06369
66.71546 91.09081 93.11269 89.51532 265.22134 52.0088 177.5938 24.210728
67.92492 58.97706 19.907099 46.454803 59.154095 65.785904 55.39849 29.05542
34.22293 10.546551 103.93685 37.305717 121.888306 31.317362 71.133896 98.43041
55.781185 89.23374 56.071575 128.99922 7.7584195 122.25318 44.162415 84.381836
19.397081 63.14641 120.97405 81.8431 9.550946 83.26423 159.34386 15.182849
198.32004 77.66699 57.629066 25.696383 198.01556 87.69619 24.91969 69.971794
43.057877 58.608337 23.718563 53.078598 75.73907 139.82397 183.74933 21.411596
57.575104 40.32559 239.9118 19.483671 85.963974 30.587614 65.660645 57.30682
21.719995 13.747965 55.812798 30.915289 75.460884 64.83724 113.42751 54.972458
173.22229 115.23837 28.847437 84.19971 74.9665 38.265823 30.329956 90.09452
97.392845 32.188 47.051743 22.210793 32.17242 266.65195 208.44373 136.76804
61.383244 46.48452 46.064587 117.84199 326.50006 31.622177 151.58472 21.547346
67.49887 66.16869 59.359543 43.594643 65.26743 126.47887 39.719814 138.9233

gnn_node.convs.0.mlp.3.weight f4 [128, 256]
00000000: 391c da3e 3d5f 393f 6777 ce3d 6d20 1c3e
00000010: 093b 663d df0c ba3f 589c f4be fd96 ddbd
00000020: c65f dfbe ca24 2bbe d9d5 bbbd f279 bcbc
00000030: c8b5 e6be 35a2 563e 5ef6 42be 6f20 10bf
00000040: ec3a 323e b064 99be d54f 823e 9982 5cbc
00000050: f9f5 b0bd f5a0 fdbd 464c 733f 5e8e bfbe
00000060: 0a0a debe 3aa6 0ebe e99b 083f 4fe1 a1be
00000070: bb4f 0a3f f705 a63e 340b 9bbe e865 b3bc
00000080: 8a42 34be 9dec 79bd 4f08 12be 834c 2d3e
00000090: 0c13 80be 4e59 06bd ad2d b2bd 0d94 25be
000000a0: 3c93 c2be dac4 103f 2274 45bd c393 4e3e
000000b0: 0979 8a3e 3ee2 5f3b 7dde 2fbf 9a80 593f
000000c0: 66fc df3c e423 d43e 5b20 d13d d2fc 193e
000000d0: ce37 ec3d 1be3 23be 3d3c ddbe e7d1 603e
000000e0: e155 ce3e dc8f 3abf ef40 96be 1ee7 39be
000000f0: 0002 6cbe e093 e1bd 1001 823e 57e8 c5be
00000100: 870d 05bf 356b 80be e9f3 25bc c687 87be
00000110: 894e 9fbe dbcd 5c3f 24f2 2e3f b63f 323e
00000120: 0b7c 5dbd da31 81be dcf8 263d 5baf a9be
00000130: ca79 bc3c 704f d33d 9406 363e fb5b ee3f
00000140: 6b5e 9dbe 717f 643e d192 c9be 5428 9abe
00000150: d454 2dbf 2032 1f3f 52c0 de3a cf59 873f
00000160: bbcd 32bf 5b0f 7bbd bca7 ad3d 1401 e1bd
00000170: 89ff 0240 3fbf 2d3f 4895 16be f865 15be
00000180: 7b5e 52be 2fab 8f3e 05f6 f83e a701 ac3d
00000190: b61d fdbd 04e3 3abd 41d5 86be f8be e1bd
000001a0: 89b0 1540 76bd b83d a32f ecbe 3e1d 9e3d
000001b0: 3885 f2bd 8bd5 babe 436e f93b 4c1e 9a3e
000001c0: 5351 58be 6297 39be 23f0 d3bd 10a5 0e40
000001d0: fd80 f53d 8456 9c3e 2d6f 8cbe 2cb6 c7be
000001e0: bc41 20be 4bf2 543e f062 8b3e f878 27bf
000001f0: 4232 be3e 696c 3f3f 1bf3 0dbf e97b c03e
00000200: e21e 2c3e a0cf 8dbe edef 1cbf efb0 953f
00000210: 0481 e1bd a32d a9bd 02cb 35be 401b 003d
00000220: 2fc0 d9bd a024 ddbd a320 76be 34fd 903c
00000230: dfcd e6bd 2e43 43be 6968 30bf f4c5 f3bd
00000240: 43c2 fdbe 54aa 2abe 1968 09bf 0964 00be
00000250: 1809 093d 3da6 06bd 319d 173d 8a3f 84bd
00000260: 1dba 023e 19f2 c93e 51d6 7cbe fbd9 e63b
00000270: 66f4 1f3e ee99 d6be 6ab9 393e 1715 f63e
00000280: 17df 4d3e d32b f03e 7410 2e3f 40c7 f13c
00000290: 7c04 11be b5c8 50be 2f78 02bf a83a e9bd
000002a0: dcfb 7f3e 2958 073d fc7e c93d ff98 f83d
000002b0: fa9f bbbe e58b b8be 52b3 093c 93e3 4fbe
000002c0: 22b7 26bd c052 a43f 74f0 1a3c ba57 2c3e
000002d0: 367b e3bd b8e6 9cbe d0eb e9bd 3986 ecbe
000002e0: d212 933d 596d fbbe 0a46 90be 7e62 d5be
000002f0: 55a6 bdbd 2f95 ab3e 5f7a 353f 747d 3fbd
00000300: fa72 d5be eb19 8abe aaf7 56bd 3f64 61be
00000310: 348d b2bd d8d6 d73d 7e6c 92bd 54e7 19bd
00000320: 6362 21bf dbe7 08be 00a5 d9be e2d6 183f
00000330: 61ba 843e 9a47 8ebe 9b64 cb3d e0ef d6bd
00000340: 9af7 923d 324a ee3d c1b9 01be b4f3 8dbd
00000350: 807d 25be 590f d5be a27f c73d fdef 57be
00000360: 9d48 a3bd db5e 9ebe 89da 07bf f7e6 9bbc
00000370: 0e69 b3be dfe7 8c3d 6321 813e c303 1bbf
00000380: ad8e 023f 10ea fa3d e16b 9dbd 6a53 303e
00000390: 3558 25bf 9af4 81be 841e 96be 8a0d 86be
000003a0: 9417 c6bd 63e6 773e 4bc0 7bbe ff17 563c
000003b0: cd6f ff3d 9096 b1be c257 2ebe 35d9 04bf
000003c0: 0eee 423d 6611 c43e 91b9 ccbd 6df9 1dbf
000003d0: 0d38 e5be 619e c8bd 34b5 a8be dd8a 01bf
000003e0: 9b43 c83c 7888 243e 7ac2 c03e 0828 3dbf
000003f0: 1dc8 82bd 3a4b 71be 8a84 a7be 58b4 93be
0.42599657 0.7241095 0.10081368 0.15246744 0.056208644 1.4535178 -0.4777553 -0.10819814
-0.43627757 -0.16713253 -0.091716476 -0.023007367 -0.45060563 0.20960315 -0.19039294 -0.5629949
0.1740529 -0.2995963 0.25451532 -0.013458871 -0.086406656 -0.12384216 0.9503826 -0.37413305
-0.43367034 -0.13930598 0.533629 -0.3161721 0.5402791 0.32426426 -0.30281985 -0.021899179
-0.17603508 -0.061016668 -0.14260982 0.16923718 -0.25014532 -0.03280001 -0.08700118 -0.16169758
-0.38002956 0.5655037 -0.048206456 0.20173554 0.27045467 0.003416195 -0.68698865 0.84961855
0.027342033 0.41433632 0.102112494 0.1503785 0.115340814 -0.16004603 -0.4321002 0.21955071
0.40299895 -0.7287576 -0.29346415 -0.1815457 -0.23047638 -0.11014533 0.25391436 -0.38653824
-0.51973766 -0.25081792 -0.0101289535 -0.26470774 -0.31114605 0.8625161 0.6833823 0.17407116
-0.054073375 -0.25233346 0.040764675 -0.33141598 0.023007292 0.10317886 0.17775947 1.862182
-0.30736098 0.2231424 -0.39369825 -0.30108893 -0.6770756 0.6218586 0.0016994572 1.0574282
-0.6984517 -0.06129394 0.084792584 -0.10986534 2.0468466 0.67869943 -0.14705384 -0.14589679
-0.20543854 0.2806029 0.48625198 0.08398753 -0.123591825 -0.045626655 -0.26334575 -0.110227525
2.3388999 0.09020512 -0.46130094 0.07720421 -0.11841816 -0.36491045 0.007612021 0.3010124
-0.21124773 -0.18124154 -0.10348537 2.2288246 0.11987493 0.30534756 -0.2742857 -0.39006174
-0.15650076 0.20795552 0.2722392 -0.6541896 0.3714772 0.74774796 -0.55449075 0.37594536
0.16808656 -0.27697468 -0.613036 1.1694621 -0.11010936 -0.08260658 -0.17753223 0.031275988
-0.10632359 -0.10798001 -0.24035887 0.017698862 -0.112697355 -0.19068596 -0.6890932 -0.11902991
-0.49562272 -0.16666538 -0.53674465 -0.1253816 0.033455938 -0.03287338 0.037015144 -0.064574316
0.12766309 0.39442518 -0.2469113 0.0070450283 0.15620574 -0.41914314 0.18137136 0.48062965
0.20104633 0.46908435 0.67993855 0.029513955 -0.14161867 -0.20389064 -0.50964636 -0.11388141
0.2499842 0.03304306 0.098386735 0.12138557 -0.3664549 -0.3604423 0.00840457 -0.20301656
-0.040701993 1.2837753 0.009456743 0.1683034 -0.11107485 -0.30644774 -0.11421931 -0.46196154
0.07181324 -0.49106863 -0.28178436 -0.41676706 -0.09260241 0.33512256 0.7088985 -0.0467505
-0.41689283 -0.269729 -0.052482285 -0.22010897 -0.087183386 0.10539025 -0.071495995 -0.037574127
-0.6304075 -0.13369696 -0.42508698 0.59702885 0.25923446 -0.27789003 0.09931298 -0.10494971
0.071761325 0.116352454 -0.12668516 -0.06931248 -0.16161156 -0.41613272 0.09741141 -0.21087642
-0.07972834 -0.30931744 -0.53067833 -0.019031031 -0.35041088 0.068801634 0.25220785 -0.60552615
0.50998956 0.12251675 -0.07686592 0.1721932 -0.6458772 -0.2538193 -0.29320157 -0.26182204
-0.09672466 0.2420898 -0.24585073 0.013067245 0.12472496 -0.34685183 -0.17025664 -0.5189393
0.047590308 0.38294524 -0.099963315 -0.6170872 -0.44769326 -0.097958334 -0.32950747 -0.50602514
0.0244463 0.16067684 0.37648374 -0.7388921 -0.06385825 -0.23563853 -0.32718307 -0.2884853
