checkpoints/A_epoch_60.pth (torch, 843938 bytes, 48 tensors)

gnn_node.node_encoder.weight f4 [1, 128]
00000000: 4798 27bf ee51 dc3e 4da2 1dbf 9b10 083f
00000010: 63e5 313e 584c 5d3f 62bb 1d3f e86c 60bd
00000020: ca09 b83d 6ba7 48bf 4bf7 7dbe a0eb 0ebf
00000030: 4ba0 47bf 1ef6 763f ea68 2fc0 fbaf 5cbf
00000040: e52e 13be 6738 533e b7c4 763e f172 80bf
00000050: 8b45 2fbf 0cc4 64bf c932 78be f7a6 c2bf
00000060: a6d5 7cbf 71d1 d0bf d1f2 00c0 2786 9bbf
00000070: 5af9 b9be cd74 2ebf 31a3 9fbe 0078 35c0
00000080: 1d49 96be cdc4 97bf b0e0 5a3e fc90 fd3e
00000090: 4596 013f 8b06 89bf becd bd3c e6b0 a53e
000000a0: 35b7 babf 8e0d 03bf 1908 183f b6fa edbf
000000b0: e3d8 703e eac7 aa3e aa18 a1bf 47f2 24c0
000000c0: 4b51 95bd ab86 e9bf 8a85 4abf 047e 2cbf
000000d0: e017 5f3e 1bff 10bf 5d0c 85bf bd26 a4be
000000e0: efd5 f93e 2ca0 383f afda 4e3e a9e4 673e
000000f0: 2e06 8fbf d7f5 373e aa92 8c3e 7f6d d83d
00000100: 9a07 ebbf 782f b0be 19a4 e2bf 1f31 93bf
00000110: 5d3d f1bf a495 ae3f dc5f 583f 3a73 57bf
00000120: 28fc d63e e262 92bf 4210 f4be f9b0 2c3d
00000130: 9288 5bbe 1b64 e9bd a91d 433e 0d60 1dbe
00000140: 8744 a5bf 7817 b2bf 9f79 cdbf e255 383f
00000150: 910f 013f 63ca d13e 55ef c93e cdd9 a3bd
00000160: 5290 06bf 4606 5a3e cfc7 e0bf bdac b6be
00000170: 7d9c 36bf 1add 123f 1ed1 b3bf 6925 f5be
00000180: 65fb 43bf 6e6c 94be 4016 27bb 3076 41bd
00000190: 69f0 92bf 1442 8abf d7c4 edbf 987e 38bf
000001a0: 8431 d8bf a8e2 e23e c86a 7a3f 5c41 a4bf
000001b0: fcb7 b9be c5d5 53bf 2c18 5cbf 6972 69bf
000001c0: ec93 aebe 22a7 00c0 633e a8bf 17a1 aabf
000001d0: 8270 41bc 7ef2 09c0 be29 f43e 3830 abbd
000001e0: f1e3 3abf 964d 5cbf 2660 093f eed4 3b3e
000001f0: 6594 fdbe acf1 2e3f e687 cfbf afa7 f63e
-0.6546673 0.43031257 -0.61575776 0.5315034 0.1737266 0.86444616 0.6161405 -0.05479136
0.08986242 -0.7838046 -0.24801366 -0.55828285 -0.7797896 0.96469295 -2.7407784 -0.86206025
-0.14373358 0.20626985 0.24098478 -1.0035077 -0.6846549 -0.89361644 -0.24238123 -1.5207204
-0.987635 -1.6313916 -2.0148203 -1.2150315 -0.36323053 -0.68146974 -0.31179193 -2.8354492
-0.29352656 -1.1856934 0.21374774 0.49524677 0.5061992 -1.0705122 0.023169395 0.32361525
-1.458716 -0.5119256 0.59387356 -1.8592136 0.23520236 0.33355647 -1.2585652 -2.5772874
-0.07290896 -1.8244222 -0.79110014 -0.67379785 0.21786451 -0.5663926 -1.0394398 -0.32060805
0.4879603 0.721194 0.20200609 0.2264582 -1.1173761 0.17964874 0.27455646 0.1056776
-1.8361695 -0.34411216 -1.7706329 -1.1499366 -1.8846852 1.3639417 0.8452127 -0.84160197
0.41989255 -1.1436427 -0.47668654 0.04216096 -0.21438816 -0.11396047 0.19054283 -0.15368672
-1.2911538 -1.3913412 -1.6052741 0.72006047 0.5041438 0.4097472 0.39440408 -0.080005266
-0.52563965 0.21291456 -1.7560977 -0.35678664 -0.7133253 0.57368624 -1.4048193 -0.47880104
-0.7655547 -0.28988975 -0.002549544 -0.047231853 -1.1479617 -1.0801415 -1.8575696 -0.72068167
-1.6890111 0.4431355 0.97819185 -1.2832446 -0.3627318 -0.8274806 -0.85974383 -0.911902
-0.3409723 -2.010201 -1.3144039 -1.3330411 -0.011806609 -2.1554255 0.47688097 -0.08358806
-0.7300406 -0.86055887 0.53662336 0.18342945 -0.4952728 0.6833751 -1.6213348 0.48174807

gnn_node.virtualnode_embedding.weight f4 [1, 128]
00000000: c0bd ecbe 44cb e9be ef46 3bbf b1e8 e7be
00000010: 9518 32be 15cf 6fbf 19e1 d2be 0e77 11bf
00000020: 3d8a fcbe 47bf 97be cc36 03bd 0367 0bbf
00000030: a507 24be 7852 86bf 66cd 03bf fb26 6cbd
00000040: 6997 89be 409a 71be 264e 37bf 662b 42be
00000050: c24f 94be 3c9e 3bbe aaf2 32bd 7fdf debd
00000060: 6c76 a3be 4afe a5be 5be5 95bd 14e3 78be
00000070: dc91 dbbe 42c5 98be ec0d 76bd 96ee 18bc
00000080: 12f0 52be 5b1f b53b 1dc1 1bbf fea3 c0be
00000090: d0fc f03d 38a0 f8be ec18 29bf 9cee b6be
000000a0: e6c3 0dbd 7b2b 99be c6f1 6dbf fda1 c3be
000000b0: 7813 31be 0f50 b2be efc6 723e 06c6 eabe
000000c0: e26c 40bf 0e53 b6be 13ce 93be ac3d a8be
000000d0: 6600 3cbe 7b40 483d e071 e9be 1270 6bbe
000000e0: d1de 5bbe 3f3d e9be 728e 49bf a78e 0cbf
000000f0: d083 4ebe f432 79be 8f0d aebe a002 7cbe
00000100: 7b0b 86bf c261 d2bd a0a6 e5be 74da babe
00000110: 7f80 b2be a808 24bf 95c5 16bf 3b14 ecbb
00000120: bd55 cebe f25f bbbe 212d a8be 461b c7be
00000130: f2b1 d6be 8b74 97be 4e3b c4be 27b2 b6be
00000140: 4b0c 86be c34c 18be a171 b8be 8e21 8bbf
00000150: fd70 42bd 187c 98be e539 dcbe 4fac f9be
00000160: dce3 1abe 35e5 c2bd 57ed b9be c3a6 8fbe
00000170: 0ea4 02be 786f 40be aa83 c8be 8c3b 24be
00000180: 62d9 a9be ab28 fbbe 5da8 a8be 7156 5ebe
00000190: 90aa b5be 7ae1 ffbd 7e5a 7b3d f593 0b3e
000001a0: 541c 78bd bfea 4fbf 4e76 33bf 389e ddbe
000001b0: 7900 123d 65c0 f1be 16aa 8bbe 31bc 2bbf
000001c0: 9540 73be 38ba 33be f431 00be 059c bebd
000001d0: be21 29bf 01a6 4dbf f5b4 033d dd93 c2be
000001e0: 6ba5 b1be 2527 aebe 1d5d e3be a346 38be
000001f0: 3e56 86be 262c eebe 3b4d 18be cbd3 c7be
-0.46238518 -0.45662892 -0.7315511 -0.45294717 -0.1739219 -0.9367536 -0.4118736 -0.5682229
-0.49324217 -0.2963812 -0.03203468 -0.5445406 -0.16018541 -1.0493917 -0.5148529 -0.057654362
-0.2687333 -0.23593998 -0.7160362 -0.18961868 -0.289671 -0.1832208 -0.043688454 -0.10882472
-0.31926286 -0.3242057 -0.07319137 -0.24305373 -0.4288472 -0.29837996 -0.06007187 -0.009334227
-0.20599392 0.0055274195 -0.6084154 -0.37625116 0.1176697 -0.48559737 -0.6605365 -0.3572892
-0.03461065 -0.29915985 -0.9294704 -0.38209525 -0.17292583 -0.34826705 0.237087 -0.45854205
-0.7516614 -0.3561024 -0.2886816 -0.32859552 -0.18359527 0.04888962 -0.45594692 -0.2299197
-0.21471716 -0.4555454 -0.7873298 -0.5490517 -0.2016747 -0.24335843 -0.3399472 -0.24610376
-1.0472254 -0.10272552 -0.44853687 -0.36494792 -0.3486366 -0.6407571 -0.58895236 -0.00720456
-0.40299788 -0.36596638 -0.3284693 -0.38887995 -0.41932636 -0.29581103 -0.38326496 -0.35682794
-0.26181254 -0.14873032 -0.36024192 -1.0869615 -0.047471035 -0.29782176 -0.4301292 -0.48764274
-0.15125984 -0.09516374 -0.36313888 -0.28056917 -0.12757894 -0.18792522 -0.39162952 -0.1603834
-0.33173662 -0.49054465 -0.3294095 -0.21712662 -0.3548169 -0.12494178 0.061365597 0.1363066
-0.06057389 -0.8121757 -0.70102394 -0.43284774 0.035644982 -0.47217098 -0.27278203 -0.6708403
-0.23755105 -0.17551506 -0.12519056 -0.09307102 -0.6606711 -0.80331427 0.032154996 -0.38003436
-0.34696516 -0.3401424 -0.44406977 -0.17995696 -0.26237673 -0.46518058 -0.14873211 -0.39028773

gnn_node.convs.0.mlp.0.weight f4 [256, 128]
00000000: 9e39 cdbb 4fed 14bf de91 5fbf 5c93 24bf
00000010: 8325 763e 429f 80be 5a07 d2bd 9715 a3be
00000020: bf52 81be 8d77 cb3c 1e2c 10bf fd5d b83d
00000030: 6dd4 013d 4c3e cdbd 388c 293d 3140 78bd
00000040: cfc0 7bbf 66b1 66be f47e b1be 1963 94bc
00000050: abdb 96bf 9442 1f3d ad95 dd3e 1fbc afba
00000060: c0d1 a1bd cf99 97bd d7a8 a83d d0c2 92bd
00000070: b794 20bf 1e22 993e 523b 283d a92b 163e
00000080: 37e2 85bf 7861 b3bd fbad 003e e2da b83e
00000090: 7e6a 16bf 17ed 8e3d 644f 15c0 eded cebe
000000a0: aef6 0bbd c1da f3bc 2725 11be 826c 213e
000000b0: 1070 ac3e 7092 ea3e 2f53 573d cc7d e9bc
000000c0: 9c2e 193e c154 eebd 9b22 a03e e6a4 07c0
000000d0: ab89 b8be 8282 4cbe 1595 823c c115 f4bc
000000e0: 2e8a 2a3e b5ec 1b3e d31e 3cbe a03e 4d3b
000000f0: 64f8 713d ec84 0a3d 9490 cabe 38ec 3dbe
00000100: db2e f4bd 0a6e ddbd 80e8 8f3d 7ecd 6ebd
00000110: 71ef c33d 4e21 9fbd 432d 0cbe 8ab1 4fbc
00000120: 0ac9 1cbd 4403 9c3d 2b1d 62bc cac4 a2be
00000130: 1fe8 663e 452f a7bf b9f1 d3bf 3dc8 fd3b
00000140: 0e5d 5f3d 4268 d03d d59c 7f3d eea1 843d
00000150: 23a2 ccbd 1f27 b63d 53dd a73e e853 b13d
00000160: d0f7 c4bd e385 e2bd 12b5 753d 908e 783e
00000170: ad55 59c0 eb9b d33c ccbd 543d 69dd 893e
00000180: c926 49be 0935 36bf ece3 05bf 6cbb 57be
00000190: 0035 2d3d 9bbd afbb f499 fcbd dfef 833d
000001a0: 99ab 933d 06d3 1d3d 5cf2 aabd af39 023d
000001b0: 0ced 423e 66c0 b0bd 1a91 ad3e 5c1a f2bc
000001c0: 212c d03e 9538 863d e034 243c fd28 0ebc
000001d0: 7cc0 a8be 84a5 093e 93a8 75bc 952d 33bf
000001e0: 6d09 863e 7a13 58c0 2d56 b03b 1c44 50be
000001f0: 7da8 0bbe c3ed 1fbf 7346 c63d 2592 25bf
00000200: 82e3 51bd bae2 623e 6851 22bf c496 b83e
00000210: 726a e53d 29c5 b4bd dc6a 823e 93fe c73e
00000220: fbc7 ecbd d449 78bd f34f 17bf 81b7 a63d
00000230: 8c83 a9bd 2be1 763d 8a08 be3c 69df 0abd
00000240: e437 20be 2d8b b13e 7fc1 883e 1fc3 2b3d
00000250: 73c5 70bf 7494 8f3f ad01 753c ee23 e8bc
00000260: 042d 603a 3a38 7dbb 5010 873c 4ea7 05bd
00000270: 9295 b73d 948d d9bf f469 39bf b3ff f33c
00000280: 2795 9cbe acd3 3abd dd51 bbbe 4632 04bf
00000290: 780e 01bf 5fe8 493c a690 893f 8e55 76bc
000002a0: 23be 2a3d a122 063f 1e12 a9bd f51e a03d
000002b0: e35b c0be 183a 2c3f 1d36 363d eb46 a6bc
000002c0: e83f 693f 34c5 74bd 87d3 87bd 4e5d c53e
000002d0: 6f4f 643e f904 9fbd 0be2 fd3b 0499 99bd
000002e0: 5b70 35bd b0db 1dbd 36eb 0fbf 5d9d 5bbd
000002f0: 4e64 c4bd a73f 83be be5d d63e 1815 2dbd
00000300: da58 423d 9e45 df3d ba06 75bd 0996 0d3d
00000310: 0866 2f3c 71a2 8dbe fccb 85be 8274 6c3d
00000320: 4b39 113d 2696 48bd 56b2 a7b9 dbb0 cbbe
00000330: 252c 473f f028 87be 9c50 0ebd 3a53 02bf
00000340: 9e68 ea3c f05d 1bbd 55a8 b3bd f020 babb
00000350: 369a 11bf 7ea5 42be a831 3cbf 38d1 d6bc
00000360: 01d6 3c3d 985f e7be 7f4c aa3d 5d2b c83e
00000370: 5fc4 e3be 791a 5e3e 6b7c 27bd f7c4 0fc0
00000380: 5b98 f7be 3631 dbbf d2e4 bb3f 0df6 d53d
00000390: efa4 ed3c e15d 11bd eef0 bd3d ab8a 9d3d
000003a0: a132 4ebd bbc1 193e d368 f33d 2bd3 a63d
000003b0: 7ec6 bfbc 99cb 19bd 86f3 283f 7bd9 bb3b
000003c0: 4e20 7b3f 3c0a 18bd 3ce9 5d3d 4d9b 783d
000003d0: 65f2 973d 4124 8ebd afc6 ea3b 6091 d43c
000003e0: a75b 433e 6505 4e3f adf6 aebd bb69 3c3e
000003f0: 29e6 d43e cfab 123e 1bcb 863d a224 a03e
-0.006262972 -0.58174604 -0.8733195 -0.6428735 0.24037747 -0.25121504 -0.102553084 -0.3185241
-0.25258443 0.02483728 -0.5631732 0.09002302 0.031696726 -0.10021648 0.04139349 -0.060608093
-0.9834108 -0.2252861 -0.3466717 -0.01811366 -1.1785787 0.038881853 0.43278256 -0.0013407505
-0.07901335 -0.074023835 0.08235329 -0.07166064 -0.6272692 0.29908842 0.041072197 0.14665093
-1.045966 -0.08758825 0.12566368 0.36104494 -0.58756244 0.06978815 -2.3329706 -0.40415898
-0.0341708 -0.029767396 -0.14174329 0.15764049 0.33679247 0.45814848 0.052569564 -0.028502367
0.14959186 -0.11637259 0.31276402 -2.1194396 -0.36042532 -0.1997166 0.015940228 -0.02979553
0.16654274 0.15227015 -0.18371134 0.0031317845 0.059074774 0.03381817 -0.3956343 -0.18547142
-0.119229995 -0.10812004 0.07026768 -0.05830144 0.09567154 -0.07770024 -0.13689141 -0.012676606
-0.038277663 0.0761781 -0.0138008995 -0.31790763 0.22549485 -1.30613 -1.6558143 0.0077448175
0.054532103 0.101761356 0.062405426 0.06476198 -0.099918626 0.088941805 0.32786044 0.08658582
-0.09617579 -0.11060693 0.059987135 0.24273133 -3.3958542 0.025831183 0.051938817 0.26926735
-0.19643702 -0.71174675 -0.52300906 -0.2106759 0.042286873 -0.005363179 -0.12334052 0.06442236
0.07210464 0.038531326 -0.08347008 0.031793293 0.19035739 -0.08630447 0.33899766 -0.029553585
0.40658668 0.06553761 0.010022372 -0.008676765 -0.32959354 0.13442045 -0.0149938045 -0.6999143
0.26179066 -3.3761888 0.0053813667 -0.20338482 -0.13638492 -0.6247217 0.09681406 -0.64676124
-0.05124236 0.22156802 -0.63405466 0.36052525 0.112019435 -0.08826668 0.25472152 0.39061412
-0.11561581 -0.060617283 -0.5910637 0.08140469 -0.08277044 0.06027333 0.023197431 -0.033904467
-0.1564632 0.34676495 0.26710126 0.04193413 -0.94051284 1.1217179 0.014954013 -0.028337445
0.000855163 -0.003863825 0.01648727 -0.032630257 0.08964075 -1.6996331 -0.72427297 0.029785013
-0.30582544 -0.045612022 -0.36585894 -0.5163921 -0.504127 0.012323468 1.0747268 -0.015035046
0.041685235 0.5239659 -0.08255409 0.078184046 -0.37570104 0.67276144 0.0444852 -0.020297488
0.9111314 -0.05975838 -0.066321425 0.38547748 0.22295927 -0.0776462 0.0077478937 -0.074998885
-0.044296604 -0.03853959 -0.5621828 -0.05361687 -0.09589444 -0.256345 0.41868395 -0.042256445
0.047448017 0.1090195 -0.059820868 0.034566913 0.0107054785 -0.27662995 -0.2613219 0.057728298
0.03545503 -0.048971318 -0.00031985593 -0.39783368 0.77801734 -0.2639842 -0.034744844 -0.50908244
0.028614338 -0.037931383 -0.08772341 -0.005680196 -0.5687593 -0.19008443 -0.7351327 -0.02622281
0.046102528 -0.4519012 0.08315372 0.39095584 -0.44485757 0.21689786 -0.04089014 -2.2463968
-0.48358425 -1.7124393 1.4679205 0.10447321 0.02900931 -0.03548992 0.09274469 0.076924644
-0.050341252 0.15015309 0.11885228 0.08145746 -0.023410078 -0.03754768 0.6599659 0.005732713
0.9809617 -0.037119135 0.054177508 0.06069498 0.0741928 -0.06940509 0.007164798 0.025948226
0.19077931 0.8047698 -0.085431434 0.18399708 0.41581848 0.14323352 0.06581708 0.3127795

gnn_node.convs.0.mlp.0.bias f4 [256]
00000000: e25e abbd f0a0 65bc 4827 ec3c 1463 353a
00000010: 82b7 71bd 12e6 c2bb 8710 153b e05b 993d
00000020: f641 8cbd 90ad 193d f3c7 123d c038 8ebd
00000030: 16a6 89bd 6d6b 38bd 464e f03c 24de 883d
00000040: 7f19 303d f3f7 40bd b1c5 89bc 7f95 5abd
00000050: ee2b 7e3d 321e 823d e4b7 a0bc 1ad6 3fbd
00000060: e23b 19bd e160 523d 391d a6bd 8c20 723b
00000070: d258 143d 0ba6 a7bd f0e2 323d 4466 aebd
00000080: c3f9 5ebd bf62 943d 518b 76bd 8ad7 823d
00000090: fb69 b23d ce0e cfbb 4e20 5fbd a435 71bd
000000a0: ce0d 86bb 7f2d c2bc cabe 4cbd 6eda 103d
000000b0: ab46 babd 8f60 993d 6c42 443d 4c7b 363d
000000c0: db0f 7dbc 0a02 59bc ee6a 943d ff89 a33d
000000d0: a358 a5bd c8db b23b 1e90 5d3d 1aea 103c
000000e0: 5f20 7d3d bf56 a23d 1726 91bc 0d39 063c
000000f0: f5e1 86bd d7bd 903d 50aa 183a f8ac 093d
00000100: 72f2 a2bd 1b0c 6c3d e714 183c 1aeb 09bd
00000110: 0a7e 43bd 9d12 9ebd 9d91 903d 0693 dd3c
00000120: 6cb3 103d a49b 60bd 80cf 903d 2642 9abc
00000130: a998 9c3d b34d 80bd 05b0 21bc 814e 5f3d
00000140: 60fc 84bd b410 13bd 10c4 04bd d38a 333d
00000150: 3d24 953d d663 233d 1577 ad3c 19f3 d3b8
00000160: 9824 3cbc 368b 89bd 6c83 afbd 0a4e 09bd
00000170: 973e cabb f1fa 26bd 8201 35bc 8852 ea3c
00000180: 375a f53c 59e4 093b 05a9 133d e96f f33a
00000190: a69a 8e3a 8dc3 b0bc 7509 46bd 321f 83bd
000001a0: 54f9 8c3d 15ce 1a3d f634 ff3d 52b6 98bd
000001b0: cb58 62bd 2146 82bd 9a9f 6abd 0957 563d
000001c0: 72a6 e6bc f0a5 983d 1d82 903d 225b 97bd
000001d0: de56 923d 0baa 843d 04b0 a9bb 665f f4bb
000001e0: 350f 3d3c c0bf 3ebc baa1 593d 688a 45bd
000001f0: 05f2 a6bd 8a01 42bd 04d1 84bd 68cb 773d
00000200: 7978 45bc f437 343d 13c5 a8bd ba66 a3bd
00000210: 92aa 583d 0c39 af3d c770 273d 6827 76bd
00000220: bf8e 6c3d a8fb 47bd 2802 dc3c b67f 783b
00000230: 849d 463c aa8e 3e3d 9e5e 86bd 4732 a2bd
00000240: 4dd1 5abc c5e4 833d 96ee 5e3d a0e1 14ba
00000250: fc2d 603d 7313 96bd aa4d 5b3c fe1b 8b3d
00000260: d9bd b73d 6b47 1dbc dc50 6abd eb6a 0c3b
00000270: d1e5 263d bc12 1d3d 9bfa 533d 421e 85bd
00000280: 4a91 1d3a d11b 833d 47de 413d f55c b1ba
00000290: 31ed 37bd d977 5f3c 98eb 7fbd 20b3 ff3c
000002a0: 75a7 583d 02c8 3b3d a8b5 81bd e68a 323d
000002b0: 25c3 6a3d 02ac 84bc 4d35 1dbd 1a4b 94bc
000002c0: 0bdd 74bc da2c b2bd da85 3a3d 6c26 04bd
000002d0: 4612 2c3b 3e6b d4bc 2d67 3e3b 7af2 8cbc
000002e0: 420f 4c3c 3a61 243a 118a d83c f7fd abbd
000002f0: cc15 a63c dab1 48bd 84c8 6f3d f13c c33c
00000300: aefb b53d b6ea b33d f651 38bd 7f01 b5bd
00000310: 76ea 95bb c8fe c73d e47c 41bc 6a37 98bd
00000320: fbf6 d8bc 5f4e b4bd 6336 6ebd 5632 e53c
00000330: 4b08 aabd 7581 583c b743 ce3c 04f2 57bd
00000340: e8b4 2b3d 6a23 653c df2f 8fbd 843c 8d3d
00000350: fbde 98bc 98f6 a2bd aac1 433d 3a80 eebc
00000360: ef47 8c3d 0a71 523c 81f4 8dbd c913 a7bd
00000370: 5070 853c 3e89 303c 6176 703c f335 dcbb
00000380: 1621 40bd 0b63 0d3d 3483 5b3c 0fd0 803d
00000390: 3001 293d aed0 223d b5f9 4fbd dd7a a33d
000003a0: c264 733d 71e8 ff3c 3cdd 963d e2e1 a9bd
000003b0: 52fb 75bd 0692 943c b802 633b 6432 e536
000003c0: aabd 713c 2788 1b3d bcfc 4ebd b4f0 a1bc
000003d0: 5804 8d3d ee90 583d 0135 b43d 377a 743d
000003e0: 3f2a 3bbd 3430 04bd 3a8a 2bbd f55b 93bd
000003f0: d8d6 38bd fa5e 1ebc 0118 263d 89ba 1f3d
-0.08367707 -0.014015421 0.028827325 0.0006919366 -0.059012897 -0.0059478367 0.0022745447 0.07488227
-0.068485186 0.037519038 0.035835218 -0.06944418 -0.067211315 -0.045024324 0.029334199 0.06682995
0.042993065 -0.047111463 -0.0168179 -0.053365227 0.062053613 0.063534155 -0.019618936 -0.046835043
-0.037410624 0.051361922 -0.081110425 0.003694567 0.03621752 -0.08185967 0.043673456 -0.08515599
-0.05443741 0.07245397 -0.060191456 0.06388767 0.087116204 -0.0063189035 -0.054474168 -0.058889046
-0.004091001 -0.023703335 -0.049986638 0.03536456 -0.0909551 0.0748912 0.047914907 0.04455118
-0.015445675 -0.013245115 0.07246958 0.07985305 -0.08073547 0.005458329 0.05409252 0.008844877
0.06179845 0.07926702 -0.017718358 0.008192313 -0.06586067 0.07067459 0.00058237184 0.03361222
-0.07956399 0.057628732 0.009282327 -0.033671476 -0.047727622 -0.07718394 0.070590235 0.027047645
0.03532736 -0.05483593 0.070708275 -0.01883037 0.07646305 -0.0626482 -0.0098686265 0.054518227
-0.06493449 -0.0359046 -0.032413542 0.043833565 0.072823025 0.039890133 0.021174947 -0.000101065445
-0.011483334 -0.067160055 -0.085699886 -0.03352169 -0.006172012 -0.04076666 -0.011047723 0.028603807
0.029950244 0.0021040647 0.03604986 0.001857278 0.0010879829 -0.02157762 -0.048348863 -0.064024344
0.06883493 0.03779419 0.12461273 -0.0745665 -0.05526046 -0.06361032 -0.057281114 0.052329097
-0.02815554 0.07453525 0.07056067 -0.07390429 0.07145475 0.064777456 -0.0051784534 -0.0074576614
0.01153927 -0.011642396 0.05313275 -0.048227698 -0.0815163 -0.04736475 -0.06485179 0.060496718
-0.012052649 0.043998674 -0.08240714 -0.07978578 0.052897044 0.08555803 0.040879037 -0.060096174
0.05775332 -0.048823982 0.026856497 0.0037917919 0.012122516 0.046522774 -0.065610155 -0.07919746
-0.013355565 0.06440119 0.054426752 -0.00056793727 0.054731354 -0.073279284 0.013385216 0.067924485
0.089717574 -0.009599547 -0.05720602 0.0021426033 0.040746514 0.038347945 0.051752668 -0.06499912
0.00060107245 0.0640179 0.04733112 -0.0013531732 -0.044903938 0.013639414 -0.06248054 0.031213343
0.052894074 0.04584504 -0.06333476 0.043589495 0.05731501 -0.016195301 -0.03838091 -0.018102217
-0.014945279 -0.08699961 0.045537807 -0.032263204 0.002625601 -0.025930043 0.0029053197 -0.017205466
0.01245481 0.00062705914 0.026433023 -0.08398049 0.020274065 -0.048997737 0.058540836 0.02383277
0.08885895 0.08785002 -0.04500004 -0.08838176 -0.004575069 0.097653925 -0.011809561 -0.074324444
-0.026484957 -0.088040106 -0.058157336 0.027978104 -0.08302363 0.013214459 0.025178773 -0.05272104
0.041920573 0.013985494 -0.069915526 0.06896308 -0.018661013 -0.0795719 0.047792114 -0.029113878
0.06849658 0.012844333 -0.06931401 -0.081580706 0.016288906 0.010774909 0.014676661 -0.0067202984
-0.046906553 0.034518283 0.0133979805 0.06289684 0.041260898 0.039749794 -0.05077525 0.07982419
0.059422262 0.031238766 0.07366416 -0.08295037 -0.06005413 0.018136036 0.0034639072 6.830598e-06
0.014754692 0.037971642 -0.050533995 -0.019768097 0.06885594 0.05287259 0.08799172 0.059686866
-0.045694586 -0.032272533 -0.04187987 -0.07195274 -0.045126766 -0.009666199 0.040550236 0.038996253

gnn_node.convs.0.mlp.1.weight f4 [256]
00000000: 036d cf3f 3b78 463f 4bc7 143f dbaa 0c3f
00000010: 992f e53e 221d b73f d2e6 a33f 2d66 203e
00000020: 0bfb d63f ffcc b83f 6bbe 443f 7d99 953f
00000030: 65e2 1140 fd9b c43e b530 8f3f 1173 843f
00000040: 96d6 c03f 32ae 083f f957 e23e d7a9 973e
00000050: 9562 603e c759 c13f 35b8 9d3f af70 283f
00000060: a4c3 0c3f e933 b53f 37dc a63f 9945 3e3f
00000070: f5b9 da3f 15a7 8d3f f69d 8b3f 7d96 7c3f
00000080: 1de7 b83e 9c44 dd3e 7fc1 503b 1a9a ce3e
00000090: 1ec6 a4bb 99e5 2b3f cf7f 303e 4d50 f2bc
000000a0: d860 f33f 78a2 8c3f ca46 0340 afdb 9b3f
000000b0: b676 c93f b84a 123f e5b6 d83f 642e b13f
000000c0: 8538 873e b855 f13f bb64 0a3f d8a9 a73d
000000d0: 79c5 913e 92c8 c13f 6657 333f 827a 943f
000000e0: 3ed9 733f 19af 253f 9f4b 993e d3b0 8e3e
000000f0: 77a5 6a3f 278c 7b3f ffba bf3e 5a8c 2040
00000100: f67d 3a3f b6fe 733f 61ea 2f3c b1ea ac3e
00000110: 3d8b 993e 7ac7 f83e 68d5 0640 35be 663f
00000120: c952 a93e f19d 5d3e 1ef4 2d3f 4fb7 b13f
00000130: bb23 4e3c f852 6c3e 3474 ac3f d3dc eb3f
00000140: b9e5 fd3f 2ddd 913f abc2 b33f 4a5c a33e
00000150: 0154 ac3f bc33 0b40 5f84 ba3f dca9 d63f
00000160: df6f b43f de4c b23e 5945 9d3f 2da6 d23f
00000170: 263c 0640 d37b ac3f 65d4 ec3f 9927 403d
00000180: 5bc7 643e cb35 013f e5c2 c43f 5e83 9c3f
00000190: 1e8f fc3f 0806 993f e44f 533f e9a7 223c
000001a0: 5895 d23f 1d9c 033f b84a d23f 6663 df3f
000001b0: 74a7 dcbb b0ce 893e 3132 8f3f 3d59 d33f
000001c0: 2287 3a3e 1fcb 373f b633 6d3f ae43 a53f
000001d0: 01ba 873f 0283 ca3f ddef 593f f5bd 8b3f
000001e0: 0b0c 743f 04ac df3f 3965 b63c 652a a23e
000001f0: c1d3 8d3f c491 0040 3b4d a93f a4ee b13f
00000200: ef8a 9e3f 173f 073f c8bd 1740 8898 d13f
00000210: 3872 153f fa12 5a3f 6846 c53f 4251 de3e
00000220: ce91 053e c0a5 e73f 9779 9c3f 06d4 0a3f
00000230: ca62 2ebd 1575 bb3f 0683 a73f dedf 673f
00000240: f40d 0c40 07c9 863e 0c72 0440 fc6e 193f
00000250: 1085 c93f bb74 bc3c c0a3 673e bd46 063e
00000260: a0ee a63f 180d 7a3e 8c30 933f 412e b03f
00000270: 4f2c d73f 7ffb 6c3f 3b47 9f3f afe3 ab3f
00000280: d9a2 ac3f 82f2 be3f 1acb 513f 1c35 d43f
00000290: c435 803e 01ed 6d3f fb45 ff3f 9b55 3b3e
000002a0: ecb2 dd3f f59f 063f 3f96 ab3f f871 103e
000002b0: c87d 1b3f 7586 203f 200d b83f 947e 2d3f
000002c0: 5299 793f a68a de3f fb6a 443d 0808 493f
000002d0: a0b7 9638 2cba d23f ad89 163e 8ece 673f
000002e0: 690e 983f 2993 a43f 81b1 d13f 9ca5 b33f
000002f0: 1b94 8f3b 894d d23e ca27 973f c985 dd3e
00000300: 16df cb3f a1e3 953f 7314 e2ba 07cd 5b3b
00000310: 6db6 bc3f 1699 b33f ffea 053f 48c5 063f
00000320: 410e 253f 9bdd 853f 5f37 c43f 47d2 dc3f
00000330: 6ae1 d03f c839 ea3f ff7b ad3f f870 f83e
00000340: 970d 873f 4d9f 623f 3e90 f93f 760c 323f
00000350: a136 3b3f 75b8 ff3e de2a 823e c6e4 723e
00000360: bed3 433f ca3e cc3e 5a95 b43f 0bdb b53e
00000370: 2879 023f 5bda 2d3e e340 8e3f 96f2 143f
00000380: 1c5f a73f c89a ef3f 1730 df3e d6c1 283d
00000390: 7a5b 873f 7f63 4c3e a50a 593f ec02 1b40
000003a0: 5576 a63f 9165 c03f 1b90 cf3e 0b14 a13d
000003b0: 5437 ac3f aad0 c63f 7c0a 873f 6098 cd3f
000003c0: c687 223f 9c5c 1940 1fd1 9b3e 6c1c a13f
000003d0: 770a 0640 6289 7c3e 45a8 f53f 93b7 863e
000003e0: 87b7 1340 4f04 8a3e cfac 393f f4e5 563f
000003f0: c36d 5f3f 2926 8b3f cf4f cd3e c8dd be3f
1.6205143 0.7752721 0.58116597 0.54948205 0.44762877 1.4305766 1.2804816 0.15663977
1.6795362 1.443756 0.76853055 1.1687466 2.279443 0.3840026 1.1186739 1.0347615
1.5065486 0.533908 0.44207743 0.29621765 0.21912606 1.5105523 1.232184 0.6579694
0.54986024 1.4156467 1.3035954 0.7432495 1.7088 1.1066614 1.0907581 0.98667127
0.36113825 0.43216407 0.0031853614 0.40351945 -0.0050285 0.67147213 0.17236255 -0.029579306
1.9013929 1.0987082 2.0511956 1.2176417 1.5739353 0.5714526 1.6930815 1.3842282
0.26410308 1.8854284 0.5405995 0.08186692 0.28470972 1.5139334 0.70055234 1.1599886
0.9525336 0.647203 0.29940507 0.2786928 0.9165873 0.9826073 0.37447354 2.5085664
0.7284845 0.95310533 0.010737033 0.33772805 0.29989043 0.4858969 2.1067753 0.9013398
0.33070973 0.21642281 0.6795062 1.3884066 0.012581761 0.23078525 1.3472962 1.8426765
1.9835731 1.1395622 1.4043783 0.31906348 1.3463136 2.1750326 1.4571646 1.6770587
1.409664 0.3482427 1.2286788 1.6456963 2.0974212 1.3475288 1.8502318 0.046912763
0.22341673 0.50472707 1.5371977 1.222759 1.9731176 1.1954966 0.8254378 0.009927728
1.6451826 0.51410085 1.6429052 1.7452209 -0.006733829 0.26915503 1.1187192 1.6511608
0.18215612 0.71794313 0.9265703 1.2911279 1.0603639 1.582123 0.8513163 1.0917345
0.95330876 1.747437 0.022265064 0.3167297 1.1080247 2.0088968 1.3226694 1.3900952
1.2386149 0.5283064 2.3709583 1.6374674 0.5837741 0.85185206 1.5412111 0.4342137
0.13043901 1.8097458 1.2224606 0.5422977 -0.04257468 1.4645106 1.308686 0.9057597
2.1883516 0.26325247 2.0694609 0.59934974 1.5743732 0.02300488 0.2262106 0.13112922
1.3041573 0.24419057 1.149919 1.3764116 1.6810397 0.9257125 1.2443613 1.3428859
1.3487197 1.4917758 0.81950533 1.6578708 0.2504102 0.92939764 1.9943231 0.18294375
1.7320228 0.52587825 1.3405226 0.14105976 0.607388 0.62705165 1.4379005 0.6777127
0.97499573 1.7386062 0.047953587 0.7852788 7.18676e-05 1.6463065 0.14700957 0.9054955
1.1879398 1.285741 1.6382295 1.4034915 0.004381669 0.4107478 1.1809018 0.43266132
1.5927455 1.1710092 -0.0017248526 0.0033538954 1.4743172 1.4031093 0.523117 0.5264478
0.64474875 1.0458254 1.5329398 1.7251672 1.6318791 1.8298883 1.3553466 0.48523688
1.0551022 0.88524324 1.9497144 0.69550264 0.7313023 0.49945417 0.2542333 0.23720083
0.7649497 0.39891654 1.4108078 0.3551868 0.5096612 0.16977827 1.1113552 0.58182657
1.30759 1.871911 0.43591377 0.04120048 1.0574791 0.1995983 0.8478187 2.4220533
1.3004862 1.5030996 0.4053963 0.07865151 1.3454385 1.5532429 1.0550075 1.6062126
0.63488424 2.3962774 0.30432984 1.2586799 2.0943887 0.24661782 1.9191977 0.2631193
2.3080766 0.26956412 0.7252931 0.8394463 0.8727686 1.087102 0.40099952 1.4911432

gnn_node.convs.0.mlp.1.bias f4 [256]
00000000: 770a 3b3f 941c 19be 1b9d afbe 5e14 3fbf
00000010: 5994 04bf 1e57 f5be 1213 0bbf 3824 73be
00000020: 95c2 08be 1056 2e3e 2580 8bbe d02b cebe
00000030: bd1a 303e 00c7 8fbe a3c4 38be 0f19 31be
00000040: 51ff c8be 66e4 8bbf cfa0 c6be fbc4 0cbf
00000050: 53a1 1cbf b1eb 01bf 75fe 69be 794f 9f3b
00000060: 81b4 583d 238c aebe 0aa3 0cbf 8475 2a3e
00000070: 26b6 a4bd 7a31 23be 0269 02bf 5144 babe
00000080: 4f70 35bf 1713 50bf c7da f3bd b0f6 a2bf
00000090: e5c1 25be 2120 9fbf 4a0d 97bb 227e 07be
000000a0: f387 afbe 87b2 27be 68a1 cd3b 9aa5 b8be
000000b0: 2f48 0dbf 9e69 25bf 3d39 c3be c1d7 fabe
000000c0: a670 abbf 3fba 8cbe 744e 57bf e7a7 9fbf
000000d0: 833d 17be 8287 cfbe a1fe 46bd 2414 febe
000000e0: 1f06 b4be 0490 6fbf 6a84 973c 8626 f4be
000000f0: 286d 863d 2ad9 76be f48c 94be c416 b6be
00000100: c599 c73d 8c67 8a3b d0be cabe 0190 62be
00000110: 2d23 eebe 290d 10be 2bea 03be d8da 24bd
00000120: 672f cbbe 5b57 3cbf e0a9 51bd 28fa d1be
00000130: fce4 dfbe e722 71bf 48be 403f 3981 bbbe
00000140: 7e80 c5be 68fb d2be 401f b1be 485c ef3c
00000150: 19ba 2ebe 6c30 d6be 64d2 e4be 450f 03bf
00000160: 2b60 2b3d 9071 efbe 7532 a9be edb0 adbe
00000170: fe45 d5be ba74 8ebe de72 09be e46f a23d
00000180: ee38 d03e 5c90 78bf 103c 0abf f795 66be
00000190: fe7e 81bd 0acf b5be 3e9c 79bf f9c6 39be
000001a0: 1415 c3be 7b99 79bf 9638 6bbd f8ac ffbd
000001b0: b0fe f4be df9d a43e 1549 9a3e c0ff 373e
000001c0: 5c36 1abf 9cf6 d4be 9f5b 80bc 8c8e e8be
000001d0: d2a5 01bf 5b6d 06bf 60fd 26be 1b33 95be
000001e0: 5b28 c63d c8a3 05bf ce17 a0bd fe6b 2abe
000001f0: 814a 39be 65c5 07bd 5331 46be cdc8 ac3e
00000200: 55f5 e5be 605d 9abe 3a86 793d 0dce d6be
00000210: 8e6e 9fbe 2dca 433d 08a9 3cbe 3bd6 85bf
00000220: 6f41 1cbf eca5 413e bd7e 04bf c54b 54bf
00000230: 5134 1e3f 89fb 18bd 6451 d1be 1449 0b3e
00000240: 1672 3abe 499f 14bf 10b9 ccbd 87bd c0be
00000250: 259f ecbe 0480 07bf cb1d 09bf 598c 0d3e
00000260: af71 693d e76b 63bf 1bc7 863e ef92 f3be
00000270: 33de 08bf aef5 483e 2abb b6be f210 8dbe
00000280: be51 1d3a 8fea f5be 6e22 88be 3c36 90be
00000290: c52e 2ebf 327d ccbe d89f 853e 886e 17be
000002a0: 64ae a6be 3911 d9be e475 0abf ce99 00be
000002b0: baab 3ebf 425f 59bf 7bda 22be b0af 933f
000002c0: 5db4 b6be ac89 a9be 37f6 83bb 3e16 453f
000002d0: d061 81bd 038a d1be 4c3a 7fbf c99d eebe
000002e0: 2b9d 6cbe e020 413e f431 023f de9a 1ebe
000002f0: 5b66 ddbe dd9b 38bf 99c7 a83f 1c75 0cbf
00000300: 692a 09be 84c9 723c 4724 0f3f 1214 f4bd
00000310: d026 58be a4e1 05be 0e05 f3be 919b 65bf
00000320: 6931 873d 760d 31be 3351 cdbd d076 183e
00000330: acc4 cfbe d98f e5be 01b4 103f 02d9 e2be
00000340: e18c 0abf b162 c3be fa10 a0be f955 52bf
00000350: 1240 8ebf 42bf 13bf cdfc 37bf bc5f 5fbf
00000360: 46e3 97be ed86 2ebe a58e 02bf 27e8 17bf
00000370: 6c9d 4ebf 2124 52be 7dc8 10bf 4b6b 063f
00000380: bb00 debe d9b1 c13d 96a3 7d3b c6ee 57bf
00000390: c807 abbe e91e c0be 87af 53be e10b 2e3e
000003a0: e174 16bf 83e2 8ebe 9d17 15bf 0436 1cbf
000003b0: d18b 0ebf 16b5 fbbd 14d9 11bd d2b3 f6bd
000003c0: 97be e8be 36e3 fe3e eef1 bdbb b255 84be
000003d0: 6b14 96be 3d5a 43bf e010 e6be e062 5dbf
000003e0: 2e09 9e3c 6297 64bf e5a9 84bf a3c1 20bd
000003f0: 1244 553e c1d5 31be c755 77be 2067 00bf
0.73062843 -0.14952308 -0.3429955 -0.7464045 -0.5178886 -0.47918028 -0.54325974 -0.23744285
-0.13355477 0.17025018 -0.27246204 -0.402678 0.171977 -0.28081512 -0.18043761 -0.17294715
-0.3925729 -1.0929077 -0.38794562 -0.5498807 -0.6118366 -0.5075026 -0.22850974 0.004861769
0.052906517 -0.3409129 -0.5493628 0.16646391 -0.080425546 -0.15936843 -0.5094148 -0.36380246
-0.70874494 -0.8127913 -0.11906963 -1.2731533 -0.16187246 -1.243168 -0.0046097385 -0.1323171
-0.3428341 -0.16376697 0.0062753446 -0.36063844 -0.5518827 -0.64614284 -0.38129607 -0.48992732
-1.3393753 -0.27485844 -0.84104085 -1.2473115 -0.14769559 -0.40533072 -0.048582677 -0.4962474
-0.3516092 -0.93579125 0.018495757 -0.4768564 0.06563789 -0.24106279 -0.2901379 -0.35564244
0.09746126 0.0042237695 -0.39598703 -0.22125246 -0.46511212 -0.1406752 -0.12882297 -0.04024777
-0.39684603 -0.73570794 -0.051187396 -0.41011167 -0.4372939 -0.9419388 0.75290346 -0.36622027
-0.38574594 -0.41207433 -0.34594154 0.029218808 -0.17063178 -0.41833818 -0.44691765 -0.51195174
0.04183976 -0.4676633 -0.33046308 -0.33924046 -0.41654962 -0.2782343 -0.13422725 0.07931498
0.40668434 -0.97095275 -0.539979 -0.22518145 -0.0632305 -0.3550952 -0.9750403 -0.18142308
-0.3810202 -0.9749982 -0.05742701 -0.12484163 -0.4785056 0.32151696 0.30133882 0.17968655
-0.60239196 -0.41594398 -0.015668688 -0.45421255 -0.50643647 -0.52510613 -0.16307592 -0.29140553
0.09675666 -0.52203035 -0.078170404 -0.16642758 -0.18094827 -0.033147234 -0.19354753 0.3374695
-0.44913736 -0.30149364 0.060919024 -0.4195408 -0.31139034 0.04780023 -0.18423855 -1.0456003
-0.61037344 0.1891095 -0.5175589 -0.82928115 0.6179858 -0.037349258 -0.4088241 0.13602096
-0.18207583 -0.5805555 -0.09996235 -0.37644598 -0.46215168 -0.5292971 -0.53561085 0.1382307
0.056993183 -0.8883652 0.2632378 -0.4757304 -0.5346405 0.1962497 -0.3568967 -0.2755199
0.0006001255 -0.48030517 -0.26588768 -0.28166378 -0.68040115 -0.39939266 0.26098514 -0.14788258
-0.32554924 -0.42395952 -0.54086137 -0.12558672 -0.74480784 -0.84910977 -0.15903656 1.153799
-0.3568448 -0.33112848 -0.004027154 0.76987064 -0.063174844 -0.40925607 -0.9969833 -0.46604756
-0.2310683 0.18860197 0.5085747 -0.15488765 -0.43242154 -0.7211283 1.3185912 -0.54866195
-0.13395084 0.014818553 0.5591473 -0.119178906 -0.21108556 -0.13074356 -0.47464794 -0.896905
0.06601221 -0.17290291 -0.10025253 0.14889073 -0.40579736 -0.4483631 0.56524664 -0.4430619
-0.54121214 -0.38161233 -0.31262952 -0.82162434 -1.1113303 -0.5771371 -0.7187012 -0.87255454
-0.29665583 -0.17043658 -0.5099891 -0.5933861 -0.80708957 -0.20521595 -0.5655592 0.52507466
-0.43359932 0.0945775 0.003870224 -0.84348714 -0.33404374 -0.37523583 -0.20672427 0.16996719
-0.58772093 -0.2790719 -0.58239156 -0.6101992 -0.5568209 -0.12290399 -0.035607412 -0.12046017
-0.4545791 0.49782723 -0.0057966625 -0.2584663 -0.29312453 -0.7630957 -0.4493475 -0.86478996
0.019291487 -0.8929349 -1.0364348 -0.039247166 0.20826748 -0.17366697 -0.24153815 -0.50157356

gnn_node.convs.0.mlp.1.running_mean f4 [256]
00000000: d7ef 5040 be7f 34bf 9d51 84c0 7218 a240
00000010: c458 343e 84f6 113f 4ede 78c0 fe6d a8bf
00000020: 444f 2940 546f 5ebf a5ca bfbf 9bf3 d7c0
00000030: e04d 9c3f fe6f a5bf dc27 153f 2364 7440
00000040: 5185 d9bf 7d26 b43f 0ac8 c8bf 5e7b 92c0
00000050: 46bc 21c0 4b47 7bc0 5f67 7440 4880 0940
00000060: 8365 82c0 ccb0 0bc0 e586 bac0 6479 c640
00000070: d60b ffc0 49c9 e1bf 1112 9fc0 8391 0f40
00000080: 07b7 963e 4c68 c040 bc67 ea3f dcb5 c840
00000090: 9fbf 8340 638c e740 1fe8 d53f 444d 1f40
000000a0: 2725 25bf eb1a 13c0 df49 ca3f 7c8f f0bf
000000b0: 4b91 c7c0 93ed 1d40 aeda 6fc0 765f 4dc0
000000c0: a245 7440 d370 8ac0 b5b5 c140 ff02 c540
000000d0: e29c 5dc0 e428 9dc0 c345 b53f c396 85c0
000000e0: 1c0a 96c0 5083 84c0 8ee5 ca40 8bd9 94c0
000000f0: ff22 2fc0 269d dcbf 2247 ccbf 494d abc0
00000100: 3a6b 9840 2ef3 603f f06c d33f 2c19 0ec0
00000110: 8ac7 513f 650d 583f 9536 dabe 7a2e c8bf
00000120: c913 91bf 0ba1 4040 5fa6 b3be 7a98 96c0
00000130: 89a1 05bf af4b df3c f588 ad40 ed07 8e40
00000140: c2e2 30c0 d5f0 17bf b033 0bc0 b028 ae40
00000150: 099c 32bf 7ae0 90bf 5a4a 61c0 2256 4b40
00000160: 5301 903e f4af 66c0 e8a9 fd3f 69be 57c0
00000170: 0b3b 80c0 8812 db3f 7734 8d40 382b 0e40
00000180: 9490 1d40 456f a540 8471 92c0 b98a 56c0
00000190: 9287 57bc 228b 0bc1 a2c8 1e3d 581b 8f3f
000001a0: b3c2 d33f abf4 0641 509c 98bf 73ff 17c1
000001b0: 69aa 2440 f475 c83f 9c7a 2340 7230 51c0
000001c0: 48c1 0cc0 dd1e 49c0 2338 04bf 7499 523e
000001d0: e4a4 dcbf eab4 bac0 a3c4 2cc0 5431 a9bf
000001e0: 18ef 59c0 7c90 82c0 9355 7840 0eae fdbf
000001f0: 76de d840 9354 0ec0 929d b7c0 ded5 2abf
00000200: 2f30 1cc0 8e59 91c0 a00c ce3f c2c0 1bbf
00000210: 7a43 b1bf ccac fa3f 6a97 0d3f e98d 9f40
00000220: 0958 ffbf b2d2 efc0 a7b5 d6c0 a765 5f3e
00000230: cbee ef3f 3736 2c40 22b4 aec0 ac81 9ebf
00000240: 6a7d bd3f 1c10 853f ec26 1f3e 01a7 63c0
00000250: ec27 6ac0 2114 0fc0 45b1 ba40 8b96 a640
00000260: 62c5 c7be 15fe 1140 744b 1840 9ba2 d9c0
00000270: a722 9fc0 6f84 36bf 08c8 32c0 186b 873e
00000280: c68d e8c0 f9eb a5c0 6ace 6ec0 90a8 cfbf
00000290: 95b1 02c0 b9fc cdc0 1509 9ebf 8e9e fbbf
000002a0: 5b53 0840 07ea 533f f107 bec0 9b03 b140
000002b0: 884e 9940 3719 6240 f1a2 40c0 d7af 1fc0
000002c0: 125a 0cc0 bf5c c0bd 3d97 04c0 695c b2c0
000002d0: 77b5 8f3f 8962 5cc0 a14d babe a57d c3c0
000002e0: ae5e e83f bc86 1b40 7539 cb40 812f c540
000002f0: ce3a 6640 b1b1 fd40 6dc0 8dc0 2be4 b9bf
00000300: 2e53 8a40 125d 403f 553c a440 0196 5040
00000310: cbe7 943f e9d0 5640 68cc 8f3d 0ec1 47c0
00000320: 9da8 3d40 7896 a5be 5c97 8cc0 5880 f6bf
00000330: 5509 02c1 17b7 623e a675 ba40 9760 283e
00000340: 72ef 93c0 6326 a6bf 8791 053f 7132 9a40
00000350: 0be9 b240 b782 b4c0 bb23 0a40 7467 85bf
00000360: 8304 dbc0 bb2d c93f f950 b9c0 660f 12c0
00000370: 1935 1241 8a06 01c0 cd09 40c0 9238 403f
00000380: c48c 64c0 6aae 00c1 e366 9b40 34d0 8d3f
00000390: 6ee0 c0c0 0c83 85c0 ec3f a13f 30c1 3541
000003a0: f4e3 14c1 2d74 acbf f06b 9440 7daf fe3e
000003b0: 0a36 88c0 f321 8fc0 9834 0c40 ae00 9ebf
000003c0: 4792 94c0 2918 2741 b736 a2c0 41fd 57c0
000003d0: 3d8d 3a3f 1978 92be bd84 22c0 3f9e 603e
000003e0: 3d26 d9c0 d566 a140 e00d c340 39f4 3a40
000003f0: 5d9f 033f 1bd7 06c0 08b5 a3be f5b1 ec3f
3.2646387 -0.7050742 -4.1349626 5.065484 0.17611986 0.5701678 -3.8885684 -1.3158567
2.645463 -0.86888623 -1.4983717 -6.748487 1.2211266 -1.2924802 0.58263946 3.8186119
-1.699381 1.4074246 -1.5686047 -4.5775595 -2.5271163 -3.9262264 3.8188093 2.1484547
-4.0748916 -2.1826658 -5.8289666 6.202318 -7.970195 -1.7639552 -4.9709554 2.2432563
0.29436514 6.0127316 1.8312907 6.2721996 4.1171412 7.235887 1.6711463 2.489091
-0.64509815 -2.298518 1.5803794 -1.8793788 -6.236486 2.4676254 -3.7477221 -3.2089515
3.81675 -4.3262725 6.053431 6.1566157 -3.4627004 -4.9112415 1.4161915 -4.1746535
-4.688734 -4.1410294 6.340522 -4.6515555 -2.736511 -1.7235458 -1.5959208 -5.353184
4.763089 0.8787106 1.651762 -2.2202864 0.819451 0.8439544 -0.42619768 -1.5639184
-1.1334163 3.0098293 -0.3508787 -4.706113 -0.5219961 0.027257768 5.4229684 4.4384675
-2.7638402 -0.59351856 -2.1750298 5.4424667 -0.6976934 -1.1318505 -3.520163 3.1771321
0.2812601 -3.6044893 1.9817476 -3.3709967 -4.0072074 1.711503 4.4126544 2.2213879
2.4619493 5.1698327 -4.576357 -3.352217 -0.013154881 -8.721468 0.038765557 1.118022
1.6543792 8.434733 -1.1922703 -9.499866 2.572901 1.5660996 2.5543585 -3.2685819
-2.199297 -3.1425087 -0.5164816 0.2056635 -1.7237821 -5.834584 -2.6995018 -1.3218179
-3.4052181 -4.0801373 3.880223 -1.9818742 6.777156 -2.223912 -5.7379847 -0.66732585
-2.440441 -4.542182 1.6097603 -0.60841 -1.3848717 1.9583983 0.55309165 4.986073
-1.9948741 -7.4944696 -6.7096744 0.21816121 1.8744749 2.690809 -5.459489 -1.2383323
1.4803898 1.0395541 0.15542191 -3.557068 -3.6586866 -2.2356036 5.8341393 5.205877
-0.3901778 2.281133 2.3796053 -6.8010993 -4.97298 -0.7129583 -2.793459 0.26448894
-7.2673063 -5.1850553 -3.7313485 -1.6223316 -2.0420887 -6.4371 -1.2346522 -1.9657762
2.1300876 0.8277897 -5.9384694 5.53169 4.7908363 3.532789 -3.0099452 -2.4951074
-2.1929975 -0.0939269 -2.0717309 -5.5737805 1.1227254 -3.443514 -0.3638735 -6.1090875
1.8153894 2.4300985 6.350764 6.162049 3.5973392 7.927941 -4.4297395 -1.4522756
4.322654 0.75142014 5.1323647 3.2591555 1.1633238 3.3565009 0.07021409 -3.1211581
2.9634163 -0.3234136 -4.3934765 -1.9257917 -8.127278 0.22140156 5.8268614 0.16443096
-4.622979 -1.2980465 0.5217518 4.8186574 5.5909476 -5.6409564 2.1584308 -1.0422196
-6.8443007 1.5717081 -5.7911344 -2.2821898 9.137963 -2.016024 -3.0005982 0.7508632
-3.5710917 -8.042582 4.8563094 1.1079164 -6.027396 -4.172247 1.2597632 11.359665
-9.305653 -1.3472954 4.638176 0.49743262 -4.2565966 -4.472894 2.19071 -1.2343957
-4.642856 10.443398 -5.069179 -3.3748324 0.7287176 -0.28607252 -2.5393517 0.21935366
-6.7859178 5.0438027 6.0954437 2.9211562 0.51415044 -2.106879 -0.31974053 1.8491808

gnn_node.convs.0.mlp.1.running_var f4 [256]
00000000: d210 dd42 48e0 b541 241a b041 3838 a942
00000010: 5f20 8241 350c 5042 c32c 2a42 0b32 d741
00000020: 7661 3e42 9e9c e541 032f 0143 7002 6142
00000030: 48ae 6343 bd36 9642 fc8a e942 6bef 1042
00000040: 8a6f 1942 e59b 3642 7950 2441 cd40 7042
00000050: 7acf 4142 57d6 2b42 3abf 3642 fb65 d241
00000060: 783f 9341 6850 e341 8272 4e42 7ce4 2142
00000070: 0ba7 3242 278d e741 228b c942 6a94 c142
00000080: b4c1 5242 b28f d742 abe3 0741 6919 8341
00000090: 2e62 0142 0c82 3242 a47c da41 8921 9a41
000000a0: c3bd f242 5023 9241 496b 8442 0726 9341
000000b0: 7250 c542 9a67 b442 5bd0 e841 7be2 8f42
000000c0: cd7a ed41 b8b1 d341 54a4 b841 b9e1 1842
000000d0: 1468 7941 2c71 cf42 f8db f342 bfa0 7742
000000e0: d58c b842 64a5 4841 87bc 4142 3ff0 3242
000000f0: b820 0641 833a 7a42 517c b240 c9d6 1e43
00000100: f914 0a42 3780 1f43 57cd ba40 bfe8 3242
00000110: 3cc3 6b41 5f2c ef41 35c8 9c42 b061 3a41
00000120: 8f39 5b42 a326 1f42 a7ad 1b42 6e9b ca41
00000130: c150 2742 ed20 1642 b7c2 0f43 ab18 6f42
00000140: 426d e742 443f 1f42 c05a b542 189f 4e42
00000150: a3a2 b341 ab53 5642 5e45 e342 03fb 3d42
00000160: 98d5 2d42 2029 cf41 4e80 8142 b5c7 0342
00000170: ac31 9a42 bd0b 9742 010b e342 88ee 6f41
00000180: c53d f641 c125 a142 4161 aa42 1d52 1742
00000190: 84f8 4743 2a0a 4c41 9511 5142 90b7 0141
000001a0: 5d1b 8b42 aa1a 8942 bdb7 d041 daa9 6542
000001b0: 52fd 8a41 c574 3e42 c4cc 4742 8782 7e42
000001c0: bdae 3542 508b 9642 7151 cc41 fedd 7a42
000001d0: 4e06 8441 8286 bb42 ad39 a542 d80c 9342
000001e0: 6cfe 8b42 f147 4143 2212 4f42 40bd 9d41
000001f0: 1540 1a42 171d 2042 53d0 c741 df7f f742
00000200: 5a30 d041 0dde 3842 0034 4943 4d0b 7d42
00000210: 92e0 a042 45d3 a441 6496 1443 d1a1 4942
00000220: 509e b041 e724 3542 e650 7442 97a0 4a42
00000230: 43c3 4442 2699 eb42 ec6c 1942 4315 e741
00000240: d223 2b43 def3 4442 e3c1 b341 27c6 f941
00000250: 0b90 b942 52a6 2041 1afa d041 2802 3542
00000260: aef1 1142 038a 6542 96fc 8542 2b73 bc42
00000270: e3f8 2843 dbc3 9042 42bd 0c43 210e d641
00000280: e2e8 6642 09a9 6c42 ed95 8e41 a3bf 0942
00000290: 25d1 5d42 5b25 3742 c7ff cc41 c606 6541
000002a0: 1fb5 0942 2437 1e41 e8e9 4942 7c43 d541
000002b0: 111a 4642 f4e0 a041 1e56 d941 0797 2d42
000002c0: f9ed 2542 f725 d742 d4ee e041 8f36 9a42
000002d0: 69f8 b640 bf6c db42 1d47 2b42 abfd 2542
000002e0: fec7 8741 e92f 0e42 35c4 4642 a515 8a42
000002f0: dc52 ef40 a5a7 a942 19d1 d742 1e5a 4d41
00000300: e0e8 ee42 c04d 0042 11f7 f541 cf55 ea41
00000310: 7d81 1743 386b 9142 a82d 8b41 ac04 7842
00000320: c63e 1042 6ff3 3a42 5406 7c41 e17b 7442
00000330: f332 f142 b4d1 1f43 9fcd 0d43 2da8 a141
00000340: c179 b442 3b67 9641 0bb3 2e43 9e38 2f41
00000350: 0513 4242 79d4 5241 cec6 0d42 ac8e 4842
00000360: 2640 4141 5ed2 7341 a114 0242 f534 a541
00000370: f722 1942 94b9 3842 002d a442 c046 1b42
00000380: efbd b142 cf06 4842 d184 1342 0df1 bd41
00000390: 3023 a542 ec56 6a41 d152 be41 c307 2842
000003a0: 576b 4f42 faca a041 379b dc41 1965 a141
000003b0: 7dd6 4642 51cc 5243 5409 cc42 79c1 ad42
000003c0: 0e77 c641 7873 0c42 d57e 9941 ba5f e342
000003d0: 619f 4a43 6dbf ad41 59f7 d842 ba3a a441
000003e0: c711 2f42 43cb 2a42 dc1f b642 3197 0f42
000003f0: d2e7 8842 7074 1143 6aad 1342 c608 f442
110.53285 22.734512 22.012764 84.6098 16.265806 52.01192 42.543713 26.899435
47.595177 28.701473 129.18364 56.25238 227.68079 75.10691 116.771454 36.233807
38.358925 45.65224 10.269647 60.063282 48.452614 42.959316 45.686745 26.299795
18.40599 28.41426 51.611824 40.47313 44.663128 28.943922 100.77174 96.78987
52.689163 107.780655 8.493083 16.387407 32.34588 44.627 27.31086 19.266375
121.37063 18.267242 66.20954 18.393568 98.65712 90.20235 29.101736 71.942345
29.684961 26.461777 23.080238 38.220432 15.58791 103.72104 121.92963 61.90698
92.27506 12.540379 48.43411 44.734615 8.382988 62.55714 5.5776753 158.839
34.52048 159.50084 5.837566 44.72729 14.735165 29.896666 78.39103 11.6488495
54.80621 39.78773 38.919582 25.325893 41.82886 37.532154 143.7606 59.77409
115.713394 39.811783 90.677246 51.655365 22.454412 53.581707 113.63548 47.49513
43.458588 25.89508 64.750595 32.945026 77.097015 75.52293 113.52149 14.995735
30.78016 80.57374 85.18995 37.83019 199.97076 12.752481 52.26717 8.107315
69.553444 68.55208 26.089716 57.41587 17.373692 47.614033 49.949966 63.62747
45.420643 75.272095 25.539766 62.71679 16.503078 93.76271 82.61265 73.525085
69.99692 193.28102 51.767708 19.717407 38.56258 40.028408 24.97672 123.74975
26.02361 46.216846 201.20312 63.261036 80.438614 20.603159 148.58746 50.408024
22.077301 45.286037 61.079002 50.656826 49.190685 117.79912 38.35637 28.885382
171.13992 49.23815 22.469671 31.221754 92.781334 10.040606 26.12212 45.252106
36.486015 57.384777 66.99333 94.22494 168.97221 72.38253 140.73929 26.756899
57.727425 59.165073 17.823206 34.437145 55.454243 45.78648 25.624891 14.314154
34.426876 9.888462 50.478424 26.657951 49.525455 20.10984 27.16705 43.397488
41.482395 107.57415 28.116615 77.10656 5.7178235 109.712395 42.819447 41.497723
16.972652 35.546787 49.69161 69.042274 7.4788647 84.82743 107.908394 12.834501
119.454834 32.075928 30.745638 29.291899 151.50581 72.70941 17.397293 62.004562
36.061302 46.73773 15.751545 61.120975 120.59951 159.81915 141.8032 20.207117
90.2378 18.800406 174.69939 10.951323 48.518574 13.176873 35.444145 50.139328
12.078161 15.238859 32.520145 20.650858 38.284145 46.18123 82.08789 38.81909
88.870964 50.00665 36.879704 23.7427 82.568726 14.646221 23.790438 42.00758
51.854824 20.09911 27.575788 20.174364 49.70946 210.79811 102.01822 86.87788
24.808132 35.112762 19.18693 113.686966 202.62257 21.71847 108.4831 20.528675
43.76736 42.698498 91.062225 35.897648 68.452774 145.45483 36.91935 122.017136

gnn_node.convs.0.mlp.3.weight f4 [128, 256]
00000000: d248 083f 605a c43d ed6b 9b3e e0ce 683e
00000010: af39 663d 0839 813f 10df 89be 6cf6 dcbd
00000020: 3933 5c3d 7f1f eeb8 c204 743c 3bb9 353e
00000030: 364e 9c3d 8154 093e 9d47 d8bd fe59 febe
00000040: d7ef be3e 579b fabc 18ef 36be d4e5 7bbc
00000050: ca5a b3bd 6a31 c6bd cf81 e03e 56f2 fdbc
00000060: 83bc 96be be02 5cbe 1b25 2f3f e072 a1be
00000070: 3ac1 243f 96dd c53e 85b3 f43d 6fc6 ce3b
00000080: 2e41 2ebe df36 e23d 4f08 12be b693 6b3e
00000090: 0c13 80be dd61 9a3e a45d 2dbe 3d6a 26be
000000a0: 27e6 1fbe 99ff 8b3d 7ab8 18be 96b4 ad3e
000000b0: f640 f63e 5487 90bc 1616 a6be ec98 373f
000000c0: a281 4e3d 68cb b43e 5290 3f3e 4f53 523e
000000d0: f53e 12bc fbe2 f73c 16e0 41be 5421 9f3e
000000e0: dd27 5c3e e6fa 9fbe af2e 15be 8662 59be
000000f0: dda6 94be 1545 bdbc 03e3 063b 2e6c 1c3c
00000100: 2da9 8fbd 981d 353e e9f3 25bc db4c 84be
00000110: e0fd 52be 2807 823d 0121 1e3f 530f 40be
00000120: b0d8 2cbd 734f e0bd 5932 88bd bd4e af3d
00000130: c1ed 1f3c bd88 f23d ce6b b83e 82aa af3f
00000140: 76b7 0abc 9836 073f a692 29be 771e 9bbe
00000150: 38b3 93be 2022 103f 0dc4 283e a43d 523f
00000160: 971e c3be 1e3b 87bd e8de f5bc 2f72 433e
00000170: af02 8d3f cb25 6f3d 34b8 f83d 028e 12be
00000180: 41b1 f5be e9d7 9b3e 2e30 4b3f af47 f43d
00000190: 7601 8a3e 5fbe 70be cffb b0bc efbe e1bd
000001a0: 1042 a13f 3249 0b3e 9247 7d3c 2d28 28bd
000001b0: 3885 f2bd 4e93 13be a579 15bd 2f4d 393e
000001c0: 9100 4dbe 0469 7e3d c3b2 0fbe efbc 963f
000001d0: 65a5 423c e98d 3e3e 92d3 35be a558 293e
000001e0: b305 87bd 41df d43e 9bee c2bd f8d8 f2bd
000001f0: 57b5 3ebe 950d d43e 4877 cebd 3c3c 2d3f
00000200: 3b94 923e 8703 c1bd 1050 1f3e 1f1b 3a3f
00000210: 63ba abbb bdb4 6cbe 9dd0 fe3d 0000 b63e
00000220: 195d dabd f576 a93e 983c c4bc b920 d73d
00000230: 957d 96bd be9f a23e 94d5 4cbe d307 0abe
00000240: 2ef4 f6bd 19ef 2abe be6a c7be 74ff 363d
00000250: c181 8f3e 6242 03bd 95ab 393e 2ab7 88be
00000260: 8c1d 02be 1895 61bd 6709 3dbe 563b 783e
00000270: cfd8 993e 3a02 0abe 80ff 983e 5715 a13e
00000280: aed6 c43e 6180 833e b0a4 133c dd98 783e
00000290: cc05 11be f7eb cabd f585 913b 1e00 8fbd
000002a0: 31c2 8d3e 2037 073d 0224 923e bc71 99bd
000002b0: e62d e93c 2504 34bd 1668 a13e 895d 5bbd
000002c0: f876 c13b 5359 a13f 3680 533d 0e91 ae3e
000002d0: 367b e3bd e67d 013e f2d0 e9bd 67a5 43be
000002e0: 21bb 4abe a2a5 7ebe 3c17 93be e122 89be
000002f0: 55a6 bdbd 5107 bb3e 9ad7 443f b8de 3fbd
00000300: da0b 243d 8964 c7bd 7af8 7dbe a8db 5fbe
00000310: 1558 73be 7d4e a63e 66a3 91bd 2915 1abd
00000320: 179b c6bd b788 a0be 39c2 bbbe 8ccc ce3e
00000330: 0e3d 5c3e 958d af3c cc5d 973e 19f0 d6bd
00000340: 94f8 183e 1fc2 593e 80c0 ccbc 8106 eabe
00000350: 8818 603d d48a 94be cede 7c3e f987 61be
00000360: a939 943e 7c1e 27be 2254 b6be c491 ac3d
00000370: 5f23 3bbe c8c5 893d 0619 cb3e c055 b8be
00000380: a0f2 de3e 2897 913e d70e 5bbe 95d5 c53d
00000390: 7bdb 81be bb52 69be 55c9 39bd 8dcc b3be
000003a0: 23a9 1bbe 9458 ea3e ed0c b73c ff17 563c
000003b0: 6942 bf3e 7c3d 223e 9e82 a13d 28f1 653d
000003c0: d5a7 6ebe c9fc a6be b758 8bbd af65 32be
000003d0: fc83 09be c293 c9bd 7445 fa3d 6bee bdbc
000003e0: 05d9 5c3e ca24 253e b8b0 b53e db99 c9be
000003f0: c8be babd 08b9 9f3e 958a 06be 79d5 b53d
0.53236115 0.0958755 0.30355778 0.22735167 0.056207355 1.009553 -0.26927996 -0.10789189
0.053759787 -0.00011354591 0.0148937125 0.17746441 0.07632105 0.13411142 -0.10560534 -0.49678034
0.37292358 -0.03059165 -0.17864645 -0.0153746195 -0.08757551 -0.09677394 0.43849036 -0.030999344
-0.29440698 -0.21485421 0.68415993 -0.31532955 0.6435734 0.3864562 0.11948303 0.006310276
-0.17017052 0.11045622 -0.14260982 0.23005566 -0.25014532 0.3015279 -0.16930252 -0.16251464
-0.1561514 0.06835861 -0.14914122 0.3392684 0.48096436 -0.017642654 -0.32438725 0.71717715
0.050416596 0.35311437 0.18707398 0.20539592 -0.008926143 0.0302596 -0.18933138 0.31080115
0.21499582 -0.31246108 -0.1456859 -0.2122899 -0.29033557 -0.02310423 0.0020582087 0.009547276
-0.070146896 0.1768707 -0.0101289535 -0.25839886 -0.20604658 0.06349021 0.6176911 -0.18755846
-0.042198837 -0.10952654 -0.06650228 0.0855994 0.009761275 0.11842487 0.36019748 1.372391
-0.008466592 0.5281768 -0.16559848 -0.3029668 -0.2884767 0.5630207 0.16481037 0.82125306
-0.38109276 -0.066030726 -0.030013517 0.19086526 1.1016444 0.05838565 0.12144509 -0.14311984
-0.47986796 0.30438164 0.7937039 0.11927735 0.2695424 -0.23510121 -0.021604447 -0.11022746
1.2598286 0.1360214 0.015458958 -0.04105394 -0.11841816 -0.14411661 -0.036492962 0.1809585
-0.20019747 0.06211187 -0.14033036 1.1776408 0.011880253 0.18608822 -0.17756489 0.16537721
-0.06592884 0.4157658 -0.09518167 -0.1185779 -0.18623863 0.41416612 -0.10081345 0.67670035
0.28628716 -0.09424501 0.15557885 0.72697634 -0.005240725 -0.23115821 0.124421336 0.35546875
-0.10662288 0.3309857 -0.023954675 0.10504288 -0.073481716 0.317625 -0.20003349 -0.13479547
-0.12058292 -0.16692771 -0.38948625 0.044677213 0.28028682 -0.03204573 0.1813186 -0.26702243
-0.12706584 -0.055073828 -0.18460618 0.24241385 0.30048224 -0.13477412 0.2988243 0.31461594
0.38445038 0.25683883 0.0090114325 0.24277063 -0.14162368 -0.09908288 0.0044410178 -0.06982444
0.2768722 0.033011556 0.28543097 -0.07492396 0.028464269 -0.043949265 0.31524724 -0.053556
0.0059040748 1.2605385 0.051635943 0.34095043 -0.11107485 0.12645683 -0.11416806 -0.19106065
-0.19797947 -0.24867871 -0.28728664 -0.26784423 -0.09260241 0.3652902 0.7689148 -0.04684326
0.040050365 -0.097359724 -0.24801818 -0.21861136 -0.2376407 0.32481757 -0.07111244 -0.037617836
-0.0969755 -0.31354305 -0.36671618 0.40390432 0.21507666 0.021429816 0.2956375 -0.10495014
0.14938575 0.21265458 -0.024994135 -0.45708087 0.054710895 -0.29012167 0.24694368 -0.22024526
0.2895024 -0.16320223 -0.35611063 0.0842624 -0.18275212 0.06727177 0.3966753 -0.36002922
0.43544483 0.28435636 -0.2139238 0.09659878 -0.25362763 -0.22785465 -0.04535802 -0.35116997
-0.1520124 0.45770705 0.02234503 0.013067245 0.37355354 0.15843767 0.078862414 0.056138188
-0.2330621 -0.32614735 -0.068040304 -0.17421602 -0.13429254 -0.09842636 0.122202784 -0.023184976
0.21567161 0.16127315 0.35486388 -0.39375195 -0.0911842 0.31195855 -0.13138802 0.08878607
