checkpoints/A_epoch_140.pth (torch, 843999 bytes, 48 tensors)

gnn_node.node_encoder.weight f4 [1, 128]
0	0xbf36cad9	-0.7140327
1	0x3ecb8d3a	0.39756185
2	0xbf299ee6	-0.66258085
3	0x3ef31011	0.47473195
4	0xbc9b9c14	-0.018995322
5	0x3f603a71	0.87589175
6	0x3f0bef98	0.54662466
7	0xbe1e6efb	-0.15472023
8	0x3d05f2d9	0.0327023
9	0xbf29c667	-0.6631836
10	0xbe8c8114	-0.2744223
11	0xbf22d14b	-0.63600606
12	0xbf6b31fa	-0.91873133
13	0x3f473f34	0.77830815
14	0xc045165a	-3.0794892
15	0xbf677b44	-0.90422463
16	0xbe39c964	-0.1814323
17	0x3e5a2d96	0.21306452
18	0x3df1a039	0.11798138
19	0xbf891031	-1.0708066
20	0xbf3a63a7	-0.7280831
21	0xbf64050f	-0.8907022
22	0xbe7c0d09	-0.24614348
23	0xbfb56786	-1.4172218
24	0xbf86d26e	-1.0532968
25	0xbfd56ee3	-1.6674465
26	0xc0035cf1	-2.0525477
27	0xbf97a53d	-1.1847302
28	0xbede3e1c	-0.4340676
29	0xbf3be9ef	-0.7340383
30	0xbeb16b29	-0.3465207
31	0xc03444a9	-2.8166907
32	0xbeae4515	-0.3403708
33	0xbfc216a5	-1.516316
34	0x3db37b90	0.08763802
35	0x3f04a378	0.51811934
36	0x3f04e60c	0.51913524
37	0xbf8ee3da	-1.1163285
38	0xbd0e2c3e	-0.03471016
39	0x3ea5495d	0.32282534
40	0xbfd8836c	-1.6915107
41	0xbf1bab25	-0.6080802
42	0x3f03e794	0.51525235
43	0xbfebb003	-1.841309
44	0x3e46a3d7	0.19398437
45	0x3e8bda0c	0.27314794
46	0xbfb02b94	-1.3763299
47	0xc01a543a	-2.4113908
48	0xbe51e975	-0.20499213
49	0xbfe46b61	-1.784527
50	0xbf596be5	-0.8493026
51	0xbf45d8fc	-0.77284217
52	0x3e3656d2	0.17806557
53	0xbf11a55a	-0.5689293
54	0xbf8d0b74	-1.101912
55	0xbe8ae3ed	-0.2712702
56	0x3ee7d5b6	0.45280236
57	0x3f1363ce	0.57574165
58	0x3df4d205	0.119541205
59	0x3e2904a9	0.16505684
60	0xbf9c543f	-1.221321
61	0x3dd50e1e	0.10403083
62	0x3e7c9dce	0.24669573
63	0x3cc80553	0.024416601
64	0xc00ac6be	-2.1683803
65	0xbe8731b9	-0.26405123
66	0xbfff4954	-1.9944253
67	0xbfbcc301	-1.474701
68	0xbffc1bbc	-1.9695964
69	0x3f9b7c5c	1.2147326
70	0x3f5b87e8	0.8575425
71	0xbf4b29d7	-0.7936072
72	0x3ebbf552	0.36710602
73	0xbfa36fd6	-1.2768505
74	0xbf04eeab	-0.5192668
75	0xbca82a41	-0.02052796
76	0xbe873639	-0.26408556
77	0xbe1cb399	-0.15302886
78	0x3e0691ec	0.13141602
79	0xbe5df7ab	-0.21676509
80	0xbfadcef5	-1.3578783
81	0xbfa34147	-1.2754296
82	0xbfd5991d	-1.6687351
83	0x3f27b701	0.65513617
84	0x3f0a1b84	0.53948236
85	0x3ed87c7b	0.4228247
86	0x3ec73aba	0.38911992
87	0xbe1f9738	-0.15585029
88	0xbf1ecec9	-0.6203428
89	0x3e455116	0.19269213
90	0xbfe6deb9	-1.803672
91	0xbee96729	-0.45586517
92	0xbf3ddd89	-0.7416616
93	0x3f16f1ca	0.5896269
94	0xbfbb3804	-1.462647
95	0xbf05f803	-0.5233156
96	0xbf5e6a2a	-0.86880744
97	0xbe8897b6	-0.26678246
98	0xbd745950	-0.059655488
99	0xbe5302a2	-0.20606473
100	0xbfa07655	-1.2536112
101	0xbfa4f9a0	-1.288868
102	0xbff83fa9	-1.9394428
103	0xbf4b163e	-0.79330814
104	0xbfd2334a	-1.6421902
105	0x3edfaf73	0.43688545
106	0x3f6069d0	0.8766146
107	0xbfc4b5c3	-1.5367969
108	0xbf16a2a4	-0.5884192
109	0xbf76896c	-0.9630344
110	0xbf7e8578	-0.9942241
111	0xbf522439	-0.8208652
112	0xbec020f5	-0.37525144
113	0xc0059931	-2.087475
114	0xbfa12193	-1.2588371
115	0xbfb6a282	-1.4268343
116	0xbe56bafa	-0.20969763
117	0xc0155a2f	-2.3336294
118	0x3ea9cd58	0.33164477
119	0xbe0f32ef	-0.13984273
120	0xbf4c086f	-0.7970037
121	0xbf724af8	-0.94645643
122	0x3ed9b5d4	0.42521536
123	0x3e22dffa	0.15905753
124	0xbf21a208	-0.63137865
125	0x3f19056d	0.59773904
126	0xbfc7247b	-1.5558008
127	0x3f039685	0.5140155

gnn_node.virtualnode_embedding.weight f4 [1, 128]
0	0xbf058fdb	-0.5217263
1	0xbefa6ac5	-0.48909584
2	0xbf4fff83	-0.81249255
3	0xbf032b93	-0.51238364
4	0xbeb1ed99	-0.34751585
5	0xbf6f06cd	-0.9336975
6	0xbf02451e	-0.50886714
7	0xbf28d44e	-0.6594895
8	0xbf11156a	-0.566733
9	0xbe33f4ae	-0.17573807
10	0xbd64a49c	-0.055821046
11	0xbf1f4aed	-0.622237
12	0xbe9926cd	-0.29912415
13	0xbf9e2e0c	-1.2357802
14	0xbf5a8638	-0.8536105
15	0xbdcc7240	-0.09982729
16	0xbe9d573a	-0.3073061
17	0xbe7a4178	-0.24439037
18	0xbf6848be	-0.90735996
19	0xbe838bed	-0.25692692
20	0xbeaaff0f	-0.3339772
21	0xbe35254e	-0.17690012
22	0xbd478c94	-0.04871805
23	0xbbae8909	-0.0053263945
24	0xbec51642	-0.38493544
25	0xbeb8753b	-0.3602694
26	0xbde332c6	-0.11093669
27	0xbe59da85	-0.21274765
28	0xbefee897	-0.49786827
29	0xbec8ffc6	-0.3925764
30	0xbdc986ab	-0.09840139
31	0x3c1a783a	0.009428078
32	0xbe5d6950	-0.21622205
33	0xbea6733c	-0.32509792
34	0xbf47f090	-0.78101444
35	0xbec86e5d	-0.391467
36	0x3e076667	0.13222657
37	0xbf080ac8	-0.5314145
38	0xbf39bbfc	-0.72552466
39	0xbeb80342	-0.35939986
40	0xbe88e8ad	-0.26740018
41	0xbec98f0a	-0.39366943
42	0xbf810c7c	-1.0081935
43	0xbeba7ba4	-0.36422455
44	0xbe5f8671	-0.21828629
45	0xbed27a0d	-0.41108742
46	0x3df45e9a	0.11932106
47	0xbe95d764	-0.29265893
48	0xbf62dadd	-0.8861521
49	0xbea1e0bd	-0.31616774
50	0xbeb4d089	-0.3531535
51	0xbeda33cf	-0.42617652
52	0xbeb3f3ae	-0.3514685
53	0x3d6480a6	0.05578675
54	0xbf04b587	-0.5183949
55	0xbe38ec27	-0.18058835
56	0xbe7afdbf	-0.24510859
57	0xbf1fac51	-0.6237231
58	0xbf63e350	-0.89018726
59	0xbf27ad57	-0.6549887
60	0xbe9c78ae	-0.3056082
61	0xbea5af8b	-0.3236049
62	0xbebcbfd0	-0.3686509
63	0xbea78f6a	-0.32726604
64	0xbfb08c36	-1.3792789
65	0xbcb9a48f	-0.022661475
66	0xbf2c1d37	-0.6723208
67	0xbf309199	-0.68972164
68	0xbeddf83d	-0.43353453
69	0xbf4faf14	-0.81126523
70	0xbf25e70f	-0.6480569
71	0x3d271b83	0.04079772
72	0xbee95c66	-0.45578307
73	0xbeff9289	-0.49916485
74	0xbebdfa36	-0.37104958
75	0xbeeb71cb	-0.45985255
76	0xbef0a5e3	-0.47001562
77	0xbeb5df2d	-0.35521832
78	0xbee4f4f2	-0.44718128
79	0xbecf2a0a	-0.4046176
80	0xbea83fc0	-0.32861137
81	0xbd066fdc	-0.03282152
82	0xbed8f021	-0.42370704
83	0xbf9c1fe6	-1.2197235
84	0xbc500974	-0.012697566
85	0xbe982cf8	-0.29721808
86	0xbeea0e2b	-0.45713934
87	0xbf12bb51	-0.5731707
88	0xbe7bdfcc	-0.2459709
89	0xbde3c3be	-0.11121319
90	0xbed248d7	-0.41071197
91	0xbec466fb	-0.38359818
92	0xbe1f91dc	-0.15582985
93	0xbe3126bc	-0.17299932
94	0xbee61e36	-0.44944924
95	0xbe678b28	-0.22611678
96	0xbee18a24	-0.44050705
97	0xbef65fc0	-0.48119926
98	0xbeca332b	-0.39492163
99	0xbec080ee	-0.37598366
100	0xbeebc025	-0.46045032
101	0xbeaad7fb	-0.33367905
102	0xbca816ce	-0.020518687
103	0x3d826bb3	0.06368198
104	0xbc617bb7	-0.013762406
105	0xbf516704	-0.81797814
106	0xbf41c865	-0.756964
107	0xbf2fba52	-0.6864368
108	0xbe4298a9	-0.19003548
109	0xbf1bb6e0	-0.6082592
110	0xbecafacf	-0.39644477
111	0xbf146cf5	-0.57978755
112	0xbe8beedd	-0.27330676
113	0xbe816ab5	-0.25276724
114	0xbd8e9b32	-0.06963195
115	0xbe3f576a	-0.1868569
116	0xbf5c7a44	-0.8612406
117	0xbf7b4662	-0.9815427
118	0xbde5e88f	-0.11225998
119	0xbee2e59f	-0.44315812
120	0xbecfad50	-0.40561914
121	0xbed90164	-0.42383873
122	0xbf0e4345	-0.55571395
123	0xbe4cc08d	-0.19995327
124	0xbec0ed6b	-0.37681136
125	0xbf028a9d	-0.5099276
126	0xbdaa68a2	-0.083207384
127	0xbeb5dfc8	-0.35522294

gnn_node.convs.0.mlp.0.weight f4 [256, 128]
0	0x3cf91070	0.030403346
1	0xbf856840	-1.042244
2	0xbfb30f8e	-1.3989122
3	0xbf24e24a	-0.6440779
4	0x3e1fec14	0.156174
5	0xbf21289a	-0.6295258
6	0xbe392502	-0.18080524
7	0xbf7e0ca8	-0.9923806
8	0xbeb4c34c	-0.3530525
9	0x3cc0f5ed	0.023554767
10	0xbf019a2d	-0.5062588
11	0x3db23c53	0.08702912
12	0x3d0ba95b	0.034097057
13	0xbdcd43a1	-0.10022665
14	0x3d616f3b	0.05503772
15	0xbd06bc0c	-0.03289418
16	0xbf281d8e	-0.65670097
17	0xbe61bff0	-0.22045875
18	0xbe9cb5c1	-0.30607417
19	0x3d108b92	0.035289355
20	0xbf436929	-0.76332337
21	0xbcf7f387	-0.03026749
22	0x3eb9c2a0	0.362813
23	0xbd2614bf	-0.04054713
24	0xbddda259	-0.10821981
25	0xbe0ebb45	-0.13938625
26	0x3e04de06	0.1297532
27	0xbd200eb3	-0.03907652
28	0xbfaea96b	-1.3645452
29	0x3e82c271	0.25538972
30	0x3b66b827	0.0035204978
31	0x3e03793c	0.12839216
32	0xbf96263f	-1.1730422
33	0xbdf96ea8	-0.12179309
34	0xbda78335	-0.08179323
35	0x3eb9f3db	0.3631886
36	0xbf526c17	-0.8219618
37	0x3dc0a31e	0.09406112
38	0xc04bd3d7	-3.1848047
39	0xbf263f1f	-0.64940065
40	0xbc7f515a	-0.015583361
41	0x3ea03167	0.3128769
42	0xbe11106f	-0.14166425
43	0x3e37ea50	0.17960477
44	0x3ecb7742	0.39739424
45	0x3f51ac04	0.819031
46	0x3e06f6b9	0.13180055
47	0xbdea0d60	-0.11428332
48	0x3f24978d	0.6429375
49	0xbdb8c507	-0.09021955
50	0x3f2bc1d7	0.6709265
51	0xc0389164	-2.883874
52	0xbf64053b	-0.8907048
53	0xbee975e2	-0.4559775
54	0xbd882282	-0.06647207
55	0xbccdeae8	-0.025136426
56	0x3e4e6b00	0.20158005
57	0x3e1bece4	0.15227085
58	0xbeeb1f35	-0.45922247
59	0xbeb7cd29	-0.35898712
60	0x3d377ba1	0.044795636
61	0xbc3355ab	-0.010945718
62	0xbef695c3	-0.48161134
63	0xbe3df6af	-0.18551134
64	0xbe6548b1	-0.22391011
65	0xbdf5f320	-0.12009263
66	0x3c6450c2	0.01393527
67	0xbd5d2923	-0.05399431
68	0x3e12fd0c	0.14354342
69	0xbd9f1bc0	-0.07768965
70	0xbe9cd302	-0.30629736
71	0x3c2376c8	0.00997705
72	0xbd1cdf19	-0.0382987
73	0x3d089b28	0.033351094
74	0xbd6edb9f	-0.058314916
75	0xbf11c1b5	-0.569362
76	0x3ddaf93d	0.1069207
77	0xbfaa95c3	-1.3326954
78	0xbfbee7e0	-1.4914513
79	0xbb93bf7e	-0.0045089116
80	0x3d857ef1	0.06518353
81	0x3dc175d5	0.09446303
82	0x3c6868a2	0.014185103
83	0xbc6b572b	-0.014364044
84	0xbe4f715e	-0.2025809
85	0x3d9967c4	0.07490495
86	0x3e15b7b4	0.14620858
87	0x3f106d89	0.5641714
88	0xbdd75f16	-0.10516183
89	0x3bce3f2b	0.0062941513
90	0x3d9f2d8f	0.077723615
91	0xbdcb2f32	-0.09921111
92	0xc049df95	-3.1542714
93	0x3e89564d	0.26823655
94	0x3dc673c7	0.096900515
95	0xbdcd9637	-0.10038417
96	0x3e0c1ad5	0.1368211
97	0xbf908cae	-1.1292932
98	0xbf0d96d9	-0.553083
99	0xbe57ac43	-0.21061806
100	0x3d541417	0.05177697
101	0x3db9e209	0.09076316
102	0xbdc94a81	-0.098286636
103	0x3cbe0b7a	0.023198832
104	0x3d148a78	0.036264867
105	0x3d1df989	0.038568053
106	0x3c09b54a	0.008405039
107	0xbd8304e0	-0.06397414
108	0x3e419b11	0.1890681
109	0xbdb4bb77	-0.088248186
110	0x3f0d950d	0.5530556
111	0xbd0eaf62	-0.034835227
112	0x3e8f302f	0.2796645
113	0x3d9409c4	0.07228425
114	0xbb9205e0	-0.0044562668
115	0x3bd4fc48	0.006499801
116	0xbea8c527	-0.32962915
117	0x3e225bda	0.15855351
118	0xbc83a275	-0.016068676
119	0xbf19eed4	-0.6013005
120	0x3ec1e130	0.37867117
121	0xc06268a4	-3.5376368
122	0x3bad9779	0.005297598
123	0x3dc27db8	0.09496635
124	0x3ea6f601	0.3260956
125	0xbee9a7bb	-0.4563578
126	0x3df47a28	0.11937362
127	0xbee09b8c	-0.43868673
128	0xbd45f95b	-0.048333507
129	0xbd03460d	-0.032049228
130	0xbead1e91	-0.33812383
131	0x3f0394ff	0.51399225
132	0x3dbcb27f	0.09213733
133	0x3e3d7ee3	0.18505435
134	0x3f1ef8e8	0.6209855
135	0x3f49bf56	0.7880758
136	0xbe61440b	-0.21998613
137	0xbd73a81b	-0.05948649
138	0xbf4c866b	-0.79892606
139	0x3da6fe77	0.08154004
140	0xbdb91d79	-0.090388246
141	0x3d775239	0.060381148
142	0x3d97de35	0.074154295
143	0xbd292f12	-0.041304655
144	0xbe5c5847	-0.2151805
145	0xbdc64706	-0.096815154
146	0x3eb1f2b9	0.34755495
147	0x3d29d186	0.041459583
148	0xbf22c0a1	-0.6357518
149	0x3f9e23da	1.2354691
150	0x3e3d13ed	0.18464632
151	0xbd1e30c3	-0.03862072
152	0xbc3cf4dd	-0.011532989
153	0xbcbc23b4	-0.022966243
154	0x3d313d68	0.043271452
155	0xbcf2b48e	-0.02962711
156	0xbeb71e2c	-0.35765207
157	0xc00b6886	-2.1782546
158	0xbf0e20d1	-0.55518824
159	0xbbf58917	-0.007493149
160	0xbe74e6ea	-0.23916212
161	0xbd1e473e	-0.03864216
162	0x3e0859a0	0.13315439
163	0xbf8af163	-1.0854915
164	0xbf32026c	-0.69534945
165	0x3c061568	0.008183815
166	0x3f8fdb64	1.1238828
167	0x3bed8541	0.007248551
168	0x3d29be7f	0.041441437
169	0x3f3153b0	0.6926832
170	0xbda920ce	-0.0825821
171	0x3d803262	0.0625961
172	0xbf12e5f0	-0.57382107
173	0x3f46f706	0.7772068
174	0x3ce0e7ae	0.027454223
175	0xbd109ab7	-0.035303798
176	0x3fa84115	1.3144861
177	0xbda1512d	-0.07876811
178	0x3e2875ba	0.16451159
179	0x3e0ff5cf	0.14058612
180	0x3ed85c48	0.42257905
181	0xbe6ae028	-0.22937071
182	0x3c37902d	0.011203808
183	0xbd9fe2b6	-0.078069136
184	0xbcdff919	-0.027340459
185	0xbd1dd96f	-0.03853744
186	0xbf4e8ae8	-0.80680704
187	0x3ebb531e	0.3658685
188	0xbdd0b82a	-0.101913765
189	0xbf0200f9	-0.50782734
190	0x3e255522	0.16145757
191	0xbd2d6357	-0.042331066
192	0x3dc257ca	0.09489401
193	0x3ddf3b82	0.10900022
194	0xbd845711	-0.06461919
195	0x3d243376	0.04008814
196	0x3bc7953c	0.006090788
197	0xbe8d9e51	-0.27659848
198	0xbe4eab89	-0.20182623
199	0x3d6b0d2e	0.057385616
200	0x3d1184e1	0.035527114
201	0xbd7d95fe	-0.06191062
202	0x3b31a9a1	0.0027109163
203	0xbf27f723	-0.65611476
204	0x3f9630a4	1.1733594
205	0xbdaa2654	-0.08308092
206	0x3df18b20	0.11794114
207	0xbf015fa1	-0.50536543
208	0x3c22d999	0.009939575
209	0xbd1a64a4	-0.037693635
210	0xbd8df3b8	-0.06931251
211	0x3e1f78db	0.15573446
212	0xbdc48cc1	-0.09597159
213	0x3e894437	0.26809856
214	0xbf8a7f19	-1.0820037
215	0xbe63d2c3	-0.22248368
216	0x3d49263e	0.049108736
217	0xbf3dfdc9	-0.7421537
218	0x3d9c77c5	0.07640032
219	0x3e10572b	0.14095752
220	0xbee3d445	-0.44497886
221	0xbc68cd0c	-0.014209043
222	0xbcd3fa7e	-0.02587628
223	0xc047687e	-3.1157527
224	0xbe6b06a3	-0.2295175
225	0xc0072d8f	-2.1121557
226	0x3ff99da5	1.9501234
227	0x3dd5e740	0.10444498
228	0xbb1f744f	-0.00243308
229	0xbd25e4a6	-0.04050126
230	0x3db443b8	0.08801979
231	0x3da4866a	0.0803345
232	0xbd86c3f2	-0.06580342
233	0x3e1982e9	0.14991345
234	0xbe30780a	-0.17233291
235	0x3dbaa002	0.0911255
236	0xbcbe73bb	-0.023248544
237	0xbd2865dc	-0.041112766
238	0x3f28652d	0.6577938
239	0x3c21cec5	0.009875958
240	0x3f56c694	0.83896756
241	0xbd3bce2e	-0.045850925
242	0x3d552e42	0.052046068
243	0x3d409a1a	0.047021963
244	0x3d98dec0	0.07464361
245	0xbd44773b	-0.04796527
246	0x3be70888	0.0070505776
247	0xbd76a081	-0.060211662
248	0x3e595f23	0.21227698
249	0x3f6d42c0	0.9267998
250	0xbdaef101	-0.085420616
251	0xbe7320eb	-0.23743026
252	0x3e123b10	0.14280343
253	0x3e9d7e3d	0.30760375
254	0x3d8eedae	0.069789276
255	0xbd6a2d95	-0.057172377

gnn_node.convs.0.mlp.0.bias f4 [256]
0	0xbdac3dc3	-0.084102176
1	0xbc7a1759	-0.015264356
2	0x3ce794e8	0.028269246
3	0xba8c43b0	-0.0010701325
4	0xbd71b782	-0.059012897
5	0xba32597e	-0.00068034965
6	0x3acd4a66	0.0015662431
7	0x3d995bec	0.07488236
8	0xbd83b7f7	-0.06431573
9	0x3d0b2067	0.03396645
10	0x3d17dc54	0.037075356
11	0xbd9e3002	-0.077240005
12	0xbd881629	-0.06644852
13	0xbd390420	-0.04516995
14	0x3cdd0927	0.026981903
15	0x3d94e47f	0.07270145
16	0x3d1d6fa4	0.038436547
17	0xbd40fe4e	-0.047117524
18	0xbc88ff4b	-0.016723296
19	0xbd5a9550	-0.05336505
20	0x3d7e2c82	0.062054165
21	0x3d7efbc3	0.062251817
22	0xbcad3259	-0.021142172
23	0xbd3eb9b0	-0.046563804
24	0xbd141604	-0.03615381
25	0x3d5c03f2	0.0537147
26	0xbda400e8	-0.08007985
27	0x3b3a70ff	0.0028448699
28	0x3cf0c5f8	0.029391274
29	0xbdab99c5	-0.083789386
30	0x3d37cd1e	0.04487335
31	0xbdaab37e	-0.08335017
32	0xbd5ef7e8	-0.05443564
33	0x3d949775	0.07255451
34	0xbd768b51	-0.060191456
35	0x3d85e067	0.06536942
36	0x3db269fb	0.087116204
37	0xbbf769ea	-0.0075504677
38	0xbd607ddc	-0.05480753
39	0xbd71367e	-0.05888986
40	0xbaffd084	-0.0019517099
41	0xbc85825b	-0.01629751
42	0xbd535a73	-0.05159993
43	0x3cf3b430	0.029749006
44	0xbdc4270e	-0.095777616
45	0x3d98a306	0.07452969
46	0x3d396152	0.045258828
47	0x3d257353	0.040393185
48	0xbc7dbacd	-0.015486431
49	0xbc4c0651	-0.012452678
50	0x3d9d1f29	0.07671959
51	0x3da38829	0.07984955
52	0xbda8cf73	-0.08242693
53	0x3b7cdaab	0.0038582485
54	0x3d5ec129	0.05438343
55	0x3c57c986	0.0131706055
56	0x3d805382	0.06265928
57	0x3da444a1	0.080209024
58	0xbc96d59f	-0.01841241
59	0x3c0652d1	0.008198456
60	0xbd83e22c	-0.06439623
61	0x3d9242b8	0.07141632
62	0x3a2a18da	0.00064886885
63	0x3cc8b5bf	0.024500726
64	0xbda3018e	-0.07959281
65	0x3d699627	0.057027962
66	0x3c1814e7	0.009282327
67	0xbd098681	-0.03357554
68	0xbd4c5149	-0.049882207
69	0xbd99daca	-0.07512434
70	0x3d83c753	0.064345025
71	0x3ce9effe	0.02855682
72	0x3d10b369	0.03532735
73	0xbd5ffbe4	-0.05468358
74	0x3d8ebde7	0.06969815
75	0xbc5face5	-0.013652061
76	0x3d9c98a9	0.07646305
77	0xbd8092df	-0.062780134
78	0xbc79f234	-0.0152555
79	0x3d9196bd	0.07108829
80	0xbd8167b6	-0.063186094
81	0xbd197e75	-0.037474114
82	0xbcf7f7ee	-0.03026959
83	0x3d2cc1ce	0.042177014
84	0x3dabc343	0.083868526
85	0x3d04da53	0.032434773
86	0x3c94929d	0.018136317
87	0xbc465b46	-0.012106722
88	0xbc469485	-0.012120371
89	0xbd898bcc	-0.06716117
90	0xbdb4fbe6	-0.08837108
91	0xbd0791d8	-0.03309807
92	0xbcb264fa	-0.021776665
93	0xbd18a192	-0.03726346
94	0xbc6fc44f	-0.014634206
95	0x3ce9e686	0.028552305
96	0x3cf10433	0.029420948
97	0x3a909687	0.0011031189
98	0x3d30eb4f	0.043193158
99	0x38762e74	5.8694233e-05
100	0x3ab4d090	0.0013795067
101	0xbd5e980d	-0.054344226
102	0xbd5166dd	-0.05112349
103	0xbd831f32	-0.064024344
104	0x3d60ac91	0.054852072
105	0x3d1b65b8	0.037938803
106	0x3e05dfdf	0.13073681
107	0xbd91220f	-0.07086574
108	0xbd6258cb	-0.05526046
109	0xbd81f014	-0.063446194
110	0xbd835aea	-0.06413825
111	0x3d501e4f	0.050810155
112	0xbce69cc3	-0.028150922
113	0x3d966b43	0.07344677
114	0x3d8749cc	0.066058725
115	0xbd9deaa8	-0.07710773
116	0x3d9c929b	0.0764515
117	0x3d73c69d	0.059515584
118	0xbb3da97d	-0.0028940134
119	0xbbf7edc2	-0.0075661847
120	0x3c476b40	0.0121715665
121	0xbc38299b	-0.011240388
122	0x3d59546b	0.053059023
123	0xbd475999	-0.04866943
124	0xbd9de587	-0.077097945
125	0xbd149e10	-0.036283553
126	0xbd8e49eb	-0.069476925
127	0x3d8582d8	0.06519097
128	0xbc82d222	-0.01596934
129	0x3d366bb8	0.044536322
130	0xbda65f4e	-0.08123647
131	0xbd96c315	-0.07361428
132	0x3d59d197	0.053178396
133	0x3d9e4733	0.07728424
134	0x3d2e37ce	0.04253369
135	0xbd790cb2	-0.060803123
136	0x3d6c8f5a	0.0577539
137	0xbd6197e0	-0.05507648
138	0x3cc8e62f	0.024523823
139	0x3b6572ff	0.003501117
140	0x3c46e352	0.012139158
141	0x3d33a562	0.043858893
142	0xbd81ec1e	-0.06343864
143	0xbda80685	-0.082043685
144	0xbc3b97fa	-0.011449808
145	0x3d83e48c	0.06440076
146	0x3d4e3ff0	0.050353944
147	0xba25c5c6	-0.0006323721
148	0x3d692859	0.056923244
149	0xbd961338	-0.073278844
150	0x3c5128bc	0.0127660595
151	0x3d8b3172	0.0679654
152	0x3db22f40	0.087004185
153	0xbc24136e	-0.010014398
154	0xbd7aab09	-0.061198268
155	0x3b3840a8	0.002811471
156	0x3d2d6cdd	0.04234015
157	0x3d288bb3	0.041148853
158	0x3d527d69	0.05138913
159	0xbd845348	-0.06461197
160	0x3bebb9a9	0.0071937633
161	0x3d859cad	0.06524024
162	0x3d24e104	0.040253654
163	0x3cc7b48c	0.024378084
164	0xbd37ed31	-0.044903938
165	0x3c699e64	0.014258955
166	0xbd58851c	-0.052861318
167	0x3d00f3dc	0.031482562
168	0x3d89573c	0.06706092
169	0x3d3bc802	0.04584504
170	0xbd8831de	-0.066501364
171	0x3d32dfb5	0.043670375
172	0x3d6a7b12	0.057246275
173	0xbc761dfd	-0.015021798
174	0xbd262115	-0.040558893
175	0xbc560ab7	-0.013064078
176	0xbc61690f	-0.013757958
177	0xbdc25124	-0.094881326
178	0x3d3aac94	0.04557474
179	0xbd09dcd5	-0.033657867
180	0x3b2c1246	0.002625601
181	0xbcbc796f	-0.023007123
182	0x3b3e663d	0.0029052638
183	0xbc861ac5	-0.016370187
184	0x3c7ce0b0	0.015434429
185	0xbbfa8b56	-0.0076460047
186	0x3cc8d749	0.024516718
187	0xbdb0b7ae	-0.08628784
188	0x3ca615cc	0.020274065
189	0xbd4bc409	-0.0497475
190	0x3d71b67e	0.05901193
191	0x3cc33cf1	0.02383277
192	0x3dac6b24	0.08418873
193	0x3db4a576	0.08820622
194	0xbd37bd78	-0.044858426
195	0xbdb50189	-0.088381834
196	0x3b32d2f2	0.0027286378
197	0x3dea0734	0.11427155
198	0xbc417934	-0.011808682
199	0xbd9836dd	-0.07432339
200	0xbcd30efc	-0.025763981
201	0xbdb6dc2e	-0.08928715
202	0xbd934661	-0.07191158
203	0x3bdc7f60	0.0067290515
204	0xbdb9f4ae	-0.09079872
205	0x3ba89973	0.0051452457
206	0x3cf44c18	0.02982144
207	0xbd57f204	-0.05272104
208	0x3d2faba4	0.0428883
209	0x3b45ba24	0.0030170763
210	0xbd90b21f	-0.07065224
211	0x3d893819	0.06700153
212	0xbca119b0	-0.019665569
213	0xbda72459	-0.0816123
214	0x3d42eaa5	0.047587056
215	0xbcee7f31	-0.029113384
216	0x3d834a66	0.06410675
217	0x3c8ddf98	0.017318532
218	0xbd9956ea	-0.07487281
219	0xbda6fc19	-0.081535526
220	0x3c802c98	0.015646264
221	0x3c308927	0.010774887
222	0x3c6dac60	0.014506429
223	0xbc168b47	-0.00918848
224	0xbd46b9fd	-0.048517216
225	0x3c031e63	0.00800285
226	0x3c2f5e46	0.010703629
227	0x3d80cc05	0.06288914
228	0x3d2bfb0c	0.041987464
229	0x3d22cf03	0.039748203
230	0xbd783bf5	-0.060604054
231	0x3de8692a	0.113481835
232	0x3d6172fa	0.05504129
233	0x3cc283d9	0.02374451
234	0x3d991c5c	0.07476112
235	0xbda9e1e2	-0.08295037
236	0xbd736559	-0.059422825
237	0x3c82bfa6	0.015960526
238	0x3bdc33cb	0.0067200414
239	0x3c84b493	0.016199386
240	0x3c942434	0.01808367
241	0xbafd9abc	-0.0019348483
242	0xbd4dac21	-0.050212983
243	0xbc9dfcc2	-0.019285563
244	0x3d91ccb4	0.07119122
245	0x3d589048	0.052871972
246	0x3d8d1948	0.06889588
247	0x3d76ad29	0.060223732
248	0xbd35149a	-0.0442091
249	0xbd026ef3	-0.03184409
250	0xbd311af1	-0.043238584
251	0xbd93004e	-0.071777925
252	0xbd40f5a0	-0.047109246
253	0xbc45e391	-0.012078182
254	0x3d29fad4	0.041498974
255	0x3d208d1d	0.039197076

gnn_node.convs.0.mlp.1.weight f4 [256]
0	0x3fbf0b0e	1.4925249
1	0x3f351a85	0.7074359
2	0x3f041893	0.516
3	0x3ef98b16	0.48738927
4	0x3ee572e6	0.44814223
5	0x3fd44e06	1.6586311
6	0x3fb7e0d0	1.4365482
7	0x3de76c2f	0.11299931
8	0x3fea5926	1.8308456
9	0x3f93b51b	1.1539644
10	0x3f7fb833	0.9989044
11	0x3fbdc33f	1.4825209
12	0x3ffbaddf	1.9662436
13	0x3ef5b76e	0.47991508
14	0x3f8b5a1f	1.0886878
15	0x3f859f98	1.0439329
16	0x3fc15be5	1.5106169
17	0x3f1f43cb	0.6221282
18	0x3ee1f989	0.44135693
19	0x3e7d902d	0.2476203
20	0x3e28337e	0.16425893
21	0x3fe23156	1.7671306
22	0x3fce69df	1.6126059
23	0x3f6f59bd	0.93496305
24	0x3f075105	0.52858
25	0x3fb9f305	1.4527289
26	0x3fb21314	1.3912072
27	0x3ef2d633	0.47429046
28	0x400695ab	2.102885
29	0x3fab7964	1.339642
30	0x3f924695	1.142779
31	0x3f832c2f	1.0247859
32	0x3e7f3594	0.24922782
33	0x3eaa5067	0.33264467
34	0x3b50c17f	0.0031853614
35	0x3f09aebf	0.53782266
36	0xbba4c61e	-0.0050285
37	0x3f333676	0.70004976
38	0x3c336499	0.010949277
39	0xbc2ed88b	-0.010671745
40	0x400d4533	2.2073486
41	0x3f9b62a4	1.2139478
42	0x4013a134	2.306714
43	0x3faf1adb	1.3680071
44	0x3fdedc75	1.7411028
45	0x3f09836d	0.53716165
46	0x4000933b	2.0089862
47	0x3fbcfc69	1.476453
48	0x3daac79d	0.083388545
49	0x40061a04	2.0953379
50	0x3f656b67	0.8961701
51	0xbc8a772e	-0.016902532
52	0x3f2da444	0.67828774
53	0x3fdabf97	1.7089719
54	0x3f2e7155	0.6814168
55	0x3f9a645c	1.2061877
56	0x3fa3bbc4	1.2791677
57	0x3f0dd98c	0.55410075
58	0x3e11c66b	0.14235847
59	0x3ce8b8d3	0.028408444
60	0x3f7b6cea	0.98213065
61	0x3f8a770d	1.0817581
62	0x3c670be2	0.014101954
63	0x402c6fbd	2.69432
64	0x3f27d4b8	0.6555896
65	0x3f52a5a6	0.8228401
66	0x3c2fea61	0.010737033
67	0x3dfdfb43	0.1240144
68	0x3f155afc	0.58341956
69	0x3f78c558	0.9717612
70	0x400f1470	2.2356224
71	0x3f610e18	0.8791213
72	0x3e8a0ea5	0.26964298
73	0x3f0b2219	0.54348904
74	0x3f1f922b	0.6233241
75	0x3fbe7ab9	1.4881202
76	0x3c484cae	0.012225313
77	0x3ef5c91f	0.48005006
78	0x3f958887	1.168229
79	0x40036d96	2.0535636
80	0x401bca20	2.4342117
81	0x3fb05f06	1.3778999
82	0x3fcb9796	1.5905635
83	0x3db1e677	0.08686536
84	0x3fb55868	1.4167604
85	0x400537f3	2.0815399
86	0x3fc4624b	1.5342497
87	0x3ff40393	1.9063591
88	0x3fc706fe	1.5549009
89	0x3e810148	0.2519629
90	0x3fc88687	1.5666054
91	0x3ff89a72	1.9422133
92	0x400fe9b1	2.2486384
93	0x3fc26655	1.5187479
94	0x3fe111f5	1.7583605
95	0xbbcc3b91	-0.006232687
96	0x3b9f7e68	0.0048673637
97	0x3ecbda53	0.39815006
98	0x3fca442a	1.5802052
99	0x3f97ed36	1.1869266
100	0x3fed715f	1.8550223
101	0x3fa98eb2	1.3246672
102	0x3f6acc2d	0.917178
103	0x3c154ca7	0.009112514
104	0x3fee6186	1.8623512
105	0x3f1da5bc	0.61581016
106	0x3fdbabb4	1.7161775
107	0x3ff11664	1.8834958
108	0xbbdca774	-0.006733829
109	0x3e00c180	0.12573814
110	0x3f912865	1.1340452
111	0x40035697	2.05216
112	0x3df465a4	0.11933449
113	0x3f9b6fa3	1.2143444
114	0x3f78452e	0.9698056
115	0x3fb95015	1.4477564
116	0x3f9e7d7f	1.2382048
117	0x3fd4cf3b	1.6625742
118	0x3f7c7f86	0.98632085
119	0x3f93b9f8	1.1541128
120	0x3f7d742e	0.990054
121	0x3ff5d8ec	1.9206824
122	0xbc78229c	-0.01514497
123	0x3f24fbd5	0.64446765
124	0x3fc5edaa	1.5463154
125	0x3ff7d37d	1.9361416
126	0x3fa23573	1.2672561
127	0x3f9b013f	1.2109755
128	0x3fcb6bec	1.589231
129	0x3f4a943e	0.7913245
130	0x40030eea	2.0477853
131	0x3fe1d959	1.7644454
132	0x3f4d12c8	0.8010678
133	0x3f8ec543	1.115395
134	0x3fd66a5c	1.6751208
135	0x3ed9b21a	0.42518693
136	0x3ddeba2d	0.10875354
137	0x4002167c	2.0326223
138	0x3fbf3189	1.4936992
139	0x3f2fec26	0.6871971
140	0x3d36aa61	0.04459608
141	0x3fb729a8	1.4309587
142	0x3f9b4937	1.2131718
143	0x3f5c3769	0.8602205
144	0x400c8440	2.195572
145	0x3e73f54c	0.23824042
146	0x4001d326	2.0285125
147	0x3ee6e5eb	0.45097288
148	0x3fbb5bc8	1.4637384
149	0x3bbae184	0.005703153
150	0x3e432c77	0.1905993
151	0x3ac3f506	0.0014950342
152	0x3f935e9e	1.151325
153	0x3ce1631f	0.027513085
154	0x3fa0fb7c	1.2576747
155	0x3fde9c13	1.739138
156	0x3fdb178b	1.711656
157	0x3fb0f7f4	1.3825669
158	0x3f83943d	1.0279614
159	0x3fd49f78	1.6611166
160	0x3fc5f40d	1.5465103
161	0x3fccf948	1.6013575
162	0x3f59a77d	0.8502119
163	0x3feade11	1.8349019
164	0x3e7fb202	0.24970248
165	0x3f7a8168	0.9785371
166	0x3fe1fe26	1.7655685
167	0x3ea6ded9	0.32591894
168	0x3fe451e1	1.7837487
169	0x3f0436bc	0.5164602
170	0x3fbfb897	1.4978207
171	0x3ea35c46	0.31906337
172	0x3f2496d2	0.64292634
173	0x3f4229f6	0.7584528
174	0x3f9518d1	1.1648198
175	0x3ebf3b8c	0.37350118
176	0x3f86a8df	1.0520285
177	0x4000ea80	2.0143127
178	0x3d28954a	0.041158
179	0x3f1f157f	0.62142175
180	0x3896b7a0	7.18676e-05
181	0x3fce25d0	1.610529
182	0x3e03f6cd	0.12887116
183	0x3f7106b5	0.9415086
184	0x3fa4feeb	1.2890295
185	0x3faf4430	1.3692684
186	0x40003a6f	2.0035665
187	0x3fe3a4ad	1.778463
188	0x3b8f941b	0.004381669
189	0x3eab8c81	0.33505633
190	0x3f78882d	0.9708279
191	0x3edb99cf	0.42890784
192	0x3fd02480	1.6261139
193	0x3f95ab49	1.1692897
194	0x3ce5ab5f	0.028035818
195	0x3b1afecf	0.0023650413
196	0x3fc4d21b	1.5376619
197	0x3fd84eb2	1.6899016
198	0x3ef7f4b9	0.48428896
199	0x3f08ca5f	0.53433794
200	0x3f7b81c9	0.9824491
201	0x3f93b383	1.1539158
202	0x3fbbe59a	1.4679444
203	0x3fd9281a	1.6965363
204	0x3ff4ecb7	1.913474
205	0x400575dc	2.0853186
206	0x3f93c4bc	1.1544414
207	0x3ef82fa1	0.48473838
208	0x3fabdf4d	1.3427521
209	0x3f552f8f	0.83275694
210	0x3fe74991	1.8069326
211	0x3f488c56	0.78339136
212	0x3f5b0730	0.8555784
213	0x3ed0497c	0.40681064
214	0x3e9103ad	0.28323117
215	0x3e1990aa	0.14996591
216	0x3f7adb9c	0.9799135
217	0x3f49161c	0.7854936
218	0x3fbb112f	1.4614619
219	0x3e8eee23	0.2791606
220	0x3edf0b21	0.43563178
221	0x3df04e8d	0.11733732
222	0x3f9ab38e	1.2086046
223	0x3e85d6bf	0.261404
224	0x3fafc26c	1.3731208
225	0x3ff4284d	1.9074799
226	0x3ebd5955	0.36982217
227	0x3cb65731	0.022258373
228	0x3f9bfd51	1.2186681
229	0x3db7786a	0.08958514
230	0x3f4a3aad	0.7899578
231	0x403286b0	2.7894707
232	0x3fc6faab	1.5545248
233	0x3fbd94cb	1.4811033
234	0x3f2a6339	0.6655765
235	0x3da1140b	0.07865151
236	0x3fca6e97	1.5814999
237	0x3fbeb6bb	1.4899515
238	0x3f8ef848	1.116952
239	0x3fde053e	1.734535
240	0x3f593a5e	0.84854686
241	0x40162fb4	2.3466616
242	0x3e682828	0.22671568
243	0x3fc1d2e8	1.5142488
244	0x4012d1a5	2.2940457
245	0x3e7291b9	0.23688401
246	0x3fe9f55d	1.8278004
247	0x3f1cd5a4	0.6126349
248	0x4013eda0	2.3113785
249	0x3f0accf2	0.5421897
250	0x3f4b7130	0.79469585
251	0x3f3397f2	0.70153725
252	0x3f3cb34c	0.73711085
253	0x3facbbd7	1.3494824
254	0x3f411f84	0.75438714
255	0x3fef2809	1.8684093

gnn_node.convs.0.mlp.1.bias f4 [256]
0	0x3f081f4b	0.5317275
1	0xbea5a46d	-0.3235201
2	0xbedddaa9	-0.43330887
3	0xbf752112	-0.95753586
4	0xbf0481bc	-0.5176046
5	0xbeeb7f86	-0.4599573
6	0xbf192a9d	-0.5983065
7	0xbe854f59	-0.260371
8	0xbe966ac0	-0.2937832
9	0x3e49dd74	0.19713384
10	0xbeba76cc	-0.3641876
11	0xbec054b7	-0.37564632
12	0x3ea3f734	0.3202454
13	0xbe90263b	-0.28154168
14	0xbec58dde	-0.385848
15	0xbdc28f07	-0.094999366
16	0xbef82e52	-0.4847284
17	0xbf832b95	-1.0247675
18	0xbf121a79	-0.57071644
19	0xbf16ae94	-0.58860135
20	0xbf272a88	-0.6529927
21	0xbf27d369	-0.6555696
22	0xbe4eb7c3	-0.20187287
23	0xbe43f2b6	-0.19135556
24	0x3e931aec	0.28731477
25	0xbed4476b	-0.41460738
26	0xbf1b702f	-0.60718054
27	0x3e500f75	0.20318396
28	0xbeee75c7	-0.46574232
29	0x3e2b8e35	0.16753466
30	0xbf1ab555	-0.6043294
31	0xbedd5fd1	-0.43237165
32	0xbf4c2f95	-0.79760104
33	0xbf62e182	-0.8862535
34	0xbdf3dac7	-0.11906963
35	0xbfc20707	-1.5158395
36	0xbe25c1e5	-0.16187246
37	0xbfa64c04	-1.2991948
38	0x3daa3070	0.0831002
39	0xbe426613	-0.1898425
40	0xbf04981f	-0.5179462
41	0xbe6c67c1	-0.23086454
42	0xbe82c622	-0.25541788
43	0xbf12e569	-0.573813
44	0xbf1e4965	-0.6183074
45	0xbf67b299	-0.90506893
46	0xbecdce93	-0.40196666
47	0xbef53919	-0.47895125
48	0xbfbbf042	-1.4682696
49	0xbeffd68d	-0.49968377
50	0xbefdb617	-0.49552986
51	0xbfa51c84	-1.2899327
52	0xbe7ea819	-0.24868812
53	0xbed10ec3	-0.40831575
54	0xbcafbf3b	-0.02145349
55	0xbf0ad9b2	-0.54238427
56	0xbea6b633	-0.32560882
57	0xbfa71489	-1.3053142
58	0xbd15fdba	-0.036618926
59	0xbf26f76b	-0.6522128
60	0xbdaea6bc	-0.08527896
61	0xbe418048	-0.18896592
62	0xbf280a60	-0.6564083
63	0xbeec1090	-0.46106386
64	0x3d3342f3	0.04376502
65	0xbe5c8d44	-0.21538264
66	0xbecabed0	-0.39598703
67	0xbeb0026a	-0.34376842
68	0xbf17f6b9	-0.59360844
69	0xbe12267a	-0.1427249
70	0xbe9c0583	-0.30472955
71	0x3e9c4a7c	0.30525577
72	0xbf0078fe	-0.5018462
73	0xbf47eb65	-0.7809356
74	0xbe81288a	-0.2522624
75	0xbf10e3c0	-0.5659752
76	0xbedfe91c	-0.43732536
77	0xbf8c26de	-1.0949361
78	0x3f55a058	0.8344779
79	0xbf07be03	-0.5302431
80	0xbf1c968d	-0.6116722
81	0xbee6e582	-0.45096976
82	0xbeef6694	-0.46757948
83	0x3dc9200a	0.09820564
84	0xbe3c79ce	-0.1840584
85	0xbecf6221	-0.40504554
86	0xbeeec99b	-0.46638188
87	0xbf0713d6	-0.5276464
88	0xbdb00da1	-0.085963495
89	0xbf1252ec	-0.5715778
90	0xbe3b8ec6	-0.18316182
91	0xbf1f7e57	-0.62302154
92	0xbf21551f	-0.6302051
93	0xbea92ddd	-0.33042803
94	0xbe9945fe	-0.29936212
95	0xbd9c9c41	-0.076469906
96	0x3ea2d4df	0.31803033
97	0xbf748523	-0.9551565
98	0xbf0fb829	-0.5614038
99	0xbefc3244	-0.492571
100	0xbe1109fa	-0.14163962
101	0xbf01b7b6	-0.50670946
102	0xbf2cc5f1	-0.67489535
103	0xbe3a0b64	-0.18168408
104	0xbf0ee9ec	-0.55825686
105	0xbf94c699	-1.1623107
106	0xbeaa494d	-0.3325905
107	0xbe533c76	-0.20628533
108	0xbef4feb0	-0.4785056
109	0xbd6fd308	-0.058550864
110	0x3e73771f	0.2377591
111	0x3d42f89a	0.047600366
112	0xbf2b0142	-0.66798794
113	0xbe9e437e	-0.30910867
114	0xbd49b4e5	-0.04924478
115	0xbf0fd988	-0.561913
116	0xbf3ed259	-0.74539715
117	0xbf171bfd	-0.5902708
118	0xbe1f70ff	-0.15570448
119	0xbea50c58	-0.3223598
120	0xbbbb7e60	-0.005721852
121	0xbef1b219	-0.4720619
122	0xbca42c8f	-0.020040778
123	0xbebeee35	-0.37291113
124	0xbeadb144	-0.33924305
125	0xbef79c01	-0.4836121
126	0xbeb78d4a	-0.35849983
127	0xbe6ade1f	-0.22936295
128	0xbf2f2ce5	-0.6842788
129	0xbea9a4c1	-0.3313351
130	0xbdb4e11a	-0.08831997
131	0xbf1212ad	-0.57059747
132	0xbede221d	-0.433854
133	0xbc8f4747	-0.017490042
134	0xbe718c94	-0.23588783
135	0xbf931d10	-1.1493244
136	0xbf1f711c	-0.62281966
137	0x3d4fed4c	0.050763413
138	0xbf26f9a3	-0.65224665
139	0xbf572fd4	-0.84057355
140	0x3ed3b28c	0.41347158
141	0xbea7ca67	-0.32771608
142	0xbf0b2f38	-0.54368925
143	0xbe32e9fd	-0.17472072
144	0xbf0a2342	-0.5396005
145	0xbf1ad47a	-0.60480464
146	0xbed171d0	-0.40907145
147	0xbe2bc729	-0.16775192
148	0xbee6ca3e	-0.45076174
149	0xbf08ec19	-0.53485256
150	0xbf17752f	-0.5916318
151	0x3e493e6b	0.19652717
152	0x3e2c7ad9	0.16843738
153	0xbf70d1d2	-0.9407016
154	0x3d08e497	0.033421125
155	0xbf1bf3b5	-0.6091874
156	0xbf0cd271	-0.5500861
157	0x3ca1c012	0.019744907
158	0xbf0be4df	-0.54646105
159	0xbee0b66f	-0.43889186
160	0xbda5c4fe	-0.08094214
161	0xbf25ad7b	-0.64717835
162	0xbe8b5990	-0.27216768
163	0xbf1ed52a	-0.6204401
164	0xbf2e50d6	-0.68092096
165	0xbf04009d	-0.51563436
166	0x3dee2327	0.116277985
167	0xbe5f2949	-0.21793093
168	0xbed81bdb	-0.42208752
169	0xbede1f55	-0.4338328
170	0xbf1a2a72	-0.60221016
171	0xbdb9f99e	-0.09080814
172	0xbf5fbc42	-0.87396634
173	0xbf43f25e	-0.765417
174	0xbedfc6f9	-0.43706492
175	0x3f6218c4	0.8831904
176	0xbebea0ae	-0.37231964
177	0xbeababda	-0.3352955
178	0xbdbbd743	-0.09171917
179	0x3f386905	0.7203525
180	0xbd8161d0	-0.063174844
181	0xbf00ba14	-0.5028393
182	0xbf80afcf	-1.0053653
183	0xbf32c840	-0.6983681
184	0xbe7d69b3	-0.24747352
185	0xbc4d7393	-0.012539762
186	0x3c13714b	0.008999179
187	0xbe64e0a1	-0.22351314
188	0xbedd665b	-0.43242154
189	0xbf38f958	-0.7225547
190	0x3fb1d4ea	1.3893101
191	0xbf0d0809	-0.55090386
192	0xbdf50e6c	-0.119656414
193	0xbeb2affc	-0.3489989
194	0x3db9bd92	0.09069361
195	0xbdf89ea0	-0.1213963
196	0xbea2898b	-0.31745562
197	0xbe5569cb	-0.20841138
198	0xbf0699ea	-0.52578604
199	0xbf62e91b	-0.8863694
200	0xbd1d06e7	-0.03833666
201	0xbea2356c	-0.31681383
202	0xbdbfebfe	-0.09371184
203	0x3d64d617	0.055868234
204	0xbf1ab58d	-0.60433275
205	0xbf1aa981	-0.6041489
206	0x3efe8601	0.49711612
207	0xbee3212f	-0.44361255
208	0xbf37b6bf	-0.71763223
209	0xbe587a21	-0.21140338
210	0xbee12407	-0.439728
211	0xbf55f5c3	-0.8357813
212	0xbf99445b	-1.1973985
213	0xbf2de370	-0.6792517
214	0xbf6b7c53	-0.9198658
215	0xbf6e6f4c	-0.93138576
216	0xbf0630fe	-0.52418506
217	0xbe48238d	-0.19544812
218	0xbf2107e6	-0.6290268
219	0xbf23605e	-0.6381892
220	0xbf72040e	-0.94537437
221	0xbe699b81	-0.22813226
222	0xbf0be7e8	-0.54650736
223	0x3f188995	0.59584934
224	0xbf03d032	-0.51489556
225	0xbe3b4204	-0.18286902
226	0xbd8780c1	-0.06616355
227	0xbf79d721	-0.97593886
228	0xbea97d5f	-0.33103463
229	0xbf06f668	-0.52719736
230	0xbe8535e8	-0.2601769
231	0xbdd1ab09	-0.102377005
232	0xbf32c57a	-0.69832575
233	0xbf032bda	-0.5123879
234	0xbf41ab46	-0.7565197
235	0xbf1c3604	-0.6101992
236	0xbf1d8e5c	-0.6154535
237	0xbe32d00f	-0.1746218
238	0xbe01ab4a	-0.12662998
239	0xbe9979fa	-0.29975873
240	0xbea22382	-0.31667715
241	0x3ed4a835	0.41534582
242	0xbe09adb3	-0.13445167
243	0xbebb8bf1	-0.36630204
244	0xbee62c73	-0.44955787
245	0xbf4525f5	-0.7701104
246	0xbefc836e	-0.49319023
247	0xbf80bbe1	-1.0057336
248	0xbe6873a4	-0.22700363
249	0xbf801015	-1.0004908
250	0xbf8e5848	-1.1120691
251	0xbc226394	-0.009911437
252	0x3df788d1	0.120866425
253	0xbeb85db0	-0.36008978
254	0xbeaa5560	-0.3326826
255	0xbf05082e	-0.51965606

gnn_node.convs.0.mlp.1.running_mean f4 [256]
0	0x41054a23	8.3306
1	0xc06e43f7	-3.7228982
2	0xc128b2cd	-10.543653
3	0x411f768b	9.966441
4	0x3fa2dab5	1.2722994
5	0x404c9351	3.1964915
6	0xc010713f	-2.256912
7	0xbf45c64a	-0.7725569
8	0x4089a7c2	4.3017282
9	0x3fa12dcc	1.2592101
10	0xbf22636a	-0.63432944
11	0xc10fcc62	-8.987398
12	0x40ef3a15	7.47584
13	0x3e38383e	0.17990205
14	0x40563cc5	3.347459
15	0x40c9caa6	6.3059874
16	0xbf5631cf	-0.8366975
17	0x40a7d08d	5.244208
18	0xc0b0ee5c	-5.5290966
19	0xc08c29de	-4.3801107
20	0xc02c0be7	-2.6882265
21	0xc0fa0008	-7.812504
22	0x413116d3	11.068072
23	0x40a605f7	5.188228
24	0xc0b20b8f	-5.563911
25	0xbeedf2fa	-0.4647444
26	0xc0edfe3f	-7.437286
27	0x4102e770	8.181503
28	0xc11691f9	-9.410638
29	0xc08e0507	-4.4381137
30	0xc0f4f316	-7.6546736
31	0x4125f57f	10.372436
32	0x3fd455ff	1.6588744
33	0x40a1adc7	5.052463
34	0x3fb751b2	1.4321806
35	0x41273b45	10.45197
36	0x40495ce2	3.146294
37	0x41513e6b	13.077739
38	0x3fe43285	1.7827917
39	0x402482db	2.5704868
40	0x3eac1d14	0.33615935
41	0xc141f4eb	-12.122294
42	0x40194d0c	2.3953276
43	0xbf86ca08	-1.0530405
44	0xc074268d	-3.814853
45	0xbf0d5c2b	-0.5521876
46	0xc05bbaa6	-3.433267
47	0xc08d9bca	-4.425267
48	0x40c3f53c	6.123686
49	0xc092d06c	-4.587942
50	0x411c7783	9.779178
51	0x40f6365d	7.694136
52	0xc0c0a993	-6.0207
53	0xc0d2856e	-6.578788
54	0x40b7f6d7	5.748882
55	0xbfd06e7d	-1.6283718
56	0xc11b0d0e	-9.690687
57	0xc0fe255a	-7.9420595
58	0x414459f7	12.271964
59	0xc028edf6	-2.639524
60	0xc0e53b38	-7.163479
61	0xbf879c70	-1.0594616
62	0xc02c448d	-2.691684
63	0xc0d16379	-6.5433927
64	0x41241ed1	10.257524
65	0x3f85618a	1.0420392
66	0x3f592e3f	0.8483619
67	0xc085d6fc	-4.182493
68	0x3dace638	0.08442348
69	0xbf9051ec	-1.1275
70	0x4086163f	4.1902156
71	0xc0d7c538	-6.7428246
72	0xbf355c32	-0.70843804
73	0x40240fa8	2.5634556
74	0xbfd221a0	-1.6416512
75	0xc052023a	-3.281386
76	0xbfe9cb67	-1.8265198
77	0xbf883ad6	-1.0642955
78	0x414a74b5	12.653493
79	0x41170bd4	9.440388
80	0xc095bed3	-4.679544
81	0x40378107	2.8672502
82	0xc09f8708	-4.9852333
83	0x410bebde	8.745085
84	0x3f56723b	0.8376805
85	0x408a9781	4.330994
86	0xc0a4a9b4	-5.1457157
87	0x415cdc38	13.803764
88	0x3d97d42a	0.07413514
89	0xc08a515e	-4.3224325
90	0x4118208e	9.507948
91	0xc1277b0a	-10.467539
92	0xbfac0e77	-1.3441914
93	0x4136dac6	11.4284115
94	0x40a351c1	5.1037297
95	0x3fedddd5	1.8583323
96	0x402ed1c6	2.7315536
97	0x410100fc	8.06274
98	0xc000ea92	-2.014317
99	0xc02ab50e	-2.6673007
100	0xbdf14a02	-0.11781694
101	0xc19ecc1c	-19.849663
102	0xc0c3883e	-6.110381
103	0x3f8fc516	1.1232021
104	0x4128e2f0	10.555405
105	0x410c35d8	8.763145
106	0xc0daac08	-6.8335
107	0xc154fad4	-13.311237
108	0x4015c5c6	2.3401961
109	0x4071a49b	3.7756717
110	0x400bfa5d	2.187156
111	0xc0d23ee7	-6.5701785
112	0xbfd7d936	-1.6863163
113	0xc0fd42c5	-7.9144006
114	0xc0047dd7	-2.0701807
115	0x407b1bda	3.923575
116	0xbfbe3042	-1.4858477
117	0xc0cf8110	-6.4845047
118	0x3f42b72f	0.76060766
119	0xc0216e77	-2.5223672
120	0xbf5aeea2	-0.85520375
121	0xc017e486	-2.373323
122	0x40a2883e	5.079131
123	0xc0d447f4	-6.6337833
124	0x4134875b	11.283046
125	0xc0e4bbe4	-7.147936
126	0xc10429bd	-8.26019
127	0xbf145704	-0.57945275
128	0xbf248f78	-0.64281416
129	0xc09dae62	-4.927537
130	0x4056c7a1	3.3559344
131	0xc0066110	-2.0996742
132	0xc11ef9d9	-9.935998
133	0x40e91ca3	7.2847457
134	0x40838adb	4.1107
135	0x40d3defb	6.6209693
136	0xbff2b7d5	-1.8962351
137	0xc100ded7	-8.054404
138	0xc0fef2b2	-7.967126
139	0x4033db38	2.810255
140	0xbf396921	-0.7242604
141	0x40e1aa51	7.0520406
142	0xc0b1adc0	-5.5524597
143	0xc08b551d	-4.35414
144	0x409b1ae5	4.847033
145	0x4060ce16	3.5125785
146	0x401caf90	2.4482155
147	0xc08df3b1	-4.4359975
148	0xc0a369a5	-5.106646
149	0xc0674e40	-3.614151
150	0x4144fa63	12.31113
151	0x409c5d07	4.886356
152	0x3fb4a1ae	1.4111841
153	0x408e2908	4.4425087
154	0x4081e9bf	4.0597835
155	0xc14d2ab5	-12.8229265
156	0xc09a34c8	-4.818943
157	0xc06c3d44	-3.6912394
158	0xbf9c502f	-1.221197
159	0x4044e636	3.076551
160	0xc098921d	-4.767836
161	0xc09da2c3	-4.9261184
162	0xc135757e	-11.341185
163	0xc08379b3	-4.108606
164	0xbf4a3f61	-0.7900296
165	0xc116709b	-9.402492
166	0xc0fd29a2	-7.911332
167	0xbffc2194	-1.9697747
168	0x40b4a472	5.645074
169	0x3fe87876	1.8161762
170	0xc0edd440	-7.4321594
171	0x4105ade7	8.354957
172	0x40d2cb64	6.587328
173	0x413fc150	11.984695
174	0x3e7a439f	0.24439858
175	0xc044c7cc	-3.0746946
176	0x3f9567ed	1.1672341
177	0x40a0e86d	5.0283723
178	0xbfcf8fce	-1.6215761
179	0xc0cefd54	-6.468424
180	0x3f5c537f	0.86064905
181	0xc0b1d936	-5.557765
182	0x3f0ee391	0.5581599
183	0xc1310508	-11.063728
184	0x4080badb	4.0228095
185	0x40e3cfbb	7.1191077
186	0x41460ad0	12.37764
187	0x4158962e	13.536665
188	0x40827888	4.0772133
189	0x4125e70c	10.368908
190	0xc046f820	-3.1088943
191	0xbf99e332	-1.202246
192	0x40c5fe9a	6.1873293
193	0xbf77ba8c	-0.9676902
194	0x4099f835	4.8115487
195	0x400beb03	2.186219
196	0x406fb9c1	3.7457125
197	0x40f74cde	7.728133
198	0x3f603097	0.8757414
199	0xc025f804	-2.5932627
200	0x40dc48a6	6.883868
201	0x3fa629d9	1.2981521
202	0xc0229d74	-2.5408602
203	0xc0be18f3	-5.9405456
204	0xc1800665	-16.003122
205	0x3f9c6ec6	1.2221305
206	0x416afdc5	14.686955
207	0x3fc75fdd	1.557613
208	0xc171e7e5	-15.119115
209	0xc0cf103d	-6.470732
210	0x40044e52	2.0672803
211	0x4110f739	9.060357
212	0x410b7e65	8.718358
213	0xc152c177	-13.172233
214	0xbf5fba6e	-0.87393844
215	0xbf04d8bb	-0.51893204
216	0xc12fd488	-10.9893875
217	0x3febcb27	1.8421372
218	0xc0ed53b8	-7.4164696
219	0xc0473c6d	-3.113063
220	0x41806fe0	16.054626
221	0xbfdea953	-1.7395424
222	0xbf64e8a9	-0.8941751
223	0x3fb10d0f	1.383211
224	0xc046ee48	-3.1082935
225	0xc126932e	-10.410933
226	0x4170b5ab	15.044353
227	0xbf0f81a1	-0.56057173
228	0xc1200ec1	-10.003602
229	0xc0b3615b	-5.605634
230	0x400c4495	2.191686
231	0x4191e583	18.237066
232	0xc1230239	-10.188043
233	0xbf6ba5e8	-0.9205003
234	0x4112457c	9.141964
235	0x3ffa3a9c	1.9549136
236	0xc04d54a0	-3.20829
237	0xc0e2d9ac	-7.0890713
238	0x40ba608f	5.824287
239	0x3f829170	1.0200634
240	0xc1287dae	-10.5306835
241	0x414f7ed8	12.968468
242	0xc128b52e	-10.544233
243	0xc0b230fa	-5.5684786
244	0x406aa2d0	3.6661873
245	0x3f639fe1	0.8891583
246	0xc0282be5	-2.627679
247	0x3e2a179b	0.16610567
248	0xc11cdb94	-9.803608
249	0xbfcfa281	-1.6221467
250	0x40ea116c	7.3146267
251	0x3fb9363a	1.4469674
252	0xc09423f6	-4.62939
253	0xc0ae6adc	-5.4505444
254	0x4049e966	3.1548705
255	0x4037f835	2.8745244

gnn_node.convs.0.mlp.1.running_var f4 [256]
0	0x434bf791	203.96706
1	0x41ebf1ed	29.493128
2	0x421d371f	39.30383
3	0x42831d2a	65.55696
4	0x4189ac92	17.209263
5	0x42501cc8	52.028107
6	0x42990ae1	76.52125
7	0x421b8524	38.88002
8	0x42d469d9	106.20673
9	0x428a102a	69.03157
10	0x431902cc	153.01093
11	0x42c318d2	97.54848
12	0x43941b78	296.2146
13	0x42aa91b9	85.284615
14	0x431f5fca	159.37418
15	0x422531a2	41.29847
16	0x421d963f	39.396725
17	0x4289f4ad	68.97788
18	0x413749b4	11.455494
19	0x429c95ed	78.29282
20	0x427eebd5	63.730305
21	0x42aeab9e	87.33519
22	0x424c9787	51.147976
23	0x422b81fb	42.876934
24	0x41d497f6	26.5742
25	0x4211997f	36.3999
26	0x42952102	74.56447
27	0x42d8b202	108.34767
28	0x42497d14	50.372147
29	0x421b175c	38.77281
30	0x4275b782	61.429207
31	0x42eead2f	119.33825
32	0x42b38b22	89.77174
33	0x43281cb9	168.1122
34	0x411a634d	9.649243
35	0x41e43f10	28.530792
36	0x420add7f	34.716305
37	0x420427ec	33.038986
38	0x4276e663	61.724987
39	0x42032a5f	32.791378
40	0x437f578f	255.34203
41	0x41c98c84	25.193611
42	0x42611e0a	56.279335
43	0x420b19f1	34.775333
44	0x42aa4f30	85.15466
45	0x42806423	64.19558
46	0x42504910	52.07135
47	0x42ddeb24	110.95926
48	0x424a7df2	50.622993
49	0x42236249	40.84598
50	0x41ebaa6e	29.458218
51	0x42545709	53.084995
52	0x4196b603	18.838873
53	0x433152a2	177.32278
54	0x43374d47	183.30186
55	0x429794be	75.79051
56	0x420bba48	34.931915
57	0x41a2b565	20.338572
58	0x428ebf00	71.37305
59	0x42755ea0	61.342407
60	0x4156a8e7	13.416236
61	0x42af645d	87.69602
62	0x421e8a07	39.634792
63	0x439dd32f	315.64987
64	0x4268783b	58.117413
65	0x43a14be2	322.59283
66	0x40d15273	6.5413146
67	0x42a37691	81.731575
68	0x41940054	18.50016
69	0x41f7028a	30.87624
70	0x430d7b18	141.48083
71	0x4189815b	17.188162
72	0x42b93a10	92.6134
73	0x429186dc	72.7634
74	0x4245e9f1	49.47846
75	0x427cfdf3	63.247997
76	0x42488bb1	50.136417
77	0x421fbf64	39.936905
78	0x433bf212	187.94559
79	0x42bbc452	93.88344
80	0x4316572e	150.34055
81	0x4204df1e	33.217888
82	0x42870828	67.51593
83	0x4243cbdc	48.94908
84	0x422847ce	42.07012
85	0x42d072f0	104.22449
86	0x433a3402	186.20316
87	0x424ba3fd	50.910145
88	0x42662536	57.53634
89	0x424da7e7	51.413967
90	0x424dd319	51.45615
91	0x4220a14a	40.15751
92	0x42ce6608	103.19928
93	0x427c823e	63.12719
94	0x43158fba	149.56143
95	0x41953513	18.650915
96	0x42680a88	58.010284
97	0x42a603d5	83.007484
98	0x42c05e52	96.18422
99	0x4289c927	68.892876
100	0x43a47c47	328.97092
101	0x41c74db1	24.912935
102	0x4266f517	57.739346
103	0x410a8c45	8.6592455
104	0x42b754c8	91.66559
105	0x428c1da9	70.05793
106	0x41c66730	24.800385
107	0x423fd228	47.95523
108	0x41a86995	21.051554
109	0x423b0171	46.751408
110	0x426f7d20	59.872192
111	0x424d76e8	51.36612
112	0x4289e6a3	68.95046
113	0x427d78d6	63.368004
114	0x42a5672b	82.7015
115	0x429c9f89	78.31159
116	0x4175e552	15.368486
117	0x4301b797	129.71715
118	0x431aca2c	154.78973
119	0x42b57718	90.732605
120	0x42be068a	95.01277
121	0x438b61d1	278.7642
122	0x42cb82f6	101.75578
123	0x41eedf46	29.85902
124	0x4255ecb6	53.481163
125	0x4284ceea	66.40413
126	0x4269622b	58.345867
127	0x430808c5	136.03426
128	0x418f6071	17.92209
129	0x42598d7b	54.388165
130	0x439ac782	309.55865
131	0x42b03b0c	88.115326
132	0x429127b5	72.57755
133	0x4231d3dc	44.456894
134	0x431a3160	154.19287
135	0x42dad00c	109.40634
136	0x41dddbd8	27.732346
137	0x4289b140	68.84619
138	0x42a261e5	81.1912
139	0x42908047	72.25054
140	0x41ee85ad	29.815271
141	0x434ac63a	202.77432
142	0x42e34f3b	113.65475
143	0x420666dd	33.600452
144	0x43bc0544	376.04114
145	0x4268b667	58.178127
146	0x41bd4044	23.65638
147	0x42945d54	74.18228
148	0x4348fda8	200.99084
149	0x412af158	10.683922
150	0x41e3202e	28.390713
151	0x42a5181a	82.54707
152	0x428c0f5a	70.02998
153	0x42caaf53	101.34243
154	0x42cfb267	103.84844
155	0x42bd6fba	94.718216
156	0x4392eb83	293.83994
157	0x42829d13	65.306786
158	0x4331f56b	177.95866
159	0x41c7d5b3	24.979345
160	0x4294a1ea	74.31624
161	0x428b1ad8	69.55243
162	0x419d46dc	19.6596
163	0x424f1028	51.765778
164	0x426e7317	59.612392
165	0x428e1264	71.03592
166	0x42683609	58.05277
167	0x4215a8cc	37.41484
168	0x420ff71f	35.99133
169	0x41368143	11.406558
170	0x42eef83f	119.484856
171	0x42176f35	37.8586
172	0x42ed259e	118.57347
173	0x41fd29fe	31.645504
174	0x4285e102	66.93947
175	0x42bf7b1c	95.74045
176	0x426457b0	57.085632
177	0x42c44f18	98.15448
178	0x42544c60	53.074585
179	0x42f8153a	124.04146
180	0x40f39d1d	7.612929
181	0x4308d496	136.83041
182	0x424368c5	48.852314
183	0x42ab1098	85.53241
184	0x41a8435a	21.032887
185	0x4291f304	72.97464
186	0x42e884f4	116.259674
187	0x42a6e2fa	83.44331
188	0x411f0aca	9.940134
189	0x42a76b1b	83.70919
190	0x431804ab	152.01823
191	0x41839267	16.446486
192	0x4351fbc7	209.9835
193	0x42ae2383	87.06936
194	0x4273c54b	60.94267
195	0x41e95fe6	29.171825
196	0x434ff447	207.95421
197	0x42ad9684	86.793976
198	0x41c95d02	25.170414
199	0x428ee68f	71.45031
200	0x42535968	52.83731
201	0x4269ccaa	58.449867
202	0x41bbe6f2	23.487766
203	0x427373e8	60.86319
204	0x42aa9866	85.29765
205	0x4308a2d8	136.63611
206	0x433e190f	190.09789
207	0x41b3dcae	22.482754
208	0x427e95db	63.646343
209	0x4217947b	37.895
210	0x4375f64d	245.96211
211	0x419b0642	19.378056
212	0x42afc3cd	87.88242
213	0x420766f4	33.85054
214	0x4298ea18	76.457214
215	0x42822c55	65.086586
216	0x419f531f	19.915586
217	0x418388ef	16.441862
218	0x4280972c	64.29526
219	0x4211de7f	36.46728
220	0x4299c4fe	76.88475
221	0x42801888	64.04791
222	0x430460fd	132.37886
223	0x425fc760	55.944702
224	0x43372ea0	183.18213
225	0x42fd2430	126.57068
226	0x41f532cf	30.649809
227	0x42b9920b	92.78524
228	0x42ac5489	86.16511
229	0x4228eb49	42.22977
230	0x41e5ed40	28.740845
231	0x42aa2cae	85.087265
232	0x42ce1fa3	103.06179
233	0x41f04ee6	30.038525
234	0x423a710d	46.6104
235	0x41b8b7e1	23.089785
236	0x41eec854	29.847816
237	0x4392a3ca	293.2796
238	0x433eda66	190.85312
239	0x430a1bdd	138.10884
240	0x4273ca99	60.94785
241	0x42325154	44.579422
242	0x4230dbbf	44.214596
243	0x430d75b6	141.45981
244	0x43aa4d6d	340.6049
245	0x41fb6899	31.426073
246	0x4325ad56	165.6771
247	0x41bd116a	23.633503
248	0x42a0d09b	80.40743
249	0x42945138	74.15863
250	0x42776740	61.85083
251	0x422b5484	42.832535
252	0x42701c70	60.02777
253	0x42f1c410	120.882935
254	0x4223fb68	40.995514
255	0x4302fc48	130.98547
