checkpoints/A_epoch_160.pth (torch, 843999 bytes, 48 tensors)

gnn_node.node_encoder.weight f4 [1, 128]
-0.71465296 0.39762643 -0.66892135 0.47750503 -0.02079035 0.8591434 0.55280447 -0.15301746
0.053542912 -0.6381917 -0.277702 -0.6099115 -0.9289386 0.7969728 -3.0944355 -0.92205274
-0.17637208 0.21720725 0.11169912 -1.0716729 -0.71745956 -0.8988293 -0.25841403 -1.3806978
-1.0559914 -1.6836967 -2.0272295 -1.1477429 -0.4295969 -0.73926055 -0.34188032 -2.8121448
-0.35296762 -1.5364301 0.09662488 0.520956 0.5155179 -1.1135386 -0.031260077 0.3223114
-1.6934148 -0.6313105 0.49876586 -1.8094016 0.18603626 0.270444 -1.3677205 -2.4120867
-0.21784216 -1.7165226 -0.84270906 -0.769761 0.16789639 -0.5478757 -1.1060808 -0.30460575
0.4600607 0.5745663 0.12080364 0.19141091 -1.2109241 0.11684065 0.24673061 -0.03445283
-2.2024171 -0.26658762 -1.9960287 -1.4868674 -1.9759926 1.2101158 0.85025615 -0.7673899
0.34081703 -1.2612778 -0.5207544 -0.013446696 -0.27544737 -0.1612418 0.12949048 -0.21524082
-1.3359987 -1.2859019 -1.708499 0.64665085 0.542728 0.42769593 0.39822218 -0.1530494
-0.630404 0.18811385 -1.7942543 -0.4635471 -0.73994714 0.58506733 -1.431163 -0.5221588
-0.8801989 -0.2578758 -0.063753694 -0.21420619 -1.2472669 -1.2719586 -1.956166 -0.820738
-1.6356051 0.43622294 0.8823645 -1.5469513 -0.5941025 -0.97964895 -1.0008366 -0.80126834
-0.37821108 -2.0549574 -1.2635769 -1.4334252 -0.21363853 -2.3080404 0.30309302 -0.13411658
-0.8034646 -0.95186025 0.41921213 0.15280403 -0.6398346 0.6128112 -1.5653082 0.5039695
00000000: 7ff3 36bf b195 cb3e 6e3e 2bbf 8a7b f43e
00000010: 8650 aabc d2f0 5b3f 9884 0d3f 9cb0 1cbe
00000020: d04f 5b3d 8860 23bf f52e 8ebe 2923 1cbf
00000030: ecce 6dbf 6906 4c3f 3b0b 46c0 a60b 6cbf
00000040: e29a 34be 946b 5e3e 82c2 e43d 942c 89bf
00000050: 6eab 37bf ad19 66bf d84e 84be b5ba b0bf
00000060: ba2a 87bf 6083 d7bf 21be 01c0 3de9 92bf
00000070: 20f4 dbbe 2e40 3dbf f00a afbe 2efa 33c0
00000080: 2cb8 b4be bea9 c4bf 44e3 c53d 5f5d 053f
00000090: fbf8 033f 6f88 8ebf 910a 00bd 0006 a53e
000000a0: d1c1 d8bf 919d 21bf 3d5e ff3e 799a e7bf
000000b0: 4a80 3e3e a377 8a3e 7711 afbf a15f 1ac0
000000c0: 0412 5fbe 03b7 dbbf c8bb 57bf 0f0f 45bf
000000d0: 08ed 2b3e 9541 0cbf 0e94 8dbf 49f5 9bbe
000000e0: 138d eb3e c716 133f e667 f73d 3901 443e
000000f0: 90ff 9abf 274a ef3d f3a6 7c3e 691e 0dbd
00000100: 67f4 0cc0 2c7e 88be de7d ffbf ac51 bebf
00000110: 53ed fcbf 13e5 9a3f 63aa 593f aa73 44bf
00000120: 927f ae3e 8d71 a1bf 2950 05bf 884f 5cbc
00000130: 7007 8dbe 921c 25be 2799 043e 1768 5cbe
00000140: 0102 abbf 6f98 a4bf 18b0 dabf e98a 253f
00000150: 39f0 0a3f f6fa da3e c7e3 cb3e fbb8 1cbe
00000160: 2862 21bf eba0 403e 20aa e5bf 0c56 edbe
00000170: 2d6d 3dbf f9c6 153f 5930 b7bf 33ac 05bf
00000180: b754 61bf 4c08 84be 4c91 82bd de58 5bbe
00000190: 71a6 9fbf 8acf a2bf a663 fabf e31b 52bf
000001a0: 825b d1bf 9d58 df3e a4e2 613f 8002 c6bf
000001b0: 1a17 18bf 46ca 7abf 6a1b 80bf ec1f 4dbf
000001c0: e2a4 c1be 6c84 03c0 e3bc a1bf 7a7a b7bf
000001d0: 0fc4 5abe efb6 13c0 022f 9b3e db55 09be
000001e0: dbaf 4dbf 1dad 73bf f9a2 d63e a978 1c3e
000001f0: 33cc 23bf 32e1 1c3f 055c c8bf 2504 013f

gnn_node.virtualnode_embedding.weight f4 [1, 128]
-0.5223469 -0.48875767 -0.8178213 -0.50995845 -0.35334358 -0.9497052 -0.5041683 -0.65766805
-0.5550207 -0.15074481 -0.058406238 -0.59612584 -0.3093305 -1.2171139 -0.86855966 -0.11765676
-0.30225596 -0.24068022 -0.91567427 -0.25779653 -0.32242718 -0.18412055 -0.0611167 0.03119729
-0.3876282 -0.37652054 -0.08562395 -0.17576267 -0.49350405 -0.40082762 -0.09331323 0.013975272
-0.23018561 -0.34521315 -0.77426034 -0.39293477 0.12819286 -0.52862394 -0.7224074 -0.36050823
-0.26930085 -0.41214067 -1.0246824 -0.33231544 -0.22707261 -0.41378567 0.12792963 -0.2933476
-0.89794046 -0.24816293 -0.34406215 -0.42310736 -0.35706007 0.076841146 -0.5225597 -0.2139245
-0.23823844 -0.62489796 -0.8902049 -0.635647 -0.29521146 -0.31174445 -0.36842385 -0.3861361
-1.4133123 -0.025198208 -0.67391837 -0.7018878 -0.43993518 -0.81588 -0.65736955 0.06701725
-0.48207211 -0.4835906 -0.37253687 -0.45310622 -0.4826233 -0.36338973 -0.4494413 -0.40370542
-0.30672908 -0.0432918 -0.46347225 -1.2373389 -0.009845834 -0.29542875 -0.44651726 -0.5719059
-0.25603214 -0.11489651 -0.40129218 -0.3922962 -0.15396942 -0.17751196 -0.4179641 -0.22624314
-0.45264736 -0.4719191 -0.3990913 -0.38412565 -0.4541042 -0.31676778 -0.037241668 0.0362534
-0.0071799154 -0.8186396 -0.7551323 -0.69659674 -0.19571978 -0.6250369 -0.40107548 -0.56019074
-0.27697518 -0.22024733 -0.07437297 -0.19345064 -0.8651815 -0.95595807 -0.14081162 -0.43772176
-0.4113204 -0.4290056 -0.5617173 -0.20613316 -0.3848121 -0.49371266 -0.09271502 -0.36618796
00000000: 87b8 05bf 723e fabe bd5c 51bf a38c 02bf
00000010: 73e9 b4be e11f 73bf 2c11 01bf ef5c 28bf
00000020: d615 0ebf d95c 1abe 613b 6fbd b49b 18bf
00000030: 9160 9ebe 63ca 9bbf ed59 5ebf 07f6 f0bd
00000040: 4bc1 9abe e074 76be a169 6abf e8fd 83be
00000050: 2d15 a5be 198a 3cbe 8155 7abd 7691 ff3c
00000060: 3477 c6be 4dc7 c0be 9c5b afbd 21fb 33be
00000070: 90ac fcbe 4739 cdbe 021b bfbd 8af8 643c
00000080: c7b5 6bbe c7bf b0be ed35 46bf bf2e c9be
00000090: fd44 033e e653 07bf b1ef 38bf 8994 b8be
000000a0: cde1 89be 1a04 d3be cb28 83bf 4025 aabe
000000b0: b985 68be b7db d3be fcff 023e a831 96be
000000c0: 6ddf 65bf 6c1e 7ebe ea28 b0be 87a1 d8be
000000d0: 94d0 b6be e45e 9d3d 79c6 05bf 060f 5bbe
000000e0: c7f4 73be 50f9 1fbf 78e4 63bf c3b9 22bf
000000f0: f525 97be f89c 9fbe 0da2 bcbe a2b3 c5be
00000100: 6be7 b4bf 796c cebc ea85 2cbf ebae 33bf
00000110: 2f3f e1be 83dd 50bf 5f49 28bf 5740 893d
00000120: 28d2 f6be 3099 f7be 27bd bebe 8afd e7be
00000130: 671a f7be 380e babe 2c1d e6be 7ab2 cebe
00000140: 980b 9dbe be52 31bd 3c4c edbe 1f61 9ebf
00000150: 6c50 21bc 7042 97be e99d e4be 6d68 12bf
00000160: a516 83be dd4e ebbd 2b76 cdbe 0cdb c8be
00000170: 29aa 1dbe b2c5 35be 64ff d5be 48ac 67be
00000180: 65c1 e7be 619f f1be b255 ccbe 1eac c4be
00000190: 5880 e8be 632f a2be b88a 18bd 727e 143d
000001a0: 7f45 ebbb 5d92 51bf 5a50 41bf 2a54 32bf
000001b0: c46a 48be 6b02 20bf c459 cdbe a968 0fbf
000001c0: b1cf 8dbe 8488 61be db50 98bd ed17 46be
000001d0: 897c 5dbf abb9 74bf ec30 10be 111d e0be
000001e0: 9698 d2be 9fa6 dbbe b4cc 0fbf 9214 53be
000001f0: 1706 c5be e8c7 fcbe 5fe1 bdbd fd7c bbbe

gnn_node.convs.0.mlp.0.weight f4 [256, 128]
0.029054033 -1.0897534 -1.3899761 -0.62968105 0.14984252 -0.609347 -0.16655543 -0.9661775
-0.39160058 0.0259996 -0.5149644 0.08426469 0.035709176 -0.10011962 0.050290745 -0.03181459
-0.6705912 -0.2243015 -0.2848851 0.03550765 -0.7835939 -0.037842184 0.35689008 -0.043137934
-0.10993728 -0.13933782 0.12222422 -0.039441153 -1.398046 0.25463423 -0.015632102 0.12465756
-1.1769874 -0.12410129 -0.0511082 0.3758728 -0.8268968 0.09614009 -3.1839135 -0.65713984
-0.015436918 0.30524507 -0.14186351 0.1803066 0.3844331 0.80261844 0.13169684 -0.11068115
0.6341053 -0.092490576 0.6841224 -2.9128132 -0.9045558 -0.45551383 -0.06734541 -0.023892997
0.20636359 0.15227538 -0.4616682 -0.34025595 0.048734974 0.006410993 -0.48168626 -0.18536316
-0.2208136 -0.119896084 0.0075855386 -0.05129856 0.14568053 -0.07769062 -0.28456372 0.010192956
-0.038125884 0.027955892 -0.057879172 -0.5768702 0.085995674 -1.2992158 -1.4376513 0.006812979
0.0675625 0.09457028 0.0141578065 -0.0113540925 -0.2035925 0.061422884 0.17140923 0.5832759
-0.1036819 0.014953943 0.082097284 -0.12332581 -3.1431878 0.24573788 0.09889272 -0.103271775
0.13180298 -1.084212 -0.539034 -0.21031997 0.04620119 0.08689091 -0.09707797 0.024598215
0.035398785 0.038565096 0.01871868 -0.053359687 0.1890415 -0.088392675 0.5716242 -0.034039527
0.26220647 0.072073035 -0.0064280885 0.00860498 -0.3295969 0.16689995 -0.015971152 -0.60665673
0.32310155 -3.5168436 0.0053243497 0.09958755 0.3030135 -0.3915397 0.12108244 -0.42067704
-0.04831415 -0.034317065 -0.3186884 0.49482906 0.11534385 0.17700933 0.6373954 0.8200198
-0.2892613 -0.058937892 -0.8244463 0.08240975 -0.090553164 0.060453124 0.075868875 -0.040959254
-0.2315418 -0.053472687 0.3639355 0.04329846 -0.6469139 1.2151434 0.20866548 -0.038552873
-0.009393815 -0.022313375 0.04578605 -0.028380983 -0.39276326 -2.1790082 -0.5585897 -0.011886989
-0.23539767 -0.039967988 0.13984823 -1.0607495 -0.6890653 0.009786247 1.06798 0.019281093
0.041909255 0.72586906 -0.0825816 0.064341836 -0.57907546 0.7639607 0.027752267 -0.036041643
1.3792398 -0.0774185 0.18552108 0.09112311 0.43553656 -0.22938846 0.01111092 -0.07774493
-0.018468224 -0.03854059 -0.7774851 0.35322773 -0.10166468 -0.53531474 0.13064471 -0.042064115
0.09548091 0.1093242 -0.06316747 0.040923722 0.0057479 -0.2766064 -0.17947419 0.057707902
0.035567544 -0.06318505 0.0026791843 -0.7245613 1.1719629 -0.09594676 0.08869717 -0.5281557
0.010362423 -0.035329685 -0.07105384 0.1911607 -0.08408019 0.28902704 -1.0738413 -0.22369327
0.049499467 -0.7738314 0.07812872 0.1219562 -0.4429446 -0.025278343 -0.023896541 -3.1241987
-0.20857781 -2.13672 1.9352947 0.105156444 0.0009510838 -0.039178364 0.089712046 0.08086672
-0.06442026 0.1498787 -0.13897921 0.09277441 -0.023136396 -0.041657947 0.673499 0.011145223
0.81670785 -0.046807013 0.052171204 0.047330692 0.07416503 -0.047404245 0.0069716815 -0.007894291
0.24349302 0.9170834 -0.08547683 -0.22315323 0.17556334 0.2699919 0.07007056 -0.055563293
00000000: b902 ee3c 0a7d 8bbf bdea b1bf c732 21bf
00000010: 5170 193e 2afe 1bbf 828d 2abe 6957 77bf
00000020: df7f c8be 1dfd d43c b5d4 03bf f792 ac3d
00000030: c943 123d 840b cdbd abfd 4d3d 0450 02bd
00000040: ddab 2bbf 4baf 65be 76dc 91be 7870 113d
00000050: 9c99 48bf 6800 1bbd 4cba b63e 67b1 30bd
00000060: cc26 e1bd 93ae 0ebe b150 fa3d 0c8d 21bd
00000070: 2cf3 b2bf 6b5f 823e e50e 80bc 764c ff3d
00000080: 86a7 96bf d128 febd d556 51bd 6672 c03e
00000090: 82af 53bf 18e5 c43d 3dc5 4bc0 513a 28bf
000000a0: 20eb 7cbc 1549 9c3e ab44 11be 4ba2 383e
000000b0: 6ad4 c43e 6778 4d3f 89db 063e ccac e2bd
000000c0: ba54 223f b36b bdbd a522 2f3f 886b 3ac0
000000d0: f890 67bf 1c39 e9be 64ec 89bd 3fbb c3bc
000000e0: fa50 533e 14ee 1b3e c65f ecbe 0736 aebe
000000f0: 539e 473d 4f13 d23b 959f f6be d7cf 3dbe
00000100: f61c 62be 148c f5bd 1c90 f83b 701e 52bd
00000110: 472d 153e 431c 9fbd 56b2 91be 5b00 273c
00000120: e329 1cbd c103 e53c b612 6dbd c4ad 13bf
00000130: 801e b03d b44c a6bf f504 b8bf 693f df3b
00000140: 355e 8a3d 10ae c13d 25f6 673c 8406 3abc
00000150: 8d7a 50be 9096 7b3d e785 2f3e 9251 153f
00000160: 2d57 d4bd 6201 753c 9f22 a83d 3e92 fcbd
00000170: fd29 49c0 b6a2 7b3e 4488 ca3d 2780 d3bd
00000180: 5cf7 063e 75c7 8abf 22fe 09bf 1e5e 57be
00000190: 763d 3d3d ddf3 b13d d1d0 c6bd 3282 c93c
000001a0: 51fe 103d 6ff6 1d3d eb57 993c b08f 5abd
000001b0: 1894 413e 3807 b5bd f755 123f 086d 0bbd
000001c0: ed3f 863e 079b 933d b7a2 d2bb e7fb 0c3c
000001d0: edc0 a8be d2e7 2a3e efd5 82bc db4d 1bbf
000001e0: 916d a53e f713 61c0 e277 ae3b 8ff4 cb3d
000001f0: 9624 9b3e e477 c8be 12fa f73d fb62 d7be
00000200: 0fe5 45bd 0d90 0cbd 202b a3be 3c5a fd3e
00000210: 6539 ec3d ef41 353e 582c 233f d1ec 513f
00000220: 0f1a 94be dc68 71bd ea0e 53bf 71c6 a83d
00000230: f073 b9bd b29d 773d 2461 9b3d e4c4 27bd
00000240: 4b19 6dbe 2d06 5bbd c155 ba3e ba59 313d
00000250: 269c 25bf d289 9b3f 67ac 553e 9ee9 1dbd
00000260: 84e8 19bc 8aca b6bc 278a 3b3d 3c7f e8bc
00000270: 4418 c9be df74 0bc0 bcff 0ebf a5c1 42bc
00000280: 160c 71be 79b5 23bd 6034 0f3e a4c6 87bf
00000290: 9566 30bf 7f56 203c 92b3 883f 62f3 9d3c
000002a0: 0aa9 2b3d 8ed2 393f 8b20 a9bd a7c5 833d
000002b0: 4a3e 14bf ee92 433f b958 e33c 67a0 13bd
000002c0: ee8a b03f 978d 9ebd 3df9 3d3e c19e ba3d
000002d0: a6fe de3e cfe4 6abe 940a 363c bc38 9fbd
000002e0: ac4a 97bc bddc 1dbd 4309 47bf 44da b43e
000002f0: 9235 d0bd 630a 09bf bac7 053e 6c4b 2cbd
00000300: 7f8b c33d 5ee5 df3d f25d 81bd a29f 273d
00000310: e158 bc3b 5b9f 8dbe 15c8 37be 1f5f 6c3d
00000320: 46af 113d 2a67 81bd 4195 2f3b d97c 39bf
00000330: e102 963f bc7f c4bd dda6 b53d 3635 07bf
00000340: 27c7 293c dcb5 10bd ad84 91bd a1bf 433e
00000350: 3c32 acbd 5afb 933e a273 89bf d90f 65be
00000360: f4bf 4a3d d119 46bf f301 a03d 2cc4 f93d
00000370: a2c9 e2be 8714 cfbc aec2 c3bc dff2 47c0
00000380: 6c95 55be 05c0 08c0 bdb7 f73f 435c d73d
00000390: 2752 793a 7e79 20bd f3ba b73d 739d a53d
000003a0: c5ee 83bd cd79 193e 9150 0ebe 8300 be3d
000003b0: 8a88 bdbc 86a1 2abd 6e6a 2c3f 749a 363c
000003c0: c413 513f b6b8 3fbd 79b1 553d d4dd 413d
000003d0: d6e3 973d f42a 42bd b472 e43b 0e57 01bc
000003e0: 3c56 793e fac5 6a3f 7a0e afbd 4882 64be
000003f0: e0c6 333e 613c 8a3e 2781 8f3d 5696 63bd

gnn_node.convs.0.mlp.0.bias f4 [256]
-0.08367708 -0.015808687 0.028953759 -0.0012024686 -0.059012897 6.503085e-05 0.0017671388 0.07488236
-0.06392196 0.033236496 0.03709926 -0.07740927 -0.06638818 -0.04519667 0.026928693 0.07243763
0.038433716 -0.047119096 -0.017060008 -0.05336505 0.062054165 0.062651865 -0.020330451 -0.04756731
-0.036362004 0.053054962 -0.080044135 0.0030312822 0.029579107 -0.08363954 0.04503109 -0.08340639
-0.05443564 0.07254836 -0.060191456 0.06590193 0.087116204 -0.007728638 -0.054810684 -0.05888986
-0.001884672 -0.01631926 -0.04932126 0.029787395 -0.09613344 0.07454179 0.045019273 0.04022807
-0.015486459 -0.012514397 0.077735886 0.07984955 -0.082792304 0.0035535872 0.0543037 0.013417623
0.06186511 0.08026454 -0.018440586 0.008198456 -0.06105259 0.071567096 0.00064886885 0.025410794
-0.07952878 0.057052016 0.009282327 -0.033575527 -0.050003685 -0.07526085 0.06411446 0.029339345
0.03532735 -0.05472435 0.069580175 -0.013428034 0.07646305 -0.06270516 -0.015354007 0.070813864
-0.06350808 -0.036956128 -0.030541038 0.04222238 0.084918566 0.032486286 0.018107448 -0.011687618
-0.011599557 -0.06716117 -0.08921739 -0.03322146 -0.021441337 -0.03671186 -0.0150577435 0.028552305
0.029421085 0.0010649094 0.042805243 0.00023400765 0.0014096376 -0.060711455 -0.051722378 -0.064024344
0.05591374 0.037834242 0.13022375 -0.07242807 -0.05526046 -0.063440904 -0.063903145 0.051739387
-0.028150922 0.07367071 0.06548498 -0.07700863 0.075819954 0.06007183 -0.002754323 -0.007652635
0.012395329 -0.011283327 0.053059023 -0.048767973 -0.07708791 -0.036281846 -0.06948263 0.06539391
-0.016292952 0.044890378 -0.081853166 -0.073917694 0.053305518 0.076993056 0.042792387 -0.060832344
0.0577539 -0.054833733 0.024859652 0.0035276841 0.012149522 0.044482023 -0.06331801 -0.08183841
-0.011608079 0.06440076 0.05111322 -0.0005818489 0.05696004 -0.073278844 0.012701655 0.06796242
0.08703093 -0.010014436 -0.06148442 0.002715925 0.042380158 0.041819137 0.05138626 -0.06449306
0.0076445546 0.06472217 0.040333286 0.024849584 -0.044903938 0.014150796 -0.052514307 0.031498455
0.06608318 0.04584504 -0.066612974 0.043648608 0.057231452 -0.014937362 -0.040291544 -0.013175449
-0.0136844935 -0.0942033 0.04557474 -0.03361285 0.002625601 -0.022934021 0.0029052638 -0.016156273
0.014819702 -0.008303996 0.024317887 -0.08619776 0.020274065 -0.049800985 0.058676694 0.02383277
0.08415785 0.0880907 -0.04485798 -0.088381834 0.0026294172 0.11406501 -0.011808682 -0.07432339
-0.02647186 -0.089201726 -0.072849095 0.008052215 -0.0894507 0.004949409 0.030019753 -0.05272104
0.04335254 0.0022123265 -0.07078998 0.06702538 -0.019747408 -0.08160799 0.047606047 -0.029113384
0.063190244 0.01732038 -0.074791074 -0.0815475 0.015552428 0.010774887 0.01439406 -0.009186766
-0.048620664 0.008867137 0.01093367 0.06288914 0.041137315 0.039748203 -0.060841985 0.11337343
0.05472414 0.02301307 0.07445877 -0.08295037 -0.05891884 0.015706334 0.006961093 0.01612556
0.017850267 -0.0040867953 -0.050216768 -0.01934931 0.07183161 0.052871972 0.06797739 0.060079433
-0.04208901 -0.03182939 -0.043407995 -0.07193911 -0.046989504 -0.012253068 0.04152232 0.039073095
00000000: e45e abbd 3881 81bc 6f30 ed3c 279c 9dba
00000010: 82b7 71bd 2c61 8838 579f e73a ec5b 993d
00000020: 84e9 82bd fe22 083d 65f5 173d c088 9ebd
00000030: 87f6 87bd 2520 39bd 9099 dc3c 2e5a 943d
00000040: ac6c 1d3d f4ff 40bd 6ec1 8bbc 5095 5abd
00000050: 822c 7e3d 9f4f 803d 0c8c a6bc f1d5 42bd
00000060: 53f0 14bd 2950 593d 2eee a3bd 7aa8 463b
00000070: e24f f23c 354b abbd 8572 383d f8d0 aabd
00000080: e8f7 5ebd 3c94 943d 518b 76bd 97f7 863d
00000090: fb69 b23d 8440 fdbb 2b81 60bd 7e36 71bd
000000a0: 1907 f7ba f8af 85bc 1705 4abd b204 f43c
000000b0: 9ce1 c4bd 5ea9 983d 2166 383d 30c6 243d
000000c0: ebba 7dbc 2f09 4dbc fe33 9f3d 2988 a33d
000000d0: 038f a9bd 4de3 683b 8e6d 5e3d 97d5 5b3c
000000e0: 4566 7d3d bc61 a43d b610 97bc d152 063c
000000f0: 4812 7abd c591 923d da18 2a3a 4c2a d03c
00000100: fcdf a2bd 60af 693d e714 183c 7e86 09bd
00000110: aad0 4cbd 5c22 9abd 714e 833d 1159 f03c
00000120: 69b3 103d a426 60bd 0d80 8e3d 4201 5cbc
00000130: a998 9c3d 906b 80bd 5f8f 7bbc dc06 913d
00000140: 8610 82bd 4f5f 17bd 3331 fabc 60f1 2c3d
00000150: c9e9 ad3d 5710 053d 1256 943c 6c7d 3fbc
00000160: 110c 3ebc cc8b 89bd 9bb7 b6bd 3a13 08bd
00000170: bea5 afbc 2d5f 16bd c1b4 76bc 86e6 e93c
00000180: 7d04 f13c 6e94 8b3a 8d54 2f3d f35f 7539
00000190: 97c3 b83a 93ac 78bd d8da 53bd 321f 83bd
000001a0: ce05 653d 14f8 1a3d 6059 053e 2b55 94bd
000001b0: cb58 62bd 4eed 81bd a7df 82bd aeec 533d
000001c0: c39c e6bc abe0 963d fd1c 863d b3b6 9dbd
000001d0: 7e47 9b3d e10d 763d df81 34bb f5c2 fabb
000001e0: c715 4b3c b4dd 38bc 6b54 593d edc0 47bd
000001f0: 44e0 9dbd 469c 14bd e94c 8ebd 3eed 853d
00000200: cc78 85bc f9de 373d a2a2 a7bd 2962 97bd
00000210: e356 5a3d 89ae 9d3d 1247 2f3d 562b 79bd
00000220: 5a8f 6c3d 5699 60bd 78a6 cb3c b830 673b
00000230: ca0e 473c c832 363d dfac 81bd e59a a7bd
00000240: d02f 3ebc 8ce4 833d 195c 513d 3887 18ba
00000250: ee4e 693d 3813 96bd 9a1a 503c e22f 8b3d
00000260: 463d b23d 9713 24bc 16d7 7bbd a9fd 313b
00000270: d196 2d3d 8b4a 2b3d 667a 523d f014 84bd
00000280: 2c7f fa3b 0f8d 843d 8434 253d 5b91 cb3c
00000290: 31ed 37bd bed8 673c 3e19 57bd 8604 013d
000002a0: 9e56 873d 02c8 3b3d 626c 88bd e2c8 323d
000002b0: 876b 6a3d d6bb 74bc bf08 25bd d7dd 57bc
000002c0: ed34 60bc a9ed c0bd 94ac 3a3d a1ad 09bd
000002d0: 4612 2c3b 21e0 bbbc 3d66 3e3b 295a 84bc
000002e0: 56ce 723c 7c0d 08bc 4e36 c73c 7488 b0bd
000002f0: cc15 a63c 1efc 4bbd f956 703d f13c c33c
00000300: f35a ac3d e668 b43d 00bd 37bd 8901 b5bd
00000310: 4d52 2c3b ea9a e93d 3479 41bc dd36 98bd
00000320: 84db d8bc 65af b6bd e831 95bd 70ed 033c
00000330: ee31 b7bd a72e a23b fceb f53c 04f2 57bd
00000340: 6f92 313d aefc 103b 56fa 90bd 9a44 893d
00000350: 51c5 a1bc 1722 a7bd 8ffe 423d 317f eebc
00000360: e369 813d 78e3 8d3c 102c 99bd 6002 a7bd
00000370: 9ccf 7e3c 2789 303c 10d5 6b3c 1784 16bc
00000380: 7626 47bd 7847 113c 2323 333c 05cc 803d
00000390: 9a7f 283d 03cf 223d 7235 79bd 5430 e83d
000003a0: 6b26 603d e885 bc3c d77d 983d e2e1 a9bd
000003b0: e254 71bd 92aa 803c e119 e43b c019 843c
000003c0: b93a 923c 86ea 85bb 19b0 4dbd 7282 9ebc
000003d0: 731c 933d 4890 583d bb37 8b3d da15 763d
000003e0: 8765 2cbd 895f 02bd 95cc 31bd d054 93bd
000003f0: 1178 40bd 18c1 48bc 4f13 2a3d 1c0b 203d

gnn_node.convs.0.mlp.1.weight f4 [256]
1.4581628 0.72016144 0.48820016 0.4706331 0.44814223 1.6452821 1.4346472 0.11299931
1.8395952 1.1365167 1.0192505 1.485406 1.9576495 0.49514806 1.0865281 1.0510768
1.5427709 0.6267448 0.44595712 0.2476203 0.16425893 1.7813141 1.6023145 0.9379519
0.54781884 1.4484171 1.3916818 0.48581222 2.1178718 1.342644 1.1405977 1.0066682
0.24181777 0.31429988 0.0031853614 0.56009936 -0.0050285 0.70497036 -0.014445458 -0.010671745
2.2063332 1.2138003 2.3072286 1.3835061 1.7473708 0.5277873 1.9975035 1.4790658
0.07652288 2.1080372 0.94750744 -0.016902532 0.6701428 1.7243122 0.6932899 1.2193633
1.3181535 0.5588133 0.13487726 0.025678962 0.9525695 1.0675192 0.014101954 2.6711946
0.678156 0.78844345 0.010737033 0.12416232 0.5937897 0.9980071 2.2249467 0.87581986
0.26879984 0.5428616 0.58595866 1.4819999 0.0004113523 0.4895309 1.1296996 2.0435603
2.416265 1.36646 1.5732627 0.082323484 1.3928938 2.0749807 1.5494916 1.8920659
1.5583227 0.2519629 1.5621245 1.9502285 2.2448735 1.5338194 1.7700127 -0.006232687
0.001521398 0.38328788 1.5704886 1.1950517 1.8562199 1.3261422 0.9469284 0.009112514
1.8684614 0.58746916 1.7056746 1.8809977 -0.006733829 0.14747667 1.1296947 2.07199
0.119868204 1.2268621 0.98756456 1.4662689 1.2375164 1.670722 0.98546886 1.1416999
1.0065763 1.9205421 -0.012236389 0.67108876 1.530336 1.9400128 1.2555915 1.197848
1.5746768 0.8003106 2.051726 1.7724773 0.8061857 1.1006606 1.665801 0.433903
0.10875354 2.0178103 1.5018286 0.7063832 0.07206278 1.4225458 1.2195154 0.85120475
2.1629193 0.23824042 2.0085952 0.43882218 1.4777774 0.005703153 0.19873004 -0.009482485
1.1348155 0.04757175 1.2646261 1.7545877 1.6981741 1.4072129 1.0024823 1.6585654
1.5678892 1.6093578 0.8388123 1.8267506 0.24970248 0.9756771 1.751559 0.3627827
1.766697 0.5164602 1.5223348 0.35716748 0.6087996 0.7816814 1.1668632 0.37536895
1.0433339 2.00504 0.04303107 0.62489325 7.18676e-05 1.6404073 0.12887116 0.9198449
1.2854359 1.3662016 2.0160666 1.7782655 0.004381669 0.31984174 0.9547671 0.42890784
1.6631068 1.1869555 0.01026308 0.0023650413 1.5253547 1.6676083 0.48428896 0.5318423
0.9812141 1.1209553 1.4682825 1.7134672 1.9110329 2.0622244 1.1222445 0.48473838
1.3451939 0.82952875 1.7782298 0.7794182 0.85146827 0.4183237 0.3031815 0.14996591
0.9656371 0.8368098 1.4631186 0.32324186 0.4163313 0.11733732 1.2339858 0.27849516
1.3902396 1.8926362 0.4020618 0.020482734 1.2273264 0.08128634 0.79259115 2.7829669
1.5737275 1.4739373 0.6553839 0.07865151 1.5831763 1.5005335 1.1150968 1.7251456
0.86478364 2.3195696 0.2070627 1.5707749 2.2646258 0.23688401 1.8399138 0.6154822
2.314663 0.55380297 0.7951816 0.7155104 0.71979225 1.3616736 0.7665619 1.8770868
00000000: 14a5 ba3f 805c 383f 5ff5 f93e d2f6 f03e
00000010: e672 e53e 9b98 d23f 85a2 b73f 2f6c e73d
00000020: db77 eb3f 6179 913f cd76 823f c921 be3f
00000030: 4294 fa3f 0c84 fd3e 5a13 8b3f af89 863f
00000040: 8479 c53f 5972 203f 7e54 e43e 2d90 7d3e
00000050: 7e33 283e 1a02 e43f a418 cd3f 9e1d 703f
00000060: db3d 0c3f bb65 b93f a122 b23f 61bc f83e
00000070: 368b 0740 c2db ab3f 1bff 913f 81da 803f
00000080: 149f 773e eaeb a03e 7fc1 503b ac62 0f3f
00000090: 1ec6 a4bb f078 343f a4ac 6cbc 8bd8 2ebc
000000a0: 9034 0d40 cf5d 9b3f a2a9 1340 ba16 b13f
000000b0: d9a9 df3f 121d 073f 32ae ff3f 0752 bd3f
000000c0: 07b8 9c3d 15ea 0640 d98f 723f 2e77 8abc
000000d0: 7b8e 2b3f 43b6 dc3f 727b 313f 1914 9c3f
000000e0: 41b9 a83f 630e 0f3f 441d 0a3e b05c d23c
000000f0: 98db 733f 78a4 883f e20b 673c daf4 2a40
00000100: a29b 2d3f 6ed7 493f 61ea 2f3c d048 fe3d
00000110: 9a02 183f 657d 7f3f 8765 0e40 bb35 603f
00000120: 22a0 893e faf8 0a3f 6301 163f 2cb2 bd3f
00000130: c5aa d739 cba3 fa3e ff99 903f b1c9 0240
00000140: 16a4 1a40 29e8 ae3f ac60 c93f 3799 a83d
00000150: 584a b23f 7ccc 0440 be55 c63f 372f f23f
00000160: 1e77 c73f 4801 813e b2f3 c73f 16a1 f93f
00000170: 02ac 0f40 3254 c43f c78f e23f 913b ccbb
00000180: a569 c73a 4f3e c43e c505 c93f 74f7 983f
00000190: 9d98 ed3f 07bf a93f e669 723f a74c 153c
000001a0: be29 ef3f 6164 163f 8c53 da3f 88c4 f03f
000001b0: 74a7 dcbb 2004 173e d699 903f 7c9b 0440
000001c0: 767d f53d d109 9d3f 08d1 7c3f b3ae bb3f
000001d0: f066 9e3f 38da d53f b047 7c3f 3923 923f
000001e0: 7ed7 803f 53d4 f53f 237b 48bc 79cc 2b3f
000001f0: 0de2 c33f 5752 f83f 39b7 a03f 1553 993f
00000200: 028f c93f 28e1 4c3f 7b4f 0340 89e0 e23f
00000210: 3062 4e3f 72e2 8c3f f838 d53f 8928 de3e
00000220: 2dba de3d ce23 0140 eb3b c03f 88d5 343f
00000230: a795 933d fb15 b63f 1519 9c3f 8ee8 593f
00000240: 456d 0a40 4cf5 733e d38c 0040 4dad e03e
00000250: cf27 bd3f 84e1 ba3b e37f 4b3e 6d5c 1bbc
00000260: a241 913f 98da 423d 45df a13f 5496 e03f
00000270: c55d d93f 8d1f b43f 5751 803f df4b d43f
00000280: 98b0 c83f 70ff cd3f 67bc 563f f7d2 e93f
00000290: 02b2 7f3e f9c5 793f 1633 e03f a7be b93e
000002a0: 2123 e23f bc36 043f dedb c23f a8de b63e
000002b0: 4ada 1b3f 461c 483f c65b 953f 5c30 c03e
000002c0: f78b 853f 9352 0040 5941 303d 01f9 1f3f
000002d0: a0b7 9638 def8 d13f cdf6 033e f57a 6b3f
000002e0: 2a89 a43f b2df ae3f 3c07 0140 349e e33f
000002f0: 1b94 8f3b 4cc2 a33e 9e6b 743f cf99 db3e
00000300: afe0 d43f 28ee 973f 7a26 283c cffe 1a3b
00000310: d33e c33f 3074 d53f b9f4 f73e d126 083f
00000320: d930 7b3f 777b 8f3f aef0 bb3f e552 db3f
00000330: ba9c f43f 7cfb 0340 b5a5 8f3f a12f f83e
00000340: 502f ac3f ff5b 543f 099d e33f f387 473f
00000350: d3f9 593f 862e d63e 9b3a 9b3e aa90 193e
00000360: fe33 773f 2b39 563f 7847 bb3f f57f a53e
00000370: 6029 d53e 8d4e f03d 3ff3 9d3f eb96 8e3e
00000380: 5ff3 b13f e741 f23f 0bdb cd3e 68cb a73c
00000390: 0819 9d3f 7479 a63d 41e7 4a3f 211c 3240
000003a0: e76f c93f faa9 bc3f 3dc7 273f 0b14 a13d
000003b0: 85a5 ca3f 7b11 c03f 7ebb 8e3f 92d1 dc3f
000003c0: 7662 5d3f d473 1440 3f08 543e 270f c93f
000003d0: a1ef 1040 b991 723e 4c82 eb3f 3e90 1d3f
000003e0: 7023 1440 08c6 0d3f 0591 4b3f b12b 373f
000003f0: 4e44 383f 524b ae3f 673d 443f 6144 f03f

gnn_node.convs.0.mlp.1.bias f4 [256]
0.51901615 -0.32940948 -0.4596005 -0.9726301 -0.5176046 -0.48880786 -0.60850394 -0.260371
-0.27740738 0.20417161 -0.35785025 -0.38517588 0.30789027 -0.28210637 -0.36406422 -0.100334086
-0.46514308 -1.0078183 -0.5787352 -0.58860135 -0.6529927 -0.64220876 -0.22684565 -0.18897483
0.28218308 -0.43014994 -0.6187823 0.18769914 -0.47889104 0.1746154 -0.6105253 -0.45221516
-0.80500036 -0.91622794 -0.11906963 -1.48238 -0.16187246 -1.2864915 0.040248413 -0.1898425
-0.5148258 -0.22563136 -0.26493043 -0.55829734 -0.61326617 -0.91817755 -0.42037645 -0.47712967
-1.4762939 -0.496565 -0.4388742 -1.2899327 -0.24069716 -0.40141973 -0.05160968 -0.5293313
-0.31755754 -1.3204728 -0.048794776 -0.6534688 -0.06611316 -0.2067097 -0.6564083 -0.4626832
0.02226292 -0.24469522 -0.39598703 -0.34576553 -0.61166537 -0.14221893 -0.31538692 0.35417116
-0.5023941 -0.79779315 -0.27459258 -0.5721898 -0.4632694 -1.0847255 0.8637053 -0.55433464
-0.6180687 -0.4625119 -0.5037035 0.07904584 -0.20294456 -0.3991205 -0.45702773 -0.5482198
-0.0763913 -0.5715778 -0.1834018 -0.61741555 -0.6471936 -0.32084453 -0.28053275 -0.076469906
0.3305857 -0.97553295 -0.5675105 -0.49058366 -0.13334298 -0.49802682 -0.6405514 -0.18168408
-0.5609288 -1.1947163 -0.34891468 -0.23039623 -0.4785056 -0.07431374 0.20897503 0.04603243
-0.6676308 -0.31457698 -0.06856281 -0.551669 -0.74657655 -0.5860834 -0.15535857 -0.35970992
0.005867794 -0.4643855 -0.024447536 -0.3712555 -0.36293423 -0.48428184 -0.37375015 -0.26905492
-0.7052007 -0.32946062 -0.089240864 -0.57519937 -0.4277667 -0.046686195 -0.25163105 -1.1306076
-0.62281966 0.042456944 -0.6556073 -0.81111556 0.47728333 -0.3233906 -0.5411379 -0.19397986
-0.5750179 -0.60480464 -0.41945904 -0.15710331 -0.43879056 -0.53485256 -0.58659977 0.22574033
0.1629712 -0.93686086 0.036202937 -0.5982927 -0.5565556 0.034605842 -0.5718741 -0.45296645
-0.08213768 -0.6488508 -0.2649374 -0.6258024 -0.68092096 -0.523695 0.09132536 -0.20696789
-0.4458968 -0.4338328 -0.58811975 -0.04786689 -0.8995909 -0.7508621 -0.43722263 0.8698068
-0.3871675 -0.34703848 -0.09841256 0.72056663 -0.063174844 -0.47699633 -1.0053653 -0.7141243
-0.2280324 -0.0278408 -0.005648375 -0.23764946 -0.43242154 -0.7428417 1.3731163 -0.55090386
-0.10950632 -0.3371737 0.09116434 -0.1213963 -0.32353526 -0.2145946 -0.52578604 -0.88947976
-0.050510947 -0.34284222 -0.064591035 0.030570805 -0.63355005 -0.6494672 0.5018053 -0.44361255
-0.7091836 -0.21321729 -0.46675435 -0.8477923 -1.1946553 -0.6794881 -0.9064322 -0.93138576
-0.5461757 -0.17419107 -0.64353347 -0.6070215 -0.9676674 -0.22813226 -0.52787286 0.6122211
-0.50182754 -0.21747626 -0.028116195 -0.97662383 -0.32217202 -0.5340757 -0.26606047 -0.1333766
-0.6835991 -0.52904725 -0.7726458 -0.6101992 -0.6143945 -0.17941467 -0.12565362 -0.31101474
-0.30953485 0.35928145 -0.13738991 -0.34478927 -0.46738878 -0.7701104 -0.482767 -1.0206953
-0.23584904 -1.0119798 -1.1073589 0.0041745636 0.10446948 -0.34445816 -0.35059458 -0.5168681
00000000: 3ede 043f 5ca8 a8be c250 ebbe 49fe 78bf
00000010: bc81 04bf 0645 fabe eac6 1bbf 594f 85be
00000020: 5708 8ebe 5d12 513e 2638 b7be c635 c5be
00000030: cba3 9d3e 3f70 90be a066 babe f57b cdbd
00000040: 3c27 eebe 3100 81bf fd27 14bf 94ae 16bf
00000050: 882a 27bf cb67 24bf 3a4a 68be 9e82 41be
00000060: 4d7a 903e 9d3c dcbe 8468 1ebf 3434 403e
00000070: 3531 f5be 61ce 323e 634b 1cbf bf88 e7be
00000080: 8114 4ebf ea8d 6abf c7da f3bd a1be bdbf
00000090: e5c1 25be c1ab a4bf 85db 243d 1366 42be
000000a0: a0cb 03bf e80b 67be f6a4 87be 93ec 0ebf
000000b0: 03ff 1cbf af0d 6bbf 953b d7be 574a f4be
000000c0: 33f7 bcbf c53d febe 1fb4 e0be 841c a5bf
000000d0: 5179 76be e386 cdbe ac64 53bd 4282 07bf
000000e0: e796 a2be 4105 a9bf 08dd 47bd bb49 27bf
000000f0: 5666 87bd b5ab 53be 600a 28bf d0e4 ecbe
00000100: ba60 b63c 6291 7abe d0be cabe 2e08 b1be
00000110: 1a96 1cbf d7a1 11be 657a a1be ec55 b53e
00000120: e69c 00bf 2c3c 4cbf 6697 8cbe 087b 12bf
00000130: a631 edbe 49d8 8abf ca1b 5d3f e0e8 0dbf
00000140: c039 1ebf 5cce ecbe b6f2 00bf c9e2 a13d
00000150: b3d0 4fbe 8659 ccbe 8aff e9be 2258 0cbf
00000160: 0b73 9cbd ec52 12bf aecd 3bbe f20e 1ebf
00000170: 7bae 25bf bc45 a4be fda1 8fbe 419c 9cbd
00000180: 8742 a93e 87bc 79bf 5e48 11bf c82d fbbe
00000190: 108b 08be 5ffd febe 2dfb 23bf 640b 3abe
000001a0: 0899 0fbf 77ec 98bf f2a4 b2be fdec 6bbe
000001b0: b0fe f4be cd31 98bd 8dfd 553e 808c 3c3d
000001c0: dae9 2abf 3c10 a1be a96a 8cbd 2e3a 0dbf
000001d0: a41f 3fbf 9009 16bf 5116 1fbe e62b b8be
000001e0: a046 c03b f0c3 edbe 3346 c8bc 3315 bebe
000001f0: 84d2 b9be caf3 f7be 2e5c bfbe 91c1 89be
00000200: 0888 34bf 10af a8be eac3 b6bd 4440 13bf
00000210: 3d04 dbbe 063a 3fbd c9d5 80be c0b7 90bf
00000220: 1c71 1fbf 55e7 2d3d e1d5 27bf 45a5 4fbf
00000230: 7b5e f43e 7493 a5be 0388 0abf a8a2 46be
00000240: 6034 13bf 7ad4 1abf 56c3 d6be b1df 20be
00000250: 28a9 e0be 19ec 08bf 672b 16bf 7928 673e
00000260: ece1 263e 1dd6 6fbf 8849 143d b629 19bf
00000270: 6e7a 0ebf dbbe 0d3d 5766 12bf 38eb e7be
00000280: cd37 a8bd 161b 26bf e0a5 87be 9634 20bf
00000290: d650 2ebf e010 06bf ca08 bb3d 64ef 53be
000002a0: 964c e4be 551f debe 048f 16bf 1210 44bd
000002b0: 974b 66bf 8038 40bf a5db dfbe a9ab 5e3f
000002c0: d23a c6be 07af b1be 868c c9bd 0e77 383f
000002d0: d061 81bd dd38 f4be cfaf 80bf dad0 36bf
000002e0: 5381 69be 6412 e4bc 0116 b9bb 615a 73be
000002f0: 5b66 ddbe e02a 3ebf 46c2 af3f 0908 0dbf
00000300: d944 e0bd 08a2 acbe 5fb4 ba3d a09e f8bd
00000310: 6aa6 a5be b0be 5bbe ea99 06bf f2b4 63bf
00000320: 91e4 4ebd 0489 afbe 4e48 84bd a06f fa3c
00000330: 5630 22bf 7b43 26bf 5076 003f 2f21 e3be
00000340: 0e8d 35bf a255 5abe 6dfa eebe eb08 59bf
00000350: 77ea 98bf eff2 2dbf f10b 68bf 4c6f 6ebf
00000360: 2cd2 0bbf 255f 32be 9cbe 24bf c365 1bbf
00000370: 0db9 77bf 819b 69be ad22 07bf 86ba 1c3f
00000380: c577 00bf 19b2 5ebe ef53 e6bc 0504 7abf
00000390: bbf3 a4be 2fb9 08bf 1439 88be e093 08be
000003a0: 5a00 2fbf a46f 07bf 1dcc 45bf 0436 1cbf
000003b0: f548 1dbf 7bb8 37be 58ab 00be 533d 9fbe
000003c0: 5a7b 9ebe bdf3 b73e f1af 0cbe 3888 b0be
000003d0: 954d efbe f525 45bf 3c2d f7be 25a6 82bf
000003e0: 6982 71be 8e88 81bf f0bd 8dbf c7ca 883b
000003f0: 18f4 d53d d25c b0be 2281 b3be 7851 04bf

gnn_node.convs.0.mlp.1.running_mean f4 [256]
8.504054 -4.0314837 -11.150518 9.710473 1.4733016 3.4222374 -2.213914 -0.75209147
4.8970704 1.6867971 -0.98578703 -8.474983 7.6703253 0.5719831 3.6164317 6.2721353
-1.0354512 5.1519046 -5.6099005 -4.311889 -2.6180682 -7.740404 11.587542 5.6094084
-5.978408 -0.04493732 -6.9284782 7.7465906 -9.065146 -4.232944 -8.460433 11.584906
1.731939 4.550808 1.1471609 9.811307 2.7633362 13.002293 1.2446845 2.4613948
-0.20536822 -12.5435915 3.0987952 -1.8510383 -3.6483676 -1.5145665 -3.2518106 -3.879797
6.4216976 -4.489249 10.276953 7.747645 -6.1402154 -5.760348 5.8255124 -1.8706038
-9.26204 -8.134264 11.948017 -2.5859995 -7.4057846 -0.86521393 -2.7573748 -6.470761
10.121984 1.4071673 0.64907473 -4.198878 0.38375464 -0.6930681 5.158843 -7.225836
-0.4598497 2.2403536 -0.98977727 -3.051092 -2.0340345 -1.4810863 12.86238 10.106142
-5.3754997 2.999744 -5.912051 8.139101 1.0845952 4.46563 -4.9498143 14.634414
-0.037986305 -4.0172324 10.046455 -10.713003 -0.5060359 11.927496 5.1556435 1.4479908
2.0792432 7.2086096 -1.3647873 -2.5520532 -0.41691023 -21.127014 -7.1838284 0.9867622
11.141605 8.473024 -7.800005 -13.590762 2.1898768 4.0990934 2.3703158 -6.5757146
-1.6420277 -8.339261 -1.4009826 4.2109714 -1.4808557 -6.411134 1.1606843 -2.6075127
-0.44363102 -2.2259827 4.9843726 -6.326267 12.101825 -6.646766 -8.20235 -0.4005036
-0.83308965 -4.881436 3.5406225 -1.4962082 -9.88047 7.5321302 4.1572857 6.2928877
-1.9544668 -7.9591303 -7.7962246 2.5644667 -0.55277985 7.722277 -5.6184874 -4.540176
5.1564612 3.9976094 3.4159524 -4.862164 -5.0759425 -3.7108083 12.090243 4.3570065
1.9035912 4.1765933 4.342536 -12.795978 -4.700097 -3.1399527 -0.9518866 3.1812253
-4.5202746 -4.899062 -11.239411 -4.707762 -0.65857834 -9.682175 -8.638324 -1.6439265
5.151982 2.006105 -7.318869 8.631485 6.4886303 11.34787 0.6094053 -2.9292367
1.4343703 4.979712 -1.7048134 -6.3280854 0.635966 -5.5968003 0.7372391 -11.509837
4.1744833 7.623989 12.437484 14.24192 3.952344 9.901543 -2.7542694 -0.9964463
6.3571277 -0.8656744 4.424578 1.763863 4.082176 8.423104 0.99086446 -2.5666687
7.0497403 1.2041125 -2.827362 -5.6503167 -15.451623 1.074799 14.986415 1.7954983
-15.568534 -7.1237855 2.108155 9.073235 8.637772 -13.884806 -0.8851898 -0.21318828
-10.939922 1.5274194 -7.0522833 -3.0970087 16.307945 -1.682648 -0.58753926 1.2456588
-2.9849594 -9.924466 15.066807 -0.91893613 -10.521605 -5.160064 2.1487598 18.111664
-10.477262 -1.2926136 8.73977 2.2049556 -2.8448024 -7.4816885 5.9898787 0.9962555
-10.905971 12.5886345 -10.54376 -5.832331 3.9007719 0.91404504 -2.6781173 -0.043059863
-9.429668 -3.1238658 6.781305 1.2929487 -4.5971584 -5.791396 2.8921435 2.826636
00000000: 9b10 0841 ea01 81c0 8668 32c1 195e 1b41
00000010: 2695 bc3f f005 5b40 c4b0 0dc0 1189 40bf
00000020: cdb4 9c40 f8e8 d73f 8a5c 7cbf 8899 07c1
00000030: 4e73 f540 7c6d 123f 9e73 6740 55b5 c840
00000040: aa89 84bf 67dc a440 4e84 b3c0 fffa 89c0
00000050: 6e8e 27c0 64b1 f7c0 9266 3941 4680 b340
00000060: 1e4f bfc0 3210 38bd 18b6 ddc0 12e4 f740
00000070: d70a 11c1 4774 87c0 ef5d 07c1 c65b 3941
00000080: 2db0 dd3f 38a0 9140 2bd6 923f 1dfb 1c41
00000090: 80da 3040 6409 5041 d251 9f3f 7e87 1d40
000000a0: 0c4c 52be 8db2 48c1 a952 4640 d3ee ecbf
000000b0: db7e 69c0 51dd c1bf aa1d 50c0 984e 78c0
000000c0: 8c7e cd40 eea7 8fc0 666e 2441 b5ec f740
000000d0: a57c c4c0 c554 b8c0 996a ba40 f26f efbf
000000e0: 5131 14c1 f225 02c1 142b 3f41 0481 25c0
000000f0: 30fc ecc0 a97e 5dbf d478 30c0 7910 cfc0
00000100: a5f3 2141 0f1e b43f c329 263f 355d 86c0
00000110: 7d7b c43e e96c 31bf 3e15 a540 0c3a e7c0
00000120: 6b71 ebbe f461 0f40 0b62 7dbf 1745 43c0
00000130: 9f2d 02c0 3c94 bdbf 4fcc 4d41 c2b2 2141
00000140: 1804 acc0 cefb 3f40 862f bdc0 c239 0241
00000150: 04d4 8a3f 71e6 8e40 e164 9ec0 8f26 6a41
00000160: 8797 1bbd 2b8d 80c0 48be 2041 7668 2bc1
00000170: 928b 01bf 06d7 3e41 08fb a440 c357 b93f
00000180: 5212 0540 eeac e640 5ab1 aebf d754 23c0
00000190: 4275 d5be 2004 a9c1 ece1 e5c0 739c 7c3f
000001a0: 0444 3241 8291 0741 a499 f9c0 c373 59c1
000001b0: f126 0c40 c62b 8340 41b3 1740 416c d2c0
000001c0: f72d d2bf 9d6d 05c1 6653 b3bf 47c0 8640
000001d0: ae8c bdbf 0228 cdc0 4e91 943f 7de1 26c0
000001e0: 9b23 e3be 8076 0ec0 fb7f 9f40 c770 cac0
000001f0: 13a1 4141 4fb2 d4c0 d33c 03c1 cf0e cdbe
00000200: 5d45 55bf b934 9cc0 8f99 6240 c083 bfbf
00000210: 6816 1ec1 3607 f140 7c08 8540 565f c940
00000220: f82b fabf 32b1 fec0 ac7a f9c0 3920 2440
00000230: fb82 0dbf e51c f740 a6ca b3c0 1f49 91c0
00000240: bb01 a540 d5d8 7f40 f79e 5a40 d996 9bc0
00000250: 1f6e a2c0 e27d 6dc0 a371 4141 996c 8b40
00000260: e0a8 f33f a7a6 8540 0ef6 8a40 53bc 4cc1
00000270: 3267 96c0 fcf4 48c0 d7ae 73bf 3299 4b40
00000280: 17a6 90c0 1ec5 9cc0 a1d4 33c1 fca5 96c0
00000290: 9798 28bf 30ea 1ac1 9336 0ac1 2f6c d2bf
000002a0: 09dd a440 0664 0040 2d34 eac0 901a 0a41
000002b0: dca2 cf40 e090 3541 fc01 1c3f 9d78 3bc0
000002c0: 7299 b73f cd59 9f40 5337 dabf ad7f cac0
000002d0: abce 223f fd18 b3c0 b4bb 3c3f 4b28 38c1
000002e0: 5e95 8540 b8f7 f340 efff 4641 e8de 6341
000002f0: 34f3 7c40 b86c 1e41 f345 30c0 1b17 7fbf
00000300: 976d cb40 d69c 5dbf 2596 8d40 43c6 e13f
00000310: 30a1 8240 09c5 0641 4ba9 7d3f 4d44 24c0
00000320: 7997 e140 5c20 9a3f 80f3 34c0 65cf b4c0
00000330: d939 77c1 0393 893f 5bc8 6f41 e3d2 e53f
00000340: b718 79c1 0df6 e3c0 03ec 0640 f82b 1141
00000350: 5034 0a41 2a28 5ec1 cc9b 62bf 074e 5abe
00000360: ec09 2fc1 7b82 c33f 4eac e1c0 6435 46c0
00000370: ac76 8241 0261 d7bf f968 16bf bf71 9f3f
00000380: 9309 3fc0 9dca 1ec1 a411 7141 663f 6bbf
00000390: 7e58 28c1 3f1f a5c0 4885 0940 b0e4 9041
000003a0: dda2 27c1 5d74 a5bf 19d6 0b41 fe1d 0d40
000003b0: 3e11 36c0 fe69 efc0 16ad bf40 9a0a 7f3f
000003c0: db7e 2ec1 0c6b 4941 3eb3 28c1 75a2 bac0
000003d0: 3fa6 7940 dbfe 693f 4666 2bc0 8a5f 30bd
000003e0: ecdf 16c1 6bed 47c0 7300 d940 587f a53f
000003f0: ec1b 93c0 1e53 b9c0 e118 3940 9be7 3440

gnn_node.convs.0.mlp.1.running_var f4 [256]
218.46422 26.979671 41.29149 67.54113 15.505463 49.348774 79.19315 40.602646
104.47879 62.795403 148.91206 80.067795 306.27252 73.51036 158.57666 34.582348
44.105713 71.94453 11.218449 77.560715 63.12133 90.83807 47.65912 44.39039
25.168585 42.38448 70.752 98.516205 48.077126 37.222767 61.55337 122.17025
92.38876 164.99214 9.021937 31.759972 33.399555 30.210289 57.512363 33.875042
268.45834 24.08161 47.5408 37.496967 86.09283 67.37002 54.44103 99.89611
49.80427 42.17472 26.713974 52.02645 18.866457 150.62863 175.98799 83.88498
26.151253 22.323685 60.05061 60.691257 12.219806 95.70823 41.617386 329.00516
56.62194 344.27905 5.7946863 79.29069 15.706123 28.933537 142.52016 16.661488
90.1995 69.72191 54.385887 64.88069 49.967136 42.99914 188.85461 92.40259
156.723 35.034016 65.87363 41.285275 45.385338 131.35597 166.87764 53.1458
57.156693 49.12164 51.41888 43.306137 91.394585 71.554054 147.42244 17.097399
55.254333 84.69396 90.04734 66.35571 335.75577 22.783073 49.48287 8.937945
90.09489 62.186184 25.090393 52.66822 20.341713 38.43351 64.043816 50.35437
68.58247 70.25189 74.9155 68.14668 14.796826 114.99479 170.13936 92.316696
87.52414 297.64868 103.42907 29.326445 51.905315 59.980755 60.87279 131.85983
18.926409 59.371098 313.07355 76.891045 70.70555 45.93843 163.00018 113.4126
28.910946 70.504005 75.64709 68.19278 26.408886 206.73898 116.9306 33.912933
383.42493 51.78541 20.780718 73.11887 187.03749 10.021872 27.646759 87.16366
68.8773 102.39807 91.0058 91.26962 307.3026 55.107304 191.56143 25.789812
75.8155 66.12898 18.305061 49.686996 58.490585 73.55954 67.32105 24.290491
34.54852 10.71581 110.343605 36.978188 129.20946 30.295828 70.45927 99.98799
65.63761 108.99045 57.67598 124.5132 8.060416 129.12958 44.78648 101.536026
19.465157 63.47379 109.189064 77.172905 9.385427 91.59339 153.3101 15.838101
205.95044 82.23129 60.8567 27.88188 213.4267 89.01671 25.074366 73.7156
45.62813 65.49481 24.0316 47.531826 76.84478 140.62582 195.48865 21.326075
62.559906 39.94338 255.79762 19.396177 86.804794 32.086716 80.211426 58.888203
19.575905 13.992787 54.049107 31.182348 76.92144 64.98016 115.40395 53.671093
178.474 123.08542 27.979221 91.93493 88.7769 38.869392 29.706486 92.04391
100.13818 33.85754 48.841278 21.562628 34.138058 303.07687 197.25395 146.68872
61.719234 44.491016 45.702732 115.77215 359.99887 35.285187 159.86937 21.885803
68.410484 62.622147 62.84216 38.406307 61.94135 121.17689 42.053745 128.56026
00000000: d776 5a43 5ed6 d741 7c2a 2542 0f15 8742
00000010: 6016 7841 2565 4542 e562 9e42 1c69 2242
00000020: 24f5 d042 7e2e 7b42 7de9 1443 b622 a042
00000030: e222 9943 4e05 9342 a093 1e43 5354 0a42
00000040: 406c 3042 99e3 8f42 c47e 3341 161f 9b42
00000050: 3e7c 7c42 18ad b542 f0a2 3e42 c28f 3142
00000060: 4359 c941 b589 2942 0681 8d42 4c08 c542
00000070: fa4e 4042 1de4 1442 a736 7642 2b57 f442
00000080: 0cc7 b842 fdfd 2443 db59 1041 6c14 fe41
00000090: 2599 0542 acae f141 a90c 6642 0b80 0742
000000a0: ab3a 8643 23a7 c041 c729 3e42 e5fc 1542
000000b0: 872f ac42 73bd 8642 9dc3 5942 cfca c742
000000c0: 9337 4742 eab2 2842 38b6 d541 161b 5042
000000d0: 81ee 9641 eea0 1643 edfc 2f43 1cc5 a742
000000e0: c435 d141 e896 b241 d333 7042 d9c3 7242
000000f0: 5384 4341 9d6a bf42 3478 2642 a980 a443
00000100: de7c 6242 b823 ac43 126e b940 d594 9e42
00000110: 484c 7b41 e277 e741 2985 0e43 ba4a 8541
00000120: 2566 b442 9e71 8b42 268b 5942 eac2 8142
00000130: 59de 4742 1fff 2b42 c8da 3c43 20ce b842
00000140: 17b9 1c43 d522 0c42 4cbf 8342 1f24 2542
00000150: 968a 3542 215b 0343 ade0 2643 4d95 5442
00000160: 74a0 6442 8f7c 4442 efac 4d42 7c39 2d42
00000170: 07ca b642 ad1b 8f42 256c 1343 79c7 8841
00000180: 7004 5d42 4f63 a942 3d18 b442 20b6 8442
00000190: bde0 a743 bc43 b641 75ee 4542 d301 0f41
000001a0: 9530 b442 a7be 7842 20b9 c841 42ac 5242
000001b0: d4bb a241 eabb 1942 6f16 8042 e06a 4942
000001c0: 3a2a 8942 f880 8c42 bcd4 9542 1a4b 8842
000001d0: cdbf 6c41 55fd e542 ad23 2a43 26a2 b842
000001e0: 5c0c af42 08d3 9443 afdb ce42 8f9c ea41
000001f0: 0b9f 4f42 4bec 6f42 bd7d 7342 1edc 0343
00000200: 4969 9741 017c 6d42 6a89 9c43 37c8 9942
00000210: 3e69 8d42 f4c0 3742 0c00 2343 40d3 e242
00000220: 9e49 e741 0d02 8d42 4f4b 9742 b462 8842
00000230: 6645 d341 2ebd 4e43 78dc e942 d8a6 0742
00000240: 64b6 bf43 4324 4f42 e93e a641 dd3c 9242
00000250: 9909 3b43 9659 2041 902c dd41 cb53 ae42
00000260: 2dc1 8942 d0cb cc42 f802 b642 0c8a b642
00000270: bca6 9943 e16d 5c42 ba8f 3f43 8951 ce41
00000280: 89a1 9742 0a42 8442 c470 9241 7cbf 4642
00000290: 5cf6 6942 7c1e 9342 61a4 8642 ed52 c241
000002a0: af31 0a42 f573 2b41 edaf dc42 aae9 1342
000002b0: 9f35 0143 db5d f241 25eb 8c42 daf9 c742
000002c0: 7546 8342 1cfb d942 34b4 6642 c206 f942
000002d0: 77f7 0041 2c21 0143 5b25 3342 7212 cb42
000002e0: a4b8 9b41 29e5 7d42 cd60 da42 8758 9a42
000002f0: b62a 1641 d12f b742 634f 1943 dd68 7d41
00000300: 50f3 4d43 6c76 a442 436d 7342 170e df41
00000310: 3c6d 5543 8e08 b242 4d98 c841 636e 9342
00000320: 3583 3642 58fd 8242 b840 c041 9720 3e42
00000330: 87b0 9942 36a0 0c43 187d 4343 cd9b aa41
00000340: 583d 7a42 05c6 1f42 31cc 7f43 5f2b 9b41
00000350: 0e9c ad42 cc58 0042 406c a042 858d 6b42
00000360: 749b 9c41 75e2 5f41 4932 5842 7375 f941
00000370: c7d7 9942 d8f5 8142 d3ce e642 33af 5642
00000380: 5879 3243 bc2b f642 72d5 df41 afde b742
00000390: c68d b142 427a 1b42 e2a6 ed41 7b16 b842
000003a0: c046 c842 1f6e 0742 785d 4342 4380 ac41
000003b0: 5f8d 0842 d789 9743 0341 4543 50b0 1243
000003c0: 7fe0 7642 cdf6 3142 99cf 3642 578b e742
000003d0: dbff b343 0824 0d42 8fde 1f43 2016 af41
000003e0: 2bd2 8842 147d 7a42 5f5e 7b42 0fa0 1942
000003f0: f1c3 7742 915a f242 0937 2842 6d8f 0043

gnn_node.convs.0.mlp.3.weight f4 [128, 256]
0.42925936 0.70778286 0.095265016 0.15396415 0.056208644 1.4288933 -0.4884244 -0.10819814
-0.41891363 -0.1556973 -0.09273205 -0.023856556 -0.44271418 0.19899406 -0.19492349 -0.5706871
0.14921151 -0.30634028 0.23924874 -0.013458871 -0.086406656 -0.11374328 0.97372866 -0.36512458
-0.43831038 -0.16333531 0.5386563 -0.31535584 0.54962975 0.32962734 -0.3082654 -0.014946883
-0.17616913 -0.06740978 -0.14260982 0.16322371 -0.25014532 -0.033461075 -0.08316675 -0.16169758
-0.367069 0.56173074 -0.04697255 0.20858455 0.27718228 -0.0019358919 -0.684358 0.8602714
0.027342033 0.42165804 0.10287151 0.1503785 0.090859614 -0.15614688 -0.42566133 0.21346374
0.37689322 -0.736947 -0.29269028 -0.1815557 -0.23166397 -0.09631486 0.25391436 -0.37953156
-0.5094107 -0.24809156 -0.0101289535 -0.26334238 -0.3141334 0.8803846 0.68558323 0.14977217
-0.054073915 -0.24376094 0.048094247 -0.3438756 0.023091031 0.08376378 0.182148 1.8608279
-0.29306236 0.22108337 -0.36513796 -0.30086395 -0.663509 0.61749876 0.0026531639 1.0622523
-0.68844956 -0.06129394 0.09354849 -0.10183028 2.0533032 0.68287474 -0.12376402 -0.14589679
-0.2106665 0.2836191 0.5061757 0.09386245 -0.12463807 -0.06434799 -0.2732543 -0.110227525
2.3315747 0.09674162 -0.43745556 0.07594961 -0.11841816 -0.3802772 0.005337855 0.29670286
-0.21124648 -0.1641838 -0.08997143 2.2353225 0.11096521 0.31037918 -0.2638679 -0.36512485
-0.14993836 0.21860392 0.27222934 -0.6736129 0.39483908 0.76474917 -0.54532605 0.37873635
0.16327149 -0.26872173 -0.60811275 1.1620262 -0.1211292 -0.07835151 -0.16659169 -0.007373686
-0.10632359 -0.09967846 -0.24338883 0.011845499 -0.09995985 -0.18578668 -0.70282185 -0.12009733
-0.48636484 -0.16666538 -0.5216491 -0.13160358 0.030615358 -0.03287338 0.028131453 -0.07587909
0.1396378 0.40025505 -0.23817451 0.012995853 0.16437483 -0.41625023 0.18420865 0.47948015
0.2041033 0.46165082 0.67263705 0.04043023 -0.14161867 -0.22787322 -0.5080403 -0.13381715
0.24769089 0.03304306 0.09584946 0.12996107 -0.3649402 -0.36984205 0.016412493 -0.20439224
-0.03025195 1.2763891 0.00921267 0.16395597 -0.11107485 -0.31380874 -0.11421931 -0.46682218
0.0608209 -0.4811322 -0.28272533 -0.4046826 -0.09260241 0.33269808 0.7046891 -0.0467505
-0.4100219 -0.258708 -0.05504674 -0.22010897 -0.08112806 0.11624599 -0.071495995 -0.037576165
-0.6282057 -0.12642431 -0.4295319 0.6045815 0.26436752 -0.27164847 0.10224139 -0.10494971
0.072243266 0.10785024 -0.12432819 -0.0804643 -0.16457224 -0.43476072 0.060153116 -0.21087642
-0.09024476 -0.32353663 -0.5453135 -0.004930987 -0.33938274 0.068801634 0.2519528 -0.62484264
0.5179158 0.13071562 -0.06590504 0.1722042 -0.6549333 -0.25359133 -0.28562814 -0.25808418
-0.10088284 0.24576089 -0.24589552 0.013067245 0.1164357 -0.3475251 -0.16755205 -0.5139479
0.064065814 0.39970642 -0.090231225 -0.622976 -0.4343526 -0.097958334 -0.33655265 -0.52849066
0.032255903 0.16347845 0.3778755 -0.74627525 -0.06581659 -0.23776962 -0.34138107 -0.26411706
00000000: e2c7 db3e 4231 353f 4e1a c33d c7a8 1d3e
00000010: 093b 663d fae5 b63f c312 fabe fd96 ddbd
00000020: d97b d6be 1d6f 1fbe 4dea bdbd d36e c3bc
00000030: 6fab e2be 19c5 4b3e 069a 47be 8d18 12bf
00000040: e7ca 183e a2d8 9cbe 9ffd 743e 9982 5cbc
00000050: f9f5 b0bd 3df2 e8bd 4846 793f 9cf1 babe
00000060: 386a e0be 5f41 27be 61e5 093f 5276 a1be
00000070: 89b4 0c3f eac4 a83e f6d4 9dbe c5e3 74bc
00000080: ae65 34be 240e 8abd 4f08 12be 1e24 273e
00000090: 0c13 80be 7b0e 09bd 5453 aabd 0d94 25be
000000a0: 78f0 bbbe 96cd 0f3f 4a66 40bd 3097 553e
000000b0: d6ea 8d3e c1bd fdba 1632 2fbf bf3a 5c3f
000000c0: 66fc df3c 90e3 d73e 4cae d23d d2fc 193e
000000d0: 9b14 ba3d f8e4 1fbe 48f0 d9be 3d96 5a3e
000000e0: 26f8 c03e 8fa8 3cbf 80db 95be bde9 39be
000000f0: 5239 6dbe ba40 c5bd 1001 823e f651 c2be
00000100: bd68 02bf b70b 7ebe e9f3 25bc d0d4 86be
00000110: 18d6 a0be e360 613f 6282 2f3f e05d 193e
00000120: 9c7c 5dbd 789c 79be 79fe 443d 7610 b0be
00000130: 6729 bd3c 588c ab3d 0185 3a3e 9c2f ee3f
00000140: 450c 96be ae63 623e 5df3 babe d70a 9abe
00000150: badb 29bf 6614 1e3f b4e0 2d3b e2f7 873f
00000160: 3b3e 30bf 5b0f 7bbd 5a96 bf3d 658c d0bd
00000170: 5269 0340 e1d0 2e3f fe77 fdbd f865 15be
00000180: f5b8 57be 8636 913e bb94 013f f53a c03d
00000190: 3f42 ffbd e1c8 83bd fde7 8bbe f8be e1bd
000001a0: 8538 1540 7820 c63d 2dfa dfbe 788b 9b3d
000001b0: 3885 f2bd b1b3 c2be 2ce9 ae3b 70e9 973e
000001c0: ff50 58be cc1f 28be f142 b8bd 860f 0f40
000001d0: ba41 e33d 05ea 9e3e b219 87be a5f1 babe
000001e0: 7189 19be b5d9 5f3e a561 8b3e e571 2cbf
000001f0: 5928 ca3e 9ac6 433f 7d9a 0bbf bbe9 c13e
00000200: a430 273e e595 89be 47ad 1bbf 46bd 943f
00000210: 9612 f8bd c276 a0bd 0397 2abe f69e f1bb
00000220: 2fc0 d9bd 3824 ccbd ec3a 79be a013 423c
00000230: c0b7 ccbd dd3e 3ebe 22ec 33bf 97f5 f5bd
00000240: d004 f9be 54aa 2abe cc8a 05bf 17c3 06be
00000250: 0fcd fa3c 3da6 06bd ef73 e63c 7f66 9bbd
00000260: 36fd 0e3e 3bee cc3e 05e4 73be 8fec 543c
00000270: e051 283e c01e d5be 31a1 3c3e 6c7e f53e
00000280: 7500 513e 7f5d ec3e f131 2c3f 2b9a 253d
00000290: 7c04 11be 9957 69be ee0e 02bf 5d07 09be
000002a0: aea2 7d3e 2958 073d b94c c43d 8414 053e
000002b0: 71d9 babe f05b bdbe 7e73 863c 334c 51be
000002c0: f0d2 f7bc b860 a33f bdf0 163c 13e4 273e
000002d0: 367b e3bd 8aab a0be d0eb e9bd 5103 efbe
000002e0: 561f 793d f656 f6be 60c1 90be 8f32 cfbe
000002f0: 55a6 bdbd 6757 aa3e 8166 343f 747d 3fbd
00000300: 64ee d1be 6075 84be b178 61bd 3f64 61be
00000310: 7826 a6bd 6112 ee3d 7e6c 92bd 77e9 19bd
00000320: 17d2 20bf 6075 01be 9beb dbbe dac5 1a3f
00000330: 2e5b 873e 8215 8bbe ef63 d13d e0ef d6bd
00000340: 47f4 933d 96e0 dc3d c79f febd 78ca a4bd
00000350: a085 28be f598 debe 1d63 763d fdef 57be
00000360: 3fd2 b8bd 98a6 a5be aa99 0bbf 1e94 a1bb
00000370: 93c3 adbe dfe7 8c3d f5ff 803e b0f5 1fbf
00000380: 2196 043f 51da 053e 39f9 86bd 4c56 303e
00000390: b5a9 27bf b9d6 81be da3d 92be 9c23 84be
000003a0: aa9b cebd bea8 7b3e 09cc 7bbe ff17 563c
000003b0: d775 ee3d cfee b1be c492 2bbe 1792 03bf
000003c0: f034 833d 52a6 cc3e 26cb b8bd 5b7b 1fbf
000003d0: 7763 debe 619e c8bd a150 acbe 2a4b 07bf
000003e0: c41e 043d e566 273e e678 c13e e50b 3fbf
000003f0: d9ca 86bd e179 73be 80c9 aebe 5a3a 87be
