checkpoints/A_epoch_50.pth (torch, 843938 bytes, 48 tensors)

gnn_node.node_encoder.weight f4 [1, 128]
00000000: 82cc 47bf a2fb ca3e 184c fcbe e39f 063f
00000010: b896 2f3e 765e 733f d076 1d3f b748 88bd
00000020: df4a 233e df36 3cbf e9be 7cbe 3018 22bf
00000030: ab24 4dbf a228 923f 41a5 30c0 abb3 58bf
00000040: affc f9bd 23d1 3d3e 7c40 993e ba58 86bf
00000050: dd77 22bf 17de 55bf 4ffb 6abe 5371 c4bf
00000060: 0ab5 88bf 4b4e d5bf ada2 f5bf 90f6 97bf
00000070: d322 91be dd40 1dbf f7de 9dbe 36e4 2cc0
00000080: 825d 96be b02d 95bf 5fe5 823e 014c 0a3f
00000090: aa2c fc3e cc14 72bf 9222 aa3c 3ca2 ab3e
000000a0: e3fc b4bf 0a9a d8be db09 373f b963 ebbf
000000b0: b2ac 753e a958 a23e 4cbd a8bf 3d11 22c0
000000c0: 8a5c d93c a23d e2bf 6ecb 35bf 5734 2dbf
000000d0: 191e 733e fd11 2abf 9309 73bf ad16 34be
000000e0: d213 0f3f 6566 4e3f acd9 863e d2d4 423e
000000f0: 4618 88bf 102e 483e 1bd8 8e3e 4e7d 333e
00000100: 1789 d9bf a80e 6bbe 7d49 e8bf b733 8dbf
00000110: 8833 e8bf 1a53 b03f 7d0c 643f 66a7 55bf
00000120: 98aa c53e 5684 8cbf f2d1 d0be 1fa2 8c3d
00000130: 63a4 64be db69 c2bd 646d 493e 078e 0ebe
00000140: 7e08 a1bf b5fa b4bf 600b bfbf 0aa4 3c3f
00000150: a27b fe3e efbb e83e bb33 d33e fd04 36bd
00000160: 7fc4 00bf 6b54 4a3e 0f4a e9bf 22ad a1be
00000170: d8c3 36bf 001e 103f a458 aabf 460e f1be
00000180: 70c5 42bf a96f 56be e70a 9a3b 1d13 7abd
00000190: ba80 92bf 2aa9 92bf 1013 f0bf cb0d 30bf
000001a0: 9485 cabf 0add 003f 05d3 813f ba36 9cbf
000001b0: c819 5cbe c2c2 46bf ed8c 51bf 7619 44bf
000001c0: c42c a0be a36a f3bf 0df8 a8bf 94fc 93bf
000001d0: 1da6 ba3d 1c11 09c0 acfa e33e 5f59 20bc
000001e0: b75a 2cbf 1102 58bf beb8 073f b002 4c3e
000001f0: d271 efbe 5d02 3a3f b2d9 c1bf 5ee0 023f
-0.7804643 0.39645106 -0.49276805 0.5258772 0.17147338 0.9506601 0.6150942 -0.06654494
0.1594653 -0.73521227 -0.24682201 -0.6331816 -0.80134076 1.141865 -2.7600863 -0.8464915
-0.12206399 0.1853681 0.2993201 -1.0495827 -0.63464147 -0.8354201 -0.22947429 -1.5347084
-1.0680249 -1.6664518 -1.919027 -1.187212 -0.2834688 -0.614271 -0.3083417 -2.701429
-0.29368216 -1.1654568 0.2556562 0.5402222 0.49252826 -0.94562984 0.020768438 0.33522213
-1.4139675 -0.42305022 0.71499413 -1.8389808 0.2399166 0.31708267 -1.3182769 -2.5323021
0.026533384 -1.7675059 -0.71013534 -0.6765799 0.2374195 -0.664337 -0.94936484 -0.17586775
0.5588962 0.8062499 0.26337945 0.19026497 -1.0632408 0.19548821 0.2789925 0.17528269
-1.6994962 -0.2295481 -1.8147427 -1.1031407 -1.8140726 1.377536 0.89081556 -0.83458555
0.38606715 -1.0977886 -0.40785176 0.0686686 -0.22328334 -0.094928466 0.19670635 -0.13921367
-1.2580717 -1.413901 -1.4925346 0.73687804 0.497037 0.45455882 0.41250405 -0.04443835
-0.5029983 0.19758765 -1.8225726 -0.31577402 -0.71392584 0.56295776 -1.3308301 -0.47081202
-0.76082516 -0.20941032 0.0047010067 -0.061053384 -1.1445534 -1.1457875 -1.8755817 -0.68771046
-1.5822015 0.5033728 1.0142523 -1.2204201 -0.2149421 -0.77640927 -0.8185566 -0.7660135
-0.31284153 -1.9016918 -1.3200699 -1.1561456 0.09113715 -2.1416693 0.44527185 -0.009786933
-0.6732592 -0.84378153 0.5301627 0.199229 -0.46766526 0.72659856 -1.514456 0.5112361

gnn_node.virtualnode_embedding.weight f4 [1, 128]
00000000: 3093 16bf 3b29 fbbe 26a0 16bf 2622 eabe
00000010: 871f 4abe 8c28 55bf 270f d0be 5f4b 11bf
00000020: 508b d6be 1dbc 7dbe 7d5b 00bd 1cc3 1ebf
00000030: d118 3abe 0906 5fbf 49bf 08bf 4863 2cbd
00000040: a532 7dbe 1ed6 80be 1546 2dbf 4459 71be
00000050: 8839 75be 2d60 00be c8fb f1bc 3e85 fbbd
00000060: 5f9f ccbe 96f1 b7be 1125 b93c 5d66 5cbe
00000070: 05c6 afbe f7f8 52be 5201 66bd 125b ff3d
00000080: bd4b 4fbe 0912 d33c 0a3e 0abf bac0 93be
00000090: f741 d43d 72af b8be 2777 29bf 541a b0be
000000a0: 0c1a 263c 309d 52be d5cb 4ebf bc45 b9be
000000b0: 327b 2abe c9cf babe 2aa2 353e 6bbd d3be
000000c0: 3b5b 26bf ca2e 99be ede0 56be d68e aabe
000000d0: 036e 39be 9199 55bd 2953 bbbe 8071 aebd
000000e0: 4dc1 13be 272b bfbe 1a7c 36bf 6c6f 19bf
000000f0: 8314 17be bdab 64be f96e abbe 2d68 34be
00000100: ab18 69bf ebf6 413c 243c fcbe dbe4 a2be
00000110: a958 8ebe a368 1fbf 43e8 0bbf 91df 46b9
00000120: 30ad dfbe 6ae5 a3be aeee 84be 0198 b5be
00000130: 6761 dbbe 66a5 87be 2332 bcbe 6923 b1be
00000140: 7938 6abe 7f67 2fbe 1c71 7dbe 2f1c 86bf
00000150: 66c3 57bd 4445 7cbe 740f c3be 1d80 e8be
00000160: b9ae 03be 2359 dfbd aef6 dbbe 35ee 63be
00000170: 9dc2 03be 308c 4bbe 4ca1 a2be 2828 14be
00000180: d921 a3be 56f0 ccbe f442 a6be 99ed 6cbe
00000190: 8beb b3be 5d29 43be a595 313d 1c57 2d3e
000001a0: 3d65 3d3d 35ea 3fbf 7678 29bf f273 bdbe
000001b0: c5da 3b3e 259a d7be dbe9 6dbe 2563 06bf
000001c0: 8820 58be 6738 89bd fffe 05be bfac ab3d
000001d0: 9a8d 0cbf 4420 4abf 4ea7 0c3a aec9 9bbe
000001e0: 9d34 93be 8ccc a5be d098 e6be e4f6 2abe
000001f0: c0be 78be c6ea d8be 2f6d 2bbd 121c b8be
-0.5881834 -0.49054894 -0.5883812 -0.45729178 -0.19738589 -0.83264995 -0.4063656 -0.5675563
-0.41903162 -0.24778791 -0.03133725 -0.62016463 -0.18173529 -0.87118584 -0.5341688 -0.04208687
-0.2472635 -0.25163358 -0.6768506 -0.23569208 -0.23947728 -0.12536688 -0.029539004 -0.12281273
-0.3996534 -0.35926503 0.022600682 -0.21523423 -0.34330764 -0.20602785 -0.056153603 0.12468542
-0.20243736 0.025765436 -0.54000914 -0.28857976 0.10364144 -0.36071354 -0.6619744 -0.34395087
0.010138046 -0.20567775 -0.80779773 -0.36186016 -0.16648558 -0.36486652 0.17737642 -0.41355452
-0.64982957 -0.2991851 -0.2098424 -0.333121 -0.18108372 -0.052148405 -0.36586884 -0.08517742
-0.14429207 -0.3733761 -0.71283114 -0.5993564 -0.14753918 -0.22331138 -0.33483103 -0.17617865
-0.91053265 0.011838655 -0.49264634 -0.31815228 -0.27802017 -0.6226904 -0.5465128 -0.00018966036
-0.4368682 -0.32010967 -0.25963348 -0.35467532 -0.4284775 -0.26493376 -0.36757 -0.34597328
-0.22873105 -0.17129324 -0.24750179 -1.0477351 -0.05267658 -0.24635798 -0.38097727 -0.45410243
-0.1285962 -0.10905673 -0.4296164 -0.22258838 -0.12867208 -0.19877696 -0.31763685 -0.14468443
-0.3186176 -0.40027112 -0.32472956 -0.23137511 -0.35140643 -0.19058748 0.043355603 0.16927761
0.046239126 -0.74966747 -0.66199434 -0.37002522 0.18345173 -0.4210979 -0.2323374 -0.5249503
-0.2110616 -0.06700211 -0.13085555 0.08382558 -0.54903567 -0.78955483 0.00053655065 -0.30427307
-0.28751078 -0.3238262 -0.45038462 -0.16695744 -0.24291515 -0.42366618 -0.041852172 -0.35958916

gnn_node.convs.0.mlp.0.weight f4 [256, 128]
00000000: 8feb 1ebd 15bd f8be 0fef 4dbf 959e e7be
00000010: 7892 4d3e ee03 92be 8178 0cbe 7336 a5be
00000020: 574a 49be 89fe 6bba b53b 2cbf 9847 b73d
00000030: b3b4 ac3c f43d cdbd 7838 28bb d1c6 7cbd
00000040: 45c3 91bf a228 80be 2c69 90be 8962 4ebb
00000050: 578c 8fbf b462 f23d e3b5 c83e 7000 bfbc
00000060: c75f 62bd d05f 8fbd f747 533d eb67 b6bd
00000070: 8fa4 a1be 5282 ad3e 1003 0e3e 1391 903d
00000080: b59f 81bf 716a acbd 753f 0b3e 707c 6a3e
00000090: b2d3 0abf 1cd3 853d adac f8bf 47d3 95be
000000a0: 6393 68bd 7bc2 33be 4225 11be db08 de3d
000000b0: 1f83 963e 7fcc 893e d1fd 063d 6e9e ae3c
000000c0: afeb b6bd 5d41 f8bd 9e26 073d 67b9 debf
000000d0: e8f1 a4be 06cd 3fbe 9b92 883c b8cd eebc
000000e0: c2ae 273e e21f 973c 26ee a0be ac13 203c
000000f0: 269e 8b3d 9b6f b2bd f361 89be adec 3dbe
00000100: b9f2 e5bd 2477 dfbd b6c8 443d 47e0 26bd
00000110: 73e5 183c a55a a0bd 5f87 c4bd e968 a5bc
00000120: 2dca 1cbd 660a 933d 24b6 1ebc 220b 8abe
00000130: c50b 6d3e 0ea7 8ebf 3f33 c3bf 2fb6 c2bd
00000140: d92b 4b3d bd37 a73d c391 813d efa9 213d
00000150: 859a 87bd cedc 3e3e d0c3 5f3e 6658 f2bd
00000160: 66bc c4bd 309f 283d 745c 413d 6217 853e
00000170: 322a 54c0 4a73 a03c 4413 aa3d 7bca ad3e
00000180: 55fe 7fbe 4b46 0cbf c4f7 e0be 15ed 57be
00000190: c742 123d 35d5 3fbd 2cf8 f4bd a1de 533d
000001a0: 1f33 b93d 2cd3 1d3d 55a1 4fb9 c440 cf3c
000001b0: eae8 423e f95e 8bbd 4c3c bb3e f129 f0bc
000001c0: cad8 0f3f 63da 793d d55c 003d ef02 85bc
000001d0: 9ec0 a8be 5b85 9a3d 2cbe 75bc 5335 40bf
000001e0: 69a5 5a3e 5b8f 50c0 f753 b03b 7db8 a6be
000001f0: a7b6 71be 4a65 1ebf 6dfa ae3d 4eae 2abf
00000200: 040c 78bd 7a0d 8e3e bd4c 09bf 7964 eb3e
00000210: 0be3 97bd f2b8 88bc ebdc 693e 1bd3 a53e
00000220: 3ee9 e4bd e5e4 69bd 9b35 efbe 2edc a63d
00000230: 00fd 9fbd 27e2 763d ded5 8c3d 4a22 16bd
00000240: 5b78 fbbc 7728 143e f706 1cba 5f78 463d
00000250: aca5 64bf c817 993f 15d9 e73d b70f dcbc
00000260: f3c1 433b 513f 9fbc 9755 803c 3a9b 0dbd
00000270: 7f0c e23d 036a a0bf 63ad 12bf 8c8a 563c
00000280: ab61 a0be 919e 3bbd 7106 9fbe bc34 35bd
00000290: e9ef 9dbe c956 a73b 59e4 7c3f 0c48 7c3c
000002a0: 1a03 173d 341b 9ebd de12 a9bd 897e 983d
000002b0: d56c 93be 32b9 103f b0b5 3a3d 70ee e0bc
000002c0: 912a e13e 95ef 3cbd 7776 b3be 1651 403e
000002d0: ea78 f13d a58d 95bd 8db1 473c fd8b 98bd
000002e0: 6cf5 853d 61fc 3eba 924f f9be 778e 79bd
000002f0: 0b17 abbd 386f c7be a117 9a3e 2715 2dbd
00000300: 82c1 023d 229e df3d e677 73bd 87e2 d83c
00000310: d3a6 993c 5730 8fbe d3f6 b6bd 8a1a 703d
00000320: 4f38 113d 1d64 30bd 0e5b 653b 67e6 cfbe
00000330: 5710 7e3f c73e 96bd 4c69 ef3d d8ff ccbe
00000340: 876b f63c bb11 07bd 036f 95bd 1c0a 43be
00000350: f55e 2abf b5cd 9dbe 5055 8cbe 7e53 05be
00000360: b1e3 3c3d 84e9 3bbe e284 9e3d 82d4 053f
00000370: 7ca4 e1be 6bab 603e 6017 0abd ff7a d5bf
00000380: e6b8 2bbf 6f64 b4bf b0af 943f 0d84 d53d
00000390: 5460 cb3c 2eff 0ebd 2903 9e3d ab0d a53d
000003a0: 53d5 4ebd dec0 193e aaf1 51ba 482a a73d
000003b0: dfaa bfbc 5bb1 1ebd 1d8c 293f 0d64 b03b
000003c0: 7992 6b3f fe6c 21bd 5fd6 353d b732 5f3d
000003d0: c4f5 973d f17b 42bd f9cf ea3b 4fb4 6ebe
000003e0: 79a3 063e 7a0b 0a3f e9f6 aebd b03f 023e
000003f0: 3ea3 f53e 2952 7b3e b021 713d 1493 8a3e
-0.038798865 -0.48581758 -0.804429 -0.45238176 0.20075405 -0.28518623 -0.13717844 -0.32268104
-0.19657265 -0.0009002467 -0.67278606 0.08949202 0.021082258 -0.10021582 -0.0025668424 -0.061713044
-1.1387717 -0.25031 -0.2820524 -0.0031491837 -1.1214703 0.118352324 0.3920127 -0.023315638
-0.05526712 -0.07000697 0.051582303 -0.089065395 -0.3157086 0.3388849 0.13868356 0.07058921
-1.0126864 -0.084187396 0.13598426 0.22899032 -0.5422927 0.065344065 -1.9427696 -0.29262754
-0.056781184 -0.17554657 -0.14174369 0.10841533 0.29396912 0.2691383 0.032956902 0.02131578
-0.08931672 -0.12121842 0.032995813 -1.740033 -0.3221581 -0.18730554 0.01667147 -0.029150829
0.16375259 0.01844782 -0.31431693 0.009770315 0.06817274 -0.08712693 -0.26832542 -0.18547316
-0.11227936 -0.10911396 0.048042975 -0.04074123 0.009332049 -0.07829789 -0.095961325 -0.020191627
-0.038278747 0.07179718 -0.00968698 -0.2696162 0.23149021 -1.1144731 -1.5250014 -0.09507405
0.049602363 0.08164928 0.0632663 0.039468702 -0.06621269 0.18638918 0.2185204 -0.11833267
-0.09606247 0.041167438 0.04720731 0.25994402 -3.3150754 0.019586224 0.08304456 0.33943543
-0.24999364 -0.5479476 -0.4393903 -0.21086533 0.035708215 -0.04683419 -0.119613975 0.051725987
0.09042954 0.038531467 -0.00019801159 0.025299437 0.19034162 -0.06805224 0.3656944 -0.029316874
0.5619017 0.060999285 0.03133853 -0.01623675 -0.32959455 0.07544967 -0.014998954 -0.75081366
0.21352161 -3.2587497 0.005381103 -0.32562628 -0.23604833 -0.61873305 0.08543859 -0.6667222
-0.060558334 0.27744657 -0.5363272 0.45975092 -0.07416352 -0.016689751 0.2283818 0.32387623
-0.111773 -0.057103056 -0.46720585 0.08147465 -0.07811928 0.06027427 0.068767294 -0.036653794
-0.030697038 0.14468561 -0.00059519656 0.04845464 -0.89315295 1.1960382 0.11320702 -0.026862962
0.0029870241 -0.019439371 0.015665812 -0.034571864 0.1103754 -1.2532352 -0.5729582 0.013094556
-0.31324515 -0.045805518 -0.31059602 -0.044239745 -0.308471 0.005106781 0.9878593 0.015398037
0.036868192 -0.07720032 -0.08255552 0.0744601 -0.2879397 0.56532586 0.045583427 -0.027457446
0.43977788 -0.04612692 -0.3505132 0.18780932 0.11790641 -0.07302407 0.0121883275 -0.07448576
0.06540951 -0.0007285532 -0.4869352 -0.06092688 -0.083540045 -0.3895204 0.30096152 -0.0422565
0.031922825 0.10918833 -0.059440516 0.026475204 0.018756306 -0.27966568 -0.08933797 0.05861906
0.03545409 -0.043064225 0.00349969 -0.4060547 0.9924368 -0.073361926 0.11690006 -0.40038943
0.03008057 -0.032975893 -0.072965644 -0.19046825 -0.6655114 -0.30821005 -0.27408838 -0.13020131
0.04611558 -0.18350798 0.07740189 0.52277386 -0.44070804 0.21940391 -0.0337137 -1.667816
-0.6707901 -1.409315 1.1616116 0.10425577 0.024826206 -0.034911327 0.077154465 0.080592476
-0.05049641 0.15014979 -0.0008008728 0.081623614 -0.023396907 -0.038743358 0.6622942 0.0053830207
0.92020375 -0.039410584 0.044393893 0.054491725 0.07419923 -0.04748148 0.0071659056 -0.2331097
0.13148297 0.5392376 -0.08543188 0.12719607 0.47976106 0.2454306 0.058870018 0.27065337

gnn_node.convs.0.mlp.0.bias f4 [256]
00000000: e692 9fbd 0d6a 40bc e7e0 eb3c 59e7 1d3a
00000010: 82b7 71bd 00d0 b23a 5e0d 1d3b dd5b 993d
00000020: 4973 90bd 3b67 183d 7b76 113d 85dc 8fbd
00000030: b53a 96bd 337a 38bd f576 ea3c 62a0 8a3d
00000040: 4bcc 653d ff38 41bd 83b1 86bc 599e 5abd
00000050: 842b 7e3d 5b14 6d3d 0a7f a3bc 5256 38bd
00000060: 7208 18bd d565 4a3d 8e01 a1bd c96f 343b
00000070: 0de6 103d 646d a7bd 1f88 323d afdb afbd
00000080: af00 5fbd 6122 943d 518b 76bd fad7 823d
00000090: f0d5 b23d 0734 c5bb 2f9b 5fbd a13a 71bd
000000a0: e6b3 7ebb 4bf2 e7bc acc3 56bd af2b 1a3d
000000b0: bc3d b8bd a548 993d ecc5 463d 502e 2e3d
000000c0: cc9b 7dbc ec02 0ebc a9ed 933d e3a5 a33d
000000d0: 90f2 a4bd 5b9a 993b 5329 5d3d 81f4 0f3c
000000e0: 8950 783d 3cff a63d 6fe5 91bc 2bc8 063c
000000f0: 556b 81bd adb8 933d 5caa 183a 8f96 fa3c
00000100: 94cc a4bd 31f1 703d e714 183c 4b5d 0abd
00000110: d783 43bd 8010 9ebd fe2e 913d a423 de3c
00000120: 7ab3 103d 87b7 60bd 22f0 933d 1065 8abc
00000130: a998 9c3d 1a33 80bd a629 11bc 272f 3f3d
00000140: f151 88bd cd84 0abd ac1f 09bd 6eab 333d
00000150: 1dd6 9a3d 491e 403d 028e a53c 1221 d5bb
00000160: 6423 0ebc a88c 89bd f55d b1bd 1d7d 15bd
00000170: 7984 7dbc ad23 35bd 8250 37bc 8c78 e93c
00000180: 0f3d f73c 7950 063b 44a2 1c3d f9ab 9dbb
00000190: a621 64bb 5a00 05bb f197 3fbd 321f 83bd
000001a0: 729b 8e3d 525d 1c3d 6ecc d53d 9a45 94bd
000001b0: e057 62bd 820f 80bd 650b 5cbd 65ec 693d
000001c0: 39aa e6bc ba10 993d 861e 8e3d 615d 9dbd
000001d0: c592 953d ea66 8c3d 19af cabb a36a d2bb
000001e0: 7dc2 363c 7787 50bc e3cd 593d c36a 46bd
000001f0: 0304 abbd a38b 5dbd 4b76 88bd e0fd 753d
00000200: b05f 55bc 1779 333d 33ab acbd 9d8c abbd
00000210: 187e 5a3d 0202 ac3d 1330 283d e3fb 75bd
00000220: 198d 6c3d 5d4e 09bd eac4 d13c 2df2 7e3b
00000230: 9abf 463c ec24 3b3d 6b91 8cbd 7d45 a3bd
00000240: 7ba3 8bbc f0e4 833d d538 6d3d c1cd 0cb9
00000250: be50 623d 9a13 96bd 6084 633c 5975 8c3d
00000260: b6b9 b13d c338 1dbc 1d04 67bd 68a2 723a
00000270: 24f8 243d b06e 1e3d 66c5 4e3d 24ee 87bd
00000280: 8666 823a b4c2 813d 6a18 493d 2c2d 2d3b
00000290: 9ff3 37bd 8a66 5f3c 4032 bbbd 020f 003d
000002a0: d415 673d 02c8 3b3d e6d9 81bd a95b 323d
000002b0: cb3c 6b3d 834a 89bc 905b 26bd d552 a5bc
000002c0: d39a 79bc 457a b2bd 110c 3b3d a53a 03bd
000002d0: 4612 2c3b faae e0bc 5268 3e3b 6719 8bbc
000002e0: 23c3 633c 8be8 d83a 72ab e03c 9129 b2bd
000002f0: cc15 a63c 8394 48bd 8a27 683d f13c c33c
00000300: 30fb aa3d 871e af3d 7b92 37bd cfeb b4bd
00000310: 2298 d4bb c8b3 c43d 5f7d 41bc 203a 98bd
00000320: da19 d6bc 968c b4bd 08ec 82bd a4e6 c93c
00000330: c64b b0bd eb16 743c fbbe c43c 04f2 57bd
00000340: c0d9 2c3d f4fa a83c af7b 8abd 9df2 953d
00000350: a696 9abc 38eb a0bd c1ec 433d 7185 eebc
00000360: 4f1e 813d 892a 4c3c 557e 87bd 9c2a a7bd
00000370: 9091 813c 8264 303c 815d 6b3c f234 ecbb
00000380: fdf6 47bd 2755 fc3c cd04 4c3c ac27 813d
00000390: 9fe0 2c3d 1dd6 223d 5f82 52bd f89c 9f3d
000003a0: 91ec 7a3d 97c1 7f3c 33e3 963d e2e1 a9bd
000003b0: a651 6fbd 176b 8e3c 822a c93a fb11 c43a
000003c0: ed35 7e3c 716c 253d ddf3 4cbd 51e3 93bc
000003d0: 9df1 923d a691 583d c926 a93d 35ef 743d
000003e0: 0fe5 24bd 6d2c 03bd 5b81 2bbd 87d9 94bd
000003f0: ef84 35bd b4c6 3bbc 4805 263d e9f0 163d
-0.077916905 -0.0117440345 0.028793765 0.0006023548 -0.059012897 0.0013642311 0.0023964266 0.07488225
-0.07053239 0.037207823 0.035513382 -0.07024483 -0.07335416 -0.045038413 0.028621176 0.06768872
0.056103032 -0.047173496 -0.016442066 -0.05337367 0.06205322 0.05788074 -0.019958038 -0.045004196
-0.03711743 0.04941352 -0.07861625 0.002753245 0.035375644 -0.081751615 0.043586846 -0.08586823
-0.05444401 0.0723312 -0.060191456 0.063888505 0.087322116 -0.006018165 -0.054591354 -0.058893804
-0.0038864552 -0.028313776 -0.0524327 0.037639316 -0.0899615 0.07484559 0.048528597 0.042524636
-0.015479039 -0.008667689 0.072230645 0.07990625 -0.080540776 0.00468759 0.053994488 0.008786322
0.06062368 0.08154151 -0.017809598 0.008226435 -0.063193 0.072129585 0.00058237254 0.03058937
-0.08046833 0.058823768 0.009282327 -0.033780377 -0.047733154 -0.07717991 0.07089041 0.027116604
0.035327412 -0.054862525 0.07223536 -0.016893893 0.07646305 -0.06259747 -0.008860027 0.046675827
-0.06656254 -0.033818055 -0.03347747 0.04386466 0.0756037 0.046903882 0.020209316 -0.0065041864
-0.00867543 -0.06716281 -0.08660499 -0.03649627 -0.0154734785 -0.044223476 -0.011188628 0.028499864
0.030180482 0.0020494743 0.038240686 -0.0048117605 -0.0034810095 -0.00202944 -0.046775762 -0.064024344
0.069632426 0.038174935 0.104393825 -0.07239838 -0.055259585 -0.06252958 -0.053721804 0.05711021
-0.02815734 0.074738935 0.06939416 -0.07683826 0.07303385 0.06855567 -0.006185424 -0.0064214035
0.011154768 -0.01272761 0.053174865 -0.04844166 -0.083503745 -0.054088246 -0.066631876 0.060056567
-0.013023302 0.043816652 -0.08431091 -0.08376429 0.05334291 0.083988205 0.041061472 -0.06005467
0.05775175 -0.033522 0.025606591 0.0038901672 0.012130642 0.04568951 -0.06863674 -0.07972238
-0.017045727 0.06440151 0.057915527 -0.0001342809 0.055252783 -0.073279575 0.013886541 0.0685832
0.08678 -0.009596053 -0.056400407 0.0009255768 0.040275708 0.03867978 0.050481223 -0.066372186
0.0009948767 0.06335965 0.04909555 0.002642463 -0.04491007 0.013635287 -0.09140444 0.031264313
0.0564173 0.04584504 -0.06340389 0.043544445 0.057431024 -0.016759163 -0.040614665 -0.020181099
-0.015234667 -0.08714727 0.045665804 -0.03203835 0.002625601 -0.027427185 0.002905388 -0.016979886
0.013901505 0.0016548795 0.027425501 -0.086993344 0.020274065 -0.048969757 0.056678332 0.02383277
0.083486915 0.085507445 -0.04481743 -0.088340394 -0.006487862 0.09604603 -0.011809676 -0.074329615
-0.026135374 -0.08815877 -0.06392676 0.02464611 -0.08608203 0.014898042 0.024016848 -0.05272104
0.04219985 0.020627476 -0.06761872 0.073216654 -0.018870663 -0.078573644 0.047833208 -0.029116364
0.06304609 0.012461313 -0.06615893 -0.08162424 0.01581648 0.01076615 0.014365555 -0.00720846
-0.04881953 0.030802323 0.0124523165 0.06306395 0.042206403 0.039754976 -0.051393863 0.07793611
0.061260764 0.01561012 0.073675536 -0.08295037 -0.058427475 0.017385049 0.0015347751 0.0014958972
0.015515787 0.04038662 -0.050037254 -0.018052729 0.0717499 0.052873276 0.08259351 0.059798438
-0.04025751 -0.03202479 -0.04187141 -0.072680525 -0.04431623 -0.011460949 0.04053238 0.036850844

gnn_node.convs.0.mlp.1.weight f4 [256]
00000000: 4367 d03f 4262 3d3f ee53 143f ca50 ec3e
00000010: ae8f e53e a856 b33f e872 9f3f 74a5 223e
00000020: a37f d43f 47a7 b23f 01f7 473f 251f 903f
00000030: 7e23 1740 7801 df3e 4df3 893f 91d7 823f
00000040: 25ca ba3f 445d d33e 11ef d43e a605 b23e
00000050: 2d4e 673e 00af b83f 74dc 803f 0560 103f
00000060: bbc9 203f 0d7d b53f fb56 a03f 6921 403f
00000070: d32f db3f be46 743f 318f 953f 1e57 633f
00000080: a5ca c43e f865 d53e 7fc1 503b 43d0 b13e
00000090: ab65 5e3e c888 273f d1e6 913e f15a e43c
000000a0: af21 e83f 0e11 753f d2c8 ef3f 62ca 953f
000000b0: ac6b d13f 1002 183f 73c1 d03f ef34 ae3f
000000c0: 2f9c 4a3e aef7 ea3f eac6 053f d83c 4a3e
000000d0: 1c6b 843e 3fcf c43f 133d 2b3f 2af4 983f
000000e0: 7d51 753f eb4f 0d3f 59d2 a43e 5ebe 5e3e
000000f0: 2c8c 173f 7e95 8e3f 93a7 bf3e 65a0 1b40
00000100: d089 493f f90a 7d3f 61ea 2f3c 5490 923e
00000110: 8ea1 863e a7f5 be3e fd29 0440 c95f 4b3f
00000120: 97c9 a93e 16df 6e3e a5c4 423f 3726 a43f
00000130: ff27 c03c 8305 923e 2543 a63f 12f4 dc3f
00000140: 7be8 f43f 2c4a 893f 3812 c23f a49f b03e
00000150: a632 9d3f ec77 0d40 7ff6 bc3f 771a d13f
00000160: 6507 a93f de9e c23e 2d53 963f 2f31 c73f
00000170: fe2e ff3f 2e5d bb3f 467e f83f b4cd 163e
00000180: 5ba4 8c3e d183 d13e d787 be3f 3b01 9e3f
00000190: d47d 0340 bd36 833f 2203 3e3f 6656 3f3c
000001a0: 556b cc3f 95ae fd3e bc68 d03f e1d7 ce3f
000001b0: 4cd0 5c3d 2121 163f 3405 8d3f e993 c23f
000001c0: 706e 5a3e 04f7 2b3f bcb2 543f 0059 a83f
000001d0: 83a2 733f 9185 ce3f 2846 763f dd77 8c3f
000001e0: c32b 7c3f 5444 dd3f a7e5 713e 062d 653e
000001f0: 17bc 703f dc59 fb3f 8cf7 9f3f 5fd0 b13f
00000200: edc5 8f3f 5a22 033f 0ccf 1a40 b065 bf3f
00000210: 1fb2 263f 274b 433f b6ed b73f 501a be3e
00000220: 718f 0e3e 18f4 d63f e7a5 853f 562d d23e
00000230: a2f6 673c 5579 ba3f c910 a83f 6bcc 773f
00000240: ff02 0a40 c0d4 923e 1c24 e63f 0a0c 1f3f
00000250: 5b54 c93f 9897 033d 09d4 703e 8728 8b3e
00000260: a081 ad3f 420b 873e 4d2d 8e3f 7a5a ae3f
00000270: 556d d83f 35a3 783f ba39 aa3f 2f93 a43f
00000280: 1cad a13f ce9a b63f eb0b 463f 7ca8 cb3f
00000290: a6cb 9c3e 79ba 763f 135a 0540 4da1 8d3e
000002a0: 7caa d13f f59f 063f 435f a43f ee82 8d3e
000002b0: c9da f93e eff5 153f e567 af3f 520c 3e3f
000002c0: bb92 813f fe98 e33f d591 fa3d 2044 2f3f
000002d0: a0b7 9638 573f d53f ed22 323e e53c 343f
000002e0: 9d02 943f a869 9f3f 2430 cf3f 1595 983f
000002f0: 1b94 8f3b 7c96 be3e 52ca 973f c03e dd3e
00000300: 1eb5 d53f 28af 8e3f dad3 093e b4f4 0d3e
00000310: 6653 bc3f e213 a63f fd1b 033f 6048 093f
00000320: d9f9 003f fe87 833f 1ea5 c93f 198b da3f
00000330: def5 d33f 63bd e73f cd3e af3f 69c6 f83e
00000340: 14b4 773f 6430 5f3f 7c0f ff3f e880 243f
00000350: f0c9 0b3f 4baf df3e 6bdb 8a3e 8038 813e
00000360: dedb 533f 02bb bb3e 640f ab3f b87a df3e
00000370: 8441 f93e 3d82 583e 5b57 9e3f 9639 153f
00000380: 020f a43f b41e f63f 42de dc3e bc73 6b3e
00000390: 4132 883f 97a7 2c3e cd9b 483f c93d 0f40
000003a0: 645e 8e3f e9ce bc3f afa9 ac3e 0b14 a13d
000003b0: 6b49 a43f 515c d13f 5272 753f 8e44 be3f
000003c0: 78a8 113f b742 1640 dace 9e3e a085 af3f
000003d0: 7b76 ff3f 654b 863e 77ec f23f ba27 833e
000003e0: 291e 1340 db7d 5a3e 3ee1 253f d80d 553f
000003f0: 5ae0 753f 9d32 643f e98b d23e 6667 c93f
1.6281513 0.73978055 0.57940567 0.46155387 0.4483618 1.401082 1.2456942 0.15883428
1.6601452 1.3957299 0.78111273 1.1259505 2.3615413 0.43555808 1.0777375 1.0222036
1.459294 0.41282094 0.41588643 0.34769934 0.22588415 1.4428406 1.0067277 0.56396514
0.62807816 1.4178787 1.2526544 0.7505098 1.712397 0.95420444 1.1684324 0.88804805
0.38435856 0.41679358 0.0031853614 0.34729204 0.21718471 0.65443087 0.2849641 0.027875395
1.813528 0.9572915 1.873316 1.1702387 1.6360984 0.5937815 1.6309036 1.3609904
0.19786142 1.8356836 0.52256644 0.19749773 0.25862968 1.5375746 0.66890067 1.1949513
0.95827466 0.5520007 0.32191733 0.21752307 0.5919826 1.1139371 0.37432536 2.4316647
0.7872591 0.9884487 0.010737033 0.2862574 0.2629513 0.37296793 2.0650628 0.7944303
0.33161613 0.23327288 0.76081306 1.2824162 0.023456572 0.2851983 1.2989241 1.7261984
1.9133447 1.072576 1.516181 0.34496796 1.2281082 2.2104445 1.4762725 1.6336201
1.3205382 0.3801183 1.1744133 1.5561885 1.9936216 1.4637811 1.9413536 0.14726907
0.27469143 0.4092088 1.4885205 1.2344126 2.054555 1.025108 0.7422353 0.011678314
1.5970255 0.49547258 1.6281962 1.6159631 0.053909585 0.586443 1.1017213 1.5201389
0.21331191 0.6717379 0.83085227 1.3152161 0.9516985 1.6134511 0.962008 1.0974079
0.98504275 1.7286477 0.23622762 0.22380456 0.94037 1.9636798 1.249742 1.3891715
1.1232277 0.5122429 2.4188871 1.4952908 0.6511554 0.7628655 1.4369419 0.3712945
0.13921906 1.6793242 1.0441254 0.41050214 0.014157923 1.4568278 1.3130122 0.9679629
2.1564329 0.2867794 1.797977 0.62127745 1.5728868 0.032126993 0.23518385 0.27179357
1.3555183 0.26375777 1.1107575 1.3621361 1.6908365 0.97124034 1.3298867 1.2857417
1.2630954 1.4265993 0.77361935 1.5910792 0.3062412 0.96378285 2.0836227 0.27662125
1.6380153 0.52587825 1.2841572 0.27638954 0.48799732 0.5857839 1.3703581 0.7423755
1.0122904 1.7781065 0.122348465 0.68463326 7.18676e-05 1.6659955 0.17396136 0.7040542
1.1563298 1.2454119 1.6186566 1.1920496 0.004381669 0.37224185 1.1858618 0.43211937
1.6695898 1.1147203 0.13459721 0.13862878 1.4712951 1.2974818 0.5121458 0.5362606
0.5038124 1.0275877 1.5753515 1.7073699 1.6559408 1.8104671 1.369104 0.48588875
0.9675915 0.87183213 1.99266 0.64259195 0.5460501 0.43688425 0.27120528 0.2523842
0.82757366 0.36666113 1.3364072 0.43648314 0.48682797 0.21143432 1.2370409 0.58290994
1.281708 1.922812 0.4313832 0.22993368 1.0640336 0.16860805 0.78362733 2.238146
1.1122556 1.4750644 0.33723208 0.07865151 1.2834905 1.6356298 0.95877564 1.4864671
0.5689769 2.347822 0.3101719 1.3712654 1.9958032 0.26229396 1.8978413 0.25616246
2.2987158 0.21337073 0.6479682 0.8322425 0.9604546 0.8913973 0.41122368 1.573468

gnn_node.convs.0.mlp.1.bias f4 [256]
00000000: 86a9 253f 786a f9bd 7d00 bfbe 2846 59bf
00000010: 2f68 04bf 2522 f0be 2f02 eebe 4615 72be
00000020: d0db 82bd 0f5c 1c3e 2a08 4abe 14c3 afbe
00000030: 029f 3e3e 0b0b 5cbe 6156 53be 5d27 57be
00000040: c7ba c7be b6fd 95bf 3a27 92be 778e 06bf
00000050: 4b81 1bbf fdf8 d0be e283 babe 99ec e8bb
00000060: f6be 663c 7c05 88be 37c0 03bf 3b70 2e3e
00000070: 1caa c33c 0762 82be 9b13 d8be fb9e b1be
00000080: 71c2 31bf 9fd7 65bf c7da f3bd ab5e a0bf
00000090: 6bb1 61bd c5b8 9cbf e3b8 dabb c405 1e3d
000000a0: d9f7 4dbe e541 70be ee0e 7bbd a2fa acbe
000000b0: d015 f9be 82a9 1abf 9eb1 9dbe b31c fbbe
000000c0: d9ad acbf 4cf9 36be 9887 32bf 5814 8ebf
000000d0: 2bb3 91bd 09fd c5be c37c 01be 64e5 f1be
000000e0: c109 aabe fe2b 51bf 5a6a 033d a748 15bf
000000f0: c21e 5e3d ab33 31be f6ae 94be 5032 46be
00000100: db50 a83d 99eb cc3d d0be cabe d385 36be
00000110: a5b8 cbbe 7e36 6dbe 541a 72bd 21cf adbd
00000120: a5c3 cabe 0afc 29bf d1c2 d7bd 51be fcbe
00000130: 6c35 dfbe 2508 45bf af2c 363f 345f cbbe
00000140: c937 7bbe fa9b bbbe 6380 5fbe 8978 033e
00000150: 447a 98bd 59bf a7be 71c6 c3be 6ec0 e5be
00000160: aae3 bbbc 36c9 e1be 0858 94be 70a7 5ebe
00000170: 2c34 d7be 06c5 5cbe 0bd8 533d b89b 58bc
00000180: cdb3 b23e c1fd 8fbf 1444 0fbf 72b6 2bbe
00000190: fa99 303b e575 fcbe 881b 81bf 5e1f 39be
000001a0: ecc8 abbe 215d 73bf b600 62bd 77a9 22be
000001b0: 4b3d ebbe 1420 b63e 89d2 783e 554d 253e
000001c0: c4e2 14bf 6770 b4be 0935 bdbd f8b6 c1be
000001d0: ab8f 0fbf 92df dfbe ac07 7abd 2746 90be
000001e0: 9fc4 493e 0e46 02bf c349 20bd 4c14 0bbe
000001f0: 737d 84be 028b 5f3c 4926 42be 8b46 e43e
00000200: f6d4 eabe 1055 7cbe 5023 bf3d d0ef efbe
00000210: eb07 64be 4c68 f33b 2ac1 6bbe da97 86bf
00000220: c605 1bbf e194 cc3d ba9f 04bf e2a1 44bf
00000230: c0f9 b33e 2fde 273c dfbb 99be 262e 5f3e
00000240: d35c a9bd 6891 0fbf 2535 4bbe f339 cbbe
00000250: 11b3 dabe 3405 07bf a055 26bf a8e1 0e3d
00000260: d917 063c 3e26 60bf 8b20 f63e 6218 c6be
00000270: 7c45 edbe 9429 5d3e 9653 8ebe 3cac 85be
00000280: 0ed3 83bd d35e e5be df81 11be a2d9 24be
00000290: 5ae0 20bf db81 a8be d45c 853e d19e e1bd
000002a0: 8e2f d1be 3911 d9be 1f9f 04bf 58aa e9bd
000002b0: 3565 55bf ca75 52bf 4db2 2cbe fc67 963f
000002c0: 87d3 adbe 679d 90be 1089 0f3e 5c73 643f
000002d0: d061 81bd 6a9c d2be 72d7 7bbf f591 fbbe
000002e0: f909 3ebe 7678 993e 90c6 133f bea5 13be
000002f0: 5b66 ddbe 8153 45bf 7e0c a03f fb8a 0cbf
00000300: 06c1 c5bd 8bd4 9e3d 114d 203f 809a 8abd
00000310: 2135 3abe 0132 9fbb fa05 fbbe 3a15 63bf
00000320: 472d ee3c 6c00 74bd 629f e5bd 3efb 5c3e
00000330: 1bde a3be 4629 d0be a9b7 d53e 4576 e2be
00000340: 5da8 01bf efd0 e1be 474e 7ebe 51d8 48bf
00000350: acde 98bf e215 14bf 2aba 4ebf b54f 5cbf
00000360: 143d 0abe 8147 70bd c474 f3be ba2c 08bf
00000370: 7949 50bf 906f 4fbe 2b3e c2be eb5c 1c3f
00000380: 4c49 d0be a77e 353e d128 a7bc 224e 44bf
00000390: c65a 86be 3a81 0bbf 7680 2ebe 5a75 a43d
000003a0: a7f9 17bf d8b6 a2be 0665 12bf 0436 1cbf
000003b0: 9428 00bf e2b1 c6bd 2d9c 86bd c0cc 01be
000003c0: 8ad8 11bf c3f7 083f 65c8 bbbd 2d87 72be
000003d0: c9e3 32be aba2 40bf 0602 e7be 7eb4 39bf
000003e0: 9c7f 383e 3a55 6abf befa 80bf ea26 0d3d
000003f0: 1a75 7e3e cfa3 88be 5498 53be 1f32 cabe
0.647118 -0.121785104 -0.3730506 -0.84872675 -0.5172147 -0.4690105 -0.4648604 -0.23640928
-0.06389582 0.15269493 -0.19729677 -0.3432852 0.18615344 -0.21488588 -0.2063842 -0.2101111
-0.39009687 -1.1718051 -0.28545552 -0.52561134 -0.6074416 -0.40814963 -0.36428744 -0.0071082828
0.014083615 -0.26566684 -0.5146517 0.17035 0.023884825 -0.25465414 -0.42202458 -0.34691605
-0.6943732 -0.89782137 -0.11906963 -1.252889 -0.05510084 -1.2243887 -0.0066748722 0.038579717
-0.20114078 -0.23462637 -0.061293535 -0.33784968 -0.48649454 -0.604149 -0.30799574 -0.49045333
-1.3490554 -0.17868537 -0.6973815 -1.1099958 -0.07114252 -0.38669613 -0.12645249 -0.47245324
-0.33210567 -0.8170775 0.032083847 -0.58313984 0.05422855 -0.17304866 -0.29039735 -0.1935513
0.08218547 0.10005874 -0.39598703 -0.17824487 -0.3978931 -0.23165318 -0.05910714 -0.08486772
-0.3960239 -0.66400206 -0.10535205 -0.4936395 -0.43595445 -0.7696555 0.7116193 -0.39721072
-0.24532999 -0.36642438 -0.2182632 0.1283895 -0.07445195 -0.32763174 -0.38237336 -0.44873375
-0.022935707 -0.44098824 -0.28973413 -0.2174356 -0.4203199 -0.21559533 0.051719707 -0.01322072
0.34902802 -1.1249315 -0.55963254 -0.16768816 0.0026947246 -0.49308696 -1.0086527 -0.18078372
-0.3355173 -0.9506398 -0.05517646 -0.15884958 -0.459452 0.3557135 0.24299063 0.16142781
-0.58158517 -0.35242006 -0.09238631 -0.37834907 -0.56078595 -0.43725258 -0.061042473 -0.28178522
0.19703911 -0.50888145 -0.039132845 -0.13581961 -0.2587696 0.013643982 -0.18959917 0.4458507
-0.458656 -0.24641824 0.09332907 -0.4686265 -0.22268645 0.0074282046 -0.23022905 -1.0515091
-0.60555685 0.09989334 -0.51806223 -0.76809514 0.35151482 0.010245844 -0.30026147 0.21794948
-0.08269658 -0.5608125 -0.19844492 -0.3969265 -0.42714742 -0.52742314 -0.64974403 0.03488317
0.008184397 -0.8755835 0.48071703 -0.38690478 -0.46342075 0.21597892 -0.27798146 -0.26107967
-0.0643674 -0.44798908 -0.14209698 -0.16098645 -0.62842333 -0.32911572 0.26047385 -0.1101662
-0.40856594 -0.42395952 -0.518053 -0.114094436 -0.83357555 -0.8221098 -0.16864891 1.1750484
-0.33950445 -0.28245088 0.14017129 0.89238524 -0.063174844 -0.4113496 -0.9837562 -0.49134794
-0.18558492 0.29974717 0.5772486 -0.14418694 -0.43242154 -0.7708054 1.2503812 -0.5489957
-0.09655957 0.07755383 0.62617594 -0.0676775 -0.1818433 -0.004858256 -0.49027997 -0.88704264
0.029074324 -0.059570715 -0.112120405 0.21580216 -0.3200539 -0.4065649 0.41741684 -0.44230857
-0.50647527 -0.44104716 -0.24834548 -0.7845507 -1.1942954 -0.5784589 -0.80752814 -0.86059123
-0.13499862 -0.05866194 -0.47550023 -0.5319325 -0.8136211 -0.20257401 -0.37938055 0.6107928
-0.4068092 0.17724095 -0.020405205 -0.7668172 -0.2624113 -0.5449406 -0.17041191 0.080301955
-0.59365314 -0.31780124 -0.571854 -0.6101992 -0.5006192 -0.09701897 -0.06572757 -0.12675762
-0.5697104 0.53503054 -0.091690816 -0.23684378 -0.17469706 -0.7524821 -0.4511873 -0.72541034
0.18017429 -0.91536295 -1.007652 0.03446094 0.24849358 -0.26687476 -0.20663577 -0.39491364

gnn_node.convs.0.mlp.1.running_mean f4 [256]
00000000: 992a da40 0bd9 5cbe c169 b1c0 22c2 6d40
00000010: 9fba 2d3f af36 0bbf 79a7 7ec0 e766 1bbf
00000020: ac8a 4d40 56f3 6ebf 14e3 ebbd a2b8 dbc0
00000030: 9edb 803f 8b7f 00bf 2b5a 6e3d 42e0 6340
00000040: 12b8 60c0 8132 94bf 42fb b9bf ec4f 85c0
00000050: 0d0b b8bf 0209 96c0 ff98 c140 6b4a 5a40
00000060: 30d3 79c0 8c8c c6bf e330 a3c0 f329 b740
00000070: e6a0 e6c0 6288 b1bf 07bf 7ec0 bd37 9c40
00000080: 917a 953f bd00 7340 b255 fa3f 1ec4 b940
00000090: 6759 8540 de34 f040 228c 603f 2f63 4940
000000a0: dcba d53f 15e7 20c0 813d 903f 2ee4 3ac0
000000b0: c5bc d8c0 166a 18bf 8fae 43c0 f179 cebf
000000c0: b1b2 5540 701f 87c0 b837 a840 2c79 bd40
000000d0: 802e 8bc0 bc70 9cc0 d19d a3bf e7cd adc0
000000e0: 6fb6 3cc0 d917 76c0 bd43 8540 e956 2ac0
000000f0: 1f1d cdbe bbf2 08c0 5508 ebbf 24dc 55bf
00000100: 9e77 9b40 7334 8e40 7d4d db3f 8361 c0bf
00000110: aa95 fa3e 0a23 1a40 6434 2f40 eb61 78bf
00000120: 75ef 01be 4c03 153f bdb8 93be 84de b8c0
00000130: df19 08c0 8046 f93e 0ab3 0b41 3215 1640
00000140: 6884 613f 8f32 b0be be4f a0be 1150 9940
00000150: 5f88 b1bf 1c78 2ebe 1b18 e1c0 635d 4340
00000160: a0dc a73f f0db 8ac0 1209 9640 8dec 4dc0
00000170: e771 1abf 1619 933f 21d8 b740 f5fc e03f
00000180: 4249 1a40 6607 9440 6406 3ec0 c0ff 84c0
00000190: 4d5f 09be feeb d9c0 371f 9ebf 5541 db3f
000001a0: c90d d53f e41c cb40 97a6 58c0 12fd d7c0
000001b0: 612e 1740 d526 0140 7b60 973f 73aa 4b3f
000001c0: 977d 0ac0 2a61 f6bf bdd3 a83d 89e6 7a3f
000001d0: a86b 47c0 bf64 e7c0 7359 4ac0 f243 d9bf
000001e0: ced9 77c0 cf6e 9fc0 6c32 2740 69a9 93bf
000001f0: 37c1 1441 0914 63c0 bdeb a8c0 fcbe be3f
00000200: 4a7e adc0 609c c0c0 e0cd e63f a23e a73e
00000210: 09a4 bd3f ed6a e73f c056 1940 7aee a740
00000220: 2df8 02c0 8be0 c0c0 852b b6c0 3975 94bf
00000230: 2ba4 943d 3207 c540 f251 a9c0 b623 bfbf
00000240: bde7 9f40 f2b4 8c3f 6a84 ccbf e5b8 2ac0
00000250: 5652 b8c0 491e 17c0 f44c 2840 85b2 9740
00000260: cc90 053f d036 3340 5a46 2540 3aa6 ecc0
00000270: 5533 91c0 7acd 03bf c98e 62c0 97d8 98bf
00000280: 096b dec0 b491 cbc0 29d1 9ac0 5632 02c0
00000290: ecb0 b7bf efc2 c8c0 0a33 2ac0 1b86 30c0
000002a0: d5ea 1340 ba08 8e3f cb92 bfc0 b320 aa40
000002b0: 05b5 9840 099a 3540 f76d 68c0 ba5f 9dbf
000002c0: c5e7 0ac0 f946 bd3d f8cd 9fbf d44f 29c0
000002d0: 7260 ec3f a44b a2c0 1699 0cbf 6924 84bf
000002e0: 42db 253f fc04 2940 df03 0041 09d9 1641
000002f0: 6737 6840 30da f040 36fe 1ac0 9458 a3bf
00000300: e57f 9740 022e ba3e 00dc 8440 4ad4 6640
00000310: 5d4b 083f ee58 b940 13fb dc3e bf93 15c0
00000320: b6e5 4040 efe1 45bf 1a31 c9c0 76d4 97bf
00000330: e010 b9c0 332f bd3f db16 0a41 ed7c 223f
00000340: ecc5 35c0 e768 0dc0 da65 38bf 90ca b440
00000350: 83bc d340 a987 a3c0 6e80 0040 20a0 bcbf
00000360: 72a8 fcc0 d9f3 963e 880d b9c0 fed6 33c0
00000370: 8f82 0441 7a46 a7be a719 7ac0 07e9 b43f
00000380: 6c66 94c0 09d5 cec0 9845 a940 c17f 1240
00000390: f0ef d8c0 1dd8 3fc0 0502 0a3f 98c3 5641
000003a0: 7ff7 f5c0 2596 17c0 933a 8040 fa23 4d3f
000003b0: d726 ccc0 611c 8cc0 3f77 5e40 98b2 aebf
000003c0: e886 7ac0 f1f0 3941 ba36 59c0 8075 96c0
000003d0: 43c5 8f40 fa0b a2be b811 8bc0 0118 adbf
000003e0: aa66 b2c0 82e3 6940 767a 9540 9658 42bf
000003f0: 439d 5fbf 3f21 e5bf 706b 833f 2897 9540
6.8177 -0.2156717 -5.5441594 3.714974 0.67862886 -0.54380316 -3.9789717 -0.6070389
3.2115889 -0.9334005 -0.11517921 -6.866288 1.0067022 -0.50194615 0.05819146 3.5605626
-3.5112348 -1.1577913 -1.4529803 -4.166006 -1.4378372 -4.6885996 6.0499263 3.410792
-3.9035149 -1.5511642 -5.0997176 5.7238708 -7.207141 -1.3869746 -3.9804094 4.881804
1.1678029 3.79692 1.9557402 5.80519 4.1671634 7.5064535 0.87713826 3.1466787
1.669765 -2.5141041 1.126877 -2.920177 -6.773043 -0.59536874 -3.0575292 -1.6130964
3.3390315 -4.2225876 5.2568016 5.9210415 -4.3494263 -4.8887615 -1.2782537 -5.4313846
-2.9486349 -3.8452055 4.164519 -2.6615546 -0.4006128 -2.139815 -1.8361918 -0.8353903
4.8583517 4.4439025 1.7133023 -1.5029758 0.4894231 2.4083886 2.7375727 -0.9702441
-0.12689002 0.58208156 -0.28851882 -5.7771626 -2.126579 0.486866 8.731211 2.3450437
0.8809266 -0.34413573 -0.31310838 4.7910237 -1.3869742 -0.17038006 -7.0341926 3.0525749
1.3114204 -4.339348 4.688607 -3.217563 -0.6033005 1.1492031 5.745133 1.7577196
2.4107213 4.625903 -2.96914 -4.1562195 -0.1341526 -6.8100576 -1.2353276 1.7129313
1.6644832 6.3472767 -3.3851678 -6.7496424 2.3622057 2.017995 1.1826319 0.7955696
-2.1639154 -1.9248402 0.08243511 0.9800802 -3.1159458 -7.231048 -3.1617095 -1.697386
-3.8726687 -4.9822764 2.6124525 -1.1536075 9.297172 -3.5480978 -5.2787766 1.4902034
-5.421666 -6.0190887 1.8031578 0.32664973 1.4815685 1.8079506 2.3959198 5.247861
-2.0463974 -6.02741 -5.6928124 -1.1598274 0.07257875 6.1571283 -5.291253 -1.4932773
4.9970384 1.099272 -1.597791 -2.667535 -5.760051 -2.3612235 2.6296968 4.740542
0.5217407 2.8002205 2.582419 -7.3952913 -4.537516 -0.5148541 -3.539965 -1.1941098
-6.950566 -6.361536 -4.8380322 -2.0343223 -1.4350867 -6.2737956 -2.6593652 -2.7581851
2.311208 1.1096413 -5.986669 5.3164916 4.772097 2.8375266 -3.6317117 -1.2294838
-2.170396 0.092420526 -1.2484732 -2.6454973 1.8466933 -5.0717335 -0.5492109 -1.0323611
0.64787686 2.6409292 8.000945 9.427987 3.6283815 7.526634 -2.4217658 -1.2761407
4.734362 0.36363226 4.1518555 3.606707 0.53239995 5.7921057 0.43160304 -2.3371427
3.0140204 -0.7729787 -6.287244 -1.1861713 -5.78331 1.4780029 8.63058 0.6347187
-2.8402052 -2.2095277 -0.72030413 5.649727 6.6167617 -5.11031 2.0078387 -1.4736366
-7.895562 0.29482916 -5.782902 -2.809997 8.281875 -0.32670957 -3.9078157 1.4133614
-4.6375027 -6.4635053 5.2897453 2.2890475 -6.7792892 -2.9975655 0.5390933 13.422752
-7.686462 -2.368539 4.00715 0.8013302 -6.379741 -4.378464 3.4760282 -1.3648252
-3.914484 11.621324 -3.3939652 -4.7018433 4.49283 -0.31649762 -4.345913 -1.352295
-5.575032 3.654511 4.671199 -0.7591642 -0.8734934 -1.7900771 1.0267162 4.6747017

gnn_node.convs.0.mlp.1.running_var f4 [256]
00000000: d81f a542 a86f 9741 cdb5 ca41 85c9 5942
00000010: 2314 5b41 e5e1 8042 1318 3342 ed15 b541
00000020: b2e5 6f42 475a e541 8c97 ce42 fdaf ee41
00000030: 859c 7a43 7419 3142 fd47 0743 a382 0042
00000040: 4c01 3a42 9682 8842 5227 3a41 8d83 2b42
00000050: b847 0742 4a8c 4e42 8018 4142 fbff d941
00000060: a874 7a41 d287 6a41 2ef7 b342 f436 5142
00000070: 7811 1f42 59e6 fd41 d5cc 9942 c9dd 8442
00000080: b1ba 2c42 9b65 8d42 6d7f 1141 9bcd 7e41
00000090: ac94 ec41 aee9 0742 6c8e 1542 fd30 b641
000000a0: 8004 c242 5ea5 2741 9d87 8142 5e0e d941
000000b0: 989e b042 a560 5b42 df0e f041 7443 7e42
000000c0: be48 0042 f224 b241 b990 8841 6bce e141
000000d0: 7abe 5541 1b33 9742 ccfa f142 6a84 5b42
000000e0: 0ab2 4242 67bb 2f41 a058 4f42 c76e dc41
000000f0: 8e3f c640 9b86 2342 94b4 ba40 6cf9 0e43
00000100: 32c2 e541 fb27 d242 b86e c740 fcc6 0042
00000110: 116d 2d41 a862 a341 1eb7 3442 b2e5 6e41
00000120: a7f2 3142 c04f d041 dac2 db41 4476 a941
00000130: 7bae da41 b54c 0842 c869 d542 96f0 8a42
00000140: 9bb9 c742 8181 2242 43df 6942 bbdb 4542
00000150: c5d9 bf41 93d1 0842 0083 eb42 ab57 0d42
00000160: 2d0a 0a42 2aed d441 aecd 2d42 2084 4142
00000170: 4b1f 7042 1192 8242 e070 f842 2b0e a641
00000180: b654 1542 bc77 6b42 59ee 8142 6b4c 2e42
00000190: 139e 5843 e419 8e41 54c6 0c42 e572 0541
000001a0: 9e5d 7042 abea 1a42 7a47 1a42 66b1 fd41
000001b0: 3165 7d41 46cb 1c42 f590 e441 781a 1742
000001c0: 5b6f 1542 ca0d a342 600a d841 76df 8042
000001d0: 68fd 8041 3300 c642 7c89 6a42 8e30 b242
000001e0: 93b6 6942 c3b8 5f43 6a7c 0842 42fa 8a41
000001f0: 4bee 0142 8595 3442 998c b041 45f9 b342
00000200: 79e5 5b42 fa56 fc41 c90a 5e43 095f 5842
00000210: 46b9 1042 d7ca 6f41 26e5 e342 7545 1e42
00000220: 18ad 9a41 f672 eb41 12da 7442 dae1 5d42
00000230: c1fc 6341 bb72 ad42 d3c1 bc41 0378 a941
00000240: af86 fd42 c9a8 5942 e5dd 6741 77d0 bc41
00000250: 3d0c a042 da02 2d41 6b48 7341 04e9 1842
00000260: 1540 ef41 1de6 4842 a002 9242 bd9f 0143
00000270: bc8d 4443 8a1a 9d42 ebda 1343 078c c941
00000280: b6e2 1342 f8ef b842 4847 2041 9a4c 2542
00000290: a50e 1042 cc5c 0042 fd2c 0742 805e 4041
000002a0: c8b9 3542 c910 2441 84b3 0342 baf0 d741
000002b0: 2d9d 3642 9eff a341 906b ef41 ce55 1542
000002c0: 7dbd 1642 be5c e442 10d7 a041 01be 4142
000002d0: d9f0 c540 94de ca42 d5c2 2c42 5b61 2b42
000002e0: b7a0 cb41 5b63 2442 b376 1242 2832 8342
000002f0: 50f0 d240 f3ff 5942 c5f1 8342 b699 4441
00000300: cc43 fd42 0bc5 2942 d4fa b241 4de4 d541
00000310: 729b 0943 d74a 6842 4cc8 9241 2a38 3b42
00000320: 8335 0f42 7d48 1642 dbe4 8141 df6c 9242
00000330: 7b7f a542 2838 1743 6c77 bc42 3285 8d41
00000340: 4a51 b442 d670 3941 8591 3643 39f6 4441
00000350: 024a 6f42 3af6 8141 51b3 c041 3855 5942
00000360: c3bc 0341 3b1a 7241 d3c2 cf41 6c04 ae41
00000370: fee0 f941 67de a241 656e 5642 640b 0e42
00000380: 6d27 de42 a533 2d42 c471 2442 3590 b641
00000390: 54e7 b742 388f af41 a623 8641 b42d 1742
000003a0: b0b5 3442 70b7 8c41 935d dc41 5747 ac41
000003b0: ccb9 a742 3671 4143 8ebf 5542 7c78 7942
000003c0: 36c3 c641 1a1e 0c42 4fdb 8a41 0e80 c642
000003d0: 329e 1043 7245 b341 0a1b c442 1020 aa41
000003e0: 9253 2f42 ac7e 0c42 c457 5242 3219 e441
000003f0: 19b8 1542 0af0 e642 5674 a641 5d16 b142
82.562195 18.92952 25.33877 54.446796 13.692416 64.4412 44.77351 22.635706
59.97431 28.66908 103.29599 29.835932 250.6114 44.274857 135.2812 32.127575
46.501266 68.25505 11.6346 42.878468 33.820038 51.637 48.273926 27.24999
15.653481 14.658159 89.98277 52.303665 39.76706 31.737474 76.90006 66.433174
43.182316 70.69845 9.09361 15.925197 29.572594 33.978203 37.389084 22.77392
97.00879 10.477873 64.76487 27.132015 88.30975 54.84438 30.007261 63.565872
32.071037 22.26804 17.070665 28.22579 13.359003 75.599815 120.98984 54.87931
48.673866 10.983253 51.836548 27.55409 6.195258 40.88145 5.834543 142.9743
28.719822 105.07809 6.2322655 32.19432 10.839128 20.423172 45.178825 14.931078
44.486965 26.03894 27.470142 21.182747 27.335196 34.07491 106.706604 69.469894
99.86251 40.62647 58.46803 49.46458 23.981333 34.204662 117.75586 35.335613
34.509937 26.615803 43.45086 48.37903 60.03056 65.285286 124.22046 20.756918
37.332726 58.86693 64.96552 43.574627 216.61748 17.762642 35.19368 8.34055
60.091423 38.729168 38.5698 31.71162 15.837205 39.19851 28.57078 37.77585
37.358746 81.52693 27.005066 64.43645 16.123734 99.00039 58.634262 89.09483
58.428295 223.72173 34.1215 17.372196 32.482708 45.146015 22.068651 89.986855
54.974094 31.542469 222.04213 54.092808 36.18093 14.987021 113.947556 39.56783
19.334518 29.431133 61.21296 55.47056 14.2492075 86.72408 23.59464 21.1836
126.763054 54.41483 14.491673 23.60179 80.0239 10.813196 15.20518 38.227554
29.90629 50.22472 73.00513 129.62398 196.55365 78.551834 147.85515 25.193373
36.971397 92.46869 10.017403 41.324806 36.0143 32.090622 33.793934 12.023071
45.431427 10.254098 32.92531 26.992542 45.653492 20.499813 29.92752 37.333794
37.685047 114.18114 20.105011 48.43555 6.1856503 101.43472 43.190266 42.845074
25.453474 41.097027 36.615917 65.59796 6.591835 54.49995 65.972206 12.287527
126.632416 42.442425 22.372475 26.736475 137.60721 58.073086 18.347801 46.804848
35.802258 37.57079 16.236746 73.21264 82.748985 151.21936 94.233246 17.690037
90.15877 11.590048 182.56844 12.310113 59.822273 16.245228 24.087557 54.33322
8.233584 15.131404 25.970129 21.75216 31.23486 20.358595 53.607807 35.511124
111.077 43.300434 41.1111 22.820414 91.95181 21.944931 16.767406 37.794632
45.17743 17.58957 27.54569 21.534834 83.862885 193.44223 53.437065 62.36766
24.845318 35.029396 17.357084 99.25011 144.61795 22.408909 98.05281 21.265656
43.83161 35.123703 52.58571 28.512302 37.429783 115.46883 20.806805 88.54368

gnn_node.convs.0.mlp.3.weight f4 [128, 256]
00000000: 77e2 ba3e 143f 793d 4792 fabc 4a75 5b3d
00000010: 3f3d 663d 1004 0d3f 3b4b 1bbe 9641 dfbd
00000020: 29fa 663d dee7 f6bd 6803 cabc f190 653d
00000030: 2f42 92b9 5060 05bd b67a 38bd 0e64 bcbe
00000040: b4b6 d83e 6a9c 9ebd 6074 6ebc 71d7 4cbc
00000050: 3904 b1bd ac4a 46be b14e 8a3e c057 16bd
00000060: 1848 2ebe 214e 343e 0b68 cf3e 0ee2 9dbe
00000070: cf1e b23e 0500 13bd 41d7 8b3d fa35 2bbd
00000080: 7af7 22be d0d0 0abc 4f08 12be 022f 773d
00000090: a893 8dbe acac 413d 3e32 03be 9037 1bbe
000000a0: 96d1 1fbe 6ad7 003e d799 9cbe 5bb2 473e
000000b0: 3fc1 9a3e 3822 45bc 2c4c 86be f12f 313f
000000c0: aec9 bdbc 6ebb 503e a563 18bd f1f3 103d
000000d0: 4dad 6b3d 4f7d 713c 1e21 09be 062f 5a3e
000000e0: 23b6 1e3e 2bba dabd 0f43 62be e608 babc
000000f0: 4da7 9dbe 40f0 b1bd 410c 083b 2dac adbd
00000100: 44ae 1dbd 9ae3 003e e9f3 25bc de53 84be
00000110: 2417 ebbd 1f29 4abd 12aa 023f 7fb8 ddbd
00000120: a374 2cbd 846f babd 9880 fd3c d6ae 41be
00000130: d562 203c 098f fdbb 3700 6d3e c794 823f
00000140: 0ab7 8abc b75c 6f3e 9fc5 d5bd ad6e c8be
00000150: 1712 7cbe 51bf 4e3f ba21 333e 2c42 433f
00000160: 57b5 58be f60d 86bd 94cd 3b3d b48c 613d
00000170: 21f6 793f 724c 5f3e 0f3d 0bbd 2550 07be
00000180: a31f d8be a5a1 0e3d 21e9 3d3f e019 1c3d
00000190: 444b 093e c92f 10be 8447 07be 00bf e1bd
000001a0: b09a 5b3f 8a77 233d 7700 cd3c 3d7c 01be
000001b0: 651b f2bd 1367 69be 6dbc d4ba 491b df3d
000001c0: 627c 4bbe 1067 b63c cdf9 cbbd 85fd 323f
000001d0: 370a a43d 892d 1c3e d719 6bbe 02e6 173e
000001e0: 50c8 20be 4d50 323e df9a debd a5a4 c8bd
000001f0: 1f00 60be 2bda 4b3e 0486 8abe 0c27 fe3e
00000200: 9591 393e da81 2dbd 1c94 aa3d f89d 523f
00000210: 7069 b0bd 8085 80bd 78c5 c13b e08c f83c
00000220: 0328 dbbd 8551 883e ae1c 05be a73f 093c
00000230: e875 42bd 4d27 8e3e 22e1 51be 239a 56bd
00000240: 6c5f 5dbe 48af 2dbe 646a 73bd 93ed 22be
00000250: 523b ce3d c82d 02bd 5b35 3c3d 2bed 92be
00000260: c3be 743d a9a3 0ebd ad78 77be f707 a93c
00000270: 8714 aa3d 602d 48be 3243 0e3e af7c b3bd
00000280: 9775 5e3e a4a6 383d 8269 e93c 1de2 b43d
00000290: 7e97 10be 57f2 05be 1988 393d 52e5 bdbd
000002a0: 712f 003f 2037 073d fd31 f63d c36a cebd
000002b0: 766b a5bd b4ac 03be 874a 153e 3140 19bc
000002c0: b35a 8ebd 96f9 733f 33d5 e5bc 42d4 7d3e
000002d0: 367b e3bd 02af d03d 1db1 eabd 5298 88bc
000002e0: 55f1 00be 7b3e 88be a235 34be ee38 28be
000002f0: 55a6 bdbd 36c9 f73d e915 263f 20e0 3fbd
00000300: 1529 a0bd b4bc c4bd 6a05 2bbe a7fe 5cbe
00000310: e3f7 d4bd 7394 613e 10bd 91bd f280 1abd
00000320: b51d 53be 1874 b4be 6fda 20be ab9b 6b3e
00000330: 8a88 4e3e 7f24 efbd a5b1 173e 1df5 d6bd
00000340: 6aae 8b3e 3f10 1c3d 5f72 623d 5573 51be
00000350: 089e d9bc eecd 60be 80f7 3e3a 78c2 d5bd
00000360: f5f9 4e3e 7b13 5fbd ddcd a3be ae64 cb3d
00000370: 1f2c 0bbe 54b0 563d bff9 b93e 2d77 a0be
00000380: d693 043e 8125 8f3d 3846 80be 3d2c c13c
00000390: 0d46 62be 7466 a0bd ce3c 71bd c420 03be
000003a0: 6a33 4bbe 8200 993e 8e09 eabd ff17 563c
000003b0: a17f 553e b525 5a3d 0b5b c53d 4f60 b33d
000003c0: f54f 46be fdaa 5ebd 5724 2abc afe6 1fbe
000003d0: 406e 70be a9a4 c9bd b11e 4dbc 0d7a b3bd
000003e0: 92c6 013d faa4 c93d ed20 ee3d da1d cfbe
000003f0: e5bd 98bc 515a 543e 2ad1 e5bc 560e e93d
0.36500904 0.06085117 -0.030587329 0.053578652 0.056210753 0.55084324 -0.15165417 -0.109011814
0.056390915 -0.12055944 -0.024659827 0.05604643 -0.000278966 -0.032562554 -0.0450389 -0.36795086
0.4232689 -0.07744677 -0.014554113 -0.012502537 -0.086433835 -0.19364423 0.27013162 -0.03670478
-0.17019689 0.17607929 0.40509066 -0.3083653 0.3478913 -0.03588869 0.06828166 -0.041799523
-0.15914717 -0.008472636 -0.14260982 0.060347565 -0.27651715 0.047283813 -0.12812135 -0.15157914
-0.15607294 0.12582174 -0.3058612 0.19501631 0.3022556 -0.012032084 -0.2622999 0.6921378
-0.023167457 0.20383999 -0.037204403 0.03538889 0.05753832 0.014739349 -0.1339154 0.21307
0.15499167 -0.1068004 -0.22095893 -0.022709321 -0.30791703 -0.08688402 0.0020759257 -0.084801055
-0.03849627 0.12586823 -0.0101289535 -0.25845236 -0.11479023 -0.049355622 0.51040757 -0.108262055
-0.04210342 -0.09103301 0.030945107 -0.18914351 0.009789188 -0.0077379984 0.23144613 1.0201653
-0.016932983 0.23375212 -0.10438084 -0.3914694 -0.24616276 0.80760676 0.17493334 0.76272845
-0.21162926 -0.065456316 0.04585035 0.055065826 0.9764119 0.21806505 -0.033993777 -0.13214166
-0.42211637 0.034822125 0.7418385 0.038110614 0.13407618 -0.14080729 -0.13210875 -0.110227585
0.8578291 0.039908923 0.025024636 -0.1264505 -0.11821631 -0.22793226 -0.0016230472 0.10893876
-0.19871667 0.02226594 -0.09959755 0.6991809 0.08009761 0.15251745 -0.22959076 0.14833835
-0.15701413 0.17413445 -0.10869383 -0.097970285 -0.21875046 0.19907443 -0.2705537 0.49639165
0.18121941 -0.042360164 0.08329031 0.8227229 -0.086138606 -0.06275463 0.0059134327 0.030340612
-0.10700991 0.26624694 -0.12999222 0.008376992 -0.047475725 0.2776436 -0.20496038 -0.05239309
-0.21618432 -0.16961396 -0.059427634 -0.1591094 0.10069908 -0.03178194 0.04594932 -0.2869657
0.059752237 -0.034824047 -0.24167128 0.02063368 0.083046965 -0.19548559 0.1389282 -0.08764016
0.21724544 0.045080796 0.028492693 0.0883219 -0.1412029 -0.13080727 0.04529581 -0.09272255
0.5007239 0.033011556 0.12021253 -0.10078957 -0.08077137 -0.1285885 0.14579211 -0.009353683
-0.06950893 0.9530271 -0.028055763 0.24788001 -0.11107485 0.1018963 -0.11459563 -0.016674194
-0.12592061 -0.2661017 -0.17598584 -0.16427967 -0.09260241 0.12098925 0.6487718 -0.0468446
-0.07820336 -0.09606305 -0.16701284 -0.21581517 -0.10398843 0.22029285 -0.07116139 -0.037720628
-0.20616801 -0.35244823 -0.15708326 0.23008601 0.20169273 -0.11676883 0.1481386 -0.104959704
0.27281505 0.03810143 0.055284854 -0.20454152 -0.026564613 -0.21953556 0.0007284805 -0.104374826
0.20212539 -0.054461937 -0.31993 0.099313125 -0.1359105 0.052414253 0.36323354 -0.31340924
0.1294702 0.06989575 -0.25053573 0.023580665 -0.22097035 -0.078320414 -0.05889588 -0.12805468
-0.19843832 0.298832 -0.11427604 0.013067245 0.20849468 0.053258616 0.09636506 0.08758604
-0.19366439 -0.054362286 -0.010384641 -0.15615343 -0.23479557 -0.098458596 -0.012519524 -0.08763514
0.031683512 0.0984592 0.11627374 -0.40452462 -0.018645236 0.20737578 -0.028053839 0.113796875
