checkpoints/A_epoch_80.pth (torch, 843938 bytes, 48 tensors)

gnn_node.node_encoder.weight f4 [1, 128]
-0.7062153 0.40226483 -0.6619477 0.53018963 0.082814075 0.86937964 0.56592566 -0.08462602
0.07042672 -0.66699004 -0.28660905 -0.56459206 -0.8234004 0.9668123 -3.014859 -0.86672467
-0.17111333 0.19392997 0.16281304 -1.0576109 -0.70127875 -0.89870477 -0.2719193 -1.5292755
-1.0028765 -1.6699369 -2.0325532 -1.2415501 -0.41369888 -0.67394096 -0.330615 -2.8541617
-0.32412988 -1.392409 0.0959116 0.479534 0.5017865 -1.0865405 -0.03503489 0.32294482
-1.5389025 -0.5185526 0.6268236 -1.8259939 0.1923426 0.2848211 -1.2949547 -2.486969
-0.13289592 -1.6686835 -0.7308951 -0.73200107 0.28672346 -0.55756384 -1.1429197 -0.32123423
0.51961267 0.5943109 0.14218713 0.20518135 -1.1997068 0.084503725 0.2518837 0.080858395
-2.1434743 -0.49912718 -1.9705008 -1.3786689 -1.9312884 1.3593553 0.94334084 -0.8428585
0.45425016 -1.2296122 -0.5345278 -0.011426098 -0.26294222 -0.13609381 0.1372518 -0.19942279
-1.3929316 -1.3070915 -1.6183125 0.7019269 0.50208306 0.4015711 0.40540394 -0.14049405
-0.5939374 0.18608996 -1.7560842 -0.45862776 -0.7343076 0.5773666 -1.3764288 -0.48408523
-0.79614615 -0.2949194 -0.04358347 -0.15086365 -1.1809528 -1.2434559 -1.8052909 -0.86748874
-1.5859262 0.45730814 0.94610983 -1.4068502 -0.51235265 -0.85794634 -0.9704452 -0.83462155
-0.3393235 -2.0112252 -1.3306608 -1.4422307 -0.19913143 -2.3697278 0.4300755 -0.1527717
-0.7742292 -0.9226967 0.50507396 0.18204321 -0.56383026 0.5867527 -1.6812257 0.49574938
00000000: 87ca 34bf a8f5 cd3e 6875 29bf 82ba 073f
00000010: 6d9a a93d aa8f 5e3f 81e0 103f 6850 adbd
00000020: e23b 903d dcbf 2abf 6cbe 92be 1b89 10bf
00000030: 5eca 52bf 0381 773f 73f3 40c0 abe1 5dbf
00000040: 5538 2fbe 9495 463e 76b8 263e cb5f 87bf
00000050: 0187 33bf 8411 66bf 0239 8bbe 4dbf c3bf
00000060: 425e 80bf 7ec0 d5bf 5a15 02c0 1deb 9ebf
00000070: 57d0 d3be 6587 2cbf 5f46 a9be 96aa 36c0
00000080: 5af4 a5be 753a b2bf 4d6d c43d 7b85 f53e
00000090: 1475 003f c213 8bbf bf80 0fbd 0659 a53e
000000a0: c2fa c4bf ddbf 04bf 8377 203f 2bba e9bf
000000b0: 75f5 443e 12d4 913e 13c1 a5bf 802a 1fc0
000000c0: de15 08be 6c97 d5bf f11b 3bbf 6c64 3bbf
000000d0: 6bcd 923e 81bc 0ebf 314b 92bf d078 a4be
000000e0: 5605 053f c224 183f 8199 113e 0f1b 523e
000000f0: fe8f 99bf 4a10 ad3d e6f6 803e 1699 a53d
00000100: af2e 09c0 998d ffbe 5f39 fcbf 3978 b0bf
00000110: 7534 f7bf 5bff ad3f c97e 713f 93c5 57bf
00000120: 7a93 e83e ef63 9dbf d0d6 08bf 8734 3bbc
00000130: 5da0 86be 2d5c 0bbe bc8b 0c3e 7d35 4cbe
00000140: 954b b2bf c64e a7bf dd24 cfbf 7bb1 333f
00000150: 8488 003f ba9a cd3e 1b91 cf3e acdd 0fbe
00000160: 480c 18bf 5e8e 3e3e 5ec7 e0bf 42d1 eabe
00000170: 95fb 3bbf 4cce 133f d22e b0bf 05da f7be
00000180: 3cd0 4bbf adff 96be 9584 32bd 007c 1abe
00000190: 7629 97bf 9029 9fbf c613 e7bf be13 5ebf
000001a0: a1ff cabf 4b24 ea3e 4134 723f ab13 b4bf
000001b0: 8b29 03bf 5fa2 5bbf 196f 78bf c2a9 55bf
000001c0: cfbb adbe eab7 00c0 1853 aabf 049b b8bf
000001d0: 1ce9 4bbe 9fa9 17c0 db32 dc3e 2f70 1cbe
000001e0: e333 46bf da35 6cbf 874c 013f 8969 3a3e
000001f0: 2e57 10bf 6d35 163f 6732 d7bf ddd2 fd3e

gnn_node.virtualnode_embedding.weight f4 [1, 128]
-0.51390547 -0.48502848 -0.80231297 -0.4604626 -0.25030217 -0.93284357 -0.4666487 -0.58316565
-0.5151572 -0.17954387 -0.068567775 -0.55082405 -0.20379153 -1.0472614 -0.78896385 -0.06232549
-0.29630682 -0.2525835 -0.8150937 -0.24372712 -0.30865586 -0.18869326 -0.073684044 -0.11738064
-0.33451062 -0.36275926 -0.09094137 -0.26956797 -0.47892973 -0.30593172 -0.08077454 -0.028041346
-0.206021 -0.20118907 -0.77071977 -0.4060427 0.11230096 -0.50162274 -0.72293925 -0.35871184
-0.114795126 -0.30964348 -0.89659154 -0.3489097 -0.21736586 -0.39871624 0.20069325 -0.36824375
-0.815964 -0.20032541 -0.2382051 -0.38453934 -0.15903388 0.058586825 -0.55940723 -0.23055269
-0.18107629 -0.6129325 -0.8609308 -0.53490525 -0.2839995 -0.33961403 -0.3634951 -0.2708515
-1.3542651 -0.257741 -0.6483986 -0.59368485 -0.39522547 -0.65063953 -0.54430825 -0.0084540555
-0.36863628 -0.45192534 -0.38630763 -0.44099304 -0.46724668 -0.3186422 -0.4409457 -0.40441868
-0.36363682 -0.06448864 -0.37328658 -1.1074061 -0.049790908 -0.3091928 -0.39604473 -0.5602431
-0.21956217 -0.12142236 -0.36312035 -0.38899767 -0.1490584 -0.1852581 -0.36323547 -0.16383807
-0.3632007 -0.5016199 -0.36647567 -0.3207828 -0.38779017 -0.28826734 0.113637194 -0.010499983
0.0425006 -0.79756266 -0.6989481 -0.55647874 -0.1139733 -0.5029302 -0.38657346 -0.5935444
-0.23865774 -0.17651658 -0.1414538 -0.20224868 -0.8506295 -1.0176533 -0.013829632 -0.44952
-0.39003024 -0.4027827 -0.47585252 -0.180928 -0.32870528 -0.5386587 -0.20863265 -0.37327358
00000000: 4f8f 03bf a755 f8be 6264 4dbf c1c1 ebbe
00000010: 9b27 80be d6ce 6ebf 94ec eebe 584a 15bf
00000020: 58e1 03bf 59da 37be 436d 8cbd ce02 0dbf
00000030: baae 50be a90c 86bf 89f9 49bf 0349 7fbd
00000040: 87b5 97be a052 81be fba9 50bf 9a93 79be
00000050: 2408 9ebe ce38 41be a9e7 96bd 4365 f0bd
00000060: fa44 abbe 95bb b9be 783f babd d004 8abe
00000070: 4736 f5be 15a3 9cbe 1f6d a5bd f7b6 e5bc
00000080: 2bf7 52be 8204 4ebe e44d 45bf d4e4 cfbe
00000090: 0cfe e53d 596a 00bf 8c12 39bf 14a9 b7be
000000a0: b519 ebbd 9789 9ebe 0687 65bf 4ba4 b2be
000000b0: 2895 5ebe 8924 ccbe 8882 4d3e 728a bcbe
000000c0: 04e3 50bf 1b22 4dbe 0aec 73be 57e2 c4be
000000d0: c7d9 22be bdf8 6f3d 5035 0fbf 0116 6cbe
000000e0: 106c 39be 25e9 1cbf f665 5cbf 8def 08bf
000000f0: 6268 91be e4e1 adbe 081c babe 0cad 8abe
00000100: 8f58 adbf a1f6 83be 73fd 25bf bbfb 17bf
00000110: fe5a cabe 5090 26bf c957 0bbf e182 0abc
00000120: e5bd bcbe c262 e7be 1dca c5be d7c9 e1be
00000130: f53a efbe 1225 a3be a3c3 e1be f70f cfbe
00000140: 9b2e babe 9f12 84bd 6b1f bfbe 7cbf 8dbf
00000150: 8df1 4bbd 854e 9ebe 60c6 cabe 186c 0fbf
00000160: e8d4 60be 49ac f8bd e9ea b9be b42a c7be
00000170: c4a2 18be 4db4 3dbe 00fa b9be 2bc5 27be
00000180: 71f5 b9be 296a 00bf b3a2 bbbe a53d a4be
00000190: 6f8c c6be c797 93be 9eba e83d 1f08 2cbc
000001a0: 1c15 2e3d 112d 4cbf 43ee 32bf 6475 0ebf
000001b0: d56a e9bd 09c0 00bf f5ec c5be 87f2 17bf
000001c0: b262 74be c3c0 34be 44d9 10be 471a 4fbe
000001d0: dbc2 59bf 7742 82bf ae95 62bc 7c27 e6be
000001e0: 0bb2 c7be 8939 cebe f1a2 f3be 3145 39be
000001f0: 0f4c a8be 89e5 09bf cca3 55be b71d bfbe

gnn_node.convs.0.mlp.0.weight f4 [256, 128]
-0.0024627321 -0.7906783 -1.3421499 -0.7067282 0.20472215 -0.45524752 -0.25869507 -1.038445
-0.24813123 0.04439745 -0.61069393 0.08936914 0.041299723 -0.10021854 0.022294454 -0.048557356
-0.70579994 -0.1199207 -0.3354765 0.027590338 -1.0915748 -0.0032473481 0.35305914 -0.0074979356
-0.08911694 -0.07355038 0.122059934 -0.05789953 -0.92620337 0.20754835 0.0868574 0.13721514
-1.2372872 -0.090412736 0.0076803993 0.45097739 -0.8144646 0.09790519 -2.7953322 -0.45673493
-0.045551814 0.3033912 -0.1417432 0.17445523 0.35078427 0.76067185 0.081706606 -0.10654048
0.42124143 -0.13644795 0.6938615 -2.472493 -0.47675547 -0.16742629 0.013575512 -0.027930355
0.16541089 0.15227014 -0.15357405 -0.019088637 0.011251513 0.09959994 -0.4670399 -0.18545783
-0.14816764 -0.11264914 0.03646291 -0.06468221 0.10422601 -0.077692755 -0.16172956 0.012739603
-0.038277972 0.018102191 -0.03319804 -0.48815382 0.19253781 -1.4175774 -1.7379302 0.00031828092
0.03870908 0.0803729 0.046489913 0.1922851 -0.121809795 0.09164883 0.25128222 0.24535643
-0.09631256 -0.042218607 0.08574054 0.13893169 -3.4704938 0.20356616 0.08786165 -0.025772713
-0.19308326 -1.1037452 -0.8362509 -0.21065585 0.05159824 0.0815763 -0.08669123 0.0443475
0.047297113 0.03856875 0.13298166 -0.05052468 0.19018194 -0.07942107 0.37556538 -0.025174294
0.42322746 0.09139027 0.044321477 -0.019522632 -0.32962233 0.08440703 -0.016301598 -0.5379104
0.25323477 -3.382979 0.0053902613 -0.01490725 -0.015234369 -0.65311486 0.08411261 -0.5186912
-0.055621434 0.1120709 -0.50386506 0.5307693 0.1551849 0.11933264 0.42002612 0.6024257
-0.28859937 -0.059297893 -0.6306436 0.081276156 -0.08828849 0.060274802 0.037337072 -0.03839698
-0.15026166 -0.08251437 0.277015 0.05511794 -0.65644294 1.1537061 0.024691014 -0.034277245
-0.010944493 -0.00896695 0.035773702 -0.032486398 -0.118313 -2.0413 -0.7647036 -0.005613875
-0.3632674 -0.043411486 -0.4366231 -0.83516335 -0.6404868 0.010530526 1.3756286 -0.079916395
0.032824025 0.69620353 -0.082540765 0.074698485 -0.480741 0.7891142 0.0425989 -0.0028218944
1.2784858 -0.064106576 0.27448726 0.4529196 0.29940537 -0.032462794 0.006708803 -0.07419202
-0.11932812 -0.038539615 -0.85798794 0.24086063 -0.10048076 -0.4435011 0.30139416 -0.04225169
0.070656694 0.111557245 -0.054153644 0.040702388 -0.0013833366 -0.276601 -0.31896144 0.059505694
0.035446644 -0.053466376 0.007797007 -0.64172715 0.9429453 0.016666142 0.22810616 -0.628448
0.013725372 -0.031275906 -0.064867415 -0.26134422 -0.27338523 -0.0398381 -0.9061581 -0.11458539
0.046388045 -0.52328455 0.08458723 0.20170738 -0.3741312 -0.044402104 -0.02106705 -2.905017
-0.2748019 -1.8113309 1.8606929 0.10451152 0.012334412 -0.037096675 0.086507775 0.085156426
-0.052990884 0.14996147 -0.035310507 0.08255734 -0.023196874 -0.029941007 0.605098 0.0062151346
0.96539307 -0.03717907 0.055339243 0.055236313 0.07420016 -0.051694162 0.0068934355 -0.03152429
0.2495469 0.9491784 -0.08543672 0.033071104 0.39195254 0.28670138 0.06895304 0.3267225
00000000: ca65 21bb e569 4abf 91cb abbf 24ec 34bf
00000010: afa2 513e 3416 e9be ae73 84be c4eb 84bf
00000020: 1d16 7ebe 1ada 353d 7056 1cbf 2b07 b73d
00000030: e629 293d 613f cdbd dca2 b63c 14e4 46bd
00000040: 4eaf 34bf fc98 f5bd 93c3 abbe 2205 e23c
00000050: b9b8 8bbf 76d1 54bb 2bc4 b43e 3eb1 f5bb
00000060: f182 b6bd 95a1 96bd 8ffa f93d 0f28 6dbd
00000070: aa1b 6dbf 8e87 543e 4be2 b13d 2082 0c3e
00000080: 6d5f 9ebf 502a b9bd dcab fb3b 82e6 e63e
00000090: c180 50bf 8482 c83d b9e6 32c0 29d9 e9be
000000a0: 8a94 3abd 1756 9b3e 2125 11be 64a4 323e
000000b0: ff99 b33e 64bb 423f cb55 a73d e531 dabd
000000c0: f5ac d73e 03b9 0bbe e8a0 313f 533d 1ec0
000000d0: 4b19 f4be cc71 2bbe d36b 5e3c 33ce e4bc
000000e0: 7961 293e b4ec 1b3e 8442 1dbe c65f 9cbc
000000f0: 4458 383c 0efb cb3d db1f efbe a8e8 3dbe
00000100: 42b9 17be 98b4 e6bd 225a 153d 1b78 84bd
00000110: 7274 d53d 611d 9fbd 6f9c 25be c5b9 503c
00000120: 5dc9 1cbd 0c4b 943c abfa 07bd 4cef f9be
00000130: a228 453e 2d73 b5bf 7f74 debf f1de a639
00000140: 6a8d 1e3d 8c9a a43d 356c 3e3d 63e6 443e
00000150: 6a77 f9bd 62b2 bb3d 10a8 803e b73e 7b3e
00000160: 853f c5bd 6bed 2cbd bc98 af3d 1c44 0e3e
00000170: 921c 5ec0 a673 503e cff0 b33d 4c21 d3bc
00000180: 9eb7 45be 8647 8dbf 8a14 56bf 2bb6 57be
00000190: ad58 533d 7a11 a73d 2c8b b1bd b9a5 353d
000001a0: 9eba 413d 44fa 1d3d 582c 083e f8f2 4ebd
000001b0: 0ebf 423e 84a7 a2bd 1b4a c03e 523a cebc
000001c0: 45b1 d83e d22a bb3d 708a 353d eded 9fbc
000001d0: 42c4 a8be 98dd ac3d ee8a 85bc 7fb4 09bf
000001e0: fda7 813e ba82 58c0 caa0 b03b 8a3d 74bc
000001f0: 9399 79bc 8932 27bf 3b43 ac3d f2c8 04bf
00000200: 4dd3 63bd 6e85 e53d 4dfd 00bf 7fe0 073f
00000210: cae8 1e3e ac64 f43d aa0d d73e 9238 1a3f
00000220: 4cc3 93be 59e2 72bd dc71 21bf 1d74 a63d
00000230: 99d0 b4bd b6e2 763d c2ee 183d 2746 1dbd
00000240: 31de 19be 4bfd a8bd e9d4 8d3e 59c3 613d
00000250: a50c 28bf a4ac 933f cf44 ca3c 4c66 0cbd
00000260: 8850 33bc 1dea 12bc 7287 123d 7510 05bd
00000270: 164e f2bd a9a4 02c0 9dc3 43bf 99f4 b7bb
00000280: 2ffe b9be 3ed0 31bd 108d dfbe 44cd 55bf
00000290: f1f6 23bf 3a88 2c3c 9914 b03f 35ab a3bd
000002a0: 7c72 063d 653a 323f 220b a9bd 85fb 983d
000002b0: af23 f6be 6303 4a3f 2f7c 2e3d 88ef 38bb
000002c0: 6ca5 a33f 4f4a 83bd 9889 8c3e 14e5 e73e
000002d0: a94b 993e b5f7 04bd 85d5 db3b fcf1 97bd
000002e0: 4d62 f4bd b7db 1dbd 19a5 5bbf 2ba4 763e
000002f0: dbc8 cdbd 9412 e3be 5650 9a3e 1c10 2dbd
00000300: 75b4 903d 2078 e43d 36d0 5dbd 8cb7 263d
00000310: 1351 b5ba a59e 8dbe ea4e a3be 3ebc 733d
00000320: 8030 113d 8fff 5abd 097e ff3b 3b48 24bf
00000330: dd64 713f 6f87 883c a994 693e f8e1 20bf
00000340: 62e0 603c 2a1b 00bd 35d9 84bd e9ce 85be
00000350: 26f9 8bbe 472d 23bd faf9 67bf bfab eabd
00000360: 6401 3e3d faf5 05bf 123c ad3d 618c 4e3e
00000370: 208e bfbe fbde 35bd ce94 acbc cceb 39c0
00000380: d6b2 8cbe b1d9 e7bf 2f2b ee3f 230a d63d
00000390: 4616 4a3c aff2 17bd fd2a b13d 7e66 ae3d
000003a0: f80c 59bd 808f 193e c0a1 10bd d313 a93d
000003b0: 5f07 bebc d846 f5bc b4e7 1a3f 54a8 cb3b
000003c0: 0024 773f 1549 18bd 67ab 623d 793f 623d
000003d0: 41f6 973d 42bd 53bd 54e2 e13b 9d1f 01bd
000003e0: 3989 7f3e 5bfd 723f 72f9 aebd 9175 073d
000003f0: 01ae c83e 86ca 923e 4037 8d3d 2c48 a73e

gnn_node.convs.0.mlp.0.bias f4 [256]
-0.08495738 -0.017505882 0.02974296 0.00042325768 -0.059012897 -0.0008720625 0.0031068837 0.07488236
-0.0647559 0.04038518 0.035698235 -0.06888035 -0.0684271 -0.04514329 0.028261978 0.06817752
0.03846408 -0.047243543 -0.01707318 -0.05336504 0.062054165 0.063590966 -0.022237828 -0.046782784
-0.036764476 0.05740039 -0.0813299 0.0026608824 0.032775886 -0.07996276 0.043316178 -0.08437215
-0.05443564 0.072664894 -0.060191456 0.0638703 0.087116204 -0.0069537223 -0.05475056 -0.058889285
0.0012749382 -0.026917288 -0.052047852 0.033271186 -0.093211964 0.07479316 0.043757066 0.03984118
-0.015484969 -0.020439515 0.07150464 0.07984955 -0.08153502 0.0042022727 0.054614935 0.011176139
0.062900454 0.08040939 -0.018014092 0.00819849 -0.06906655 0.071161576 0.0005823803 0.031180069
-0.08077969 0.05661034 0.009282327 -0.033574667 -0.048360046 -0.07740592 0.068254225 0.024985375
0.035327666 -0.054754958 0.06896138 -0.014444127 0.07646305 -0.062872514 -0.015509019 0.07078521
-0.06732605 -0.03453438 -0.03183796 0.04333586 0.08055115 0.02453103 0.018276589 -0.010955018
-0.01388201 -0.067159384 -0.08588567 -0.035529483 -0.023388235 -0.037009697 -0.013451215 0.028552305
0.02961294 0.0016286945 0.041342095 -0.00029041854 0.0077439453 -0.051328603 -0.048699476 -0.064024344
0.05959914 0.038812175 0.12258892 -0.0734304 -0.05526046 -0.06328987 -0.06429669 0.05197825
-0.028151492 0.07369962 0.069392025 -0.07476203 0.07368947 0.057108805 -0.0033069956 -0.007526
0.012428166 -0.0109625105 0.05309135 -0.048949253 -0.07892454 -0.037479073 -0.07208658 0.06311162
-0.013733164 0.043917157 -0.074791335 -0.07909696 0.052907974 0.081341684 0.042604893 -0.060700245
0.0577539 -0.057457414 0.02482772 0.003578711 0.012131616 0.048051286 -0.0627102 -0.07994405
-0.011083237 0.06440076 0.05160548 -0.00018083981 0.053853285 -0.073278844 0.013922156 0.06800874
0.08725175 -0.010027891 -0.059945337 0.004265252 0.040576298 0.034560334 0.05125711 -0.06676968
0.0074000643 0.06127237 0.041619893 0.011930874 -0.044903938 0.014616057 -0.07453806 0.031557504
0.05892005 0.04584504 -0.067018986 0.04386787 0.057374697 -0.017197438 -0.041883778 -0.014003953
-0.014801428 -0.09258764 0.045575302 -0.032464962 0.002625601 -0.02394498 0.0029052638 -0.016363885
0.015106435 -0.0013053991 0.027628707 -0.08726067 0.020274065 -0.049108397 0.05955907 0.02383277
0.08481179 0.08340169 -0.04493677 -0.088381834 -0.00094613223 0.10793645 -0.011808675 -0.0743234
-0.026196336 -0.08877954 -0.057817537 0.02055405 -0.083462045 0.006691477 0.030459851 -0.05272104
0.042086847 0.011090649 -0.07150822 0.07083766 -0.019352011 -0.08140994 0.047598176 -0.029113397
0.058060706 0.0151093 -0.077042446 -0.081541054 0.017070465 0.010774903 0.016149895 -0.007494349
-0.048023757 0.025374074 0.013010158 0.06289024 0.042137403 0.039747 -0.05209721 0.10277516
0.055136707 0.031790715 0.07360533 -0.08295037 -0.06451613 0.01598968 0.0054370738 0.008433901
0.017572416 0.047527928 -0.050237045 -0.020480374 0.06931249 0.052872114 0.06683002 0.05993242
-0.07137236 -0.032335654 -0.04293295 -0.07196025 -0.046516553 -0.013415228 0.04055499 0.039120506
00000000: 23fe adbd 7f68 8fbc 82a7 f33c afe8 dd39
00000010: 82b7 71bd 209b 64ba dc9c 4b3b ec5b 993d
00000020: be9e 84bd ee6a 253d 5038 123d 2411 8dbd
00000030: 8223 8cbd 2ce8 38bd aa85 e73c a8a0 8b3d
00000040: 838c 1d3d 7282 41bd 0edd 8bbc 4d95 5abd
00000050: 822c 7e3d fb3b 823d 1b2c b6bc 4e9f 3fbd
00000060: 5996 16bd ac1c 6b3d 4a90 a6bd 3362 2e3b
00000070: 0240 063d 84c3 a3bd 4e6c 313d 4ecb acbd
00000080: e8f7 5ebd 55d1 943d 518b 76bd 6fce 823d
00000090: fb69 b23d 0ddc e3bb 2042 60bd e435 71bd
000000a0: d41b a73a a581 dcbc 2130 55bd 5e47 083d
000000b0: eae5 bebd 282d 993d 9c3a 333d 8130 233d
000000c0: abb4 7dbc c570 a7bc 0671 923d 2988 a33d
000000d0: d5fb a6bd 38b3 893b e9b3 5f3d 201c 373c
000000e0: f4d1 803d aead a43d 4a92 93bc f652 063c
000000f0: c372 8dbd 29bd 913d e1aa 183a 586d ff3c
00000100: d26f a5bd 3ee0 673d e714 183c 9785 09bd
00000110: 2f15 46bd ff86 9ebd dfc8 8b3d 21ae cc3c
00000120: beb3 103d bc46 60bd a03b 8d3d 0fa7 6cbc
00000130: a998 9c3d 4ec3 80bd 8a19 7ebc d6f7 903d
00000140: 3de2 89bd ec73 0dbd 8568 02bd f180 313d
00000150: 00f8 a43d 4cf5 c83c c9b8 953c ad7c 33bc
00000160: 5f71 63bc dc8a 89bd d3e4 afbd 5d87 11bd
00000170: af98 bfbc 7b97 17bd 7c62 5cbc 86e6 e93c
00000180: d696 f23c eb79 d53a 5456 293d 5143 98b9
00000190: ecc0 fd3b f13d 52bd 1a79 47bd 321f 83bd
000001a0: 3a1e 743d 84f9 1e3d e60f fb3d ad62 96bd
000001b0: cb58 62bd 1f9e 81bd fcad 83bd 25e7 543d
000001c0: f59d e6bc d4ef 963d 681d 8e3d d61c 99bd
000001d0: 81ea 963d ecea 693d 2eba 58bb aa9c f6bb
000001e0: 829f 4b3c 1a9c 33bc 5176 593d 037f 48bd
000001f0: 30a3 a1bd a883 19bd 21a2 93bd aa40 813d
00000200: 1101 61bc 7ae2 333d 332c 99bd 96fd a1bd
00000210: 08b6 583d 7896 a63d 7882 2e3d d2a0 78bd
00000220: 5a8f 6c3d 7758 6bbd 8163 cb3c cf88 6a3b
00000230: afc3 463c 6dd1 443d 356e 80bd b5b9 a3bd
00000240: 7796 35bc 8ce4 833d 4560 533d d19f 3db9
00000250: 4395 5c3d 3813 96bd c119 643c 2b48 8b3d
00000260: 0cb1 b23d 064c 24bc 3e89 75bd 87c3 8b3b
00000270: 5533 263d 238f 0d3d faf2 513d 8bbe 88bd
00000280: 3d7c f23b bdf8 7a3d 9f79 2a3d b679 433c
00000290: 31ed 37bd 3078 6f3c 69a7 98bd 7142 013d
000002a0: 2656 713d 02c8 3b3d 4041 89bd ccae 333d
000002b0: bb01 6b3d a4e1 8cbc 538e 2bbd d670 65bc
000002c0: b081 72bc 979e bdbd 2bad 3a3d fbf9 04bd
000002d0: 4612 2c3b 4328 c4bc 3d66 3e3b 8e0d 86bc
000002e0: fb80 773c ed19 abba 9955 e23c b9b5 b2bd
000002f0: cc15 a63c e325 49bd 36f4 733d f13c c33c
00000300: ceb1 ad3d 81ce aa3d 9e0f 38bd 8901 b5bd
00000310: dc05 78ba c90d dd3d 2c79 41bc de36 98bd
00000320: b399 d6bc 0cd2 b5bd 15d2 6cbd f860 a83c
00000330: 26ee aabd 2d44 db3b f086 f93c 04f2 57bd
00000340: 4263 2c3d 8eb5 353c e772 92bd 5613 913d
00000350: 1c88 9ebc 41ba a6bd 4ef6 423d 387f eebc
00000360: 10d1 6d3d ff8c 773c 6ec8 9dbd fffe a6bd
00000370: 5cd7 8b3c 3889 303c c94c 843c 2893 f5bb
00000380: 8fb4 44bd 4add cf3c 8f28 553c 99cc 803d
00000390: 4598 2c3d c0cd 223d e263 55bd c87b d23d
000003a0: 07d7 613d fb36 023d 64be 963d e2e1 a9bd
000003b0: 0821 84bd cafc 823c 7b29 b23b 582e 0a3c
000003c0: 07f4 8f3c a5ac 423d 5cc5 4dbd 75c6 a7bc
000003d0: b5f3 8d3d 6e90 583d 2dde 883d b27b 753d
000003e0: ac2b 92bd 6472 04bd 76da 2fbd e55f 93bd
000003f0: 2488 3ebd 8bcb 5bbc fd1c 263d d33c 203d

gnn_node.convs.0.mlp.1.weight f4 [256]
1.6157051 0.74932206 0.46822774 0.56609184 0.44704086 1.4715016 1.4084308 0.11384622
1.7423937 1.343855 0.9089427 1.4232785 2.2319121 0.35561013 1.1134856 1.010107
1.5400516 0.52961415 0.3295275 0.24530786 0.16425893 1.7008723 1.4964185 0.7599541
0.51544356 1.2779682 1.3778799 0.6651414 1.9432017 1.1310462 1.0141339 1.0924704
0.2520095 0.39662918 0.0031853614 0.50532293 -0.0050285 0.65633756 0.06153688 -0.03501145
2.241202 1.1942213 2.1780288 1.291679 1.6424192 0.51917577 1.9406399 1.4439741
0.121945806 2.0361671 0.62556225 -0.016902532 0.35237885 1.6342564 0.52419853 1.1832911
0.99043936 0.6075434 0.24903159 0.032131195 0.99225813 0.96979564 0.3734654 2.712225
0.56771415 0.86637783 0.010737033 0.15071458 0.392545 0.5749368 2.1793232 0.8466802
0.30131355 0.45841813 0.7680675 1.4910406 0.012581761 0.37059894 1.3768759 1.9714292
2.3390758 1.1702385 1.6239251 0.21799536 1.5309287 2.2154362 1.4797868 1.8936532
1.5803226 0.325904 1.4221573 1.8612301 2.2059734 1.4440525 1.8886354 -0.007577941
0.08325798 0.4772072 1.5187035 1.1331527 1.9733293 1.2861398 0.81006104 0.009112514
1.811747 0.5872306 1.7245789 1.8771576 -0.006733829 0.16791737 1.0915898 1.8880396
0.15512791 0.97355384 0.9311545 1.3463174 1.1718464 1.6900223 0.86230415 1.0168986
0.9367844 1.8454334 0.0063432185 0.49901363 1.3608685 1.981263 1.309796 1.2956139
1.449665 0.6421739 2.2983086 1.6851087 0.62249726 1.1188558 1.6295692 0.48471186
0.108942986 1.8926688 1.3853824 0.6168085 -0.022252692 1.5193489 1.2999094 0.80944973
2.2707343 0.23824042 2.0616512 0.4348917 1.5144027 0.005703153 0.34409115 0.02524789
1.1810532 0.077851266 1.2045622 1.6883796 1.7516652 1.1503198 1.1109186 1.6389446
1.3725021 1.5290567 0.78110445 1.8095266 0.25046414 0.95083374 1.9347608 0.25115266
1.7513888 0.52587825 1.427402 0.22241236 0.6883113 0.6779511 1.3402479 0.5934121
0.9443811 1.8111558 0.052540746 0.60999227 7.18676e-05 1.5350492 0.12887116 0.91635984
1.3320732 1.3351445 1.8719001 1.7052174 0.004381669 0.35929573 1.0501236 0.43132824
1.5354607 1.1534232 -0.005725988 0.0023650413 1.4572436 1.5891712 0.49097213 0.516803
0.8806255 1.0687588 1.5376934 1.8183527 1.701989 2.0406375 1.1808367 0.48473838
1.1254861 0.8461313 1.9182279 0.8099742 0.77166635 0.39599082 0.23239808 0.15465419
0.90546185 0.5244649 1.444854 0.27680027 0.54461616 0.13242488 1.1565356 0.5288493
1.3124748 1.9243611 0.42519236 0.1958659 1.1050186 0.11786999 0.78891885 2.6822667
1.457919 1.5429077 0.48823175 0.07865151 1.5214562 1.505356 1.1862448 1.8611416
0.74901855 2.4598236 0.2604028 1.3437476 2.3251765 0.24006307 1.9004343 0.3606255
2.3188272 0.4133344 0.70937294 0.8109319 0.8043472 1.2249459 0.5366225 1.6778408
00000000: 6dcf ce3f 92d3 3f3f 8cbb ef3e 65eb 103f
00000010: 8ae2 e43e 2a5a bc3f 7647 b43f 3528 e93d
00000020: c206 df3f 7103 ac3f 78b0 683f fd2d b63f
00000030: a6d7 0e40 8812 b63e b286 8e3f 304b 813f
00000040: 6920 c53f cb94 073f d4b7 a83e fc31 7b3e
00000050: 7e33 283e 2fb6 d93f a48a bf3f 5a8c 423f
00000060: 1cf4 033f 7694 a33f 5e5e b03f b546 2a3f
00000070: d5ba f83f 1fc6 903f 24cf 813f 12d6 8b3f
00000080: 6407 813e fb12 cb3e 7fc1 503b d85c 013f
00000090: 1ec6 a4bb bd05 283f 180e 7c3d 2b68 0fbd
000000a0: db6f 0f40 3edc 983f d364 0b40 bd55 a53f
000000b0: cb3a d23f b4e8 043f e366 f83f 25d4 b83f
000000c0: b9be f93d 9050 0240 d924 203f 2e77 8abc
000000d0: 006b b43e 502f d13f e031 063f 1576 973f
000000e0: 6f8d 7d3f f787 1b3f 2302 7f3e 009c 033d
000000f0: a104 7e3f 8744 783f db36 bf3e 1895 2d40
00000100: b755 113f f0ca 5d3f 61ea 2f3c ec54 1a3e
00000110: a9fb c83e 0f2f 133f 087a 0b40 09c0 583f
00000120: c545 9a3e c8b5 ea3e 12a0 443f 6bda be3f
00000130: bb23 4e3c 25bf bd3e 783d b03f cb57 fc3f
00000140: 6bb3 1540 60ca 953f c7dc cf3f 2d3a 5f3e
00000150: 79f5 c33f b5c9 0d40 a769 bd3f 3a63 f23f
00000160: 0348 ca3f e4dc a63e 4009 b63f ca3c ee3f
00000170: ab2e 0d40 b6d6 b83f cebe f13f 6050 f8bb
00000180: 2983 aa3d 8154 f43e e064 c23f 260b 913f
00000190: 0e96 fc3f 3ba0 a43f 2960 4f3f a74c 153c
000001a0: 53e7 e73f bf54 163f 00bf dc3f b346 f03f
000001b0: 74a7 dcbb 88f2 2b3e 37b9 8b3f 48ab f13f
000001c0: dad9 1e3e d33a 793f 2460 6e3f 2154 ac3f
000001d0: 10ff 953f a752 d83f f7bf 5c3f bc29 823f
000001e0: 1ad1 6f3f 2937 ec3f c6da cf3b b77e ff3e
000001f0: f030 ae3f 079a fd3f 65a7 a73f add6 a53f
00000200: 9f8e b93f 8265 243f 7d17 1340 a4b1 d73f
00000210: fb5b 1f3f ab36 8f3f b995 d03f 272c f83e
00000220: 801d df3d f942 f23f 3654 b13f 29e7 1d3f
00000230: 474b b6bc 067a c23f 6e63 a63f 1938 4f3f
00000240: b653 1140 4cf5 733e 18f2 0340 20aa de3e
00000250: f3d7 c13f 84e1 ba3b b72c b03e aad4 ce3c
00000260: c02c 973f 7c70 9f3d 182f 9a3f d31c d83f
00000270: 9136 e03f ae3d 933f 9532 8e3f f0c8 d13f
00000280: 26ae af3f 21b8 c33f 76f6 473f 919e e73f
00000290: d63c 803e d769 733f 3ea6 f73f 1597 803e
000002a0: 822d e03f f59f 063f 1cb5 b63f 11c0 633e
000002b0: 2b35 303f 348e 2d3f 3e8d ab3f dbe9 173f
000002c0: f6c2 713f f4d3 e73f f734 573d 7428 1c3f
000002d0: a0b7 9638 7e7c c43f cdf6 033e 8f96 6a3f
000002e0: 6081 aa3f 04e6 aa3f 6c9a ef3f 9044 da3f
000002f0: 1b94 8f3b 9cf5 b73e 736a 863f 0ed7 dc3e
00000300: fa89 c43f 5fa3 933f 12a1 bbbb cffe 1a3b
00000310: f586 ba3f f669 cb3f b360 fb3e 344d 043f
00000320: ac70 613f 17cd 883f 23d3 c43f c8bf e83f
00000330: c7da d93f ce99 0240 a825 973f a12f f83e
00000340: ee0f 903f 109c 583f 7e88 f53f 785a 4f3f
00000350: ed8b 453f 4fbf ca3e c3f9 6d3e ab5d 1e3e
00000360: 59cc 673f 5543 063f faf0 b83f c4b8 8d3e
00000370: f76b 0b3f 639a 073e 5c09 943f ab62 073f
00000380: 2dff a73f 7751 f63f d0b2 d93e 1291 483e
00000390: 4071 8d3f d265 f13d 96f6 493f 42aa 2b40
000003a0: 179d ba3f 007e c53f 83f9 f93e 0b14 a13d
000003b0: 14bf c23f 81af c03f dfd6 973f e339 ee3f
000003c0: aebf 3f3f c06d 1d40 8453 853e ecff ab3f
000003d0: b1cf 1440 18d3 753e 6e41 f33f e8a3 b83e
000003e0: aa67 1440 91a0 d33e 7799 353f 3c99 4f3f
000003f0: b3e9 4d3f 07cb 9c3f 1860 093f 7dc3 d63f

gnn_node.convs.0.mlp.1.bias f4 [256]
0.7362193 -0.32567182 -0.36628482 -0.802993 -0.5184695 -0.54809237 -0.50944936 -0.2599511
-0.22408442 0.09904246 -0.28173152 -0.31709394 0.3237963 -0.30710632 -0.17030446 -0.2379491
-0.3879771 -1.0335964 -0.5581277 -0.5901996 -0.6529927 -0.527679 -0.2367988 -0.0639258
0.13649145 -0.51274276 -0.5696732 0.09777252 -0.16969399 -0.0056974594 -0.63095635 -0.33740783
-0.79145896 -0.7814189 -0.11906963 -1.3303368 -0.16187246 -1.3299466 0.093555264 -0.1619968
-0.29189548 -0.25139242 -0.14389084 -0.41035828 -0.57827526 -0.7903796 -0.24237731 -0.447257
-1.4130776 -0.43354088 -0.6741068 -1.2899327 -0.21214893 -0.44434717 -0.11392689 -0.41026554
-0.41435075 -1.1155636 0.006559934 -0.61117744 0.06383947 -0.2405786 -0.29205564 -0.3256714
0.07005978 -0.14163698 -0.39598703 -0.31463176 -0.5110394 -0.23064709 -0.23046567 0.21013919
-0.42397752 -0.6888487 -0.3050913 -0.52083635 -0.4372939 -0.9489722 0.8483948 -0.4695395
-0.42545533 -0.47436023 -0.33757728 0.05614408 -0.08496792 -0.3221445 -0.50397056 -0.5025659
0.10569835 -0.48767823 -0.2949581 -0.47289023 -0.44911456 -0.2371345 -0.10263841 -0.07616554
0.39220425 -0.91062367 -0.58805865 -0.39979833 -0.04225746 -0.46120048 -0.85000944 -0.18168408
-0.44182396 -1.0278391 -0.18357629 -0.07271796 -0.4785056 0.12943482 0.15138744 0.0952986
-0.6449251 -0.31211656 -0.10491835 -0.51194555 -0.65126634 -0.50706804 -0.17284554 -0.4535842
0.08478223 -0.50670934 0.1689076 -0.26027662 -0.24706633 -0.26899254 -0.2948121 0.07462301
-0.5013001 -0.3742585 0.12794647 -0.5298048 -0.42095792 0.008673594 -0.19324288 -1.0404822
-0.6226955 0.046728786 -0.6007431 -0.8843042 0.68240565 -0.1688539 -0.39461124 -0.03159144
-0.28965804 -0.60480464 -0.2642435 -0.2937724 -0.47878665 -0.53485256 -0.49337476 0.11749567
-0.004598282 -0.83931553 0.1471636 -0.47003818 -0.5404055 0.1620506 -0.4558121 -0.30902272
-0.09397533 -0.5982201 -0.31227362 -0.44228178 -0.68035746 -0.50076914 0.18269728 -0.23072119
-0.34947065 -0.42395952 -0.55492145 -0.09772301 -0.66918266 -0.7341827 -0.26858863 0.95787317
-0.3942337 -0.36979398 -0.060545124 0.875685 -0.063174844 -0.5246247 -1.0053653 -0.5033195
-0.2816021 -0.00068230304 0.19946131 -0.15616442 -0.43242154 -0.75418764 1.4627665 -0.5494073
-0.12819313 -0.17579132 0.29148307 -0.1213963 -0.25859636 -0.22921301 -0.5170274 -0.9088839
-0.0011051655 -0.255147 -0.11379785 0.16055447 -0.5194514 -0.48151422 0.73954165 -0.44361255
-0.61243147 -0.31731033 -0.2489011 -0.7752705 -1.0461943 -0.6197547 -0.7866375 -0.92847544
-0.40217498 -0.15141611 -0.6879915 -0.61939 -0.7560129 -0.22134973 -0.5284572 0.53055954
-0.5070597 -0.010956479 -0.105469674 -0.8609687 -0.35154244 -0.50312394 -0.20612413 0.19135907
-0.67630476 -0.33471838 -0.62196636 -0.6101992 -0.601544 -0.09699688 -0.097560056 -0.057727527
-0.29441166 0.4156304 0.02131638 -0.21003762 -0.2793549 -0.76782435 -0.4115629 -1.0235333
-0.06856198 -0.9405245 -1.1379607 0.16461423 0.061723374 -0.26378778 -0.2487384 -0.4570319
00000000: de78 3c3f 75be a6be af89 bbbe f390 4dbf
00000010: 6bba 04bf c84f 0cbf 466b 02bf 5018 85be
00000020: 6376 65be c6d6 ca3d 1d3f 90be 235a a2be
00000030: a1c8 a53e 0a3d 9dbe 4b64 2ebe eea8 73be
00000040: efa4 c6be e34c 84bf 75e1 0ebf 5217 17bf
00000050: 882a 27bf f915 07bf 627b 72be 88eb 82bd
00000060: 6ac4 0b3e 1c43 03bf 1ad6 11bf f53c c83d
00000070: 43c4 2dbe c1b1 babb 5b86 21bf b8c0 acbe
00000080: 0e9d 4abf 120b 48bf c7da f3bd 7a48 aabf
00000090: e5c1 25be b13b aabf e799 bf3d 7de2 25be
000000a0: 5373 95be 82b6 80be 1f58 13be 7b1a d2be
000000b0: d909 14bf 5156 4abf c231 78be dffe e4be
000000c0: badf b4bf 12f9 ddbe 4392 2cbf 841c a5bf
000000d0: 923d 59be 7981 e3be 8052 e9bd 530e d2be
000000e0: c825 d4be caca 8ebf b7f4 d63b 2076 1cbf
000000f0: 45be 823d 3d5a 76be 5188 95be 67be a6be
00000100: 807b 8f3d 4909 11be d0be cabe 6a17 a1be
00000110: 7ad3 02bf c02e 6cbe 31ff 6bbe ba2e 573e
00000120: 9513 d9be 6358 30bf ed34 9cbe 8855 05bf
00000130: fce4 dfbe d8ef 72bf 6730 593f 7b67 f0be
00000140: 48d5 d9be 58df f2be eed6 acbe 56f7 653d
00000150: a903 aebd 20f0 a4be 3704 01bf 29a8 00bf
00000160: 6078 d83d f6b0 f9be c004 97be ab1e f2be
00000170: 58f2 e5be 63d3 72be 1634 d2bd aefc 9bbd
00000180: ffce c83e a21e 69bf 038b 16bf 5eb2 ccbe
00000190: 2916 2dbd 7822 ecbe 389a 59bf 640b 3abe
000001a0: c036 e2be 3b90 83bf 6cfb 3bbe 27ed 94bd
000001b0: b0fe f4be 908a 043e 4f05 1b3e ea2b c33d
000001c0: d019 25bf becd 9fbe 6fdf d6bd dd0e 03bf
000001d0: 64b9 26bf 36cf 01bf 6cfe 30be 303c e8be
000001e0: 4ea2 ad3d b4b7 01bf 1df6 2c3e fa42 85be
000001f0: f5fe 7cbe 64b9 89be 9df1 96be f3d3 983d
00000200: 3455 00bf cf9e bfbe 6604 033e 4aa1 07bf
00000210: cc87 d7be b11b 0e3c 76e1 45be 852e 85bf
00000220: f968 1fbf af66 3f3d 4dca 19bf c361 62bf
00000230: 23b2 2e3f 09e8 2cbe 7c0a cabe 0766 01bd
00000240: 0f4e 94be 7ad4 1abf ed4a 87be 5669 96be
00000250: 8623 f5be 19ec 08bf 9e9b fcbe 92a1 f03d
00000260: 2fad 96bb 62dd 56bf 0eb2 163e d8a8 f0be
00000270: 0458 0abf 98f0 253e 3460 e9be 3a38 9ebe
00000280: 2376 c0bd f424 19bf 54e2 9fbe c272 e2be
00000290: e82b 2ebf 6832 00bf ff14 3b3e 2d42 6cbe
000002a0: d1ed b2be 3911 d9be 550f 0ebf 0023 c8bd
000002b0: 8e4f 2bbf 66f3 3bbf 7384 89be 2d37 753f
000002c0: 00d9 c9be a355 bdbe 2afe 77bd e42c 603f
000002d0: d061 81bd ce4d 06bf cfaf 80bf 8cd9 00bf
000002e0: 272e 90be 95dc 32ba 963f 4c3e 91e9 1fbe
000002f0: 5b66 ddbe 7112 41bf ef3b bb3f f5a5 0cbf
00000300: 0f45 03be a402 34be 453d 953e a09e f8bd
00000310: be66 84be d1b6 6abe e85b 04bf 9eac 68bf
00000320: 33db 90ba a1a2 82be d90e e9bd 6468 243e
00000330: c4fa 04bf 0889 f6be 9a52 3d3f 2f21 e3be
00000340: 4fc8 1cbf 8076 a2be eedf 7ebe 2178 46bf
00000350: b2e9 85bf 3ea8 1ebf 1361 49bf 91b0 6dbf
00000360: e1e9 cdbe d30c 1bbe 3620 30bf 5890 1ebf
00000370: 108a 41bf 81a9 62be f948 07bf c0d2 073f
00000380: aace 01bf ce82 33bc 7c00 d8bd 7268 5cbf
00000390: 5ffd b3be bbcc 00bf 3412 53be a2f3 433e
000003a0: 4f22 2dbf 3560 abbe 3039 1fbf 0436 1cbf
000003b0: cafe 19bf 4da6 c6bd 91cd c7bd b373 6cbd
000003c0: 20bd 96be 82cd d43e b09f ae3c 1a14 57be
000003d0: 9b07 8fbe 2390 44bf 5fb8 d2be 2403 83bf
000003e0: 396a 8cbd 37c6 70bf b2a8 91bf a290 283e
000003f0: a6d1 7c3d 310f 87be 47b5 7ebe 1600 eabe

gnn_node.convs.0.mlp.1.running_mean f4 [256]
11.32096 -2.5808017 -9.423996 10.529039 1.7055504 5.3986397 -2.039596 -0.14719829
6.2447605 2.8241434 2.7975461 -6.0414057 7.612724 0.8854019 4.8593664 6.194578
-0.2785281 4.9997816 -5.35643 -3.7196863 -2.3839316 -7.2119336 10.719069 5.472904
-7.0216637 -1.7754476 -6.3698883 7.267739 -10.509783 -2.8645194 -4.3146577 9.002013
1.6780504 6.6611967 1.3392311 9.096061 3.2371652 13.312541 2.0074172 2.639258
0.49400634 -8.211216 4.514187 0.4705819 -3.5916579 2.5250883 -3.4828868 -1.4027281
5.9328275 -3.6469762 12.115408 6.79078 -9.772732 -5.2866273 5.680253 0.9997244
-3.6633534 -7.2113066 9.637434 -2.6882212 -4.224518 -0.13724263 -1.3386776 -5.9319544
9.483967 5.904082 0.56548053 -3.4034882 1.725028 3.6948423 7.255317 -2.8826618
0.48177662 3.3035717 -1.783118 -4.8805976 -2.2788608 -3.7978737 13.47039 11.707176
-2.8879473 0.8639364 -3.9162803 7.5700006 0.30877498 2.3139367 -5.2727785 11.635778
1.4103214 -3.105716 8.953936 -7.8991704 1.294794 8.511596 7.2467594 2.0478184
2.7950892 9.036716 -0.24368903 -0.66619474 0.67402875 -19.683624 -5.266551 1.9213325
11.6074505 11.442301 -3.0647764 -13.976177 1.9682286 5.6248765 0.6043857 -6.4530697
-1.6632419 -6.190285 -1.0285311 5.839435 -3.1570482 -5.449253 2.124563 -1.3631493
-1.0405898 -3.590626 4.2637625 -6.0226283 13.35854 -3.207995 -5.533203 2.0060186
-1.2994306 -3.1509247 5.339072 2.376957 -3.4147277 5.198379 5.400845 7.1738887
-2.2812996 -7.7394247 -7.7382507 1.8253381 0.45234624 9.690161 -6.609457 -3.0370176
4.435397 4.5182753 1.6112154 -5.2713385 -5.002869 -3.7672012 9.00929 5.2741337
1.1109741 4.2110887 7.887306 -11.176552 -4.5347176 -1.874341 -0.63184255 3.6495717
-6.1434464 -5.0146284 -8.101935 -0.8187679 -0.7366267 -8.237735 -5.2219095 -1.6487503
6.8622475 2.2817082 -6.2524214 9.6262455 8.142139 9.91206 -2.18099 -4.470574
0.46201518 6.632754 -1.5444556 -6.854613 1.3303676 -4.696177 0.9265998 -6.4058247
3.9691179 7.9256735 13.465377 11.589777 3.6975737 11.092005 -3.8486845 -0.6352448
4.7365036 3.7273529 4.933129 2.5226817 5.170801 9.883824 1.2868457 -1.9712839
9.041504 2.713034 -5.1407437 -3.8974392 -11.606486 1.4031363 15.5739975 2.0725312
-10.846861 -6.407734 4.243744 8.118042 9.22864 -13.609384 0.21116945 -0.33589497
-11.436059 3.4345105 -9.048664 -1.451715 13.934071 -0.3887743 -0.7035109 0.5321766
-3.5835102 -10.51314 12.339986 -1.0821323 -9.236812 -5.5072784 1.4378542 19.386786
-9.7170515 -1.8481685 8.567581 2.5729861 -3.7360084 -5.229596 8.301372 2.4058437
-9.527191 18.90602 -7.7925897 -3.6070292 3.5773938 0.896621 -2.7903206 -0.8580294
-13.101182 3.051742 9.660507 0.209146 -3.1445541 -2.727002 4.063296 5.323104
00000000: a722 3541 db2b 25c0 b0c8 16c1 f276 2841
00000010: 7a4f da3f a8c1 ac40 be88 02c0 26bb 16be
00000020: 14d5 c740 c4be 3440 ff0a 3340 3253 c1c0
00000030: 6f9b f340 b3a9 623f ee7f 9b40 fc39 c640
00000040: 3c9b 8ebe 36fe 9f40 e067 abc0 570f 6ec0
00000050: 5692 18c0 29c8 e6c0 4e81 2b41 0822 af40
00000060: 78b1 e0c0 de41 e3bf 20d6 cbc0 5191 e840
00000070: 1228 28c1 4954 37c0 ad11 8ac0 3f08 1041
00000080: 5bca d63f 8628 d540 ed6b ab3f 7789 1141
00000090: b72d 4f40 2b00 5541 8679 0040 9ae9 2840
000000a0: 66ee fc3e 2461 03c1 3874 9040 1cf0 f03e
000000b0: b9dd 65c0 0c9b 2140 9ee7 5ec0 988c b3bf
000000c0: b9d9 bd40 0f68 69c0 b6d8 4141 124e d940
000000d0: 1c5d 1cc1 0d2c a9c0 a2c4 b540 f0ed 7f3f
000000e0: 6274 6ac0 06c3 e6c0 ee32 1a41 d10b 2cc0
000000f0: 402f 87c0 5589 0cbe ca59 abbf 92d2 bdc0
00000100: 54be 1741 3dee bc40 55c3 103f c0d2 59c0
00000110: b8cd dc3f 4c78 6c40 8f2b e840 887d 38c0
00000120: 6dab f63e b86d 5340 363d e4bf db2d 9cc0
00000130: dbd8 11c0 5d10 73c0 b886 5741 9850 3b41
00000140: 21d4 38c0 f02a 5d3f 56a4 7ac0 723d f240
00000150: c117 9e3e 8a17 1440 9aba a8c0 262c 3a41
00000160: 6985 b43f 0dc4 46c0 5243 0f41 01c6 fcc0
00000170: cfbb a53f 7f2f 0841 74e5 e740 750f 0340
00000180: bee2 3240 6496 1041 9e89 79be bd8b 2abf
00000190: 268d 2c3f 1078 9dc1 9687 a8c0 39ee f53f
000001a0: 1eb8 3941 aa13 3741 4c25 44c0 6c9e 5fc1
000001b0: eaee fb3f fdfe b340 05b9 1a3f 8c7f cec0
000001c0: 1ce5 d4bf d116 c6c0 e8a6 83bf a7dc ba40
000001d0: 140d 4ac0 4860 aec0 d7f8 0740 ad7b aebf
000001e0: 0c32 85bf d1cc 65c0 be70 8840 5fb9 c0c0
000001f0: 94bc 5541 ca4f 4dc0 0010 b1c0 9c62 0040
00000200: be53 a6bf c0a8 49c0 aed9 aa40 1020 1840
00000210: e68a 5ac0 1f59 a640 b9d3 ac40 7f90 e540
00000220: d000 12c0 5ea9 f7c0 c09f f7c0 aea4 e93f
00000230: ed99 e73e e60a 1b41 ac80 d3c0 7f5e 42c0
00000240: c6ee 8d40 b695 9040 4e3c ce3f ceae a8c0
00000250: 8117 a0c0 d319 71c0 0d26 1041 b4c5 a840
00000260: 6634 8e3f 3dc1 8640 d064 fc40 28d3 32c1
00000270: 681c 91c0 68ea efbf 6fc0 21bf 9592 6940
00000280: 1d97 c4c0 d677 a0c0 87a1 01c1 c69a 51bf
00000290: 9193 3cbf c3cd 03c1 e219 a7c0 400a d3bf
000002a0: 8897 db40 8207 1240 d613 c8c0 1a05 1a41
000002b0: 3446 0241 cc97 1e41 5795 0bc0 f10e 8fc0
000002c0: 418d ec3e 853f d440 b9b0 c5bf fd58 dbc0
000002d0: 7c49 aa3f 1547 96c0 a535 6d3f 84fc ccc0
000002e0: 0706 7e40 1e9f fd40 2f72 5741 ba6f 3941
000002f0: 0ca5 6c40 da78 3141 d950 76c0 679f 22bf
00000300: 7091 9740 f38c 6e40 31dc 9d40 9e73 2140
00000310: 3477 a540 2524 1e41 5cb7 a43f 0853 fcbf
00000320: 00aa 1041 59a2 2d40 f980 a4c0 a56f 79c0
00000330: 2bb4 39c1 f899 b33f 182f 7941 5aa4 0440
00000340: be8c 2dc1 280c cdc0 c0cc 8740 80e3 0141
00000350: 82a8 1341 09c0 59c1 ce3c 583e 6dfa abbe
00000360: 19fa 36c1 05cf 5b40 54c7 10c1 ccd1 b9bf
00000370: f4f1 5e41 6d0d c7be 4a19 34bf ba3c 083f
00000380: 3b58 65c0 d235 28c1 9570 4541 5083 8abf
00000390: fbc9 13c1 a03b b0c0 9b0b b83f 2318 9b41
000003a0: 0b79 1bc1 c990 ecbf d014 0941 ceab 2440
000003b0: c31a 6fc0 da58 a7c0 6bd2 0441 58f9 1940
000003c0: 606f 18c1 873f 9741 e55c f9c0 91d9 66c0
000003d0: 05f4 6440 f488 653f 9d94 32c0 d1a7 5bbf
000003e0: 719e 51c1 be4f 4340 7091 1a41 5e2a 563e
000003f0: 6040 49c0 3387 2ec0 8506 8240 de56 aa40

gnn_node.convs.0.mlp.1.running_var f4 [256]
131.14444 27.77432 28.069555 100.2838 15.620534 71.25122 52.215233 31.685228
77.42286 37.93116 177.25626 53.2532 246.82484 56.56833 151.93172 34.26759
43.341145 73.06424 13.26028 66.783455 62.748623 60.066734 35.98784 36.361233
26.351492 28.207375 102.998955 54.96102 54.587486 33.640087 106.798195 84.127
86.36248 93.51575 8.749508 23.572678 33.30908 36.37393 36.715054 28.444609
169.0359 20.993784 46.678673 29.80839 98.85791 94.50088 44.18463 85.68618
47.989376 26.835943 24.942871 41.341164 31.86834 109.23665 197.24063 76.91453
90.22079 13.589126 43.5237 47.320217 14.242978 79.5931 4.7195616 259.9121
42.588146 209.26288 4.7607646 69.01189 12.369457 26.832283 86.53462 14.2732
59.91638 57.602764 40.542908 48.33931 45.38852 34.41539 161.27959 81.62693
138.70107 45.654602 110.67512 54.805878 26.149923 80.76131 148.29056 36.902946
63.493237 26.50101 65.6932 38.491024 69.53078 76.82266 127.823166 17.123423
43.451897 100.807144 95.32278 59.979717 270.48306 15.85713 41.190056 8.239366
63.06002 57.822083 27.421513 67.70789 18.501999 33.63605 47.688637 62.82137
51.4392 127.164154 44.050568 63.82586 15.0082245 96.63148 117.082214 92.20539
63.40345 251.2049 70.05737 39.27531 46.74002 43.713036 29.832846 171.50116
31.946978 42.15712 258.5879 70.52863 131.32925 30.628298 200.78256 71.25772
30.163101 48.17725 52.908993 65.110306 53.318897 139.55112 71.605934 28.111376
262.47394 44.44891 36.431335 50.57961 132.76062 9.659826 19.61361 61.87769
66.66481 82.12522 57.12253 129.15747 234.74127 43.983532 201.18935 16.075945
87.7959 110.88496 17.225466 41.150528 60.806526 55.516487 32.76111 30.545647
48.18694 10.5406475 76.92958 43.643337 84.345566 24.586292 35.785366 53.423016
61.446785 131.32683 47.924007 100.779076 6.3863716 123.42328 44.19812 76.318405
21.486237 49.349064 68.69187 65.05385 7.0858846 111.2906 117.30864 13.899388
197.472 61.613277 36.32742 31.470238 207.62665 73.29936 21.528522 71.50468
45.699253 43.763622 18.997358 74.666695 81.81664 204.38768 173.70442 18.777298
133.66386 24.121887 220.13998 15.559355 74.657936 18.5005 45.52327 57.112846
22.841114 17.625185 40.298367 37.77349 71.67606 46.60586 127.57808 44.86425
181.43335 79.77881 43.277607 60.19001 111.76851 33.000004 26.611444 49.326363
63.867546 29.175814 56.684036 18.290031 83.936966 235.95628 126.97 89.46737
46.46966 50.6407 27.880001 137.89508 263.477 33.40874 126.78891 18.89811
58.84438 55.458805 116.28659 34.979176 51.555473 150.20642 36.84842 116.43475
00000000: fa24 0343 cf31 de41 738e e041 4e91 c842
00000010: b5ed 7941 a080 8e42 66dc 5042 597b fd41
00000020: 81d8 9a42 82b9 1742 9a41 3143 4703 5542
00000030: 29d3 7643 f845 6242 85ee 1743 0312 0942
00000040: 555d 2d42 e420 9242 1b2a 5441 2191 8542
00000050: 97fe 7a42 5644 7042 8cf3 0f42 e771 1142
00000060: dbcf d241 b4a8 e141 77ff cd42 16d8 5b42
00000070: 9659 5a42 738f 0642 ad98 d542 0641 a842
00000080: 97b9 ac42 1008 bb42 fcfd 0b41 d894 bc41
00000090: 7f3c 0542 e87e 1142 37dc 1242 8f8e e341
000000a0: 3109 2943 45f3 a741 f6b6 3a42 9577 ee41
000000b0: 40b7 c542 7300 bd42 10bd 3042 535f ab42
000000c0: 1ff5 3f42 03b0 d641 008b c741 5a5d 2542
000000d0: 5cf2 fe41 2a79 da42 9a3d 4543 3dd4 9942
000000e0: 0b71 b442 0f6d 5941 4518 2e42 e747 3d42
000000f0: 3de3 6341 ab2f 9f42 a606 9740 c0f4 8143
00000100: 435a 2a42 4c43 5143 2f58 9840 1606 8a42
00000110: 4ce9 4541 84a8 d641 ba11 ad42 075f 6441
00000120: 60aa 6f42 3b69 6642 f02b 2242 745b 4142
00000130: d88d 3542 5ca9 0942 9347 2143 fd40 a342
00000140: 79b3 0a43 509e 3642 a959 dd42 3839 5b42
00000150: 0b33 d141 ca85 a142 624a 1443 9e9c 1342
00000160: 13f9 7d42 1202 d441 eb62 8342 cff6 1942
00000170: c20f 8b42 34a5 9942 76a5 ff42 c5fc 8841
00000180: bece 2d42 429d c942 43a5 be42 3beb 6f42
00000190: d53d 8743 ceb6 7d41 9ec2 2442 71d4 0341
000001a0: 763d 7c42 d049 6742 425f db41 716a 8742
000001b0: 1804 9441 518b 0642 2ac1 3e42 1549 7b42
000001c0: bec1 4d42 0c54 fe42 c833 3042 ae4d 7f42
000001d0: b021 7041 5143 c142 182a ea42 2969 b842
000001e0: 229d 7d42 7434 7b43 601d 8c42 eb19 1d42
000001f0: c8f5 3a42 26da 2e42 aba9 ee41 4c80 2b43
00000200: 6993 ff41 e4a0 2842 404b 8143 a90e 8d42
00000210: 4a54 0343 c106 f541 56c8 4843 f483 8e42
00000220: 084e f141 81b5 4042 cfa2 5342 7a38 8242
00000230: 8d46 5542 168d 0b43 3d36 8f42 19e4 e041
00000240: aa3c 8343 afcb 3142 b0b9 1142 8551 4a42
00000250: b8c2 0443 a68e 1a41 ace8 9c41 c182 7742
00000260: 6254 8542 1d40 a442 797d 6442 5028 0143
00000270: c4bd 6a43 23ef 2f42 7930 4943 899b 8041
00000280: 8097 af42 19c5 dd42 c1cd 8941 249a 2442
00000290: e239 7342 e210 5e42 600b 0342 7c5d f441
000002a0: 6dbf 4042 7ea6 2841 f2db 9942 c792 2e42
000002b0: eeb0 a842 bab0 c441 3724 0f42 2bb1 5542
000002c0: 82c9 7542 ab53 0343 2fb2 3f42 e38e c942
000002d0: 285d cc40 b8d8 f642 e0ca 3042 06a3 9842
000002e0: d0e3 ab41 7165 4542 3d62 8942 921b 8242
000002f0: 91bf e240 ca94 de42 069e ea42 e563 5e41
00000300: d578 4543 ff73 7642 474f 1142 0cc3 fb41
00000310: 6ca0 4f43 4699 9242 6a3a ac41 6502 8f42
00000320: 09cc 3642 f30d 2f42 97fa 9741 5955 9542
00000330: 1fa2 a342 3f63 4c43 55b4 2d43 e837 9641
00000340: f3a9 0543 a0f9 c041 d623 5c43 1ef3 7841
00000350: dd50 9542 0601 9441 d417 3642 8e73 6442
00000360: 9aba b641 6100 8d41 8731 2142 0e18 1742
00000370: 255a 8f42 676c 3a42 fa27 ff42 fe74 3342
00000380: f06e 3543 c08e 9f42 451c 2d42 92c2 7042
00000390: 7a89 df42 0100 0442 3de4 d441 324e 4542
000003a0: 5e78 7f42 1168 e941 74bc 6242 fc51 9241
000003b0: badf a742 cff4 6b43 a4f0 fd42 4bef b242
000003c0: efe0 3942 1490 4a42 3e0a df41 24e5 0943
000003d0: 0ebd 8343 8da2 0542 ec93 fd42 542f 9741
000003e0: a560 6b42 d1d5 5d42 bc92 e842 adea 0b42
000003f0: ce38 4e42 d834 1643 c864 1342 98de e842

gnn_node.convs.0.mlp.3.weight f4 [128, 256]
0.5171257 0.25852346 0.15741608 0.06773889 0.056209087 1.3627841 -0.39488328 -0.1081989
-0.09716948 -0.018664615 -0.06381261 0.14915591 -0.21868105 0.10323268 -0.33117807 -0.5276306
0.5282599 -0.18200643 -0.18481927 -0.013453968 -0.086406656 -0.10428165 0.63721263 -0.13033487
-0.4842395 -0.1320843 0.8677421 -0.45518303 0.7079164 0.37587276 -0.04301765 -0.023965336
-0.17419589 -0.020301407 -0.14260982 0.20290133 -0.25014532 0.17165805 -0.28092623 -0.16170952
-0.42121187 0.06815317 -0.09916964 0.18099909 0.28839266 -0.1898821 -0.7399618 0.72491556
0.045438033 0.31612128 0.047811516 0.1503785 0.058926217 -0.057758488 -0.4107824 0.1144932
0.110079445 -0.5168961 -0.2843623 -0.24407658 -0.32882318 -0.1625683 0.0020606886 -0.24443786
-0.15009998 0.041021526 -0.0101289535 -0.2546573 -0.45598054 0.13147837 0.76136833 -0.13311015
-0.04957668 -0.20165224 -0.0063856076 -0.0069784545 0.009761275 -0.01933012 0.19392222 1.6475021
-0.32599708 0.514838 -0.52261025 -0.4396014 -0.5058154 0.56751376 0.063296184 0.9284894
-0.7977798 -0.06603598 0.019255025 -0.03939566 1.2849929 0.18920742 -0.07030538 -0.14589775
-0.539199 0.14978626 0.6809068 0.15436792 0.2055926 -0.11249182 -0.13666324 -0.110227525
1.5456988 0.02238226 -0.3212039 -0.06341355 -0.11841816 -0.1514357 -0.15241437 0.1867006
-0.1937776 -0.12220552 -0.2527082 1.552381 -0.05622329 0.18900555 -0.3830949 -0.12271421
-0.12001169 0.2956051 -0.11927268 -0.24291857 -0.1286578 0.52587086 -0.22916947 0.52344495
0.27879205 -0.12443702 -0.10185618 0.84553057 0.06703668 -0.21285862 -0.06290125 0.21126066
-0.106326476 0.050821364 -0.14338113 0.081356004 -0.04733098 0.1510722 -0.46464318 -0.22031175
-0.42752382 -0.16666538 -0.5868776 -0.034655973 0.16539846 -0.03287338 0.051727414 -0.3750618
-0.1574704 0.08778159 -0.24799897 0.22145113 0.27782398 -0.25330058 0.16478688 0.3782597
0.3028668 0.4052091 0.16180834 0.19152147 -0.14161886 -0.04811134 -0.13775545 -0.1389893
0.44268176 0.033011556 0.27963248 -0.15266648 0.0035720468 -0.16528471 0.13457632 -0.026587807
-0.031910673 1.4135011 0.00092742365 0.23785573 -0.11107485 -0.07701054 -0.11421931 -0.45026967
-0.22918297 -0.39001805 -0.28469947 -0.38278708 -0.09260241 0.2123303 0.7739274 -0.0467611
-0.094204605 -0.1990326 -0.41649854 -0.22010897 -0.3718069 0.30091172 -0.07151876 -0.037573267
-0.34717977 -0.27800697 -0.40093073 0.4062802 0.14353631 -0.28232577 0.17900701 -0.10494971
-0.0537465 0.056047164 -0.29878145 -0.510983 -0.03375921 -0.28779295 0.10895302 -0.21088997
0.077484235 -0.2655727 -0.4124272 0.100143135 -0.31112483 0.066542655 0.32650965 -0.42699516
0.4555683 0.31465977 -0.35550177 0.16856335 -0.5384437 -0.22572158 -0.263467 -0.29803634
-0.22361074 0.2926615 -0.07497703 0.013067245 0.35407227 0.07261112 -0.08070709 -0.22029711
-0.041717656 -0.28238535 -0.045603193 -0.52125156 -0.46022636 -0.09793855 -0.05287447 -0.21788229
0.20008975 0.1303534 0.18727484 -0.543874 -0.196314 0.15292709 -0.17699257 -0.19650589
00000000: 5a62 043f 305d 843e ae31 213e b0ba 8a3d
00000010: 803b 663d b66f ae3f 242e cabe 6397 ddbd
00000020: cb00 c7bd 89e6 98bc 30b0 82bd 54bc 183e
00000030: eded 5fbe a86b d33d 2c90 a9be cd12 07bf
00000040: 0a3c 073f e55f 3abe 4341 3dbe 086e 5cbc
00000050: f9f5 b0bd 9e91 d5bd 5e20 233f 8176 05be
00000060: 3dee f7be 1b41 07be 5924 5e3f c00d e9be
00000070: 023a 353f 6572 c03e 4633 30bd f452 c4bc
00000080: 6860 32be 234f a6bc 4f08 12be 5ec5 4f3e
00000090: 0c13 80be 21c7 2f3e 90d5 8fbe 2e97 25be
000000a0: 15a9 d7be e493 8b3d 7419 cbbd d357 393e
000000b0: 34a8 933e 7470 42be 236e 3dbf 1194 393f
000000c0: 3b1d 3a3d a6da a13e 02d6 433d d2fc 193e
000000d0: 9e5c 713d 2a94 6cbd 1252 d2be 697b ea3d
000000e0: 5571 e13d 4e53 04bf ef97 91be 36ef 79be
000000f0: 835b a8be 4e78 26be 9e0c 073b eb4d 7abe
00000100: cfb3 19be 3006 283d e9f3 25bc 7162 82be
00000110: 4876 e9be 44a2 063e 09e9 423f 074e 08be
00000120: eb10 4bbd ed7d 4ebe 5c3e d1bb 85ab e4bb
00000130: c1ed 1f3c 335a 9ebc 8c93 463e 59e1 d23f
00000140: 17e9 a6be 6ccc 033f c9c9 05bf 6f13 e1be
00000150: 1e7d 01bf 9548 113f 6ea1 813d 7bb1 6d3f
00000160: 4c3b 4cbf df3d 87bd b7bc 9d3c 585d 21bd
00000170: a67a a43f 97bf 413e 44fc 8fbd 3866 15be
00000180: f208 0abf 9261 193e e84f 2e3f a012 1e3e
00000190: de86 523e 1c62 e6bd 73f1 0bbe f8be e1bd
000001a0: 75d9 c53f 005b b73c d674 a4be f7de 81bd
000001b0: 3885 f2bd f611 1bbe 8312 1cbe 712e 3f3e
000001c0: a36d 46be e346 fabd f862 81be 6cb4 c63f
000001d0: 644a 66bd ac8a 413e 0425 c4be 9651 fbbd
000001e0: b0c8 f5bd 8d59 973e 3c45 f4bd a5bf 78be
000001f0: dfbe 03be 799f 063f 67ab 6abe 7d00 063f
00000200: d5bd 8e3e d6d8 febd f999 d0bd b174 583f
00000210: 874a 893d 9cf7 59be 5fd2 80bd b754 583e
00000220: b2c1 d9bd 102a 503d 81d2 12be fa9d a63d
00000230: 21de 41bd acb2 1a3e b6e5 edbe 6799 61be
00000240: 67e4 dabe 54aa 2abe 9c3d 16bf 6cf3 0dbd
00000250: 375e 293e 3da6 06bd 20e0 533d 1a08 c0be
00000260: ec3f 21be d6c6 b33d 71f3 7dbe 16c4 623e
00000270: f23e 8e3e 9db0 81be e4bd 283e 41ab c13e
00000280: 5b11 9b3e 9177 cf3e 16b1 253e 341e 443e
00000290: 8904 11be 6510 45bd c40f 0dbe 3653 0ebe
000002a0: 2fa7 e23e 2037 073d fd2b 8f3e 9a54 1cbe
000002b0: 0019 6a3b 6540 29be 60ce 093e acce d9bc
000002c0: c4b4 02bd 9bed b43f 591e 733a 7490 733e
000002d0: 367b e3bd b4b7 9dbd d0eb e9bd bf89 e6be
000002e0: f1ae 6abe 72b0 c7be 21c4 91be abfc c3be
000002f0: 55a6 bdbd 1d6d 593e 1b20 463f 9188 3fbd
00000300: 58ee c0bd 34cf 4bbe 4c3f d5be 3f64 61be
00000310: 795d bebe 1a11 9a3e 6d78 92bd 6de6 19bd
00000320: 8cc1 b1be ee56 8ebe cb46 cdbe f503 d03e
00000330: 2ffb 123e 018d 90be 9d4d 373e e0ef d6bd
00000340: 4a25 5cbd b691 653d e2f9 98be c8cf 02bf
00000350: 1947 0abd 9959 93be c322 df3d 8af3 57be
00000360: 0eb0 9e3d 25f9 87be a829 d3be d817 cd3d
00000370: c14b 9fbe 8447 883d 462c a73e 1c9f dabe
00000380: 4040 e93e 161b a13e 5404 b6be df9b 2c3e
00000390: 72d7 09bf 8f23 67be 26e5 86be 3898 98be
000003a0: 37fa 64be bad7 953e 8f8d 99bd ff17 563c
000003b0: f648 b53e 24b5 943d c249 a5bd 9195 61be
000003c0: 22e0 2abd d094 90be 6aca 3abd be70 05bf
000003d0: caa2 ebbe 0294 c8bd e692 58bd 891c 5fbe
000003e0: 54e4 4c3e 5d7b 053e fac4 3f3e 543b 0bbf
000003f0: 8a06 49be eb98 1c3e 8a3d 35be d738 49be
