checkpoints/C_epoch_120.pth (torch, 843999 bytes, 48 tensors)

gnn_node.node_encoder.weight f4 [1, 128]
000000 e8 70 1c 3f 46 67 3e bf 57 9d 04 bf 90 4f 1a 3e
       0.6110978 -0.7437633 -0.5180258 0.15069413
000010 b9 67 41 be f7 34 47 be 79 78 0c 3d 64 c9 d8 be
       -0.18887223 -0.19453798 0.03429458 -0.4234115
000020 d3 28 13 3f fd 14 ac be 60 2b 1b bf 34 88 15 3f
       0.5748417 -0.33609763 -0.6061306 0.58410954
000030 df 90 a7 bf fe 25 e0 3c 14 14 ff 3e 34 90 53 bd
       -1.3091086 0.027361866 0.49820006 -0.051651195
000040 30 c1 b9 bf b1 96 81 bf 06 83 76 3e 24 bd 75 bf
       -1.4512081 -1.0124112 0.24073419 -0.9599173
000050 6a cb 93 bf 80 dd bd 3d d1 2e 8f 3d c6 8a cf be
       -1.1546452 0.092707634 0.069913514 -0.40535563
000060 af 0d 8c be 9a 61 c8 bf fe 06 a5 be c5 1d 54 bf
       -0.2735419 -1.5654786 -0.32231897 -0.82857925
000070 18 32 55 3f ef e5 20 be f8 33 a4 3e 53 a8 1d c0
       0.8327956 -0.15712713 0.320709 -2.4633987
000080 c3 e3 de bf 87 e6 7f 3e 06 05 1f bf 2d 06 cf 3e
       -1.7413257 0.24990283 -0.6211704 0.404344
000090 c1 f8 15 c0 68 9f 91 be 8a 28 1b 3f 46 93 58 be
       -2.3433077 -0.2844193 0.6060873 -0.2114993
0000a0 79 c6 92 bf 95 81 c4 be be 72 9d bf 00 cd 18 c0
       -1.1466819 -0.38380113 -1.2300642 -2.3875122
0000b0 94 57 b5 be 86 d9 f7 3d b2 cd 92 be 09 ff 82 bf
       -0.3541838 0.12102036 -0.28672558 -1.023408
0000c0 7c cd 23 bf 58 f7 a9 bc bf 7b aa bf 22 3c 9c bf
       -0.6398542 -0.020747826 -1.3319014 -1.2205851
0000d0 5c 93 0f bf b4 85 df 3e 49 03 40 bf e9 56 c1 3e
       -0.5608423 0.43656695 -0.7500501 0.3776162
0000e0 f9 81 c7 bf 8f 1d 4b 3f 7f df 8d bd 55 fe e9 3e
       -1.558654 0.7934198 -0.06927394 0.45701852
0000f0 4a 12 34 be c9 18 62 bf 25 6f 07 bf e9 c1 31 bf
       -0.17585102 -0.8831907 -0.5290397 -0.6943651
000100 3d 97 08 c0 9a b0 eb bf c3 38 87 bf 0e 6d 72 3e
       -2.1342309 -1.841327 -1.0564197 0.23674414
000110 45 fb 73 3e e0 86 28 be b5 2f d1 be aa 23 51 bf
       0.2382632 -0.164577 -0.4085671 -0.81695044
000120 a9 81 df 3d 02 29 f9 bf 3a 36 47 bf 12 84 49 3e
       0.109134026 -1.946564 -0.7781712 0.19679287
000130 e2 0c ce bf 63 79 af be 4a c8 00 bf 74 38 c5 bf
       -1.6097682 -0.34272298 -0.50305617 -1.5407853
000140 55 67 a9 bf 4c 00 f1 be 56 f3 a8 bd a5 c6 2e bf
       -1.323466 -0.4707054 -0.08249538 -0.6827186
000150 b8 9b 34 bf f9 73 7a bc c9 68 3f 3e d6 03 80 bf
       -0.7055011 -0.015286439 0.18692316 -1.0001171
000160 06 fd 7d 3f 7a e3 e2 be 04 45 75 3f 75 cb 39 bf
       0.9921421 -0.44314176 0.95808434 -0.72576076
000170 ff 4b 67 3f a0 8b be bf 63 dd 84 bd aa 6f 30 3e
       0.90350336 -1.488636 -0.06487539 0.17230096
000180 68 08 62 be 0e 12 9d 3e 69 20 7e bf 5c a2 28 3f
       -0.22073519 0.30677837 -0.99268204 0.6587274
000190 b9 e6 d8 be d3 59 19 bf 33 bb b9 3f 95 64 d6 3e
       -0.42363527 -0.59902686 1.4510254 0.41873613
0001a0 37 e1 2d 3e fb f4 58 3f 24 a6 0c 3f 19 6d c3 bf
       0.16980444 0.8474881 0.5494101 -1.5267669
0001b0 a2 3c f9 3e 94 28 c7 bf 9d 6d 0f 3e 9a a8 b2 be
       0.48679072 -1.5559258 0.14006658 -0.34894258
0001c0 20 1d ad be 89 1a 8d bf b8 7f 91 bf a4 ce 5a bf
       -0.33811283 -1.1023723 -1.1367102 -0.8547156
0001d0 96 69 34 bf 1b 7a 84 bf 6a b7 76 bf d9 83 fa bf
       -0.7047361 -1.0349764 -0.9637362 -1.9571487
0001e0 51 d0 b8 bf 43 2d 32 bd 30 8a 42 be 64 fd bc 3d
       -1.4438573 -0.043500196 -0.18998027 0.09228018
0001f0 7a fc 33 3e bc a1 02 bd 61 fa 09 3e 04 3c 2a bf
       0.17576781 -0.031892523 0.13474418 -0.66497827

gnn_node.virtualnode_embedding.weight f4 [1, 128]
000000 3f 19 06 bf cd c6 f9 bd f1 30 e7 be 1a 58 1b be
       -0.5238227 -0.12196121 -0.45154527 -0.15170327
000010 d1 55 19 bf 37 5e 5c be 1d 1d f1 be 38 d9 08 be
       -0.5989657 -0.21520315 -0.47092524 -0.13364112
000020 f8 e1 b8 be 64 cb 40 be 36 e9 17 be f3 bc 4f be
       -0.361099 -0.18827587 -0.14835057 -0.20286922
000030 76 de ea be f8 03 0c bf fb 1d 5e bf b0 d0 31 bc
       -0.4587285 -0.54693556 -0.86764497 -0.010852978
000040 ee 1d b4 be f5 5f b9 be 60 40 b2 3d 5a dc 48 be
       -0.35179085 -0.36206022 0.08703685 -0.19615307
000050 4a 27 ab be ca de 3b bf 87 db 2a bf f2 9c ec be
       -0.33428413 -0.73386824 -0.6674122 -0.4621349
000060 72 ab 16 bf e1 60 61 3d 57 ae 31 bf 53 c4 dc be
       -0.58855355 0.05502403 -0.69406646 -0.43118533
000070 57 75 1c bf ba df b1 be a4 a4 82 bd 0f f4 36 bf
       -0.61116546 -0.34741002 -0.06379059 -0.71466154
000080 ee 51 15 bf 85 59 80 bc 8a 95 46 be 0c 04 31 bf
       -0.5832814 -0.015667686 -0.19392982 -0.691468
000090 62 4f 71 be 2f 1d bc be 2a 16 24 bf 27 a0 13 bf
       -0.23565438 -0.36741015 -0.6409632 -0.5766625
0000a0 19 38 85 be 08 e8 c7 be 87 98 f8 be 41 a6 44 bf
       -0.26019362 -0.39044213 -0.4855387 -0.76816183
0000b0 72 7e ac be ff c4 2a be d5 57 2b bc b4 a1 ad be
       -0.3369022 -0.1667671 -0.0104579525 -0.33912432
0000c0 88 b5 99 be 3b 1b 46 3e 59 8d bc be ef f5 64 3d
       -0.3002131 0.19346325 -0.3682659 0.055898603
0000d0 90 1b e0 be 31 d3 f6 be 3b 32 96 be e1 5d 3d bf
       -0.4377103 -0.48208 -0.29335198 -0.7397137
0000e0 00 d5 cc be 93 9c 45 bf da b1 f7 be 95 4f 8c be
       -0.40006256 -0.7719204 -0.48377877 -0.27404466
0000f0 3a d5 bc be 72 78 00 be b0 b0 3a be df a6 b5 be
       -0.3688143 -0.12545946 -0.18231463 -0.35478875
000100 c2 4f 1e be 18 61 75 3e 6d c6 8f be a3 4b dc 3d
       -0.15460113 0.2396282 -0.28081074 0.10756614
000110 34 af e9 be b1 7f 2f bf cd 4b 13 bf c6 4f 40 be
       -0.45641482 -0.68554217 -0.5753754 -0.18780431
000120 0b d5 2a 3d a3 3a 5f bf f4 2b d1 be 44 85 15 bf
       0.04170708 -0.8719885 -0.40853846 -0.5840647
000130 2a 9c 40 be 78 74 ca bd 0c 91 fa be 5e d4 10 bf
       -0.18809572 -0.09885496 -0.48938787 -0.56574047
000140 5f 4a 27 bf b6 da 1a bf c9 cc 12 bd f3 a9 e4 bc
       -0.65347856 -0.60489976 -0.03583983 -0.02791307
000150 bc 21 cc be bd 4e df be d7 cc f9 be 68 fc 8d be
       -0.39869487 -0.4361476 -0.48789093 -0.27731633
000160 84 82 58 bf 68 19 1d bf 3a 7c 1d bf b2 49 7c be
       -0.8457415 -0.6136689 -0.6151768 -0.24637488
000170 2f 7e 5c bf be 39 26 bd f6 2c c2 bd 54 a6 8c 3d
       -0.8613004 -0.04058241 -0.09481232 0.06867662
000180 72 4a b0 be d8 3c aa be 1a f7 68 be 53 b6 b3 be
       -0.34431797 -0.33249545 -0.22750512 -0.3510004
000190 ae 0e b6 be 86 f9 c5 be fb c9 48 bf 4d 7a fc be
       -0.35558075 -0.38666934 -0.784332 -0.49312058
0001a0 c8 30 e4 be 7c 9f 3f be c7 03 24 bf 8b 4d 38 be
       -0.44568467 -0.18713182 -0.64068264 -0.1799833
0001b0 1f 62 13 be ee 82 dd be 79 a4 15 bd af b5 13 be
       -0.14392899 -0.43263954 -0.036533806 -0.14424776
0001c0 65 24 dc be 20 14 fb be 94 6a bb be ce 42 93 be
       -0.42996517 -0.49038792 -0.3660475 -0.28761905
0001d0 5e e6 45 be 46 11 95 bd 16 ef c0 be 38 5f 38 be
       -0.1932616 -0.07278685 -0.37682408 -0.18005073
0001e0 f6 60 2e bf 5e 51 cb be fb d5 30 be 38 bc 2d be
       -0.681167 -0.39710516 -0.17269127 -0.16966331
0001f0 2c 68 06 bf 75 ea a1 be 6e da 46 bd 51 52 09 bf
       -0.52502704 -0.3162419 -0.048548155 -0.5364123

gnn_node.convs.0.mlp.0.weight f4 [256, 128]
000000 0f 74 10 bf 6d 76 b4 3d 44 5d a1 bd 54 85 33 3e
       -0.5642709 0.088116504 -0.07879117 0.1753133
000010 1a ef cf bc 50 53 82 be 47 6f 9d 3d fc 1e eb 3e
       -0.025382567 -0.25454187 0.0768724 0.45922077
000020 bf 88 b2 3d ba d6 10 be 5b d6 03 3d cb 3d a6 3e
       0.087174885 -0.14144412 0.032186847 0.3246902
000030 d2 ee 87 3d bb d5 34 bf 91 19 33 be ec 75 89 3d
       0.06637348 -0.70638627 -0.17490222 0.06711945
000040 17 2c ab ba f5 f5 9e 3d 0a 46 8e 3e 61 4b 76 3f
       -0.0013059404 0.07761756 0.2778781 0.9620877
000050 65 80 86 bd 6e 07 a9 be c6 0f 9a 3e ef 40 9b be
       -0.06567458 -0.3301348 0.3009016 -0.30322978
000060 a8 7d be bc 61 51 bb 3d 6c 13 90 3e ef b1 9b bd
       -0.023253277 0.09146381 0.28139818 -0.076022975
000070 30 9e 65 3e 0e be ca bd 9e 6d b9 bd 55 1e 0b 3d
       0.22423625 -0.09899531 -0.09054111 0.033964474
000080 15 89 b2 bd 31 b8 c9 3e 86 67 25 be fa c3 1b 3e
       -0.087175526 0.3939834 -0.16152772 0.15211478
000090 15 9b 40 3d 5e 20 22 3e 55 6f 75 3e 29 8e b9 3d
       0.047022898 0.1583266 0.23968251 0.09060318
0000a0 9e 7f fb ba b8 3c 83 3d 41 17 6b bd ee fa 42 3b
       -0.0019187813 0.064080656 -0.057395224 0.0029751617
0000b0 db be ea 3f 12 93 63 bc 2c a1 a9 3e 3e 06 1d 3b
       1.8339494 -0.013890045 0.33130777 0.002396002
0000c0 35 22 a6 3c 9c 45 d8 bd 4a 6c 0e bd 2b d4 33 bd
       0.020279983 -0.10560152 -0.03477124 -0.04390351
0000d0 a6 bb ff be 5a 62 17 3d 86 d9 21 bf 00 ca 18 3e
       -0.49947852 0.03695903 -0.6322254 0.14920807
0000e0 03 29 94 3b 89 6e a6 bd dd e0 4e 3e 97 44 00 be
       0.0045214905 -0.08126552 0.20202966 -0.12526165
0000f0 63 6a 4d 3d 02 f5 38 bf d7 83 1c bf 32 69 37 bf
       0.050150286 -0.7224885 -0.6113867 -0.7164489
000100 b6 b2 ab 3d 77 1e b9 3c e7 29 81 bd 05 f8 e9 be
       0.08383696 0.022597535 -0.0630682 -0.45697036
000110 93 f4 e5 3d dc fd 12 be 97 0f b7 3f e1 89 0f bc
       0.112282895 -0.14354652 1.4301633 -0.0087609
000120 3c 77 54 be ef 8b 26 3d cd 10 5a bc 11 3e 1f bf
       -0.2074861 0.040660795 -0.01330967 -0.6220408
000130 63 16 8b bd 29 cc 9b be 0b 01 da 3e b6 bc 54 3d
       -0.06791379 -0.304292 0.4257892 0.05193778
000140 f5 eb 52 3d 38 f7 e7 bb 4b d6 2e 3f 53 e8 46 bc
       0.051494557 -0.0070790313 0.68295735 -0.012140351
000150 ce df 25 3d 0f 4d 0e bc fe 54 30 bc d8 2c 17 3e
       0.04049664 -0.008685364 -0.010762451 0.147632
000160 09 c0 98 3e 11 37 46 3e d6 70 0b 3e fd 67 0e 3e
       0.2983401 0.19356944 0.13617262 0.13906856
000170 75 60 0c 3d 64 b5 d1 3c 33 1d e6 3f d6 05 d2 be
       0.034271676 0.02559919 1.7977661 -0.41020077
000180 f0 8e f7 ba 7f c6 0a 3f 7a 8f 77 3b 93 5c 85 be
       -0.0018887203 0.5420913 0.0037774728 -0.2604719
000190 86 98 9a be 41 1c db bc a6 87 ba be 44 c1 e5 bb
       -0.3019449 -0.026746871 -0.36431617 -0.0070115644
0001a0 13 51 d6 3e 51 cf 28 be 52 61 41 3e 6a d1 4f bd
       0.4185873 -0.16485335 0.18884781 -0.050736822
0001b0 4c 96 00 bf bf 70 34 bd 7f e0 41 be 56 69 81 be
       -0.50229335 -0.044052836 -0.18933295 -0.25275677
0001c0 8e 29 35 3e 14 f3 34 bd 9a 20 ba bd 2a f5 b8 bf
       0.17691633 -0.04417713 -0.090882495 -1.4449818
0001d0 30 f9 1f bf a5 25 2e be 3a 37 2e bd 6f ba 82 3b
       -0.62489605 -0.17006548 -0.042533137 0.00398951
0001e0 a2 fd 8d bd 0c ad 97 3e a9 1f 3d 3e 92 c8 f1 3e
       -0.06933142 0.29624212 0.18469109 0.47223336
0001f0 50 3d b9 3f 20 4a 8f 3e 30 e8 fd be 70 62 95 bf
       1.4471836 0.2798624 -0.49591208 -1.1670666
000200 d8 ff 03 3c 1e 71 76 bd 05 0f 81 bc 7a 21 bc be
       0.008056603 -0.06016647 -0.015754232 -0.3674429
000210 ff bf ef 3b 37 c8 d3 3e 45 ef 16 be 71 01 07 bf
       0.007316589 0.4136369 -0.14739712 -0.52736574
000220 78 be 13 be 08 02 b1 3e 86 03 36 bd 7e 60 ef 3e
       -0.14428127 0.34571862 -0.044436954 0.46753305
000230 02 cb 09 bd 5a 31 48 be 6d 71 b4 3e 81 8f 28 3e
       -0.03364087 -0.19550076 0.35242787 0.16460992
000240 c0 e2 f4 bd 71 66 22 bd 37 fb 09 39 b2 db 48 bf
       -0.11957312 -0.039648477 0.00013158923 -0.7846023
000250 e7 fa 12 be 81 5a e3 3e dc f8 e8 3e 3b 49 4c bf
       -0.14353524 0.44404987 0.45502365 -0.7979924
000260 36 80 8e 3e 94 d6 cd bd 90 0e 0f bf d4 45 da bd
       0.27832192 -0.10050693 -0.55881596 -0.1065785
000270 d8 38 36 3f b7 73 0d c0 2c 14 90 3e c3 aa 79 bd
       0.71180487 -2.2101877 0.2814039 -0.060953867
000280 7f 7a 4c 3d f0 36 c2 3d ba e2 4b bf ff 46 e5 39
       0.04992151 0.09483135 -0.7964283 0.0004373118
000290 fe 4a c5 3b 1b 26 79 3d 40 2d 01 3e c8 a9 5b 3d
       0.0060209027 0.060827356 0.12614918 0.053628713
0002a0 f9 99 d9 3c 7d ae 9b be a4 e4 c4 3c 18 5d a8 bd
       0.026562678 -0.30406561 0.024034806 -0.08220881
0002b0 09 39 ad bf 9e 5b 8b 3d b1 52 1f bf 0e d1 f4 3c
       -1.3533031 0.06804584 -0.6223555 0.029884841
0002c0 32 bb 78 3c f6 6a 3e 3d 70 ad a9 bd 02 c8 80 3d
       0.01518135 0.046488725 -0.08285034 0.062881485
0002d0 1a 3d 7b bd 68 a5 a9 3e a8 e4 88 bd 75 6c cb be
       -0.061337568 0.33134007 -0.06684238 -0.39731184
0002e0 e1 3d b5 bc 53 12 5f 3c 85 7d 5a 3e d6 09 0b bf
       -0.022124233 0.013615209 0.21336944 -0.54311883
0002f0 3c 66 9d bd c2 82 9e 3e d5 78 48 3d ea 3a 8c 3f
       -0.07685515 0.30959135 0.04894336 1.0955479
000300 98 2c bc bd 11 10 60 bd 71 8c 4f 3d 01 f2 3e 3e
       -0.09188193 -0.054702822 0.050671045 0.18647005
000310 97 9b d3 be 13 cb 34 3e 0f cb 15 c0 3a a1 52 bd
       -0.41329643 0.17655592 -2.3405187 -0.05142329
000320 93 4e dc bf 56 ca cd 3d 9b 8c 93 bd 5d 03 6c 3f
       -1.7211479 0.10048358 -0.07204553 0.9219263
000330 25 79 1b 3c 1b 78 72 bd d7 60 27 be cc a5 03 3c
       0.009489332 -0.059196573 -0.16345535 0.0080351345
000340 e6 c0 41 bc e0 21 eb 3d 32 4f 87 bf 24 68 44 3d
       -0.011825776 0.114810705 -1.0571043 0.04795088
000350 33 b8 ee 3c 0b ec bd bd 26 9b 24 3c 67 41 67 3e
       0.029140567 -0.09273537 0.010046756 0.22583543
000360 29 d3 6a be 14 4e 16 be 09 b3 2b bd 58 ed 2a bf
       -0.22932114 -0.14678222 -0.041918788 -0.6676841
000370 26 1a be bd 78 cd 02 bd 99 cd ad bf 6a b0 10 be
       -0.09282331 -0.03193423 -1.3578368 -0.14129797
000380 a6 1d d8 be d6 27 91 bf 2c b2 83 bc c9 b5 8d 3e
       -0.4221012 -1.1340282 -0.01607617 0.27677754
000390 b2 c6 01 c0 e1 e1 c2 3d cd 1f b0 3c 81 ed 17 3f
       -2.0277524 0.09515739 0.021499539 0.5934678
0003a0 0a 49 5c 3e 28 b7 9c be 2c c0 eb be a7 c1 a2 3c
       0.21512237 -0.30608487 -0.46045053 0.019867731
0003b0 1d 0f ff be 31 32 ff 3c 21 31 2a be 0d f6 04 3d
       -0.49816218 0.031151863 -0.16620304 0.032461215
0003c0 5d 59 5b be 36 d1 dc bb 9c 55 36 be c5 b2 76 bd
       -0.21420808 -0.006738807 -0.17806095 -0.06022908
0003d0 5e e3 f0 be d3 41 1a bf c6 5a 83 3d d3 b2 50 bc
       -0.47048467 -0.6025669 0.06413798 -0.0127379475
0003e0 f5 03 b9 3d ae 32 84 bd d1 14 ce be dc 0a 7f bf
       0.09033958 -0.06454979 -0.40250257 -0.99625945
0003f0 71 5b 2a c0 7f c6 25 3f 72 7e d0 3e 02 e9 c7 3e
       -2.6618311 0.64756006 0.4072147 0.39044958

gnn_node.convs.0.mlp.0.bias f4 [256]
000000 d0 b8 11 3d 70 29 97 3d 29 08 26 3c ae 73 a1 3c
       0.03557664 0.073809505 0.0101337815 0.01970848
000010 1e f9 37 3c 75 16 ac 3d 68 f6 52 bd f9 30 03 bd
       0.011228828 0.08402721 -0.051504523 -0.032029126
000020 bd f4 51 bc 34 b4 69 bc ee 2c 1b 3d 89 81 90 bd
       -0.012814698 -0.014264155 0.037884645 -0.07055957
000030 9c f3 78 bd 27 f4 67 bd 1c b4 5f bd 85 37 5e bc
       -0.0607792 -0.056629326 -0.054615125 -0.013563042
000040 e0 61 23 bc 21 f9 76 bd eb 3c 9f 3d ab bc 9e 3d
       -0.009972066 -0.06029618 0.07775291 0.07750829
000050 36 0e af bc 2a 60 72 bd e4 c7 ab 3c 06 e9 21 3d
       -0.021369081 -0.05917374 0.020969339 0.03952887
000060 ff ec ba 3c d6 66 35 bd bf c1 ff 3c 74 7c d2 3c
       0.022818087 -0.044287525 0.031220315 0.02569411
000070 55 d2 8e bc 17 10 a7 bd 58 a3 af 3d a2 fb 1d 3c
       -0.017434279 -0.08157366 0.08576077 0.0096425135
000080 45 2f 29 3d b7 46 42 bc 4a bd e8 3c 1a 5d 5b bd
       0.041304845 -0.01185768 0.028410573 -0.053555585
000090 f5 be 99 bc 82 87 12 3d c4 08 71 bc 00 36 3a bd
       -0.018767813 0.03577376 -0.014711563 -0.045461655
0000a0 d8 5a 78 bd f3 48 be bd 90 8d 98 bd 0b ab 4e 3d
       -0.06063351 -0.09291258 -0.07448876 0.050456088
0000b0 c4 9b f4 3d d1 8a f8 3a 34 0a bb bc 18 d5 a3 bd
       0.119437724 0.0018962269 -0.022832014 -0.07999629
0000c0 f2 37 e7 3c 9d 00 15 bb f1 39 b2 bd a5 7b 89 bd
       0.028224919 -0.0022735961 -0.08702458 -0.067130364
0000d0 fa c2 7a 3c aa e7 82 3d de bd 70 bd a0 07 0a bd
       0.015305275 0.06391843 -0.05877482 -0.033698678
0000e0 c1 c4 4d 3d d6 86 07 3d 5e 39 1c bd a6 7b 22 3d
       0.050236467 0.033087574 -0.038140647 0.0396687
0000f0 8b 3b 8a 3c 71 d3 c7 bb d3 7d 4f bd 94 ab df bb
       0.016874095 -0.006098204 -0.050657105 -0.0068258736
000100 37 61 03 3c 18 c9 50 bd ba 13 0a 3c cf 61 8f 3c
       0.008018783 -0.050973028 0.008427555 0.017502693
000110 aa 85 e8 3b 7b 43 12 3d d0 fc c9 3c ad 33 89 3d
       0.007096012 0.035708886 0.024656683 0.066993095
000120 70 7c 44 bb 2e 32 ed 3c a4 c0 39 bc a1 ef b0 bd
       -0.0029981397 0.028954592 -0.011337433 -0.086394556
000130 01 2a c2 bc a1 47 61 bd ef b4 6a bd e6 b4 e1 3b
       -0.02370167 -0.05499995 -0.057301458 0.00688802
000140 21 35 86 3d 23 19 61 bd 88 ff ac bd b8 1a cf bc
       0.06553102 -0.054955613 -0.08447176 -0.025281295
000150 7a fd 51 bd 3f 29 60 bd ee aa 7a 3d 4e fe c4 3c
       -0.051267125 -0.054726835 0.061198168 0.024047043
000160 22 28 af 3c d4 85 43 3d 9a d1 85 bc f0 52 27 3d
       0.021381442 0.04773505 -0.016335297 0.04085058
000170 4a d0 9b bd 5b cc a2 bd 89 cc bc 3b 83 9d 87 3d
       -0.07608087 -0.07949134 0.005761687 0.0662184
000180 26 e7 ac bb 5f c1 f1 bc 0e 78 db bc 5b 89 88 bd
       -0.0052765785 -0.029511152 -0.026790645 -0.066668235
000190 cd e4 94 bd 32 06 7f 3d 3b 94 50 bd 97 bf bf 3c
       -0.07270203 0.062261768 -0.050922614 0.023406787
0001a0 49 df 94 3d 9d 2b 6c bd e8 9b be bc 0e b5 97 3c
       0.07269151 -0.05765878 -0.023267701 0.01851895
0001b0 b6 b4 17 3d a8 0f 29 bd 72 ef c4 bb 43 45 5e 3d
       0.037037574 -0.041274697 -0.0060099894 0.054265272
0001c0 4d c9 de 3c 9e 41 2e 3d 13 08 eb 3c 58 c4 95 bd
       0.027195597 0.042543046 0.028690374 -0.0731284
0001d0 59 4b 60 3d de f7 33 3d be 77 3e bd f0 66 b0 3d
       0.054759357 0.043937556 -0.046500914 0.08613384
0001e0 35 0f cd 3c 92 1b 13 3d 3c 2b e4 bc 5a bb 44 3d
       0.025031665 0.035914965 -0.027852647 0.048030235
0001f0 32 06 a8 bd a3 65 76 bd ca bb 0b 3d e7 56 2f 3c
       -0.08204307 -0.060155522 0.034114636 0.0107018715
000200 0f 47 db 3c a6 78 36 bc 3e e5 40 3d 9c 94 ab bd
       0.026767282 -0.011137163 0.047093622 -0.08377954
000210 31 ad bf bd cf b4 18 3d 3e 1e 1e bd 98 32 96 3d
       -0.093592055 0.037281808 -0.03860306 0.07333869
000220 7d 7c 86 3c 46 6f 91 bd f1 ce 4b 3c 72 72 a3 3c
       0.016416783 -0.07101302 0.012439475 0.019952033
000230 fc ed 44 bd 4e cd 94 3d 8e eb 9f bd 0b 30 7e 3d
       -0.048078522 0.07265721 -0.078086 0.062057536
000240 da 0d c4 3c 17 3e 3c 3d 0d 19 8a 3d 9b b1 ad bc
       0.023932386 0.04595765 0.06743059 -0.021202853
000250 ca 38 41 3d 5c 5e 8e 3d 17 0c e5 3c fa ee 77 bb
       0.0471733 0.06951591 0.027959866 -0.003783165
000260 ef aa 8e 3d dd e6 1e bd 6e 81 91 3c c2 d4 76 3d
       0.06966197 -0.038794387 0.017761912 0.060261495
000270 ed e3 65 bd 6f 35 49 bd 36 46 b9 bc 00 e8 06 3d
       -0.05612557 -0.049123224 -0.022616487 0.032936096
000280 ae 29 93 3d 47 ed dc bc 96 95 60 bc d1 d3 92 3d
       0.07185684 -0.026968611 -0.013707539 0.07169307
000290 dd 0c 7a 3d 07 12 1b 3d eb f1 6c 3d 44 12 2d bd
       0.061047424 0.03785899 0.0578479 -0.042253748
0002a0 53 95 4e bd 9a 20 83 3d 52 b5 9d 3d 9b 99 aa 3d
       -0.050435375 0.06402703 0.077006 0.08330079
0002b0 ab 0e 1e bd 55 2b 54 3c 2f 5a 63 3d fb f6 a4 3d
       -0.038588207 0.012949784 0.055505928 0.0805492
0002c0 ea a3 98 bd 18 c9 0b 3d 8c 3f 7b 3d ec 97 35 bb
       -0.07453139 0.034127325 0.0613399 -0.002770896
0002d0 58 4e 93 bd c0 74 af 3d c7 59 90 bc 68 b4 11 bd
       -0.07192677 0.0856719 -0.017620934 -0.03557244
0002e0 a9 14 28 bd 9a 70 1d 3d 87 46 91 3c d7 d9 17 bd
       -0.041035328 0.038437463 0.017733825 -0.037072983
0002f0 47 d3 b5 bb a7 ed 78 bc 46 b8 74 3d 92 c6 ab bd
       -0.005548868 -0.0151933795 0.05974605 -0.08387484
000300 63 29 5f 3d 2b 11 3c bd ca a1 d7 3c 8a 01 6a bd
       0.05448283 -0.04591481 0.026322264 -0.057130374
000310 f4 12 d0 3d 65 ef 4a ba 25 ea 95 3c 6e 50 74 3d
       0.10159865 -0.0007741361 0.018300125 0.059647016
000320 3e 1c 83 bd f8 79 29 bd 1d b3 b5 3d 53 9b a6 3d
       -0.06401871 -0.041376084 0.08872054 0.081350945
000330 c6 0d 6d bd a2 cc 5b bd 57 4d 1c bd c2 fa 0f bc
       -0.057874463 -0.05366195 -0.038159695 -0.008787813
000340 cb 32 c5 3c b7 0a 81 bd a2 40 d7 bd 89 03 40 bd
       0.024072072 -0.06300872 -0.105103746 -0.04687837
000350 46 67 87 bd 64 26 10 be 2c d8 3d bd 68 7c da 3c
       -0.06611495 -0.14077145 -0.046348736 0.02667065
000360 8e 0d 55 3d e8 7d 56 3d 6d 41 85 bd 02 fd 03 3d
       0.05201488 0.052366167 -0.065066196 0.03222371
000370 01 ed 8a bc ba b6 b4 3d 0f 7e 8b 3d 31 dd a9 3d
       -0.016958715 0.08823915 0.06811153 0.08294142
000380 31 d7 4b bd 5d 16 5d bd 14 63 9c bc 67 7e 70 3d
       -0.04976577 -0.053976405 -0.019090213 0.058714297
000390 8c ab 23 bd d0 63 11 bd fb 79 fb bc 96 7b 8a bd
       -0.03995852 -0.03549558 -0.030697813 -0.067618534
0003a0 77 17 83 bc bb 5e 87 bd 94 4f 4b 3d b3 2c 16 bc
       -0.0160024 -0.06609865 0.04963644 -0.009165931
0003b0 ed 7a 7b bd 0f 42 07 3d ed 47 19 bd 66 6e b4 bd
       -0.061396528 0.033021983 -0.03742211 -0.08810119
0003c0 db d7 94 3c 4c 8d 0a 3d 82 c2 05 bd 3c de 61 bd
       0.018169334 0.033826157 -0.0326562 -0.05514358
0003d0 55 18 24 bc b0 88 9f bc fe 48 21 bc db 08 74 3d
       -0.010015567 -0.019474357 -0.009844063 0.059578758
0003e0 f0 7e 1d 3d 0c d1 72 bd 96 a0 ab bc 8a e3 a1 ba
       0.038451135 -0.059281394 -0.020950597 -0.0012351137
0003f0 63 5e 9b 3d a8 a2 b4 bc c5 b2 38 bd 2a ab 93 3d
       0.07586362 -0.022050217 -0.045092363 0.07210381

gnn_node.convs.0.mlp.1.weight f4 [256]
000000 92 f3 d5 3e 28 2c db 3f 48 b4 d3 3f 4e ef 85 3f
       0.41787392 1.712285 1.6539392 1.0463655
000010 c2 5f d6 ba fb a1 2c 3c de 65 4b 3f bc 08 3e 3f
       -0.0016355442 0.010536666 0.7945231 0.7423208
000020 4a ad f3 3f 51 1c 10 3f 8b dd ae 3c 92 2d 04 3b
       1.9037259 0.5629321 0.021345874 0.0020168764
000030 42 5e 64 3f da 2b c5 3f c7 b8 a3 3f 7a fb ac 3f
       0.89206326 1.5404007 1.2790765 1.3514245
000040 fe e4 b9 3f ac 7a dd 3e 00 76 ce 3f 04 ea c7 3f
       1.4523008 0.43257654 1.6129761 1.5618291
000050 17 a9 ac 3f 2d f5 3a 3f 59 1c d0 3f 4c d0 8b 3f
       1.3489102 0.7303036 1.6258651 1.0922942
000060 2d 6b 86 3f 14 6a 43 40 f5 b1 a4 3f cc 5e 77 3f
       1.0501457 3.0533495 1.2866808 0.96629024
000070 9f b2 60 3f fc 83 ce 3c e6 45 bb 3f 4e 00 f2 3f
       0.87772554 0.02520942 1.4630706 1.8906343
000080 ed 09 c0 3f f4 6b 9b 3f 7e 4b d7 3f 54 26 c4 3f
       1.5003029 1.214232 1.6819913 1.5324197
000090 96 a7 8e 3f 69 b5 f2 3d 1a f0 10 3d eb 2f e2 3f
       1.1144893 0.118510075 0.03538523 1.7670873
0000a0 07 6b 83 3f d6 b6 fa 3f ee eb 8e 3f 5c aa 2c 3f
       1.0267037 1.9587047 1.116575 0.6744745
0000b0 06 e9 86 3f d9 ad 76 3f d9 c5 c7 3b db b8 b2 3f
       1.0539863 0.9635902 0.0060965833 1.3962663
0000c0 d9 1e b6 3f 26 48 80 3f 5c 9f 03 40 ea d1 91 3f
       1.4228164 1.0022018 2.0566015 1.1392186
0000d0 0f 40 c1 3f 8d d9 dc 3f d9 cc 41 3f cf 8c a2 3f
       1.5097674 1.7253891 0.757032 1.2699221
0000e0 e4 c8 a4 3f 51 c0 94 3e 66 df ad 3f a3 91 c5 3f
       1.2873807 0.29052976 1.3583801 1.543507
0000f0 da af 7f 3f d0 cd 4b bd 3b 10 b6 3f c9 8d 50 3f
       0.99877703 -0.049756825 1.4223703 0.81466347
000100 1d 0d 8b 3f 9d da a7 3f 59 c5 f0 3f 9c 14 e4 3e
       1.0863377 1.311359 1.8810226 0.44546974
000110 e1 ec d7 3d 66 44 3b 3e 46 02 84 3f ef 88 67 3f
       0.10543228 0.1828781 1.0313194 0.9044332
000120 01 2c 53 3f 5f ec e4 3e 3a 12 95 3f a6 fd 4e 3f
       0.8248902 0.44711587 1.1646187 0.80855787
000130 a8 78 98 3f 2c 5f ce 3f f6 d7 7c 3f f5 ea af 3f
       1.1911821 1.6122794 0.9876703 1.3743578
000140 08 f3 ea 3e b0 da a9 3f 4b b6 ea 3f 66 e0 df 3e
       0.45888543 1.3269863 1.8336881 0.4372589
000150 10 6e ac 3f 31 c2 a6 3f 78 2d 32 3f bb 6e b0 3f
       1.3471088 1.3028013 0.6960063 1.3783792
000160 98 6d 14 3f 80 cb 71 3f 6d 22 a8 3f 6d 4b b1 3f
       0.57979727 0.9445114 1.3135506 1.3851143
000170 b4 4d 12 3f d5 7b 4c 3f ed 70 f9 3f bf 41 d5 3f
       0.57149816 0.7987645 1.9487587 1.6660689
000180 d7 8f b0 3f 70 05 96 3e 9d 64 be 3f f2 51 bc 3f
       1.3793896 0.29301023 1.4874455 1.4712508
000190 18 ae 81 3f 50 b2 8c 3f 0d 0a a4 3f e4 b8 9d 3f
       1.0131254 1.0991917 1.2815567 1.2322049
0001a0 db c9 cc 3f 52 5c 7d 3f d7 8b fb 3f 48 37 b7 3c
       1.5999101 0.98968995 1.9652051 0.022365227
0001b0 c8 22 48 3f 78 32 0c 3f 66 43 b3 3f 28 f5 6b 3f
       0.7817807 0.5476451 1.4004943 0.92170954
0001c0 de 8a 70 3f ec 03 a6 3f cc f0 f9 3f 8d ce 81 3f
       0.93961895 1.2969947 1.952661 1.0141159
0001d0 04 30 71 3f fb a5 51 3e ca d3 0c 3f 53 58 b0 3f
       0.9421389 0.20473473 0.55010664 1.3776954
0001e0 64 a4 1d 3e bf 6c ff 3f cd 39 9b 3f 2d 32 71 3f
       0.15394741 1.9955062 1.2127014 0.9421719
0001f0 bb b0 c2 3f 69 5e 4c 3f f4 f6 b0 3e d7 45 8b 3f
       1.5210184 0.7983156 0.3456341 1.0880688
000200 f4 48 bb 3f 43 44 e5 3c e6 e8 ce 3f 7c 88 0e 3e
       1.4631639 0.027986651 1.6164825 0.13919252
000210 0a bb a3 3f 39 82 77 3f 43 dc 25 3f 22 77 e5 3e
       1.2791455 0.9668308 0.6478922 0.44817454
000220 a2 99 f8 3f 87 b3 b5 3c 8a 61 ba 3f 63 c2 2c 3f
       1.9421885 0.022180332 1.4561017 0.6748411
000230 01 f4 b7 3e 54 15 2a 3f a0 c3 6a 3f aa 49 9f 3f
       0.35928348 0.66438794 0.9170475 1.2444355
000240 64 b7 81 3f 7b 20 67 3f a1 1f b2 3f c0 a0 c1 3e
       1.0134091 0.90283936 1.3915902 0.37817955
000250 0e c9 98 3f 32 99 0f 40 f6 a4 c4 3f 99 af a3 3f
       1.1936357 2.2437253 1.5362842 1.2787963
000260 3f 14 0d 3e 43 0a 37 3f f6 ee 89 3c 65 cc 89 3f
       0.13777255 0.71500033 0.016837578 1.0765501
000270 dc fa b4 3f 0c 51 57 3f 95 68 68 3f 87 fb 92 3f
       1.4139056 0.8410804 0.9078458 1.148301
000280 b0 96 07 3f f7 40 85 3f f2 66 6a 3f 4c c5 50 3f
       0.52964306 1.0410451 0.9156333 0.8155105
000290 20 ad ca 3f db 81 54 3f 23 84 9a 3f 48 b3 dd 3f
       1.5834084 0.83010644 1.2071575 1.7320337
0002a0 27 da 8e 3f ce 27 4e 3f 74 b0 2f 3e 02 43 c1 3f
       1.1160325 0.8052949 0.17157155 1.5098574
0002b0 31 0f fd 3e 86 2f a7 3f 23 f8 9f 3e f6 0d 2d 3f
       0.49425653 1.3061378 0.31244 0.6759943
0002c0 14 d0 af 3f 28 4f 82 3f 2b 09 f7 3e 5c 30 be 3f
       1.3735375 1.0180407 0.48249182 1.4858508
0002d0 99 3b ba 3f cc d8 ad bd ee 9d ad 3f a3 13 85 3f
       1.4549438 -0.08488616 1.3563821 1.0396618
0002e0 5b 8b e5 3f 99 21 37 3f 74 3f 92 3f 50 31 f3 3d
       1.7933153 0.7153564 1.1425614 0.1187464
0002f0 a1 93 94 3f ec 45 c1 3f 3f 91 99 3f db df 04 3f
       1.1607553 1.5099463 1.199745 0.51904076
000300 7d c6 87 3f e1 d5 a2 3f b9 4f a9 3f 38 b4 d0 3f
       1.0607449 1.2721521 1.3227454 1.6304998
000310 a5 e8 e4 3f 96 ed ab 3f 0b cf be 3f 05 e3 86 3f
       1.7883497 1.343188 1.4906934 1.0538031
000320 60 70 12 40 5e 23 98 3f 0c a6 de 3f 5a 7c c0 3e
       2.2881088 1.1885793 1.7394423 0.37594873
000330 d4 94 6e 3f 17 35 b5 3b 6e 56 a7 3f f4 5e d6 3f
       0.93195844 0.0055300104 1.3073251 1.6747727
000340 2a 99 7e bb b3 ef d3 3f 27 74 75 3f b1 81 a4 3f
       -0.0038848617 1.6557525 0.9588036 1.2852079
000350 15 96 93 3f 30 3f a6 3f 66 f2 93 3f 29 2e d0 3f
       1.1530176 1.2988033 1.1558349 1.6264087
000360 3b e8 53 3f c9 4c c3 3f 18 8d 81 3f e2 fa 56 3f
       0.8277623 1.5257808 1.0121183 0.83976567
000370 a4 b9 1e 3e ba 57 df 3e 8f dd 9f 3f 8c d5 b9 3f
       0.15500504 0.43621618 1.2489489 1.4518294
000380 f0 cf ac 3f b9 3e 9e ba 12 cd 9e 3f 24 70 40 3f
       1.3500957 -0.0012073136 1.2406332 0.75171113
000390 b2 3a bd 3f fc 0c 2d 3f 50 87 94 3f d4 fb ac 3f
       1.4783537 0.6759794 1.1603794 1.3514352
0003a0 33 a8 38 3d bb 64 d7 3f b7 4e b4 3f c7 aa 3a 3f
       0.045082282 1.6827615 1.4086522 0.72916836
0003b0 ad a1 d0 3f 88 86 f8 3f 2a 7e 81 3f e5 d5 92 3f
       1.629934 1.9416056 1.0116627 1.1471525
0003c0 9e 6e 4d 3f 94 e1 9a 3f 72 b9 4c 3e 1b 99 68 3f
       0.80246913 1.2100091 0.19992617 0.9085862
0003d0 04 84 8c 3f bb c8 b1 3e f4 40 b6 3f 00 b9 4e 3f
       1.0977788 0.34723458 1.4238572 0.8075104
0003e0 9b 99 8e 3e 3c 1f 03 40 3d e1 ac 3f 18 c3 26 3f
       0.27851567 2.0487814 1.3506237 0.6514144
0003f0 90 c4 35 3f de 99 ae 3f 83 66 59 3b 8b 86 de 3f
       0.71003056 1.3640707 0.0033172674 1.7384809

gnn_node.convs.0.mlp.1.bias f4 [256]
000000 72 06 c6 3d 76 31 c3 be 13 aa 2d be 75 f5 77 be
       0.09669198 -0.38123673 -0.1695941 -0.24214728
000010 7a 1e f7 3d f9 ae 35 3f 5d 0b 0a bf 50 e7 16 bf
       0.1206636 0.7097011 -0.5392359 -0.58946705
000020 a4 6b 15 3d 6f 73 6c bf 3f 87 ec be e6 e3 52 3f
       0.036479607 -0.9236364 -0.46196935 0.82378995
000030 ec 4a c6 be fc 9c ab be c0 95 b5 3c 77 5e af bd
       -0.38729036 -0.33518207 0.022166133 -0.085629396
000040 30 b1 86 be 9e 76 af bf d9 6f ea be d8 05 ee be
       -0.26307058 -1.3708074 -0.45788458 -0.46488833
000050 a0 36 0c bf fa 8d 27 3f 0a 2a 09 bf b1 10 90 bf
       -0.5477085 0.65451014 -0.5357977 -1.1255094
000060 ef 32 4e bf 18 fa 1f bc cb 2b 92 3e aa 7b cb be
       -0.8054647 -0.009764217 0.28549036 -0.39742786
000070 a7 cd 97 3d 20 e2 01 be a2 b1 b5 be e9 a0 fd bd
       0.07412272 -0.12683916 -0.35487086 -0.12384207
000080 54 6e f9 3e b2 01 0b bf 46 9d 9e ba ea 84 11 bf
       0.48716986 -0.5429946 -0.0012101314 -0.56843436
000090 60 33 e6 be 9f 08 d6 be 5f 8f 21 3f 29 20 01 bf
       -0.4496107 -0.41803452 0.6310939 -0.504397
0000a0 7b d9 82 be d8 ac 8b 3e a4 ab dd be 03 54 b7 be
       -0.2555655 0.27280307 -0.43295014 -0.35806283
0000b0 cd 98 ad bf de 13 c1 be 3f cf ef bd 53 3a 62 be
       -1.3562256 -0.3771047 -0.11709451 -0.22092561
0000c0 d8 12 c2 be 4b 45 80 bc 81 87 16 bf 8d 0b 08 bf
       -0.37905002 -0.015658041 -0.5880051 -0.53142625
0000d0 ab 4a eb be 95 a3 b7 be 07 26 65 bf 23 55 0f bf
       -0.45955405 -0.3586699 -0.8951115 -0.55989283
0000e0 ef 97 98 be 84 d8 06 bf a4 8f 30 bf 47 9f 24 bf
       -0.29803416 -0.52674127 -0.6896918 -0.6430554
0000f0 60 08 9d be dd 31 02 be a7 15 51 be b4 e8 cc be
       -0.30670452 -0.12714334 -0.20418416 -0.40021288
000100 8b 3f ef be ab a5 24 be 83 55 2e be de d0 c0 bf
       -0.46728167 -0.16078822 -0.17024808 -1.5063741
000110 e7 88 27 bd 85 dd cd bd c6 99 9a be 10 de 85 be
       -0.040902045 -0.10052017 -0.30195445 -0.26145983
000120 a2 07 74 bf bf 54 ee be 01 1d d8 be 74 4f dc be
       -0.95324147 -0.4654903 -0.42209628 -0.43029368
000130 bb 87 a7 be 4c d2 1a bf 5c 1c d6 3e 00 94 8f bd
       -0.32720742 -0.6047714 0.4181851 -0.07010651
000140 60 9e b8 be 2a 60 a6 be f6 40 e0 be 4f c1 d4 be
       -0.3605833 -0.32495242 -0.4379956 -0.41553733
000150 9e 5b 9c be 14 15 8e be 2a 13 0a bf 74 23 23 bf
       -0.30538648 -0.27750456 -0.5393549 -0.6372597
000160 82 fa 16 bf 73 29 0b bf ce 1c 69 be 7c f1 6e be
       -0.58975995 -0.5436012 -0.22764894 -0.23334306
000170 89 16 04 3e e6 78 f5 be 49 dc 8f be 8d 5b a2 be
       0.12899221 -0.479438 -0.28097752 -0.31710473
000180 dc 1a 10 bf 5d 2c 39 3e e3 4b cd be b7 1e a1 be
       -0.56290984 0.1808333 -0.4009696 -0.31468746
000190 09 1d 37 be 13 1e af be 7e ec 50 be 18 b0 ca be
       -0.1788217 -0.34202632 -0.20402715 -0.39587474
0001a0 a6 48 0a bf bf 7a b4 be 63 a9 11 bf 30 67 9e be
       -0.540171 -0.35249898 -0.5689909 -0.309381
0001b0 3b 8d ca bd e0 83 ab be dc 99 f7 be 5d b2 15 bf
       -0.09890219 -0.3349905 -0.48359573 -0.58475286
0001c0 11 3c c5 bd 32 57 3f 3d e7 60 e4 be 62 25 fc be
       -0.096305974 0.046714015 -0.4460518 -0.4924727
0001d0 17 b0 fb be 66 4d 63 be 2d 8e e6 bd c9 cd 3c bf
       -0.49157783 -0.22197494 -0.11257587 -0.73751503
0001e0 ef d8 8d be a7 d0 41 3c 48 7b be 3d c2 77 96 be
       -0.2770457 0.011829532 0.09300858 -0.29388243
0001f0 7d ac e5 be 45 fe 59 be f2 d5 8d bf 31 93 8a bf
       -0.4485816 -0.21288402 -1.1080916 -1.0826169
000200 d6 ed 20 bf 33 48 8f 3e d1 0a 14 bf a7 dc 2c be
       -0.6286291 0.2798477 -0.57829005 -0.16881047
000210 6d b8 bd 3d 6f bc 56 be b8 d3 5e bf f2 63 86 be
       0.09263692 -0.20970319 -0.8704181 -0.26248127
000220 c6 a6 24 be 20 95 76 3e 86 1c ec be a1 3f 98 be
       -0.16079244 0.24080324 -0.46115512 -0.29736045
000230 97 a0 27 be 75 14 87 bf d7 36 ed bd 89 ea 40 be
       -0.16369854 -1.0553118 -0.115827255 -0.18839468
000240 4a 0d fd be b1 db b9 be ff 55 5a 3e 1f 11 53 3d
       -0.494242 -0.36300424 0.21321867 0.05153
000250 4d 58 df bc 5f e7 38 3e b3 c4 35 be 12 0b 15 be
       -0.027263785 0.18057011 -0.17750816 -0.14555004
000260 20 81 2e bf cc c2 38 be ae e9 7d 3e 4f c8 5b be
       -0.6816578 -0.18043059 0.24796173 -0.2146313
000270 c9 12 3a bf 5b 1f c0 be 07 e7 2a 3e 44 ff e2 be
       -0.72684914 -0.37523922 0.16689692 -0.44335377
000280 a9 45 83 bf 48 95 af be ce 3b 9e be 32 e1 eb be
       -1.0255634 -0.3429358 -0.30905002 -0.46070248
000290 73 ec bb be 55 9b 7a bd 48 72 e6 be 7f 1a 25 3e
       -0.36703834 -0.061183292 -0.45009065 0.16123389
0002a0 25 f0 f8 bd 1c c1 fe be c4 7c 37 bd ce e2 df be
       -0.12155179 -0.49756706 -0.04479672 -0.43727726
0002b0 98 b5 61 be 0d 2a cc be 21 79 c8 bd a5 07 8d be
       -0.22041929 -0.39875832 -0.097887285 -0.27544895
0002c0 9c 51 04 bf f2 05 59 be 5d f7 d6 bf 0e a1 12 bf
       -0.51687026 -0.21193674 -1.6794239 -0.57277
0002d0 34 7a 02 bf 05 c5 46 bf dd 39 4a 3e 6e d3 27 bf
       -0.5096772 -0.7764438 0.19748636 -0.6555699
0002e0 0f 3e eb be 61 aa 1a bf 54 2f cb 3e f8 c5 e8 3d
       -0.45945784 -0.6041623 0.39684546 0.113658845
0002f0 46 69 0b bf d9 f2 89 be ce 0f fd be 3b 6f e0 be
       -0.5445751 -0.2694309 -0.4942612 -0.43834862
000300 6e bd fa be 86 eb fc be d3 c3 a2 be 52 5e d2 be
       -0.48972648 -0.4939844 -0.31790027 -0.41087586
000310 82 d6 88 be 94 1d 09 bf 05 4b e4 be 34 fe 5c bf
       -0.26726156 -0.5356076 -0.44588485 -0.86325383
000320 51 21 a3 be d1 8e ad be 24 75 a9 be bc c1 c4 bf
       -0.31861356 -0.33898023 -0.33097184 -1.5371623
000330 64 1a 40 bf 11 90 0b 3f f1 d4 c9 bd 16 93 22 be
       -0.7504027 0.545167 -0.098550685 -0.15876421
000340 89 84 ca 3e ed a5 5c be ff 8e 11 bf 5c 9d 21 bf
       0.3955424 -0.2154767 -0.5685882 -0.63130736
000350 8c be f8 be b3 8f ad be d9 6e 12 bf 46 8c a9 be
       -0.48582876 -0.33898696 -0.5720039 -0.33114833
000360 ee b0 8d 3e 1e 6e 13 bf 18 61 07 bf 27 d3 d0 bf
       0.2767405 -0.575899 -0.5288253 -1.6314439
000370 4c f8 f2 bd a3 b4 af bf e7 59 1f be a2 21 05 bf
       -0.11863765 -1.3727001 -0.15561639 -0.52004445
000380 d7 66 eb bc 78 e0 17 3f 87 3f 02 bf ea 8b 28 be
       -0.028735561 0.5932689 -0.50878185 -0.16459623
000390 a3 1a 2e be c8 af b7 be e0 fe be be e8 40 f1 3c
       -0.17002349 -0.35876298 -0.3730383 0.029449895
0003a0 e8 93 aa 3d 6f 7a b6 be 4a f7 cd bc c2 95 cf 3d
       0.08328992 -0.35640284 -0.02514233 0.10135986
0003b0 fb 9f bc be e3 1f f7 bd 71 e2 f0 be 88 f6 62 bf
       -0.36840805 -0.12066629 -0.4704776 -0.88657427
0003c0 3e 8c b9 bf ba 72 7d 3d 58 aa 12 bf 2e 2c 13 3d
       -1.4495924 0.06187699 -0.57291174 0.035930805
0003d0 19 41 bb bb 78 17 84 bd 77 04 1a bf 00 ad 0b bf
       -0.0057145474 -0.06449789 -0.6016306 -0.5456085
0003e0 71 f9 5d be d1 0f 81 be d4 b4 e3 be 65 b3 a0 bd
       -0.21677186 -0.2520738 -0.44473898 -0.07846717
0003f0 11 a2 45 3d 8a e3 0a bf 29 04 bc bd e5 95 f5 be
       0.04825026 -0.5425345 -0.09180481 -0.47965923

gnn_node.convs.0.mlp.1.running_mean f4 [256]
000000 c1 b6 2b 41 97 f8 27 41 4a e6 69 40 f0 9e 4e 41
       10.732118 10.498191 3.6546807 12.913803
000010 b1 a3 9d bf 10 bf 82 41 af 9b a2 41 90 72 12 c0
       -1.231558 16.343292 20.326017 -2.2882423
000020 09 33 78 40 ca ef bc c1 9a ef c2 be f5 e3 81 40
       3.878115 -23.617085 -0.38073426 4.059077
000030 df fe 47 41 e1 98 ef 40 bd bb 09 42 19 59 cc 41
       12.499724 7.487412 34.43334 25.543505
000040 72 21 fb c1 fe 52 2f 40 e4 67 5a 41 60 cd 30 c1
       -31.39133 2.7394404 13.650364 -11.05014
000050 4c e4 9c 41 eb 2e 22 40 3c 13 04 41 95 a0 18 c0
       19.611473 2.5341136 8.254696 -2.3848011
000060 de fb 1b 41 e8 d8 b6 c0 b6 96 a8 c1 a2 66 41 41
       9.748991 -5.713978 -21.07359 12.087557
000070 3b fa f5 c0 b4 aa fc bf 49 17 bb 40 d3 99 d4 40
       -7.6867957 -1.9739594 5.8465924 6.6437774
000080 6e eb 43 40 3f ff 99 41 8a 3f 1f 3d 6d 56 d3 40
       3.0612445 19.249632 0.038878955 6.6043
000090 3a 3f dc 40 6c c5 26 c1 b5 0e e1 40 29 5a 9e 40
       6.882718 -10.423199 7.0330453 4.948506
0000a0 85 a0 f6 c0 a7 89 e3 c1 fe 52 10 c1 83 6d 87 c1
       -7.7070947 -28.442213 -9.020262 -16.928473
0000b0 48 87 d2 41 eb b5 b4 c0 f7 3a 4b 40 29 f6 98 40
       26.316055 -5.647207 3.175474 4.780049
0000c0 06 ae ea 40 79 da cd 40 4b 53 1e c1 41 c6 76 be
       7.333743 6.432919 -9.895335 -0.24099065
0000d0 e5 97 e5 40 45 c1 fd c0 63 a1 26 41 d0 07 53 41
       7.174792 -7.9298425 10.414401 13.189407
0000e0 03 da 4d c1 62 47 c0 c0 6d fc d4 c1 f0 75 3b c0
       -12.8657255 -6.0087137 -26.623255 -2.9290733
0000f0 0a 9b 2c c1 8e 0b 35 40 1e f5 db 3f 27 f0 0d 40
       -10.787851 2.8288302 1.7184179 2.2177827
000100 82 0b 88 40 14 6f b9 c1 c5 39 cc 41 1c 78 6f c0
       4.251405 -23.179237 25.528208 -3.741706
000110 87 38 40 41 cf 22 9c c0 80 03 2f 41 e2 98 8d 40
       12.013801 -4.879249 10.9383545 4.4249125
000120 0c 1a 73 41 23 e5 5e bf 9a 2e 26 41 ac 14 a5 c0
       15.193859 -0.87068385 10.386377 -5.1587734
000130 46 b9 a2 c1 cb a7 6c 41 97 81 04 42 d3 56 04 c2
       -20.340466 14.790965 33.126553 -33.08479
000140 9c 6b 56 40 f4 25 b9 41 a2 c9 83 41 b7 4a ad bf
       3.350318 23.143532 16.473454 -1.3538426
000150 74 ed 9b be 1b 17 ab 41 9a b9 6d 3f ed 12 11 41
       -0.304546 21.386282 0.9286133 9.067121
000160 8d 3a 1c 41 5f 02 f7 c0 fc c2 a3 bf b2 11 04 c0
       9.764295 -7.7190394 -1.279388 -2.06358
000170 73 8c 13 41 c1 e8 9f c0 19 14 28 41 6b a1 63 c1
       9.221789 -4.9971623 10.504907 -14.226909
000180 ee 1c e7 40 42 ec b4 41 79 87 0c c0 f8 eb 6f 41
       7.2222815 22.61536 -2.1957686 14.99511
000190 b7 09 ea c1 3f a1 40 40 83 4b df 40 85 ff 1f c1
       -29.254744 3.0098417 6.9779677 -9.999883
0001a0 5c d4 cf 40 b8 dd 2e 41 69 83 a3 41 a6 a9 a3 3f
       6.494673 10.929131 20.439165 1.2786148
0001b0 48 f4 77 c1 15 46 99 c1 17 4c 12 40 d5 ff af c0
       -15.497139 -19.15922 2.2858942 -5.4999795
0001c0 bb 5a c9 40 17 00 13 41 60 5e ef 40 68 48 84 41
       6.2923255 9.187522 7.4802704 16.535355
0001d0 46 51 b6 c1 f7 2d b3 40 66 83 00 c1 95 f4 a5 41
       -22.789684 5.599361 -8.03208 20.744425
0001e0 f2 0d 40 c1 1b 51 7e c0 2b 47 87 3f 8a bb bd c1
       -12.003405 -3.9737003 1.0568594 -23.716572
0001f0 57 c0 05 c1 d9 11 94 c1 8f 5b 82 41 c3 7d 7b 41
       -8.359458 -18.508715 16.294706 15.718204
000200 06 74 86 3e aa d6 f1 be 41 bb 03 bf 76 2a 53 c0
       0.26260394 -0.47234088 -0.514576 -3.2994666
000210 3a e5 81 c0 45 33 92 c1 a6 24 d9 c1 0a 23 9b c0
       -4.0592318 -18.275034 -27.142895 -4.848027
000220 50 fb d3 c0 e9 a9 92 40 8d 23 75 41 09 a2 4c c1
       -6.624428 4.583241 15.321179 -12.789559
000230 63 6f 80 c1 c6 b3 96 c1 e3 74 e7 40 2c 56 69 c1
       -16.054388 -18.83778 7.2330184 -14.583538
000240 9c b7 d4 c0 dc f7 98 c0 9e 2b c4 41 df 02 45 41
       -6.6474133 -4.7802563 24.521297 12.313201
000250 45 55 39 c1 4d 47 83 c1 56 d2 52 41 28 c6 0e 41
       -11.583318 -16.409815 13.176352 8.923378
000260 ac 15 36 40 46 4c 05 41 1e a6 2b c0 f5 69 46 41
       2.8450727 8.331121 -2.682014 12.400868
000270 73 e8 bb c0 4c 21 48 c1 75 e4 7a 40 85 23 20 c1
       -5.872125 -12.508129 3.920194 -10.008672
000280 57 a4 07 41 5d d7 62 41 71 a5 57 c0 d3 78 dc c0
       8.477622 14.177579 -3.3694727 -6.889749
000290 a2 78 0e 40 e3 2d 1d 41 9f 44 aa 40 ab 1c 22 c1
       2.2261128 9.823703 5.3208766 -10.131999
0002a0 e0 2c 16 41 61 93 af c0 b3 31 01 3f 3d 69 36 c1
       9.385956 -5.4867406 0.5046646 -11.400693
0002b0 65 47 0c c0 f3 04 46 c0 23 2d 3e 41 57 27 f2 c0
       -2.1918576 -3.094052 11.88602 -7.567302
0002c0 8c c9 8f bf 7c 49 03 41 ec 9b 5c c0 62 6e b4 c0
       -1.1233382 8.2054405 -3.4470167 -5.6384745
0002d0 c9 33 14 c0 d8 11 17 41 4e 15 a5 c0 a9 70 8e 41
       -2.3156607 9.441856 -5.1588507 17.80501
0002e0 63 48 2b c1 5f 86 a4 41 fe 0d aa 41 f0 46 09 41
       -10.705173 20.56561 21.256832 8.579819
0002f0 8d 04 d1 3f 2c 66 a0 c1 36 60 61 41 c2 12 95 c0
       1.6329514 -20.049889 14.085989 -4.65854
000300 46 a6 b9 40 4d e7 61 41 b1 7e 4e 40 8e 05 d2 3e
       5.801547 14.11897 3.2264826 0.41019863
000310 ad 91 22 c1 0e 5d a2 bf b1 c1 60 41 cc f7 98 c0
       -10.160565 -1.2684648 14.047288 -4.7802486
000320 42 2c 60 be 9d 67 0b 40 b2 1e 87 c1 97 27 cb bf
       -0.21891883 2.178199 -16.889988 -1.5871457
000330 da 62 1d 41 76 04 78 40 d7 7e 7a 41 84 e9 6c 40
       9.836634 3.8752723 15.655967 3.7017527
000340 86 9c 6e 41 9c 06 13 be cd 28 60 c1 76 d6 cd 40
       14.913214 -0.1435799 -14.009961 6.4324293
000350 6a 22 4d 41 2f 44 4a 41 fd b9 a9 3c 7e 73 ed 40
       12.820902 12.641646 0.020718569 7.420348
000360 13 43 cc 41 4f 13 08 41 a0 14 c1 40 59 0b 86 40
       25.532751 8.504714 6.0337677 4.188885
000370 e1 08 bf 40 d3 0b 0c 41 dc 1c 89 41 99 75 06 41
       5.969834 8.752887 17.139091 8.40371
000380 d5 98 00 bf f1 0c 3a 41 a2 c8 22 c1 d7 e8 28 c1
       -0.50233203 11.6281595 -10.173983 -10.556846
000390 f4 2e 93 3f f2 72 bf 40 37 c7 1f 40 26 b2 b4 bf
       1.1498704 5.9827814 2.496534 -1.4116867
0003a0 67 d2 03 41 a9 cd 91 41 78 d8 46 c1 0f 2f fd 40
       8.238868 18.22542 -12.427849 7.9119945
0003b0 b9 4a ee be 51 e2 99 c1 d3 53 32 41 98 b5 6b 41
       -0.46541384 -19.235506 11.145465 14.731834
0003c0 92 a8 30 3f 22 a8 56 41 c4 2a 87 40 4a e7 97 41
       0.6900722 13.416048 4.2239704 18.987934
0003d0 41 81 0c 40 2f c7 02 40 b6 66 7a c1 c9 c8 8f c1
       2.195389 2.0434072 -15.650076 -17.97304
0003e0 33 3f 85 c1 c7 d1 9e 41 42 70 0e 41 09 3b 60 41
       -16.655859 19.85243 8.902407 14.014413
0003f0 45 80 89 c1 82 ac 82 c1 3e 93 92 40 90 50 95 c1
       -17.187632 -16.334232 4.580474 -18.664337

gnn_node.convs.0.mlp.1.running_var f4 [256]
000000 72 a5 ee 42 ff f9 e0 42 2f 54 c2 42 83 b0 21 43
       119.323135 112.48827 97.16442 161.6895
000010 81 9b cb 42 29 95 ab 42 2b 5c 2f 42 4c bd 23 43
       101.80372 85.79133 43.840008 163.73944
000020 d5 b9 b5 42 44 8d 18 42 13 91 d5 40 0c 05 c3 42
       90.86295 38.137955 6.6739593 97.50986
000030 94 4e 6a 42 16 0c 46 42 0e c1 61 43 d0 d5 8d 43
       58.576736 49.511803 225.75412 283.6704
000040 20 0c 83 42 68 6d aa 42 d8 f3 04 43 08 0d 74 43
       65.52368 85.213684 132.95251 244.0509
000050 ea 98 18 43 1d 2c 38 43 09 6a 29 43 1e ff 0c 42
       152.59732 184.17232 169.4142 35.249138
000060 57 39 b2 41 e8 e4 36 43 56 13 17 43 4c 8a 1b 43
       22.277998 182.89417 151.07553 155.54022
000070 1a b3 29 42 1e 04 65 42 b5 e8 18 43 f7 b3 be 42
       42.424904 57.25402 152.90901 95.351494
000080 97 43 17 43 7f f0 f7 42 f3 d6 ce 42 c7 6a 34 43
       151.26402 123.96972 103.41982 180.4171
000090 d9 58 d6 42 f3 5d 0f 42 b6 ae 4a 42 c7 6e 47 43
       107.17353 35.841747 50.670616 199.43272
0000a0 2e 2e 5e 42 2d 81 b6 42 02 e2 36 42 a6 b6 15 42
       55.545097 91.2523 45.72071 37.428368
0000b0 68 01 00 42 0d bc 23 42 13 f1 e3 41 88 fc 8e 42
       32.001373 40.933643 28.492712 71.493225
0000c0 ff ae b7 42 68 1c 0f 42 c2 ec c8 42 98 12 83 43
       91.84179 35.77774 100.46242 262.14526
0000d0 aa 2c 1a 43 e3 d5 d4 42 3a 54 5b 42 41 8f b5 42
       154.17447 106.41775 54.832253 90.77979
0000e0 b5 8f 98 42 5e ea f9 42 84 08 18 42 e2 9b 90 42
       76.28068 124.95775 38.008316 72.30446
0000f0 8c 0c 55 42 ab 5a 52 42 cb dd 9b 42 62 58 ae 42
       53.262253 52.588543 77.93319 87.17262
000100 be c8 12 43 3c 90 c1 42 1a 7b 83 42 98 50 08 43
       146.78415 96.78171 65.74043 136.31482
000110 5d 6b 90 42 32 5f a5 42 d2 b2 d9 42 ef 3f f3 41
       72.209694 82.68593 108.84926 30.406218
000120 3e 12 ae 42 5f f0 75 41 7e 1c 56 43 65 c1 e7 42
       87.03563 15.371184 214.1113 115.87772
000130 ca 89 22 43 14 01 9f 42 09 09 fd 42 4a 52 11 43
       162.53824 79.502106 126.51765 145.32144
000140 27 1b cf 42 aa 6a 93 42 36 c6 a8 42 de 69 82 41
       103.55303 73.70833 84.38713 16.301693
000150 29 0a f4 42 44 f7 8d 42 5d ba ae 41 a2 f7 ed 42
       122.019844 70.98294 21.840998 118.98366
000160 45 03 ed 41 1a ed 5a 42 94 e6 de 42 a1 70 84 42
       29.626596 54.731544 111.45035 66.21998
000170 03 ae 93 43 c0 3f b1 42 59 d1 bb 42 e1 cb d8 43
       295.35947 88.62451 93.90888 433.5928
000180 4a c1 c2 42 28 cc 91 42 cb 43 76 43 c3 b6 1c 43
       97.37752 72.89874 246.26482 156.71391
000190 61 ef 0f 43 0c d6 37 43 fc d1 1f 43 23 af 4f 43
       143.93507 183.83612 159.82025 207.68413
0001a0 96 95 e3 42 c2 20 4b 42 62 52 86 42 b8 e4 4e 42
       113.79216 50.78199 67.160904 51.72336
0001b0 eb 69 eb 42 85 1c 2c 42 02 27 11 43 0e ef 01 42
       117.70687 43.02785 145.15237 32.48345
0001c0 e8 fe 38 42 54 51 d3 42 db a6 01 43 89 ec 27 43
       46.24893 105.658844 129.65178 167.92397
0001d0 2c f4 3d 42 e3 b6 95 42 0c 65 fb 41 e0 e2 34 42
       47.48845 74.8572 31.42434 45.221558
0001e0 97 97 6b 42 e6 a8 28 42 6a 9d 47 43 fe fd b2 42
       58.898037 42.16494 199.6149 89.49608
0001f0 93 64 19 43 cb 4c f0 41 77 26 18 42 31 20 49 42
       153.39287 30.037497 38.037563 50.281437
000200 42 28 fb 42 1b 49 54 42 f2 ae 8c 42 69 71 9f 42
       125.57863 53.071392 70.34169 79.721504
000210 3f c4 5c 42 d1 09 d7 41 66 e9 94 42 1e b9 bd 42
       55.191647 26.879793 74.45586 94.86156
000220 3e e6 e6 42 68 c9 42 42 49 d1 21 43 5a 9a 82 42
       115.44969 48.696686 161.81752 65.30147
000230 e8 6f 23 42 26 83 6b 42 d9 66 bd 42 d1 ad 41 42
       40.859283 58.878075 94.700874 48.419743
000240 ad 2a 63 42 e7 c2 ef 42 17 bb e2 42 65 90 8d 43
       56.791676 119.88067 113.36541 283.12808
000250 a3 8f bb 42 1d 92 03 44 5b 69 36 43 1a ec b3 42
       93.78054 526.283 182.41154 89.961136
000260 f5 be 5c 42 c3 0f 3d 42 89 0b 9a 42 fa 13 30 43
       55.18648 47.265392 77.02253 176.07803
000270 23 19 c6 42 cd 54 39 42 7d a7 06 42 6a 6c 88 42
       99.049095 46.332813 33.663563 68.21175
000280 1b 5a 14 42 da b6 2f 43 0f a5 d8 42 f0 34 25 43
       37.087994 175.71426 108.32238 165.20679
000290 86 80 21 43 32 e8 03 42 93 02 04 43 44 5c 2e 43
       161.50204 32.976753 132.01006 174.36041
0002a0 2e 9b 09 43 5d d8 53 42 3c fa 70 42 dd 2a 38 43
       137.60617 52.961292 60.24437 184.16743
0002b0 2d a0 15 42 20 25 79 42 d1 6f 87 43 81 f3 3c 42
       37.40642 62.286255 270.87357 47.237797
0002c0 97 04 cf 42 8c 56 ad 42 a1 29 fe 42 fb 3a 4a 43
       103.508965 86.66904 127.08131 202.2304
0002d0 4f 69 a9 42 68 49 94 42 4f 21 d5 41 d8 85 80 42
       84.70568 74.14337 26.641264 64.26141
0002e0 d3 2d 1f 43 01 19 d0 41 a5 48 0a 43 c5 d9 34 43
       159.179 26.012209 138.28377 180.85066
0002f0 2a 9e 28 43 f9 0d 6f 43 f6 43 00 43 ee 16 6d 42
       168.61783 239.05458 128.26547 59.272392
000300 35 57 b6 42 78 62 d0 42 0b fa 0f 42 f8 55 62 43
       91.17033 104.19232 35.994183 226.33582
000310 dd 5d 75 43 82 f8 ab 42 b8 00 1a 43 a7 e3 d3 42
       245.36665 85.98537 154.0028 105.94463
000320 e5 15 32 42 0c 73 7d 43 68 15 b0 42 5e 6a 9c 42
       44.52138 253.4494 88.04181 78.20775
000330 c1 af 88 42 72 47 d3 42 8d 0d 12 43 eb 2b c4 41
       68.34327 105.63954 146.05293 24.521444
000340 bd 9b e1 42 7a 03 e9 42 4c 04 0c 42 4c 58 8e 42
       112.80418 116.50679 35.004196 71.172455
000350 0f 54 01 42 9f ea c3 41 cd 81 a2 42 7e 4c 3b 43
       32.33209 24.489561 81.25352 187.2988
000360 1a 82 0e 43 5a 98 50 43 bd 22 ee 42 33 3f 4c 42
       142.50821 208.59512 119.06785 51.061718
000370 eb 6d 50 42 27 d8 69 43 bf a9 ab 42 c2 7a 27 43
       52.10734 233.84435 85.831535 167.47952
000380 13 49 45 42 72 95 9e 42 cf 50 ac 42 f9 02 b4 41
       49.32136 79.291885 86.15783 22.501451
000390 0a 2e 95 42 77 17 88 42 b5 fc a1 42 55 c2 6d 43
       74.58992 68.04583 80.99357 237.75911
0003a0 e3 67 46 42 77 3d 8f 42 0e 53 9e 42 73 90 f3 42
       49.60145 71.62005 79.16222 121.78213
0003b0 f4 89 ba 43 36 15 e8 43 ed 14 90 42 ad d7 38 42
       373.07776 464.1657 72.04087 46.21062
0003c0 5d 52 21 42 ba 3e a8 42 b3 12 0a 43 7a 18 b2 42
       40.330433 84.12251 138.07304 89.047806
0003d0 75 b1 5c 43 e4 b7 2e 42 23 5f 05 43 ae 48 21 42
       220.69319 43.67958 133.37163 40.320976
0003e0 3c 4d 86 42 79 4b fa 42 34 50 cc 42 2a 84 0b 43
       67.15085 125.14741 102.15665 139.51627
0003f0 b0 f8 51 42 c1 c5 15 43 02 06 bd 42 a4 49 29 42
       52.49286 149.77248 94.511734 42.321915
