checkpoints/C_epoch_150.pth (torch, 843999 bytes, 48 tensors)

gnn_node.node_encoder.weight f4 [1, 128]
0	0x3f23cf6d	0.6398838
1	0xbf3f9c82	-0.74848187
2	0xbf045380	-0.5168991
3	0x3e1f4a05	0.1555558
4	0xbe5b6b38	-0.2142762
5	0xbe4c4899	-0.19949569
6	0xba139618	-0.00056299707
7	0xbee37c53	-0.4443079
8	0x3f09d30a	0.53837645
9	0xbeb6dadb	-0.35713848
10	0xbf1d8421	-0.6152974
11	0x3f16dc00	0.58929443
12	0xbfa770a9	-1.3081256
13	0x3d2f0603	0.042730343
14	0x3f00f130	0.5036802
15	0xbd0c7b14	-0.034297064
16	0xbfbca0cf	-1.4736575
17	0xbf79028f	-0.9726953
18	0x3e80ce47	0.25157377
19	0xbf752375	-0.9575723
20	0xbf8cb484	-1.0992589
21	0x3d7ddddc	0.06197916
22	0x3d905d0d	0.07048998
23	0xbece4c20	-0.40292454
24	0xbe920c72	-0.2852512
25	0xbfc3b9bd	-1.5291058
26	0xbea97fc6	-0.33105296
27	0xbf638e2a	-0.888888
28	0x3f5a0e1a	0.8517777
29	0xbe09c4c0	-0.1345396
30	0x3ea0f852	0.31439453
31	0xc01cc9b0	-2.44981
32	0xbfdd7f39	-1.730445
33	0x3e7f8724	0.24953896
34	0xbf1651ae	-0.58718383
35	0x3ec433ae	0.38320678
36	0xc0164310	-2.3478432
37	0xbe8a525e	-0.27015966
38	0x3f1d38c3	0.61414737
39	0xbe520b4d	-0.20512123
40	0xbf95a8a0	-1.1692085
41	0xbec66e7a	-0.38756162
42	0xbf9b0925	-1.2112166
43	0xc01c8fd5	-2.4462788
44	0xbeb7cb2e	-0.358972
45	0x3d477d11	0.048703257
46	0xbe8fe851	-0.2810693
47	0xbf7b173e	-0.9808234
48	0xbf1a2d72	-0.60225594
49	0xbbe85b55	-0.0070909658
50	0xbfab9ca4	-1.3407178
51	0xbf9d0287	-1.2266396
52	0xbf0d2fc3	-0.55151004
53	0x3eea250a	0.45731384
54	0xbf403a0d	-0.7508858
55	0x3ecfd8c4	0.40595067
56	0xbfd166ca	-1.6359494
57	0x3f4b2ccc	0.7936523
58	0xbd88a3d8	-0.06671876
59	0x3ee28c25	0.44247547
60	0xbe15f2a0	-0.14643335
61	0xbf5e126b	-0.86746854
62	0xbf00a5e5	-0.50253135
63	0xbf320de7	-0.69552463
64	0xc00c14e4	-2.188775
65	0xbff280c4	-1.8945546
66	0xbf86f173	-1.0542434
67	0x3e79be89	0.2438909
68	0x3e85cd70	0.261333
69	0xbe2c3040	-0.16815281
70	0xbed7dacd	-0.4215912
71	0xbf46e19c	-0.77688
72	0x3db68cfc	0.089136094
73	0xbff18f1c	-1.8871799
74	0xbf4370a9	-0.7634378
75	0x3e6e2ed9	0.23260058
76	0xbfd26e00	-1.6439819
77	0xbec847a6	-0.39117163
78	0xbf020d18	-0.5080123
79	0xbfc93aa9	-1.5721027
80	0xbfab199d	-1.3367192
81	0xbef0e00b	-0.4704593
82	0xbd951aea	-0.07280524
83	0xbf3a2aea	-0.7272173
84	0xbf2f9afd	-0.6859587
85	0xbc616ee5	-0.0137593495
86	0x3e35446e	0.17701885
87	0xbf8253ff	-1.0181884
88	0x3f7ffac4	0.9999201
89	0xbee38e58	-0.44444537
90	0x3f753f38	0.9579959
91	0xbf3bd5e6	-0.7337326
92	0x3f67a1a4	0.9048102
93	0xbfc0d95c	-1.5066333
94	0xbd77d259	-0.060503338
95	0x3e26ffeb	0.16308562
96	0xbe41784a	-0.18893543
97	0x3e983447	0.29727384
98	0xbf7ce28f	-0.987832
99	0x3f27852d	0.65437585
100	0xbed5c221	-0.4174967
101	0xbf1b6ab5	-0.60709697
102	0x3fb71fab	1.4306539
103	0x3ed423cc	0.4143356
104	0x3e153447	0.14570723
105	0x3f52d62a	0.8235804
106	0x3f0f59d2	0.5599643
107	0xbfc34fc9	-1.5258723
108	0x3eff8b78	0.49911094
109	0xbfd42d53	-1.6576332
110	0x3e0b1b80	0.13584709
111	0xbeb78349	-0.3584235
112	0xbe9cbc2f	-0.30612323
113	0xbf8a16bb	-1.0788187
114	0xbf906e32	-1.1283629
115	0xbf59fa68	-0.85147715
116	0xbf3b9f04	-0.73289514
117	0xbf84e39a	-1.0381958
118	0xbf78d0f4	-0.9719384
119	0xc000fcd3	-2.0154312
120	0xbfbb47d4	-1.4631295
121	0xbbf91f83	-0.0076026334
122	0xbe3f66f8	-0.18691623
123	0x3db8b5be	0.090190396
124	0x3e2c443e	0.16822907
125	0xbc3520ed	-0.011055213
126	0x3df2b284	0.118504554
127	0xbf2df53f	-0.6795234

gnn_node.virtualnode_embedding.weight f4 [1, 128]
0	0xbf0215f6	-0.5081476
1	0xbe01b869	-0.12668003
2	0xbee69dc3	-0.45042238
3	0xbe1656e0	-0.14681578
4	0xbf1fd685	-0.62436706
5	0xbe60cf51	-0.21954085
6	0xbf016c2a	-0.5055567
7	0xbe1e568f	-0.15462707
8	0xbecb8d08	-0.39756036
9	0xbe562dc4	-0.20915896
10	0xbe214bf3	-0.15751629
11	0xbe4c137d	-0.19929309
12	0xbeea5dae	-0.45774597
13	0xbf0726d9	-0.5279365
14	0xbf5cbbe7	-0.86224216
15	0x3bd15816	0.0063886745
16	0xbebf9ce5	-0.3742439
17	0xbea509fd	-0.32234183
18	0x3dc5639f	0.09638142
19	0xbe459880	-0.19296455
20	0xbe8ecb7e	-0.27889627
21	0xbf428b15	-0.7599347
22	0xbf28d422	-0.6594869
23	0xbeeb3aa9	-0.45943192
24	0xbf1958a9	-0.5990091
25	0x3dbb2e51	0.091396935
26	0xbf34421b	-0.7041337
27	0xbefba561	-0.49149612
28	0xbf192180	-0.5981674
29	0xbea62b73	-0.32455024
30	0xbd8f1394	-0.06986156
31	0xbf337940	-0.7010689
32	0xbf12890d	-0.5724037
33	0xbc72e70c	-0.014825594
34	0xbe1ef1a5	-0.15521868
35	0xbf366dc4	-0.7126124
36	0xbe75f470	-0.24019027
37	0xbeb6115c	-0.3556012
38	0xbf1dc188	-0.6162343
39	0xbf11fe1f	-0.57028383
40	0xbe90c0b2	-0.28272015
41	0xbeca9493	-0.39566478
42	0xbeeef1ff	-0.46669003
43	0xbf53b1b9	-0.8269306
44	0xbeaf0dae	-0.34190124
45	0xbe74d29d	-0.23908468
46	0xbb9e34c6	-0.0048280684
47	0xbe97d405	-0.29653946
48	0xbe867598	-0.26261592
49	0x3e54175b	0.20712034
50	0xbec110e9	-0.37708214
51	0x3d4c26dc	0.049841747
52	0xbed9711a	-0.42469102
53	0xbee6c20b	-0.45069918
54	0xbe98c883	-0.29840478
55	0xbf3862ff	-0.72026056
56	0xbef467ff	-0.47735593
57	0xbf4acd66	-0.79219663
58	0xbef85d73	-0.48508796
59	0xbe93a6cb	-0.2883819
60	0xbeadc4b5	-0.33939138
61	0xbddf3d5b	-0.109003745
62	0xbe1e718b	-0.15473
63	0xbeb73b21	-0.357873
64	0xbe562970	-0.20914245
65	0x3e3edf2d	0.18639822
66	0xbe8ea8e7	-0.27863237
67	0x3de9b50a	0.114114836
68	0xbee4efee	-0.44714302
69	0xbf3206a8	-0.69541407
70	0xbf1664bf	-0.58747476
71	0xbe1747e1	-0.14773513
72	0x3cb67a2a	0.02227505
73	0xbf5006e8	-0.8126054
74	0xbec9a114	-0.39380705
75	0xbf0d4517	-0.5518355
76	0xbe63a568	-0.22231066
77	0xbe16d6e8	-0.14730418
78	0xbefd7e57	-0.49510452
79	0xbf18d8d7	-0.5970587
80	0xbf2aaeee	-0.6667317
81	0xbf1acaa5	-0.6046546
82	0xbcdae9cf	-0.026722817
83	0xbd944cb5	-0.07241193
84	0xbec22073	-0.37915382
85	0xbede86b5	-0.43462148
86	0xbefedf0b	-0.49779543
87	0xbe973d28	-0.29538846
88	0xbf56d7e4	-0.8392317
89	0xbf206170	-0.6264868
90	0xbf1e1f2e	-0.61766326
91	0xbe81ee0e	-0.25376934
92	0xbf5c2961	-0.8600064
93	0xbd6ff325	-0.05858149
94	0xbdb92406	-0.09040074
95	0x3d759ced	0.05996411
96	0xbea13e46	-0.31492823
97	0xbeafb3a0	-0.3431673
98	0xbe63ffb4	-0.22265512
99	0xbeb67a7d	-0.35640326
100	0xbeb38207	-0.3506014
101	0xbeca1b6b	-0.39474043
102	0xbf4d9a96	-0.80314004
103	0xbeff0070	-0.4980502
104	0xbeeabac5	-0.4584562
105	0xbe58e6f6	-0.21181855
106	0xbf20f492	-0.62873185
107	0xbe37625b	-0.17908613
108	0xbe074068	-0.13208163
109	0xbf08cafc	-0.5343473
110	0xbd2f2a4c	-0.042764947
111	0xbe1ebf30	-0.1550262
112	0xbecba7c3	-0.3977643
113	0xbeef04e8	-0.4668343
114	0xbeb72456	-0.3576991
115	0xbe91499a	-0.28376466
116	0xbe600cb3	-0.21879844
117	0xbda34205	-0.079715766
118	0xbec521fe	-0.38502496
119	0xbe740dda	-0.23833409
120	0xbf335004	-0.7004397
121	0xbebc682d	-0.3679823
122	0xbe318aa4	-0.17338043
123	0xbe3054e5	-0.17219885
124	0xbf083ead	-0.53220636
125	0xbe98c0fe	-0.2983474
126	0xbd8605b4	-0.065440565
127	0xbf0ca92f	-0.54945654

gnn_node.convs.0.mlp.0.weight f4 [256, 128]
0	0xbf0907ae	-0.53527343
1	0x3db522f0	0.088445544
2	0xbda35873	-0.07975855
3	0x3e35fa5c	0.17771286
4	0xbcd0016a	-0.0253913
5	0xbe80c746	-0.25152034
6	0x3e06dd11	0.13170268
7	0x3f062645	0.52402145
8	0x3db28936	0.08717577
9	0xbdbc08ce	-0.09181367
10	0x3d035cc4	0.03207089
11	0x3ec108ae	0.37701935
12	0x3d83e5e8	0.064403355
13	0xbf28a4e5	-0.6587661
14	0xbe0475db	-0.12935583
15	0x3d78c4ba	0.060734488
16	0xbab0e035	-0.0013494553
17	0x3da29ceb	0.07940086
18	0x3ea1b443	0.3158284
19	0x3f87dcf6	1.0614307
20	0xbd87e1a0	-0.066348314
21	0xbecb59c3	-0.3971692
22	0x3eb8e0a5	0.3610889
23	0xbeb9aab8	-0.3626306
24	0xbc630c5a	-0.013857925
25	0x3dbdb192	0.092623845
26	0x3e8ea3bd	0.27859297
27	0xbd97d589	-0.074137755
28	0x3e2be92a	0.16788164
29	0xbde3fa5b	-0.11131736
30	0xbd9e807b	-0.077393495
31	0x3d15663c	0.03647445
32	0xbdaf8bd0	-0.08571589
33	0x3eceafff	0.4036865
34	0xbe40c42c	-0.18824834
35	0x3e1bc393	0.15211324
36	0x3d606d8a	0.054791965
37	0x3e0dba03	0.13840489
38	0x3e4bc334	0.19898683
39	0x3db98f70	0.09060562
40	0xbaa9f21f	-0.0012965834
41	0x3da2a6b3	0.079419516
42	0xbd690dca	-0.056897916
43	0x3b8ca6fc	0.004292367
44	0x3ff72062	1.9306757
45	0xbc63965d	-0.01389083
46	0x3ea66438	0.32498336
47	0x3ba1b8db	0.0049353666
48	0x3cab1efb	0.020888796
49	0xbdd86487	-0.10566049
50	0xbd0df900	-0.034661293
51	0xbd29624e	-0.041353516
52	0xbee11024	-0.43957627
53	0x3d748bdd	0.059703697
54	0xbf1f16f5	-0.62144405
55	0x3ddfcf1c	0.10928175
56	0x3bcaf837	0.0061941403
57	0xbbe9dbe3	-0.0071368082
58	0x3e8f3de8	0.27976918
59	0xbd605812	-0.05477149
60	0x3d4d5966	0.050134085
61	0xbf28afbe	-0.6589316
62	0xbf08839e	-0.5332583
63	0xbf384573	-0.7198097
64	0x3db2ea42	0.087360874
65	0x3ca58d8f	0.020209102
66	0xbd83a87c	-0.0642862
67	0xbedf9d3a	-0.43674642
68	0x3dc91f67	0.09820443
69	0xbdd674b1	-0.10471476
70	0x3fb918a6	1.4460647
71	0xbbd8ef57	-0.0066203284
72	0xbe77a82a	-0.24185243
73	0x3d261b2d	0.04055326
74	0xbc813263	-0.015771097
75	0xbf20342a	-0.62579596
76	0xbd86478b	-0.065566145
77	0xbe9bc358	-0.30422473
78	0x3ed5d482	0.41763693
79	0x3d5d3f8c	0.05401568
80	0x3d44a328	0.04800716
81	0xbbe65445	-0.0070290887
82	0x3f2b5d86	0.6693958
83	0xbc314c20	-0.010821372
84	0x3d27558c	0.04085307
85	0xbc0dd7af	-0.00865738
86	0xbc305096	-0.010761401
87	0x3e1753dc	0.14778084
88	0x3e98c009	0.2983401
89	0x3e5094f3	0.2036932
90	0x3e2b8d22	0.16753057
91	0xbcdc1e54	-0.02686993
92	0x3d0c6069	0.03427163
93	0x3cdfa14a	0.027298588
94	0x3fe6438b	1.7989362
95	0xbed5a05d	-0.4172391
96	0xb98d06b5	-0.00026898613
97	0x3f1b4621	0.60653883
98	0x3ba38409	0.004990105
99	0xbe02308d	-0.12713833
100	0xbe72bdab	-0.23705165
101	0xbcdb7c1e	-0.026792582
102	0xbebc89a8	-0.36823773
103	0x3c8642b6	0.016389232
104	0x3ed4d1f2	0.41566426
105	0xbe5313ef	-0.20613073
106	0x3e622080	0.2208271
107	0xbd49a2c9	-0.04922751
108	0xbefedb2f	-0.497766
109	0xbd253369	-0.04033223
110	0xbde3e98f	-0.11128532
111	0xbe287506	-0.16450891
112	0x3e4a7633	0.19771652
113	0xbd318093	-0.04333551
114	0xbdbcbdca	-0.09215887
115	0xbfb86427	-1.4405564
116	0xbf1fc3c6	-0.624081
117	0xbe1d48e8	-0.15359843
118	0xbd312f1a	-0.04325781
119	0x3b6df6f1	0.0036310519
120	0xbd8af116	-0.06784265
121	0x3eaa343f	0.33242986
122	0x3e5609d4	0.20902187
123	0x3eebc8fc	0.46051776
124	0x3fb832b3	1.4390472
125	0x3e8fd474	0.28091776
126	0xbee758da	-0.45184976
127	0xbf8fd21b	-1.1235994
128	0xba6b8e36	-0.00089857297
129	0xbd598b92	-0.05311162
130	0xbc9b4be0	-0.018957078
131	0xbeb30949	-0.34968022
132	0x3bf2689b	0.007397724
133	0x3eccbad8	0.399863
134	0xbd9c8dd0	-0.07644236
135	0xbf245493	-0.6419155
136	0xbe13a09f	-0.14416741
137	0x3e8e8929	0.2783902
138	0xbd314009	-0.04327396
139	0x3ef07140	0.46961403
140	0x3baa6b52	0.005200782
141	0xbe37856b	-0.17921989
142	0x3ea564ba	0.3230341
143	0x3e1da622	0.15395406
144	0xbdfaa478	-0.12238401
145	0xbd29c781	-0.041450027
146	0xbd37e860	-0.044899344
147	0xbf65e279	-0.89798695
148	0xbe1eea7f	-0.1551914
149	0x3f0aee24	0.54269624
150	0x3f0adc59	0.54242474
151	0xbf534332	-0.82524407
152	0x3ed5f381	0.4178734
153	0xbdbdda07	-0.09270101
154	0xbf289650	-0.6585436
155	0xbdd73e0b	-0.10509881
156	0x3f3cd90a	0.73768675
157	0xc015e786	-2.342256
158	0x3e9a4939	0.3013399
159	0xbc53499c	-0.012895968
160	0x3d393d70	0.045224607
161	0x3de9a161	0.11407734
162	0xbf5095a8	-0.8147836
163	0x39b44467	0.0003438324
164	0x3c02d83f	0.007986127
165	0xbda6039f	-0.081061594
166	0x3e22182b	0.15829532
167	0x3d5b8549	0.053593908
168	0x3cc32098	0.023819253
169	0xbe8a2c6c	-0.26987016
170	0x3cd39406	0.025827419
171	0xbd848c2c	-0.06472048
172	0xbfc0b464	-1.5055051
173	0x3d8b6ec0	0.06808233
174	0xbf247f6b	-0.64256924
175	0x3d10004f	0.035156544
176	0x3cb68e4b	0.022284647
177	0x3d3dcef8	0.04633996
178	0xbd9cc331	-0.07654417
179	0x3d5df524	0.054188862
180	0xbe5bd5a2	-0.21468213
181	0x3eb0cf0c	0.34532964
182	0xbd0d7eac	-0.03454463
183	0xbec5e828	-0.38653684
184	0xbaef24a1	-0.0018245169
185	0xbd17d015	-0.037063677
186	0x3e31b12f	0.17352746
187	0xbf066ad4	-0.52506757
188	0xbd9d879c	-0.07691881
189	0x3e8501f3	0.2597805
190	0xbcb36899	-0.021900462
191	0x3f83ba72	1.0291274
192	0xbdd54dc4	-0.10415223
193	0xbd3e39fb	-0.046442013
194	0x3d2bd4e3	0.04195107
195	0x3e517e40	0.20458317
196	0xbeda7f3f	-0.42675206
197	0x3e91bb11	0.28463033
198	0xc01dcb22	-2.4655232
199	0xbd614165	-0.054994006
200	0xbfd9ec7f	-1.7025298
201	0x3db8edae	0.09029709
202	0xbd8b71ae	-0.06808792
203	0x3f7203ea	0.9453722
204	0xbb970119	-0.004608285
205	0xbd6ca139	-0.05777094
206	0xbe8591d2	-0.26087815
207	0x3b63c26a	0.003475333
208	0x3bf5393b	0.007483629
209	0x3de933a2	0.11386801
210	0xbf824a3f	-1.0178908
211	0x3d3cdfda	0.04611192
212	0x3cd9da56	0.026593369
213	0xbdbe1a03	-0.09282305
214	0x3c24443c	0.010026034
215	0x3e66490c	0.22488803
216	0xbe6ad329	-0.22932114
217	0x3c12cb39	0.008959585
218	0xbdd55c47	-0.10417991
219	0xbf2d6173	-0.6772682
220	0xbdbe1820	-0.09281945
221	0xbcca11a9	-0.024666624
222	0xbfb31ab8	-1.3992529
223	0xbe385583	-0.1800137
224	0xbf0789ab	-0.5294444
225	0xbf871f76	-1.0556476
226	0xbcef7acb	-0.029233357
227	0x3e99f758	0.3007152
228	0xc0019d5e	-2.02523
229	0x3dc26477	0.094918184
230	0x3cf87e43	0.030333644
231	0x3f14a9b2	0.58071434
232	0x3e2d0269	0.1689545
233	0xbe9105dc	-0.28324783
234	0xbef737a0	-0.48284626
235	0x3d22ef57	0.039779034
236	0xbeef03cb	-0.4668258
237	0x3c8252c6	0.01590861
238	0xbdf74ad9	-0.12074823
239	0x3c9bec10	0.019033462
240	0xbe9c5e9f	-0.3054094
241	0xbc9bfef8	-0.019042477
242	0xbe2e2469	-0.17006077
243	0xbdba2ace	-0.090901956
244	0xbef6c78c	-0.48199117
245	0xbf31d37f	-0.6946334
246	0x3d82ca6a	0.06386264
247	0xbbbbc820	-0.005730644
248	0x3db90d40	0.0903573
249	0xbdf6366a	-0.120220974
250	0xbed33339	-0.41250017
251	0xbf79c854	-0.975713
252	0xc03040fe	-2.7539668
253	0x3f1f54e4	0.6223891
254	0x3ed73a7e	0.42036813
255	0x3edc79f2	0.43061787

gnn_node.convs.0.mlp.0.bias f4 [256]
0	0x3d10e7ed	0.03537743
1	0x3d92dccc	0.0717102
2	0x3c0b9841	0.008520187
3	0x3ca43774	0.020045973
4	0x3c37ff6f	0.011230334
5	0x3dac1578	0.08402532
6	0xbd53db98	-0.051723093
7	0xbd02f6a0	-0.03197348
8	0xbc42813d	-0.011871633
9	0xbc6dc9a8	-0.014513411
10	0x3d1b2cee	0.037884645
11	0xbd908494	-0.07056537
12	0xbd7b56b9	-0.061362002
13	0xbd5be96a	-0.053689398
14	0xbd616105	-0.055024166
15	0xbc63324e	-0.013866974
16	0xbc15bbf9	-0.009139054
17	0xbd76ea0f	-0.06028181
18	0x3d9e9ab6	0.077443525
19	0x3d9ddfad	0.077086784
20	0xbcb02d1c	-0.021505885
21	0xbd73cfbf	-0.059524294
22	0x3ca99248	0.020699635
23	0x3d242f02	0.040083893
24	0x3cc1cdd4	0.023657717
25	0xbd1c7664	-0.038198844
26	0x3d011505	0.031514186
27	0x3ccd5faf	0.02507004
28	0xbc97edae	-0.018545952
29	0xbda71017	-0.08157366
30	0x3daf3d41	0.08556605
31	0x3c216a55	0.009852012
32	0x3d2afc27	0.041744377
33	0xbc42e1e4	-0.011894677
34	0x3cf463f0	0.02983281
35	0xbd58bc4d	-0.052913953
36	0xbc97e5c0	-0.01854217
37	0x3d12cf49	0.035842214
38	0xbc712005	-0.014717107
39	0xbd3f5751	-0.04671413
40	0xbd70ecf2	-0.05881972
41	0xbdbe8baf	-0.09303986
42	0xbd960fa2	-0.073272005
43	0x3d501fbe	0.05081152
44	0x3de409a1	0.11134649
45	0x3b48a737	0.0030617246
46	0xbcbb0a34	-0.022832014
47	0xbda41475	-0.08011714
48	0x3ce97c99	0.028501796
49	0xbb723e0b	-0.003696325
50	0xbdb5aa23	-0.08870342
51	0xbd8953a2	-0.06705405
52	0x3c68052d	0.01416139
53	0x3d854898	0.06507987
54	0xbd70f40b	-0.058826488
55	0xbd08cefc	-0.03340052
56	0x3d508e2b	0.050916832
57	0x3d07c01d	0.033142198
58	0xbd2e42a7	-0.042544033
59	0x3d232dfd	0.03983878
60	0x3c8decfb	0.017324915
61	0xbbc7d38f	-0.006098218
62	0xbd4c0f09	-0.049819026
63	0xbbe0c100	-0.006858945
64	0x3c014fde	0.007892577
65	0xbd50df00	-0.05099392
66	0x3bbc5bec	0.0057482626
67	0x3c8f08d0	0.017460257
68	0x3be83ea9	0.007087548
69	0x3d12573b	0.03572772
70	0x3cccb592	0.024988923
71	0x3d8bbca0	0.06823087
72	0xbb50b43d	-0.0031845712
73	0x3ced322e	0.028954592
74	0xbc386485	-0.0112544345
75	0xbdb0db87	-0.086356215
76	0xbcbd5415	-0.023111382
77	0xbd63763d	-0.055532683
78	0xbd6b161c	-0.057394132
79	0x3c0381e2	0.008026572
80	0x3d863079	0.06552214
81	0xbd6708e0	-0.05640495
82	0xbdafa9cc	-0.08577308
83	0xbccf1ab8	-0.025281295
84	0xbd516d99	-0.05112991
85	0xbd638b86	-0.05555298
86	0x3d7ac9dc	0.061227664
87	0x3cc53682	0.024073843
88	0x3cac3be3	0.02102465
89	0x3d3fd933	0.046837997
90	0xbc8597eb	-0.016307792
91	0x3d26c466	0.040714644
92	0xbd9b9fc9	-0.07598836
93	0xbda2feff	-0.07958793
94	0x3b36825c	0.0027848696
95	0x3d8943b0	0.067023635
96	0xbba6938a	-0.005083506
97	0xbcf1a65e	-0.029498275
98	0xbcd798be	-0.02631795
99	0xbd87c21d	-0.06628821
100	0xbd93e39a	-0.07221146
101	0x3d8121e6	0.06305294
102	0xbd515ba0	-0.05111277
103	0x3cc2ec5e	0.02379435
104	0x3d94d4e0	0.07267165
105	0xbd6dd8a7	-0.058067944
106	0xbcb8f6b0	-0.022578567
107	0x3c97b50e	0.01851895
108	0x3d1772e8	0.036974818
109	0xbd28b7ec	-0.041191027
110	0xbbc5d029	-0.0060367775
111	0x3d5f261e	0.05447971
112	0x3ce146ac	0.02749952
113	0x3d32274e	0.043494515
114	0x3ce6bd8d	0.028166557
115	0xbd956133	-0.0729393
116	0x3d5b3d3c	0.053525195
117	0x3d33f7f1	0.043937627
118	0xbd3e6c52	-0.04649002
119	0x3dab711b	0.083711825
120	0x3ccd0f1e	0.025031622
121	0x3d0c5452	0.0342601
122	0xbce9954f	-0.028513579
123	0x3d438e8c	0.047743365
124	0xbda6ef68	-0.08151132
125	0xbd8149fb	-0.06312939
126	0x3d0b1f87	0.033965614
127	0x3c21febf	0.009887396
128	0x3cd8be34	0.026457883
129	0xbc367907	-0.011137254
130	0x3d4109ef	0.047128614
131	0xbdab9466	-0.08377914
132	0xbdbfc69d	-0.09364054
133	0x3d14cf32	0.03633041
134	0xbd1e499b	-0.038644414
135	0x3d9623d6	0.07331054
136	0x3c81ca8e	0.015843656
137	0xbd91728c	-0.07101926
138	0x3c3a5381	0.011372448
139	0x3ca01cb4	0.019544937
140	0xbd4731ef	-0.048631605
141	0x3d95165f	0.072796576
142	0xbd9e74f5	-0.077371515
143	0x3d8151d0	0.063144326
144	0x3cc60bdf	0.024175582
145	0x3d3c72e2	0.046008
146	0x3d86ca57	0.06581562
147	0xbcae3b53	-0.021268522
148	0x3d43abd3	0.047771286
149	0x3d9097be	0.070601925
150	0x3ce9706a	0.028495986
151	0xbb96d644	-0.004603179
152	0x3d8eaaef	0.06966197
153	0xbd1dc26a	-0.038515486
154	0x3c917cb9	0.017759668
155	0x3d77247b	0.060337525
156	0xbd6639fd	-0.056207646
157	0xbd444fd1	-0.04792768
158	0xbcbc67bc	-0.022998683
159	0x3d09e0a8	0.033661515
160	0x3d92049a	0.07129784
161	0xbcdb27be	-0.026752349
162	0xbc693487	-0.014233715
163	0x3d9303be	0.07178448
164	0x3d7d4f56	0.06184324
165	0x3d1c5710	0.038168967
166	0x3d6dfed9	0.05810437
167	0xbd300a15	-0.042978365
168	0xbd4dc8ef	-0.050240453
169	0x3d836fd2	0.064178124
170	0x3d9db7a3	0.077010415
171	0x3daaf3bc	0.0834727
172	0xbd202f46	-0.039107583
173	0x3c460dd8	0.012088262
174	0x3d636783	0.05551864
175	0x3da5004a	0.08056696
176	0xbd970dd5	-0.07375685
177	0x3d0918fc	0.033471093
178	0x3d7aca59	0.06122813
179	0xbb6b7082	-0.0035925214
180	0xbd925953	-0.071459435
181	0x3daf74c0	0.0856719
182	0xbc8617b2	-0.01636872
183	0xbd17ed35	-0.037091453
184	0xbd2a5d07	-0.041592624
185	0x3d114fb0	0.035476387
186	0x3c89f6bd	0.016841287
187	0xbd17c504	-0.037053123
188	0xbbc50e07	-0.006013635
189	0xbc718d10	-0.014743105
190	0x3d73289a	0.059364893
191	0xbdabd494	-0.083901554
192	0x3d5d2443	0.05398966
193	0xbd414bd7	-0.047191467
194	0x3cc3d5c1	0.023905637
195	0xbd6f1afe	-0.05837535
196	0x3dd302a1	0.10303236
197	0xba29b53f	-0.0006473846
198	0x3c93b07e	0.018028494
199	0x3d74efc3	0.059798967
200	0xbd84dac6	-0.0648704
201	0xbd2a47f5	-0.04157253
202	0x3db7f751	0.08982719
203	0x3da68112	0.08130087
204	0xbd6d30bf	-0.057907816
205	0xbd5bd120	-0.053666234
206	0xbd1dcef4	-0.038527444
207	0xbc28fd5f	-0.010314315
208	0x3cc52a75	0.024068097
209	0xbd7833d8	-0.060596317
210	0xbdd6a1f4	-0.10480109
211	0xbd3f888e	-0.046761088
212	0xbd84cdbc	-0.06484553
213	0xbe102464	-0.14076382
214	0xbd3fb981	-0.04680777
215	0x3cdba0cb	0.02681007
216	0x3d54d228	0.051958233
217	0x3d54b30b	0.05192856
218	0xbd8565b6	-0.065135404
219	0x3d01f23e	0.03172516
220	0xbc8b2c87	-0.016989006
221	0x3db4a833	0.08821144
222	0x3d8ccf18	0.068754375
223	0x3da95f32	0.0827011
224	0xbd45687c	-0.048195347
225	0xbd5d16d3	-0.053976845
226	0xbc96dcf2	-0.018415902
227	0x3d6777b9	0.05651066
228	0xbd245a3e	-0.040125124
229	0xbd115578	-0.0354819
230	0xbcfdb842	-0.03097165
231	0xbd8b2155	-0.06793467
232	0xbc83175d	-0.016002351
233	0xbd8b8171	-0.06811798
234	0x3d4318e1	0.04763115
235	0xbc126b16	-0.008936664
236	0xbd7c5038	-0.06159994
237	0x3d07bf72	0.03314156
238	0xbd1bfab7	-0.038080897
239	0xbdb17739	-0.08665318
240	0x3c92a526	0.017901015
241	0x3d0b673e	0.034034006
242	0xbd05d1c9	-0.03267077
243	0xbd626030	-0.055267513
244	0xbc281665	-0.0102592455
245	0xbc9ddd38	-0.019270524
246	0xbc1ec752	-0.009691076
247	0x3d6b0cc2	0.057385214
248	0x3d1d44be	0.038395636
249	0xbd7f2d1b	-0.062298875
250	0xbcafd8a0	-0.0214656
251	0xba7eebd5	-0.0009724473
252	0x3d9c9add	0.07646725
253	0xbcaaa810	-0.020832092
254	0xbd38b2c5	-0.045092363
255	0x3d9416eb	0.07230934

gnn_node.convs.0.mlp.1.weight f4 [256]
0	0x3ec542b3	0.3852745
1	0x3fd46b50	1.6595249
2	0x3fd161c5	1.6357962
3	0x3f93582e	1.1511285
4	0xbbc7da46	-0.0060990183
5	0xbbc0e5b6	-0.0058867587
6	0x3f50a585	0.8150256
7	0x3f48f5a9	0.7849985
8	0x3ff22e53	1.8920387
9	0x3f17191e	0.590227
10	0x3caedd8b	0.021345874
11	0xbac10288	-0.0014725486
12	0x3f61c3e5	0.88189536
13	0x3fc98fdf	1.5747031
14	0x3fa209c7	1.2659234
15	0x3faf37ab	1.3688864
16	0x3fbd067e	1.4767606
17	0x3ee2a867	0.44269106
18	0x3fd258ed	1.6433388
19	0x3fcd2c8e	1.6029222
20	0x3fa73baf	1.3065089
21	0x3f3aee8e	0.73020256
22	0x3fd3349c	1.650043
23	0x3f8f21aa	1.1182148
24	0x3f8ae997	1.0852536
25	0x403c768c	2.9447355
26	0x3f9ebaa3	1.2400707
27	0x3f7912b0	0.9729414
28	0x3f5eb269	0.8699098
29	0x3cb4b734	0.022060014
30	0x3fb744c3	1.431786
31	0x3ff5d0b8	1.9204321
32	0x3fbb21de	1.461971
33	0x3f9bd28a	1.2173626
34	0x3fd3344c	1.6500335
35	0x3fc14054	1.5097756
36	0x3f8f0cb0	1.1175747
37	0x3e463fef	0.19360326
38	0xbc74b76b	-0.014936308
39	0x3fdbb997	1.7166013
40	0x3f81998c	1.0124984
41	0x3ffa4859	1.9553329
42	0x3f9031da	1.1265213
43	0x3f26fbe3	0.652281
44	0x3f8136aa	1.0094807
45	0x3f6dc231	0.9287444
46	0x3bc7c5d9	0.0060965833
47	0x3fae790b	1.3630689
48	0x3fb743b7	1.431754
49	0x3f856e0b	1.0424207
50	0x40060968	2.094324
51	0x3f8cd398	1.1002073
52	0x3fbc0495	1.4688898
53	0x3fded125	1.7407576
54	0x3f4d07b0	0.80089855
55	0x3fa3071b	1.2736543
56	0x3fa1e807	1.2648934
57	0x3e6e0b85	0.23246582
58	0x3fad4297	1.3535947
59	0x3fca764f	1.5817355
60	0x3f7b1b49	0.9808851
61	0xbd3fb991	-0.04680783
62	0x3fb88542	1.4415667
63	0x3f5b4ea5	0.8566688
64	0x3f90169e	1.1256902
65	0x3fa8af33	1.3178467
66	0x3feaba86	1.8338172
67	0x3efe8a37	0.49714825
68	0x3e08e2f8	0.13367832
69	0x3e35f5d1	0.17769553
70	0x3f858c5a	1.0433457
71	0x3f7743a3	0.9658758
72	0x3f43d951	0.76503474
73	0x3ee4f3c6	0.44717234
74	0x3fa0eff6	1.257323
75	0x3f5d50dd	0.8645151
76	0x3f9d1edf	1.2275046
77	0x3fce2711	1.6105672
78	0x3f89fd0b	1.0780348
79	0x3fad12e1	1.3521386
80	0x3ef4ba1e	0.47798246
81	0x3fb1417f	1.3848113
82	0x3feab74a	1.8337185
83	0x3edf8b6c	0.43661058
84	0x3fab8747	1.3400658
85	0x3fa92c43	1.3216633
86	0x3f309a6b	0.68985623
87	0x3fb24d9d	1.3929936
88	0x3f0d95b2	0.5530654
89	0x3f7331e8	0.94998026
90	0x3fa36c6e	1.2767465
91	0x3faf121e	1.3677404
92	0x3f0eee33	0.55832213
93	0x3f5c930d	0.8616188
94	0x3ff76a1f	1.932926
95	0x3fd3a1bf	1.6533736
96	0x3fab57e1	1.3386194
97	0x3ecd6980	0.40119553
98	0x3fb84ab2	1.4397795
99	0x3fb6f701	1.429413
100	0x3f834e04	1.0258183
101	0x3f8b737f	1.0894622
102	0x3fa31163	1.2739681
103	0x3fa6301b	1.2983431
104	0x3fcdaa9b	1.606769
105	0x3f7a27d8	0.97717047
106	0x3ff8fbfb	1.9451898
107	0x3cb86b5f	0.022512136
108	0x3f4c05c8	0.7969632
109	0x3f21ec78	0.6325145
110	0x3fb1de77	1.3896016
111	0x3f7d7f60	0.99022484
112	0x3f79b24f	0.975377
113	0x3fa45feb	1.2841772
114	0x3ff3276b	1.8996404
115	0x3f7d380a	0.98913634
116	0x3f7d4cf9	0.98945576
117	0x3e532c02	0.20622256
118	0x3f213d12	0.6298381
119	0x3fac16d7	1.344447
120	0x3e178fed	0.14800997
121	0x3ffaf362	1.9605525
122	0x3f9b845a	1.2149765
123	0x3f73b9e7	0.9520554
124	0x3fc507c7	1.5392998
125	0x3f697bcf	0.9120454
126	0x3ecf2009	0.40454128
127	0x3f92a099	1.145526
128	0x3fb990a7	1.4497269
129	0xbbcf745c	-0.00633101
130	0x3fdc31e1	1.7202722
131	0x3e0a0dcf	0.1348183
132	0x3fa3273a	1.2746346
133	0x3f6d837d	0.9277876
134	0x3f2ee53f	0.6831855
135	0x3ee0afbc	0.43884075
136	0x3ff77d2e	1.9335077
137	0xbd41a212	-0.047273703
138	0x3fb56d93	1.4174064
139	0x3f3d1dd2	0.7387363
140	0x3ee96888	0.45587564
141	0x3f23cf7b	0.63988465
142	0x3f738bfb	0.9513547
143	0x3f958994	1.168261
144	0x3f83f75a	1.0309861
145	0x3f681b08	0.90666246
146	0x3fb38c66	1.4027221
147	0x3ec88aa3	0.3916827
148	0x3f9b5e4f	1.2138156
149	0x400bc052	2.1836133
150	0x3fc37515	1.5270106
151	0x3fad7562	1.3551447
152	0x3e0965e5	0.13417776
153	0x3f3c117d	0.73464185
154	0x3bad1f07	0.0052832398
155	0x3f89f6e9	1.0778476
156	0x3fb56379	1.4170982
157	0x3f528b3f	0.8224372
158	0x3f65380b	0.8953864
159	0x3f9453f1	1.1588117
160	0x3efcc427	0.49368402
161	0x3f7c5c84	0.9857867
162	0x3f715825	0.9427512
163	0x3f4fddd6	0.8119787
164	0x3fc78bf7	1.5589589
165	0x3f45bd0d	0.77241594
166	0x3fa38718	1.2775602
167	0x3fd1c84d	1.6389252
168	0x3f8d4222	1.1035807
169	0x3f61839d	0.8809145
170	0x3e565ce9	0.2093388
171	0x3fc0c8e1	1.5061303
172	0x3f05250f	0.5200967
173	0x3fa6bbdb	1.3026079
174	0x3e97f054	0.29675543
175	0x3f4520c5	0.7700313
176	0x3fa8a9d1	1.3176824
177	0x3f88aa30	1.0676937
178	0x3f02d87c	0.5111158
179	0x3fb89b6c	1.4422431
180	0x3fc1e969	1.5149356
181	0xbdadd8cc	-0.08488616
182	0x3fad6eea	1.3549473
183	0x3f8acb55	1.0843302
184	0x3feb73f1	1.8394758
185	0x3f30039d	0.68755513
186	0x3f906140	1.1279678
187	0x3de55e02	0.11199571
188	0x3f96da88	1.178544
189	0x3fb7e4fb	1.4366754
190	0x3fa18f06	1.2621772
191	0x3ef99b9f	0.48751542
192	0x3f8b717f	1.0894011
193	0x3f9aaae2	1.2083399
194	0x3fa303b5	1.2735506
195	0x3fcc17a6	1.5944717
196	0x3fe66c63	1.8001827
197	0x3fb485d6	1.4103343
198	0x3fb88bf5	1.4417711
199	0x3f830a8d	1.0237595
200	0x401789e5	2.3677914
201	0x3f949146	1.1606834
202	0x3fe0b438	1.7554998
203	0x3ecb6b2d	0.39730206
204	0x3f68dba0	0.9096012
205	0x3b921d00	0.0044590235
206	0x3fa5071a	1.2892792
207	0x3fd8dcbd	1.6942364
208	0x3be6785b	0.0070333905
209	0x3fcf46b1	1.6193448
210	0x3f6f1a63	0.9339964
211	0x3fa761ad	1.3076683
212	0x3f96a858	1.1770124
213	0x3fa43f3f	1.2831801
214	0x3f9384eb	1.1524938
215	0x3fcbb505	1.5914618
216	0x3f53f894	0.82801175
217	0x3fc5e0ee	1.5459268
218	0x3f80b01a	1.0053742
219	0x3f56f1e0	0.8396282
220	0x3e1e6c1b	0.15470926
221	0x3ed0463a	0.4067858
222	0x3f9d2106	1.2275703
223	0x3fb9367d	1.4469754
224	0x3fb0bc75	1.3807513
225	0x3a0a16b0	0.0005267663
226	0x3fa60546	1.2970359
227	0x3f4d25c6	0.8013576
228	0x3fc68443	1.5509113
229	0x3f389e36	0.7211641
230	0x3f9b7106	1.2143867
231	0x3fab82d7	1.3399304
232	0x3cfb9b07	0.030713571
233	0x3fcbb72c	1.5915275
234	0x3fbb5c88	1.4637613
235	0x3f379be2	0.71722233
236	0x3fcbb82a	1.5915577
237	0x3ff2723b	1.894111
238	0x3f891bc5	1.07116
239	0x3f986778	1.1906576
240	0x3f4a815b	0.7910363
241	0x3f9cf4d0	1.2262211
242	0x3e305a64	0.17221981
243	0x3f607a80	0.8768692
244	0x3f880a5a	1.0628159
245	0x3ed11cdc	0.4084233
246	0x3fbc574a	1.4714139
247	0x3f49ff4d	0.78905183
248	0x3ec56cd6	0.38559598
249	0x4002da33	2.0445678
250	0x3fafe5df	1.3742026
251	0x3f3ad5c0	0.72982407
252	0x3f2ee2cb	0.6831481
253	0x3fb2f972	1.3982375
254	0x3b596683	0.0033172674
255	0x3fe868c0	1.8156967

gnn_node.convs.0.mlp.1.bias f4 [256]
0	0x3c3c76ed	0.0115029635
1	0xbee63e5b	-0.44969448
2	0xbe52bb3c	-0.20579237
3	0xbe5a9604	-0.21346289
4	0x3dfbef77	0.12301534
5	0x3f36f736	0.71470964
6	0xbf0cc098	-0.54981375
7	0xbf1dab80	-0.61589813
8	0x3d1cb3b9	0.038257334
9	0xbf771e2e	-0.96530426
10	0xbeec873f	-0.46196935
11	0x3f52e313	0.8237774
12	0xbeb2fe77	-0.34959766
13	0xbebd7760	-0.37005138
14	0xbd634764	-0.055488005
15	0xbdc6beee	-0.09704386
16	0xbe84fb8a	-0.2597316
17	0xbfab128f	-1.3365039
18	0xbefc6755	-0.49297586
19	0xbeead4cd	-0.4586548
20	0xbf191e82	-0.59812176
21	0x3f332602	0.6997987
22	0xbf04cf92	-0.5187923
23	0xbf8ddfcf	-1.1083926
24	0xbf44bb35	-0.76848155
25	0xbdd742aa	-0.10510762
26	0x3ea73183	0.32654962
27	0xbed0621e	-0.40699857
28	0x3d9ce099	0.07660026
29	0xbe0272a8	-0.1273905
30	0xbebb76f5	-0.36614195
31	0xbe37cad1	-0.17948462
32	0x3efc853b	0.49320397
33	0xbf0ad36a	-0.5422884
34	0xbd159b50	-0.03652507
35	0xbf18574c	-0.59508204
36	0xbeeecc31	-0.4664016
37	0xbed527f3	-0.4163204
38	0x3f218e7d	0.63108045
39	0xbf0f1edf	-0.5590648
40	0xbe82673a	-0.2546938
41	0x3e49c119	0.19702567
42	0xbedef17e	-0.4354362
43	0xbebb6c96	-0.36606282
44	0xbfb36acb	-1.4016966
45	0xbecdc363	-0.4018813
46	0xbdefcf3f	-0.11709451
47	0xbe1f09fa	-0.1553115
48	0xbea09167	-0.31360933
49	0x3c915a4d	0.017743254
50	0xbf22c678	-0.6358409
51	0xbf10225c	-0.5630243
52	0xbf089563	-0.53352946
53	0xbec708de	-0.38873953
54	0xbf524f81	-0.82152563
55	0xbf18ef1c	-0.5973985
56	0xbe878de4	-0.2647544
57	0xbf1d9f4a	-0.6157118
58	0xbf29065b	-0.6602532
59	0xbf2881b4	-0.6582291
60	0xbe892c31	-0.26791528
61	0xbe022066	-0.12707672
62	0xbe8d333c	-0.2757815
63	0xbecf693d	-0.40509978
64	0xbee859eb	-0.45381102
65	0xbe7c058f	-0.24611495
66	0xbe2cd0ee	-0.16876575
67	0xbfbd2e77	-1.4779805
68	0xbdb0f286	-0.08640008
69	0xbe259a93	-0.16172247
70	0xbe9caec8	-0.30602098
71	0xbe8aac74	-0.27084696
72	0xbf8248be	-1.0178449
73	0xbeee4efb	-0.46544632
74	0xbebe8982	-0.37214285
75	0xbedffd45	-0.43747917
76	0xbeaf7f3b	-0.34276757
77	0xbf26b724	-0.651232
78	0x3ecd420c	0.40089452
79	0xbdbfd41d	-0.09366629
80	0xbeb73dcf	-0.35789344
81	0xbeb6cc97	-0.35702965
82	0xbeef81c0	-0.4677868
83	0xbed5441a	-0.4165352
84	0xbe99c98d	-0.30036584
85	0xbe6f1140	-0.23346424
86	0xbf1af0c8	-0.60523653
87	0xbf28acb2	-0.6588851
88	0xbf13e71f	-0.5777454
89	0xbf12cfe3	-0.5734846
90	0xbe8eda5b	-0.27900967
91	0xbe85fb2f	-0.261682
92	0x3dc61297	0.096715145
93	0xbedb1fc3	-0.4279767
94	0xbeb3f7f6	-0.35150117
95	0xbeadcdeb	-0.33946165
96	0xbf276475	-0.6538766
97	0x3e861089	0.2618449
98	0xbefd846e	-0.49515098
99	0xbeafc90a	-0.34333068
100	0xbe2be5dc	-0.16786903
101	0xbeb099aa	-0.34492236
102	0xbe8ec247	-0.27882597
103	0xbeaf2133	-0.34205016
104	0xbf0cab4e	-0.5494889
105	0xbec796e2	-0.38982302
106	0xbf1e6e0d	-0.61886674
107	0xbe9e63be	-0.30935472
108	0xbdfd4fd4	-0.12368742
109	0xbe847c66	-0.25876158
110	0xbf0a1cf2	-0.5395042
111	0xbf106055	-0.5639699
112	0xbe1a01c5	-0.15039738
113	0xbc5debb4	-0.013544966
114	0xbefd5a6f	-0.49483058
115	0xbf07fc28	-0.53119135
116	0xbf0289fc	-0.509918
117	0xbe62fdf0	-0.22167182
118	0xbdb05855	-0.08610598
119	0xbf39ae0e	-0.7253121
120	0xbe8f1dc8	-0.2795241
121	0xbb4f6aaa	-0.003164927
122	0x3e13521f	0.14386795
123	0xbe9f5d2e	-0.31125778
124	0xbef276f1	-0.4735637
125	0xbe6659ea	-0.22495237
126	0xbf8c85dd	-1.0978352
127	0xbf8441c4	-1.033257
128	0xbf27adf3	-0.654998
129	0x3e986cd6	0.29770535
130	0xbefae603	-0.4900361
131	0xbe3092ab	-0.1724345
132	0x3da7ff40	0.08202982
133	0xbe899218	-0.26869273
134	0xbf638691	-0.8887721
135	0xbea607ba	-0.3242777
136	0xbe49f2dc	-0.1972155
137	0x3e2bf5be	0.16792962
138	0xbf05b66f	-0.52231497
139	0xbe8997c6	-0.26873606
140	0xbe21c022	-0.15795949
141	0xbf8d9bb2	-1.106314
142	0xbe065598	-0.13118589
143	0xbe839561	-0.25699905
144	0xbefcca4b	-0.49373087
145	0xbebf56d4	-0.37370932
146	0x3e40c752	0.18826035
147	0x3cd91009	0.026496904
148	0xbd2b3abf	-0.04180407
149	0x3ddd81a2	0.10815741
150	0xbe6ff226	-0.23432216
151	0xbe1467b8	-0.1449269
152	0xbf2f3394	-0.68438077
153	0xbe65b27c	-0.22431368
154	0x3e9fe057	0.31225845
155	0xbe6ebc33	-0.2331398
156	0xbf3e6438	-0.7437167
157	0xbecdae12	-0.40171868
158	0x3e209bbb	0.15684406
159	0xbee5d1cb	-0.44886622
160	0xbf812ec0	-1.0092392
161	0xbece6f1f	-0.40319154
162	0xbea78757	-0.32720444
163	0xbefce23e	-0.4939136
164	0xbee5ebeb	-0.44906554
165	0xbdd9cda7	-0.10634928
166	0xbeca6440	-0.3952961
167	0x3d2be5ed	0.04196732
168	0xbdea7423	-0.114479326
169	0xbef921e4	-0.4865867
170	0xbde54430	-0.11194646
171	0xbee20f85	-0.44152465
172	0xbe55c6b1	-0.20876576
173	0xbef3b924	-0.4760219
174	0xbe11ffef	-0.14257787
175	0xbe6ec8f7	-0.2331885
176	0xbf1d70de	-0.61500347
177	0xbe017cef	-0.12645315
178	0xbfd2a619	-1.6456939
179	0xbf1e1232	-0.61746514
180	0xbef9f238	-0.4881761
181	0xbf46c505	-0.7764438
182	0x3e65e8de	0.22452113
183	0xbf2130da	-0.62965167
184	0xbeed3e60	-0.4633665
185	0xbf1dea97	-0.6168608
186	0x3eb9435e	0.3618421
187	0x3def4ad7	0.116841964
188	0xbf0d19e9	-0.5511766
189	0xbeba43f9	-0.36379984
190	0xbef22314	-0.47292387
191	0xbeef26f5	-0.4670941
192	0xbef923c7	-0.48660108
193	0xbf12a417	-0.5728163
194	0xbed6ada8	-0.41929364
195	0xbee5d018	-0.44885325
196	0xbe9e40bd	-0.30908766
197	0xbefdb534	-0.4955231
198	0xbf03ea2f	-0.5152921
199	0xbf6bc613	-0.9209911
200	0xbea28357	-0.3174083
201	0xbecdb7de	-0.40179342
202	0xbea695a1	-0.32536033
203	0xbfc595a6	-1.5436294
204	0xbf539d54	-0.8266194
205	0x3f0b8ffa	0.54516566
206	0xbe208869	-0.15677036
207	0xbe30c873	-0.17263965
208	0x3eca8497	0.39554283
209	0xbe7b0aa4	-0.24515778
210	0xbf1300cd	-0.57423097
211	0xbf20bf32	-0.6279174
212	0xbeebb9dc	-0.46040237
213	0xbea8834b	-0.3291267
214	0xbf1821de	-0.5942668
215	0xbebd3294	-0.3695265
216	0x3eb056bb	0.3444117
217	0xbf1f42bd	-0.6221121
218	0xbf0ad8ff	-0.5423736
219	0xbfcf9fad	-1.6220604
220	0xbe2fa3dc	-0.17152351
221	0xbfbb2268	-1.4619875
222	0xbe4496d5	-0.19198163
223	0xbf0abc56	-0.5419363
224	0xbd0b177c	-0.033957943
225	0x3f11a031	0.5688506
226	0xbf020bff	-0.50799555
227	0xbe44ce25	-0.19219263
228	0xbe3a8d80	-0.1821804
229	0xbeba8ef6	-0.36437196
230	0xbeba1a6f	-0.36348292
231	0x3c1b4778	0.009477489
232	0x3d69e1e9	0.05710021
233	0xbed3de6c	-0.41380632
234	0xbd543f89	-0.051818404
235	0x3df0342b	0.117287
236	0xbecd12be	-0.40053362
237	0xbe42d025	-0.19024713
238	0xbef17c9d	-0.47165385
239	0xbf5e34c0	-0.8679924
240	0xbfb8e6a0	-1.4445381
241	0x3d0e8a3f	0.03479981
242	0xbf387514	-0.7205365
243	0x3bf5209a	0.007480693
244	0x3c20f162	0.009823175
245	0x3c9c2908	0.019062534
246	0xbf190936	-0.5977968
247	0xbf1464e1	-0.5796643
248	0xbe50967c	-0.20369905
249	0xbe89b250	-0.26893854
250	0xbee596b2	-0.44841534
251	0xbd639b5d	-0.055568088
252	0x3c933d46	0.017973553
253	0xbf082452	-0.5318042
254	0xbdbc0429	-0.09180481
255	0xbed6e2e0	-0.41969967

gnn_node.convs.0.mlp.1.running_mean f4 [256]
0	0x413134ec	11.07542
1	0x41332ca6	11.1984005
2	0x404ab1d7	3.1671045
3	0x418723d9	16.892504
4	0xbf68b269	-0.9089723
5	0x418a3cb6	17.279644
6	0x41b212c8	22.25917
7	0xbf9b3020	-1.2124062
8	0x409ca731	4.895409
9	0xc1cd8dc1	-25.694216
10	0xbec41f50	-0.3830514
11	0x40987afc	4.7650127
12	0x4153bd90	13.23378
13	0x40dffe30	6.9997787
14	0x4217c2ca	37.940224
15	0x41eda8da	29.707447
16	0xc1fa8ae7	-31.317823
17	0x3d57fab0	0.05272931
18	0x41439777	12.224479
19	0xc10bea26	-8.744665
20	0x4196e035	18.859476
21	0x4019c483	2.4026191
22	0x40b69551	5.705727
23	0xbf33e884	-0.70276666
24	0x41366d14	11.40163
25	0xc09998dd	-4.79991
26	0xc1b03845	-22.027475
27	0x412f1fc6	10.945257
28	0xc11add22	-9.6789875
29	0xbfb84b95	-1.4398066
30	0x41057802	8.341799
31	0x4104d4c3	8.301944
32	0x40b02700	5.5047607
33	0x41876509	16.924334
34	0xbb3437ed	-0.0027499155
35	0x40e8743e	7.2641897
36	0x409b7ff2	4.8593683
37	0xc1689875	-14.537221
38	0x40b4815b	5.6407905
39	0x40ccaa9d	6.395827
40	0xc0b951aa	-5.7912188
41	0xc1f80e2e	-31.006924
42	0xc1125318	-9.145287
43	0xc17b0266	-15.688086
44	0x41d1b298	26.212204
45	0xc07b2905	-3.9243786
46	0x40317129	2.7725317
47	0x4095a302	4.6761484
48	0x4105a54c	8.352856
49	0x40c02378	6.0043297
50	0xc12b1e01	-10.694825
51	0x3f8488bc	1.0354228
52	0x4105835e	8.344572
53	0xc0d918b4	-6.7842655
54	0x412c7085	10.777471
55	0x41527611	13.153825
56	0xc12935fc	-10.57568
57	0xc0e618d7	-7.190532
58	0xc1e778d0	-28.93399
59	0xc0169d4f	-2.3533514
60	0xc110867b	-9.032832
61	0x406b7757	3.679159
62	0x3f8f80bb	1.121116
63	0x3e6e87b0	0.23293948
64	0x3f9eb5f3	1.2399276
65	0xc1ba0264	-23.251167
66	0x41bcf171	23.617891
67	0xc0b8634c	-5.762121
68	0x41443e06	12.265142
69	0xc0afcbab	-5.493612
70	0x4130817e	11.031614
71	0x4030825f	2.7579572
72	0x418ac347	17.34535
73	0xbfc00bd0	-1.5003605
74	0x4184ad47	16.584608
75	0xc0af0400	-5.4692383
76	0xc18f4d20	-17.912659
77	0x4158ca98	13.549461
78	0x42023ad5	32.557453
79	0xc20f9505	-35.895527
80	0x3f6c5f26	0.92332685
81	0x41a8c266	21.094921
82	0x418b852d	17.440027
83	0xbfd88bc0	-1.6917648
84	0x3fa35b59	1.2762252
85	0x41b34a38	22.41124
86	0xc0175f2a	-2.3651834
87	0x41114fa6	9.081945
88	0x41326c50	11.1514435
89	0xc10b0fde	-8.691374
90	0xbf89e629	-1.0773364
91	0xc0054f6b	-2.0829723
92	0x4114ad80	9.292358
93	0xc083efa3	-4.1230025
94	0x412f642d	10.961957
95	0xc148513b	-12.519832
96	0x40e0bcb3	7.0230346
97	0x41b1d28d	22.227808
98	0xc0ade041	-5.4336247
99	0x418895a1	17.073061
100	0xc1f17061	-30.179873
101	0x40447dd1	3.0701792
102	0x40d45711	6.635628
103	0xc11ba7aa	-9.728434
104	0x40fe7d6a	7.9528093
105	0x40ff1270	7.9710007
106	0x419d6bb8	19.677597
107	0x3fd0cadc	1.6311908
108	0xc1682065	-14.507909
109	0xc19f0661	-19.878115
110	0x3fbe47c4	1.4865651
111	0xc0a528d5	-5.1612344
112	0x410c681f	8.77542
113	0x41084d72	8.518908
114	0x40d568a7	6.669025
115	0x41715b48	15.084785
116	0xc1b8c7f7	-23.09764
117	0x40b5cdd0	5.6813736
118	0xc07780ed	-3.867244
119	0x419e518a	19.789814
120	0xc13d2625	-11.821813
121	0xc001f42d	-2.0305283
122	0x3f892843	1.0715412
123	0xc1ca672c	-25.300377
124	0xc0cc5b7d	-6.386168
125	0xc1a5c550	-20.721344
126	0x41683a1a	14.514185
127	0x4189ab83	17.208746
128	0x4066d832	3.6069455
129	0x3f535ca5	0.8256324
130	0x3f82d513	1.0221275
131	0xc05dfd4c	-3.468585
132	0xc0856355	-4.1683755
133	0xc1936013	-18.421911
134	0xc1dd8b9e	-27.693172
135	0xc06659e5	-3.5992367
136	0xc0d451eb	-6.6349998
137	0x4100b044	8.043034
138	0x416efe5b	14.9370985
139	0xc140ceae	-12.050459
140	0xc190c7c0	-18.097534
141	0xc19bf268	-19.493362
142	0x4111abf5	9.104482
143	0xc1686c89	-14.526498
144	0xc0cb3d6f	-6.351249
145	0xc0a3eb36	-5.1224623
146	0x41c37780	24.43335
147	0x413af096	11.683737
148	0xc12a8624	-10.657749
149	0xc17357d5	-15.208943
150	0x4154025c	13.250576
151	0x410ceef6	8.80834
152	0x403e42a0	2.9728165
153	0x4101acff	8.104735
154	0xbfbecd16	-1.4906337
155	0x4133169b	11.193019
156	0xc0a968a6	-5.2940245
157	0xc12bf211	-10.746598
158	0x40cc1900	6.3780518
159	0xc1228e0e	-10.159681
160	0x410d39f7	8.826652
161	0x414bcad1	12.737016
162	0xbfa07762	-1.2536433
163	0xc116c704	-9.423588
164	0x4093eeac	4.6228848
165	0x41529ce4	13.163303
166	0x409ac890	4.8369827
167	0xc12c4683	-10.767215
168	0x41227bfd	10.155271
169	0xc0bc3f72	-5.882745
170	0x401a9216	2.4151664
171	0xc11da1e9	-9.852029
172	0xc0aa546e	-5.3228064
173	0xc0830aa1	-4.0950475
174	0x41406475	12.024526
175	0xc131447b	-11.079219
176	0xc03c2f11	-2.9403727
177	0x410f42a7	8.953773
178	0xc0f9a028	-7.8008003
179	0xc0193944	-2.3941202
180	0xbfda0e1b	-1.7035555
181	0x4115894c	9.34602
182	0xc0c4b360	-6.1468964
183	0x41974bc4	18.911995
184	0xc1216ab0	-10.088547
185	0x4196847a	18.814686
186	0x41a5944a	20.697407
187	0x4110f201	9.059083
188	0xbf2224be	-0.63337314
189	0xc1a64d87	-20.787855
190	0x41882ec0	17.022827
191	0xc0c0019f	-6.000198
192	0x40dfef75	6.9979806
193	0x4146ebd8	12.432579
194	0x3fb5ae4a	1.4193814
195	0xbfd7d893	-1.6862968
196	0xc11c697b	-9.775752
197	0xc0498f63	-3.1493766
198	0x4146845e	12.407316
199	0xc09391fc	-4.6115704
200	0x3d8083f6	0.062751696
201	0xbf84ec48	-1.0384607
202	0xc15e25d0	-13.884232
203	0xc037a5a0	-2.869484
204	0x414045d7	12.017051
205	0x4073d020	3.809578
206	0x41694b8b	14.580943
207	0x409dce84	4.9314594
208	0x41771741	15.443177
209	0xbe9264b9	-0.2859247
210	0xc1599f0a	-13.601328
211	0x4079d339	3.903517
212	0x413bb4da	11.731653
213	0x414859e4	12.521946
214	0xbfb85de4	-1.4403653
215	0x410606dd	8.376676
216	0x41cee6e5	25.862741
217	0x41267e93	10.405902
218	0x40a64e82	5.1970835
219	0x3fc6371c	1.5485568
220	0x4103bc65	8.233495
221	0x40ba6bc1	5.8256536
222	0x4188ef92	17.116978
223	0x409eca29	4.9621778
224	0xc00966c6	-2.1468978
225	0x414ae459	12.680749
226	0xc1508a52	-13.03377
227	0xc145a8d6	-12.35372
228	0xbf8df4d3	-1.109034
229	0x40b229e8	5.5676155
230	0x3fc8dc41	1.5692216
231	0xbfa6f0a2	-1.3042185
232	0x40d7d658	6.744915
233	0x417901c8	15.562935
234	0xc15b4805	-13.705083
235	0x40bb7887	5.858463
236	0x3ec6b5cf	0.38810584
237	0xc18cfe28	-17.6241
238	0x41657b73	14.342639
239	0x4184cf56	16.601238
240	0xbeb00fde	-0.34387106
241	0x4134527e	11.27014
242	0x408da5e0	4.4264984
243	0x419ceb37	19.614851
244	0x4063ae22	3.5575032
245	0x401c1630	2.4388542
246	0xc161fdce	-14.124464
247	0xc1981c90	-19.013947
248	0xc184ea9f	-16.614561
249	0x41a533d7	20.650312
250	0x411ad4ef	9.676986
251	0x41823394	16.275185
252	0xc18bdd41	-17.483034
253	0xc1603deb	-14.015117
254	0x40a69135	5.2052255
255	0xc18a18aa	-17.262043

gnn_node.convs.0.mlp.1.running_var f4 [256]
0	0x430d0c19	141.04726
1	0x43072b6b	135.1696
2	0x42deb66d	111.3563
3	0x430009b4	128.0379
4	0x42f1b387	120.85064
5	0x42aaa955	85.33073
6	0x420d6b9c	35.355087
7	0x42d47f26	106.24834
8	0x42b33877	89.61028
9	0x425fc720	55.944458
10	0x40c7689b	6.231519
11	0x42e0784f	112.23498
12	0x427c04e5	63.00478
13	0x42a2b3f9	81.35151
14	0x43542dae	212.17844
15	0x438552cb	266.64682
16	0x42a2cbe6	81.39824
17	0x42cb086b	101.51644
18	0x42ed1284	118.53616
19	0x434f3d38	207.23914
20	0x4326c780	166.7793
21	0x43415c6c	193.36102
22	0x432b444a	171.26675
23	0x420ce5df	35.224483
24	0x4198bdd0	19.092682
25	0x432fa598	175.64685
26	0x42f065ef	120.19909
27	0x43364d9e	182.30319
28	0x421f3d51	39.80988
29	0x4244425a	49.064796
30	0x42ea040a	117.00789
31	0x42a42ea4	82.091095
32	0x43206fb0	160.43628
33	0x430f3c0c	143.23456
34	0x42fe6e8c	127.21591
35	0x4337ce94	183.80695
36	0x42bc38fd	94.111305
37	0x42360b72	45.511177
38	0x42610834	56.25801
39	0x4332ba46	178.72763
40	0x425bb6da	54.928566
41	0x42949ba8	74.304016
42	0x422349e5	40.822163
43	0x4241c485	48.441914
44	0x420ba16b	34.907635
45	0x422c5b4e	43.089165
46	0x41cf700d	25.929712
47	0x426dd9e0	59.46277
48	0x42d50042	106.5005
49	0x4206b242	33.67408
50	0x42945cda	74.18135
51	0x43571060	215.06396
52	0x430ac6cd	138.77657
53	0x42e7c406	115.88286
54	0x4259a497	54.410732
55	0x42770251	61.752262
56	0x4282cee2	65.40407
57	0x42de1330	111.037476
58	0x41dc5415	27.541056
59	0x4230c934	44.196487
60	0x424f375d	51.804066
61	0x4282abf4	65.335846
62	0x426aa21c	58.65831
63	0x4289f2c3	68.974144
64	0x431b6f16	155.43393
65	0x427e6a3f	63.603756
66	0x42b3766d	89.7313
67	0x430bc874	139.78302
68	0x428d0f1a	70.529495
69	0x42982ccf	76.08752
70	0x42c2a6ea	97.326004
71	0x41c365b7	24.424665
72	0x429ccbdf	78.398186
73	0x4196506a	18.789265
74	0x4337f1c8	183.94446
75	0x42d4594b	106.1744
76	0x4324b104	164.69147
77	0x42ab54a6	85.66533
78	0x42f9d0c2	124.90773
79	0x4311a3fb	145.64055
80	0x4287a442	67.820816
81	0x42415114	48.329178
82	0x42c52ebc	98.59128
83	0x418ec2f4	17.845192
84	0x42d7522c	107.66049
85	0x42aa3ea4	85.122345
86	0x41a8ff2a	21.124592
87	0x42e205eb	113.01156
88	0x4205e1f9	33.470676
89	0x42622d79	56.544407
90	0x4300da7e	128.85349
91	0x42763d58	61.559906
92	0x43a2d287	325.64474
93	0x42a4edd9	82.46455
94	0x4273758b	60.864788
95	0x43b56c3a	362.84552
96	0x42bd72bc	94.72409
97	0x4292e261	73.44215
98	0x43539c51	211.61061
99	0x43165cdd	150.36275
100	0x430b876f	139.52904
101	0x433c1741	188.09084
102	0x42feba4a	127.363846
103	0x4348dc87	200.86143
104	0x42d2fc87	105.49322
105	0x42470644	49.75612
106	0x429be543	77.94778
107	0x426763d8	57.847504
108	0x4299abca	76.835526
109	0x4240e1c1	48.220463
110	0x4300bc94	128.73663
111	0x41e4b513	28.588415
112	0x4259ad15	54.419025
113	0x42ad1de0	86.55835
114	0x42df6528	111.69757
115	0x432ea69f	174.65086
116	0x41ee10e1	29.758242
117	0x429aae35	77.34025
118	0x420d6060	35.344116
119	0x42661501	57.52051
120	0x4279e137	62.469936
121	0x4227569a	41.83457
122	0x43378072	183.50174
123	0x42ad26cd	86.57578
124	0x42d18fed	104.781105
125	0x41edd69c	29.72979
126	0x42129596	36.64608
127	0x423a7b58	46.620453
128	0x42e805bd	116.01121
129	0x4286e0f8	67.43939
130	0x424eb4d7	51.6766
131	0x429c36be	78.10692
132	0x42559fae	53.405937
133	0x41f4014f	30.500639
134	0x42b3742b	89.72689
135	0x42c579f8	98.73822
136	0x42a95bf1	84.67957
137	0x4243eaf2	48.97944
138	0x43266427	166.39122
139	0x42423261	48.5492
140	0x4222e96e	40.72796
141	0x4282a99f	65.33129
142	0x428e9317	71.287285
143	0x42501d79	52.02878
144	0x42699440	58.394775
145	0x42cc2fbf	102.093254
146	0x42dfe6f3	111.95107
147	0x439237b9	292.43533
148	0x42b44dea	90.152176
149	0x43d4457c	424.54285
150	0x4332ddfe	178.86716
151	0x4294ae63	74.3406
152	0x42527a81	52.619633
153	0x423958b1	46.336613
154	0x42c514c7	98.54058
155	0x435d9eec	221.62079
156	0x42961e61	75.05933
157	0x424ca441	51.160404
158	0x41efd273	29.977758
159	0x428384fd	65.75974
160	0x42261297	41.518154
161	0x432071dd	160.44478
162	0x42939fb6	73.811935
163	0x430aa840	138.65723
164	0x42f5e7ea	122.95296
165	0x420cdb1b	35.21397
166	0x43115852	145.345
167	0x43151c99	149.11171
168	0x431fd292	159.82254
169	0x423940c9	46.313267
170	0x428119bd	64.55027
171	0x43088d70	136.55249
172	0x420146c2	32.3191
173	0x42801584	64.04202
174	0x439a96e6	309.1789
175	0x42302395	44.034748
176	0x42ac9ffe	86.312485
177	0x42f4de35	122.434
178	0x43064a2e	134.28976
179	0x430cb854	140.72003
180	0x42566bb6	53.605186
181	0x428a18a3	69.04812
182	0x42001311	32.01862
183	0x425f36fd	55.8037
184	0x43172904	151.16022
185	0x41fc2d28	31.522049
186	0x43184a32	152.28983
187	0x4343679b	195.40471
188	0x4322a17c	162.6308
189	0x433982ca	185.5109
190	0x42c90b4f	100.52209
191	0x426fc985	59.946796
192	0x42a6f0a1	83.46998
193	0x430045ed	128.27315
194	0x42169bcd	37.65215
195	0x4358c077	216.75182
196	0x4352d8d1	210.84694
197	0x428407f1	66.01551
198	0x431b39e5	155.22615
199	0x42da77a9	109.23371
200	0x42278b5a	41.886086
201	0x4354b4d9	212.70644
202	0x42c15c9a	96.68086
203	0x42ab7b43	85.740746
204	0x428cd7e2	70.421646
205	0x42fa867e	125.26268
206	0x430b42a7	139.26036
207	0x41d57d43	26.686163
208	0x42f8ed13	124.463036
209	0x42c9c897	100.89178
210	0x42170f36	37.764854
211	0x42861992	67.04994
212	0x421a4e59	38.57651
213	0x41d99bdb	27.201101
214	0x428da3fd	70.82029
215	0x434d1577	205.08385
216	0x4309af77	137.68541
217	0x43184664	152.27496
218	0x42ef1e95	119.55973
219	0x425dda1e	55.463005
220	0x42358079	45.37546
221	0x43665673	230.33769
222	0x42a63415	83.10172
223	0x43275de2	167.36673
224	0x423d20ba	47.28196
225	0x42b1c951	88.893196
226	0x42935b2e	73.678085
227	0x41bb5fe3	23.42182
228	0x4270862d	60.13103
229	0x427ab596	62.67733
230	0x428a3c48	69.11774
231	0x435af243	218.94633
232	0x4256674f	53.600887
233	0x42d90c01	108.523445
234	0x424b0cce	50.762505
235	0x42d9967a	108.7939
236	0x43a7a2df	335.27243
237	0x43b37f8e	358.99652
238	0x42769492	61.64509
239	0x42436bb4	48.85518
240	0x42352868	45.28946
241	0x42ac0dcd	86.026955
242	0x42ea0abe	117.02098
243	0x42c899f8	100.30072
244	0x4357c784	215.77936
245	0x421886d3	38.131664
246	0x42ea11a2	117.03444
247	0x4237cd89	45.950718
248	0x41f966c6	31.175182
249	0x431d528a	157.32242
250	0x42f468ba	122.204544
251	0x42d5e968	106.95587
252	0x428160ce	64.68907
253	0x42daa56b	109.32308
254	0x42cbf6a4	101.98172
255	0x421354dd	36.832874
