checkpoints/C_epoch_160.pth (torch, 843999 bytes, 48 tensors)

gnn_node.node_encoder.weight f4 [1, 128]
0	0x3f20ce4e	0.62814796
1	0xbf3f0c0a	-0.74627745
2	0xbf018fad	-0.50609857
3	0x3e19b28f	0.15009521
4	0xbe4fce3b	-0.20293514
5	0xbe508952	-0.20364884
6	0x3ca02aab	0.019551596
7	0xbee51db7	-0.44749233
8	0x3f08b4f4	0.5340111
9	0xbeb754f7	-0.3580701
10	0xbf1e2114	-0.61769223
11	0x3f1842f8	0.59477186
12	0xbfa84361	-1.3145562
13	0x3d11cae4	0.035593882
14	0x3f01fa31	0.50772387
15	0xbd146efd	-0.03623866
16	0xbfbd6279	-1.4795676
17	0xbf7d012e	-0.98829925
18	0x3e7ba085	0.24572952
19	0xbf7435f1	-0.9539481
20	0xbf8ae5e0	-1.0851402
21	0x3d80d618	0.06290835
22	0x3d927882	0.07151891
23	0xbed0b340	-0.40761757
24	0xbe92a26f	-0.28639552
25	0xbfc39a51	-1.5281469
26	0xbeab76ec	-0.33489168
27	0xbf665866	-0.89978635
28	0x3f5c3814	0.8602307
29	0xbe0be18e	-0.13660261
30	0x3e9fc35d	0.31203738
31	0xc01dd026	-2.4658294
32	0xbfddadcd	-1.7318665
33	0x3e7feebe	0.24993417
34	0xbf17a516	-0.59236276
35	0x3ecc58c6	0.3991148
36	0xc016dc2c	-2.3571882
37	0xbe8945b4	-0.26810992
38	0x3f1f2e39	0.62179905
39	0xbe48d7d3	-0.1961358
40	0xbf94eb2c	-1.1634269
41	0xbec9d2d1	-0.39418653
42	0xbf9b5a78	-1.2136984
43	0xc01dc2ab	-2.4650066
44	0xbeb8dc1b	-0.36105427
45	0x3d231025	0.03981032
46	0xbe87a7f3	-0.26495323
47	0xbf77d440	-0.9680824
48	0xbf1b4e05	-0.60665923
49	0xbac2407c	-0.0014820243
50	0xbfadd543	-1.3580707
51	0xbf9d0f55	-1.2270304
52	0xbf0f4872	-0.5596992
53	0x3ee9e891	0.45685247
54	0xbf42c784	-0.76085687
55	0x3eca7db4	0.3954903
56	0xbfd272fd	-1.6441342
57	0x3f4bd8fe	0.7962798
58	0xbd9d5f2b	-0.076841675
59	0x3edf28c0	0.43585777
60	0xbe1a3157	-0.15057884
61	0xbf5fdb28	-0.8744378
62	0xbf036614	-0.51327634
63	0xbf32c114	-0.69825864
64	0xc00b168f	-2.1732519
65	0xbff303f6	-1.8985584
66	0xbf856280	-1.0420685
67	0x3e72fec1	0.23729993
68	0x3e86e41f	0.26345918
69	0xbe25dbd6	-0.16197142
70	0xbed72786	-0.4202234
71	0xbf4a0d9e	-0.7892703
72	0x3da78895	0.08180348
73	0xbff0be29	-1.8808032
74	0xbf433aa1	-0.76261336
75	0x3e6d64a3	0.23182921
76	0xbfd3e898	-1.6555357
77	0xbecd0e48	-0.40049958
78	0xbf0294eb	-0.5100848
79	0xbfc64dc8	-1.5492487
80	0xbfad12e1	-1.3521386
81	0xbee98ff7	-0.4561765
82	0xbd98cde8	-0.074611485
83	0xbf3897b5	-0.72106487
84	0xbf356040	-0.7084999
85	0xbc934fef	-0.017982451
86	0x3e395df2	0.18102244
87	0xbf83dbd7	-1.0301465
88	0x3f7e7334	0.99394536
89	0xbeec9775	-0.46209303
90	0x3f790ae8	0.97282267
91	0xbf3a0524	-0.72664094
92	0x3f68ea01	0.9098206
93	0xbfc021e8	-1.5010347
94	0xbd7da84a	-0.06192807
95	0x3e23a688	0.15981495
96	0xbe542f40	-0.2072115
97	0x3e98bf19	0.29833296
98	0xbf7e8811	-0.9942637
99	0x3f260f79	0.6486736
100	0xbed44896	-0.4146163
101	0xbf1951d9	-0.59890515
102	0x3fb67231	1.4253598
103	0x3ed1a36a	0.40944988
104	0x3e1c00f1	0.15234734
105	0x3f52753f	0.82210153
106	0x3f1203e0	0.5703716
107	0xbfc4c0ea	-1.5371373
108	0x3efd8bd9	0.49520758
109	0xbfd3af20	-1.6537819
110	0x3e0ea403	0.13929753
111	0xbeb7b1a8	-0.35877728
112	0xbe9c7591	-0.30558446
113	0xbf89ad0e	-1.0755937
114	0xbf904971	-1.1272413
115	0xbf59cdf3	-0.8507988
116	0xbf3a47c6	-0.7276577
117	0xbf85649a	-1.0421326
118	0xbf7630c8	-0.96168184
119	0xc0015e66	-2.0213866
120	0xbfb927a2	-1.446522
121	0x3bb3b466	0.0054841517
122	0xbe28169c	-0.16414875
123	0x3dc2f13e	0.095186695
124	0x3e2d7bad	0.1694171
125	0xbc5b2002	-0.0133743305
126	0x3e04092b	0.12894122
127	0xbf2c330e	-0.67265403

gnn_node.virtualnode_embedding.weight f4 [1, 128]
0	0xbf050d62	-0.51973546
1	0xbdfeed47	-0.12447601
2	0xbee1163a	-0.4396227
3	0xbe1be545	-0.15224178
4	0xbf1cef4e	-0.6130265
5	0xbe6493a0	-0.2232194
6	0xbef913a1	-0.48647788
7	0xbe2150cb	-0.15753476
8	0xbecdc954	-0.40192664
9	0xbe5740a9	-0.2102076
10	0xbe23bfc2	-0.15991119
11	0xbe46bc97	-0.19407879
12	0xbeeda8e3	-0.46417913
13	0xbf08e7e9	-0.53478867
14	0xbf5beb46	-0.85905874
15	0x3b9333a8	0.004492242
16	0xbec2a366	-0.38015288
17	0xbead0764	-0.337947
18	0x3db96840	0.09053087
19	0xbe41e945	-0.18936642
20	0xbe879148	-0.26478028
21	0xbf42e627	-0.76132435
22	0xbf280166	-0.65627134
23	0xbeed8b8a	-0.46395522
24	0xbf194bee	-0.59881485
25	0x3dbd24ff	0.09235572
26	0xbf353a07	-0.7079167
27	0xbf009cf8	-0.50239515
28	0xbf1731df	-0.5906047
29	0xbea7061b	-0.32621846
30	0xbd92b00e	-0.07162486
31	0xbf379308	-0.71708727
32	0xbf12e65e	-0.5738276
33	0xbc6c4329	-0.014420309
34	0xbe23ea25	-0.16007288
35	0xbf325b2b	-0.6967036
36	0xbe7f87e4	-0.24954182
37	0xbeb4e85f	-0.35333535
38	0xbf1b50f9	-0.6067043
39	0xbf0fb142	-0.5612985
40	0xbe8dcacd	-0.27693787
41	0xbece1bb3	-0.40255508
42	0xbef0375b	-0.46917233
43	0xbf587d4d	-0.84566194
44	0xbeb01f13	-0.34398708
45	0xbe7dede8	-0.24797785
46	0x3c400ade	0.011721341
47	0xbe914df2	-0.2837978
48	0xbe88b6c5	-0.26701942
49	0x3e59d5ca	0.2127296
50	0xbec9f367	-0.39443514
51	0x3d4a8bf9	0.049449895
52	0xbeddff37	-0.43358776
53	0xbee70d67	-0.45127413
54	0xbe9ddc72	-0.3083225
55	0xbf3b6258	-0.73196936
56	0xbef898f3	-0.4855419
57	0xbf4ae7d8	-0.79260015
58	0xbefd8cf7	-0.4952161
59	0xbe972742	-0.2952214
60	0xbeafe400	-0.34353638
61	0xbdecef18	-0.11569041
62	0xbe28f6d9	-0.16500415
63	0xbeb8a76f	-0.36065242
64	0xbe464463	-0.19362025
65	0x3e3ac5ea	0.1823956
66	0xbe886d48	-0.26645875
67	0x3ddc81a6	0.10766916
68	0xbee3dbe7	-0.4450371
69	0xbf309eb0	-0.6899214
70	0xbf15fe18	-0.5859084
71	0xbe23f7eb	-0.16012542
72	0x3c788bf1	0.015170083
73	0xbf4e64f8	-0.80622816
74	0xbec93512	-0.39298302
75	0xbf0d4a3d	-0.55191404
76	0xbe6f7aa9	-0.23386635
77	0xbe206423	-0.15663199
78	0xbefdfd30	-0.4960723
79	0xbf12ff14	-0.5742047
80	0xbf2ea17a	-0.68215144
81	0xbf172294	-0.5903714
82	0xbce9be6e	-0.028533187
83	0xbd87b2f6	-0.06625931
84	0xbecdab0d	-0.40169564
85	0xbee0b03e	-0.43884462
86	0xbefcd247	-0.4937918
87	0xbe9d5c78	-0.3073461
88	0xbf587a08	-0.84561205
89	0xbf25c72a	-0.64757025
90	0xbf1ae7ac	-0.60509753
91	0xbe7d2981	-0.24722864
92	0xbf5ae105	-0.854996
93	0xbd5903fd	-0.05298232
94	0xbdbb5d84	-0.09148696
95	0x3d69812e	0.05700796
96	0xbeaae5de	-0.333785
97	0xbeaf1811	-0.3419805
98	0xbe6a95e0	-0.22908735
99	0xbeb96499	-0.36209562
100	0xbeb1ff0d	-0.347649
101	0xbec5e9c0	-0.386549
102	0xbf4f1633	-0.8089325
103	0xbf00bd18	-0.50288534
104	0xbee9d8e2	-0.4567328
105	0xbe5a717c	-0.21332353
106	0xbf1e5b3c	-0.6185796
107	0xbe42eb69	-0.19035114
108	0xbe0b5a44	-0.13608652
109	0xbf07ce73	-0.5304939
110	0xbd252e15	-0.04032715
111	0xbe1fb451	-0.15596129
112	0xbecbdb20	-0.39815617
113	0xbeed5e2c	-0.4636091
114	0xbeb69172	-0.3565784
115	0xbe91357b	-0.28361115
116	0xbe5be0dd	-0.21472497
117	0xbdab0da7	-0.08352213
118	0xbebfe19a	-0.37476808
119	0xbe7a263f	-0.24428652
120	0xbf2f0fa7	-0.6838326
121	0xbeb5cb8a	-0.3550685
122	0xbe1d4ef3	-0.15362148
123	0xbe2b144a	-0.16706958
124	0xbf07fa3c	-0.531162
125	0xbe9a3ff2	-0.3012691
126	0xbd625406	-0.055255912
127	0xbf0acf95	-0.54222995

gnn_node.convs.0.mlp.0.weight f4 [256, 128]
0	0xbf0a7b09	-0.54093987
1	0x3db57f5d	0.08862183
2	0xbda2f987	-0.0795775
3	0x3e31318c	0.17304057
4	0xbccfd4c0	-0.025370002
5	0xbe838498	-0.25687099
6	0x3dfce762	0.1234882
7	0x3f04d16d	0.5188206
8	0x3db288fd	0.08717535
9	0xbdcfc1a9	-0.101443596
10	0x3d03b79a	0.032157518
11	0x3ec60183	0.38673028
12	0x3d83d9cd	0.064380266
13	0xbf2394bb	-0.6389882
14	0xbe0d7c16	-0.13816866
15	0x3d614ab7	0.055002894
16	0xbae5d6cb	-0.0017535327
17	0x3da3342e	0.07968937
18	0x3ea6ab96	0.32552785
19	0x3f87e772	1.0617507
20	0xbd87caa4	-0.066304475
21	0xbecadd28	-0.39621854
22	0x3ebcad2e	0.36850876
23	0xbeb7b148	-0.35877442
24	0x3a7838bf	0.0009468905
25	0x3dbd9403	0.092567466
26	0x3e936326	0.28786582
27	0xbd98815a	-0.07446547
28	0x3e2e374b	0.1701328
29	0xbdecf821	-0.11570764
30	0xbda30474	-0.07959834
31	0x3d15254c	0.036412522
32	0xbdaf0530	-0.08545911
33	0x3ed2d7ed	0.41180363
34	0xbe366f23	-0.17815833
35	0x3e1bc44d	0.15211602
36	0x3d5f3c06	0.054500602
37	0x3e1abc0a	0.15110794
38	0x3e433aba	0.19065371
39	0x3db98eaa	0.09060414
40	0xbabc6d70	-0.0014375877
41	0x3da233b9	0.079200216
42	0xbd676214	-0.05649002
43	0x3bb6508e	0.005563802
44	0x3ff7ddeb	1.9364599
45	0xbc639073	-0.01388942
46	0x3ea6e0c1	0.3259335
47	0x3ba29333	0.004961395
48	0x3caadef0	0.020858258
49	0xbdd85eae	-0.10564934
50	0xbd0d0d22	-0.034436353
51	0xbd297358	-0.041369766
52	0xbed8417b	-0.42237458
53	0x3d8b2fb2	0.067962065
54	0xbf1fb2ac	-0.62382007
55	0x3dd5e70f	0.104444616
56	0x3bccddbf	0.00625202
57	0xbc8705af	-0.016482202
58	0x3e903a3a	0.28169423
59	0xbd36a125	-0.044587273
60	0x3d4d5cde	0.050137393
61	0xbf231a00	-0.6371155
62	0xbf037df6	-0.51364076
63	0xbf2e13d8	-0.6799903
64	0x3db244da	0.08704539
65	0x3ca6eeff	0.020377634
66	0xbd839042	-0.06423999
67	0xbee0d0d0	-0.4390931
68	0x3db17110	0.08664143
69	0xbdeb25b6	-0.11481802
70	0x3fb9f3b8	1.4527502
71	0xbbd74380	-0.006569326
72	0xbe8320a4	-0.2561084
73	0x3d22ac02	0.03971482
74	0xbc80f116	-0.015739959
75	0xbf221877	-0.6331858
76	0xbd85dd92	-0.06536402
77	0xbe9bbfdd	-0.30419818
78	0x3ed5f4f8	0.4178846
79	0x3d5d7492	0.05406625
80	0x3d418c62	0.04725302
81	0xbbe7060d	-0.007050282
82	0x3f2de9db	0.6793496
83	0xbc3175ea	-0.010831336
84	0x3d269ef9	0.040678952
85	0xbc0ddd4a	-0.008658716
86	0xbc3051ca	-0.0107616875
87	0x3e176993	0.14786367
88	0x3e98c009	0.2983401
89	0x3e6396cb	0.22225492
90	0x3e204d72	0.15654543
91	0xbc5273c0	-0.01284498
92	0x3d0c6065	0.034271616
93	0x3cdc6980	0.026905775
94	0x3fe5c4e8	1.7950716
95	0xbed7c6d2	-0.42143875
96	0xbce0425d	-0.027375394
97	0x3f15a6ce	0.5845765
98	0x3ba54b7e	0.0050443998
99	0xbe0c994a	-0.1373035
100	0xbe689e3c	-0.22716612
101	0xbcdb4470	-0.026766032
102	0xbebde11d	-0.3708581
103	0x3c5babcd	0.01340766
104	0x3ed7b891	0.42133
105	0xbe598757	-0.21243034
106	0x3e68c3be	0.2273092
107	0xbd49ab46	-0.049235605
108	0xbf03b5a1	-0.5144902
109	0xbd25b33e	-0.04045414
110	0xbe0576f5	-0.1303366
111	0xbe1dbb9d	-0.154036
112	0x3e460769	0.19338764
113	0xbd31037d	-0.043216217
114	0xbdbd51a5	-0.09244088
115	0xbfb86938	-1.440711
116	0xbf20fcb2	-0.6288558
117	0xbe2a763f	-0.1664667
118	0xbd2e3970	-0.042535245
119	0x3b7cff44	0.0038604299
120	0xbd8ad6eb	-0.067792736
121	0x3ea93bea	0.33053523
122	0x3e595e0b	0.21227281
123	0x3ef41782	0.47674185
124	0x3fb93261	1.44685
125	0x3e8e6bd8	0.27816653
126	0xbedef5ed	-0.43547
127	0xbf8c635a	-1.096782
128	0xbca74552	-0.020418797
129	0xbd590a25	-0.05298819
130	0xbca738c7	-0.020412816
131	0xbeab9b53	-0.3351694
132	0x3be50a61	0.0069897627
133	0x3ed85cde	0.42258352
134	0xbd9ecdf5	-0.07754127
135	0xbf27db9f	-0.6556949
136	0xbe13a1aa	-0.14417139
137	0x3e93799e	0.28803724
138	0xbd32a5a1	-0.043614987
139	0x3eee4189	0.46534374
140	0x3bbee242	0.005825312
141	0xbe39aab3	-0.18131523
142	0x3ea6eb81	0.3260155
143	0x3e21cb6a	0.15800253
144	0xbdefdd41	-0.11712123
145	0xbd2d3710	-0.04228884
146	0xbd5e3369	-0.054248247
147	0xbf70a53b	-0.9400212
148	0xbe230f10	-0.15923715
149	0x3f0c84eb	0.54890317
150	0x3f0de750	0.5543108
151	0xbf52b53b	-0.82307786
152	0x3edb254e	0.428019
153	0xbdb4d62e	-0.08829914
154	0xbf2ea82f	-0.6822538
155	0xbdde7d4b	-0.108637415
156	0x3f3a09d8	0.7267127
157	0xc017e2ab	-2.3732097
158	0x3e94d494	0.29068434
159	0xbc764508	-0.015031107
160	0x3d30916f	0.043107446
161	0x3dd74782	0.10511686
162	0xbf5244b0	-0.8213606
163	0x39b3d424	0.00034299598
164	0x3bd7b813	0.0065832227
165	0xbddc7c14	-0.107658535
166	0x3e1b3df4	0.15160352
167	0x3d5b2b00	0.053507805
168	0x3cc37fce	0.023864653
169	0xbe84920e	-0.2589268
170	0x3ce5832f	0.028016655
171	0xbd6caf7d	-0.057784546
172	0xbfc31162	-1.523968
173	0x3d8b9fc7	0.068175845
174	0xbf1f5881	-0.6224442
175	0x3d0a60ad	0.033783603
176	0x3caab6ac	0.020839058
177	0x3d3fe7e8	0.046852022
178	0xbd92341c	-0.07138845
179	0x3d5f33e5	0.05449285
180	0xbe6f1c44	-0.23350626
181	0x3e9a1630	0.30095053
182	0xbd205cbc	-0.03915094
183	0xbec3787d	-0.38177863
184	0x3b4e33a3	0.0031463883
185	0xbd62318c	-0.055223033
186	0x3e0f4325	0.13990457
187	0xbf0c8caa	-0.54902136
188	0xbd9d8d8c	-0.076930135
189	0x3e7ad038	0.24493492
190	0xbd37357d	-0.044728745
191	0x3f827ab9	1.0193702
192	0xbdd51fbb	-0.10406443
193	0xbd33c97d	-0.043893326
194	0x3d340833	0.043953132
195	0x3e4abcf6	0.19798645
196	0xbed689d3	-0.41902027
197	0x3e88ebf9	0.26742533
198	0xc01f8666	-2.492578
199	0xbd5c6fdd	-0.05381762
200	0xbfd882f6	-1.6914966
201	0x3db334ab	0.0875028
202	0xbd89ebef	-0.06734454
203	0x3f6b5722	0.9192983
204	0xbbae9760	-0.005328104
205	0xbd678ccc	-0.05653076
206	0xbe76241f	-0.24037217
207	0x3b80409b	0.0039139516
208	0x3c0caa2f	0.008585497
209	0x3de8c43a	0.11365552
210	0xbf81b861	-1.0134393
211	0x3d3d8d01	0.04627705
212	0x3cd07c72	0.025449965
213	0xbdbdef04	-0.09274104
214	0x3c244d05	0.0100281285
215	0x3e65516e	0.22394344
216	0xbe6ad323	-0.22932105
217	0x3c3e3d49	0.011611291
218	0xbdbde9b9	-0.09273095
219	0xbf2dbb29	-0.6786371
220	0xbdbe18b5	-0.09282056
221	0xbce148c9	-0.027500527
222	0xbfb18859	-1.3869735
223	0xbe2e6306	-0.17029962
224	0xbf10dc9a	-0.5658661
225	0xbf8656d6	-1.049525
226	0xbcefb6c0	-0.029261947
227	0x3e99d85b	0.3004788
228	0xc003b5bd	-2.0579674
229	0x3dbfb624	0.093609124
230	0x3b69d5bb	0.0035680372
231	0x3f164a49	0.587071
232	0x3e10e03c	0.14148039
233	0xbe95cb82	-0.29256827
234	0xbefbe71a	-0.49199754
235	0x3d10e48d	0.035374213
236	0xbee6e30b	-0.45095095
237	0x3ca42eb6	0.020041805
238	0xbdf6dbd3	-0.12053647
239	0xbafb8bee	-0.0019191483
240	0xbea931e1	-0.33045867
241	0xbcc03300	-0.023461819
242	0xbe2d6a1f	-0.16935013
243	0xbdaddb8a	-0.084891394
244	0xbef8e717	-0.48613808
245	0xbf3914bf	-0.7229728
246	0x3d836680	0.06416035
247	0xbc012daa	-0.007884422
248	0x3dbd624e	0.09247266
249	0xbdf68555	-0.1203715
250	0xbecc71b6	-0.39930505
251	0xbf795b26	-0.97404706
252	0xc032dcac	-2.7947187
253	0x3f1ab3b9	0.60430485
254	0x3ec4debc	0.38451183
255	0x3edd8016	0.43261784

gnn_node.convs.0.mlp.0.bias f4 [256]
0	0x3d10a794	0.035316065
1	0x3d926dfd	0.07149885
2	0x3c0db005	0.008647923
3	0x3ca54741	0.020175578
4	0x3c37fe2a	0.011230031
5	0x3dac1562	0.08402516
6	0xbd52e0f7	-0.051484074
7	0xbd02ed8f	-0.031964835
8	0xbc3f0dd5	-0.011661013
9	0xbc6e58b4	-0.014547516
10	0x3d1b2cee	0.037884645
11	0xbd908480	-0.07056522
12	0xbd7bda19	-0.06148729
13	0xbd5aee58	-0.05344996
14	0xbd614feb	-0.055007856
15	0xbc60ab82	-0.013712766
16	0xbc15e18d	-0.009148014
17	0xbd76e8ef	-0.060280737
18	0x3d9dc272	0.07703103
19	0x3d9d8308	0.07691008
20	0xbcafb146	-0.021446835
21	0xbd73cede	-0.059523456
22	0x3ca978d8	0.020687506
23	0x3d23ed18	0.040021032
24	0x3cc7728d	0.024346614
25	0xbd1c7c23	-0.038204324
26	0x3d02037f	0.031741615
27	0x3ccbb1e0	0.02486509
28	0xbc972959	-0.018452333
29	0xbda71017	-0.08157366
30	0x3daf7817	0.08567827
31	0x3c2b4a92	0.010454791
32	0x3d2bb44b	0.041919988
33	0xbc42b5d8	-0.011884175
34	0x3cf359c7	0.029705895
35	0xbd58a4cf	-0.05289155
36	0xbc96dbf8	-0.018415436
37	0x3d12be97	0.035826292
38	0xbc711fff	-0.014717101
39	0xbd401f6e	-0.046904974
40	0xbd6fd877	-0.058556046
41	0xbdbfe2a4	-0.093694
42	0xbd95acec	-0.07308373
43	0x3d4f2c3d	0.0505793
44	0x3de3acdd	0.111169554
45	0x3b50cbca	0.003185975
46	0xbcbb0a34	-0.022832014
47	0xbda4850a	-0.08033188
48	0x3ce92101	0.02845812
49	0xbb682258	-0.003542086
50	0xbdb6b19d	-0.08920596
51	0xbd89419a	-0.06701966
52	0x3c66e7d8	0.014093362
53	0x3d85c67b	0.06531998
54	0xbd70fe02	-0.05883599
55	0xbd079dff	-0.03310966
56	0x3d509a9d	0.0509287
57	0x3d07bf96	0.033141695
58	0xbd2cc43f	-0.042179342
59	0x3d210d66	0.03931942
60	0x3c8f4271	0.017487736
61	0xbbc7d38f	-0.006098218
62	0xbd4ea087	-0.05044606
63	0xbbe17e0c	-0.006881481
64	0x3c023c95	0.007949014
65	0xbd4f2df5	-0.050580937
66	0x3ba4f775	0.005034382
67	0x3c8ed815	0.01743702
68	0x3be88a8a	0.0070965933
69	0x3d1252b1	0.035723392
70	0x3cccf7e9	0.025020557
71	0x3d8c0a8e	0.06837951
72	0xbb4f39db	-0.0031620178
73	0x3ced322e	0.028954592
74	0xbc36bb75	-0.011153092
75	0xbdb0eb50	-0.08638632
76	0xbcbd746c	-0.023126803
77	0xbd65f0c0	-0.0561378
78	0xbd6aea55	-0.057352383
79	0x3c083f35	0.008315851
80	0x3d8632c2	0.0655265
81	0xbd686188	-0.056733638
82	0xbdaf4ec1	-0.08559943
83	0xbccf1ab8	-0.025281295
84	0xbd51d6f0	-0.05123037
85	0xbd650b7c	-0.055919155
86	0x3d7ae476	0.061253034
87	0x3cc4ba1a	0.024014521
88	0x3cac4525	0.021029064
89	0x3d3f4cd8	0.046704143
90	0xbc86d63b	-0.016459575
91	0x3d27ccdb	0.04096685
92	0xbd9b8622	-0.07593943
93	0xbda2f305	-0.079565085
94	0x3b46fe5a	0.0030364008
95	0x3d889528	0.06669074
96	0xbb9e9a8d	-0.004840201
97	0xbcf157e4	-0.029460855
98	0xbcd61b93	-0.026136195
99	0xbd876aae	-0.066121444
100	0xbd945717	-0.072431736
101	0x3d81916a	0.06326564
102	0xbd517e8b	-0.05114607
103	0x3cc3a703	0.023883348
104	0x3d94b8a7	0.07261782
105	0xbd6e2654	-0.05814202
106	0xbcbfacdc	-0.023397855
107	0x3c97b50e	0.01851895
108	0x3d176171	0.03695816
109	0xbd281806	-0.041038536
110	0xbbb8f66f	-0.0056446115
111	0x3d5ee3c8	0.054416448
112	0x3ce23be5	0.02761645
113	0x3d322e40	0.04350114
114	0x3ce38744	0.02777446
115	0xbd957b7c	-0.072989434
116	0x3d5c019b	0.05371247
117	0x3d33f7f1	0.043937627
118	0xbd3e9b37	-0.046534743
119	0x3da98752	0.082777634
120	0x3ccd0f1e	0.025031622
121	0x3d10549d	0.035236944
122	0xbcea0103	-0.028564936
123	0x3d435f14	0.047698095
124	0xbda675db	-0.08127948
125	0xbd810cc0	-0.0630126
126	0x3d0b3811	0.033989016
127	0x3c1ae265	0.009453391
128	0x3cd8a2e3	0.026444858
129	0xbc3676f0	-0.011136755
130	0x3d3fd063	0.046829592
131	0xbdab9472	-0.08377923
132	0xbdbfc5bb	-0.09363886
133	0x3d18a39c	0.037265405
134	0xbd1e40c2	-0.038635977
135	0x3d9623ff	0.073310845
136	0x3c8b9121	0.017036976
137	0xbd917022	-0.07101466
138	0x3c351eb1	0.011054681
139	0x3ca027c5	0.019550214
140	0xbd472063	-0.04861487
141	0x3d94ece1	0.072717436
142	0xbd9e7153	-0.07736459
143	0x3d81c30b	0.063360296
144	0x3cc58632	0.02411184
145	0x3d3c1c63	0.04592551
146	0x3d868661	0.065685995
147	0xbcadfe99	-0.021239566
148	0x3d43bedd	0.047789443
149	0x3d915e53	0.07098069
150	0x3ce9b8b2	0.028530452
151	0xbb821e4d	-0.0039708973
152	0x3d8eaaef	0.06966197
153	0xbd1d3cb3	-0.038387965
154	0x3c917c2f	0.01775941
155	0x3d76a334	0.060214236
156	0xbd65c3e4	-0.05609502
157	0xbd4454f2	-0.047932573
158	0xbcb99beb	-0.022657355
159	0x3d0aece6	0.03391733
160	0x3d91dc52	0.07122101
161	0xbcdb3115	-0.026756803
162	0xbc6b79e7	-0.0143723255
163	0x3d92d9ef	0.07170474
164	0x3d7cab23	0.061686646
165	0x3d1c1be6	0.038112544
166	0x3d6dd379	0.058063004
167	0xbd2ff70c	-0.04296021
168	0xbd4d9a4c	-0.050195977
169	0x3d8330f0	0.064058185
170	0x3d9db98f	0.07701408
171	0x3dab97c6	0.08378558
172	0xbd1f7a3c	-0.03893493
173	0x3c4007d3	0.011720615
174	0x3d6360fa	0.055512406
175	0x3da49596	0.08036344
176	0xbd96ffa8	-0.07372981
177	0x3d0923b9	0.033481333
178	0x3d7ab340	0.061206102
179	0xbb742c46	-0.0037257834
180	0xbd926ac1	-0.07149268
181	0x3daf74c0	0.0856719
182	0xbc89008f	-0.0167239
183	0xbd15f1e4	-0.036607638
184	0xbd2d0c59	-0.042248104
185	0x3d10ba59	0.035333965
186	0x3c881a60	0.01661414
187	0xbd17c5ed	-0.03705399
188	0xbbc0cf16	-0.0058840616
189	0xbc7185cb	-0.014741371
190	0x3d72c41b	0.059269052
191	0xbdabc50a	-0.083871916
192	0x3d5d4cdb	0.054028373
193	0xbd409a2c	-0.04702203
194	0x3cc4d3cd	0.024026776
195	0xbd7004c8	-0.05859831
196	0x3dd21d87	0.10259538
197	0xba30dbc5	-0.00067466154
198	0x3c95a4ef	0.018267123
199	0x3d7432b6	0.059618674
200	0xbd84e3e3	-0.064887784
201	0xbd29fe4e	-0.04150229
202	0x3db7e923	0.08980014
203	0x3da67dcf	0.08129465
204	0xbd6d392d	-0.057915855
205	0xbd5bd170	-0.053666532
206	0xbd1d4806	-0.038398765
207	0xbc38673d	-0.011255083
208	0x3cc52931	0.024067493
209	0xbd756279	-0.059908364
210	0xbdd693d7	-0.10477417
211	0xbd3fdb2a	-0.04683987
212	0xbd834e84	-0.0641146
213	0xbe101b9f	-0.14073037
214	0xbd3fab2a	-0.046794094
215	0x3cddaef1	0.027060958
216	0x3d5501b3	0.052003574
217	0x3d54d5ea	0.051961817
218	0xbd8539c7	-0.06505161
219	0x3d018dcd	0.031629372
220	0xbc8b0c8c	-0.016973756
221	0x3db4a6dd	0.08820889
222	0x3d8d3fb5	0.06896917
223	0x3da9b812	0.08287062
224	0xbd452241	-0.04812837
225	0xbd5d1705	-0.05397703
226	0xbc969482	-0.01838136
227	0x3d652ceb	0.05595104
228	0xbd237843	-0.039909612
229	0xbd1181e2	-0.035524257
230	0xbcfcb243	-0.03084672
231	0xbd8b0a95	-0.06789128
232	0xbc831630	-0.01600179
233	0xbd8bfcc0	-0.068353176
234	0x3d438e38	0.047743052
235	0xbc1031c8	-0.008800931
236	0xbd7c0059	-0.06152377
237	0x3d086e37	0.033308234
238	0xbd1bac95	-0.038006384
239	0xbdb10235	-0.08642999
240	0x3c91e5ff	0.017809866
241	0x3d0ae7dc	0.033912525
242	0xbd05d30c	-0.032671973
243	0xbd622d44	-0.05521895
244	0xbc26e7aa	-0.010187069
245	0xbc9de52a	-0.019274313
246	0xbc1ddaf8	-0.009634726
247	0x3d6936ad	0.05693691
248	0x3d1d135e	0.038348548
249	0xbd80f916	-0.06297509
250	0xbcb230ae	-0.021751728
251	0xba5482e9	-0.00081066653
252	0x3d9c4b35	0.07631532
253	0xbcaba1f1	-0.020951243
254	0xbd38b2c5	-0.045092363
255	0x3d9410b2	0.07229747

gnn_node.convs.0.mlp.1.weight f4 [256]
0	0x3ec50454	0.38479865
1	0x3fd11da3	1.633717
2	0x3fcfa139	1.6221076
3	0x3f96dce1	1.1786157
4	0x3bdf8306	0.006821039
5	0x3af45540	0.0018641129
6	0x3f522b74	0.82097554
7	0x3f4c9e0e	0.7992867
8	0x3ff13180	1.8843231
9	0x3f19e2fd	0.6011198
10	0x3caedd8b	0.021345874
11	0x3a4ad361	0.00077371864
12	0x3f631167	0.8869843
13	0x3fc6edc0	1.5541306
14	0x3fa09c97	1.2547787
15	0x3fafbb9d	1.372913
16	0x3fbcf845	1.4763266
17	0x3ed96561	0.42460158
18	0x3fd2bd6e	1.6464059
19	0x3fcd7418	1.6051054
20	0x3fa60dcc	1.297296
21	0x3f39deb7	0.7260546
22	0x3fd3bc7b	1.6541895
23	0x3f8f09cc	1.1174865
24	0x3f8b6a23	1.0891765
25	0x403baae7	2.932306
26	0x3fa25b6d	1.2684151
27	0x3f7446af	0.95420355
28	0x3f5fb4d1	0.8738528
29	0x3cb06ce4	0.021536298
30	0x3fb627a7	1.4230851
31	0x3ff58ca7	1.9183549
32	0x3fbe3136	1.4858768
33	0x3f9b928b	1.2154096
34	0x3fd31079	1.6489402
35	0x3fbfc40e	1.4981706
36	0x3f8e0823	1.1096233
37	0x3e495006	0.19659433
38	0xbc0fa33c	-0.008766945
39	0x3fdb121e	1.7114904
40	0x3f808f0d	1.0043656
41	0x3ffc2437	1.9698552
42	0x3f904aa6	1.1272781
43	0x3f26a3c9	0.65093666
44	0x3f81cb80	1.0140228
45	0x3f6bfa83	0.92179126
46	0x3bc7c5d9	0.0060965833
47	0x3fae5014	1.3618188
48	0x3fb6e057	1.4287213
49	0x3f86d1eb	1.0532812
50	0x40069d00	2.1033325
51	0x3f8cde1b	1.1005281
52	0x3fbc08a2	1.4690135
53	0x3fdd4de6	1.7289398
54	0x3f4fda79	0.8119274
55	0x3fa21ecc	1.2665648
56	0x3fa2703b	1.26905
57	0x3e7f582f	0.24935983
58	0x3fad82d1	1.3555547
59	0x3fcbc2a1	1.5918771
60	0x3f7bff5d	0.9843653
61	0xbd44da85	-0.04805996
62	0x3fba16c4	1.4538198
63	0x3f613df1	0.8798514
64	0x3f903aa5	1.1267897
65	0x3fa6b318	1.3023405
66	0x3fea0488	1.8282633
67	0x3efb0168	0.4902451
68	0x3e21504f	0.15753292
69	0x3e4140c9	0.1887237
70	0x3f86aeb9	1.0522071
71	0x3f78427a	0.96976435
72	0x3f47b345	0.7800792
73	0x3ee4f3c6	0.44717234
74	0x3fa2bd80	1.2714081
75	0x3f5d7bc1	0.8651696
76	0x3f9cdbdf	1.2254599
77	0x3fcd35be	1.6032026
78	0x3f89c675	1.0763689
79	0x3facb6e6	1.3493316
80	0x3ef342ba	0.47511846
81	0x3fafa5e4	1.3722501
82	0x3feadb7e	1.8348234
83	0x3edf8b6c	0.43661058
84	0x3fad1e63	1.3524898
85	0x3fa9dd19	1.3270599
86	0x3f3257c7	0.6966519
87	0x3fb15159	1.385295
88	0x3f0e57e8	0.55602884
89	0x3f745d2b	0.95454663
90	0x3fa1b78e	1.2634141
91	0x3faf0b48	1.3675318
92	0x3f102257	0.563024
93	0x3f60dc60	0.87836266
94	0x3ff7fd7a	1.937423
95	0x3fd5b5fb	1.6696161
96	0x3facc903	1.3498844
97	0x3edb7d36	0.42868966
98	0x3fb75d60	1.4325371
99	0x3fb59fdd	1.4189411
100	0x3f832d34	1.024817
101	0x3f8a3e48	1.0800257
102	0x3fa2a575	1.2706743
103	0x3fa584fd	1.293121
104	0x3fcece20	1.6156654
105	0x3f7897f4	0.9710686
106	0x3ff57087	1.9174966
107	0x3cb2d2ae	0.021828976
108	0x3f50fee8	0.81638956
109	0x3f1ed4a0	0.6204319
110	0x3faf89d4	1.3713937
111	0x3f7ffa72	0.99991524
112	0x3f7c1d24	0.98481965
113	0x3fa4f32c	1.288671
114	0x3ff0faf9	1.8826591
115	0x3f7a14d9	0.9768806
116	0x3f7cbd44	0.98726296
117	0x3e4d9a17	0.20078312
118	0x3f23cdea	0.63986075
119	0x3faae96a	1.3352482
120	0x3e15b1b9	0.14618577
121	0x3ff96ade	1.9485738
122	0x3f9a56cc	1.2057738
123	0x3f735192	0.9504634
124	0x3fc6c030	1.5527401
125	0x3f68d8e2	0.90955937
126	0x3ece02da	0.4023655
127	0x3f910a59	1.1331283
128	0x3fbaf342	1.4605486
129	0xbb314486	-0.00270489
130	0x3fda5c8b	1.7059492
131	0x3e10ebce	0.14152452
132	0x3fa3febc	1.2812114
133	0x3f6acc9c	0.9171846
134	0x3f339cec	0.7016132
135	0x3ee5a86d	0.4485506
136	0x3ff85a61	1.9402581
137	0xbd996054	-0.07489076
138	0x3fb3d9db	1.4050859
139	0x3f3db3f3	0.74102706
140	0x3ee9db64	0.45675194
141	0x3f247767	0.64244694
142	0x3f760d93	0.9611446
143	0x3f93a08b	1.1533369
144	0x3f841ef0	1.0321941
145	0x3f6bfcac	0.9218242
146	0x3fb3464a	1.4005826
147	0x3ecdce8d	0.40196648
148	0x3f9c857a	1.2228234
149	0x400b8f86	2.180635
150	0x3fc2a482	1.5206454
151	0x3fb03f35	1.3769289
152	0x3e08df55	0.13366444
153	0x3f3ff6ae	0.7498578
154	0x3b58d31e	0.003308482
155	0x3f86887d	1.0510403
156	0x3fb4e6e6	1.4132965
157	0x3f5365b4	0.8257706
158	0x3f64133b	0.89091843
159	0x3f934a2a	1.1507008
160	0x3efa21bc	0.48853862
161	0x3f78d5d2	0.97201264
162	0x3f713962	0.94228184
163	0x3f50b4d2	0.8152591
164	0x3fc88c80	1.5667877
165	0x3f441b33	0.76604
166	0x3fa0d138	1.2563848
167	0x3fd29ace	1.6453493
168	0x3f8db1eb	1.1069921
169	0x3f63d9ae	0.8900403
170	0x3e634e55	0.2219785
171	0x3fc080a6	1.503926
172	0x3f06b471	0.5261908
173	0x3fa6cc7f	1.3031157
174	0x3e9c7b51	0.30562833
175	0x3f458fd7	0.7717261
176	0x3fa841c0	1.3145065
177	0x3f8821a8	1.0635271
178	0x3f0215c8	0.50814486
179	0x3fb88fa1	1.4418832
180	0x3fc20e5b	1.5160631
181	0xbdadd8cc	-0.08488616
182	0x3faca3b8	1.3487463
183	0x3f8ae420	1.0850868
184	0x3fea2dcc	1.8295226
185	0x3f31bd2e	0.6942929
186	0x3f8fa643	1.1222614
187	0x3df16300	0.11786461
188	0x3f957f73	1.167952
189	0x3fb7020f	1.4297503
190	0x3fa27096	1.2690609
191	0x3ef920cf	0.48657843
192	0x3f8aca23	1.0842937
193	0x3f98e8b7	1.1946019
194	0x3fa2212f	1.2666377
195	0x3fc9c89a	1.5764344
196	0x3fe6fa22	1.8045084
197	0x3fb5f5dc	1.4215655
198	0x3fb72c0e	1.431032
199	0x3f8453d5	1.0338084
200	0x4017b63e	2.3704982
201	0x3f95486a	1.1662724
202	0x3fe0abd2	1.7552435
203	0x3eca96ff	0.39568326
204	0x3f68598c	0.9076164
205	0x3babd70e	0.0052441424
206	0x3fa480f0	1.2851849
207	0x3fd9345e	1.6969106
208	0x3bdca8df	0.006733998
209	0x3fce676d	1.6125313
210	0x3f6c7547	0.9236645
211	0x3fa61b59	1.2977096
212	0x3f958f66	1.1684387
213	0x3fa33ef5	1.2753588
214	0x3f923e1e	1.1425207
215	0x3fca4b42	1.5804217
216	0x3f50d82d	0.8157986
217	0x3fc79794	1.5593133
218	0x3f803f7f	1.0019377
219	0x3f504165	0.81349784
220	0x3e387258	0.18012369
221	0x3ecd8ecb	0.40148005
222	0x3f9caa16	1.2239406
223	0x3fba2886	1.4543617
224	0x3fb24856	1.3928325
225	0x3c127036	0.008937886
226	0x3fa667a7	1.3000382
227	0x3f4ed5c9	0.8079496
228	0x3fc8b177	1.5679158
229	0x3f3bb16b	0.73317593
230	0x3f9bb600	1.2164917
231	0x3fa9dfd1	1.3271428
232	0x3cbfe06d	0.023422444
233	0x3fc97d43	1.5741352
234	0x3fbc890d	1.4729325
235	0x3f37519e	0.7160891
236	0x3fcc61a9	1.5967304
237	0x3ff3417b	1.9004358
238	0x3f89613b	1.0732797
239	0x3f9a2aa9	1.2044269
240	0x3f48bb0c	0.7841041
241	0x3f9eb9ca	1.2400448
242	0x3e37095f	0.17874669
243	0x3f5d3bd2	0.86419404
244	0x3f868ce9	1.0511752
245	0x3ece15b6	0.4025094
246	0x3fbbc6a4	1.4669995
247	0x3f4b7e7c	0.79489875
248	0x3ec86f30	0.3914733
249	0x4002107d	2.0322564
250	0x3fada43c	1.3565745
251	0x3f3da90b	0.74086064
252	0x3f2f35a3	0.6844122
253	0x3fb32903	1.3996891
254	0x3b596683	0.0033172674
255	0x3fe82661	1.8136712

gnn_node.convs.0.mlp.1.bias f4 [256]
0	0x3b2a6224	0.0025998438
1	0xbef3c8dc	-0.4761418
2	0xbe5a21bb	-0.2130193
3	0xbe447e73	-0.19188862
4	0x3df08f03	0.11746027
5	0x3f36f7a9	0.7147165
6	0xbf0b3f5b	-0.5439355
7	0xbf1cd00f	-0.6125497
8	0x3d12ce27	0.035841133
9	0xbf76ba3c	-0.9637792
10	0xbeec873f	-0.46196935
11	0x3f52e302	0.82377636
12	0xbeb01d16	-0.3439719
13	0xbecb9bcb	-0.39767298
14	0xbd948afd	-0.072530724
15	0xbddb64b1	-0.10712565
16	0xbe866303	-0.26247415
17	0xbfad508a	-1.3540204
18	0xbeff10bd	-0.49817458
19	0xbeea97c1	-0.45818904
20	0xbf1c1190	-0.609643
21	0x3f3402ad	0.7031658
22	0xbf037b82	-0.5136033
23	0xbf8e7458	-1.1129255
24	0xbf449dc6	-0.76803243
25	0xbde8da33	-0.11369743
26	0x3ea7ee86	0.32799166
27	0xbedcd619	-0.43132094
28	0x3daf90cc	0.0857254
29	0xbe028a1c	-0.12747997
30	0xbebe7d69	-0.37205055
31	0xbe44b80a	-0.1921083
32	0x3efe36fc	0.49651325
33	0xbf0b9441	-0.5452309
34	0xbd1b5d82	-0.037930973
35	0xbf1c6dc1	-0.6110497
36	0xbef570aa	-0.47937518
37	0xbed380bc	-0.41309154
38	0x3f218f60	0.631094
39	0xbf113b9f	-0.567316
40	0xbe8615cc	-0.26188505
41	0x3e4790db	0.19488852
42	0xbee457e0	-0.44598293
43	0xbebc645d	-0.3679532
44	0xbfb16cca	-1.3861325
45	0xbed099a2	-0.40742213
46	0xbdefcf3f	-0.11709451
47	0xbe15aea1	-0.14617397
48	0xbea26858	-0.31720233
49	0x3cafc963	0.021458333
50	0xbf25103f	-0.64477915
51	0xbf107524	-0.5642874
52	0xbf0a4ad3	-0.5402042
53	0xbecc9674	-0.39958537
54	0xbf4eec36	-0.8082918
55	0xbf1b6528	-0.6070123
56	0xbe890f7b	-0.26769623
57	0xbf1b1131	-0.60573107
58	0xbf2699ff	-0.6507873
59	0xbf25477d	-0.6456221
60	0xbe819b7c	-0.25313938
61	0xbe003c98	-0.12523115
62	0xbe8c7a6c	-0.2743715
63	0xbec09b97	-0.37618706
64	0xbee8f345	-0.454981
65	0xbe852a24	-0.26008713
66	0xbe312846	-0.1730052
67	0xbfbea0f9	-1.4892875
68	0xbd7c469d	-0.06159078
69	0xbe2276aa	-0.15865579
70	0xbe9ca8d9	-0.3059757
71	0xbe8b35ce	-0.27189487
72	0xbf80158e	-1.0006578
73	0xbeee4efb	-0.46544632
74	0xbebc326c	-0.3675722
75	0xbee364de	-0.44412893
76	0xbeb48774	-0.35259593
77	0xbf29225e	-0.66068065
78	0x3ec9af88	0.39391732
79	0xbdc514e5	-0.09623126
80	0xbebd2c6a	-0.36947948
81	0xbec28966	-0.37995452
82	0xbeefe104	-0.4685136
83	0xbed5441a	-0.4165352
84	0xbe94a8c1	-0.29035
85	0xbe6cdf1f	-0.23131989
86	0xbf1b9651	-0.6077624
87	0xbf2b62eb	-0.6694781
88	0xbf1116aa	-0.5667521
89	0xbf13885c	-0.5762994
90	0xbe9184f5	-0.2842175
91	0xbe85e449	-0.2615073
92	0x3dc4ee9f	0.09615826
93	0xbed1150e	-0.40836376
94	0xbeadd561	-0.33951858
95	0xbea55936	-0.32294625
96	0xbf24caae	-0.64371765
97	0x3e8480af	0.25879428
98	0xbf03d2ca	-0.51493514
99	0xbeb2622f	-0.34840533
100	0xbe327b8b	-0.1742994
101	0xbeb5f0f0	-0.35535383
102	0xbe97ee74	-0.29674113
103	0xbeb34404	-0.3501283
104	0xbf094d18	-0.5363326
105	0xbecbbc85	-0.39792266
106	0xbf257ea3	-0.6464636
107	0xbe9e7788	-0.3095057
108	0xbde8edeb	-0.11373504
109	0xbe90d129	-0.28284577
110	0xbf0ea41f	-0.5571918
111	0xbf126aa2	-0.5719396
112	0xbe16714e	-0.1469166
113	0xbc01831e	-0.007904796
114	0xbf029945	-0.5101512
115	0xbf0c549b	-0.548166
116	0xbf0708b2	-0.52747643
117	0xbe66c43d	-0.22535796
118	0xbdbbedd9	-0.09176225
119	0xbf3d8fdc	-0.74047637
120	0xbe8f7777	-0.28020832
121	0xbcaab03b	-0.020835986
122	0x3e106820	0.1410222
123	0xbea1f6ae	-0.31633514
124	0xbeefa2fa	-0.4680403
125	0xbe72949e	-0.23689505
126	0xbf8ca6e9	-1.0988437
127	0xbf871d95	-1.0555903
128	0xbf24b5f7	-0.64340156
129	0x3e986cbb	0.29770455
130	0xbf0118cc	-0.5042846
131	0xbe2b0a60	-0.16703176
132	0x3da48bd8	0.080344856
133	0xbe897867	-0.26849672
134	0xbf61a84c	-0.88147426
135	0xbea0e830	-0.31427145
136	0xbe5417c9	-0.20712198
137	0x3e50a1a7	0.20374165
138	0xbf091ff3	-0.53564376
139	0xbe8a7989	-0.2704585
140	0xbe27b0dd	-0.16376062
141	0xbf8cdd2d	-1.1004997
142	0xbe150bfa	-0.1455535
143	0xbe8fc5ae	-0.28080505
144	0xbefb204d	-0.4904808
145	0xbeb618cd	-0.35565796
146	0x3e2ebbe4	0.17063862
147	0x3cea45cd	0.028597737
148	0xbd36527d	-0.04451226
149	0x3dc14e93	0.09438815
150	0xbe826627	-0.2546856
151	0xbe0f318e	-0.13983747
152	0xbf2f4b92	-0.68474686
153	0xbe5e021e	-0.21680495
154	0x3e9fe06b	0.31225905
155	0xbe841041	-0.2579365
156	0xbf41a7c3	-0.7564661
157	0xbeca02bf	-0.3945522
158	0x3e22f516	0.15913805
159	0xbeec9252	-0.46205384
160	0xbf8096e7	-1.0046052
161	0xbed68c0d	-0.41903725
162	0xbeaf04f1	-0.34183457
163	0xbefd6331	-0.4948974
164	0xbee351df	-0.443984
165	0xbdc93657	-0.09824818
166	0xbed86f45	-0.42272392
167	0x3ccfcd02	0.02536631
168	0xbde474f6	-0.11155121
169	0xbef8705c	-0.48523223
170	0xbdd8f217	-0.1059305
171	0xbee5f0df	-0.44910333
172	0xbe539ff3	-0.20666485
173	0xbef8b86a	-0.48578197
174	0xbe0925f7	-0.13393389
175	0xbe77bae6	-0.2419239
176	0xbf200d99	-0.6252075
177	0xbe0739ab	-0.13205592
178	0xbfd34b18	-1.6507292
179	0xbf1e5867	-0.6185364
180	0xbefa9f71	-0.4894977
181	0xbf46c505	-0.7764438
182	0x3e5c8cbf	0.21538065
183	0xbf21cf1a	-0.63206637
184	0xbef113d9	-0.47085455
185	0xbf1edb6c	-0.6205356
186	0x3eb4bef6	0.35301942
187	0x3df08739	0.11744542
188	0xbf110d42	-0.56660855
189	0xbebfd01b	-0.3746346
190	0xbef4288c	-0.47687185
191	0xbef19204	-0.47181714
192	0xbefc467a	-0.4927252
193	0xbf173468	-0.5906434
194	0xbede2bd5	-0.43392816
195	0xbeeff714	-0.46868193
196	0xbea010f7	-0.31262943
197	0xbef9a36f	-0.48757502
198	0xbf06dffe	-0.52685535
199	0xbf691a1a	-0.9105545
200	0xbea9a7d5	-0.33135858
201	0xbed1519e	-0.4088258
202	0xbea4a6be	-0.32158464
203	0xbfc6968d	-1.5514694
204	0xbf5609e0	-0.8360882
205	0x3f0b8f85	0.5451587
206	0xbe1ea76b	-0.15493552
207	0xbe2fe041	-0.1717539
208	0x3eca8489	0.3955424
209	0xbe803777	-0.25042316
210	0xbf14c730	-0.58116436
211	0xbf24c28a	-0.64359343
212	0xbef2362f	-0.47306964
213	0xbeb32233	-0.3498703
214	0xbf1d5233	-0.6145355
215	0xbec584c7	-0.38577864
216	0x3eb2673d	0.3484439
217	0xbf1dbf32	-0.61619866
218	0xbf0c0ec4	-0.5471003
219	0xbfd2b9ce	-1.6462953
220	0xbe16b227	-0.14716397
221	0xbfbce380	-1.4756927
222	0xbe41ec36	-0.18937764
223	0xbf094562	-0.53621495
224	0xbc5e8277	-0.01358091
225	0x3f11a07e	0.56885517
226	0xbf0305d7	-0.51180786
227	0xbe529f15	-0.20568497
228	0xbe3714ee	-0.17879078
229	0xbeb8759d	-0.36027232
230	0xbec21bc6	-0.37911814
231	0xbc5011ec	-0.012699585
232	0x3d89e0cc	0.0673233
233	0xbed777fd	-0.4208373
234	0xbd37cf59	-0.044875477
235	0x3dde326c	0.10849461
236	0xbec9ec25	-0.39437976
237	0xbe4a92b0	-0.1978252
238	0xbef4cf1c	-0.47814262
239	0xbf5af4ba	-0.85529673
240	0xbfb9a9f3	-1.4504989
241	0x3d0f6218	0.03500566
242	0xbf38e0a7	-0.7221779
243	0x39a628cd	0.00031692386
244	0x3ac0da09	0.0014713417
245	0x3d046a4b	0.03232793
246	0xbf1bc706	-0.6085056
247	0xbf116a90	-0.56803226
248	0xbe5682e0	-0.20948362
249	0xbe8ff517	-0.28116676
250	0xbeef834d	-0.46779862
251	0xbd8451e6	-0.064609334
252	0x3c963536	0.01833592
253	0xbf08de77	-0.53464454
254	0xbdbc0429	-0.09180481
255	0xbeda6e6f	-0.4266238

gnn_node.convs.0.mlp.1.running_mean f4 [256]
0	0x41309b39	11.037896
1	0x413ea41f	11.915069
2	0x40493ce3	3.1443412
3	0x4183f358	16.49382
4	0xbf803954	-1.0017495
5	0x4188fb69	17.122759
6	0x41b1616d	22.172571
7	0xbf0c3209	-0.5476385
8	0x40b6d43e	5.7134085
9	0xc1d099fd	-26.07519
10	0xbecea3a3	-0.4035922
11	0x408ed9e4	4.464098
12	0x41546acf	13.276076
13	0x40e212fe	7.0648184
14	0x42179868	37.898834
15	0x41ee68ed	29.801233
16	0xc1fd49d2	-31.661045
17	0xbfa58da7	-1.2933854
18	0x413f03a0	11.938385
19	0xc1178dd6	-9.472128
20	0x41988cbd	19.06872
21	0x4024294c	2.5650206
22	0x40b86628	5.7624702
23	0xbfa10352	-1.2579138
24	0x413c2988	11.760139
25	0xc0819d6f	-4.050468
26	0xc1b1c4f8	-22.221176
27	0x412b4132	10.703417
28	0xc11f8720	-9.9704895
29	0xbfded78b	-1.7409528
30	0x4105788d	8.341931
31	0x40f552ed	7.666373
32	0x40ac9bde	5.3940268
33	0x4183ed07	16.490736
34	0xbd719e66	-0.05898895
35	0x40ee7f19	7.453015
36	0x408752f1	4.2288747
37	0xc178490d	-15.517835
38	0x40c94086	6.2891264
39	0x40d57bd9	6.671368
40	0xc0cfeb1a	-6.497449
41	0xc20206cd	-32.50664
42	0xc115c51e	-9.360624
43	0xc17d3c45	-15.827214
44	0x41cc056b	25.502645
45	0xc08ab52f	-4.334617
46	0x402076d7	2.5072534
47	0x408f122a	4.4709673
48	0x41022376	8.133657
49	0x40a5ad10	5.177376
50	0xc12e2672	-10.884386
51	0xbd978e2e	-0.074001655
52	0x41006128	8.02372
53	0xc0c7a2b6	-6.238612
54	0x412b9b6a	10.725443
55	0x4147de1d	12.491727
56	0xc12dcd12	-10.862566
57	0xc0fe996f	-7.9562297
58	0xc1ea0d23	-29.256414
59	0xc0356cc9	-2.8347647
60	0xc1180d84	-9.5033
61	0x40555d88	3.3338337
62	0x3e72e1dd	0.23718973
63	0x3e9b1bcb	0.30294642
64	0x3fb4431a	1.4082978
65	0xc1bd2373	-23.64231
66	0x41bf6036	23.921978
67	0xc0f9e107	-7.808719
68	0x413d77ee	11.84178
69	0xc0992d41	-4.786774
70	0x4130c479	11.047967
71	0x4009031d	2.140815
72	0x4182eea9	16.366533
73	0xbfb47e8d	-1.410112
74	0x417df53b	15.872371
75	0xc0aa523c	-5.3225384
76	0xc1918052	-18.187656
77	0x41557ed5	13.343465
78	0x4202bec8	32.68631
79	0xc20fea7b	-35.978985
80	0x3eb6920c	0.356583
81	0x41a0ec7e	20.115475
82	0x41900c7c	18.006096
83	0xbfdd5af3	-1.729338
84	0x3fb66748	1.4250269
85	0x41b72797	22.894331
86	0xc02d8d14	-2.7117357
87	0x41109db9	9.0385065
88	0x412c2f9a	10.761621
89	0xc10dbf1c	-8.859158
90	0xbf3a5ec9	-0.7280088
91	0xc0357128	-2.8350315
92	0x410fe341	8.992982
93	0xc08e3375	-4.4437814
94	0x4136ad27	11.4172735
95	0xc156417d	-13.390988
96	0x40c7ba16	6.2414656
97	0x41b4ad66	22.584667
98	0xc0aeab28	-5.458393
99	0x41902961	18.020205
100	0xc1f49682	-30.57349
101	0x4067355f	3.6126325
102	0x40c75823	6.229509
103	0xc12f4b2b	-10.955852
104	0x40f09e77	7.519344
105	0x4101de1e	8.116728
106	0x41943baa	18.529133
107	0x3fc91644	1.570992
108	0xc167096f	-14.439803
109	0xc19c42a5	-19.532541
110	0x3fc867d0	1.5656681
111	0xc0958a27	-4.6731143
112	0x410ebbbf	8.920836
113	0x4100b3f8	8.043938
114	0x40d20c7c	6.564024
115	0x4174238c	15.258678
116	0xc1b81338	-23.009384
117	0x40bb5603	5.8542495
118	0xc03c323a	-2.9405656
119	0x419ac32e	19.345303
120	0xc13d7280	-11.840454
121	0xbfc3b6f3	-1.5290207
122	0x3fc13039	1.5092841
123	0xc1cbae23	-25.460028
124	0xc0d89048	-6.7676125
125	0xc1a53a3f	-20.65344
126	0x41636a56	14.213461
127	0x4181177f	16.136473
128	0x4051ee33	3.2801635
129	0x3f6bccd3	0.9210941
130	0x3ee76762	0.45196062
131	0xc068b395	-3.6359608
132	0xc0896f82	-4.294862
133	0xc191a749	-18.206682
134	0xc1ddd7b2	-27.73032
135	0xc0592c77	-3.393339
136	0xc0da04ed	-6.8131013
137	0x410907c8	8.5644
138	0x4176fa6d	15.436139
139	0xc139473a	-11.579889
140	0xc18c1c06	-17.513683
141	0xc19ee038	-19.859482
142	0x410a9026	8.6601925
143	0xc16d8b54	-14.846516
144	0xc0b8ecf8	-5.778927
145	0xc0a6fe35	-5.218531
146	0x41c4ad3e	24.58459
147	0x41341607	11.255378
148	0xc12eb246	-10.918524
149	0xc1818297	-16.188765
150	0x41636758	14.21273
151	0x410acef3	8.675525
152	0x404c8d5c	3.196128
153	0x410d3caf	8.827315
154	0xbfd20b98	-1.6409788
155	0x413d2d54	11.823566
156	0xc0975e00	-4.7302246
157	0xc1280478	-10.501091
158	0x40c27edb	6.0779853
159	0xc128753f	-10.528625
160	0x41018d30	8.09697
161	0x414fc9cd	12.986768
162	0xbf511660	-0.81674767
163	0xc1106bf0	-9.026352
164	0x409032b0	4.5061874
165	0x4154b396	13.293844
166	0x40b4406f	5.6328654
167	0xc139bf76	-11.609243
168	0x4129373f	10.575988
169	0xc0dab602	-6.8347178
170	0x3fb3e16e	1.4053171
171	0xc11bdbe8	-9.741188
172	0xc0ad5998	-5.4171867
173	0xc0807b47	-4.0150485
174	0x413f44b5	11.954274
175	0xc137bead	-11.484052
176	0xc0325075	-2.7861607
177	0x410816aa	8.505533
178	0xc110bc8f	-9.046035
179	0xc015a5e2	-2.3382497
180	0xbfce9301	-1.6138612
181	0x411806b4	9.5016365
182	0xc0b6c269	-5.7112317
183	0x4194bebc	18.593132
184	0xc127eddd	-10.495572
185	0x4196d446	18.85365
186	0x41a599dd	20.700129
187	0x4110e0b2	9.054857
188	0xbf2aa238	-0.66653776
189	0xc1aa7a7d	-21.309809
190	0x4185babe	16.716183
191	0xc0c472a3	-6.1389937
192	0x40f923c2	7.785615
193	0x414b60aa	12.7111
194	0x3fa1efdc	1.2651324
195	0xbffce6e9	-1.9757968
196	0xc11f2a71	-9.947862
197	0xc0481cb4	-3.126752
198	0x414ff13d	12.996396
199	0xc0937562	-4.608079
200	0x3d84dd9d	0.06487582
201	0xbfb7181d	-1.4304234
202	0xc15a93a1	-13.661042
203	0xc08419c4	-4.128145
204	0x413c40e2	11.765841
205	0x4064e49d	3.5764534
206	0x417b2af1	15.697984
207	0x40b2f134	5.5919437
208	0x41750561	15.313813
209	0xbe9a5284	-0.3014108
210	0xc15cb2bf	-13.793639
211	0x405e86d2	3.4769788
212	0x413f204b	11.945384
213	0x413c60a3	11.773593
214	0xbf5e806d	-0.8691471
215	0x41143a0e	9.2641735
216	0x41d2628d	26.29812
217	0x411b7448	9.715889
218	0x409dea0c	4.93482
219	0x3f1445fe	0.579193
220	0x4114a142	9.28937
221	0x408f2e30	4.474388
222	0x41927281	18.30591
223	0x40a19dac	5.050497
224	0xc021a095	-2.5254261
225	0x41440113	12.250262
226	0xc14c360d	-12.763196
227	0xc149850b	-12.594981
228	0xbf5cde47	-0.8627667
229	0x40be2aa6	5.942706
230	0x3f20f879	0.6287914
231	0xbf729923	-0.9476492
232	0x40b7e86b	5.7471213
233	0x417c5354	15.770344
234	0xc15f9639	-13.974175
235	0x40c2a6bf	6.0828547
236	0xbdd2c3d1	-0.10291255
237	0xc192e03f	-18.359495
238	0x415bd5e8	13.739723
239	0x41868e2a	16.819416
240	0xbf73410d	-0.95021135
241	0x4138b620	11.544464
242	0x40708efc	3.758727
243	0x41a151fe	20.165035
244	0x406a29a3	3.6587913
245	0x403db2f6	2.964048
246	0xc1585228	-13.520058
247	0xc19a7058	-19.304855
248	0xc1890dd8	-17.13176
249	0x41a65641	20.792116
250	0x4125438a	10.328989
251	0x4185f719	16.745653
252	0xc18d3214	-17.649452
253	0xc1593898	-13.576317
254	0x40a6f495	5.217356
255	0xc1893113	-17.148962

gnn_node.convs.0.mlp.1.running_var f4 [256]
0	0x431119cf	145.10081
1	0x43086ea0	136.43213
2	0x42d60bd2	107.02309
3	0x430a4b1e	138.29343
4	0x42f9cac9	124.896065
5	0x42a86b55	84.20963
6	0x4207f45f	33.988644
7	0x42b86231	92.19178
8	0x42b74024	91.625275
9	0x42403486	48.051292
10	0x40dc2960	6.8800507
11	0x42d92183	108.56545
12	0x428e3606	71.105515
13	0x42b2b090	89.34485
14	0x4360f789	224.96693
15	0x438539ae	266.45062
16	0x42ba4840	93.14111
17	0x42b3eaeb	89.958824
18	0x42dfe4c8	111.94684
19	0x437c1414	252.07843
20	0x4323fd30	163.98901
21	0x433984ff	185.51952
22	0x43292e6b	169.18132
23	0x4215f893	37.49275
24	0x4194fab9	18.622423
25	0x432af306	170.94931
26	0x4305fe03	133.99223
27	0x4334f448	180.95422
28	0x421f1632	39.771675
29	0x425a9487	54.645046
30	0x42f077b9	120.23383
31	0x42bd4995	94.643715
32	0x4323a877	163.65807
33	0x4316ea73	150.91582
34	0x42ff2ff6	127.59367
35	0x4338cff5	184.81233
36	0x42c7422f	99.629265
37	0x42301477	44.019985
38	0x425b8970	54.884216
39	0x4348de5d	200.8686
40	0x426d9879	59.3989
41	0x4296141c	75.039276
42	0x42147917	37.11825
43	0x422e216e	43.532646
44	0x41ef8831	29.9415
45	0x4229ed36	42.48165
46	0x41c3b2d2	24.462315
47	0x427281ce	60.626762
48	0x42e65324	115.162384
49	0x4204aab5	33.166706
50	0x429f2036	79.56291
51	0x43804f3a	256.61896
52	0x431e63c1	158.38966
53	0x42dfdf5f	111.93627
54	0x425732d4	53.799637
55	0x428d8b56	70.77214
56	0x429931df	76.597404
57	0x42def589	111.47956
58	0x41e9b47d	29.213129
59	0x4247ec56	49.980797
60	0x424e36f7	51.553677
61	0x427d053b	63.255108
62	0x4291093c	72.518036
63	0x4299a359	76.81904
64	0x43208d5c	160.55219
65	0x42a12120	80.5647
66	0x42b5f669	90.98127
67	0x43003fea	128.24966
68	0x428c3b1c	70.11545
69	0x42ab1798	85.54608
70	0x42c17ab9	96.73969
71	0x41c8f202	25.118168
72	0x428f0863	71.51638
73	0x4196c725	18.847239
74	0x434e64b0	206.39331
75	0x42e66287	115.19244
76	0x4349e55f	201.89598
77	0x42ab415e	85.62767
78	0x430a8465	138.51717
79	0x43125c4a	146.3605
80	0x42842f0b	66.09188
81	0x4259b2ac	54.424484
82	0x42b57b63	90.74099
83	0x419b4959	19.410814
84	0x42d15df9	104.68354
85	0x42a4b5b3	82.35488
86	0x418f3df4	17.90525
87	0x42e2a4bf	113.32177
88	0x41f50df5	30.631815
89	0x42436724	48.850723
90	0x42febe10	127.371216
91	0x427f2300	63.78418
92	0x43b03d5d	352.4794
93	0x42a73a7d	83.614235
94	0x4280f9c6	64.48784
95	0x43e4dc3c	457.72058
96	0x42c502ba	98.505325
97	0x429296f4	73.29483
98	0x4348e337	200.88756
99	0x431b5da7	155.36583
100	0x4311dd79	145.86513
101	0x43365e68	182.36877
102	0x42fdd1f0	126.910034
103	0x437d783d	253.46968
104	0x42e16bbc	112.71042
105	0x42582672	54.037544
106	0x42b5df58	90.93622
107	0x4261e17a	56.470192
108	0x42ad5208	86.66022
109	0x42410298	48.252533
110	0x430a0748	138.02844
111	0x41c50270	24.62619
112	0x424ee43d	51.72289
113	0x42b80050	92.00061
114	0x43027d6d	130.48994
115	0x43310a1b	177.03947
116	0x41e5df7e	28.734127
117	0x42994edb	76.654015
118	0x42080853	34.00813
119	0x428bab9b	69.83517
120	0x42844b04	66.146515
121	0x42332fe0	44.796753
122	0x432d918a	173.56851
123	0x42a8f9d0	84.487915
124	0x42e959bd	116.67527
125	0x41fc31f2	31.524387
126	0x41fd2816	31.644573
127	0x42398b2c	46.38591
128	0x42fee253	127.44204
129	0x4284b3fe	66.35155
130	0x424932e1	50.299686
131	0x42a1ad06	80.83794
132	0x425ac858	54.69565
133	0x41fa4961	31.28583
134	0x42ad1660	86.5437
135	0x42c88872	100.266495
136	0x42cb4466	101.63359
137	0x42501139	52.01682
138	0x432eb055	174.6888
139	0x42561293	53.51814
140	0x42214779	40.319798
141	0x4279b890	62.430237
142	0x42a226b7	81.075615
143	0x4254ceab	53.201824
144	0x42857f99	66.749214
145	0x42c9d6e6	100.91972
146	0x42eca120	118.3147
147	0x439b402a	310.50128
148	0x42c8e448	100.44586
149	0x440a3b52	552.9269
150	0x43263801	166.21877
151	0x42a47df4	82.246
152	0x4248afdc	50.171738
153	0x422d54fc	43.332993
154	0x42c4baa3	98.364525
155	0x4354b77d	212.71675
156	0x4289a04e	68.813095
157	0x426f0f13	59.76472
158	0x42046250	33.09601
159	0x429a71d9	77.22236
160	0x421501b2	37.251656
161	0x4323d4e3	163.83159
162	0x429745df	75.63647
163	0x42ef9aa3	119.802025
164	0x430e8fe1	142.56203
165	0x4218ccbd	38.19994
166	0x430e5b4a	142.3566
167	0x431b0829	155.03188
168	0x431fb29d	159.69771
169	0x424a3782	50.554207
170	0x42780ab9	62.01047
171	0x4312821f	146.50829
172	0x4206fca9	33.74674
173	0x427ad42f	62.70721
174	0x43a23b2b	324.46225
175	0x4233a468	44.910553
176	0x42a83eb4	84.12247
177	0x4300938d	128.57637
178	0x42f9d89c	124.923065
179	0x431ff9f4	159.97638
180	0x425d7a3a	55.36936
181	0x42951520	74.54126
182	0x41ec9769	29.57393
183	0x4281b7ef	64.859245
184	0x433a9f0f	186.62132
185	0x4203be61	32.935917
186	0x431647bb	150.2802
187	0x434207bd	194.03023
188	0x4333c84b	179.7824
189	0x435e4e6a	222.3063
190	0x42cc3375	102.1005
191	0x4273bc99	60.934177
192	0x42a0ec4b	80.46151
193	0x4300188e	128.09592
194	0x421778fd	37.868153
195	0x437e9df5	254.61702
196	0x4380ad7c	257.35535
197	0x427e06e9	63.50675
198	0x431c4599	156.27187
199	0x42d3f6a0	105.98169
200	0x422a1a96	42.525963
201	0x43488041	200.50099
202	0x42dbb0d4	109.84537
203	0x42992340	76.56885
204	0x4290d768	72.420715
205	0x42f3f8a8	121.98566
206	0x42f314f5	121.54093
207	0x41c44d0b	24.537619
208	0x42f8df4c	124.43613
209	0x42de4083	111.126
210	0x4213080f	36.75787
211	0x4281a371	64.81922
212	0x421aff7d	38.7495
213	0x41e29e6f	28.32736
214	0x42857932	66.73671
215	0x435442ab	212.26042
216	0x430596f9	133.58974
217	0x432e3622	174.21146
218	0x42fc2014	126.06265
219	0x4243b8e1	48.930546
220	0x424af737	50.74142
221	0x435a5a47	218.35265
222	0x428e1fb2	71.061905
223	0x432759d0	167.35083
224	0x4244bf70	49.18695
225	0x42a5eeab	82.96615
226	0x42a4254e	82.07286
227	0x41b5cf4f	22.726225
228	0x426ac952	58.6966
229	0x4266cdd6	57.70101
230	0x428f2540	71.572754
231	0x43674a77	231.29088
232	0x4253a917	52.915127
233	0x42eb5f8d	117.68662
234	0x42777085	61.859882
235	0x42b94ea1	92.65357
236	0x43cbee9e	407.8642
237	0x43e2b1aa	453.388
238	0x428887fe	68.26561
239	0x423db78c	47.429245
240	0x4224733a	41.112526
241	0x42a48b1f	82.27172
242	0x42e9c26c	116.87973
243	0x42c33555	97.604164
244	0x43628f99	226.56093
245	0x4227c68a	41.943886
246	0x430507fb	133.03117
247	0x4228fde3	42.247936
248	0x41e1db86	28.23219
249	0x431fd7eb	159.84343
250	0x42ea59a3	117.17507
251	0x42d7914c	107.78378
252	0x42731eda	60.78013
253	0x42eda79a	118.82735
254	0x42d2ae63	105.3406
255	0x420a3cce	34.55938
