checkpoints/C_epoch_170.pth (torch, 843999 bytes, 48 tensors)

gnn_node.node_encoder.weight f4 [1, 128]
000000 c9 61 25 3f cd 36 3e bf 0c 08 00 bf ff 68 28 3e
       0.64602333 -0.7430237 -0.5001228 0.16446303
000010 56 87 53 be 16 3c 5e be e3 fd 71 3c 13 b3 e3 be
       -0.20657095 -0.21702608 0.014770004 -0.4447256
000020 a7 ab 0a 3f e1 89 bb be 58 d1 1d bf bb 87 16 3f
       0.5416817 -0.3662863 -0.6164756 0.5880086
000030 4e e4 a7 bf f1 d8 15 3d 03 a6 02 3f 32 65 16 bd
       -1.3116548 0.036583845 0.51034564 -0.0367176
000040 86 c2 bc bf c4 97 7d bf eb 25 82 3e 06 ea 73 bf
       -1.4746864 -0.990597 0.25419554 -0.95278966
000050 3a f9 8a bf 3c fb 8b 3d 49 f0 8e 3d 00 fc ce be
       -1.0857308 0.068350285 0.069794245 -0.40426636
000060 75 33 8e be a5 d9 c3 bf b4 52 ab be 61 0f 69 bf
       -0.27773634 -1.5300795 -0.33461535 -0.9103909
000070 19 48 5c 3f a3 86 0a be d6 e3 a0 3e 57 b4 1e c0
       0.8604751 -0.13527922 0.31423825 -2.479757
000080 b1 8e dd bf 22 3a 80 3e 7c 5a 16 bf 5d d7 cb 3e
       -1.7309171 0.25044352 -0.5873182 0.39812747
000090 d1 b3 16 c0 12 b3 89 be d2 2f 20 3f b3 44 4c be
       -2.3547251 -0.26894432 0.6257297 -0.19948082
0000a0 0e 32 94 bf 50 d9 c8 be 44 47 9c bf a4 af 1d c0
       -1.1577775 -0.39228296 -1.2209249 -2.4638453
0000b0 cb 7f b9 be 4c 21 30 3d ad d7 8e be aa e0 78 bf
       -0.3623031 0.043000504 -0.27898923 -0.9721781
0000c0 29 51 1a bf 10 93 13 ba bb 96 ad bf 92 db 9d bf
       -0.6028009 -0.0005629519 -1.3561624 -1.2332633
0000d0 a3 25 10 bf 04 e4 e6 3e 3a 65 41 bf 64 c6 ca 3e
       -0.5630743 0.45095837 -0.75545084 0.39604485
0000e0 8a f3 cf bf 93 26 49 3f cb 7d 8e bd 18 0a e2 3e
       -1.6246197 0.78574485 -0.06957587 0.44148326
0000f0 54 80 20 be d1 20 5d bf 2d f4 00 bf 98 bc 31 bf
       -0.15673953 -0.863782 -0.5037258 -0.69428396
000100 b6 48 0a c0 6a 07 f2 bf 83 80 85 bf 9c 48 73 3e
       -2.160688 -1.8908513 -1.0429844 0.23758167
000110 80 b2 85 3e e2 f1 1a be 59 e9 d6 be 01 0f 49 bf
       0.26112747 -0.15131333 -0.41974905 -0.7853852
000120 82 f2 a1 3d 17 fb f4 bf e4 98 44 bf df 6a 63 3e
       0.07907583 -1.9139127 -0.7679579 0.22208737
000130 14 11 d3 bf 87 a2 cb be 0e e4 02 bf 46 51 c5 bf
       -1.6489587 -0.39772436 -0.51129234 -1.5415428
000140 ab 03 ae bf 9d a7 e5 be 64 4d 93 bd 0a 7e 35 bf
       -1.3594869 -0.4485444 -0.071924955 -0.70895445
000150 88 bd 33 bf ea e5 25 bc 09 2a 3b 3e d6 0a 84 bf
       -0.70211077 -0.010125617 0.18277754 -1.0315807
000160 8a eb 7c 3f 06 68 ea be db 5d 78 3f 86 6c 3a bf
       0.98796904 -0.4578249 0.9701821 -0.72821844
000170 bc a8 68 3f 7a 2c c2 bf f1 32 80 bd 4d f1 20 3e
       0.9088247 -1.5169823 -0.06259716 0.15717049
000180 8d 91 55 be ef 2b 95 3e 28 95 81 bf 9e 2a 26 3f
       -0.20856304 0.2913508 -1.0123644 0.6490878
000190 9b 1a d2 be 31 f2 1b bf d8 dd b6 3f 48 dd cf 3e
       -0.41035923 -0.6091643 1.4286451 0.40598512
0001a0 97 70 28 3e 21 b0 52 3f 21 e3 10 3f 31 e5 c4 bf
       0.164492 0.823 0.5659657 -1.5382444
0001b0 35 29 01 3f 77 ea d2 bf 5a b5 12 3e 98 10 bb be
       0.504535 -1.6477803 0.14326993 -0.36536098
0001c0 f6 08 9a be 57 41 89 bf e8 41 8e bf ab c4 5a bf
       -0.30084962 -1.0723065 -1.1113863 -0.8545634
0001d0 80 ea 3b bf 1e 03 87 bf 67 96 78 bf 3a 56 02 c0
       -0.73404694 -1.0547826 -0.97104496 -2.0365129
0001e0 1e c5 b9 bf f9 eb 14 3a c8 d0 31 be 5d c1 c6 3d
       -1.451328 0.00056809146 -0.173648 0.0970485
0001f0 ae 1a 26 3e 9c 6a 26 bc 9e c4 00 3e 05 e1 2e bf
       0.16221115 -0.010157254 0.12575004 -0.683121

gnn_node.virtualnode_embedding.weight f4 [1, 128]
000000 a7 14 01 bf 03 43 f8 bd 07 07 de be 09 2e 0d be
       -0.5042214 -0.121221565 -0.43364736 -0.13787092
000010 99 dd 1d bf 5a 4e 72 be 37 f1 fb be 52 ef 1e be
       -0.61666256 -0.23662701 -0.4920747 -0.15520981
000020 db db c9 be 40 a1 60 be f0 80 22 be f3 09 4e be
       -0.3942555 -0.21936512 -0.15869498 -0.20120983
000030 61 2c ec be 30 83 08 bf cc 5c 5b bf 80 a6 83 3b
       -0.46127608 -0.53325176 -0.8568847 0.004017651
000040 98 23 c0 be a4 34 ae be 50 83 ca 3d 27 ab 40 be
       -0.37527156 -0.34024537 0.09888327 -0.1881529
000050 8a de 87 be bd 19 42 bf 6b 26 2a bf 89 d7 eb be
       -0.2653697 -0.75820524 -0.6646487 -0.46062878
000060 5d e9 16 bf 06 30 b9 3d 62 28 35 bf e9 53 03 bf
       -0.58949834 0.09042363 -0.70764744 -0.5129991
000070 bb 55 17 bf 9a 4f a6 be ac f1 8d bd f0 23 3b bf
       -0.5911519 -0.32482606 -0.06930861 -0.7310171
000080 2b a8 12 bf 9f 1d 67 bc 90 d0 1d be e4 9b 32 bf
       -0.57287854 -0.014106183 -0.15411592 -0.6976912
000090 09 02 7d be 18 7a b5 be dd 75 1a bf 8e 8c 10 bf
       -0.24707808 -0.35444713 -0.60336095 -0.5646447
0000a0 3c e6 8a be 80 30 cd be 78 ea f3 be 6f 31 58 bf
       -0.2712878 -0.40076065 -0.47639823 -0.8445043
0000b0 9d c1 b0 be 9d a9 7a be 94 50 03 bb c8 66 93 be
       -0.34522715 -0.24478765 -0.0020037042 -0.28789353
0000c0 1a bd 86 be af c6 5a 3e 44 f9 c8 be 2f 04 31 3d
       -0.26316148 0.21364854 -0.39252675 0.04321688
0000d0 f5 ca df be 95 b5 e9 be 2f 6b 9b be 40 f5 3a bf
       -0.4370953 -0.4564635 -0.30355212 -0.7303047
0000e0 42 9b ee be 74 12 4f bf a1 d1 f9 be a0 5b 94 be
       -0.46602827 -0.8088753 -0.48792747 -0.28976154
0000f0 82 0b b3 be 18 f8 d5 bd 71 b5 1f be 29 b3 b6 be
       -0.34969717 -0.10447711 -0.15596558 -0.35683563
000100 46 67 39 be 32 aa 42 3e 66 e5 88 be 96 aa dc 3d
       -0.18105802 0.19010237 -0.26737517 0.10774724
000110 53 59 e4 be ed cc 2d bf c5 e5 15 bf 67 fd 1f be
       -0.445994 -0.67890817 -0.58553725 -0.15624009
000120 f7 66 49 3c d0 de 56 bf af f1 cb be 2f 0b 10 bf
       0.012292615 -0.83933735 -0.39832827 -0.56267065
000130 3a be 68 be 92 8c 1d be d3 76 fe be 2c 06 11 bf
       -0.22728816 -0.15385655 -0.4970003 -0.5665004
000140 f0 82 30 bf 55 2e 15 bf f7 a3 d4 bc 99 ca 5d bd
       -0.68949795 -0.5827382 -0.02595709 -0.05414829
000150 9b 65 ca be 6c aa dc be 3b ec fb be 76 18 9e be
       -0.39530644 -0.43098772 -0.49203667 -0.30878037
000160 2e 02 5a bf a4 f3 25 bf 6f 5b 1b bf e5 2c 7f be
       -0.85159576 -0.6482489 -0.6068639 -0.2491947
000170 4c 22 5b bf 21 2b 8d bd 89 a9 bc bd 5e f8 5e 3d
       -0.8559921 -0.06892992 -0.09212024 0.05443608
000180 50 62 ab be 7b a0 b2 be 8b 1e 7d be 9b 2e b9 be
       -0.33473444 -0.34888062 -0.24718682 -0.3616837
000190 50 a8 af be 56 2a cb be d1 f8 4d bf 27 a3 01 bf
       -0.343081 -0.39680737 -0.8045779 -0.50639576
0001a0 5e c7 e5 be e0 86 59 be 3f 82 1f bf a2 0d 44 be
       -0.44878668 -0.21242857 -0.62308115 -0.19145826
0001b0 43 d0 01 be 26 45 06 bf 2b 3e 15 bd bf 3a 26 be
       -0.12677102 -0.5244926 -0.03643624 -0.16233347
0001c0 fc 1d c9 be d5 ae eb be 49 73 ae be 60 31 93 be
       -0.3928069 -0.46031824 -0.3407233 -0.28748608
0001d0 5b 77 62 be be 69 c4 bd e5 ac c4 be cd d1 84 be
       -0.22115843 -0.09590481 -0.38413158 -0.25941315
0001e0 a8 4a 30 bf 10 dd b8 be 38 3a 27 be a6 64 29 be
       -0.68863916 -0.36106157 -0.16330802 -0.165423
0001f0 8b cf 09 bf f5 9d 97 be 9e 65 72 bd b2 77 0d bf
       -0.5383231 -0.296127 -0.05917894 -0.55260766

gnn_node.convs.0.mlp.0.weight f4 [256, 128]
000000 0c 2a 08 bf f0 84 b5 3d 67 66 a3 bd e2 f5 25 3e
       -0.5318916 0.088632464 -0.07978516 0.16207078
000010 5c ca cf bc ad da 82 be db 84 fa 3d a0 e7 06 3f
       -0.025365047 -0.2555746 0.122323714 0.5269718
000020 22 89 b2 3d fd e8 c1 bd e9 4f 03 3d 5b 0e c1 3e
       0.08717562 -0.09468267 0.03205863 0.37706265
000030 c4 e6 83 3d 88 c0 27 bf 2c ac 0f be dc 5e 81 3d
       0.064404994 -0.65528154 -0.14030522 0.06316921
000040 71 38 e5 ba 79 43 a3 3d db 32 b0 3e 2d 23 88 3f
       -0.0017488134 0.07971854 0.344138 1.0635735
000050 72 89 87 bd 89 44 ce be e7 9b bd 3e a4 d9 b5 be
       -0.066180125 -0.40286663 0.37033007 -0.3551761
000060 9e 9c ea 3b 3a 82 bd 3d 1c 5c 95 3e f1 1c 99 bd
       0.0071597835 0.09253354 0.29171836 -0.07476223
000070 12 f8 27 3e f0 28 e3 bd 27 68 8a bd 93 1a 15 3d
       0.16403225 -0.110917926 -0.06758147 0.036402296
000080 19 73 af bd 04 77 d4 3e 50 71 3d be 28 c4 1b 3e
       -0.08566875 0.41497052 -0.18500257 0.15211546
000090 08 0c 5e 3d f2 fc 1d 3e ec 96 2f 3e bd 95 b9 3d
       0.054210693 0.15428522 0.17147416 0.090617634
0000a0 78 50 76 ba 44 56 a7 3d 98 ca 68 bd d4 dc bf 3b
       -0.0009396146 0.08170751 -0.056833833 0.005855182
0000b0 2e 25 fa 3f 9d 89 63 bc ac 44 ab 3e 8e c3 a8 3b
       1.9542596 -0.01388779 0.3345083 0.005150265
0000c0 07 a9 a9 3c d1 68 d8 bd a8 57 0d bd d7 b8 28 bd
       0.020710481 -0.10566867 -0.034507424 -0.041191902
0000d0 8f 7a d2 be bb 92 6e 3d 32 d4 1e bf c2 3c bf 3d
       -0.4110913 0.0582454 -0.62042534 0.093377605
0000e0 3d e8 c7 3b 3b 7e da bc d6 eb 8a 3e 80 3f 39 bd
       0.006100683 -0.02667152 0.27133054 -0.045226574
0000f0 68 5d 4d 3d d2 fd 22 bf 31 c9 03 bf 7a 4e 32 bf
       0.050137907 -0.6366855 -0.5147887 -0.69650996
000100 52 09 b2 3d 36 79 a8 3c 95 bc 83 bd b7 df d8 be
       0.08693184 0.02056561 -0.064324535 -0.4235818
000110 c1 5d 90 3d 3f 2c d5 bd d1 21 bc 3f 48 e4 d2 bb
       0.07049132 -0.1040883 1.469782 -0.0064359047
000120 4c e7 79 be a4 f4 27 3d 30 f4 7d bc 41 3b 1f bf
       -0.24404639 0.04100479 -0.015500113 -0.6219979
000130 0b 98 85 bd a3 b7 9b be 95 0e d3 3e b1 ce 61 3d
       -0.065231405 -0.3041354 0.41222063 0.055128757
000140 3e 30 40 3d 4a 99 e6 bb 28 bd 2d 3f 1a 71 30 bc
       0.046921007 -0.0070373164 0.67866755 -0.010769153
000150 60 95 27 3d ed be 0d bc 16 4c 30 bc 19 6e 17 3e
       0.04091394 -0.008651477 -0.010760328 0.14788093
000160 09 c0 98 3e 88 8b 67 3e 69 44 1f 3e 8e 22 ec bc
       0.2983401 0.2261182 0.1555344 -0.02882507
000170 27 60 0c 3d 1b 14 df 3c 05 16 e4 3f 9c a9 dc be
       0.034271386 0.027231267 1.781922 -0.43098152
000180 80 e4 9b bc e3 c5 13 3f c2 86 bb 3b 9c 6d 02 be
       -0.019029856 0.57723826 0.0057228515 -0.12737125
000190 a9 42 61 be 7f 1d db bc 29 d3 c4 be d4 74 7d 3c
       -0.21998085 -0.026747463 -0.38442352 0.0154697485
0001a0 e9 68 dd 3e b2 c3 65 be 40 c8 67 3e 05 be 47 bd
       0.43244103 -0.22437933 0.22634983 -0.0487652
0001b0 06 28 00 bf 71 7b 24 bd 7f 05 14 be 24 c2 15 be
       -0.5006107 -0.040156785 -0.14455222 -0.1462484
0001c0 fe 3d 4c 3e f2 00 30 bd e2 c6 bd bd 02 fa b7 bf
       0.19945523 -0.04296965 -0.092664495 -1.4373171
0001d0 06 53 20 bf e8 6e 34 be 37 ad 2c bd 07 49 70 3b
       -0.62626684 -0.17620432 -0.042157378 0.0036664621
0001e0 56 d3 8a bd d4 f6 a4 3e 99 20 64 3e 3e ba f9 3e
       -0.067785904 0.32219565 0.2227806 0.48774904
0001f0 86 f3 b9 3f 62 d0 8d 3e 4c 63 e1 be 94 c0 8e bf
       1.4527442 0.27698046 -0.4402107 -1.115252
000200 70 35 03 bd 6e 75 55 bd 46 e9 91 bc a0 2a aa be
       -0.032033384 -0.052113943 -0.017811429 -0.33235645
000210 63 30 e6 3b bd da d8 3e e3 c0 a0 bd a7 37 27 bf
       0.007024811 0.42354384 -0.0784929 -0.65319294
000220 b1 a2 13 be 6f 46 93 3e 7a 08 30 bd 81 06 eb 3e
       -0.1441753 0.28764674 -0.042976834 0.459034
000230 f5 bd c4 3b c4 93 27 be 6e 73 a7 3e 3d 2d 1c 3e
       0.00600409 -0.16364962 0.32705253 0.15251632
000240 0c f7 ed bd 56 af 25 bd 10 6d 86 bd a5 55 6c bf
       -0.11619386 -0.040450417 -0.06563771 -0.92318183
000250 85 c3 22 be 2d 3d 11 3f 47 52 0c 3f f2 7f 51 bf
       -0.15894897 0.5673397 0.54813045 -0.81835854
000260 2e a3 e2 3e b7 33 b6 bd 00 ac 30 bf 08 97 de bd
       0.4426512 -0.088965826 -0.6901245 -0.10868651
000270 e7 90 3a 3f 04 64 18 c0 58 d1 8e 3e be e3 a8 bc
       0.72877353 -2.3811045 0.27894092 -0.020616408
000280 af 66 46 3d ae cc c1 3d df 67 51 bf aa 13 b7 39
       0.04843777 0.09462868 -0.8179912 0.0003491913
000290 f7 c8 0f 3c 64 ad fc bd e9 34 17 3e a0 6e 5b 3d
       0.008775941 -0.12337759 0.14766277 0.053572297
0002a0 84 ed aa 3c 00 6c 8e be 73 be f5 3c 71 99 72 bd
       0.02086521 -0.27816772 0.02999804 -0.059228364
0002b0 d8 cb c4 bf 6a b3 8b 3d 9c a9 20 bf 03 a7 07 3d
       -1.5374708 0.0682133 -0.62758803 0.03311826
0002c0 92 7c b2 3c 3c d7 3f 3d f9 e4 90 bd ae e9 66 3d
       0.021787915 0.046836123 -0.07074923 0.056375198
0002d0 45 d8 68 be 68 cb 9a 3e 3c 4a 55 bd c5 db c3 be
       -0.2273875 0.30233312 -0.05207275 -0.38253608
0002e0 51 a0 cc 3a 3b 78 69 bd 5b 69 19 3e 81 25 0a bf
       0.0015611743 -0.056999426 0.14981596 -0.53963476
0002f0 22 41 9d bd 70 9a 82 3e b8 0e fd bc 9c ef 83 3f
       -0.07678439 0.2550845 -0.030890808 1.0307498
000300 59 71 d8 bd a3 04 3f bd cb 16 2c 3d a7 da 42 3e
       -0.10568494 -0.04663528 0.042013925 0.19028722
000310 01 66 db be 1b 48 8b 3e d6 f9 1f c0 ec 09 5d bd
       -0.4285126 0.2720345 -2.4996238 -0.05396454
000320 08 d1 d7 bf 76 75 b1 3d b4 30 89 bd a3 1b 6f 3f
       -1.6860666 0.08664982 -0.066987425 0.93401545
000330 f4 4d a3 bb 2e 72 66 bd 94 70 8c be 8c 4f 28 3b
       -0.004983658 -0.056261234 -0.2742964 0.002568218
000340 af 1d 3e 3c a1 f5 e7 3d 17 1a 83 bf 88 17 41 3d
       0.011603757 0.11326147 -1.0242337 0.04714158
000350 26 83 ba 3c 34 3e be bd ab 1a 23 3c 6c 4f 65 3e
       0.022767615 -0.09289208 0.009955089 0.22393578
000360 27 d3 6a be de 5c a1 3c 7a e0 b0 bd a7 64 2f bf
       -0.2293211 0.019697603 -0.086365655 -0.6851296
000370 1a 1b be bd 5b a5 f8 bc c1 f5 b0 bf 42 1c 2c be
       -0.09282513 -0.030352285 -1.3824998 -0.16807655
000380 74 e8 14 bf a2 e3 85 bf d1 cd e8 bc 85 2d 98 3e
       -0.58167195 -1.0460093 -0.028418453 0.2972223
000390 27 5c 03 c0 f2 2f c1 3d 7d ac 7d bb ba 13 18 3f
       -2.0524995 0.09432973 -0.0038707547 0.594051
0003a0 9b 7d 11 3e c5 a9 98 be 3a 97 fe be c8 8d 15 3d
       0.14208071 -0.29817024 -0.49724752 0.036512166
0003b0 73 7d e0 be ae 25 a7 3c 0b 2b fd bd 98 92 a0 bb
       -0.4384571 0.02040371 -0.123617254 -0.004900288
0003c0 0c 1b a8 be 06 ca c2 bc cc 57 30 be e3 52 6e bd
       -0.32833135 -0.023777973 -0.17220992 -0.058184516
0003d0 b2 a2 f9 be c2 53 3d bf b0 a3 6a 3d 75 76 0e bc
       -0.4875694 -0.7395593 0.05728501 -0.008695235
0003e0 2d fc b9 3d 7f e0 fe bd 0d ee b8 be 00 fd 79 bf
       0.09081302 -0.12445163 -0.36119118 -0.9765167
0003f0 88 1a 34 c0 a0 66 1a 3f 52 45 c2 3e a2 6f ed 3e
       -2.8141193 0.60312843 0.37943512 0.46374232

gnn_node.convs.0.mlp.0.bias f4 [256]
000000 d3 82 10 3d 81 66 92 3d a1 dc 0a 3c 35 84 a6 3c
       0.035281014 0.07148457 0.008475454 0.020326713
000010 c0 fe 37 3c 40 15 ac 3d d1 fc 52 bd 02 f9 02 bd
       0.011230171 0.084024906 -0.051510636 -0.031975754
000020 02 c0 39 bc c0 fe 71 bc ee 2c 1b 3d 9c 84 90 bd
       -0.011337282 -0.01477021 0.037884645 -0.07056543
000030 48 0f 7c bd 41 b8 5c bd e0 d2 60 bd 5f 6f 5c bc
       -0.06153801 -0.053886656 -0.054888606 -0.013454287
000040 63 4b 18 bc 06 ef 76 bd 04 3f 9d 3d 83 7f 9d 3d
       -0.009295317 -0.060286544 0.07678035 0.076903366
000050 a2 79 af bc 28 99 73 bd eb 01 a9 3c 85 45 24 3d
       -0.021420304 -0.059472233 0.020630797 0.04010536
000060 39 3c c4 3c 1b 56 15 bd 39 29 02 3d b6 e0 cb 3c
       0.023954498 -0.03645907 0.031777594 0.024887424
000070 37 79 95 bc 17 10 a7 bd b7 6f af 3d e2 50 2d 3c
       -0.018246276 -0.08157366 0.0856623 0.010578366
000080 5d 26 2b 3d f1 8a 40 bc 14 19 f4 3c 5f ff 59 bd
       0.041784633 -0.011751876 0.029797114 -0.053222056
000090 46 ac 97 bc 03 be 12 3d 46 20 71 bc 2c 3b 3f bd
       -0.018514764 0.03582574 -0.014717167 -0.04668729
0000a0 5d e4 6e bd b5 82 c1 bd a3 90 95 bd c9 b0 4f 3d
       -0.058323253 -0.094487585 -0.07302978 0.050705705
0000b0 6f 12 e4 3d 8f 4a 5f 3b 34 0a bb bc 2d dc a4 bd
       0.111363284 0.003407154 -0.022832014 -0.08049808
0000c0 97 81 e5 3c 53 89 5a bb 4b 3a b6 bd 65 33 89 bd
       0.028015895 -0.0033346012 -0.08897837 -0.06699256
0000d0 c0 49 66 3c 48 51 85 3d ee 22 71 bd df fc 07 bd
       0.014055669 0.06509644 -0.058871202 -0.03320014
0000e0 01 d7 4f 3d dd c1 07 3d a5 23 31 bd 3a 13 20 3d
       0.050742153 0.033143867 -0.043246884 0.039080836
0000f0 c7 14 90 3c 8f d3 c7 bb b4 78 50 bd 8b e1 e1 bb
       0.017588032 -0.006098218 -0.05089636 -0.006893342
000100 30 35 03 3c 65 aa 4d bd 44 f0 b5 3b 78 d9 8e 3c
       0.008008286 -0.05021133 0.0055523235 0.017437682
000110 da a1 e8 3b 4a 4f 12 3d ce 67 cd 3c 6d 12 8d 3d
       0.0070993723 0.035720147 0.025073912 0.0688828
000120 35 24 57 bb 2e 32 ed 3c ad 7f 36 bc a4 fb b0 bd
       -0.0032827978 0.028954592 -0.011138839 -0.08641747
000130 da 2b be bc cf 9a 63 bd bb 0e 6b bd fc 59 0c 3c
       -0.02321427 -0.05556756 -0.057387095 0.008566376
000140 6c 35 86 3d d9 54 66 bd 8c e7 af bd b8 1a cf bc
       0.06553158 -0.05623326 -0.08589086 -0.025281295
000150 c2 45 51 bd c1 52 66 bd 89 2b 7b 3d 4d b6 c4 3c
       -0.051091917 -0.056231264 0.061320815 0.024012709
000160 23 18 ac 3c 34 50 3f 3d 63 01 87 bc 77 8b 27 3d
       0.021007603 0.046707347 -0.016480153 0.04090449
000170 38 80 9b bd 4f 0f a3 bd e9 aa 53 3b 0f 85 88 3d
       -0.07592815 -0.07961904 0.0032297915 0.06666004
000180 83 89 a0 bb b1 b4 f0 bc ab 46 d8 bc 7c a5 87 bd
       -0.004899205 -0.029383035 -0.026400885 -0.066233605
000190 72 41 94 bd 5b 9f 81 3d ad 8c 51 bd 26 ef c3 3c
       -0.07239045 0.06329223 -0.05115955 0.023917746
0001a0 81 b1 94 3d f3 0a 6e bd 44 85 bc bc 0e b5 97 3c
       0.07260419 -0.05811591 -0.023012765 0.01851895
0001b0 1a 4a 17 3d ec 3a 29 bd 59 c1 b5 bb 48 e5 5d 3d
       0.036935903 -0.041315958 -0.0055467305 0.054173738
0001c0 a4 cc e2 3c 94 0a 32 3d 60 aa df 3c cb 7b 95 bd
       0.02768547 0.04346712 0.02730292 -0.07299002
0001d0 7a 3d 59 3d f1 f7 33 3d 35 de 3e bd 0b ed a8 3d
       0.053037144 0.043937627 -0.046598632 0.08248337
0001e0 10 0f cd 3c f7 bf 10 3d a2 9c ea bc aa 9b 42 3d
       0.025031596 0.035339322 -0.028639141 0.047511734
0001f0 9c e0 a5 bd a5 47 82 bd 46 33 0b 3d 3c c4 1e 3c
       -0.080994815 -0.06361321 0.033984445 0.009690341
000200 dd 63 da 3c 09 78 36 bc 6e e2 40 3d 77 94 ab bd
       0.026658947 -0.011137017 0.04709094 -0.08377927
000210 77 de bf bd ae 05 17 3d ee 57 1e bd 19 29 96 3d
       -0.09368604 0.03687065 -0.038658075 0.073320575
000220 73 b6 8e 3c e6 6e 91 bd e6 38 34 3c fb 44 a0 3c
       0.017420983 -0.0710123 0.010999894 0.019564142
000230 e0 b2 47 bd 26 94 94 3d 38 a7 9e bd ec db 81 3d
       -0.048754573 0.072548196 -0.07746738 0.06340775
000240 03 db c6 3c 55 24 3c 3d b6 70 86 3d 2d f8 ad bc
       0.024274355 0.045933086 0.06564467 -0.021236503
000250 d8 bc 44 3d 84 84 90 3d ba e4 e9 3c 96 be 8e bb
       0.048031658 0.07056525 0.028551448 -0.0043562157
000260 e3 aa 8e 3d b0 0b 1d bd dd 7c 91 3c 17 43 76 3d
       0.06966188 -0.038341224 0.017759735 0.060122576
000270 89 8f 65 bd 53 95 43 bd e2 5b b9 bc e4 94 0a 3d
       -0.05604509 -0.04774983 -0.022626821 0.0338334
000280 83 e3 91 3d 0d 1f db bc bc 58 6b bc 32 f0 92 3d
       0.071234725 -0.026748205 -0.014364418 0.0717472
000290 1b 8f 7c 3d 30 4d 1c 3d 63 43 6e 3d af 93 2f bd
       0.061659914 0.03815955 0.058169734 -0.04286545
0002a0 12 4e 4d bd 16 79 83 3d 86 bc 9d 3d 22 f7 ab 3d
       -0.05012328 0.0641958 0.077019736 0.08396746
0002b0 59 33 1f bd ea ce 3e 3c 17 54 63 3d 67 c2 a3 3d
       -0.03886733 0.011646012 0.055500116 0.07996064
0002c0 0d 10 97 bd 0c c2 08 3d f0 a5 7a 3d c5 1b 79 bb
       -0.07376108 0.033388183 0.061193407 -0.0038010937
0002d0 c0 43 92 bd c0 74 af 3d 76 aa 87 bc 53 2e 15 bd
       -0.071418285 0.0856719 -0.016560774 -0.03642113
0002e0 cf 2b 2d bd f3 1b 11 3d 9a d7 88 3c 16 c3 17 bd
       -0.042278107 0.035427045 0.01670437 -0.037051283
0002f0 9a bd bd bb ed 95 72 bc 72 52 72 3d d9 98 ab bd
       -0.0057904245 -0.014806253 0.059160657 -0.08378763
000300 06 0b 5d 3d 98 23 40 bd b0 c6 c1 3c 3d ec 6f bd
       0.05396559 -0.046908945 0.023654312 -0.058574904
000310 93 7b d1 3d 9e 04 41 ba 7c 3d 95 3c 98 25 74 3d
       0.10228648 -0.0007363054 0.018217795 0.059606165
000320 66 98 84 bd 13 d1 29 bd 7d 05 b8 3d 56 80 a6 3d
       -0.0647438 -0.041459154 0.08985422 0.08129947
000330 49 1b 6e bd 84 d1 5b bd 81 cd 1c bd 53 7a 3c bc
       -0.05813149 -0.053666607 -0.03828192 -0.011503774
000340 4e 28 c5 3c 24 61 75 bd 39 77 d6 bd 5e 74 40 bd
       0.02406707 -0.059907094 -0.10471959 -0.046985976
000350 0d 29 83 bd ab a1 0f be 99 8e 3f bd ce 85 de 3c
       -0.06404314 -0.14026515 -0.04676685 0.027163412
000360 bf d8 54 3d 10 86 54 3d 74 46 85 bd a5 93 01 3d
       0.051964518 0.051885664 -0.065075785 0.031634945
000370 05 10 8b bc 53 a5 b4 3d 80 30 8d 3d 21 b1 a9 3d
       -0.016975412 0.088205956 0.06894016 0.08285738
000380 51 ce 43 bd c0 17 5d bd 4a 8b 99 bc 3e 13 63 3d
       -0.04780418 -0.053977728 -0.018743176 0.055438273
000390 82 45 26 bd 72 8b 11 bd eb 20 ff bc bf ef 8a bd
       -0.04059363 -0.035533376 -0.031143626 -0.06784009
0003a0 63 10 83 bc dd b8 8c bd 44 67 45 3d ca 08 10 bc
       -0.015999025 -0.068711974 0.048194185 -0.008791158
0003b0 1e 30 7b bd 50 16 09 3d 45 e6 19 bd fe ff b0 bd
       -0.061325185 0.033468544 -0.037573118 -0.08642577
0003c0 81 86 91 3c 32 b8 09 3d bd d3 05 bd 22 09 62 bd
       0.017764332 0.033622928 -0.032672632 -0.05518449
0003d0 10 fb 29 bc 1e 09 9e bc a3 64 1d bc 0a 50 6a 3d
       -0.010374799 -0.019291457 -0.009606513 0.057205237
0003e0 ed 14 1d 3d 18 c0 7f bd ab 98 b0 bc 3b f4 3a ba
       0.038350035 -0.062439054 -0.021557173 -0.000713173
0003f0 38 bf 9c 3d 49 6a ac bc c5 b2 38 bd dc e9 93 3d
       0.076536596 -0.021046774 -0.045092363 0.072223395

gnn_node.convs.0.mlp.1.weight f4 [256]
000000 7a 0f c2 3e ba 72 d0 3f 94 a0 d0 3f 74 81 98 3f
       0.37902433 1.6285012 1.6299005 1.1914506
000010 4c 81 be 3b 48 8d 00 3c f7 8b 4e 3f 0b d8 49 3f
       0.005813753 0.007846184 0.8068232 0.7884528
000020 7d bb ef 3f 9b 80 1e 3f 8b dd ae 3c c7 92 6e bb
       1.8729092 0.61914986 0.021345874 -0.0036403404
000030 46 57 65 3f 17 ec c5 3f 65 71 a3 3f 7e 93 b0 3f
       0.89586294 1.5462674 1.276898 1.3795011
000040 d5 43 be 3f 36 a2 dd 3e fd 62 d2 3f 8e 6f cd 3f
       1.4864451 0.4328782 1.6436459 1.6049669
000050 9e 3b a7 3f 0d 08 38 3f 8c a2 d3 3f 18 44 8f 3f
       1.3065069 0.71887285 1.653398 1.1192656
000060 35 7f 8c 3f 9a c7 3a 40 b8 69 a2 3f e1 9c 72 3f
       1.097632 2.9184327 1.2688513 0.9477063
000070 7f 38 5b 3f 6a bd ad 3c bb f4 b5 3f 6d 92 f4 3f
       0.8563308 0.021208484 1.4215311 1.9107186
000080 2a 65 bc 3f 6f 2a 9d 3f 1a 26 d3 3f 1c e9 c0 3f
       1.4718373 1.2278575 1.6496003 1.5071139
000090 31 8f 8d 3f 09 56 4a 3e c6 fc b3 bb ec 1a db 3f
       1.1059324 0.19759382 -0.0054927794 1.7117591
0000a0 d9 8d 7f 3f e4 77 fc 3f d5 ac 91 3f 6f 3b 25 3f
       0.9982582 1.9724088 1.1380869 0.64543813
0000b0 36 86 81 3f ef bf 69 3f d9 c5 c7 3b 4a 16 ad 3f
       1.0119083 0.9130849 0.0060965833 1.3522427
0000c0 e0 3f b5 3f d8 75 87 3f 02 41 06 40 dd ac 8e 3f
       1.4160118 1.0582838 2.0977178 1.1146504
0000d0 36 15 bd 3f af 07 dd 3f 59 84 51 3f b9 e1 a1 3f
       1.4772098 1.726797 0.8184257 1.264701
0000e0 c9 4e a1 3f 5b fa 84 3e b5 79 ae 3f 4f b2 ca 3f
       1.2602168 0.25972256 1.3630892 1.5835665
0000f0 b5 e7 7c 3f 14 5e 39 bd 48 bd b9 3f 20 f8 5e 3f
       0.98791057 -0.045255736 1.4510889 0.8709736
000100 b5 68 91 3f bc 56 a6 3f b8 b4 ea 3f a4 f4 fc 3e
       1.1360079 1.2995219 1.8336401 0.49405396
000110 a9 ad 24 3e d1 7e 47 3e 1c 76 87 3f ef c8 7b 3f
       0.16081871 0.1948197 1.0582919 0.98353475
000120 f5 9c 46 3f c6 f3 e4 3e 1c e3 a2 3f 29 92 5f 3f
       0.7758325 0.44717234 1.2725558 0.873324
000130 8a 3e 9d 3f ae c0 cd 3f f7 be 89 3f b4 ce ac 3f
       1.228471 1.6074426 1.0761403 1.3500581
000140 8a 25 fb 3e 6b c5 b1 3f 7e 15 eb 3f 6c 8b df 3e
       0.49052078 1.3888372 1.8365934 0.43661058
000150 22 28 ae 3f 05 35 a9 3f 60 e5 31 3f e1 e8 b0 3f
       1.3605998 1.3219305 0.69490623 1.3821069
000160 f1 e4 0d 3f b8 16 76 3f e7 0b a2 3f 57 ce ae 3f
       0.5542746 0.96128416 1.2659882 1.365672
000170 71 1e 0d 3f ca a3 60 3f f3 c6 f6 3f 76 6a d6 3f
       0.55124575 0.8774992 1.9279464 1.6751239
000180 78 de ab 3f dc b3 e5 3e e4 1a b8 3f b2 02 b5 3f
       1.3427267 0.44863784 1.4383206 1.4141448
000190 e5 2e 84 3f 20 5c 8a 3f 5f 6a a2 3f 39 51 a5 3f
       1.0326811 1.0809364 1.2688712 1.2915412
0001a0 54 de ce 3f a6 90 7b 3f 99 f4 f4 3f 1c dd a7 3c
       1.6161599 0.9826759 1.9137145 0.020491175
0001b0 07 46 52 3f 8d e3 21 3f 74 86 af 3f 4d e2 80 3f
       0.82138103 0.6323784 1.3712907 1.0069062
0001c0 5d d6 7c 3f af 4f a5 3f 6e e7 f0 3f 0d 5e 76 3f
       0.9876459 1.2914943 1.8820627 0.9623726
0001d0 99 fa 80 3f 39 c9 4c 3e c4 57 24 3f fe 50 ab 3f
       1.0076476 0.19998635 0.6419642 1.3384092
0001e0 c5 88 1b 3e 3f 24 f8 3f 64 5d 97 3f aa 5d 76 3f
       0.15188892 1.9386061 1.1825376 0.9623667
0001f0 0d 9b c5 3f 02 0d 6d 3f ee 12 d1 3e 1f b0 91 3f
       1.5437943 0.92597973 0.40834755 1.1381873
000200 8f d1 b9 3f 64 c6 6a bb c6 bd d9 3f 4c 69 0f 3e
       1.4517077 -0.0035823816 1.7011039 0.14005011
000210 a1 1c a2 3f 68 4f 6b 3f 42 ed 35 3f ec 32 e6 3e
       1.2664987 0.9191804 0.7106515 0.44960725
000220 f7 23 f8 3f 38 a2 a0 bd bb cb b4 3f 83 59 3c 3f
       1.9385976 -0.07843441 1.4124674 0.73574084
000230 56 1f f1 3e 93 27 29 3f 3e c3 73 3f 7c 51 93 3f
       0.4709422 0.6607601 0.9521979 1.1509242
000240 94 f9 84 3f 51 3d 68 3f 60 b7 b5 3f 09 0b c8 3e
       1.0388665 0.9071856 1.4196587 0.3907092
000250 aa 7d 9b 3f 56 89 0b 40 02 c6 c3 3f b0 4f b1 3f
       1.2147725 2.1802573 1.5294802 1.3852444
000260 85 31 05 3e 19 b9 44 3f e0 82 da ba b2 9e 84 3f
       0.13007171 0.76844937 -0.0016671084 1.036093
000270 9d 49 b3 3f fd 4a 53 3f 03 0f 63 3f 16 54 93 3f
       1.400684 0.825363 0.8869478 1.1510036
000280 ed 34 ff 3e c3 6b 79 3f d7 d2 72 3f a7 48 52 3f
       0.49845067 0.97430056 0.94852966 0.8214211
000290 7c a0 c9 3f a5 77 46 3f f5 cb a0 3f 5b 5c d2 3f
       1.5752101 0.77526313 1.2562243 1.6434435
0002a0 7f 22 8d 3f f9 4f 65 3f 8d f1 54 3e 94 a1 bf 3f
       1.1026152 0.89575154 0.2079527 1.4971185
0002b0 46 c6 08 3f cc 99 a5 3f 74 a2 97 3e 27 57 49 3f
       0.5342754 1.293756 0.2961613 0.7864861
0002c0 36 35 a9 3f 3f 8a 89 3f 3e 49 04 3f 71 aa b7 3f
       1.3219364 1.0745314 0.5167426 1.434889
0002d0 5f 95 c2 3f cc d8 ad bd dc c6 ab 3f 8e 92 8b 3f
       1.5201834 -0.08488616 1.3420062 1.09041
0002e0 3e 87 ea 3f 85 64 31 3f 1d f5 8e 3f d8 f2 d5 3d
       1.8322523 0.69294006 1.1168553 0.104467094
0002f0 10 c8 95 3f 70 de b6 3f 8e 54 a3 3f 2a ae f4 3e
       1.1701679 1.4286633 1.2760179 0.47789127
000300 c9 69 89 3f 36 9c 9a 3f 18 55 a0 3f 18 60 c9 3f
       1.0735408 1.2078922 1.2525969 1.573245
000310 86 df e6 3f 44 6a b5 3f 9a 2c b8 3f 49 eb 84 3f
       1.8036964 1.4173055 1.4388611 1.0384303
000320 8d b3 17 40 ab 64 94 3f a1 ca e1 3f e7 f8 cd 3e
       2.370334 1.1593221 1.7639962 0.4022896
000330 3c 81 62 3f 93 df 12 3b ad 72 a3 3f c9 34 d9 3f
       0.88478446 0.0022411093 1.2769371 1.6969234
000340 e4 40 a5 ba 95 da cd 3f 14 a8 6b 3f 2b 6e a6 3f
       -0.001260784 1.6082331 0.9205334 1.300237
000350 6d 0d 97 3f 18 87 a2 3f 9a e6 91 3f 96 23 ca 3f
       1.1800972 1.2697477 1.1398499 1.579211
000360 67 1f 50 3f 58 60 ca 3f 2d cc 82 3f f9 28 53 3f
       0.81297916 1.5810652 1.021856 0.82484394
000370 87 e6 37 3e 9b 7d d1 3e 9d ec 9c 3f c0 e8 b9 3f
       0.17959033 0.40916142 1.2259709 1.4524155
000380 c9 b8 b3 3f b3 04 b6 3b 5e 8c a6 3f 86 e8 51 3f
       1.4040767 0.0055547594 1.3011587 0.8199543
000390 88 20 c9 3f d1 15 42 3f 6b 38 9d 3f d9 28 aa 3f
       1.5713053 0.7581454 1.2282842 1.3293716
0003a0 08 b8 09 3d 87 1d c9 3f 18 01 bd 3f e2 79 33 3f
       0.03362277 1.5712136 1.4765959 0.70107853
0003b0 0c 7b cd 3f 8c d6 f3 3f 76 cb 8a 3f a5 86 98 3f
       1.6053176 1.904985 1.0843341 1.191609
0003c0 74 8a 4d 3f 48 15 9d 3f ac 00 37 3e a2 0b 5d 3f
       0.8028939 1.227212 0.1787135 0.86345875
0003d0 a5 a2 86 3f 63 90 dd 3e ff 72 bb 3f 46 b8 49 3f
       1.0518385 0.4327422 1.4644469 0.78796804
0003e0 f3 c3 cc 3e 87 49 01 40 83 d3 ac 3f 8e 5e 3f 3f
       0.39993247 2.0201128 1.3502048 0.74753654
0003f0 07 92 2b 3f f6 24 b3 3f 83 66 59 3b 3f f0 e7 3f
       0.67019695 1.3995655 0.0033172674 1.8120192

gnn_node.convs.0.mlp.1.bias f4 [256]
000000 e9 06 51 bc 87 40 f8 be f1 19 5e be 96 87 3e be
       -0.012757995 -0.4848673 -0.21689583 -0.1860641
000010 d9 8e f0 3d 34 f7 36 3f 3a a1 0f bf ae 17 20 bf
       0.11745996 0.7147095 -0.5610539 -0.6253613
000020 98 fe ee 3c c1 41 76 bf 3f 87 ec be 87 e3 52 3f
       0.029174134 -0.9619408 -0.46196935 0.8237843
000030 11 39 ac be d7 3d cf be c9 df 7c bd 16 c7 d0 bd
       -0.33637288 -0.40476868 -0.061736856 -0.10194223
000040 10 78 81 be 87 3e ac bf a8 33 01 bf cb dd ee be
       -0.25286913 -1.3456582 -0.50469446 -0.4665359
000050 49 33 1a bf 20 a2 32 3f 57 24 04 bf 06 b1 8e bf
       -0.60234505 0.69778633 -0.5161795 -1.1147773
000060 b6 dc 43 bf 4a 8a f3 bd fa 3b a3 3e 4e e4 e2 be
       -0.76508653 -0.11891611 0.31881696 -0.44314808
000070 e6 46 b9 3d cb 97 02 be a5 07 be be 45 52 57 be
       0.09046726 -0.12753217 -0.37115207 -0.21027477
000080 98 84 ff 3e b8 11 09 bf cd a9 3c bd b2 3f 1a bf
       0.49905849 -0.5354266 -0.046060372 -0.6025344
000090 78 00 f7 be ae 34 d5 be 26 8e 21 3f 23 fe 11 bf
       -0.48242545 -0.41641754 0.63107526 -0.57028407
0000a0 da df 87 be af bc 3b 3e a1 d8 e0 be 4f 0d c1 be
       -0.26537973 0.18333696 -0.43915275 -0.37705466
0000b0 97 f7 af bf be 95 d3 be 3f cf ef bd 42 44 18 be
       -1.3747433 -0.41325182 -0.11709451 -0.14869788
0000c0 fe d9 a3 be 04 df 01 3d 07 8e 26 bf 0e 0f 0d bf
       -0.32002252 0.031706825 -0.65060467 -0.55101097
0000d0 c3 43 09 bf d8 39 d1 be c8 ab 4d bf a4 62 1c bf
       -0.5361902 -0.40864444 -0.8034024 -0.61088014
0000e0 fe cc 8f be 5f f7 18 bf 33 c5 20 bf 2b 5c 29 bf
       -0.28086084 -0.5975246 -0.628009 -0.6615626
0000f0 42 47 86 be 5b be 03 be c8 74 8f be cb 82 c7 be
       -0.2622624 -0.12865584 -0.28018785 -0.38966975
000100 bb 6e e8 be 6b 7f 8a be aa d6 34 be 03 88 be bf
       -0.4539698 -0.27050337 -0.17660013 -1.4885257
000110 57 a5 8b bd 0c a2 26 be af 6b 9a be af 81 87 be
       -0.068186454 -0.16272753 -0.3016028 -0.26466128
000120 07 f2 80 bf fb 4e ee be ed 40 bd be fa 36 e7 be
       -1.0073861 -0.46544632 -0.36963597 -0.4515913
000130 a5 02 b2 be 21 0b 2a bf 63 45 cd 3e fa c1 99 bd
       -0.34767643 -0.6642323 0.40092 -0.07507701
000140 29 9a b6 be f1 6c bd be 66 97 f3 be 1a 44 d5 be
       -0.3566449 -0.36997178 -0.47576445 -0.4165352
000150 b9 ce 8d be a2 fc 73 be de ba 1f bf 2c dc 2c bf
       -0.2769678 -0.2382684 -0.6239451 -0.67523456
000160 ce 06 0d bf 38 f0 11 bf 14 fa 92 be c9 92 85 be
       -0.5508851 -0.5700717 -0.2870642 -0.2608855
000170 4f a0 96 3d 9e 0f d5 be 52 99 b1 be cf 5f a1 be
       0.07354795 -0.41613477 -0.34687287 -0.3151841
000180 ce 4a 27 bf 4c 48 84 3e 16 65 02 bf ef b1 b4 be
       -0.6534852 0.25836408 -0.50935495 -0.35292003
000190 cd 86 25 be 24 a0 b7 be a6 ee 9c be c0 08 b3 be
       -0.16164704 -0.35864365 -0.30650824 -0.34967613
0001a0 cb fa 07 bf f2 40 c7 be 53 fb 26 bf fe 9b 9e be
       -0.53117055 -0.38916737 -0.6522724 -0.30978388
0001b0 d0 da f5 bd f5 eb 8d be 99 3a 0e bf ce 1c 13 bf
       -0.12004626 -0.27719083 -0.5555816 -0.5746583
0001c0 75 27 1f be f7 8e 3a ba 4d ad 01 bf 04 a3 10 bf
       -0.15542395 -0.00071166403 -0.5065506 -0.5649874
0001d0 55 46 05 bf d0 19 67 be 05 8c b4 bd 08 49 3d bf
       -0.52060443 -0.2256844 -0.08815769 -0.7393956
0001e0 dc d4 8d be 61 0d 14 bd 71 28 13 3e 63 eb 98 be
       -0.2770146 -0.03614557 0.14370896 -0.29867086
0001f0 3a cf f5 be 5d d1 6d be 8e d9 8b bf 54 94 87 bf
       -0.48009664 -0.23224397 -1.0925767 -1.0592141
000200 c0 aa 27 bf eb 6c 98 3e 8a 5d 03 bf 0e be 2d be
       -0.6549492 0.29770598 -0.51314604 -0.16967031
000210 d6 4f a2 3d 00 1e 88 be 57 77 5f bf 57 13 a4 be
       0.07925384 -0.26585388 -0.87291473 -0.32046005
000220 fc 52 5a be a9 58 62 3e 25 df 07 bf 90 5b 92 be
       -0.21320719 0.22104134 -0.53074867 -0.28585482
000230 8a 8e 1c be d8 4b 8a bf 7a a8 23 be 9e d1 8c be
       -0.1528875 -1.0804396 -0.15982237 -0.27503675
000240 bd cb f5 be 4c 64 bf be 80 9d 31 3e da 62 57 3c
       -0.48007002 -0.37381208 0.17345238 0.013146127
000250 17 7a 5e bd 70 c9 b8 3d 67 5b 82 be fc 18 09 be
       -0.054315653 0.09022796 -0.2546036 -0.13388437
000260 c9 7f 31 bf d7 30 4f be 40 e0 9f 3e 71 ce 8e be
       -0.6933561 -0.20233475 0.31225777 -0.27891877
000270 9b 61 47 bf 39 87 c7 be bf 5d 1a 3e 2b 49 ed be
       -0.7788331 -0.38970354 0.15074824 -0.46344885
000280 c6 7b 79 bf f4 0e d5 be 40 36 ac be 30 76 fc be
       -0.9745449 -0.4161297 -0.3363514 -0.4930892
000290 df 8f df be 4a cc cd bd 77 c6 da be ec 31 73 3c
       -0.43664452 -0.10048731 -0.42729542 0.014843445
0002a0 1e c5 f4 bd e1 24 fb be 66 e2 f9 bd a7 66 e6 be
       -0.119516596 -0.49051574 -0.12201385 -0.45000193
0002b0 6a db 50 be 1f be 00 bf 7c f8 0d be f9 1e 74 be
       -0.203962 -0.502901 -0.1386432 -0.2383994
0002c0 ae 7c 1f bf c4 aa fe bd 87 6b d2 bf 2d 9b 1f bf
       -0.6229962 -0.12434915 -1.6439065 -0.62346154
0002d0 7e e2 fa be 05 c5 46 bf 00 b7 5f 3e 12 bc 20 bf
       -0.49000925 -0.7764438 0.21847153 -0.6278697
0002e0 c5 b8 ee be 03 a2 20 bf fa 57 b3 3e 3b ce f0 3d
       -0.46625343 -0.6274721 0.35028058 0.11758085
0002f0 bb 57 11 bf 3e 40 c1 be 1b e7 f3 be e2 13 f6 be
       -0.5677449 -0.37744325 -0.47637257 -0.48062044
000300 ec d5 00 bf 65 21 14 bf 04 aa e8 be b8 f5 f2 be
       -0.5032642 -0.57863456 -0.45442212 -0.47453094
000310 4a 45 a2 be 29 6b fd be 80 f2 05 bf 21 96 69 bf
       -0.31693488 -0.4949582 -0.5232315 -0.91244704
000320 a6 f2 ab be c9 94 d5 be 14 e7 9d be 8f c5 c5 bf
       -0.33583564 -0.41715077 -0.3084036 -1.5450915
000330 a1 5e 5b bf 1e 90 0b 3f 52 70 28 be d5 16 24 be
       -0.8569127 0.5451678 -0.16449097 -0.16024335
000340 77 86 ca 3e be e3 78 be 9a 04 14 bf 2c 38 22 bf
       0.39555714 -0.24305627 -0.5781952 -0.6336696
000350 c5 c3 ef be 66 50 b8 be dd 56 1f bf e4 0d c8 be
       -0.46829048 -0.3599884 -0.6224192 -0.39073098
000360 d3 f3 b1 3e dd c0 19 bf 7f 75 06 bf 19 8f d1 bf
       0.34756336 -0.6005991 -0.52523035 -1.6371795
000370 2c bb 22 be af 7a bc bf 49 d9 4e be 60 b9 08 bf
       -0.15891713 -1.472494 -0.20200075 -0.5340786
000380 dd 7b 3e bb fe a0 11 3f d9 a6 04 bf a1 5a 4d be
       -0.0029065527 0.5688628 -0.5181709 -0.20054103
000390 6a 42 3a be 0c b1 ae be 48 6d c1 be c3 71 11 bc
       -0.18189397 -0.3411945 -0.37778687 -0.008877221
0003a0 37 e6 94 3d 15 82 d7 be 03 d1 25 bd 66 6c 86 3d
       0.072704725 -0.42091432 -0.040482532 0.06563644
0003b0 6a cb c6 be ad 56 4a be ab 53 ef be 3b 08 5e bf
       -0.38827068 -0.19759627 -0.4674352 -0.8673131
0003c0 c2 89 b7 bf e4 57 08 3d 07 22 38 bf 03 e2 29 bc
       -1.4338915 0.033286944 -0.7192692 -0.010368827
0003d0 c8 f0 50 bb cb 79 e8 3c 6e 2e 1e bf f4 71 13 bf
       -0.0031881798 0.028378388 -0.61789596 -0.57595754
0003e0 b5 56 5c be fd 47 99 be 2c 7f f5 be b6 a7 8f bd
       -0.21517451 -0.29937735 -0.47948587 -0.0701441
0003f0 c8 60 c5 3b 1b 71 09 bf 29 04 bc bd e3 25 db be
       0.0060235 -0.5368821 -0.09180481 -0.42802343

gnn_node.convs.0.mlp.1.running_mean f4 [256]
000000 a9 50 2f 41 d8 67 35 41 f5 db 34 40 36 39 83 41
       10.957192 11.3378525 2.825925 16.402935
000010 20 b6 be bf 65 e4 86 41 29 0a b3 41 54 41 6b bf
       -1.489933 16.86152 22.379961 -0.9189656
000020 fd 7e a6 40 5e 75 ce c1 ef de b0 be 97 78 88 40
       5.2030015 -25.807308 -0.34545085 4.2647204
000030 5d 42 50 41 93 1c f3 40 21 d4 18 42 a2 30 ed 41
       13.016202 7.597238 38.207157 29.648746
000040 9b 02 ff c1 dc 0d 9e bf 76 ca 41 41 ef 14 11 c1
       -31.876272 -1.234798 12.111929 -9.067611
000050 d8 39 9e 41 6a ad dd 3f a9 e2 b6 40 29 d1 41 bf
       19.778244 1.7318547 5.7151685 -0.7570978
000060 9a 51 2b 41 f1 eb 94 c0 d1 e2 ad c1 7a 9a 31 41
       10.707422 -4.6538014 -21.73575 11.100214
000070 39 ec 1c c1 93 1e de bf 5d 7d 04 41 a3 00 00 41
       -9.807672 -1.735308 8.280606 8.000155
000080 d3 cd b5 40 bc e6 82 41 91 b1 60 be 70 a5 fa 40
       5.681375 16.362663 -0.21942736 7.832695
000090 0e d7 71 40 0c 44 75 c1 55 51 cb 40 74 15 cc 40
       3.778751 -15.329113 6.353678 6.377619
0000a0 d5 85 bd c0 e9 70 01 c2 24 26 14 c1 2e 6a 77 c1
       -5.922587 -32.360264 -9.259312 -15.463423
0000b0 67 f4 d3 41 af ed 62 c0 71 12 1d 40 e3 cf 79 40
       26.494337 -3.545757 2.4542506 3.9033134
0000c0 8c 09 f5 40 92 65 96 40 d8 d3 34 c1 59 5c 2d be
       7.6574154 4.6998987 -11.30172 -0.16929759
0000d0 14 40 02 41 76 7d c6 c0 3f f9 3d 41 d9 76 4b 41
       8.140644 -6.202815 11.873351 12.716516
0000e0 d6 42 21 c1 4e 4f 08 c1 b8 44 f2 c1 91 02 03 c0
       -10.078817 -8.5193615 -30.283554 -2.0470316
0000f0 df fc 06 c1 81 21 5f 40 04 d0 f4 3e 0c 82 94 3f
       -8.436736 3.48642 0.47814953 1.1602187
000100 0c ec 9d 3f 1c a4 b9 c1 64 20 c9 41 48 6c df c0
       1.2337661 -23.205132 25.140816 -6.981968
000110 85 d4 3e 41 5b d8 a2 c0 66 70 3b 41 f4 ac 16 40
       11.926885 -5.0889106 11.714941 2.3543062
000120 73 1b 82 41 77 c8 bb bf 8d 92 7d 41 e6 22 97 c0
       16.263403 -1.4670552 15.848279 -4.72301
000130 b2 0d 8e c1 b1 1e 5e 41 cc 53 03 42 c5 f2 10 c2
       -17.756687 13.882493 32.831833 -36.23708
000140 5f aa ff 3e 26 81 a0 41 7c 29 97 41 50 1f ce bf
       0.4993467 20.06306 18.895256 -1.6103306
000150 a3 ae 96 3f fa 96 b1 41 b9 65 2f c0 3a 05 0e 41
       1.1772045 22.198719 -2.7405837 8.876276
000160 30 de 3e 41 ab cb 0e c1 22 fd 93 bf ca 2b 22 c0
       11.929245 -8.924724 -1.1561625 -2.5339227
000170 10 9d 06 41 1f 67 8b c0 fb df 3e 41 0d 19 55 c1
       8.413345 -4.356338 11.929683 -13.318616
000180 31 75 ce 40 56 5e b3 41 01 60 ab c0 dd e3 8a 41
       6.4518056 22.421062 -5.355469 17.361261
000190 24 a7 f7 c1 3f 55 72 40 a6 65 c7 40 f0 12 2b c1
       -30.956612 3.786453 6.2311583 -10.692123
0001a0 c0 e9 fd 40 7b 75 04 41 2f 48 98 41 2b 62 d0 3f
       7.934784 8.278682 19.035246 1.6279958
0001b0 64 f4 5d c1 7e 54 a2 c1 3e df aa 3f 1c a0 9d c0
       -13.872166 -20.291256 1.3349378 -4.9257946
0001c0 82 aa 08 41 0f 90 14 41 78 ef c3 40 c7 93 6a 41
       8.541628 9.285171 6.122982 14.661078
0001d0 09 90 b6 c1 70 58 ba 40 04 58 49 c0 f9 76 94 41
       -22.82033 5.8232956 -3.145997 18.558092
0001e0 cc 38 3b c1 2e d0 32 c0 05 4d 85 3f b8 a3 cd c1
       -11.701366 -2.7939563 1.041413 -25.70494
0001f0 2a dc d1 c0 b7 93 a2 c1 9d cb 6a 41 7d 0e 84 41
       -6.5581255 -20.322126 14.67471 16.507074
000200 64 8f 6b 40 35 c6 0c 3f 67 40 f7 3d 31 67 79 c0
       3.6806269 0.5498994 0.12072831 -3.8969233
000210 98 04 90 c0 6f 74 95 c1 c3 ef da c1 0e 58 6b c0
       -4.5005608 -18.681852 -27.367071 -3.6772494
000220 c6 89 bc c0 20 ec 0a 41 42 dc 7e 41 52 c7 33 c1
       -5.891818 8.682648 15.928774 -11.236162
000230 b1 a2 89 c1 11 a1 9f c1 06 a3 0c 41 46 63 7c c1
       -17.20444 -19.953646 8.789801 -15.774237
000240 86 45 a5 c0 70 3e b6 c0 01 68 c0 41 8e ae 34 41
       -5.1647367 -5.695122 24.050783 11.292616
000250 f7 2a 22 c1 e0 f8 80 c1 6b ac 59 41 53 94 08 41
       -10.135489 -16.121521 13.604594 8.536212
000260 90 3a 56 40 1f 95 07 41 ca 79 00 c0 9a 37 46 41
       3.3473244 8.4739065 -2.0074334 12.388575
000270 ff 55 a9 c0 e2 cd 1b c1 5c 9a cb 40 73 b5 2a c1
       -5.2917476 -9.737764 6.3625927 -10.669299
000280 82 65 0b 41 1d c7 51 41 2d d5 73 bf 9f 00 14 c1
       8.712282 13.111112 -0.95247155 -9.250152
000290 90 c8 84 40 8d 78 4a 41 ce 49 c1 40 1e 25 37 c1
       4.1494827 12.654431 6.0402594 -11.446562
0002a0 b5 8d 2e 41 40 4a e5 c0 16 e2 e3 3f 34 48 1e c1
       10.909596 -7.1653137 1.7803371 -9.892628
0002b0 0a c4 9b c0 b2 7c 6e c0 5a 41 3d 41 cb 4e 2e c1
       -4.8676805 -3.7263608 11.828455 -10.894237
0002c0 99 3d 4f c0 6d 12 0c 41 c3 09 08 c1 f3 9c 1d c0
       -3.2381346 8.7544985 -8.502383 -2.4627044
0002d0 e7 3d 13 c0 d4 46 19 41 ac 0e b3 c0 ef 66 97 41
       -2.3006532 9.579792 -5.595541 18.92526
0002e0 29 f1 26 c1 2c 0a 97 41 ca 23 a1 41 a2 70 15 41
       -10.433877 18.879967 20.142475 9.339998
0002f0 34 06 4b bf 9d d1 a9 c1 01 88 80 41 c0 95 ca c0
       -0.7930634 -21.22735 16.066408 -6.33078
000300 a2 d6 e8 40 0b 1e 53 41 e9 5a b6 3f ef 2d fc bf
       7.2762003 13.194835 1.4246494 -1.9701518
000310 e3 a8 15 c1 c1 2f 2f c0 f6 c9 58 41 e6 ba a6 c0
       -9.353732 -2.7372897 13.549307 -5.2103148
000320 c9 33 9d be 42 51 f4 bf 92 6b 66 c1 fa 43 6c c0
       -0.3070357 -1.9087298 -14.401262 -3.691649
000330 07 be 40 41 f7 f9 4f 40 14 2d 75 41 ae 34 95 40
       12.046393 3.2496316 15.323505 4.6626806
000340 71 df 6f 41 c4 c5 d8 be 30 d4 5b c1 5d 13 51 40
       14.992051 -0.42338383 -13.739304 3.2668068
000350 09 0c 39 41 02 9b 40 41 a0 16 ac bf 84 72 14 41
       11.565438 12.037844 -1.3444405 9.277958
000360 52 9d cc 41 a8 ea 1d 41 27 f5 96 40 3d 37 27 3f
       25.576817 9.869789 4.717426 0.6531866
000370 67 f7 13 41 3f b5 99 40 3d 52 92 41 48 cf ae 40
       9.247901 4.803375 18.290155 5.462803
000380 f0 03 e0 bf 75 9c 3d 41 20 22 3d c1 76 ac 48 c1
       -1.7501202 11.8506975 -11.820831 -12.542105
000390 62 4f 37 bf 54 75 cd 40 fd 22 9f 3d 45 35 8b bf
       -0.71605504 6.4205723 0.07770345 -1.0875632
0003a0 0f 17 b3 40 ae 15 81 41 b6 a5 55 c1 02 3a b8 40
       5.596565 16.135586 -13.352957 5.757081
0003b0 7d f5 21 3d 2e 00 93 c1 22 3a 61 41 1c 82 83 41
       0.039540756 -18.375088 14.076693 16.43853
0003c0 b0 18 8e be ea 60 2d 41 73 7d 79 40 bc 55 9d 41
       -0.2775321 10.836161 3.8982818 19.666862
0003d0 73 be 3f 40 a3 8d 2e 40 e5 1a 4a c1 e8 08 96 c1
       2.995999 2.7273948 -12.631566 -18.754349
0003e0 de 0b 8d c1 8a 43 ab 41 60 4b 31 41 6a 15 84 41
       -17.630795 21.407978 11.080902 16.510456
0003f0 ed b5 88 c1 cf 00 4b c1 68 7d a1 40 12 4b 8c c1
       -17.08883 -12.687697 5.0465584 -17.536655

gnn_node.convs.0.mlp.1.running_var f4 [256]
000000 21 f2 0d 43 c3 cb 15 43 62 b3 da 42 f8 9f 05 43
       141.94582 149.79594 109.35036 133.62488
000010 e2 de f2 42 77 f8 a6 42 db 4e 14 42 88 57 d1 42
       121.43532 83.48528 37.077007 104.67096
000020 7b 08 c3 42 c4 5c 49 42 3b 1a de 40 0e 78 d2 42
       97.51656 50.34059 6.940702 105.23448
000030 21 b7 8e 42 88 59 bc 42 55 08 5d 43 3e c8 8c 43
       71.35767 94.174866 221.03255 281.5644
000040 01 c4 b2 42 cc 6e bd 42 10 4e ed 42 3d cb 62 43
       89.38282 94.7164 118.652466 226.7939
000050 65 6d 16 43 e8 52 44 43 cb d6 2c 43 f8 30 17 42
       150.42732 196.32385 172.83904 37.79782
000060 ee 79 9c 41 fa 21 33 43 8c 3a ef 42 ac 85 2f 43
       19.559536 179.13272 119.61435 175.52216
000070 af 75 30 42 9b 38 59 42 1a 0b ff 42 c7 55 b5 42
       44.114925 54.30528 127.52168 90.667534
000080 03 db 21 43 67 43 07 43 85 38 01 43 dd b0 29 43
       161.85551 135.26329 129.22078 169.69087
000090 9e 0d cb 42 67 77 36 42 ca 13 6a 42 25 47 48 43
       101.526596 45.616604 58.519325 200.27791
0000a0 0d 0a 71 42 3d d9 8e 42 87 1c 13 42 a4 7e 4c 42
       60.259815 71.42429 36.77786 51.123672
0000b0 78 25 05 42 9d 0e 33 42 e9 e4 bd 41 da cd 6b 42
       33.28659 44.76427 23.736773 58.951027
0000c0 3d 06 eb 42 04 3c 01 42 aa 80 9c 42 ab 8a 5f 43
       117.512184 32.30861 78.2513 223.54167
0000d0 39 13 13 43 69 16 df 42 5e 46 33 42 5d 54 87 42
       147.07509 111.54377 44.818718 67.66477
0000e0 20 87 88 42 09 c4 cd 42 1b 8b c3 41 42 ed 2f 42
       68.263916 102.88288 24.442923 43.981697
0000f0 b9 53 4e 42 07 e4 80 42 94 37 7d 42 f5 07 82 42
       51.58176 64.445366 63.304276 65.01554
000100 cf 3d 0e 43 58 c6 8a 42 01 69 9b 42 21 f2 0a 43
       142.24144 69.38739 77.705086 138.94582
000110 b4 06 93 42 b6 8d a2 42 5c 05 bb 42 a3 e7 c0 41
       73.51309 81.27678 93.51047 24.113104
000120 c8 38 9e 42 fa 0c 95 41 c2 93 53 43 0c 6a d1 42
       79.1109 18.631336 211.57718 104.70712
000130 bc 79 35 43 ee 8e a0 42 fe 4e 09 43 7e e5 18 43
       181.47552 80.27916 137.30856 152.89645
000140 1d 1e 67 42 d0 79 40 42 b9 66 b3 42 75 63 8e 41
       57.779408 48.118958 89.70063 17.798563
000150 49 7e dc 42 87 95 ae 42 a4 e4 a3 41 1a 65 e6 42
       110.24665 87.292046 20.48664 115.197464
000160 15 2a 05 42 13 bd 6c 42 f1 5e 03 43 c2 c4 80 42
       33.291096 59.184643 131.37086 64.38429
000170 53 53 a8 43 3b ae aa 42 24 5a 88 42 63 f7 d0 43
       336.65097 85.340294 68.176056 417.9327
000180 e0 cf b4 42 78 34 8b 42 62 57 4c 43 c9 38 1f 43
       90.406006 69.60248 204.34134 159.22182
000190 61 44 16 43 be 04 28 43 27 66 fa 42 d2 6c 62 43
       150.2671 168.01852 125.19952 226.42508
0001a0 6d 5d d8 42 2f aa 3e 42 ac c2 a3 42 62 ad 5e 42
       108.18247 47.666195 81.88022 55.66932
0001b0 df 98 94 42 3c 19 3b 42 6e f4 03 43 62 35 c0 41
       74.29858 46.774643 131.9548 24.026066
0001c0 cc 8e 5a 42 a5 97 a6 42 65 92 01 43 ba 71 3e 43
       54.63945 83.29618 129.57185 190.44424
0001d0 9b f5 a6 41 9a bc a3 42 22 06 16 42 c8 f6 65 42
       20.869925 81.86836 37.50599 57.490997
0001e0 01 a9 73 42 8f fa 24 42 d9 17 38 43 7b a2 ae 42
       60.915043 41.244686 184.09315 87.317345
0001f0 d8 e5 de 42 28 9f e0 41 b6 5e fe 41 a8 fa 38 42
       111.44891 28.077713 31.796246 46.24478
000200 a1 00 e8 42 8a 3a 83 42 a7 ed 66 42 69 68 a1 42
       116.00123 65.614334 57.732082 80.703926
000210 9b 20 78 42 60 33 05 42 71 62 a4 42 5a 75 bd 42
       62.03184 33.30017 82.19227 94.7292
000220 08 04 a4 42 d1 bc 54 42 22 8b 23 43 0c d6 3d 42
       82.00787 53.18439 163.54349 47.45903
000230 a1 da 1a 42 16 35 6c 42 f5 40 90 42 46 e7 4b 42
       38.713505 59.05184 72.12687 50.975853
000240 e5 5a 72 42 9b 7a d4 42 e0 33 db 42 84 ae 98 43
       60.588764 106.23946 109.60132 305.3634
000250 43 4f af 42 b6 48 f5 43 ad 2c 33 43 78 72 8f 42
       87.65481 490.56805 179.17451 71.72357
000260 6f 85 57 42 9f 28 30 42 5b d6 c1 42 86 96 56 43
       53.880306 44.03967 96.91866 214.58798
000270 27 0b 8f 42 b0 f8 59 42 d5 25 fd 41 a2 7a 8f 42
       71.52178 54.49286 31.643473 71.73952
000280 49 f9 27 42 0a d1 2a 43 ec 62 90 42 5b 4f ec 42
       41.993443 170.81656 72.19321 118.15499
000290 16 83 07 43 0e fd 16 42 c9 2c 09 43 3e c6 17 43
       135.51205 37.747124 137.17494 151.77438
0002a0 2a 03 1a 43 b2 f9 46 42 31 09 6c 42 02 da 0f 43
       154.01236 49.743843 59.008976 143.8516
0002b0 46 58 ec 41 fa 70 85 42 73 21 9e 43 17 1a 1f 42
       29.543102 66.72066 316.26132 39.77548
0002c0 3e d3 a0 42 a2 f7 ef 42 ec a7 05 43 26 74 1c 43
       80.41258 119.98366 133.65594 156.4537
0002d0 6f f7 59 42 27 00 92 42 db f5 03 42 16 94 6e 42
       54.491634 73.0003 32.990093 59.644615
0002e0 97 a5 2c 43 0f 33 02 42 8d d4 19 43 3f 5e 49 43
       172.64684 32.549862 153.83028 201.36815
0002f0 ec ec 29 43 2f 4f 4e 43 96 27 cf 42 0d 05 57 42
       169.92548 206.30931 103.57732 53.754932
000300 9a 94 b8 42 18 61 e6 42 4d 43 1e 42 f3 be 75 43
       92.29024 115.18964 39.565723 245.7459
000310 ae bb 67 43 e1 e7 71 42 03 d9 0e 43 7f d4 cf 42
       231.73312 60.476444 142.8477 103.91503
000320 e6 ec 47 42 1f df 53 43 35 75 d9 42 e5 df a3 42
       49.981346 211.87157 108.72892 81.937294
000330 fc be 86 42 f7 b1 ea 42 21 fc 06 43 3e 09 ed 41
       67.37302 117.34759 134.98488 29.629513
000340 84 ef f1 42 84 d7 d4 42 78 ae 17 42 c6 c5 89 42
       120.967804 106.42093 37.92038 68.88628
000350 a0 69 15 42 8a 47 e5 41 ff 56 93 42 ea 45 5d 43
       37.35315 28.659931 73.669914 221.2731
000360 7c ba 0a 43 05 cc 17 43 4e 1c f7 42 ec 93 58 42
       138.72845 151.79695 123.55528 54.144455
000370 29 21 3e 42 1f 76 5b 43 13 fb a5 42 66 26 25 43
       47.532383 219.46141 82.99038 165.15
000380 22 f3 40 42 54 b8 aa 42 f5 68 87 42 18 d3 c5 41
       48.237434 85.360016 67.704994 24.728073
000390 b4 e5 60 42 5a 8f 59 42 9f 80 81 42 dc cc 73 43
       56.22432 54.38999 64.75121 243.80023
0003a0 8b e0 5b 42 5e 70 c9 42 70 0a 4c 42 7b 2f df 42
       54.96928 100.71947 51.010193 111.592735
0003b0 cb f1 b7 43 a4 bc c5 43 41 66 86 42 54 14 65 42
       367.889 395.47375 67.199715 57.26985
0003c0 78 13 36 42 0b b5 b8 42 70 1c f6 42 a6 30 d0 42
       45.519012 92.3536 123.05554 104.09502
0003d0 91 90 6d 43 78 c5 13 42 d8 20 ed 42 77 6a 3c 42
       237.56471 36.94284 118.56415 47.10397
0003e0 b4 f8 ef 41 62 b1 26 43 f3 c6 e5 42 0c 62 e1 42
       29.996437 166.6929 114.88857 112.6915
0003f0 bb b0 85 42 59 48 d0 42 d8 fd cd 42 d4 de 1c 42
       66.84518 104.141304 102.99579 39.217606
