checkpoints/C_epoch_20.pth (torch, 843938 bytes, 48 tensors)

gnn_node.node_encoder.weight f4 [1, 128]
00000000: 0d5d 403f 64d9 7dbf 0dc0 f2bd 069d 4e3e
00000010: 6801 843e 7893 74bd bce6 2b3e 5590 c1be
00000020: 52ec 3e3f 4123 18be bc17 64be c3d9 1f3f
00000030: d1a8 71bf 6d52 673e 47d0 443f a5ed 26bd
00000040: a028 8abf 9a50 5cbf 3873 3b3e 0b3d 55bf
00000050: d769 92bf 22ec 693e 6b87 6a3e 5050 3abe
00000060: 5385 b7bd d8fa e7bf f869 06be 6e4c d1be
00000070: 39e9 583f 4031 2c3d 3b6a 403e fadf 06c0
00000080: cf79 b9bf 5bbd 9a3e 0bf9 f6be 1468 323f
00000090: ace9 01c0 baa1 50be 0092 483f 6f3a c53d
000000a0: d66b 89bf ff8c 77be da1d 33bf 7487 e9bf
000000b0: acdb eebd 214d bf3d bc26 7bbe 0fd1 40bf
000000c0: 53d6 fdbe 6e17 51bd a7c4 96bf a469 9ebf
000000d0: 7a9e c0be f201 353f 0d04 24bf e314 fa3e
000000e0: 2a1d 9abf 195a 773f ae50 203e fe47 0c3f
000000f0: 61d8 243b 8b9c 4cbf d126 d8be 8547 0cbf
00000100: 8b9e 11c0 49be eebf 493e 46bf 4213 103e
00000110: ce12 c93e 6f5e a23d 786d 1abe 6ab4 3bbf
00000120: 149c 853d 2c42 d9bf dcd4 0bbf 1471 c63e
00000130: 6b14 cfbf 8e3f 3fbe df84 99be 1bc9 8abf
00000140: 8442 8dbf 6594 3fbc 0bbb 59bd c487 43bf
00000150: dc71 e8be f92e 9a3e eac4 ea3e c31d 61bf
00000160: 03db 8e3f 8ade 16be fdae 883f 26c9 15bf
00000170: a01f 913f 6662 c0bf ea3f fcbb bff1 573e
00000180: 4717 a63d 3d52 a43e 0759 7cbf 3f29 333f
00000190: 9225 83be f77e bbbe f32f bc3f 9e4a 0b3f
000001a0: f155 873e 7bbc 433f 50e7 443f 49e1 b6bf
000001b0: b4a8 ee3e a066 80bf 9ac5 0e3e fe9c 8bbe
000001c0: 9673 c6bd f57c 03bf 6def 50bf 249c 36bf
000001d0: c7b1 d5be 5c9c 59bf 3704 2abf 127e d3bf
000001e0: 173c 53bf d6a2 483e a76a e13c 65c8 b83d
000001f0: ab2b ba3e 7ffa 0abb b67d 0a3e 77f3 10bf
0.75141984 -0.99159837 -0.11853037 0.20177087 0.25782323 -0.05971095 0.16787237 -0.3780543
0.74579346 -0.14857198 -0.22274679 0.62441653 -0.9439822 0.22590037 0.76880306 -0.04075398
-1.0793648 -0.8606049 0.18305671 -0.8329627 -1.143855 0.22843984 0.2290322 -0.181947
-0.089609765 -1.8123426 -0.13126361 -0.40878624 0.8473087 0.042039156 0.18790524 -2.1074204
-1.4490298 0.30222592 -0.4823688 0.6969006 -2.0298872 -0.20374194 0.7834778 0.09630286
-1.0736034 -0.2417488 -0.69967425 -1.8244462 -0.11662993 0.09340883 -0.24526495 -0.75319
-0.4957758 -0.051047735 -1.1778764 -1.2375989 -0.37620908 0.70706093 -0.6406868 0.4884406
-1.204015 0.96621853 0.15655777 0.5479735 0.0025153386 -0.79926366 -0.42217115 -0.5479663
-2.2753017 -1.865182 -0.7743879 0.14069846 0.3927216 0.07928168 -0.15080822 -0.73322165
0.0652391 -1.6973319 -0.5462167 0.38758147 -1.6178106 -0.18676588 -0.29984185 -1.0842623
-1.1035924 -0.011693095 -0.053156894 -0.76379037 -0.45399368 0.30113962 0.45853359 -0.8793604
1.1160587 -0.1473333 1.0678402 -0.58510053 1.1337776 -1.5030029 -0.007698049 0.21088313
0.081099086 0.32093993 -0.98573345 0.6998481 -0.256146 -0.36620304 1.4702133 0.5441073
0.26432756 0.76459473 0.76915455 -1.4287502 0.46613085 -1.0031319 0.13942567 -0.27268213
-0.09690015 -0.51362544 -0.81615335 -0.71332 -0.41737196 -0.8500421 -0.6641268 -1.6522849
-0.82513565 0.19593367 0.027516676 0.09022597 0.3636144 -0.0021206436 0.13524517 -0.566215

gnn_node.virtualnode_embedding.weight f4 [1, 128]
00000000: 47c1 a2be 5056 b9be 02c7 55bd 1ce2 c2bd
00000010: 6ef1 15be 2cd2 a7bd 8d47 aabe b8a4 a5bd
00000020: 738e 6fbe f7fa d63b dbb0 703e d409 25be
00000030: 2353 bfbd e0ed a7be 642f 19bf 0fda 303b
00000040: b07d a43c 5770 57be 4ef9 063d 98c2 32bd
00000050: 6754 a5be 3a8d 0bbf 982d 02bf fdf8 6cbe
00000060: e9d2 c8be f714 44be 822d 00bf 77b2 35bc
00000070: 44b4 f7be e2f4 13be 834b 3fbe cec6 b7be
00000080: 6066 94be 8526 383d b70e 4bbd 202b debe
00000090: 2b48 9f3d 04fb 90be 64f1 f5be 335d 67be
000000a0: 11b7 3fbe 2755 6fbe d149 373d 201f 52be
000000b0: 63b1 48bd 6bc1 23be aa50 1b3d 651f 8dbd
000000c0: 709d 1fbe 0dd3 1a3e c486 5bbe a991 1e3d
000000d0: 9423 5fbe b4b5 48be 3039 2ebe 125d 13bf
000000e0: 5181 38bd 9032 fabe 00c8 68be 4a30 39be
000000f0: b4b4 41be 8661 12bd aa06 92bd 84b0 50be
00000100: bc56 97be 14cb 5c3e 64fc 9c3a cd6e 903c
00000110: 5068 8ebe 01ce d8be 25ec a9be ce16 d5bd
00000120: 50c4 cb3b fe6a 1fbf 27f4 34be b40d cbbe
00000130: ff0b 49be c628 333d 5f0e 89be 46b9 dfbd
00000140: 07f5 ddbe e282 20be b48b 60bb 60e4 dfbd
00000150: f3a4 16be 23a2 0bbe cfc2 39be 1cc9 dabd
00000160: a524 2ebf 6c31 8bbe 1cdc 07bf c14b ccbd
00000170: 5797 12bf 73bd 61bd af75 10bd 4aa6 d63d
00000180: 8714 0cbd 3211 a3be a55c 61be fa56 99be
00000190: 7b65 40be eb11 03be 7b75 45bf 009a bbbe
000001a0: 93a7 a7be d8a0 85be a35c c5be 0eed a7bd
000001b0: 3d9f 19be b982 f63d 3b8b 31bd 63f4 36bd
000001c0: ba38 0abe dfd9 ca3d 8265 3abd 7a3b 02be
000001d0: e186 033e 0894 013e 1a36 9ebd 0d91 ff3d
000001e0: 4bf8 7fbd d60d 22be 2e70 dd3c 930d 30be
000001f0: 1c4e a3be 6b37 59be 6177 22bd b1dd d6be
-0.31788084 -0.36198664 -0.05219174 -0.09515783 -0.1464288 -0.08194384 -0.33257714 -0.08088058
-0.23394184 0.006560679 0.23504965 -0.1611703 -0.09342029 -0.32798672 -0.5983794 0.0026985442
0.020079464 -0.21038948 0.0329526 -0.04364261 -0.32290956 -0.5451237 -0.5085082 -0.23141856
-0.39223412 -0.19148622 -0.5006944 -0.011089913 -0.4837972 -0.14448884 -0.18681149 -0.35893863
-0.28984356 0.04495861 -0.04957458 -0.43392277 0.07777437 -0.2831651 -0.4803573 -0.22594146
-0.18722178 -0.23372327 0.04474813 -0.20519686 -0.048997294 -0.15991752 0.037918724 -0.06890754
-0.15587401 0.15119572 -0.21438128 0.03871313 -0.21790916 -0.19600564 -0.17014003 -0.5756389
-0.0450452 -0.488667 -0.22732544 -0.18084827 -0.18916589 -0.035737537 -0.07130177 -0.20379835
-0.2955836 0.21561843 0.0011977074 0.017630959 -0.2781396 -0.42344669 -0.33187976 -0.1040474
0.0062184706 -0.6227263 -0.17671262 -0.39658892 -0.19633482 0.043740056 -0.26768777 -0.1092401
-0.43351004 -0.15674928 -0.0034262957 -0.10932231 -0.1471136 -0.13636069 -0.1814072 -0.1068289
-0.68024665 -0.27186143 -0.53070235 -0.099753864 -0.57262176 -0.055112313 -0.03526848 0.10480936
-0.034199264 -0.31849056 -0.22007997 -0.2994917 -0.18788712 -0.12799804 -0.77132386 -0.3664093
-0.32745036 -0.26099277 -0.3854724 -0.081995115 -0.15002151 0.12036652 -0.04334567 -0.04466666
-0.13498202 0.09904837 -0.04550696 -0.12718001 0.12844421 0.12654126 -0.07725163 0.12478838
-0.06249265 -0.1582559 0.02703103 -0.17192678 -0.3189553 -0.21212547 -0.03966463 -0.41966012

gnn_node.convs.0.mlp.0.weight f4 [256, 128]
00000000: e7f9 79be b7c4 e23d bc4f a2bd 5e96 553e
00000010: 05eb cfbc 2f96 453d c2ee b0bd 1fa0 773d
00000020: 2bca a03d 0905 20bd df72 ea3c 38a0 b1bd
00000030: 2315 ab3d 0030 69be 865b 01bd a76d ad3d
00000040: 8b4e 803c 8de6 713d 872c c63d 7b28 c83d
00000050: c6ed 32bd 9668 33bd 2841 2a3b ce2e 803e
00000060: 3c30 53be 33e2 733d fa23 6abd d0ca afbd
00000070: 0c04 003d 1a09 483e cf05 eebd 1121 623d
00000080: 9bcf a3bd 688d 603e dc4a 33be 3b71 223e
00000090: c74b 603c 95d6 78bd abb8 17bd 6690 b93d
000000a0: 9720 e93b 3931 f9be 8e98 5abd 42b6 e1bc
000000b0: cc57 36be f6e1 5fbc a665 413e 629a 4bbc
000000c0: e081 0e3c 8783 e1bd 0ceb c9bc f797 80bd
000000d0: d093 533e 9104 2dbc cf25 8bbf 5c4a 18bc
000000e0: 4145 943b 6c9a 6ebd e08e 563e 4a19 253c
000000f0: 36c6 463d 7206 3fbf 5b15 edbe b5bf 2abf
00000100: d50f 523d 49e1 7e3c f300 97bd b90d debd
00000110: c763 bebd bca9 2d3d ef82 69be c5ff 113c
00000120: 62c1 45be 8768 e93c 4ed2 b4bc 091e 90bc
00000130: 7646 33bd 6956 d3bd 6106 aa39 b6b1 323d
00000140: 1815 333d 9581 b4bb 613d 043f 2d0a b0bc
00000150: 01d4 783d 8fea fdbb 5939 2fbc 9dfd 993d
00000160: 2c88 593d df3e a03d 3573 b8bb 68c8 acbe
00000170: a043 113d 3d3c d73a 657d 753f 4436 13bf
00000180: 37d9 3b3d d6c7 c0bd 2aaa 873c d1a0 b0bc
00000190: 1106 f0be 379c dabc f6e4 5abd ecfe f9bd
000001a0: 0e4b f83d cf6e 12be 088b 05bc 94d9 6cbd
000001b0: 11f9 8ebd 279b 70bd 62bb 30be 89f1 37be
000001c0: 5ae5 94bd 4474 39bd 7ed7 b6bd da3c 923d
000001d0: cb3b 95be e55e dc3d 8c39 3cbd b5d4 913c
000001e0: 62d3 75bd b7ce 773e 7569 093e 1567 053e
000001f0: 8f36 543e e217 a13d a79b 81bc be05 85be
00000200: f25d c4bd ad93 cc3d 7172 a4bb 9f37 e7be
00000210: eecd f53b 302f ad3d 009d 0fbe 3d98 16bf
00000220: d005 03be 44ef f8bd f8d7 3d3c 385e 0d3e
00000230: 22f8 f53c e9d6 98bd 0589 06be 5fd8 fa3d
00000240: 17fb 0d3d f16d ff3c 4616 503c 8672 a1be
00000250: 3a50 47bd 4f09 3fbd 517a 1bbe 6455 d93c
00000260: a44a 05be 8d0b e5bc 7faf c3be cf71 9b3d
00000270: f122 3b3d a628 7a3c 026d 90be 86d3 993c
00000280: 6f7c ad3d 4400 a03b 689c 23bf b10d 0f3a
00000290: c4e3 15bd 3f9b a2bd bf04 87bd a784 5b3d
000002a0: 4b86 633a c59d 2d3e 0b7d 353c 0fd6 b6bd
000002b0: 395e 76be ac03 8b3d e59e 733e 9233 4d3d
000002c0: 0f44 8bbc 8d5a 4e3d 9662 60bd 025f 6e3d
000002d0: 15c6 40bc 2131 053e fee0 103f e23a debd
000002e0: de54 1dbd 35c5 303c e008 5ebc 50ee 29be
000002f0: 1f4a 5ebd 2582 883e 9aaa 293d 0f63 b73e
00000300: 213a 49bd ec49 d6bc b9f9 dc3d 49c3 46bf
00000310: 9b61 6ebd 92b6 8cbd 88f4 23bf dab5 b7bc
00000320: 409b 44bf 63c1 563c 4dc2 8ebc 04d0 5abd
00000330: 18c7 193d 01eb a93c 4981 e13d 7690 41b9
00000340: e852 863d 804f e93d 9937 1ebf c6ee 3a3d
00000350: d065 5bbd 2ca0 b6bd 22ec 2d3c 106a 923d
00000360: b055 b7bc 93b9 0cbe 4a78 943c 0aca f1bd
00000370: b575 b8bd dc13 9cbd 011c 04bf 2103 bf3e
00000380: ef74 e53d 1c5d f0be 8c39 d93a 80e3 02bf
00000390: f959 c2bf 738b c43d 8cfb 51bd 185b c93c
000003a0: 6718 bdbd f34b 5abe 0fb9 14be c791 c23b
000003b0: 9d08 f7be 98b1 473d 301a c7be c4b2 1dbe
000003c0: 7d32 37be f085 8dbc 8da3 a9bd f081 c3bd
000003d0: ff7a 953d 39ed 0ebe 3c05 983d 696c 71bd
000003e0: 1cf8 0f3d 6c28 b23c 679e 44bd 1ae9 7bbe
000003f0: 0215 c9be a60a 9e3d cf1a ec3d af70 9f3c
-0.24411736 0.11072677 -0.079253644 0.20858142 -0.02538062 0.04823893 -0.086392894 0.060455438
0.078510605 -0.039067302 0.028619228 -0.086731374 0.08353641 -0.22772217 -0.031581424 0.0846818
0.015662452 0.05905776 0.09676462 0.09773346 -0.04368379 -0.043800913 0.0025978778 0.2503571
-0.20623869 0.059541892 -0.057163216 -0.08583605 0.03125386 0.19534722 -0.11622202 0.055207316
-0.07998582 0.21928942 -0.17509025 0.15863506 0.013689942 -0.060751516 -0.037041347 0.09060745
0.0071144807 -0.48670366 -0.053368144 -0.027552728 -0.1780693 -0.013664713 0.18886432 -0.012426944
0.008697957 -0.11011415 -0.024648212 -0.06278985 0.20661855 -0.010560171 -1.0870913 -0.009295072
0.0045248573 -0.058252737 0.2095294 0.01007683 0.048528872 -0.7461921 -0.46305355 -0.6669877
0.05128463 0.015556642 -0.07373228 -0.10842461 -0.09296375 0.0423982 -0.22803853 0.008911078
-0.19312051 0.028492225 -0.022072937 -0.017592447 -0.04376837 -0.10319216 0.0003242968 0.04362651
0.04372129 -0.0055086114 0.51656157 -0.021489227 0.060749058 -0.007748909 -0.010694825 0.07519076
0.05310838 0.07824492 -0.005628968 -0.33746648 0.035464883 0.0016421151 0.9589446 -0.5750468
0.04586145 -0.09413116 0.016560633 -0.021561058 -0.46879628 -0.026685817 -0.05344101 -0.122068256
0.121236905 -0.14300083 -0.008150823 -0.057824686 -0.069810994 -0.058741715 -0.17258981 -0.17963232
-0.07270308 -0.045276895 -0.089278206 0.07140513 -0.2914718 0.10760287 -0.04595332 0.017801622
-0.060016043 0.24199949 0.13419135 0.13027604 0.20723937 0.078658834 -0.015821291 -0.25980943
-0.09588231 0.099891044 -0.0050185253 -0.45159623 0.0075013554 0.08456266 -0.14024734 -0.5882605
-0.12795186 -0.12155011 0.0115871355 0.13805473 0.030025546 -0.07462866 -0.13138206 0.12248301
0.034663286 0.031180354 0.012700623 -0.31532687 -0.048660494 -0.046639737 -0.15183379 0.026529975
-0.13016754 -0.02795961 -0.3821983 0.07590067 0.04568762 0.01526848 -0.28208166 0.01877762
0.084709994 0.004882844 -0.6391053 0.0005457057 -0.036594167 -0.07939767 -0.06592702 0.053593304
0.0008679374 0.16954716 0.011077176 -0.08927547 -0.2405938 0.0678781 0.23791082 0.05009801
-0.017000226 0.050379325 -0.05478152 0.058196075 -0.011765976 0.13007022 0.5659331 -0.10851075
-0.038411014 0.010789205 -0.013551921 -0.16594815 -0.054269906 0.26661792 0.041422464 0.35817763
-0.0491277 -0.026158296 0.10789818 -0.7764173 -0.058198553 -0.0687076 -0.64045 -0.02242558
-0.7679939 0.01310763 -0.017426634 -0.053421035 0.037543386 0.020741941 0.11010987 -0.0001845973
0.06558782 0.113921165 -0.61803585 0.04563787 -0.053563893 -0.08917269 0.0106153805 0.07149136
-0.022379726 -0.13742666 0.018123765 -0.11806114 -0.09006826 -0.076209754 -0.5160523 0.37307075
0.11203944 -0.46946037 0.0016572936 -0.5112839 -1.5183707 0.0959691 -0.051265284 0.02457957
-0.0923317 -0.21318035 -0.14523719 0.005937788 -0.4824876 0.04875335 -0.38887167 -0.15400225
-0.17890354 -0.01727578 -0.08283148 -0.09546268 0.0729885 -0.13957681 0.074228734 -0.05894128
0.035148725 0.02174779 -0.048002627 -0.2460064 -0.3927384 0.07716875 0.11528551 0.019462911

gnn_node.convs.0.mlp.0.bias f4 [256]
00000000: be28 153d 35f2 763d 3a91 933c c601 a63c
00000010: 67d9 2d3c b551 b23d 571d 4fbd 3347 05bd
00000020: 7258 7bbb cb8a 45bc db30 1b3d 1eb9 8abd
00000030: 6854 82bd 192c 8abd b575 53bd 7591 84bc
00000040: 696a 87bc 8425 79bd 2697 9b3d 8552 993d
00000050: 8301 16bd 316b 6bbd e791 1d3c 47b5 223d
00000060: 793d aa3c 5257 2fbd c822 123d fe4b cb3c
00000070: d30e 13bc 9a05 a7bd 7d08 af3d 457d c43b
00000080: 2857 2f3d 9d50 7dbc fcdb c73c 8764 26bd
00000090: 3bc8 c6bc db28 123d dd74 68bc 601e 36bd
000000a0: 04b0 23bd e212 aabd 8935 8fbd 79a2 903d
000000b0: 7f22 af3d d8f7 673c 258b b8bc aa8f a3bd
000000c0: 5aa9 f73c 5028 c0ba 2da0 a8bd aa65 89bd
000000d0: 1c00 a43c d967 903d 6c88 79bd 04bb 0abd
000000e0: 4288 613d b718 073d 1f78 4c3b 0c8d 1e3d
000000f0: aff5 8b3c d239 c4bb d051 2abd aa42 e1bb
00000100: 5a98 103c 85cb 46bd 5ad3 6d3c e81f 913c
00000110: d416 d33b 0cda 133d f1b1 d43c 47ac 8a3d
00000120: c0bc ccbb ce3c ed3c cb6c 54bc 38e7 adbd
00000130: 0f14 d8bc 19a8 57bd 872e 6bbd 1087 e13c
00000140: 81c2 873d 67eb 51bd 1047 8dbd 561d cfbc
00000150: 06ff 61bd 5f17 5dbd 0a12 7b3d b0e8 b53c
00000160: 4f8e b93c e21f 473d 1ce1 babc d6b6 333d
00000170: 5b34 9cbd a775 a2bd de8d ee3b 86dc 793d
00000180: bd9b dcbb 013b ebbc c8bf d2bc 3f58 7abd
00000190: 36a2 90bd 1bca 873d 2e4d 50bd d679 bf3c
000001a0: a095 863d bdfb 6abd d7f9 03bd 7917 9d3c
000001b0: a57a 2d3d 1ae6 18bd 5f44 59bb 5ec6 613d
000001c0: ebaa ed3c 6bab 363d f855 063d 5eb1 a0bd
000001d0: d270 553d 76b1 333d 5a08 39bd 1b13 8a3d
000001e0: 9ac2 d03c 0ee1 8f3d 608e 03bd 0856 5b3d
000001f0: da81 adbd fce6 60bd 4bdd 0f3d 49f6 1d3c
00000200: 95b6 e13c f76e 37bc ef2d 303d 13f8 adbd
00000210: eb9b 9ebd 0d40 4e3d e3f9 23bd 3719 953d
00000220: 2ae3 563c d693 90bd 026e 3b3c c860 993c
00000230: 0bce 41bd 0619 903d 02f6 a2bd 4024 843d
00000240: 6715 943c c568 333d 4007 893d ec02 adbc
00000250: 7b3f 373d 8017 a13d 4c7e 113d 2102 80ba
00000260: ad69 8f3d 4630 06bd f9a7 933c 9a2d 7e3d
00000270: 9ee4 54bd b92b 6abd 89dc 3bbb 1e7c 553d
00000280: 2d3a 933d 49dd e3bc 5f2d 6ebc 6816 933d
00000290: 8ccf 623d 2e33 2a3d e202 703d 08f4 09bd
000002a0: 8beb 48bd a175 813d 08aa 9e3d db36 a93d
000002b0: 1d0e 1ebd 324b ba3c 5346 613d 5ea5 a43d
000002c0: c4e2 9cbd ecdd 053d ba96 7c3d fdea e03a
000002d0: 68d3 90bd 9c81 af3d fd2f 423b 7eb5 0bbd
000002e0: 7247 1ebd 2839 ea3c 6957 b33c c858 16bd
000002f0: 3cfa 0dbc 87d8 8abc a788 643d dc36 9fbd
00000300: 4ae2 6d3d 4318 40bd ef88 173d a468 4cbd
00000310: 0504 b43d b75c d0b9 1c4d 713c d6e2 733d
00000320: a9d5 6bbd 3d87 2ebd 18eb b03d d4db a53d
00000330: 6b29 67bd 5621 5cbd 8b10 1ebd 112d 12bc
00000340: 208b cc3c 19a1 8ebd df75 a5bd bc52 3bbd
00000350: ca3b 9cbd 2e0d a4bd 356f 40bd a4b5 c93c
00000360: f06e 5a3d c85f 4e3d 5dd0 8fbd 01c6 0b3d
00000370: f8ab 8bbc 9fc9 b43d 35e0 873d 77c7 9e3d
00000380: 071f 27bd 635f 5cbd caac 8cbc 4ad6 773d
00000390: 472f 11bd 3e03 fdbc 8c86 00bd 8c9c 92bd
000003a0: 6d25 71bc 3e55 85bd aa4b 5b3d ea83 16bc
000003b0: 6324 87bd b009 d83c 96cc 1fbd 70a7 afbd
000003c0: d704 8e3c 3843 013d 4371 04bd 6e01 62bd
000003d0: 609e a0bb 0725 8cbc 7aa2 9fbb cbca 8e3d
000003e0: a5fa 183d 5460 8ebd 6969 ffbc 800c 5e3b
000003f0: a895 993d 177d 39bc e188 38bd 6e4d a33d
0.036415808 0.06028958 0.018013585 0.020264518 0.010610915 0.08706991 -0.05056509 -0.032538604
-0.0038352278 -0.012057017 0.03788839 -0.067735896 -0.063637555 -0.06746692 -0.051625926 -0.01618264
-0.016530233 -0.060826793 0.07597189 0.074864425 -0.036622535 -0.057475273 0.009617305 0.03972366
0.020781266 -0.042807885 0.0356777 0.02481651 -0.008975702 -0.08155365 0.08546541 0.0059963786
0.042807728 -0.015461114 0.024396889 -0.040623214 -0.0242654 0.035683494 -0.014188019 -0.04446256
-0.039962783 -0.08304383 -0.06992633 0.07062239 0.085515015 0.014158212 -0.022527287 -0.07986386
0.03023212 -0.0014660452 -0.08233676 -0.06708844 0.020019583 0.07051057 -0.060921118 -0.03386976
0.055061586 0.032982554 0.0031199527 0.03870873 0.017084925 -0.005988338 -0.04158193 -0.006874402
0.008825386 -0.048533935 0.014515722 0.01771541 0.0064419303 0.036096618 0.025963755 0.067711405
-0.0062480867 0.028959658 -0.012965391 -0.08491367 -0.026376752 -0.052650545 -0.05741742 0.027530223
0.066288956 -0.051249888 -0.0689832 -0.025282543 -0.05517485 -0.053977367 0.0612965 0.02220568
0.022650866 0.04861439 -0.022812419 0.043875538 -0.076271735 -0.07932597 0.0072800955 0.061001323
-0.0067324326 -0.028714659 -0.025726214 -0.061119314 -0.07062189 0.066303454 -0.050854854 0.023373526
0.065715075 -0.057368983 -0.032220688 0.019176232 0.04235329 -0.037328817 -0.0033152325 0.05512082
0.029012164 0.04459707 0.03279683 -0.0784633 0.052109547 0.04387041 -0.04517398 0.06741925
0.025483418 0.07025348 -0.0321182 0.053548843 -0.08472033 -0.054907784 0.03512315 0.0096412385
0.027552882 -0.01119589 0.043012556 -0.08494582 -0.07744583 0.050354052 -0.040033232 0.072802
0.013115684 -0.070594475 0.011439802 0.018722907 -0.04731564 0.07036023 -0.079570785 0.06452227
0.018076612 0.043801088 0.06690836 -0.021119557 0.044738274 0.078658104 0.035520837 -0.000976626
0.07002578 -0.03276088 0.018024432 0.062055208 -0.05197584 -0.057170603 -0.0028665385 0.05212032
0.071888305 -0.027815478 -0.0145371845 0.07182008 0.055373713 0.041552715 0.0585965 -0.033679992
-0.049052756 0.06321264 0.07747275 0.08262416 -0.03858768 0.022740934 0.054998707 0.08039354
-0.076604396 0.032682344 0.06166718 0.0017159876 -0.070715725 0.08569643 0.0029630654 -0.03410863
-0.038642354 0.028591707 0.021892266 -0.036705762 -0.008665618 -0.016948951 0.055794384 -0.077741355
0.058077134 -0.046898138 0.036995824 -0.04990448 0.08789829 -0.0003974193 0.014727857 0.0595425
-0.05757681 -0.042609442 0.086385906 0.080985695 -0.056435984 -0.05374273 -0.038589995 -0.0089218775
0.024968684 -0.06964321 -0.08079123 -0.0457332 -0.07628591 -0.08010326 -0.046981055 0.024622746
0.053328454 0.050384313 -0.07022164 0.034124378 -0.017049775 0.08827519 0.06634561 0.07752889
-0.040801074 -0.053801905 -0.017172236 0.060507096 -0.035445478 -0.030885335 -0.031378314 -0.07158765
-0.014718396 -0.06510399 0.053538956 -0.009186724 -0.06598737 0.026371807 -0.039013468 -0.08576858
0.017336292 0.031558245 -0.032334577 -0.055177145 -0.0049016923 -0.0171075 -0.0048716636 0.069722734
0.03734841 -0.06951967 -0.031178193 0.0033881962 0.07499248 -0.011321328 -0.045052413 0.07973753

gnn_node.convs.0.mlp.1.weight f4 [256]
00000000: 34eb 863f 0510 b03f a89c cb3f e9be 753f
00000010: bf30 db3e d37d 293f 8519 653f 02c6 3a3f
00000020: e21d ba3f ccbb cf3e 64d8 be3d 1ec3 113f
00000030: d79e 163f e3f7 a93f 5035 a53f eb82 8c3f
00000040: d056 973f 02c0 783e d583 b03f d7a9 b13f
00000050: 2b4d aa3f 1398 7c3f 5fd6 b73f f6ce 753e
00000060: 628c a93e 95e2 f43f 31bf a83e a764 583f
00000070: 332d 983f 3864 903e 1b45 bc3f 2871 c63e
00000080: 7aef 143f 1813 ac3f 477f b23f ffc5 a83f
00000090: 7098 983f 1206 1a3f b542 293f 6ceb da3f
000000a0: 8b14 823f 951c 4a3f f521 8a3f f2cf 833f
000000b0: 567e 0c3f d28d 953f 479e d13e 7c63 943f
000000c0: 0b81 9a3f 526a 3c3f 8ac2 dd3f be61 b23f
000000d0: 6ed3 b63f 7664 c83f 2e4e 233f 946c 443f
000000e0: 4b3b d03e 9458 e13d 0dbe 2d3f 2d79 a43f
000000f0: 448c b13e 68f5 c83e ff3f 3a3f 58af 463f
00000100: 6e1e a03f c58a 963e 6468 c83f 4518 0b3e
00000110: abf6 2d3f a3cc 313f 0c21 8e3f ffa2 2a3f
00000120: b112 dd3e 239a fd3e fdf8 b83f fcfa 463f
00000130: 1f99 3e3f 896b 8f3f 4fd9 343f 95f6 0e3f
00000140: 24b5 293f 5503 a93f 58b6 803f 84d9 f43e
00000150: efa1 a33f 2e8b a13f 8961 233f 7382 b13f
00000160: c07f 3c3f 8a8f 503f 4076 ae3f 6704 943f
00000170: 5738 693f 8c5c ec3e d1f6 9d3f f3a7 f23f
00000180: bbb4 873f 500b cb3e e635 593f 9086 9f3f
00000190: 9ed7 0c3f a5c4 843f 36f4 7f3f e3d0 933f
000001a0: 670c 9c3f b067 7b3f 00cf 973f 4500 313f
000001b0: c4f4 933f 5fe5 2e3f a097 953f fc1c 3a3f
000001c0: ea5b 163f 44a0 683f 7c25 913f d7f2 9e3f
000001d0: aaf5 6c3f 31c2 d83e e66a 873e 6356 743e
000001e0: ab0b db3e 580e ec3f 9392 643f 1b36 553f
000001f0: 5903 c13f 7e2e 3c3f 0de6 2f3f 5d51 1c3f
00000200: f4c2 9b3f b79e 023f 3786 823f 5f67 823e
00000210: 329e 983f 6402 513f 5851 243f c832 243f
00000220: 8193 7f3f d12c bf3e 2e7a af3f 36f7 513f
00000230: 3758 3d3f 5891 9f3e 9f84 0d3f 5e4c b33f
00000240: bb7d 533f 5865 753f ce13 073f 39a1 643f
00000250: a520 c13f 64e3 fc3f 8d61 c43f bd4d 353f
00000260: 9549 323f c042 923f cec9 f03e 6934 3d3f
00000270: 08c6 cd3f 9c76 013f fe85 303f d655 293f
00000280: 3f69 c43e 318c 8c3f 9250 863f 7cfa 413f
00000290: 5eed d63f 4da1 ed3e 0833 9a3f 8a95 6b3f
000002a0: 2409 af3f 7972 073e f865 3f3f 9aa3 da3f
000002b0: f4de 593f 1bfd 563f b14a 3e3f e7f0 453f
000002c0: 7543 953f 5320 e73e 2c47 213e e67b bf3f
000002d0: a433 ac3f f0c0 fd3e 41ac a83f a337 2a3f
000002e0: c189 9a3f 6a44 623f a002 a33f 4c11 123f
000002f0: 32b3 963f 5d72 de3f 4d7f a73f 9405 313f
00000300: 05c3 ac3f 4867 a83f bb57 503f 4167 ec3f
00000310: f7a3 c93f 6b80 973f 40dc 9e3f 4dc4 a93e
00000320: ff80 5c3f d747 843f c490 8d3f ca2a a23e
00000330: e49e 123f 2f3d 033f 2162 723f dadc 863f
00000340: 6022 103f 722a 803f ecbc 513f 2b6e 643f
00000350: 5226 ad3e f43e 453f fc74 7f3f f75c df3f
00000360: 4ff4 9e3f 09fe b93f f458 ab3f 901e d73e
00000370: c146 183f 3b0e ba3d 2efa 8c3f f6d2 8d3f
00000380: 3476 823f 4cd9 fe3e 0266 983f af19 f83e
00000390: 3526 933f f082 203f 71d5 973f 681e d73f
000003a0: a828 153f 3afc 383f c265 5b3f 6977 893f
000003b0: b681 ca3f 9b9a ee3f 6c2f 513f f599 5d3f
000003c0: 1efa 343e c7c8 643f be7b 0a3f 8ffa 803f
000003d0: 09fa b33f 8db4 673f 4aff ca3f 6b6b a03f
000003e0: 274a b13e aa46 723f 06f7 9c3f 9422 693f
000003f0: 420b a83f c088 d73f accb c73e 8b99 9e3f
1.0540528 1.3754889 1.5907183 0.9599443 0.42810628 0.6620762 0.89492065 0.72958386
1.454037 0.40572965 0.09318617 0.5693835 0.5883612 1.3278774 1.2906895 1.0977453
1.1823368 0.24291995 1.3790232 1.3879956 1.33048 0.98669547 1.4362296 0.2400473
0.33114916 1.9131647 0.32958367 0.84528583 1.1888794 0.2820146 1.4708589 0.38758206
0.5817791 1.3443327 1.3945092 1.3185424 1.192152 0.6016551 0.6611741 1.7103095
1.0162519 0.7894986 1.0791613 1.0297835 0.54880273 1.1683905 0.4094107 1.159286
1.2070631 0.7359973 1.7324994 1.3936079 1.4283273 1.5655658 0.6379117 0.7672818
0.40670237 0.11003223 0.6786812 1.284948 0.34677327 0.3924973 0.727539 0.77611303
1.2509286 0.29402748 1.5656857 0.13583477 0.6795451 0.69452876 1.1103835 0.6665496
0.43178323 0.4953166 1.4450985 0.7772672 0.74452394 1.1204692 0.70644087 0.55845004
0.66292024 1.3204142 1.0055647 0.478222 1.2783793 1.2620599 0.638207 1.3867935
0.7363243 0.81469023 1.3629837 1.1563843 0.9110159 0.46164358 1.2340947 1.8957504
1.060203 0.39657068 0.8484787 1.246294 0.55016506 1.0372511 0.9998201 1.1548122
1.2191285 0.9820509 1.1860046 0.69141036 1.1559072 0.6831874 1.1686897 0.72700477
0.58734 0.90869546 1.1339564 1.2417859 0.92562354 0.42335656 0.26448745 0.23861079
0.4278234 1.8441877 0.89286155 0.83285683 1.5079147 0.7350844 0.68710405 0.6106165
1.216887 0.5102343 1.0197209 0.2546949 1.1923277 0.8164427 0.6418662 0.64139986
0.9983445 0.3733888 1.3709161 0.8201784 0.7396273 0.31165576 0.5528049 1.400768
0.82613724 0.95857763 0.52764595 0.89308506 1.5088087 1.9756894 1.534227 0.70821744
0.6964353 1.142662 0.47028965 0.73908097 1.6076059 0.5057161 0.68954456 0.661466
0.38361546 1.0980283 1.0493338 0.75772834 1.6791189 0.46412125 1.2046824 0.92025054
1.3674664 0.13227262 0.74764967 1.7081177 0.85105824 0.8397996 0.7433272 0.7732071
1.1661211 0.4514185 0.15749806 1.4959686 1.345326 0.49561262 1.3177568 0.66491145
1.2073289 0.8838564 1.2735176 0.5705764 1.1773436 1.7378651 1.3085724 0.69149137
1.3497015 1.3156519 0.81383866 1.846901 1.5753163 1.1836065 1.2410965 0.33157578
0.8613433 1.0334424 1.1059804 0.3167327 0.572737 0.51265234 0.9468098 1.0536149
0.5630245 1.0012953 0.81928897 0.892306 0.338183 0.77049184 0.9978788 1.7450246
1.2418307 1.453065 1.3386521 0.42015505 0.5948296 0.090847455 1.1013849 1.1080005
1.0192323 0.4977516 1.190613 0.48457095 1.1496035 0.62699795 1.1862012 1.6806154
0.5826516 0.7225987 0.85702145 1.0739566 1.5820835 1.8640932 0.81712985 0.86563045
0.17673537 0.8936886 0.54095066 1.0076464 1.406068 0.90509874 1.5859158 1.2532781
0.34626886 0.94639075 1.2262886 0.9106839 1.3128436 1.6838608 0.39022577 1.2390608

gnn_node.convs.0.mlp.1.bias f4 [256]
00000000: 3024 853e b181 21be 5c71 cd3d 7752 c13e
00000010: 0c36 583e 61c5 cf3e eeee e9be d901 77be
00000020: 0a55 263e 7ddf 7fbe a859 ddbe 5f0c ea3e
00000030: e3a6 98be 0c51 bebc eda5 b63d 1eca 223e
00000040: d879 9ebe 5bb9 d0be e776 68be bdca 8dbd
00000050: b5fc 00be fb62 1f3f d92a 6ebe 5691 12bf
00000060: e4f0 d9be 6419 0f3f f86a 563e 35e5 23bd
00000070: 0920 553d f739 203e 9249 b5bc cccf bd3e
00000080: 5f4a 6c3e a888 393c 531a d43d 0b97 4abe
00000090: cad8 4cbd f794 4a3e bf34 223f d289 1a3d
000000a0: 7880 d63d 86ce 883e ba82 bfbd 97b0 4c3e
000000b0: b989 4cbf a98a 373e b5ae 94ba 9597 9ebe
000000c0: 0247 5dbe 178f 623e b556 563e 5f76 91bc
000000d0: a525 9bbd 54c5 6e3e 101c f2be caf0 d6be
000000e0: d5e7 0bbd da69 dfbc 8c16 5dbe 5ac7 43be
000000f0: 1dcf 913d 3d31 4d3e 6ab0 9c3d b079 4abe
00000100: c5bf 55bd 3b7a 40be b2f2 98bc 5cba fcbe
00000110: 6f85 c13e 45aa 2fbd 3222 5f3c d556 88bc
00000120: 08a6 c8be 7492 bebe ee33 a03e 2b91 56be
00000130: 3262 a3bd 4cfc 6abe ebf4 20be 0a80 f8bc
00000140: e5d2 b13d 9681 c1bc 4932 e5bd 6901 b3be
00000150: ea31 793d 29b2 debd e171 b7be 08cc c0bd
00000160: cd4c 6ebe 2adc 3dbd 7fcc f23d 8de5 2c3e
00000170: 5c24 153f 40b0 a9be ec69 103e c027 993e
00000180: 1e5d aebe 1c29 97bd 0ae9 03be c64c 3a3e
00000190: 4802 aebd 8b57 4c3d 1b03 7c3e 79ea d7bd
000001a0: a779 73be 8cda 963d c46c 84be 5cb7 debd
000001b0: 184b e03e f566 5f3d db74 39be 4ec6 01bf
000001c0: c192 3e3e a7b1 4c3e d927 a0bb a40c 0b3e
000001d0: f841 d73d dc43 c1bc ff0e 5e3e b7a3 0cbf
000001e0: 8ff7 46bb a86f aa3e f82d d83e 69b9 b4bd
000001f0: 534c 3f3e 1dd6 9fbd 328b 7abe 47a8 65be
00000200: fde9 69be a6fa 023f 880c aabe 29b3 8d3e
00000210: a09a d73d c0bd 85be e276 f0be 06f3 f13d
00000220: bf43 7ebc 5e5f e33e 449a 82bd 9c6d b6bd
00000230: 1136 d83d aae0 e1be c05c e33e fe89 da3d
00000240: 5e30 3abe 7246 0a3e e696 413d 1c7f 063f
00000250: c567 893e 6bd6 e53e 4531 903e 0946 843e
00000260: 0e37 bebe 1d1d 6c3e 807c 563e f363 b23c
00000270: ceb2 ecbd a901 11be 9e40 213f db22 05bf
00000280: 178b f5be 3887 f8bc 413e aebd 8653 0dbe
00000290: 7506 7c3e 6514 7f3d 3b10 32bd c511 e83e
000002a0: d9a8 473d 0a94 58bd 04c5 bf3e 64f1 733e
000002b0: 59cd e53d 788f e6bd a387 fe3e 6451 b53c
000002c0: e245 a9be ab31 243d 9f96 e6be 3552 66bd
000002d0: ded6 13be 264d c1be dd2e 8a3c 36a7 20bf
000002e0: 11bc a4be afa3 a1be 3b94 f83e 0a0a aa3e
000002f0: ac20 09be 1a30 a63e 0bd0 93bd c12a 8e3c
00000300: 434b 2e3e 5ea3 86bd e7e2 8dbe f750 393e
00000310: a42e 653e 17f5 7ebe ea9c acbd 72a5 dbbe
00000320: 1865 4c3d 9d5b 85bd 5a45 89be 0930 01bf
00000330: 270b 2dbe 1969 b33e 6816 133d 9e51 ecbc
00000340: b2de 963e b9bf 363e 30a6 e0be 28d1 e4be
00000350: 9033 fdbe 9ec1 06bf 6691 b8bd 4e70 703e
00000360: 55b4 eb3e 54a4 5fbd a4f3 fa3c 8ae3 58bf
00000370: 4f06 973e b385 99be 8784 f43e b693 95be
00000380: e1df 603d b564 da3e d666 bcbc cf80 77bd
00000390: 029f fb3d ae50 83be 97b5 b83b e0a0 da3e
000003a0: 9167 363d fcb3 37be 11eb 56bd ca59 ff3e
000003b0: 7d9c 373e 9153 aa3e 37be bdbe 24df f3be
000003c0: 6f82 20bf 0034 21be 95a8 9dbd 6e48 a33e
000003d0: e246 aa3e 8f9b 023f cb4c 393e 1af5 4d3e
000003e0: 67db 7c3e e864 32be 3e71 d43c a09f 433e
000003f0: 23dc a83e 8edc 7b3e 7f2e 873e 243d 8dbe
0.2600417 -0.1577213 0.10031387 0.37758228 0.21114367 0.40580276 -0.456901 -0.24121799
0.16243377 -0.24987598 -0.43232465 0.45712563 -0.29814824 -0.023232006 0.089183666 0.15897414
-0.30952334 -0.40766415 -0.22701608 -0.06923435 -0.125964 0.6226041 -0.23258533 -0.57253015
-0.42566597 0.5589812 0.20939243 -0.04001351 0.052032504 0.15647112 -0.022129808 0.370726
0.23075245 0.011324085 0.103565834 -0.19784181 -0.050011434 0.19783388 0.63361734 0.037729092
0.10473722 0.26720065 -0.09351106 0.19989239 -0.7989765 0.17923988 -0.0011343571 -0.30975023
-0.21609119 0.22124897 0.20931514 -0.017756639 -0.075755395 0.23317462 -0.47287035 -0.41980582
-0.03415664 -0.027272154 -0.21590632 -0.19119015 0.07119582 0.20038314 0.07650836 -0.19772983
-0.05218484 -0.18796627 -0.018670414 -0.4936093 0.37797114 -0.04288699 0.013618993 -0.016642967
-0.39189172 -0.3722111 0.3128962 -0.20953815 -0.07977714 -0.22947806 -0.15718429 -0.030334491
0.08682803 -0.023621362 -0.11191232 -0.34962013 0.060838617 -0.10873825 -0.3582907 -0.09413916
-0.23271485 -0.046352543 0.11855411 0.16884442 0.58258605 -0.3314228 0.14102906 0.2991314
-0.34055418 -0.07380888 -0.12881866 0.18193349 -0.08496529 0.049888175 0.2461056 -0.10542769
-0.23776875 0.07365903 -0.25864232 -0.10874817 0.43807292 0.054541547 -0.18110983 -0.50693214
0.1861067 0.19989644 -0.0048875627 0.13579041 0.105106294 -0.023591928 0.21685408 -0.5493731
-0.0030359959 0.33288312 0.4222257 -0.08824427 0.18681459 -0.07804511 -0.24467161 -0.22427474
-0.22843166 0.5116371 -0.33212686 0.2767575 0.10527539 -0.2612133 -0.469657 0.11813931
-0.015519082 0.44408697 -0.0637708 -0.08907625 0.10557187 -0.44116718 0.444067 0.10670851
-0.18182513 0.13503435 0.04726305 0.52537704 0.26836982 0.4489015 0.2816259 0.25834683
-0.37151378 0.23057981 0.2094593 0.021776175 -0.11557542 -0.1416079 0.62989223 -0.5200631
-0.4795768 -0.030337915 -0.08507968 -0.13801393 0.24611838 0.06227531 -0.04347251 0.45326057
0.04874501 -0.052875556 0.37454998 0.23822552 0.112208076 -0.11257833 0.49712858 0.022133537
-0.3306113 0.04008643 -0.4503679 -0.056230742 -0.14437434 -0.37754172 0.01686805 -0.62755144
-0.32174733 -0.31570193 0.4855059 0.33210784 -0.1339137 0.32458574 -0.072174154 0.017354371
0.17020898 -0.065741286 -0.27712175 0.18097292 0.22381073 -0.24898182 -0.084283665 -0.42899662
0.049901098 -0.065116145 -0.26810724 -0.5046392 -0.16898786 0.3504112 0.03591004 -0.028847512
0.29466778 0.17846574 -0.4387679 -0.44690824 -0.49453402 -0.52639186 -0.090121076 0.23480341
0.4603602 -0.054600075 0.030633755 -0.847222 0.29497 -0.29984817 0.4775736 -0.29214257
0.054901008 0.42654958 -0.022998255 -0.060425576 0.12286188 -0.2564749 0.0056368816 0.42700863
0.044532362 -0.17939752 -0.05247027 0.4987319 0.1793079 0.3326688 -0.37059185 -0.4763118
-0.62699026 -0.15742493 -0.0769817 0.31891197 0.33257204 0.51018614 0.180957 0.2011303
0.2469307 -0.17421305 0.025932904 0.19103861 0.3298045 0.24595854 0.2640266 -0.2758571

gnn_node.convs.0.mlp.1.running_mean f4 [256]
00000000: bec7 ed40 3d91 92c0 4a38 62c0 7edd fc3d
00000010: 3416 df3f fa38 fb40 adf7 1a41 dce3 a1bf
00000020: 413a 443c deaa 05c0 7945 be3f 3b1e f440
00000030: 87e6 5540 aee4 09c1 5d31 88bf 299a db3f
00000040: 71df bcc0 b09e 1941 fba0 7bc0 4048 fbc0
00000050: 45a8 31c0 4592 c5bf fe05 6cc0 78b5 a740
00000060: a086 c33f 1d1d 00c1 65f7 e73f b0b0 0ec1
00000070: 39b2 dbbe 4c1b 4240 ea21 19c0 efe8 be40
00000080: 37e5 ba3f 4116 8cc0 ea41 2ac0 bd19 9dc0
00000090: f90f ddc0 27f3 6340 17c0 f740 af51 bec0
000000a0: 1a8d 92c0 6a66 a7c0 ada5 01c1 9f7c 6dc0
000000b0: f187 1441 0bd6 42c0 0c35 c840 7bab 44bf
000000c0: edb0 6fbe fe11 c140 47b6 c3c0 387b b0c0
000000d0: 95ab 90c0 30f1 f8c0 1593 0241 3481 1b41
000000e0: 8031 ce40 72a2 40c0 ca12 06c1 bb05 68c0
000000f0: 0048 6240 0a75 a640 1766 c640 6075 7dbf
00000100: c922 4ac0 ae28 92c0 d2f4 fbbf e959 e540
00000110: 50fe 2540 0c1a 2441 ba70 263f a4e7 59c0
00000120: 9edb eb40 7681 82c0 b722 963f 436c 20c1
00000130: 03ba 98c0 1b2d 2ac0 d67b 0441 83bc 85c0
00000140: 5307 90c0 f02e 09c1 deb5 c6c0 0f3d 8dc0
00000150: 4e02 cc3f 8cb3 b040 4355 b5be a6b1 65c0
00000160: 5be3 bc40 45bb 12c0 65db 4bc0 f9a5 653f
00000170: fa34 ba40 3acf b4c0 fe89 bebe 1e87 e7c0
00000180: 8a3d 6dc0 d91d c440 5f71 d2bf 1f5a b2c0
00000190: 03ac 13c0 a8e4 25c0 8a94 b240 821b cac0
000001a0: 38d9 81c0 dc7b 77c0 8b75 95c0 6060 2c41
000001b0: b6d0 15c0 d5e3 c2c0 060c 97c0 65c9 93c0
000001c0: 51d0 363e a904 6e40 87a9 96c0 cfbd 8fc0
000001d0: 2872 83c0 9d18 a9bf 97c1 1840 9ace 8240
000001e0: 8fcf dbbf 6d56 36c0 a2cc 0540 8ed5 94c0
000001f0: dc17 8ec0 a05a c4c0 e51f 0441 d943 b7c0
00000200: 37d7 b1c0 aaf1 a340 2d09 32c0 07f1 1c40
00000210: 4fe1 a33e 0740 9ac0 9a04 bec0 c402 0c41
00000220: 4d46 e2c0 8881 2641 366c 99c0 9f03 97c0
00000230: 93c5 2ac0 15ba 2441 4fa1 0a3f 5c21 5bc0
00000240: d192 c2c0 4d30 a5bf 4219 c040 2cb7 b940
00000250: 13f5 0ec1 6b98 d3c0 8a92 8dc0 425e 68bd
00000260: eabe 7ac0 887c ab40 d574 0b41 027a 63c0
00000270: c56d 2ac0 2532 27c0 3f36 0040 0b55 b43f
00000280: 7230 c740 2357 22c0 88d8 4fc0 e760 03c0
00000290: 54ab a6c0 9ee7 ee3e 9717 fcc0 e16d 08bf
000002a0: e5e4 92c0 4e32 28c0 5242 1a40 7a77 c2c0
000002b0: 75e6 2ec0 33de 0ebf 62d4 e840 bb02 11c0
000002c0: 69a1 c9c0 1c70 b0be 7477 a840 db58 87c0
000002d0: c503 0ec0 ca3f c4c0 dc9c 8e40 6ad7 3941
000002e0: f9ee a2c0 0e16 0d41 a502 ec40 d0fd a640
000002f0: b869 03c1 8257 edc0 b3ff e0bf 233a 6ac0
00000300: 35b1 09c0 495b f1bf 84a6 b5bf cee7 c8c0
00000310: fec0 02c1 cbd4 44c0 9882 87c0 67f5 ac40
00000320: f628 9140 ab5e e2bf a4ad 85c0 372d 4d41
00000330: 57c2 55c0 35fb f940 f40f abbf 8399 a1c0
00000340: 3778 1f41 d995 5bc0 1f2a 63be 23c8 9dc0
00000350: ba76 bc40 2733 2941 00f7 b1c0 0832 d5c0
00000360: 3313 64c0 3348 85c0 4da3 90c0 95eb e840
00000370: d97e de40 3994 3d41 575d 6bbf f330 42c0
00000380: 2371 8140 323e f340 771a 04c1 3fa4 a43f
00000390: b7a2 87c0 8930 4441 d8ec fec0 af53 bdc0
000003a0: ffc4 3f41 8ec2 92c0 0d77 f9c0 d3d4 9ac0
000003b0: a336 b3c0 042b 04c1 7821 1141 072b 3441
000003c0: c0d9 9f40 bbe6 6840 e74f 7740 44c3 00c0
000003d0: beb2 d8c0 0795 0041 82e4 11c1 b75a 21c0
000003e0: b53a aa3f 597d bac0 d342 14c1 1f1c 9140
000003f0: fd41 2ec0 b69b 03c1 11b9 a440 c447 eac0
7.4306326 -4.5802293 -3.5346856 0.12346934 1.7428651 7.850705 9.685468 -1.2647662
0.011976779 -2.088554 1.4864951 7.6286902 3.3421953 -8.61833 -1.0640064 1.7156421
-5.9022756 9.601242 -3.9317005 -7.8525696 -2.7758954 -1.5435263 -3.6878657 5.240902
1.5275459 -8.007108 1.8122374 -8.918137 -0.4290941 3.032916 -2.392695 5.9659343
1.4601201 -4.3777165 -2.660273 -4.909392 -6.9082 3.5617158 7.7421985 -5.947471
-4.5797243 -5.2312517 -8.102948 -3.7107313 9.283189 -3.0443141 6.2564754 -0.7682416
-0.23407336 6.0334463 -6.1160007 -5.5150414 -4.520945 -7.779442 8.160909 9.719044
6.4435425 -3.0099149 -8.379587 -3.6253498 3.5356445 5.201787 6.199962 -0.99007225
-3.158373 -4.567466 -1.9684088 7.1672254 2.593647 10.256359 0.6501576 -3.4047632
7.3705587 -4.0783033 1.1729344 -10.026431 -4.7727065 -2.659003 8.280233 -4.1792617
-4.500894 -8.573959 -6.2097006 -4.4137034 1.5938203 5.5219173 -0.35416612 -3.5889678
5.9027534 -2.29268 -3.1852658 0.8970638 5.818967 -5.650296 -0.37214655 -7.235244
-3.706881 6.1286435 -1.6440848 -5.573501 -2.3073738 -2.592081 5.580632 -6.315858
-4.057766 -3.8669348 -4.6705985 10.773529 -2.3408637 -6.0903115 -4.7202177 -4.6183343
0.17852904 3.7190344 -4.7081943 -4.49192 -4.107685 -1.3210636 2.3868158 4.08772
-1.7172717 -2.849025 2.0906148 -4.6510687 -4.4404125 -6.1360626 8.257787 -5.727032
-5.5575213 5.12325 -2.78181 2.4522111 0.32007834 -4.820316 -5.9380617 8.750675
-7.0710816 10.406624 -4.7944593 -4.719192 -2.668309 10.29543 0.5415239 -3.423911
-6.080422 -1.2905365 6.003083 5.80361 -8.934833 -6.6123557 -4.424138 -0.056730516
-3.9179025 5.3589516 8.716023 -3.5543218 -2.6629498 -2.6124356 2.003311 1.4088453
6.2246637 -2.5365684 -3.247591 -2.0527894 -5.208414 0.46661085 -7.8778796 -0.5329266
-4.590441 -2.6280704 2.4102979 -6.0770845 -2.732816 -0.558078 7.2759256 -2.2657917
-6.3009534 -0.34460533 5.2645817 -4.2295966 -2.21898 -6.1327868 4.456648 11.615091
-5.0916715 8.817884 7.375323 5.218483 -8.21331 -7.416932 -1.7578033 -3.6597984
-2.1514409 -1.8855983 -1.4191442 -6.2782965 -8.172117 -3.0754879 -4.2346916 5.4049563
4.53625 -1.768514 -4.1774464 12.823539 -3.3399866 7.811915 -1.3364244 -5.049989
9.966849 -3.431021 -0.22184037 -4.9306808 5.889493 10.574988 -5.5614014 -6.6623573
-3.5636718 -4.1650634 -4.519934 7.2787576 6.9529843 11.848687 -0.919393 -3.0342376
4.0450606 7.601342 -8.256461 1.2862624 -4.2386127 12.261849 -7.9664116 -5.9164653
11.985595 -4.5862494 -7.7957826 -4.8384795 -5.6004195 -8.260502 9.070671 11.260505
4.995331 3.6390827 3.8642519 -2.011918 -6.771819 8.036384 -9.118288 -2.5211618
1.3299166 -5.827801 -9.2663145 4.5346828 -2.7227776 -8.225515 5.147591 -7.3212605

gnn_node.convs.0.mlp.1.running_var f4 [256]
00000000: 774d 1642 ebb9 6c42 f488 e842 fc8f 6142
00000010: 615d 0942 828d 0c42 75f8 dd41 cb84 b241
00000020: 5425 5741 5299 cd41 8736 2c41 5417 4042
00000030: 0a52 8542 869e 8b42 d241 c042 1cc7 ad42
00000040: daba a241 d2e0 4e42 edff 9142 16a1 8342
00000050: c1f3 1943 59e0 0742 5edb bc42 8cf3 ef41
00000060: 9a21 8a41 6a34 3442 b4e8 cf41 8f46 e842
00000070: af3b 7a41 3165 df41 3af6 db42 b73c b941
00000080: bee8 0f42 cf76 1a43 c2f4 d142 aec7 f442
00000090: f539 3d43 9a46 f941 3afc 3b42 ba11 c942
000000a0: f035 0142 d82b eb41 ba89 2143 183c ba41
000000b0: 98fd ff41 e90a 0342 e10d 0e42 ae11 c941
000000c0: e7a2 c741 909d 8742 7fb0 8642 0687 d542
000000d0: f794 2d42 2d04 7342 11fc b441 6841 fc41
000000e0: 0f6d 8741 99eb e240 d858 7941 cfd2 c142
000000f0: 02f0 8741 da74 6542 922b db41 9864 a941
00000100: 42de dd42 3547 8b41 420d 1e43 ecad fe41
00000110: 0236 2642 516a cd42 af9c 8f41 6279 b541
00000120: 9be3 6f42 e4cf d541 c4fe b442 318a c942
00000130: 6e3e b541 48a0 7842 981f 0642 db57 a141
00000140: 79ae 0843 f1af 4343 d7c4 5f42 c04b 1f42
00000150: f76d 3942 c4fa 1f42 d93e 7a41 6a0d ec42
00000160: 7533 aa41 fd56 7f42 97e4 b942 093c 9a41
00000170: 55a1 e042 23c3 1842 0fda 6f42 afb2 1843
00000180: 7581 7242 2e2f 8042 dbb9 1442 eb8d 8a42
00000190: 15a7 db41 3eb9 0d43 f724 d041 a669 4142
000001a0: cb2a a942 5312 c742 067e aa42 2b40 9342
000001b0: d7c2 e241 cdd2 b641 1680 c942 cee7 b841
000001c0: 836a 0c42 aa40 bc41 5a33 c042 cdfe 9942
000001d0: de7a b841 9f12 8342 2c0e 1042 12ff 2242
000001e0: e260 7141 b5e2 a741 7eec 8241 76e0 9941
000001f0: bffb 9542 3046 cc41 ed9c fa41 b3be 6a42
00000200: 6fcc 8f42 6027 bd41 d52d 2e42 123a 8141
00000210: 7fcc 8c41 d2d9 7941 1432 4842 b96d 3d42
00000220: 7470 7442 8ad0 af42 8a6f 3d43 6385 4942
00000230: 93f9 4c41 fc4a ac42 d041 9741 6e69 f141
00000240: 16ef 3a41 8c24 a441 06e3 5342 de1c bd42
00000250: 7ea7 9642 c0a7 0b43 3b63 d942 543b 8c41
00000260: d548 d441 c78f 3141 773d b142 39e9 e642
00000270: 8abd 9a42 1f72 0541 b6a6 c041 355c ef41
00000280: 6470 8a41 2265 0742 ff59 8f42 3531 0642
00000290: ae99 9042 eb07 6541 c7fd 8c42 2e0d 4042
000002a0: 3a43 0d43 a668 dc40 2be0 2042 6ef2 0c43
000002b0: 90e8 ac41 6267 e141 18b9 bd42 57f7 c141
000002c0: de08 2542 d33c 1741 ef97 9441 f25e b342
000002d0: 9c9c 8642 a37c 2742 2bae 9841 473a 3642
000002e0: 1a52 4442 15c6 fe41 2565 bb42 9216 8942
000002f0: 2c8e 2e43 346a bd42 3c16 9a42 9a9c 0c42
00000300: f9c0 5b42 097d a642 9955 e241 b126 9642
00000310: 91a0 8d42 b66d 8a42 6ab1 4543 ab71 2e42
00000320: dc95 4b41 8b12 c041 a76d b541 89ce b842
00000330: c408 ca41 6a90 2542 011d 1f42 8d11 0a42
00000340: ecf4 7942 aac4 3542 b126 ea41 2314 6942
00000350: 3832 9a42 6377 c541 7ac1 cf42 984b 9142
00000360: 0fa0 7e42 3a2e f742 5236 1443 8a3e a441
00000370: ee96 1942 bd49 7b42 15ab c942 9192 a442
00000380: ed48 b541 3e94 1142 dc00 2342 bd1e 9241
00000390: 9e98 2c42 ea60 5c42 5b33 3643 2be6 0443
000003a0: b83a 7042 d397 cc42 5044 5942 7184 be42
000003b0: a95a 4e43 ce71 eb42 7c99 d141 30bb 3b42
000003c0: 3bb1 9541 bb0f aa41 3291 0742 5138 9a42
000003d0: 6fdd d042 7ea2 6d42 1fd8 6a42 5552 d441
000003e0: cf54 2342 5ac6 0942 55f6 bc42 1232 2642
000003f0: f18a dc41 5493 6242 cbb9 8042 4844 8e42
37.57565 59.18156 116.26749 56.39061 34.34119 35.13819 27.746317 22.31484
13.446613 25.699863 10.763312 48.02278 66.66023 69.809616 96.128555 86.888885
20.341236 51.71955 72.999855 65.81462 153.95216 33.96909 94.42845 29.99392
17.266407 45.051186 25.988625 116.13781 15.639571 27.92441 109.98091 23.154646
35.977287 154.4641 104.97804 122.39 189.2264 31.159473 46.996315 100.53462
32.302673 29.396408 161.538 23.279343 31.998825 32.760654 35.513554 25.133633
24.954542 67.80774 67.34472 106.76372 43.395473 60.754078 22.62308 31.531937
16.928251 7.0912595 15.58419 96.911736 16.992191 57.364113 27.396275 21.174118
110.9341 17.40977 158.05179 31.834923 41.552742 102.70765 17.951506 22.684269
59.97227 26.72651 90.49759 100.769905 22.655483 62.156525 33.530853 20.167898
136.68153 195.68727 55.942226 39.823975 46.357388 39.99489 15.640344 118.0262
21.275126 63.83495 92.946465 19.279314 112.3151 38.190563 59.962948 152.69798
60.626423 64.09215 37.1815 69.27718 27.456583 141.7236 26.01805 48.353172
84.58358 99.53579 85.24614 73.62533 28.345137 22.85293 100.75017 23.113186
35.104015 23.531574 96.100296 76.99766 23.059994 65.53637 36.01384 40.749092
15.086153 20.985697 16.365475 19.2346 74.99169 25.534271 31.326624 58.68623
71.899284 23.644226 43.544758 16.153355 17.599852 15.615679 50.048904 47.35715
61.109818 87.9073 189.4357 50.38026 12.810931 86.146454 18.907135 30.17648
11.683371 20.517845 52.971703 94.55638 75.32713 139.65527 108.69381 17.528969
26.535563 11.097602 88.62005 115.45551 77.37019 8.340362 24.081402 29.920023
17.304878 33.848763 71.67577 33.548054 72.300156 14.314433 70.49566 48.01287
141.2626 6.8877745 40.218914 140.94699 21.613556 28.17548 94.86151 24.245771
41.25866 9.45235 18.574186 89.68544 67.30588 41.871716 19.085043 45.55691
49.080177 31.84672 93.69755 68.54408 174.55536 94.70743 77.04343 35.15293
54.93845 83.24421 28.291796 75.07557 70.81361 69.21428 197.69302 43.611004
12.724087 24.009054 22.678541 92.40339 25.25428 41.39103 39.778324 34.51714
62.48918 45.442055 29.268892 58.269665 77.09808 24.683294 103.877884 72.647644
63.656307 123.59029 148.21219 20.530537 38.397392 62.82201 100.834145 82.28626
22.660608 36.394768 40.75084 18.265009 43.14904 55.094643 182.2006 132.8991
60.057343 102.29653 54.31671 95.258675 206.35414 117.722275 26.199944 46.9328
18.711538 21.25768 33.891792 77.10999 104.43249 59.408684 58.711056 26.540201
40.83282 34.443703 94.48112 41.548897 27.567842 56.643875 64.36288 71.13336

gnn_node.convs.0.mlp.3.weight f4 [128, 256]
00000000: 0e09 61be 3f86 d0bd dfcd 97be 3461 69be
00000010: cde1 8cbd cc5c 9abe 24f9 afbe 0396 06be
00000020: 9f00 49be 0ab1 2d3b d5c2 80bd 6861 2bbe
00000030: bc0a 823d e7bf de3e 80a1 37be 942b 8ebe
00000040: 8480 b4bb d6ec bfbd 6a50 23be cba0 aa3c
00000050: 4ee3 b6bd 5182 bdbe 82c2 cbbe 0d26 34be
00000060: 88fd f1bd fd01 55bf 4214 bcbc 8c06 1b3e
00000070: 269a cfbe e782 e5bd b1f2 61be 4ce0 5fbe
00000080: 2445 88be eaec 99be a724 5bbe f90f fcbb
00000090: 0ca9 1fbe ff1f 64be 9a9f 8cbd b245 05be
000000a0: 1410 1e3e a8a7 fdbd b5ec 1bbe f657 f93d
000000b0: 10e1 83be 4dc9 693e d9f4 bebd c790 0fbe
000000c0: 61b7 25be edec a3bd afb6 9cbe ce8c 65be
000000d0: c747 76be 81e1 193f 66a8 74bd 3d77 70be
000000e0: dd8c afbd 0127 543d 6ba7 2dbe 0376 26be
000000f0: 72fc a3bd a860 93bd fcd7 9fbe 818f 7dbd
00000100: 1ad5 07bd 4a84 4a3d f982 0f3b 3634 afbc
00000110: 59fe 22be 5527 a7bd d836 07be d1b1 bf3d
00000120: fbeb f2bd ff4b a4bc 309a 01be 43d1 4c3d
00000130: bd7c dc3c aebd 7abd 72b0 68be 4df6 a6bc
00000140: cda6 85bd b8c8 4fbe 50a9 543e 3789 833d
00000150: ca9b a5be 4729 2bbe c9c0 9bbd 41c9 01be
00000160: 4501 48be 1261 00bd 40d2 64bd 59cf bcbe
00000170: f10e 23bd f59e b8bc ff96 8bbe 06fb e7bd
00000180: a01a c0bd cf61 72be 7d76 10be 4e68 9ebe
00000190: ffc3 d9bd 9449 b93d 25b8 9abe d93c a43d
000001a0: d725 4fbe 191c d3bc 4e17 26be 7d72 1dbe
000001b0: 47df 763e 288d 16be 2bc3 eebd c84b a03c
000001c0: e51c 0ebe e11b 8fbe 5ecc 1dbe db70 06be
000001d0: b535 3c3e 5017 94bd 1eb5 e3bd ca73 0dbd
000001e0: 5818 d5bc 1fd4 f2be 9ba2 81be 677b bd3a
000001f0: d159 cdbd 65ba 113e f332 2dbe 4afd aabd
00000200: 5753 d9bd 4b48 97bd 9b73 0bbe f8fd 11be
00000210: e5fa 00bf 968d 7cbd 7c41 713d ed50 cdbd
00000220: e5fc 543e 1004 edbd 5c22 c1bd be27 de3d
00000230: 7123 b53d 9a78 a2bd a9b1 e4bd 831c 06bf
00000240: 7b15 abbc 1f5c 34be 7dcb 17be 66d0 06be
00000250: 9757 f53e dade 28be 332e 0abe 95de 12be
00000260: 3d93 a9bc 1e1a c2be 3250 d5bd ce2e 4a3e
00000270: 6e93 71be a65d 79bc 0d77 15be c299 9ebd
00000280: 6530 b2bd 297f d1bd b43f 7ebd 696c 28bd
00000290: e6b5 93bd 771c fbb8 fd87 9e3e de4c 9ebe
000002a0: b85e 09bd 890e a7bd 8ce0 2cbd 7755 a6be
000002b0: 904d a43d a714 d13d 676b 6abd 1875 023e
000002c0: 97c7 d03b 049c 08bd 05c7 773c 30f4 09be
000002d0: ef64 a7be 7221 41bc 618b eebe 16a3 3dbe
000002e0: cb3b f9bd 6e5b 53be 9935 c7be 6dc1 edbb
000002f0: 0a5c 35bd b06b 95bd ab9f f8bd 4a4e 2abd
00000300: 2b57 7abe c37a 59be 9321 d0bb 8b9f 3fbe
00000310: 9e38 ea3e c239 94be 0afe 84bd 651b f0bd
00000320: bc7a 88be e89a b7bd 3a6e 35be 6d41 5cbd
00000330: 6cb0 30be 3c21 15bd 1c8b 7a3d a68b 80be
00000340: cdb1 5ebe 48ce 37be 441e f7bd abb2 afbd
00000350: 0675 1bbd 9a1d 39be a69e 3bbd 4e66 0a3d
00000360: 138f 90be 3045 babe 61b5 24be 7d15 32be
00000370: 82ef 64be 7196 f6bd 4821 50be 8864 afbe
00000380: 2c9f 09bf 90b5 81be 279b 633e 3bfd d8bd
00000390: 44e5 a4be 7e3f 79bd 8766 62be 127b 23be
000003a0: e462 2fbe d827 033b 6238 ba3d 645e 91bc
000003b0: 3120 acbc 7219 17be a8e7 96be 1a78 b6be
000003c0: 3b64 d0bc 9e05 81be 57b7 39be 2694 d4be
000003d0: b556 8cbe 4af0 38be 7a2c 063f b07d 393e
000003e0: 57f6 4ebe 7c37 1f3e c5fb ab3e 456d c0be
000003f0: cc69 913e c616 023f 3084 17bd 5271 98be
-0.2197611 -0.101818554 -0.29649255 -0.22790986 -0.068790056 -0.30148923 -0.34369767 -0.13143162
-0.19629143 0.0026503229 -0.06287161 -0.16736376 0.06349704 0.43505785 -0.17932701 -0.27767622
-0.0055084843 -0.09371345 -0.15948644 0.020828625 -0.08930074 -0.37013486 -0.39796835 -0.1759264
-0.118159354 -0.8320616 -0.022958878 0.15139216 -0.40547293 -0.11206608 -0.22065236 -0.21862906
-0.2661525 -0.30063564 -0.214007 -0.007692334 -0.1559183 -0.2227783 -0.06866379 -0.13014868
0.15435821 -0.123854935 -0.15227015 0.1217498 -0.25757647 0.22830696 -0.09324045 -0.14020072
-0.16183235 -0.080041744 -0.30608127 -0.22416994 -0.24050818 0.60109717 -0.05973091 -0.23482986
-0.085717894 0.05179501 -0.16958396 -0.16255955 -0.080071345 -0.0719617 -0.3121947 -0.061904434
-0.033162214 0.049442567 0.0021898134 -0.0213872 -0.15917338 -0.08161799 -0.13204515 0.09360088
-0.11861416 -0.020055769 -0.12656474 0.050004255 0.026914949 -0.06121605 -0.22723559 -0.020381117
-0.06525955 -0.20291412 0.20767713 0.06422656 -0.3234542 -0.16714965 -0.0760513 -0.12674429
-0.19531734 -0.031342573 -0.055864573 -0.36876944 -0.03980917 -0.022536734 -0.27263638 -0.11327176
-0.09380078 -0.23670124 -0.141077 -0.30938953 -0.106330864 0.09047237 -0.30218616 0.08019418
-0.20229279 -0.025770234 -0.16219828 -0.15375705 0.24108611 -0.14702284 -0.11658319 0.019567385
-0.1387821 -0.27950957 -0.15409991 -0.13128988 0.18379863 -0.07231009 -0.1111853 -0.034534253
-0.026012585 -0.4742746 -0.2531937 0.0014456332 -0.10026897 0.1423126 -0.16913967 -0.08349092
-0.10611599 -0.07386836 -0.13618319 -0.14257038 -0.50382835 -0.061658464 0.05890034 -0.10025201
0.20799597 -0.115730405 -0.09430382 0.10847424 0.088446505 -0.07933159 -0.111666985 -0.52387255
-0.020884266 -0.17613266 -0.14823718 -0.13165435 0.47918388 -0.16491261 -0.13494186 -0.14342721
-0.020700091 -0.3791055 -0.10415687 0.19744417 -0.23591396 -0.015220081 -0.14596196 -0.07744171
-0.08700637 -0.10229332 -0.06207247 -0.041119013 -0.07212429 -0.00011973915 0.30963126 -0.3091802
-0.033537596 -0.08157069 -0.042206332 -0.3248708 0.080226064 0.10209017 -0.057231333 0.1273998
0.006371449 -0.033351913 0.015123134 -0.13472056 -0.32694194 -0.011787759 -0.46590713 -0.18519244
-0.12169608 -0.20640346 -0.3890808 -0.007255724 -0.04427723 -0.072959304 -0.12139829 -0.04157857
-0.24447314 -0.21238236 -0.0063516586 -0.18713205 0.4574632 -0.28950316 -0.064937666 -0.11723975
-0.2665614 -0.08965093 -0.1771783 -0.053773332 -0.172548 -0.036408648 0.06116782 -0.25106543
-0.21747513 -0.17949784 -0.120663196 -0.08579 -0.0379534 -0.18077698 -0.045805596 0.03378897
-0.28234157 -0.3638091 -0.16084816 -0.1739101 -0.2235699 -0.12040413 -0.20325196 -0.34256387
-0.537585 -0.25333834 0.22227155 -0.10595175 -0.32206166 -0.060851566 -0.22109424 -0.15964916
-0.17127568 0.0020012762 0.090927854 -0.017745204 -0.021011444 -0.147558 -0.29473615 -0.35638505
-0.025438419 -0.25199598 -0.18136345 -0.41519278 -0.27409902 -0.18060413 0.52411616 0.18114352
-0.20211159 0.1554851 0.33590522 -0.37583366 0.2840103 0.50816 -0.0369913 -0.29773957
