checkpoints/C_epoch_40.pth (torch, 843938 bytes, 48 tensors)

gnn_node.node_encoder.weight f4 [1, 128]
000000 10 c4 37 3f 88 a2 8b bf 5e c2 b9 bd 73 90 3d 3e
       0.7178354 -1.0908976 -0.09070276 0.18512134
000010 bd 41 81 bc f9 3e e3 bd f5 57 c5 3d f0 1f da be
       -0.015778417 -0.110959955 0.09635917 -0.4260249
000020 c3 c5 3d 3f ce ca 52 be 35 2a a2 be 8b fb 0b 3f
       0.74129885 -0.20585176 -0.31672826 0.546807
000030 28 b7 85 bf 02 3d df 3d 23 a7 22 3f 4c 53 40 bd
       -1.044652 0.10900308 0.6353628 -0.046954438
000040 2d a0 a4 bf 12 e4 63 bf c0 74 71 3e c3 e8 45 bf
       -1.2861382 -0.8901988 0.23579693 -0.7730829
000050 18 09 a4 bf a4 fc 45 3e fd 54 02 3e 9e fa ae be
       -1.2815275 0.19334656 0.12727733 -0.3417558
000060 01 0a 10 be 65 ee bd bf c1 67 63 be c3 99 25 bf
       -0.14066316 -1.4838377 -0.22207548 -0.64687747
000070 33 8a 3e 3f 2a 61 51 3b 65 cf 84 3e 70 2d 0d c0
       0.74429625 0.0031948783 0.2593948 -2.2058983
000080 b1 ca b9 bf 09 5d 78 3e 12 c9 f6 be 9e 00 2c 3f
       -1.4514982 0.2425424 -0.4820028 0.6718844
000090 c9 4f 03 c0 7d 76 7e be 9d 31 39 3f 32 78 6c bd
       -2.0517447 -0.24849887 0.7234133 -0.057731815
0000a0 20 e7 9b bf 96 ff 9a be a2 14 6d bf a9 92 f6 bf
       -1.2179909 -0.30273122 -0.9260961 -1.9263507
0000b0 67 33 64 be d6 92 ca bd a5 67 8b be 82 0e 6b bf
       -0.22285233 -0.09891288 -0.27227512 -0.9181901
0000c0 0d 81 01 bf 82 26 c2 bc 29 d4 96 bf 9b 83 a4 bf
       -0.5058754 -0.023700003 -1.1783496 -1.2852663
0000d0 b7 33 f1 be 89 fd 0e 3f b2 38 35 bf f0 03 e0 3e
       -0.47109768 0.55855614 -0.70789635 0.43753004
0000e0 79 40 b5 bf 90 02 56 3f 09 46 b2 bc 23 a0 05 3f
       -1.41603 0.8359766 -0.021761911 0.52197474
0000f0 d8 e8 8b bd 8c 9d 53 bf e4 c1 e9 be 86 61 16 bf
       -0.06831521 -0.8266227 -0.4565574 -0.5874256
000100 03 93 10 c0 4e 33 cd bf a7 07 64 bf dc a7 42 3e
       -2.258973 -1.6031282 -0.89074177 0.19009346
000110 db 41 be 3e 07 a8 0f 3d 05 18 68 be 47 66 51 bf
       0.3715962 0.035072353 -0.22665413 -0.8179669
000120 4b 1a a4 3d dd 60 f8 bf 57 c3 1c bf c0 02 be 3e
       0.080128275 -1.940456 -0.61235565 0.37111473
000130 cc 85 c1 bf 81 da 84 be d9 41 d6 be 0f 09 a6 bf
       -1.5118957 -0.25947955 -0.41847113 -1.2971514
000140 8d e2 98 bf fa b0 1e be ba 2c b8 bd 8e 1a 3e bf
       -1.1944138 -0.15497199 -0.08992906 -0.7425927
000150 43 b6 10 bf 22 01 94 3e e3 9a ce 3e ba ec 59 bf
       -0.5652811 0.28907114 0.40352544 -0.8512684
000160 7f 97 89 3f d4 67 91 be d0 e5 79 3f 79 23 27 bf
       1.0749358 -0.28399527 0.9761629 -0.652885
000170 d9 70 8a 3f f5 39 b2 bf 5e 44 c6 bc f7 a0 44 3e
       1.0815688 -1.3923937 -0.024202522 0.19202028
000180 f7 6d 63 bd 64 8f a1 3e b0 7d 30 bf 48 c3 30 3f
       -0.055524793 0.3155471 -0.68941784 0.69047976
000190 69 bc b2 be b9 94 03 bf ab ff b7 3f cc 99 f9 3e
       -0.3490937 -0.5139881 1.4374899 0.4875015
0001a0 cb 3d 44 3e f3 cc 49 3f 8a a5 2e 3f 76 cb b7 bf
       0.19164197 0.7882835 0.6822134 -1.4358966
0001b0 3c 9c ef 3e 91 08 a3 bf 13 a9 2e 3e ed fc 80 be
       0.46798885 -1.2736989 0.17056684 -0.25192967
0001c0 7a df 1a be e3 cb 2a bf 3d de 5b bf 92 41 49 bf
       -0.15124312 -0.66717356 -0.85885984 -0.7861568
0001d0 f6 0a 03 bf 75 59 6e bf 49 00 38 bf ca 66 ec bf
       -0.511886 -0.9310525 -0.71875435 -1.8468869
0001e0 25 dc 88 bf 92 17 0e 3e 51 ec bf bd 30 9a fa 3d
       -1.0692183 0.13876179 -0.09371246 0.1223644
0001f0 81 a1 8d 3e 98 25 25 3c 36 53 17 3e be db 0f bf
       0.2766228 0.010079764 0.14777836 -0.56194675

gnn_node.virtualnode_embedding.weight f4 [1, 128]
000000 e5 b6 bb be 7d 00 f5 be 3b 7e c6 bc 74 fa ea bd
       -0.36662975 -0.47851935 -0.024230113 -0.114735514
000010 c3 03 da be 54 9e 0a be df 99 d0 be 2d 7e 05 be
       -0.42580995 -0.1353696 -0.40742394 -0.13036413
000020 f9 37 54 be fa f0 4f bd e6 6d 10 3e d7 12 73 be
       -0.20724477 -0.050766923 0.14104423 -0.23737656
000030 ad eb 46 be 9b 5b e2 be a4 a1 3b bf cf e7 80 bb
       -0.1942584 -0.44210514 -0.7329352 -0.0039338837
000040 72 2f 3f be c3 99 75 be 87 76 ae 3d 17 41 02 3b
       -0.18670443 -0.23984437 0.08518701 0.0019875222
000050 b5 1d ec be 69 52 17 bf b3 1b 1a bf 00 05 cb be
       -0.46116415 -0.5911012 -0.60198516 -0.39652252
000060 e4 89 eb be a0 ee 0b 3e 2b 8a 16 bf 4f 7b 7f be
       -0.4600364 0.13665247 -0.5880458 -0.24949382
000070 94 fd 1f bf 41 65 3e be ba 3c ef bd aa 0e ea be
       -0.62496305 -0.18593313 -0.116815045 -0.45714313
000080 2a 43 96 be 03 a0 8e bc a0 d4 48 bd 37 79 cb be
       -0.29348117 -0.017410284 -0.0490309 -0.39740917
000090 40 fe 64 3d 39 35 a7 be 30 dd 04 bf 3f da d4 be
       0.055906534 -0.32657793 -0.51900005 -0.4157276
0000a0 a2 ba a9 be 48 66 9d be 12 e7 39 be fb 31 9d be
       -0.33150202 -0.30742097 -0.18154553 -0.30702195
0000b0 c5 7f 47 be f6 3a c7 be d8 1e 09 3c 5e 8a 6f be
       -0.19482334 -0.3891217 0.00836917 -0.23392627
0000c0 4a 35 2a be f2 af 3d 3e 42 dc 5b be c8 ef 0f bc
       -0.1662189 0.18524149 -0.2147074 -0.008785196
0000d0 3b be aa be fd 2a b0 be 5a 6a 79 be 5a b2 26 bf
       -0.3334826 -0.34407797 -0.24356976 -0.6511589
0000e0 40 d6 83 be d9 53 30 bf 15 d6 d8 be 49 b7 53 be
       -0.25749397 -0.6887794 -0.42350832 -0.20675386
0000f0 59 7e 83 be 4a cf 86 bd 7e 5e db bd 8e 1f 79 be
       -0.25682333 -0.06582506 -0.10711382 -0.24328443
000100 49 fd 8e be 38 a6 f4 3e 82 d3 eb bd 05 b8 89 3d
       -0.27927616 0.47783065 -0.11514951 0.06724552
000110 ba 97 96 be cc 10 f7 be 63 bf cd be 4a 5e 41 be
       -0.29412633 -0.48255002 -0.4018508 -0.18883625
000120 71 e4 a7 3c 67 a9 5d bf a3 88 78 be f3 58 d5 be
       0.020494672 -0.8658661 -0.24270873 -0.41669425
000130 c8 c1 b8 bd cb 9d 4c bc 7e 08 bf be 0b ed a4 be
       -0.09021336 -0.012488793 -0.37311167 -0.322121
000140 13 40 06 bf d2 cb 93 be db 68 27 bd 32 cf b3 bd
       -0.5244152 -0.2886644 -0.040871482 -0.08779754
000150 01 56 84 be 2c 58 15 be 74 84 81 be bb 44 c2 bd
       -0.25846866 -0.14584416 -0.25296366 -0.094857655
000160 08 1a 3c bf 3f e0 c9 be e3 70 1e bf e5 0f 2f be
       -0.7347722 -0.394289 -0.61891 -0.17095907
000170 7c c2 1c bf b3 f8 63 3d 96 d4 51 bd 97 17 b2 3d
       -0.6123426 0.0556571 -0.05122813 0.08695906
000180 8c b6 34 be 9a 0c a6 be 4d 26 9b 3d 51 3e 9e be
       -0.17647761 -0.3243149 0.07575665 -0.3090692
000190 51 00 91 be ac 4d 97 be 8b 0e 4a bf 13 2e d8 be
       -0.28320554 -0.29551446 -0.7892844 -0.42222652
0001a0 ce 74 cc be 3e 83 6d be 76 5a fb be 75 7b b6 bd
       -0.39932865 -0.23194596 -0.49092454 -0.08910266
0001b0 da a8 1e be 39 07 1a be 1f cb 06 bc a5 ec 04 bd
       -0.154941 -0.15041818 -0.008227139 -0.032452244
0001c0 b4 f9 44 be 16 94 60 bd 82 9b b4 bd b5 1f 4c be
       -0.19235879 -0.054828726 -0.08818723 -0.1993397
0001d0 22 26 0f 3d 78 36 39 3d ad fa 06 be 37 f3 8e bd
       0.034948476 0.04521796 -0.13181563 -0.06979983
0001e0 54 f3 9c be 6b cb 5b be b6 6d b9 bd cc bc 0f be
       -0.30654395 -0.21464317 -0.09054129 -0.14036864
0001f0 98 f3 d6 be 7a df 7b be de cc f7 bc 40 de dc be
       -0.41982722 -0.24596968 -0.030249055 -0.43138313

gnn_node.convs.0.mlp.0.weight f4 [256, 128]
000000 62 94 98 be 6f d3 e2 3d 0d ee 9b bd e1 03 48 3e
       -0.29800707 0.11075484 -0.07613764 0.1953273
000010 df ea cf bc 59 ca 83 3d fc f1 81 be 1c b6 b2 3b
       -0.02538055 0.06435079 -0.25379932 0.005453838
000020 d0 53 a1 3d d3 58 db bd bd 6c f6 3c d4 c8 13 3d
       0.07877314 -0.10710301 0.030081147 0.036080196
000030 87 fa aa 3d b7 00 f9 be 1d 63 d0 bd 7a 5d c6 3d
       0.083485655 -0.48633358 -0.10175154 0.09685798
000040 40 d1 65 3c df c6 81 3d eb 99 cd 3d 3d 11 91 3e
       0.01402694 0.0633676 0.10039123 0.28333464
000050 60 a4 34 bd aa b3 01 bd ea f0 79 bd 10 9c 82 3d
       -0.044102073 -0.03166548 -0.06102077 0.06377423
000060 46 ff 91 be 4d 29 57 3d ba 80 9d bd 2e f0 9f bd
       -0.2851507 0.052529622 -0.07690568 -0.078094825
000070 b5 27 b9 3c 62 49 28 3e 55 a9 85 be ae 2f 92 3d
       0.022601942 0.16434243 -0.26105753 0.071380004
000080 b4 54 b6 bd 16 b5 a8 3e 24 21 2d be c0 c3 1b 3e
       -0.089028746 0.32950658 -0.16907173 0.15211391
000090 12 b1 66 3c 1a 34 3f bd 92 c8 1d bd 6c 90 b9 3d
       0.014080303 -0.046680547 -0.038521357 0.090607494
0000a0 d6 69 16 3c db 64 81 bd d1 03 53 bd ba 74 bb bc
       0.009180507 -0.06318065 -0.05151731 -0.022882808
0000b0 7c 79 a2 bd c6 7e 63 bc 96 af 3f 3e a5 b3 a8 ba
       -0.079333276 -0.013885206 0.18719324 -0.0012870921
0000c0 db a2 86 3c 58 db dd bd c8 a3 11 bd ca c3 61 bd
       0.016435077 -0.10832852 -0.035556585 -0.05511836
0000d0 27 14 91 be 24 24 64 3d d3 af 25 bf f8 6d c1 bb
       -0.28335688 0.05569853 -0.6472141 -0.005903002
0000e0 4e f4 e0 bb eb ed b9 bd 29 b9 0e 3e 15 2f 57 3c
       -0.006865061 -0.090785824 0.1393782 0.013133784
0000f0 3c f7 36 3d a3 5d 30 bf 96 38 cb be 6d 41 65 bf
       0.044669375 -0.6889288 -0.3969161 -0.89552957
000100 38 00 06 3d d3 81 a1 3c 71 5b 86 bd bc fc bd be
       0.032715052 0.019715225 -0.0656041 -0.37106884
000110 43 50 64 bd 1e b3 a8 3d 66 f5 5c 3e 1e cd cd 3b
       -0.055740606 0.08237289 0.21577987 0.0062805554
000120 5f 29 2e be 69 ff 09 3d 4e ec 94 bc f0 1c 82 be
       -0.1700797 0.033690844 -0.018179085 -0.25412703
000130 88 56 45 bd 2a cd 9b be 29 df 0a 3f 42 fb 2b 3d
       -0.048178226 -0.30429965 0.54246765 0.041987665
000140 3d 58 21 3d 27 44 e8 bb 72 49 07 3f 59 31 97 bc
       0.03939079 -0.0070882025 0.52846444 -0.018456148
000150 df ac 74 3d b3 de 06 bc a3 55 30 bc d5 1a 17 3e
       0.059735175 -0.008231807 -0.010762605 0.1475633
000160 e1 2c 52 3d 23 66 01 3d cd 10 7d bc 76 56 d9 be
       0.05131233 0.031591546 -0.0154459 -0.42448777
000170 74 1d 0a 3d 71 7c 84 3b 8f 3f bf 3f 4e 46 ff be
       0.033719495 0.004043155 1.4941272 -0.49858326
000180 b2 a4 9f 3e c3 1a ae 3e 5c f3 88 3c ef 02 dc 3d
       0.3118034 0.34004793 0.016717605 0.10742747
000190 b3 a9 11 bf f4 a2 da bc 78 1e ec bd c5 96 4c be
       -0.56899565 -0.02668903 -0.11529249 -0.19979389
0001a0 85 08 ed 3d 63 d9 14 be a1 81 b8 bd ad 28 5a bd
       0.115738906 -0.14536051 -0.090091 -0.053261448
0001b0 50 a8 f4 bd f9 54 85 bd 1b 68 b3 be 0e 73 94 be
       -0.119461656 -0.06510348 -0.35040364 -0.2899403
0001c0 c4 4b e2 bd 3a 18 39 bd 72 2c b6 bd 69 33 2e bf
       -0.110496074 -0.04518912 -0.08895196 -0.68047196
0001d0 f9 7c 14 bc fb 5b 90 bd e0 60 5c bd 5f 76 90 3c
       -0.009062999 -0.07048794 -0.053803325 0.017634569
0001e0 82 30 53 bd 27 90 93 3e 38 c7 88 3d 42 c5 97 3e
       -0.051559933 0.28820917 0.06678623 0.29642683
0001f0 a3 02 31 3f a0 90 84 3c ce d7 08 bf 54 63 2e bf
       0.6914465 0.016182244 -0.5345429 -0.6812031
000200 29 b6 26 bd 53 a7 cc 3d d6 49 a4 ba 85 fa 59 be
       -0.040701065 0.09992852 -0.0012534212 -0.21286972
000210 6c c1 f5 3b 40 8f d5 3d a2 bc 83 be 42 ea dc be
       0.0074998643 0.104277134 -0.25729853 -0.43147475
000220 9c 18 e6 bd 6f e2 45 3d de a0 68 3c fa 3d a3 3e
       -0.112351626 0.048311647 0.01419851 0.31883222
000230 a1 95 c2 3c 20 da 96 3c 1a 32 cf bc d9 ef 86 3e
       0.02375299 0.018414557 -0.025292445 0.26354864
000240 fa e4 3c 3d ef b5 22 3d 70 0f de 3d 97 c6 a4 be
       0.046116807 0.039724287 0.10842788 -0.32182762
000250 85 83 43 bd 05 36 d5 3c 84 7a 14 be a0 3a 57 3c
       -0.04773285 0.026026735 -0.14499861 0.013136536
000260 5e fc 14 be e0 6d 5b bd a2 b7 4e be fa cb 8a 3d
       -0.14549395 -0.05357158 -0.20187238 0.06777187
000270 22 93 71 3e 10 ea de be 5a e2 f8 bd d8 b2 d1 3c
       0.23591283 -0.4353795 -0.12152548 0.025597975
000280 c3 be 86 3d 83 2b 71 3d 26 3d 51 bf 89 88 e6 39
       0.06579354 0.058879387 -0.8173393 0.00043970745
000290 91 c8 57 3c 26 e4 46 bd 82 31 34 bd 85 84 5b 3d
       0.013170377 -0.048557423 -0.043992527 0.053593177
0002a0 62 38 ae bc 3c e2 bc bd c1 ee ac 3c e8 ff 33 bd
       -0.02126712 -0.09222838 0.02110994 -0.043945223
0002b0 c7 f5 ac be 29 78 8b 3d f4 96 4d bd 3a 37 6a 3d
       -0.33781263 0.06810028 -0.05019279 0.057181574
0002c0 af 32 71 3b e9 41 44 3d e3 71 44 bd f0 85 73 3d
       0.0036803891 0.04791442 -0.047960173 0.059453905
0002d0 c4 ae 38 be 1a ec b4 3d 15 39 3c 3e f1 f6 85 bd
       -0.18035418 0.08834095 0.1838115 -0.06541241
0002e0 b7 ce 84 bd 21 52 57 bb c0 5d 0a bd 88 f6 ca 3d
       -0.0648474 -0.003285535 -0.033780813 0.09910303
0002f0 53 5a 55 bd b6 68 5c 3e cb 53 c4 3d 0d 61 0b 3f
       -0.052088093 0.21524319 0.09586295 0.5444496
000300 c1 e4 11 bc e5 32 d8 bc b1 18 e1 3d 77 24 16 bf
       -0.008904637 -0.026391456 0.10991038 -0.5864939
000310 9d 03 9b 3d 7d a0 82 be f0 e9 94 bf 61 de 0d bd
       0.075690486 -0.25513068 -1.1633892 -0.034635905
000320 3e 53 90 bf f0 a9 80 bc a5 78 37 bc e2 d4 42 3e
       -1.1275403 -0.015706033 -0.0111981975 0.19026521
000330 8f 3b 06 3d f9 19 70 bd a1 43 27 3e 64 58 1e bc
       0.032771643 -0.05861852 0.16334392 -0.009664629
000340 8a bb 29 3d 71 d3 e9 3d f9 20 81 bf 54 be 8b 3d
       0.041438617 0.114172824 -1.0088187 0.068234116
000350 83 15 25 bd 1d 3c c1 bd da e2 24 3c fb e6 67 3e
       -0.04030372 -0.09435294 0.010063851 0.22646706
000360 73 ac 92 bc f9 1b 0f be c5 d3 a7 3d e7 a4 98 bd
       -0.017904496 -0.13975514 0.08194689 -0.074533276
000370 5c ed bd bd ed 42 b5 bd e4 cc 68 bf 52 ba 1c 3e
       -0.09273788 -0.08850656 -0.9093764 0.1530545
000380 90 ed cd bc 8e b3 64 bf a7 f4 9c bb b9 99 1e bf
       -0.025137693 -0.8933648 -0.004789907 -0.6195331
000390 9b 1d 0a c0 27 8b c4 3d 54 c9 47 3d a7 95 87 3e
       -2.158057 0.09596854 0.048775986 0.26481363
0003a0 ac 0a c4 bc 4f 66 c4 bc 9b 66 48 be a9 6b e0 3c
       -0.02393087 -0.023974566 -0.19570391 0.027395086
0003b0 35 c4 26 bf 2b d6 15 3d 1f d5 b4 3d 86 93 c6 bd
       -0.6514314 0.0365812 0.08829712 -0.096961066
0003c0 16 f5 58 bd 34 8e 8d bc b5 b7 a0 bd 78 15 49 bf
       -0.052968107 -0.017279722 -0.07847539 -0.78548384
0003d0 4b 9b 6a be f8 3b bb be e9 1f 69 3d ed d9 8f bd
       -0.22910802 -0.3656919 0.056915198 -0.07023988
0003e0 f2 53 25 3d ed 00 25 bd bf ff 28 be 3c e3 4e bf
       0.04036326 -0.040284086 -0.1650381 -0.8081548
0003f0 af 12 90 bf 5c 1e 0e 3e 46 f8 c8 3e 28 eb ea 3e
       -1.1255702 0.13878769 0.39251918 0.45882535

gnn_node.convs.0.mlp.0.bias f4 [256]
000000 5a de 13 3d 08 3a 7d 3d 55 ab b4 3c ae 69 a3 3c
       0.036100723 0.06182292 0.022054354 0.019947853
000010 dd 7f 35 3c 5b 6e ac 3d 10 7e 5f bd 6a 47 04 bd
       0.011077848 0.08419486 -0.054563582 -0.03229467
000020 a2 bf 5c bb b3 44 4a bc f6 2c 1b 3d 06 d6 8e bd
       -0.0033683558 -0.012345481 0.037884675 -0.069744155
000030 6d c1 83 bd f3 12 7d bd 9a b6 55 bd 5b bb 6e bc
       -0.064333774 -0.06178565 -0.052176096 -0.014571036
000040 91 8b 4a bc f1 f7 77 bd ae 54 9f 3d 64 cb 98 3d
       -0.012362377 -0.06053919 0.07779823 0.07460669
000050 83 ca 0b bd 2e ea 72 bd a2 cf 38 3c 93 dd 20 3d
       -0.034128677 -0.059305362 0.011279972 0.03927381
000060 27 eb a8 3c 3d 91 12 bd a9 a9 09 3d 18 65 d6 3c
       0.020619942 -0.03578304 0.033609066 0.026171252
000070 ac b6 23 bc 80 a7 a7 bd 6f 8d af 3d b9 c9 b9 3b
       -0.009992283 -0.08186245 0.08571898 0.005669799
000080 b3 38 2a 3d 84 4f 4f bc 3e bd c6 3c f3 62 2c bd
       0.04155798 -0.012653235 0.02426016 -0.042086553
000090 3a 42 af bc 65 17 12 3d 2f e4 6d bc 24 0e 2e bd
       -0.021393884 0.035666842 -0.014519735 -0.042493954
0000a0 df 73 3d bd ac e0 b0 bd ea df 91 bd ff 01 89 3d
       -0.04625308 -0.08636603 -0.07122786 0.06689834
0000b0 9a 4f bf 3d 90 dc 41 3c 27 95 b9 bc 69 35 a4 bd
       0.09341355 0.011832371 -0.02265413 -0.08018
0000c0 3a d6 03 3d e3 a0 81 ba 60 54 9d bd 8d 2b 8c bd
       0.032186724 -0.0009889867 -0.07682109 -0.06844244
0000d0 c7 7c 8c 3c 39 31 80 3d f5 55 6b bd 6d d4 03 bd
       0.017149342 0.062593885 -0.057455022 -0.032185007
0000e0 23 00 69 3d 2e 6e 07 3d a2 1d 9d bb 73 fc 21 3d
       0.056884896 0.03306406 -0.0047947923 0.039547395
0000f0 52 29 93 3c 78 0f c7 bb 80 81 2f bd 60 69 d7 bb
       0.017964039 -0.006074842 -0.04284811 -0.006573841
000100 93 e3 fd 3b c5 72 4b bd ea 31 a4 3b 90 97 90 3c
       0.007748076 -0.04967 0.005010833 0.017650396
000110 97 c3 cd 3b 3f cc 11 3d c2 64 da 3c 8d 14 89 3d
       0.0062794196 0.035595175 0.026659373 0.06693373
000120 6d 30 d7 bb 56 31 ed 3c aa cd 4f bc b6 9b ae bd
       -0.006567052 0.02895419 -0.0126833115 -0.08525793
000130 53 64 e7 bc ef 38 55 bd 19 4d 6f bd e1 e5 aa 3c
       -0.02824608 -0.05205625 -0.058423135 0.020861568
000140 66 ec 86 3d 2d 5e 4c bd f4 5f 86 bd e6 1a cf bc
       0.06588058 -0.0498945 -0.0656127 -0.02528138
000150 c2 40 69 bd b0 0a 5a bd 24 01 7b 3d af 76 b7 3c
       -0.056946523 -0.05323285 0.061280385 0.02239546
000160 ab 24 b0 3c 1d fe 45 3d 2c 31 ae bc 0a 42 2a 3d
       0.02150186 0.048338044 -0.021263681 0.041566886
000170 e7 21 9c bd 63 81 a2 bd 7c 46 e3 3b 5c eb 83 3d
       -0.07623654 -0.07934835 0.0069358926 0.064413756
000180 47 a6 dc bb d3 b2 ec bc c4 03 d1 bc ab 8c 84 bd
       -0.006733689 -0.028893864 -0.02551449 -0.06472143
000190 62 b6 90 bd 9d 9d 89 3d 1a 1d 57 bd 46 53 be 3c
       -0.07066037 0.067195155 -0.052517988 0.023233067
0001a0 19 56 8a 3d 8a f8 6c bd 45 98 0e bd ca d5 96 3c
       0.06754703 -0.057854213 -0.034813184 0.01841249
0001b0 40 17 1b 3d 2b 7d 21 bd 0b b7 ed ba 02 6a 61 3d
       0.03786397 -0.03942601 -0.0018136216 0.055032738
0001c0 04 37 d9 3c 7e 04 2d 3d 48 35 03 3d bf 4c 9e bd
       0.026515491 0.042240612 0.032033235 -0.07729482
0001d0 7a 30 58 3d 76 b2 34 3d b7 11 3a bd aa 17 8a 3d
       0.052780606 0.044115506 -0.04542705 0.06742795
0001e0 71 bf c9 3c b1 c1 5f 3d 72 ce ff bc bc 6d 4b 3d
       0.02462742 0.054628078 -0.03122637 0.049665198
0001f0 14 79 ac bd e0 d5 60 bd 85 8c 0c 3d 46 a2 22 3c
       -0.08421531 -0.054891467 0.034313697 0.009926384
000200 48 6e e1 3c 05 10 2d bc 6c 64 32 3d cc dd ab bd
       0.027518407 -0.010562901 0.0435528 -0.08391914
000210 9f 3b a5 bd 2d fe 3e 3d fd 49 24 bd 83 fe 93 3d
       -0.080680124 0.04662912 -0.040109623 0.07226279
000220 05 dc 65 3c 36 0b 91 bd ed db 4f 3c 83 db 9d 3c
       0.0140295075 -0.070822164 0.012686712 0.01926971
000230 70 4b 46 bd e5 22 90 3d 4e c8 a5 bd 32 60 7e 3d
       -0.048411787 0.070379056 -0.08094846 0.062103458
000240 9c a4 32 3c 21 4f 39 3d 52 03 88 3d 60 e2 9d bc
       0.010903504 0.04524148 0.06641258 -0.019272983
000250 ba d3 31 3d 5c 0a 9e 3d 9e 82 0e 3d 47 6d 6d bb
       0.04341481 0.0771682 0.034792535 -0.0036228464
000260 f2 78 8f 3d 7e b9 16 bd dc 66 93 3c 3f 4b 86 3d
       0.0700549 -0.036797993 0.017993383 0.06557321
000270 b4 b3 61 bd 86 07 66 bd 88 bd 6b bc c6 01 37 3d
       -0.05510302 -0.05615952 -0.0143884495 0.044679426
000280 79 ec 93 3d 78 c6 de bc ca b3 66 bc 3d 85 93 3d
       0.07222838 -0.027194247 -0.014080951 0.072031476
000290 5a 9a 7a 3d 66 1b 22 3d 5c c7 6e 3d 4b 32 0f bd
       0.061182357 0.03957691 0.058295593 -0.034960072
0002a0 6b bb 56 bd 4d 9f 80 3d 19 ee 9e 3d 94 87 b0 3d
       -0.05242483 0.06280384 0.07760257 0.086196095
0002b0 7c 82 21 bd 7f 19 ae 3c dd bc 61 3d 92 52 a6 3d
       -0.03943108 0.021252392 0.055111755 0.08121218
0002c0 4e 43 9a bd 72 81 04 3d 26 04 7c 3d 88 fe 3d 3b
       -0.075323686 0.03235001 0.061527394 0.0028990824
0002d0 c0 ed 91 bd 59 7b af 3d 36 39 06 3c af 41 12 bd
       -0.07125425 0.085684486 0.008192351 -0.035707172
0002e0 2b 0f 1f bd 2a 0f db 3c bc b5 c2 3c 54 7a 19 bd
       -0.038832825 0.02674063 0.023768298 -0.037470177
0002f0 35 43 17 bc d0 7a b4 bc 9a 78 67 3d 6e 7d a4 bd
       -0.009232332 -0.022031218 0.0565115 -0.08031736
000300 bb 55 60 3d cf 6e 40 bd d4 23 10 3d 5c b3 55 bd
       0.05476926 -0.046980675 0.03519042 -0.052173004
000310 4c 2d be 3d ad 63 98 39 77 23 60 3c 09 a4 73 3d
       0.092859834 0.00029065963 0.0136803305 0.059482608
000320 df e7 6b bd cb 1b 31 bd ec c8 b1 3d 37 6f a6 3d
       -0.057594176 -0.043239396 0.08680901 0.08126681
000330 ff d3 6e bd 5f 32 5d bd d4 85 1e bd e8 10 1c bc
       -0.058307644 -0.054003116 -0.038701847 -0.009525515
000340 b5 14 c7 3c 83 21 8d bd ba 2a b0 bd 3d 65 3a bd
       0.024301866 -0.068911575 -0.086018994 -0.045506705
000350 a5 89 9b bd 8b 3d a5 bd 74 b2 3b bd 5f a4 be 3c
       -0.07594613 -0.08068379 -0.045824483 0.023271738
000360 57 9c 57 3d b2 a6 57 3d 32 04 86 bd 9e bb 07 3d
       0.05263933 0.052649207 -0.06543769 0.03313791
000370 eb 3d 94 bc 9e b8 b4 3d 2b 54 89 3d 36 03 a1 3d
       -0.018095931 0.088242754 0.06705507 0.078619406
000380 89 cf 21 bd 4d 2b 5e bd f9 77 97 bc c6 07 76 3d
       -0.03950456 -0.054240514 -0.018489825 0.060066007
000390 e4 00 17 bd 9d ea 02 bd 45 7a 05 bd 38 9e 89 bd
       -0.036866084 -0.031962026 -0.03258731 -0.06719631
0003a0 53 e8 7d bc 51 ec 85 bd e8 28 59 3d e2 7e 1e bc
       -0.015497285 -0.065392144 0.053017527 -0.009673806
0003b0 ba 20 87 bd fe 88 01 3d d6 2f 24 bd b7 91 ab bd
       -0.06598039 0.031624787 -0.040084682 -0.08377402
0003c0 7b 92 8c 3c b6 b1 fe 3c 25 3d 05 bd 6b a9 64 bd
       0.017159691 0.031090599 -0.032529015 -0.055825632
0003d0 1d c9 b4 ba 43 6c 94 bc bd d9 95 bb 62 be 8c 3d
       -0.0013792847 -0.01811803 -0.0045730756 0.0687225
0003e0 d5 ac 19 3d 03 63 8a bd 41 b6 f5 bc f9 98 03 3b
       0.03751834 -0.06757166 -0.029994132 0.0020080192
0003f0 c0 81 97 3d 2b 92 77 bc de f6 38 bd ac fa 9f 3d
       0.07397795 -0.015110533 -0.045157306 0.07811484

gnn_node.convs.0.mlp.1.weight f4 [256]
000000 c0 00 34 3f 69 73 ba 3f 16 a5 d0 3f 2f 69 2d 3f
       0.70313644 1.456647 1.630038 0.6773862
000010 35 6b 8a 3e 6d 91 91 3e 6d 31 3b 3f 45 40 42 3f
       0.27034917 0.28431264 0.7312229 0.7587932
000020 52 e4 db 3f bd 80 96 3e 00 13 12 3d 98 25 c1 3e
       1.7179053 0.29395095 0.03566265 0.37723994
000030 a6 68 31 3f ad df b4 3f 51 73 a1 3f 1c 39 9e 3f
       0.69300306 1.413076 1.2613317 1.2361178
000040 b4 59 a8 3f 03 8f 98 3e ed 41 af 3f e6 20 ac 3f
       1.3152375 0.2979661 1.3691994 1.344754
000050 66 ff ae 3f 61 ea 5d 3f fe 3b c1 3f f3 84 0d 3f
       1.3671691 0.8668576 1.5096433 0.5528099
000060 95 22 0c 3f 89 ae 22 40 c2 25 78 3f 05 74 81 3f
       0.5474027 2.5419028 0.96932614 1.0113531
000070 94 c5 94 3f 48 f4 43 3e 86 00 c0 3f 52 ec 28 3f
       1.1622796 0.19136155 1.500016 0.65985596
000080 db 8c 73 3f 60 e8 a1 3f 02 c0 b8 3f e4 b4 c2 3f
       0.95136803 1.264904 1.4433596 1.5211453
000090 50 e9 94 3f f1 a3 8a 3e 9a 08 75 3e ee 1e e2 3f
       1.1633701 0.27078202 0.23929062 1.7665689
0000a0 48 7c 89 3f 6a bb b6 3f 89 76 83 3f 04 d3 5d 3f
       1.0741053 1.4275944 1.0270549 0.8665011
0000b0 59 85 45 3f 84 b3 91 3f b5 81 ee 3d 82 6e af 3f
       0.771566 1.1382909 0.116458334 1.3705599
0000c0 cd 45 ba 3f 5a 29 6d 3f 6f 6b dc 3f 36 d0 a7 3f
       1.4552552 0.9264122 1.7220286 1.3110416
0000d0 79 0c a9 3f 10 56 db 3f 9b e7 1f 3f 79 6d 52 3f
       1.3206931 1.7135639 0.62462777 0.8219829
0000e0 07 fb 6d 3f aa 70 01 3e e7 84 85 3f 8e 79 ae 3f
       0.9296116 0.12640634 1.0431184 1.3630846
0000f0 b0 b4 32 3f c5 bf e1 3d 91 dd 6c 3f ab 86 42 3f
       0.6980696 0.11022905 0.92525584 0.75986737
000100 3e 0b a3 3f b4 c3 53 3f 8b 74 de 3f e7 88 82 3e
       1.2737806 0.82720494 1.7379316 0.25495073
000110 97 01 15 3f cb 98 a0 3e 29 8b 7e 3f ce 2d 0f 3f
       0.5820555 0.31366572 0.9943109 0.5592927
000120 b1 54 02 3f da d5 fa 3e 49 56 b3 3f ec a5 5e 3f
       0.5091048 0.4899128 1.4010707 0.86971927
000130 7d cf 7d 3f bc b0 99 3f 9e ae da 3e dc fb 7e 3f
       0.99144727 1.200706 0.42711347 0.99603057
000140 eb 06 05 3f 4c f9 b0 3f 4e ac bb 3f 79 f1 e6 3e
       0.5196368 1.3826079 1.4661958 0.45106104
000150 cf 65 ab 3f 15 25 b3 3f 49 cb 0c 3f c2 97 ac 3f
       1.3390445 1.3995692 0.5499769 1.3483813
000160 ef 9c 07 3f 34 13 39 3f 99 2c b7 3f ef 39 a1 3f
       0.52973837 0.72294927 1.4310485 1.2595805
000170 fa f3 6a 3f c7 9e f2 3e b9 c3 e8 3f 25 91 f0 3f
       0.9177853 0.47386762 1.818473 1.8794295
000180 86 6c 92 3f 55 f6 31 3e 2f 4a 51 3f b3 bf b1 3f
       1.1439369 0.17379124 0.8175382 1.3886627
000190 55 7e 64 3f 3c 72 89 3f 68 33 7e 3f 11 2d 88 3f
       0.8925527 1.0737987 0.9929719 1.0638753
0001a0 c4 4d a9 3f cd 15 69 3f c6 1f a6 3f c7 ab 98 3e
       1.3226857 0.9104889 1.2978446 0.29818556
0001b0 bf 07 93 3f 70 c7 37 3f a3 78 94 3f 39 6f 3c 3f
       1.1486739 0.7178869 1.1599315 0.7360721
0001c0 05 5c 5a 3f 87 12 8a 3f 8a b2 c6 3f 0d 3a 9a 3f
       0.8529666 1.0786904 1.5523236 1.2048966
0001d0 56 77 5d 3f 47 b6 ae 3e 14 77 a1 3e f8 11 27 3f
       0.8651022 0.34123442 0.31536162 0.65261793
0001e0 c0 6a be 3e 92 fd fc 3f 5e a9 8a 3f 59 81 64 3f
       0.3719082 1.9764884 1.0832937 0.8925987
0001f0 b6 f4 ba 3f ba 86 18 3f b4 62 ae 3e 2f eb 1e 3f
       1.460593 0.59580576 0.3405968 0.6207761
000200 d3 52 ab 3f 1e a6 92 3e fa d7 94 3f b2 3f 7c 3e
       1.3384651 0.28642362 1.1628411 0.24633673
000210 11 47 aa 3f 32 0b 8e 3f 7a 8d 2d 3f 74 e3 b4 3e
       1.3302938 1.1097167 0.67794 0.35329783
000220 4a 62 9e 3f 73 fe cd 3d c4 c9 b7 3f 2b b9 53 3f
       1.2373745 0.10058298 1.4358449 0.8270442
000230 a4 6e f3 3e f9 c6 87 3e d1 d9 fd 3e 68 a0 b6 3f
       0.4754535 0.26518992 0.49580243 1.4267702
000240 a0 95 7a 3f 22 79 83 3f 4d 58 29 3f 2d 72 47 3f
       0.9788456 1.0271342 0.6615036 0.77908593
000250 2b 84 c1 3f 53 65 0e 40 6d 18 bf 3f ca 51 1f 3f
       1.511846 2.2249343 1.4929329 0.62234175
000260 96 32 26 3f 71 43 49 3f ca b6 08 3e 77 6f 80 3f
       0.6492094 0.7861853 0.13350978 1.0034016
000270 b4 01 d3 3f 4a b7 37 3f 19 b4 86 3f cb 6c 80 3f
       1.6484895 0.7176405 1.0523711 1.0033201
000280 40 fe c2 3e a2 4c 7b 3f 11 5b 6f 3f 1d 71 22 3f
       0.38084602 0.9816381 0.9349833 0.6345385
000290 78 d9 c9 3f 1a 15 25 3f 69 5f ab 3f b4 9b b7 3f
       1.5769491 0.64485323 1.3388492 1.4344392
0002a0 26 5b ac 3f 8e 05 01 3f 9a 6e 33 3f d4 fa d0 3f
       1.3465316 0.503991 0.7009064 1.6326547
0002b0 42 82 19 3f 6e 80 9a 3f ec 47 29 3f 76 02 20 3f
       0.5996438 1.2070444 0.6612537 0.62503755
0002c0 02 e4 93 3f 54 64 09 3f ab c1 8d 3e af 17 c1 3f
       1.1553957 0.53668714 0.2768682 1.5085353
0002d0 e2 3e ba 3f 55 4b 12 3e ea d7 b7 3f 44 97 22 3f
       1.455044 0.1428655 1.4362767 0.63512063
0002e0 8b fd a9 3f 08 63 34 3f 29 87 a9 3f 17 ae f2 3e
       1.32805 0.7046361 1.3244373 0.47398445
0002f0 89 a0 94 3f 1e fd dc 3f 4f 67 93 3f 2a 98 34 3f
       1.1611491 1.7264745 1.1515902 0.70544684
000300 ac 64 a1 3f 40 e4 a5 3f 02 22 86 3f 62 de eb 3f
       1.2608848 1.2960281 1.0479128 1.8427241
000310 ec 17 cd 3f 18 37 a1 3f 34 12 af 3f 10 57 eb 3e
       1.6022925 1.2594938 1.367743 0.4596486
000320 11 ed 9c 3f 6c 38 6f 3f 2b fa a5 3f 04 07 8b 3e
       1.2259847 0.9344547 1.296697 0.2715379
000330 f9 a0 59 3f f8 f6 93 3e 97 cf 63 3f 53 90 a0 3f
       0.8501125 0.2889936 0.8898863 1.2544044
000340 3d d8 a3 3e 1e 94 b0 3f 05 29 84 3f 9e d5 77 3f
       0.32000914 1.3795202 1.0325018 0.9681033
000350 df fc 20 3f 30 6c 47 3f 80 43 77 3f 07 e7 dd 3f
       0.6288585 0.77899456 0.9658737 1.7336129
000360 c8 ad 7b 3f 2b 79 c6 3f 88 2b 9f 3f 53 28 0b 3f
       0.98312044 1.5505728 1.243516 0.54358405
000370 8b 68 ae 3e de f5 fd 3d d3 c6 97 3f 3f dd 93 3f
       0.34064135 0.12400411 1.1857551 1.1551894
000380 75 47 9c 3f 04 69 7c 3e ea 12 8b 3f 9e dc a6 3e
       1.2209307 0.24649435 1.0865147 0.32590193
000390 e8 07 a2 3f 7b 4d cf 3e 3f 43 8e 3f 8d 74 c3 3f
       1.2658663 0.404888 1.1114272 1.5269943
0003a0 b6 73 3d 3e 11 b6 85 3f d9 97 97 3f fa 93 70 3f
       0.18501171 1.0446187 1.1843215 0.93975794
0003b0 68 a4 d6 3f c8 5a fd 3f 9d 2f 30 3f 68 b4 65 3f
       1.6768923 1.9793329 0.6882265 0.89728403
0003c0 ff db cb 3e bb 82 5a 3f c3 6f 84 3e bf f8 6a 3f
       0.3981628 0.8535573 0.25866517 0.91785806
0003d0 8d 7f a2 3f 5b d1 15 3f ed 96 c6 3f 36 85 8e 3f
       1.2695175 0.58522576 1.5514809 1.1134403
0003e0 f8 29 db 3e b5 f8 b9 3f 46 f8 ae 3f 21 bf 4c 3f
       0.42805457 1.4529024 1.3669517 0.7997914
0003f0 86 bf 93 3f b3 e9 d3 3f 98 90 3b 3e b5 6d b4 3f
       1.1542823 1.6555694 0.18316877 1.409598

gnn_node.convs.0.mlp.1.bias f4 [256]
000000 e0 32 05 3f 96 c6 95 be 33 85 b0 bd dc 4f 9a bd
       0.52030754 -0.29253072 -0.08619156 -0.07534763
000010 b9 a0 33 3e a2 02 2d 3f 3b 22 2d bf 66 16 d6 be
       0.1754178 0.6758214 -0.67630357 -0.41813964
000020 58 24 d0 3d ad 03 0d bf 78 d8 ea be be a4 29 3f
       0.10163182 -0.55083734 -0.45868278 0.66267
000030 b5 c3 c5 be a1 7b 80 be 7d cb fe 3d 79 e2 96 3e
       -0.38625875 -0.2509432 0.12441156 0.2946966
000040 ac 71 ac be 93 9e 5f bf 4f b1 c8 be 8b 22 87 be
       -0.33680475 -0.8735134 -0.39197776 -0.26393542
000050 e1 ce af be 12 25 47 3f fd 06 ca be f0 bb 87 bf
       -0.34337524 0.7779094 -0.39458457 -1.0604229
000060 30 bd 1c bf e2 89 d0 3e 5d d9 24 3e 83 69 63 be
       -0.6122618 0.40730196 0.16098543 -0.22208218
000070 6c 8c 13 3e ee 16 af 3d f4 6b 68 be 53 1e 80 3e
       0.14409035 0.08549295 -0.22697431 0.25023136
000080 92 99 86 3e 1d c0 93 be d9 da 52 bd 97 e4 ba be
       0.2628904 -0.28857508 -0.05147824 -0.36502525
000090 b1 20 95 be 39 e2 04 be dc 87 21 3f 26 14 2d be
       -0.29126504 -0.12976922 0.6309793 -0.16902217
0000a0 f1 44 ef bd 55 a4 ac 3e e8 47 b5 be 5c f4 7a bd
       -0.116830714 0.33719125 -0.35406423 -0.061268196
0000b0 1b ca 9d bf c8 f1 2a be 52 ac fb 3c ce a8 b0 be
       -1.2327303 -0.16693795 0.030721817 -0.34503788
0000c0 c5 03 a2 be 73 88 77 3e 88 68 98 bc 95 ac 5a be
       -0.316435 0.24173145 -0.018604532 -0.21354897
0000d0 0f f0 95 be e1 65 b1 bd e6 ee 4b bf a4 37 ab be
       -0.29284713 -0.0866201 -0.79661405 -0.33440888
0000e0 2c dd 3b be e9 05 29 be 8e c8 a6 be 79 52 ce be
       -0.18346089 -0.16506161 -0.32574886 -0.40297297
0000f0 d5 68 4a be d9 c0 ab 3d 0e 1d 49 3d 2d 32 b0 be
       -0.19766553 0.08386392 0.049099974 -0.3441328
000100 c7 2f 3d be 03 46 28 be b1 26 af bd 27 d8 4c bf
       -0.18475257 -0.16432957 -0.08552302 -0.8001732
000110 1c ca 5a 3e 5f 0e 18 bd 09 75 8b be d5 27 e2 bd
       0.21366161 -0.03712308 -0.27237728 -0.110427536
000120 8c 38 4a bf 09 b5 d7 be 7d 47 a4 bd 41 9b 88 be
       -0.78992534 -0.42130306 -0.08021448 -0.2668095
000130 e8 42 89 be 51 59 c2 be f0 19 87 3c d3 cf 62 3d
       -0.26808858 -0.37958768 0.01649186 0.055373978
000140 42 b8 1c be 45 c8 41 be 2d 07 36 be 9e 52 c9 be
       -0.15304664 -0.18924053 -0.17776175 -0.39320844
000150 1a 28 91 bd b6 57 c0 bd 73 eb d6 be ab dc 9a be
       -0.07087727 -0.093917295 -0.41976508 -0.3024648
000160 d7 be 02 bf bd af 72 be f9 c6 c1 bd 85 71 14 be
       -0.5107245 -0.23699851 -0.09461779 -0.1449643
000170 4f ff c8 3e ea f7 c6 be 0f 5b 03 3e e4 f3 0d bd
       0.39257285 -0.38861018 0.12827705 -0.03465642
000180 80 da d4 be 2a a5 a3 3d 72 6a 68 be ca 21 69 bd
       -0.41572952 0.07990487 -0.22696856 -0.05691699
000190 9d 52 5a bd 68 47 2f be 1d de 96 3e dc 89 88 be
       -0.053301442 -0.17117083 0.29466334 -0.26667678
0001a0 44 43 c1 be d0 eb 41 be 5c 67 88 be 8f a7 23 be
       -0.37746632 -0.18937612 -0.26641357 -0.15981887
0001b0 c4 a0 b8 3e 4e 9f 04 be a6 75 f2 be 45 04 09 bf
       0.36060154 -0.12951395 -0.47355384 -0.5352214
0001c0 74 44 07 3e 60 a2 26 3e 94 07 13 be 75 89 65 be
       0.13209707 0.16272879 -0.1435836 -0.22415717
0001d0 d1 77 30 be b2 8d de bd 7c ab 2f 3d a7 c0 59 bf
       -0.17233206 -0.1086687 0.04288815 -0.8505959
0001e0 c8 f3 3a bd 5c e5 04 3e 7c 1d d5 3e 68 72 4b bd
       -0.045642644 0.12978119 0.41624057 -0.049669653
0001f0 f7 26 35 be e0 f6 f3 bd 14 ee 1a bf d2 2b 3b bf
       -0.17690645 -0.11912322 -0.6051953 -0.7311374
000200 58 1a d5 be 72 d8 b4 3e c6 47 d8 be c1 e2 80 3e
       -0.4162166 0.35321385 -0.4224226 0.25173
000210 35 d9 06 3e a9 21 aa be 5e 88 00 bf a7 c0 38 3c
       0.13168795 -0.33228806 -0.5020808 0.011276401
000220 66 1a de bd 5e 33 9e 3e ca 99 88 be 9a af b7 bd
       -0.10844879 0.30898565 -0.26679832 -0.0896904
000230 22 a6 47 bd 55 22 36 bf ec 1c 8b 3e b5 61 66 bd
       -0.04874242 -0.71146137 0.27170503 -0.056245524
000240 b7 8e a4 be 86 56 a9 3d 6a db 0c 3e 56 7a d1 3e
       -0.32140133 0.08268456 0.13755575 0.40913647
000250 21 f2 86 3e d3 99 07 3e 10 68 70 3d 37 22 10 bd
       0.26356605 0.13242273 0.05869299 -0.03518888
000260 d0 5c d9 be 3d 45 58 3d c1 d9 62 3e d9 ef fc bd
       -0.42453623 0.052800406 0.22153379 -0.12350435
000270 aa 27 8c be d9 5c 98 be 3f 07 28 3f b2 c5 b9 be
       -0.2737401 -0.29758337 0.65636057 -0.36283642
000280 e9 d3 5a bf 90 aa 1b be 42 58 6c be 6e 75 91 be
       -0.854796 -0.15201783 -0.23080543 -0.28409904
000290 51 96 78 bd 22 81 56 3d 64 95 79 be b4 ac e4 3e
       -0.060690228 0.052369244 -0.24373394 0.44663012
0002a0 1c 2d b8 bd 73 4f 3a be 5d b2 2f 3e 46 ba a6 bd
       -0.08992979 -0.1819437 0.17157884 -0.081409976
0002b0 6f 33 48 bb 33 0f 5c be e3 2c 99 3e 79 31 d5 bc
       -0.0030548235 -0.21490173 0.29917058 -0.026024567
0002c0 f8 75 02 bf e0 3f f3 bd 05 7c 61 bf 96 1a 9a be
       -0.50961256 -0.118774176 -0.88079864 -0.30098408
0002d0 fc 40 6c be b6 16 17 bf 04 73 4b bd 79 72 5e bf
       -0.23071665 -0.5901903 -0.049670234 -0.8689342
0002e0 1a 34 e4 be bc d5 c7 be e0 a8 e9 3e bb 71 98 3e
       -0.44571 -0.39030254 0.45636654 0.2977427
0002f0 19 15 d4 be e9 95 78 3d ee ed 93 be 3c 35 08 be
       -0.41422346 0.06068984 -0.28892463 -0.13301557
000300 55 d0 58 be 3f 67 a7 be f5 e6 5b be 8c 1c af 3b
       -0.21173222 -0.32695958 -0.21474822 0.005343979
000310 08 90 85 3b 10 d3 cd be 99 e8 a5 be 9c 3b 33 bf
       0.0040760078 -0.4020009 -0.3240402 -0.7001283
000320 23 b3 9b bc 4f be 17 be a0 43 ab be cc b2 48 bf
       -0.019006317 -0.1481869 -0.3345003 -0.7839782
000330 cf 61 cc be c3 a7 0a 3f 62 ec d6 3b 82 13 9f bd
       -0.39918372 0.54162234 0.0065589407 -0.07767393
000340 0c d5 e6 3e df 4f 09 3d 87 1c d5 be de 7c 03 bf
       0.45084417 0.033523437 -0.41623327 -0.5136241
000350 5a b5 25 bf d5 f2 2f bf 55 79 cf be 83 c6 55 3d
       -0.64729846 -0.6872991 -0.40522256 0.05219127
000360 7c 05 e8 3e 88 7d 5b be f4 2c 45 be 47 6b b1 bf
       0.45316684 -0.21434605 -0.1925543 -1.3860863
000370 92 ad 7f 3e 65 54 02 bf a9 9b ce 3e ee 29 e6 be
       0.24968556 -0.50910026 0.40353134 -0.44953865
000380 42 b4 db 3c 2a 87 18 3f d4 b1 8c be 6a 29 92 bd
       0.026819352 0.59581244 -0.27479422 -0.07136805
000390 ce d6 f0 3c 95 62 a4 be ed d1 16 be 45 77 b7 3e
       0.029399302 -0.32106462 -0.14728518 0.35833183
0003a0 40 bb da 3d 87 7e 26 be a8 01 c4 bd 7e 4e 1d 3f
       0.10680246 -0.16259204 -0.095706284 0.61447895
0003b0 3a 88 8f bd a3 b0 03 3d 96 ad 0e bf f5 ac 2f bf
       -0.07008405 0.032150876 -0.5573362 -0.68623286
0003c0 b6 a4 8b bf 83 16 13 be 0b c7 20 be fe d5 c5 3e
       -1.0909641 -0.14364056 -0.15700929 0.38639826
0003d0 0d db 57 3e 3e c0 e7 3e 83 21 de bd cb a2 1c be
       0.21079655 0.45263857 -0.108462356 -0.15296476
0003e0 26 82 af 3c 69 b3 07 be 43 e6 76 be ed e0 4e 3e
       0.021424364 -0.13252033 -0.24111275 0.2020299
0003f0 36 ae a5 3e c2 c8 ae b9 7d 90 f2 3d 37 eb d1 be
       0.32359475 -0.00033337442 0.11843965 -0.40999767

gnn_node.convs.0.mlp.1.running_mean f4 [256]
000000 68 c3 2a 41 0d 03 9b 3d a5 c6 a2 40 5d 3f 07 bf
       10.672707 0.07568941 5.0867486 -0.5283106
000010 7f 5e 46 bf 70 dc 1d 41 28 ef 5a 41 89 e2 04 c0
       -0.7748794 9.866318 13.683388 -2.0763266
000020 63 78 e7 be fd b9 d3 be 9a 49 a4 3e 53 5c 8f 40
       -0.45209035 -0.41352835 0.32087404 4.48002
000030 b5 17 65 c0 85 02 c4 c0 69 3b d4 40 e3 e6 16 41
       -3.579572 -6.1253076 6.632252 9.431369
000040 e5 09 2f c1 18 61 f7 40 2d 54 14 bf 53 c0 25 c1
       -10.939916 7.7306023 -0.5794094 -10.359454
000050 a4 b3 ca 40 e8 d2 dc bf c7 c1 11 bf 06 c6 99 3f
       6.334429 -1.7251863 -0.56936306 1.2013557
000060 0c 15 82 40 31 29 07 c1 92 63 c5 c0 a0 d3 40 c0
       4.065069 -8.4475565 -6.1684046 -3.0129166
000070 20 a9 27 bf cd 4c b8 bf 5d ed 20 bf d0 b4 e8 3e
       -0.6549244 -1.4398438 -0.6286219 0.4545045
000080 85 b4 93 c0 22 cb 89 40 3a 95 3f 40 0b 1b 65 40
       -4.615786 4.3060465 2.993483 3.5797756
000090 c8 47 2d 3e ad 2f 8b 3f bc 81 07 41 91 fd 26 c0
       0.16921914 1.0873924 8.469173 -2.6092265
0000a0 c1 93 ec c0 1b 4d 35 c1 59 57 a5 c0 8a a0 fd c0
       -7.3930364 -11.331325 -5.1669126 -7.925847
0000b0 e3 b0 5d 41 73 0c a4 c0 9e 03 89 40 df d8 27 40
       13.855685 -5.1265197 4.2816916 2.6226118
0000c0 58 d5 d6 3f db 00 25 3f f0 78 b3 c0 4d 8c 4f c0
       1.6783857 0.6445443 -5.608513 -3.2429383
0000d0 5c 0a c6 bf 7c 3f 00 c1 3c 65 48 41 4c 43 5f 41
       -1.5471911 -8.015499 12.524715 13.95393
0000e0 86 c2 fb bf 79 e6 99 c0 7f be 49 c1 ec 29 c3 bf
       -1.9668739 -4.809384 -12.609008 -1.5247169
0000f0 f6 f3 f2 3f f7 bc 4d 40 be 06 44 40 fc 29 00 3e
       1.8980701 3.2146585 3.0629115 0.12516016
000100 03 b9 59 40 05 c1 00 c1 30 b2 35 41 cf 2c a9 40
       3.4019172 -8.047124 11.356003 5.28672
000110 66 3e f6 bf d7 a0 16 41 62 3f 6e 40 76 a4 b5 c0
       -1.9237792 9.414268 3.7226186 -5.676326
000120 7a 87 00 41 41 37 2f c0 df 90 13 3f 7e 16 24 c0
       8.033075 -2.7377474 0.5764293 -2.5638728
000130 30 88 35 c1 a2 e7 a5 40 f8 03 2f 41 63 e6 76 c1
       -11.345749 5.1845255 10.938469 -15.431247
000140 ab 17 a1 3e 0e 7e 41 40 be 37 0e c0 95 90 12 c0
       0.3146337 3.0233188 -2.2221522 -2.2900746
000150 74 f3 3d bf 51 7d 0d 41 47 d8 af 3f 29 71 fe bf
       -0.74199605 8.843095 1.3737878 -1.9878284
000160 9f eb 42 41 f8 3b a4 3f d6 f0 57 40 a6 3c f5 3f
       12.182525 1.2830801 3.3740745 1.9159133
000170 83 fd d6 3f 65 d7 a6 c0 01 3c ad 3e 81 a8 f0 c0
       1.6796116 -5.2137933 0.33834842 -7.5205693
000180 2b 73 6e 3e f1 ba b8 40 a2 b1 da be d2 b4 58 3e
       0.2328612 5.77282 -0.42713648 0.21162727
000190 c4 c5 6f c1 f5 b1 01 41 66 f6 e5 40 07 35 d8 c0
       -14.985783 8.105947 7.186328 -6.756473
0001a0 01 db 84 bf 03 2c db 3f 74 1e b2 bd b3 47 23 41
       -1.0379335 1.7122806 -0.08697215 10.205005
0001b0 8f b0 0c c1 06 b5 42 c1 ce 1c 2c 40 bf 16 6e c0
       -8.793105 -12.169195 2.689258 -3.7201383
0001c0 15 65 e6 bf a9 9f 19 40 c9 c3 d4 3f 6d da 5c 3f
       -1.7999598 2.40037 1.6622249 0.8627079
0001d0 8a 5c 46 c1 fa 92 52 40 51 38 87 c0 29 99 7c 40
       -12.397593 3.2902207 -4.2256246 3.9468482
0001e0 75 2f fa c0 d6 75 7b c0 5b de a2 3f 7a 55 58 c1
       -7.818293 -3.9290671 1.2724108 -13.520868
0001f0 7c 41 c5 bf 5a 4f 48 c1 d1 eb 22 41 e6 43 0f bf
       -1.5410609 -12.519373 10.182572 -0.5596298
000200 87 00 a5 3d 62 1a 5b 40 4e 8a 38 c0 3a a7 de bf
       0.08056741 3.4234853 -2.8834414 -1.7394783
000210 be 19 a5 3f 5d 58 26 c1 f6 b3 af c0 42 47 28 41
       1.2898481 -10.396573 -5.490718 10.517397
000220 ff d0 10 c1 a8 55 de 40 b5 64 94 40 9a 64 fd c0
       -9.051024 6.947956 4.6372933 -7.9185305
000230 c4 64 cd c0 9a 4c 59 40 83 02 9b bf 61 7b a2 c0
       -6.4185505 3.3953004 -1.2110142 -5.077561
000240 de 2b 45 c1 4e d7 5d 3f f5 bd 01 41 0f c9 8b 40
       -12.32321 0.86656654 8.108876 4.3682933
000250 32 06 14 c1 cd 49 03 c1 8d 66 05 bf 3f 45 26 40
       -9.251513 -8.205518 -0.52109605 2.5979764
000260 10 d1 4c c0 82 25 02 41 17 f5 a6 40 bf 32 c8 3f
       -3.2002602 8.134157 5.217418 1.5640486
000270 b5 c3 0d c0 af e6 0f c1 18 02 5f 3e c3 9f de c0
       -2.21507 -8.993819 0.21778142 -6.957002
000280 e7 14 14 41 ee 96 c4 3f 0f e9 4b 3f e4 7b 81 bf
       9.255103 1.535856 0.79652494 -1.0115933
000290 dc 12 46 c0 5d e7 21 be e8 ce 01 c1 78 4b ac c0
       -3.094901 -0.15810914 -8.113014 -5.3842125
0002a0 7d d1 05 40 4a b9 9e c0 d4 21 b7 bf 78 0e bb c0
       2.0909111 -4.9601183 -1.4307199 -5.845516
0002b0 6f 3f bb c0 c8 8e 26 3e 1a 4d b3 40 76 4d d4 c0
       -5.8514934 0.16265404 5.603162 -6.6344557
0002c0 f3 48 f5 c0 5d 04 be bf 45 2c 99 40 a8 96 49 c0
       -7.665155 -1.4845082 4.786654 -3.1498203
0002d0 a8 5c 2f c0 6d bc de 40 0b a8 d2 40 93 72 6d 41
       -2.7400303 6.960501 6.583013 14.840472
0002e0 f8 8f 7c c0 c4 08 86 41 69 44 3c 41 bc 56 25 40
       -3.9462872 16.75428 11.766702 2.5834188
0002f0 5a e4 fd bf cd 1d 16 c1 f2 e2 51 40 38 e4 ea c0
       -1.9835312 -9.382276 3.2794766 -7.3403587
000300 f3 cf 49 40 54 85 a8 40 1b 95 8b 3d 23 35 d3 c0
       3.1533172 5.2662754 0.06815549 -6.6002364
000310 4b 10 02 c1 a9 36 99 bf 51 86 ab 40 93 ba 86 40
       -8.128978 -1.1969806 5.360146 4.210275
000320 8a 8e 4e 3f d3 06 79 3f a6 81 00 c1 fa da 0c 41
       0.8068625 0.9727604 -8.031652 8.803461
000330 1e 2f 9e c0 98 e2 d7 40 d3 ed 4e 40 f7 02 87 c0
       -4.9432516 6.7464104 3.2332656 -4.219112
000340 8f d8 27 41 04 3f 66 bf af 85 ec c0 58 81 7e c0
       10.490371 -0.89939904 -7.391319 -3.9766445
000350 6a 59 6b 40 9e 68 86 41 47 4f b9 bf 7b e4 be c0
       3.6773324 16.801083 -1.4477319 -5.9653907
000360 ac 77 66 40 42 6b 60 bf 8a 48 a6 3f 05 c7 19 41
       3.6010542 -0.8766366 1.2990887 9.611089
000370 05 e5 14 41 9b 07 0f 41 a1 32 c6 40 38 77 cc 3d
       9.305913 8.939357 6.1936803 0.09983677
000380 04 a0 85 40 a9 b7 0b 41 d2 22 46 c1 1a 55 d8 40
       4.175783 8.732339 -12.383501 6.7603884
000390 4b 1b c0 c0 da e5 6c 41 78 54 ce c0 75 fb 29 c0
       -6.0033317 14.806116 -6.447811 -2.6559727
0003a0 38 d8 4d 41 bb 10 0a 41 d6 5a 3e c1 35 79 e3 3f
       12.865288 8.629085 -11.897177 1.7771364
0003b0 5c 65 6b c0 6b 72 06 c1 25 cd 32 41 65 19 24 41
       -3.6780615 -8.402934 11.175084 10.2562
0003c0 bf c8 8f 40 eb d8 9c 40 64 17 cc 40 b7 6a 9d 40
       4.493255 4.9014792 6.3778553 4.9192767
0003d0 b6 81 6f c0 2d 38 14 41 d5 0a 38 c1 1f b1 de c0
       -3.742292 9.263715 -11.502645 -6.959121
0003e0 60 25 c7 c0 d7 22 43 bf 9a 15 9a c0 e9 28 d6 40
       -6.2233124 -0.76225036 -4.815137 6.692494
0003f0 f1 db bc c0 5d 7f 2d c1 87 56 32 40 03 eb 0c c1
       -5.9018483 -10.843595 2.7865312 -8.807376

gnn_node.convs.0.mlp.1.running_var f4 [256]
000000 1d 82 59 42 49 fb 18 42 0f be 3b 42 50 29 5e 42
       54.377064 38.245396 46.935604 55.540344
000010 b9 c4 1c 42 43 d4 12 42 0d a0 b6 41 21 6d 0f 42
       39.192112 36.707287 22.82815 35.85657
000020 56 ba ca 41 2e 92 ac 41 68 bc 82 40 4d 71 21 42
       25.340984 21.571377 4.085499 40.360645
000030 0c dc 93 41 97 0c 4d 42 48 b4 50 42 ed f0 83 42
       18.482445 51.262295 52.176056 65.97056
000040 5d 3a 4e 41 ce d5 f0 41 49 89 1f 42 94 4d 7a 42
       12.889249 30.104397 39.884068 62.57576
000050 5e 26 ae 42 5c fd 5c 42 b9 28 34 42 9a 4e a8 41
       87.074936 55.24742 45.03977 21.03838
000060 f8 23 c2 41 b8 76 43 42 41 1d 38 42 e4 b1 9e 42
       24.267563 48.865936 46.02857 79.34744
000070 ad 90 8f 41 35 9c 66 41 bb 55 85 42 01 dd 8a 41
       17.945642 14.4131365 66.66744 17.357912
000080 e3 5b 3e 42 00 01 99 42 82 06 0b 42 95 0d 58 42
       47.589733 76.50195 34.756355 54.013264
000090 0f 69 69 42 36 53 8a 41 30 36 f4 41 8b 4a af 42
       58.352596 17.29063 30.526459 87.64559
0000a0 13 be fa 41 27 36 14 42 40 10 88 42 dc df a8 41
       31.34281 37.052883 68.03174 21.109306
0000b0 57 50 0c 42 fc d5 ec 41 23 9c 9a 41 48 17 c4 41
       35.078457 29.604485 19.326239 24.511368
0000c0 a9 15 b5 41 65 21 df 41 b5 c1 54 42 16 39 83 42
       22.635576 27.891306 53.189167 65.611496
0000d0 ce 51 23 42 25 c1 81 42 ce 20 d8 41 df 62 6c 41
       40.829887 64.877235 27.016018 14.774138
0000e0 84 d3 a1 41 66 1f 34 41 c1 d9 24 41 81 c6 35 42
       20.22828 11.257666 10.303163 45.44385
0000f0 b6 00 68 41 ae 3d 4d 42 8b 7b b9 41 01 40 bd 41
       14.500174 51.310234 23.185324 23.656252
000100 b1 09 0d 42 76 87 c9 41 41 e9 4e 42 2f 1b d0 41
       35.259464 25.191143 51.727787 26.013273
000110 5b c0 c3 41 2f b3 99 42 ae b6 7e 41 55 4b dc 41
       24.468924 76.84997 15.9196 27.536783
000120 7b 44 35 42 b0 07 a3 41 0d a9 70 42 7c c8 22 42
       45.316875 20.378754 60.16509 40.695786
000130 11 4d 99 41 b5 39 9f 41 06 eb 79 41 95 4c ac 41
       19.16263 19.903177 15.619879 21.537394
000140 11 b4 7a 42 cf fd 4d 42 9f 7e 44 42 7c b5 7e 41
       62.675846 51.49786 49.123653 15.919308
000150 77 fd 3d 42 61 8d 98 41 3f e2 bb 41 60 f3 9b 42
       47.497524 19.069033 23.485472 77.97534
000160 66 06 a2 41 4b 2a 19 42 3a 0c 0c 42 04 da 94 41
       20.253124 38.2913 35.01194 18.606453
000170 fc 42 a2 42 c7 e6 43 42 30 52 cf 41 74 94 04 43
       81.13083 48.97537 25.91513 132.5799
000180 94 e3 d3 41 0b aa c0 41 e0 16 80 42 18 64 12 42
       26.486122 24.083029 64.04468 36.597748
000190 04 33 95 41 a9 23 92 42 cf 8c 06 42 91 de 41 42
       18.64991 73.06965 33.63751 48.46735
0001a0 09 ae 1e 42 16 43 43 42 7a 18 26 42 e4 92 7a 42
       39.669956 48.815514 41.523903 62.643448
0001b0 ee 4b 20 42 dd df 8f 41 a9 07 2d 42 1e fb f8 41
       40.07415 17.984308 43.25748 31.122616
0001c0 53 22 fb 41 76 13 1a 42 ee b4 fe 41 bc 96 0d 42
       31.39176 38.519005 31.838345 35.3972
0001d0 4d ca 22 42 d7 99 fc 41 63 87 8f 41 27 0b a6 41
       40.69756 31.575117 17.941107 20.755445
0001e0 51 eb ca 41 38 92 b4 41 6f 3c 27 42 88 08 a3 41
       25.3649 22.571396 41.809017 20.379166
0001f0 64 fa 48 42 c8 1f e1 41 b4 d9 8e 41 62 5c 06 42
       50.244522 28.140518 17.8563 33.590218
000200 62 0a 17 42 86 ee c8 41 3d 92 98 41 9c 5a 9e 41
       37.76014 25.116467 19.071405 19.794243
000210 97 b7 7e 41 3a 76 3e 41 f4 fb 24 42 41 67 61 42
       15.919822 11.903864 41.246048 56.350834
000220 6b d8 43 42 bc 2e 24 42 e5 26 ad 42 ba 23 5e 42
       48.961346 41.04564 86.575966 55.53489
000230 2d 4c 6a 41 6e d5 0e 42 0f e7 5a 41 9f d6 d1 41
       14.643598 35.708427 13.681411 26.229795
000240 ff 82 6d 41 53 0e af 41 3d a5 dd 41 a2 67 b9 42
       14.844481 21.881994 27.705683 92.70241
000250 2b 08 75 42 40 97 09 43 39 8e 8d 42 84 02 85 41
       61.257977 137.59082 70.77778 16.626228
000260 f1 64 7b 41 06 76 05 41 97 f9 80 42 46 99 8a 42
       15.712144 8.341314 64.48748 69.29936
000270 81 82 2a 42 33 c5 26 41 b4 6d 2b 41 0f f4 af 41
       42.627445 10.423144 10.714283 21.99417
000280 8c b5 b3 41 62 bb a8 41 a0 8a 4a 42 96 52 0c 42
       22.463646 21.091496 50.635376 35.08065
000290 34 22 66 42 99 82 08 41 bc 50 91 42 e6 61 57 42
       57.5334 8.531884 72.657684 53.845604
0002a0 af 8a 62 42 5b f1 8f 41 be 8e b6 41 38 4f bb 42
       56.635433 17.99285 22.819698 93.654724
0002b0 93 25 cd 41 a2 12 fb 41 a5 a2 91 42 93 b4 13 42
       25.643347 31.384098 72.817665 36.926342
0002c0 8f 2d 23 42 a8 35 9c 41 12 7c be 41 24 a3 65 42
       40.79449 19.5262 23.810581 57.409317
0002d0 ad 54 1b 42 dd 2f 4d 42 b1 e6 94 41 8c c9 c2 41
       38.83269 51.29674 18.612642 24.348412
0002e0 60 3a ca 41 69 be ae 41 30 e5 6c 42 88 08 5a 42
       25.278503 21.842974 59.223816 54.50833
0002f0 9b 4e 55 42 ba 7e aa 42 88 0a 40 42 dd 9e e5 41
       53.326763 85.24751 48.010284 28.70257
000300 70 f0 cd 41 f8 d1 49 42 b6 fc c5 41 30 aa 90 42
       25.742401 50.455048 24.748394 72.3324
000310 9d 7c 72 42 72 9d 00 42 c8 61 a9 42 7d b0 20 42
       60.621693 32.153755 84.69098 40.17235
000320 cc 67 51 41 49 3d c1 41 b8 13 e2 41 04 98 0d 42
       13.087841 24.154924 28.259628 35.398453
000330 df 31 c4 41 4c 9b 6c 42 c4 6f 40 42 52 c5 ca 41
       24.524351 59.151657 48.109146 25.346348
000340 62 a9 67 42 e4 26 0c 42 c8 e6 b2 41 60 e0 30 42
       57.915413 35.03798 22.362686 44.219116
000350 a8 0b 78 41 8e 0b 6c 41 c5 f1 2d 42 ae 17 8b 42
       15.502846 14.752821 43.486103 69.54625
000360 ea 47 34 42 c1 e2 67 42 c3 cb 85 42 ac 02 de 41
       45.07023 57.97144 66.89797 27.751305
000370 5e 05 06 42 b4 98 ec 41 c0 c9 64 42 25 3a 4a 42
       33.50524 29.574562 57.19702 50.55678
000380 83 75 e8 41 38 fb 45 42 f5 e6 4f 42 71 cd a1 41
       29.057379 49.49533 51.975544 20.225313
000390 d5 51 f2 41 bb f1 d8 41 49 d9 a7 42 85 07 a3 42
       30.289957 27.118032 83.924385 81.51469
0003a0 de 51 32 42 5b 21 4c 42 46 db 15 42 d7 58 9b 42
       44.57995 51.032574 37.464134 77.673515
0003b0 f9 33 0b 43 be 1f cb 42 09 0f 98 41 a3 26 a2 41
       139.20302 101.562 19.007341 20.268866
0003c0 ea 94 c8 41 6d 27 85 41 ff ec 29 42 15 47 28 42
       25.072712 16.64425 42.48144 42.069416
0003d0 9e 0b 91 42 21 d9 04 42 b7 9f 58 42 d2 22 d4 41
       72.52269 33.21204 54.15597 26.517002
0003e0 2b 6e a9 41 3f e5 c4 41 a7 8f 8f 42 04 20 f6 41
       21.178793 24.611937 71.78057 30.765633
0003f0 3a 70 15 42 15 21 66 42 ff 76 45 42 a9 df d6 41
       37.359596 57.532307 49.366207 26.85921
