checkpoints/C_epoch_30.pth (torch, 843938 bytes, 48 tensors)

gnn_node.node_encoder.weight f4 [1, 128]
000000 4e 31 3e 3f 96 6f 87 bf 28 c0 2d be 72 c7 34 3e
       0.74293983 -1.0580928 -0.16967833 0.17654207
000010 13 e8 8b 3d 14 17 a9 bd 7c 59 01 3e 4b 4e c3 be
       0.06831374 -0.08256355 0.12631792 -0.3814567
000020 f2 8b 3e 3f 20 e2 33 be fc e5 83 be 1d 82 1b 3f
       0.7443229 -0.17566729 -0.25761402 0.6074541
000030 32 31 73 bf 6e 0e 37 3e 61 00 37 3f 61 b1 00 bd
       -0.9499694 0.17876598 0.71484953 -0.03141916
000040 ef 5a 95 bf 90 0f 4c bf 34 fd 5e 3e eb 0f 51 bf
       -1.1668376 -0.79711246 0.21776277 -0.81664914
000050 b6 8d a2 bf cc 3a 68 3e dd 7a 30 3e 46 7a 6a be
       -1.2699497 0.22678679 0.17234369 -0.22898206
000060 c6 e2 e0 bd c1 48 c8 bf 4d 32 2f be 3d a2 15 bf
       -0.109807536 -1.5647203 -0.17109032 -0.5845068
000070 61 7a 53 3f b6 f1 c6 3b 89 a0 6d 3e 7f 68 01 c0
       0.8260861 0.0060712947 0.2320577 -2.022003
000080 f9 41 be bf a1 0c 84 3e d3 79 f0 be 71 a7 2c 3f
       -1.4863883 0.25790885 -0.46967945 0.67442995
000090 ab 50 06 c0 98 89 33 be c4 92 3e 3f 9f 88 14 3d
       -2.0986736 -0.17532957 0.74442697 0.036263105
0000a0 60 10 8e bf c6 db a1 be e6 8f 56 bf 23 19 fa bf
       -1.1098747 -0.31612986 -0.8381332 -1.9538921
0000b0 97 c9 4f be ac 22 fb 3d 14 8b 75 be 66 48 51 bf
       -0.20291744 0.122624725 -0.23978835 -0.81751096
0000c0 e8 12 07 bf d3 5d 80 bd 3f bb 97 bf f8 08 a7 bf
       -0.52763224 -0.062678955 -1.1854018 -1.3049612
0000d0 d7 8a d6 be 80 88 16 3f 3c f5 37 bf a5 97 ea 3e
       -0.419028 0.5880203 -0.7185857 0.4581882
0000e0 c1 02 ab bf 97 df 66 3f 88 43 c9 3d e9 0f 09 3f
       -1.3360215 0.9018492 0.09827334 0.535399
0000f0 e5 8d 66 bd e9 7e 51 bf a4 34 e1 be d1 d0 13 bf
       -0.056287665 -0.81834275 -0.43985474 -0.57740504
000100 01 31 11 c0 e4 8b d8 bf 8a 42 61 bf 1a 3d 31 3e
       -2.268616 -1.6917691 -0.87992156 0.17308465
000110 04 3e c9 3e b3 61 60 3d 00 98 5a be 88 78 46 bf
       0.39305127 0.054780673 -0.21347046 -0.77527666
000120 c3 49 94 3d 80 a1 db bf a1 f8 14 bf 43 5c d1 3e
       0.072406314 -1.7158661 -0.5819188 0.40890703
000130 03 a5 cc bf 78 97 57 be 2c 90 b4 be 01 39 8c bf
       -1.5987858 -0.21053874 -0.35266244 -1.0954896
000140 d9 60 8f bf 26 ce ab bd 27 b0 a8 bd cf 8f 4c bf
       -1.120143 -0.08388929 -0.082367234 -0.79906934
000150 34 28 0d bf 3f 00 9a 3e c4 f3 d3 3e cc c2 59 bf
       -0.5513947 0.30078313 0.41396916 -0.8506286
000160 ec af 89 3f 99 30 4f be 7d 8c 82 3f 76 45 1b bf
       1.0756812 -0.20233382 1.0199124 -0.60652864
000170 46 1a 8a 3f 2c a8 ac bf b8 27 f6 bc de b4 3f 3e
       1.0789268 -1.3488822 -0.030048236 0.18721339
000180 e3 d7 10 bc 0a d4 b2 3e fe 87 3b bf a6 4f 39 3f
       -0.008840534 0.34927398 -0.7325438 0.7238716
000190 12 30 a9 be 55 ed df be 44 09 be 3f df 22 f6 3e
       -0.33044487 -0.43735757 1.4846578 0.4807348
0001a0 9d f3 4c 3e 91 41 44 3f 2e c3 31 3f 61 6d ba bf
       0.20014806 0.76662546 0.69438446 -1.456463
0001b0 51 04 eb 3e f5 48 95 bf 36 25 37 3e 9c 48 6d be
       0.4590173 -1.166289 0.17885289 -0.2317223
0001c0 cb fe ea bd 45 95 01 bf 2c 39 54 bf 5f 75 46 bf
       -0.11474379 -0.5061839 -0.8289974 -0.77522844
0001d0 bb be f6 be c0 64 63 bf 37 8c 34 bf 8f 95 dd bf
       -0.4819239 -0.8882561 -0.7052645 -1.7311267
0001e0 7d 4e 74 bf 6c 33 29 3e 31 04 9e bd 60 b4 07 3e
       -0.95432264 0.16523522 -0.07715643 0.13252401
0001f0 a1 67 ae 3e db 7a a7 bc 5c bb 3a 3e 14 87 04 bf
       0.34063438 -0.020444324 0.18235534 -0.5176861

gnn_node.virtualnode_embedding.weight f4 [1, 128]
000000 f0 98 ad be 6c 51 e2 be c1 5d d3 bd 4d 14 fb bd
       -0.33905745 -0.44202745 -0.103206165 -0.122597314
000010 f5 99 ae be a7 f7 d7 bd bc fc be be dd 8f ad bd
       -0.34101835 -0.10545283 -0.37302196 -0.08474705
000020 f1 46 5f be b8 2c aa bc 39 f6 4c 3e 3e c2 35 be
       -0.21804406 -0.020773277 0.20015801 -0.17749879
000030 45 ee cb bd dc d6 bd be 49 8e 27 bf 78 62 3f 3c
       -0.09957556 -0.37077987 -0.65451485 0.011681192
000040 55 0a 8a bd ab 47 16 be 4b f8 8a 3d a5 54 17 bd
       -0.06740252 -0.14675777 0.067856394 -0.036945958
000050 00 30 e6 be 86 51 08 bf da f4 0f bf d4 ed 90 be
       -0.44958496 -0.53249395 -0.5623299 -0.28306448
000060 89 02 d9 be 62 67 64 3d 54 c5 09 bf f2 9c 3f be
       -0.42384747 0.055762656 -0.53816724 -0.18712214
000070 46 86 00 bf 21 a8 36 be 35 b9 12 be ac e6 8b be
       -0.50204885 -0.17837574 -0.14328463 -0.27324426
000080 d2 20 a8 be 10 9b 15 ba ef 86 16 bd 56 de e5 be
       -0.3283754 -0.0005707005 -0.036749776 -0.4489619
000090 8b 0e 13 3c 38 1f 82 be 95 3d 04 bf 79 a5 9f be
       0.008975635 -0.25414443 -0.51656467 -0.31180933
0000a0 37 be 64 be 51 66 a0 be 5d a7 bf bd c1 4b ab be
       -0.22338186 -0.3132806 -0.09358094 -0.33456233
0000b0 8f bb 1e be 5a c7 f5 bd e3 67 35 3d ac 71 08 be
       -0.15501235 -0.12000914 0.044288527 -0.13324612
0000c0 03 7d 40 be 2a a4 15 3e aa 14 63 be 97 4e e9 bc
       -0.18797688 0.14613405 -0.22175851 -0.028479857
0000d0 e4 0b 8e be f9 8f a1 be 88 ca 80 be 76 89 1c bf
       -0.27743447 -0.31555155 -0.2515452 -0.6114725
0000e0 cf bd 35 be 9c 10 14 bf 5c 4e 96 be 3b e8 45 be
       -0.17748187 -0.57837844 -0.29356658 -0.1932687
0000f0 a0 3b 72 be 6a e3 67 bd c1 cc b7 bd 19 3f 6f be
       -0.23655558 -0.056613363 -0.089746006 -0.23363914
000100 dc ec 93 be b8 43 c7 3e 77 aa d5 bd c6 d3 4e 3d
       -0.28891647 0.38918853 -0.10432904 0.05049493
000110 be 9d 89 be 19 f3 e3 be d3 af c7 be 03 a7 15 be
       -0.2687816 -0.44521406 -0.3900133 -0.14614491
000120 47 70 58 3c 84 2a 24 bf e0 5d 59 be ea b7 c0 be
       0.013210363 -0.64127374 -0.21227217 -0.37640315
000130 a5 5b 35 be 9e 4c 49 3d e7 fd a2 be 51 b3 f6 bd
       -0.17710741 0.049145333 -0.31834337 -0.12045921
000140 14 79 e6 be 41 20 5d be 6f aa 06 bd 20 bd 13 be
       -0.4501425 -0.21594335 -0.032877382 -0.14427614
000150 d0 73 7a be 27 83 08 be c9 f9 73 be d9 f4 bf bd
       -0.24458241 -0.1333128 -0.23825754 -0.09372873
000160 7c fa 39 bf fb af a1 be c5 9b 12 bf 71 31 fc bd
       -0.72647834 -0.31579575 -0.57268935 -0.12314118
000170 6d 1d 1f bf d3 1a cb 3d 1c 85 6a bd 6f 84 a6 3d
       -0.62154275 0.09917226 -0.05725585 0.081307285
000180 10 17 02 be a1 19 94 be 7a a7 05 3d 73 b1 8d be
       -0.1270411 -0.28925803 0.03263042 -0.27674446
000190 82 c1 86 be fe 03 58 be a9 88 40 bf 3f dd db be
       -0.2631951 -0.21095273 -0.75208527 -0.42942235
0001a0 71 7d c3 be ff 59 81 be 34 a9 ed be f6 99 e0 bd
       -0.38181642 -0.25263974 -0.46418154 -0.10966866
0001b0 15 0a 24 be 08 28 30 bd 6d d0 c2 3a c0 ba 83 bb
       -0.16019471 -0.043006927 0.0014863141 -0.004020065
0001c0 5c 74 1c be c8 77 da 3d c8 e5 6e bd c5 50 41 be
       -0.15278763 0.10667378 -0.058324605 -0.18878467
0001d0 b0 9d 85 3d 87 0b cd 3d 2c 54 f2 bd bc 40 3c 3d
       0.06524217 0.10011964 -0.11832461 0.045960173
0001e0 0a 40 44 be 2d 05 3e be 19 9e 9c bd 16 cf 04 be
       -0.19165054 -0.18556662 -0.07647342 -0.12969622
0001f0 06 ec b2 be 70 3d 85 be 3e bc a2 3b 4d 00 c3 be
       -0.34945697 -0.26023436 0.004966288 -0.38086167

gnn_node.convs.0.mlp.0.weight f4 [256, 128]
000000 d4 12 87 be 6a c7 e2 3d a2 5c a2 bd 07 69 4a 3e
       -0.26381552 0.110731915 -0.079278246 0.19766627
000010 94 ea cf bc d1 c4 62 3d fd 44 7c be ab 21 a6 bb
       -0.02538041 0.05536348 -0.24635692 -0.0050699315
000020 4a 89 9d 3d 08 5e 96 bd 66 2a ec 3c 40 cb bd 3c
       0.076922014 -0.07342154 0.02882881 0.023168206
000030 74 18 ab 3d 55 fc c0 be f4 2d b8 bd c6 c1 13 3d
       0.083542734 -0.37692514 -0.0899314 0.03607347
000040 28 d3 b0 3c aa 83 76 3d 7a a2 71 3d 5b c9 6b 3e
       0.021585062 0.06018416 0.05899284 0.2302603
000050 04 0b 1c bd 2e 49 8a bd e1 80 44 bd 9b ff fa 3d
       -0.038096443 -0.06752239 -0.04797447 0.12255784
000060 8a ce 8f be 71 55 6f 3d 8d f1 c9 bd 3d bc b2 bd
       -0.28087264 0.058431093 -0.09860525 -0.0872731
000070 ff 35 4a 3d 68 df 27 3e 1c c1 72 be fb ce 50 3d
       0.0493679 0.16393816 -0.23706478 0.050978642
000080 56 25 a9 bd e2 14 92 3e 9f 10 28 be 65 a0 20 3e
       -0.082590744 0.28531557 -0.1641259 0.15686186
000090 32 2d 94 3b 4f 1c c6 bd 3c 6c 1c bd 66 90 b9 3d
       0.0045219893 -0.09673368 -0.038189158 0.09060745
0000a0 90 50 90 3b c9 a5 cf bd a8 ad 57 bd 89 16 05 bd
       0.004404135 -0.10139043 -0.052655846 -0.032492194
0000b0 fb de 65 be 04 e2 5f bc 5c bc f6 3d 90 f3 1f bb
       -0.22448342 -0.013664726 0.120476454 -0.002440665
0000c0 44 99 4f 3c a6 db dd bd 0c 68 f6 bc b0 fe 7a bd
       0.012670819 -0.1083291 -0.03007891 -0.061278045
0000d0 d5 8d b3 bd c6 02 8f 3d a9 25 2d bf 72 92 00 3b
       -0.08767287 0.06982951 -0.6763559 0.0019618538
0000e0 18 ee 0e bb 81 dd 94 bd 91 05 52 3e ac 88 0e 3b
       -0.0021809395 -0.07268811 0.20509936 0.0021748943
0000f0 af 0d 2f 3d 30 d3 33 bf 27 67 c0 be b2 07 4c bf
       0.04273766 -0.7024412 -0.375787 -0.7969924
000100 f9 fe 22 3d d5 53 d9 3c d5 9a 6d bd ad 67 91 be
       0.039793942 0.026529232 -0.058008987 -0.2839941
000110 7c ba 9b bc a1 8d e7 3d 4b 9d 96 bd b9 6a 9e 3b
       -0.019009821 0.113063104 -0.0735422 0.0048344997
000120 27 d5 50 be c8 03 fb 3c ae f4 b2 bc fc 22 e2 bd
       -0.20393811 0.030641451 -0.021845188 -0.11041829
000130 59 85 2a bd 2d cd 9b be 66 12 bb 3e 0d 63 16 3d
       -0.041631076 -0.30429974 0.36537474 0.036715556
000140 e2 a6 40 3d 5a 44 e8 bb d4 b3 03 3f 23 c8 c1 bc
       0.04703415 -0.0070882263 0.5144627 -0.023655003
000150 fc 73 74 3d dd de 06 bc fa 4c 30 bc 9d 1c 17 3e
       0.059680924 -0.008231846 -0.01076054 0.14757009
000160 c0 4d 50 3d 25 84 10 3d 2e 67 d1 bc 4f 8b db be
       0.0508554 0.035282273 -0.025561895 -0.42879722
000170 76 fc fe 3c 67 01 e7 ba 54 d0 b5 3f d9 88 07 bf
       0.031126242 -0.0017624319 1.4204202 -0.5294319
000180 6e 6e 3f 3e 2a 01 36 3e 9a 15 ae 3c 1c 53 e2 3d
       0.1869447 0.17773882 0.021250535 0.11051008
000190 ef c4 1b bf eb 9c da bc f6 97 ad bd cd 27 85 be
       -0.6084737 -0.026686152 -0.0847625 -0.26006928
0001a0 df dd d5 3d 6d 6e 4a be d1 e3 21 bd 13 3c 57 bd
       0.10442709 -0.19768687 -0.039523903 -0.052547526
0001b0 09 5c a1 bd 48 3a 6e bd d1 7b 72 be 79 d2 83 be
       -0.078788824 -0.05816105 -0.23680045 -0.25746515
0001c0 29 17 c4 bd e1 63 39 bd 20 27 b9 bd a2 f5 c8 be
       -0.0957473 -0.045261268 -0.090406656 -0.39249903
0001d0 35 ba 62 3c 9d cd 81 bd 6c df 57 bd af 0e 71 3c
       0.0138383405 -0.06338046 -0.052703306 0.0147129735
0001e0 b5 4f 77 bd d4 ef 94 3e 9e 55 86 3d 33 af 3c 3d
       -0.06037875 0.29089224 0.06559299 0.04606552
0001f0 93 f8 dc 3e 46 5f e8 3d 71 0d e2 be e5 0f e9 be
       0.43158397 0.11346297 -0.4415088 -0.4551994
000200 f1 04 ae bd 5a a6 cc 3d 5a 95 a3 bb 1b 55 c2 be
       -0.08497036 0.099926665 -0.0049921693 -0.37955555
000210 4a c7 f5 3b c2 b9 f1 3d 5c 01 75 be 23 e7 f5 be
       0.0075005637 0.118030086 -0.239263 -0.48027906
000220 70 7e 00 be 7c b3 b9 3c 62 77 42 3c fe e0 0e 3e
       -0.12548232 0.022668593 0.011869283 0.13953015
000230 ed 71 f3 3c bb ef 3c be 40 35 e8 bd 27 db 68 3e
       0.02971741 -0.18450825 -0.11338282 0.2273985
000240 33 e1 29 3d 53 90 1f 3d f1 d2 a6 3d b8 a3 3e be
       0.041474532 0.038955998 0.08145703 -0.18617141
000250 d5 9f 46 bd bb 3a 00 bd ea d5 4c be 69 61 27 bc
       -0.04849227 -0.03130601 -0.20003477 -0.0102160955
000260 2d bb 2e be 60 04 f3 bc 75 71 ae be 5a 22 98 3d
       -0.1706359 -0.029665172 -0.34070936 0.07428427
000270 97 13 5d 3d 1f 2c ff bc d9 42 86 be 9c df c7 3c
       0.05397376 -0.031148968 -0.26222876 0.024398617
000280 77 fc b7 3d 81 0a 6a ba cf 53 38 bf 97 bc e3 ba
       0.08983701 -0.0008927957 -0.7200288 -0.001737493
000290 b0 9d 70 bc ae 0a af bd 07 ba 7e bd d7 84 5b 3d
       -0.014686033 -0.08546959 -0.06218913 0.053593483
0002a0 e3 18 dc bb c7 c1 15 3e 7d bb f9 3b 2f ec a7 bd
       -0.006716834 0.14624701 0.0076212273 -0.08199345
0002b0 80 e3 ac be ac 03 8b 3d d0 1b 95 3d 57 45 5d 3d
       -0.3376732 0.0678781 0.072806954 0.054021206
0002c0 c7 21 68 bc c0 43 44 3d cf 04 3b bd 93 06 8d 3d
       -0.014168209 0.047916174 -0.045658883 0.068860196
0002d0 6a 65 ca bd 54 2e 14 3d 60 e3 e8 3e 99 c5 e3 bd
       -0.098826244 0.036176994 0.45485973 -0.11121673
0002e0 8e c5 2b bd 40 3e 9e b9 f3 96 e0 bc 3e 01 46 be
       -0.04193645 -0.00030182488 -0.027415728 -0.19336411
0002f0 08 b2 35 bd a0 f6 fb 3d c9 26 17 be fd d8 b5 3e
       -0.044359237 0.12302899 -0.14760889 0.3551711
000300 a7 0c 3d bd 33 1d c7 bc f4 e0 dc 3d 01 5a 57 bf
       -0.046154644 -0.024305915 0.10785094 -0.8412171
000310 f2 44 2a 3d 73 9b 16 be 72 cc 68 bf 5a 9c ee bc
       0.041569658 -0.14707737 -0.9093696 -0.029127289
000320 fd 6b 80 bf 39 6d 5e 3b eb 0d 43 bc ca c2 ac bd
       -1.0032955 0.0033939613 -0.011905174 -0.084355906
000330 af 32 1c 3d d8 36 70 bd d9 49 a3 3e e6 f6 b8 bb
       0.038134273 -0.058646053 0.3189228 -0.005644667
000340 6d f4 55 3d 68 d3 e9 3d 07 74 46 bf 31 02 68 3d
       0.052235056 0.11417276 -0.77520794 0.056642715
000350 3a 72 59 bd 88 3b c1 bd 0b e0 24 3c 47 e4 67 3e
       -0.05308745 -0.09435183 0.010063182 0.22645675
000360 98 92 a1 bc 8b 9d 1f be f9 52 48 3d 2f e4 05 be
       -0.019723222 -0.15587442 0.048907254 -0.13075326
000370 d8 79 d6 bd 11 c0 cb bd 46 eb 29 bf 2e f6 87 3e
       -0.104724586 -0.09948743 -0.66374624 0.26555008
000380 22 4f bd 3d e8 41 2a bf a4 35 95 3b 29 d2 20 bf
       0.09243609 -0.66506815 0.0045535136 -0.6282068
000390 56 f6 00 c0 b3 8b c4 3d 4e cc ff ba 4b b8 23 3d
       -2.0150352 0.09596958 -0.0019515844 0.039970677
0003a0 59 65 1a bd 62 d9 1d be a9 76 12 be 1d f2 8b 3c
       -0.03769431 -0.15414956 -0.14303078 0.017083222
0003b0 00 0f 26 bf 6f 54 26 3d 80 96 95 be 45 c4 dd bd
       -0.6486664 0.040607866 -0.29216385 -0.10828451
0003c0 d5 1a 8a bd e7 79 91 bc b9 b1 b0 bd 05 46 cc be
       -0.06743399 -0.017758323 -0.08627648 -0.3989717
0003d0 01 20 e6 3c df ea 41 be f9 f7 99 3d f9 b0 99 bd
       0.028091433 -0.18937252 0.07518 -0.07504458
0003e0 87 ce 11 3d d0 7e 6e 3d f2 f5 a8 bd 5a 0d 10 bf
       0.03559735 0.058226407 -0.08250035 -0.5627037
0003f0 8b 18 27 bf 32 e5 a3 3d da 2a 79 3e 80 cb fd 3d
       -0.65271825 0.080027 0.24332753 0.1239233

gnn_node.convs.0.mlp.0.bias f4 [256]
000000 fd df 12 3d bf ff 77 3d 14 52 94 3c 48 a6 a4 3c
       0.035858143 0.060546633 0.018105544 0.02009882
000010 80 49 33 3c ee f2 ae 3d 71 c3 47 bd fa 83 05 bd
       0.010942817 0.08542429 -0.04877037 -0.032596566
000020 b2 bb 99 bb 4a ce 49 bc fa 2c 1b 3d 41 84 8d bd
       -0.0046915645 -0.01231725 0.03788469 -0.06909991
000030 4a c1 82 bd 2a 35 8a bd 5a d2 53 bd b1 68 88 bc
       -0.06384523 -0.067484215 -0.05171428 -0.016651483
000040 65 15 6d bc 2f e5 77 bd 51 3e 9c 3d 29 af 99 3d
       -0.014470433 -0.0605213 0.076290734 0.07504112
000050 89 67 16 bd 12 58 74 bd b7 87 19 3c f6 b1 20 3d
       -0.036719833 -0.059654303 0.009370736 0.039232217
000060 c2 44 ab 3c 15 ab 0b bd 49 4e 0e 3d e7 09 cc 3c
       0.02090681 -0.034098703 0.034742627 0.024907066
000070 ee 58 18 bc d1 dc a6 bd 77 83 b0 3d 86 5f bc 3b
       -0.009298546 -0.08147586 0.08618825 0.005748692
000080 75 0a 31 3d 85 5c 84 bc dd 46 bb 3c 77 95 2b bd
       0.043222863 -0.016157398 0.022860939 -0.041890588
000090 a2 74 c3 bc 33 2a 12 3d 56 cc 66 bc 3d 60 3d bd
       -0.023859326 0.035684776 -0.014086803 -0.046234358
0000a0 a1 fd 2b bd 02 c6 ad bd 3e ce 8e bd 21 f6 8e 3d
       -0.041989926 -0.084850326 -0.06972931 0.06980539
0000b0 ea 8d b6 3d a7 7f 5a 3c bd fc b7 bc 1a 75 a0 bd
       0.08913787 0.013336099 -0.022459382 -0.07834835
0000c0 a5 fd 08 3d 47 10 a5 ba 89 89 9d bd d2 22 8b bd
       0.03344502 -0.0012593352 -0.076922484 -0.06793751
0000d0 ac 0f 96 3c 36 02 8c 3d 58 27 6f bd e2 88 06 bd
       0.01831802 0.06836359 -0.05838713 -0.032845385
0000e0 60 7e 63 3d ce 3f 07 3d f7 7c 83 3a 48 9f 1e 3d
       0.055540442 0.033019833 0.0010031749 0.03872612
0000f0 39 43 8c 3c ec a6 c3 bb 06 e2 2a bd b4 05 dd bb
       0.017121898 -0.0059708264 -0.04171946 -0.0067450646
000100 72 eb ff 3b ed f7 46 bd cf 8f 38 3c 05 f2 90 3c
       0.0078100497 -0.048576284 0.011264755 0.017693529
000110 9a 3f da 3b d6 ac 12 3d f8 d0 d2 3c 22 75 8a 3d
       0.006660414 0.03580936 0.02573441 0.067606226
000120 48 2b d0 bb ec 27 ed 3c 57 cf 5a bc 8b fa ae bd
       -0.006352816 0.0289497 -0.013355098 -0.08543881
000130 f6 77 d8 bc 3e f7 58 bd fa c4 6c bd 47 c2 ce 3c
       -0.02642439 -0.052970164 -0.05780504 0.025239123
000140 3f cd 87 3d 01 3a 50 bd 11 7b 8d bd f4 1b cf bc
       0.066309445 -0.050836567 -0.06908239 -0.025281884
000150 24 a1 67 bd ca 09 59 bd cb c1 7a 3d eb 55 b7 3c
       -0.05655016 -0.05298785 0.06121997 0.022379836
000160 72 81 b5 3c 8a 34 46 3d 01 cb ab bc a2 81 2e 3d
       0.02215645 0.04838995 -0.020970823 0.042604096
000170 d5 97 9c bd c6 7b a2 bd 38 ca ed 3b d4 c9 80 3d
       -0.07646147 -0.07933764 0.0072567724 0.06288496
000180 b3 27 eb bb f5 88 eb bc 30 81 d1 bc 7f 92 74 bd
       -0.0071763634 -0.02875183 -0.025574297 -0.059710022
000190 15 a7 8f bd ff ee 87 3d ea e4 54 bd 94 72 bb 3c
       -0.0701429 0.06637382 -0.051976122 0.022881784
0001a0 fb ed 8a 3d 9c 96 6c bd 2b 00 0d bd 5a a8 98 3c
       0.067836724 -0.05776082 -0.03442399 0.018634964
0001b0 2a ce 18 3d 1d ec 1f bd a5 96 cb ba 51 25 61 3d
       0.03730599 -0.039043535 -0.0015532566 0.05496723
0001c0 9c c8 e7 3c e0 c0 34 3d 79 38 0c 3d 2a b7 9f bd
       0.0282939 0.044129252 0.034233544 -0.07798608
0001d0 62 e0 54 3d 00 12 33 3d 0a 7e 38 bd b9 ee 89 3d
       0.0519718 0.043718338 -0.045042075 0.06734986
0001e0 4e 8c ce 3c 4c 79 81 3d 08 a3 02 bd 59 a6 50 3d
       0.025213387 0.06321964 -0.03189376 0.05093989
0001f0 d6 c5 a7 bd f3 4c 5f bd 36 18 0e 3d 29 91 22 3c
       -0.08192031 -0.054516744 0.034691058 0.009922304
000200 66 0a da 3c a9 30 2d bc 48 64 30 3d 83 f2 ac bd
       0.026616286 -0.0105706835 0.043064386 -0.08444693
000210 f9 e5 a3 bd db fe 46 3d dc 1d 24 bd ad 60 94 3d
       -0.08002848 0.048582893 -0.04006754 0.07245002
000220 6f 0f 4d 3c c8 d4 90 bd c5 3f 38 3c 1b 9d 97 3c
       0.012515887 -0.07071835 0.011245673 0.01850753
000230 e7 3e 46 bd 83 29 90 3d 38 2c a5 bd c8 1e 6c 3d
       -0.048399832 0.07039168 -0.08065075 0.057646543
000240 3b b4 85 3c e1 49 32 3d 29 47 88 3d 14 b0 9f bc
       0.016321292 0.043527488 0.06654198 -0.01949314
000250 18 5e 2f 3d a3 36 a3 3d 5f 0c 10 3d 29 4a 6b bb
       0.042814344 0.079694055 0.035168048 -0.0035902357
000260 69 72 8f 3d fd 58 06 bd c4 19 93 3c 47 e4 80 3d
       0.07004244 -0.03279971 0.017956622 0.062935404
000270 57 c6 5c bd 8c b5 6b bd 6e 1a ad bb 06 d4 50 3d
       -0.05390009 -0.057546183 -0.0052826917 0.05098345
000280 c4 6a 93 3d 4b 9f e3 bc 94 25 73 bc 20 40 93 3d
       0.07198098 -0.027785918 -0.014840502 0.07189965
000290 26 2b 6c 3d af ca 26 3d 44 e3 73 3d c3 dd 08 bd
       0.057658337 0.040720638 0.05954291 -0.033414613
0002a0 6c ee 4f bd b6 15 81 3d 85 ea a0 3d c5 18 ab 3d
       -0.050764486 0.06302969 0.07857231 0.08354334
0002b0 38 3a 20 bd 18 61 ba 3c 07 e0 61 3d bf 7a a5 3d
       -0.03911802 0.022751376 0.05514529 0.080800526
0002c0 f2 c5 9c bd 45 eb 04 3d 77 b3 7c 3d 66 51 09 3b
       -0.076549426 0.032450933 0.06169459 0.0020953058
0002d0 23 f9 90 bd 8d 87 af 3d 11 d4 d2 3a 3a 49 0a bd
       -0.07078769 0.08570776 0.0016084929 -0.03376124
0002e0 d9 f9 22 bd 4d 67 eb 3c e3 5c bb 3c bf f2 14 bd
       -0.039789055 0.028735781 0.02287144 -0.036364313
0002f0 ba 9b 12 bc 47 2f 9d bc 48 f2 5c 3d 65 aa a1 bd
       -0.008948261 -0.019187583 0.053941995 -0.07893828
000300 67 9d 6b 3d 74 8f 44 bd 70 1a 15 3d b6 d9 50 bd
       0.057523157 -0.04798837 0.036402166 -0.050988875
000310 67 9b b4 3d d6 5d 5d ba 87 eb 5b 3c ff a9 74 3d
       0.08818703 -0.00084444636 0.013422853 0.059732433
000320 b5 db 66 bd 8f 77 32 bd a4 e7 ae 3d c1 18 a6 3d
       -0.056361873 -0.04357105 0.08540276 0.0811019
000330 cd 4b 6a bd 29 9d 5c bd e1 05 1f bd 4d 03 30 bc
       -0.057201196 -0.053860817 -0.038823966 -0.0107429745
000340 7d f1 c7 3c 57 ec 8d bd dc 4e a6 bd 97 eb 3b bd
       0.024407143 -0.06929844 -0.0812051 -0.045878973
000350 31 13 9c bd 53 ef a6 bd d9 75 41 bd 67 97 c1 3c
       -0.07620848 -0.08151116 -0.04723153 0.023631765
000360 65 e3 55 3d 0c 33 50 3d e3 63 8b bd 31 b0 0c 3d
       0.052218813 0.050829932 -0.06806161 0.034347717
000370 e7 51 90 bc 2e c1 b4 3d 4f ed 85 3d ed f2 9f 3d
       -0.01761718 0.088259086 0.06539404 0.07810006
000380 28 bb 1c bd 65 d4 5d bd ed ea 9c bc 8f fd 76 3d
       -0.038264424 -0.054157633 -0.01915499 0.060300406
000390 e0 ed 18 bd 90 d6 00 bd c0 0f 05 bd 35 d1 89 bd
       -0.03733623 -0.031454623 -0.032485723 -0.06729356
0003a0 9a 9f 77 bc e8 4c 86 bd d8 4d 57 3d 63 d6 1b bc
       -0.015113736 -0.065576375 0.052564472 -0.009511563
0003b0 d9 08 84 bd 5d a2 d9 3c 38 fe 26 bd 70 98 af bd
       -0.06447 0.026566679 -0.040769786 -0.08573997
0003c0 da 4a 8e 3c 38 9b 00 3d 4a 1a 05 bd 9d 34 5d bd
       0.017369676 0.031398028 -0.032495774 -0.054005254
0003d0 7c fe 31 bb ba b0 8f bc b9 19 80 bb 28 4b 91 3d
       -0.002715974 -0.017540324 -0.0039093164 0.07094413
0003e0 b2 86 19 3d c4 d9 8d bd 79 98 02 bd f0 0c 60 3b
       0.03748197 -0.06926301 -0.03188369 0.00341874
0003f0 dc 6c 9a 3d 04 3a 84 bc a6 cd 38 bd 7b 9f a3 3d
       0.075402945 -0.016140945 -0.045117997 0.07989403

gnn_node.convs.0.mlp.1.weight f4 [256]
000000 9f 4b 60 3f ec ab b4 3f 1e c7 cc 3f 57 e9 35 3f
       0.8761539 1.4114966 1.5998266 0.71059173
000010 43 6c c2 3e f4 7e d6 3e 1a db 58 3f 3a 89 3c 3f
       0.37973222 0.41893733 0.8470932 0.7364689
000020 7c 79 c6 3f de 2a ae 3e 77 fa 28 3d ee 4d fc 3e
       1.5505824 0.3401708 0.041254487 0.49278206
000030 76 15 2a 3f d6 cb b8 3f dc 69 ab 3f 0b 02 9c 3f
       0.66438997 1.4437206 1.3391681 1.2188123
000040 d2 73 9b 3f f4 7b 8c 3e 63 44 af 3f 3f 2c ad 3f
       1.214472 0.2743832 1.3692745 1.3529128
000050 f1 01 ad 3f 01 aa 6f 3f 4d 7c bf 3f 98 a4 f1 3e
       1.3516217 0.9361878 1.4959809 0.47195888
000060 7b 7d e6 3e 26 d5 12 40 be 28 31 3f 11 0c 78 3f
       0.4501761 2.2942595 0.6920279 0.9689341
000070 60 0b 9d 3f 2c 64 97 3e 4d 83 c4 3f 4a 79 f7 3e
       1.2269096 0.29568613 1.535257 0.48334724
000080 23 76 50 3f bc ae a6 3f de 83 b4 3f a6 7b b9 3f
       0.8143026 1.3022075 1.4102743 1.449086
000090 08 85 98 3f f4 5d ae 3e e0 09 c7 3e 7e 61 e1 3f
       1.1915598 0.34056056 0.38874722 1.7607877
0000a0 8a 8b 83 3f 48 ba 7c 3f 0d d7 86 3f 65 ad 6c 3f
       1.0276959 0.9872174 1.0534378 0.9245208
0000b0 9d ac 29 3f 6e 71 93 3f 5a 1b 75 3e 2a a2 af 3f
       0.6627901 1.1518991 0.23936215 1.3721364
0000c0 fd 70 b9 3f 40 32 66 3f 69 1d de 3f 28 18 b0 3f
       1.4487606 0.89920425 1.7352725 1.3757372
0000d0 76 95 b0 3f 96 0d d8 3f aa 0c 1b 3f 7e e2 47 3f
       1.3795612 1.6879146 0.605662 0.78079975
0000e0 ff 8d 1c 3f cb 64 95 3d 64 67 4b 3f 61 f2 a7 3f
       0.6115417 0.07294615 0.79454637 1.3120843
0000f0 f1 d1 eb 3e 5f 4f 6f 3e 88 19 54 3f 1c 08 45 3f
       0.4605861 0.23370121 0.8285146 0.769655
000100 fa ad a2 3f a1 cf 14 3f dc 71 d6 3f db 76 52 3e
       1.2709343 0.58129317 1.6753497 0.20553152
000110 11 b1 23 3f 9c ef e6 3e 9f f8 83 3f fc 2b 07 3f
       0.63942057 0.45104682 1.0310248 0.5280149
000120 d5 0b f2 3e da 2b 0b 3f b7 a9 b2 3f 9f f7 58 3f
       0.47274652 0.5436379 1.3958043 0.8475284
000130 3c 37 67 3f 68 92 8f 3f 01 b5 fa 3e d9 86 53 3f
       0.90318656 1.1216555 0.4896622 0.82627636
000140 ba 42 10 3f ed 58 b2 3f 77 96 9f 3f b9 29 ec 3e
       0.56351817 1.3933388 1.2467793 0.46125582
000150 0b 37 a7 3f 8d 83 a5 3f 7a c1 13 3f 68 c1 b4 3f
       1.3063673 1.2930771 0.57717097 1.4121523
000160 84 fa 25 3f 7c 48 3d 3f 7c 61 b1 3f a7 0e a1 3f
       0.6483538 0.7393873 1.3857875 1.2582597
000170 74 25 6a 3f 25 3b ec 3e d2 05 c4 3f 29 b8 f6 3f
       0.914634 0.46138874 1.5314276 1.9274951
000180 75 25 8a 3f e5 65 36 3e cd 52 44 3f 2d 81 a4 3f
       1.0792681 0.17812307 0.76688844 1.2851921
000190 7a d3 41 3f 3e 22 85 3f 98 67 7d 3f 20 d1 8c 3f
       0.7571331 1.0401075 0.98986197 1.100132
0001a0 53 08 a5 3f 12 f5 73 3f 04 1d a2 3f be e4 f6 3e
       1.2893165 0.9529582 1.2665105 0.4822139
0001b0 e3 17 99 3f b2 ed 37 3f a4 50 94 3f 3d 76 4d 3f
       1.1960415 0.7184707 1.158711 0.8025854
0001c0 e3 38 49 3f 13 6b 82 3f cb 26 af 3f f3 82 98 3f
       0.7860243 1.0188926 1.3683714 1.1914963
0001d0 dd be 55 3f 20 ef d1 3e 0c 84 af 3e 57 17 fd 3e
       0.8349436 0.4100275 0.3428043 0.4943187
0001e0 32 bd b8 3e 18 2a f5 3f a7 19 71 3f b3 50 67 3f
       0.36081845 1.9153471 0.9417977 0.9035751
0001f0 41 cc be 3f 66 48 1d 3f 52 37 e7 3e 48 6d 1a 3f
       1.4906083 0.61438596 0.45159394 0.60323
000200 3a f6 ac 3f 1e 66 cd 3e 36 b1 85 3f 90 f1 97 3e
       1.3512642 0.40116972 1.0444705 0.29676485
000210 27 04 a6 3f 93 1e 67 3f 93 36 3a 3f c2 ad e0 3e
       1.2970017 0.9028103 0.72739524 0.43882567
000220 29 a6 97 3f 6f 63 61 3e 9a 4c b4 3f bf 75 64 3f
       1.1847583 0.22010587 1.4085877 0.89242166
000230 cd d2 14 3f e4 69 a6 3e 33 46 fb 3e ad d9 b7 3f
       0.58134156 0.32502663 0.49076995 1.4363304
000240 d9 40 60 3f e5 c3 7b 3f af 9f 0d 3f f4 ec 52 3f
       0.8759895 0.98345786 0.5532178 0.8239281
000250 ba f6 c7 3f a5 81 08 40 5c 0b c4 3f cd 36 1b 3f
       1.562217 2.1329129 1.5315967 0.60630494
000260 0f 4d 33 3f 71 2a 71 3f 11 72 8c 3e 6d 8d 76 3f
       0.7003946 0.94205385 0.27430776 0.9630955
000270 8a 4b d3 3f 1f b9 17 3f 48 1f 5f 3f ad 64 60 3f
       1.6507428 0.5926685 0.87157106 0.8765362
000280 49 35 b3 3e d4 44 86 3f a8 53 75 3f 56 13 24 3f
       0.3500159 1.0489755 0.95830774 0.64092004
000290 42 23 ce 3f 03 e4 f1 3e 9d 27 ab 3f b4 43 8c 3f
       1.610451 0.47244272 1.3371464 1.0958161
0002a0 b1 50 af 3f 99 07 9b 3e f3 9a 42 3f 03 d0 d9 3f
       1.36965 0.30279234 0.76017684 1.7016605
0002b0 bf 71 2c 3f 42 82 87 3f a7 c0 33 3f 5b 55 24 3f
       0.6736106 1.0586627 0.7021584 0.6419274
0002c0 f7 b8 92 3f d6 77 f8 3e 20 e3 7a 3e 7f b8 be 3f
       1.1462697 0.48528928 0.24500704 1.4900054
0002d0 ae 66 b3 3f 18 d8 f6 3e 2e 4e b4 3f 32 69 2b 3f
       1.401571 0.4821174 1.4086359 0.6695739
0002e0 52 51 a6 3f e0 f3 59 3f db 1d 9f 3f f9 73 10 3f
       1.2993567 0.8513775 1.2430986 0.5642696
0002f0 55 ff 94 3f 3b 4e e1 3f 28 7c a0 3f 05 7a 2c 3f
       1.1640421 1.7601999 1.253789 0.6737369
000300 b8 71 a6 3f 5e 54 a4 3f 94 de 84 3f 9c 81 ef 3f
       1.3003454 1.2838247 1.0380425 1.8711429
000310 6b 72 d2 3f 5e 01 9c 3f 7f 90 a7 3f 4e 89 da 3e
       1.6441168 1.2187917 1.3090972 0.4268288
000320 70 7f 6e 3f 82 a4 6b 3f f7 c3 9c 3f 16 f4 8d 3e
       0.93163204 0.92047894 1.2247304 0.27725285
000330 31 2d 3d 3f 05 07 d2 3e c4 08 67 3f 16 8a 92 3f
       0.7389708 0.4102098 0.9024775 1.144839
000340 cd 66 d6 3e a8 d5 a8 3f 69 0e 6f 3f 35 bc 6e 3f
       0.41875306 1.3190203 0.93381363 0.9325593
000350 a7 e0 f3 3e 49 c6 42 3f bc d6 80 3f 75 cc e1 3f
       0.47632334 0.7608381 1.0065532 1.764052
000360 a7 5c 88 3f 02 b4 c4 3f 93 b9 a5 3f 11 9e 02 3f
       1.0653275 1.5367434 1.2947258 0.5102244
000370 4f 3e e4 3e ac 2b 1d 3e e1 f6 83 3f 42 ed 93 3f
       0.44578788 0.15348691 1.0309716 1.155678
000380 dd cb 99 3f f8 b8 b3 3e 55 1b 92 3f 99 90 d4 3e
       1.2015339 0.35102057 1.1414591 0.4151657
000390 a1 72 a9 3f 45 81 fa 3e 8b a5 95 3f a6 89 cb 3f
       1.3238107 0.4892675 1.1691145 1.5901382
0003a0 10 d0 b0 3e 2e 1e 5f 3f 31 12 8a 3f 06 f1 66 3f
       0.3453374 0.87155426 1.0786802 0.9021152
0003b0 3f a0 d5 3f 6e 3a f4 3f ee 6d 3b 3f b8 30 55 3f
       1.6689528 1.9080331 0.73214614 0.83277464
0003c0 6f 53 aa 3e 56 df 4c 3f a6 0f d1 3e 89 e0 5b 3f
       0.3326678 0.80028284 0.4083225 0.8588949
0003d0 8b 46 b0 3f 46 78 2a 3f 84 a5 ce 3f ea 40 93 3f
       1.3771528 0.6658977 1.6144261 1.1504185
0003e0 49 e8 e4 3e 4f 66 98 3f b9 dd a9 3f 1f e3 45 3f
       0.4470847 1.1906222 1.3270789 0.77299684
0003f0 76 81 9b 3f 98 27 dd 3f 27 15 86 3e ec ba ac 3f
       1.2148883 1.7277708 0.26188013 1.3494544

gnn_node.convs.0.mlp.1.bias f4 [256]
000000 1d 24 d8 3e 2d 49 14 be 06 52 c5 bc c9 8a b2 3d
       0.42215052 -0.1448104 -0.024086963 0.087178774
000010 5d 5b 55 3e 9c ba 11 3f 3a b5 07 bf b4 e6 a6 be
       0.20835634 0.5692537 -0.53010905 -0.32597888
000020 f0 50 ae 3d d7 ea d8 be 00 ce e9 be e6 80 1c 3f
       0.08511531 -0.4236667 -0.45664978 0.61134183
000030 d3 e8 cf be ef 63 0b be 5d af a9 3d 2e df 87 3e
       -0.40607318 -0.1361234 0.08285401 0.2653746
000040 70 05 d8 be e0 45 24 bf 7f 08 a8 be 1f a8 69 be
       -0.42191648 -0.6416912 -0.32818982 -0.2281804
000050 e2 81 8f be d3 1f 38 3f a9 72 b8 be a6 a5 5a bf
       -0.2802878 0.7192356 -0.3602498 -0.8540901
000060 f8 3d f4 be 28 53 17 3f 66 cb 67 3e 71 3e 55 be
       -0.47703528 0.5911126 0.22636184 -0.20824601
000070 2f 49 df 3d 84 6f d2 3d 07 92 7e bd d2 0a 97 3e
       0.109026305 0.10275176 -0.06215098 0.29500443
000080 9b 01 a0 3e 01 b7 48 be 39 11 27 bd 5e 2e 94 be
       0.31251225 -0.1960106 -0.04078791 -0.28941625
000090 f3 4d 54 be bb bd 01 3e 87 3a 1f 3f a3 1a c8 bc
       -0.2073286 0.12670033 0.6219868 -0.024426764
0000a0 6f 62 39 be 43 01 e0 3e b1 a6 9b be cb 06 2d 3d
       -0.18103956 0.43750963 -0.30400613 0.042242806
0000b0 b1 63 95 bf eb 37 09 be 20 8e 42 3d 2e bc bf be
       -1.1671048 -0.13400237 0.047498822 -0.37448257
0000c0 3e 62 ac be 22 34 1a 3e d9 a3 a7 3d 1e 35 c8 bd
       -0.33668703 0.1505895 0.08185548 -0.09775756
0000d0 0e a4 11 be a3 a6 d5 bb 03 e8 3e bf 14 aa f7 be
       -0.14222738 -0.006520109 -0.7457277 -0.48371947
0000e0 d6 55 e0 bc 89 02 91 bd 14 89 67 be 30 74 c6 be
       -0.02738468 -0.07080562 -0.22610885 -0.3876052
0000f0 40 c4 2b bd b6 4f ad 3d ee f7 13 3e 11 e8 93 be
       -0.041935205 0.08462469 0.14450046 -0.2888799
000100 9f e9 2e be 89 cb 05 be d9 b5 2e bd 02 8c 10 bf
       -0.17081307 -0.13065924 -0.042653892 -0.56463635
000110 25 11 9a 3e ad 44 b4 bd 97 4f 19 be 36 ab 19 be
       0.30091205 -0.08802161 -0.14971767 -0.15006718
000120 04 7b 0e bf 21 a7 ba be 0c 3b 76 3d 60 e5 8d be
       -0.55656457 -0.36455634 0.060114905 -0.27714062
000130 2e 6b 65 be 0f a1 92 be 02 fc ae bd f7 25 b2 3c
       -0.22404167 -0.28638503 -0.085441604 0.021746619
000140 c2 e3 27 bd 9e 42 e7 bd f4 af 80 be e3 b6 c1 be
       -0.04098869 -0.11292003 -0.25134242 -0.37834844
000150 3b 24 09 bd e9 ea d6 bd 07 28 df be 27 3c 2e be
       -0.033481818 -0.10494024 -0.43585226 -0.17015134
000160 54 dc dc be 3f 2b 62 be ee 4e a0 bd 19 30 8a bc
       -0.43136847 -0.2208681 -0.07827555 -0.016868638
000170 f0 1b cb 3e de 91 b7 be ec 97 a5 3e 7d ec bf 3d
       0.39669752 -0.35853475 0.3234247 0.093712784
000180 d8 1e e8 be ee e8 59 bd 9d 61 60 be 98 8a 14 3c
       -0.45336032 -0.053200655 -0.21912237 0.009066246
000190 10 cc ba bd 7f d3 b9 bd 2f 28 ab 3e 6f 57 64 be
       -0.09120953 -0.09073543 0.33429095 -0.22298978
0001a0 af 9f b7 be 4a b5 a8 bd 4f c9 90 be 92 45 61 bd
       -0.35864016 -0.08237703 -0.28278586 -0.054997988
0001b0 82 bf a9 3e bf 27 2a bd 70 72 c6 be ee 8d eb be
       0.3315392 -0.04154181 -0.38759184 -0.4600672
0001c0 54 4c df 3d 1a a7 78 3e 3e 0f 7f bd 13 2a 1e be
       0.1090323 0.24282494 -0.062270395 -0.15445738
0001d0 27 69 02 be 8a b4 c3 bd 9a e1 9f 3d 27 38 26 bf
       -0.12735425 -0.095559195 0.07806702 -0.6492943
0001e0 b1 d0 41 bd 74 bb 56 3e d3 d1 0d 3f 5f 34 4b bd
       -0.047318164 0.20969945 0.5539829 -0.04961049
0001f0 75 e1 a8 39 70 ef 2a be f9 1c e8 be 66 69 c7 be
       0.00032211436 -0.166929 -0.45334604 -0.389476
000200 57 01 b5 be b1 ec ea 3e db ee e7 be 7e af df 3e
       -0.35352585 0.45883706 -0.4529942 0.43688577
000210 0f e6 fc 3d cc 24 cb be 0a e6 d9 be 6e cd b1 3d
       0.12348568 -0.3967651 -0.42558318 0.08681761
000220 cc 16 6d bd ba 32 b7 3e ed e9 74 be ea 3e fb bd
       -0.05788307 0.3578089 -0.2391736 -0.12267859
000230 70 d1 88 bc bf 87 ed be ab 70 c0 3e 2d d3 f5 3c
       -0.01670143 -0.4639263 0.3758596 0.030007923
000240 5e 70 83 be 47 0c 65 3d d1 c5 54 3c 0e 64 c9 3e
       -0.25671667 0.05591991 0.012986616 0.39334148
000250 6c 00 57 3e 48 26 81 3e 89 b1 48 3e bf 15 0b 3c
       0.20996255 0.2522452 0.19598974 0.008489071
000260 d7 ac b8 be d5 dc 48 3e b2 8a 38 3e 71 c1 2a be
       -0.36069366 0.1961549 0.18021658 -0.16675355
000270 98 d6 0b be 44 c0 5b be 08 2c 40 3f 88 ab f9 be
       -0.1365608 -0.21460062 0.75067186 -0.4876368
000280 3f ba 39 bf d1 65 d8 bd a5 9d 51 be 2c 4b 86 be
       -0.72549814 -0.10566295 -0.20470293 -0.26229227
000290 50 5d ef 3d 95 31 7b 3e f5 7a 3c be 96 a2 28 3f
       0.1168772 0.24530633 -0.1840628 0.65873086
0002a0 7e 97 84 bd 4f e7 1c be eb 7d 2f 3e 9c 4d 7d 3d
       -0.06474207 -0.15322612 0.17137878 0.061841592
0002b0 e6 26 1b 3d cb f3 9c 3c 99 d5 84 3e 34 0d 44 3c
       0.037878893 0.019159218 0.25944212 0.0119660385
0002c0 ea 8c e3 be f6 b7 81 bd f6 ff 1d bf 4d 22 eb bd
       -0.44443446 -0.06333916 -0.6171869 -0.11481152
0002d0 d8 52 69 be c6 31 cd be 74 87 78 bd 21 46 50 bf
       -0.22785509 -0.40077037 -0.060676053 -0.8135701
0002e0 8e 3c d7 be 2b 17 c6 be 4a 82 07 3f 24 b8 87 3e
       -0.42038387 -0.3868955 0.5293318 0.26507676
0002f0 d6 62 b2 be fc 0e 23 3e 1e f8 ad bd 90 7b 00 be
       -0.3484103 0.15923685 -0.0849459 -0.12547135
000300 c5 be cb bd ee 10 81 be ec 3c 59 be 2c 59 c9 3d
       -0.09948496 -0.2520823 -0.21214646 0.09831461
000310 87 fd ca 3d b0 db c5 be 14 a6 7f be 19 ef 13 bf
       0.09911638 -0.3864417 -0.24965698 -0.5778671
000320 43 8a 36 3e d6 f0 19 be fe 84 b1 be d3 b9 1b bf
       0.1782618 -0.15033278 -0.34671777 -0.6083042
000330 12 b1 a2 be 87 28 ff 3e 17 0b c0 3c 5b c0 c6 bd
       -0.3177572 0.49835607 0.023442788 -0.09704658
000340 63 66 c6 3e 20 5d 65 3d 22 f9 07 bf 32 3e f7 be
       0.3874999 0.055997014 -0.5311452 -0.4828964
000350 a0 10 0e bf 62 10 36 bf c0 b6 7e be 22 de 34 3e
       -0.5549412 -0.7111875 -0.24874401 0.17662862
000360 97 bb fa 3e bd de 47 be e7 3b 06 be 05 d3 92 bf
       0.48971245 -0.19518562 -0.13108788 -1.1470648
000370 dc 59 69 3e 87 12 a4 be 98 b4 08 3f f7 d3 c7 be
       0.22788185 -0.32045385 0.53400564 -0.39028904
000380 2a 26 04 38 a8 c7 07 3f 9b 91 3a be a6 05 d6 bd
       3.1506795e-05 0.53039026 -0.18219607 -0.10450296
000390 6d c3 a4 3d 89 52 b0 be a7 65 86 bd 4a 95 d0 3e
       0.08045087 -0.3443797 -0.065623574 0.407389
0003a0 f9 d4 4e 3d 0e dd 5b be 9d 18 be bc 83 ed 24 3f
       0.050496075 -0.21471044 -0.023205096 0.64424914
0003b0 44 e8 a7 bb 47 12 3e 3e 98 25 f3 be b6 70 0d bf
       -0.0051241238 0.1856166 -0.4748962 -0.5525011
0003c0 17 e6 46 bf 5d 7f 23 be f2 79 93 bd ec 60 db 3e
       -0.7769484 -0.15966554 -0.072009936 0.42847383
0003d0 76 9c 74 3e 8d b5 0a 3f 86 c9 01 3d 33 96 38 bc
       0.2388781 0.54183275 0.03168633 -0.011266279
0003e0 90 72 f6 3d 71 05 59 be 0e 82 61 be e6 e9 bf 3e
       0.1203357 -0.21193482 -0.22022268 0.37483138
0003f0 d8 60 9a 3e b5 3a e0 3d 3d 64 ff 3d f2 c9 c4 be
       0.3015201 0.109486975 0.12470291 -0.38435322

gnn_node.convs.0.mlp.1.running_mean f4 [256]
000000 bb c6 0b 41 ad 47 6c c0 ce c4 1e 40 cc 39 9d bf
       8.736018 -3.6918747 2.480762 -1.2283263
000010 12 f7 ed be fb b4 09 41 39 72 36 41 0b 2e 44 c0
       -0.46477562 8.606685 11.402886 -3.0653102
000020 1e 48 a8 3f cc 9c a8 3c 17 09 62 3f 80 e5 60 40
       1.3147008 0.02058258 0.8829512 3.5140076
000030 1a ba fc 3e b0 ea 17 c1 fa 99 a4 40 f6 57 12 41
       0.49360734 -9.494797 5.143796 9.146475
000040 3a 1f 1d c1 61 ac dd 40 20 36 58 c0 4e d8 3a c1
       -9.820124 6.9272923 -3.3783035 -11.677809
000050 2d 0c 19 40 91 51 b9 bf e5 0d 08 c0 72 05 16 40
       2.3913682 -1.4478017 -2.125848 2.3440824
000060 e0 f7 b4 40 2e 5f f0 c0 a4 a1 48 bf 4c ac c2 c0
       5.655258 -7.5116186 -0.78371644 -6.0835323
000070 17 f9 6e 3f c4 fa 9d bf a2 30 a0 3e bd 35 c9 bd
       0.9334883 -1.2342153 0.31287104 -0.09824703
000080 92 e8 aa bf 65 26 5e 3f 10 47 bf 3f af eb 86 3e
       -1.3352225 0.86777335 1.4943562 0.26351687
000090 1d 72 07 c0 27 f3 6a 40 33 ae 16 41 5d 42 d8 c0
       -2.11634 3.6710908 9.417529 -6.758101
0000a0 ed f1 c8 c0 8c 56 e4 c0 2c 97 d9 c0 38 6d ba c0
       -6.279532 -7.135565 -6.7997036 -5.8258324
0000b0 a5 0f 43 41 bc a0 ae c0 0f 2d a6 40 47 e9 0f 40
       12.191319 -5.457121 5.1930003 2.248613
0000c0 4c 5c 83 3f b9 3b 82 3f 35 a5 04 c1 bd 06 7d c0
       1.0262542 1.0174476 -8.290334 -3.9535363
0000d0 31 79 a7 c0 27 26 24 c1 bc bb 29 41 cd 25 2a 41
       -5.233544 -10.259315 10.608334 10.634229
0000e0 9c c5 88 be a9 51 99 c0 a9 f0 03 c1 50 47 36 c0
       -0.26713264 -4.7912183 -8.246255 -2.8481026
0000f0 4d 12 06 c0 c2 85 4b 40 e0 b6 ae 40 9c 06 a1 bf
       -2.094867 3.180039 5.4598236 -1.2580142
000100 59 3c 4e 3f 41 66 f5 c0 04 65 da 40 be 0d 95 40
       0.80560833 -7.668732 6.824831 4.6579275
000110 91 84 2f bf fb 18 25 41 4b 70 8e 3f dd f9 94 c0
       -0.68561655 10.318599 1.1128019 -4.655501
000120 f0 c1 04 41 86 48 26 c0 9b 86 a8 3e a6 ca ca c0
       8.297348 -2.5981765 0.32915196 -6.3372374
000130 61 e3 28 c1 4e b4 a5 3e df 34 29 41 3f e0 39 c1
       -10.555512 0.32364124 10.575408 -11.617248
000140 a5 bb cf be a2 94 04 c0 f1 2c bf c0 56 59 29 c0
       -0.4057285 -2.0715718 -5.974236 -2.6460776
000150 6b 1d 4e be 46 7d e7 40 40 00 ca 3f 16 d4 30 c0
       -0.2012841 7.234042 1.5781326 -2.7629447
000160 6a 96 18 41 8b f6 d0 be 13 98 22 40 21 fd 4b 3f
       9.536722 -0.40813097 2.5405319 0.7968312
000170 5d 2d 4b 40 f2 7c ad c0 82 69 b0 3f dc 17 25 c1
       3.1746438 -5.421502 1.3782198 -10.318325
000180 8b d5 43 c0 41 fd a1 40 7c 26 1b 3e 11 c4 07 c0
       -3.0599086 5.062165 0.151514 -2.121342
000190 99 2c 27 c1 03 2f 7c 40 d4 38 f4 40 0b 16 0a c1
       -10.448388 3.9403694 7.631937 -8.630382
0001a0 d7 4d 3f c0 50 72 e7 be b6 49 65 c0 e5 fc 1c 41
       -2.989126 -0.452044 -3.582624 9.811742
0001b0 16 f0 00 c1 43 89 2b c1 75 9b b7 bf 95 22 86 c0
       -8.058615 -10.721011 -1.4344317 -4.1917214
0001c0 06 cb d9 bf ed 6c 6c 40 b9 8a 89 3e ff b0 e2 be
       -1.7015083 3.6941483 0.2686365 -0.44275662
0001d0 3a ec 1d c1 b8 46 21 3f 12 91 45 bf 6d a2 f1 3f
       -9.8701725 0.62998533 -0.77174485 1.8877693
0001e0 69 92 b3 c0 88 1c 51 c0 58 b7 8c 3f c6 70 25 c1
       -5.6116223 -3.2673664 1.0993452 -10.340033
0001f0 ce 8f 7e c0 66 82 21 c1 39 12 16 41 b3 f5 5a c0
       -3.9775271 -10.094336 9.379449 -3.4212463
000200 d7 ff 75 c0 77 69 63 40 7c 42 61 c0 c0 91 b2 bf
       -3.8437402 3.553312 -3.519683 -1.3950729
000210 8a b8 54 40 00 64 e2 c0 a2 9b a5 c0 29 c5 10 41
       3.3237634 -7.074707 -5.175248 9.048135
000220 59 24 07 c1 b1 40 0f 41 08 14 91 3e fb a3 9e c0
       -8.446374 8.953294 0.28335595 -4.957517
000230 7c 01 89 c0 65 00 ca 40 56 60 80 c0 86 98 ac c0
       -4.281431 6.312548 -4.0117598 -5.3936186
000240 ff 46 2b c1 67 75 14 3e 66 b2 b2 40 8b a9 89 40
       -10.704833 0.1449791 5.584277 4.301946
000250 57 aa 12 c1 b7 36 16 c1 53 1b 8c c0 52 aa 4a 3e
       -9.166587 -9.388358 -4.3783355 0.19791535
000260 df a5 91 c0 73 d3 ee 40 31 96 da 40 78 92 ef 3e
       -4.551498 7.4633117 6.830834 0.46791434
000270 71 c2 a9 bf c9 86 0a c1 93 ba b6 bf bf dc ca bf
       -1.3262464 -8.657907 -1.4275688 -1.5848616
000280 af e9 03 41 bf 77 28 bf 46 29 ed bd 4d 04 a7 bf
       8.244552 -0.6580772 -0.11580138 -1.3048187
000290 b8 cb a0 c0 21 c2 d2 3f 0f 55 12 c1 20 59 ac bf
       -5.024868 1.6465493 -9.145766 -1.3464699
0002a0 51 10 ba 3e 04 6b c0 c0 78 11 1c bf e4 09 fc c0
       0.36340573 -6.0130634 -0.60964155 -7.8762074
0002b0 ff 54 48 c0 b7 da aa 3f 70 23 b9 40 57 76 92 c0
       -3.1301877 1.3347996 5.785576 -4.576946
0002c0 87 81 19 c1 7c 9e 57 be 4b fd a5 40 27 52 19 c0
       -9.594123 -0.2105655 5.1871696 -2.3956392
0002d0 87 61 80 bf 57 0f 89 c0 e7 65 d0 40 73 1b 25 41
       -1.0029763 -4.2831225 6.5124393 10.319201
0002e0 b5 95 f9 c0 a7 41 34 41 0b 96 1e 41 1a 27 c5 3f
       -7.799525 11.266028 9.911632 1.5402558
0002f0 d2 95 a5 c0 88 a0 28 c1 e8 a8 cb 3f 9d e5 94 c0
       -5.1745386 -10.539192 1.5910921 -4.653029
000300 dc 0f 79 3f 96 fd 00 40 dd bd 65 3f 1e 21 19 c1
       0.97289824 2.0154777 0.89742833 -9.570585
000310 5c ed 14 c1 f8 d8 10 c0 80 8d c4 3f 17 34 b6 40
       -9.307949 -2.2632427 1.5355682 5.6938586
000320 15 49 e8 3f 8b 5a 9b 3e 1d c5 05 c1 ca 1a 17 41
       1.8147303 0.30342516 -8.360623 9.44404
000330 1c ca 85 c0 6f a5 b8 40 03 7b 35 40 66 b8 af c0
       -4.1809216 5.7701945 2.835633 -5.4912596
000340 c0 06 15 41 93 29 08 c0 c7 16 e9 bf 5c dd a6 c0
       9.314148 -2.1275375 -1.8210076 -5.2145214
000350 d7 df 82 40 7e e9 42 41 21 d3 28 c0 62 38 1c c1
       4.089824 12.182005 -2.6378863 -9.763765
000360 d1 c1 ad 3f 45 09 e6 bf 09 5c 52 bf bf 8c 0f 41
       1.3574773 -1.7971579 -0.82171685 8.971862
000370 55 6b 09 41 5c d2 0c 41 17 eb a7 40 b4 df 93 bf
       8.588704 8.801357 5.2474475 -1.1552644
000380 af 0a bd 40 43 c4 df 40 d1 65 48 c1 57 12 c1 40
       5.907554 6.9927077 -12.5248575 6.0334888
000390 ae 0a 9d c0 0a eb 4f 41 1c 5e c4 c0 e3 1a b6 c0
       -4.9075537 12.994883 -6.136488 -5.690782
0003a0 4a c6 40 41 c6 b3 a6 3f b2 eb 18 c1 5a 0b 34 bd
       12.04841 1.3023612 -9.557543 -0.04395614
0003b0 a7 4c b4 c0 a0 14 20 c1 84 0e 27 41 d6 a0 16 41
       -5.634357 -10.005035 10.441044 9.414267
0003c0 da 9d 9b 40 ca 6f c6 40 9e be d3 40 0b 54 56 40
       4.863019 6.201146 6.6170187 3.3488796
0003d0 24 36 01 c1 52 3f 18 41 f5 57 3b c1 48 79 83 c0
       -8.075718 9.515459 -11.708974 -4.108555
0003e0 63 0b 40 c0 64 49 99 c0 f3 b4 11 c1 6c 17 cb 40
       -3.000695 -4.790209 -9.106677 6.346609
0003f0 a3 41 5f c0 8a 72 3f c1 c8 24 39 40 8c 23 d0 c0
       -3.4883811 -11.965464 2.89287 -6.504339

gnn_node.convs.0.mlp.1.running_var f4 [256]
000000 ad a5 21 42 14 19 74 42 51 10 82 42 38 f6 45 42
       40.411793 61.02449 65.03187 49.490448
000010 99 4e 16 42 e8 8d e3 41 23 56 33 41 f6 c8 23 42
       37.576756 28.44429 11.208529 40.94625
000020 21 ba 99 41 2b c1 f6 41 f1 77 c3 40 27 53 a0 41
       19.215883 30.84432 6.1083913 20.040602
000030 df 6b 39 42 a4 43 74 42 cc 4e 24 42 3a a5 32 42
       46.355343 61.066055 41.07695 44.661354
000040 3a b2 33 41 fe e4 68 41 74 a6 69 42 1c 35 7e 42
       11.231012 14.555906 58.41255 63.551865
000050 7e 08 d3 42 66 d3 4e 42 bd 1c 5b 42 a1 67 6d 41
       105.51659 51.706444 54.778065 14.8378
000060 95 3b 31 42 af 92 50 42 33 33 ed 41 d0 5f a3 42
       44.308186 52.143246 29.65 81.68713
000070 45 c6 b0 41 f1 d8 88 41 11 21 9c 42 82 e8 a5 41
       22.096811 17.105928 78.06458 20.73853
000080 d1 ba 0e 42 93 cc c3 42 ac c2 87 42 1c 8b 86 42
       35.682438 97.89956 67.88022 67.2717
000090 e6 16 c2 42 86 67 0c 42 6f f2 30 42 b4 fd d8 42
       97.04472 35.101097 44.23675 108.495514
0000a0 4a e2 e2 41 77 8c 00 42 dd b6 db 42 34 86 00 42
       28.360493 32.137173 109.857155 32.131058
0000b0 28 ed 84 41 9f 9e d2 41 2c 61 f1 41 3b 3f aa 41
       16.615799 26.327452 30.172447 21.280874
0000c0 91 83 94 41 53 c0 28 42 48 87 8a 42 c4 dc 9f 42
       18.564241 42.187817 69.26422 79.93118
0000d0 50 b4 5b 42 40 ef 83 42 b2 c6 0a 41 8e a6 4c 41
       54.926086 65.967285 8.67351 12.790663
0000e0 59 a9 b8 41 fb 04 23 41 71 2b 8e 41 af 6a 7e 42
       23.08269 10.188716 17.771212 63.604183
0000f0 3d 9c bd 41 72 31 51 42 4a c2 6d 41 83 16 01 42
       23.701288 52.298286 14.859934 32.271984
000100 4d b6 8d 42 18 40 0c 42 2b 9a 67 42 90 47 35 41
       70.85606 35.06259 57.900555 11.329971
000110 2d a9 a8 41 17 f1 b8 42 41 57 c3 41 97 3b 05 42
       21.082605 92.47088 24.417604 33.308193
000120 67 c3 3b 42 5d 5f 91 41 89 42 91 42 33 76 60 42
       46.940823 18.171564 72.62995 56.11543
000130 cd 8f 91 41 37 11 35 42 1a 5e ca 41 39 d4 9c 41
       18.195215 45.26681 25.295948 19.603624
000140 df b2 a8 42 ac 38 a3 42 24 2c 5b 42 b2 fc 90 41
       84.34936 81.61069 54.793106 18.123386
000150 aa 2c 28 42 36 ad a0 41 77 0b 8a 41 29 bf d1 42
       42.043617 20.084576 17.255598 104.87336
000160 05 90 03 41 9f 5f 0e 42 51 4b 38 42 5f 71 cc 41
       8.222661 35.59338 46.07355 25.555357
000170 16 a7 db 42 c5 81 28 42 e3 d7 d7 41 63 94 14 43
       109.82634 42.126728 26.980413 148.57964
000180 d4 ec 39 42 12 71 14 42 50 f2 3d 42 c1 68 63 42
       46.481277 37.11042 47.486633 56.8523
000190 2b 57 b5 41 af af a6 42 d0 c7 e4 41 0e ea 49 42
       22.667562 83.34313 28.597565 50.47857
0001a0 85 36 4a 42 5f a5 87 42 14 bb 74 42 d4 26 51 42
       50.55324 67.82299 61.182693 52.287918
0001b0 2f 46 f6 41 20 8d af 41 58 82 85 42 3b 66 c3 41
       30.78427 21.943909 66.75458 24.424917
0001c0 65 78 26 42 07 63 0b 42 05 f6 0e 42 ca 63 33 42
       41.617573 34.846706 35.740253 44.84745
0001d0 ae e6 da 41 91 d2 17 42 ca ef 97 41 63 7a c5 41
       27.362637 37.95563 18.992085 24.68476
0001e0 2e 25 a4 41 16 b7 c5 41 cf d6 14 42 f9 6c bc 41
       20.518154 24.714397 37.209774 23.55321
0001f0 dc 4e 84 42 ac 05 dd 41 f6 77 70 41 79 1f fd 41
       66.15402 27.62777 15.029287 31.640368
000200 8d a7 f7 41 b3 df a7 41 75 12 04 42 f1 94 87 41
       30.956812 20.984228 33.018024 16.947725
000210 0c 17 af 41 d3 46 22 41 d8 5d 05 42 79 1a 3d 42
       21.886253 10.142291 33.341644 47.275852
000220 e5 2c 3e 42 96 16 6a 42 0e bb f4 42 3f bf 3f 42
       47.543842 58.522057 122.36534 47.936764
000230 1d a2 c3 41 12 b2 25 42 b1 29 bd 41 6a 3f e7 41
       24.454157 41.423897 23.645357 28.905964
000240 10 9b 9f 41 13 97 b2 41 d9 b8 01 42 01 98 db 42
       19.950714 22.323767 32.430515 109.79688
000250 e5 23 58 42 b2 2f 05 43 8a 7a bd 42 a2 06 bc 41
       54.035053 133.18631 94.739334 23.503239
000260 2a b2 d4 41 1d bf 29 41 c4 1e 94 42 59 09 86 42
       26.586994 10.6091585 74.06009 67.01826
000270 51 e5 48 42 ac e1 84 41 71 66 71 41 10 f4 c0 41
       50.22394 16.610191 15.08751 24.119171
000280 b7 98 4e 41 74 bd e2 41 e0 78 54 42 4b d6 18 42
       12.912284 28.342506 53.118042 38.20927
000290 c8 ae 82 42 9d 96 33 41 95 41 88 42 c5 d0 4d 42
       65.34137 11.224271 68.12809 51.453876
0002a0 1c 84 ae 42 b7 1d 5d 41 02 03 03 42 86 0d f2 42
       87.258026 13.819755 32.752937 121.02641
0002b0 74 0d 24 42 d1 b4 00 42 30 4b b0 42 1e b8 13 42
       41.013138 32.17658 88.14685 36.929802
0002c0 d3 4c 3c 42 fd 67 4d 41 c8 68 52 41 ff cc 9d 42
       47.075024 12.837888 13.150581 78.90038
0002d0 cc 7d 1a 42 7c 3f 8a 41 04 7d b3 41 e2 31 83 41
       38.62285 17.280998 22.436043 16.399357
0002e0 90 c8 0b 42 6a e5 17 41 68 ee 85 42 e7 a4 39 42
       34.94586 9.493509 66.96564 46.411037
0002f0 50 94 f8 42 df 50 c6 42 bd bf 5d 42 75 5e 6d 42
       124.28967 99.15795 55.437244 59.342243
000300 43 79 1a 42 89 55 79 42 21 b2 ae 41 f9 18 b2 42
       38.61842 62.33353 21.836977 89.048775
000310 54 da 4f 42 ef 98 2a 42 6b 1c ea 42 ec f8 2a 42
       51.96321 42.64935 117.055504 42.743088
000320 09 9d 69 41 62 c4 d8 41 24 09 c2 41 51 ca d9 41
       14.600839 27.09589 24.254463 27.223787
000330 c7 28 e8 41 c6 19 1a 42 b8 82 10 42 ec c3 e7 41
       29.01991 38.52517 36.127655 28.970665
000340 58 4c 21 42 5b e0 10 42 d4 57 e7 41 49 16 98 42
       40.324554 36.219097 28.917885 76.043526
000350 c6 ca 62 42 a1 eb f2 40 55 ac 6d 42 32 d6 bc 42
       56.69802 7.5912633 59.418293 94.41835
000360 81 e5 68 42 f9 41 6c 42 cf 10 ce 42 7d cd 8a 41
       58.224125 59.064426 103.03283 17.350336
000370 6d 4d 02 42 de 3b 57 41 e4 88 37 42 f4 4d 6d 42
       32.57561 13.452116 45.883682 59.326126
000380 85 9f e3 41 22 15 06 42 8c 42 49 42 90 29 91 41
       28.45289 33.520638 50.314987 18.145294
000390 f5 cb 36 42 f6 7e fb 41 18 fc c0 42 9e 5a d6 42
       45.699177 31.436993 96.49237 107.17699
0003a0 7d 8e 2e 42 dc 61 6b 42 18 c2 1b 42 2d a3 9e 42
       43.63915 58.845566 38.939545 79.3187
0003b0 99 33 2b 43 81 fa cd 42 3a 10 6b 41 47 ed 85 41
       171.20155 102.989265 14.691462 16.740858
0003c0 8b 74 6d 41 0e 9b ac 41 7c e2 2c 42 c2 33 52 42
       14.840953 21.57571 43.221176 52.550545
0003d0 da ac c5 42 29 bc 29 42 d6 a4 70 42 29 32 07 42
       98.8376 42.43375 60.160973 33.798985
0003e0 f9 1a b4 41 cd e0 22 42 f6 d8 a0 42 50 f9 07 42
       22.51317 40.719532 80.42375 33.99347
0003f0 9c c3 2e 42 3e 1b 7c 42 cd 1e 67 42 c7 39 19 42
       43.691025 63.026604 57.78008 38.306423
