checkpoints/C_epoch_50.pth (torch, 843938 bytes, 48 tensors)

gnn_node.node_encoder.weight f4 [1, 128]
00000000: d841 353f 5024 82bf 4087 6dbe 0d5c 043e
00000010: 29c2 333d 8509 0cbe 9acc 203d 5509 d1be
00000020: db9b 343f 2c7d 6cbe 72a3 c7be b182 123f
00000030: d1d6 87bf 1315 fd3d 9c6e 263f 966a 2abd
00000040: ccb3 a5bf 136f 67bf d06f 763e a087 5fbf
00000050: 4bd5 adbf 263f 203e a64f a33d a552 75be
00000060: 1a30 3ebe e587 babf 9644 60be 74db 25bf
00000070: 440d 563f e3bc 33bd e23d 893e 77a5 12c0
00000080: 90c7 c3bf 877c 7f3e b0c5 0dbf 5336 283f
00000090: 4b70 0bc0 58e6 80be 922a 273f db1d 16be
000000a0: 50bf 9cbf 0cc6 9dbe c0bf 6fbf a9a9 ffbf
000000b0: 86f5 77be d4e7 aabd 5a22 83be f06d 74bf
000000c0: 2e8c 13bf 2055 473c 2843 9cbf 9899 a5bf
000000d0: d656 f8be bf84 083f 98fd 31bf c399 d33e
000000e0: 6b2f b7bf bd25 543f a25f c8bb edbe fa3e
000000f0: 3a14 e3bd e823 56bf e5a6 edbe ac46 18bf
00000100: e605 11c0 dd89 d4bf f589 71bf 8d8b 563e
00000110: 8d08 9c3e 9caa 4d3d 0e6f 98be 8058 5abf
00000120: bcd0 c23d d85f e6bf 8bf8 15bf dd95 b23e
00000130: 2bd6 c8bf d390 82be 623a d0be 9eb6 afbf
00000140: baf0 9ebf d380 45be 73e9 b6bd fc86 37bf
00000150: 2381 10bf 396f 983e df88 a53e 8bf2 5fbf
00000160: e5ce 883f b742 94be 8198 793f 5224 2bbf
00000170: d53e 863f 4aee b0bf 38e2 d5bc 36a6 2f3e
00000180: de5b eabd eb78 a03e 79d3 3fbf f390 353f
00000190: 62b5 aabe 8ecc 13bf 0b85 bf3f 0c85 f43e
000001a0: c7b4 533e 363d 483f c57d 193f aef7 babf
000001b0: b3da ee3e 00b0 a0bf 4559 d53d 9fe6 9abe
000001c0: 8c7e 21be cf72 47bf 0e5e 68bf c38b 4ebf
000001d0: ad58 0fbf 6462 6dbf d769 3ebf 91ba ecbf
000001e0: a9c3 8cbf 0522 fa3d ec2d eebd e180 0e3e
000001f0: d2f4 6b3e b64a 673c c131 133e ad56 10bf
0.70803595 -1.0167332 -0.23196125 0.1292574 0.043886337 -0.13675506 0.039257623 -0.40827432
0.70550317 -0.23094624 -0.38991886 0.5723067 -1.0612432 0.12357535 0.65012527 -0.041605555
-1.2945495 -0.9040386 0.2406609 -0.8731632 -1.3580717 0.15649089 0.07974176 -0.23957308
-0.18573037 -1.4572722 -0.21901163 -0.64787984 0.8361399 -0.04388131 0.26805025 -2.2913492
-1.5295277 0.24949847 -0.5537977 0.6570789 -2.1787288 -0.25175738 0.6529933 -0.14659826
-1.2245884 -0.3081516 -0.9365196 -1.9973651 -0.24214754 -0.08344999 -0.25612146 -0.9548025
-0.5763577 0.0121662915 -1.2207994 -1.2937498 -0.4850375 0.53327554 -0.6952758 0.41328248
-1.4311346 0.82870084 -0.006114916 0.4897379 -0.11087842 -0.8364854 -0.46416393 -0.59482837
-2.265985 -1.6604573 -0.9435113 0.20951672 0.30475274 0.050211534 -0.29772228 -0.8529129
0.09512469 -1.7997999 -0.5858237 0.34879962 -1.5690359 -0.25501117 -0.40669543 -1.3727605
-1.2417214 -0.19287424 -0.08931246 -0.71690345 -0.56447047 0.29772356 0.32330987 -0.87479466
1.0688139 -0.2895715 0.9749833 -0.66852295 1.0487925 -1.382272 -0.026108846 0.17153248
-0.114433035 0.31342253 -0.74932057 0.709243 -0.3334151 -0.57734 1.4962476 0.47757757
0.2067443 0.782184 0.59957534 -1.4606836 0.4665123 -1.2553711 0.104174174 -0.30254075
-0.1577093 -0.7790956 -0.90768516 -0.8068201 -0.55994684 -0.9272826 -0.7438025 -1.8494436
-1.0997211 0.1221352 -0.11629853 0.13916351 0.2304261 0.014116934 0.14374448 -0.56382257

gnn_node.virtualnode_embedding.weight f4 [1, 128]
00000000: 4fcd c5be 4d6e cbbe 5376 29be ac3b 2ebe
00000010: 3144 bbbe cb90 23be d7df ecbe c1f0 e7bd
00000020: 5f7b 86be 33a3 9ebd a1f6 8a3d 4d09 5abe
00000030: c9e8 57be 013f dfbe a542 37bf 9e2c bb3a
00000040: 32cc 47be 0ae3 81be 02dd b83d 6942 c7bd
00000050: 51a7 09bf 6dc7 20bf 8b1a 25bf 411b 97be
00000060: fb7f 02bf e024 273e c843 15bf c840 80be
00000070: aa99 0abf 1abc 6cbe 741e ddbd 82e7 0abf
00000080: 0137 bebe ee30 24bc 31c6 f9bd 1c9c dabe
00000090: af92 91bd 0667 a7be c6b0 11bf dc8f 02bf
000000a0: 941b adbe 0d0a a0be 3a93 44be 0b8e c1be
000000b0: cf64 5ebe b1ff bdbe cb4f c53c 3084 8abe
000000c0: ca61 72be 28d4 673e 05aa 83be 687a 8dbc
000000d0: 83f2 b3be 002c bebe 2fde 6cbe 010f 2fbf
000000e0: 8892 8bbe ab6c 35bf 463d d1be b343 75be
000000f0: 3083 9fbe 063b 9dbd 1061 ecbd d9d1 80be
00000100: b194 92be b64b d73e 1ef3 2bbe f7db b03d
00000110: 5363 b3be 9ab7 eebe aafa f1be b027 65be
00000120: b44c 093d ffa6 39bf 0b5d 5dbe 97be debe
00000130: 1be4 16be da73 03bc 4bd2 bebe 74a3 cbbe
00000140: 595c 12bf 3e61 a7be 7c18 27bd af64 7ebd
00000150: e4eb 83be 25cd 0bbe 803f b3be 75e4 0abe
00000160: 5232 3fbf afdb cdbe 99f1 1cbf 10f3 3fbe
00000170: f59b 28bf ebb5 863d f7c8 59bd e557 873d
00000180: 1ddc 72be b0fd a6be 5add 813c 2290 94be
00000190: 1bb5 88be da09 babe 85c6 39bf 6c81 ddbe
000001a0: 18ba bdbe 6f84 77be 7ed1 14bf 0e3f e9bd
000001b0: c634 20be 6d42 07be aab0 9dbd 7c42 abbd
000001c0: d513 4fbe 1df2 2abe 184d 0cbe 4761 60be
000001d0: ba0f 09bd 30b1 383d 5ca0 20be 4c30 94bd
000001e0: 5d91 acbe 6dcd 6fbe dce1 d8bd efb4 fdbd
000001f0: 956c f0be a6ed 7cbe a0d8 09bd d8c9 ddbe
-0.386332 -0.3973259 -0.16549043 -0.1701495 -0.36575463 -0.15973203 -0.46264526 -0.11325217
-0.26266 -0.077459715 0.06785322 -0.2129261 -0.21084894 -0.43602756 -0.71586066 0.0014280265
-0.19511488 -0.2536853 0.09026529 -0.097294636 -0.5377093 -0.628043 -0.64493626 -0.2951298
-0.5097653 0.1632266 -0.5830655 -0.25049424 -0.5414072 -0.2311863 -0.10796824 -0.542595
-0.3715134 -0.010021431 -0.12196005 -0.42697227 -0.07108056 -0.32695788 -0.5691036 -0.5100076
-0.33810103 -0.31257668 -0.19196787 -0.37803683 -0.21718143 -0.3710914 0.0240859 -0.27053976
-0.23670116 0.22639525 -0.25715652 -0.017270282 -0.3514596 -0.37142944 -0.23131631 -0.6838227
-0.27260232 -0.7086894 -0.4086706 -0.23951606 -0.31154776 -0.076772735 -0.11541951 -0.251601
-0.28629068 0.4204995 -0.1679196 0.08635705 -0.35036716 -0.46624452 -0.47261554 -0.22378421
0.033520415 -0.7252044 -0.21617524 -0.43504784 -0.14735453 -0.008023227 -0.37269816 -0.39773142
-0.5717216 -0.32691377 -0.040794834 -0.062107738 -0.25765908 -0.13652475 -0.35009384 -0.13563712
-0.7468616 -0.40206668 -0.6130615 -0.18745065 -0.6586297 0.06577667 -0.05317017 0.066085614
-0.23716779 -0.32615423 0.015852619 -0.29016215 -0.26700673 -0.3633564 -0.7256854 -0.43262804
-0.3705604 -0.24171613 -0.5813216 -0.1138898 -0.15645131 -0.13208933 -0.076997116 -0.0836229
-0.20222409 -0.16693921 -0.13701284 -0.21912108 -0.033462264 0.045090854 -0.15686172 -0.072357744
-0.33704653 -0.23418207 -0.10589954 -0.12388026 -0.46957842 -0.2470003 -0.033653855 -0.43318057

gnn_node.convs.0.mlp.0.weight f4 [256, 128]
00000000: 077e a7be 25dc e23d b007 9abd c8b1 4e3e
00000010: 03ec cfbc 441a cd3c ab28 84be 1157 053d
00000020: a253 a13d f757 1abe 29ba 003d dae8 9e3d
00000030: fc9a a53d 9cfd 0abf 96e2 16be 120c df3d
00000040: d617 a13c 979f 863d d0ec 123e 997b 023f
00000050: b6ef 1ebd fe17 89bd 8732 2bbd 4917 4b3d
00000060: 9f2a 7fbe d147 9a3d 6b74 29bd 86cf adbd
00000070: 782f 423d 7be3 e53d 15b4 09be ba2a a93d
00000080: 43b3 acbd a0a1 ce3e f023 2cbe d7c3 1b3e
00000090: 8463 9d3b a83d 23bd a2f5 28bd 3190 b93d
000000a0: b888 a23a 15b0 9abd cd9f 3dbd c4f3 03bc
000000b0: a094 9a3e 8e7e 63bc e0c4 2d3e f08c c9bb
000000c0: 869b 8f3c a147 d8bd e2ec 0fbd 4de7 67bd
000000d0: 6669 9bbe d820 b23d 5a44 2ebf f2db 33bc
000000e0: ddfd 64bc 5b34 bbbd 92cc 1c3e 0ab8 473d
000000f0: d091 383d 2a12 2ebf ff47 c8be bb4b 76bf
00000100: 5cd8 2e3d c435 cd3c c7fd 79bd 3025 bbbe
00000110: cd08 3bbd e354 56bb 4117 eb3e 2818 9abb
00000120: 65fb 34be 7b77 cf3c ef2e 93bc a636 9ebe
00000130: 5fb0 2fbd 16cd 9bbe a4c7 003f d7e9 ef3c
00000140: d823 4d3d f53d e8bb 15f4 093f ac02 94bc
00000150: 55c9 703d 3cde 06bc b555 30bc 731b 173e
00000160: 6b45 513d c270 923d 3408 73bc 11a6 d6be
00000170: 3dc6 0d3d 48c3 9c3b 90da ca3f 6d16 f9be
00000180: 15cc 8e3e 175a b93e bcb1 8b3c c748 9cbc
00000190: 9a9b 06bf 03a6 dabc 3f8c f1bd bd23 01be
000001a0: 539e 073e 4c40 85bd 4391 dcbd f96d 3bbd
000001b0: e286 38be be3f 7fbd 1875 c1be 11c3 87be
000001c0: b797 d3bd 104b 38bd 8086 b3bd 448c 61bf
000001d0: 7fa8 e1bd 05d8 b9bd cc4a 48bd d995 903c
000001e0: af42 76bd 5c2e 893e 0c7a 6c3d c7d1 c43e
000001f0: e993 6b3f 7c08 0f3d 59bc e3be 63ac 44bf
00000200: 1bc7 ddbd 26e9 cc3d 2a63 39bb 3944 e6bd
00000210: c4c8 f53b caae 1e3e fa51 32be 8a1f c7be
00000220: eb17 e6bd 2b45 393e 354d 1c3c 8f9b a63e
00000230: e745 203d 1f63 08be 81b8 b73d f0f1 983e
00000240: f5e6 2f3d a632 163d 2587 0f3d a8ad 18bf
00000250: 9a99 86bd 8ff0 023d 876a de3c 78df 41be
00000260: e4d8 a0bd 9509 19bd dc5f 46be ca5b 8a3d
00000270: 1b61 453e 00a7 31bf 619f c9bd 6103 3a3d
00000280: f6fe ab3c f7dc 313d 0c1a 38bf b152 e539
00000290: 4aa0 883c 1eaf 1c3d ca80 1cbd 2f89 5b3d
000002a0: 27fd a8bc 677a 51be a4d3 223c d02b d5bb
000002b0: 3bd5 fdbe 0878 8b3d b906 24be 8c00 003d
000002c0: 0871 893b 9562 3b3d e1b3 55bd 5543 653d
000002d0: 004e 6fbe e58d 173e 7864 9ebb 28de 17be
000002e0: 63cb 21bd 6a7c 1ebb 8fb3 b6bd 0e09 c4bd
000002f0: b778 5bbd b9fc 853e 36bc 023d 0f0d 183f
00000300: ea95 c7bc 0077 31bd d48b d73d c533 dcbe
00000310: aaf5 b93b 4e1a b3be 52ce a9bf 4bfc b03b
00000320: d1ee aabf 372f 09bc b119 53bc d5c6 093e
00000330: 4c4c 803d 8f15 70bd 3e85 fd3d 8c1a 45bd
00000340: 8a2f d33b 1ed1 e93d 9a40 9abf d6d1 6c3d
00000350: 8acb e1bc 963b c1bd 26e4 243c 54e5 673e
00000360: 6b67 54bc 0f37 9fbd 3c0b 8d3d 606a d0bd
00000370: f5f3 bebd a57c 90bd 072e 8abf af10 be3d
00000380: 856d ddbd db49 71bf 3318 ea3b 3752 00bf
00000390: 1344 0cc0 a177 c43d 0ab7 e43c 434d 7a3e
000003a0: baee 39bd 5f6c d23d d894 78be fd58 dbb9
000003b0: 8a55 35bf 67fa a23c 0a6b fabb d6c7 23be
000003c0: 0ba1 d1bd a3fc 1fbc e270 5fbd af50 6bbf
000003d0: 0a7b a9be f0c4 dabe 7515 2f3d 6b4a c7bd
000003e0: 34c6 223d 23d8 433c 0910 07be 1686 5bbf
000003f0: 45cd bbbf 80b4 ad3d ed20 b43e fa2b be3e
-0.3271334 0.110771455 -0.075209975 0.20185006 -0.025381094 0.025036938 -0.25812277 0.032553736
0.0787728 -0.15072618 0.031427536 0.07759257 0.080862015 -0.5429323 -0.14734873 0.10890974
0.019664686 0.06573408 0.1434815 0.50969845 -0.038802825 -0.06694029 -0.041796234 0.049582753
-0.24918602 0.07533229 -0.04137079 -0.084868476 0.04740855 0.11225029 -0.13447602 0.082601026
-0.08432629 0.40357685 -0.16810584 0.15211426 0.004803123 -0.03985372 -0.04124988 0.090607055
0.0012400365 -0.07553116 -0.046294976 -0.008053724 0.30191517 -0.013885153 0.16969633 -0.0061508343
0.017530214 -0.10560537 -0.03513802 -0.05661707 -0.3035385 0.08697671 -0.68073046 -0.010977732
-0.013976541 -0.091408454 0.15312412 0.048759498 0.045060933 -0.67996466 -0.3911743 -0.96209306
0.042686805 0.025050052 -0.061033037 -0.3655181 -0.04566269 -0.0032704405 0.4591618 -0.0047025867
-0.17674024 0.025325527 -0.017966716 -0.30901068 -0.04289281 -0.30429906 0.5030463 0.029286308
0.05008301 -0.007087464 0.53888065 -0.01806768 0.058785755 -0.008231696 -0.010762622 0.14756565
0.051091593 0.07150413 -0.014833499 -0.41923574 0.034612883 0.0047840215 1.584795 -0.48649922
0.27890077 0.36201546 0.017052524 -0.019077672 -0.5258118 -0.026690489 -0.11794328 -0.1261129
0.1324399 -0.06506404 -0.10769894 -0.045759175 -0.18020204 -0.06231665 -0.37784648 -0.2651601
-0.10331672 -0.04499346 -0.08765888 -0.88104653 -0.11018466 -0.090744056 -0.048899457 0.017649578
-0.06012219 0.26793182 0.05773358 0.38441297 0.9202257 0.0349202 -0.44479635 -0.7682554
-0.10828992 0.10005407 -0.0028287866 -0.11243481 0.00750074 0.15496364 -0.17414084 -0.3889125
-0.11235031 0.18092792 0.009539892 0.32540557 0.039129164 -0.13319062 0.08970738 0.29872084
0.042944867 0.036669396 0.035040993 -0.5963998 -0.06572266 0.031967696 0.027150406 -0.18932903
-0.078538686 -0.037362654 -0.19372505 0.067557886 0.19275324 -0.69395447 -0.09844852 0.04541338
0.020995598 0.04342362 -0.71914744 0.00043739894 0.016677994 0.038252942 -0.03820876 0.053597625
-0.020628525 -0.20456849 0.009938154 -0.006505467 -0.49576744 0.068100035 -0.1601819 0.03125052
0.0041943826 0.045748312 -0.0521735 0.055972416 -0.23369598 0.14800222 -0.004833754 -0.1483084
-0.039500605 -0.0024183043 -0.08920967 -0.095720395 -0.05358192 0.26169375 0.031917773 0.59394926
-0.024363477 -0.043326378 0.10524717 -0.43008247 0.0056750374 -0.34981006 -1.3266089 0.0054011694
-1.3354131 -0.008373073 -0.012884543 0.13454755 0.062645525 -0.05861431 0.123789296 -0.04812102
0.006444876 0.11416839 -1.2050965 0.057817303 -0.027562875 -0.09435193 0.01006416 0.22646075
-0.01296411 -0.077741735 0.068869084 -0.101765394 -0.09323875 -0.07055024 -1.0795296 0.09280526
-0.10811905 -0.9425332 0.007143998 -0.5012545 -2.191655 0.0959313 0.027919311 0.24443536
-0.045393683 0.102745764 -0.2427553 -0.00041837236 -0.7083365 0.019894792 -0.0076421546 -0.159942
-0.10235795 -0.009764823 -0.054551013 -0.9191999 -0.33101684 -0.42728376 0.042745072 -0.09730991
0.039739802 0.0119533865 -0.1318971 -0.85751474 -1.4672018 0.08481693 0.3518137 0.37142926

gnn_node.convs.0.mlp.0.bias f4 [256]
00000000: bdbe 113d 4de1 7f3d feb8 ac3c 1492 a33c
00000010: f96f 353c 4f9e ac3d c438 5dbd dcd0 03bd
00000020: 6bdf e43a de62 49bc f62c 1b3d da29 8fbd
00000030: b7f1 82bd da13 7ebd 44f3 54bd 2e06 72bc
00000040: a08a 92bc 909c 77bd 249d 9e3d 9caf 9c3d
00000050: 8951 00bd 185b 6fbd ef6d 4c3c cc38 1e3d
00000060: fe6d a83c ddb2 b7bc 5dfa 043d 130d d53c
00000070: 58c2 53bc 654e a7bd 37f1 b13d 7672 e23b
00000080: 0ed3 2e3d 6ceb 6bbc e5cb c23c 2200 3abd
00000090: cf9e a9bc 829b 113d 2b68 6bbc c94e 2bbd
000000a0: f059 4cbd 3a5f b4bd 4e43 92bd 61dc 843d
000000b0: e965 ca3d b33b 303c c71b babc 0d67 a6bd
000000c0: 60e0 0f3d 97fb 1cba cc10 a0bd 0aec 88bd
000000d0: 9f44 973c 0ecd 6c3d cd5f 6cbd 3241 e3bc
000000e0: 09c5 593d 2891 073d 7aba 4fbb 5cfe 1d3d
000000f0: 72a6 913c 8893 c7bb c305 25bd 8d1c d0bb
00000100: c06c 0a3c 5b19 43bd 91eb 853a 0ea6 903c
00000110: cf89 da3b 15f9 113d 0734 d63c 25ec 883d
00000120: 6770 bdbb 1031 ed3c 5508 46bc 6328 acbd
00000130: 484e edbc facf 5cbd aed6 6bbd 65df b63c
00000140: d115 873d 618f 4bbd 5d12 9cbd 811a cfbc
00000150: b502 67bd 06fe 54bd bbb1 7a3d ff56 b83c
00000160: 477a c23c 0d57 423d bb05 96bc e875 253d
00000170: 2884 9cbd d06c a2bd 1602 983b 3cbe 873d
00000180: 9311 fabb 0f83 edbc 68c3 d1bc 2fb9 88bd
00000190: d3e9 8bbd 384b 8c3d 6fa0 61bd 7b95 be3c
000001a0: c50b 8c3d ee81 6abd e670 01bd 3f17 983c
000001b0: 50c6 1c3d eec6 1fbd 2e22 c2ba 9b36 613d
000001c0: d913 d73c c5f5 253d c99c da3c 59e5 9ebd
000001d0: 0be5 573d 78d1 343d bc6d 39bd 6d3f 8a3d
000001e0: 76d3 cc3c efeb 633d 49d6 00bd 3ed7 503d
000001f0: e325 aebd bc6c 67bd f8eb 0b3d 19be 213c
00000200: 732f dd3c 7d0d 34bc c493 323d 52ed abbd
00000210: 4105 a5bd f55f 2a3d 2be4 23bd f898 943d
00000220: 38f3 4c3c 9c3f 91bd 7c01 453c 0d37 9e3c
00000230: 559a 44bd f329 903d e2db a3bd cb09 813d
00000240: 369b 223c 2149 383d d7f9 843d 7b93 9ebc
00000250: 79ec 3a3d 8ed2 9b3d fca5 033d c487 8ebb
00000260: 571b 8f3d cd9b 17bd 2426 923c bca7 813d
00000270: fec2 67bd 5023 67bd a1f5 3dbc 86a7 263d
00000280: 0fd2 943d 9198 dcbc 066e 60bc 17ee 923d
00000290: 2f91 803d 8138 1c3d 81e3 703d 22aa 0cbd
000002a0: e566 54bd d00d 813d cce0 9d3d b7b3 b13d
000002b0: 04eb 1ebd 2907 ae3c 0781 613d 062a a63d
000002c0: ccb7 99bd 202a 043d f0c7 7b3d 6bc0 453b
000002d0: 0578 94bd 0f75 af3d 9146 813a 1ceb 0dbd
000002e0: cec1 21bd 6e42 f13c df4a b83c a1da 18bd
000002f0: 01f6 fabb 7fe4 a8bc 3fee 6a3d 576c a8bd
00000300: e276 5d3d f064 37bd 018d 163d d42f 50bd
00000310: 024a c33d 1803 a7ba 7ebb 343c 0a99 743d
00000320: e30f 66bd 4b40 34bd a349 ae3d 27a8 a63d
00000330: 7bba 6dbd b28e 5dbd b1c6 1bbd c88e 44bc
00000340: 855f c43c 1aa5 90bd 2cf5 c2bd 918f 3bbd
00000350: 3b00 9cbd 690c adbd 255b 3cbd 95c2 bf3c
00000360: 11cb 583d 889d 613d 6b40 86bd 73cb 033d
00000370: 2e53 8dbc 52a8 b43d e859 8b3d 4b65 a03d
00000380: c3be 28bd 2258 5cbd a7de 98bc 8866 753d
00000390: d463 1bbd 2e81 03bd da3d 05bd 1855 8bbd
000003a0: 7281 7fbc 4cb4 85bd 880a 583d 4255 2abc
000003b0: 4be2 8abd 1e5f 003d be76 17bd 1ea8 acbd
000003c0: fc9e 8e3c 8a54 f53c 8a94 05bd 298e 62bd
000003d0: 685e 5cbb b184 9ebc 019a 4fbb 5fa5 833d
000003e0: 6f24 1a3d b2c9 76bd feb9 e3bc 319d bf3a
000003f0: 7776 943d 18f6 8bbc 95c0 38bd 1a61 a23d
0.035582293 0.062470723 0.021084305 0.019967116 0.01107406 0.084286325 -0.054009214 -0.032181606
0.0017461603 -0.012291638 0.037884675 -0.069904044 -0.0639376 -0.06203065 -0.05198981 -0.014771981
-0.017888367 -0.060452044 0.07744816 0.07650682 -0.031327758 -0.058436483 0.012477382 0.038628384
0.02056026 -0.022424156 0.032465328 0.02600721 -0.012924753 -0.081692494 0.08688586 0.0069106175
0.042681746 -0.014399391 0.023778865 -0.045410283 -0.020705609 0.035548694 -0.014368097 -0.041823182
-0.04989046 -0.088072255 -0.071417436 0.064873464 0.09882719 0.010756421 -0.022718323 -0.08125124
0.03512609 -0.00059884175 -0.07815704 -0.06685646 0.018465338 0.057812743 -0.05770855 -0.027741048
0.053166423 0.033097416 -0.0031696842 0.038572654 0.017779563 -0.006090585 -0.040288698 -0.00635106
0.00844878 -0.047631603 0.0010217299 0.017657306 0.00666926 0.035637934 0.026147855 0.06685666
-0.0057812217 0.028954059 -0.012086947 -0.08406141 -0.028967991 -0.05390928 -0.05757778 0.02232332
0.06595958 -0.049697284 -0.0762069 -0.025281193 -0.056399066 -0.052000068 0.061204653 0.02250242
0.023739947 0.0474463 -0.01831328 0.040395647 -0.07642394 -0.079309106 0.0046389205 0.06628081
-0.0076314895 -0.028993158 -0.025605872 -0.06675946 -0.06831708 0.06850284 -0.055084642 0.023264637
0.06838182 -0.057252817 -0.03160181 0.018565772 0.038275063 -0.039008074 -0.0014811212 0.054983716
0.026254581 0.040517587 0.02668609 -0.07758588 0.052708667 0.044145077 -0.045270666 0.06750379
0.025003176 0.055644926 -0.03145436 0.05098652 -0.0850332 -0.05650018 0.034160584 0.009871983
0.027000165 -0.010989544 0.04359795 -0.08394875 -0.08057643 0.041595418 -0.04001252 0.07255739
0.01250916 -0.07092211 0.01202428 0.01931336 -0.047998745 0.07039251 -0.08000924 0.06300696
0.0099247005 0.044991616 0.06492966 -0.019357434 0.045635674 0.076085195 0.032140717 -0.0043496806
0.069876365 -0.037013818 0.017840452 0.06330821 -0.056582443 -0.05643016 -0.011594207 0.040687107
0.07266628 -0.026928218 -0.013698107 0.07174318 0.062776916 0.038139824 0.058810715 -0.03434194
-0.05185594 0.06301463 0.07708892 0.08676856 -0.038798347 0.021243649 0.05505469 0.08113484
-0.075057596 0.032266736 0.061469972 0.0030174504 -0.072494544 0.08567249 0.0009862949 -0.034648046
-0.039491467 0.029450621 0.022496639 -0.037317876 -0.0076587205 -0.020616768 0.057356115 -0.08223789
0.054068454 -0.044773996 0.036755566 -0.050826862 0.095356 -0.0012742011 0.01103103 0.059716262
-0.056167495 -0.044006627 0.08510139 0.08137541 -0.05803917 -0.054091163 -0.038031284 -0.011996932
0.023971329 -0.070627406 -0.09519419 -0.045791212 -0.076172315 -0.08449633 -0.04598536 0.023408214
0.052928034 0.055081874 -0.065552555 0.032176446 -0.017251577 0.08821167 0.06804258 0.0783182
-0.04119755 -0.053794987 -0.018660856 0.059912235 -0.037937 -0.032105617 -0.03252969 -0.0680334
-0.015594827 -0.065285295 0.05274442 -0.010396304 -0.06781443 0.03134071 -0.036978476 -0.08430503
0.017409794 0.029947538 -0.03261236 -0.055311356 -0.0033625606 -0.019350382 -0.0031677487 0.064280264
0.037632402 -0.060250945 -0.027798649 0.001461899 0.07249158 -0.01708512 -0.045105536 0.07928677

gnn_node.convs.0.mlp.1.weight f4 [256]
00000000: 24c8 2e3f 384b c33f 97a8 d53f d027 123f
00000010: e416 6c3e 0ed8 4c3e 401b 363f c235 433f
00000020: 4512 eb3f 2c39 b93e 91a4 0f3d b92c aa3e
00000030: 70af 393f bc09 af3f c1cd 9e3f 4ee3 a33f
00000040: 5e74 a63f 983e cc3e f892 ae3f 87d4 ae3f
00000050: ae3b b13f 58f6 4d3f caef be3f f60a 263f
00000060: 5eba 313f dcd2 2d40 f1ba 923f bb65 843f
00000070: 2795 923f 4e4c ff3d 4c11 bd3f a86e 6b3f
00000080: b115 8d3f ebf3 9b3f a485 c03f ea0b cc3f
00000090: d456 973f 0aac 693e 5b55 1f3e e64c e33f
000000a0: 17e4 863f 5d1f ca3f 4f35 843f 4732 563f
000000b0: cc1e 623f c891 8d3f 5a94 073e 8dcd b13f
000000c0: 02c5 b83f a973 713f bd6d db3f 9308 a13f
000000d0: f021 a53f d89c d83f f25e 393f a46e 703f
000000e0: 2457 8e3f 8ad2 393e 00fc 913f e302 b03f
000000f0: 6c3a 533f c485 883d 86d2 733f 4c58 403f
00000100: c244 a23f f510 7c3f fd35 df3f fbfe 993e
00000110: 1a21 ee3e fcee 833e 023d 703f b7d5 073f
00000120: ffba 283f cd2d ee3e d2fa a53f 92ef 5e3f
00000130: 6c8f 7c3f 06cf 9d3f a0de 093f 750a 883f
00000140: 440e 113f fe53 b43f 22d4 c73f 230d e23e
00000150: d743 a83f 83c2 b83f 3a4b f93e 278b ab3f
00000160: 1dc4 203f e740 2f3f 871a b83f 90ca a03f
00000170: 971d 643f 6a59 f03e 8683 f03f f0ce ea3f
00000180: ce63 943f 7f46 243e 86b0 733f 8471 b23f
00000190: 706f 613f 53f0 8d3f c09f 773f bc73 883f
000001a0: ab0b b03f 4db2 753f c2f9 b13f 58b7 853e
000001b0: 33de 8b3f 4005 293f 4f3c a13f 35ad 393f
000001c0: dd82 593f 4096 893f f1ec da3f 79e7 973f
000001d0: da10 633f 3fa9 b03e 16fa c33e 8278 503f
000001e0: 3b58 893e 9cff f93f bca5 983f aca7 563f
000001f0: 61d6 b33f dab6 093f a179 a83e a1a4 623f
00000200: 09e7 b03f 3ad0 543e ef2a 993f 1ba2 1a3e
00000210: 7b98 ae3f bc58 913f 9d4d 323f ebc9 cf3e
00000220: 9355 a83f d174 033d cb25 bc3f 5b16 4f3f
00000230: 4d76 c73e 9e49 c63e 23de e73e 1153 ae3f
00000240: 33c7 823f 4bfc 6b3f 2bb8 6c3f 6156 403f
00000250: a05b b93f 71a0 1140 2830 c13f 5345 243f
00000260: 1eda 3f3f 780c 3f3f 0146 c73d af6d 813f
00000270: f396 cb3f 1ae1 513f 8837 843f 5839 813f
00000280: ab2e db3e 831e 613f 78c4 733f 082b 193f
00000290: 3045 bf3f a16a 383f e631 a53f b902 cb3f
000002a0: d2f8 a93f db06 e63e 08f3 1d3f b506 ca3f
000002b0: ea50 043f 0548 a03f 894d 1e3f 0b11 0f3f
000002c0: 1721 983f aec5 1c3f 506c b23e 9656 c23f
000002d0: b33a be3f e9e1 1d3d 2e0f b93f 51a8 343f
000002e0: e435 b63f 449e 403f 370c a53f f2dc eb3e
000002f0: c8f3 963f edfc d63f 926a 913f 8824 2e3f
00000300: a72c 9f3f a838 a83f 370f 883f 78cf e53f
00000310: c34b cb3f 28d5 a03f 93ef b83f 5990 0e3f
00000320: 4093 c83f ab21 7b3f 4740 b23f fbc6 ab3e
00000330: b7f1 5a3f 433c 8d3e cbf1 813f 7d16 a13f
00000340: 3a87 863e 788c c43f df67 823f 70a5 7f3f
00000350: d37e 4a3f c211 6c3f 26a3 803f 8fba da3f
00000360: 6f16 673f d92d ca3f a69d 993f 1998 1f3f
00000370: af54 9b3e 067d 5a3e 2ec6 9a3f f103 9d3f
00000380: cb89 9e3f 9c20 133e d20e 8f3f e30e 843e
00000390: 12cc aa3f e66f b03e be43 923f 57b0 bd3f
000003a0: 30a4 f53d 2b60 9d3f f63f 9d3f f65d 6a3f
000003b0: 1386 d73f 21e2 fd3f a279 363f 9f38 653f
000003c0: 9be9 eb3e 95f6 5c3f a20c 213e e5af 683f
000003d0: 540f 9b3f a166 0d3f d62b c43f 7b3c 823f
000003e0: 692b eb3e 2e28 d23f a56e b03f 5253 483f
000003f0: 4f8a 863f fc12 cf3f 7d5b 0d3e 53b7 b83f
0.6827414 1.525733 1.6692075 0.57092 0.23055607 0.20004293 0.7113533 0.762539
1.836495 0.3617643 0.035069052 0.33237246 0.7253332 1.3674846 1.2406541 1.2803743
1.3004262 0.39891505 1.3638601 1.3658608 1.3846338 0.80454016 1.4916928 0.64860475
0.69425 2.7159948 1.14633 1.0343546 1.1451768 0.12465726 1.4770904 0.91965723
1.1022245 1.2183813 1.5040784 1.5941136 1.1823373 0.22819534 0.15559904 1.7757843
1.0538357 1.5790821 1.0328768 0.8367047 0.8832824 1.1060114 0.13240185 1.3890854
1.4435122 0.9431711 1.7142864 1.2580742 1.2900982 1.6922865 0.724105 0.93918824
1.1120343 0.1814672 1.1405029 1.3750881 0.8251102 0.06666139 0.9524311 0.7513473
1.2677233 0.98463374 1.7438351 0.30077347 0.4650963 0.25768268 0.9384309 0.5306048
0.65910333 0.46519318 1.2967169 0.87084305 0.98656344 1.2328804 0.53855324 1.0628191
0.5666239 1.4088132 1.5611613 0.44150648 1.3145703 1.443436 0.48690206 1.3401841
0.62799245 0.6845841 1.4383096 1.2561817 0.8910765 0.46943218 1.8790138 1.8344402
1.1592958 0.16042517 0.9519123 1.3940892 0.88060665 1.1088966 0.96728134 1.0660319
1.3753561 0.9597519 1.3904345 0.26116443 1.0927185 0.66023636 1.259653 0.7252992
0.84965307 1.0748978 1.7103559 1.1867515 0.8869759 0.34504125 0.38276738 0.8143388
0.26825127 1.9531131 1.1925578 0.83849597 1.4049798 0.53794634 0.32905295 0.88532454
1.3820506 0.20782557 1.1966227 0.15100901 1.3640283 1.1355205 0.6964968 0.4058374
1.3151115 0.032093827 1.4699033 0.80893487 0.38957444 0.3872804 0.45286664 1.36191
1.0217041 0.92181844 0.9246852 0.75131804 1.4481087 2.2754176 1.5092821 0.6416828
0.74942195 0.746284 0.09730149 1.0111598 1.5905441 0.819841 1.0329447 1.0095625
0.42809042 0.8793718 0.9522166 0.59831285 1.4942989 0.720377 1.2905853 1.5860206
1.3279059 0.44927105 0.6169896 1.5783297 0.51685965 1.2521979 0.6183706 0.5588538
1.1885098 0.61239135 0.3484826 1.5182674 1.4861664 0.038545523 1.4457757 0.7056933
1.4235196 0.75241494 1.2894353 0.46067005 1.1793146 1.6795937 1.1360648 0.6802449
1.2435502 1.314229 1.0629643 1.795394 1.5882496 1.256505 1.4448112 0.5568901
1.5669937 0.9809825 1.3925866 0.33550248 0.8552508 0.2758504 1.0151914 1.2584988
0.26275045 1.5355368 1.0187949 0.9986181 0.7909977 0.92214596 1.0049789 1.7088183
0.90268606 1.5795242 1.2001235 0.6234146 0.30338046 0.21336755 1.209173 1.2266828
1.2385801 0.14367908 1.1176398 0.25792608 1.3343527 0.34460372 1.1426923 1.481944
0.11994207 1.2294973 1.2285144 0.91549623 1.6837791 1.9834634 0.71279347 0.8953952
0.46076664 0.86313754 0.15727475 0.90893394 1.2114053 0.55234724 1.5325878 1.0174707
0.45931557 1.6418512 1.3783766 0.78252137 1.0510958 1.6177669 0.13804431 1.4430946

gnn_node.convs.0.mlp.1.bias f4 [256]
00000000: 6877 f13e 7f81 8cbe 2f53 13be 7ff7 f6bd
00000010: 35d3 2a3e 7085 253f 3812 3bbf fddc e8be
00000020: 747d 313d 6221 2cbf aaf3 eabe 5c39 303f
00000030: b650 07bf 9095 71be f5df fb3d a53f 903e
00000040: 87b6 a9be 15b7 70bf c41f e8be d4da a3be
00000050: 3e5c cebe 5478 523f 262f f6be 6a64 86bf
00000060: 91e6 41bf 8e70 933e 9eb5 503e 531c 85be
00000070: aa81 3a3e 095f f53d 248c a4be 54be 643e
00000080: 5c76 803e 9bf3 cebe dec6 aebd 4ec1 b1be
00000090: 8a13 a1be 3c7d 46be 038a 213f 6ba9 7fbe
000000a0: 57e2 1cbe d9cf a43e 820d bbbe 1569 e2bd
000000b0: 0b27 a2bf 9864 4abe c0db 29bb bbe5 78be
000000c0: 88ab c5be 8009 733e b7bf 48be 7d1d acbe
000000d0: 7bc6 bfbe c61a 1ebe a86c 5abf 156b bcbe
000000e0: e1e1 55be be2f 89be ccac 00bf ce8f e8be
000000f0: 85b0 e4bd 8b3d c53d 6cee 1ebe f2ae d1be
00000100: 25af 9cbe 0336 05be d53a 18be 04ed 60bf
00000110: 33e7 2d3e 4fbd 85bd 3009 a4be cb25 fbbd
00000120: 6a19 60bf 23c4 e6be b9cd 36be 2023 98be
00000130: 145f 94be a810 cabe 46d3 9bbc 1a96 89bd
00000140: 1c0a 05be d36e 4ebe 8e0a 65be d88a d1be
00000150: 79fc 71be e2d9 80be ffc2 d9be c758 c8be
00000160: b14a ecbe dbab 95be 3d38 46be 6b09 50be
00000170: 5aa0 c53e beec e4be 4a2b c63b 51d8 e0bd
00000180: aaa1 e2be 930b 773d bb20 5bbe 44aa 88bd
00000190: ccae 65be de0f 53be 422d 843e 1f96 9fbe
000001a0: 04e2 cabe 4ce4 6abe 6bf7 9ebe d0b4 1bbe
000001b0: c72d 553e 2afb 5fbe f711 e2be 8e7f 11bf
000001c0: 46e3 303d a88a 413e a643 52be 83de 88be
000001d0: ea8f 76be cc62 93bd a087 073d 4a4b 70bf
000001e0: e2d2 66be 704b 823d 39d3 b63e 7557 47be
000001f0: 959a 93be 5f5b 34be 6d9e 27bf a69e 3ebf
00000200: ae23 fcbe c1d8 883e 66ca fdbe ec47 dc3d
00000210: 0f34 313e 6d4b 8dbe 79f8 03bf 5f8f 6dbd
00000220: e194 2cbe c368 9d3e d617 a6be 6023 09be
00000230: 7f9f 7dbd 6d3e 4fbf ed59 5c3e e339 f9bd
00000240: 933e 9cbe af9b 42bc e732 313e 469b bf3e
00000250: 732a 3b3e 0730 3b3e ac49 3c3b f23e b0bd
00000260: 674c c6be b38b c7bc 5e04 653e 3051 3abe
00000270: b832 d6be e859 8fbe 05b7 2f3f 5390 a9be
00000280: 6e19 78bf 016f 7abe c763 5bbe b711 9abe
00000290: e0a7 56be 2c56 943d 0856 96be c06b c93e
000002a0: 3ea2 4bbe 7f16 aebe ac6a 163e 9f2b 42be
000002b0: e739 60bd 7cd7 85be 47c3 883e bed8 cabd
000002c0: 37d2 0bbf 5c52 1dbe 8dbe 7ebf ce97 c2be
000002d0: cd23 96be 89fb 35bf 5c26 97bc af33 4ebf
000002e0: 8a98 d3be a530 e8be ef1b d03e 0cf9 8d3e
000002f0: 625c e5be 250b 7fbd e253 afbe de0f 8bbe
00000300: cd65 84be 83c8 babe ffce 5ebe d820 efbd
00000310: 5e77 98bd a7ef ecbe e856 a7be 0f55 4dbf
00000320: 8c7c 4abd badf 54be 212f 86be 559c 60bf
00000330: e96b 10bf 9d6a 023f dade 5f3d 8d73 56be
00000340: a663 e43e 5206 ee3d 927f ccbe 99a9 0dbf
00000350: 06a2 34bf 01ee d4be 0d89 dabe 0e53 08bd
00000360: e57b c83e 1079 7cbe 6df0 96be b086 b8bf
00000370: bec9 183e a9f1 1cbf 9e51 923e a633 ddbe
00000380: 9747 6d3d 1246 1b3f 81ec b4be 2fba 47bd
00000390: c488 063d b35f a9be 5658 25be c637 803e
000003a0: 22fc 173e a63c 5cbe ded0 34be 3f7a 1d3f
000003b0: 627b 11be 7e3f 88bc 0d1a 10bf 82e6 52bf
000003c0: 1a76 9ebf 84c7 c4bd 3fe9 71be 7ea5 d33e
000003d0: f47f cd3d b9d4 993e fd7e 40be b2a9 79be
000003e0: 27f2 0eb8 dec3 aebd 2ef4 7cbe 59eb 203e
000003f0: 690a 603e 397d ebbd 99b1 cd3d 5838 e2be
0.47161412 -0.27442548 -0.14387201 -0.12058925 0.16682132 0.64656734 -0.73074675 -0.454811
0.043332532 -0.6723844 -0.45889026 0.68837523 -0.5285753 -0.2359221 0.12298576 0.28173557
-0.3314707 -0.9402936 -0.45336735 -0.3200289 -0.4030475 0.82214856 -0.48082846 -1.0499394
-0.7574244 0.2879681 0.20381781 -0.25998172 0.18213525 0.11981017 -0.3213817 0.2233823
0.250903 -0.4042023 -0.08534025 -0.34717792 -0.3146022 -0.1938371 0.63101214 -0.24966972
-0.15320717 0.32189825 -0.36533743 -0.11055199 -1.2668165 -0.19764936 -0.0025918335 -0.24306385
-0.3860743 0.23734093 -0.19604383 -0.33616248 -0.37456116 -0.15439901 -0.85322046 -0.36800447
-0.20886947 -0.26794237 -0.5026367 -0.45422214 -0.11166481 0.09630879 -0.15520638 -0.40953785
-0.30602375 -0.13008885 -0.14866193 -0.8786166 0.16982727 -0.065302484 -0.3203826 -0.12263068
-0.8753878 -0.45071515 -0.17851914 -0.29714298 -0.2897879 -0.39465833 -0.019021641 -0.06718083
-0.12992138 -0.20159464 -0.22367308 -0.40926242 -0.23631467 -0.2516623 -0.42531583 -0.39130232
-0.46150735 -0.29232678 -0.1935739 -0.20316093 0.385989 -0.4471187 0.006047641 -0.10978759
-0.44263965 0.060313772 -0.21399204 -0.066731006 -0.22429961 -0.20611522 0.2581578 -0.3116922
-0.3962556 -0.22938651 -0.3104814 -0.15205693 0.20818244 -0.21873155 -0.4415433 -0.5683526
0.043185495 0.1890055 -0.20533618 -0.26732263 -0.24078336 -0.071965784 0.033088326 -0.9386488
-0.22541383 0.06362045 0.35708025 -0.19466956 -0.28828874 -0.1761298 -0.65476114 -0.7446083
-0.4924597 0.2672787 -0.4956848 0.107559055 0.17305015 -0.27596608 -0.51551014 -0.057998057
-0.16853668 0.3074399 -0.3244006 -0.133924 -0.061919685 -0.8095463 0.21518679 -0.12169244
-0.3051649 -0.011877938 0.17304574 0.37423152 0.18277912 0.1828004 0.0028730435 -0.08605756
-0.38730165 -0.024358606 0.22364947 -0.18195033 -0.4183557 -0.2799828 0.6863864 -0.33117923
-0.969138 -0.24456407 -0.21424781 -0.3009164 -0.20962477 0.072429985 -0.29362512 0.3934002
-0.19886109 -0.34001538 0.1468913 -0.18961953 -0.05474272 -0.26140964 0.26711485 -0.099046215
-0.5461764 -0.15363449 -0.9950951 -0.38006443 -0.2932419 -0.7108694 -0.018450908 -0.8054761
-0.41327316 -0.45349613 0.40646312 0.2772907 -0.44797045 -0.062266488 -0.34243685 -0.27160543
-0.25858918 -0.36481103 -0.2175865 -0.11676186 -0.074446425 -0.4627659 -0.32683492 -0.80207914
-0.049435183 -0.2078847 -0.26207832 -0.87738544 -0.5641466 0.5094393 0.054655887 -0.20942517
0.44607276 0.11622299 -0.39941078 -0.5533691 -0.7055973 -0.41587833 -0.42682686 -0.033282332
0.39157024 -0.24655557 -0.29480305 -1.4416103 0.14920709 -0.61306244 0.28577894 -0.43203467
0.0579296 0.60653794 -0.35336688 -0.048761543 0.032845274 -0.33080825 -0.16146979 0.25042552
0.14842275 -0.2150751 -0.17657802 0.6151466 -0.14207223 -0.016631838 -0.5628975 -0.82382977
-1.2379792 -0.09608367 -0.23624133 0.41337198 0.10034171 0.30045107 -0.18798442 -0.2438114
-3.408096e-05 -0.085334525 -0.24702522 0.15714778 0.21878971 -0.11498494 0.1004364 -0.44183612

gnn_node.convs.0.mlp.1.running_mean f4 [256]
00000000: ba48 3641 701a 2140 6bf5 a83f 22bd 8c3f
00000010: dfd1 103f 599d 3341 6ee5 5a41 823d eebf
00000020: 1be9 35bf 9db0 8ebf 3626 4a3e 4c59 9440
00000030: 7315 5cc0 80e3 0bbf 1fc8 3b41 0071 4841
00000040: 268d 39c1 10b4 a040 dd7c 25bf c41b 0ac1
00000050: 0a02 a540 9ed8 06c0 0d94 8cbf 7dd6 94bf
00000060: 98b3 1640 a8df 16c1 85a2 09c1 388a 95bf
00000070: 51fc 17c0 53ec 68bd 9608 00bf bf6b a43e
00000080: ee51 4cc0 a7e7 8b40 3106 83bd 4ce1 6a40
00000090: d9d0 babe d709 b63e 8397 0c41 672e a0bf
000000a0: 2d8e c2c0 defb 60c1 e277 bfc0 9156 e3c0
000000b0: 0dfc 2e41 0e29 72c0 f162 8940 dd7b a640
000000c0: fabd 5940 3f43 523e f9e6 47c0 9807 4fc0
000000d0: 5cd9 d3be 26f4 d4c0 d2c4 1341 f183 5741
000000e0: cb9b 97c0 ea57 aac0 eb69 18c1 b037 b8bf
000000f0: a382 7a3f b376 7640 96d1 943f ab55 f0be
00000100: a41e 0c40 81fe 1bc1 a1e2 1f41 9e3b af40
00000110: 759f 363f 5c2b 3241 7efd 1740 9aac bcc0
00000120: 2739 f240 6e7d 09c0 f04f 8a3d e1ff d53e
00000130: a718 3ec1 7f0a df40 8576 3241 282d 95c1
00000140: 08c2 a33f 5c3a 6540 f141 53bf c635 10c0
00000150: 0a62 1abd 447a 2f41 de86 3340 c219 ff3f
00000160: c5e3 0941 3bdc a5be ed10 2b3f 0a3e 4abf
00000170: 5cda b040 dc49 c6c0 c534 2e40 33b9 e9c0
00000180: ef0f 82bf 2692 f440 8bbd b53e 55f3 ef3e
00000190: 6955 82c1 cce1 c540 020c d640 7667 c2c0
000001a0: 6675 5ebf c1d1 f03f cdf3 8140 60ed 1241
000001b0: b213 12c1 58e4 2dc1 27af dd3f a064 92c0
000001c0: 0f5c dc3f f6d5 c53e 77ca ff3f 34eb 6c3e
000001d0: 3a44 5cc1 88ec 2840 0b48 43c0 421d c540
000001e0: e523 05c1 63fb 14c0 a20b 1c40 d70d 82c1
000001f0: d312 2dc0 97e2 61c1 7a11 3c41 f824 943f
00000200: b738 93bf bc20 5740 57f1 93c0 6803 edbf
00000210: 3ede ac3f 4f3b 2cc1 abf2 00c1 95be 1d41
00000220: ff7e 02c1 f9a3 fe40 f699 5940 dc67 30c1
00000230: 9922 dbc0 5d87 d93f 2cfb 833e 9c93 b0c0
00000240: d89a 57c1 13cd c43f 879a 1741 756e ec40
00000250: 4589 0bc1 8429 00c1 1a99 0a40 de2e a540
00000260: b156 39c0 4c71 db40 fa90 ad40 2e9f 1d40
00000270: d6db 16c0 933d 24c1 87b3 3f40 baf3 e6c0
00000280: 1521 bb40 9f08 fc3e f35f 3fbe 0f6d f4bf
00000290: 343d 11c0 89fd 0340 c524 d0c0 9c27 f8c0
000002a0: 3891 d13f 0d89 adc0 9cec 8d3b db51 d5c0
000002b0: 7300 d2c0 4a5c debf c65b 1541 37e1 03c1
000002c0: 1d50 c1c0 3e79 acbf 49ce 7940 986e 83c0
000002d0: 6e63 33c0 265e fc40 83da 7f40 1808 2741
000002e0: 218d 7fc0 4cd1 6041 06f3 5341 3dc2 6b40
000002f0: d395 fbbf af35 06c1 710e 9d40 1b56 d9c0
00000300: 315c 4940 9d4f 8640 f30c 4dbd 8977 b6c0
00000310: 275a d6c0 6a8a 0cc0 42ba 9740 2105 a840
00000320: 437e 97bf a351 b73e 7fc1 cbc0 2c77 e340
00000330: 8bc1 92bf 3323 d440 fee5 b140 e2db 55c0
00000340: e905 3941 385a 82bd a56e f4c0 e61c 80c0
00000350: 3e5c b040 1250 5841 d8ee bebf 2d0c 83c0
00000360: 66d3 da40 22fe 213e 968a ad3d a994 0841
00000370: cac5 1f41 3ac5 0a41 9a4e a940 520d c2be
00000380: 8bb3 4840 6dd2 2341 1deb 47c1 45f8 5640
00000390: ec1a 9fc0 2683 6a41 46d5 b6c0 fd02 a2bf
000003a0: 70dc 5a41 2e2b e140 ebde 45c1 b55e cc3f
000003b0: 3076 65c0 82dc 11c1 ec36 1841 8c21 4c41
000003c0: bf06 9040 7d96 9940 0b12 c140 c050 9940
000003d0: a3b7 b1bf 4810 0141 84af 3bc1 cc44 e6c0
000003e0: d566 b4c0 6c72 d43f ce5b febf 3d44 d240
000003f0: 6d4e cac0 a11c 3cc1 5aaf 9a40 3ef1 25c1
11.3927555 2.5172386 1.3199896 1.0995219 0.5657024 11.225915 13.681013 -1.8612521
-0.71058816 -1.1147648 0.19741139 4.6359005 -3.4388092 -0.5464401 11.736358 12.527588
-11.59696 5.0219803 -0.6464365 -8.631779 5.156499 -2.1069713 -1.0982682 -1.1627957
2.3547115 -9.429604 -8.602178 -1.1682806 -2.3747752 -0.056866 -0.500131 0.32113454
-3.1925006 4.372028 -0.06397665 3.670001 -0.36487463 0.35554382 8.78699 -1.2514161
-6.0798554 -14.061491 -5.983384 -7.104317 10.936536 -3.7837558 4.293328 5.20262
3.4022202 0.20533465 -3.1234725 -3.2348385 -0.4137677 -6.6548033 9.235552 13.469712
-4.7377677 -5.3232317 -9.525859 -1.4391994 0.97855586 3.8509948 1.162646 -0.4694036
2.1893702 -9.749635 9.992829 5.4760275 0.7133706 11.135586 2.374847 -5.8960695
7.5694766 -2.1482806 0.06753528 0.41796783 -11.881019 6.9700313 11.153935 -18.647049
1.2793589 3.581687 -0.82522494 -2.253282 -0.037691154 10.96735 2.8051066 1.9929736
8.618108 -0.32394585 0.668227 -0.79000914 5.526655 -6.196516 2.7219708 -7.3038573
-1.0161113 7.6428404 0.35496172 0.46865335 -16.291704 6.183813 6.688966 -6.0751295
-0.86897886 1.8814012 4.061011 9.182953 -9.129808 -10.868248 1.7319077 -4.5747833
1.7215594 0.38639802 1.9983662 0.23136598 -13.766657 2.6394367 -3.0512722 6.1598215
-8.321263 -2.3278434 2.43821 -16.256758 -2.704274 -14.11782 11.754267 1.1573782
-1.1501683 3.361373 -4.6232104 -1.8516665 1.3505323 -10.76448 -8.059245 9.859029
-8.156005 7.957516 3.400022 -11.025356 -6.8479733 1.6994435 0.25777566 -5.5180187
-13.475304 1.5375084 9.475226 7.3884835 -8.721013 -8.010136 2.1655946 5.161971
-2.8959162 6.85758 5.4239473 2.4628406 -2.3571677 -10.265033 2.9953325 -7.217252
5.8477883 0.49225327 -0.18688945 -1.9095782 -2.2693605 2.0623496 -6.5044885 -7.754835
1.6372442 -5.42298 0.0043311846 -6.666242 -6.562555 -1.7371914 9.334906 -8.242484
-6.0410295 -1.34745 3.9032156 -4.10725 -2.8029437 7.8864927 3.997712 10.439476
-3.9929888 14.051098 13.246832 3.6837304 -1.9655098 -8.388106 4.908013 -6.791761
3.146252 4.1972184 -0.050061177 -5.7020917 -6.698505 -2.1959481 4.7414865 5.250626
-1.1835407 0.3580447 -6.36737 7.1082973 -1.1465315 6.629297 5.559325 -3.3415456
11.563943 -0.06364864 -7.6385064 -4.0035276 5.51126 13.519548 -1.4916639 -4.0952363
6.8383055 0.158196 0.08473699 8.536294 9.985788 8.673151 5.290845 -0.37900788
3.1359584 10.2388735 -12.494901 3.3589032 -4.9720364 14.657019 -5.7135344 -1.2657162
13.678818 7.036521 -12.366923 1.5966402 -3.5853386 -9.116335 9.513409 12.75819
4.5008235 4.79962 6.0334525 4.791107 -1.3884166 8.066475 -11.7303505 -7.195898
-5.6375527 1.6597419 -1.9871767 6.57083 -6.3220735 -11.7569895 4.833905 -10.371397

gnn_node.convs.0.mlp.1.running_var f4 [256]
00000000: b72f 8042 52e2 2a42 8cf5 a142 8fda 5542
00000010: 8e41 6142 f4e6 4742 a5d8 b741 cb1a 3c42
00000020: 81e0 1c42 3671 b041 48ad 8240 2aa3 4642
00000030: f692 8041 59c4 4642 e2de 7342 19af a442
00000040: 3cfd 7041 c311 0942 e877 5042 e78e 7342
00000050: 01eb e842 d44b 8f42 a23b 7d42 e715 8241
00000060: d449 a141 6a47 8e42 80c7 5b42 8d79 b842
00000070: 1cd7 be41 271b 9541 6f5a 9542 e079 d841
00000080: af7c 4e42 2f8f 9642 e95c 5742 5315 bb42
00000090: 5a09 7e42 2d18 a041 0aa0 1942 9af7 b142
000000a0: e270 0842 8eb0 4142 c90f 8042 ce6f c441
000000b0: 329a e841 82bb ec41 537d af41 09e8 0542
000000c0: 8c63 0242 e264 f741 c31a 2f42 4a13 8442
000000d0: 9a78 3742 0b7b 8f42 a2e7 a941 3346 b441
000000e0: fe0f e641 cd92 7741 f434 9841 a50d 4b42
000000f0: ef47 a741 6bf2 5542 1d2b cc41 c040 f741
00000100: 3090 5a42 02e2 2942 81ab b342 ee11 1e42
00000110: c44e d241 54ad bf42 919e aa41 2b3a 1242
00000120: 44aa 3c42 87a9 7841 0947 9a42 ec46 8242
00000130: 383b dd41 cde5 0e42 6272 8741 6b12 e941
00000140: 6a66 6e42 e493 2542 415e 5342 8558 6941
00000150: 27cb 6242 ea55 ed41 f4d6 e241 1e4d a242
00000160: f402 7141 5779 1942 0b46 8f42 c078 f741
00000170: 5aeb dd42 ed05 8d42 cd72 2642 62a4 fc42
00000180: b2bd 2642 c1f1 aa41 7a96 d342 e496 8442
00000190: 260e de41 0cd9 eb42 048f 4f42 9b7b 3642
000001a0: b527 2d42 b010 5442 f371 1242 778b 8642
000001b0: 7a04 2842 8e35 aa41 3bd6 6c42 c31f eb41
000001c0: de83 6342 70ad 7142 0ba1 2542 0203 4342
000001d0: 98f0 2142 e9de f841 b3ba 8141 6b18 d041
000001e0: c4b5 d341 bb85 b041 15f2 8242 3131 db41
000001f0: 63a7 8542 e9dd 0342 623b c941 10c0 fd41
00000200: 40a2 1142 9793 f641 a58f 9141 21ac d341
00000210: 9cc8 c541 1aac 8041 44e8 4542 cea2 5b42
00000220: 086d 8142 99ed 5442 0dd6 eb42 3ed0 6d42
00000230: 159a ab41 9a66 5142 346c a341 bd39 c441
00000240: 7f14 8b41 fb28 f541 d674 ed41 75e4 e842
00000250: 1a50 6742 1708 0743 2454 8742 7796 bf41
00000260: af3f 7841 7b5b 6841 fb21 9542 89ac ae42
00000270: 71f0 5942 90ad 8441 c48e 7141 9174 ba41
00000280: d75c a141 b914 2542 f79b 7e42 e3df 8042
00000290: e197 7542 cfd8 5441 64a5 bb42 f3d7 7542
000002a0: 0642 9c42 e14a 8441 49c4 2842 1896 bf42
000002b0: 8751 0142 cdfd f541 b40b b642 501f 2f42
000002c0: 8db8 f541 8abb 0542 5ae8 2742 e847 9742
000002d0: 06df 3942 bcb0 7442 1c1c 7541 c7c3 9841
000002e0: d8a9 ed41 3461 4b41 81ec 9642 d3d9 8a42
000002f0: 6572 7d42 716a 9e42 c904 6542 455d 3842
00000300: 0e7c e541 0c43 9942 94ae d641 acbb 9742
00000310: 89d1 6742 81f6 4c42 efef e642 c645 4d42
00000320: f43f 8241 7122 5d42 8749 d841 9da1 2442
00000330: ed25 1442 24c1 8842 df40 7a42 0f32 a741
00000340: e4f1 9542 1dfc 3542 6ae3 d041 5f8b 3142
00000350: eb68 d241 c561 6a41 5967 4942 71f7 8542
00000360: 4c0e 8542 9206 7542 b0a2 8c42 818b fa41
00000370: 40c1 3c42 189f 5d42 5065 b542 579c 8142
00000380: 9714 cf41 c105 8642 54b2 3642 1a3f 9141
00000390: 539f 0a42 4df4 b241 ebc0 9d42 32ca aa42
000003a0: fdf7 4442 0929 8e42 baf9 3342 eb87 d942
000003b0: f869 1343 9213 d442 a1e3 ac41 9d8b b941
000003c0: 5d39 1042 8cab b141 6acc 2742 4aec 7942
000003d0: 267e 9c42 718b cb41 799d 5042 aa6a 0342
000003e0: ea2f b741 6f8f 0a42 7b9f 9142 92d8 2f42
000003f0: 7f14 2d42 ec7c 6042 221a 8e42 da6d f041
64.09319 42.721016 80.97958 53.463436 56.31402 49.97554 22.980783 47.026165
39.219242 22.055279 4.0836525 49.65934 16.071758 49.691746 60.96766 82.34199
15.061825 34.267345 52.117096 60.889553 116.45899 71.6481 63.308235 16.260695
20.161049 71.13948 54.944824 92.237404 23.855034 18.638258 74.67663 27.05951
51.62176 75.279655 53.840733 93.54165 63.509132 20.011805 38.40629 88.9836
34.110237 48.422417 64.03083 24.554592 29.07529 29.591557 21.936193 33.476597
32.597214 30.92426 43.776134 66.037674 45.867775 71.74032 21.238102 22.534277
28.757809 15.47334 19.025856 50.763325 20.910124 53.486736 25.521051 30.906616
54.64081 42.47071 89.83497 39.51751 26.28846 95.83853 21.327425 36.556805
47.166275 15.5413885 77.13874 65.13852 27.653915 35.724415 16.930851 29.133993
59.600014 41.394424 52.842045 14.584111 56.69839 29.66695 28.354958 81.15062
15.063221 38.368496 71.6368 30.93396 110.95967 70.51157 41.61211 126.32106
41.68525 21.368044 105.7939 66.29471 27.756908 117.92392 51.889664 45.62071
43.288776 53.016296 36.61128 67.27239 42.00437 21.27615 59.20921 29.390509
56.878777 60.419373 41.40727 48.752937 40.484955 31.108843 16.216162 26.011923
26.463753 22.065298 65.47282 27.39902 66.82693 32.96671 25.153996 31.71878
36.408447 30.822065 18.195139 26.459047 24.722954 16.084034 49.47682 54.90899
64.71295 53.23203 117.91807 59.45336 21.450235 52.350197 20.427834 24.528193
17.385008 30.64501 29.682049 116.446205 57.828224 135.0316 67.66434 23.94847
15.515548 14.522334 74.56637 87.33698 54.484806 16.584747 15.097355 23.306917
20.170332 41.270237 63.65231 64.43728 61.39832 13.302932 93.82303 61.460888
78.12895 16.536562 42.191685 95.79315 32.329617 30.748926 91.02286 43.78058
30.715113 33.433144 41.976906 75.64044 46.467796 61.172592 15.319363 19.095594
29.707932 12.711231 75.46192 69.42544 63.361713 79.20789 57.254673 46.091084
28.685574 76.63095 26.835243 75.86655 57.954624 51.240726 115.46862 51.31814
16.281227 55.283634 27.035902 41.157825 37.037037 68.37723 62.56335 20.899443
74.97244 45.496204 26.111042 44.386105 26.30123 14.6488695 50.350925 66.983284
66.52792 61.256416 70.31775 31.318117 47.18872 55.405365 90.697876 64.80535
25.885054 67.01124 45.67415 18.155811 34.65559 22.369287 78.87679 85.39491
49.242176 71.08015 44.993874 108.765465 147.41394 106.03822 21.611147 23.19317
36.05602 22.208763 41.949623 62.48075 78.24638 25.443087 52.15378 32.854164
22.898396 34.64007 72.811485 43.961494 43.270016 56.121994 71.05104 30.053638

gnn_node.convs.0.mlp.3.weight f4 [128, 256]
00000000: 3034 3cbe 695d 363e 9ce4 87be 2563 5abd
00000010: d5da aabd 8abb 9cbe 3ad3 d7be df4d b4be
00000020: 6d8e 2e3d 798c a73d 71c1 7ebd 454f 92be
00000030: 480e a13e be25 073f 5fda 3dbe 9723 e6be
00000040: b866 5ebd b5e5 17bf 62fc 53be 8470 63bd
00000050: 64c3 bb3d 8de3 11be 0868 1cbf 17f1 0abf
00000060: 66d4 d2bd 8340 a2bf c338 dfbe 4e48 b23e
00000070: b55e ebbe 5425 febd dd2f 3ebe c07b b4be
00000080: 7f15 12bf bff8 c6be 11d1 cbbe c1ae 983e
00000090: 0386 03bf 2a7a b6bd 9fbb 633b 492b 1a3c
000000a0: adee e03e dc65 0dbf 9f69 89be 9040 633e
000000b0: d21d acbe 9b63 d23e f61f 85bd 004e 9abe
000000c0: 6c6b 9abe 4b24 5bbd a72f a5be b8f1 34be
000000d0: 5ae8 48be 6941 313f 33f0 df3d b7f8 1dbf
000000e0: 496e f1be 757d f5bb 8ce4 49bf 8cda acbe
000000f0: 08c8 adbe fa5a b9bd 27a1 02bf de40 a1bc
00000100: be83 19be 88d4 84bd cf98 aa3d 7a90 98be
00000110: b9b0 fdbd 0d8f b8bc 154f 6abe 03c9 90bc
00000120: 8eb9 8cbe c27a bfbc 11eb 443a 7c2e ad3d
00000130: c4d2 14bd aea2 e43c 6937 0abe 6187 c5be
00000140: 289b 72b9 743b 00bf a6aa 4a3f dd4c 7e3d
00000150: 48b4 84be c0ca 6abd 22ce 293d dee7 8e3d
00000160: ef8d c73c 31cd df3d 5e87 39bd 8e8e 15bf
00000170: 4300 23be fb64 f6bc 377b 31bf 8176 0d3d
00000180: db94 babe fa17 31be 1e4a bfbe 36d5 23bf
00000190: 8b23 00bf 6e6e 9f3e 06fd a7be d9d3 01bd
000001a0: d62e 00bf cd12 c6bb 86bd 8fbe 6b64 64bd
000001b0: 5149 ea3d bc9b adbe 7235 ccbd f3d7 1ebd
000001c0: ab51 98be e65c e2be 2ae4 66bf 0884 aebe
000001d0: ee49 543e 4894 39bd 2667 c6bd 7b9c d7bc
000001e0: 548e 7abd 3bae 1cbf 3738 cbbe 3c7b 5ebe
000001f0: cf1c 02be 6921 b03c a3ff 95be 7287 9dbe
00000200: 4c96 b1be b5c7 d5bc 9024 a0be a4cd cbbd
00000210: 8487 16bf 04f7 f0bd ab5c febc 28c6 19be
00000220: dd6c 3c3e a39d 1c3c c388 b43c 44a3 c038
00000230: ae95 8e3d f238 7ebd d75e 3abe d692 28bf
00000240: 7812 5f3e 0893 1ebe 4fd6 87be 4a80 74be
00000250: 1076 a13e 2c5b 9c3d 6919 1e3d 156c 81bd
00000260: ed9d bbbd 254d 54be 1995 9ebc d5ca da3e
00000270: 8536 9fbe 62ed 2f3e bbb8 bfbe 2941 c83e
00000280: 7159 aabe b8c0 e5bd 6991 913d 0bb5 9b3c
00000290: 26f4 573c 8e0f 8abe c55d f23e 8adb 29bf
000002a0: 3b01 cfbd c907 72be 7ef9 79bd 2774 91be
000002b0: a701 3a3d 25c2 773f 6f9f 17be 5ff2 c13d
000002c0: 37b2 4ebe 9fe1 033e af0e bcbe 2cb5 03be
000002d0: d9a5 0abf 5b56 28bd 3782 09bf 36dc f8be
000002e0: 7b5b 88be 1aa4 49be 8c29 c5be 776e f4bd
000002f0: a68b f7bd d0f8 c53d c49e bcbd 974e 17be
00000300: 2b71 b8be 8dc3 0f3b 2beb 9a3e 6fde 2dbd
00000310: 5527 853e 5a5f 15bf 905b 1e3e b148 53be
00000320: 6137 2cbf 1e5e c8bc 2cae 1cbe f467 7abe
00000330: 8924 04bf 7235 acbd 2228 f33e 22d0 d9be
00000340: 5a7a 9dbe 9566 23bf fd71 973e 961f 1fbe
00000350: 9846 4f3d ce37 063d 9a8f fbbe 76fe 883e
00000360: 8bee 15be 26e5 b3be d272 b1be f193 3fbf
00000370: 4488 80be 901f 63be b5d1 783e f8c4 17bf
00000380: 6ccd 42bf 44ff adbe d626 6e3c de78 273c
00000390: d865 1dbf 1264 a1bd 99cb b4be d14c 353d
000003a0: 03d2 b3bd 5ab2 783d 78e1 1b3d 9c4d 773e
000003b0: f2bd 2c3e d0ad 4cbd 2dcf 1fbf eb01 07bf
000003c0: 2e4d 1abf 9c85 b6be 1b53 88bd 25e6 05be
000003d0: 2e8f 95bd 22c6 3ebd aa95 863e 022f c43e
000003e0: 6cae 6cbe 7771 293f da48 0c3f b162 97be
000003f0: 8418 903e ccf8 6c3e 8e00 93bd cd98 28bf
-0.18379283 0.1780907 -0.26541603 -0.053317208 -0.0834252 -0.3061183 -0.4215334 -0.3521566
0.042616297 0.0818109 -0.0621962 -0.28576103 0.31456208 0.52791965 -0.18540333 -0.44949028
-0.05429718 -0.5933488 -0.20701745 -0.055527225 0.09168127 -0.1424696 -0.6109624 -0.54274124
-0.10294418 -1.2675937 -0.43597993 0.3482079 -0.45970693 -0.124094635 -0.18572946 -0.35250664
-0.5706405 -0.38861653 -0.39807943 0.29820827 -0.5137636 -0.0891002 0.0034749282 0.009409734
0.43932095 -0.5523355 -0.26838395 0.22192597 -0.336165 0.41091618 -0.06500237 -0.30137634
-0.3016008 -0.05350141 -0.32262918 -0.17670333 -0.19619885 0.6924043 0.10934486 -0.61707634
-0.47154453 -0.0074917623 -0.7886436 -0.33760488 -0.33941674 -0.090505555 -0.5102715 -0.019684251
-0.14991662 -0.064858496 0.08329927 -0.29797727 -0.12387223 -0.02252915 -0.2288173 -0.017673975
-0.27485317 -0.023373965 0.0007511834 0.08456132 -0.036333814 0.027909603 -0.134977 -0.38579848
-0.00023136719 -0.5009072 0.7916664 0.06208502 -0.25918794 -0.057322264 0.04145635 0.06977819
0.024359671 0.10927809 -0.04529511 -0.58420646 -0.15918069 -0.030077448 -0.69328636 0.034536842
-0.36441693 -0.17294303 -0.37361234 -0.6399721 -0.50054234 0.3113894 -0.3281023 -0.031696174
-0.50071466 -0.0060447217 -0.28074282 -0.05575983 0.11439765 -0.33907878 -0.099711314 -0.038780164
-0.29749808 -0.442115 -0.901919 -0.34085107 0.20731327 -0.045307428 -0.09687643 -0.026319733
-0.06117089 -0.61203355 -0.39691326 -0.21726698 -0.12706302 0.021500306 -0.29296598 -0.307674
-0.3468498 -0.026096204 -0.31277895 -0.09951332 -0.5880053 -0.117658645 -0.031050047 -0.15016997
0.18400903 0.009559068 0.02203787 9.185684e-05 0.06962143 -0.062066026 -0.18200241 -0.65849054
0.21784389 -0.15485775 -0.26530692 -0.23877063 0.31535387 0.07634577 0.03859845 -0.06319443
-0.09160981 -0.20732553 -0.019358205 0.42732874 -0.31096283 0.17180398 -0.37445626 0.39112213
-0.33271363 -0.11218399 0.07107813 0.019007226 0.013180768 -0.26964992 0.47337165 -0.66350615
-0.101076566 -0.23635782 -0.06102895 -0.2840893 0.045411732 0.96780616 -0.14806913 0.09470057
-0.20185171 0.12879036 -0.36729953 -0.1286208 -0.54159313 -0.04109798 -0.5371432 -0.48605508
-0.26632294 -0.19691506 -0.3850826 -0.11935132 -0.12087183 0.09666598 -0.0920997 -0.14776073
-0.3602384 0.0021936626 0.30257544 -0.042448457 0.2600657 -0.5834862 0.15464616 -0.20633198
-0.67272 -0.024458941 -0.15300816 -0.24453717 -0.5161825 -0.084086314 0.47491556 -0.42541605
-0.3075741 -0.638284 0.29579154 -0.15539393 0.050604433 0.032768063 -0.49132997 0.26756638
-0.14641778 -0.35135764 -0.34657913 -0.74835116 -0.25103962 -0.22180009 0.24298747 -0.59284925
-0.760947 -0.33983815 0.014535626 0.010221688 -0.61483526 -0.07880415 -0.35311583 0.04426271
-0.08780291 0.060716964 0.03805682 0.241507 0.16869333 -0.049970448 -0.624255 -0.527373
-0.60274017 -0.3564881 -0.06656476 -0.13076074 -0.073027 -0.046575673 0.2628606 0.38317114
-0.23113412 0.6618876 0.5479866 -0.29567483 0.28143704 0.23141783 -0.0717784 -0.65858155
