checkpoints/C_epoch_60.pth (torch, 843938 bytes, 48 tensors)

gnn_node.node_encoder.weight f4 [1, 128]
000000 89 09 26 3f 31 d9 78 bf d4 ba a1 be 5a 3d 26 3e
       0.648583 -0.9720641 -0.3158785 0.16234341
000010 f0 c8 10 be 66 a5 2f be 1f 7e 13 3d a9 b5 d9 be
       -0.14139152 -0.17152938 0.03600895 -0.42521408
000020 61 0a 3b 3f 71 ce 67 be 7a 8f cb be 35 ad 0f 3f
       0.7306271 -0.22637345 -0.397579 0.5612367
000030 8b d7 9a bf 83 00 af 3d 55 54 1a 3f 81 d8 2e bd
       -1.2097028 0.085450195 0.6028493 -0.042686943
000040 e0 54 af bf d7 d9 71 bf 8e 0b 74 3e 0c 76 65 bf
       -1.3697777 -0.9447302 0.23832533 -0.8963325
000050 97 37 a4 bf 42 e4 0c 3e 7c af 97 3d a3 b8 be be
       -1.2829465 0.13758948 0.07406518 -0.37250242
000060 2e 54 3b be d1 f1 c4 bf 2e 60 7c be 43 e3 34 bf
       -0.18293831 -1.5386297 -0.24646065 -0.70659274
000070 f8 b9 4f 3f 19 02 d7 bc 9e f5 8d 3e c6 ef 15 c0
       0.8114314 -0.026246117 0.27726454 -2.3427596
000080 6e 0b d2 bf 19 30 80 3e 67 e3 0b bf bb ba 06 3f
       -1.6409738 0.25036696 -0.54643863 0.5262868
000090 bb 6d 0a c0 81 59 8d be 39 ac 26 3f fb 97 87 be
       -2.1629474 -0.2760735 0.6510654 -0.2648314
0000a0 08 a8 9f bf e8 72 98 be ef ca 79 bf c5 57 07 c0
       -1.2473154 -0.29775167 -0.9757528 -2.114732
0000b0 bc f6 90 be 2b db 4f be c1 be 8b be f6 f1 82 bf
       -0.28313243 -0.2029845 -0.2729397 -1.0230091
0000c0 8b 48 ee be 95 cb 57 3c 79 23 9d bf e3 ca a3 bf
       -0.4653972 0.013171096 -1.227645 -1.2796291
0000d0 42 11 fb be 4e bf 05 3f 2c 65 38 bf bd 5e d5 3e
       -0.49036604 0.5224503 -0.72029376 0.41673842
0000e0 99 61 c7 bf ef 81 51 3f 69 65 55 bd 6a 22 f9 3e
       -1.557666 0.8183889 -0.052098665 0.48659068
0000f0 da e6 d1 bd 3d cb 56 bf 0f b3 f4 be ff 96 21 bf
       -0.102491096 -0.83903867 -0.4779286 -0.63121027
000100 a7 e3 16 c0 95 7f d7 bf 96 ba 71 bf 70 9d 5d 3e
       -2.3576448 -1.683581 -0.9442533 0.21642089
000110 49 82 a0 3e 47 92 0c 3c d5 1e a0 be 9f 0f 63 bf
       0.313494 0.008579797 -0.31273523 -0.8869571
000120 61 94 bc 3d 2a ce d9 bf 81 27 1d bf 8d 77 b6 3e
       0.092079885 -1.7016041 -0.61388403 0.35638085
000130 dd 8f cf bf a3 f2 86 be ad 93 e1 be 68 1a b0 bf
       -1.6215779 -0.26356992 -0.4405798 -1.3758059
000140 e2 9f 9c bf 82 97 56 be 13 01 cb bd 01 8a 57 bf
       -1.2236292 -0.20956233 -0.09912314 -0.8419495
000150 b8 4f 16 bf ff 6d 81 3e 9c 8a bf 3e 17 4e 69 bf
       -0.5871539 0.25279233 0.37410438 -0.9113478
000160 ed 38 88 3f c2 c6 a0 be c8 d2 77 3f ce 3f 31 bf
       1.0642372 -0.3140164 0.96806 -0.69237983
000170 00 82 83 3f f9 3b c1 bf 2e 4f d6 bc 0b b7 33 3e
       1.0274048 -1.5096427 -0.026160803 0.17550294
000180 ed b7 02 be c3 8e b4 3e d3 cb 38 bf 40 03 31 3f
       -0.12765475 0.3526517 -0.7218601 0.69145584
000190 7d c7 bc be 19 7d 21 bf 5e d5 b5 3f 04 ce e5 3e
       -0.36870947 -0.6308151 1.420574 0.4488374
0001a0 1c e1 2f 3e 49 e3 4e 3f 77 da 21 3f d5 98 bf bf
       0.17175716 0.8081556 0.63223976 -1.4968516
0001b0 24 58 ea 3e b9 e5 9f bf 37 33 2b 3e 4a 6c a6 be
       0.4577037 -1.2491981 0.16718756 -0.32504493
0001c0 05 42 38 be 24 32 64 bf 89 c6 6e bf 71 9c 53 bf
       -0.17993934 -0.8913901 -0.9327169 -0.82660586
0001d0 42 08 0e bf 80 ef 77 bf 72 b8 3f bf 6b 42 f3 bf
       -0.5548135 -0.96849823 -0.74890816 -1.9004644
0001e0 db ef 9e bf 64 0a 04 3e 87 2d 01 be b3 a7 04 3e
       -1.2416948 0.12894589 -0.12615024 0.12954597
0001f0 16 c4 61 3e f4 93 bc bb cd 9c 00 3e 5a 6d 16 bf
       0.22047457 -0.005754942 0.12559815 -0.5876061

gnn_node.virtualnode_embedding.weight f4 [1, 128]
000000 2d cc e8 be be d8 b3 be 57 65 7f be a0 1f 0d be
       -0.45468274 -0.351263 -0.24941002 -0.13781595
000010 76 2e 0d bf 81 8a 48 be 69 aa ee be fd 3c 04 be
       -0.5514902 -0.19584085 -0.46614388 -0.1291389
000020 64 f5 62 be b4 14 94 bd b0 8d 76 3d 83 43 65 be
       -0.22163922 -0.07230511 0.060193717 -0.22389035
000030 b2 f7 b7 be 53 dd f4 be f2 9c 42 bf 3a 65 89 b9
       -0.35931164 -0.47825107 -0.7602073 -0.00026206096
000040 9d 6a 8a be 9e b8 96 be 9f eb ae 3d 70 36 03 be
       -0.27034464 -0.29437727 0.08541035 -0.12813735
000050 e5 d7 ec be 0f 95 21 bf bb 6f 26 bf e4 4b db be
       -0.46258464 -0.6311807 -0.6501424 -0.42831337
000060 c4 29 03 bf 45 aa a7 3d a9 25 1e bf 5e 50 9e be
       -0.51235604 0.08186773 -0.61776215 -0.3092069
000070 99 a1 14 bf d3 cb 58 be 75 39 c9 bd dc 10 18 bf
       -0.5805908 -0.21171503 -0.09825412 -0.59400725
000080 60 47 f7 be cb ac 26 bc f9 d7 e9 bd a4 35 12 bf
       -0.48296642 -0.010173033 -0.11418147 -0.571131
000090 6e 84 62 bd 7a c4 b3 be 2b 71 15 bf 99 9f 21 bf
       -0.055302076 -0.35110837 -0.58375806 -0.6313415
0000a0 7a be b8 be 38 0f 9b be 0f c0 6c be d6 a5 fd be
       -0.36082822 -0.30285048 -0.2312014 -0.49540585
0000b0 91 42 87 be 0e c8 fc be 30 1c f0 3b 43 70 ad be
       -0.26417974 -0.4937138 0.007327579 -0.3387471
0000c0 05 c2 00 be c8 e4 68 3e 2c 2b 87 be f1 64 4e bb
       -0.12574013 0.22743523 -0.26400125 -0.0031493271
0000d0 19 15 b7 be 30 e3 c4 be 04 98 81 be 3c a8 2c bf
       -0.35758284 -0.3845458 -0.2531129 -0.67444205
0000e0 ea 5b cc be 62 15 3e bf 51 e7 eb be e5 92 77 be
       -0.39913875 -0.7425138 -0.46074918 -0.2417713
0000f0 01 55 9a be cf 0d a3 bd af 09 05 be 69 1d 93 be
       -0.30142978 -0.07961618 -0.12991975 -0.28733376
000100 97 82 c1 be d9 74 cb 3e 75 b5 2c be ff 83 be 3d
       -0.37794945 0.39737585 -0.16866095 0.0930252
000110 cf e5 b4 be 6d b3 02 bf bb bf f7 be 33 02 84 be
       -0.3533158 -0.5105503 -0.48388466 -0.25782928
000120 87 9a e8 3c 83 83 20 bf e8 18 7a be a9 3a db be
       0.028393997 -0.6270067 -0.24423563 -0.42818192
000130 49 b2 4c be 05 2d 98 bc d4 31 cf be 95 32 cd be
       -0.19989885 -0.018576154 -0.40467703 -0.40077654
000140 c7 ba 0d bf 0e 0b b0 be 80 ce 4e bd dc a5 3f be
       -0.55363125 -0.34383434 -0.050489902 -0.18715614
000150 12 89 8f be 87 3b 2a be 6a 72 97 be f2 72 42 be
       -0.28034264 -0.1662427 -0.29579479 -0.1898916
000160 3e 37 42 bf 7c 12 e5 be b9 ce 1d bf ff 97 5d be
       -0.7586554 -0.44740665 -0.6164356 -0.21640013
000170 17 16 31 bf d4 4b 7c bd 66 80 5c bd 80 2a 91 3d
       -0.6917433 -0.061595753 -0.053833388 0.07088184
000180 1c c1 81 be b3 1a 93 be 51 69 31 3d 85 47 9d be
       -0.25342643 -0.28731307 0.04331333 -0.30718628
000190 43 bc 9a be 18 df d6 be 93 21 4c bf 09 13 ec be
       -0.30221757 -0.41967082 -0.7973873 -0.46108273
0001a0 99 ab d6 be 87 4b 60 be b2 c7 0c bf c5 a8 19 be
       -0.41927794 -0.21903811 -0.5499221 -0.15005787
0001b0 7b 5e 2a be 44 f0 00 be ea 49 5c bc c8 0e ec bd
       -0.16637604 -0.12591654 -0.013445357 -0.11526257
0001c0 5c e4 62 be 26 08 8f be 1a ef 25 be cb 00 7e be
       -0.22157425 -0.27935904 -0.16204491 -0.2480499
0001d0 61 c2 96 bc b0 f0 9e bb d0 da 25 be 40 ad fc bd
       -0.018403234 -0.0048504695 -0.16196752 -0.12337732
0001e0 41 42 f5 be c0 5b 66 be bf e0 e1 bd 5e 0e 08 be
       -0.4790211 -0.22495937 -0.11029195 -0.1328673
0001f0 4b bf f5 be ea fa 8c be c2 b2 54 bd 92 4b eb be
       -0.47997507 -0.27535182 -0.05192829 -0.45956093

gnn_node.convs.0.mlp.0.weight f4 [256, 128]
000000 10 e5 bc be 61 24 e3 3d 10 90 a4 bd dc e8 0e 3e
       -0.3689351 0.11090923 -0.0803529 0.13956016
000010 0e ef cf bc 35 a4 05 3d ae af 44 be 73 9b c7 3d
       -0.025382545 0.032627303 -0.19207641 0.097464465
000020 25 24 a0 3d 36 dc f9 bd 3d 7d fb 3c e2 9b 3c 3c
       0.07819394 -0.12200205 0.030699367 0.011511775
000030 ef cc 9c 3d 1c cc 1a bf 7b 84 a7 bd e0 84 1b bd
       0.076562755 -0.60467696 -0.081795655 -0.037968516
000040 2a 49 9c 3c b1 73 6a 3d 8f 94 0e 3e fc dd 09 3f
       0.019077856 0.05723924 0.13923858 0.53854346
000050 31 d3 75 bd 38 4c 25 be db 43 bf 3c b2 7c 38 3d
       -0.06001586 -0.16142356 0.023347786 0.045040794
000060 de 33 48 be 85 09 8d 3d a7 8e a1 bb fe 9f 9b bd
       -0.19551036 0.06886581 -0.0049303356 -0.075988755
000070 01 4c e5 3c c9 18 fa 3d 8a 36 1b be f6 09 6c 3d
       0.027990343 0.12211759 -0.15157524 0.057626687
000080 dc 11 c9 bd 26 56 e4 3e fd ad 29 be d7 c3 1b 3e
       -0.098178595 0.44596976 -0.16570278 0.15211426
000090 d9 94 77 3c 18 83 fa bc a3 2f 2c 3d d2 8e b9 3d
       0.015111172 -0.030580088 0.042037617 0.09060444
0000a0 b2 e7 af bb de 3d de bc 39 87 69 bd 3e 0c 10 3c
       -0.0053681964 -0.02712911 -0.057013724 0.008791981
0000b0 21 f7 24 3f 36 7f 63 bc 24 13 a6 3e 5c 5b 73 bc
       0.6443959 -0.01388531 0.32436478 -0.014853325
0000c0 d7 0e 4c 3c 61 3f d8 bd 1f 86 0c bd 6d bb 79 bd
       0.01245471 -0.105589636 -0.034307595 -0.06096976
0000d0 30 ab a6 be af c2 b1 3d af 5b 2c bf 1a d5 a7 3c
       -0.3255248 0.08679711 -0.673274 0.020487357
0000e0 8f 8c 03 bd 30 93 bd bd 1e b3 d4 3d b5 6a 8c 3d
       -0.03211647 -0.092565894 0.103857264 0.0685629
0000f0 db d8 38 3d f6 48 40 bf 98 11 00 bf d5 3c 77 bf
       0.045128684 -0.7511133 -0.50026846 -0.965772
000100 a4 ad 0b 3d e8 b2 fc 3c 14 3d 83 bd aa b9 d7 be
       0.034101143 0.030847028 -0.06408134 -0.42133838
000110 11 bc b4 3c b2 95 b1 bd 88 21 33 3f 33 75 c1 bb
       0.022062333 -0.0867113 0.6997304 -0.005903864
000120 64 72 79 be b9 d3 d0 3c e0 8a 81 bc ee 91 e6 be
       -0.24360043 0.025491582 -0.015813291 -0.4503321
000130 c9 e8 19 bd f6 ce 9b be 4e fc 07 3f 57 69 09 3d
       -0.037575517 -0.30431336 0.5311936 0.033547726
000140 4b c2 39 3d 9e 2e e8 bb 14 69 ef 3e 74 1e 7e bc
       0.045351308 -0.0070856353 0.46759856 -0.01551019
000150 48 46 62 3d dd a0 0e bc ac 55 30 bc 18 17 17 3e
       0.055242807 -0.008705345 -0.010762613 0.14754903
000160 97 a9 4c 3d ed 20 32 3e df 46 9d 3c 16 7d af be
       0.04996642 0.17395373 0.019198833 -0.3427512
000170 f6 5d 0c 3d 48 0e 92 3c 0b 38 d7 3f 4d 41 01 bf
       0.034269296 0.017829075 1.6813978 -0.50490266
000180 47 40 96 3e 45 10 c1 3e 04 9b 9d 3c fe cf 1a be
       0.29345915 0.37707725 0.019238956 -0.15118405
000190 8d cb 00 bf 74 b1 da bc a5 15 02 be 30 69 59 bd
       -0.50310594 -0.026695944 -0.12703569 -0.05307883
0001a0 16 64 01 3e 38 6e f4 bd 74 c0 74 be ee af 5c bd
       0.12635836 -0.11935085 -0.2390154 -0.053878717
0001b0 94 df ae be 98 73 83 bd 0e 1a d5 be e2 b6 8d be
       -0.34154952 -0.06418532 -0.4162144 -0.2767859
0001c0 b2 56 02 be 6b f7 35 bd 00 2e b4 bd 71 ee 6d bf
       -0.12728384 -0.04442541 -0.08797836 -0.9294196
0001d0 a1 1c 29 be e2 c4 ed bc e9 4f 0d bd c4 6a 0a bb
       -0.16514827 -0.029024545 -0.034500036 -0.0021120766
0001e0 7e 57 88 bd 67 8f 6e 3e 50 98 71 3d 55 10 b5 3e
       -0.06657313 0.23296891 0.058983147 0.35364023
0001f0 e8 7b 86 3f 48 cf 1c bb e1 4f c7 be 37 55 66 bf
       1.0506563 -0.002392726 -0.3892813 -0.8997378
000200 90 2f 05 be 21 28 cc 3d b8 22 6c bc ed 95 3b be
       -0.13006425 0.099685915 -0.0144125745 -0.18318911
000210 2e b1 f4 3b 1d 83 76 3e 20 15 a5 bd 6d d4 88 be
       0.0074674105 0.24073453 -0.0806067 -0.26724568
000220 31 ad e6 bd 46 f6 91 3e 3a 6d 1b 3c 81 66 d9 3e
       -0.112635024 0.28508204 0.009486491 0.42461017
000230 3f 13 05 3d a5 ea 16 bc 25 f1 39 3e c4 52 b2 3e
       0.032489058 -0.009211217 0.18158396 0.3482877
000240 c0 98 8a 3d ed 3a a7 3c bc bc 46 3d 17 43 e8 be
       0.06767416 0.02041384 0.048519835 -0.45363685
000250 0f 52 8c bd e1 a0 2b 3e 1d 4f 44 3e 53 6c 1d bf
       -0.06851589 0.16760589 0.19170804 -0.61493415
000260 37 29 05 bc 41 0f 08 bd 48 4d fa bd 08 89 25 3d
       -0.008127502 -0.033217672 -0.122217715 0.040413886
000270 7b e5 70 3e dc 95 4c bf 9d 48 33 3d 28 e9 e1 bc
       0.2352504 -0.7991617 0.04377042 -0.027576998
000280 86 bb 0e 3d eb 75 92 3d 2d 2a 3a bf 7e 01 e5 39
       0.034846805 0.07151397 -0.72720605 0.00043679395
000290 1d 43 41 3c 3c 3a 37 3e 1d c7 b9 3b 7a 7f 5b 3d
       0.011795786 0.17893308 0.005669488 0.053588368
0002a0 fe af 73 bb 31 c9 81 be d0 b5 87 bb cd 0e 2f bd
       -0.0037183757 -0.2534881 -0.004141547 -0.042738724
0002b0 4e c5 41 bf ab 78 8b 3d c2 af 6d be ee 4e 00 3d
       -0.7569169 0.06810125 -0.23211578 0.031325273
0002c0 a1 b1 23 3c da de 3b 3d 2e 27 54 bc c9 62 8e 3d
       0.0099910805 0.045866825 -0.012948794 0.069524355
0002d0 b6 e2 ad be 27 0c 2e 3e 4d b5 0a 3d dc 48 73 be
       -0.3396203 0.16996823 0.03386431 -0.23758262
0002e0 fb ad 96 bc 71 ae ad ba 10 a0 71 bd ea e0 04 be
       -0.018393507 -0.001325084 -0.058990538 -0.12976423
0002f0 c6 b0 5c bd 24 73 8e 3e 9b 0b 9e 3d 23 7b 2e 3f
       -0.05387952 0.2782222 0.07717057 0.6815664
000300 0f 62 a2 3c 32 70 7e bd ca ba b5 3d 0d 5d 4c be
       0.019822149 -0.062118717 0.08873518 -0.19957371
000310 b4 39 e9 bd a0 71 b1 be f0 f0 ce bf 22 b4 30 3a
       -0.11387959 -0.34657001 -1.6167278 0.0006740709
000320 6e f7 a9 bf 55 89 85 3c b6 ed 8c bc a8 9a a8 3e
       -1.3278635 0.016300837 -0.017203193 0.32930493
000330 7d 9b 11 3d 65 8d 6f bd 0e 4d f6 3b 5f d8 c4 bc
       0.035548676 -0.058484454 0.00751651 -0.024028955
000340 3f 42 ba 3c 79 c9 e9 3d d4 d5 9c bf 2b 24 41 3d
       0.022736667 0.11415381 -1.2252755 0.047153633
000350 31 15 25 bd 26 d4 bd bd c6 e3 24 3c 10 db 67 3e
       -0.040303413 -0.0926898 0.010064071 0.2264216
000360 a3 46 17 3a ec 5f 6b bd 3d 8f bf 3c 86 83 4b be
       0.00057707186 -0.057464525 0.023383731 -0.19874391
000370 2e 19 be bd 01 ad 97 bd 3c b1 8d bf 60 df cd 3b
       -0.092821464 -0.07406045 -1.1069713 0.006282732
000380 46 c9 0b be b4 2b 89 bf dc 8e be 3c 62 e6 b8 be
       -0.13650998 -1.0716462 0.02326148 -0.36113268
000390 d8 a9 13 c0 45 74 c4 3d 75 8f c9 3d 40 69 bf 3e
       -2.3072414 0.09592489 0.098418154 0.37384987
0003a0 a4 37 a8 bc b8 c8 9e 3d 64 7c 33 be ff f9 b7 bb
       -0.020534344 0.07753128 -0.1752792 -0.0056145187
0003b0 1a 84 16 bf b4 be d5 3c f5 ea b4 bd 79 ae e5 bd
       -0.5879532 0.02609191 -0.08833877 -0.11214919
0003c0 67 6c 58 bd 27 78 9c bc 02 bc 82 bd e9 c2 57 bf
       -0.052837756 -0.019100262 -0.06383516 -0.84281784
0003d0 2a 29 c9 be 4f ec fa be e3 1b 75 3d b6 1d ac bd
       -0.39289218 -0.49008414 0.059841048 -0.084041044
0003e0 ec 9f 08 3d 39 95 de 3c 62 36 f8 bd b1 b4 42 bf
       0.03335564 0.027170764 -0.12119748 -0.76056963
0003f0 2a 6e e3 bf bd 20 11 3e 2f 23 bb 3e cb d7 04 3f
       -1.7767994 0.14172645 0.3655028 0.51891774

gnn_node.convs.0.mlp.0.bias f4 [256]
000000 ff f7 17 3d ac 58 81 3d 85 1f af 3c be f2 a1 3c
       0.037101742 0.06315741 0.021377334 0.019769069
000010 3a 6b 37 3c 56 f1 ac 3d 04 37 55 bd e2 d4 03 bd
       0.011194998 0.08444469 -0.05205442 -0.032185443
000020 82 b9 75 3a 22 23 4a bc ee 2c 1b 3d 4a cf 8f bd
       0.0009373651 -0.012337478 0.037884645 -0.07021959
000030 e2 58 84 bd 42 6e 81 bd 3b 83 59 bd c1 8e 8e bc
       -0.064622656 -0.06319858 -0.053103667 -0.017402055
000040 8f 34 7e bc 96 b0 77 bd 29 ec 9e 3d ad 9a 9e 3d
       -0.015515461 -0.06047114 0.07759888 0.07744346
000050 61 e3 f5 bc ce 36 6c bd fb 91 69 3c 3d 19 13 3d
       -0.03001565 -0.057669453 0.014255996 0.03591274
000060 e9 d8 a7 3c 8b 94 2b bd b9 01 0d 3d e4 6f ce 3c
       0.020489173 -0.04188971 0.03442547 0.025199838
000070 b2 18 28 bc 78 ff a6 bd a5 80 b1 3d 78 6d fe 3b
       -0.010259794 -0.081541955 0.08667115 0.0077645145
000080 85 62 2e 3d 8f 05 6c bc 8a c6 d6 3c e2 c0 50 bd
       0.042574424 -0.014405622 0.026217718 -0.050965197
000090 c3 db b1 bc 46 9c 11 3d 8a 45 6d bc 2b 7d 23 bd
       -0.021711236 0.035549425 -0.014481911 -0.03991429
0000a0 cc 75 5e bd 85 28 bb bd 54 55 8f bd 2c a2 78 3d
       -0.05431156 -0.09138588 -0.06998697 0.060701534
0000b0 36 7a c7 3d 3f 49 ab 3b c8 31 ba bc f7 33 a7 bd
       0.09740107 0.0052272375 -0.022728816 -0.081642084
0000c0 0e 6d 0c 3d 8e b7 b3 ba c4 af a0 bd 47 84 89 bd
       0.03428369 -0.001371132 -0.07846025 -0.06714683
0000d0 25 c7 8d 3c ba f7 7f 3d f0 83 57 bd 06 eb bc bc
       0.017306874 0.06249211 -0.05261606 -0.023061287
0000e0 e3 5d 5e 3d 79 dd 07 3d 0b a7 21 bc f6 24 22 3d
       0.054288756 0.033170197 -0.009866486 0.03958603
0000f0 b1 7d 8f 3c f3 ae c7 bb a0 92 27 bd 44 a6 d4 bb
       0.017515989 -0.0060938536 -0.040911317 -0.006489547
000100 31 b1 d8 3b 6e ac 44 bd e6 8b a1 b8 05 08 90 3c
       0.0066129197 -0.048016004 -7.703136e-05 0.017581949
000110 92 c7 e7 3b 32 9f 12 3d e2 d9 d5 3c e4 c8 87 3d
       0.007073351 0.03579635 0.026104871 0.06630114
000120 73 ca b4 bb a3 31 ed 3c b4 8a 3b bc 5f 47 ae bd
       -0.005517298 0.028954333 -0.011446644 -0.08509707
000130 af 64 e6 bc fb 8b 5b bd 77 37 69 bd a9 91 4d 3c
       -0.028124182 -0.053600293 -0.05693766 0.012546935
000140 9f 4b 86 3d 6f 9e 4a bd cd 39 94 bd c9 1a cf bc
       0.06557392 -0.0494675 -0.07237587 -0.025281327
000150 2c ba 61 bd c1 c4 52 bd 1c af 7a 3d 39 d2 bb 3c
       -0.055109188 -0.05145717 0.061202154 0.02292739
000160 dd f8 bf 3c 70 2d 42 3d 45 f5 b0 bc 3c 38 28 3d
       0.023434097 0.047406614 -0.021601329 0.041069254
000170 8b 2c 9b bd 2c 65 a2 bd 6c 86 02 3c 38 18 89 3d
       -0.07576855 -0.07929453 0.007966619 0.066940725
000180 44 68 00 bc 1f 0f ee bc 27 c1 d0 bc 0f 60 89 bd
       -0.007837359 -0.029059945 -0.025482727 -0.06707775
000190 ec d2 8f bd 40 b8 89 3d 86 bc 59 bd c0 ac c2 3c
       -0.07022652 0.06724596 -0.053158306 0.023764014
0001a0 85 a3 8e 3d 5c d3 6d bd 04 8b 01 bd e3 1a 98 3c
       0.069647826 -0.058062896 -0.031626716 0.018567508
0001b0 54 4d 19 3d 64 8f 2d bd 8a 49 fd ba 8e 6c 61 3d
       0.03742726 -0.042373076 -0.0019324285 0.055035166
0001c0 55 cf da 3c 89 22 28 3d 8e 23 e9 3c 72 37 9d bd
       0.026710192 0.04104856 0.028459337 -0.07676591
0001d0 38 59 58 3d 74 25 34 3d 23 62 3a bd 1f 93 8b 3d
       0.05281946 0.04398103 -0.045503747 0.068151705
0001e0 09 ed cc 3c d1 48 68 3d f4 d8 01 bd 56 52 42 3d
       0.02501537 0.056710068 -0.031701043 0.047441803
0001f0 20 cf a9 bd ea 95 66 bd 6e 82 0c 3d 86 d6 e3 3b
       -0.08291459 -0.056295313 0.034304075 0.0069530634
000200 3a 71 e6 3c 49 a5 32 bc 59 7b 34 3d 04 c0 ab bd
       0.028130163 -0.010903665 0.044062946 -0.083862334
000210 a5 ac a8 bd 48 ef 2e 3d dd 93 23 bd 5c 6a 96 3d
       -0.08236054 0.042708665 -0.039935935 0.07344505
000220 7a 0c 38 3c 57 4a 91 bd ea 99 57 3c 21 89 a0 3c
       0.011233443 -0.07094257 0.013159255 0.019596638
000230 8b f0 46 bd 4c a9 8f 3d 2a 4d a3 bd 89 8c 7d 3d
       -0.048569243 0.07014713 -0.07973702 0.061901603
000240 44 36 39 3c 6d 77 35 3d e4 28 86 3d df e1 a2 bc
       0.011304442 0.044303346 0.06550768 -0.019883094
000250 38 47 2f 3d d7 e0 96 3d 5e d9 07 3d e6 71 ab bb
       0.04279253 0.073671035 0.033166282 -0.0052320836
000260 4f bc 8e 3d fd 00 15 bd c9 67 92 3c d5 e7 7d 3d
       0.06969511 -0.036377896 0.017871754 0.06198867
000270 17 50 67 bd cb 4d 6c bd ad 77 a9 bc 7d 4d 0b 3d
       -0.056472864 -0.057691377 -0.020686949 0.034009445
000280 84 96 94 3d 4f f9 dc bc 7a 76 60 bc 7c c9 92 3d
       0.07255271 -0.026974348 -0.013700122 0.07167336
000290 96 59 82 3d 0e cb 18 3d 38 87 71 3d 65 02 0d bd
       0.063647434 0.037303023 0.058966845 -0.03442611
0002a0 d9 3a 57 bd 04 51 7f 3d c3 50 9d 3d f3 94 ae 3d
       -0.052546356 0.062333122 0.0768142 0.085245036
0002b0 e3 33 20 bd a6 60 94 3c b0 d7 64 3d f2 df a4 3d
       -0.039111983 0.018112492 0.055869758 0.08050527
0002c0 e9 77 99 bd 1a d8 03 3d 06 d9 7b 3d 90 36 7c 3b
       -0.07493574 0.032188512 0.061486267 0.003848467
0002d0 90 7b 92 bd 0f 75 af 3d 70 05 fe bb e8 23 e3 bc
       -0.07152474 0.08567249 -0.007752113 -0.027727082
0002e0 88 68 23 bd 28 1d 11 3d be 4f bc 3c e8 11 18 bd
       -0.03989461 0.035428196 0.022987243 -0.03712645
0002f0 3a 16 fb bb 9f 21 ab bc c7 66 68 3d ae 21 aa bd
       -0.0076625617 -0.020890055 0.05673864 -0.08307205
000300 bb 19 54 3d 18 b2 36 bd 80 e8 15 3d 9c 63 5c bd
       0.05178235 -0.044603437 0.036598682 -0.053805932
000310 27 ea c2 3d d6 26 58 ba 02 d6 0b 3c 50 8e 76 3d
       0.09517317 -0.0008245533 0.00853491 0.060194314
000320 6a 07 5a bd ec 38 30 bd d7 16 b9 3d 60 a8 a6 3d
       -0.053229727 -0.043023035 0.090375595 0.08137584
000330 46 63 70 bd 08 f6 5c bd aa 91 1e bd 2f c6 6f bc
       -0.058688425 -0.05394557 -0.038713135 -0.014634653
000340 12 1a c4 3c 99 b5 8f bd 3d b8 cb bd c8 4b 3b bd
       0.023938213 -0.07017059 -0.0994725 -0.045726568
000350 b0 59 9a bd 9e df a9 bd 46 16 3e bd a8 16 bd 3c
       -0.07536638 -0.08294605 -0.04640796 0.023082092
000360 89 a3 5c 3d 26 2a 60 3d 4f a8 87 bd 19 8b 06 3d
       0.053866897 0.054727696 -0.06623899 0.032847498
000370 c3 22 8b bc 6e a2 b4 3d c8 62 89 3d d5 8c a3 3d
       -0.01698435 0.088200435 0.06708294 0.07985846
000380 41 ee 26 bd 9c 83 5c bd 86 ab 96 bc 1b e8 75 3d
       -0.04075456 -0.05383645 -0.018392336 0.060035806
000390 b0 8f 16 bd 64 c5 04 bd 29 84 f4 bc b1 48 89 bd
       -0.036758125 -0.03241481 -0.029848175 -0.06703318
0003a0 9a 53 80 bc 20 42 85 bd 83 53 5b 3d 42 18 2f bc
       -0.015664864 -0.06506753 0.05354644 -0.010686936
0003b0 1a 7a 85 bd c6 bd fa 3c d9 0e 0d bd b2 91 a8 bd
       -0.0651743 0.03060807 -0.034437988 -0.08230914
0003c0 04 ed 8e 3c 4f ca ec 3c c2 a0 05 bd 6f 97 63 bd
       0.017447002 0.028905062 -0.032624014 -0.05556434
0003d0 db 32 ac bb 70 0c 9d bc bb 3b bd ba 20 0f 7a 3d
       -0.005255086 -0.01917097 -0.0014437357 0.06104958
0003e0 29 ee 1b 3d a4 8f 69 bd d9 a5 b4 bc 76 a0 11 3b
       0.038068924 -0.057021752 -0.022051739 0.0022220886
0003f0 e1 56 92 3d c4 ef 95 bc 3b b2 38 bd 53 1c 9f 3d
       0.07145477 -0.018302806 -0.04509185 0.07769074

gnn_node.convs.0.mlp.1.weight f4 [256]
000000 23 a9 42 3f d2 1e cf 3f a1 31 d2 3f f4 ae 12 3f
       0.7603933 1.6181281 1.6421396 0.5729821
000010 10 f6 b7 3d a5 4f 47 3e f7 e1 37 3f 63 04 3b 3f
       0.089824796 0.19463976 0.7182917 0.7305357
000020 ae 9a ee 3f 16 7a d9 3e 8b dd ae 3c dd 4b 92 3e
       1.8640954 0.42475957 0.021345874 0.28573504
000030 64 54 5d 3f 9b 30 ab 3f ed 4d 9b 3f 1b 99 a5 3f
       0.86456895 1.3374208 1.2133156 1.2937349
000040 fc 79 ad 3f d6 9f b7 3e b8 02 a9 3f 0b 0b af 3f
       1.3552852 0.35864133 1.3203955 1.3675245
000050 f6 a2 ab 3f 06 02 2f 3f d7 7b ba 3f 69 c8 5f 3f
       1.3409107 0.6836246 1.4569043 0.87415177
000060 a1 c8 35 3f 9d 83 30 40 90 28 9a 3f dc 7c 85 3f
       0.7100926 2.758033 1.2043629 1.0428729
000070 59 23 86 3f e3 e9 04 3e 51 0c be 3f 16 d2 92 3f
       1.0479537 0.12979846 1.4847509 1.1470363
000080 00 86 98 3f 5b 24 9b 3f 06 5c c3 3f 97 39 c9 3f
       1.1915894 1.212047 1.5262458 1.57207
000090 06 08 94 3f 62 d6 6d 3e 27 6b 35 3e ca 0a e8 3f
       1.1564949 0.23226312 0.17716657 1.8128293
0000a0 28 6c 87 3f 40 38 e0 3f 67 39 83 3f 29 4c 4c 3f
       1.0579882 1.7517166 1.0251893 0.7980371
0000b0 78 a4 6a 3f 74 18 8b 3f 5a b6 3d 3e 3b c1 b0 3f
       0.9165721 1.0866838 0.18526593 1.3808969
0000c0 48 c6 b3 3f 38 0f 78 3f 7c 25 df 3f 9d 97 98 3f
       1.4044886 0.9689822 1.7433314 1.1921269
0000d0 89 0f aa 3f 6a e4 d4 3f 09 19 46 3f 5d d9 87 3f
       1.3285991 1.6632206 0.7738195 1.0613209
0000e0 a3 11 9b 3f 71 38 15 3e b4 b3 95 3f a9 67 ac 3f
       1.2114757 0.14572312 1.1695466 1.3469135
0000f0 92 2c 68 3f 15 0e ef 3c de 84 95 3f 3a 67 2e 3f
       0.9069301 0.02918152 1.1681173 0.6812626
000100 31 b0 97 3f c2 bf 89 3f ab 33 e4 3f 51 6f 8b 3e
       1.1850644 1.0761645 1.7828268 0.27233365
000110 59 4a b1 3e f8 7c 8f 3e 1d 6e 75 3f 11 47 19 3f
       0.34627035 0.2802503 0.95871145 0.59874064
000120 c1 9f 37 3f fd bb eb 3e 07 89 9a 3f 0d 71 4d 3f
       0.7172814 0.4604186 1.2073067 0.80250627
000130 7f 23 84 3f 7a 02 a5 3f aa 77 30 3f 0b db 99 3f
       1.0323333 1.2891381 0.6893259 1.2019972
000140 c5 5f 00 3f 1a d2 b0 3f 06 c6 ce 3f 1b 19 e1 3e
       0.5014613 1.3814118 1.6154182 0.43964466
000150 9b 4c a9 3f 57 77 b9 3f 19 1a fe 3e f7 27 a9 3f
       1.3226503 1.4489545 0.49629286 1.3215321
000160 f8 06 1d 3f 8d 81 38 3f 8f df b1 3f c0 de a1 3f
       0.6133876 0.7207268 1.389635 1.2646103
000170 37 6d 48 3f 96 9a 00 3f f4 07 01 40 aa 70 ed 3f
       0.7829165 0.5023588 2.0161104 1.8550007
000180 d0 f9 95 3f 56 07 5b 3e c9 ed 8c 3f 05 81 b7 3f
       1.1716862 0.21389517 1.1010066 1.4336249
000190 09 b6 74 3f 5b 0b 8e 3f 60 07 83 3f dd e7 89 3f
       0.95590264 1.1097215 1.0236626 1.0773884
0001a0 12 e9 ac 3f 7b 00 6f 3f 4a c2 b3 3f cb 08 8a 3e
       1.3508627 0.9336011 1.4043667 0.26959834
0001b0 39 0e 89 3f 41 61 31 3f 60 26 9a 3f 7a 12 46 3f
       1.0707465 0.6928902 1.2042961 0.77371943
0001c0 38 6d 51 3f ff 70 91 3f a2 36 db 3f f6 98 93 3f
       0.8180728 1.1362609 1.7126048 1.1531055
0001d0 b0 a9 66 3f 8d b6 9a 3e 39 3f af 3e ad b5 65 3f
       0.9010267 0.302174 0.34227923 0.8973034
0001e0 89 3b 89 3e ec d6 fb 3f 96 81 a0 3f 7e b8 67 3f
       0.26803234 1.9674964 1.2539546 0.9051589
0001f0 49 02 af 3f b1 92 19 3f ff f3 87 3e 2f 5e 65 3f
       1.3672572 0.5998946 0.26553342 0.8959684
000200 6e b9 b4 3f e4 ac 1f 3e 36 3e a0 3f 86 da 01 3e
       1.4119089 0.15593296 1.2518985 0.12681016
000210 f0 cc ac 3f 5f 7a 9a 3f d8 55 37 3f e9 a9 fd 3e
       1.3500042 1.2068595 0.7161536 0.49543694
000220 dd 3b bc 3f ca 73 25 3d a4 71 bb 3f 03 33 53 3f
       1.4705769 0.04039363 1.4644055 0.8249971
000230 6f fe c4 3e 62 0e f3 3e 66 39 e0 3e 24 33 a9 3f
       0.38475367 0.4747191 0.43793792 1.3218732
000240 3c 64 84 3f a9 5a 61 3f 93 13 90 3f 4a 64 26 3f
       1.0343089 0.8802896 1.1255974 0.6499678
000250 80 84 b0 3f 39 03 14 40 84 3f c0 3f a4 a7 24 3f
       1.3790436 2.3126967 1.5019383 0.643183
000260 8e c9 88 3e ce 2f 2b 3f 77 60 1e 3e 2e b4 89 3f
       0.26716274 0.6686982 0.15466486 1.0758111
000270 25 dd c3 3f 27 c3 5d 3f 39 43 75 3f cf ce 84 3f
       1.5301863 0.86625904 0.958057 1.0375613
000280 55 4c f1 3e 2a 36 5e 3f d7 4e 60 3f 20 fd 2b 3f
       0.4712855 0.868014 0.876203 0.67183113
000290 14 e4 bc 3f db 08 40 3f ea e8 a1 3f d7 e5 d6 3f
       1.4757104 0.7501351 1.2649205 1.6788892
0002a0 ca d5 a1 3f 8b a7 17 3f 3e 87 f8 3e 6e 30 c6 3f
       1.2643368 0.59240025 0.48540682 1.548353
0002b0 cf 4e fe 3e a0 7c a7 3f 8a 0e 06 3f 83 b2 0f 3f
       0.496695 1.3084908 0.52365935 0.5613176
0002c0 4c fe 9a 3f 3d 2b 25 3f 2f fa c4 3e 7c 85 c2 3f
       1.2108855 0.645191 0.38472125 1.5196986
0002d0 98 71 b5 3f fa 14 1c 3d a7 ba b8 3f 7b 6f 56 3f
       1.4175291 0.038105942 1.4431962 0.83763856
0002e0 d0 0a bd 3f 10 56 45 3f 3a 37 9f 3f a7 a2 c9 3e
       1.4768925 0.77084446 1.2438729 0.39381906
0002f0 d1 4e 8f 3f dc 6c d7 3f 8c ce 90 3f b8 cf 21 3f
       1.1195928 1.6830096 1.1313033 0.6320758
000300 a1 48 9a 3f 2d 47 a3 3f fd ca 90 3f 85 b1 e7 3f
       1.2053415 1.2756096 1.1311947 1.810105
000310 1a 3b d1 3f 86 e1 9c 3f 76 45 b8 3f 84 2d 3a 3f
       1.6346161 1.2256324 1.4396198 0.727257
000320 e5 48 d4 3f 60 8e 7f 3f b0 c3 b9 3f 80 1d 96 3e
       1.6584746 0.9982662 1.4512844 0.29319382
000330 4d a7 66 3f a6 e0 8e 3e b4 dc 87 3f 64 a4 9d 3f
       0.9009903 0.27905768 1.0614228 1.2315793
000340 ce 49 86 3e f8 3a c7 3f 01 f2 82 3f d4 50 8a 3f
       0.26228184 1.5564871 1.0230104 1.0805917
000350 2c fe 63 3f e3 be 86 3f 8b a7 7a 3f 3d b9 de 3f
       0.8905971 1.0527004 0.979119 1.740028
000360 19 29 58 3f 59 64 c8 3f 06 37 92 3f b2 d4 23 3f
       0.8443771 1.5655624 1.1423042 0.6399642
000370 1e 4d af 3e a9 78 1e 3e 5f 70 9c 3f 48 27 9c 3f
       0.34238523 0.15475716 1.2221793 1.2199488
000380 b2 53 a3 3f 7a 3b 09 3e 52 dd 95 3f fa 23 9d 3e
       1.2759917 0.13401595 1.1708167 0.3069151
000390 af 9f aa 3f 8f b3 07 3f 40 83 8a 3f e1 44 ba 3f
       1.3329982 0.5300836 1.0821304 1.455227
0003a0 bd 25 35 3e 5b 4d b2 3f a9 cd af 3f 0b 49 56 3f
       0.17690177 1.3929857 1.3734637 0.83705205
0003b0 46 72 db 3f bc 42 ff 3f ce 68 49 3f 80 a5 7c 3f
       1.7144248 1.9942241 0.78675544 0.9869003
0003c0 f3 0f 07 3f 91 e0 68 3f 6e 1e d8 3d 9e 5e 54 3f
       0.5275871 0.9096766 0.10552679 0.82956874
0003d0 f7 20 9d 3f e3 49 12 3f c9 4d c2 3f 5b 9e 7d 3f
       1.2275685 0.5714399 1.5179988 0.99069756
0003e0 1b ba ec 3e 06 27 de 3f 77 4f b0 3f 0d 2d 40 3f
       0.46235737 1.7355659 1.3774251 0.7506874
0003f0 15 93 82 3f e1 87 ca 3f ea 79 cb 3c 8c a0 bc 3f
       1.0201136 1.5822717 0.024838407 1.4736495

gnn_node.convs.0.mlp.1.bias f4 [256]
000000 f0 6f 95 3e eb 45 6c be 7b 66 35 be 45 40 2b be
       0.29186964 -0.23073547 -0.17714874 -0.16723736
000010 c9 e5 ee 3d d1 ec 35 3f 6b e8 3e bf f1 47 ff be
       0.11664922 0.7106448 -0.7457339 -0.49859574
000020 b2 f8 38 3c 88 9e 42 bf 3f 87 ec be 4b 3f 43 3f
       0.011289762 -0.7602315 -0.46196935 0.7626845
000030 d0 85 da be de fe b0 be 97 d0 a1 3d 7b 1e 62 3e
       -0.42680216 -0.34569448 0.079011135 0.2208194
000040 0e 72 44 be ae 5d 8e bf 9a 1b 05 bf d8 15 af be
       -0.19184133 -1.1122339 -0.5199524 -0.34196353
000050 af df fa be e0 d4 57 3f 24 31 0d bf 03 20 75 bf
       -0.48998782 0.84309196 -0.5515311 -0.9575197
000060 94 ea 51 bf 59 d5 6a 3e 35 a7 75 3e 03 9c a9 be
       -0.8199856 0.22932948 0.23989566 -0.3312684
000070 1b ad e6 3d 16 c4 ea bb a7 ae 92 be 1f d0 2e 3e
       0.11263486 -0.0071644885 -0.28648874 0.1707158
000080 ab 91 a1 3e 31 fb e9 be 89 5b 7e 3c 83 60 df be
       0.31556448 -0.45699456 0.015524753 -0.4362832
000090 c6 f9 b2 be 12 42 65 be fb 88 21 3f eb 66 91 be
       -0.34956187 -0.22388485 0.6309964 -0.28398833
0000a0 05 72 0e be 8d ab b7 3e 5c 9a e6 be 46 ee 12 be
       -0.13910682 0.3587307 -0.45039642 -0.14348707
0000b0 2a 9d ad bf 5a c3 46 be b1 9e c4 bb bc c9 96 be
       -1.3563588 -0.19410458 -0.006000363 -0.29450786
0000c0 cc 6a f3 be 25 74 90 3e 18 4e 69 be 26 1b bc be
       -0.47542417 0.2821361 -0.22783697 -0.36739463
0000d0 60 c5 bf be fb 82 88 be cd 85 67 bf 43 2f c6 be
       -0.37455273 -0.2666243 -0.9043854 -0.38707933
0000e0 c6 dd 79 be f3 c3 d3 be a2 40 3c bf ae ed 00 bf
       -0.24401006 -0.41360435 -0.7353612 -0.5036267
0000f0 fb 6a 36 be fc 12 cf 3d 30 c5 53 bd 69 2b db be
       -0.17814247 0.10111043 -0.051701725 -0.42806557
000100 ba e0 ad be c9 06 48 be 03 81 18 be e5 9b 8a bf
       -0.33960515 -0.19533838 -0.14892964 -1.0828825
000110 04 e4 15 3e 4f 15 16 bc 60 63 b4 be 02 1a 05 be
       0.14637762 -0.009160354 -0.35232067 -0.12998202
000120 16 91 77 bf 13 c5 e8 be d8 4e 87 be 03 85 bd be
       -0.9670576 -0.45462856 -0.2642734 -0.37015542
000130 ba fd 94 be a3 a5 de be 3d 9b 7b 3e e6 b9 09 be
       -0.29099828 -0.43485746 0.24570937 -0.13449821
000140 eb 1c 83 be f5 3b 46 be 0c 41 ab be 7f db d2 be
       -0.25608 -0.1935881 -0.33448064 -0.41183087
000150 5b 51 99 be 83 00 3d be ed b9 cf be 85 c2 cf be
       -0.29944882 -0.18457226 -0.40571538 -0.40578094
000160 74 ce 0f bf a1 de b3 be 91 e1 4b be 4f b3 a0 be
       -0.561744 -0.3513079 -0.19910266 -0.31386802
000170 4a ee cc 3e 86 ef f0 be 61 f1 01 3d e6 6c ad bd
       0.4002555 -0.47057742 0.031724337 -0.08468036
000180 0c c2 e7 be ff 79 15 3e 37 9d 80 be 48 11 22 be
       -0.45265234 0.14597319 -0.25119945 -0.15826905
000190 92 4a 4c be fc a3 5f be 11 02 97 3d 67 7d a9 be
       -0.19950321 -0.21839899 0.07373441 -0.33103487
0001a0 16 d3 e2 be f7 fa ad be 64 2a ba be 97 e2 14 be
       -0.4430167 -0.33980533 -0.36360466 -0.14539562
0001b0 2c c3 ab 3d 99 7a 4f be 64 9d f6 be b8 09 08 bf
       0.083868355 -0.20261611 -0.48166955 -0.5313983
0001c0 a4 34 e1 ba f2 40 ec 3d ed 59 85 be 68 63 8e be
       -0.0017181826 0.11535825 -0.2604517 -0.27810216
0001d0 df a0 83 be 6c 71 e3 bd 2f 5b d3 3c 0f ba 7e bf
       -0.25708672 -0.11105618 0.025800316 -0.9950265
0001e0 36 56 57 be f1 58 f0 3c 1c f7 8b 3e c5 a2 43 be
       -0.2102898 0.029339286 0.27336967 -0.1910506
0001f0 33 20 ba be fc e3 17 be 10 8f 47 bf 85 47 6a bf
       -0.3635269 -0.14833063 -0.7795267 -0.9151538
000200 32 c9 f9 be a8 9a 8a 3e 15 85 04 bf c4 2e 09 3d
       -0.48786312 0.27071118 -0.5176557 0.033491865
000210 94 d1 aa 3d 3f f5 34 be cb a9 02 bf b7 96 84 bd
       0.08340755 -0.17671679 -0.51040334 -0.06474059
000220 4d 4a b4 bd c0 68 9d 3e b1 a9 b6 be 84 23 10 be
       -0.08803234 0.3074398 -0.3567634 -0.14076048
000230 ff c0 4b bd a9 0e 5f bf 1a 1d 0c 3e 78 3d 37 be
       -0.049744602 -0.87131745 0.13682976 -0.17894542
000240 a2 07 ab be cf fe 50 be e8 5d 7f 3e 18 33 aa 3e
       -0.3340426 -0.20409702 0.24938166 0.33242106
000250 10 5d ae 3d f2 90 72 3e 00 6b 8e 3c 03 dc ce bd
       0.08513844 0.23688105 0.017385006 -0.10100558
000260 40 94 14 bf 0a b7 bd bd 77 b2 55 3e c2 b8 30 be
       -0.5803871 -0.092634276 0.2086886 -0.1725798
000270 69 70 00 bf 28 4a b3 be 02 9e 2a 3f 90 06 9a be
       -0.50171524 -0.35017514 0.6664735 -0.30083132
000280 21 ce 80 bf 26 11 96 be 9a 04 98 be ae a5 9b be
       -1.0062906 -0.29309958 -0.2969101 -0.3039984
000290 1c 8e 4e be fb 97 ed 3c 3d 86 b6 be 88 44 b5 3e
       -0.20171398 0.029003134 -0.3564929 0.35403848
0002a0 11 14 12 be 5c 8b a9 be 8b 24 e0 3d 0e e6 36 be
       -0.14265467 -0.33114135 0.1094447 -0.17861196
0002b0 ef 20 0f be 35 ae 9a be b8 57 83 3e 3a 59 16 be
       -0.13977407 -0.30211034 0.25652862 -0.14682475
0002c0 25 81 08 bf 2f fd 16 be c9 2d 93 bf 3b 94 d3 be
       -0.5332206 -0.1474502 -1.1498348 -0.41324028
0002d0 7c f0 ca be 8d 02 36 bf 43 cb e0 bd f7 3a 35 bf
       -0.396366 -0.7109764 -0.10976269 -0.707931
0002e0 a2 7a db be 21 9f 0a bf c9 e5 ba 3e d8 58 48 3e
       -0.42867 -0.5414906 0.36503437 0.19565141
0002f0 74 19 06 bf fd 52 15 bd d6 9f c6 be 29 dd a0 be
       -0.5238259 -0.036456097 -0.3879382 -0.31418732
000300 0c 70 97 be 39 d4 e5 be 03 a9 72 be b3 09 29 be
       -0.29577672 -0.44888476 -0.23697285 -0.16507606
000310 a2 40 17 be 1b c6 06 bf 4f 28 b8 be 7e 7d 2d bf
       -0.14770749 -0.52646035 -0.35968253 -0.6776961
000320 a2 82 f8 bd ce 39 7c be 30 a6 64 be 0a b8 8a bf
       -0.12134291 -0.24631426 -0.2232902 -1.0837414
000330 28 7f 1e bf be 73 13 3f bd 8b 11 3d 11 ba 5d be
       -0.61912775 0.57598484 0.035533655 -0.2165301
000340 e5 65 c1 3e d9 52 8e 3d 65 ea ad be 07 b4 fc be
       0.37773052 0.06949396 -0.3396789 -0.493561
000350 d5 a9 31 bf f8 22 ae be c5 9b e5 be ff bf 8c bd
       -0.6939977 -0.34011054 -0.44845405 -0.06872558
000360 50 ac 93 3e 9d f4 72 be 24 0e c5 be 1a 74 c2 bf
       0.28842402 -0.23726125 -0.3848735 -1.5191681
000370 93 ab 04 3e 48 6a 51 bf 32 b5 34 3e a2 f2 f1 be
       0.12956075 -0.818028 0.17647246 -0.47255427
000380 6d bf de bc ce ee 1e 3f 2d 11 c8 be ed ce db bd
       -0.027190888 0.6208314 -0.39075604 -0.10732827
000390 a4 e8 00 bd bd 58 b7 be 2d a0 9a be f4 0c 48 3e
       -0.031471863 -0.3580989 -0.3020033 0.19536191
0003a0 e0 21 f2 3d cb 6e 34 be a9 6e 0c be b8 24 04 3f
       0.118228674 -0.17620389 -0.13714088 0.5161853
0003b0 3e 27 3c be 18 5a 31 3c 8f 6c 06 bf 7c 8e 45 bf
       -0.18374345 0.010824703 -0.525094 -0.7717054
0003c0 e3 82 a4 bf 23 e7 04 be 39 47 9a be e2 ac bc 3e
       -1.2852443 -0.12978797 -0.30132464 0.3685065
0003d0 ec 4e 8c 3d 8d ed 32 3e e2 52 96 be 68 0c be be
       0.06850991 0.17473431 -0.2936011 -0.3711884
0003e0 41 ac 20 bd 59 ce 1c be 1d f0 9f be 10 e2 d4 3d
       -0.039226774 -0.1531309 -0.3123788 0.103946805
0003f0 08 bc f7 3d 74 38 55 be 70 0a ad bd 3c 95 f4 be
       0.12096411 -0.20822316 -0.084492564 -0.47770107

gnn_node.convs.0.mlp.1.running_mean f4 [256]
000000 5e 96 35 41 ab 67 9e 40 16 81 13 40 88 b8 36 40
       11.349211 4.950155 2.3047538 2.855013
000010 c1 1e 27 3f 3e 1f 4e 41 43 9c 71 41 86 5c 07 c0
       0.652813 12.8826275 15.10065 -2.1150222
000020 b0 f2 9c bf 9e 83 c0 c0 95 c7 94 bc 8a fa 96 40
       -1.2261562 -6.0160666 -0.018161574 4.7180834
000030 2c db 34 c0 3d 02 82 40 7c f0 8f 41 55 13 86 41
       -2.8258772 4.062773 17.992424 16.75944
000040 0b b5 68 c1 41 74 a4 40 68 40 2c 3f a6 1d 25 c1
       -14.5442 5.139191 0.67285776 -10.319738
000050 25 87 9c 40 23 60 d2 bf 26 8d 37 3f 6c 39 a0 c0
       4.891497 -1.6435589 0.7169975 -5.0070095
000060 dc 31 99 40 c6 5b 1d c1 5e 29 48 c1 11 f0 7f 40
       4.7873363 -9.834906 -12.510099 3.9990275
000070 5b a9 ab c0 b0 a6 ff 3d f5 35 4e 3f 0a ec 2a 3f
       -5.3644233 0.12482965 0.8055108 0.6676642
000080 b4 3e 89 c0 4b 17 93 40 7c ca 18 40 79 34 86 40
       -4.288904 4.5965934 2.3873587 4.1939054
000090 f9 51 90 bf 6e 25 fa bf 9c 65 0b 41 97 81 db be
       -1.1275016 -1.9542673 8.712307 -0.42872307
0000a0 9f d4 e7 c0 1a 8c 8d c1 cd b0 a3 c0 a9 43 0d c1
       -7.2447047 -17.693409 -5.115332 -8.829019
0000b0 d0 03 fb 40 35 c8 7d c0 86 9f 5e 40 ba 2b 48 40
       7.8442154 -3.9653447 3.4784865 3.1276689
0000c0 91 68 9b 40 d0 c3 72 be 1a 07 49 c0 40 de 46 c0
       4.8565145 -0.23707509 -3.1410584 -3.107315
0000d0 a1 2d 26 40 58 dd 89 c0 01 6c 18 41 10 2d 86 41
       2.596535 -4.3082695 9.526368 16.772003
0000e0 64 54 ec c0 b8 fd 02 c1 4a 29 6f c1 0e e5 c3 bf
       -7.3853016 -8.186943 -14.94758 -1.5304277
0000f0 fc 2d da bf d9 6f 80 40 23 1c cc bf 9f 29 84 3c
       -1.7045283 4.0136533 -1.5946087 0.016133128
000100 5c bb 1a 40 75 5f 50 c1 53 eb 58 41 09 19 3d 40
       2.4176855 -13.023305 13.557452 2.954653
000110 0f fe c3 3f 52 ed 24 41 4e 2f 7d 40 e7 c6 bc c0
       1.5311908 10.30794 3.9560122 -5.89928
000120 2c a4 a9 40 cc 5e fe bf f0 cc 08 40 64 1f 08 40
       5.3012905 -1.987268 2.1375084 2.126916
000130 ab 8f 5a c1 b2 67 05 41 54 15 6b 41 25 df b5 c1
       -13.660075 8.337816 14.692707 -22.733957
000140 ff 99 22 40 98 0d fd 40 b5 74 c5 40 3d 7d 1f c0
       2.5406492 7.9079094 6.1704965 -2.492019
000150 16 bf 0e be 0b 20 42 41 b5 09 97 40 7d 48 90 40
       -0.13940081 12.132823 4.719935 4.5088487
000160 17 b5 da 40 b3 25 19 bf 9c ae 10 3f e0 32 01 3f
       6.8346057 -0.5982315 0.5651643 0.50468254
000170 1a f3 b7 40 b3 f8 dd c0 de 3e ea 40 05 7a 29 c1
       5.7484255 -6.936609 7.320174 -10.59229
000180 cf e0 31 3f 7b df 26 41 5b 26 0f 40 88 e6 ee 3f
       0.69483656 10.429561 2.236716 1.8664103
000190 5f 93 a7 c1 cb 05 08 41 28 b7 05 41 bc 50 09 c1
       -20.946959 8.501414 8.357216 -8.582211
0001a0 d5 66 f4 3f 3c fd 11 3f 6d 7b ea 40 9d 66 e2 40
       1.9093882 0.5702703 7.3275666 7.075026
0001b0 b7 65 3c c1 8d 18 6d c1 1f 40 e0 bf 1f 39 fd c0
       -11.774833 -14.818494 -1.7519568 -7.913223
0001c0 31 27 8a 3e 20 e6 1c 40 37 6b 0f 40 65 0a f8 3f
       0.26983026 2.4515457 2.2409189 1.9378172
0001d0 e7 54 93 c1 dd e9 85 3f 57 90 5b c0 e7 fd b8 40
       -18.416456 1.0461994 -3.4306848 5.780994
0001e0 f9 1c 22 c1 ac 2b 06 c0 c3 0f 02 40 04 fd a6 c1
       -10.132073 -2.0964155 2.032212 -20.873543
0001f0 b4 ab 55 c0 c8 6c 88 c1 46 7a 3b 41 ed d7 b8 40
       -3.338605 -17.053116 11.717352 5.776358
000200 0e e9 85 3f 98 2f 49 40 46 f1 a8 bf 29 43 9d bf
       1.0461748 3.14353 -1.3198631 -1.2286121
000210 bf bb 04 c0 40 d8 37 c1 a4 31 20 c1 ff 67 0f 41
       -2.073959 -11.490295 -10.012119 8.96289
000220 62 99 35 c1 09 0f 00 41 c3 3f 82 40 01 1b 66 c1
       -11.349947 8.003671 4.0702834 -14.381593
000230 2f 5a 24 c1 4a 3f a5 c0 e0 67 07 bf 4a 13 c9 c0
       -10.2720175 -5.1639757 -0.52892876 -6.2836046
000240 dd 52 98 c1 75 98 72 bd be 72 67 41 e7 c3 11 41
       -19.04046 -0.059227426 14.465513 9.110328
000250 c0 33 28 c1 96 4e 49 c1 47 15 5e 40 51 84 77 40
       -10.512634 -12.581686 3.4700487 3.867451
000260 79 e8 ec 3f df b7 04 41 55 94 7a 40 3c 35 f3 40
       1.8508445 8.29489 3.9153035 7.6002483
000270 d9 15 43 bf b7 79 4f c1 66 f9 a0 3f 89 2a 3a c1
       -0.7620521 -12.967216 1.257611 -11.635385
000280 ef de 46 40 5d e5 24 40 43 2f 86 bf 50 47 b8 bf
       3.1073568 2.5764992 -1.0483173 -1.4396763
000290 9b ed 3e c0 21 f8 99 40 d1 aa 0a c0 d7 cd 21 c1
       -2.9832523 4.811539 -2.1666758 -10.112754
0002a0 4a e1 1a 40 16 f7 d2 c0 04 03 a4 be 3d 7f 08 c1
       2.4200006 -6.592662 -0.3203355 -8.531064
0002b0 c3 84 2e c1 81 3d bd bf b9 48 29 41 1a a3 2c c1
       -10.907413 -1.4784395 10.580255 -10.78982
0002c0 ec ae 85 c0 76 91 4d 3f 5c 64 aa 3f dc bd 96 c0
       -4.177603 0.8030008 1.3311877 -4.710676
0002d0 d6 bd 9b 3e e3 51 04 41 cc c6 d3 3f 4c ef 69 41
       0.3041827 8.269992 1.6545043 14.620922
0002e0 5e 6d ac c0 07 aa 82 41 e8 6b 6e 41 b2 fd ae 40
       -5.3883505 16.333021 14.901344 5.4684687
0002f0 85 82 60 c0 2c 1d 51 c1 72 79 e2 40 52 65 2c c1
       -3.5079663 -13.069622 7.077325 -10.774736
000300 e4 63 8d 3f 38 bb 3e 40 59 24 2f 40 79 7e e1 c0
       1.1046109 2.980177 2.7365935 -7.0466886
000310 5d 54 03 c1 b1 c3 38 be b5 ae 9b 40 a1 66 d1 bc
       -8.2080965 -0.180434 4.8650765 -0.025561633
000320 d8 fc 30 3f c2 6f 22 40 b2 86 08 c1 46 10 c2 40
       0.6913581 2.5380712 -8.532885 6.0644865
000330 7f d9 09 c0 33 6d ca 40 2d c5 17 41 16 94 45 c0
       -2.1539 6.32583 9.485639 -3.0871634
000340 b8 85 4b 41 eb 58 f0 3e 43 3c 34 c1 db b3 39 3f
       12.720146 0.4694284 -11.264712 0.7254006
000350 21 97 38 40 25 85 88 41 ba b1 90 bf 4b 8e 65 c0
       2.8842242 17.065012 -1.1304238 -3.5868099
000360 0b 83 55 41 44 21 62 40 e0 01 19 bf bb a5 c6 40
       13.344493 3.5332804 -0.59768486 6.207731
000370 0c 7d 2a 41 83 f2 f9 40 87 b9 08 41 a5 9d 1a 40
       10.655529 7.8108535 8.545295 2.4158719
000380 23 da 3a 40 dd 83 2d 41 72 1c 84 c1 55 93 ae 40
       2.919564 10.844693 -16.51389 5.455485
000390 35 36 a6 c0 24 ff 81 41 db 57 c2 c0 5b dd c1 bf
       -5.194117 16.24958 -6.0732245 -1.5145677
0003a0 f2 21 5b 41 57 9f 27 41 dd 3d 77 c1 a1 63 60 40
       13.695787 10.476401 -15.452603 3.5060809
0003b0 ee ae b5 c0 ca de 51 c1 8c 7a 14 41 07 a4 52 41
       -5.6776037 -13.116892 9.279919 13.165046
0003c0 96 e5 27 bf 31 1e b0 40 57 fb bb 40 24 fd 06 41
       -0.65584695 5.5036855 5.874431 8.436802
0003d0 4b 15 c4 3d 9b d5 13 41 e1 0a 7b c1 fc eb 1d c1
       0.09574374 9.23965 -15.690156 -9.870113
0003e0 ca 55 e1 c0 80 e4 ed 40 4d fc 6a 40 95 37 06 41
       -7.0417223 7.434143 3.6716492 8.38857
0003f0 73 5d 09 c1 ee fb 60 c1 16 a1 97 40 c5 73 2e c1
       -8.585315 -14.061506 4.738414 -10.903264

gnn_node.convs.0.mlp.1.running_var f4 [256]
000000 b0 3e 7f 42 8f d9 3e 42 e1 4a c3 42 b4 62 9a 42
       63.81122 47.71246 97.64625 77.19278
000010 94 77 9b 42 1e 58 5c 42 a1 e2 cf 41 8a 30 6d 42
       77.73355 55.086052 25.985659 59.2974
000020 57 ce 2d 42 5f 44 e9 41 6d cf 85 40 23 70 7f 42
       43.451504 29.158384 4.1815705 63.85951
000030 4d 20 80 41 9e 75 7a 42 d6 76 99 42 cc 39 c8 42
       16.015772 62.61486 76.7321 100.112885
000040 79 58 d3 41 eb c1 6d 42 c7 40 a4 42 35 ae f8 42
       26.4182 59.439373 82.12652 124.34025
000050 ee 70 0a 43 c4 4f 9d 42 ff 19 aa 42 8c 14 98 41
       138.44113 78.65579 85.05077 19.010033
000060 c3 89 fb 41 85 a6 99 42 80 9d 70 42 25 b0 d4 42
       31.442266 76.82523 60.15381 106.34403
000070 ed a9 cd 41 90 96 ac 41 24 d9 d1 42 ab 75 0c 42
       25.707972 21.573517 104.9241 35.11491
000080 11 5f 87 42 7d fc ca 42 cf 00 9b 42 9d f0 d5 42
       67.68568 101.49314 77.50158 106.96995
000090 8e 91 9f 42 eb c4 b2 41 99 37 2f 42 57 08 ed 42
       79.78429 22.346151 43.804295 118.51629
0000a0 33 3b 23 42 f8 e7 26 42 25 4c 4e 42 3d a6 d6 41
       40.80781 41.726532 51.57436 26.831171
0000b0 4d 20 ff 41 29 f6 02 42 a6 f1 ee 41 03 de 03 42
       31.890772 32.74039 29.867992 32.96681
0000c0 48 6e 23 42 f9 3d 04 42 ca d1 84 42 e1 d5 e6 42
       40.857697 33.06052 66.409744 115.41773
0000d0 0c c9 48 42 5d 8a ba 42 76 6b 39 41 27 7b 93 41
       50.196335 93.27024 11.588736 18.435133
0000e0 64 e5 e3 41 50 b2 93 41 f4 07 7f 41 a4 6e af 42
       28.487007 18.462067 15.939442 87.716095
0000f0 b3 72 b5 41 b2 f1 5f 42 4f ba ec 41 e0 b8 55 42
       22.681005 55.98603 29.590971 53.430542
000100 02 16 97 42 68 fe 0d 42 83 03 c6 42 54 69 58 42
       75.542984 35.498444 99.00686 54.10286
000110 10 40 e6 41 54 c7 ba 42 a3 2c f0 41 5e d0 18 42
       28.78128 93.38931 30.021795 38.203484
000120 30 41 33 42 73 49 8d 41 ed 2c d5 42 c8 55 bf 42
       44.81366 17.660864 106.587746 95.66754
000130 c3 84 55 42 c2 da 1c 42 2c 05 f4 41 57 fa f5 41
       53.37965 39.21363 30.502525 30.747236
000140 08 50 70 42 eb e9 42 42 0c 58 7e 42 07 b5 92 41
       60.078156 48.728436 63.585983 18.338392
000150 99 d7 88 42 a6 7b ee 41 32 26 d4 41 ae 6b f8 42
       68.42109 29.810375 26.51865 124.21031
000160 c5 2e 87 41 ba a7 56 42 e2 ad bd 42 e1 40 f7 41
       16.897837 53.663795 94.839615 30.90668
000170 3b d0 14 43 39 5b a7 42 d7 81 36 42 e1 97 65 43
       148.8134 83.67817 45.626797 229.59328
000180 89 15 79 42 c0 58 f6 41 b7 d6 df 42 c0 bb 60 42
       62.27103 30.793335 111.919365 56.18335
000190 c1 ef 15 42 5f 4b 04 43 d7 d3 58 42 e7 4f cf 42
       37.484135 132.29442 54.206875 103.65606
0001a0 19 74 a2 42 1a 74 5d 42 bd 66 8d 42 5e 04 8b 42
       81.22675 55.36338 70.70066 69.50853
0001b0 5a ef 98 42 bf 8d d2 41 8a ed bb 42 82 99 67 42
       76.46748 26.319212 93.96394 57.89991
0001c0 1e 75 23 42 c5 7c 8b 42 8a f9 34 42 f9 c6 46 42
       40.864372 69.74369 45.24369 49.69431
0001d0 07 a1 9a 42 1f 5a 2b 42 e0 b9 b4 41 0d 70 dc 41
       77.31451 42.83801 22.59076 27.554712
0001e0 88 ee 06 42 b5 c0 dc 41 ff b1 92 42 05 56 08 42
       33.73294 27.594095 73.34765 34.084003
0001f0 bd 0e bd 42 84 d8 0b 42 8b 16 0f 42 47 c5 e5 41
       94.528786 34.96144 35.772015 28.721327
000200 4a 75 4b 42 5f 56 37 42 d9 2e b3 41 f2 89 bc 41
       50.86454 45.834347 22.397875 23.567356
000210 59 72 d2 41 b6 f7 a4 41 eb 47 74 42 35 fa 51 42
       26.305834 20.620953 61.070232 52.494343
000220 55 8a c9 42 2a 41 82 42 28 8a 08 43 35 17 9e 42
       100.77018 65.12727 136.53967 79.04533
000230 d9 9a a2 41 e1 20 60 42 1e a8 e8 41 17 2f 1b 42
       20.32561 56.03211 29.082088 38.795986
000240 79 41 12 42 f5 22 14 42 1c a5 48 42 5a 85 20 43
       36.56394 37.034138 50.16124 160.5209
000250 49 dd b2 42 c8 90 83 43 02 ae ae 42 17 c4 30 42
       89.4322 263.1311 87.33986 44.191494
000260 50 9d a5 41 c0 a3 3a 41 3d b1 a4 42 ac ca d5 42
       20.701813 11.664978 82.34617 106.89584
000270 e0 46 89 42 99 e5 a8 41 e6 35 a0 41 1a ba f3 41
       68.63843 21.112108 20.026318 30.46587
000280 1d 9c e1 41 1c d1 33 42 99 93 be 42 93 75 89 42
       28.201227 44.95421 95.28828 68.72964
000290 05 45 cc 42 7e 6b 8c 41 5f 50 e2 42 6d d3 81 42
       102.1348 17.552486 113.156975 64.91294
0002a0 2a 34 cc 42 d1 86 a1 41 9c 6b 2e 42 69 45 f0 42
       102.10188 20.190828 43.605087 120.13557
0002b0 83 99 f0 41 8d e5 12 42 e5 a4 03 43 4d b6 2e 42
       30.074957 36.72417 131.64412 43.67803
0002c0 37 47 1d 42 d2 8b ff 41 21 c3 3c 42 df 12 cc 42
       39.319546 31.943272 47.190556 102.03686
0002d0 75 48 8e 42 d7 63 78 42 8e ba 74 41 6f b7 84 41
       71.14152 62.0975 15.295546 16.589567
0002e0 6a 04 77 42 ce 11 4a 41 f6 46 95 42 1f 44 bc 42
       61.75431 12.629347 74.638596 94.13305
0002f0 b9 5a dd 42 f5 bb 16 43 d0 9c 9b 42 4f 1f 2e 42
       110.67719 150.7342 77.806274 43.530575
000300 63 29 1e 42 93 55 a8 42 75 ad de 41 f3 4c ef 42
       39.540417 84.16714 27.834696 119.65029
000310 5f b0 f7 42 54 d4 95 42 81 ef 0d 43 78 ee 7c 42
       123.844475 74.9147 141.93556 63.23288
000320 47 05 a3 41 86 4e 6e 42 a4 93 41 42 57 86 69 42
       20.377577 59.576683 48.39418 58.38119
000330 20 c0 1b 42 9b e1 a1 42 26 18 81 42 6a e9 9a 41
       38.937622 80.940636 64.547165 19.363972
000340 c2 d4 97 42 0c e3 1c 42 97 e3 db 41 d3 2f 1d 42
       75.91554 39.221725 27.486128 39.296703
000350 06 a4 86 41 75 50 48 41 29 8b 88 42 bb e4 bf 42
       16.83009 12.519643 68.2718 95.94674
000360 43 34 5e 42 8f 43 9e 42 25 fe b0 42 d5 ea d3 41
       55.551037 79.13195 88.496376 26.489664
000370 a7 fd 59 42 99 99 f9 42 6e 57 cb 42 6f 6e bc 42
       54.497707 124.799995 101.67076 94.21569
000380 7b 3d fe 41 39 57 91 42 f1 e7 bc 42 98 56 7c 41
       31.78002 72.67036 94.45301 15.771141
000390 b9 29 3e 42 e9 9b c4 41 16 21 b3 42 30 9d d5 42
       47.540745 24.576128 89.56462 106.80701
0003a0 04 18 54 42 a1 cc c2 42 f1 da 69 42 e5 35 e4 42
       53.023453 97.399666 58.46381 114.10526
0003b0 34 95 65 43 6f 99 57 43 fe 81 d8 41 df e7 fb 41
       229.58282 215.59935 27.063473 31.488218
0003c0 1e 83 bf 41 a9 93 a2 41 1d e5 37 42 e0 f3 7c 42
       23.939022 20.3221 45.973743 63.23816
0003d0 fa b4 a8 42 af bf 1d 42 e0 de cb 42 e1 05 0b 42
       84.35347 39.43719 101.9353 34.75574
0003e0 6b 48 f6 41 0f 48 66 42 c3 7e b4 42 85 69 24 42
       30.78536 57.57037 90.24758 41.103046
0003f0 a0 5b 1c 42 db 1e c2 42 ba 75 9f 42 b5 51 f7 41
       39.089478 97.060265 79.729935 30.914896
