checkpoints/C_epoch_200.pth (torch, 843999 bytes, 48 tensors)

gnn_node.node_encoder.weight f4 [1, 128]
000000 94 28 26 3f cb eb 3f bf b0 ed f8 be cd 0f 22 3e
       0.6490567 -0.74969167 -0.4861884 0.1582634
000010 23 b2 49 be 37 10 58 be 2b 88 8c 3c ef 94 df be
       -0.1969686 -0.21099935 0.017154774 -0.43668315
000020 60 48 0a 3f 6d ea b9 be 67 c8 22 bf 6c c0 16 3f
       0.54016685 -0.36311665 -0.6358704 0.5888736
000030 7a 4b a8 bf 2f 78 00 3d af a1 02 3f c3 b9 0f bd
       -1.3148034 0.031364616 0.5102796 -0.035089266
000040 f1 00 be bf 3f ad 80 bf 00 38 7f 3e 6c f4 73 bf
       -1.4844037 -1.005287 0.24923706 -0.95294833
000050 4f 08 8a bf 62 fd 90 3d 1d 20 97 3d 2b b8 cd be
       -1.0783786 0.07079579 0.07379172 -0.40179572
000060 8f ca 8c be fd 26 c1 bf d7 f9 a6 be 54 64 66 bf
       -0.2749829 -1.5090023 -0.32612488 -0.8999684
000070 8f b9 5b 3f 14 2d 09 be f6 ec 9c 3e 4f 61 1d c0
       0.85830015 -0.13396102 0.30649537 -2.4590642
000080 f2 ef dd bf 9b c8 7a 3e c3 b7 17 bf 18 a7 c4 3e
       -1.733885 0.24490587 -0.59264773 0.38408732
000090 13 13 17 c0 bf f0 88 be 1d 3d 20 3f 34 58 49 be
       -2.3605392 -0.26746175 0.6259325 -0.19662553
0000a0 95 b8 94 bf e9 14 c8 be ff 6f 9c bf 31 22 1e c0
       -1.161883 -0.39078453 -1.2221678 -2.4708369
0000b0 d8 87 b8 be 9c 9e 39 3d ec 34 8a be 5f ca 74 bf
       -0.3604114 0.045317277 -0.269935 -0.95621294
0000c0 f3 56 1c bf 12 18 ba 3c da 07 ad bf c6 79 9f bf
       -0.61070174 0.022716556 -1.3518021 -1.2459037
0000d0 6d e1 10 bf 60 27 e3 3e e6 6a 42 bf 5a e4 cf 3e
       -0.5659397 0.44365978 -0.75944364 0.40603906
0000e0 63 af cf bf a9 e3 47 3f 86 7d 83 bd 18 b7 e2 3e
       -1.6225399 0.78081757 -0.06420426 0.44280314
0000f0 dd 02 2e be 08 fa 5d bf bc 1d 01 bf 67 8e 32 bf
       -0.1699328 -0.8670964 -0.50435996 -0.6974854
000100 6e f1 09 c0 61 58 f2 bf 42 f3 85 bf 89 65 73 3e
       -2.1553607 -1.8933221 -1.0464861 0.23769201
000110 a7 17 84 3e aa 05 19 be 01 a6 d6 be 0c 99 4a bf
       0.25799295 -0.14943567 -0.41923526 -0.7913978
000120 03 63 a0 3d af 12 f5 bf 5f 7a 44 bf bf 7b 6f 3e
       0.07831385 -1.9146327 -0.76749223 0.23387049
000130 65 2d d2 bf da 36 d2 be ec 6b 01 bf b5 68 c7 bf
       -1.6420103 -0.41057473 -0.505553 -1.5578829
000140 3f bd ad bf 04 52 dd be fe 03 91 bd 29 42 34 bf
       -1.3573378 -0.43226635 -0.070808396 -0.7041345
000150 59 31 34 bf 38 e5 7c bc 46 49 31 3e 78 9c 84 bf
       -0.703878 -0.015435509 0.17313108 -1.036025
000160 8b a2 7c 3f 7b cb f1 be 1c be 77 3f 73 1d 39 bf
       0.9868552 -0.47225556 0.9677446 -0.7231056
000170 a5 5f 6c 3f 21 a3 c1 bf 99 15 81 bd 97 aa 22 3e
       0.9233344 -1.5127908 -0.063029476 0.15885387
000180 dc 56 47 be 8e 34 9a 3e 4f e0 82 bf da 25 25 3f
       -0.19466728 0.3011822 -1.0224704 0.6451088
000190 45 db cf be 40 bc 1a bf c3 b5 b7 3f 32 2e d0 3e
       -0.40596977 -0.60443497 1.4352344 0.40660244
0001a0 08 c0 19 3e dc b2 51 3f 97 e6 0e 3f 89 7a c3 bf
       0.1501466 0.8191354 0.558206 -1.527177
0001b0 89 3b fd 3e 56 8d d2 bf 14 f3 0c 3e 0a 52 ba be
       0.49459484 -1.6449382 0.13764602 -0.36390716
0001c0 b3 88 99 be 14 87 89 bf 61 0b 8f bf cd 28 59 bf
       -0.29987106 -1.0744348 -1.1175348 -0.8482788
0001d0 2f 8e 3b bf 51 cd 87 bf dc 5b 77 bf f5 39 02 c0
       -0.7326383 -1.0609533 -0.9662454 -2.0347874
0001e0 75 6c b5 bf 9e 23 90 3b 6c 0c 30 be e3 ba b7 3d
       -1.4173723 0.004398777 -0.17192239 0.08971193
0001f0 47 d4 27 3e 8f 2d c5 bb 46 a7 f8 3d 57 74 30 bf
       0.16389571 -0.006017394 0.1214128 -0.6892752

gnn_node.virtualnode_embedding.weight f4 [1, 128]
000000 89 82 00 bf 8f f5 02 be 7c e4 d6 be a8 89 13 be
       -0.5019918 -0.12788986 -0.41971195 -0.1440798
000010 35 68 1b bf 59 6e 6c be b6 b0 fa be 06 0d 17 be
       -0.6070588 -0.2308897 -0.48962945 -0.14751062
000020 36 a2 ca be 74 1e 5f be 32 5d 36 be 3e 80 4d be
       -0.39576882 -0.2178896 -0.17808989 -0.20068452
000030 9f c8 ed be 88 c2 09 bf 08 af 5b bf 69 6a bc 3b
       -0.46442124 -0.53812456 -0.8581395 0.0057499898
000040 76 1d c5 be ef b9 b5 be 47 52 c0 3d 0f 12 41 be
       -0.3849904 -0.3549342 0.09390693 -0.18854545
000050 d6 1a 84 be ab 4a 42 bf 84 2f 29 bf 66 92 ea be
       -0.25801724 -0.75895184 -0.6608813 -0.45814818
000060 f3 ba 15 bf 37 5a e4 3d ca 0d 33 bf d2 a8 00 bf
       -0.58488387 0.111500196 -0.69942915 -0.502576
000070 ca 27 18 bf 35 aa a5 be 46 6a 9e bd 82 d7 35 bf
       -0.59435713 -0.3235642 -0.07735114 -0.71031964
000080 cf 6a 13 bf b0 db a1 bc 1e 81 22 be 02 34 36 bf
       -0.5758485 -0.019758075 -0.15869567 -0.7117311
000090 c1 7b 81 be 9b c7 b4 be 2e 86 1a bf 51 d1 0f bf
       -0.2528973 -0.35308537 -0.6036099 -0.56178766
0000a0 67 00 8d be 70 f9 cb be cb 8d f4 be 9d fb 59 bf
       -0.2753937 -0.39838743 -0.4776443 -0.85149556
0000b0 2e 66 af be 30 4a 78 be 7d 21 eb 3b 71 3a 8b be
       -0.34257644 -0.2424705 0.007175623 -0.27193025
0000c0 e2 c8 8a be 42 9d 72 3e 04 be c6 be ae 76 fa 3c
       -0.27106386 0.23692802 -0.38816845 0.030574169
0000d0 ef 61 e1 be 04 22 ee be eb 16 9e be 57 11 39 bf
       -0.4402003 -0.46510327 -0.3087686 -0.72292084
0000e0 cf 8a ed be 09 34 51 bf 6b 1b f7 be 98 89 93 be
       -0.46394965 -0.81720024 -0.48263106 -0.28815913
0000f0 e4 cc b9 be 9c 20 dd bd a0 85 20 be 9d 63 b8 be
       -0.36289132 -0.10797235 -0.15675974 -0.360135
000100 ea f1 33 be 37 22 40 3e 63 b0 8a be 2a cd db 3d
       -0.17572752 0.18763052 -0.27087697 0.10732491
000110 bd e0 e7 be 8d aa 2d bf e3 f1 15 bf bc 25 26 be
       -0.4528865 -0.67838365 -0.58572215 -0.16225332
000120 3b 19 3b 3c e1 0d 57 bf 9b b4 cb be 56 87 0d bf
       0.01141959 -0.8400555 -0.3978623 -0.5528463
000130 4a a0 61 be 4c b5 2a be 86 5a fa be cc 34 15 bf
       -0.22033802 -0.16670722 -0.4889719 -0.58283687
000140 0b f6 2f bf 82 03 11 bf 10 5a cc bc 14 0d 4a bd
       -0.68734807 -0.5664598 -0.024945289 -0.04932888
000150 3d 4d cb be 41 62 df be 44 6e 00 bf 28 5f a0 be
       -0.39707366 -0.4362965 -0.5016825 -0.31322598
000160 ef 4e 5a bf 4f 0b 29 bf 9d 5e 1c bf df b1 7a be
       -0.85276693 -0.6603288 -0.6108187 -0.24481915
000170 5b 6b 57 bf 6b 96 84 bd 56 e8 bd bd 66 aa 65 3d
       -0.84148186 -0.064740025 -0.0927283 0.056070708
000180 66 26 a4 be 0d 7e ad be d0 bb 83 be 3f 75 bb be
       -0.32060546 -0.33885232 -0.25729227 -0.3661289
000190 9b 6e ad be 4b be c8 be 5a 72 4d bf 6e 80 01 bf
       -0.33873448 -0.39207682 -0.8025261 -0.50586593
0001a0 e4 5d eb be c3 a3 5d be ee 82 21 bf 51 b8 38 be
       -0.4597007 -0.21644501 -0.6309041 -0.18039061
0001b0 8e a5 0b be ff 8a 05 bf 33 55 2f bd 48 ac 24 be
       -0.13637373 -0.52165216 -0.04280586 -0.16081345
0001c0 d7 87 c8 be 04 c6 ec be d2 98 b1 be 50 34 90 be
       -0.39166138 -0.46244824 -0.34686905 -0.2816491
0001d0 1c 7d 61 be 8f 52 d3 bd a6 37 c2 be 41 f0 83 be
       -0.22020382 -0.10318481 -0.3793308 -0.25769237
0001e0 3e 99 27 bf 51 23 b7 be 16 40 25 be 6a 16 31 be
       -0.65468204 -0.35769132 -0.16137728 -0.17293707
0001f0 57 4a 09 bf 4a 28 96 be 64 e6 83 bd 49 ce 0e bf
       -0.5362906 -0.29327613 -0.06440428 -0.55783516

gnn_node.convs.0.mlp.0.weight f4 [256, 128]
000000 85 bf 04 bf dd 7d b5 3d 52 61 a3 bd 15 26 21 3e
       -0.51854736 0.08861897 -0.07977547 0.15737183
000010 a9 d7 cf bc 2d d0 87 be 0e 5c 0a 3e 8d 79 09 3f
       -0.02537139 -0.26526013 0.13511679 0.53701097
000020 56 86 b2 3d f6 60 c6 bd 1d 68 03 3d 10 c1 c7 3e
       0.08717029 -0.096864626 0.032081712 0.39014482
000030 69 7a 84 3d fa 2d 26 bf 07 0c 0a be 76 3a 5a 3d
       0.064686604 -0.64913905 -0.1348115 0.05327841
000040 43 0b e5 ba 73 66 a3 3d 4f 9f b0 3e d8 f8 8b 3f
       -0.001747467 0.07978525 0.34496543 1.0935316
000050 1a ed 86 bd 4a f2 c6 be 1b d1 c5 3e 9f 56 b2 be
       -0.06588192 -0.38856727 0.38636097 -0.34831712
000060 32 b5 fa 3c 83 f8 bc 3d 5c 68 97 3e 56 8b 99 bd
       0.030603979 0.09227087 0.29571807 -0.07497279
000070 d3 89 1b 3e 3c 3a d4 bd b2 d0 3a bd f1 9a 16 3d
       0.15189295 -0.1036267 -0.045609184 0.036768857
000080 3e 0d b0 bd 9e 26 da 3e 0e 16 30 be 8d c4 1b 3e
       -0.08596276 0.42607588 -0.17195913 0.15211697
000090 f4 1c 5f 3d e6 c0 18 3e 8d fb 2f 3e d2 8b b9 3d
       0.05447097 0.14917335 0.17185803 0.09059872
0000a0 d8 05 75 ba 4e e9 ba 3d 74 d8 68 bd 88 61 bc 3b
       -0.0009346879 0.091265306 -0.05684705 0.0057489313
0000b0 a6 14 fb 3f 1b bf 63 bc 9d 3d 9f 3e 8a f3 b0 3b
       1.9615676 -0.013900544 0.31101695 0.005400126
0000c0 fd 06 ab 3c 52 6d d8 bd b9 e9 0d bd c4 de 27 bd
       0.020877356 -0.10567726 -0.034646723 -0.04098393
0000d0 95 e5 c7 be de 1c 91 3d cd fa 1d bf 40 f8 b7 3d
       -0.39042345 0.07085584 -0.61710817 0.08982897
0000e0 13 d8 bd 3b a0 da f8 bb a6 5c 90 3e 17 3c 02 bd
       0.0057935803 -0.0075944215 0.28195685 -0.031795587
0000f0 8e 5e 4d 3d 98 72 20 bf 70 fa ff be be ad 2b bf
       0.050139003 -0.62674856 -0.49995756 -0.67061985
000100 6e a5 b1 3d 5d ef aa 3c 3a f3 83 bd b7 cd ce be
       0.08674131 0.02086609 -0.06442876 -0.40391323
000110 de 1d 90 3d f0 ec a9 bd 2b d7 bc 3f 32 06 d6 bb
       0.07036947 -0.08297145 1.4753164 -0.0065315003
000120 78 0d 84 be 5a 87 2a 3d 98 a1 7a bc ed 51 19 bf
       -0.25791526 0.041632988 -0.015297316 -0.59890634
000130 e3 c2 85 bd a7 b3 9b be 74 c6 d4 3e 09 82 61 3d
       -0.06531312 -0.304105 0.41557658 0.05505565
000140 e7 10 3e 3d 17 1d e7 bb ac 6a 2e 3f a8 a2 2e bc
       0.046402838 -0.0070530283 0.6813152 -0.010658897
000150 7f c1 27 3d 70 d1 0d bc 6d 5c 30 bc 1c 81 17 3e
       0.040956017 -0.008655891 -0.0107642235 0.14795345
000160 09 c0 98 3e 5c 79 7e 3e 52 c1 1e 3e 00 74 0c bd
       0.2983401 0.24850982 0.15503433 -0.034290314
000170 4f 60 0c 3d 16 c9 e0 3c 04 08 e3 3f cd 7f e1 be
       0.034271535 0.027439635 1.7736821 -0.44042817
000180 2d cd c8 bc cd ab 15 3f 7a 23 c2 3b 9c 1e e4 bd
       -0.024511898 0.5846527 0.0059246393 -0.11138651
000190 66 8e 48 be 94 42 db bc 57 fd c9 be 06 d7 31 3c
       -0.1958557 -0.026765145 -0.39451095 0.010854488
0001a0 97 22 db 3e 38 50 68 be 68 de 7a 3e 1b ef 46 bd
       0.42799827 -0.22686851 0.24498904 -0.048567872
0001b0 3b ba 01 bf ac ea 25 bd a8 44 e6 bd 07 04 e9 bd
       -0.5067479 -0.040507004 -0.11243564 -0.11377721
0001c0 ff a9 4d 3e c7 f9 2f bd 35 ce bd bd 5d 51 b6 bf
       0.2008438 -0.042962816 -0.092678465 -1.424358
0001d0 49 22 1a bf ce 88 25 be f2 99 2b bd e7 51 64 3b
       -0.60208565 -0.16165468 -0.04189486 0.0034838857
0001e0 16 59 8a bd 72 ca 9f 3e 7b 00 6a 3e d4 2d 03 3f
       -0.06755273 0.3120914 0.22851746 0.51241803
0001f0 2e a0 b9 3f 17 50 87 3e 05 4b dc be ec f8 8d bf
       1.4502008 0.2642829 -0.43025985 -1.109159
000200 26 92 f2 bc 51 5c 5d bd e2 2b 9a bc bf 7e ad be
       -0.029610705 -0.054043118 -0.018819753 -0.33885762
000210 5f 54 de 3b 16 f1 db 3e e2 bd 8c bd 0f fb 29 bf
       0.00678496 0.4295737 -0.06872155 -0.6639871
000220 ae 9d 13 be 90 ad 94 3e 45 d7 31 bd 72 9b e3 3e
       -0.14415619 0.29038668 -0.043418188 0.44454533
000230 44 6b d5 3b b3 3b 1c be 61 61 a8 3e 3d 1d 10 3e
       0.006513031 -0.15257148 0.32886794 0.14073654
000240 44 a2 ea bd 9a f3 1f bd b6 7a 9d bd 8a c2 6b bf
       -0.11456731 -0.039050676 -0.07689421 -0.9209372
000250 52 2a 1f be 58 19 15 3f b1 65 0f 3f a4 d4 4f bf
       -0.15543488 0.58241796 0.56014544 -0.8118384
000260 c1 97 ef 3e 47 7a bb bd fd 84 2f bf d3 f0 db bd
       0.46795467 -0.09154182 -0.685623 -0.10739293
000270 47 ef 3c 3f 4c 97 18 c0 96 cf 8a 3e 0d 86 9e bc
       0.7380261 -2.3842344 0.271115 -0.01935103
000280 7e 74 42 3d bf 9b 99 3d 14 53 53 bf e1 78 99 39
       0.047474377 0.07500409 -0.8254864 0.00029272496
000290 2b 64 4a 3c 6d 52 1a be 8b 01 19 3e 7a 62 5b 3d
       0.0123529835 -0.15070505 0.14941995 0.05356071
0002a0 ce 70 92 3c 57 5f 87 be be f6 f8 3c 7d f1 6f bd
       0.017876055 -0.26439926 0.030391093 -0.05857991
0002b0 24 62 c5 bf 1b d8 8b 3d 30 9c 23 bf de 2a 0c 3d
       -1.5420575 0.06828328 -0.639102 0.03422057
0002c0 46 7f ac 3c 6c 9f 3d 3d 27 1a 8f bd c4 c4 67 3d
       0.021056782 0.046294615 -0.0698741 0.056584135
0002d0 fe a7 5c be 8b 72 91 3e 28 44 35 bd 9c 68 bf be
       -0.21548459 0.28407702 -0.044254452 -0.37384498
0002e0 c4 d6 50 3b 84 1c 5e bd c7 75 0d 3e 37 ab 0c bf
       0.0031866292 -0.054226413 0.1381446 -0.54948753
0002f0 38 69 9d bd 6f be 86 3e 18 da ac bc 8a 7a 82 3f
       -0.076860845 0.26317164 -0.021100089 1.0193646
000300 7f dd dc bd 9d 6e 2b bd 4a 54 35 3d 2b f0 3d 3e
       -0.107844345 -0.041853536 0.044269837 0.18548648
000310 66 41 d6 be 16 c4 89 3e 6b 75 1f c0 14 7f 67 bd
       -0.4184677 0.26907414 -2.4915416 -0.056517676
000320 5d b7 d5 bf 90 a2 b2 3d 92 77 85 bd 72 0f 74 3f
       -1.6696583 0.087224126 -0.06516947 0.9533607
000330 17 10 b1 bb 8d 41 67 bd cc 51 86 be c6 a0 9c 3a
       -0.0054035294 -0.056459 -0.2623428 0.001194977
000340 13 bc 24 3c b0 fc e9 3d d6 5e 83 bf bd 75 3c 3d
       0.010054606 0.114251494 -1.0263317 0.04601072
000350 85 76 b8 3c b4 3a bd bd cd 8d 23 3c 0b 80 65 3e
       0.022517452 -0.09239712 0.009982538 0.22412126
000360 2d d3 6a be 81 1b 5e 3d dd 35 a7 bd 0f 9e 31 bf
       -0.2293212 0.05422545 -0.081645705 -0.69381803
000370 72 17 be bd e0 c8 02 bd 9a 99 b1 bf 8d f7 3a be
       -0.092818156 -0.03192985 -1.3875 -0.18258496
000380 fe e3 14 bf 4f 7a 85 bf 2a 20 dd bc dd d6 9c 3e
       -0.5816039 -1.0427951 -0.026992876 0.30632678
000390 cc cd 02 c0 c1 cf c0 3d 6b f0 a1 bc 7e f5 17 3f
       -2.0438108 0.09414626 -0.01976796 0.59358966
0003a0 d1 0f 0b 3e 05 be a1 be 48 d0 02 bf 6f 3e 1f 3d
       0.13580252 -0.31590286 -0.5109906 0.0388779
0003b0 ca df d0 be 99 66 92 3c 78 11 05 be 9c 25 fd bb
       -0.40795738 0.017871188 -0.12994945 -0.0077254307
0003c0 a7 9d ab be 71 03 a6 bc 09 05 2f be 71 fc bd bc
       -0.33518717 -0.020265313 -0.17091765 -0.023191663
0003d0 58 46 f2 be dd b6 41 bf c2 76 6d 3d c6 9a e8 bb
       -0.47319293 -0.7566965 0.057974584 -0.0070985286
0003e0 b4 90 be 3d 30 75 09 be 42 69 b7 be e7 72 7a bf
       0.09304944 -0.1342361 -0.35822493 -0.9783158
0003f0 5b 26 35 c0 0b d3 1a 3f 55 74 b7 3e c8 ce 02 3f
       -2.830466 0.60478276 0.35830942 0.51096773

gnn_node.convs.0.mlp.0.bias f4 [256]
000000 4f 67 10 3d 20 7a 92 3d ce 6c 07 3c eb af a6 3c
       0.035254773 0.071522 0.008265687 0.020347556
000010 c4 fe 37 3c 34 15 ac 3d b7 ad 51 bd be f3 02 bd
       0.011230174 0.08402482 -0.051191058 -0.031970732
000020 34 0b 39 bc 2b 80 73 bc ee 2c 1b 3d 8b 84 90 bd
       -0.011294175 -0.014862101 0.037884645 -0.070565306
000030 b0 22 7c bd 04 b1 5c bd 2c f3 60 bd 8f 5f 5a bc
       -0.061556518 -0.053879753 -0.054919407 -0.013328447
000040 03 ed 19 bc 36 f3 76 bd 00 55 9d 3d 3d 70 9d 3d
       -0.009394887 -0.060290538 0.07682228 0.076874234
000050 2d fe af bc 61 22 73 bd 57 49 aa 3c 98 02 24 3d
       -0.021483505 -0.05935896 0.020786924 0.040041536
000060 3b ae d0 3c 00 75 15 bd c2 a8 01 3d 8f 32 cc 3c
       0.025473705 -0.036488533 0.03165508 0.024926452
000070 14 0b 94 bc 17 10 a7 bd 2c 57 af 3d c3 72 2b 3c
       -0.018071689 -0.08157366 0.085615486 0.010464373
000080 6f 1a 2b 3d 93 1d 41 bc 78 ef f1 3c 7d e8 59 bd
       0.041773256 -0.011786836 0.029533133 -0.053200234
000090 5e 1c 98 bc e9 ae 12 3d ff 20 71 bc b4 35 3f bd
       -0.018568214 0.03581134 -0.01471734 -0.046682075
0000a0 6c 51 6f bd 3f 1e c1 bd 51 ee 94 bd 25 ae 4f 3d
       -0.05842726 -0.09429597 -0.07272018 0.050703187
0000b0 0b 90 e4 3d 75 1b 6d 3b 34 0a bb bc 53 57 a4 bd
       0.111602865 0.0036179696 -0.022832014 -0.08024468
0000c0 5a 2c e6 3c 24 75 49 bb 3f be b6 bd 49 25 89 bd
       0.02809732 -0.0030739987 -0.08923005 -0.06696565
0000d0 59 73 65 3c 0f e3 84 3d de 53 71 bd f3 1d 08 bd
       0.014004552 0.064886205 -0.058917873 -0.033231687
0000e0 40 ed 4f 3d b0 b5 07 3d 16 d5 2b bd 90 9a 1f 3d
       0.05076337 0.033132255 -0.04195126 0.03896576
0000f0 4d 98 90 3c 8d d3 c7 bb 34 bc 50 bd ca 39 e1 bb
       0.017650748 -0.006098217 -0.050960734 -0.006873344
000100 ec 4b 02 3c 37 e2 4e bd 6b 62 a5 3b 23 be 8e 3c
       0.0079526715 -0.050508704 0.0050471327 0.017424649
000110 fc ad e8 3b a5 4e 12 3d a5 85 ce 3c b8 c2 8c 3d
       0.0071008187 0.035719533 0.025210211 0.06873077
000120 c5 90 5c bb 2e 32 ed 3c 5d 21 36 bc 75 e6 b0 bd
       -0.0033655625 0.028954592 -0.011116353 -0.08637706
000130 6f 3e be bc 19 f0 63 bd 93 bf 6b bd 16 4d 11 3c
       -0.02322313 -0.055648897 -0.057555746 0.008868476
000140 4f 35 86 3d 79 13 66 bd 4a c4 af bd b8 1a cf bc
       0.065531366 -0.056170914 -0.08582361 -0.025281295
000150 58 d1 51 bd e7 02 66 bd 94 eb 7a 3d cf dd c4 3c
       -0.051225036 -0.05615511 0.06125982 0.024031548
000160 56 eb ab 3c 19 2d 3f 3d 58 0e 86 bc 09 e8 27 3d
       0.02098624 0.046673868 -0.016364262 0.04099277
000170 8b 8b 9b bd c5 19 a3 bd cd 1c 6e 3b bc 50 88 3d
       -0.07594975 -0.079638995 0.0036333085 0.06656024
000180 48 ee a1 bb 9f f6 f0 bc a1 2e d9 bc 53 77 87 bd
       -0.0049417354 -0.029414473 -0.026511492 -0.06614556
000190 f7 a6 93 bd 94 a1 81 3d 5e b6 51 bd cc df c3 3c
       -0.072095804 0.06329647 -0.05119931 0.023910426
0001a0 b2 f8 94 3d 61 95 6d bd a0 eb b8 bc 0e b5 97 3c
       0.07273997 -0.058003787 -0.022573292 0.01851895
0001b0 35 4a 17 3d 0c 09 29 bd 88 1a b7 bb e4 4d 5e 3d
       0.036936004 -0.041268393 -0.0055878796 0.0542735
0001c0 92 4b e4 3c ee 80 31 3d b0 dc dd 3c 9a 85 95 bd
       0.027868066 0.043335848 0.027082771 -0.07300873
0001d0 00 0a 57 3d f1 f7 33 3d 63 f0 3e bd 92 3f a8 3d
       0.05249977 0.043937627 -0.04661597 0.0821525
0001e0 10 0f cd 3c 74 93 12 3d 5c 22 ea bc cc 99 42 3d
       0.025031596 0.035785154 -0.028580837 0.047509953
0001f0 4f 4f a5 bd 3b cb 81 bd 89 33 0b 3d a2 7a 2a 3c
       -0.080717675 -0.06337591 0.033984695 0.0104052145
000200 41 ca da 3c b6 78 36 bc 44 3c 40 3d 70 94 ab bd
       0.02670777 -0.011137178 0.046932474 -0.083779216
000210 27 fe bf bd 94 e4 19 3d be 10 1e bd c4 33 96 3d
       -0.093746476 0.037571505 -0.038590185 0.07334092
000220 22 1b 8c 3c b8 6e 91 bd 49 65 31 3c 63 61 a0 3c
       0.017102782 -0.07101196 0.010827371 0.019577688
000230 b9 e4 47 bd 78 d6 93 3d bc a2 9e bd 0b 05 82 3d
       -0.04880211 0.07218641 -0.07745883 0.06348618
000240 33 00 c8 3c d6 54 3c 3d e2 82 86 3d 4b 07 ae bc
       0.024414157 0.045979343 0.06567933 -0.021243712
000250 b4 e6 44 3d fa c8 8f 3d b5 6c e9 3c 44 0c 8a bb
       0.04807158 0.07020755 0.028494218 -0.004212888
000260 e3 aa 8e 3d 99 f0 1c bd b0 7c 91 3c de 5d 76 3d
       0.06966188 -0.03831539 0.017759651 0.060148112
000270 41 38 65 bd 6a 1b 43 bd 1e 0e ba bc 27 c9 0a 3d
       -0.05596185 -0.047633566 -0.02271181 0.03388324
000280 2b e3 91 3d 9c 01 db bc fc 82 6b bc e2 f2 92 3d
       0.07123407 -0.026734166 -0.014374491 0.071752325
000290 ac 94 7c 3d 40 80 1c 3d 42 e0 6d 3d 5f 35 2f bd
       0.061665222 0.038208246 0.058075197 -0.042775508
0002a0 f9 b1 4d bd 18 29 83 3d 35 bc 9d 3d e1 f5 ab 3d
       -0.050218556 0.064043224 0.07701913 0.08396507
0002b0 15 1d 1f bd a1 39 3c 3c f2 4d 63 3d 7e 56 a3 3d
       -0.038846094 0.011488349 0.055494256 0.079754815
0002c0 87 b8 96 bd 77 70 09 3d 00 96 7a 3d 70 1b 7d bb
       -0.073594145 0.03355452 0.061178207 -0.003862109
0002d0 7f 25 92 bd c0 74 af 3d 39 5e 87 bc 23 ad 15 bd
       -0.07136058 0.0856719 -0.016524421 -0.03654207
0002e0 b9 ec 2d bd 33 72 0e 3d 2b bb 87 3c 8e c5 17 bd
       -0.042462084 0.034776878 0.01656874 -0.037053637
0002f0 d2 89 bb bb 0c fc 6e bc 6b 6a 72 3d c5 98 ab bd
       -0.0057232166 -0.01458646 0.05918352 -0.08378748
000300 34 c4 5c 3d 72 ae 40 bd 3f b5 bf 3c 71 eb 6f bd
       0.05389805 -0.047041364 0.023401855 -0.058574144
000310 41 6b d1 3d 79 c3 16 ba cf dc 93 3c de cd 73 3d
       0.10225535 -0.00057511736 0.018049626 0.059522502
000320 aa 18 86 bd fb af 29 bd dc a2 b7 3d a1 7b a6 3d
       -0.06547673 -0.041427594 0.0896661 0.08129049
000330 1b b9 6d bd 7c d1 5b bd ed f7 1c bd 0a c8 3a bc
       -0.05803786 -0.053666577 -0.038322378 -0.011400232
000340 4c 29 c5 3c 4c df 74 bd 18 cf d5 bd 23 39 40 bd
       0.024067543 -0.059783265 -0.104398906 -0.04692949
000350 d1 2d 83 bd 43 34 0f be e6 c1 3f bd ef 27 dd 3c
       -0.06405223 -0.1398478 -0.046815775 0.02699658
000360 9e bc 54 3d 9d f5 53 3d 8d 30 85 bd ff 74 01 3d
       0.051937692 0.051747907 -0.06503401 0.031605717
000370 49 20 8b bc 31 a5 b4 3d e1 32 8d 3d a4 c6 a9 3d
       -0.016983168 0.0882057 0.0689447 0.08289841
000380 a6 d9 45 bd 5d 17 5d bd 2f d4 97 bc a6 20 62 3d
       -0.04830327 -0.05397736 -0.018533794 0.055206917
000390 54 2d 24 bd 53 c3 11 bd 48 c9 fd bc 9f a0 8a bd
       -0.04008229 -0.035586666 -0.030979767 -0.06768917
0003a0 cd 0e 83 bc 3b 9e 8c bd 05 ef 46 3d 03 10 11 bc
       -0.015998268 -0.068661176 0.04856779 -0.008853915
0003b0 89 12 7b bd a6 0a 0a 3d b6 e6 17 bd 62 94 af bd
       -0.061296973 0.03370156 -0.037085257 -0.08573224
0003c0 d0 b2 91 3c 93 8a 09 3d 73 d3 05 bd 41 3c 62 bd
       0.01778546 0.03357942 -0.032672357 -0.055233244
0003d0 ed 71 28 bc b1 5a 9e bc 01 af 1c bc 79 4a 6b 3d
       -0.010281068 -0.019330354 -0.009563209 0.05744407
0003e0 5d db 1c 3d b8 b4 7d bd 38 0a b1 bc 67 5a 33 ba
       0.03829514 -0.061939925 -0.021611318 -0.0006841779
0003f0 b8 92 9c 3d c0 d2 ab bc c5 b2 38 bd c3 f9 94 3d
       0.07645172 -0.020974517 -0.045092363 0.07274201

gnn_node.convs.0.mlp.1.weight f4 [256]
000000 3e 9e bb 3e fd 7e cf 3f 52 39 d1 3f f0 0b 9a 3f
       0.36644167 1.6210629 1.6345618 1.2034893
000010 b3 ff 07 bc bd 15 15 bc 3a 04 4e 3f 77 1a 4b 3f
       -0.00830071 -0.009099421 0.804752 0.7933726
000020 55 64 f0 3f 4c 88 20 3f 8b dd ae 3c bb a1 bd bc
       1.8780619 0.6270797 0.021345874 -0.023148408
000030 58 1b 65 3f 51 1d c5 3f 41 09 a4 3f b3 9d b0 3f
       0.8949485 1.5399572 1.2815324 1.3798126
000040 12 50 be 3f 30 20 d8 3e 35 d8 d3 3f 93 43 ce 3f
       1.4868186 0.42212057 1.6550356 1.6114372
000050 c0 f6 a6 3f 1b b0 34 3f a8 d0 d5 3f 6e 2c 90 3f
       1.3044052 0.70581216 1.6704302 1.1263559
000060 8b 20 91 3f 2c aa 39 40 aa 6b a2 3f 4e a1 72 3f
       1.1338056 2.9010115 1.2689106 0.9477738
000070 81 f0 58 3f bf ac 95 3c 6b 52 b5 3f f8 b5 f2 3f
       0.8474198 0.018270848 1.4165777 1.8961782
000080 41 39 bc 3f 74 b5 9b 3f b5 1b d4 3f 61 c5 c0 3f
       1.4704973 1.216475 1.6570956 1.5060235
000090 89 6d 8c 3f 44 08 5a 3e 03 eb 8d bc 3d ae d9 3f
       1.0970927 0.21292216 -0.017323976 1.7006298
0000a0 76 f2 7e 3f 39 ea f8 3f 73 c6 8f 3f 4c 45 23 3f
       0.99588716 1.9446479 1.1232437 0.63777614
0000b0 7a 19 81 3f 3b d3 67 3f d9 c5 c7 3b 32 65 ae 3f
       1.00859 0.9055669 0.0060965833 1.3624632
0000c0 c4 2c b5 3f 91 ff 88 3f 65 5a 05 40 8b 17 8f 3f
       1.4154286 1.0702993 2.0836422 1.117906
0000d0 09 69 bc 3f 0a dd dd 3f 7c 44 4f 3f 58 4e a1 3f
       1.4719554 1.7333081 0.80963874 1.2602034
0000e0 e1 4f a2 3f 18 cf 8b 3e d8 70 ad 3f 58 91 cd 3f
       1.2680627 0.27306437 1.3550062 1.605998
0000f0 f6 cb 7c 3f f4 c2 71 bd 18 7a ba 3f af e6 65 3f
       0.9874872 -0.059023812 1.456851 0.8980512
000100 40 64 92 3f 9f 4c a6 3f 2f 79 ea 3f c6 a5 01 3f
       1.1436844 1.2992133 1.8318232 0.50643575
000110 86 93 22 3e 5f 5a 46 3e 84 93 87 3f b9 84 7a 3f
       0.15876588 0.19370411 1.0591893 0.9785877
000120 e7 37 44 3f c6 f3 e4 3e 6b c2 a4 3f 34 76 61 3f
       0.766478 0.44717234 1.2871832 0.8807099
000130 cd 5c 9d 3f 0f 73 ce 3f d3 a7 86 3f c7 b7 ab 3f
       1.2293946 1.6128863 1.0519966 1.3415459
000140 f7 13 f5 3e c4 0e b1 3f 33 65 eb 3f 44 e2 df 3e
       0.47866794 1.3832631 1.8390259 0.43727314
000150 46 6b ae 3f b8 48 aa 3f 00 78 37 3f 85 3c b0 3f
       1.3626487 1.3303442 0.7166748 1.3768469
000160 66 6a 0f 3f 80 83 76 3f 74 57 a2 3f 61 f1 ae 3f
       0.56021726 0.96294403 1.2682939 1.3667413
000170 15 0e 09 3f c2 61 60 3f b8 7d f6 3f 6f 4c d5 3f
       0.5353711 0.87649167 1.9257116 1.6663951
000180 2f 98 ad 3f 33 6a e0 3e 5d d0 b8 3f c3 7c b4 3f
       1.3562068 0.43831024 1.4438587 1.4100574
000190 25 16 83 3f 77 68 8b 3f d2 04 a2 3f e6 c0 a5 3f
       1.0241133 1.0891255 1.2657721 1.2949493
0001a0 ea 5c d0 3f 01 05 7b 3f f5 3c f6 3f 1c dd a7 3c
       1.6278355 0.9805451 1.9237353 0.020491175
0001b0 63 01 54 3f 59 50 21 3f c7 e1 ae 3f e0 00 81 3f
       0.82814616 0.63013226 1.3662652 1.0078392
0001c0 d8 8c 7e 3f 9d ed a4 3f 8b c0 ef 3f dc c5 75 3f
       0.9943366 1.2885014 1.8730634 0.96005034
0001d0 75 10 83 3f a0 32 5f 3e 15 91 28 3f 56 e5 a9 3f
       1.0239397 0.21796656 0.6584638 1.3273113
0001e0 03 65 14 3e 82 c7 f6 3f 51 32 98 3f 08 8d 75 3f
       0.14491658 1.9279635 1.1890355 0.9591832
0001f0 82 a4 c6 3f 66 e1 6c 3f 1e e5 d1 3e 91 3c 93 3f
       1.5518954 0.9253143 0.40995115 1.1502858
000200 20 5d ba 3f c0 ba a5 bc 63 99 d9 3f d4 0e 0a 3e
       1.455967 -0.02023065 1.6999935 0.13482219
000210 ad 28 a1 3f 9c cc 69 3f f4 d5 33 3f 21 81 e2 3e
       1.2590538 0.91327834 0.7024834 0.44239143
000220 8d 04 f8 3f 53 4b b0 bd bf 18 b4 3f c2 b0 3e 3f
       1.9376389 -0.08608117 1.4070052 0.7448846
000230 79 4f f0 3e 82 7f 2e 3f 56 6f 73 3f d9 2b 92 3f
       0.46935633 0.6816331 0.9509176 1.1419631
000240 ed 39 85 3f f5 a6 6c 3f 35 39 b4 3f fd 50 c1 3e
       1.0408303 0.92442256 1.4079958 0.37757102
000250 08 3d 9b 3f 89 0c 0b 40 32 78 c3 3f 80 9f b1 3f
       1.2128 2.17264 1.5271056 1.38768
000260 13 93 06 3e 1f 2e 44 3f 77 ac b5 bc 40 fc 84 3f
       0.13142042 0.76632875 -0.022176964 1.038948
000270 6d 23 b4 3f fa 19 52 3f 09 c6 61 3f 00 e4 92 3f
       1.4073311 0.8207089 0.881928 1.147583
000280 5f 09 fc 3e d5 5e 79 3f fc 64 76 3f 0c b2 52 3f
       0.492259 0.9741033 0.9624784 0.8230293
000290 b6 99 c8 3f 0e 67 47 3f 77 7d a1 3f 74 68 ce 3f
       1.5671909 0.77891624 1.2616414 1.6125627
0002a0 8f 8d 8e 3f e8 fd 67 3f 42 2a 4b 3e 57 fe bf 3f
       1.113695 0.90621805 0.19840339 1.4999493
0002b0 86 2a 07 3f 71 85 a5 3f e7 63 8f 3e f5 d5 45 3f
       0.5279926 1.2931348 0.28005907 0.772796
0002c0 a4 5d aa 3f 14 16 8b 3f 1b 32 06 3f 84 59 b8 3f
       1.3309827 1.0866113 0.52420205 1.4402318
0002d0 d8 e4 c2 3f cc d8 ad bd 01 5a ab 3f bd 3c 8c 3f
       1.5226088 -0.08488616 1.3386842 1.0956036
0002e0 33 38 e9 3f 2d 95 2d 3f 61 8a 8d 3f 8d 5c bf 3d
       1.8220276 0.6780575 1.1057855 0.093438245
0002f0 ea 24 96 3f 32 56 b6 3f 90 c0 a3 3f 4b 30 f2 3e
       1.1730015 1.4245055 1.279314 0.4730247
000300 ac bb 89 3f a1 56 9b 3f b1 82 9e 3f c7 6b c7 3f
       1.0760398 1.2135812 1.2383634 1.5579766
000310 01 40 e9 3f 6b ff b5 3f 9b 42 b8 3f e6 8f 84 3f
       1.8222657 1.4218572 1.4395326 1.0356414
000320 be 9a 18 40 86 7e 94 3f cc 2e e2 3f 2c 34 d5 3e
       2.3844447 1.1601112 1.7670531 0.41641366
000330 d6 b7 61 3f d5 d4 6a bc 36 0c a3 3f ec 85 da 3f
       0.88171136 -0.01433297 1.2738101 1.707212
000340 a8 87 c8 bc c9 f8 cd 3f d9 0a 69 3f 43 0d a7 3f
       -0.024478748 1.6091548 0.9103218 1.3050922
000350 8b 58 96 3f 78 b4 a3 3f 57 69 91 3f 2c 4f c9 3f
       1.1745771 1.278945 1.1360272 1.5727286
000360 37 4f 4b 3f 2b 66 c9 3f 7d 78 82 3f 3d 6d 50 3f
       0.7941775 1.5734304 1.019302 0.81416684
000370 b0 03 34 3e 69 25 cd 3e e8 9c 9d 3f d9 07 ba 3f
       0.17579532 0.40067604 1.2313509 1.4533645
000380 13 97 b2 3f cd 8e a1 bc b0 aa a6 3f d6 71 53 3f
       1.3952354 -0.019721413 1.302084 0.82595575
000390 d9 08 c7 3f 66 e4 40 3f a0 6e 9b 3f 21 4e aa 3f
       1.5549575 0.7534851 1.2143135 1.3305093
0003a0 ef d2 24 3d 49 a0 c7 3f f7 9c bc 3f a3 f9 32 3f
       0.040240224 1.559579 1.4735402 0.69912165
0003b0 d4 21 cb 3f 6c e8 f2 3f 37 5b 8c 3f f5 8a 99 3f
       1.5869699 1.897718 1.0965337 1.1995531
0003c0 b8 ca 4a 3f a4 d2 9e 3f f7 91 33 3e eb f4 5c 3f
       0.79215574 1.2408032 0.1753615 0.86311215
0003d0 29 f0 85 3f e4 b2 e1 3e 08 de bc 3f 67 a7 47 3f
       1.0463916 0.44081795 1.4755259 0.7798981
0003e0 4e 96 d3 3e 7f bd 00 40 9d bc ad 3f e4 1e 3f 3f
       0.4132561 2.011566 1.3573185 0.7465651
0003f0 0d a0 2a 3f 73 8a b3 3f 83 66 59 3b 72 54 e6 3f
       0.6665047 1.4026626 0.0033172674 1.7994521

gnn_node.convs.0.mlp.1.bias f4 [256]
000000 fb 89 d3 bc 6a f6 ff be b6 b4 5a be 6f ff 3c be
       -0.02582263 -0.49992687 -0.21357998 -0.18456815
000010 26 84 e6 3d 32 f7 36 3f e7 2c 11 bf bc 8f 20 bf
       0.11255674 0.7147094 -0.5670914 -0.6271932
000020 0d 06 d2 3c 56 b1 75 bf 3f 87 ec be 70 e3 52 3f
       0.02563765 -0.9597372 -0.46196935 0.8237829
000030 56 2a ac be 26 b9 d5 be 43 9f 8a bd 90 0c df bd
       -0.3362605 -0.4174282 -0.06768658 -0.10891068
000040 3f ed 84 be 9f 82 ad bf 74 4a 00 bf 74 2a ed be
       -0.25962254 -1.3555487 -0.50113606 -0.46321452
000050 bf 86 1b bf 30 2c 33 3f ac b9 ff be dc 9f 8d bf
       -0.6075248 0.699893 -0.49946344 -1.106441
000060 d1 93 3a bf 2a 1f 0b be f1 5e 9b 3e c2 68 e4 be
       -0.728818 -0.13586107 0.30345872 -0.44611174
000070 b2 16 ab 3d b9 ff 02 be a5 95 c0 be 89 65 71 be
       0.08353938 -0.12792863 -0.3761417 -0.23573889
000080 20 f4 f7 3e a1 c1 0c bf f6 40 1f bd 8b 82 1a bf
       0.4842844 -0.54982954 -0.03888031 -0.6035544
000090 53 ce fc be a0 bd cd be 17 8f 21 3f 21 7b 15 bf
       -0.49376163 -0.40183735 0.6310896 -0.58391005
0000a0 fe 12 8a be 62 d7 21 3e fc b9 ea be 82 54 c7 be
       -0.26967615 0.15804818 -0.4584502 -0.38931662
0000b0 a7 72 b0 bf 78 4b d6 be 3f cf ef bd 90 d0 10 be
       -1.3784989 -0.41854453 -0.11709451 -0.1414206
0000c0 3e 5e a6 be e7 a5 32 3d 87 00 2c bf d9 6f 0c bf
       -0.32493776 0.043615248 -0.67188305 -0.54858166
0000d0 0c 59 0c bf ce e8 d1 be 21 2d 50 bf 36 4f 1e bf
       -0.54823375 -0.40997928 -0.8131886 -0.61839616
0000e0 8e f6 91 be c9 cd 16 bf 89 0d 1e bf c2 e1 25 bf
       -0.2850842 -0.58907753 -0.61739403 -0.64797604
0000f0 80 bb 7f be a3 a6 e7 bd 9b c6 8e be f5 a9 bb be
       -0.2497387 -0.1131108 -0.278859 -0.36653104
000100 31 77 e5 be 54 6f 8d be 05 ac 39 be c5 f6 bb bf
       -0.44817498 -0.27624 -0.18132026 -1.4684683
000110 eb fb a0 bd d3 a1 34 be f2 27 99 be 14 6d 8a be
       -0.078605495 -0.17639856 -0.29913288 -0.27036345
000120 88 ac 82 bf fb 4e ee be 97 5f bb be e3 ea e1 be
       -1.0208902 -0.46544632 -0.36596367 -0.44124517
000130 65 a9 b5 be 3a 7b 2a bf b7 91 c7 3e 75 26 ad bd
       -0.354808 -0.6659428 0.3897836 -0.08454601
000140 74 17 c0 be 20 ef c0 be 4a ba f4 be ef cf d4 be
       -0.37517893 -0.37682438 -0.47798377 -0.4156489
000150 43 b7 8c be 0f e3 6b be ce 54 1c bf 6c 59 2e bf
       -0.27483568 -0.23035835 -0.610669 -0.68105197
000160 49 31 0c bf ce f4 13 bf c2 b3 8e be 23 b9 87 be
       -0.54762703 -0.5779542 -0.2787152 -0.26508436
000170 8f 96 88 3d 59 5d dc be 21 8e b2 be 1a 8c a5 be
       0.06669342 -0.4303997 -0.3487406 -0.32333452
000180 40 13 24 bf 69 35 8a 3e 85 a4 02 bf 43 f3 b2 be
       -0.64091873 0.26993874 -0.51032287 -0.3495122
000190 fc b3 31 be cd b0 b4 be cf 4e a4 be c6 25 b2 be
       -0.17353815 -0.35291138 -0.32091376 -0.34794444
0001a0 9d 4f 06 bf 56 d4 cb be 0f 5c 25 bf fe 9b 9e be
       -0.5246523 -0.39810437 -0.64593595 -0.30978388
0001b0 92 f3 fc bd 98 0d 93 be 9a d7 0e bf 71 d6 15 bf
       -0.12351145 -0.2872131 -0.5579773 -0.58530337
0001c0 eb 51 1a be 15 f4 f6 bb 96 e9 02 bf 37 db 11 bf
       -0.15070312 -0.007536421 -0.51137674 -0.5697512
0001d0 2d 55 02 bf 54 b1 59 be 28 df bf bd d3 25 3f bf
       -0.5091122 -0.21259052 -0.093687356 -0.7466709
0001e0 39 0f 90 be a9 96 14 bd 6b 17 2f 3e f0 6b 9f be
       -0.28136614 -0.036276493 0.17098777 -0.31137037
0001f0 cf 50 f5 be 25 91 79 be 96 30 8c bf b9 ed 86 bf
       -0.47913215 -0.24371774 -1.0952327 -1.0541297
000200 4a 7e 27 bf fb 5e 99 3e 9e a9 04 bf 4b cf 33 be
       -0.65427077 0.29955277 -0.51821315 -0.17559545
000210 2b 35 91 3d dc 92 8f be 71 29 64 bf 78 72 ab be
       0.07090219 -0.28041732 -0.89125735 -0.3348577
000220 be cb 5c be 05 48 79 3e 6d e7 09 bf e4 aa 92 be
       -0.21562096 0.2434388 -0.5386875 -0.28646004
000230 ab 7f 26 be c1 af 87 bf 68 0c 35 be ef 12 91 be
       -0.16259639 -1.0600511 -0.17680514 -0.28334758
000240 eb ed f5 be 9c 4a b8 be d5 55 1e 3e d3 c7 aa 3a
       -0.4803308 -0.35994422 0.1546243 0.0013029523
000250 ac 86 54 bd 38 1c bb 3d 42 e8 86 be c2 14 11 be
       -0.051886246 0.09136242 -0.26349074 -0.14168075
000260 02 36 31 bf 5f 10 5e be a1 ab a0 3e 2c 68 8e be
       -0.69223034 -0.21685933 0.31380942 -0.27813852
000270 78 0e 47 bf 08 aa ca be 5c 85 13 3e ab 0e ef be
       -0.7775645 -0.3958285 0.14406341 -0.46690878
000280 a6 f0 7a bf 64 c0 d6 be 6e 92 a9 be 69 b2 fd be
       -0.9802345 -0.41943657 -0.3311953 -0.4955018
000290 51 cf e4 be cb 7c c9 bd 2f ae dc be 70 27 57 bc
       -0.4468942 -0.098382555 -0.43101642 -0.013131961
0002a0 00 f3 d5 bd 9e d2 f9 be 62 28 07 be 62 85 e6 be
       -0.10446739 -0.487935 -0.13198999 -0.45023638
0002b0 e3 4d 58 be 2c 13 03 bf 04 08 19 be 27 77 82 be
       -0.21123461 -0.5120113 -0.14944464 -0.2548153
0002c0 80 58 1e bf 3c 6e f2 bd 32 f7 d0 bf 12 39 1e bf
       -0.6185379 -0.11837432 -1.6325438 -0.6180583
0002d0 52 a5 fd be 05 c5 46 bf 31 42 4c 3e 98 d0 1f bf
       -0.49540192 -0.7764438 0.19947125 -0.62427664
0002e0 49 a4 f5 be 64 9d 25 bf 9f 8b b2 3e f7 71 04 3e
       -0.47976902 -0.64693284 0.34872147 0.12934099
0002f0 18 73 11 bf c3 61 c5 be 7b f8 f5 be 49 5a f8 be
       -0.56816244 -0.3855115 -0.48041138 -0.48506382
000300 fb a1 01 bf ae 27 13 bf 02 66 ee be 66 39 fc be
       -0.5063779 -0.5748242 -0.465622 -0.49262542
000310 0d 91 9d be f5 cd fe be f0 09 06 bf 14 c2 6b bf
       -0.30774727 -0.49766508 -0.52358913 -0.92093015
000320 f0 4b ad be fc cc d7 be cf 83 9a be 17 e6 c3 bf
       -0.33846998 -0.42148578 -0.30178687 -1.5304593
000330 21 5d 5b bf ea 90 0b 3f b4 6c 31 be 37 d6 1b be
       -0.8568898 0.54517996 -0.17326623 -0.15218435
000340 f7 5b c7 3e b9 b4 71 be 94 83 14 bf 39 6c 20 bf
       0.3893735 -0.23604096 -0.5801327 -0.62665135
000350 e4 7c f3 be 4b b3 b1 be 19 6b 20 bf 54 87 cc be
       -0.4755622 -0.34707102 -0.6266342 -0.39946997
000360 e1 5c be 3e 70 c2 1d bf b7 74 07 bf 20 0f d2 bf
       0.37180236 -0.61624813 -0.5291247 -1.6410866
000370 78 e2 27 be b0 6c bd bf 15 65 4b be 4e ac 09 bf
       -0.16394985 -1.4798794 -0.19862778 -0.5377854
000380 14 99 bb bc 8b a1 11 3f a2 33 09 bf 9b 86 52 be
       -0.022900142 0.5688712 -0.5359441 -0.2055916
000390 d8 ba 5e be 11 49 b6 be 20 79 cc be 48 88 19 bb
       -0.21750963 -0.3560262 -0.3993616 -0.0023427177
0003a0 5b 1b ae 3d d0 b1 d4 be 18 24 28 bd 7d 0e 52 3d
       0.085013114 -0.4154191 -0.041050047 0.05128335
0003b0 82 91 cf be 58 c6 4e be f7 df ed be 62 4d 5e bf
       -0.405407 -0.2019285 -0.46459934 -0.86836827
0003c0 8b 71 b8 bf e9 dd 04 3d c2 d6 39 bf e1 0d bd bb
       -1.440965 0.032438193 -0.7259332 -0.0057694768
0003d0 d7 9e 16 3c 3c 06 3c 3d 79 c1 1d bf b5 e1 14 bf
       0.009193144 0.045904383 -0.6162334 -0.581569
0003e0 c5 4a 5b be b0 d1 9b be c0 0a f5 be f9 fa b1 bd
       -0.21415241 -0.30433416 -0.47859764 -0.08690447
0003f0 77 e5 2e bc 8c 20 0b bf 29 04 bc bd ba 62 e4 be
       -0.010674826 -0.5434654 -0.09180481 -0.44606572

gnn_node.convs.0.mlp.1.running_mean f4 [256]
000000 fc 12 27 41 d3 cf 27 41 36 c3 61 40 48 35 83 41
       10.442135 10.488238 3.5275397 16.401016
000010 30 67 da bf a4 d5 81 41 36 66 b3 41 63 55 ba be
       -1.706274 16.229317 22.424908 -0.3639327
000020 34 9e a3 40 85 0d c9 c1 9e 1e e1 be e1 69 84 40
       5.113062 -25.131601 -0.43968672 4.1379247
000030 42 54 4a 41 e0 7a e8 40 f8 55 18 42 bd ac ec 41
       12.645571 7.2649994 38.083954 29.584345
000040 2b 54 fd c1 4b fe 1d c0 68 b7 37 41 a1 c5 0e c1
       -31.666098 -2.4686458 11.482277 -8.923249
000050 f5 d4 9d 41 bb 39 fc 3f 11 97 bb 40 74 cc 61 bf
       19.728983 1.9705118 5.8621907 -0.88202596
000060 31 22 2d 41 e6 27 88 c0 49 65 ab c1 10 ad 2e 41
       10.8208475 -4.2548704 -21.424456 10.917252
000070 60 c7 1d c1 0e c4 cd bf 81 8f 07 41 d1 cc 01 41
       -9.861176 -1.6075456 8.472535 8.112504
000080 b1 44 b3 40 ce 43 80 41 9e ba 12 3f e5 80 06 41
       5.602135 16.033108 0.57316005 8.406468
000090 fc 78 67 40 ec dc 70 c1 bd ce d2 40 27 da d0 40
       3.6167593 -15.053936 6.5877366 6.52663
0000a0 04 89 be c0 00 37 fe c1 a1 70 11 c1 c8 1a 75 c1
       -5.9542255 -31.776855 -9.089997 -15.319038
0000b0 2d fa ca 41 ce 36 4e c0 2d 0f 12 40 77 49 69 40
       25.372156 -3.222095 2.2821763 3.645109
0000c0 31 3f fb 40 84 60 84 40 79 ce 37 c1 73 d1 b0 3e
       7.851464 4.1367817 -11.487908 0.34534797
0000d0 d1 d2 03 41 0b c2 c8 c0 99 07 40 41 f2 7f 49 41
       8.238969 -6.273687 12.001855 12.593737
0000e0 a9 7b 14 c1 0c 02 fc c0 21 da ea c1 85 32 0a c0
       -9.28019 -7.87525 -29.356508 -2.1593335
0000f0 70 c2 fb c0 18 86 42 40 2c cf 24 3f 18 ac c9 3f
       -7.867485 3.0394344 0.6437862 1.5755644
000100 09 9c 8a 3f 1e 5d b8 c1 d4 f9 c4 41 83 28 ff c0
       1.0828868 -23.045467 24.621986 -7.9736953
000110 88 b9 3f 41 ed a9 ad c0 6d b3 35 41 c2 15 09 40
       11.982796 -5.426993 11.356305 2.141953
000120 fc 0f 81 41 01 68 c2 bf 06 fb 80 41 d5 49 aa c0
       16.132805 -1.518799 16.12257 -5.3215127
000130 12 dc 8b c1 d6 90 63 41 25 f8 00 42 ed cc 0d c2
       -17.482456 14.22286 32.24233 -35.450123
000140 2c 81 69 3f 7b b2 a1 41 ba b3 97 41 79 7c cc bf
       0.91212726 20.212149 18.962757 -1.5975486
000150 e3 d0 a2 3f b8 30 b0 41 5c 4b 42 c0 ae 00 06 41
       1.2719997 22.023788 -3.0358496 8.375166
000160 64 c8 2f 41 89 a5 0e c1 51 f1 6d be b9 b1 33 c0
       10.9864235 -8.915414 -0.23236586 -2.8077223
000170 08 9b e1 40 fa 75 91 c0 f8 81 4b 41 77 77 51 c1
       7.0501747 -4.5456514 12.719231 -13.091666
000180 42 5f c7 40 62 26 b0 41 8a 5b c4 c0 a1 61 8b 41
       6.230378 22.018742 -6.136174 17.42267
000190 68 da ef c1 e7 ce 88 40 4f 64 c3 40 4b 29 26 c1
       -29.981644 4.2752566 6.1059947 -10.385081
0001a0 1b 76 f9 40 da 5b 0b 41 a9 af 91 41 71 4a c2 3f
       7.795667 8.709925 18.210772 1.5178968
0001b0 4b 4c 5b c1 fa f5 9d c1 4a 9d ce 3f 22 f8 9c c0
       -13.706126 -19.745106 1.6141751 -4.9052896
0001c0 3b f5 01 41 a1 6a 0e 41 eb b3 c6 40 0e 25 6b 41
       8.122371 8.901032 6.2094626 14.696547
0001d0 53 23 bc c1 43 2e c6 40 b1 cd 45 c0 d2 6c 8d 41
       -23.517248 6.193147 -3.0906794 17.678135
0001e0 ed 10 3a c1 d6 fc 28 c0 e7 cb 8d 3f 78 bf c7 c1
       -11.629132 -2.640432 1.1077851 -24.96849
0001f0 ec 67 be c0 ee b0 a1 c1 df 7d 5a 41 1d 9f 88 41
       -5.950186 -20.211391 13.65573 17.077692
000200 f2 ef 80 40 27 d0 73 3f 63 63 80 3e e6 e7 52 c0
       4.02929 0.9523949 0.25075826 -3.295404
000210 7a 59 a8 c0 06 66 99 c1 9a b0 d9 c1 ac 28 85 c0
       -5.2609224 -19.174816 -27.211231 -4.161215
000220 00 3a ca c0 55 20 1d 41 7e eb 84 41 37 9b 28 c1
       -6.31958 9.820394 16.614986 -10.537894
000230 fe e5 87 c1 d8 15 9e c1 f8 6d 12 41 56 d5 75 c1
       -16.9873 -19.760666 9.151848 -15.364584
000240 96 08 a2 c0 98 45 98 c0 a9 74 bf 41 b3 f3 1d 41
       -5.063548 -4.7584953 23.931963 9.871997
000250 a9 a6 2c c1 e2 0f 7f c1 15 87 57 41 e3 5e 0c 41
       -10.7906885 -15.941378 13.470479 8.773166
000260 48 54 52 40 93 f6 00 41 85 d1 7f bf a8 ac 41 41
       3.2863941 8.060199 -0.99929076 12.104652
000270 1f a5 94 c0 25 c0 12 c1 e4 94 cf 40 9e 19 29 c1
       -4.6451564 -9.17191 6.486925 -10.568754
000280 8c e8 ef 40 7d 17 4f 41 53 38 7c bf 84 ab 20 c1
       7.497137 12.943234 -0.98523444 -10.041874
000290 f6 49 93 40 14 f1 41 41 f4 c2 b9 40 61 40 35 c1
       4.6027784 12.121357 5.805048 -11.3282175
0002a0 a9 09 33 41 a8 ad d1 c0 64 ea b7 3f 0f 73 0f c1
       11.189858 -6.5524483 1.4368405 -8.9655905
0002b0 96 f0 a7 c0 9d 07 75 c0 5f f0 2b 41 46 4b 30 c1
       -5.2481184 -3.8285897 10.746184 -11.018377
0002c0 43 07 56 c0 31 01 0d 41 c1 1a 19 c1 da 0e 0a c0
       -3.3441932 8.812791 -9.569032 -2.1571565
0002d0 3b 36 1a c0 0a 87 15 41 a8 dd b1 c0 48 f0 93 41
       -2.40956 9.3454685 -5.5583076 18.492325
0002e0 8a b0 1a c1 a7 78 8e 41 16 8c 9d 41 27 72 0e 41
       -9.6681 17.808912 19.693401 8.902869
0002f0 cc 6e 09 bf 9b 40 ab c1 b9 89 7b 41 1b 5c d2 c0
       -0.5368469 -21.406546 15.721124 -6.5737433
000300 0a ef f1 40 b9 31 51 41 44 8e 9b 3f 4d 12 02 c0
       7.5604296 13.074639 1.2152791 -2.032367
000310 b2 2a 14 c1 94 3c 0b c0 7f d5 5f 41 b1 9e a7 c0
       -9.260424 -2.1755724 13.989623 -5.2381215
000320 bb 9f 0c be 41 a4 2f c0 9a fc 5d c1 52 d4 96 c0
       -0.13732807 -2.7444003 -13.87417 -4.713418
000330 4e 8f 40 41 45 0d 5e 40 f3 bc 75 41 28 6e a4 40
       12.0349865 3.46956 15.35863 5.138447
000340 5f 59 68 41 b2 57 b7 3d 66 79 53 c1 7a 4c 2f 40
       14.521819 0.089522734 -13.217138 2.7390428
000350 94 45 36 41 48 d6 3e 41 6f 74 19 bf 95 d9 18 41
       11.391987 11.927315 -0.5994329 9.553121
000360 c6 dd cc 41 d9 3f 22 41 24 81 8e 40 8a f7 98 be
       25.608288 10.140588 4.453264 -0.29876357
000370 d4 9a 0c 41 7f ec 7e 40 ee ca 96 41 25 e5 98 40
       8.7878 3.9831846 18.849087 4.7779717
000380 31 a9 c4 bf 78 3c 3a 41 a2 76 42 c1 49 7a 45 c1
       -1.5364133 11.639763 -12.153963 -12.342355
000390 38 95 0b 3e 73 0a c7 40 dd 66 3d 3d f0 fd 7f bf
       0.13631141 6.2200255 0.046240676 -0.9999685
0003a0 08 93 a4 40 5a 35 7a 41 78 59 50 c1 3e d3 c0 40
       5.142948 15.638025 -13.021843 6.0257864
0003b0 08 84 31 3e 4f 2d 90 c1 fe 9a 6a 41 98 fd 84 41
       0.17335522 -18.022123 14.66284 16.623825
0003c0 14 d1 ca be 86 4d 24 41 2a 5c 5f 40 32 a2 a0 41
       -0.3961264 10.268927 3.4900002 20.079197
0003d0 dd d1 3e 40 f3 b9 38 40 a3 f2 44 c1 dc 51 98 c1
       2.981559 2.8863494 -12.3092375 -19.03997
0003e0 58 b8 8e c1 2f e1 ae 41 a8 33 2c 41 4e 1e 85 41
       -17.840012 21.859953 10.762611 16.639797
0003f0 57 74 8a c1 58 4f 4b c1 50 ab 97 40 c5 43 88 c1
       -17.306807 -12.706871 4.739662 -17.03309

gnn_node.convs.0.mlp.1.running_var f4 [256]
000000 e2 3f 0f 43 dc 53 18 43 dc 41 c5 42 12 09 f0 42
       143.24954 152.32758 98.62863 120.017715
000010 d9 37 e9 42 d5 6c 98 42 17 cc 08 42 b5 4d ba 42
       116.60908 76.21256 34.199306 93.15177
000020 39 e7 a7 42 da 9b 4b 42 2f d0 c6 40 7a fe bc 42
       83.95161 50.9022 6.212913 94.497025
000030 c1 ef 74 42 22 ad bf 42 b0 23 4f 43 bf 16 89 43
       61.234135 95.83815 207.1394 274.1777
000040 48 53 9d 42 80 89 a8 42 b7 f8 e2 42 2a 62 4b 43
       78.66266 84.268555 113.48577 203.38345
000050 92 08 10 43 92 49 3c 43 c1 6a 24 43 ab d9 09 42
       144.03348 188.28738 164.417 34.462566
000060 c4 f5 84 41 bb 9d 1e 43 1c 79 e8 42 38 38 36 43
       16.620003 158.61613 116.23654 182.2196
000070 38 30 19 42 10 ea 4c 42 95 ee ed 42 92 96 a8 42
       38.29709 51.228577 118.96598 84.29408
000080 61 3a 1a 43 72 93 09 43 e6 d9 f0 42 b5 37 29 43
       154.22804 137.57596 120.42558 169.2176
000090 9d ac b7 42 48 85 37 42 8f 82 61 42 6b 20 3a 43
       91.837135 45.880157 56.3775 186.12663
0000a0 1e 76 5d 42 84 31 87 42 a7 6a 0a 42 e8 3b 3a 42
       55.36535 67.59671 34.604153 46.558502
0000b0 c4 c3 f3 41 ad 54 25 42 9e cf b0 41 8d 07 5d 42
       30.470589 41.33269 22.101376 55.257374
0000c0 c6 49 d4 42 b3 ac fb 41 55 3b 99 42 00 3c 45 43
       106.14409 31.459326 76.61588 197.23438
0000d0 74 17 02 43 f8 c4 e7 42 03 3b 37 42 e6 a8 6a 42
       130.09161 115.884705 45.80763 58.66494
0000e0 34 32 79 42 fd 55 cb 42 82 f7 af 41 ee be 16 42
       62.299026 101.667946 21.995853 37.686455
0000f0 e1 04 3e 42 5c a7 6a 42 db 6f 6d 42 fa e9 66 42
       47.504765 58.663437 59.359234 57.728493
000100 8c 2e 06 43 64 a8 81 42 b0 f9 98 42 f0 48 ff 42
       134.18182 64.82889 76.48767 127.642456
000110 e4 24 8f 42 b0 21 9a 42 e2 95 c1 42 22 77 b9 41
       71.57205 77.065796 96.79274 23.18317
000120 87 c0 8c 42 ef 6f 9a 41 bd d6 39 43 26 c8 cb 42
       70.37603 19.304655 185.83882 101.890915
000130 2f 45 20 43 9c ed 9a 42 d3 b1 f3 42 f1 9e 16 43
       160.27025 77.46408 121.84731 150.62086
000140 fc a7 53 42 95 24 33 42 90 e5 aa 42 55 a4 8f 41
       52.914047 44.785725 85.448364 17.95524
000150 a7 c8 bc 42 04 f5 a4 42 c4 b2 8e 41 34 c7 e9 42
       94.3919 82.478546 17.837288 116.88907
000160 b0 a5 ff 41 34 7f 4d 42 26 70 fa 42 78 ab 7b 42
       31.955902 51.37422 125.21904 62.91745
000170 73 0e a3 43 d2 15 9f 42 c0 2a 65 42 f8 c8 bc 43
       326.11288 79.54262 57.291748 377.57007
000180 f5 53 b5 42 c7 0e 81 42 1a 00 3e 43 af 72 14 43
       90.66398 64.52886 190.0004 148.44798
000190 90 32 0a 43 7e 02 26 43 78 5d e6 42 01 44 4c 43
       138.19751 166.00974 115.182556 204.26564
0001a0 88 81 da 42 4f 10 2a 42 49 e3 a1 42 d1 7f 58 42
       109.25299 42.515926 80.94392 54.12482
0001b0 07 7e 8a 42 bc 1d 22 42 29 f7 07 43 0b 72 bb 41
       69.24615 40.529037 135.96547 23.430685
0001c0 28 74 4a 42 a3 49 a0 42 53 29 f6 42 f8 f8 2a 43
       50.613434 80.14382 123.08071 170.97253
0001d0 43 2a c4 41 2d 65 88 42 8a 17 15 42 de 37 52 42
       24.520636 68.19761 37.272987 52.554558
0001e0 b4 fd 71 42 6f 00 23 42 de c5 23 43 4d 0f a9 42
       60.497757 40.750423 163.77292 84.529884
0001f0 3b 54 bd 42 25 67 ea 41 4a 9d cb 41 f7 be 30 42
       94.66451 29.300364 25.451801 44.18649
000200 75 6f d2 42 c0 9d 7f 42 71 a2 53 42 fd 9e 99 42
       105.21769 63.904053 52.908634 76.810524
000210 92 db 4f 42 ac 36 f6 41 b7 14 a6 42 8f 08 b3 42
       51.964424 30.776695 83.04046 89.516716
000220 a7 b5 ae 42 4e c3 3a 42 1c 7a 1a 43 69 73 2d 42
       87.35479 46.690727 154.47699 43.362705
000230 a9 68 24 42 bc fa 58 42 4c ee 70 42 73 e4 4f 42
       41.102207 54.244858 60.23271 51.973095
000240 11 15 67 42 ba 6a aa 42 11 55 c6 42 75 25 8f 43
       57.770573 85.20845 99.166145 286.29263
000250 1d ad bc 42 1a dc df 43 b3 9b 28 43 3b a3 82 42
       94.33811 447.71954 168.6082 65.31881
000260 ec 39 52 42 20 e0 17 42 95 e1 c1 42 9e ef 5f 43
       52.556564 37.968872 96.94059 223.936
000270 02 42 72 42 b5 da 51 42 7a 21 f7 41 1c df 8f 42
       60.56446 52.46358 30.891346 71.93576
000280 a0 4c 24 42 07 6b 1f 43 9f 18 86 42 06 0a ce 42
       41.07483 159.41808 67.04809 103.01958
000290 60 16 f4 42 6e 04 0d 42 12 ca 0b 43 b2 8b 0e 43
       122.0437 35.254326 139.78934 142.54568
0002a0 9c 93 11 43 7d ce 35 42 67 0f 59 42 00 b3 f5 42
       145.5766 45.45165 54.26504 122.84961
0002b0 b7 a3 ee 41 fb a9 73 42 84 e8 99 43 f2 d7 2f 42
       29.829939 60.915997 307.81653 43.960884
0002c0 de e9 90 42 ed 87 e9 42 a7 a4 f5 42 f0 70 10 43
       72.45677 116.76548 122.82159 144.44116
0002d0 27 1f 50 42 76 56 8b 42 18 20 03 42 55 0a 55 42
       52.030422 69.66887 32.78134 53.26009
0002e0 8c 14 1b 43 1f 4c 00 42 9a 75 12 43 f5 06 3b 43
       155.08026 32.074337 146.45938 187.02718
0002f0 fe 86 1f 43 e8 b4 39 43 b7 e7 b7 42 a8 d1 41 42
       159.52731 185.70667 91.95257 48.454742
000300 80 7c 98 42 e4 64 e7 42 1e fd 1b 42 76 67 62 43
       76.243164 115.69705 38.997185 226.40414
000310 ff 7a 4e 43 59 d8 54 42 0a b8 06 43 e3 e7 c4 42
       206.48045 53.211277 134.7189 98.4529
000320 85 9c 36 42 7a d5 41 43 a7 cf c1 42 9f fe 92 42
       45.65285 193.8339 96.90557 73.49731
000330 b1 37 8a 42 e0 59 e1 42 38 e3 ff 42 0e c1 d3 41
       69.10877 112.67554 127.94379 26.469265
000340 a0 00 dc 42 ed 4a ca 42 4b a1 13 42 56 48 89 42
       110.00122 101.14634 36.907513 68.64128
000350 ce 05 1e 42 0b 49 eb 41 ee 4e 7c 42 45 9f 4d 43
       39.50567 29.410666 63.07708 205.62215
000360 9b ec fd 42 c5 20 11 43 04 03 00 43 5d 84 45 42
       126.96212 145.128 128.01178 49.37926
000370 76 23 32 42 ac 40 58 43 0e 90 90 42 87 dd 2c 43
       44.53463 216.25262 72.28136 172.86534
000380 de 1e 3d 42 42 13 9d 42 1a 63 82 42 00 9e b5 41
       47.280144 78.53761 65.19356 22.702148
000390 bb 78 4a 42 05 56 48 42 ec 11 80 42 be a9 60 43
       50.6179 50.084003 64.035 224.66306
0003a0 47 c4 39 42 26 76 d5 42 8f 70 41 42 c1 0a c4 42
       46.441677 106.73076 48.35992 98.021
0003b0 f1 3c a7 43 c9 b1 b4 43 0d d8 79 42 dd b5 43 42
       334.4761 361.38895 62.460987 48.9276
0003c0 aa 0e 2b 42 21 b6 9e 42 d9 91 e3 42 ca f6 c4 42
       42.76432 79.35572 113.78486 98.48201
0003d0 53 39 5e 43 da b1 0e 42 f8 df d7 42 e5 2b 36 42
       222.22392 35.673683 107.93744 45.542866
0003e0 f1 4d d4 41 a7 e9 25 43 8e da e7 42 e8 8f cf 42
       26.538057 165.9127 115.926865 103.78107
0003f0 e8 db 80 42 9e 03 cc 42 46 04 c3 42 7f 5f 10 42
       64.429504 102.007065 97.50835 36.093258
