checkpoints/C_epoch_130.pth (torch, 843999 bytes, 48 tensors)

gnn_node.node_encoder.weight f4 [1, 128]
000000 73 2c 20 3f 60 64 44 bf 3d 44 05 bf 87 44 1b 3e
       0.62567824 -0.7671566 -0.5205725 0.1516286
000010 58 a3 54 be 2a b9 44 be b9 c5 cf 3a fc 02 df be
       -0.20765436 -0.1921126 0.0015851773 -0.43556964
000020 ff 55 18 3f 30 bd b4 be c9 0f 1c bf 82 eb 17 3f
       0.5950622 -0.3530059 -0.60961586 0.5934373
000030 f8 a4 a6 bf 08 8c e9 3c 17 e8 fa 3e 7f 88 36 bd
       -1.3019094 0.028509155 0.49005195 -0.044563767
000040 87 67 b8 bf d4 87 7f bf b1 89 7a 3e a5 ce 77 bf
       -1.4406594 -0.9981663 0.24466588 -0.9679969
000050 db 3f 8d bf d5 6d af 3d 42 46 87 3d 70 d5 d2 be
       -1.1035112 0.08565871 0.066051975 -0.41178465
000060 2b 94 71 be da 4f c6 bf 26 13 a6 be 75 86 5f bf
       -0.23591678 -1.5493119 -0.32436484 -0.8731454
000070 eb b4 58 3f 12 98 06 be ab cd a3 3e 89 d1 1d c0
       0.8465106 -0.13143948 0.3199285 -2.465914
000080 84 f8 dd bf 9a b5 81 3e 6a 74 15 bf fe 55 c1 3e
       -1.7341466 0.25333863 -0.5838076 0.3776092
000090 12 78 14 c0 f7 8c 89 be f6 8e 1a 3f 6d 70 4e be
       -2.3198285 -0.2686536 0.6037439 -0.20160075
0000a0 4d 65 96 bf c6 5b be be e1 69 9c bf e3 58 1a c0
       -1.1749665 -0.37179393 -1.2219812 -2.4116752
0000b0 07 bb be be e3 a5 a7 3d ca da 89 be f4 f1 7b bf
       -0.37252066 0.08185937 -0.26924735 -0.98416066
0000c0 89 4b 20 bf de 1e a1 bc 9a 36 ae bf f5 66 9c bf
       -0.6261526 -0.019668039 -1.3610413 -1.221892
0000d0 65 ef 0e bf a7 cc e3 3e 95 ac 3b bf 6c 5b c9 3e
       -0.5583404 0.44492075 -0.73310214 0.39327562
0000e0 75 0d cd bf cd fb 4e 3f 75 98 af bd df 67 e3 3e
       -1.6019732 0.8085297 -0.08574001 0.44415185
0000f0 5f 1c 1c be 19 03 60 bf 5b 9b 01 bf 49 f0 32 bf
       -0.15245198 -0.87504727 -0.5062768 -0.69897896
000100 79 b3 0c c0 fb 6b ef bf 0e 3c 84 bf e8 6b 78 3e
       -2.1984541 -1.8704828 -1.0330827 0.24259913
000110 26 4b 7c 3e f7 73 16 be 52 86 d3 be f1 60 4a bf
       0.24638042 -0.14692675 -0.41313416 -0.7905417
000120 08 7c c5 3d 48 7d f0 bf 1c 41 43 bf 63 ce 5d 3e
       0.09642798 -1.8788233 -0.76271224 0.21660762
000130 15 e8 d1 bf 9a 73 b6 be 68 ba 03 bf 53 46 c2 bf
       -1.6398951 -0.35635072 -0.5145631 -1.5177711
000140 97 77 a8 bf d6 e9 f2 be 94 b8 a1 bd e1 54 39 bf
       -1.3161496 -0.47444028 -0.078965336 -0.7239514
000150 7c 65 3b bf e5 cc 3f bd ec 33 3f 3e e2 2a 80 bf
       -0.7320173 -0.046826262 0.1867215 -1.0013087
000160 20 44 7c 3f 42 fe dd be 29 fb 73 3f 6c be 3a bf
       0.9854145 -0.43358046 0.95305115 -0.7294681
000170 b5 fa 63 3f 46 53 c1 bf 18 bd 66 bd 79 bb 25 3e
       0.89054424 -1.5103538 -0.056332678 0.16184796
000180 6f dc 55 be e7 05 9f 3e db 07 7a bf b6 eb 29 3f
       -0.2088487 0.3105919 -0.97668236 0.6637529
000190 b3 f9 cf be 16 c6 1a bf bd e1 b9 3f ab 65 d0 3e
       -0.40620193 -0.60458505 1.4522015 0.40702567
0001a0 dc 01 1a 3e a7 74 52 3f 55 2f 11 3f 77 12 c5 bf
       0.15039772 0.8220925 0.5671285 -1.539626
0001b0 48 1c 03 3f 58 36 c9 bf dd f3 0c 3e 6c 11 be be
       0.5121503 -1.5719709 0.13764901 -0.37122667
0001c0 44 8e a4 be 6e 7c 8e bf 03 93 94 bf 2a b5 59 bf
       -0.3213979 -1.1131723 -1.1607364 -0.8504206
0001d0 58 86 33 bf 3d 3d 85 bf 16 64 6f bf ab a0 fb bf
       -0.7012687 -1.0409313 -0.93512094 -1.9658407
0001e0 c0 34 bd bf 87 6c 7c bc 8e 74 3b be 32 fa c1 3d
       -1.4781723 -0.015406734 -0.18306181 0.09471549
0001f0 33 f0 27 3e ac 39 35 3b 6c b6 e9 3d ad ae 2c bf
       0.16400222 0.0027652783 0.11411747 -0.67454034

gnn_node.virtualnode_embedding.weight f4 [1, 128]
000000 bf 9d 03 bf f0 d7 14 be e1 7e e8 be b9 5c 1a be
       -0.51412576 -0.14535499 -0.454093 -0.15074433
000010 b6 24 1e bf e2 a6 57 be 28 d1 00 bf db f3 14 be
       -0.61774766 -0.21059754 -0.5031915 -0.14546148
000020 8d 85 ae be 19 d6 52 be e7 7a 1b be 9f cc 46 be
       -0.34086266 -0.20589484 -0.15183602 -0.19413994
000030 da 2e e7 be 7f 17 0b bf 34 54 60 bf 12 6c 7d bb
       -0.45152932 -0.5433273 -0.87628484 -0.0038669151
000040 72 b7 ae be 94 14 b2 be ad 85 b9 3d 6c b9 50 be
       -0.34124333 -0.34781325 0.090587 -0.20383233
000050 0d f9 90 be fc 16 3c bf a1 5a 2a bf 9d df ef be
       -0.2831501 -0.7347257 -0.6654454 -0.4685029
000060 2f 44 0c bf 09 cd 91 3d 94 46 32 bf db 95 f3 be
       -0.5479154 0.071191855 -0.69638944 -0.47575268
000070 89 9e 19 bf aa 4d a4 be 82 2c 84 bd fc 98 37 bf
       -0.6000753 -0.32090503 -0.06453802 -0.7171781
000080 90 7b 13 bf df 9d 3b bc 8f 97 1b be ad dc 37 bf
       -0.57610416 -0.011451214 -0.15194534 -0.718211
000090 0a 45 59 be 73 cf b4 be 98 71 22 bf 6d 17 11 bf
       -0.21217743 -0.3531452 -0.6345458 -0.5667637
0000a0 3d b3 93 be ee e3 c2 be 2c 75 f4 be ba d5 4a bf
       -0.28847685 -0.38064522 -0.47745645 -0.7923237
0000b0 2c 11 b6 be e1 de 52 be 19 d7 de 3b 82 89 99 be
       -0.35559976 -0.20592834 0.006800544 -0.29987723
0000c0 c5 b1 92 be 57 36 47 3e d3 78 cb be b3 99 5f 3d
       -0.28651252 0.19454323 -0.3974062 0.05458994
0000d0 f6 de dd be 43 0a f0 be e6 38 8f be 91 5b 3a bf
       -0.43334168 -0.4688283 -0.27973098 -0.7279597
0000e0 ad 02 e3 be ac 96 43 bf 6d c1 00 bf b8 ed 92 be
       -0.4433798 -0.7640178 -0.50295144 -0.2869699
0000f0 79 d9 b0 be 3a fe ef bd ad c1 22 be 65 a6 b8 be
       -0.34540918 -0.11718412 -0.15894194 -0.3606445
000100 de 12 60 be 02 86 57 3e 9d d3 83 be 76 7b e7 3d
       -0.21882197 0.21047214 -0.25747386 0.11302845
000110 7c 8c e9 be 77 d7 2b bf f7 2d 14 bf 0c 45 25 be
       -0.45614994 -0.6712565 -0.57882637 -0.1613962
000120 d3 42 ef 3c 1a e3 4d bf a0 41 c9 be e7 01 10 bf
       0.029206669 -0.80424654 -0.3930788 -0.562529
000130 c9 75 5f be a2 5d e6 bd be 04 02 bf 1f f0 0a bf
       -0.21822275 -0.11248328 -0.50788486 -0.54272646
000140 d1 6a 25 bf 6a cf 1b bf b5 98 05 bd 96 9c 8d bd
       -0.64616114 -0.60863364 -0.032616336 -0.06914632
000150 3f b5 d9 be f4 74 ef be 1a e7 f9 be 51 98 8e be
       -0.42521092 -0.46768916 -0.4880913 -0.27850583
000160 f7 12 5b bf 47 01 1e bf 2d dc 1e bf 19 10 7f be
       -0.85575813 -0.617207 -0.6205471 -0.24908485
000170 fd d0 5f bf 08 2f 7f bd 6d d2 af bd 6c 6a 6c 3d
       -0.87428266 -0.062300712 -0.085850574 0.05771868
000180 9a b8 ab be e3 80 a8 be d9 94 58 be d2 3a b1 be
       -0.33539277 -0.32910833 -0.21150531 -0.3461519
000190 1b 46 ad be 2e d2 c8 be 40 ef 48 bf 43 4e 01 bf
       -0.3384255 -0.39222854 -0.78490067 -0.5051004
0001a0 48 34 ec be d6 e9 59 be 00 73 1f bf ee 77 45 be
       -0.46133637 -0.21280608 -0.6228485 -0.19284031
0001b0 33 f5 f2 bd 02 ba e5 be e2 82 21 bd 24 c4 2b be
       -0.11863174 -0.44868475 -0.03943146 -0.1677404
0001c0 30 75 d4 be f2 4d 00 bf b5 b7 c7 be 67 be 90 be
       -0.41495657 -0.50118935 -0.39007345 -0.28270265
0001d0 30 6e 41 be 48 75 a5 bd 3e 48 b2 be 14 46 41 be
       -0.1888969 -0.0807901 -0.3482074 -0.18874389
0001e0 dd 29 37 bf 47 a4 c0 be 3e f2 25 be af 87 2b be
       -0.71548253 -0.37625334 -0.1620569 -0.16750978
0001f0 95 2c 09 bf ab 25 90 be 63 47 8b bd 05 a1 0b bf
       -0.5358365 -0.28153738 -0.06800725 -0.5454257

gnn_node.convs.0.mlp.0.weight f4 [256, 128]
000000 50 3c 0f bf b2 62 b4 3d 25 cc a2 bd 59 56 49 3e
       -0.55951405 0.08807887 -0.07949094 0.19661845
000010 17 d4 cf bc 9a 2d 7b be 3e 61 ee 3d c8 e9 fd 3e
       -0.025369687 -0.24529114 0.11639641 0.49592423
000020 2f 88 b2 3d f8 e8 ea bd 13 17 04 3d 69 af b4 3e
       0.08717381 -0.114702165 0.032248568 0.35290077
000030 70 b3 81 3d ff 34 29 bf eb a3 2e be 41 ce 97 3d
       0.06333053 -0.6609649 -0.17054717 0.07412387
000040 a7 db 48 bb 50 78 a2 3d 99 57 93 3e 39 03 82 3f
       -0.00306485 0.07933104 0.2877777 1.0157233
000050 19 90 85 bd 57 7f c1 be 90 c7 a5 3e 9e af a7 be
       -0.06521625 -0.37792465 0.32378817 -0.32751173
000060 b1 0e 17 bd 44 92 bd 3d 5c 92 96 3e 99 24 97 bd
       -0.036879245 0.092564136 0.29408538 -0.07380027
000070 ed cb 56 3e c9 e2 c9 bd 5a 5e bd bd 74 ed 1c 3d
       0.20976229 -0.09857709 -0.09246512 0.03831239
000080 73 71 b0 bd 86 e0 cd 3e 43 74 37 be 1c c4 1b 3e
       -0.08615389 0.4021036 -0.17915444 0.15211529
000090 7e 7d 58 3d 70 22 1f 3e ce 5b 5c 3e fa 91 b9 3d
       0.052854054 0.1554048 0.21519396 0.09061046
0000a0 71 4d 6d ba 5e 9e af 3d e2 94 70 bd 63 54 80 3b
       -0.0009052372 0.08575128 -0.058735736 0.0039163097
0000b0 94 4e f2 3f 72 94 63 bc e3 9f ad 3e 89 34 30 3b
       1.893023 -0.013890373 0.33911046 0.0026886782
0000c0 8a 98 af 3c 1e 3d d8 bd 48 47 0e bd ff 30 33 bd
       0.021435041 -0.10558532 -0.034735948 -0.0437479
0000d0 f5 e4 e8 be 84 52 5f 3d ae af 1c bf 26 4b 0f 3e
       -0.4548718 0.054522052 -0.61205566 0.1399351
0000e0 74 62 93 3b f9 4e bb bd e1 87 59 3e da fb a7 bd
       0.0044978205 -0.09145922 0.2124324 -0.08202334
0000f0 cd 6a 4d 3d 2a 97 2e bf 44 bb 11 bf 7c 7c 38 bf
       0.05015068 -0.6819941 -0.5692637 -0.7206495
000100 7c cd b1 3d 2b b3 a5 3c 5a 0f 84 bd f8 36 e8 be
       0.08681771 0.020227036 -0.064482406 -0.45354438
000110 15 8b 03 3e bf 69 14 be f7 35 ba 3f 43 0b f0 bb
       0.12846024 -0.14493464 1.4547719 -0.0073255613
000120 55 db 5d be 40 ff 27 3d 8a f2 7a bc 3e 7f 26 bf
       -0.216657 0.04101491 -0.015316615 -0.65037906
000130 f5 a9 85 bd 43 cb 9b be fd f4 e8 3e 98 d6 5e 3d
       -0.06526557 -0.30428514 0.4549941 0.05440387
000140 f5 b6 4e 3d 28 e5 e7 bb 47 a9 2d 3f 04 ff 40 bc
       0.05046745 -0.007076878 0.6783642 -0.01177955
000150 ce 67 22 3d 79 4a 0e bc c6 46 30 bc 66 37 17 3e
       0.039649777 -0.008684748 -0.010759061 0.14767227
000160 09 c0 98 3e df 87 38 3e b5 29 0b 3e f9 36 8a 3d
       0.2983401 0.1802058 0.13590129 0.067487665
000170 74 60 0c 3d c7 2b e0 3c 01 d9 e7 3f 48 12 c2 be
       0.034271672 0.027364625 1.8113099 -0.37904572
000180 e0 4e be 3b e9 a7 13 3f 38 4b 65 3b 4b ae 4d be
       0.0058077425 0.57678086 0.003498746 -0.20086019
000190 52 b6 86 be 97 59 db bc e6 6d af be e7 77 bf ba
       -0.26310974 -0.026776118 -0.34263533 -0.0014607877
0001a0 80 c7 de 3e 94 9b 1b be 54 eb 53 3e 65 f3 4b bd
       0.4351158 -0.15196067 0.2069524 -0.049792666
0001b0 f0 fd fd be ab 60 2e bd d2 5b 0b be cb b5 68 be
       -0.496078 -0.04257266 -0.13609245 -0.22725599
0001c0 c4 62 58 3e 2b 4e 30 bd 46 21 bb bd 75 33 b9 bf
       0.21131426 -0.043043297 -0.09137206 -1.4468828
0001d0 52 08 23 bf 76 ff 23 be 31 f3 30 bd ba ea 5d 3b
       -0.6368457 -0.1601542 -0.043200675 0.0033861832
0001e0 d9 5a 8a bd f9 fd 9b 3e 21 93 4a 3e 94 34 ec 3e
       -0.06755609 0.30467203 0.19782688 0.46133864
0001f0 87 9a ba 3f 6a 5d 98 3e 1c 38 ef be 32 44 91 bf
       1.4578408 0.2975877 -0.46722496 -1.1348937
000200 21 4c cc bc 6f 82 6d bd 7a 37 3d bc 97 51 af be
       -0.024938645 -0.05798572 -0.011548871 -0.34241936
000210 dc b4 ff 3b a1 46 cb 3e 9a 1b cf bd 44 17 18 bf
       0.0078035425 0.39702323 -0.101126865 -0.594105
000220 ad b1 13 be cf ee 9f 3e 01 ee 2e bd 59 09 f6 3e
       -0.14423247 0.31236884 -0.042707447 0.48054007
000230 c6 75 40 bc 62 0c 2d be 84 ce ad 3e f6 07 35 3e
       -0.011746829 -0.16899255 0.3394662 0.17678818
000240 cc 0a 03 be a5 92 ea bc 6e 01 85 bc 06 35 61 bf
       -0.12797087 -0.028634379 -0.016236033 -0.8797153
000250 66 26 1b be 8c ed eb 3e d1 f0 f6 3e fd e9 4f bf
       -0.15151367 0.4607967 0.48230603 -0.8121641
000260 76 06 a3 3e 78 d2 d8 bd 23 c3 15 bf d3 ff cf bd
       0.31840867 -0.10587019 -0.5850088 -0.101562165
000270 14 cf 40 3f 42 57 15 c0 77 88 9f 3e 8c 37 ef bc
       0.75315976 -2.3334508 0.31158802 -0.029201292
000280 71 95 0c 3d 99 63 fc 3d d1 75 56 bf 49 29 e4 39
       0.034322206 0.12323684 -0.83773524 0.0004351831
000290 20 cf 97 3c 2f 5e 5d bd 95 1a fe 3d 4a 94 5a 3d
       0.018531382 -0.0540449 0.12407414 0.053364076
0002a0 06 38 a7 3c 70 03 9c be 43 bd 05 3d 8d f2 9b bd
       0.020412456 -0.30471373 0.032651197 -0.07614622
0002b0 8a c3 b5 bf 45 5b 8b 3d 30 a7 27 bf 53 7c 21 3d
       -1.4200299 0.06804518 -0.6548948 0.039425205
0002c0 5b df 4e 3c 0d c2 3d 3d b3 be 9a bd 44 98 76 3d
       0.012626494 0.04632764 -0.07555904 0.060203806
0002d0 1b 0c 1b be 94 43 99 3e 9e e1 7e bd 4d fd ca be
       -0.15141337 0.2993437 -0.062226884 -0.39646378
0002e0 ea d8 23 bc 52 cc 9b bc 89 1f 18 3e ac 38 06 bf
       -0.010000447 -0.019018326 0.1485578 -0.52430224
0002f0 7e 71 9d bd d2 23 8f 3e 85 74 78 3c 8b 13 85 3f
       -0.076876625 0.27957016 0.015164499 1.0396589
000300 ee 5a d6 bd 96 3f 46 bd 1d 83 2f 3d 97 b5 5d 3e
       -0.10466562 -0.048400484 0.04284965 0.21651302
000310 29 76 e3 be 3a 55 74 3e d9 62 19 c0 a0 7f 54 bd
       -0.44426087 0.23860636 -2.3966582 -0.051879525
000320 13 78 dc bf f9 b3 8e 3d 72 77 94 bd 7f ee 6a 3f
       -1.7224144 0.06967921 -0.07249345 0.91770166
000330 98 1f 78 bb f3 07 6b bd 4a c3 68 be 46 61 11 3c
       -0.0037860628 -0.057380628 -0.22730747 0.008873289
000340 3c 97 09 bc 9e d0 ea 3d 6e dd 85 bf 87 d9 45 3d
       -0.0083978735 0.11465572 -1.04582 0.048303153
000350 af 4b ed 3c f0 ae be bd d1 8e 23 3c f5 18 67 3e
       0.028966753 -0.093107104 0.009982781 0.22568114
000360 29 d3 6a be 09 1c e7 bd b9 6c 91 bd ef 85 2f bf
       -0.22932114 -0.11284644 -0.07100815 -0.6856374
000370 6f 19 be bd 74 89 df bc 50 27 ae bf 97 78 2c be
       -0.09282195 -0.027287222 -1.3605747 -0.16842876
000380 5e a4 d9 be 73 b2 86 bf f4 2b ca bc 98 28 a7 3e
       -0.42508215 -1.0523208 -0.024679162 0.32648158
000390 4a 66 01 c0 6e 4b c2 3d 32 12 97 3c 68 87 19 3f
       -2.0218682 0.09487043 0.018441293 0.5997224
0003a0 23 70 51 3e fc 9d 95 be 70 52 f0 be 2a 6d ee 3c
       0.20452933 -0.29222095 -0.46937895 0.029104788
0003b0 cb 4e 00 bf 4e ed 5e 3c 35 28 0d be d3 13 23 3d
       -0.5012023 0.0136063825 -0.13784869 0.039813828
0003c0 88 14 8c be 4e 32 81 bb 10 f4 21 be 9e 51 a0 bd
       -0.27359414 -0.0039427644 -0.15815759 -0.07828067
0003d0 bd 88 07 bf 29 2b 22 bf 21 aa 8a 3d 1b 56 48 bc
       -0.5294302 -0.6334711 0.06770731 -0.01222756
0003e0 c5 9e bc 3d 71 62 9c bd b2 34 eb be 01 cd 7a bf
       0.092099704 -0.07635964 -0.4593864 -0.9796906
0003f0 3a 15 2d c0 b3 71 29 3f a5 84 ce 3e 57 77 c6 3e
       -2.7044206 0.66189116 0.40335575 0.38762924

gnn_node.convs.0.mlp.0.bias f4 [256]
000000 0c 3b 11 3d c8 c0 95 3d 48 e8 1b 3c e2 7f a1 3c
       0.035456702 0.07312161 0.009515829 0.0197143
000010 29 f8 37 3c 83 14 ac 3d d9 2f 55 bd 73 26 03 bd
       0.0112286 0.0840235 -0.052047584 -0.03201909
000020 63 e6 4e bc b0 36 72 bc ee 2c 1b 3d 3c 84 90 bd
       -0.012628171 -0.014783546 0.037884645 -0.07056472
000030 37 c0 7a bd 0d e4 62 bd 12 7d 60 bd 12 b5 5b bc
       -0.061218467 -0.055393267 -0.054806776 -0.01340987
000040 c7 73 1e bc 28 e8 76 bd 12 ff 9d 3d d1 6f 9e 3d
       -0.009671158 -0.060279995 0.077146664 0.07736171
000050 aa 5c ab bc d5 24 73 bd 1e 4f aa 3c 53 df 21 3d
       -0.02091821 -0.059361298 0.02078968 0.03951962
000060 a6 f2 b4 3c 8b f5 29 bd a7 d6 00 3d 55 2a d0 3c
       0.02208836 -0.041493934 0.03145471 0.02541081
000070 79 18 9a bc 17 10 a7 bd 27 8c af 3d 72 55 17 3c
       -0.018810498 -0.08157366 0.08571654 0.00923668
000080 97 0a 2a 3d 7d dd 41 bc 6d 43 ec 3c 5d 1f 5b bd
       0.041514006 -0.011832592 0.028840745 -0.053496707
000090 f4 9d 99 bc e1 93 12 3d 01 1b 71 bc 00 3f 3b bd
       -0.018752076 0.03578556 -0.014715911 -0.04571438
0000a0 87 b1 73 bd 9b 50 c0 bd 15 bb 95 bd fc 58 4f 3d
       -0.059495475 -0.09390374 -0.07311074 0.05062197
0000b0 91 50 e7 3d c7 d2 18 3b 34 0a bb bc 8a bb a3 bd
       0.11294664 0.0023318992 -0.022832014 -0.079947546
0000c0 19 84 ea 3c c8 ba 37 bb 7b 2a b6 bd 37 64 89 bd
       0.028627442 -0.0028034914 -0.08894821 -0.067085676
0000d0 bc f6 6d 3c 0b ca 82 3d e5 1d 71 bd 06 31 0b bd
       0.014524158 0.06386193 -0.0588664 -0.0339823
0000e0 9d d2 4e 3d 71 a8 07 3d 0a c5 36 bd c0 12 23 3d
       0.050493825 0.033119623 -0.044621505 0.039812803
0000f0 53 ad 8f 3c 2e d3 c7 bb 52 22 4d bd 99 83 e5 bb
       0.017538702 -0.0060981726 -0.05008156 -0.007004213
000100 de 13 01 3c 10 b4 4d bd b3 be df 3b 4c 77 8f 3c
       0.007878272 -0.05022055 0.006828153 0.01751294
000110 1b 7f e8 3b 6a 4f 12 3d f0 32 cb 3c d1 19 8b 3d
       0.0070952303 0.035720266 0.024804562 0.067920335
000120 17 2e 3c bb 2e 32 ed 3c 20 56 3a bc f5 80 b0 bd
       -0.0028713995 0.028954592 -0.011373073 -0.086183466
000130 bd 22 c2 bc 43 4f 62 bd 61 89 6a bd 0d 59 ec 3b
       -0.023698205 -0.05525137 -0.05725992 0.007212764
000140 e2 30 86 3d 1b 7e 62 bd c4 c5 ab bd b8 1a cf bc
       0.065522924 -0.055296045 -0.0838733 -0.025281295
000150 20 be 52 bd 49 ad 62 bd 81 65 7a 3d 0e d7 c3 3c
       -0.05145085 -0.05534104 0.061131958 0.023906257
000160 90 7b af 3c ec 31 3f 3d 8e 4a 88 bc 4e e4 25 3d
       0.021421224 0.04667847 -0.016637113 0.04050093
000170 0a 9f 9b bd 2c db a2 bd 99 ec 8b 3b 49 f7 87 3d
       -0.07598694 -0.0795196 0.004270148 0.06638963
000180 24 b6 a9 bb fa 60 f2 bc 1f b6 d6 bc 47 9a 85 bd
       -0.0051791836 -0.029587258 -0.026209889 -0.06523567
000190 b6 3a 95 bd fb ac 7f 3d ef 27 50 bd b3 67 c2 3c
       -0.07286589 0.062420826 -0.050819334 0.023731088
0001a0 5a 1a 94 3d 7b ba 6c bd 71 13 c3 bc 0e b5 97 3c
       0.07231589 -0.05779503 -0.023812981 0.01851895
0001b0 ab 1c 17 3d 62 40 29 bd 36 1c d5 bb 51 9c 5f 3d
       0.036892574 -0.041321166 -0.006503607 0.054592434
0001c0 94 f7 e1 3c c7 34 31 3d 36 cd d9 3c ef 5c 95 bd
       0.027583875 0.043263223 0.02658711 -0.07293116
0001d0 56 27 5d 3d dc f7 33 3d ef 39 3e bd c0 64 af 3d
       0.05399259 0.04393755 -0.04644197 0.085641384
0001e0 0d 0f cd 3c 0e 4d 0e 3d 97 9f e5 bc 23 97 44 3d
       0.02503159 0.034741454 -0.0280302 0.047995698
0001f0 48 30 a7 bd 2d 75 80 bd e9 7b 0b 3d 26 3d 2b 3c
       -0.08163506 -0.062723495 0.034053717 0.010451591
000200 73 f5 d6 3c 6b 6b 36 bc 7e 82 40 3d 84 94 ab bd
       0.026240086 -0.011134009 0.046999447 -0.083779365
000210 2f dd be bd 77 df 18 3d f8 b7 1e bd a7 37 96 3d
       -0.09319531 0.037322488 -0.038749665 0.073348336
000220 51 2e 7a 3c b5 6e 91 bd fc 33 3e 3c 7a 65 a2 3c
       0.015269832 -0.07101194 0.011609074 0.019823778
000230 ec 3d 46 bd 6e db 94 3d 87 38 9f bd a9 3a 7f 3d
       -0.048398897 0.072684154 -0.077744536 0.062311802
000240 81 e2 c3 3c 8d ab 3c 3d d2 05 88 3d 3c 40 ad bc
       0.023911716 0.04606204 0.06641735 -0.021148793
000250 9f 4e 3f 3d 4a 2f 8f 3d 74 90 e5 3c ed d3 7e bb
       0.04670584 0.069914415 0.028022982 -0.0038883642
000260 ef aa 8e 3d 4b 69 1e bd 97 7b 91 3c ff 6b 77 3d
       0.06966197 -0.038674634 0.017759128 0.060405727
000270 12 36 66 bd b1 e1 44 bd 57 a8 bf bc 93 9b 09 3d
       -0.05620391 -0.0480668 -0.0233957 0.033595633
000280 82 81 92 3d 01 12 dc bc ac f7 64 bc 94 e7 92 3d
       0.07153608 -0.026864054 -0.013975065 0.07173076
000290 b8 ba 7a 3d f1 48 1a 3d 71 0c 70 3d ff 66 30 bd
       0.061213225 0.03766722 0.058605615 -0.043066975
0002a0 cc a0 4c bd 8a 91 83 3d 4c b5 9d 3d 95 a2 ab 3d
       -0.049958035 0.06424244 0.07700595 0.083806194
0002b0 86 19 1f bd 9d 99 4c 3c 6e 5d 63 3d 06 a5 a4 3d
       -0.0388427 0.012487796 0.055509023 0.08039288
0002c0 79 33 98 bd 5c c3 08 3d 35 02 7b 3d 3d 0b 25 bb
       -0.07431693 0.033389434 0.0612814 -0.00251837
0002d0 ea 62 92 bd c0 74 af 3d 71 ee 8b bc ba 29 16 bd
       -0.071477726 0.0856719 -0.017081471 -0.036660887
0002e0 75 b0 27 bd ed 9c 10 3d 40 af 8e 3c e8 af 17 bd
       -0.040939767 0.035305906 0.01741755 -0.03703299
0002f0 a1 47 c3 bb d7 2a 70 bc d1 4c 74 3d 70 b0 ab bd
       -0.0059594666 -0.014658651 0.05964357 -0.08383262
000300 30 9b 5d 3d d6 84 3e bd fe ca c6 3c 1d 3b 6c bd
       0.054103076 -0.0465134 0.024266716 -0.057673562
000310 0a d9 d2 3d 34 f0 82 ba 3f 3a 8e 3c 5f 3e 74 3d
       0.10295303 -0.0009989799 0.017361758 0.059629794
000320 60 5a 83 bd a8 83 29 bd 3c 98 b7 3d e0 9a a6 3d
       -0.06413722 -0.041385323 0.08964583 0.08135009
000330 c8 b0 6d bd db ce 5b bd d6 8f 1d bd 19 19 08 bc
       -0.05802992 -0.05366407 -0.03846725 -0.008306765
000340 6e 2b c5 3c e0 96 7c bd 16 2b d5 bd 3f 89 3e bd
       0.02406856 -0.061667323 -0.104086086 -0.046517607
000350 4c f8 84 bd 77 bd 10 be 9d 60 40 bd c3 ef d8 3c
       -0.06492671 -0.14134775 -0.046967138 0.026481515
000360 d1 6e 54 3d 27 0a 55 3d 73 5f 85 bd 88 74 03 3d
       0.051863495 0.052011635 -0.06512346 0.032093555
000370 4d 23 8b bc ff ae b4 3d 83 15 8d 3d 9b 74 a9 3d
       -0.016984606 0.0882244 0.06888869 0.08274194
000380 20 2f 49 bd 96 16 5d bd 1c ee 97 bc 83 50 71 3d
       -0.049117208 -0.053976618 -0.018546157 0.058914673
000390 ac 39 26 bd 48 84 11 bd 32 5c ff bc b9 fc 8a bd
       -0.040582344 -0.035526544 -0.031171892 -0.06786484
0003a0 1b 19 83 bc 28 a5 87 bd 3b a7 4a 3d c2 f9 16 bc
       -0.016003182 -0.06623298 0.04947589 -0.00921482
0003b0 f5 81 7d bd 9c ec 05 3d f9 2d 1a bd e5 d4 b4 bd
       -0.061891515 0.03269635 -0.0376415 -0.08829669
0003c0 5f 68 94 3c 20 89 0a 3d 42 d0 05 bd 78 0f 63 bd
       0.018116174 0.03382218 -0.032669313 -0.055434674
0003d0 92 4b 2a bc a6 1d 9f bc 22 d5 26 bc 2f 8a 6f 3d
       -0.010393994 -0.019423317 -0.010182651 0.05848139
0003e0 3a 97 1d 3d ef c3 73 bd 7d 09 ad bc 5b 17 b0 ba
       0.0384743 -0.05951303 -0.021122688 -0.0013434695
0003f0 14 40 9c 3d 53 4f b0 bc c5 b2 38 bd f0 cd 94 3d
       0.076294094 -0.0215222 -0.045092363 0.07265842

gnn_node.convs.0.mlp.1.weight f4 [256]
000000 6a a9 c7 3e eb b0 d9 3f 43 79 d2 3f be d3 8a 3f
       0.3899644 1.7007116 1.6443256 1.0845869
000010 23 a9 a4 ba e7 7f b9 bc 7f 0d 4b 3f 42 bf 44 3f
       -0.0012562614 -0.022643996 0.7931747 0.76854336
000020 01 73 f4 3f 13 ab 15 3f 8b dd ae 3c f5 0c d4 3b
       1.9097596 0.58464164 0.021345874 0.006471271
000030 e2 02 60 3f ee 45 c8 3f 68 65 a2 3f 1d 43 b0 3f
       0.875044 1.5646341 1.2687197 1.3770481
000040 6c b4 bc 3f f4 22 d4 3e ff f0 cf 3f 80 db cc 3f
       1.474256 0.41432917 1.6245421 1.6004486
000050 c7 87 aa 3f 77 74 3e 3f ba d4 cf 3f 0b 29 8e 3f
       1.3322686 0.7439646 1.6236794 1.1106275
000060 85 53 85 3f 0e 89 40 40 fe e6 a1 3f ea 5e 7b 3f
       1.0416113 3.0083652 1.2648618 0.981917
000070 2c 1f 67 3f c8 1e bd 3c 9a ba b6 3f be 67 f2 3f
       0.9028194 0.023085967 1.4275696 1.893791
000080 0b 90 bd 3f aa 8e 9b 3f 71 b7 d4 3f 97 75 c4 3f
       1.4809583 1.2152913 1.6618482 1.5348386
000090 25 61 8b 3f 12 64 31 3e 9f b5 74 bc ad d5 dc 3f
       1.0889021 0.1732333 -0.01493588 1.7252709
0000a0 07 b6 83 3f 34 8d fd 3f 75 ba 8f 3f b1 8f 2a 3f
       1.0289925 1.9808717 1.1228777 0.66625506
0000b0 61 53 85 3f c9 1e 72 3f d9 c5 c7 3b 42 69 b0 3f
       1.041607 0.94578224 0.0060965833 1.3782122
0000c0 6a bb b6 3f ef 92 83 3f 11 fb 05 40 83 65 8d 3f
       1.4275944 1.0279216 2.0934489 1.1046604
0000d0 e8 86 be 3f da c5 dd 3f 76 f9 40 3f 2e bd a1 3f
       1.488492 1.7326005 0.7538065 1.2635858
0000e0 b0 6c 9f 3f f2 8d 58 3e 2e 3a af 3f d0 9b ca 3f
       1.2455044 0.21147898 1.368963 1.58288
0000f0 37 24 79 3f 4d 73 65 bd 06 bd b9 3f 24 ea 4f 3f
       0.97320884 -0.056018163 1.451081 0.81216645
000100 49 da 8f 3f 60 f3 a8 3f f7 50 ee 3f ef 1e e6 3e
       1.123849 1.3199272 1.8618459 0.44945475
000110 f1 43 09 3e 48 ff 2b 3e 02 31 85 3f 5a 68 77 3f
       0.13404824 0.16796601 1.0405581 0.966436
000120 44 7c 4d 3f c6 f3 e4 3e 86 e7 9a 3f 78 dc 4e 3f
       0.8026774 0.44717234 1.2101905 0.8080516
000130 ab 92 9b 3f 17 d7 cd 3f 13 80 82 3f 79 70 ae 3f
       1.2154135 1.6081265 1.0195335 1.3628074
000140 cd 90 e7 3e c0 10 aa 3f 95 db e9 3f 6c 8b df 3e
       0.45227662 1.3286362 1.8270136 0.43661058
000150 27 d6 ab 3f 6e d9 a7 3f b2 7e 2b 3f 66 9a ad 3f
       1.3424729 1.3113229 0.66990197 1.3562744
000160 0d d3 12 3f 12 81 78 3f 95 a6 a5 3f 5a 64 b0 3f
       0.5735329 0.97071946 1.2941462 1.3780625
000170 8c a9 14 3f 66 1d 51 3f cc 18 f8 3f 67 07 d3 3f
       0.5807121 0.81685483 1.9382567 1.6486634
000180 f0 c4 af 3f 72 29 a1 3e 3a 5b bd 3f cc 9b ba 3f
       1.3731976 0.31476933 1.4793465 1.4578795
000190 58 2c 82 3f e7 2a 8d 3f 66 d3 a4 3f 48 ec 9f 3f
       1.0169783 1.1028718 1.2877014 1.2493982
0001a0 ae d3 cd 3f 40 44 75 3f 72 dd f8 3f 5e ac bd 3c
       1.6080225 0.95807266 1.944258 0.02315348
0001b0 31 27 4c 3f ce ba 18 3f 90 4b b4 3f 67 1d 74 3f
       0.797473 0.5966004 1.408556 0.95357364
0001c0 73 f4 76 3f 29 d9 a5 3f 9c 4b f5 3f 36 96 81 3f
       0.9646675 1.2956897 1.9163699 1.0123966
0001d0 b3 cc 7a 3f ca 88 4f 3e 9a 97 0c 3f ce a9 ae 3f
       0.97968596 0.20267025 0.54918826 1.364557
0001e0 82 e3 1f 3e 9f fc fb 3f b4 0e 9f 3f d0 11 74 3f
       0.15614131 1.9686469 1.2426362 0.9533968
0001f0 8d fe c2 3f 50 88 5e 3f 91 68 bd 3e 65 c9 8e 3f
       1.5233933 0.86926746 0.3699384 1.1155211
000200 14 86 bc 3f bd 2f 4c bc 24 03 d5 3f 33 d1 05 3e
       1.4728417 -0.012462554 1.6641583 0.13068084
000210 b9 15 a7 3f cc 1d 74 3f 3b 53 2f 3f 9f 84 e5 3e
       1.3053504 0.95357966 0.68486375 0.44827744
000220 f9 05 f8 3f 59 b6 f7 bc 07 88 b8 3f 71 41 34 3f
       1.9376823 -0.030238317 1.4416512 0.70412356
000230 4c 59 d6 3e 3d 01 27 3f 72 b2 6b 3f 0f ff 98 3f
       0.41865003 0.65236264 0.9206916 1.1952838
000240 27 89 80 3f e4 5e 66 3f d2 d2 af 3f d4 08 cc 3e
       1.0041856 0.8998854 1.3736212 0.39850485
000250 00 62 9d 3f 28 7b 0d 40 54 0c c5 3f e4 fb a5 3f
       1.2295532 2.2106419 1.5394387 1.2967496
000260 3b cd 0a 3e 98 05 39 3f f9 d2 46 bc 7d 67 8a 3f
       0.13554852 0.7227416 -0.012135261 1.0812832
000270 a5 6f b2 3f df e6 4d 3f 9b 62 5c 3f 0f 60 95 3f
       1.3940321 0.80430406 0.8608796 1.166994
000280 bf 43 06 3f 10 97 81 3f 14 ae 6d 3f 0f 4f 51 3f
       0.5244712 1.0124226 0.9284375 0.8176126
000290 ed 4b ca 3f 62 7b 4a 3f 44 51 a1 3f d9 ee d9 3f
       1.5804421 0.7909452 1.2602925 1.7026016
0002a0 71 0e 8d 3f bb b3 54 3f ab 4b 52 3e 5e f7 bf 3f
       1.1020032 0.83086747 0.20536678 1.4997365
0002b0 89 e3 05 3f 4d cd a8 3f c0 71 a9 3e 6c a0 3d 3f
       0.52300316 1.3187653 0.33094597 0.7407291
0002c0 cf 2a ad 3f f8 f3 82 3f ab 54 f7 3e 8d 07 b9 3f
       1.3528689 1.0230703 0.48306784 1.4455429
0002d0 a5 a0 b8 3f cc d8 ad bd 34 00 ad 3f 43 59 87 3f
       1.4424025 -0.08488616 1.3515687 1.0574116
0002e0 e6 81 ea 3f aa cc 28 3f 95 e0 91 3f e7 a3 04 3e
       1.8320892 0.6593729 1.1396662 0.12953149
0002f0 80 4c 98 3f 47 4e bc 3f 4a f2 9c 3f f8 fe 01 3f
       1.1898346 1.4711388 1.2261441 0.50779676
000300 4b 61 8a 3f eb 59 9e 3f 41 b8 a6 3f ae 81 cd 3f
       1.0810941 1.2371191 1.302498 1.60552
000310 91 03 e6 3f b3 28 ad 3f 8f 74 bb 3f 55 55 85 3f
       1.7969838 1.3528045 1.4644946 1.0416666
000320 32 a1 13 40 51 97 96 3f 20 78 df 3f 69 9c be 3e
       2.3067136 1.1764928 1.7458534 0.37228706
000330 88 df 6a 3f 18 c5 a0 3c d0 74 aa 3f d7 d0 d7 3f
       0.9174733 0.019625232 1.3316898 1.6860608
000340 c7 4f c4 ba 6f aa cf 3f 26 08 74 3f 1f 5b a8 3f
       -0.0014977389 1.6223887 0.95324934 1.3152808
000350 cc 3b 95 3f 85 ec a7 3f ff bb 91 3f 47 f6 cc 3f
       1.1658874 1.3119055 1.1385497 1.6012658
000360 d1 86 4e 3f d2 3c c3 3f a7 99 80 3f 45 0f 57 3f
       0.80674464 1.5252936 1.0046891 0.84007674
000370 5d dd 10 3e 38 8a cb 3e 90 fe 9f 3f ff db bb 3f
       0.14146943 0.3975389 1.2499561 1.4676512
000380 15 11 b0 3f 6a 86 c3 bc 63 1e a1 3f 06 d7 40 3f
       1.3755213 -0.023867805 1.2587398 0.753281
000390 29 7a c1 3f 08 ed 27 3f 22 ee 94 3f 4a 2f af 3f
       1.5115405 0.65596056 1.1635172 1.3686306
0003a0 e2 c1 31 3d b0 a7 cf 3f 62 ae ba 3f 57 eb 41 3f
       0.04339779 1.6223049 1.4584467 0.75749725
0003b0 f2 d4 cc 3f cb f0 f6 3f 48 a7 85 3f 18 50 91 3f
       1.6002486 1.9292234 1.0441675 1.1352568
0003c0 67 69 4f 3f ce 16 9c 3f ff c4 1a 3e 0b 19 65 3f
       0.81020206 1.219446 0.1511421 0.8949134
0003d0 67 57 8b 3f e0 ae ba 3e fb 13 ba 3f 6c 6c 4c 3f
       1.0886048 0.36461544 1.4537348 0.7985294
0003e0 d1 ab 99 3e 0e 15 02 40 7e 8a af 3f 36 cf 33 3f
       0.30013898 2.032535 1.371414 0.70238054
0003f0 9d 1b 33 3f fc be b1 3f 83 66 59 3b e9 35 e4 3f
       0.6996401 1.3886409 0.0033172674 1.7828952

gnn_node.convs.0.mlp.1.bias f4 [256]
000000 4d b2 c7 3d 82 51 ca be 87 18 4e be 25 64 54 be
       0.09750805 -0.3951531 -0.20126544 -0.20741327
000010 ee 44 f7 3d 04 af 35 3f 40 1b 0d bf f5 0b 19 bf
       0.12073694 0.7097018 -0.55119705 -0.5978387
000020 57 b5 44 3d 75 0b 70 bf 3f 87 ec be 9f e3 52 3f
       0.0480245 -0.9376748 -0.46196935 0.8237857
000030 42 29 bd be 4b bc b7 be 0c ee fa bb ce 47 62 bd
       -0.3694554 -0.35885844 -0.007657772 -0.05524426
000040 17 65 88 be cd a4 b0 bf 5a 08 f0 be a4 2a e1 be
       -0.26639625 -1.3800293 -0.46881372 -0.43977845
000050 37 25 13 bf 04 20 2b 3f 53 71 08 bf a3 1e 8e bf
       -0.5747866 0.66845727 -0.5329792 -1.11031
000060 2a b9 4e bf 35 06 22 bd 54 c3 a4 3e 3c 0d c8 be
       -0.8075129 -0.0395567 0.32180274 -0.39072597
000070 df ee c9 3d 31 33 02 be a0 5d c0 be 0d e9 1b be
       0.09860014 -0.1271484 -0.3757143 -0.1522562
000080 ff 5e f9 3e 9c 4e 0b bf 24 97 e6 bc c0 f3 13 bf
       0.4870529 -0.54416823 -0.028148241 -0.5779381
000090 44 a4 f8 be 7c c7 d1 be 20 8f 21 3f f6 9f 0b bf
       -0.48562825 -0.40972507 0.63109016 -0.54540956
0000a0 51 0a 85 be cd 37 7c 3e a6 73 dd be 60 3b ba be
       -0.25984433 0.24630661 -0.43252295 -0.36373425
0000b0 5d 6b ad bf c9 4d d1 be 3f cf ef bd 36 33 46 be
       -1.354839 -0.40879658 -0.11709451 -0.19355473
0000c0 28 3b b0 be ab 34 a8 3c 9d d8 18 bf da 75 0f bf
       -0.34420133 0.020532927 -0.59705526 -0.560392
0000d0 8f 0a f6 be ec 34 c6 be bb 56 61 bf 50 cf 12 bf
       -0.4805493 -0.3871225 -0.88022965 -0.57347584
0000e0 58 6b a9 be 03 c3 1d bf bf 73 2e bf fe b2 25 bf
       -0.3308971 -0.6162569 -0.68145365 -0.64726245
0000f0 53 96 a1 be 00 85 ed bd 20 1e 6d be 3c 2e d8 be
       -0.3156 -0.11597633 -0.23156023 -0.42222774
000100 55 6e e7 be dc d5 5a be e9 7c 1b be 9d 94 c0 bf
       -0.45201364 -0.21370643 -0.15184368 -1.5045353
000110 cd e8 f9 bc a4 45 11 be bf 0b 97 be 4f 73 5d be
       -0.030506516 -0.14186722 -0.2950115 -0.21626018
000120 f2 cc 7e bf fb 4e ee be 2f fb c4 be c4 6d eb be
       -0.9953147 -0.46544632 -0.38472888 -0.45982182
000130 25 ae aa be d0 b8 20 bf af 78 d9 3e 78 14 b9 bd
       -0.33335987 -0.62782 0.42474887 -0.09037107
000140 ac 03 bc be 7c 1a ba be 95 d7 ee be 1a 44 d5 be
       -0.3672155 -0.3634833 -0.4664885 -0.4165352
000150 8f 29 96 be f8 76 6f be e5 90 18 bf fb d0 2c bf
       -0.29328582 -0.23385227 -0.5959609 -0.6750638
000160 3c f9 12 bf 11 1f 0c bf 78 90 87 be 19 12 6c be
       -0.5741155 -0.54734904 -0.26477408 -0.23053779
000170 eb 62 01 3e 21 45 e8 be d8 89 9d be b2 f4 b3 be
       0.1263539 -0.4536524 -0.3076923 -0.35147625
000180 26 16 1a bf 8e 2b 80 3e 66 05 dc be ca e9 a8 be
       -0.60190046 0.2503323 -0.4297287 -0.32990867
000190 69 f9 3b be c0 81 af be 38 4c 5d be 41 52 c2 be
       -0.18356861 -0.3427868 -0.21611106 -0.3795338
0001a0 67 a6 09 bf 6e 46 cb be 0f f8 19 bf c1 51 9e be
       -0.53769535 -0.3970217 -0.6014413 -0.30921748
0001b0 33 66 d7 bd c4 43 89 be 7e c4 01 bf 2c 67 10 bf
       -0.1051754 -0.26809514 -0.5069045 -0.5640743
0001c0 2e e4 ce bd 07 e0 a3 3c c6 9b f5 be cb 7e fe be
       -0.101021156 0.020004285 -0.47970408 -0.4970611
0001d0 8a 75 f8 be 02 00 65 be dd eb fc bd 9d 78 39 bf
       -0.48527175 -0.22363284 -0.12349675 -0.72449666
0001e0 a5 41 8d be 06 e9 18 3b ff 20 f9 3d 31 9e 96 be
       -0.27589145 0.0023332252 0.12164497 -0.29417565
0001f0 a8 ae f2 be 4d c5 3e be a0 d7 8d bf 9d 33 87 bf
       -0.47398877 -0.18629952 -1.1081429 -1.0562626
000200 9a c7 20 bf 17 14 8f 3e 25 b2 04 bf 21 2f 33 be
       -0.6280457 0.27945015 -0.51834327 -0.17498447
000210 b0 a4 cc 3d b0 e4 76 be 52 06 5e bf 94 16 8f be
       0.09992349 -0.24110675 -0.86728394 -0.27946913
000220 5d 4b 3d be 93 e3 46 3e 5a ec fc be 35 4c 94 be
       -0.1848578 0.1942275 -0.49399072 -0.2896439
000230 dd 65 19 be 5e 8b 8a bf e0 18 05 be 50 0d 59 be
       -0.14980264 -1.0823781 -0.1299777 -0.21196485
000240 75 b6 03 bf 62 16 be be d0 68 50 3e 7a e7 69 3d
       -0.5145028 -0.37126452 0.20352483 0.05710552
000250 37 9b c0 bc 15 87 0f 3e 2e 02 40 be 3b 8c 28 be
       -0.023511512 0.14016373 -0.18750831 -0.16459744
000260 0d f7 2e bf 81 9b 45 be 3d e8 7d 3e 95 f0 71 be
       -0.6834572 -0.19297601 0.24795623 -0.23626931
000270 cf c0 40 bf 28 cb d6 be ca 98 13 3e c8 6b e2 be
       -0.752942 -0.4195187 0.14413753 -0.44222856
000280 e8 94 80 bf fd bf bd be 35 ed a2 be 3c 66 f2 be
       -1.0045443 -0.37060538 -0.318216 -0.47343624
000290 47 ea cf be 8a b0 fa bd eb 69 d2 be 43 38 d6 3d
       -0.40608427 -0.122407034 -0.41096434 0.1045995
0002a0 ef 24 02 be d1 fc f7 be a6 5d 8d bd 1f e5 e4 be
       -0.12709402 -0.4843507 -0.06902628 -0.44706056
0002b0 9a 6b 3e be aa 62 d2 be 92 ce d9 bd b9 52 71 be
       -0.18595734 -0.410909 -0.10635103 -0.23566712
0002c0 b5 a6 0e bf 6a 1c 3e be e7 c7 d5 bf 51 23 1e bf
       -0.55723125 -0.18565527 -1.670163 -0.6177264
0002d0 f1 97 0a bf 05 c5 46 bf 60 4c 74 3e ca f3 25 bf
       -0.54138094 -0.7764438 0.2385726 -0.6482512
0002e0 75 54 e5 be e2 04 27 bf 70 ad dd 3e c8 c0 eb 3d
       -0.44790998 -0.65241826 0.43296385 0.115113795
0002f0 79 8d 08 bf 7b 5b a3 be 18 16 f6 be 1e fe e8 be
       -0.5334087 -0.31905732 -0.4806373 -0.45506376
000300 a1 39 f5 be c0 ab 0a bf ef 6e b5 be cc fb e1 be
       -0.4789553 -0.5416832 -0.35436198 -0.44137418
000310 08 0e 95 be ea 2e 0a bf a7 7c f7 be 42 3a 64 bf
       -0.29112267 -0.53977835 -0.4833729 -0.89151394
000320 4b 1f 9d be 00 e0 b8 be 66 cd a5 be ae 2a c6 bf
       -0.30687937 -0.36108398 -0.3238327 -1.5481775
000330 73 bd 4f bf 1b 90 0b 3f 23 2c d8 bd 4e d2 1d be
       -0.8114845 0.5451676 -0.105552934 -0.15412256
000340 95 84 ca 3e de 3e 7d be 43 24 12 bf 8f c3 1b bf
       0.39554277 -0.24731013 -0.5708658 -0.60845274
000350 b0 5f ef be e3 1c 95 be 99 b4 1a bf ae 14 ba be
       -0.4675269 -0.291236 -0.6043182 -0.36343902
000360 49 4c a2 3e c8 00 1d bf fb 67 0b bf d1 c0 ce bf
       0.31698826 -0.6132932 -0.54455537 -1.6152593
000370 b1 02 2e be c4 d3 b7 bf 48 fe 34 be 66 2e 01 bf
       -0.16993214 -1.4361501 -0.17675126 -0.50461423
000380 fd b5 ca bc 8c e0 17 3f 66 ef 02 bf 6a a6 4a be
       -0.024744982 0.59327006 -0.51146543 -0.19790044
000390 70 6b 28 be 74 f2 c6 be ba 66 c1 be 5f 29 eb 3c
       -0.16447234 -0.38856852 -0.37773687 0.02870625
0003a0 40 39 02 3d 34 7c d2 be 9f 9c 05 bd e5 cf a0 3d
       0.03179288 -0.41110384 -0.03262007 0.07852153
0003b0 6e d9 c9 be ea 7a 1b be c0 ec eb be ec 3b 67 bf
       -0.39423698 -0.15183607 -0.46079063 -0.9032581
0003c0 71 aa b6 bf 87 e1 8a 3d fa 33 30 bf 85 c1 32 bc
       -1.4270765 0.06781297 -0.6882931 -0.010910396
0003d0 03 63 df bc 54 bb e9 3c 54 a6 18 bf b3 a4 12 bf
       -0.027268892 0.028531708 -0.59628797 -0.5728256
0003e0 04 da 69 be 83 1d 8f be 3d 25 e6 be de 05 ab bc
       -0.22837073 -0.27952203 -0.44950286 -0.020876821
0003f0 db 71 7b 3d 64 1b 06 bf 29 04 bc bd 5c 25 d9 be
       0.061387878 -0.52385545 -0.09180481 -0.42411315

gnn_node.convs.0.mlp.1.running_mean f4 [256]
000000 85 4c 31 41 8e 24 38 41 8a 45 50 40 c5 86 73 41
       11.081182 11.5089245 3.2542443 15.220403
000010 dc 76 c4 be 7d 41 80 41 f3 fc a8 41 e5 5c f9 bf
       -0.38371933 16.031977 21.12351 -1.9481474
000020 02 03 bf 40 b9 a4 c3 c1 75 1e 90 be 2d 97 94 40
       5.969117 -24.455431 -0.28148237 4.643454
000030 5a 6d 5e 41 4b d0 ef 40 5a 22 12 42 9d 8a db 41
       13.901697 7.4941764 36.533546 27.442682
000040 ea 65 f7 c1 60 4a aa 3f 50 03 55 41 8e 7b 1d c1
       -30.924763 1.3303947 13.313309 -9.842665
000050 b1 20 9e 41 0c 00 30 40 fa 75 f8 40 ce eb 27 c0
       19.765963 2.7500029 7.7644014 -2.6237674
000060 d0 fd 10 41 40 4f a9 c0 d3 09 a9 c1 40 b3 34 41
       9.061966 -5.290924 -21.129797 11.293762
000070 bb 9a ff c0 aa a5 a9 bf 7d 85 db 40 ed 16 fb 40
       -7.987638 -1.3253682 6.860045 7.8465486
000080 8b 2c 91 40 67 77 8e 41 1f a0 4b 3f bf 63 d0 40
       4.5366874 17.808302 0.795412 6.512176
000090 94 c0 d4 40 6d 7b 43 c1 44 e9 cf 40 9f 2c be 40
       6.648508 -12.217633 6.497225 5.942947
0000a0 b0 ad da c0 66 e1 eb c1 0e fa ee c0 de 83 88 c1
       -6.833702 -29.485058 -7.4680243 -17.064388
0000b0 4c 3b c9 41 63 1f a7 c0 49 c6 3b 40 09 b4 5d 40
       25.153954 -5.2225814 2.9339774 3.4641135
0000c0 55 dc ef 40 da 3b ca 40 63 08 1c c1 3b 98 46 3e
       7.495646 6.319806 -9.752048 0.19394009
0000d0 c8 2a 0a 41 1e 8e e1 c0 78 4d 22 41 55 dc 56 41
       8.635445 -7.0485983 10.143913 13.428792
0000e0 18 d4 23 c1 2e 17 ca c0 9b 5b f0 c1 59 db 60 c0
       -10.239281 -6.3153296 -30.04473 -3.513388
0000f0 2f d4 13 c1 2c 3e 5a 40 55 47 0e 40 58 b0 d2 3f
       -9.239303 3.4100447 2.2231038 1.6460066
000100 4f 1d 7a 40 d0 d1 b6 c1 20 1b c5 41 5f 85 54 c0
       3.9080389 -22.852448 24.638245 -3.3206403
000110 88 bd 47 41 b4 13 91 c0 ac 8b 32 41 2f 83 54 40
       12.483772 -4.533655 11.1591 3.3205068
000120 6f 6b 65 41 48 92 9f bf 87 f5 57 41 95 b7 cb c0
       14.338729 -1.2466516 13.497443 -6.36616
000130 b3 01 98 c1 1e fc 56 41 57 82 01 42 37 be 05 c2
       -19.00083 13.436552 32.377285 -33.435757
000140 3f 23 21 40 0f 6a bf 41 29 2c 85 41 58 01 c2 bf
       2.5177763 23.926786 16.646563 -1.515666
000150 4c 34 ef 3c 3a dd b0 41 60 b6 e3 3e b1 73 09 41
       0.029199742 22.10802 0.4447508 8.590745
000160 ae 8b 23 41 d6 0c f3 c0 e8 e8 99 bf 54 1a 51 c0
       10.2216015 -7.595317 -1.2024202 -3.267232
000170 c2 03 19 41 9d 59 9f c0 f2 2d 3a 41 1d fd 46 c1
       9.563417 -4.979689 11.636217 -12.436795
000180 b3 c6 d3 40 d5 de ad 41 ca 70 33 c0 ab 9c 84 41
       6.6180053 21.733805 -2.803759 16.576498
000190 67 29 e7 c1 6c a2 08 40 c1 81 d8 40 6f 5a 15 c1
       -28.895216 2.1349134 6.765839 -9.3345785
0001a0 e1 d6 ab 40 dc 28 0e 41 f1 f7 97 41 ab 54 e5 3f
       5.3699803 8.884975 18.996065 1.7916464
0001b0 2d ef 78 c1 0f f6 98 c1 71 22 c8 3f a2 18 bd c0
       -15.558393 -19.120146 1.5635511 -5.909257
0001c0 d1 7c e7 40 81 4e 03 41 02 81 01 41 cd cd 7a 41
       7.2339864 8.206666 8.093996 15.675244
0001d0 df 48 c0 c1 d2 4d ba 40 77 3b c7 c0 47 fb a9 41
       -24.035582 5.8219995 -6.226009 21.247694
0001e0 dd 58 3d c1 8e 08 be bf 23 b9 07 40 1d 4c bd c1
       -11.834195 -1.4846361 2.1206748 -23.662165
0001f0 39 e0 c1 c0 97 30 9c c1 bb 09 82 41 99 a4 86 41
       -6.058621 -19.523726 16.254751 16.83037
000200 b7 3d bc 3e 41 4e 20 3f e3 b9 dd 3f ca 6d 48 c0
       0.36765835 0.62619406 1.7322353 -3.131701
000210 f3 9b 58 c0 ac 60 8a c1 1a 03 df c1 82 de 78 c0
       -3.3845184 -17.297203 -27.876514 -3.8885808
000220 83 63 ed c0 b2 f7 dc 40 d7 ef 6f 41 c5 4e 38 c1
       -7.4183974 6.9052362 14.996055 -11.519231
000230 48 a2 87 c1 c3 a4 97 c1 41 ee 0e 41 fe a0 63 c1
       -16.954239 -18.95545 8.933167 -14.226805
000240 d3 e4 de c0 1c 25 a3 c0 72 80 be 41 6e ca 3f 41
       -6.9654326 -5.09828 23.812717 11.986921
000250 fc ea 39 c1 3b 71 7d c1 c1 88 63 41 10 43 ff 40
       -11.619869 -15.840144 14.220887 7.9769363
000260 ee 6f 44 40 0a fc 0d 41 3a 96 12 c0 1d a2 2a 41
       3.0693316 8.874033 -2.290419 10.664578
000270 14 ae db c0 b5 3b 4d c1 21 70 aa 40 69 30 2c c1
       -6.865 -12.827077 5.3261876 -10.761819
000280 42 04 ec 40 a0 3e 4b 41 bb 83 2c c0 ab e1 ff c0
       7.3755198 12.702789 -2.6955402 -7.9962974
000290 33 9c 3e 40 0c 45 40 41 8d 0c ab 40 75 e1 3b c1
       2.9782836 12.016857 5.345282 -11.742543
0002a0 f5 96 20 41 45 e9 b2 c0 b8 32 c9 3f 01 43 20 c1
       10.036855 -5.5909753 1.5718603 -10.016358
0002b0 14 6b 46 c0 f0 01 5f c0 88 0a 41 41 27 27 23 c1
       -3.1002855 -3.4844933 12.065071 -10.197059
0002c0 47 89 ea bf 21 bf 05 41 04 18 b1 c0 69 d4 9b c0
       -1.8323144 8.359162 -5.5341816 -4.869679
0002d0 d6 f5 f2 bf 2d 35 1a 41 7c b1 c0 c0 8f 89 98 41
       -1.8981273 9.637982 -6.0216656 19.067167
0002e0 a0 ea 33 c1 0d 3f 9f 41 b4 06 a8 41 ad 59 12 41
       -11.2447815 19.905787 21.003273 9.1468935
0002f0 5b 41 1d 3f f5 8b 9a c1 08 15 74 41 cf 50 bd c0
       0.6142785 -19.318338 15.255135 -5.9161143
000300 8f 50 b6 40 7b e6 56 41 8c 69 f2 3f 9f c2 2a 3e
       5.697334 13.43127 1.893846 0.16675805
000310 7b 25 1a c1 25 60 ea bf a8 6a 59 41 74 56 a1 c0
       -9.6341505 -1.8310591 13.588539 -5.0418034
000320 73 c2 16 40 1b 40 cb 3f 60 10 7e c1 63 29 fa bf
       2.3556182 1.5878938 -15.878998 -1.954388
000330 63 57 19 41 4b 37 70 40 3d 4c 69 41 bb f9 7e 40
       9.583835 3.7533748 14.581113 3.9839923
000340 f1 2c 72 41 8a 22 af 3e 23 04 5f c1 83 f5 87 40
       15.135972 0.3420604 -13.93851 4.2487197
000350 4b 99 44 41 63 3a 37 41 a4 51 16 bc dc 64 02 41
       12.287425 11.451755 -0.009174738 8.149624
000360 58 59 c8 41 42 22 23 41 35 f1 d0 40 03 fd 17 40
       25.043625 10.195864 6.529444 2.3748176
000370 91 fc e1 40 42 11 ea 40 3d 80 84 41 6a db ec 40
       7.062081 7.3146067 16.562616 7.401784
000380 f6 6d df bf c3 55 39 41 40 34 2b c1 e8 48 27 c1
       -1.7455432 11.583438 -10.700256 -10.455299
000390 55 b0 32 3f 44 3b d3 40 e9 e3 42 40 7b bd ef be
       0.6980031 6.6009846 3.0451605 -0.4682425
0003a0 7e a6 bd 40 41 ec 80 41 c9 94 4f c1 ae 8f d1 40
       5.9265738 16.115358 -12.9738245 6.548789
0003b0 0c 62 b2 3d 7a a8 93 c1 01 f5 67 41 e6 3a 72 41
       0.08710107 -18.457264 14.497315 15.1393795
0003c0 eb ef 0b bf 1f b4 58 41 76 e2 92 40 f5 72 96 41
       -0.5466296 13.543975 4.590144 18.806131
0003d0 55 f3 34 40 39 34 3b 40 b8 1b 7d c1 24 ad 92 c1
       2.8273518 2.9250624 -15.819267 -18.334541
0003e0 23 2c 84 c1 13 ee a6 41 05 99 0d 41 31 ff 76 41
       -16.521551 20.866247 8.849858 15.437303
0003f0 d3 4b 8a c1 20 ed 80 c1 23 7c a5 40 a6 8f 83 c1
       -17.287024 -16.115784 5.1714034 -16.44514

gnn_node.convs.0.mlp.1.running_var f4 [256]
000000 fa 8d 0e 43 76 24 ee 42 8f 9b c2 42 e1 e3 14 43
       142.5546 119.07121 97.303825 148.89015
000010 74 9e e7 42 3e 3e b6 42 76 64 1a 42 4f a5 00 43
       115.80948 91.12157 38.598106 128.64574
000020 c1 f8 b3 42 53 b3 2a 42 64 75 d6 40 6d f1 e4 42
       89.98585 42.67512 6.70183 114.471535
000030 0f 1a 88 42 36 c8 70 42 d9 46 5e 43 e9 88 87 43
       68.050896 60.19552 222.27675 271.0696
000040 12 4f 9f 42 64 6e ab 42 7e 29 01 43 60 f5 66 43
       79.654434 85.71561 129.16208 230.9585
000050 b1 56 1d 43 ea 62 39 43 6c ea 2f 43 b8 d9 16 42
       157.33864 185.38638 175.91571 37.712616
000060 78 eb a2 41 ac 6b 34 43 cc 38 f7 42 8c 5b 2b 43
       20.364975 180.4206 123.61093 171.3576
000070 af b9 29 42 8f 6a 46 42 37 2d 13 43 0b 73 d4 42
       42.43133 49.60406 147.17662 106.22469
000080 22 71 13 43 da e4 06 43 ec e1 d8 42 15 3d 32 43
       147.44193 134.89395 108.44125 178.2386
000090 b5 a7 c3 42 df e8 20 42 76 8a 57 42 e7 81 49 43
       97.82755 40.227413 53.885216 201.50743
0000a0 35 a0 4c 42 8c 21 a9 42 ae c1 23 42 c4 34 19 42
       51.156452 84.56552 40.93914 38.30153
0000b0 6d 3d f7 41 b7 b7 1e 42 d3 64 d8 41 61 22 68 42
       30.904993 39.67941 27.04923 58.033573
0000c0 3f 4e d5 42 be 83 fb 41 3f 0d 9f 42 ed 95 72 43
       106.652824 31.439327 79.52587 242.58565
0000d0 f6 13 1e 43 de 41 e7 42 c6 65 60 42 30 4a a8 42
       158.07797 115.62865 56.09939 84.1449
0000e0 9b 65 8a 42 f0 b4 e4 42 73 e6 ee 41 89 9f 57 42
       69.19845 114.35339 29.862524 53.905796
0000f0 3a 5a 53 42 76 86 67 42 0d a1 6c 42 d9 94 a8 42
       52.83811 57.88131 59.157276 84.29072
000100 f5 0c 00 43 14 53 89 42 3b 56 8f 42 f7 03 01 43
       128.05061 68.66226 71.66842 129.01549
000110 12 16 85 42 f0 9d a3 42 67 04 e1 42 42 2e e3 41
       66.543106 81.80847 112.5086 28.397587
000120 94 36 a2 42 64 aa 90 41 c7 0a 55 43 c4 31 ed 42
       81.1066 18.083199 213.0421 118.5972
000130 36 56 32 43 8f dc b8 42 19 84 0e 43 90 b1 0a 43
       178.33676 92.43078 142.516 138.6936
000140 f0 2f f9 42 7c 9b 6e 42 bd dc b3 42 ca 30 91 41
       124.59363 59.65184 89.93113 18.148823
000150 4c fe f1 42 c2 7d a9 42 19 da a5 41 28 2b 06 43
       120.99667 84.74562 20.731493 134.16858
000160 50 8c 06 42 a1 f7 2b 42 41 49 e7 42 da f2 8e 42
       33.637024 42.991825 115.643074 71.47432
000170 af d3 9c 43 a2 7a bb 42 c3 ea 91 42 d2 ec c4 43
       313.65378 93.73952 72.95852 393.85016
000180 bd 37 bc 42 c1 34 a7 42 e3 07 53 43 c8 66 0b 43
       94.108864 83.603035 211.0308 139.40149
000190 c1 a5 10 43 b9 8d 3f 43 23 dc 00 43 d2 07 4e 43
       144.64748 191.5536 128.85991 206.03055
0001a0 ad 92 e8 42 b3 92 77 42 22 3c ad 42 30 01 6c 42
       116.286476 61.89326 86.61745 59.00116
0001b0 09 05 b6 42 23 35 48 42 e9 35 0b 43 97 dd 47 42
       91.009834 50.05189 139.21059 49.966396
0001c0 aa 04 56 42 63 60 b6 42 c0 80 c8 42 b5 41 24 43
       53.504555 91.188255 100.251465 164.25667
0001d0 4c af 2a 42 50 0b 92 42 58 93 0c 42 85 a3 4a 42
       42.67119 73.022095 35.14389 50.659687
0001e0 a2 b5 73 42 fd 86 21 42 0d 73 29 43 4a e1 a6 42
       60.927376 40.381824 169.44942 83.44002
0001f0 c4 0e e8 42 ef a0 10 42 1d f8 33 42 1f 31 58 42
       116.02884 36.15716 44.9923 54.04797
000200 50 79 e2 42 5a e8 82 42 ab 1c 5f 42 0a ac a2 42
       113.23694 65.45381 55.777996 81.33601
000210 6d aa 74 42 28 8d eb 41 37 06 94 42 f4 aa c7 42
       61.16643 29.443924 74.01214 99.83389
000220 08 ab c1 42 50 10 5f 42 4f 26 23 43 61 2c 3c 42
       96.834045 55.76593 163.14964 47.04334
000230 e1 60 23 42 ab 82 76 42 64 d4 b1 42 95 f1 4d 42
       40.84461 61.627605 88.914825 51.48592
000240 57 63 4d 42 9a 4d 01 43 e9 3e 0c 43 c4 e8 91 43
       51.34701 129.30313 140.24574 291.81848
000250 3d 57 bd 42 a0 a7 f3 43 60 f1 38 43 41 3a cc 42
       94.67039 487.30957 184.94287 102.11378
000260 83 e9 50 42 29 a9 41 42 50 78 b7 42 ee cb 44 43
       52.22804 48.415195 91.734985 196.7966
000270 b4 4d c6 42 06 75 58 42 bf 50 f9 41 6f 92 8b 42
       99.151764 54.11428 31.164427 69.786
000280 f1 29 07 42 d9 5e 2a 43 fc 55 cb 42 98 2f 05 43
       33.79096 170.3705 101.66794 133.18591
000290 88 ca 12 43 fc 3f 18 42 0c a2 04 43 26 34 1e 43
       146.79114 38.062485 132.633 158.2037
0002a0 47 9a 0b 43 40 1e 50 42 dc f9 81 42 71 95 1e 43
       139.60265 52.02954 64.98801 158.58376
0002b0 f1 27 1d 42 72 0a 69 42 1b 83 96 43 df 8a 3e 42
       39.289005 58.2602 301.02426 47.635616
0002c0 be 60 ad 42 34 2e e7 42 11 94 f4 42 fe f3 20 43
       86.68895 115.59024 122.28919 160.9531
0002d0 16 82 79 42 60 9c 98 42 55 bc f8 41 42 a6 6c 42
       62.377037 76.30542 31.091959 59.16236
0002e0 06 7c 2b 43 d0 f8 09 42 40 fc 19 43 50 cc 42 43
       171.48447 34.49298 153.98535 194.7981
0002f0 1d f8 1f 43 9a 23 53 43 de a4 d6 42 b2 4e 81 42
       159.9692 211.13907 107.32201 64.6537
000300 ff db a8 42 e1 a3 f3 42 f4 a2 0c 42 c4 11 66 43
       84.42968 121.820076 35.159134 230.0694
000310 07 df 6c 43 94 9a 8f 42 0b aa 1f 43 f5 a7 c4 42
       236.8712 71.80191 159.66423 98.32804
000320 e9 c1 35 42 77 50 5f 43 30 43 ce 42 f9 e5 95 42
       45.439365 223.31432 103.131226 74.949165
000330 fb 05 97 42 97 ce f7 42 b0 67 f2 42 17 53 f2 41
       75.51168 123.903496 121.202515 30.290571
000340 88 18 ff 42 d6 02 c7 42 36 74 0c 42 68 bb 88 42
       127.54791 99.50554 35.113487 68.36603
000350 5e 2f 0c 42 5d d9 b4 41 4c 3d 8d 42 f9 05 52 43
       35.046257 22.606134 70.61972 210.02333
000360 80 91 0a 43 6a 90 39 43 b4 a9 c7 42 58 1d 38 42
       138.56836 185.56412 99.83145 46.028656
000370 c1 2f 43 42 da b4 71 43 62 5c 9a 42 e4 d5 26 43
       48.796635 241.70645 77.180435 166.83551
000380 1d ff 3c 42 ea 48 aa 42 c7 ba 9d 42 2a 2c ac 41
       47.249134 85.14241 78.8648 21.521564
000390 48 1f 86 42 9e be a2 42 09 fc 97 42 f2 7a 5c 43
       67.0611 81.3723 75.992256 220.48026
0003a0 1c a3 67 42 08 36 d9 42 18 36 49 42 9e 0d d4 42
       57.909286 108.60553 50.302826 106.026596
0003b0 b3 46 b7 43 2c ba ca 43 11 aa 8e 42 1e 7a 4b 42
       366.55234 405.45447 71.33216 50.869255
0003c0 8a e4 15 42 29 70 ae 42 d5 83 ee 42 b3 a8 ae 42
       37.473183 87.21906 119.257484 87.32949
0003d0 92 8b 61 43 28 57 22 42 b7 1b f7 42 01 b2 2f 42
       225.5452 40.585114 123.55413 43.923832
0003e0 6d ab 6e 42 23 f6 17 43 88 9a e9 42 ca 1c ee 42
       59.667408 151.96147 116.80182 119.05623
0003f0 57 0e 7b 42 19 a3 01 43 81 55 ce 42 13 ab 16 42
       62.764004 129.6371 103.167 37.667065
