checkpoints/D_epoch_40.pth (torch, 843938 bytes, 48 tensors)

gnn_node.node_encoder.weight f4 [1, 128]
000000 99 25 e0 3e d4 4a 7c 3d 1b 6a b7 3d 34 14 2d 3e
       0.43778685 0.0615948 0.08955785 0.16902238
000010 37 85 9f 3f 2c 69 aa be 0c 13 d5 be 05 03 e7 3e
       1.2462529 -0.33283365 -0.41616094 0.4511949
000020 c9 6c 1a 3f 77 63 98 bd 92 39 82 bf 47 ff d8 3d
       0.6032224 -0.074408464 -1.0173819 0.10595565
000030 bb 01 4f bf 6d 81 29 3f 20 76 8c bf d8 ee 89 bf
       -0.80862015 0.66213113 -1.0973549 -1.0776014
000040 98 99 f2 be c9 24 f9 be 1d aa 54 3f 17 7d b5 3e
       -0.47382808 -0.48660877 0.8307207 0.35446998
000050 36 04 8c bf bd 53 6d 3e 7a 9e 95 bd ca e2 25 3e
       -1.0938785 0.23176475 -0.07305618 0.16199794
000060 23 bf 6e bf d1 37 f3 3e dc 22 da 3c 29 ab 8a 3f
       -0.932604 0.47503522 0.02662795 1.0833484
000070 f3 92 3a 3e 90 74 51 bf e2 03 23 bf 64 ac 8c 3f
       0.18220119 -0.81818485 -0.636778 1.099011
000080 6d 32 fc be 18 f6 73 3e af ad 6a 3e 70 78 8e 3e
       -0.49257222 0.23824346 0.22917818 0.27826262
000090 7d dd a0 3f cb 94 f3 3e 54 f9 83 3e 8d ee 70 3f
       1.2567593 0.47574458 0.2577616 0.94114
0000a0 f4 77 8a be 14 28 35 be eb 49 dd bf b1 b1 bb bf
       -0.27044642 -0.1769107 -1.7288183 -1.4663602
0000b0 b5 75 a1 bb d1 40 7e 3f 22 fc fc bd 61 b9 3d 3e
       -0.004927362 0.9931765 -0.12352778 0.18527748
0000c0 3e b5 7a bf 8e 23 ae bf 07 c1 aa 3f 7b b5 03 c0
       -0.97932804 -1.36046 1.3340157 -2.0579517
0000d0 aa 72 81 be 5c 08 14 3f 89 99 45 3e 1f 31 81 bf
       -0.25282794 0.57825255 0.1929685 -1.0093116
0000e0 93 52 cd 3e c7 4b 02 bf d0 c1 97 bf 39 65 54 3f
       0.40102062 -0.5089688 -1.1856022 0.82966954
0000f0 06 1d d5 3d f4 ca 95 bd a9 1d 31 3f bb 3c 31 bf
       0.104059264 -0.07314101 0.6918588 -0.6923329
000100 80 c3 87 bf 11 12 47 3f df c2 38 bf cc c6 11 40
       -1.0606537 0.7776194 -0.7217235 2.2777586
000110 a1 25 81 3f c0 4f 85 be d1 b4 82 3f b3 ea f6 be
       1.0089608 -0.26037407 1.0211431 -0.48225936
000120 d3 55 cc 3e cb 1f 13 3d a4 b9 a4 3e 57 f3 72 be
       0.3990923 0.035918992 0.32172883 -0.2372564
000130 2c 48 90 bf cd ee e9 bd 1e cb 67 bf bf 8f 01 bf
       -1.1272025 -0.11422501 -0.9054431 -0.50609964
000140 8f fa ac 3e 36 59 76 bf c0 13 ea 3d 5a 3a 95 be
       0.3378491 -0.96229875 0.11429548 -0.2914608
000150 ea 58 e0 bf 6e fa f3 3d 88 99 2d bd 87 d4 50 bd
       -1.7527134 0.11913 -0.042382747 -0.050983932
000160 0d de 47 3e 6a a4 7b bf b5 d4 eb 3e 24 4a 33 3e
       0.195183 -0.9829775 0.4606072 0.17508751
000170 42 d3 96 3e 4e 0b 3d 3e 81 09 8a bf 90 28 bb 3e
       0.29458052 0.18461344 -1.078415 0.36554384
000180 a9 23 c0 bf 2c b9 88 bf fd 3e c9 bd 37 71 88 3d
       -1.5010883 -1.068151 -0.09826467 0.06662219
000190 9f 23 36 3f ca 8a d7 bd 6d 40 b1 bd 82 4d 1c 3f
       0.71148103 -0.10524519 -0.08654866 0.6105577
0001a0 10 98 00 bd 7f b6 52 3e 58 0f f6 bf 82 8c 33 be
       -0.031395018 0.20577429 -1.9223433 -0.17534068
0001b0 48 f5 94 bf a4 4d 9a bf 9c fe 4b bf f2 66 f6 bf
       -1.1637354 -1.2054944 -0.7968538 -1.9250166
0001c0 72 a2 c9 3e 06 41 80 3f fe c9 22 3f 56 de 4f 3e
       0.39381748 1.0019844 0.63589466 0.20299658
0001d0 2b 64 29 3f 33 d4 7f be 1b a5 d8 bc 6d a3 7b 3d
       0.6616847 -0.24983291 -0.026445916 0.06143515
0001e0 bf d4 10 3e 49 5d 6c bf a6 07 c0 3e 85 7d 48 3f
       0.14143656 -0.9232984 0.37505835 0.7831653
0001f0 92 28 e6 be b6 95 e3 3e a2 3e 71 bf 99 2a aa bf
       -0.44952828 0.44450158 -0.94236195 -1.329425

gnn_node.virtualnode_embedding.weight f4 [1, 128]
000000 9a 53 00 bf 74 72 13 bf c9 77 96 bd ed 36 1b be
       -0.50127566 -0.57596517 -0.07347066 -0.15157671
000010 39 2a 16 bf 07 a9 29 3c 8c 3d e7 be 84 b2 0c bf
       -0.58658177 0.010355241 -0.45164144 -0.54959893
000020 57 81 38 bf 42 cb 28 bd 16 4c df bd 3a f2 aa be
       -0.72072357 -0.041209467 -0.10903184 -0.3338793
000030 85 48 4d be fc 74 2d bf 96 f3 d0 bd e0 fa b9 bd
       -0.20047195 -0.6775663 -0.1020271 -0.09081054
000040 02 dc fc bd bc fa 9c be a7 3f f7 be 09 aa af be
       -0.12346651 -0.30660045 -0.4829075 -0.34309414
000050 d5 77 44 be 08 ff df 3d 52 b8 50 be fd 92 ec be
       -0.19186337 0.10937315 -0.20382813 -0.46205893
000060 1b 97 fd bc 55 85 5f bd 32 e9 b9 be 30 1e 05 bf
       -0.030955842 -0.054570515 -0.36310726 -0.5199919
000070 16 dc 26 bf 02 9f e7 bd ec ab 3e be b9 1e 3f bf
       -0.65179574 -0.11309625 -0.1862027 -0.74656254
000080 e4 4d 44 be af c2 1e bf 19 24 f5 be a2 8d 4f be
       -0.19170338 -0.62015814 -0.47879103 -0.20268872
000090 3c 8a 24 bf 4b 53 af be 75 38 4e be 0c d9 0f bf
       -0.6427343 -0.34243235 -0.20138724 -0.5619056
0000a0 5b 59 23 3d 34 f4 d4 bd cb 1a 1e bd 98 e3 02 bf
       0.039880138 -0.103981405 -0.03859977 -0.5112853
0000b0 a2 df b3 be a2 37 e1 be 78 13 50 be 08 72 d5 be
       -0.35131556 -0.43987757 -0.20319927 -0.4168856
0000c0 90 9c 4a be eb 58 2c 3e 02 59 0d bf 53 27 75 be
       -0.19786286 0.16830795 -0.5521394 -0.23940782
0000d0 b3 08 a9 bd d2 97 02 bf 98 df e2 be ed d3 60 3d
       -0.08253612 -0.5101291 -0.44311213 0.05488961
0000e0 8e 08 e7 be a9 24 97 be 00 20 00 bf 74 ab 25 bf
       -0.45123714 -0.29520157 -0.5004883 -0.6471474
0000f0 4c 6d 00 be 56 01 c4 be 78 54 9d be 40 9f 38 be
       -0.12541693 -0.3828227 -0.30728507 -0.18029499
000100 5a 06 20 bf f6 46 00 bf 8b ae 91 be 82 5d 6c bf
       -0.6250969 -0.5010828 -0.28453478 -0.9233018
000110 53 6f b6 be b6 b2 83 3d 9d 87 30 bf 82 1c 5d be
       -0.3563181 0.06430571 -0.6895693 -0.21592906
000120 f6 69 e6 bd 24 28 73 bd 17 59 ee be 74 d3 1e be
       -0.11250679 -0.059364453 -0.46552345 -0.1551035
000130 e4 68 99 be b3 c6 b1 be 09 46 30 be 39 f8 08 3e
       -0.29962838 -0.34721908 -0.17214216 0.1337594
000140 e5 ee 63 be b0 22 6f bd 14 9d 9a be b3 10 90 be
       -0.222591 -0.05838269 -0.30197966 -0.2813774
000150 9e d2 10 be 15 ed d5 be d6 97 7c be a9 79 a7 be
       -0.14142844 -0.41782442 -0.24667296 -0.32710007
000160 81 88 8d be 2d c1 e0 bd 8a 4e 9a be e1 79 b7 bd
       -0.27643207 -0.10974345 -0.30138046 -0.089587934
000170 9e 38 d0 be 3a ea b7 be fd c5 be be f3 34 2d 3d
       -0.40668195 -0.35920888 -0.37260428 0.042286824
000180 e1 3a 21 3d d1 44 9c be 1a 9f 84 be 55 63 70 be
       0.039362792 -0.30521253 -0.25902635 -0.23475392
000190 b7 f3 c1 be 99 d7 27 3d 93 c7 a0 be e5 1d 0c bf
       -0.37881252 0.040977094 -0.31402263 -0.54733115
0001a0 eb 9d 87 be 35 58 0f bf 6d 31 e6 3d 04 41 43 be
       -0.2648767 -0.5599397 0.11239896 -0.1906777
0001b0 39 c2 42 bd 4d 72 13 b8 59 03 50 be 75 d8 5c 3e
       -0.047548506 -3.5153982e-05 -0.20313777 0.21566947
0001c0 b8 55 f1 be f1 8c fc be 93 2a 09 bf 72 89 4d bf
       -0.4713571 -0.4932628 -0.5358059 -0.8028785
0001d0 2b 9e 1e bf a0 5e 41 3d 46 3f b2 be f3 4f 8c be
       -0.61960095 0.047209382 -0.348139 -0.27404746
0001e0 2f 50 87 be 4d 92 ad be da 20 bb bd 8b 58 50 be
       -0.26428363 -0.3390068 -0.09137125 -0.20346276
0001f0 f0 76 a7 be 8a 88 2b bf a9 81 bc bd 57 c7 ed bd
       -0.3270793 -0.6700522 -0.09204418 -0.11610287

gnn_node.convs.0.mlp.0.weight f4 [256, 128]
000000 e9 76 ad bc 55 dc 85 3e 76 60 12 bf 14 3c 16 bf
       -0.021174865 0.26144662 -0.5717844 -0.5868542
000010 a0 10 42 be b1 92 2f be 31 ff 9f be 3b 2f 1b be
       -0.18951654 -0.17145802 -0.31249383 -0.15154736
000020 e4 e5 9f 3c 33 46 6a bf 74 14 45 3b 28 38 cb be
       0.0195188 -0.91513366 0.0030072005 -0.3969128
000030 93 a9 d3 bb 2d 7a ef 3b 74 f2 90 3d 60 11 da bc
       -0.006459424 0.0073082657 0.07077494 -0.026619613
000040 c3 b1 17 bc bf e2 17 be fc 82 06 bd 50 49 46 be
       -0.00925869 -0.1483259 -0.03283976 -0.19363904
000050 39 91 76 bd c5 89 4e 3e 0d c5 2d be 81 53 a8 bd
       -0.06019709 0.20169742 -0.169697 -0.08219052
000060 06 9f 7d 3e 1f 5f 13 3f d0 a3 53 3c 5d d4 2c bc
       0.24767694 0.5756702 0.012917474 -0.010548678
000070 6e f2 19 be 8f 93 b5 3e 12 35 d9 3e 02 06 5b be
       -0.15033886 0.3546414 0.42423302 -0.2138901
000080 fb 13 92 bf bb 18 ba bc 8f a5 14 be c1 a1 29 be
       -1.1412348 -0.02271687 -0.1451628 -0.1656561
000090 49 94 a6 bb 7e 6b a6 be 4c 64 68 be 33 88 74 3c
       -0.005083595 -0.32503885 -0.2269451 0.014925051
0000a0 d8 e7 af 3e d3 02 87 bf 43 fe ae bd 27 d6 98 3d
       0.3435657 -1.0547737 -0.0854459 0.07462721
0000b0 58 f4 9a 3d 99 08 9a 3e 07 f4 8c 3d e1 ba ee 3e
       0.07566136 0.30084684 0.06882482 0.46626952
0000c0 d3 5b 47 bd 13 78 d1 bc 9f b5 6d bc cc 3b a3 3c
       -0.048671555 -0.025569951 -0.014508634 0.019925974
0000d0 35 3a db bd 0e 03 e0 bd b5 0d 3c be 24 31 23 bd
       -0.107044615 -0.10938083 -0.18364604 -0.039841786
0000e0 18 cf c6 3c 99 39 15 bd 99 06 01 3c da be 88 be
       0.024268672 -0.036431883 0.007875108 -0.26708108
0000f0 95 e6 9e 3e b6 2c c7 bd 58 f1 b0 3e 6c 8f 01 be
       0.31035295 -0.09725325 0.3455913 -0.12652367
000100 0c 75 a2 3d 99 bc 9e be b7 7b 9a bd a6 61 c7 bd
       0.07932481 -0.31003264 -0.07543128 -0.09735422
000110 ce 7b d8 3e 7c 27 50 be 81 2b 0d be 82 25 43 3e
       0.42281955 -0.20327562 -0.13786127 0.19057277
000120 14 78 1e be af b3 16 bd b7 b2 ff bc d2 ff b5 3e
       -0.15475494 -0.036792453 -0.031213148 0.35546738
000130 e4 9d 9d bd 81 3a 03 bd b0 94 1b bd 3c 42 28 bf
       -0.07696131 -0.032038216 -0.037983596 -0.65726066
000140 30 88 73 be f8 9d 4d be ac 16 ae 3d 06 bf b8 3e
       -0.2378242 -0.20079792 0.08500418 0.3608324
000150 8b b3 2c bd 02 dd fb be 90 76 92 bf f0 2b 9c be
       -0.042163413 -0.49192053 -1.1442432 -0.30502272
000160 58 d8 27 3e 2a 6f 08 3e 8c 48 e7 be 2d 1c a4 be
       0.16391122 0.13323656 -0.45172536 -0.32052746
000170 2e 2d 2f 3c ef 2d 1f be 12 9c 2f 3c 02 28 bf 3d
       0.010691924 -0.15544866 0.010718362 0.09333803
000180 d8 d3 c3 bf aa d5 40 3d 28 17 04 bf 28 cb 81 be
       -1.5299025 0.047078766 -0.51597834 -0.25350308
000190 8a 83 aa 3c 05 72 9b 3c 17 09 ef be 07 8c be bd
       0.020814676 0.018975267 -0.46686623 -0.09304052
0001a0 01 39 46 be c1 e9 4f be 16 b5 70 3d 8c 3d 0c 3e
       -0.19357683 -0.20304014 0.058766447 0.13695353
0001b0 f1 88 e0 3d 1e 5e 40 be 44 35 9e 3f 69 26 12 3d
       0.109636195 -0.18785903 1.2360005 0.035681162
0001c0 9e 52 cf be a4 21 80 3d af 78 25 be 20 a3 46 be
       -0.4049272 0.062564164 -0.16159318 -0.19398165
0001d0 c9 34 42 be 5e 1c 33 be 52 5c bf be ef 98 6d 3e
       -0.18965448 -0.1749129 -0.37375122 0.23202871
0001e0 6d 8c fd 3d 3a 5e fe be 3e 76 5e be 04 56 3d bf
       0.123803 -0.49681264 -0.21724793 -0.73959374
0001f0 fc 04 84 3d 0b 87 3e 3c 48 fb 24 3c bd 7b b9 3c
       0.06446263 0.011628876 0.010069676 0.02264201
000200 2f ea d7 3d 14 b2 24 3e 1c a1 19 3e 95 56 07 3f
       0.10542714 0.16083556 0.15002865 0.5286649
000210 b7 72 a8 3d 7b a7 e0 3e 1e 6d 0f 3e e0 3e 1a 3e
       0.08225005 0.43877777 0.14006469 0.15063047
000220 ce 55 05 3e f8 0d 3d 3e 5e 0a 0c bd 89 c9 26 3e
       0.13021013 0.1846236 -0.034189574 0.16287817
000230 00 76 67 bd 3d 79 80 bd 94 8a 2f bc 52 01 0c 3d
       -0.056509018 -0.06273124 -0.010714192 0.034180947
000240 69 12 07 3d f3 1c 22 3d 40 4b 07 3e 17 da 07 3c
       0.03297654 0.03957839 0.132123 0.008291743
000250 f9 75 95 3b c2 96 f2 3d 72 a8 c1 bd da 7b 7c bc
       0.0045611826 0.11845161 -0.094559565 -0.015410388
000260 bc 7b 2f 3e 58 82 d4 3e 61 6a de 3d 91 1f 1f 3e
       0.17137045 0.41505694 0.10860134 0.15539385
000270 05 67 3e 3e 66 64 22 bc 38 d1 2c bd 35 3d 50 3d
       0.18593986 -0.009911632 -0.042191714 0.05083962
000280 b6 ac b6 be 45 73 7a 3e bd 39 4a 3c 7f 56 61 3d
       -0.35678643 0.24458034 0.012342867 0.05501413
000290 17 d7 bb 3d 65 ac 38 3e 5e d2 50 3e 06 c3 07 3e
       0.091718845 0.18034513 0.20392749 0.1325799
0002a0 c7 67 60 be a6 76 a2 3d 3c fa 1d 3c b6 d3 01 3d
       -0.21914588 0.07932787 0.00964218 0.031696044
0002b0 7c e1 28 3e 7b 96 f0 3c ef ed 48 3e 34 58 5f 3e
       0.16492265 0.02936863 0.19622014 0.2181099
0002c0 0c 8c bc bd 68 2e 8d bd 2c 1d 88 3c a0 a7 4d bd
       -0.09206399 -0.06893617 0.016615473 -0.050208688
0002d0 b8 4b a5 3e b0 91 97 bd 75 e6 8d 3d 5a c7 9f 3d
       0.3228433 -0.074008346 0.06928722 0.07801695
0002e0 6a f8 ba 3d 8c ff 1d bb 9f 2e 8d 3d 86 9b 2c 3e
       0.091294125 -0.0024108617 0.06893658 0.16856202
0002f0 d3 92 29 bf 2a 12 91 bd 7b e7 ad bd 75 a7 a8 3d
       -0.6623966 -0.07083543 -0.08491417 0.08235065
000300 78 7a 0d 3d b9 fc 4a 3e e3 35 51 bd dc 21 30 3e
       0.034540623 0.19822969 -0.05107678 0.17200416
000310 b3 df 09 3e b4 5b b8 3e 9a ba f2 3c 7b e4 48 bf
       0.1346424 0.36007464 0.029629994 -0.78473634
000320 27 76 cd bc 36 33 d0 3e 38 4f 6c 3d ae 59 6c 3c
       -0.025080753 0.4066407 0.057692736 0.014425678
000330 ec 6e 80 3d 3b 0b 63 3e 93 1e 22 bf 07 7c f0 bb
       0.06271157 0.22172253 -0.633279 -0.007339004
000340 2a db 90 3e 04 68 01 3f cb ae 20 3e 7d a2 47 3f
       0.2829221 0.5054934 0.15691678 0.7798231
000350 f5 bf 8f bd 9c de ba bd 55 cb 59 bc 19 a5 64 3e
       -0.07019035 -0.091244906 -0.013293107 0.22328605
000360 fc c3 2d 3d d1 22 cd bd 7a af 0d 3e 0c 8d 07 3f
       0.042423233 -0.10016406 0.1383647 0.52949595
000370 20 59 4b be 62 27 49 3e 78 05 a4 bd 99 1b 8c 3d
       -0.19858217 0.1964393 -0.080088556 0.06841201
000380 51 e8 c0 be eb 97 9f 3d 0e ff 09 3e 18 7c 0d 3d
       -0.37677243 0.07792648 0.13476202 0.034542173
000390 95 43 83 3c dd 5d e0 3e f5 e4 f2 3d dc 71 ba 3d
       0.016023437 0.43821612 0.11860076 0.09103748
0003a0 4a c6 ee 3d 04 ae 53 3e 89 57 1f 3d 2a 80 d3 3e
       0.116589144 0.2067185 0.03890184 0.4130872
0003b0 6e 4c 8c bd c2 02 45 3d 09 d7 8e be dd 64 44 3d
       -0.06850515 0.048098333 -0.27898434 0.047947753
0003c0 c2 ff 58 3e a1 20 ce 3a 2b b8 36 3e 41 85 9e 3c
       0.21191314 0.0015726277 0.17843692 0.01935065
0003d0 61 28 a4 3d 9a 69 04 3f 20 5c 17 3e fe 66 82 3e
       0.08015514 0.51723635 0.14781237 0.25469202
0003e0 c1 01 ac 3d 31 58 d0 be ac 73 10 3e f8 32 83 3d
       0.08398772 -0.40692285 0.14106625 0.06406206
0003f0 f5 e5 f1 3d e9 ea d7 3d 72 e4 0e 3d 67 96 0d bc
       0.11811439 0.105428524 0.03488583 -0.008641816

gnn_node.convs.0.mlp.0.bias f4 [256]
000000 b3 88 84 bc 75 8c 92 3d b6 1d 80 bd 46 cc 5d bc
       -0.016178465 0.07155696 -0.06255667 -0.013537472
000010 c5 51 ec bc 61 7f 3a 3d e9 a1 ab 3c d4 7e 4d 3c
       -0.028847585 0.045531634 0.020951228 0.012542445
000020 8a 6a 8e bd 5e 07 8a bc 07 25 92 bd bc 6b 3b bd
       -0.069539145 -0.016849216 -0.07135969 -0.04575704
000030 ae 43 b5 bd 5f 2c 32 3d b5 42 e6 bc 11 6c 91 bd
       -0.088507995 0.043499347 -0.02810798 -0.0710069
000040 8b ab c4 3c de b8 41 3d b7 04 1a bd 99 b8 01 3a
       0.02400758 0.047295444 -0.037602153 0.00049484667
000050 24 27 af 3d 90 8b 1c 3d 40 57 2d bd b8 09 8c 3d
       0.08552387 0.038219035 -0.042319536 0.06837791
000060 d1 2f 5d bc 82 70 20 bd 8f f5 2f 3d 17 13 b0 3d
       -0.01350017 -0.039169796 0.042958792 0.08597391
000070 ed d2 e3 bc 41 33 d6 3c 13 c3 7a 3d 3d 1b 92 bd
       -0.027810538 0.026147487 0.061221194 -0.071341015
000080 17 65 f4 bc f1 2b 42 bd cb bc ae 3c 64 66 bc 39
       -0.02983336 -0.047405187 0.021330258 0.0003593444
000090 3a 78 59 3d e7 a9 48 bc 54 d2 a5 bd 96 86 4f bd
       0.053093173 -0.012247539 -0.080967575 -0.05066546
0000a0 17 e6 00 3d 60 fe f1 3c fa e2 04 3d 36 01 d1 3c
       0.03146943 0.02954024 0.032443024 0.025513273
0000b0 62 2c 17 bd 40 20 ac bd b9 a9 9d bd 4a f1 24 bd
       -0.03690756 -0.08404589 -0.07698388 -0.040269174
0000c0 d3 5e 8f 3d 23 47 84 bd 51 d7 3f 3d 0e 60 8e 3b
       0.07000508 -0.06458881 0.0468362 0.0043449467
0000d0 35 40 ef 3c 88 58 83 3d 75 a4 74 3d 96 00 36 3d
       0.029205421 0.0641337 0.05972715 0.044434153
0000e0 ea 41 91 3d 9a 45 d1 bc 89 6f 94 bc 62 57 2a bd
       0.0709265 -0.025545884 -0.01811959 -0.04158724
0000f0 53 6a c3 3c 7a 5b ad 3c 7d b5 ae bd 87 9a d1 3c
       0.02385441 0.021161783 -0.0853071 0.02558638
000100 ba ee 61 3d 5c 1c 45 bd 37 54 b1 3c 8d 8e 0e 3d
       0.055159308 -0.04812275 0.021646602 0.034803916
000110 bb be 75 bd fe 7c ad 3b 57 71 a0 3d f8 a1 45 3c
       -0.059996348 0.0052944412 0.07834118 0.012062542
000120 6b 8d 8e 3d 95 71 bc bc 2d a7 16 3a c2 99 73 3d
       0.06960567 -0.023003379 0.0005746957 0.059472807
000130 90 6e b0 bd e4 d2 0a 3d 20 43 d8 bc 3b 5e 94 bd
       -0.08614838 0.033892527 -0.026399195 -0.072445355
000140 0f cf b4 3d a7 64 4e 3d 70 e9 6a bc a1 e2 99 3d
       0.08828556 0.05038896 -0.014337882 0.07513929
000150 53 a9 9d 3c 41 20 7a bd 76 9a 7a 3c bb 87 19 bd
       0.01924578 -0.061065916 0.015295615 -0.03748296
000160 a1 09 03 3d 84 b7 20 3d df 07 84 3d 33 33 76 3d
       0.031991605 0.039237514 0.06446814 0.06010742
000170 41 39 ce bb f2 e6 00 bd b3 53 f9 3c ce e4 af 3d
       -0.0062934463 -0.031470247 0.030435419 0.08588563
000180 42 d9 aa 3d ae 72 a6 3d d7 69 76 3d 24 27 67 bd
       0.0834222 0.08127342 0.06015953 -0.05643381
000190 9d 48 a8 3d 31 ea 25 bd 0b 20 1c 3c 06 2f c4 3c
       0.08216975 -0.040506545 0.009529124 0.023948204
0001a0 b6 31 bd bb a5 eb 0b 3b 63 cd aa bd b4 e3 30 3b
       -0.0057737483 0.0021350172 -0.08339956 0.002699119
0001b0 5c 26 5c 3d fe a6 f8 3c 9a 1b b3 3c 6b 46 8e bb
       0.05374752 0.030353066 0.021863747 -0.0043418906
0001c0 e0 3d 86 3a cd e0 60 3b 5a 5a 3d bd d5 f5 6f 3d
       0.0010241829 0.003431368 -0.046228744 0.058584053
0001d0 19 75 0a 3d 98 22 b3 3d a0 5d 90 3c 33 66 47 bd
       0.03380308 0.087468326 0.017622769 -0.04868145
0001e0 b2 37 6f 3d 90 61 77 3d 95 09 0e bd 3d 25 03 3d
       0.058402725 0.060395777 -0.034677107 0.032017935
0001f0 99 32 4f ba a2 56 41 3d f2 72 d9 3c 66 24 3e bd
       -0.0007903963 0.04720176 0.026544068 -0.04642143
000200 48 54 20 bb 71 0f 71 bd 5a 7a 0e bc dc 8c 20 3d
       -0.0024464298 -0.058852617 -0.008696163 0.039196834
000210 6b 4f 87 bd a6 80 b3 bd cd d0 a4 3c da 39 d4 3c
       -0.06606945 -0.08764772 0.020119095 0.025906492
000220 21 32 85 3d 38 e0 8d 3c 53 53 aa bd 2e 5b 98 bd
       0.06503702 0.01731883 -0.08316674 -0.07439266
000230 ad 0f 6a bd c2 81 89 bd 2c 0b da bc 43 eb 73 3d
       -0.057143856 -0.067142025 -0.026616655 0.059550535
000240 7b 01 0d 3d f3 d5 a3 3d f2 fc 23 bd b5 b2 7a bb
       0.03442524 0.07999792 -0.04003615 -0.003825349
000250 c5 66 89 bc 91 09 9c 3c 5d 34 26 bd 11 9f 88 3d
       -0.016772637 0.01904753 -0.04057728 0.066709645
000260 7d ac 52 bd 1f d7 7d bc 8e d0 45 3a fe 40 ad bd
       -0.05143403 -0.015493183 0.00075460307 -0.08459662
000270 97 50 89 bd 5f 61 23 3d a6 d1 82 bd df 1e 7e bd
       -0.067048244 0.039887782 -0.063876435 -0.06204116
000280 38 56 81 3d 7d 2a 05 3d 2f dd 64 3b bd de a2 bb
       0.06315273 0.032511223 0.0034921875 -0.0049704
000290 a2 cb c8 3c 2a dc 6c 3d 62 cc b3 bd 8d e3 04 3c
       0.024511162 0.057827152 -0.08779217 0.008110893
0002a0 eb b6 74 bd 60 26 76 3d b3 cd 95 3c a1 c9 da bc
       -0.059744757 0.06009519 0.018286562 -0.026707472
0002b0 d0 d9 23 3d 2a 59 95 3d 6e bf e3 3a 3a 55 8e 3d
       0.040002644 0.07292397 0.0017375776 0.069498494
0002c0 c3 2c 1e 3c be ef 23 3d 10 44 99 bd e6 0c 90 3d
       0.009654227 0.040023558 -0.07483685 0.0703371
0002d0 84 df d8 bc 04 8d ef 3c 1f 5c 64 3d 5b dd 31 bc
       -0.026473768 0.029242046 0.055751916 -0.010855998
0002e0 72 4d 5f bd 59 78 88 3d cf 7a 8c 3d 05 f6 3e bc
       -0.054517217 0.066635795 0.068593614 -0.011655335
0002f0 e1 55 8c 3b c3 b5 60 bc 5d 77 db bc 83 4b a5 bd
       0.0042826985 -0.01371521 -0.026790315 -0.08071043
000300 52 56 86 bd a7 ef d8 bc 4b ed 9e 3d a4 58 91 bb
       -0.06559433 -0.026481463 0.07760104 -0.0044356156
000310 7c d4 dc 3c 67 44 7f 3d 5b 6b 00 bc ae 95 16 bb
       0.02695679 0.062321093 -0.007838096 -0.00229774
000320 1c af e0 3c 34 ea 23 3d 80 fd e0 3b 95 21 4e bd
       0.027427249 0.040018275 0.006866157 -0.050324995
000330 f6 ab 8f bd 19 77 51 bd d7 7b 85 3d 32 d6 2f 3d
       -0.07015221 -0.05113897 0.06517761 0.042928882
000340 19 97 8a bd b2 79 31 bd 08 29 81 bc 92 52 6d 3d
       -0.06767101 -0.04332895 -0.015766636 0.057940073
000350 4a f3 22 3c 7f 48 54 bd d5 5d 9d bd 83 56 26 bd
       0.0099457 -0.05182695 -0.07683913 -0.040609848
000360 36 77 6d bd 44 85 2f 3d b7 88 fe 3b bd e0 13 bd
       -0.057975017 0.0428517 0.0077677625 -0.036103
000370 96 1f 35 bd f4 4d 82 3d a2 30 a2 3d 7e 7d ac bd
       -0.044219576 0.06362525 0.07919432 -0.08422373
000380 fa 6a 5c 3d 20 46 ae 3b d2 0e ac 3d 6f 2d ab bd
       0.05381296 0.005318418 0.08401264 -0.08358275
000390 ab 99 0d 3d 07 a4 f8 3c bb 1f 13 bc ff 6f 93 bd
       0.034570377 0.030351652 -0.008979733 -0.07199096
0003a0 a1 b1 55 bd 2d 7c af 3c e8 8d 56 bd a1 b2 c0 3c
       -0.052171353 0.021421516 -0.052381426 0.023522677
0003b0 96 1c a7 3d bb c6 ae bc d8 4e 76 3d 02 94 80 bc
       0.08159749 -0.021334996 0.060133785 -0.015695576
0003c0 da 3e 37 bd 7c 77 aa 3d 32 b4 2e bc 6d 0b 36 3a
       -0.044737674 0.08323571 -0.010663079 0.00069444516
0003d0 e2 c0 07 bd f4 3d 15 3d 37 30 ce 3c 1f 00 a6 bd
       -0.03314293 0.036436036 0.025169475 -0.08105492
0003e0 13 73 ae bd 09 cd f9 3c f6 ac ed 3c 03 22 8c bd
       -0.085180424 0.030493276 0.029013138 -0.06842425
0003f0 70 0d 3b 3d 0b 2d 0f 3d 33 88 98 bd a8 2a 1b 3c
       0.045667112 0.034955066 -0.07447853 0.009470619

gnn_node.convs.0.mlp.1.weight f4 [256]
000000 35 a2 ba 3f bc c7 0e 3e c9 61 8e 3f cb d1 60 3f
       1.4580752 0.1394338 1.1123592 0.8782012
000010 f3 29 78 3e c9 60 28 3f 4b f1 b0 3f ce e9 bf 3f
       0.24234752 0.6577268 1.3823637 1.4993227
000020 7a dd 80 3f 92 c9 a8 3f de d7 a7 3f fc 56 16 3e
       1.0067589 1.3186514 1.3112752 0.1468162
000030 9d ce 59 3f 3c b7 a8 3e c8 99 d9 3e 37 3b 8f 3f
       0.8508089 0.32952297 0.42500138 1.1189946
000040 a8 12 3e 3f bd 66 90 3f 49 fc c7 3f b0 a0 76 3f
       0.7424722 1.1281353 1.5623866 0.9633894
000050 df 44 2e 3f 5d 7b b3 3f b3 97 83 3e fb a7 9d 3e
       0.6807384 1.4022022 0.25701675 0.3079222
000060 0b ac 5e 3f 6c 37 93 3f 15 60 72 3f 9c d7 27 3f
       0.86981267 1.1501288 0.9467786 0.6556337
000070 36 4b cd 3f 11 d4 af 3f 75 81 99 3f 42 d4 6c 3f
       1.6038578 1.3736593 1.1992632 0.9251138
000080 58 40 e4 3f fc cb 9a 3f ac fb c8 3f a3 3f ab 3d
       1.7832136 1.2093501 1.5701804 0.08361747
000090 64 de 98 3e 49 7a 97 3e 4a d9 9e 3f df bc a9 3f
       0.2985717 0.29585484 1.2410061 1.3260764
0000a0 f5 66 62 3f a8 f0 aa 3f 45 71 20 3f 17 c8 c3 3f
       0.8843835 1.3354692 0.62672836 1.5295438
0000b0 ec d3 92 3f d6 ac 01 40 31 85 96 3f e3 f4 59 3f
       1.1470923 2.026174 1.1759397 0.8513929
0000c0 f6 26 ce 3f 5a a7 3c 3f 9e ff bc 3f 3e 4d 1a 40
       1.610564 0.7369286 1.4765508 2.4109645
0000d0 62 2c d9 3f dc 7b 6f 3f f1 6a 73 3d 76 74 92 3f
       1.696667 0.9354837 0.05942816 1.1441791
0000e0 13 a1 11 3f a3 51 3e 3f 6f 55 2c 3f 58 1d b0 3f
       0.56886405 0.7434332 0.6731786 1.3758955
0000f0 6e 3b ce 3f 2b 17 97 3f 23 64 a8 3f a1 79 af 3f
       1.6111887 1.1803945 1.3155559 1.3708993
000100 f9 d8 a3 3f 5f 7d 52 3f c8 a1 c1 3f 01 2c b9 3f
       1.280059 0.8222255 1.5127497 1.4466554
000110 63 cc 54 3f 11 7e a3 3f e5 19 b1 3f 00 85 51 3f
       0.8312437 1.2772847 1.3836027 0.81843567
000120 44 3b 94 3f ff 90 a3 3f 84 ca 74 3f d3 72 43 3c
       1.1580586 1.2778624 0.95621514 0.011929232
000130 6f bb 72 3f 90 53 8c 3f d0 28 72 3f 6f 7f 9d 3f
       0.9481725 1.0963001 0.94593525 1.2304515
000140 31 26 c7 3f 9b 85 4b 3e 97 61 44 3f 1f 5b 8e 3f
       1.555853 0.19875185 0.7671141 1.1121558
000150 c8 0f cf 3f e1 f4 30 3f cb 06 43 3f 77 70 00 40
       1.6176691 0.69123656 0.7618224 2.0068643
000160 dd 6c 2c 3f b6 f6 a3 3f c8 ed 8c 3f 00 77 aa 3e
       0.6735361 1.2809665 1.1010065 0.33293915
000170 65 f1 45 3f 60 4d ae 3f 22 27 97 3f 6d 4d 7e 3e
       0.77321464 1.3617363 1.1808817 0.24834223
000180 37 13 0d 3f 8a 97 e6 3f b2 e1 6b 3f 1f b9 dd 3e
       0.55107445 1.8014996 0.9214126 0.433053
000190 07 5a 95 3f 61 b9 80 3f 02 72 81 3f 46 04 a0 3e
       1.1668099 1.0056573 1.0112917 0.3125326
0001a0 07 b2 d1 3f cf fa 9a 3e df 5e 93 3f c0 df a1 3f
       1.6382455 0.30269477 1.1513327 1.2646408
0001b0 1c de 92 3f 4c 26 88 3e fe f0 39 3f 9b df 86 3f
       1.1474032 0.26591718 0.7263335 1.0536989
0001c0 3c 7e 3b 3f b8 9b 92 3e ea 58 e4 3e 74 12 82 3f
       0.73239493 0.2863443 0.44599086 1.0161881
0001d0 6b f7 9b 3f 32 91 a7 3f c2 6a c2 3f f0 fc 84 3f
       1.2184881 1.3091185 1.518883 1.038969
0001e0 eb fa c0 3e f7 6d b8 3e c2 cb f7 3e d7 65 ad 3e
       0.37691435 0.36021397 0.48397642 0.3386676
0001f0 c5 f4 c5 3f f5 14 87 3f 1a 33 ba 3f 23 e6 bc 3d
       1.5465323 1.055327 1.4546845 0.092235826
000200 07 18 eb 3e f9 f3 25 3f c9 83 c6 3f 82 e4 a5 3f
       0.4591677 0.648254 1.5508968 1.296036
000210 9a 2d 3f 3d ca 00 97 3f 0f 1e 8d 3f 1b 88 9e 3f
       0.04667435 1.1797116 1.1024798 1.2385286
000220 3e f6 ba 3f e1 e2 a7 3f 97 02 46 3e 91 6a d8 3f
       1.4606397 1.3116113 0.19336925 1.6907521
000230 72 06 21 3f 16 a2 c3 3e cd 4c a5 3f b4 90 92 3f
       0.6290046 0.382096 1.2914063 1.145041
000240 d8 4b 11 3f 4e d0 91 3f 1a 01 2d 3e 9c 32 b4 3f
       0.56756353 1.1391695 0.16894951 1.4077945
000250 d9 0a 8a 3f 06 7a 51 3f c7 c4 d8 3f bb df b6 3e
       1.078456 0.8182682 1.6935052 0.35717568
000260 fe 6e ba 3f ac b6 51 3f a6 5c 6e 3f a2 27 c7 3e
       1.4565122 0.8191936 0.9311012 0.38897425
000270 f2 3a 85 3f a3 99 e7 3f 42 b8 b7 3f 16 d1 b7 3f
       1.0408614 1.8093761 1.4353106 1.4360683
000280 07 82 e6 3f 50 e8 bf 3f 3a 2e a5 3f d2 25 55 3f
       1.8008431 1.4992771 1.2904732 0.83260834
000290 67 13 83 3f 27 54 6c 3f 2c 25 22 3f 69 4f 8e 3f
       1.0240296 0.92315906 0.6333797 1.1117984
0002a0 d8 6f 93 3f 33 ef cc 3f e3 8c 8d 3f 77 8e e2 3e
       1.1518507 1.6010498 1.105862 0.44249317
0002b0 40 51 89 3f c4 98 0e 3f 21 04 83 3f 56 f7 c1 3f
       1.072792 0.5570185 1.0235635 1.5153606
0002c0 23 53 b8 3f 7a b0 cf 3f 41 6f 99 3f c9 65 02 40
       1.4400371 1.6225731 1.1987077 2.0374625
0002d0 6d 9e 71 3f 19 cd 47 3f 50 a4 2a 3f ed 79 e1 3f
       0.94382364 0.7804733 0.6665697 1.7615334
0002e0 07 81 92 3f 71 74 22 3f 79 fc a7 3f 10 bb 42 3f
       1.1445626 0.63458925 1.3123924 0.76066685
0002f0 9c 84 ac 3f 00 03 8e 3f f5 9a ac 3e 87 0d 2d 3f
       1.3477969 1.1094666 0.33711973 0.67598766
000300 c1 30 a0 3f fc 55 58 3f fe 5e 02 3f 92 6c c7 3f
       1.2514879 0.845062 0.50926197 1.5580008
000310 d4 f4 71 3f 99 fd e6 3e 2d 09 8f 3f 77 5d 53 3f
       0.94514203 0.45115355 1.1174675 0.8256449
000320 b3 58 f1 3e ac 92 b4 3f 0f e8 e1 3f 41 68 89 3f
       0.47137985 1.4107261 1.7648944 1.0734941
000330 d7 c2 60 3f 6d b0 ac 3f df 0c b3 3f 50 56 88 3f
       0.877973 1.3491341 1.3988303 1.065134
000340 86 9e 60 3f 01 85 c0 3f 6b 5a bc 3e 8b 2b cc 3e
       0.8774189 1.504059 0.36787733 0.3987697
000350 1d 30 6b 3e 91 f4 91 3f 3e 46 63 3f 09 bf 8b 3f
       0.22967573 1.1402761 0.88779056 1.0917674
000360 27 ec 9b 3f df 81 d3 3e 5f 5f d8 3f c4 c9 c5 3f
       1.2181443 0.4131002 1.6904105 1.5452199
000370 b6 99 24 3f cd 37 ad 3f 25 02 2b 3f 68 99 56 3f
       0.64297044 1.3532654 0.6680015 0.8382783
000380 96 7e b2 3f 30 b6 b7 3e 4f 7f 70 3f 7a 11 9e 3f
       1.3944881 0.35881186 0.9394426 1.2349083
000390 83 ca a2 3f 03 97 8e 3f 26 cb 7b 3f 85 c0 aa 3f
       1.2718052 1.1139835 0.98356855 1.3340002
0003a0 60 5d 37 3d b7 4b bf 3f ce 1b ec 3e 21 f7 c2 3d
       0.044766784 1.4944981 0.46114963 0.09519792
0003b0 65 04 aa 3f 26 b3 90 3f 95 6c 28 3f cf fa 8a 3f
       1.3282591 1.1304672 0.65790683 1.0857791
0003c0 25 58 ad 3f 1a 88 85 3f 0c 50 c1 3f b3 41 c4 3f
       1.3542525 1.043216 1.5102553 1.533255
0003d0 c8 43 eb 3f fe d6 c8 3f 44 b3 a3 3f a6 f7 ae 3f
       1.838006 1.569061 1.2789083 1.3669326
0003e0 d6 36 8e 3f f8 90 57 3f 21 c2 c7 3f e9 9e 2e 3f
       1.1110485 0.8420558 1.5606118 0.6821123
0003f0 0d 87 5e 3f cc 6d 30 3f 91 33 a9 3f 1c 83 b2 3f
       0.8692482 0.68917537 1.3218862 1.3946261

gnn_node.convs.0.mlp.1.bias f4 [256]
000000 08 3c c0 be 1f 08 22 be 35 55 f3 be de a4 2a bd
       -0.375458 -0.1582341 -0.47525945 -0.041661136
000010 9c 64 e9 be 35 d3 db be 0f c9 ac be 0b ae 86 be
       -0.4558457 -0.42934576 -0.33747146 -0.2630466
000020 71 f8 87 3e d6 a0 3a 3e dc 75 90 3e d2 78 99 3e
       0.26556733 0.18225417 0.2821492 0.2997499
000030 61 c5 2e bd d3 c7 e7 3e 46 d9 d0 3b de 1c a4 be
       -0.042668704 0.4526964 0.0063735573 -0.32053274
000040 28 15 3c 3e e7 d3 87 be 0c aa bb be d8 4f 88 be
       0.18367445 -0.26528856 -0.36653173 -0.26623416
000050 05 3d d0 be 3d e3 05 bf 84 45 fc 3e f1 a5 3e bf
       -0.40671554 -0.52299863 0.49271786 -0.74471956
000060 bf 5b 12 bf 93 6b 98 be 82 ef af be 67 c5 ce 3e
       -0.57171243 -0.29769573 -0.34362417 0.4038498
000070 3f ee e5 bd dd 22 80 be bf eb b5 be 82 13 a9 be
       -0.112270825 -0.250266 -0.35531422 -0.33022696
000080 27 43 5d be 8e 15 af be e7 6b b6 be 0a 1c 97 3e
       -0.21607648 -0.34196132 -0.35629198 0.2951358
000090 fc fa 60 be 55 e7 95 be cf 61 ff be aa 53 93 3e
       -0.21970743 -0.29278055 -0.4987931 0.28774768
0000a0 17 08 55 bc ff 46 52 be 58 02 81 be 0d ef fa be
       -0.013002417 -0.20534895 -0.251971 -0.49010506
0000b0 75 fc d8 3d e4 8d a9 3c 30 46 8e be 43 07 b1 be
       0.10595027 0.020697542 -0.27787924 -0.34575853
0000c0 f9 e1 01 bd dc 9c 12 3d f3 2a 5f 3d 91 f2 1f 3f
       -0.031709645 0.035794124 0.05448432 0.624795
0000d0 0b 71 ae bd 87 44 e9 bd 7a cf 6c 3e c2 51 24 be
       -0.08517655 -0.11390024 0.23126021 -0.16046813
0000e0 dc 7e 41 bf b1 a4 85 bf 8b b8 39 bf 2c d6 81 be
       -0.755842 -1.0440885 -0.72547215 -0.25358713
0000f0 e5 9b 30 be 43 bf b6 be 9e ed e2 3e d2 3a 07 be
       -0.17246969 -0.35692796 0.44321913 -0.13206032
000100 99 ee 3a bd ea c0 2a 3e 3f 34 8b be 4a 99 bb be
       -0.0456377 0.16675153 -0.27188298 -0.36640388
000110 3f 51 da be cb be 80 bd 0c 33 37 be ca 94 5f 3e
       -0.4264011 -0.06286391 -0.17890567 0.21834102
000120 bf bb f8 be 4a ff 97 3e 6d 13 e1 be 58 42 85 be
       -0.4858074 0.29686958 -0.43960133 -0.2602718
000130 ce ed 9a be ce 70 66 be f0 4d f3 be 57 bc c4 bd
       -0.30259556 -0.22503969 -0.475204 -0.096062355
000140 eb 58 c0 be 2c 7f 86 be da 23 43 bd 67 99 ed be
       -0.3756784 -0.262689 -0.047641613 -0.464061
000150 59 ca 5a be 94 32 79 3e 5a 1e e7 bd 89 62 cd be
       -0.21366252 0.243357 -0.11285086 -0.4011424
000160 2a 93 50 be f7 95 b7 be d9 38 a9 be 8d 14 34 bf
       -0.20368639 -0.35856602 -0.33051184 -0.7034386
000170 a3 2b c9 be 3d 64 5a be b4 eb a8 bd 32 f1 ad be
       -0.39291105 -0.213273 -0.08248082 -0.3397308
000180 f4 1d 94 bd b2 88 88 be 96 91 95 be 1a 3c 8b be
       -0.072322756 -0.2666679 -0.29212636 -0.2719429
000190 f4 35 89 bd d4 9a 96 be e4 77 85 bc 1b b3 94 be
       -0.06699744 -0.29415 -0.01629252 -0.29042897
0001a0 ca 03 6d bd 76 af 05 3f f5 ff c5 be 3c 22 4a be
       -0.05786494 0.5222086 -0.38671842 -0.19739622
0001b0 ff 1c ce bd b7 4c 42 bf 65 13 b9 bd 00 b4 ea bd
       -0.10064124 -0.7589831 -0.09036902 -0.114601135
0001c0 fd 33 88 3e 12 17 17 bf 7b 65 df 3e 6d 6f ce be
       0.26602164 -0.5901958 0.4363211 -0.40319386
0001d0 92 c2 ae be 38 0c 8f 3e 3e 0f e4 be a9 ef 9f be
       -0.3413282 0.2793901 -0.4454288 -0.31237534
0001e0 9e cf 08 3e d5 64 53 3c 59 2a f1 be 15 62 3a bf
       0.1336045 0.012902458 -0.4710262 -0.7280591
0001f0 69 55 fe be ca 1f 2a bd cf 3d 6e bd a7 7f 73 3e
       -0.49674538 -0.041534223 -0.058164414 0.23779164
000200 75 db e4 3e c9 06 dd be 2b 85 18 bf ca 69 c8 be
       0.44698682 -0.4316924 -0.595782 -0.3914321
000210 4a c0 6e 3e 38 23 28 bc e8 21 1e be b5 30 0d be
       0.2331554 -0.010262303 -0.15442622 -0.13788112
000220 0c c4 75 bd 2a b0 43 be 20 76 25 bf 1d f3 a7 be
       -0.060001418 -0.1911017 -0.6463337 -0.32802668
000230 ec 8d 45 be 28 26 18 bf cc c0 d6 be 9d c0 41 3e
       -0.1929242 -0.5943322 -0.41943967 0.18921132
000240 7b f8 10 be 3f a2 56 bd aa ef e5 be 6d 34 88 be
       -0.14157288 -0.052400824 -0.44909412 -0.26602498
000250 5a 54 64 3d 04 3f ee 3e 15 85 67 be 8e aa f2 3e
       0.055744506 0.46532452 -0.2260936 0.47395748
000260 fe 40 1c 3e dd 73 d6 be 4d e5 d0 be 35 32 88 bf
       0.15259168 -0.41885272 -0.40799943 -1.0640322
000270 dc e2 94 be 62 5b 31 3d c9 68 05 bd c4 bc e0 be
       -0.2907933 0.04330004 -0.032570634 -0.43894017
000280 a9 68 ed bd 37 3f 08 bf eb b2 f7 be ea b4 ed be
       -0.11592228 -0.5322146 -0.4837869 -0.4642709
000290 c9 4b 29 be d6 b9 a0 3e b5 5e 0a bf 71 da ce be
       -0.16532816 0.31391782 -0.5405076 -0.40401033
0002a0 44 33 6b be 2b 5a 77 be 1d 7f 15 3e 7c f8 d0 3d
       -0.22968775 -0.2415549 0.14599271 0.10203645
0002b0 ed 49 49 be 27 a1 0d bf d6 a2 5c be d0 b9 69 bd
       -0.19657107 -0.55324024 -0.21546492 -0.05706197
0002c0 67 72 8a be 19 a2 f5 be be b3 a9 be ed 80 00 be
       -0.27040407 -0.47975233 -0.33144945 -0.12549181
0002d0 c1 a9 69 3d 5d 75 16 bb 50 41 27 be c8 41 5e 3e
       0.057046656 -0.0022958138 -0.16333508 0.21704781
0002e0 bd 49 d7 be 5f 37 65 3e 99 81 ec be 44 1c e4 be
       -0.42048445 0.22384404 -0.46192625 -0.44552815
0002f0 0d c0 c3 3d ed d0 80 bd a2 d6 08 3f 6b 43 f4 bd
       0.09558115 -0.062898494 0.53452504 -0.119269215
000300 7d 54 48 be 7c f9 6b be 98 73 6d bc 09 87 a1 be
       -0.1956348 -0.2304439 -0.014492892 -0.31548336
000310 2a e7 80 be 74 b6 bc 3e bf b1 f5 be 2a 44 c6 bd
       -0.25176364 0.3685795 -0.47987172 -0.0968097
000320 0a 99 2b bf 2f a7 72 be a9 d6 20 be 1b 5e 9c be
       -0.67030394 -0.23696588 -0.15706886 -0.30540547
000330 23 03 86 be ed 03 e5 bd 97 3f 0b bf 27 23 c9 3e
       -0.26174268 -0.111823894 -0.54393905 0.39284632
000340 48 b1 10 bf a8 bf 48 bd 42 e4 af be b0 27 a9 3d
       -0.5652051 -0.049010903 -0.34353834 0.08259523
000350 c2 6f 26 bd 69 8a d6 be 44 5d 98 3e a9 1d 6b bd
       -0.040633924 -0.41902474 0.29758656 -0.057401333
000360 f6 88 88 bc 68 ee 6f bf df ee b2 3d e5 a7 ef be
       -0.01666687 -0.93723154 0.08736967 -0.4680778
000370 74 76 05 bf 21 a2 e5 be 26 eb a4 3e ff 20 d7 be
       -0.5213387 -0.44850257 0.32210654 -0.42017362
000380 46 ab 70 be 97 80 b1 be b8 12 e1 be b8 1b c2 3e
       -0.23502836 -0.3466842 -0.43959594 0.37911773
000390 fa ac 95 be 12 e4 dd be 6f d1 82 be 19 65 fc be
       -0.29233533 -0.43338066 -0.2555041 -0.4929588
0003a0 74 af 2b bd b6 2b 31 be 3b f4 b9 be c9 ba 82 3e
       -0.041915372 -0.1730183 -0.36319146 0.2553313
0003b0 8b 85 19 be 3d fb 83 be e2 65 f8 3e 4c aa c9 bc
       -0.14992349 -0.25777617 0.4851523 -0.024617337
0003c0 2b 63 d0 be cc f3 e2 be 89 8e 9c 3d 73 0c 2b be
       -0.4070066 -0.44326627 0.07644374 -0.16703968
0003d0 9d f8 1e be c8 fe dd be d4 1d 37 bd 65 6d ec bc
       -0.15524526 -0.43358445 -0.04470618 -0.028860757
0003e0 ff 9d c9 be 6c 31 0f be 0d 4d 2e 3c 5e 82 e0 be
       -0.39378354 -0.13983697 0.0106384875 -0.43849462
0003f0 4b a5 8f be 4c 3b ec 3c ff 90 af 3c 81 6f c0 be
       -0.28055796 0.028836869 0.021431444 -0.3758507

gnn_node.convs.0.mlp.1.running_mean f4 [256]
000000 20 1c cc 3f 2a 1f a3 40 30 d0 df 3d 17 b9 1e c0
       1.5946083 5.097554 0.109283805 -2.480047
000010 a0 8d f2 40 ff 21 9f bf 8e d2 cc c0 f6 12 a4 c0
       7.579788 -1.243225 -6.4007025 -5.1273146
000020 ad 40 dc c0 38 69 d5 3f fd 0e 09 40 e8 a7 df 40
       -6.882895 1.6672735 2.1415398 6.9892464
000030 bd a3 12 c0 12 ab 4a 40 05 87 99 3f c2 ae d1 bf
       -2.2912438 3.1666913 1.199433 -1.6381457
000040 1a bf b8 40 34 42 63 40 1f 07 f9 3f f0 cf 1a c1
       5.773328 3.5509157 1.9455298 -9.675766
000050 2c 78 37 c0 b5 c7 07 c0 19 0b b8 40 d5 68 94 c0
       -2.8667097 -2.1215641 5.7513547 -4.637797
000060 12 fb a0 be 30 26 99 c0 e4 8c 40 40 b6 03 25 40
       -0.3144155 -4.7859116 3.0085993 2.5783515
000070 7f 92 0c c0 a7 db d9 3d 07 0e 94 40 8d 22 27 40
       -2.1964414 0.106375985 4.6267123 2.6114838
000080 76 3f f8 bd e9 16 01 c0 db 84 94 40 16 e6 f3 40
       -0.12121479 -2.0170233 4.6412177 7.6218367
000090 31 17 6b 40 3c 38 a4 40 62 d7 f1 bf 05 a5 90 40
       3.6732905 5.1318645 -1.8893855 4.520144
0000a0 b3 f7 48 bd 03 15 32 3f 12 25 a6 c0 7c 7d 82 40
       -0.04906435 0.6956331 -5.192025 4.077818
0000b0 f3 13 20 3f d7 78 87 c0 a1 54 86 c0 00 9d 94 3f
       0.6253044 -4.233501 -4.1978307 1.1610413
0000c0 e3 cb 25 c0 20 81 3e 41 29 b8 32 c0 dd f5 4b 40
       -2.5905693 11.906525 -2.7924902 3.1868813
0000d0 23 fa 2d 40 c1 71 c2 c0 a3 f7 2a 40 ee 4a b4 c0
       2.7183921 -6.076386 2.6713645 -5.6341467
0000e0 6b 5a ee 40 1e 43 12 41 d9 25 87 bf cb 0f e0 3f
       7.4485373 9.141386 -1.0558425 1.750482
0000f0 a0 94 0d 41 11 c0 d7 c0 5c cd d9 c0 bd b0 a5 40
       8.848785 -6.7421956 -6.8063183 5.1778245
000100 bf 30 b2 40 b8 0d f5 c0 83 51 ca 40 7a 5d ab 40
       5.5684505 -7.6579247 6.32245 5.3551607
000110 fd 31 fb c0 5e e5 dd 3f e1 1a a1 c0 38 b8 c1 40
       -7.849852 1.7335622 -5.034531 6.0537376
000120 77 c0 1e c0 44 8d 90 c0 10 01 20 40 b0 eb 7c 40
       -2.4804971 -4.5172443 2.5000648 3.9518852
000130 b6 59 75 c0 2c 37 7a bf a7 f6 b5 40 e3 5a b1 bf
       -3.8336005 -0.97740436 5.686359 -1.3855861
000140 41 e0 e9 c0 14 24 ee 40 aa 42 78 40 54 c8 08 40
       -7.3086247 7.441904 3.8790689 2.137227
000150 db bc 13 c0 e6 72 16 40 a6 54 72 bf 4b d9 1f c0
       -2.3084018 2.3507628 -0.94660413 -2.4976375
000160 2d c4 d7 bf 1d a8 2a 3f 04 b3 0a bf c6 82 3d 40
       -1.6856743 0.6666277 -0.54179406 2.9611068
000170 e5 8b 5a c0 73 33 ee bf 8e 47 f9 40 d8 e8 1c 41
       -3.4147885 -1.8609451 7.7899847 9.806847
000180 b5 d6 cd c0 a4 71 ae 3f e8 6b 6f 3e b6 a5 89 c0
       -6.4324594 1.362843 0.23381007 -4.3014784
000190 3b 88 6b c0 16 27 2b c0 ad 8c f4 40 ba 8e de c0
       -3.6801898 -2.6742606 7.6421723 -6.9549227
0001a0 67 7a 71 bf 75 03 b6 40 07 10 81 40 f8 cd 0e c1
       -0.94327396 5.687922 4.0332065 -8.925285
0001b0 78 c0 c4 3f 5e a0 06 41 19 7e b7 c0 ee 69 09 3e
       1.5371237 8.414152 -5.734143 0.13419315
0001c0 8e a4 fc c0 be 9c bb 40 c4 7c bf 40 76 81 8f 40
       -7.8950872 5.8628836 5.98398 4.4845533
0001d0 b2 24 fd bf 09 a3 05 40 ce ed 09 40 93 67 90 c0
       -1.9776824 2.0880759 2.1551394 -4.5126433
0001e0 e6 0a e9 40 63 a4 d9 bf e3 b8 64 3f 3a 71 83 40
       7.2825804 -1.7003292 0.89344615 4.1075716
0001f0 3a 9d 39 3f a0 64 cd bf 4f a8 bb c0 76 ef 33 40
       0.72505534 -1.6046333 -5.8642955 2.8114905
000200 2f 49 b0 40 fc ce f3 3e e5 d8 ba be 68 2a e6 c0
       5.5089335 0.47618854 -0.36493602 -7.1926765
000210 88 e9 09 41 a2 f9 7e 3e 15 b7 60 40 d0 01 eb bf
       8.619514 0.24899915 3.5111744 -1.8359928
000220 aa 1b ba c0 d9 46 80 c0 4e ac a5 bf 2a 65 e6 c0
       -5.815877 -4.0086484 -1.2943208 -7.199849
000230 6d 2a 8d c0 23 52 ef c0 18 0f d6 40 f6 42 34 40
       -4.411429 -7.4787765 6.6893425 2.816587
000240 66 2b 5f c0 a1 57 00 c1 d0 a1 8e 40 6f 32 69 bf
       -3.4870238 -8.021394 4.4572525 -0.9109258
000250 97 ed 72 bc d5 c8 e9 40 ff 85 aa 40 7b 12 e1 40
       -0.014827154 7.3057656 5.328857 7.033506
000260 f3 9f 1f 3f 10 a3 22 c1 d5 48 24 c0 f4 55 35 bf
       0.6235344 -10.16481 -2.5669453 -0.7083428
000270 f0 02 a8 c0 87 33 21 41 91 e1 f7 bf 43 ef 04 c1
       -5.2503586 10.07508 -1.9365712 -8.3084135
000280 91 85 c9 3e e7 74 8f c0 26 f6 27 c0 8e 70 e8 c0
       0.39359716 -4.4830203 -2.6243987 -7.2637396
000290 a1 31 1c c0 d4 8f 41 40 66 30 59 40 58 dd eb 3f
       -2.440529 3.0244036 3.393579 1.8426924
0002a0 4a d2 dc 40 37 7e a0 bf 0b 85 32 c0 04 a1 4c be
       6.90067 -1.2538518 -2.7893703 -0.19983298
0002b0 d2 41 3a 40 ad 98 e1 c0 ab 8d 55 c0 3f f5 c2 c0
       2.9102674 -7.049887 -3.3367717 -6.0924373
0002c0 b6 ca ec bf da d2 51 be cd 1a b0 c0 9f a5 89 40
       -1.8499362 -0.2049059 -5.5032716 4.3014674
0002d0 c9 3c 58 c0 9b 03 77 c0 ce 4d f9 3e f8 6b 88 be
       -3.37871 -3.859595 0.48692173 -0.26644874
0002e0 50 13 45 c0 c2 2d 7a 3f 4a ca 21 c0 12 f0 11 bf
       -3.0793037 0.9772607 -2.5279717 -0.57006943
0002f0 c3 59 62 c0 bf df a4 be 9c f1 d0 40 83 47 00 c1
       -3.5367286 -0.32201955 6.5294933 -8.017459
000300 7b f1 b5 40 df f5 cf bf 5f 66 d9 40 c2 50 65 40
       5.6857276 -1.6246909 6.7937465 3.583054
000310 52 3a a7 bf f0 c6 cc bf f8 2a c1 be df c6 ba 40
       -1.3064673 -1.5998211 -0.37728095 5.8367763
000320 a7 0d 07 40 9b f4 37 40 98 89 27 c0 c3 e6 46 bf
       2.1102083 2.8743045 -2.617773 -0.77695864
000330 0e a7 7f c0 46 4b 65 c0 eb 86 83 c0 bf bb 46 40
       -3.9945712 -3.5827193 -4.1102195 3.105209
000340 f6 08 1a c0 2a 0f 0b 41 9d 57 38 3f ed 3a a9 40
       -2.406797 8.691202 0.7200869 5.288443
000350 64 4a ee bf 1d b3 c9 3f 25 e2 e1 c0 ab 9d 92 40
       -1.8616452 1.5757786 -7.0588555 4.5817466
000360 3c ed 3f c0 45 1e 87 40 e6 91 ac 40 8d 6f ad 3f
       -2.9988546 4.222445 5.39281 1.3549668
000370 cb bb 57 c0 d0 8c e4 c0 7b a9 f8 40 89 32 30 c0
       -3.370837 -7.142189 7.7706885 -2.7530844
000380 e3 e9 c3 40 52 7b eb 40 60 1d 08 c0 fa 80 ff 3f
       6.1223006 7.3588037 -2.126793 1.9961236
000390 24 6f a3 40 ca f7 49 bf fa dd bf 3e b1 3f 1b 40
       5.107317 -0.7889372 0.37474042 2.4257624
0003a0 30 39 80 40 b9 89 2b 41 f8 02 1c c1 76 e9 57 40
       4.006981 10.721124 -9.750725 3.3736243
0003b0 5c 78 8a 3f 3e 30 aa c0 a1 91 60 3f 80 eb ab bf
       1.0817981 -5.318389 0.8772221 -1.3431244
0003c0 8d 0f ec c0 36 05 ee c0 86 9d 75 be e1 87 74 bf
       -7.3768983 -7.438136 -0.23985872 -0.95519835
0003d0 ee 47 2a c0 25 cb 45 c0 0a 60 88 3f ea 36 46 c0
       -2.6606402 -3.090524 1.0654309 -3.0971017
0003e0 a9 52 b8 bf d7 31 e4 bf 71 35 fc bf 48 7a cf bf
       -1.4400226 -1.782771 -1.9703809 -1.6209192
0003f0 e1 42 b5 40 e0 04 1d 40 a6 bc 29 bc f4 56 97 c0
       5.664414 2.4534225 -0.010359919 -4.7293644

gnn_node.convs.0.mlp.1.running_var f4 [256]
000000 c6 32 8a 41 f9 4f dd 41 7b df 34 42 e3 bb ce 41
       17.274792 27.66405 45.218243 25.841742
000010 43 6f 9b 41 cb 7f e7 41 0e 52 7a 41 23 3d 60 42
       19.429327 28.937399 15.645033 56.059704
000020 04 dc 62 41 59 b1 26 42 ad de 9c 41 40 86 ce 41
       14.178715 41.67319 19.608728 25.815552
000030 11 31 5c 41 fc c2 8e 41 4c ba 11 41 db 2e f0 41
       13.761979 17.845207 9.107983 30.022879
000040 7b ca b1 41 de 47 29 42 0b 30 19 42 15 0f 09 42
       22.223867 42.320183 38.296917 34.26473
000050 9e 48 32 42 98 73 89 41 02 b3 b0 41 c9 92 87 41
       44.570915 17.181442 22.087406 16.946672
000060 43 aa b4 41 76 b4 8b 41 8d 34 01 42 ec ac c1 41
       22.583136 17.463116 32.30132 24.209435
000070 2b 6f cc 42 5e e3 eb 41 c2 84 82 42 0f 03 06 42
       102.217125 29.48602 65.25929 33.502987
000080 7f 4f 6f 42 cc 02 e7 41 41 7a d2 41 ed 29 c0 41
       59.827633 28.876366 26.309694 24.020472
000090 40 c5 f2 41 3d 68 90 41 bc 6e 3a 42 e0 51 60 42
       30.346313 18.050898 46.60814 56.079956
0000a0 46 07 58 42 56 c9 c2 41 6f 1c 14 42 af 7b b0 41
       54.007103 24.348309 37.027767 22.060392
0000b0 e1 31 cd 41 7a e3 c9 41 1a 4c 20 42 d5 f3 e5 41
       25.649355 25.236073 40.074318 28.744059
0000c0 b8 3a 04 42 04 34 60 42 8d d3 d0 41 a3 40 96 41
       33.057343 56.050797 26.103296 18.78156
0000d0 93 9f 19 42 2b 86 db 41 18 d5 75 41 ae 12 00 42
       38.405834 27.440512 15.364525 32.01824
0000e0 d5 b5 49 42 68 07 2b 42 46 89 13 42 f2 14 2a 41
       50.42757 42.757233 36.884056 10.630114
0000f0 70 e3 15 42 72 c0 e1 41 ce b8 27 42 e7 d3 af 41
       37.472107 28.218967 41.930473 21.978468
000100 ac fc ab 41 2f b3 4c 41 44 59 49 42 79 34 33 42
       21.498375 12.793746 50.337173 44.801243
000110 19 b2 0e 42 ff 40 37 42 e2 b9 1f 42 c3 02 cb 41
       35.673923 45.813473 39.931526 25.376348
000120 4f e4 5f 42 06 1d 67 42 67 c7 1e 42 93 51 7e 41
       55.972958 57.778343 39.69473 15.894916
000130 aa 73 f7 41 79 ec c2 41 6c ca 00 42 57 88 8b 41
       30.931477 24.365465 32.197678 17.441572
000140 48 a4 67 41 39 1e a6 41 ab 6e 3b 42 9f 25 26 42
       14.477608 20.764757 46.858074 41.53674
000150 d3 f2 bf 41 74 cf 98 41 f8 88 34 42 44 80 08 42
       23.993567 19.101295 45.13376 34.12526
000160 de e4 df 41 d7 39 f8 41 2a 9c 35 42 b4 a1 0c 42
       27.986752 31.028242 45.402504 35.157913
000170 b4 c2 05 41 4f a0 42 42 9d 38 19 42 b0 c9 d4 41
       8.360035 48.65655 38.305286 26.59848
000180 c0 dc 5a 41 82 04 66 42 3d 00 8e 41 d6 10 0f 42
       13.678894 57.504402 17.750116 35.76644
000190 71 9f e2 41 5a 45 d8 41 f7 9b 2b 42 0e 4a 84 41
       28.327852 27.033863 42.90231 16.53616
0001a0 52 07 62 41 b1 02 b5 41 34 ce bc 41 5d 6b 9f 41
       14.126787 22.626314 23.600685 19.927423
0001b0 7f 01 b1 41 88 22 91 41 4a 9a 68 41 83 6e 4d 41
       22.12573 18.141861 14.537668 12.83948
0001c0 e3 e2 2d 41 64 92 54 42 8c 9d ad 41 72 ea 6f 42
       10.867892 53.14296 21.701927 59.97895
0001d0 3b a2 f1 41 e0 b3 05 41 3f 2d 5c 42 89 97 be 41
       30.204214 8.356415 55.044186 23.823992
0001e0 a9 c9 25 42 71 47 6d 41 3c 85 1d 42 72 1e 60 42
       41.446934 14.829942 39.38011 56.02973
0001f0 84 72 28 42 08 9d d2 41 14 2c 48 42 c4 a7 fd 41
       42.11183 26.326675 50.043045 31.706917
000200 d4 1b a5 41 73 f6 0a 42 9b 00 a9 41 9c ae ca 41
       20.638588 34.740673 21.125296 25.335258
000210 58 8e d0 41 38 bc 88 42 56 02 ac 41 f2 5b 74 42
       26.069504 68.367615 21.50114 61.08979
000220 46 12 43 42 aa 74 d3 41 cd a2 65 41 d6 3d 04 42
       48.767845 26.431965 14.352246 33.060387
000230 21 3c 01 42 a4 f3 fa 41 b4 44 2e 42 b6 a0 44 42
       32.30872 31.368965 43.567093 49.156944
000240 ff 30 fa 41 2f c1 a9 41 3e 27 04 42 92 96 75 41
       31.273924 21.219328 33.038322 15.34926
000250 e0 03 4c 42 20 2b 69 42 63 bb 1f 42 24 6e 17 42
       51.003784 58.292114 39.932995 37.85756
000260 17 2d 92 42 10 9a 47 42 45 1f 24 42 54 c9 70 41
       73.088066 49.90045 41.030537 15.049152
000270 b9 a6 d5 41 33 55 14 42 9c 76 0c 42 93 e1 2a 42
       26.706408 37.083202 35.11583 42.720287
000280 d7 df 03 42 08 60 6d 42 8d 37 3c 42 cd b0 fc 41
       32.968594 59.34378 47.05425 31.586329
000290 46 fd 17 42 fe a0 84 41 0a 5f 60 41 05 77 01 42
       37.997337 16.57861 14.023203 32.36623
0002a0 d0 00 55 42 75 12 ed 41 44 b6 37 42 6c 78 f9 41
       53.250793 29.634012 45.927994 31.1838
0002b0 18 e6 72 41 8b ff 9f 41 66 ca 48 42 a4 1f 7b 41
       15.181175 19.999777 50.197655 15.695225
0002c0 32 59 06 42 f8 c8 ba 41 86 7a 77 41 42 77 fd 41
       33.587105 23.34813 15.467413 31.683231
0002d0 b3 71 ef 41 85 6f 26 42 3c dc 8d 41 4e 8b c2 41
       29.930517 41.608906 17.732536 24.31802
0002e0 48 55 4e 42 a2 39 b1 41 93 f6 14 42 d3 50 b3 41
       51.583282 22.153141 37.240795 22.414465
0002f0 7f 02 20 42 4c c1 b3 41 1b 9c 95 41 82 fa 21 41
       40.002438 22.469383 18.701223 10.123659
000300 b9 84 27 41 bf 62 cb 41 9f 5b 37 42 1b 5f 4c 42
       10.469903 25.423216 45.839474 51.092876
000310 0a 0f c5 41 e4 65 85 41 81 27 3d 42 05 de c3 41
       24.632343 16.674751 47.288578 24.483408
000320 f1 09 32 42 d4 b3 1a 42 55 eb 53 42 25 92 74 42
       44.50971 38.675613 52.979816 61.14272
000330 d6 30 40 42 7f 16 a0 42 78 3b 7d 41 85 54 52 42
       48.04769 80.04394 15.827019 52.58254
000340 9b 49 12 42 21 ec bf 41 bf a8 d5 41 20 0b 21 42
       36.57188 23.990297 26.707396 40.260864
000350 22 9a e6 41 f7 de 9a 41 32 84 9d 41 98 d3 01 42
       28.82526 19.35887 19.689548 32.456635
000360 77 0e 46 42 9a 6d 20 42 13 94 e6 41 72 95 00 42
       49.514126 40.107033 28.822302 32.145943
000370 64 6a 9d 41 6f 26 c2 41 f9 22 2d 42 af b5 97 41
       19.676949 24.268766 43.284153 18.963713
000380 26 88 76 42 38 af 3c 41 16 e3 70 42 c6 dc 72 42
       61.632957 11.792778 60.221764 60.7156
000390 51 ad 25 42 88 01 1f 42 53 b8 b5 41 0b ad 48 42
       41.419254 39.751495 22.715002 50.168987
0003a0 b5 bc df 40 c0 97 73 42 23 e7 a9 41 fa 3e 89 41
       6.9917855 60.898193 21.23786 17.15575
0003b0 34 8a 35 41 92 b3 1a 42 6c c9 a5 41 78 04 48 42
       11.346241 38.67536 20.72335 50.004364
0003c0 72 0a 11 42 2b c8 c9 41 74 ed 4c 42 44 5f 6e 42
       36.2602 25.222738 51.231888 59.593033
0003d0 57 8c cb 41 d4 1f a9 41 ca a0 f5 41 c5 58 44 41
       25.443525 21.140541 30.70351 12.271672
0003e0 7d 10 0b 42 b6 b9 f7 41 5b 0b ba 41 c4 0a 38 42
       34.7661 30.96568 23.255545 46.010513
0003f0 1a 39 a6 41 75 64 87 41 cd 77 c8 41 78 b3 85 42
       20.777882 16.924051 25.058496 66.850525
