checkpoints/D_epoch_110.pth (torch, 843999 bytes, 48 tensors)

gnn_node.node_encoder.weight f4 [1, 128]
000000 5d 1b ac 3e fb 1f 90 bd c9 b4 d9 3d f5 5f 19 3e
       0.33614627 -0.0703735 0.10630185 0.14978011
000010 b3 f6 99 3f 27 9a db be 3c f9 04 bf 6c 02 c5 3e
       1.2028412 -0.42891046 -0.519428 0.3847841
000020 ef a9 de 3e c6 dc 82 bc 64 11 88 bf 21 bd 0a 3d
       0.43489024 -0.015974414 -1.0630307 0.033871774
000030 ad b2 5f bf b7 70 d0 3e 69 43 96 bf f2 ba 85 bf
       -0.8738201 0.40710995 -1.1739322 -1.0447676
000040 f5 d1 07 bf aa 5c 22 bf 63 9f 4c 3f f8 60 a3 3e
       -0.53054744 -0.63422644 0.79930705 0.3190992
000050 78 44 92 bf c0 76 83 bb ca c9 16 be 81 ef c7 3d
       -1.1427145 -0.004011959 -0.14725414 0.097624786
000060 f0 0e 75 bf 4f 79 f2 3e d7 2d e7 bc 60 68 2b 3f
       -0.9572592 0.47358176 -0.0282201 0.6695614
000070 7e f0 3f 3e 8e 08 65 bf 47 4c 3d bf ce 08 81 3f
       0.18744084 -0.8946618 -0.73944515 1.0080812
000080 3a 78 0a bf f6 ce 51 3e ae 94 57 3e 10 15 59 3e
       -0.540897 0.20489106 0.2105281 0.21199441
000090 92 48 8c 3f a3 d1 e9 3e 3c cf 28 3e ca fc 74 3f
       1.0959647 0.45667753 0.16485304 0.95698225
0000a0 b1 4b 86 be a6 b5 64 be 9b 18 e2 bf 58 8a f2 bf
       -0.26229623 -0.22334918 -1.7663759 -1.8948469
0000b0 40 8c 99 be 1a 1a 85 3f 3b 90 ac be 55 17 91 3d
       -0.29989815 1.039859 -0.3370379 0.07084528
0000c0 c9 1c 93 bf a5 d1 ae bf 85 75 90 3f 59 be f3 bf
       -1.149316 -1.3657728 1.1285864 -1.9042464
0000d0 31 59 6f be 5d ea f2 3e 96 79 80 3e a3 4f 9f bf
       -0.23373868 0.4744443 0.25092763 -1.2446178
0000e0 7a 8a c3 3e 0c f5 39 bf 9b 14 79 bf d4 c5 31 3f
       0.38191587 -0.72639537 -0.97297066 0.69442487
0000f0 c4 9d 6a 3d 17 37 58 be 15 4c 38 3f 96 a6 4b bf
       0.057279363 -0.21114765 0.7199109 -0.79551065
000100 2a 59 bd bf 70 d0 21 3f 0d 86 30 bf 02 81 12 40
       -1.4792836 0.63208675 -0.68954545 2.289124
000110 ae 74 86 3f 70 d1 aa be 28 f4 7e 3f 66 e4 ff be
       1.0504358 -0.33362913 0.995913 -0.49978942
000120 aa 31 8c 3e f3 ec 9d 3c 62 44 76 3e d9 d6 93 be
       0.2738164 0.019278025 0.24049523 -0.28874853
000130 b9 a2 8f bf 67 de 19 be 8e 73 70 bf 52 69 0d bf
       -1.1221534 -0.15026246 -0.9392632 -0.5523883
000140 6f 87 17 3e da c4 82 bf 00 43 a1 3c 0b cc 8a be
       0.14797758 -1.0216324 0.019685268 -0.27108797
000150 55 a8 f2 bf 26 2b 07 3e 50 7c 28 bd 4d 02 0e bd
       -1.8957621 0.13200054 -0.04113418 -0.034670163
000160 84 b3 f0 3d 80 b9 80 bf ec 1d 06 3f e3 07 cc bc
       0.1175299 -1.005661 0.5238941 -0.024906104
000170 23 d9 47 3e 8b 04 2e 3e b5 4c 8d bf 28 13 ae 3e
       0.19516425 0.1699392 -1.1039034 0.3399899
000180 c8 60 cd bf 66 82 8f bf 0f 9c 26 be 2f ba 15 bc
       -1.604516 -1.121167 -0.16270469 -0.009138628
000190 c1 ce 37 3f fc 80 d0 bd db cd 1f be 06 ab ac 3e
       0.71799856 -0.10180852 -0.15605871 0.3372423
0001a0 01 8e de bd e7 9b 5e bd 6a 3f d7 bf c5 d4 5f be
       -0.10866929 -0.0543479 -1.6816227 -0.21858509
0001b0 2e cc 96 bf ec f8 b6 bf 12 8a 55 bf 51 8a 08 c0
       -1.1781061 -1.4294715 -0.83413804 -2.1334422
0001c0 e6 ea aa 3e df a8 78 3f 66 8f 15 3f 93 53 bb 3d
       0.33382338 0.97132677 0.58421934 0.091468
0001d0 e0 98 1d 3f 34 e3 55 be fc f8 d8 bd 15 df fc 3b
       0.61561394 -0.20887452 -0.10594365 0.007717023
0001e0 e4 8f 05 3e 4f 32 82 bf 55 b5 bd 3e 36 64 59 3f
       0.13043171 -1.0171603 0.37052408 0.84918535
0001f0 9e 5f 06 bf 8c 57 1a 3f 9e a4 88 bf 94 af a4 bf
       -0.5248965 0.60289836 -1.0675237 -1.2866082

gnn_node.virtualnode_embedding.weight f4 [1, 128]
000000 39 08 1d bf 1c 88 34 bf a5 5c c3 bd 66 c4 2e be
       -0.6134067 -0.70520186 -0.09539155 -0.17067108
000010 1e c0 31 bf 68 91 a1 bd ac 77 13 bf fa c4 24 bf
       -0.6943377 -0.07889062 -0.5760448 -0.6436306
000020 80 8f 63 bf 69 bd 4b 3b 29 64 1e be 12 19 d2 be
       -0.8889084 0.003108824 -0.15467896 -0.41034752
000030 b2 05 88 be c1 91 6e bf 02 e6 36 be 76 78 6d bd
       -0.26566845 -0.9319115 -0.17861179 -0.05797621
000040 80 82 38 be 5f d5 e9 be 39 2f 05 bf 9a d8 d0 be
       -0.18018532 -0.45670602 -0.5202518 -0.40790254
000050 ca 79 76 be 26 70 01 be 2b 4a 8c be 77 0a 02 bf
       -0.24069896 -0.12640437 -0.27400336 -0.5079722
000060 83 67 68 bd f5 23 66 bd 68 0b d1 be e6 6e 76 bf
       -0.05673934 -0.056186635 -0.40829015 -0.9626297
000070 09 d0 22 bf 84 44 43 be a0 e9 94 be c9 37 5c bf
       -0.63598686 -0.19069105 -0.29084492 -0.8602262
000080 12 f2 77 be 24 59 2b bf 20 af 01 bf fe 4f 85 be
       -0.24213436 -0.6693289 -0.50657845 -0.26037592
000090 36 e9 4d bf 75 c6 d1 be e1 ff a4 be ab a3 0e bf
       -0.80433977 -0.40971723 -0.3222647 -0.5571849
0000a0 7e 85 45 3d 4d ca 18 be e0 f5 9b bd 3e 95 70 bf
       0.04822301 -0.14920922 -0.07615256 -0.93977726
0000b0 b4 4b 29 bf 5a 17 cb be a3 60 d8 be 19 6e 0b bf
       -0.6613114 -0.39666253 -0.42261228 -0.5446487
0000c0 26 07 b6 be a4 e8 26 3e b5 4b 44 bf ad 81 af bd
       -0.3555233 0.16299683 -0.7667802 -0.085696556
0000d0 cc 24 88 bd a4 98 2a bf 2d 72 c6 be e9 bf 38 be
       -0.066476434 -0.6663916 -0.38758984 -0.18041958
0000e0 26 27 e3 be 75 3b 03 bf b4 60 93 be 0d d6 49 bf
       -0.44365805 -0.512626 -0.28784716 -0.7884224
0000f0 ee c2 30 be 7a 7b 05 bf cd 7c 91 be 86 54 68 be
       -0.1726186 -0.52141535 -0.28415528 -0.22688493
000100 07 99 85 bf 93 19 24 bf 18 35 81 be a2 9e 69 bf
       -1.0437325 -0.64101523 -0.2523582 -0.9125768
000110 30 44 a2 be 26 c5 22 bc 2b 9b 36 bf d2 27 71 be
       -0.31692648 -0.009934699 -0.7133052 -0.23550346
000120 aa 2b 69 be be 3b 9d bd 20 d2 12 bf 3a 11 54 be
       -0.22770563 -0.076774105 -0.57351875 -0.20709696
000130 4b d0 96 be 6f b8 c2 be 86 29 53 be 3b 16 ae 3d
       -0.2945579 -0.38031337 -0.20621309 0.08500334
000140 5f 04 02 bf fe e7 02 be 66 4b d2 be 36 bf 85 be
       -0.5078792 -0.1278381 -0.4107315 -0.26122445
000150 c8 a6 91 be 79 d6 ce be 16 cd 7d be dd d6 a1 be
       -0.28447556 -0.40398005 -0.24785265 -0.3160924
000160 1f 84 ba be d8 98 07 be 5d 73 70 be c2 67 b7 be
       -0.36428925 -0.13241899 -0.23481508 -0.35821348
000170 d7 6c f3 be bb e4 ca be 45 d2 cb be 69 24 a5 3c
       -0.47543976 -0.39627632 -0.3980886 0.020158963
000180 e1 38 82 bd df 69 b7 be ae 04 ae be 1f 07 9e be
       -0.06358505 -0.3582296 -0.33987945 -0.30864808
000190 17 ba c0 be 9d b7 35 3d 2a 94 c5 be 49 65 4e bf
       -0.37641975 0.04436456 -0.38589603 -0.806233
0001a0 23 b6 a7 be 6f 3a 60 bf ec cc b4 3e 1e f8 7b be
       -0.32756147 -0.8758916 0.35312593 -0.24606368
0001b0 86 9c 7d bd 60 63 65 be ae 8a 76 be 3e 7a ed 3b
       -0.06191685 -0.2240119 -0.2407634 0.0072472384
0001c0 6e 41 15 bf ce 49 09 bf 06 10 1a bf 3a 25 73 bf
       -0.5830296 -0.5362824 -0.601807 -0.9497868
0001d0 3d 5e 26 bf f4 92 b7 3d e1 52 e4 be c8 b5 ae be
       -0.64987546 0.08963576 -0.44594482 -0.34123063
0001e0 9e bd a0 be b7 1c dc be 60 9f d5 bd ff bb 12 be
       -0.31394666 -0.42990658 -0.10430789 -0.14329527
0001f0 88 4a d0 be 48 f0 fa be 76 6b 5e be ad 15 96 bd
       -0.40681863 -0.49011445 -0.2172068 -0.07328353

gnn_node.convs.0.mlp.0.weight f4 [256, 128]
000000 7a 07 2f bd 7c 78 fe be b7 4e ed be cf 1e 63 bf
       -0.04273174 -0.49701297 -0.46349117 -0.88718885
000010 a1 a5 ae bd a7 c6 69 be f1 1d 34 bf 97 4a 4d be
       -0.08527685 -0.22829686 -0.70358187 -0.20047985
000020 1f 08 a0 3c 6e 80 97 bf e1 73 02 bd 47 9d ca be
       0.019535122 -1.1836069 -0.031848792 -0.39573118
000030 1e 30 3f 3c e7 af f2 3b 76 2a d5 3d 42 05 66 bc
       0.011669187 0.007406223 0.104084894 -0.0140393395
000040 ae 4b 4b bd bb 2c e1 be bb 14 43 be b6 90 d1 be
       -0.04963272 -0.4397944 -0.19050877 -0.40930718
000050 76 23 4f bd 0a a4 4e 3e 54 1f 9f be b8 2c fb bd
       -0.050570928 0.20179763 -0.3107859 -0.12264389
000060 0d 6a cf 3e 6e bb 21 3f 0c 9d 3f 3e 01 96 2c bc
       0.40510598 0.6317662 0.18712252 -0.010533811
000070 e6 7a bf bd 31 f1 2f 3e 70 9c 09 3f b6 06 5b be
       -0.09349613 0.17181851 0.5375433 -0.21389279
000080 6a 81 fd bf a4 96 4b 3d fc f7 8d be 5f 1c 24 be
       -1.9805119 0.04970421 -0.2772826 -0.16026448
000090 ae f8 a6 bb 97 27 18 bf ad 5a 68 be fe bb 75 3c
       -0.005095563 -0.5943541 -0.2269084 0.014998434
0000a0 02 50 0f 3f 19 9c c7 bf 2f 0a be bd d6 57 0d 3d
       0.5598146 -1.5594512 -0.09279286 0.034507595
0000b0 32 3a 9b 3d e8 cf 00 3f ef 12 8d 3d 6a d8 84 3f
       0.07579459 0.5031724 0.06888377 1.0378544
0000c0 5c 51 6c be 22 39 11 b9 a8 cd 6c bc 09 db cf 3c
       -0.23077911 -0.00013849561 -0.014453329 0.025372999
0000d0 11 5c b1 bc eb 74 0d 3c af 0c 3c be c0 a7 f3 bc
       -0.021650346 0.008633832 -0.18364213 -0.029743075
0000e0 09 9b ed 3d 52 38 2f bd 52 e2 87 bc fc 63 78 be
       0.11601836 -0.04277832 -0.01658741 -0.24256891
0000f0 df 98 42 3f 1c d8 c6 bd 85 65 cc 3e d6 9d 23 be
       0.7601451 -0.09709188 0.39921203 -0.15978178
000100 5a ab 66 3d 26 ad 02 bf 39 19 85 bd 12 07 78 bd
       0.056315757 -0.51045454 -0.064989515 -0.060553618
000110 a7 75 cf 3e 69 ba 9f be 85 26 a3 be f8 61 24 3e
       0.4051945 -0.31196907 -0.31865326 0.16052997
000120 5b f7 1c be 06 d3 c9 bd 6e 01 00 bd 9c ce ec 3e
       -0.15328734 -0.09854703 -0.031251363 0.4625138
000130 34 bd 29 bd 48 19 8f 3d 8e aa 05 bb fb 85 4a bf
       -0.041440204 0.06987244 -0.0020395848 -0.7911069
000140 d9 75 b2 be d9 3d 79 bc 27 89 52 3d 7f c0 20 3f
       -0.34855536 -0.0152125 0.05140033 0.62793726
000150 af b8 a0 bd fb 3c 1f bf 49 28 0f c0 55 f5 46 bf
       -0.078477256 -0.62202424 -2.2368338 -0.77718097
000160 ba a3 a9 3e a2 32 0a 3e 7d ac 9a be 30 14 a4 be
       0.33132726 0.13495877 -0.30209723 -0.32046652
000170 d1 a3 8c be 5b 2d d3 be 06 f4 bd 3b f4 af 4e 3e
       -0.27468732 -0.4124554 0.005796912 0.20184308
000180 f8 ba 18 c0 d2 1b 83 bc ba f6 ac bf 39 bc d5 be
       -2.3864117 -0.016004477 -1.3512795 -0.41745165
000190 5d 53 10 bc b2 12 eb bd a9 9b 31 bf 6a bb f0 be
       -0.008808938 -0.11478175 -0.69378144 -0.47017986
0001a0 5e 9f 46 be 6a 29 8c be c4 29 b5 3c cb 56 96 3e
       -0.19396731 -0.27375346 0.022114642 0.29363093
0001b0 19 08 02 3e 21 29 42 be c6 7d 3b 3f e6 85 83 3b
       0.12698402 -0.18961002 0.7323879 0.0040137647
0001c0 ee 88 d2 be 12 c3 64 be 3a 58 75 be 74 74 82 be
       -0.41120094 -0.22340038 -0.23959437 -0.25479472
0001d0 21 54 db bd 10 56 45 bd 8e f6 3a bf 10 70 05 3f
       -0.10709406 -0.04817778 -0.7303246 0.5212412
0001e0 4d c8 34 3f 6d 43 2c be c4 38 73 be 02 9f 82 bf
       0.70618135 -0.16822596 -0.23752123 -1.0204775
0001f0 9d 8e 9a 3e c8 b6 4d 3c 3b a5 ce 3b fc b1 1a 3c
       0.3018693 0.0125557855 0.006306318 0.009441849
000200 d8 01 d6 3d 8f 0f 44 3e fc bc d3 3d 7f c9 0e 3f
       0.104495704 0.1914656 0.1033878 0.5577621
000210 5b 88 a9 3d 92 76 ba 3e a6 86 1b 3e 9c 4f 1b 3e
       0.08277961 0.36418587 0.15188083 0.15167087
000220 ce 55 05 3e ef 15 18 3e e7 e3 0b bd f8 a6 26 3e
       0.13021013 0.14852117 -0.03415289 0.16274631
000230 46 6b 67 bd 3d 79 80 bd fa 2c 2d bc 07 88 0c 3d
       -0.05649879 -0.06273124 -0.010569805 0.034309413
000240 45 3f 07 3d 8c f5 c6 bb a7 2a 01 3e d1 78 c5 3c
       0.033019323 -0.006071752 0.12613927 0.024105461
000250 5f 46 97 3b 8b 89 f2 3d fe f3 30 be 25 e1 32 bc
       0.004616543 0.118426405 -0.17280576 -0.010917936
000260 98 2e 4f 3c b8 ee 03 3f 1d 36 e3 3d 91 1f 1f 3e
       0.012645386 0.5153613 0.11094306 0.15539385
000270 f0 37 3e 3e 80 1c d4 bb 05 ee 69 bd 35 3d 50 3d
       0.18576026 -0.006473124 -0.05711176 0.05083962
000280 84 be db be 09 03 7d 3e 9e b6 ad 3b 9d 4a 61 3d
       -0.4291879 0.24708189 0.0053013107 0.055002797
000290 17 d7 bb 3d 9d c9 3a 3e 5e d2 50 3e 06 c3 07 3e
       0.091718845 0.18240972 0.20392749 0.1325799
0002a0 6e fb 74 be 04 eb 9d 3d da b9 1d 3c 82 43 01 3d
       -0.23924038 0.07710841 0.00962683 0.03155852
0002b0 c9 e0 28 3e 55 cb 7f 3d ef ed 48 3e 9f 39 40 3e
       0.16491999 0.062449772 0.19622014 0.1877198
0002c0 6b 31 eb bd 2e 09 8d bd 2f 1d 88 3c 90 c9 4c bd
       -0.11484035 -0.068865165 0.016615478 -0.049996912
0002d0 7f be d6 3e 03 69 9f bd 75 e6 8d 3d 20 fa 9f 3d
       0.41942212 -0.07783701 0.06928722 0.078113794
0002e0 c2 82 bc 3d 1a bf 17 bb 47 8d 8d 3d ae ef 35 3e
       0.092046276 -0.0023154677 0.06911712 0.17767212
0002f0 7c e9 20 bf 2a 12 91 bd dd 1f c8 bd a7 37 56 3d
       -0.6285627 -0.07083543 -0.097717024 0.052299168
000300 83 48 0d 3d 2d 63 32 3e b8 31 51 bd 22 88 33 3e
       0.03449298 0.17420645 -0.051072806 0.175324
000310 67 eb 20 3e aa 0a e9 3e 22 f6 32 3d 8e 52 39 bf
       0.15714799 0.4551595 0.04369176 -0.72391593
000320 e1 1d cc bc df 2c d5 3e 38 4f 6c 3d 5b a6 e0 bd
       -0.024916591 0.41635796 0.057692736 -0.1096923
000330 06 88 80 3d b9 05 80 3e 9d 34 10 bf be 19 f6 bd
       0.062759444 0.25004366 -0.5633028 -0.12016629
000340 95 b5 92 3e 49 7f f7 3e 80 9b 20 3e dd 0b 61 3f
       0.2865416 0.48339298 0.15684319 0.87908727
000350 69 1c 90 bd 55 cd b5 bd b8 4f 8e 3d 3b 45 6f 3e
       -0.07036669 -0.088770546 0.06948799 0.23366253
000360 2d 68 71 3d af 25 cd bd f2 8f 08 3e 0c 8d 07 3f
       0.05893724 -0.10016953 0.13336161 0.52949595
000370 db c3 53 be e8 90 4e 3e da a1 a3 bd 80 d8 b0 3d
       -0.20680182 0.20172465 -0.07989855 0.08635044
000380 28 44 b7 be ab d0 9f 3d 90 05 e6 3d d2 62 58 bb
       -0.35794187 0.07803472 0.1123153 -0.0033017886
000390 d0 a4 da bb a1 07 10 3f 25 04 ff 3d e5 0f b9 3d
       -0.006672479 0.5626164 0.124519624 0.09036235
0003a0 54 c4 ee 3d fa b2 5c 3e 27 c8 1e 3d ca 55 f8 3e
       0.1165854 0.21552649 0.0387651 0.48502952
0003b0 29 6d 8c bd 7b 0f 46 3d 1e a8 82 be 85 51 44 3d
       -0.06856758 0.048354607 -0.25518888 0.047929306
0003c0 80 fd 6e 3e f8 98 5b bc 38 ba 38 3e ee 36 a7 3c
       0.2333889 -0.01340317 0.18039787 0.020411935
0003d0 43 4e cb 3d 43 3a 00 3f 69 ae 3f 3e 94 62 6e 3e
       0.099270366 0.500889 0.18718876 0.23279792
0003e0 35 c2 b9 3d bb 4a c8 be 1f a7 1b 3e 09 6e 97 3d
       0.09070245 -0.39119515 0.1520047 0.073940344
0003f0 a4 45 11 3e 40 bb d6 3d b9 33 0f 3d ac b8 0c bc
       0.14186722 0.10484934 0.034961436 -0.008588951

gnn_node.convs.0.mlp.0.bias f4 [256]
000000 8f 8a a7 bc c0 87 92 3d 8a 0f 7b bd 6d 11 61 bc
       -0.020451812 0.071547985 -0.061294116 -0.013737065
000010 70 ed ec bc d7 4a 39 3d c8 9d 1f 3c 07 a8 71 3c
       -0.028921813 0.04523739 0.009742208 0.0147495335
000020 4b a1 88 bd ed 1e 8c bc 90 a2 8c bd 05 56 3c bd
       -0.06671389 -0.01710459 -0.06866944 -0.045980472
000030 3a 3c b8 bd b1 89 34 3d a3 80 e7 bc 0e 77 93 bd
       -0.08995862 0.044076625 -0.028259581 -0.07200442
000040 45 42 9e 3c 75 a1 49 3d 24 b9 3f bd 83 f3 1c 3b
       0.01931871 0.049226243 -0.046807423 0.0023948855
000050 45 59 b0 3d 6d 30 15 3d f7 ee 2b bd 94 59 8c 3d
       0.08610777 0.036423136 -0.04197594 0.06853023
000060 87 f8 5e bc 33 6e 1d bd c4 f5 3f 3d 42 7f b3 3d
       -0.013609058 -0.038435172 0.04686524 0.08764507
000070 5b 4f d6 bc a3 b1 e1 3c d5 bc 7d 3d 20 0b 96 bd
       -0.026160887 0.027550524 0.061947662 -0.07326341
000080 75 f2 06 bd f0 e5 56 bd 3a 14 f2 3c e8 40 f7 38
       -0.03294607 -0.05246538 0.02955066 0.000117899675
000090 1a bf 58 3d 69 81 46 bc b5 86 9c bd ff e8 62 bd
       0.052916624 -0.012115815 -0.07642881 -0.055397984
0000a0 90 0e 05 3d c7 3d f3 3c 34 b4 04 3d 95 11 77 3c
       0.03248459 0.029692544 0.032398418 0.0150798755
0000b0 af ba 17 bd 35 ad b1 bd c2 70 97 bd 9e 74 30 bd
       -0.03704327 -0.08675615 -0.07394554 -0.043079965
0000c0 b5 f6 9a 3d f5 9c 82 bd 3a 3a 69 3d ab 3d 1c bc
       0.07566587 -0.063775934 0.056940295 -0.009536187
0000d0 70 66 05 3d 72 95 82 3d 80 63 74 3d e7 05 39 3d
       0.032568395 0.06376161 0.059665203 0.045171645
0000e0 8b 8a 92 3d fb 21 bc bc 76 8b 91 bc 50 81 0a bd
       0.07155331 -0.022965422 -0.017766695 -0.03381473
0000f0 24 69 ba 3c 1e e5 b8 3c 02 32 bc bd 52 5f ce 3c
       0.022755213 0.02257019 -0.09189226 0.025191937
000100 15 33 7e 3d 01 91 48 bd 5b 26 d3 3c d1 6f 05 3d
       0.062060434 -0.04896641 0.025775125 0.03257734
000110 e8 1e 82 bd 30 af 8a 3b c9 f0 a3 3d 0a ee 26 3c
       -0.06353551 0.0042323098 0.080049105 0.010188589
000120 98 dc 8f 3d bf 39 e7 bc e2 12 47 3b ac 99 73 3d
       0.07024497 -0.028225778 0.0030376245 0.059472725
000130 ad fd a9 bd b6 9e e8 3c 0b 8e c5 bc 96 7e 8a bd
       -0.08300338 0.028395992 -0.024115583 -0.067624256
000140 09 c2 b9 3d 79 60 50 3d 7f cb 80 bc 38 37 99 3d
       0.090702124 0.050873253 -0.015722034 0.07481235
000150 af 4e c2 3c f1 23 7a bd f3 d7 68 3c 8a 0b 3d bd
       0.02371916 -0.061069433 0.014211643 -0.046153583
000160 74 31 fd 3c 0e c7 31 3d 9c 13 89 3d 8a 17 76 3d
       0.03090737 0.043402724 0.06693193 0.060081042
000170 89 23 87 3b d6 09 11 bd 9f f2 eb 3c 37 1a b1 3d
       0.004124109 -0.03540977 0.028802214 0.08647578
000180 0b f9 aa 3d f5 d7 a1 3d f8 8c 71 3d 17 02 67 bd
       0.083482824 0.07902519 0.05897233 -0.056398477
000190 a9 e1 a3 3d c6 be 38 bd 76 93 1d 3c fa ef c5 3c
       0.08002026 -0.04510381 0.009617677 0.024162281
0001a0 a2 dc f0 39 31 89 cd 3a 70 26 a4 bd 45 4d 7d bc
       0.0004594075 0.0015681145 -0.08015144 -0.015460317
0001b0 8e 80 46 3d 7b 1b 0b 3d 0b f3 a5 3c 27 cb 88 bb
       0.048462443 0.033961754 0.020257493 -0.0041746083
0001c0 eb 18 9c 3b c6 26 28 3b a0 12 3b bd da c0 71 3d
       0.0047637126 0.0025657876 -0.04567206 0.05902181
0001d0 91 6e f5 3c 4a 99 bd 3d 98 50 42 3c a1 70 48 bd
       0.029959949 0.09257753 0.011860035 -0.048935536
0001e0 60 73 6e 3d 50 b0 74 3d c4 07 0d bd a8 b5 02 3d
       0.0582155 0.059738457 -0.034431234 0.031911522
0001f0 41 96 37 3b 51 9d 35 3d ce 78 e5 3c bb 85 3e bd
       0.0028013142 0.04433948 0.028011706 -0.046514254
000200 f9 d7 ea ba 3a 44 75 bd 3f a6 a9 bc ed 91 27 3d
       -0.0017917148 -0.05987952 -0.020709155 0.04091065
000210 52 09 88 bd 0a e5 b1 bd d5 60 a1 3c 17 98 d8 3c
       -0.06642403 -0.08686264 0.019699493 0.02643971
000220 70 8c 6e 3d ca e4 a4 3c 86 5f aa bd e0 98 85 bd
       0.0582394 0.020128626 -0.08319001 -0.06523299
000230 c1 3d 6b bd 81 fb 8a bd a2 40 aa bc c1 bb 71 3d
       -0.05743194 -0.06786252 -0.020782772 0.059016947
000240 00 cc 0c 3d 33 b0 a2 3d a7 1a 24 bd 22 17 dd bb
       0.034374237 0.079437636 -0.04006448 -0.0067471424
000250 50 68 80 bc b0 45 7c 3c 4b 10 2c bd 55 7c 88 3d
       -0.01567474 0.015397474 -0.042007726 0.066643395
000260 36 81 3b bd 4f ae 4d bc ca a8 1a ba be a0 ad bd
       -0.045777522 -0.012553765 -0.00058997853 -0.08477925
000270 05 be 86 bd 98 a6 3d 3d 52 55 76 bd c4 e8 6c bd
       -0.06579212 0.046301454 -0.06013996 -0.05783917
000280 7c 38 5b 3d e9 05 04 3d 0f b1 0a 3b 79 90 79 bb
       0.053520665 0.0322322 0.0021162664 -0.0038080497
000290 f7 f2 d6 3c 48 2e 6c 3d 75 f2 b4 bd e3 1a 1a 3c
       0.026238902 0.057661325 -0.088353075 0.009405824
0002a0 51 47 6f bd 08 f0 81 3d a3 b4 8c 3c fa fa d3 bc
       -0.058417622 0.063446105 0.017175978 -0.02587651
0002b0 aa 2c 1c 3d d7 2d 95 3d 54 e5 91 3b a7 5e a9 3d
       0.038128532 0.07284134 0.004452387 0.082700066
0002c0 14 d3 9d 3c b1 7b 05 3d ae fa ad bd 15 32 93 3d
       0.019265689 0.032588664 -0.08495079 0.07187287
0002d0 c6 03 0b bd e3 38 ef 3c 8c 5a 5a 3d 01 c5 39 bc
       -0.033939146 0.02920193 0.05330901 -0.011338473
0002e0 d3 cf 51 bd b1 8d 8a 3d da dd 86 3d 98 3a 3d bc
       -0.051223587 0.06765307 0.065852836 -0.011549614
0002f0 37 b9 d9 bb 05 5c 1f bc 60 d5 de bc c5 61 a1 bd
       -0.006644394 -0.009726529 -0.027201355 -0.07879976
000300 40 71 88 bd 88 1d d4 bc 1d 64 9e 3d 28 69 be ba
       -0.06662226 -0.025892988 0.07733939 -0.0014527189
000310 8f 23 cb 3c 65 1c 87 3d c9 92 d7 bb 6f 3e a9 3a
       0.02479723 0.06597213 -0.0065787775 0.0012912283
000320 a6 7a e0 3c c1 9c 15 3d af 5e cf ba d9 f3 48 bd
       0.027402233 0.036526445 -0.0015821065 -0.049060676
000330 86 83 86 bd fa 4e 61 bd fc 2f 84 3d 44 61 28 3d
       -0.06568055 -0.05500696 0.06454465 0.041108385
000340 77 ed 88 bd eb bc 24 bd 07 89 81 bc 97 2d 6d 3d
       -0.06685918 -0.04021923 -0.01581241 0.057904806
000350 0b 8c 1f 3c 39 d7 3f bd a7 dd 95 bd 19 18 2f bd
       0.009737979 -0.04683611 -0.073176675 -0.04274759
000360 4c 05 65 bd 0d c2 2e 3d f0 72 34 3c 91 2c 26 bd
       -0.055913255 0.04266553 0.011013731 -0.040569846
000370 e0 06 36 bd 1a d4 89 3d d9 b8 a0 3d ee 85 ad bd
       -0.04444015 0.06729908 0.07847757 -0.08472811
000380 63 40 67 3d 9e 27 1e 3c 0e 7b ab 3d 83 88 ae bd
       0.05645789 0.009653 0.0837308 -0.08522131
000390 c2 c2 10 3d 2f 4a ec 3c 55 90 17 bc 12 02 9a bd
       0.035341986 0.028843967 -0.00925072 -0.07519926
0003a0 5a 1b 56 bd 30 32 b1 3c 61 55 53 bd a8 56 c0 3c
       -0.05227218 0.021630377 -0.051595096 0.02347882
0003b0 c7 7f 9e 3d 6b 50 a3 bc c7 7e 76 3d d5 7f 74 bc
       0.07739215 -0.019935807 0.060179498 -0.014923056
0003c0 b6 5c 4b bd b0 ce a5 3d 2b ef aa bb fb 1f a8 39
       -0.049648963 0.08096063 -0.0052164993 0.00032067284
0003d0 15 cf 82 bc 6e 1e f5 3c 71 4d b2 3c 6b 91 ad bd
       -0.015967885 0.029921737 0.021765443 -0.08475002
0003e0 d3 35 af bd 31 b3 02 3d b9 83 02 3d dc 08 8c bd
       -0.08555188 0.03190917 0.0318639 -0.06837627
0003f0 cf 71 3d 3d f5 d0 0b 3d 56 b3 8e bd 24 2f 13 3c
       0.046251114 0.034134824 -0.06967799 0.008983407

gnn_node.convs.0.mlp.1.weight f4 [256]
000000 23 5a d5 3f 96 4b bd 3b f0 3a 85 3f 3e 6d 3f 3f
       1.6668133 0.005776833 1.0408611 0.74776065
000010 b4 48 c8 3e 66 c4 44 3f eb a0 c6 3f 9c 66 be 3f
       0.39117968 0.7686218 1.5517858 1.4875064
000020 38 c6 a0 3f b1 f7 a9 3f f7 63 a8 3f 41 fd 63 3b
       1.2560492 1.3278714 1.3155507 0.0034788402
000030 6a d0 81 3f fe 6b e9 3e 80 04 da 3e cb 5b 7c 3f
       1.0141728 0.45590204 0.42581558 0.98577565
000040 cf 26 28 3f 29 65 dd 3f bd 86 dc 3f ce 34 88 3f
       0.6568422 1.7296497 1.7228619 1.0641115
000050 bb ec 57 3f c4 6a cc 3f bc 81 2f 3e 96 0d 56 3e
       0.843456 1.5970082 0.17139333 0.2090362
000060 06 ba 80 3f 39 df b5 3f e7 69 95 3f ad f5 9e 3e
       1.005677 1.4208747 1.1672944 0.3104681
000070 ad 4d c1 3f 75 89 97 3f 3a 50 a4 3f e4 41 a4 3f
       1.510183 1.1838824 1.2836983 1.2832608
000080 96 c1 f6 3f d7 24 c2 3f 80 3b dc 3f 37 07 cf bc
       1.9277828 1.5167493 1.7205658 -0.025271995
000090 e3 f9 71 3e 46 d4 8b 3e 6c fd ad 3f dd ba 9d 3f
       0.2363048 0.2731039 1.3592963 1.2322651
0000a0 16 1f 83 3f a3 9f c1 3f 41 b1 3c 3f 9a 3e db 3f
       1.0243862 1.5126842 0.7370797 1.712848
0000b0 c2 cd 99 3f a8 c2 f2 3f 09 28 7e 3f 70 34 81 3f
       1.2015917 1.8965654 0.9927984 1.0094128
0000c0 cf 53 d9 3f b0 2d 1a 3f a2 74 bb 3f 25 ef 0c 40
       1.6978701 0.60225964 1.4644969 2.2020962
0000d0 89 ee cc 3f 29 55 79 3f f1 59 62 ba 06 ca 94 3f
       1.6010295 0.9739557 -0.0008634618 1.1624153
0000e0 3f 5e 31 3f 9f ea 8f 3f cc da 32 3f 0b 93 c2 3f
       0.69284433 1.1243476 0.6986511 1.5201124
0000f0 05 7c c2 3f ef 60 9a 3f 1b a4 bf 3f 11 67 c2 3f
       1.5194098 1.2060832 1.4971956 1.5187703
000100 8b 14 0c 40 32 40 6b 3f 99 2b b0 3f 02 e6 b9 3f
       2.1887538 0.9189483 1.3763305 1.4523318
000110 49 0d 9a 3f 5f 9d 8b 3f e1 35 bc 3f 24 e0 43 3f
       1.2035304 1.0907401 1.4703943 0.76513886
000120 33 cd 8f 3f a6 2c 90 3f 78 45 89 3f f7 41 a0 bb
       1.1234497 1.1263626 1.0724325 -0.004890676
000130 9f e7 a5 3f fd a8 bb 3f 91 2c 93 3f 25 69 c6 3f
       1.296131 1.4660946 1.1497976 1.5500838
000140 15 b0 c3 3f a9 e8 96 3e 0f 5e 3e 3f 63 80 a2 3f
       1.5288111 0.2947438 0.7436227 1.269543
000150 02 30 da 3f 4c 09 d3 3e 87 5b 82 3f 66 f5 f7 3f
       1.7045901 0.4121803 1.0184182 1.9371765
000160 5e 8b 76 3f 35 24 e3 3f f1 b5 85 3f ae 0c ce 3e
       0.9630641 1.7745425 1.0446149 0.4024405
000170 84 e9 95 3f 6d 5b 9e 3f 48 79 5d 3f cb bb b7 3e
       1.1711888 1.2371651 0.86513186 0.35885462
000180 06 b1 90 3e a2 5f de 3f 22 59 ab 3f 89 c2 bb 3e
       0.28260058 1.7372935 1.3386576 0.36671856
000190 aa 9e 90 3f 8a 63 81 3f af e5 87 3f fb 63 9e 3e
       1.129842 1.0108502 1.0616969 0.30935654
0001a0 74 1a c8 3f b8 a1 7e 3e 5c 0a bc 3f 21 4b ad 3f
       1.5633073 0.24866378 1.4690661 1.3538553
0001b0 aa ce 80 3f 40 9f 47 3f d3 a3 bc 3e af 67 a4 3f
       1.0063069 0.7797737 0.36843738 1.2844142
0001c0 c0 22 5a 3f 7b f6 fe 3e fe 61 4c 3e b4 98 8d 3f
       0.85209274 0.49797425 0.19959256 1.1062226
0001d0 0e 1f bb 3f c5 1b 90 3f e1 c0 cd 3f 4f 19 90 3f
       1.4618852 1.1258475 1.6074487 1.1257724
0001e0 34 4c 33 3d 66 43 fa 38 aa 26 ee 3e 60 47 97 3e
       0.043773845 0.00011933483 0.46513873 0.29546642
0001f0 6c 1e d3 3f 18 c4 c0 3f 8a b9 be 3f 5e c0 4f 3c
       1.6493659 1.5059843 1.4900372 0.012680141
000200 f4 ff 87 3d 75 3a 63 3f 10 58 ed 3f 84 cf b8 3f
       0.06640616 0.88761073 1.85425 1.4438329
000210 8e 0e 97 bc d6 25 b0 3f 9c a9 9f 3f af 74 8f 3f
       -0.018439557 1.3761547 1.2473636 1.1207484
000220 ff 92 af 3f 65 b0 a7 3f 90 de ef 3d 66 e6 e0 3f
       1.3716735 1.3100706 0.11712372 1.7570312
000230 a0 60 21 3f f3 88 26 3f e2 ad bf 3f f8 9a 24 3f
       0.63038063 0.6505272 1.497494 0.64298964
000240 3f 1f f4 3e 69 30 9c 3f 90 a5 9b 3c 4e a8 d4 3f
       0.4768009 1.2202274 0.018999845 1.6613863
000250 10 a9 80 3f 45 ce 18 3f 54 64 bd 3f 10 26 04 3d
       1.0051594 0.5968974 1.4796243 0.03226286
000260 13 ea a2 3f 9b 8e 9e 3f 94 fc 7f 3f 20 bf 5a 3e
       1.2727684 1.238727 0.9999478 0.21361971
000270 ae 99 b9 3f 45 59 e4 3f 2b 5c 0b 40 9b a7 ca 3f
       1.4500024 1.7839743 2.1775005 1.5832399
000280 e9 e8 d9 3f 18 c8 c3 3f 9b 8f 98 3f 14 5d a1 3f
       1.7024204 1.5295439 1.1918825 1.260653
000290 85 5c 8b 3f eb fe 4d 3f fa 51 5a 3f e6 20 a1 3f
       1.088761 0.804671 0.85281336 1.2588165
0002a0 83 9a 9d 3f bb cf ea 3f c2 e6 4e 3f 6b 4e 2a 3d
       1.2312778 1.8344644 0.8082086 0.04157869
0002b0 60 76 7f 3f 29 3a 3a 3f 4c c4 94 3f 77 9b c7 3f
       0.9979 0.72744995 1.1622405 1.5594319
0002c0 23 05 dd 3f dd 46 ff 3f 36 21 8f 3f 37 5a 11 40
       1.7267193 1.9943501 1.118201 2.2711313
0002d0 60 c6 8c 3f f6 c9 54 3f 19 e0 21 3f 4b 68 fd 3f
       1.0998039 0.8312067 0.6323257 1.9797453
0002e0 f9 aa a4 3f df 32 30 3f 6a 5c b8 3f b9 8e 45 3f
       1.2864677 0.68827623 1.4403203 0.771709
0002f0 3d 8a a7 3f b0 b1 a0 3f f5 8f ab 3b 6f 16 31 3f
       1.3089062 1.2554226 0.005235667 0.69174856
000300 f9 53 a7 3f 96 80 ad 3f f4 d9 4e 3f 43 ab c7 3f
       1.3072501 1.3554866 0.8080132 1.559914
000310 bf df 63 3f 6b a0 11 3f 7f 8f 8d 3f 32 a7 7c 3f
       0.89013284 0.56885403 1.1059417 0.9869262
000320 40 93 16 3f 63 a7 b5 3f 2d 09 e8 3f 1e 40 9f 3f
       0.58818436 1.4191707 1.81278 1.2441442
000330 b0 34 87 3f dc a5 9a 3f f1 1f bd 3f 6b 87 83 3f
       1.0562954 1.2081866 1.4775373 1.0275701
000340 15 02 73 3f 5b 02 cb 3f de 69 91 3d 09 8e c6 3d
       0.9492505 1.5860094 0.07100271 0.0969506
000350 ad 46 75 3b a9 bf b5 3f 4a 1b 4e 3f b3 74 76 3f
       0.003742616 1.4199115 0.8051039 0.9627182
000360 ed 01 8e 3f 7a ab f4 3e be d9 d1 3f e9 c8 da 3f
       1.1094338 0.47787076 1.6394575 1.7092563
000370 a8 2f 10 3f 91 3d b6 3f b5 36 6c 3e 96 dc 35 3f
       0.5632272 1.4237539 0.23067744 0.7103971
000380 43 29 a8 3f 81 07 31 3f 39 89 9e 3f f0 52 8d 3f
       1.3137592 0.69152075 1.2385627 1.1040936
000390 a7 b1 a9 3f 9f 81 92 3f bd 75 b7 3f 4a fa b9 3f
       1.325734 1.1445807 1.4332806 1.4529507
0003a0 88 ef 99 3c b8 d2 ad 3f d7 46 1d 3f 1c f0 cf 3b
       0.018790975 1.3579931 0.6143622 0.006345762
0003b0 cb a4 e2 3f 6f 68 a7 3f 39 01 b5 3e 2b 05 6b 3f
       1.7706541 1.3078746 0.35352495 0.9180476
0003c0 74 30 c7 3f a2 5d a6 3f 16 87 c1 3f 45 8a c1 3f
       1.5561662 1.2997324 1.511935 1.5120322
0003d0 03 36 07 40 3f 1d e9 3f 00 0a 89 3f 68 01 b4 3f
       2.1126716 1.821205 1.0706177 1.4062929
0003e0 44 20 93 3f 28 8a 8b 3f 7b 67 f2 3f 6e 41 30 3f
       1.1494222 1.0901537 1.893783 0.6884984
0003f0 e0 36 7d 3f 7b 81 45 3f 7e 5a 92 3f c9 83 b0 3f
       0.9891186 0.77150697 1.1433866 1.3790218

gnn_node.convs.0.mlp.1.bias f4 [256]
000000 fc 23 e9 be e2 56 8e be 4c be 0d bf 44 20 4e be
       -0.45535266 -0.2780066 -0.55368495 -0.20129496
000010 aa cb 67 bf 76 f5 3a bf 6a 4e 1c bf c1 f0 15 bf
       -0.9054514 -0.73030794 -0.6105715 -0.58570486
000020 f9 f4 10 bd 8e 51 6a 3d 23 51 91 3d e3 1c ba 3e
       -0.035389874 0.057206683 0.07095554 0.36350164
000030 c0 5e 79 be d4 b1 a4 3e e0 e7 14 be 9a 22 10 bf
       -0.2435255 0.32166922 -0.14541578 -0.563028
000040 76 13 82 bd 6c 00 88 bd 4a a4 da be 62 23 e3 be
       -0.06351368 -0.066407055 -0.42703468 -0.44362932
000050 43 a5 b0 be 48 9c 3e bf fb e2 4d 3e ca eb 63 bf
       -0.34501085 -0.74457216 0.20106117 -0.8903166
000060 38 62 0f bf e9 64 f4 be 77 34 f7 be 53 2f f3 3d
       -0.56009245 -0.47733238 -0.48282215 0.11874261
000070 4c f3 d1 be 23 e1 c4 be e0 ec c6 be 75 73 78 be
       -0.41005933 -0.38453016 -0.38852596 -0.24262793
000080 f6 51 88 be d2 99 00 bf d9 56 0c bf 6f b7 cc 3e
       -0.2662503 -0.5023471 -0.5482002 0.399837
000090 c4 68 ae be 00 e7 cc be 09 83 28 bf 50 9d 2e 3e
       -0.34064305 -0.4001999 -0.65824944 0.17052197
0000a0 60 f5 c3 be df a0 82 be 87 59 f4 be 02 ad 0b bf
       -0.38273144 -0.2551336 -0.47724554 -0.54560864
0000b0 db 9a 40 3e 55 22 7e be c3 01 07 bf d9 8e cb be
       0.18809073 -0.24817784 -0.52737063 -0.39757422
0000c0 d6 99 9c be ef 02 72 be 1e 54 b4 be 0f 9d 86 3e
       -0.30586118 -0.23633932 -0.35220426 0.262917
0000d0 3c 56 86 be e2 ee b9 be 9b d2 4a bd 35 16 15 be
       -0.26237667 -0.36315066 -0.049517255 -0.14559253
0000e0 93 a6 84 bf 0d 00 b1 bf 39 11 78 bf 5f 24 83 be
       -1.0363334 -1.382814 -0.9690128 -0.25613686
0000f0 53 33 24 bf b0 93 cc be 8e 57 e8 3e e7 72 0b be
       -0.64140815 -0.39956427 0.453793 -0.1361805
000100 33 a4 66 be e9 60 84 bd 78 38 d0 be f5 e7 bb be
       -0.22523575 -0.06463797 -0.40668082 -0.36700407
000110 f9 db a5 be 85 25 8a be 55 bd db be 57 8e f5 3b
       -0.32394388 -0.2698175 -0.42917886 0.007493775
000120 ad e4 0c bf d2 a1 a0 3e ef 02 16 bf 7d a7 86 be
       -0.5503643 0.3137346 -0.58598226 -0.26299658
000130 60 69 e9 be d6 b9 aa be 29 5c ed be 5b 60 a9 3c
       -0.45588207 -0.33344907 -0.46359375 0.020675829
000140 84 9f 2f bf 80 3f c3 be d5 29 25 be 01 1f f3 be
       -0.68602777 -0.38134384 -0.16129239 -0.47484592
000150 ec 51 07 bf be 1e 45 3d 21 ac 9f be 93 31 3f bf
       -0.5285938 0.04812502 -0.3118601 -0.7468502
000160 a0 95 fe be f0 3b 00 bf 29 73 cd be b4 63 41 bf
       -0.4972353 -0.5009146 -0.40126923 -0.7554276
000170 3c 2b e2 be 02 c9 e2 be 53 93 77 be 99 b3 16 bf
       -0.4417361 -0.44293982 -0.24177293 -0.58867794
000180 c2 bd a3 be e2 14 cc be d3 98 ff be fc 5f b4 be
       -0.3198071 -0.39859682 -0.49921283 -0.3522948
000190 7f bb 77 be 3b 73 ee be 3a d6 8c be 77 30 85 be
       -0.24192618 -0.4657229 -0.27507192 -0.26013538
0001a0 24 4a 0a be 06 e7 5c 3e c3 68 cd be 16 87 60 be
       -0.13504845 0.21572503 -0.4011899 -0.21926531
0001b0 86 d6 77 be 48 b0 7c bf d5 88 4e be b4 3c 34 be
       -0.24202928 -0.98706484 -0.20169385 -0.17601281
0001c0 62 eb 0a 3d 41 f5 91 bf 9a 27 a9 3d 90 ab ee be
       0.033915885 -1.140297 0.082595065 -0.46615267
0001d0 24 0e 12 bf b0 ee 35 3e 7c 31 1f bf b8 5c dd be
       -0.57052827 0.17766833 -0.6218488 -0.432348
0001e0 14 60 03 be 67 59 92 bd b3 50 f5 be 20 8f ad bf
       -0.1282962 -0.071459584 -0.4791313 -1.3559303
0001f0 b6 e8 28 bf e6 0d 46 bd 7a 04 a8 be df a7 9d 3e
       -0.6598009 -0.0483531 -0.32815915 0.30792138
000200 35 dc 79 3e 52 8c ee be a3 49 1b bf 5e c6 f0 be
       0.24400409 -0.4659143 -0.60659236 -0.47026342
000210 4e d3 05 3e 01 7d e2 bd 5b 1c b0 be de 6b 03 bf
       0.13068888 -0.11058999 -0.34396634 -0.5133647
000220 65 cf 93 be 9e c7 a7 be 70 5e 6d bf 0f dc dc be
       -0.28869167 -0.32769483 -0.92722225 -0.4313664
000230 28 da 4e be 49 ee 1a bf 73 28 11 bf d9 af 0a 3b
       -0.20200408 -0.60519844 -0.56702346 0.0021161942
000240 51 ee bc be a6 16 92 bd e2 91 2f bf 0d d1 ea be
       -0.3690057 -0.07133226 -0.68581975 -0.45862618
000250 f8 9d f1 ba 97 b0 e6 3e 4f a9 9f be b6 36 b8 3e
       -0.0018433919 0.45056602 -0.3118386 0.3597924
000260 e8 42 05 3b 67 34 0b bf 41 51 f6 be 7d 80 ae bf
       0.0020334069 -0.54376835 -0.48108867 -1.3632962
000270 69 8a ce be e4 25 70 be 3f c0 a2 be 00 09 01 bf
       -0.40339974 -0.23451954 -0.31787297 -0.5040436
000280 86 e4 4b be b5 14 0e bf f3 58 1a bf 69 a3 08 bf
       -0.19911394 -0.55500346 -0.60291976 -0.53374344
000290 f2 f0 db be 57 83 d0 3e 0e 0a 89 bf 66 cc 02 bf
       -0.42957264 0.40725204 -1.0706193 -0.5109314
0002a0 25 82 9a bd a8 d7 c2 be 90 22 69 be 50 f3 2e bd
       -0.07544354 -0.38055158 -0.22767091 -0.04271251
0002b0 dc 91 11 bf 40 05 06 bf 76 74 c8 be 0d 0e 4a be
       -0.5686319 -0.5235176 -0.39151353 -0.19731922
0002c0 2e bd fd be ea 0b df be 94 a8 a8 be 75 2c 94 be
       -0.49558395 -0.43563777 -0.32941115 -0.28940168
0002d0 87 f8 13 3d a6 60 9c be 72 6d ec be f0 bd 2a bc
       0.036125686 -0.30542487 -0.4617725 -0.010421261
0002e0 3c bf 30 bf 3c e3 86 bd 5c 83 31 bf 2f ad 00 bf
       -0.690418 -0.0658631 -0.69341063 -0.5026426
0002f0 d3 91 ce bd f6 85 97 be 8f 69 e9 3e 39 ec b4 be
       -0.100864075 -0.29594392 0.45588347 -0.35336474
000300 89 31 af be b8 e9 9b be 42 c8 1e bd 03 23 d3 be
       -0.3421748 -0.3045175 -0.0387652 -0.4123765
000310 99 22 9f be a4 71 61 3e ec 05 13 bf b1 85 68 be
       -0.31081083 0.22016007 -0.5743091 -0.22707249
000320 f7 b6 6a bf ce 0c d7 be 49 57 b7 be f5 a6 dd be
       -0.9168543 -0.42001957 -0.3580878 -0.4329144
000330 7d f0 e6 be 7a 5b a3 be 94 ae 49 bf da bf bf 3e
       -0.45105353 -0.3190573 -0.7878201 0.3745106
000340 7e a7 59 bf 50 c1 d0 bd 32 e0 33 bf f8 82 14 be
       -0.850212 -0.101931214 -0.7026397 -0.14503086
000350 af 12 79 be a0 76 46 be 3f ce 02 3d c6 a7 79 be
       -0.24323533 -0.1938119 0.031934973 -0.24380407
000360 53 90 99 be 97 42 a7 bf e7 f7 d8 bd 7a 45 12 bf
       -0.29992923 -1.3067197 -0.105941586 -0.5713726
000370 59 0e ca be 0b 7e 05 bf 49 0d af 3e e2 ab 5c be
       -0.3946407 -0.5214545 0.34189823 -0.21549943
000380 28 a5 59 be 84 90 5e bf c5 40 df be e6 39 9f 3d
       -0.21254408 -0.86939263 -0.43604103 0.07774715
000390 c7 14 09 bf c4 86 18 bf 32 94 b8 be a4 ce 12 bf
       -0.5354733 -0.59580636 -0.36050564 -0.5734656
0003a0 4b 28 5d be 7a dd ae be 04 3e f1 be 54 ef dd bd
       -0.21597402 -0.34153348 -0.47117627 -0.10836664
0003b0 34 06 b4 be 7d 68 c0 be f5 39 96 3e 85 ee c8 be
       -0.35160983 -0.37579718 0.29341093 -0.39244476
0003c0 fc 28 d2 be 37 7d 13 bf a7 8a 01 bd 8b 4d ad be
       -0.41046894 -0.5761294 -0.03162637 -0.33848223
0003d0 e8 da 52 be 92 d9 93 be 7b d9 6e be 8d 4e c6 bd
       -0.20591319 -0.2887693 -0.2332515 -0.09682951
0003e0 3c 98 0e bf 75 4c c3 be 04 15 4f be b6 e8 f4 be
       -0.5570104 -0.3814427 -0.2022286 -0.47833794
0003f0 0d 4d da be 1b 33 04 bc 87 81 42 bb 7b 62 41 bf
       -0.4263691 -0.008068825 -0.0029679255 -0.75540894

gnn_node.convs.0.mlp.1.running_mean f4 [256]
000000 7e 43 16 41 48 ba a7 40 b8 fd ad 40 f7 16 b2 c0
       9.391478 5.2414894 5.4372215 -5.5653033
000010 b8 83 46 41 ad 5f f1 c0 e2 c0 19 c1 41 3f a2 c0
       12.407158 -7.542929 -9.609591 -5.0702214
000020 ff a4 cc c0 77 19 3b 40 53 f6 25 3f 70 8b 3a 41
       -6.395141 2.9234293 0.64828986 11.659042
000030 c1 df 26 c1 a6 de 9e 40 76 71 b3 40 01 32 2b c1
       -10.429627 4.964679 5.6076 -10.699708
000040 ec dd 62 41 04 72 4c 40 0d 0c 90 3f 8c 68 5b c1
       14.17918 3.194459 1.1253678 -13.713024
000050 33 1b 05 c1 c0 13 24 c0 90 2f 51 41 cb f9 a4 c0
       -8.31914 -2.5637054 13.074112 -5.1554923
000060 20 bd cf c0 c2 af fe c0 50 ee 4d 3f 04 1a a4 40
       -6.4918365 -7.958955 0.8044176 5.1281757
000070 26 39 40 3f 74 e4 59 3e ea d0 0b 41 c4 7b 08 40
       0.750872 0.21278554 8.738504 2.132554
000080 a2 00 d7 40 85 8b f7 c0 12 97 37 40 e8 bf 72 41
       6.7188272 -7.735781 2.8685956 15.171852
000090 c5 bd b8 40 ce c4 c4 40 0e 0a 52 c0 9b 8f 3b 41
       5.773165 6.149024 -3.2818637 11.72256
0000a0 82 dd 66 c0 b2 fe df 40 b7 a8 16 c1 93 13 0e 41
       -3.6072698 6.9998407 -9.41619 8.879779
0000b0 dd 58 53 c0 87 34 8c c0 64 aa 9a c0 c3 fd bc 40
       -3.3022988 -4.381412 -4.8332996 5.905977
0000c0 80 a4 6d bf 41 a1 6f 41 7c d8 80 c0 4e bf 9b 40
       -0.9282913 14.976869 -4.0264263 4.8671026
0000d0 70 84 00 41 fd 32 1f c1 86 c5 dc 3f a8 da 0d c1
       8.032333 -9.949948 1.7247779 -8.865883
0000e0 cb 2a 1c 41 b9 84 7c 41 6f b9 09 c1 b0 59 a9 3d
       9.7604475 15.782403 -8.607772 0.0826906
0000f0 47 94 a3 41 d1 af 2c c1 6a 49 0d c1 e5 a8 49 41
       20.447401 -10.792924 -8.830423 12.603734
000100 db c0 a6 40 6a 88 76 c1 30 00 81 41 e7 8b 52 41
       5.211042 -15.408304 16.125092 13.159156
000110 91 09 6a c1 c3 fc e5 40 2e 13 5d c0 2a b4 f9 40
       -14.627336 7.1871047 -3.4542956 7.8032427
000120 49 0e d1 bf 37 4d 09 c1 ea f7 7c 40 a4 b9 6c 40
       -1.6332484 -8.581351 3.9526315 3.6988306
000130 81 8b af c0 42 c4 99 c0 72 ec 37 41 c8 7d 29 c0
       -5.4857793 -4.8052073 11.495226 -2.648302
000140 d3 27 60 c1 bb 75 05 41 78 bb f7 40 2a 7e b9 40
       -14.009723 8.341243 7.7416344 5.796651
000150 91 58 1a c0 06 a4 11 40 32 0e dd be bc f7 02 c1
       -2.4116557 2.2756362 -0.43174893 -8.185482
000160 1b 5a 59 bf 60 fe 0f 41 aa f3 a4 c0 d2 a3 be 3f
       -0.84903115 8.999603 -5.154744 1.4893744
000170 8a 3c bc c0 9f b4 53 3e be e2 84 41 8a af 9c 41
       -5.88239 0.2067437 16.610714 19.585712
000180 40 f3 90 c1 e7 6f e9 40 2d 7a 07 c0 1d 65 c2 c0
       -18.118774 7.29491 -2.116832 -6.074843
000190 25 d7 82 c0 a9 a1 6b c0 76 ab d9 40 d5 ab 61 c1
       -4.0887628 -3.681742 6.8021803 -14.104451
0001a0 7b 72 1d c0 67 5d 4a 41 3a 94 0c 41 04 a5 99 c1
       -2.4601123 12.647803 8.786188 -19.205574
0001b0 89 28 1b 40 c5 78 27 41 9c 52 0b c1 37 f0 2a c0
       2.424349 10.466985 -8.707668 -2.6709116
0001c0 22 68 45 c1 e6 93 49 41 98 d1 5d 41 5c 34 fc 40
       -12.337923 12.598608 13.86367 7.8813915
0001d0 8c 8a 14 bf 25 47 ce 40 5e 3e ba 40 36 71 b4 c0
       -0.58023906 6.4461846 5.820113 -5.6388197
0001e0 d7 0f 57 41 6d 10 a4 bf ba a8 0b 3f f7 f1 29 41
       13.441367 -1.2817513 0.5455433 10.621573
0001f0 68 b8 19 40 73 bf 85 be 6a 8a 00 c1 e1 e9 74 40
       2.4018803 -0.26122627 -8.0337925 3.8267748
000200 5f 3c 57 41 6c 8f 8b c0 77 57 ef 3e 38 55 6c c1
       13.452239 -4.3612576 0.46746418 -14.770805
000210 bc 75 43 41 21 89 0e 41 9d 5e 20 41 25 09 90 c0
       12.216244 8.908479 10.023099 -4.5011163
000220 41 46 16 c1 5f 90 8d c0 e0 55 2e 40 a8 30 94 c0
       -9.392152 -4.4238734 2.7239914 -4.6309395
000230 9a f4 25 c1 a0 1b a3 c0 f4 d8 4c 41 e1 c1 64 41
       -10.372217 -5.097122 12.802967 14.297334
000240 52 1a c1 c0 00 0b bf c1 36 9f d0 40 e6 5d 91 c0
       -6.034463 -23.880371 6.519435 -4.542712
000250 9c 32 d6 3f 13 33 68 41 e4 ef 88 41 0c 57 53 41
       1.6734195 14.512469 17.117134 13.208752
000260 8d ea b5 40 a5 16 75 c1 0d b2 f9 c0 2d d7 c5 c0
       5.6848817 -15.318028 -7.8029847 -6.1825166
000270 5d df 56 c1 a2 02 8d 41 be 8e 64 40 11 ec 87 c1
       -13.429532 17.626286 3.5712123 -16.990267
000280 aa 57 4c 3f 5d b4 25 c1 84 e1 69 be 0f 90 ee c0
       0.79821265 -10.356534 -0.22839934 -7.4550853
000290 d6 b1 9a 3e e3 15 29 40 03 a2 1c be aa 77 5e 3f
       0.30213803 2.6419609 -0.15296178 0.8690134
0002a0 7c fd 17 41 5c 18 e0 3f 94 e1 d7 c0 f0 b8 af bf
       9.499386 1.7507434 -6.7462864 -1.3728313
0002b0 46 4d 11 41 c8 6b 16 c1 f5 f6 0d c1 ae 3e a2 c0
       9.081366 -9.401314 -8.872792 -5.0701513
0002c0 95 55 59 40 fa bd 23 c0 48 3f 0b c1 52 83 df 40
       3.3958485 -2.5584702 -8.70295 6.9847803
0002d0 d9 96 13 c1 f1 21 45 c0 da 6d db be ec 8b 92 40
       -9.224328 -3.0801966 -0.42857248 4.5795803
0002e0 cf f9 e1 bf 81 3f b5 3f c5 0b 8a c0 12 65 8d bf
       -1.765436 1.4160005 -4.3139367 -1.1046469
0002f0 fe a4 0e c1 71 d1 86 c0 45 bc 4b 41 ec b9 89 c1
       -8.915281 -4.2130666 12.733464 -17.215782
000300 cd 4a 2c 41 ce 9e 0d c1 e7 7c 15 41 48 07 1b 41
       10.768262 -8.851271 9.342994 9.689278
000310 ae f4 19 41 ff 6c b1 c0 de 52 c9 3f 41 9e 7e 41
       9.622236 -5.544555 1.5728414 15.913636
000320 86 2e 86 40 d3 91 d2 40 2e 48 5d 3e 16 4f a2 40
       4.193179 6.580301 0.21609566 5.072154
000330 2e 35 9c c0 33 fb f8 bf 59 f5 2f c1 20 ab 54 41
       -4.8814917 -1.945166 -10.997399 13.291779
000340 07 71 cf c0 51 af 5e 41 9f bf db 3f 57 05 13 41
       -6.4825473 13.917802 1.7167853 9.188804
000350 45 f9 1d c0 29 b4 1a 40 c4 84 38 c1 f3 0c d7 40
       -2.4683392 2.417246 -11.5324135 6.7203307
000360 bf b9 7d c0 24 cd af 40 57 5e 2c 41 21 3b 12 41
       -3.964462 5.4937916 10.773032 9.139436
000370 8d d6 b2 c0 cb 0d e0 c0 20 0a 90 41 6b f4 6b c0
       -5.5886903 -7.0016837 18.004944 -3.686793
000380 85 57 4f 41 a9 84 33 41 64 aa c1 3e 3c 09 2a 41
       12.958867 11.219888 0.3782531 10.6272545
000390 6c f8 8c 40 71 e1 12 40 76 99 2c c0 f2 29 47 40
       4.405325 2.2950099 -2.6968665 3.1119351
0003a0 15 7a b8 40 b4 da 8a 41 f0 b1 de c1 a0 11 2f 40
       5.7649026 17.356789 -27.836884 2.7354507
0003b0 a1 fc 78 40 db fa fc c0 ca a6 b4 40 5a 27 3a c0
       3.8904192 -7.905622 5.64536 -2.9086518
0003c0 3a 87 17 c1 bc 54 73 c1 ae dc 75 40 50 fd dd 40
       -9.470514 -15.208187 3.8415942 6.937172
0003d0 2a cb 9e bf 0a 37 fa 3e 18 77 00 40 ed ee b7 c0
       -1.2405751 0.48870116 2.007269 -5.7479157
0003e0 9d 3c f5 3f cc fd 73 c0 75 84 b7 c0 bc 03 76 bf
       1.9159123 -3.8123655 -5.734919 -0.9609945
0003f0 fc ed d0 40 74 de 39 40 cc 75 14 bf 95 c1 35 c0
       6.529051 2.9042025 -0.57992244 -2.8399403

gnn_node.convs.0.mlp.1.running_var f4 [256]
000000 d0 fb 4f 42 17 e1 44 42 dc 5e d5 42 09 8d 08 42
       51.99591 49.219814 106.68527 34.13773
000010 cd d0 d0 41 bb c1 f1 41 1a db 21 42 c2 0b 81 42
       26.101954 30.219595 40.463966 64.522964
000020 17 14 0f 42 9e 44 05 43 9a 54 63 42 36 cc 0a 42
       35.76962 133.26804 56.83262 34.699425
000030 dd 16 30 42 e7 89 8a 42 d1 aa 04 42 3d ab 9f 42
       44.022327 69.26934 33.166813 79.83445
000040 c1 65 47 42 11 42 5c 42 3e be d7 42 4f 62 8e 42
       49.84937 55.064518 107.87157 71.19201
000050 1f 6c b4 42 4b dc 49 42 59 78 4f 42 8b 1e 39 42
       90.211174 50.46513 51.867527 46.279827
000060 c3 6c 70 42 1c ee e4 41 9c d7 54 42 c4 2b 59 42
       60.106213 28.616264 53.210556 54.29274
000070 02 d6 29 43 99 a5 ee 42 cc 53 0e 43 57 31 85 42
       169.83597 119.32343 142.32733 66.59637
000080 b5 76 0b 43 66 0f 45 42 14 61 3b 42 92 69 24 42
       139.4637 49.265038 46.844803 41.103096
000090 09 66 4b 42 a2 a4 55 42 27 f9 50 42 df 8b f9 42
       50.849644 53.410774 52.243313 124.773186
0000a0 e6 61 ec 42 b7 22 ad 42 57 43 87 42 a0 9a 80 42
       118.19121 86.5678 67.63152 64.302
0000b0 52 97 8b 42 3d 57 d6 42 e1 f1 fa 42 27 20 99 42
       69.79555 107.17039 125.47242 76.5628
0000c0 54 00 b4 42 c2 0e df 42 50 5a 4d 42 f8 83 57 42
       90.00064 111.528824 51.338196 53.878876
0000d0 94 0a d8 42 fe 5f 03 43 a6 19 cd 41 35 17 21 42
       108.02066 131.37497 25.637524 40.272663
0000e0 61 4b 58 42 3d ec 0f 42 92 40 34 42 d1 8f af 41
       54.073612 35.9807 45.063057 21.945223
0000f0 b1 88 a8 42 98 f9 a5 42 97 1e 86 42 8c 4f 45 42
       84.266975 82.98749 67.059746 49.327682
000100 ea 97 5b 42 0d b8 f0 41 32 52 2a 43 7a f8 bd 42
       54.898354 30.089869 170.32108 94.985306
000110 bc 81 48 42 ad 32 91 42 81 4c 81 42 67 49 0a 42
       50.126694 72.598976 64.64942 34.571682
000120 59 52 1c 43 8b c5 0b 43 00 ea bc 42 19 48 d0 41
       156.32167 139.77165 94.45703 26.035204
000130 9f 9c ee 41 1d ac c0 42 13 e9 ec 42 53 a9 4c 42
       29.826475 96.33616 118.45522 51.165356
000140 d6 dc 6a 42 24 f8 bc 41 3d 9c b3 42 ea ac ec 42
       58.71566 23.621162 89.80515 118.33772
000150 34 2d 1c 42 14 27 5e 42 da 61 a4 42 1a 88 a6 42
       39.044144 55.538162 82.19112 83.26582
000160 cb ab 08 42 99 82 9c 42 7d ac ff 42 09 d4 45 42
       34.167767 78.25507 127.83689 49.457066
000170 d6 27 bd 41 2a ef 8d 42 66 a8 cb 42 2b 13 35 42
       23.644451 70.96712 101.8289 45.26872
000180 a8 53 10 42 73 70 1c 43 71 41 93 42 d8 2d a1 42
       36.081696 156.43925 73.627815 80.58954
000190 17 a7 46 42 d2 b4 54 42 b1 84 e4 42 2d 49 6f 42
       49.663174 53.176582 114.25916 59.82146
0001a0 f6 56 04 42 58 a8 83 42 56 da aa 42 e1 b9 e1 41
       33.084923 65.8288 85.42644 28.215761
0001b0 33 7b 75 42 29 b1 91 41 09 90 0f 42 8e 91 05 42
       61.37031 18.211504 35.89066 33.392143
0001c0 fd 1d a0 41 0d 0d ec 41 f5 11 9f 42 57 e4 92 42
       20.014643 29.506372 79.53507 73.44598
0001d0 0a 6c be 42 92 87 c5 41 df 60 a0 42 a7 2c a0 42
       95.21101 24.691196 80.1892 80.08721
0001e0 04 f2 6b 42 18 3c 01 42 37 52 93 42 f5 ac 48 42
       58.986343 32.308685 73.660576 50.168903
0001f0 a6 df 9f 42 3d 6d 3c 42 cf 4f e8 42 c6 b0 45 42
       79.93681 47.106678 116.155876 49.42263
000200 c4 35 66 42 65 80 18 42 2c fc 6a 42 12 2e 88 42
       57.552505 38.125385 58.74626 68.08998
000210 34 30 ef 41 8c 07 fa 42 06 42 d0 42 4d 85 c2 42
       29.898537 125.01474 104.12895 97.26035
000220 ae d0 fe 42 8f 5a 89 42 38 e6 dd 41 a6 42 ab 42
       127.40758 68.67687 27.737411 85.63017
000230 83 44 78 42 28 ac 03 42 38 16 fa 42 81 c2 04 43
       62.066906 32.91812 125.043396 132.75978
000240 4b ab 91 42 dd 82 2e 42 29 39 ae 42 8e b5 02 42
       72.83456 43.627796 87.11164 32.6773
000250 f4 a6 e3 42 f3 e9 91 42 bc 79 1c 43 7f d0 62 42
       113.82608 72.95693 156.47552 56.70361
000260 c0 38 e0 42 6b b5 8c 42 80 df 57 42 49 13 d3 41
       112.11084 70.35433 53.96826 26.384417
000270 0c 2c a0 42 65 ba ad 42 db 03 a9 42 16 12 95 42
       80.08603 86.86405 84.50753 74.535324
000280 d9 a5 96 42 32 a7 0a 43 1c 55 09 43 93 09 dd 41
       75.32392 138.6531 137.33246 27.629675
000290 5f b9 63 42 70 5b 3a 42 be ed 18 42 0d bd cf 42
       56.931026 46.589294 38.23217 103.86924
0002a0 27 9f e0 42 15 74 41 42 da b3 b8 42 89 90 71 42
       112.310844 48.36336 92.35127 60.391148
0002b0 83 67 0b 42 c7 43 19 42 8d a9 91 42 f3 6a 11 42
       34.851086 38.31619 72.831154 36.354443
0002c0 3f 8d 6a 42 4d c0 ab 42 a9 eb ff 41 8c b2 10 43
       58.637936 85.87559 31.990068 144.69745
0002d0 ab d6 32 42 90 fe b1 42 e5 78 23 42 88 c5 94 42
       44.709637 88.99719 40.86806 74.3858
0002e0 91 11 a3 42 2f 2b 82 42 ed bc 10 42 f0 1e 30 42
       81.53431 65.08434 36.184498 44.030212
0002f0 35 8d 38 42 e8 77 4d 42 88 c7 1f 42 be 88 51 42
       46.137897 51.367096 39.944855 52.383537
000300 4c 35 2e 42 d9 c7 2f 42 fa a0 59 42 3e 23 86 42
       43.552048 43.945164 54.407204 67.06883
000310 da e6 a9 42 d7 1a 0a 42 c5 34 f5 42 db 1b 0f 42
       84.95088 34.52621 122.603065 35.777203
000320 dd 70 17 42 80 ae 11 43 8f 35 10 43 7e 97 c0 42
       37.860218 145.68164 144.20921 96.29588
000330 ad d1 8f 42 12 c9 0f 43 17 2d 92 42 c2 d6 e1 42
       71.90952 143.78543 73.088066 112.91945
000340 98 59 5b 42 c2 eb 8d 42 8f 4d 81 42 36 65 4d 42
       54.837494 70.960464 64.65148 51.34884
000350 74 7b 40 42 80 f9 f2 41 5b 28 73 42 4a 6c 36 42
       48.12056 30.371826 60.78941 45.60575
000360 08 41 96 42 5c 7f 7c 42 37 e5 8e 42 81 5b e1 42
       75.127014 63.124374 71.447685 112.67872
000370 47 c5 2c 42 b6 77 a8 42 5c d5 94 42 51 49 2e 42
       43.192654 84.23381 74.41672 43.571598
000380 67 14 33 43 dd f3 73 41 49 6d ac 42 e0 a7 ae 42
       179.0797 15.247037 86.21345 87.32788
000390 2e e0 dd 42 5e 73 bc 42 3c 33 7b 42 57 e2 01 43
       110.93785 94.22533 62.800034 129.88414
0003a0 23 f6 a4 41 d3 4a c6 42 7e 01 18 42 53 9e ba 41
       20.620184 99.14614 38.001457 23.327307
0003b0 18 66 b1 41 36 f8 72 42 32 a0 48 42 db 38 97 42
       22.17485 60.742393 50.15644 75.611046
0003c0 ef c0 d7 42 e9 8e 2e 42 04 c9 7c 42 c1 f8 1d 43
       107.87682 43.63956 63.196304 157.9717
0003d0 74 33 71 42 83 63 cc 42 90 57 ba 42 01 9c 03 42
       60.300247 102.19436 93.17102 32.902348
0003e0 f0 7c b1 42 85 1a 00 43 65 43 4a 42 e4 21 be 42
       88.74402 128.10359 50.565815 95.06619
0003f0 da b4 c1 42 87 40 13 42 c2 02 97 42 cc c1 dc 42
       96.853226 36.813015 75.50539 110.37851
