checkpoints/D_epoch_70.pth (torch, 843938 bytes, 48 tensors)

gnn_node.node_encoder.weight f4 [1, 128]
000000 18 41 aa 3e 8d 99 a5 bc 80 52 b0 3d 41 33 29 3e
       0.33252788 -0.02021482 0.086094856 0.16523458
000010 ab 07 9d 3f e7 3d b2 be 57 c6 f2 be f6 2a e0 3e
       1.2267965 -0.34812853 -0.47416946 0.43782777
000020 1f 11 18 3f f3 67 da bc d8 b1 83 bf 7c 21 98 3d
       0.59401125 -0.026660895 -1.0288649 0.07428262
000030 94 70 46 bf 98 bc 1e 3f 6a 31 98 bf dd 2c 96 bf
       -0.7751553 0.6200652 -1.189008 -1.1732441
000040 da 3e 06 bf b9 60 19 bf 6d cc 4d 3f 11 64 a7 3e
       -0.52439654 -0.5991321 0.80390054 0.32693532
000050 d2 8e 96 bf 52 34 d5 3b bc 40 f8 bd a7 d4 4a 3d
       -1.1762335 0.006506481 -0.12121722 0.049519207
000060 4d e7 77 bf 14 14 fc 3e a3 08 d7 bd 7c 0f 60 3f
       -0.9683731 0.49234068 -0.10499694 0.8752363
000070 b8 f0 16 3e 87 49 5c bf d8 67 38 bf 01 3a 83 3f
       0.14740264 -0.86049694 -0.72033453 1.0252076
000080 f4 74 07 bf b9 74 12 3e 60 ce 8a 3e d8 1b 2b 3e
       -0.5291283 0.14302339 0.27110577 0.1670984
000090 09 80 a0 3f 00 8a ef 3e fc 51 23 3e 28 79 5e 3f
       1.2539073 0.46784973 0.15949243 0.8690362
0000a0 0d 70 8b be 24 1a 67 be 4e 48 dd bf 85 a5 e1 bf
       -0.27233925 -0.22568566 -1.7287691 -1.7628638
0000b0 07 48 29 be 84 98 81 3f 2d 8c ab be b2 4a b7 3d
       -0.16531383 1.0124669 -0.33505383 0.08949794
0000c0 f5 c8 8d bf 8a 22 ad bf 94 73 9b 3f 17 04 fe bf
       -1.1076952 -1.3526165 1.2144647 -1.9844998
0000d0 72 ae 68 be 78 03 fc 3e 3d c7 5a 3e bd 8f 90 bf
       -0.22722796 0.49221396 0.21365066 -1.1293865
0000e0 4e 9f c4 3e 86 3d 2d bf 7e 91 78 bf 96 bd 36 3f
       0.3840279 -0.67672 -0.97097003 0.71383035
0000f0 e6 96 68 3d 21 2f d7 bd bd 4a 32 3f 2c 8d 4a bf
       0.056784533 -0.10507036 0.6964529 -0.7912166
000100 82 0b a5 bf 67 5d 27 3f cf d7 26 bf c8 9a 11 40
       -1.2894137 0.65376896 -0.6517305 2.275072
000110 19 00 84 3f 5a a2 a9 be 66 1a 81 3f 53 af fd be
       1.031253 -0.33131677 1.0086181 -0.49547824
000120 58 1b c3 3e 0c 16 04 3d 5e 8f 24 3e f5 c6 92 be
       0.381068 0.032247588 0.16070315 -0.28667417
000130 d2 46 97 bf 90 02 da bd 26 42 6c bf e0 ab 0a bf
       -1.1818488 -0.1064502 -0.92288435 -0.5416851
000140 72 3c 48 3e 2c 30 80 bf d6 0e 53 3c 44 1b 82 be
       0.19554308 -1.0014701 0.012881955 -0.25411427
000150 1b 70 f0 bf 8d 34 0f 3e 0a 2f 90 bd b1 70 bd bc
       -1.8784212 0.1398489 -0.07040222 -0.023125025
000160 b5 0c 9c 3d f2 18 82 bf 62 c3 07 3f ec 6b b4 3d
       0.07619611 -1.0163863 0.53032506 0.08809647
000170 c7 b6 5f 3e e9 81 27 3e 32 f5 95 bf 31 f2 b0 3e
       0.21847068 0.1635815 -1.1715453 0.34559777
000180 96 c3 cb bf d7 d2 8d bf 66 88 25 be bd e1 37 bc
       -1.5919063 -1.1079968 -0.16165313 -0.011223254
000190 04 4d 34 3f 0a 64 fe bd a1 bf 11 be 4a 58 cf 3e
       0.70430017 -0.12421425 -0.14233257 0.40497047
0001a0 4d e8 56 bd 32 45 25 3d e6 68 dc bf 72 cf 51 be
       -0.052467633 0.040349193 -1.7219512 -0.2048929
0001b0 49 cd 90 bf 70 62 b0 bf 2f 8c 58 bf 5d c6 fc bf
       -1.1312648 -1.3780041 -0.84588903 -1.9748036
0001c0 58 90 99 3e 4b b7 82 3f 32 1f 0f 3f 81 39 ec 3d
       0.29992938 1.0212187 0.55906975 0.115344055
0001d0 46 01 0f 3f 81 5c 48 be 56 b2 22 be 25 f0 03 3d
       0.5586132 -0.19566537 -0.15888342 0.03221144
0001e0 02 31 09 3e 74 71 6e bf 06 f0 b9 3e 7a 21 57 3f
       0.13397601 -0.93141866 0.36315936 0.84035456
0001f0 f8 01 ff be 19 32 17 3f 66 16 75 bf e0 eb a6 bf
       -0.4980619 0.5906082 -0.957373 -1.3040733

gnn_node.virtualnode_embedding.weight f4 [1, 128]
000000 a0 6e 1d bf 89 0e 28 bf 16 fd ca bd 5e 23 1f be
       -0.61496925 -0.6564718 -0.099115536 -0.15540835
000010 f9 2d 20 bf 86 8f 2d 39 55 cb 08 bf 3d 13 11 bf
       -0.6257015 0.00016552032 -0.5343526 -0.5666998
000020 a0 d2 3a bf 6c b6 71 3b 4e cf f6 bd ba cc c2 be
       -0.7297764 0.0036882414 -0.12051259 -0.3804682
000030 e0 02 2b be 7f 0c 38 bf 32 55 46 be 6d ed 3e be
       -0.16700315 -0.7189407 -0.19368437 -0.18645258
000040 bf 35 32 be 43 b6 db be c0 7b fb be 12 63 c1 be
       -0.17403315 -0.42912492 -0.4911785 -0.37770897
000050 a4 66 8c be de 55 ed bd cd 14 6e be 7d 42 10 bf
       -0.2742206 -0.115886435 -0.23250122 -0.56351453
000060 d6 bc 8a bd ed 88 18 bd e1 86 ff be a8 af 41 bf
       -0.06774299 -0.037239958 -0.49907592 -0.75658655
000070 23 91 2d bf f1 22 21 be 56 95 8b be 6b d4 58 bf
       -0.67799586 -0.15735985 -0.27262372 -0.84699124
000080 ef 6d 6b be 05 3b 3e bf a5 07 e4 be 09 28 9c be
       -0.22991155 -0.74308807 -0.44537082 -0.30499294
000090 03 7a 25 bf 1c 90 bf be 21 a0 a8 be a6 84 25 bf
       -0.646393 -0.37414634 -0.3293467 -0.6465553
0000a0 39 01 1b 3d 4c 24 1b be 68 e5 1d bd 8a cb 4e bf
       0.037842963 -0.15150565 -0.038548857 -0.80779326
0000b0 14 c8 06 bf fc 48 d8 be b0 5c d7 be a8 1c 06 bf
       -0.52649045 -0.42243183 -0.42062902 -0.52387476
0000c0 c7 4e a6 be 3f 61 34 3e 8d 52 2e bf e5 ef 29 be
       -0.32481977 0.17615221 -0.6809471 -0.16595419
0000d0 26 28 74 bd fb 6d 25 bf 2c 88 d9 be 52 80 85 bd
       -0.0596086 -0.6462094 -0.42486703 -0.06518616
0000e0 97 d6 e5 be 1a 08 ed be 76 5a 92 be 97 7e 44 bf
       -0.44890282 -0.46295244 -0.2858464 -0.7675566
0000f0 93 14 30 be 54 a6 d4 be 2a cb 9b be 15 22 93 be
       -0.17195348 -0.41533148 -0.3042844 -0.2873694
000100 8c 96 5a bf 43 ea 1e bf 62 b0 5b be 72 26 6d bf
       -0.85385966 -0.62076205 -0.21454003 -0.9263679
000110 b1 19 ab be c5 12 eb bb 73 6a 33 bf 1b a4 6c be
       -0.33418038 -0.0071738684 -0.70084304 -0.23109476
000120 7c b6 f6 bd 17 58 82 bd 3a 90 27 bf 74 04 51 be
       -0.12046525 -0.06364458 -0.6545445 -0.20411855
000130 3b 62 b5 be 4c 1d b0 be 68 43 42 be bc 79 c7 3d
       -0.35426506 -0.34397352 -0.18971026 0.09740016
000140 cc 86 c0 be 11 fe d6 bd 14 f2 d6 be d5 eb 79 be
       -0.37602842 -0.10497678 -0.41981566 -0.24406369
000150 38 c5 88 be 2c 5e cc be ca 20 8e be df 9f 9b be
       -0.26712966 -0.39915597 -0.2775939 -0.3039541
000160 79 cd c6 be 88 93 12 be 90 9a 67 be 13 d7 74 be
       -0.38828638 -0.14314091 -0.22617555 -0.2391017
000170 a0 9c eb be af a7 cd be bb 74 ee be 33 ea e8 3c
       -0.46017933 -0.40166995 -0.46573433 0.028431987
000180 a4 90 52 bd 63 ab b0 be 3b b7 b2 be e8 60 a3 be
       -0.05140747 -0.34505758 -0.3490542 -0.3190987
000190 e1 c0 c6 be 73 37 ba 3c 81 5e bd be 0d c3 3c bf
       -0.3881903 0.022731518 -0.36986163 -0.73735124
0001a0 72 5a 8a be 3e 98 44 bf e9 26 a0 3e 36 42 6a be
       -0.2702213 -0.76794803 0.31279686 -0.2287682
0001b0 62 06 77 bc 96 b0 30 be 71 dd 80 be 49 dd 29 3e
       -0.015077205 -0.17254862 -0.25168946 0.1658832
0001c0 79 71 1b bf ef a9 f4 be 82 e9 1d bf bb d7 6a bf
       -0.6072002 -0.477859 -0.6168443 -0.9173543
0001d0 8d 22 3b bf 97 9e d1 3d 99 f2 fa be cc 84 a1 be
       -0.73099595 0.10235327 -0.49013212 -0.31546628
0001e0 3c cb 9b be 86 0a b7 be cd e9 d1 bd 5a 5e 1a be
       -0.30428493 -0.35750216 -0.10249672 -0.15075055
0001f0 7c b2 c1 be 6a a8 00 bf 73 40 db bd ab d8 b9 bd
       -0.37831485 -0.5025698 -0.10705652 -0.09074529

gnn_node.convs.0.mlp.0.weight f4 [256, 128]
000000 10 7a df 3c 52 0a 93 be 69 5e 05 bf da b5 7f bf
       0.027279884 -0.2871881 -0.52097183 -0.9988686
000010 c6 6a d0 bc 8d f9 51 be 0f 04 fb be 5a ae 87 be
       -0.025441539 -0.20505352 -0.49026534 -0.26500207
000020 0e e4 9f 3c 3a 38 94 bf 78 1c 05 bd a2 63 cb be
       0.019517925 -1.1579659 -0.032497853 -0.3972445
000030 fb 61 1d 3b 41 8d ef 3b be 26 9f 3d 54 47 94 bc
       0.00240147 0.00731054 0.07771061 -0.018100418
000040 87 36 28 bd 0d fa 93 be 9e cf da bd 9f 4a 93 be
       -0.041067626 -0.2890171 -0.10684131 -0.2876787
000050 2d 42 a9 bd e7 f9 4f 3e 5c eb 9d be 40 a1 1b be
       -0.08264575 0.20310174 -0.30843627 -0.1519823
000060 68 93 b3 3e 32 68 03 3f 91 eb c9 bd 9b dc 2c bc
       0.350734 0.51330864 -0.09859384 -0.010550643
000070 be d9 78 be b4 72 1e 3e 05 60 ca 3e 1e 06 5b be
       -0.24301812 0.15473443 0.39526382 -0.21389052
000080 3b 8c e4 bf 5b 86 7d be 46 ae 3b be c1 1f 24 be
       -1.7855295 -0.24758284 -0.18328199 -0.16027738
000090 24 8e a6 bb 8d 8d c8 be e6 63 68 be 84 98 74 3c
       -0.0050828625 -0.39170495 -0.22694358 0.014928941
0000a0 b1 52 9b 3e 90 1a b9 bf 49 5c ef bd ae 68 b3 3d
       0.30336526 -1.4461231 -0.11687524 0.087602004
0000b0 03 ff 9a 3d 4c 45 a1 3e 69 ea 8c 3d 84 79 69 3f
       0.07568171 0.31498182 0.06880648 0.91201043
0000c0 6a eb 7d be a9 6c ea bb 48 df 6d bc f8 aa 10 3c
       -0.24796835 -0.0071540666 -0.014518566 0.008829825
0000d0 37 57 83 bc 2a 72 37 ba e5 0d 3c be 66 74 21 bd
       -0.016032798 -0.0006997908 -0.18364675 -0.039417647
0000e0 06 30 a0 3d 06 86 8b bd 7b 9d e4 bc 54 64 78 be
       0.0782166 -0.06812672 -0.027907124 -0.24257022
0000f0 f9 e0 1b 3f 84 2c c7 bd dd f1 b1 3e 6f ff f4 bd
       0.60890156 -0.097252876 0.3475484 -0.119627826
000100 1e 66 94 3d 8d 17 ce be ac 53 66 bd b5 fa 32 be
       0.0724604 -0.40252343 -0.05623214 -0.1747845
000110 10 ae bb 3e 55 d5 91 be 0b 0b af be 3d ba d2 3d
       0.36656237 -0.28483072 -0.34188113 0.102894284
000120 9f 07 1d be a3 23 f8 bd f3 c1 ff bc 68 72 d1 3e
       -0.15334938 -0.12116172 -0.031220412 0.40907598
000130 42 99 58 bd f6 f0 e4 3d 21 cb cf bd ac 3e 42 bf
       -0.052880533 0.11178772 -0.10146166 -0.7587688
000140 3b f5 b8 be 87 49 51 bd 5a 84 52 3d 55 41 14 3f
       -0.36124596 -0.05109551 0.05139575 0.5791219
000150 53 ef b3 bd 47 91 2d bf 6a 84 0b c0 cf 5f 33 bf
       -0.08785882 -0.677998 -2.179957 -0.7006807
000160 d2 63 ef 3e af 9d 05 3e db 55 e6 be 1e 1c a4 be
       0.46755844 0.13048433 -0.44987378 -0.32052702
000170 50 84 d0 bd 1f 01 85 be a3 47 8d 3c 59 7c e6 3d
       -0.101814866 -0.25977418 0.017246073 0.11254186
000180 e6 03 14 c0 62 a4 a3 ba e4 69 8c bf 00 60 fd be
       -2.312738 -0.0012484903 -1.0969815 -0.49487305
000190 26 1c a7 bd e6 af 63 bd 6b 21 4a bf 85 34 78 be
       -0.08159666 -0.05558767 -0.7895724 -0.24238785
0001a0 4b 95 46 be f3 92 87 be 49 36 bb 3c 36 1e 56 3e
       -0.19392888 -0.264793 0.022853034 0.20909962
0001b0 bb 02 ff 3d 4e a3 3d be 21 9f 59 3f 08 6e 02 bc
       0.12451693 -0.18519327 0.85008436 -0.007960804
0001c0 a8 7e 9e be b2 12 33 be 18 78 2a be 5b c2 81 be
       -0.30956006 -0.174876 -0.16647375 -0.25343594
0001d0 d6 f9 8c be c1 b3 55 bc 4c 4d 39 bf 8a a2 da 3e
       -0.2753436 -0.013043345 -0.7238357 0.42702132
0001e0 16 18 ee 3e 6f 34 b9 be 8f 5e 73 be be 66 92 bf
       0.4650275 -0.36172816 -0.2376654 -1.1437604
0001f0 fd e6 66 3e 08 e1 4d 3c 3f 14 d6 3c 39 d2 d0 3c
       0.22549053 0.012565859 0.026132701 0.025490867
000200 d2 01 d6 3d 61 0f 44 3e 49 bb d3 3d bb c9 0e 3f
       0.10449566 0.19146492 0.10338456 0.55776566
000210 56 88 a9 3d 2e 76 ba 3e 31 86 1b 3e 9c 4f 1b 3e
       0.08277957 0.3641829 0.15187909 0.15167087
000220 ce 55 05 3e b4 14 18 3e e7 e3 0b bd f8 a6 26 3e
       0.13021013 0.14851648 -0.03415289 0.16274631
000230 46 6b 67 bd 3d 79 80 bd fa 2c 2d bc 07 88 0c 3d
       -0.05649879 -0.06273124 -0.010569805 0.034309413
000240 45 3f 07 3d 6d f8 c6 bb a6 2a 01 3e 7d 77 c5 3c
       0.033019323 -0.006072095 0.12613925 0.024104828
000250 5f 46 97 3b 8b 89 f2 3d 86 f4 30 be 96 e2 32 bc
       0.004616543 0.118426405 -0.17280778 -0.01091828
000260 8d 26 4f 3c aa ee 03 3f 42 36 e3 3d 91 1f 1f 3e
       0.012643469 0.5153605 0.11094333 0.15539385
000270 b9 37 3e 3e c6 4a d4 bb 47 ef 69 bd 35 3d 50 3d
       0.18575944 -0.0064786403 -0.05711296 0.05083962
000280 ed be db be f1 02 7d 3e ed e2 ad 3b 9d 4a 61 3d
       -0.42919102 0.24708153 0.0053065927 0.055002797
000290 17 d7 bb 3d 8a c9 3a 3e 5e d2 50 3e 06 c3 07 3e
       0.091718845 0.18240944 0.20392749 0.1325799
0002a0 6f fa 74 be ad e9 9d 3d da b9 1d 3c 82 43 01 3d
       -0.23923658 0.07710586 0.00962683 0.03155852
0002b0 c9 e0 28 3e 80 ca 7f 3d ef ed 48 3e 0e 39 40 3e
       0.16491999 0.06244898 0.19622014 0.18771765
0002c0 b8 31 eb bd 2e 09 8d bd 2f 1d 88 3c 90 c9 4c bd
       -0.114840925 -0.068865165 0.016615478 -0.049996912
0002d0 66 be d6 3e 0c 69 9f bd 75 e6 8d 3d 20 fa 9f 3d
       0.41942137 -0.07783708 0.06928722 0.078113794
0002e0 c2 82 bc 3d 1a bf 17 bb 47 8d 8d 3d ae ef 35 3e
       0.092046276 -0.0023154677 0.06911712 0.17767212
0002f0 a0 e9 20 bf 2a 12 91 bd c4 17 c8 bd 3e 37 56 3d
       -0.62856483 -0.07083543 -0.09770158 0.052298777
000300 83 48 0d 3d f4 63 32 3e b8 31 51 bd 59 87 33 3e
       0.03449298 0.17420942 -0.051072806 0.175321
000310 76 ea 20 3e c3 09 e9 3e 50 f5 32 3d d1 52 39 bf
       0.1571444 0.4551526 0.04369098 -0.7239199
000320 e1 1d cc bc d8 2c d5 3e 38 4f 6c 3d 22 a7 e0 bd
       -0.024916591 0.41635776 0.057692736 -0.10969378
000330 06 88 80 3d be 05 80 3e e0 34 10 bf a5 13 f6 bd
       0.062759444 0.2500438 -0.5633068 -0.12015466
000340 95 b5 92 3e 0c 7f f7 3e 80 9b 20 3e c7 0c 61 3f
       0.2865416 0.48339117 0.15684319 0.8791012
000350 69 1c 90 bd ca cd b5 bd 12 4f 8e 3d a5 49 6f 3e
       -0.07036669 -0.08877142 0.06948675 0.23367937
000360 f9 67 71 3d af 25 cd bd 94 8f 08 3e 0c 8d 07 3f
       0.058937047 -0.10016953 0.1333602 0.52949595
000370 e2 c3 53 be 72 90 4e 3e da a1 a3 bd 80 d8 b0 3d
       -0.20680192 0.20172289 -0.07989855 0.08635044
000380 80 44 b7 be ab d0 9f 3d b8 04 e6 3d 2d 7c 58 bb
       -0.3579445 0.07803472 0.11231369 -0.0033033
000390 be 28 da bb 29 07 10 3f 6b 03 ff 3d e1 0f b9 3d
       -0.006657689 0.56260926 0.12451824 0.09036232
0003a0 54 c4 ee 3d d1 b2 5c 3e 27 c8 1e 3d 94 55 f8 3e
       0.1165854 0.21552588 0.0387651 0.4850279
0003b0 29 6d 8c bd 7b 0f 46 3d b5 a7 82 be 85 51 44 3d
       -0.06856758 0.048354607 -0.25518575 0.047929306
0003c0 5e fd 6e 3e 5b 69 5b bc 38 ba 38 3e d5 35 a7 3c
       0.2333884 -0.013391818 0.18039787 0.020411411
0003d0 29 4e cb 3d f3 39 00 3f 1b ae 3f 3e 68 62 6e 3e
       0.09927017 0.50088423 0.1871876 0.23279727
0003e0 26 c2 b9 3d f7 4a c8 be d2 a7 1b 3e e1 6c 97 3d
       0.09070234 -0.39119694 0.15200737 0.07393814
0003f0 93 44 11 3e 40 bb d6 3d b9 33 0f 3d ac b8 0c bc
       0.14186315 0.10484934 0.034961436 -0.008588951

gnn_node.convs.0.mlp.0.bias f4 [256]
000000 a0 69 b0 bc c0 87 92 3d 3a 28 7c bd a4 3d 63 bc
       -0.02153474 0.071547985 -0.0615618 -0.013869677
000010 e4 1d ee bc df 5b 38 3d 11 83 0b 3c b3 5d 60 3c
       -0.029066987 0.04500949 0.008515135 0.013694215
000020 a4 d3 8f bd 62 05 85 bc f8 c1 93 bd 9a 1b 3c bd
       -0.07022789 -0.016237918 -0.07214731 -0.04592476
000030 9f 29 b8 bd 7c 8c 33 3d 97 bd ee bc b0 f2 93 bd
       -0.089923136 0.04383515 -0.029143138 -0.07224023
000040 30 4d a1 3c 4a 9a 45 3d b0 f0 2d bd 3c ac 27 3b
       0.019690126 0.048242845 -0.042465866 0.0025584837
000050 21 5a af 3d 47 9a 17 3d 4a 79 2b bd 7c 7f 8c 3d
       0.085621126 0.037012365 -0.041863717 0.06860253
000060 96 4c 5c bc 07 61 2c bd d1 70 3b 3d be c5 b3 3d
       -0.013445994 -0.04208472 0.045761887 0.08777951
000070 a3 34 db bc e8 dc dc 3c 59 04 7c 3d 10 8d 97 bd
       -0.026758498 0.026960805 0.061527584 -0.073999524
000080 c7 69 1a bd fe d5 47 bd a7 c1 eb 3c 37 4f 3f 39
       -0.037698533 -0.048788063 0.028778864 0.00018244689
000090 3b 62 59 3d 00 25 44 bc ee 2d 9f bd 32 e4 5e bd
       0.053072196 -0.011971712 -0.07772432 -0.054416843
0000a0 51 4f 08 3d dc cf fe 3c 37 1c 04 3d 55 68 af 3c
       0.033278767 0.031104974 0.03225347 0.021412054
0000b0 03 d4 1e bd 45 ad b0 bd 1f 23 97 bd 7c 2f 2e bd
       -0.03877641 -0.086267985 -0.07379746 -0.042525753
0000c0 0e e2 95 3d 41 63 82 bd b7 ea 65 3d 03 25 07 bc
       0.07318507 -0.063665874 0.056132045 -0.00824857
0000d0 33 b9 01 3d c0 56 83 3d 80 63 74 3d ef c9 3b 3d
       0.03167076 0.064130306 0.059665203 0.045846876
0000e0 b2 3f 91 3d 8e b1 b9 bc 3f ec 8e bc 2b 0c f6 bc
       0.07092227 -0.022667672 -0.017446635 -0.030035099
0000f0 49 d5 d2 3c 82 7e b1 3c dd b5 ba bd 93 ce c0 3c
       0.025736468 0.021666769 -0.09116719 0.023536002
000100 fb 75 77 3d bb 7c 52 bd 9c 7a ca 3c 21 a9 05 3d
       0.06041525 -0.051388483 0.024716668 0.032631997
000110 a4 db 7d bd fb dc a7 3b e7 dd 98 3d 25 4e d8 3b
       -0.061977044 0.0051227785 0.074641995 0.0066011124
000120 f0 39 8f 3d 58 83 dd bc c9 84 dd 3a ac 99 73 3d
       0.069934726 -0.027040169 0.0016900535 0.059472725
000130 e7 1a ad bd b8 d5 e3 3c 1b 14 cd bc 89 fe 8b bd
       -0.08452397 0.02781187 -0.025034001 -0.06835658
000140 3d e0 b1 3d 52 e5 50 3d 6c d3 82 bc de c8 98 3d
       0.08685348 0.050999947 -0.015969954 0.074601874
000150 0f 82 db 3c 5f 47 79 bd 37 37 77 3c 95 06 54 bd
       0.026795415 -0.06085908 0.015088848 -0.05176409
000160 cd a7 03 3d 43 2b 28 3d 0c d4 85 3d f8 ce 75 3d
       0.03214245 0.041056883 0.06534585 0.060011834
000170 1b 44 29 ba bd e2 0b bd 89 8a f4 3c 50 5e b1 3d
       -0.0006456987 -0.03415178 0.029851215 0.08660567
000180 a2 7b aa 3d 0f c0 9f 3d 34 b1 76 3d aa 49 67 bd
       0.08324362 0.07800304 0.060227588 -0.056466736
000190 a3 33 a6 3d 56 62 38 bd c8 70 0b 3c d6 2d c6 3c
       0.08115318 -0.045015655 0.008510776 0.024191778
0001a0 0d 6b 34 3b 63 e5 cd 3a b3 ef a4 bd 05 de 5a bc
       0.0027529628 0.0015708621 -0.080535315 -0.013358598
0001b0 1c 3e 47 3d 11 c4 07 3d 0b c7 a3 3c cf 38 1b bc
       0.048643216 0.033145968 0.019992372 -0.009473993
0001c0 66 85 97 3b b7 ad 3c 3b 98 83 3b bd 7c 5e 70 3d
       0.0046240566 0.0028790066 -0.045779794 0.058683857
0001d0 f0 4d 01 3d e1 ae bc 3d 36 35 51 3c cf ad 46 bd
       0.031568468 0.09213043 0.012769034 -0.0485056
0001e0 20 e1 6e 3d 29 b3 74 3d 0d b7 0d bd 9f 67 02 3d
       0.058320165 0.059741173 -0.0345984 0.031837102
0001f0 cd 8c 9b b9 de 80 32 3d b4 fe e2 3c bb 6e 3e bd
       -0.0002966881 0.04357993 0.027709343 -0.04649232
000200 79 d3 d0 ba 59 3f 73 bd cc fa 89 bc 3e 35 26 3d
       -0.0015932164 -0.059386585 -0.016843222 0.04057812
000210 a1 c8 87 bd 65 cd b2 bd 73 fe a4 3c 0c 74 d9 3c
       -0.06630064 -0.08730582 0.020140862 0.026544593
000220 e7 c8 64 3d b3 af a1 3c 6f 57 aa bd 4a d7 86 bd
       0.055855658 0.0197371 -0.08317458 -0.06584032
000230 9c b0 67 bd a2 02 8a bd 76 ca a7 bc 2f 8b 72 3d
       -0.056564912 -0.067387834 -0.020482283 0.059214767
000240 f6 e7 0c 3d b5 6e a1 3d 03 19 24 bd 62 bf a7 bb
       0.034400903 0.07882444 -0.040062916 -0.00511925
000250 f5 90 86 bc c2 56 81 3c ca 01 28 bd ac 8e 88 3d
       -0.016426543 0.01578844 -0.04101733 0.066678375
000260 6b a5 3c bd fc 44 69 bc d1 78 ca b9 35 b3 ad bd
       -0.046056192 -0.014237639 -0.00038618458 -0.08481447
000270 b2 f4 84 bd b6 bf 35 3d 80 f1 6c bd e4 90 6f bd
       -0.064919844 0.044372283 -0.0578475 -0.058487788
000280 b6 31 6f 3d 6c 1d 06 3d b0 89 e8 3a 41 9e 81 bb
       0.058397017 0.032742903 0.0017741229 -0.003955633
000290 16 81 cc 3c 23 27 6a 3d ce 4a b5 bd 04 fe 26 3c
       0.024963897 0.05716623 -0.088521585 0.010192398
0002a0 cf a5 76 bd 5a ba 7d 3d b7 91 8f 3c 0d 11 d4 bc
       -0.06021672 0.061945297 0.017525537 -0.025887037
0002b0 6e 14 14 3d d1 50 96 3d 57 54 64 3b 15 a3 a0 3d
       0.036152296 0.07339633 0.003484031 0.078436054
0002c0 30 ff 92 3c 74 93 19 3d 0a a0 a3 bd dc 8f 95 3d
       0.017943949 0.037494138 -0.079895094 0.073028296
0002d0 b6 b9 0c bd 1e c2 ec 3c 0f 5b 5e 3d 17 62 09 bc
       -0.034356795 0.028901156 0.05428606 -0.008385203
0002e0 04 c1 55 bd c9 d9 8a 3d f1 ae 8d 3d 3e a4 3d bc
       -0.052186027 0.067798205 0.06918133 -0.011574803
0002f0 e6 c3 c2 bb 27 5b 23 bc e4 d1 dd bc 81 9b a3 bd
       -0.005943763 -0.009970463 -0.027077623 -0.079886444
000300 70 c0 81 bd 63 1a e4 bc d0 d3 9e 3d a9 41 0f 3a
       -0.06335533 -0.027844613 0.07755244 0.0005464801
000310 a0 8c cf 3c 35 72 87 3d aa 6b cd bb ee c8 88 3a
       0.02533561 0.0661358 -0.006268938 0.0010435858
000320 2f 84 e1 3c bb 13 1a 3d b3 92 a4 ba cc ca 4d bd
       0.02752885 0.037616473 -0.0012555927 -0.05024223
000330 cf 5c 8d bd b4 07 5a bd 01 bd 83 3d 2c a4 28 3d
       -0.069024675 -0.053230003 0.06432534 0.04117219
000340 27 40 89 bd 0a 8e 31 bd 5d 7a 81 bc c6 83 6d 3d
       -0.06701689 -0.04334835 -0.015805418 0.057986997
000350 0b 8c 1f 3c 6f bc 46 bd f0 ed 97 bd da 07 33 bd
       0.009737979 -0.048519548 -0.0741843 -0.04370866
000360 6c 17 61 bd a5 4c 2e 3d 72 e0 30 3c f0 6d 16 bd
       -0.054953977 0.042553563 0.010795699 -0.03672594
000370 d2 97 37 bd 84 99 86 3d 10 db a2 3d 60 35 ae bd
       -0.04482252 0.065722495 0.07951939 -0.08506274
000380 85 76 60 3d 12 1e cf 3b 70 97 ad 3d a6 91 aa bd
       0.05480053 0.0063207233 0.0847615 -0.083285615
000390 dc c7 0e 3d 54 a6 f2 3c 71 ba 10 bc f4 ee 95 bd
       0.03485857 0.029620327 -0.008833514 -0.07320967
0003a0 fc 1b 56 bd 81 af aa 3c 3d 5b 55 bd a8 56 c0 3c
       -0.05227278 0.02083564 -0.052088965 0.02347882
0003b0 62 3e a1 3d 2e ba 97 bc 8b 81 77 3d 76 c3 7e bc
       0.07873227 -0.018521395 0.060426276 -0.015549531
0003c0 85 a8 52 bd 21 f8 ab 3d 1b 40 b2 bb 1d bd 55 3b
       -0.051430244 0.08396936 -0.005439771 0.003261394
0003d0 2d bf d1 bc e9 7f 12 3d ae 43 b4 3c 05 89 a4 bd
       -0.025603855 0.035766516 0.022004928 -0.08033947
0003e0 74 d0 ae bd cd 43 02 3d 5a e6 e6 3c 07 1e 8c bd
       -0.08535853 0.03180294 0.028186012 -0.06841665
0003f0 1e 19 3a 3d 18 c6 13 3d 28 20 8e bd 35 5d 20 3c
       0.04543411 0.03607759 -0.06939727 0.009787847

gnn_node.convs.0.mlp.1.weight f4 [256]
000000 6a bd dd 3f c7 44 cb 3b 87 5c 89 3f 61 d2 5b 3f
       1.732343 0.0062032673 1.0731362 0.8586789
000010 51 57 a9 3e 95 c3 3a 3f ce b3 c9 3f c8 01 b9 3f
       0.3307443 0.72954684 1.5757997 1.4453669
000020 dc 0a 9a 3f a6 5e a8 3f 17 26 ad 3f 6d 7f 7e bc
       1.2034564 1.3153884 1.3527249 -0.01553331
000030 11 93 82 3f d1 04 a9 3e b4 94 70 3e 44 75 89 3f
       1.0201131 0.33011487 0.23494226 1.0738912
000040 c0 d8 27 3f 9a 33 c2 3f 72 74 dd 3f 59 88 7e 3f
       0.6556511 1.5171998 1.7301161 0.994268
000050 35 62 40 3f cc 07 c2 3f 6f 82 39 3e 46 38 8c 3e
       0.7514985 1.515863 0.18116163 0.27386683
000060 f6 4e 7b 3f db 49 b3 3f 4b 34 8b 3f b2 33 c0 3e
       0.9816736 1.4006914 1.0875334 0.3753944
000070 3e fd ca 3f 34 11 9a 3f b1 d0 9b 3f 44 bf 9b 3f
       1.5858533 1.20365 1.2173063 1.2167745
000080 3e 6a f6 3f 01 d4 b9 3f fb f5 d5 3f 4c f5 d2 ba
       1.9251173 1.4517823 1.6715692 -0.0016094833
000090 08 d3 34 3e 36 94 9d 3e 43 76 a6 3f d3 50 a7 3f
       0.17658627 0.30777138 1.3004841 1.307154
0000a0 a6 7f 87 3f f5 b7 b0 3f 56 a6 2c 3f 3f e2 dc 3f
       1.058583 1.3806139 0.6744131 1.7256545
0000b0 b7 8b 97 3f 03 fa 00 40 95 88 89 3f c7 a1 84 3f
       1.1839513 2.0152595 1.0744807 1.036187
0000c0 09 7d de 3f ae 19 26 3f 17 54 bf 3f 85 5d 17 40
       1.7381908 0.64882934 1.4947537 2.365083
0000d0 44 83 cb 3f b1 33 54 3f f1 59 62 ba 85 41 99 3f
       1.5899434 0.82891375 -0.0008634618 1.197312
0000e0 53 da 2e 3f 25 97 84 3f 10 a0 2e 3f f2 34 cf 3f
       0.68301886 1.0358626 0.68212986 1.6188033
0000f0 ea 37 d1 3f a4 de 9e 3f 05 7b c0 3f 22 87 b9 3f
       1.6345189 1.2411695 1.5037543 1.4494364
000100 f4 3e f2 3f 37 04 71 3f f0 0a ae 3f e4 4b b6 3f
       1.8925462 0.94147056 1.3597088 1.424191
000110 ef e3 92 3f e3 00 9c 3f ae 38 c6 3f e5 4f 2e 3f
       1.147581 1.2187771 1.5486047 0.6809066
000120 61 ab 92 3f dc 16 9f 3f 55 4b 7d 3f f7 41 a0 bb
       1.1458551 1.2428851 0.9894307 -0.004890676
000130 83 ac 86 3f 91 c3 b9 3f f0 09 98 3f c0 4d b3 3f
       1.0521396 1.4512807 1.1878033 1.4008102
000140 7a 3b c9 3f 8c fd 97 3e ba 01 2f 3f 92 e0 9a 3f
       1.5721276 0.29685628 0.6836201 1.2099783
000150 45 bd cd 3f d9 d5 c5 3e a4 d5 68 3f 84 8d 02 40
       1.6073385 0.38639715 0.9095099 2.0398874
000160 1f e9 4f 3f 07 76 db 3f 58 ed 81 3f 99 e5 86 3e
       0.8121509 1.7145394 1.0150557 0.26347044
000170 21 b2 90 3f 71 dd ad 3f 08 69 74 3f fa 71 d0 3e
       1.1304361 1.3583204 0.95472765 0.40711957
000180 26 70 ab 3e bc cb e7 3f 24 23 95 3f 1d af d0 3e
       0.33484 1.810905 1.1651349 0.407586
000190 43 59 84 3f 8f 02 86 3f 64 06 7b 3f 48 fd 55 3e
       1.033974 1.0469531 0.98056626 0.208974
0001a0 7b 3d d8 3f d2 d4 49 3e c4 a2 ae 3f bb 46 aa 3f
       1.6893762 0.19710091 1.3643422 1.3302835
0001b0 62 50 87 3f 74 b4 1d 3f a5 74 e2 3e ed e0 9b 3f
       1.0571406 0.61603475 0.44229618 1.2178017
0001c0 b0 56 50 3f b1 b6 b7 3e 62 74 8f 3e 22 6b 7c 3f
       0.81382275 0.3588157 0.2801848 0.9860097
0001d0 25 0f ae 3f d7 55 a1 3f 15 6e d0 3f 88 b5 8b 3f
       1.3598372 1.2604321 1.6283594 1.0914774
0001e0 ad f9 2c 3e cf 8e d2 3d eb 9d fd 3e 12 d3 91 3e
       0.16892119 0.10281145 0.49534544 0.28481346
0001f0 cc 23 d0 3f d3 a8 a6 3f 9e 3f ba 3f a8 f8 fe bc
       1.6260924 1.3020271 1.4550664 -0.031124428
000200 94 f3 53 3e 0b 39 47 3f c1 79 ea 3f 3e bc af 3f
       0.20698386 0.77821416 1.8318406 1.3729322
000210 01 ea 14 3c 9e 42 a8 3f d4 0a 96 3f d5 68 8f 3f
       0.009088994 1.314533 1.1722054 1.1203867
000220 df b9 be 3f 9b dd a6 3f ab 17 80 3d 13 2e e0 3f
       1.4900473 1.3036379 0.06254514 1.7514061
000230 9b a0 0a 3f 0d 8c 0c 3f 57 cc b3 3f c6 e0 55 3f
       0.54151314 0.549012 1.4046735 0.835461
000240 3f 46 cd 3e 64 8e a7 3f b2 18 2b 3d 50 07 d1 3f
       0.40092656 1.3090329 0.0417716 1.6330357
000250 f7 c3 6f 3f 80 40 2f 3f a4 d7 c8 3f 8d 1e d5 3d
       0.93658394 0.68457794 1.5690808 0.10406218
000260 f2 98 ac 3f 71 07 96 3f b8 22 6a 3f a4 c7 9e 3e
       1.3484175 1.1721021 0.91459227 0.3101169
000270 08 1f a6 3f 8d 2f df 3f 74 0b ff 3f be 1e bf 3f
       1.297822 1.7436386 1.992537 1.4931257
000280 2e 90 d6 3f 7b 5f c3 3f 81 ef 9f 3f c2 bf 95 3f
       1.676275 1.5263513 1.2494966 1.1699145
000290 5d 82 8c 3f 9b 2a 49 3f 51 dd 30 3f f4 ed 9b 3f
       1.0977284 0.78580636 0.690877 1.2181993
0002a0 2c 58 93 3f 70 09 e8 3f 4f ea 6b 3f a0 8b 39 3e
       1.1511283 1.812788 0.921544 0.18119669
0002b0 ce 02 84 3f 4a da 10 3f e3 46 83 3f e3 7b ce 3f
       1.0313356 0.5658308 1.0256008 1.6131557
0002c0 27 bd c4 3f ab 66 fc 3f 1c cf 92 3f 1f 07 0e 40
       1.5370225 1.9718832 1.1469455 2.2191846
0002d0 c8 52 8f 3f 9f 02 4b 3f 25 0f 2e 3f 74 b8 f0 3f
       1.1197138 0.79300874 0.6799186 1.8806291
0002e0 76 56 9f 3f 38 6f 15 3f 6f aa ae 3f 83 bd 2f 3f
       1.2448261 0.5837283 1.3645762 0.68648547
0002f0 ba 64 b5 3f 3d 6c 9c 3f 4a 80 d3 3d 6b 5f 41 3f
       1.4171364 1.2220532 0.103272036 0.7553622
000300 dd a5 a7 3f 84 bd 95 3f 9c 7c 18 3f 52 25 c4 3f
       1.3097492 1.169846 0.5956514 1.5323889
000310 65 2a 67 3f e9 8e e6 3e b2 d0 8d 3f 6e d1 69 3f
       0.90299064 0.45030907 1.1079314 0.9133519
000320 84 9a 02 3f 1e 56 b3 3f bc 34 f6 3f a0 3e 9b 3f
       0.5101702 1.4010656 1.9234843 1.2128487
000330 8d 94 86 3f 0a bb a4 3f ea 91 c1 3f c7 d6 86 3f
       1.0514084 1.286958 1.5122654 1.0534295
000340 a2 3f 5f 3f 66 5f c7 3f 98 da 1f 3e 7c 8b 41 3e
       0.8720647 1.5575988 0.1561073 0.18900865
000350 72 3e d5 3b f6 f3 b3 3f 6a 17 58 3f db b2 6c 3f
       0.006507688 1.4058826 0.8441073 0.9246041
000360 2b 85 93 3f d3 5f bd 3e 7a 5e dd 3f 61 c1 d4 3f
       1.1525015 0.3698717 1.7294457 1.6621515
000370 77 88 13 3f 86 48 bc 3f a0 80 d7 3e 5b a4 37 3f
       0.57630104 1.4709632 0.4209032 0.7173516
000380 e0 32 ae 3f 5d 31 07 3f f8 b7 8f 3f 87 22 94 3f
       1.3609276 0.528097 1.1228018 1.1573037
000390 6e cc a7 3f 74 50 8b 3f ef d7 b9 3f 5a 5d b8 3f
       1.3109262 1.0883927 1.4519023 1.4403489
0003a0 5f 9c 36 3d 53 f5 b3 3f d9 b9 f5 3e d4 c9 e6 3b
       0.04458272 1.4059242 0.47993353 0.0070431028
0003b0 4f 4d c2 3f 1b 56 a1 3f db c4 df 3e 12 9c 6d 3f
       1.5179843 1.2604402 0.43704876 0.9281627
0003c0 b1 07 c3 3f aa d3 9a 3f 5b c6 c0 3f 10 4e c9 3f
       1.5236722 1.2095845 1.5060533 1.5726948
0003d0 61 31 07 40 2f 74 e2 3f 80 47 8b 3f db ae af 3f
       2.1123888 1.7691706 1.0881195 1.3725237
0003e0 f5 e7 92 3f cd 7d 85 3f e7 a7 e5 3f 6b 1b 29 3f
       1.1477038 1.0429016 1.7941865 0.6605746
0003f0 1a 83 77 3f 18 76 49 3f ce 35 96 3f 14 6e b3 3f
       0.9668442 0.7869582 1.173517 1.4017968

gnn_node.convs.0.mlp.1.bias f4 [256]
000000 9b 27 ab be 59 54 8e be 1f ff 01 bf 71 34 29 bd
       -0.33428654 -0.27798727 -0.5077991 -0.041309778
000010 05 12 3a bf aa d1 0d bf c8 60 07 bf b9 cb 0e bf
       -0.72683746 -0.55398047 -0.5288205 -0.55779606
000020 99 03 9d 3d ef 08 06 3e d5 09 cc 3d e2 bf 99 3e
       0.07666702 0.13089345 0.09962813 0.30029207
000030 ea 30 18 be 02 a3 8c 3e 39 20 b1 bd 60 10 c9 be
       -0.14862409 0.27468115 -0.08648724 -0.39270306
000040 90 67 b1 bc 19 4a 39 be 76 1b cf be e2 47 d4 be
       -0.021655828 -0.18094672 -0.4045064 -0.41461092
000050 e8 cf af be 43 55 37 bf 20 9f 76 3e c6 56 48 bf
       -0.34338307 -0.71614474 0.24084139 -0.78257406
000060 24 c9 09 bf dc 41 bf be 8b 58 de be 9b 24 47 3e
       -0.5382254 -0.37354934 -0.43426928 0.19447558
000070 d2 61 9c be ad ab a5 be 74 c7 cc be bd 79 40 be
       -0.3054338 -0.3235754 -0.3999592 -0.1879644
000080 33 c1 85 be ce b8 07 bf 42 1f 05 bf 37 cb 9e 3e
       -0.26123962 -0.53016365 -0.5200082 0.31014416
000090 13 f8 83 be 2b 94 8c be b3 e1 15 bf ab ab 6b 3e
       -0.25775203 -0.27456793 -0.58547515 0.23014705
0000a0 7c 1c 58 be b9 e6 97 be ef b9 c3 be ae 0c f8 be
       -0.21104616 -0.29668215 -0.38227794 -0.48447174
0000b0 45 a3 83 3e c5 8a 3b be 14 72 db be 72 4a b2 be
       0.25710502 -0.18314655 -0.42860472 -0.34822422
0000c0 12 14 26 be aa 6a 06 be 0e 7c 3f be 3a bd c4 3e
       -0.16218594 -0.13126627 -0.18699667 0.38425618
0000d0 a8 1e 5f be 95 5a d1 be 9b d2 4a bd f6 3d a3 bd
       -0.21789038 -0.4088942 -0.049517255 -0.079708025
0000e0 7e 5d 5f bf 93 f0 a4 bf d9 c3 73 bf 23 0e a9 be
       -0.8725203 -1.2885917 -0.95220715 -0.33018598
0000f0 02 de e8 be 04 a7 ce be 07 d9 f0 3e 90 8e 04 be
       -0.4548188 -0.40361798 0.4704058 -0.12945008
000100 bd 14 21 be 37 e4 e6 bc 94 8b ca be 1c 0e cd be
       -0.15730567 -0.028184993 -0.39559615 -0.40049827
000110 b3 69 d3 be 4f 47 b6 bd 7d d4 86 be e6 fb f6 3d
       -0.4129158 -0.0890032 -0.2633399 0.120597646
000120 94 39 02 bf 3d 6a cf 3e e0 35 12 bf 7d a7 86 be
       -0.5086911 0.4051074 -0.57113457 -0.26299658
000130 3e 1d fd be af ae 67 be dc ba a5 be 8c 72 6a bd
       -0.49436373 -0.2262523 -0.32369125 -0.057238147
000140 4c 1b 17 bf c0 57 a1 be cb 0c 37 be 5e 34 fe be
       -0.59026027 -0.3151226 -0.17875974 -0.49649328
000150 f7 69 c1 be 39 24 9c 3d f9 64 80 be 14 3f 1c bf
       -0.37776157 0.076240964 -0.25077036 -0.6103375
000160 9f 10 d4 be ca 38 da be e9 6f bf be 22 f3 4e bf
       -0.4141893 -0.42621452 -0.37390068 -0.8083974
000170 ff fb e1 be 4e 8f a2 be d2 21 36 be 3c c6 d8 be
       -0.4413757 -0.31749958 -0.17786339 -0.4233874
000180 9c d7 a4 be 57 a9 9d be a6 0e cb be 2d b3 94 be
       -0.32195747 -0.3079326 -0.39659613 -0.2904295
000190 55 f1 65 be 47 7e ee be d0 b2 8a be 56 2f c8 be
       -0.22455342 -0.46580717 -0.27089548 -0.39098614
0001a0 4c 06 27 be 81 3b af 3e d6 91 cd be 91 00 61 be
       -0.16310996 0.34225085 -0.40150326 -0.21972872
0001b0 a0 d9 77 be be 18 6b bf 73 ca 98 be b2 4c 45 be
       -0.24204111 -0.9183463 -0.29841956 -0.19267538
0001c0 c8 fa e1 3d a2 9d 77 bf cb 55 81 3e 4d fc 00 bf
       0.11034161 -0.96724904 0.25260767 -0.5038498
0001d0 6a d3 fc be 0f 65 94 3e 7a e5 00 bf 02 dc d8 be
       -0.49380046 0.28983352 -0.50350153 -0.42355353
0001e0 45 5d b0 bd ee 12 da bd 8b ae c5 be dd c2 7e bf
       -0.0861154 -0.10648142 -0.38609728 -0.9951609
0001f0 f3 e5 1b bf df aa 73 3b 99 9f 4a be 69 75 79 3e
       -0.6089775 0.0037180705 -0.19787444 0.24361195
000200 a9 e3 98 3e 67 57 d9 be c6 ed 15 bf 23 e7 00 bf
       0.2986119 -0.42449495 -0.5856594 -0.50352687
000210 eb 37 71 3e 76 a8 81 bd 70 9a aa be e7 fb e6 be
       0.23556487 -0.063309595 -0.3332095 -0.4511406
000220 7f f5 1d be 21 60 7f be 40 e2 55 bf b6 9d cf be
       -0.1542568 -0.24939014 -0.83548355 -0.4055001
000230 d6 8a 9c be 03 99 f5 be 04 b5 04 bf c8 8b a9 bc
       -0.30574673 -0.479683 -0.5183871 -0.020696536
000240 dd 88 b7 be 3c bc 48 3c ef bf 1f bf 57 f4 c8 be
       -0.35846606 0.01225191 -0.6240224 -0.39248917
000250 a1 46 22 3d 26 1f cc 3e 99 27 84 be 5d 3e bc 3e
       0.03961814 0.39867514 -0.2581146 0.3676633
000260 60 2b 7e 3c 6a 43 e7 be 82 97 d9 be 08 05 a2 bf
       0.015513271 -0.4516862 -0.42498404 -1.2657785
000270 a7 6e e4 be db 31 0f be 4f 5e 9e be 68 a8 09 bf
       -0.4461567 -0.13983862 -0.30931327 -0.5377259
000280 ee 3c 15 be b7 91 09 bf 21 57 09 bf 94 c3 ea be
       -0.14574024 -0.5373797 -0.53648573 -0.4585234
000290 cf ba a0 be 9a 78 d7 3e 8e 42 8d bf 58 30 e6 be
       -0.31392524 0.420842 -1.1035936 -0.44958758
0002a0 60 af 25 be 9c 0c c5 be ff 6f c8 bd 1f 32 7c 3c
       -0.16180182 -0.38486183 -0.097869866 0.015392809
0002b0 a4 6d ad be 1d 40 07 bf 81 31 e1 be 67 9f ef bd
       -0.33872712 -0.52832204 -0.4398308 -0.117003255
0002c0 ec bd e5 be 5f 09 c1 be e4 73 ad be ed 02 7f be
       -0.4487146 -0.37702462 -0.3387748 -0.2490346
0002d0 72 1f 36 3d d2 19 22 be 17 4d 99 be a3 da 23 be
       0.044463582 -0.15830162 -0.29941627 -0.16001372
0002e0 8e 71 14 bf de 6a f8 bd aa e9 16 bf 62 57 07 bf
       -0.5798577 -0.12129758 -0.58950293 -0.5286771
0002f0 f0 8d b3 3c 21 c0 7e be e6 1f fa 3e 2d 26 90 be
       0.021918267 -0.24877979 0.48852462 -0.28154126
000300 8c 37 9b be 47 f6 68 be a7 22 13 be 09 5b c2 be
       -0.30315816 -0.22750197 -0.14368688 -0.3796008
000310 3e 75 a7 be 78 a0 3a 3e a3 17 03 bf 96 a2 99 bd
       -0.32706636 0.18225276 -0.5120794 -0.07501714
000320 cd 01 61 bf f4 44 c1 be a6 9b 1a be 21 48 c1 be
       -0.8789337 -0.3774792 -0.15098438 -0.37750342
000330 12 3b b6 be cb 98 92 be 45 93 36 bf 21 ca d1 3e
       -0.35591942 -0.28632197 -0.71318465 0.40974525
000340 af ab 55 bf ca 7a a5 bd 29 ba 06 bf 67 8b c8 bd
       -0.83465093 -0.08080061 -0.5262781 -0.09792214
000350 2f f0 78 be f1 04 99 be 66 05 b3 3d 6b f0 20 be
       -0.24310373 -0.29886582 0.08741264 -0.15716712
000360 7d 97 64 be 02 c3 9d bf f3 99 e2 bc 51 a3 06 bf
       -0.22323413 -1.2325137 -0.0276613 -0.5259295
000370 71 0f db be 84 e8 ef be 21 9f 81 3e ec 76 80 be
       -0.42785218 -0.46857083 0.25316718 -0.2509073
000380 59 49 80 be a7 26 23 bf d1 7a f5 be 65 3c d7 3d
       -0.2505596 -0.63730854 -0.47945264 0.10509566
000390 48 d7 e1 be 2f 14 00 bf 0a 77 6d be 37 9a fc be
       -0.4410956 -0.500308 -0.23189941 -0.49336407
0003a0 b1 7c 52 be 88 e3 62 be 05 ee e5 be 5b 0e dd bd
       -0.20555378 -0.22157109 -0.44908157 -0.10793754
0003b0 2a 49 16 be 9c 95 a8 be a6 6c 80 3e 7f 09 b2 be
       -0.14676347 -0.32926643 0.25082892 -0.3477287
0003c0 6e af c7 be ad 3c 0b bf a5 1c cb b8 4e ce 92 be
       -0.3900103 -0.5438946 -9.68513e-05 -0.28673023
0003d0 a4 02 17 be 16 72 b6 be fe 49 57 be 27 2f da bd
       -0.14747101 -0.35633916 -0.2102432 -0.10653525
0003e0 46 ae f2 be 1f 6c a4 be 7b 7d 19 be d6 0f eb be
       -0.47398585 -0.3211374 -0.14989273 -0.4591052
0003f0 03 46 af be 36 f7 25 bd 65 7d 99 3c 7e c6 20 bf
       -0.34233102 -0.04051896 0.01873655 -0.62802875

gnn_node.convs.0.mlp.1.running_mean f4 [256]
000000 06 6d dc 40 bb 6c be 40 db ec 49 40 ef a5 bd c0
       6.8883085 5.950773 3.1550815 -5.9265056
000010 71 bc 43 41 d5 d5 ea c0 46 f0 18 c1 3b 56 de bf
       12.233506 -7.3386025 -9.5586605 -1.7370065
000020 27 fe ad c0 f4 de 65 40 83 76 85 3e 7b f8 20 41
       -5.4372745 3.591733 0.2606698 10.060664
000030 09 75 f7 c0 f3 62 8e 40 08 18 68 40 1c 87 ec c0
       -7.7330365 4.449579 3.6264668 -7.391493
000040 12 45 0e 41 cc 61 a9 40 d8 00 c4 3e 8a fd 80 c1
       8.891863 5.293188 0.38281894 -16.123798
000050 fc 08 06 c1 48 15 94 c0 0d 53 32 41 b1 d9 2d c0
       -8.377193 -4.627598 11.145276 -2.7164118
000060 7d ba 89 bf d4 81 0a c1 07 73 3b 40 d4 1e a1 40
       -1.0760037 -8.656696 2.9288957 5.035013
000070 01 aa 35 be 69 4e 06 3f fc 49 f7 40 92 20 27 3e
       -0.17740633 0.52463394 7.7277813 0.16321018
000080 b6 ac 9d 40 50 90 e5 c0 cd c6 c5 40 56 f8 3b 41
       4.927333 -7.1738663 6.1805177 11.748129
000090 cb 50 15 40 ed 5f e2 40 f8 3f 93 bf c0 ca 33 41
       2.3330562 7.0742097 -1.1503897 11.2369995
0000a0 5b 44 70 3f 75 55 f7 40 6a b6 24 c1 8c a3 d0 40
       0.938543 7.729182 -10.294535 6.519964
0000b0 ca 94 32 c0 04 33 8c c0 89 29 35 c0 d4 dc a3 40
       -2.7903314 -4.3812275 -2.83066 5.1207066
0000c0 0c 2d 30 3f c4 6b 89 41 ed c4 05 c0 cb c8 ad 40
       0.68818736 17.17762 -2.0901444 5.430761
0000d0 57 7d ea 40 23 98 e0 c0 6a ce 0e 40 c4 1d 05 c1
       7.3278003 -7.0185714 2.2313485 -8.319767
0000e0 a1 05 f1 40 c5 c9 44 41 c4 3a 11 c1 33 8a 91 3f
       7.531937 12.29926 -9.076847 1.13703
0000f0 28 e1 85 41 0b 86 2a c1 73 2e c5 c0 81 79 5b 41
       16.73494 -10.657725 -6.16192 13.717164
000100 44 1e af 40 e4 f8 74 c1 c5 bd 84 41 da 5f 4f 41
       5.4724445 -15.310764 16.59266 12.960901
000110 9e e8 5b c1 ac ab ad 40 95 20 2e c0 e9 3d ff 40
       -13.744291 5.427206 -2.7207386 7.9763074
000120 b4 ad ae be 8c b8 d5 c0 6e 79 8a 40 77 03 79 40
       -0.341169 -6.6787777 4.327323 3.8908365
000130 2a c6 f4 c0 2f 77 bb c0 b0 31 3d 41 1b 17 83 c0
       -7.64919 -5.858299 11.824631 -4.0965705
000140 e7 7e 60 c1 4a db 9f 40 0b 7c ce 40 d0 27 96 40
       -14.030982 4.9955187 6.452642 4.69236
000150 eb 67 01 c0 00 a4 01 40 88 ef b4 40 eb ff 7a c0
       -2.0219676 2.0256348 5.6542397 -3.92187
000160 7c e0 dd bf 13 be a6 40 e8 b0 fd bf 71 82 2a 40
       -1.7334132 5.2107024 -1.9819613 2.6642115
000170 4d de 13 c1 e7 7f be bf a7 51 7a 41 b2 03 7e 41
       -9.241773 -1.4882783 15.644935 15.875902
000180 77 5a 6e c1 c0 7e b9 40 8b 3f 82 bf 98 f1 92 c0
       -14.897086 5.7967224 -1.0175642 -4.5919914
000190 61 af b1 c0 57 06 e4 bf 30 eb 2e 41 bf 32 47 c1
       -5.5526586 -1.7814435 10.932419 -12.449889
0001a0 ea f8 31 c0 3c 86 3c 41 95 22 0d 41 7a fb 96 c1
       -2.7808175 11.782772 8.820943 -18.872791
0001b0 8d 22 83 40 4f f0 49 41 78 7f 1f c1 52 1c f1 bf
       4.0979676 12.621169 -9.96862 -1.8836768
0001c0 47 b7 4e c1 54 b3 23 41 2f d9 54 41 87 bb eb 40
       -12.919745 10.231281 13.303023 7.3666415
0001d0 da c0 19 c0 8c 03 cb 40 c3 12 e3 40 1a 05 eb c0
       -2.4023957 6.344183 7.0960402 -7.3443727
0001e0 17 f4 40 41 c7 74 65 bf 6e f3 86 3e e4 2a 08 41
       12.059592 -0.89631313 0.26357597 8.510471
0001f0 8c 67 a7 40 8a c2 01 40 11 b4 fd c0 c3 89 60 40
       5.23139 2.0274987 -7.928231 3.5084083
000200 bf f3 42 41 fa e8 af bf 37 c3 6d c0 8e 57 3f c1
       12.184508 -1.3742974 -3.71504 -11.958876
000210 d9 a7 3a 41 67 dc fe 40 c0 38 03 41 6f 38 48 c0
       11.665978 7.9644046 8.201355 -3.1284444
000220 fb df da c0 db 32 60 c0 bc 20 a5 bf 40 ee f2 c0
       -6.8398414 -3.503104 -1.2900615 -7.5915833
000230 cb bd e8 c0 b7 5a 92 c0 53 15 66 41 9e 51 06 41
       -7.273168 -4.5735736 14.380206 8.394926
000240 1a fa ba c0 1c 11 a5 c1 c6 b0 db 40 9e e8 9c c0
       -5.84303 -20.633354 6.865329 -4.9033957
000250 e3 45 11 40 09 cb 36 41 6d 68 74 41 0d ee 35 41
       2.2698905 11.424569 15.275495 11.370618
000260 b0 f4 57 40 9f c7 5c c1 6f c4 c2 c0 90 9c ab bf
       3.3743095 -13.798736 -6.0864787 -1.3407154
000270 c2 b4 45 c1 8e 45 96 41 78 8a 96 40 50 a0 69 c1
       -12.35663 18.783962 4.704403 -14.601639
000280 05 c7 d0 bf 17 04 02 c1 a2 67 0c bf 5a 09 03 c1
       -1.6310736 -8.1259985 -0.5484563 -8.189783
000290 b1 18 1e c0 5f b9 30 40 a9 ee 19 40 4a 99 de 3e
       -2.470257 2.7613142 2.4051917 0.43476325
0002a0 52 8b 15 41 68 be d7 bd 22 82 fc bf 72 ba 4f bf
       9.346514 -0.10534364 -1.9727213 -0.8114387
0002b0 c8 a4 cb 40 fa 3d 10 c1 22 33 ad c0 a8 bd d3 c0
       6.363865 -9.015131 -5.412492 -6.6169014
0002c0 22 59 09 bf b0 dd ad 3f 15 a1 e7 c0 c2 6b e8 40
       -0.5365163 1.3583279 -7.2384133 7.263154
0002d0 17 07 0d c1 fe b9 68 3e e7 b7 80 bf 20 e6 28 40
       -8.814231 0.227272 -1.0056123 2.6390457
0002e0 91 c0 9a c0 d7 5b d8 3f d1 77 71 c0 67 1c 2a bf
       -4.8360066 1.6903027 -3.772938 -0.6644959
0002f0 60 79 ec c0 97 10 a4 3f 91 80 2e 41 f9 af 85 c1
       -7.3898163 1.2817563 10.906388 -16.710924
000300 57 35 22 41 37 6c 12 c1 d2 d1 31 41 55 26 f6 40
       10.138022 -9.15142 11.113726 7.692179
000310 7e 4a fe 40 a7 12 77 c0 94 ea 13 40 aa 4e 58 41
       7.9465933 -3.8605134 2.3111925 13.519205
000320 1c a2 87 be 8f a0 04 41 b4 95 b6 3e 4f a0 b1 40
       -0.26490867 8.289199 0.3566109 5.550819
000330 b0 40 8c c0 89 99 29 bf 7f b4 26 c1 32 cc 4b 41
       -4.3828964 -0.662499 -10.419066 12.737352
000340 c5 fb 9a c0 26 49 40 41 74 60 b7 3f cd 93 08 41
       -4.8432336 12.0178585 1.432631 8.536084
000350 3f d3 bd bf ed f8 34 40 24 9e 11 c1 c0 4e c0 40
       -1.4830092 2.8276932 -9.101109 6.009613
000360 33 ba 51 c0 b9 85 9d 40 75 aa 25 41 f1 5b ef 40
       -3.2769897 4.9225736 10.3541155 7.4799733
000370 b6 8d 2e c0 e8 e2 15 c1 72 0a 76 41 02 e9 8b c0
       -2.7273993 -9.367897 15.37755 -4.3721933
000380 1f bc 48 41 84 17 33 41 ea 2a da bf a9 99 e7 40
       12.545928 11.193241 -1.7044346 7.2375073
000390 1b 1e d4 40 d9 c0 5c 40 d9 0c 81 c0 db ff c5 40
       6.628675 3.4492705 -4.0328183 6.1874824
0003a0 54 06 a5 40 d2 3d 98 41 05 39 bb c1 d8 4d 45 40
       5.1570225 19.030186 -23.402842 3.0828762
0003b0 26 f8 87 40 42 1d c7 c0 6e 50 14 40 4d ec cf bf
       4.2490416 -6.2223215 2.317409 -1.6243988
0003c0 f8 a8 36 c1 88 5a 5a c1 8c 1d b6 3f d6 c4 a9 40
       -11.416252 -13.647102 1.4227767 5.305278
0003d0 39 9a 46 c0 6d 24 d0 bf a7 30 b7 3e fc 79 a9 c0
       -3.103163 -1.6261116 0.35779306 -5.2961407
0003e0 18 f2 18 3f e9 b5 da bf ae 81 d1 c0 36 d3 d7 be
       0.59744406 -1.7086765 -6.54708 -0.4215333
0003f0 27 f9 ff 40 51 ff 98 40 7e 52 0d c0 7a da 91 c0
       7.999164 4.7811666 -2.20816 -4.5579195

gnn_node.convs.0.mlp.1.running_var f4 [256]
000000 ea 67 47 42 31 d0 56 42 98 6b d0 42 96 95 09 42
       49.85148 53.703312 104.210144 34.39608
000010 55 f4 c2 41 7f b1 17 42 54 26 ea 41 de 5c 4a 42
       24.369303 37.923336 29.268715 50.59069
000020 de 57 ac 41 58 ae 02 43 12 c3 40 42 75 42 33 42
       21.542904 130.68103 48.1905 44.8149
000030 5c 89 f9 41 b1 5b 38 42 af 45 a5 41 67 18 89 42
       31.19207 46.089542 20.659025 68.54766
000040 e3 0a 17 42 92 80 c2 42 07 a6 9f 42 4e 7c a5 42
       37.76063 97.251114 79.82427 82.74278
000050 c8 b6 d4 42 4a 65 45 42 25 74 4e 42 37 ba 54 42
       106.356995 49.348915 51.613422 53.18185
000060 46 a1 90 42 41 b1 c4 41 1c ce 9c 42 26 1d 76 42
       72.31499 24.58655 78.40256 61.528465
000070 58 11 0f 43 e1 da c5 42 b7 16 2a 43 99 03 72 42
       143.06775 98.9275 170.08873 60.503513
000080 b7 f8 cd 42 87 3a 11 42 27 66 6e 42 2f 49 2f 42
       102.98577 36.307156 59.59976 43.82147
000090 8f 22 37 42 64 e8 4a 42 60 c8 48 42 ad 30 e1 42
       45.78375 50.726944 50.19568 112.59507
0000a0 64 5c ca 42 85 9b a3 42 2b 16 92 42 63 ee 1e 42
       101.18045 81.80375 73.0433 39.7328
0000b0 ba ee 87 42 64 c6 58 42 66 ea cd 42 b6 7d 6a 42
       67.96626 54.19374 102.95781 58.622765
0000c0 d2 30 7a 42 d7 61 c5 42 25 30 1b 42 48 e6 04 42
       62.547676 98.69109 38.797016 33.224884
0000d0 1c 10 cf 42 7a 69 ba 42 19 b2 b9 41 40 c0 42 42
       103.53146 93.20601 23.211962 48.687744
0000e0 79 16 37 42 3c f6 1e 42 ec 34 5d 42 5c 75 89 41
       45.771946 39.740463 55.30168 17.182304
0000f0 a9 14 69 42 3e 7c 94 42 8f 70 62 42 4e 60 2e 42
       58.270176 74.24266 56.60992 43.594048
000100 15 17 21 42 89 a9 ef 41 2e c8 f6 42 9a 89 ec 42
       40.27254 29.95778 123.390976 118.26875
000110 ad 38 2a 42 52 79 a1 42 e0 ed 4b 42 58 12 1c 42
       42.555347 80.73695 50.9823 39.017914
000120 99 3f f6 42 bf 67 0a 43 b8 8d c6 42 7c 04 d1 41
       123.124214 138.40526 99.276794 26.12719
000130 8a 94 51 42 2a 1e 89 42 cb 74 b0 42 da a1 4b 42
       52.395058 68.558914 88.22811 50.90806
000140 e2 5b 42 42 b9 62 c9 41 e0 f6 e5 42 d2 65 dc 42
       48.58973 25.173204 114.98218 110.19887
000150 85 04 6b 42 32 1f 39 42 99 ec 8b 42 60 b3 5c 42
       58.754414 46.280464 69.962105 55.17517
000160 ab 18 1c 42 07 92 3e 42 11 78 db 42 81 a5 2c 42
       39.02409 47.642605 109.734505 43.161625
000170 32 60 a0 41 76 07 a9 42 4c bd 7f 42 e2 46 23 42
       20.04697 84.51457 63.93486 40.81922
000180 ea fb 04 42 98 92 01 43 e2 1c 92 42 eb bc 67 42
       33.24601 129.57263 73.05641 57.93449
000190 4f 7a ab 42 37 b1 0b 42 05 17 f1 42 21 4f 1d 42
       85.738884 34.92306 120.54496 39.327274
0001a0 99 5b 12 42 55 0a 66 42 ed aa 98 42 6c 1e 9b 41
       36.58945 57.51009 76.33384 19.389854
0001b0 e7 f0 ec 41 dd 84 e8 41 c1 71 fb 41 b1 11 b9 41
       29.617628 29.064875 31.430544 23.133638
0001c0 bc ae ac 41 19 99 e8 41 fd 10 81 42 d8 99 88 42
       21.58532 29.074755 64.53318 68.300476
0001d0 3b 08 c7 42 69 c6 09 42 2f 90 b9 42 c5 5a 66 42
       99.516075 34.44376 92.78161 57.588642
0001e0 e9 95 a9 42 d9 ce fe 41 e0 d3 a6 42 be e0 a5 42
       84.79279 31.851 83.41382 82.93895
0001f0 e3 bd 8f 42 b4 7d 28 42 b8 f6 bc 42 4b ef 3e 42
       71.87087 42.122757 94.48187 47.733685
000200 b4 98 50 42 f3 03 37 42 83 82 4e 42 0d 86 9e 42
       52.149124 45.753857 51.627453 79.26182
000210 73 d8 d4 41 dd 82 ce 42 3b de 8f 42 39 1e a5 42
       26.605688 103.25559 71.934044 82.55903
000220 b1 61 c4 42 ad 5b 4d 42 af 35 d5 41 ab b3 89 42
       98.1908 51.339527 26.651213 68.850914
000230 7b de 63 42 ad 0a 04 42 94 fe 01 43 8e 15 fb 42
       56.967266 33.010426 129.99445 125.5421
000240 96 63 9a 42 62 41 1b 42 10 4a b1 42 a7 06 c1 41
       77.1945 38.81385 88.64465 24.128248
000250 6b f6 ec 42 37 36 9a 42 56 4b c6 42 90 18 50 42
       118.481285 77.10589 99.14714 52.023987
000260 77 1b dd 42 f3 65 46 42 fb 61 9a 42 3a a1 07 42
       110.55364 49.59956 77.19137 33.907448
000270 d7 32 a1 42 a9 c1 94 42 cc b1 aa 42 0a 97 ac 42
       80.5993 74.37824 85.34726 86.295
000280 c6 2d b5 42 4e d8 fd 42 5d e9 03 43 26 49 f8 41
       90.5894 126.92247 131.91158 31.035717
000290 6e 18 63 42 7e 4b 36 42 3d 25 01 42 80 4f b0 42
       56.773857 45.573723 32.286366 88.15527
0002a0 12 7e 98 42 96 05 4f 42 07 ab 78 42 c3 85 86 42
       76.24623 51.755455 62.16702 67.26125
0002b0 ce e1 0b 42 a1 44 28 42 5b 76 42 42 2b d6 ab 41
       34.970512 42.06702 48.61558 21.479574
0002c0 e8 5e a7 42 0b c5 5d 42 3d 71 2f 42 8e 3d ec 42
       83.68536 55.442425 43.860584 118.120224
0002d0 fa 96 22 42 95 d1 87 42 5e cf 26 42 1a 5a 67 42
       40.647438 67.90934 41.702507 57.83799
0002e0 60 77 aa 42 97 68 49 42 56 ec 25 42 b5 4c b3 42
       85.233154 50.35214 41.480797 89.64982
0002f0 99 51 1e 42 02 54 3d 42 7e 03 0c 42 76 bb 0a 42
       39.579685 47.33204 35.00341 34.683067
000300 57 eb 6d 42 f2 1a 49 42 42 f2 9c 42 fd 40 a9 42
       59.479824 50.276314 78.47316 84.62693
000310 09 5d 64 42 ec ce ca 41 bb c3 e1 42 0f fa dd 41
       57.090855 25.351036 112.882286 27.747099
000320 d8 c2 2b 42 c4 17 d5 42 99 5c c2 42 8b 57 b5 42
       42.940277 106.54642 97.180855 90.67098
000330 f1 e3 62 42 5f c5 d9 42 61 75 4d 42 0d 9e c3 42
       56.7226 108.88549 51.364628 97.80869
000340 46 1f 1a 42 81 4c 5b 42 03 8d 77 42 f3 db a7 42
       38.53054 54.82471 61.887707 83.92959
000350 4b 4a 71 42 7b c6 ee 41 b3 4e 2c 42 6c 5c 6f 42
       60.32255 29.846914 43.076855 59.840256
000360 3a a4 77 42 81 a2 4b 42 72 91 54 42 bd d5 b5 42
       61.910378 50.908695 53.142036 90.91746
000370 0e d6 1a 42 0b 6b 82 42 af 12 8e 42 0a 81 0f 42
       38.709038 65.20907 71.03649 35.876015
000380 06 2e f3 42 3d 2e 5e 41 6a 6c a0 42 1c c2 b7 42
       121.58989 13.886289 80.21175 91.87912
000390 0f 57 b4 42 c4 94 b5 42 60 55 7c 42 93 91 f5 42
       90.17004 90.79056 63.083374 122.784325
0003a0 e4 66 bc 41 a5 ba a9 42 0a 39 3e 42 27 c4 b1 41
       23.55024 84.86454 47.555702 22.220778
0003b0 39 9a 3d 42 00 bd 79 42 a9 6f 38 42 c1 05 43 42
       47.400608 62.43457 46.109043 48.75562
0003c0 2d c0 c6 42 43 fc 24 42 34 65 93 42 11 4d ed 42
       99.37534 41.24635 73.69766 118.65052
0003d0 5f 2c 4b 42 cc ed 89 42 a5 a0 a2 42 48 d4 d3 41
       50.79333 68.96445 81.31376 26.478653
0003e0 14 c1 d1 42 68 90 bc 42 3f 7d 4f 42 e2 0a 9b 42
       104.877106 94.28204 51.87231 77.521255
0003f0 12 65 ad 42 21 89 23 42 f4 2f 9c 42 c5 86 bc 42
       86.6974 40.883915 78.09366 94.26322
