checkpoints/D_epoch_100.pth (torch, 843999 bytes, 48 tensors)

gnn_node.node_encoder.weight f4 [1, 128]
00000000: 9851 b53e ed18 b8bd 1dab dd3d 0f1b 113e
00000010: b0bc 9d3f 0ba4 dbbe e09f fabe 0263 c63e
00000020: 1608 ea3e 1416 69bb 049f 82bf 24bc cf3d
00000030: 1c0b 4fbf c14c d93e 328f 95bf a652 83bf
00000040: 5e87 05bf 662f 1cbf 4167 543f b084 963e
00000050: 108e 94bf 94c7 6fbb b1a6 14be 6a6d 833d
00000060: 0023 7bbf 7658 f43e 38ce ebbc 5012 413f
00000070: b1d8 0d3e 5437 60bf f43b 37bf e780 853f
00000080: f938 09bf 4e0b 363e 9c2c 773e da61 573e
00000090: 64f0 8d3f 12fc eb3e 5012 423e 17f2 703f
000000a0: 72d9 82be e06f 3ebe b43b e8bf 276a eabf
000000b0: b06a 90be ae71 863f 1dd0 97be 5bb5 653d
000000c0: 8bfc 8dbf 328b abbf 1a1c 943f 7768 eebf
000000d0: 8461 52be 111b f23e e1c1 753e d361 9abf
000000e0: 4741 cb3e 6052 2ebf cbfd 7cbf d1c9 323f
000000f0: 5d97 303d ccd3 21be 12bc 343f 0461 51bf
00000100: 92fa b6bf dfdf 1f3f 6e07 24bf eac1 1140
00000110: 9ce4 863f 67f9 a4be f76a 7c3f bf5c 02bf
00000120: e734 a33e a7b6 8f3c c706 623e 3a65 9bbe
00000130: ee7a 91bf f5ad 29be b5b7 6fbf 93a3 0abf
00000140: edbb 1c3e 432f 85bf 3aee 893d c9cc 8cbe
00000150: 1f86 edbf b072 193e 9783 67bd 7749 e0bc
00000160: ac62 ba3d c1d9 86bf 25e9 003f b0cf c0bc
00000170: f68a 5c3e 819f 353e 10a6 87bf 50b4 b63e
00000180: 46b6 c9bf d486 90bf 6a6e 28be e63a 723b
00000190: 803d 383f 7578 9cbd ec0c 06be 78d8 c53e
000001a0: c007 13be f332 2abb 0695 d7bf 17da 78be
000001b0: c229 98bf e9a2 bdbf 87ed 5cbf a8c0 09c0
000001c0: 3d77 a23e dbfd 803f 4533 143f 1838 e83d
000001d0: fbdf 173f 7191 4bbe 022e c6bd 6797 c23a
000001e0: a547 163e 70f5 7fbf ede2 ba3e 0131 593f
000001f0: 1c87 03bf 5d1c 263f 456b 79bf 2af4 9ebf
0.35413814 -0.08989129 0.10823653 0.14170478 1.2323208 -0.42898592 -0.489501 0.38747412
0.45709294 -0.0035566138 -1.0204778 0.10143307 -0.80876327 0.4244137 -1.1684325 -1.0259597
-0.5215968 -0.61009824 0.8297005 0.29398108 -1.1605854 -0.0036587464 -0.14516713 0.064173535
-0.9810028 0.4772374 -0.028784856 0.7541857 0.13852192 -0.87584424 -0.71575856 1.0429963
-0.5360256 0.1777775 0.24138111 0.21033421 1.1088986 0.46090752 0.18952298 0.941194
-0.25556523 -0.18597364 -1.814322 -1.8313645 -0.28206396 1.0503442 -0.29650965 0.056081157
-1.1092695 -1.3401854 1.1571076 -1.862563 -0.20545012 0.47286275 0.2399974 -1.2061104
0.3969824 -0.68094444 -0.9882476 0.698392 0.0431131 -0.1580345 0.7059947 -0.8178866
-1.4295218 0.62450975 -0.64073837 2.2774606 1.0538516 -0.3222153 0.98600715 -0.5092277
0.318763 0.01754315 0.22072898 -0.30350667 -1.136564 -0.16570266 -0.9363969 -0.54155844
0.15306063 -1.0405048 0.06734891 -0.2749999 -1.8556556 0.14985156 -0.05652198 -0.02737878
0.091008514 -1.0535203 0.5035575 -0.023536533 0.21537384 0.17736627 -1.0597553 0.35684443
-1.575875 -1.1291146 -0.1644837 0.0036961376 0.7196884 -0.07640163 -0.13090867 0.38641715
-0.14358425 -0.002597031 -1.6842353 -0.24301945 -1.1887743 -1.4815341 -0.8629994 -2.1523838
0.31731597 1.007747 0.5789073 0.11338824 0.5932614 -0.198797 -0.09676744 0.0014846147
0.14675768 -0.9998388 0.36501256 0.848404 -0.51378036 0.6488703 -0.97429305 -1.2418263

gnn_node.virtualnode_embedding.weight f4 [1, 128]
00000000: 6e34 1abf 8cb7 39bf 5028 bebd cb85 37be
00000010: a7a1 26bf f29a 9cbd d88c 0bbf b766 20bf
00000020: 59e0 5dbf b6ef aa3c 56a1 e5bd bdd3 adbe
00000030: 386d 4dbe c123 6abf c243 31be 1d6e 20bd
00000040: 1158 2fbe bfbd dabe a303 00bf 2296 d6be
00000050: 6d63 84be 8013 01be 44e2 85be 7837 0bbf
00000060: b4ee a4bd 6fb7 59bd 3bb8 d1be bbc4 60bf
00000070: 54a9 2fbf b7f6 2ebe b4d0 88be 3245 53bf
00000080: 753a 72be c5e2 31bf 520d f2be fb28 86be
00000090: a999 4abf c386 d2be ef52 98be c6ae 12bf
000000a0: 1af1 603d 9be8 e6bd 3b28 febd c654 60bf
000000b0: d8ba 24bf 44ce c5be 6aa0 c3be 0794 0ebf
000000c0: 54eb 9dbe 721c 413e 7efe 3cbf 9847 34bd
000000d0: 8d21 1bbd 2489 2abf ee0a ccbe b651 11be
000000e0: d92a ddbe 9e31 efbe 3133 9bbe 5c25 49bf
000000f0: 92d9 3fbe 4cc5 efbe b486 97be 28b9 96be
00000100: 9f74 7ebf ded9 26bf 666f 50be 4090 6cbf
00000110: c306 a1be 755b 043b f87d 39bf 5442 7abe
00000120: df24 3bbe de14 a2bd c8e2 17bf 1829 63be
00000130: 2431 9ebe 3fb4 c9be f2f0 4fbe b13a c53d
00000140: a89c fabe f549 14be cfe1 b9be 7db6 87be
00000150: 7e3b 7abe 935f c6be 72d9 86be dd2a 9ebe
00000160: bb42 c5be 6e9a 38be bdad 86be 44ad b6be
00000170: 0a15 ebbe 47c5 c6be 4d37 b5be 5c38 143d
00000180: 471e 0dbd 9f7b bbbe a4ad b3be f587 98be
00000190: a64e c0be 3f5f 8d3d ebca b7be 1719 45bf
000001a0: 0499 b9be c0b2 51bf aa76 b33e cff3 87be
000001b0: d5a8 94bd e159 8dbe 4d6e 8abe b8ad 3fbc
000001c0: c3a6 16bf d53e febe 50f4 18bf bde7 6cbf
000001d0: 4dfa 2fbf 083c cb3d 8d1b debe 16a1 b1be
000001e0: fca5 97be adf8 d2be 6885 ddbd 7019 13be
000001f0: f6c2 cabe a766 e3be f2e6 fdbd 9f76 e9bc
-0.6023625 -0.72545695 -0.09285033 -0.17922132 -0.6509041 -0.07646741 -0.54511786 -0.6265673
-0.8667045 0.020866256 -0.11212413 -0.33950606 -0.20061195 -0.91460806 -0.17311004 -0.039167512
-0.17123438 -0.4272289 -0.5000555 -0.41911417 -0.25857106 -0.12605095 -0.2614919 -0.54381514
-0.080533415 -0.05315345 -0.4096087 -0.87800187 -0.6861775 -0.17086302 -0.26721728 -0.8252746
-0.23655112 -0.6948665 -0.47275788 -0.2620314 -0.79140717 -0.4111844 -0.29750773 -0.57297933
0.054917432 -0.11274835 -0.12410017 -0.87629354 -0.643476 -0.3863393 -0.38208324 -0.5569462
-0.30843604 0.18858507 -0.73825824 -0.04401359 -0.037873793 -0.6661551 -0.3985209 -0.14191326
-0.43196753 -0.46717542 -0.30312493 -0.7857263 -0.1873534 -0.46830213 -0.29594958 -0.29438138
-0.993967 -0.6517619 -0.20354995 -0.9240761 -0.3145047 0.0020196114 -0.7245784 -0.24439365
-0.18275784 -0.07914136 -0.59330416 -0.22183645 -0.30896866 -0.3939533 -0.20306757 0.09630335
-0.48947644 -0.14481337 -0.3630509 -0.26506415 -0.24436757 -0.38744792 -0.26337773 -0.30892077
-0.38527474 -0.1802766 -0.26304427 -0.35679066 -0.4591449 -0.38822386 -0.35393754 0.03618656
-0.034452703 -0.36617753 -0.35093415 -0.29791227 -0.37560004 0.069029324 -0.35897002 -0.7699141
-0.36249554 -0.81913376 0.3505147 -0.265532 -0.07258765 -0.27607635 -0.27037278 -0.011699133
-0.5884821 -0.49657312 -0.5974779 -0.92541105 -0.68741304 0.099235594 -0.43380395 -0.3469321
-0.29618824 -0.4120535 -0.10816461 -0.14365172 -0.39601868 -0.44414255 -0.12397565 -0.028498946

gnn_node.convs.0.mlp.0.weight f4 [256, 128]
00000000: 7a7e 4b3d c424 e4be afe6 eebe afe7 6fbf
00000010: b7ed 063a 2084 53be 7022 29bf c8bb 84be
00000020: 69fd 9f3c 93b1 92bf 186a 2cbd f79c cabe
00000030: 75cb 13ba 4f76 f03b 542b b83d 30f5 73bc
00000040: 889e 3ebd 1e13 cbbe 09bc 67bd f3b6 a1be
00000050: 1308 4cbd 13b4 4f3e 23ec 98be 177b 05be
00000060: 14c2 c53e 4576 183f f603 753d fdba 2cbc
00000070: e6a2 21be a87f 493e 55e2 053f 5406 5bbe
00000080: ae6c fbbf 8d07 75bd 1967 82be df1c 24be
00000090: 20b1 a6bb d1c2 e2be 3965 68be a718 753c
000000a0: e9ec fa3e ea0d c6bf 8611 efbd 0d2e c93c
000000b0: 5aee 9a3d 63f0 e23e 7315 8d3d 74c4 6f3f
000000c0: ba5a 31be 35f9 1bbc 673c 6dbc 04a0 163d
000000d0: 385e 1cbd 89b4 b03d 6312 3cbe e553 0cbd
000000e0: 5366 0a3e a95f 3bbd 6316 44bc fe64 78be
000000f0: 52f7 353f 7a03 c7bd 6420 b33e 2094 29be
00000100: 48ae 3a3d 119b 00bf baa4 85bd 9f5e d3bd
00000110: 3da6 d83e 1867 9fbe 9c7e 93be 2c03 013e
00000120: 8cf9 1cbe 9b99 d4bd c1f6 ffbc 46da e33e
00000130: d7a3 3abd 7b8d 9c3d d974 4fbd 2915 55bf
00000140: 10b8 98be 3581 853c 9585 523d b665 1b3f
00000150: 76cb a1bd b230 33bf d018 11c0 4c1a 4cbf
00000160: a38f ec3e b13e 023e 5fa6 81be 5a20 a4be
00000170: c483 20be 977b c1be 09b5 7d3c 82fc 2c3e
00000180: 6e6e 19c0 2d14 73bc beeb a2bf 2597 cabe
00000190: 4c33 81bd e101 c0bd 4e82 33bf ea59 b1be
000001a0: 9da2 46be 14c0 94be bd07 613c 7661 c23e
000001b0: 1560 ff3d 9c4c 44be 2703 453f 3dde 8dbb
000001c0: 5a77 abbe f3bc 63be 96dd 6fbe 447e 89be
000001d0: fd79 c6bd c968 3bbd e53f 2dbf 8160 fe3e
000001e0: 719f 173f 7777 4ebe 4634 82be 4573 81bf
000001f0: 89c5 8c3e 6bc7 4d3c 365b b53c d45f 3c3c
00000200: d801 d63d 8f0f 443e fcbc d33d 7fc9 0e3f
00000210: 5b88 a93d 9276 ba3e a686 1b3e 9c4f 1b3e
00000220: ce55 053e ef15 183e e7e3 0bbd f8a6 263e
00000230: 466b 67bd 3d79 80bd fa2c 2dbc 0788 0c3d
00000240: 453f 073d 8cf5 c6bb a72a 013e d178 c53c
00000250: 5f46 973b 8b89 f23d fef3 30be 25e1 32bc
00000260: 982e 4f3c b8ee 033f 1d36 e33d 911f 1f3e
00000270: f037 3e3e 801c d4bb 05ee 69bd 353d 503d
00000280: 84be dbbe 0903 7d3e 9eb6 ad3b 9d4a 613d
00000290: 17d7 bb3d 9dc9 3a3e 5ed2 503e 06c3 073e
000002a0: 6efb 74be 04eb 9d3d dab9 1d3c 8243 013d
000002b0: c9e0 283e 55cb 7f3d efed 483e 9f39 403e
000002c0: 6b31 ebbd 2e09 8dbd 2f1d 883c 90c9 4cbd
000002d0: 7fbe d63e 0369 9fbd 75e6 8d3d 20fa 9f3d
000002e0: c282 bc3d 1abf 17bb 478d 8d3d aeef 353e
000002f0: 7ce9 20bf 2a12 91bd dd1f c8bd a737 563d
00000300: 8348 0d3d 2d63 323e b831 51bd 2288 333e
00000310: 67eb 203e aa0a e93e 22f6 323d 8e52 39bf
00000320: e11d ccbc df2c d53e 384f 6c3d 5ba6 e0bd
00000330: 0688 803d b905 803e 9d34 10bf be19 f6bd
00000340: 95b5 923e 497f f73e 809b 203e dd0b 613f
00000350: 691c 90bd 55cd b5bd b84f 8e3d 3b45 6f3e
00000360: 2d68 713d af25 cdbd f28f 083e 0c8d 073f
00000370: dbc3 53be e890 4e3e daa1 a3bd 80d8 b03d
00000380: 2844 b7be abd0 9f3d 9005 e63d d262 58bb
00000390: d0a4 dabb a107 103f 2504 ff3d e50f b93d
000003a0: 54c4 ee3d fab2 5c3e 27c8 1e3d ca55 f83e
000003b0: 296d 8cbd 7b0f 463d 1ea8 82be 8551 443d
000003c0: 80fd 6e3e f898 5bbc 38ba 383e ee36 a73c
000003d0: 434e cb3d 433a 003f 69ae 3f3e 9462 6e3e
000003e0: 35c2 b93d bb4a c8be 1fa7 1b3e 096e 973d
000003f0: a445 113e 40bb d63d b933 0f3d acb8 0cbc
0.049681164 -0.445593 -0.46660373 -0.93712896 0.00051471166 -0.2065587 -0.6606817 -0.25924516
0.019530015 -1.1460441 -0.042093366 -0.3957288 -0.00056379224 0.0073383222 0.08992639 -0.01489
-0.046537906 -0.39663023 -0.05657581 -0.31584892 -0.049812388 0.20283537 -0.29867658 -0.13035236
0.38624632 0.59555465 0.05981823 -0.010542628 -0.15784797 0.19677603 0.5229848 -0.21389133
-1.9642541 -0.059821654 -0.25469282 -0.16026638 -0.005087033 -0.44289258 -0.22694863 0.014959491
0.49008873 -1.5472996 -0.11673264 0.024558092 0.07564993 0.44324026 0.06888857 0.9365914
-0.17319766 -0.009519865 -0.014479733 0.036773697 -0.03817579 0.08628184 -0.18366389 -0.034259696
0.13515596 -0.045745526 -0.011968228 -0.24257275 0.71080506 -0.0971746 0.3498565 -0.16560411
0.045576364 -0.5023661 -0.0652556 -0.10320782 0.4231433 -0.31133342 -0.28807533 0.12598866
-0.1532957 -0.103808604 -0.031245591 0.44502467 -0.045566406 0.07644173 -0.050648544 -0.8323541
-0.2982793 0.016296962 0.051396925 0.60702074 -0.07900135 -0.6999618 -2.2671394 -0.79727626
0.46203336 0.12719227 -0.25322244 -0.32055932 -0.15675265 -0.37789604 0.015485057 0.16893199
-2.397365 -0.014836353 -1.2728193 -0.3956844 -0.06308612 -0.093753584 -0.70120704 -0.3463891
-0.1939797 -0.29052794 0.013734755 0.37964982 0.12469498 -0.19169849 0.76957935 -0.0043294714
-0.33489496 -0.22240047 -0.23424372 -0.26854146 -0.09691236 -0.045754228 -0.6767562 0.49683002
0.59227663 -0.2016276 -0.25430506 -1.0113302 0.27494457 0.012559752 0.02213822 0.011497457
0.104495704 0.1914656 0.1033878 0.5577621 0.08277961 0.36418587 0.15188083 0.15167087
0.13021013 0.14852117 -0.03415289 0.16274631 -0.05649879 -0.06273124 -0.010569805 0.034309413
0.033019323 -0.006071752 0.12613927 0.024105461 0.004616543 0.118426405 -0.17280576 -0.010917936
0.012645386 0.5153613 0.11094306 0.15539385 0.18576026 -0.006473124 -0.05711176 0.05083962
-0.4291879 0.24708189 0.0053013107 0.055002797 0.091718845 0.18240972 0.20392749 0.1325799
-0.23924038 0.07710841 0.00962683 0.03155852 0.16491999 0.062449772 0.19622014 0.1877198
-0.11484035 -0.068865165 0.016615478 -0.049996912 0.41942212 -0.07783701 0.06928722 0.078113794
0.092046276 -0.0023154677 0.06911712 0.17767212 -0.6285627 -0.07083543 -0.097717024 0.052299168
0.03449298 0.17420645 -0.051072806 0.175324 0.15714799 0.4551595 0.04369176 -0.72391593
-0.024916591 0.41635796 0.057692736 -0.1096923 0.062759444 0.25004366 -0.5633028 -0.12016629
0.2865416 0.48339298 0.15684319 0.87908727 -0.07036669 -0.088770546 0.06948799 0.23366253
0.05893724 -0.10016953 0.13336161 0.52949595 -0.20680182 0.20172465 -0.07989855 0.08635044
-0.35794187 0.07803472 0.1123153 -0.0033017886 -0.006672479 0.5626164 0.124519624 0.09036235
0.1165854 0.21552649 0.0387651 0.48502952 -0.06856758 0.048354607 -0.25518888 0.047929306
0.2333889 -0.01340317 0.18039787 0.020411935 0.099270366 0.500889 0.18718876 0.23279792
0.09070245 -0.39119515 0.1520047 0.073940344 0.14186722 0.10484934 0.034961436 -0.008588951

gnn_node.convs.0.mlp.0.bias f4 [256]
00000000: c61c b2bc c087 923d 6190 7bbd b76a 64bc
00000010: 0433 e8bc 639d 393d 83f3 1c3c 2536 833c
00000020: 7382 8ebd 0a18 8ebc c675 8cbd 7547 3cbd
00000030: 6587 b6bd d1bb 343d 590d eabc 3019 92bd
00000040: 031e a43c e7dc 473d 244c 30bd 2a1c 043b
00000050: 3820 b03d 562b 273d 5049 2bbd 1346 8c3d
00000060: 413c 5ebc 538d 28bd ff0e 403d dc25 b33d
00000070: 0aa8 dcbc 9df3 df3c 548f 7d3d 1ac9 96bd
00000080: d907 0dbd a5e1 56bd d357 f73c 0237 1539
00000090: 2c0d 593d 1a39 45bc e294 9dbd 6823 63bd
000000a0: 0720 083d a07f f03c 454a 043d 5b05 7f3c
000000b0: eeab 1abd ae1f b3bd 52b2 97bd d6f6 2dbd
000000c0: a890 953d 18a6 82bd ea67 673d f0d3 24bc
000000d0: 3ade 073d cdee 823d 8063 743d 1ac8 383d
000000e0: a3c0 923d 508b bdbc 6182 91bc dd8f 04bd
000000f0: a1d2 ca3c e692 b43c ba1c bcbd 36d2 db3c
00000100: c35f 7b3d 5d94 4bbd cd0b d63c 9c78 013d
00000110: e7e2 83bd f750 803b 308e a53d 3acc 053c
00000120: d378 903d fcba e6bc d683 073b ac99 733d
00000130: fb6f adbd 3a08 f63c 8a1e c9bc 6b52 8dbd
00000140: e271 bc3d 3806 513d 2eaf 81bc fb14 993d
00000150: 7946 d13c 75d8 78bd d0ec 653c 05bb 3dbd
00000160: cc06 003d 9ff0 2d3d 52cf 873d caf2 753d
00000170: c329 943b fd6a 10bd 19dd f13c 32fd b03d
00000180: 1dfe a93d e634 a13d c225 703d 2b35 67bd
00000190: fed0 a43d 3efc 37bd fa95 163c 66f8 c53c
000001a0: 4ba2 db3a 604e c93a 2a95 a5bd 1f20 3dbc
000001b0: 9338 473d a3aa 0f3d 265c a43c 5522 cebb
000001c0: e8b3 9d3b ff08 3a3b 9a78 3bbd 5782 713d
000001d0: c802 f03c 4d6e bc3d c31b 523c 116c 45bd
000001e0: cc91 6e3d 50b0 743d 8b69 0dbd ae71 033d
000001f0: b7a3 fb39 c628 2d3d 03f6 dd3c af7f 3ebd
00000200: 445e d7ba 883e 73bd b660 a4bc b4a3 273d
00000210: 49ff 87bd 70f4 afbd 8fc5 9b3c 3420 d83c
00000220: d418 6a3d ea69 a43c 0a5b aabd 726b 83bd
00000230: 7c5a 69bd 8fc9 8abd c911 abbc 1563 713d
00000240: d1cb 0c3d ba64 a03d a71a 24bd 7fcf b3bb
00000250: a5bb 81bc 6df5 813c e18d 2abd f284 883d
00000260: dbd6 3abd b0c0 52bc fa56 8aba 5ce3 adbd
00000270: fc71 84bd a44c 3d3d de37 74bd aa8e 6dbd
00000280: 20c8 633d 41fe 023d c1fd 133b 595f 9abb
00000290: 181f d43c 2047 693d a9c8 b4bd f593 1a3c
000002a0: 134d 70bd e55c 813d c2c3 8b3c 450d d4bc
000002b0: d19d 1d3d 3136 943d 6593 823b 2535 aa3d
000002c0: 1505 923c 5365 0b3d 692a acbd accb 8c3d
000002d0: 7621 04bd ed1e ee3c d4ab 5b3d c442 29bc
000002e0: 353c 4ebd a79c 893d b3e4 873d acbe 3dbc
000002f0: 5a4b efbb 4ec1 12bc 7f99 debc 1bf7 a0bd
00000300: d254 82bd f16b d6bc 7b09 9f3d 5560 fbb9
00000310: 6278 c93c 10c5 873d eab9 d3bb edc5 4b3b
00000320: 75f6 e13c 8920 143d c22a 35bb 4893 48bd
00000330: 6712 87bd cbde 61bd e260 843d b748 2b3d
00000340: ef11 89bd 13b4 1ebd 427b 81bc 6681 6d3d
00000350: 0b8c 1f3c 80ad 3bbd 387f 97bd 0f36 2fbd
00000360: 2405 68bd 6fbd 2f3d b87a 273c 8112 1dbd
00000370: 2158 36bd 2565 893d 3e5c a13d 9b41 aebd
00000380: fb2f 663d 65cc 273c b8f0 ac3d 4d32 adbd
00000390: 7b63 103d dcbc f33c 5145 11bc eb98 99bd
000003a0: 5a1b 56bd c9b9 b13c 1a21 55bd a856 c03c
000003b0: 2447 9d3d 4f91 a4bc d23b 763d d8f6 72bc
000003c0: 4eff 46bd ee9b ab3d 0224 c4bb ae6f 773a
000003d0: 56a8 a6bc 1aad 063d fabd b03c 421f abbd
000003e0: fe43 aebd 35f3 013d da4c f73c 6825 8cbd
000003f0: c2f2 3b3d 3018 0c3d e6ae 8ebd 1959 2f3c
-0.021742236 0.071547985 -0.061416987 -0.013941458 -0.028344639 0.04531611 0.009579542 0.016017029
-0.06958475 -0.017345447 -0.06858401 -0.045966584 -0.08912543 0.04412443 -0.028570818 -0.071337104
0.020033842 0.048794653 -0.043041363 0.0020158389 0.08599895 0.040812813 -0.041817963 0.06849303
-0.01356417 -0.041150402 0.0468893 0.087474555 -0.026935596 0.027337844 0.061904266 -0.07362576
-0.034431312 -0.052461285 0.030193245 0.0001423024 0.052991077 -0.01203754 -0.07694413 -0.055453688
0.03323367 0.029357731 0.03229739 0.015565242 -0.03776162 -0.08746277 -0.07407059 -0.04247173
0.073029816 -0.06379336 0.056495585 -0.010060295 0.033170916 0.06393204 0.059665203 0.045112707
0.07165649 -0.023137718 -0.017762365 -0.03236376 0.024758639 0.022042703 -0.09185167 0.026833635
0.061370622 -0.049702037 0.026128674 0.031609163 -0.064397626 0.0039159018 0.08083761 0.008166367
0.070542954 -0.028165333 0.0020677946 0.059472725 -0.08468624 0.03003322 -0.024550695 -0.069004856
0.09201409 0.05103132 -0.015830602 0.07474705 0.0255463 -0.060753305 0.014033511 -0.046320934
0.031256482 0.042465802 0.0663134 0.060045995 0.00452158 -0.035258282 0.029524373 0.08642043
0.083004214 0.07871418 0.05862976 -0.05644719 0.080476746 -0.04491829 0.009191031 0.024166297
0.0016756741 0.001535844 -0.080850914 -0.011543303 0.048637938 0.03507484 0.020063471 -0.006290714
0.0048127063 0.002838671 -0.04576931 0.058962192 0.029298201 0.09200726 0.012824002 -0.048198763
0.05824451 0.059738457 -0.03452448 0.032090835 0.00047996428 0.042275213 0.027094847 -0.046508487
-0.0016431292 -0.059385806 -0.020065647 0.040927604 -0.06640489 -0.08591545 0.019015102 0.026382543
0.057152584 0.020070035 -0.083181456 -0.06416978 -0.05697106 -0.067767255 -0.020882504 0.058932383
0.034374062 0.07831712 -0.04006448 -0.005487382 -0.015836546 0.015864098 -0.041639213 0.06665982
-0.04561506 -0.012863323 -0.0010554485 -0.08490631 -0.06467053 0.04621567 -0.05962359 -0.057997383
0.055610776 0.031980757 0.002258167 -0.0047110734 0.025893733 0.056952596 -0.088273354 0.00943469
-0.058667254 0.06316546 0.017061118 -0.025885234 0.038480584 0.07236899 0.003984856 0.08310918
0.017824689 0.034032177 -0.084065266 0.06874785 -0.032258473 0.029067481 0.053630665 -0.01033086
-0.050350387 0.06719332 0.06635418 -0.011581104 -0.007302684 -0.00895722 -0.027172802 -0.07859632
-0.063638344 -0.026174517 0.0776548 -0.00047946224 0.024593536 0.066293836 -0.0064613717 0.0031093315
0.02758334 0.03616384 -0.0027643894 -0.048968583 -0.06595307 -0.055144113 0.064637914 0.041817393
-0.06692874 -0.03874595 -0.015805844 0.057984732 0.009737979 -0.04581976 -0.07397312 -0.042776164
-0.056645527 0.042905267 0.0102221295 -0.038347725 -0.04451764 0.06708745 0.07878922 -0.08508607
0.0561981 0.010241603 0.08444351 -0.0845686 0.035251122 0.029753141 -0.008866624 -0.0749987
-0.05227218 0.021695035 -0.05203352 0.02347882 0.076795846 -0.02008882 0.060115643 -0.01482936
-0.04858332 0.083793506 -0.005985738 0.0009438944 -0.02034394 0.032879926 0.021574963 -0.08355571
-0.08509062 0.03172608 0.030188013 -0.06843072 0.04588581 0.034202754 -0.06966953 0.010702395

gnn_node.convs.0.mlp.1.weight f4 [256]
00000000: bb21 d93f 964b bd3b 114a 8c3f 5fc9 4b3f
00000010: 08e2 d53e 7d10 413f c7ad bf3f 7f1c bf3f
00000020: c88d 9d3f d96b a83f acba a93f 3ade 1e39
00000030: 1556 7a3f b446 ba3e 313d db3e a453 853f
00000040: 1eba 2c3f 68a9 dc3f a9ae d83f 642d 8a3f
00000050: 0e97 573f f153 ca3f f6d9 513e 5f06 953e
00000060: 89e2 7b3f f833 b23f 66cd 923f 3fec 983e
00000070: ca17 c83f 485c 9c3f 3901 a83f 8319 a23f
00000080: 4d23 f83f 3dc5 bf3f 5f71 d53f 0847 26bc
00000090: ac80 813e 8002 943e 4016 ac3f a3bd a33f
000000a0: 7822 863f bb49 bb3f 745a 3c3f a985 d93f
000000b0: 3b8d 993f bca2 f43f 87c3 803f c715 7b3f
000000c0: 45f3 d43f e2db 253f de04 c03f 7dc1 1040
000000d0: 2844 cb3f f288 623f f159 62ba 30a1 973f
000000e0: ca2e 273f 8dd6 8c3f f09e 403f 2284 c43f
000000f0: c510 c53f 6c33 983f 4b39 c03f d28c c03f
00000100: a3aa 0940 e810 693f c606 b43f d200 af3f
00000110: cd81 9b3f 1dd2 893f 95d2 c03f e381 393f
00000120: 0e57 913f d689 963f 6e69 873f f741 a0bb
00000130: b029 983f 12f0 be3f f20a 953f d6c9 c33f
00000140: d816 c53f 8549 a23e 9b11 343f 88e3 983f
00000150: 98be d53f ab80 e73e 9396 703f 6b8c f53f
00000160: ff76 7c3f 438b e63f c9e5 853f 1e98 c33e
00000170: 7768 933f 1fc9 a03f 6683 6e3f 7fee bb3e
00000180: b453 923e 9e8b e13f 258a a03f 487a e83e
00000190: a28d 893f ae35 833f d51a 893f 5187 513e
000001a0: 52e5 d13f 01c0 3d3e a9e4 b63f 8c59 a43f
000001b0: 6799 803f 8bd9 3f3f c778 d63e 4562 a03f
000001c0: bf69 533f 87c8 e43e 58fe 733e 23a1 893f
000001d0: f357 b53f 2132 953f cd09 c73f 5bed 8f3f
000001e0: 468e 8d3d 6643 fa38 7b15 f93e 68fb a33e
000001f0: 3cf5 cd3f c7ed bf3f bdad c03f 6ff2 833c
00000200: 8318 223e 659e 553f c6d0 e63f 8728 b13f
00000210: 2849 963c 0740 b43f 896f 9a3f 5230 903f
00000220: 7ad5 b53f 9fb2 a23f 3b46 be3d aa6a de3f
00000230: 8187 113f 6df4 3c3f bcc2 be3f aaa8 303f
00000240: bd77 d13e 13f1 9f3f 90a5 9b3c 45fc d13f
00000250: 7c94 783f 1203 253f 2f18 c43f 8d36 253d
00000260: 932d a63f e874 9a3f 745b 7a3f ea51 ab3e
00000270: b5fd b63f 40f2 e63f 340a 0540 e0af c43f
00000280: 86e8 d63f 6d45 bf3f ca65 9a3f 45fa 9a3f
00000290: 1667 913f cf3d 4d3f ebd4 523f ecd1 a03f
000002a0: e64d a23f b7d4 eb3f 6017 643f 9329 7f3d
000002b0: d163 8a3f ab1e 3d3f 3f24 973f aa3e cb3f
000002c0: e255 d43f 0f07 0040 9020 923f 09b0 1140
000002d0: 1c11 893f bab3 403f ca6d 2f3f a205 fc3f
000002e0: ba00 a33f 02fb 283f 6375 b13f d6c8 343f
000002f0: 22c0 a73f 9ad1 9e3f 4b42 2c3d e348 203f
00000300: 3372 a93f bf52 ab3f 041c 383f 712c c03f
00000310: f1e7 5e3f f060 f43e e10d 943f f581 833f
00000320: 004d 163f 60e2 b73f 6055 ea3f dfd3 9f3f
00000330: 0a87 893f 1c88 a03f 55e4 ba3f a07c 853f
00000340: 368c 793f a11e d23f 6d6a 403d cfea 123e
00000350: ad46 753b 42ef b33f a6b0 4e3f 0d4a 753f
00000360: 9cba 903f f62c fe3e 9c42 d83f f74b d83f
00000370: 3714 133f 442a b33f a476 a13e f71b 373f
00000380: bab5 ad3f 0595 2c3f e2ff 9e3f 1c1c 883f
00000390: ef5d ae3f 5a2b 943f 2c37 b93f e969 bc3f
000003a0: e61e d13c 752b b03f 78c0 0e3f 1cf0 cf3b
000003b0: 54a8 db3f 815d a73f 3bd9 c43e 5840 703f
000003c0: f920 c43f 0771 a33f 258a c13f bfe2 c53f
000003d0: 3f37 0840 8fa7 e73f 25ec 893f 9c04 b23f
000003e0: 78d0 903f 0428 853f 4ebc eb3f 9ff9 323f
000003f0: 61b9 833f 5380 4e3f d2ee 933f eefc ab3f
1.6963419 0.005776833 1.0960103 0.7960414 0.4177401 0.75415784 1.4974908 1.4930571
1.2308893 1.3157912 1.3260093 0.0001515084 0.977876 0.36382067 0.42820123 1.041615
0.6747149 1.7239199 1.6928302 1.0795102 0.84214866 1.5806867 0.20493302 0.29106423
0.9839254 1.392211 1.1468933 0.2986774 1.563226 1.2215662 1.3125373 1.2664036
1.9385773 1.4982067 1.6675223 -0.010148771 0.2529348 0.28908157 1.344429 1.2792248
1.0479269 1.4631876 0.7357552 1.6993915 1.1996225 1.9112163 1.005967 0.98080105
1.663674 0.6478864 1.5001485 2.2618096 1.5880175 0.8849021 -0.0008634618 1.1846066
0.6530577 1.1002976 0.7524252 1.5352824 1.5395743 1.1890693 1.5017484 1.5042975
2.1510398 0.9104142 1.4064567 1.3672125 1.2148987 1.0767246 1.5064265 0.72463816
1.1354692 1.1760814 1.057905 -0.004890676 1.1887722 1.4917014 1.1643965 1.529597
1.5397596 0.31696716 0.70339364 1.1944437 1.669879 0.45215353 0.9397976 1.9183477
0.98619074 1.8011249 1.046075 0.38201994 1.1516255 1.2561377 0.9316925 0.36705396
0.28579485 1.7620733 1.2542158 0.45405793 1.0746348 1.0250757 1.0711313 0.20461775
1.6398108 0.18530275 1.4288532 1.2839828 1.0046815 0.7494132 0.4188902 1.252999
0.8258323 0.4468424 0.23827493 1.07523 1.4167465 1.1655923 1.5549866 1.124431
0.06911902 0.00011933483 0.486492 0.32027745 1.6090465 1.4994439 1.5053021 0.016106812
0.15829663 0.83444816 1.8032463 1.3840493 0.01834543 1.408204 1.2065288 1.1264746
1.4205773 1.2710761 0.09290739 1.7376301 0.5684739 0.73810464 1.4903178 0.6900736
0.40911666 1.2495445 0.018999845 1.6405112 0.9710157 0.6445781 1.531988 0.040335227
1.2982658 1.2066927 0.97795796 0.33460933 1.4296175 1.8042679 2.0787477 1.5366173
1.678971 1.4943062 1.2062314 1.2107626 1.1359584 0.8017244 0.8235614 1.2564063
1.2680023 1.842429 0.8909817 0.062295508 1.0811712 0.7387492 1.1807936 1.5878499
1.6588709 2.0004308 1.1416187 2.2763693 1.0708346 0.7527424 0.685269 1.9689219
1.2734597 0.6600801 1.3863949 0.7061895 1.3105509 1.2407715 0.04205541 0.62611216
1.3237976 1.3384627 0.7191775 1.5013562 0.87072664 0.47730207 1.1566736 1.0274035
0.5871124 1.4365959 1.8307304 1.2486533 1.0744336 1.2541537 1.4600931 1.0428658
0.9747957 1.6415597 0.046976496 0.14347385 0.003742616 1.4057391 0.80738294 0.9581612
1.1306949 0.49643677 1.6895328 1.6898183 0.5745272 1.3997273 0.31535828 0.71527046
1.3571084 0.67414886 1.2421839 1.0633578 1.3622416 1.157573 1.4469962 1.4719821
0.025527429 1.3763262 0.55762434 0.006345762 1.7160745 1.307541 0.38446984 0.9384818
1.5322562 1.2768868 1.5120283 1.5459822 2.128372 1.809801 1.077519 1.3907657
1.131362 1.0402837 1.8416841 0.6991214 1.0290948 0.8066456 1.1557257 1.3436563

gnn_node.convs.0.mlp.1.bias f4 [256]
00000000: 3d9f ddbe e256 8ebe 6d4a fdbe bb11 fabd
00000010: 56c1 47bf b008 36bf 92da 25bf b64f 0abf
00000020: 8fd4 e8bc 207f 553d 56da 263e 5f88 b13e
00000030: 90ad 8abe b803 9c3e 09f6 95bd 61fe fcbe
00000040: a593 e1b9 caf0 aebd e5c2 e1be 6aaa d0be
00000050: 3ed9 aabe 5e01 39bf 070e 533e eac6 41bf
00000060: 76f4 13bf 627b f5be 67ed eebe 4550 c33d
00000070: 5b2e a6be 8d39 acbe f3f1 a6be 3dd3 72be
00000080: 5b75 6ebe dd6d ffbe cd75 11bf 43ec d03e
00000090: fcdd a4be 54ca c5be 37e1 24bf bfc0 2c3e
000000a0: f483 a3be d118 89be 3bd2 dbbe 6613 0fbf
000000b0: 2b20 7b3e 04e8 81be ad5e 02bf cbc5 ebbe
000000c0: 5371 97be 3e7b 3cbe 166f 92be 6e76 a43e
000000d0: 0571 7bbe 882c d3be 9bd2 4abd f6bc 03be
000000e0: 63ff 84bf 6187 aebf 6c58 6cbf f85a 9ebe
000000f0: fc12 1abf e9a6 d7be 011c f73e 73fc 43be
00000100: db59 3cbe 8f34 c5bd 87ac b6be 861e dfbe
00000110: 3ecd b8be e8f5 97be 727f d2be 7634 5e3c
00000120: 8a9f 08bf 9c2b b83e ae25 17bf 7da7 86be
00000130: 2319 04bf 7cd4 92be 53d0 e4be afca ce3d
00000140: d4e1 29bf 0380 abbe c05e 1fbe bc83 06bf
00000150: d04d fdbe d0c8 dd3d bb3f a8be 6db5 41bf
00000160: 220a dbbe 6126 ecbe 8449 c7be 4f1b 45bf
00000170: 591d e2be 0a7d e9be 02b2 40be b07f 08bf
00000180: 1701 90be 9796 bebe a3fd 01bf 8ab4 87be
00000190: 086d 86be af66 f6be 5066 6cbe eb00 d2be
000001a0: 7975 f9bd f358 8b3e a14f edbe 1dfb 7abe
000001b0: 0c4f 80be ff52 77bf 7dbc 1fbe c8a3 2fbe
000001c0: 7512 8d3c 16c1 91bf 7c11 133e 2658 e6be
000001d0: f72c 0ebf 01ce 6a3e ae08 22bf 4d2d dbbe
000001e0: a308 5bbd 6759 92bd 5b19 e2be 715c 9fbf
000001f0: e362 2cbf 5c03 36ba 9c72 8dbe d4d3 843e
00000200: d874 623e e024 e9be 0cc2 25bf dfbd 0dbf
00000210: f238 013e dac9 88bd 1978 abbe 2833 febe
00000220: 3c8b 54be 0f48 adbe b658 66bf bd8d e6be
00000230: 57a1 80be 313d f9be 4d35 0abf a680 073b
00000240: b3cd c5be 8c66 2dbd e291 2fbf 7e6f debe
00000250: e47b 85bc a1e5 f23e 6908 8cbe 73a0 b83e
00000260: 0333 213c 4723 15bf caca f7be 00c4 9dbf
00000270: b349 dabe 145b 29be d3a3 a1be 352d 15bf
00000280: e8e7 28be 444c 15bf e2f3 13bf 5528 06bf
00000290: 5048 bfbe f201 e23e bc00 90bf 12f0 01bf
000002a0: 882b 04be 97b1 bfbe d66a 09be 887b 893c
000002b0: a4b4 e3be 71a7 00bf cb47 b4be 123d 3bbe
000002c0: 497c fabe e56a d4be 7d10 9dbe 9183 7abe
000002d0: c4eb dbba 044c 9fbe 5531 cbbe 344f b5bc
000002e0: e95f 28bf 900d 82bd d69a 2ebf b21d 0cbf
000002f0: 8d6e e2bc 9564 8dbe bbd4 e73e b721 e4be
00000300: eb67 a5be 985c 8abe 1ef8 cebd 5e05 dbbe
00000310: ba78 c4be 12e6 153e f2bb 00bf c78b 46be
00000320: ec19 62bf df3b c7be 27a2 a5be d189 cdbe
00000330: feae dbbe a550 89be 9895 4fbf bd4a c03e
00000340: 045f 51bf 6bf2 48bc c73b 2ebf 6429 a0bd
00000350: af12 79be 2d64 70be 5185 323c f1d5 41be
00000360: d536 84be 5671 9fbf cf56 8dbd eed3 12bf
00000370: 7ce7 babe 6c83 0cbf 8d4b a63e aafa 05be
00000380: dd7b 4fbe e87c 4cbf c1dd ddbe 1e6d a73d
00000390: 4dae f3be 198a 0ebf 972f 9bbe 53d4 0abf
000003a0: 6bdc 5bbe 1388 91be 8462 e2be 54ef ddbd
000003b0: 7974 8bbe 0af5 aebe d74a 7a3e c4e0 bfbe
000003c0: 1359 debe 23a2 0dbf bd4f a4bc 9a35 99be
000003d0: cede 46be 92db a4be 121d 4ebe 385c ebbd
000003e0: 37a7 0dbf e780 cebe 00e3 5fbe f973 ecbe
000003f0: cb29 bdbe 58d1 50bc 0813 b43b cc4c 46bf
-0.43285552 -0.2780066 -0.49470845 -0.12210413 -0.7802938 -0.71107006 -0.64786637 -0.5402788
-0.028421668 0.05212319 0.16294226 0.34674355 -0.27085543 0.30471587 -0.07322318 -0.49412826
-0.00043025348 -0.085420206 -0.44094005 -0.40755016 -0.33368868 -0.7226771 0.2061082 -0.75694144
-0.5779489 -0.47945696 -0.466655 0.095367946 -0.3245724 -0.33637658 -0.32606468 -0.23713394
-0.23286955 -0.49888507 -0.56820375 0.40805253 -0.3220061 -0.38630927 -0.6440615 0.16870402
-0.3193661 -0.26776746 -0.4293383 -0.55888975 0.2452399 -0.25372326 -0.50925714 -0.46049342
-0.29578647 -0.18406388 -0.28600377 0.32121605 -0.24554832 -0.41244912 -0.049517255 -0.12865052
-1.0390438 -1.3635064 -0.9232242 -0.3092878 -0.6018522 -0.4211953 0.48263553 -0.1913927
-0.18393652 -0.096291654 -0.35678503 -0.43577975 -0.36094087 -0.296798 -0.41112858 0.013562312
-0.5336844 0.3597077 -0.5904187 -0.26299658 -0.51600856 -0.28677738 -0.4469019 0.100972526
-0.6636021 -0.33496103 -0.15563488 -0.5254476 -0.4947343 0.108293176 -0.32861122 -0.7566746
-0.42781168 -0.4612303 -0.38923275 -0.76994795 -0.44163015 -0.4560321 -0.18817905 -0.53319836
-0.2812583 -0.37224266 -0.50777644 -0.26504928 -0.2625506 -0.48125216 -0.23085904 -0.41016325
-0.12180609 0.272163 -0.46349815 -0.24509855 -0.25060308 -0.96611017 -0.15599246 -0.17152321
0.017220715 -1.138705 0.14362139 -0.44989127 -0.5553736 0.22930147 -0.63294494 -0.42808
-0.053475033 -0.071459584 -0.4415997 -1.2450086 -0.6733839 -0.00069432496 -0.27626503 0.25942862
0.22114885 -0.45535946 -0.6474922 -0.55367845 0.12619379 -0.06679125 -0.33490065 -0.49648404
-0.20756239 -0.3384404 -0.8997911 -0.45030013 -0.25123093 -0.48679498 -0.5398758 0.0020676046
-0.386335 -0.042334124 -0.68581975 -0.43444437 -0.016294427 0.47440818 -0.27350166 0.36059913
0.009838822 -0.58256954 -0.48396903 -1.232544 -0.42634353 -0.1653865 -0.315703 -0.58272105
-0.16494715 -0.583195 -0.5779401 -0.5240529 -0.37359858 0.4414211 -1.1250224 -0.50756943
-0.12907231 -0.37440178 -0.13419661 0.016782537 -0.44473755 -0.50255495 -0.35211024 -0.18285015
-0.48922947 -0.41487804 -0.30676642 -0.24464251 -0.0016778638 -0.31112683 -0.39686075 -0.022132494
-0.6577135 -0.06350243 -0.6820501 -0.5473281 -0.027640605 -0.276158 0.45279488 -0.44556972
-0.32305846 -0.27023768 -0.10105918 -0.42777532 -0.38373357 0.14638546 -0.5028678 -0.19389258
-0.88320804 -0.38912866 -0.32350275 -0.40144208 -0.42906946 -0.2681934 -0.81087637 0.3755702
-0.8178561 -0.012264828 -0.68059963 -0.07820395 -0.24323533 -0.23475714 0.010896043 -0.18929268
-0.25823084 -1.2456462 -0.06901323 -0.5735463 -0.36504734 -0.54888034 0.32479516 -0.13083902
-0.20262094 -0.7987809 -0.43333247 0.08175109 -0.47593918 -0.5567947 -0.30309746 -0.5423023
-0.21470802 -0.2842413 -0.44215786 -0.10836664 -0.272373 -0.34171325 0.24442612 -0.3747617
-0.43427333 -0.55325526 -0.020057553 -0.29923707 -0.1942093 -0.3219877 -0.20128277 -0.11492199
-0.55333275 -0.4033272 -0.21863937 -0.4618223 -0.36945948 -0.012745224 0.0054954328 -0.7746093

gnn_node.convs.0.mlp.1.running_mean f4 [256]
00000000: 0033 e540 2855 bb40 89d3 8d40 fe00 c3c0
00000010: 7a67 4841 5aa9 ccc0 57fe 1bc1 1b54 46c0
00000020: 195c d5c0 82f6 3740 c212 ae3f 3db9 3341
00000030: 2896 28c1 fa95 a940 cedf d740 9c74 26c1
00000040: 8cb1 7c41 de3c e33f 69ae be3f b91b 79c1
00000050: a1a2 29c1 927e 67c0 e93d 5641 c302 d7c0
00000060: 0552 b0c0 cb0f 3cc1 b96d 993f 7972 9640
00000070: b270 1e3e 144d c93f 60b6 0141 e0f3 d53f
00000080: 5768 ed40 fc8b 0dc1 414b 9b40 d131 6641
00000090: 04e2 be40 110e 9f40 d5d5 34c0 c0e1 4b41
000000a0: dfb2 1bc0 87bb 1341 9ed1 22c1 352a 0c41
000000b0: 5147 24c0 f6c0 8dc0 3262 c0c0 f464 d040
000000c0: f9ed 743e 8af1 7041 7ba6 2cc0 7ccf da40
000000d0: 0b76 1841 825b 37c1 a881 2c40 f704 0fc1
000000e0: a74f 0141 7382 6241 03cc 0ac1 c2a3 373f
000000f0: d010 a041 eca1 3ec1 38ac 0dc1 d343 2f41
00000100: 79e3 8840 2e7c 7fc1 6509 8541 d6cb 6a41
00000110: 818d 61c1 f259 fc40 d37a 14c0 10e1 0841
00000120: e402 3dc0 69f6 04c1 d9f6 5b40 a76b 8440
00000130: 2c83 f7c0 909d cbc0 3097 2d41 c017 70c0
00000140: 29b9 7ec1 623e 0141 9350 d540 fc86 b940
00000150: 4d05 abbf 68d3 2840 2fe3 edbf b514 d5c0
00000160: 9437 e5be 59e9 1941 d4c7 85c0 623d 0fc0
00000170: df49 06c1 dc4d 9b3f fd07 8441 713b 9941
00000180: 205a 89c1 f19e c440 a740 8abf 0f6a 9ac0
00000190: c398 bac0 1fd9 3fc0 ab72 0641 a0b8 61c1
000001a0: 8027 d8bf 8b8f 5741 d8a1 1241 99c1 9bc1
000001b0: 148a 7340 81db 2141 34f9 20c1 dd88 9abf
000001c0: 6797 50c1 8a56 3541 4b49 7041 143b 1441
000001d0: 1166 3ebf 6a2c a940 27e9 ed40 9734 eac0
000001e0: 9fc5 5941 c1d5 06c0 ab5b 06c0 6670 1941
000001f0: 9d5e 7540 e7f3 9c3f 4e23 07c1 5bf0 7640
00000200: dcc1 5741 ec52 d0bf 5761 2cc0 cc38 73c1
00000210: 6abe 5d41 41e8 1341 db6d 1d41 a811 87c0
00000220: 1b4f 28c1 0e38 6dc0 4f6a 7440 bec6 cdc0
00000230: daae 3ac1 0297 bec0 1358 4041 c05b 5841
00000240: e47c a3c0 583d b4c1 8234 e540 0073 a2c0
00000250: e48f e43f 2bc5 6141 fb93 8741 ed8b 5441
00000260: 0b86 8b40 cce7 7ec1 e932 23c1 1d38 96c0
00000270: a5de 62c1 fa52 9e41 3189 af40 c0f0 88c1
00000280: 15cc c13f 0ea0 39c1 3ccf 77bf 3fa7 0cc1
00000290: 3305 39bf 71d8 f13f e34d 4c40 c0ec 79bc
000002a0: b875 ec40 4d6a 013f 0763 b1c0 b6a3 10c0
000002b0: 902a 1f41 8ba0 07c1 7c4a 0ac1 7d20 cfc0
000002c0: 4f27 3940 3550 03bf ec5c 13c1 5ba2 0741
000002d0: 6592 00c1 2769 87c0 3f9b 413e e265 9a40
000002e0: 544f c9be 9d68 2740 427a b9c0 7651 85bf
000002f0: c23e 0dc1 ee48 d8bf e33e 4741 9800 81c1
00000300: 00c9 3341 5af3 0fc1 0abc 0f41 aa17 1b41
00000310: f000 1a41 417a 6dc0 edbe 203f e55e 6141
00000320: 4c05 4c40 be01 e140 8f48 553e 538d d540
00000330: 29dd 8bc0 4bc8 b9bf f755 3fc1 de4f 6441
00000340: eed6 a9c0 38d7 7341 94ec a43f 9afb 0041
00000350: fc5e 51c0 8347 6e40 b119 3bc1 60cd a340
00000360: 37d0 80c0 d3db 4840 e138 3e41 06ca 1e41
00000370: 173a a3c0 70e6 18c1 20aa 8a41 28b7 23c0
00000380: 1f11 3a41 1a64 2941 b73e adbe 72f0 2141
00000390: d395 9840 8118 1640 e538 5dc0 0a8c 3440
000003a0: 5783 ba40 d659 8f41 6caa d4c1 f0c2 5840
000003b0: 94a5 0e40 06b2 fac0 90e8 7b40 3e6c 60c0
000003c0: 1ce4 3fc1 2468 63c1 2fbd 1d40 214e fd40
000003d0: 5e0f 71c0 6166 7dbf f8b7 4740 1291 d9c0
000003e0: 0ced a93e 2662 bec0 dbd0 b4c0 a378 78bf
000003f0: f4b3 fa40 cfd7 4a40 5bfb 133f 8c94 dfbe
7.1624756 5.854145 4.432072 -6.093871 12.525263 -6.395673 -9.749595 -3.0988834
-6.6674924 2.8744206 1.3599474 11.232724 -10.536659 5.2995577 6.74607 -10.403469
15.793346 1.775295 1.4896976 -15.569268 -10.602204 -3.6171002 13.390115 -6.719087
-5.510012 -11.753856 1.198661 4.7014737 0.15472677 1.5726647 8.107025 1.671505
7.418987 -8.846676 4.8529363 14.387162 5.96509 4.970467 -2.8255513 12.742615
-2.4327924 9.233283 -10.176176 8.760304 -2.5668528 -4.429805 -6.0119867 6.5123234
0.23918904 15.0589695 -2.6976612 6.8378277 9.528819 -11.459841 2.6954136 -8.938712
8.081946 14.156848 -8.674808 0.7173425 20.00821 -11.914532 -8.854546 10.954059
4.2777677 -15.967817 16.629587 14.674765 -14.097047 7.8859797 -2.3199966 8.554947
-2.9533014 -8.310159 3.4369414 4.138141 -7.734762 -6.3629837 10.849411 -3.7514496
-15.920205 8.07773 6.6660857 5.7977276 -1.3360993 2.6379032 -1.8584956 -6.6587777
-0.44768965 9.61947 -4.180643 -2.2381215 -8.393035 1.2133136 16.5039 19.154024
-17.169006 6.144402 -1.080098 -4.8254466 -5.8311477 -2.997627 8.402995 -14.107574
-1.6887054 13.472545 9.164513 -19.46953 3.8053026 10.11609 -10.060841 -1.2073017
-13.036963 11.333628 15.017894 9.264423 -0.7437449 5.2866716 7.434711 -7.3189197
13.610747 -2.1067965 -2.099345 9.589941 3.8338997 1.2261933 -8.446119 3.8584201
13.484829 -1.6275306 -2.6934412 -15.201366 13.858988 9.244203 9.83932 -4.2209053
-10.519313 -3.7065463 3.8189886 -6.4305105 -11.667688 -5.9559336 12.0215025 13.5224
-5.1089954 -22.529953 7.1626596 -5.076538 1.7856412 14.110637 16.947256 13.284162
4.3601127 -15.931591 -10.199929 -4.69435 -14.179357 19.790516 5.485497 -17.117554
1.5140406 -11.601576 -0.9680059 -8.790832 -0.7227356 1.8894178 3.1922538 -0.0152541995
7.38937 0.5055283 -5.5433383 -2.2599921 9.947891 -8.476695 -8.643185 -6.472716
2.8930242 -0.5129426 -9.210186 8.477138 -8.035741 -4.231586 0.18906878 4.824937
-0.39318335 2.61576 -5.796174 -1.0415485 -8.827822 -1.6897256 12.452853 -16.12529
11.236572 -8.996912 8.983408 9.693277 9.625229 -3.7105868 0.6279133 14.085668
3.1878233 7.0314627 0.2082846 6.6735015 -4.370747 -1.451425 -11.9584875 14.269499
-5.3074865 15.240044 1.2884698 8.061426 -3.2714224 3.7231147 -11.693772 5.11882
-4.025417 3.138417 11.888886 9.924322 -5.100841 -9.556259 17.333069 -2.558054
11.62918 10.586939 -0.3383691 10.121202 4.768289 2.3452456 -3.4565976 2.8210473
5.8285327 17.918865 -26.583214 3.386898 2.228856 -7.8342314 3.9360695 -3.5066066
-11.993191 -14.212925 2.4646719 7.915787 -3.766563 -0.9898434 3.1206036 -6.798959
0.33188665 -5.949481 -5.650495 -0.9705908 7.834467 3.169422 0.57805413 -0.4366802

gnn_node.convs.0.mlp.1.running_var f4 [256]
00000000: 5479 8c42 047e 5f42 b5db fc42 7f13 0b42
00000010: cc6c cf41 edd6 f541 aeee 2a42 3996 5c42
00000020: dd23 2e42 9a6f 0d43 c045 3642 40f6 2a42
00000030: 2366 0c42 cfdf 9442 34b9 9c41 f8fe bc42
00000040: d0cc 3842 401e 9c42 8d7a cc42 97f2 be42
00000050: ccf2 af42 2aa8 8242 f917 4e42 965b 4442
00000060: 880c 7542 42d4 1442 7911 a242 7bfd 7c42
00000070: 2154 1c43 2cfa f842 cb02 fa42 d6ef 7d42
00000080: 2b41 0043 6c5c 7d42 3c4c 4f42 ffa3 1c42
00000090: abc1 1742 efde 2742 0ea5 8042 ea27 fb42
000000a0: 88d8 0f43 ef5e 8b42 b673 7f42 42c6 4d42
000000b0: 45e9 6e42 2cba b942 222e 3443 4d94 ad42
000000c0: 6877 c142 4495 ce42 deaa 2e42 6d2c 1742
000000d0: e33a e042 afa6 1843 bfca d141 ce56 2d42
000000e0: 25b6 4342 e1ce 0442 bc1f 4042 d8f3 a341
000000f0: 62dd 7842 640a d742 af66 b142 b928 4342
00000100: fb05 7342 f29b f941 4792 2743 5def d942
00000110: d69c 3942 e551 8c42 9021 3f42 e7e9 fc41
00000120: 915f 5043 61f1 0d43 17a9 8142 6546 eb41
00000130: b474 6b42 5c8b c542 77d1 bd42 def2 4d42
00000140: ad4a 6c42 cb84 b441 c684 c842 f287 1043
00000150: 38a8 3042 70b9 2942 a531 aa42 fdd5 9742
00000160: 2e38 ec41 5f8f 5942 5ad4 0f43 deab 1242
00000170: 3d51 1d42 4323 6442 bd3f ae42 14b1 3942
00000180: 1ea3 f641 2b65 3d43 2372 9c42 b9ea 5742
00000190: 8242 8742 7f73 3c42 da3b b542 be30 9f42
000001a0: af6f 1c42 ed54 6342 3078 8b42 149e d441
000001b0: f2f1 4a42 5746 9841 6491 c241 c67f b741
000001c0: cceb 0242 3914 e341 8e7b 7242 3bff 9c42
000001d0: d0e6 b042 c7a7 c141 f706 c542 a499 a642
000001e0: a8d4 8442 7b45 c741 8434 6742 dc4b 2942
000001f0: efb3 ba42 4e23 0342 6e04 ed42 7b04 5b42
00000200: 7336 3a42 ba25 0d42 8924 8c42 5b1f a942
00000210: 9d5f 0542 3d7c ee42 6c13 c142 0343 9e42
00000220: 28af e542 3bc4 7242 1164 c241 225a bf42
00000230: 7791 9742 f224 0142 3011 fb42 09d4 e742
00000240: 448f d342 73f4 0942 d022 d142 17ef 1742
00000250: 8a85 0043 f4f4 8742 87fd 1e43 e488 a442
00000260: 0a2f fb42 70d0 9242 7ffb 8342 3035 1e42
00000270: 8901 c142 88bd 9542 e38a 8942 b289 b942
00000280: 845a 9f42 748e 5d43 de18 3d43 c501 1d42
00000290: d981 3f42 b9ff 3b42 19bc 3742 d5a5 f642
000002a0: 511b c642 3ff1 6642 69ab 9442 93db 9a42
000002b0: 3efb 3a42 8a3f 2642 cff4 3a42 856d 0e42
000002c0: c2b8 8242 ae3f 8942 6ec1 d641 9947 d142
000002d0: c214 0f42 8e0e be42 9232 2b42 59ef 8642
000002e0: 10c9 6a42 cc8c 6042 78d1 4842 93ed 5e42
000002f0: d2d8 3c42 515f 3642 c5d0 1542 7138 5242
00000300: 48f0 2b42 790b 3a42 74f7 9f42 bb43 9742
00000310: ac69 7a42 7615 e841 4960 1c43 da24 0142
00000320: f3c2 1d42 7e21 2043 0dc3 0043 61ed a942
00000330: 62fe 3e42 4321 0443 de79 a242 060c f642
00000340: 7187 1b42 fd8a 3a42 ecce 9742 e9bc 4e42
00000350: 1b08 1a42 b8b0 f041 59fb a042 0b92 7242
00000360: 606b 8242 72dd 3b42 3966 5342 dd43 c242
00000370: cf01 1742 0bd7 cd42 204a 8342 f3f1 1442
00000380: 1298 1443 2e01 9041 eef6 a742 590f a942
00000390: e8d9 0143 c75c a942 646e 9542 7f76 1b43
000003a0: cb81 9441 6ec5 ac42 9fae 2d42 652b d841
000003b0: 967e ee41 6705 3542 cb25 4942 6bc4 3c42
000003c0: 4b87 e042 4b98 2e42 2bc7 8f42 e589 1243
000003d0: 2ac0 aa42 d665 ec42 e8fb c242 c061 e541
000003e0: dab2 d942 156e 0e43 cc94 3142 f998 bf42
000003f0: e338 8e42 80f3 f441 5689 9642 5f5c b742
70.23697 55.873062 126.429115 34.76904 25.928123 30.729944 42.733086 55.1467
43.535023 141.43594 45.568115 42.74048 35.099743 74.437126 19.590431 94.497986
46.200012 78.05908 102.23936 95.47381 87.97421 65.328445 51.52341 49.08944
61.262238 37.207283 81.03413 63.24754 156.32863 124.48862 125.005455 63.484215
128.25456 63.340256 51.824448 39.160152 37.93913 41.96771 64.32237 125.57796
143.84583 69.68542 63.863 51.44361 59.727802 92.86362 180.1802 86.78965
96.733215 103.291534 43.666862 37.793385 112.11501 152.65111 26.223997 43.33477
48.927876 33.20203 48.03099 20.494064 62.216194 107.520294 88.700554 48.78977
60.75584 31.201145 167.5714 108.96751 46.40316 70.15995 47.782776 31.61421
208.3733 141.94289 64.83025 29.409372 58.863968 98.77219 94.90911 51.487175
59.072926 22.56484 100.25932 144.53104 44.164276 42.43109 85.09696 75.917946
29.527431 54.39001 143.8295 36.66784 39.329334 57.034435 87.12449 46.422928
30.829647 189.39519 78.22292 53.97922 67.6299 47.11279 90.6169 79.5952
39.109066 56.832935 69.73474 26.577187 50.736275 19.034346 24.320992 22.93739
32.73027 28.384874 60.62066 78.4985 88.450806 24.206923 98.5136 83.30008
66.415344 24.908926 57.801285 42.32408 93.35143 32.784477 118.50865 54.754375
46.553173 35.286842 70.07136 84.56124 33.343372 119.24265 96.53793 79.13088
114.8421 60.69163 24.29886 95.67604 75.78411 32.28608 125.53357 115.91413
105.779816 34.48872 104.56799 37.983486 128.52164 67.978424 158.99034 82.267365
125.59187 73.407104 65.9912 39.55194 96.503 74.87018 68.77126 92.768936
79.67679 221.55646 189.09714 39.251728 47.876804 46.99973 45.93369 123.32389
99.05335 57.73559 74.334785 77.428856 46.745354 41.56205 46.73907 35.606953
65.360855 68.624374 26.844448 104.63984 35.77027 95.02843 42.799385 67.467476
58.69635 56.137497 50.20456 55.732006 47.21174 45.593082 37.453876 52.55512
42.98465 46.511204 79.98331 75.632286 62.603195 29.010479 156.37611 32.285988
39.44038 160.13083 128.76192 84.96363 47.74842 132.12993 81.23802 123.02348
38.882267 46.63573 75.904144 51.684483 38.507915 30.086288 80.49091 60.64262
65.20972 46.966255 52.849827 97.132545 37.751766 102.920006 65.644775 37.23628
148.59402 18.000576 83.982285 84.529976 129.8512 84.681206 74.71561 155.46288
18.563375 86.385605 43.42053 27.021189 29.81181 45.255276 50.286907 47.191814
112.264244 43.648724 71.889 146.53865 85.37532 118.1989 97.492004 28.67273
108.84932 142.43001 44.39531 95.798775 71.11111 30.618896 75.268234 91.68041

gnn_node.convs.0.mlp.3.weight f4 [128, 256]
00000000: 6348 60bf 1fe1 24be be57 54be a36d e7bb
00000010: c3f0 3fbe ed5d 7c3e 204c adbe 2784 f33e
00000020: 9593 1f3e 02af b2be dc9c e1be 85be fbbd
00000030: d3d2 cf3e 3e97 ca3c a555 8c3d dfd9 923e
00000040: dc8f 4abe d2cf 223e d006 29bf 2245 e2be
00000050: 9310 4cbb 95d8 25bf 7389 90bd 2b03 a0be
00000060: 4851 c93d b2c0 953e 1cb9 07bf 229f f8be
00000070: f5bb d03e 3075 85bd 97d4 0cbe 81f3 91be
00000080: 6012 1d3f 0f0b 773e 9066 0dbf 853d d3bd
00000090: bc0b e53d 5113 a5be 4287 f7be b3a8 0f3e
000000a0: cd62 223f 1c34 63be 1826 263e 9a2c 5abf
000000b0: dbc8 293e f88e 863f 7ad5 9ebd a7ae b1be
000000c0: c73d 813f 5e7d 73bf 4381 193d 87ca 4c3e
000000d0: f457 02be 3611 933e 73cc 76bd 1878 063f
000000e0: 5189 0ebe 06a0 b1be 2834 9d3d 5cad cdbd
000000f0: 2a78 24bf fb23 e5be 8dca c63c f843 61bf
00000100: 75bc 22bd d62d 8cbe 758d 45bf 928b 8ebe
00000110: 0c21 7a3f 1083 0dbe 2b6d 99be 056e 5abf
00000120: 7c73 d4bd 0c30 883e 1eb5 75bd 920e c0bd
00000130: afe0 623e 721b 1a3f cd95 48bd b760 833e
00000140: efc1 f0be 3340 62be 1858 c5bd e2f8 2bbf
00000150: e625 8b3c 3664 04be 11a8 393e 2535 91bf
00000160: afc9 d03e 6270 4cbf b587 f13d 204e 4bbe
00000170: f7a4 813e 47e5 f6be 0826 b3be 456c 98be
00000180: dd58 0f3e d547 51be 6933 30bf c237 a43e
00000190: 51a7 01bf db93 83be 4184 fabe 609e 87bd
000001a0: 9e83 843f b88f 5dbe 2c67 bb3c aac6 e9be
000001b0: eb0b c5be 944d c5be 5ccc fe3d 079e 2dbc
000001c0: 2e2c c7bd 6115 c2be 2e98 ad3b 9e65 0dbe
000001d0: 34f1 5dbf 1152 d73d 0179 29bf ff42 20bf
000001e0: 1a2d 95be 83dc 033b fe31 aabd 8b5a 41bf
000001f0: c1e1 5dbf ba21 0e3e 991d 21be 4d29 5fbe
00000200: 535e 803b cbbb 4fbe 547d 00bf 0aeb b7be
00000210: c230 a5be d798 4e3e d4af 97be a420 b03e
00000220: 6a1b cebd 8e7b 4f3e fd14 ddbe 0283 24bf
00000230: b3d6 343e 22f4 d13d 5d76 b0bf 2a39 06bd
00000240: 33b9 7e3e 4331 0f3f 4466 98be 60af cebd
00000250: 18fd 6cbe ce92 6fbf e80c 5dbf ae29 50be
00000260: ff8a 133d ec50 9a3f 32ce 373e 08c5 a8bd
00000270: 15cd 9c3e 7229 3dbf 1e4a 0b3f 947a 57be
00000280: a15f c7bb 605e 35bd 7fd9 a3be 0acb 423f
00000290: 3e47 e8be 8d5b 64be 95bc 99bf 66ca fc3d
000002a0: dde6 21bf f467 29bf 02df 6f3e 954f 043d
000002b0: dc11 b6be bf87 943e 1689 1a3e 47b7 2e3e
000002c0: e026 6dbf 1c0c 5cbf 17c5 083f 5bdf 79be
000002d0: ddc3 2e3e b322 573e 6519 90be 8040 f63e
000002e0: 0280 433e a645 ab3c 14a6 5e3c 16c2 953d
000002f0: 72e1 c9be 49ae 4a3f b44c 46be 91f0 90bd
00000300: 8432 2ebf 9a79 fc3e 045d babd 5964 2abf
00000310: f8d1 8ebd 37ed 9d3e a9c7 3c3c d685 aebc
00000320: 3d0f 93be c68f 27bf 16ba 71bf e586 9c3e
00000330: bf56 edbd 37cb a33e f278 91bf 9334 133e
00000340: c25e 99bd b1a9 46bf 262b 64be ec12 80be
00000350: 636b 083d 7535 023d f1ea 533e b712 ccbd
00000360: c438 223e 3c26 52bf 9ab4 7fbf c153 1abf
00000370: 0f81 5f3e 403d 30bf aef9 0fbf ec3c dd3d
00000380: 8b56 1cbf d129 fcbe 1dd7 07be 1370 4b3c
00000390: 0352 8abe 9034 a8bd 1828 12bc 552d 94be
000003a0: 7c7d dabd baba 02bf 6ad6 bcbd f832 a0bd
000003b0: d73c 26be 2c7c 1cbd 8768 0dbe fc29 263e
000003c0: bd87 bebe c43e 88be e7a1 bb3d ae75 563e
000003d0: 30f4 71bf 7792 63bf 19c7 00bd 9d11 bcbf
000003e0: 76b1 4e3d 41d6 153f b412 98bf 05dc 643c
000003f0: 3afd 18bf 62a5 14ba 63b4 5b3e a859 573e
-0.87610453 -0.16101502 -0.20736596 -0.0070626303 -0.18744187 0.24645205 -0.3384714 0.47561762
0.15583642 -0.34899145 -0.44064987 -0.12292198 0.40590534 0.024730321 0.06852273 0.28681847
-0.1978144 0.1589959 -0.6602602 -0.4419337 -0.0031137809 -0.647836 -0.07057466 -0.31252417
0.09829956 0.29248577 -0.5301683 -0.4855891 0.407684 -0.06516492 -0.13752972 -0.2850609
0.61356163 0.24125312 -0.5523462 -0.10314468 0.11183879 -0.322413 -0.4834538 0.14029197
0.6343201 -0.22187847 0.16225469 -0.85224307 0.16580527 1.0512381 -0.07755561 -0.34703562
1.0096978 -0.9511317 0.03747679 0.19999133 -0.12728864 0.28724068 -0.06025357 0.52527
-0.1391957 -0.346924 0.07675964 -0.10042831 -0.64245856 -0.44754013 0.024266506 -0.8799434
-0.039730508 -0.2737872 -0.7716897 -0.2784086 0.97706676 -0.13819528 -0.299661 -0.85324126
-0.103735894 0.26599157 -0.05998718 -0.09377779 0.22156022 0.6019813 -0.048970986 0.25659725
-0.4702296 -0.22094803 -0.09635943 -0.6717664 0.016985845 -0.12928852 0.18130518 -1.1344343
0.40778872 -0.7985898 0.11793462 -0.19854021 0.2532117 -0.482218 -0.34989953 -0.29770103
0.13998742 -0.20437558 -0.68828446 0.3207379 -0.5064593 -0.25698742 -0.48929027 -0.066220045
1.0352666 -0.21636856 0.022876345 -0.4565938 -0.38485655 -0.3853575 0.12441322 -0.010596759
-0.097252235 -0.37906936 0.0052976822 -0.13808295 -0.8669617 0.105137 -0.6620026 -0.6260223
-0.29135972 0.002012045 -0.083103165 -0.7552878 -0.866726 0.13880053 -0.15733947 -0.21793099
0.0039174943 -0.20286481 -0.50191236 -0.35921508 -0.32263762 0.20175491 -0.29626334 0.34399903
-0.100638226 0.20261976 -0.43180075 -0.642624 0.17660026 0.10251643 -1.3786122 -0.03276936
0.24875335 0.5593454 -0.29765522 -0.10092044 -0.23143423 -0.9358338 -0.8634782 -0.203284
0.03602123 1.2055945 0.17949751 -0.08240706 0.30625215 -0.73891366 0.5440997 -0.21042854
-0.006084398 -0.044279456 -0.32001874 0.76091063 -0.45366853 -0.22300549 -1.2010676 0.12343292
-0.63242894 -0.66174245 0.23424914 0.032302458 -0.355605 0.29009816 0.15091357 0.17062102
-0.92637444 -0.8595598 0.53425735 -0.2440161 0.17066903 0.2100933 -0.28144374 0.48096085
0.190918 0.020907234 0.013589401 0.073124096 -0.39429814 0.7917219 -0.19365197 -0.070771344
-0.6804583 0.49311525 -0.090997726 -0.6655937 -0.06973642 0.30845043 0.011522212 -0.021304052
-0.28722563 -0.65453756 -0.9442457 0.30571666 -0.11588811 0.31990978 -1.1365035 0.14375524
-0.07488777 -0.7760268 -0.22282085 -0.25014436 0.033305537 0.03178926 0.20695092 -0.09964507
0.15841967 -0.8208959 -0.9988495 -0.6028405 0.21826576 -0.6884346 -0.56240356 0.108026356
-0.61069554 -0.49250653 -0.13265653 0.012416857 -0.27015695 -0.082131505 -0.008920692 -0.28940836
-0.106684655 -0.5106617 -0.09220584 -0.078222215 -0.16234146 -0.038204357 -0.13809405 0.16226953
-0.37212935 -0.26610386 0.0916174 0.20943329 -0.94513226 -0.8889536 -0.031439874 -1.4692875
0.05046221 0.5853005 -1.1880708 0.013968472 -0.59761393 -0.0005670396 0.21455531 0.21030295
