checkpoints/D_epoch_50.pth (torch, 843938 bytes, 48 tensors)

gnn_node.node_encoder.weight f4 [1, 128]
000000 c1 38 e4 3e 7b 3e c4 39 66 6f 95 3d 0e 96 36 3e
       0.4457455 0.00037430585 0.07296638 0.17830679
000010 73 5a 9c 3f cf 32 9a be bf a0 ea be 32 a2 d7 3e
       1.2215103 -0.3011689 -0.45825765 0.42115933
000020 90 9f 21 3f 2f 95 57 bd 55 43 80 bf 5f 74 ce 3d
       0.631341 -0.052632507 -1.0020548 0.1008079
000030 aa 9b 53 bf f0 01 2d 3f f0 e8 8f bf 5f 2b 8b bf
       -0.826594 0.6758108 -1.1242962 -1.0872611
000040 81 d2 e9 be c2 f4 05 bf fd 13 61 3f 56 10 ab 3e
       -0.45668414 -0.52326596 0.87921125 0.334109
000050 5a a4 93 bf af ea 3b 3e 8d 66 dd bd 03 07 dd 3d
       -1.1534531 0.18351243 -0.10810576 0.10792353
000060 9a ad 6e bf de 43 fb 3e 32 42 23 bd c4 a8 79 3f
       -0.93233645 0.49075216 -0.03985805 0.9752314
000070 22 db 09 3e 60 1d 53 bf 63 4f 2a bf 9e 7e 8a 3f
       0.13462499 -0.824667 -0.66527385 1.081989
000080 b2 91 06 bf 3a 14 22 3e d0 be 6b 3e 6e 25 6e 3e
       -0.52566063 0.15828028 0.23022008 0.23256466
000090 bb 3e 96 3f fa eb ee 3e 67 80 86 3e 6f a1 6e 3f
       1.1737894 0.4666441 0.26269838 0.9321508
0000a0 4d 6d 91 be 90 0a 49 be f7 6d e8 bf 92 fc d5 bf
       -0.28403702 -0.19632936 -1.8158559 -1.6717703
0000b0 2c 30 a8 bd 43 93 7d 3f f7 a5 78 be 66 e2 fa 3d
       -0.08212313 0.9905283 -0.2428206 0.12250213
0000c0 aa 24 8a bf 58 1a ac bf 06 7f a3 3f 54 9a 02 c0
       -1.0792439 -1.344554 1.277314 -2.0406694
0000d0 28 2a 86 be b4 b1 09 3f 3f 52 11 3e f7 b8 88 bf
       -0.26204038 0.5378678 0.1419153 -1.0681447
0000e0 0c 73 cd 3e 2f 98 19 bf 09 9d 7e bf ee 98 47 3f
       0.40126836 -0.5999784 -0.99458367 0.7796773
0000f0 60 95 9e 3d 41 b3 f3 bd b5 88 38 3f e0 82 41 bf
       0.07743335 -0.11899424 0.720836 -0.75590324
000100 e3 0f 9f bf 7c 69 42 3f fb 03 3e bf 65 3e 11 40
       -1.2426723 0.75942206 -0.74224824 2.2694333
000110 e7 73 82 3f 38 9c 9a be b3 2e 81 3f 39 66 f5 be
       1.019162 -0.3019731 1.0092376 -0.47929552
000120 71 31 bc 3e da a0 12 3d 92 3b a2 3e 67 fd 88 be
       0.3675647 0.03579793 0.31686074 -0.2675583
000130 e6 6c 95 bf c4 1e 12 be 93 7d 68 bf f7 28 06 bf
       -1.1673858 -0.14269549 -0.9081661 -0.5240626
000140 bb 7e 94 3e 0c 05 79 bf 9c c5 ae 3d 20 fe 87 be
       0.29002938 -0.97273326 0.08533785 -0.2656107
000150 b4 b3 ec bf 03 0e 27 3e b4 cb 98 bd 40 0d 9a bc
       -1.8492341 0.16313939 -0.07460728 -0.018805146
000160 c6 c3 08 3e bf 5a 83 bf 1c dc f0 3e f1 4f 07 3e
       0.13355932 -1.0262069 0.4704293 0.13214089
000170 db 53 85 3e 38 e5 2c 3e 0c 7d 88 bf 11 18 b2 3e
       0.2604054 0.16884315 -1.0663161 0.34783986
000180 b1 df c6 bf bf 30 8a bf 23 03 04 be 2b f3 87 3d
       -1.5537015 -1.0796126 -0.12891822 0.066381775
000190 84 c0 2f 3f 0e cc b1 bd cd fb 8b bd 00 8d 03 3f
       0.6865313 -0.086814985 -0.068351366 0.51387024
0001a0 51 b6 33 bd a9 39 ee 3d 9c 53 f4 bf 71 2d 58 be
       -0.043875042 0.116320916 -1.9088016 -0.21111085
0001b0 3f d7 92 bf cb 6e a0 bf ca 50 54 bf 71 fd f4 bf
       -1.1471938 -1.2533811 -0.82935774 -1.9139844
0001c0 4d f0 c5 3e 78 bf 83 3f d1 7a 08 3f 02 47 11 3e
       0.38659897 1.0292807 0.533124 0.14187244
0001d0 fc dd 0a 3f ef 20 5c be 0c 56 9c bd 7b 34 32 3d
       0.5424497 -0.21496938 -0.076336 0.04350708
0001e0 8c 02 d1 3d d6 4a 68 bf 96 ab b1 3e 58 aa 4d 3f
       0.10205564 -0.9073919 0.34701222 0.8033805
0001f0 32 f4 ed be 7f fa fa 3e 30 bb 73 bf 9c d0 ab bf
       -0.4647537 0.49019238 -0.952075 -1.3423038

gnn_node.virtualnode_embedding.weight f4 [1, 128]
000000 e8 fa f6 be 3c 43 23 bf 5f 28 ed bd c9 94 11 be
       -0.482383 -0.63774467 -0.11579966 -0.14216913
000010 49 d3 1d bf 87 5e 35 3d 9f 41 ff be 11 97 10 bf
       -0.6165052 0.0442796 -0.49854752 -0.5648051
000020 6e 48 31 bf f7 a3 ad bc 7e e8 bf bd 65 e4 ab be
       -0.69251144 -0.021196349 -0.09370516 -0.3357269
000030 da af 5f be 91 c4 29 bf b6 10 04 be e9 c1 cd bd
       -0.21844426 -0.6631556 -0.12897 -0.10046751
000040 57 c1 d9 bd 42 c6 af be d9 00 e3 be 3d af c0 be
       -0.1063258 -0.34330946 -0.44336584 -0.37633696
000050 8a bc 80 be d6 58 7a 3d b4 07 6e be 03 b7 03 bf
       -0.25143844 0.061119877 -0.23245126 -0.5145113
000060 7e c5 fe bc ee 64 1e bd f6 9a df be 4c 74 26 bf
       -0.031100031 -0.038670473 -0.43672913 -0.65021205
000070 a0 ab 30 bf 2c 24 f7 bd 92 4a 5c be ee 09 47 bf
       -0.6901188 -0.12067446 -0.21512821 -0.77749527
000080 f5 fa 66 be a3 f1 36 bf 21 e5 f2 be a8 20 87 be
       -0.2255667 -0.7146246 -0.47440436 -0.26392102
000090 1c 02 3a bf da cc bd be 61 c7 44 be f6 99 13 bf
       -0.7265947 -0.37070352 -0.19216682 -0.576568
0000a0 2a 16 dd 3c dd ef fb bd 27 a7 00 be ac 79 37 bf
       0.026988108 -0.1230161 -0.12563764 -0.7167003
0000b0 43 d5 e0 be c8 7f e2 be c6 dc a7 be 3a 3e fb be
       -0.43912706 -0.44238114 -0.32785624 -0.49070913
0000c0 d4 27 9a be 06 a3 3c 3e 91 e5 1d bf 36 74 63 be
       -0.3010851 0.18421564 -0.61678416 -0.222123
0000d0 46 df bd bd e1 42 1c bf c4 1d fe be 95 29 81 bb
       -0.09271102 -0.6103955 -0.49632084 -0.0039417245
0000e0 ae cc e3 be a4 bd c5 be 95 71 9e be 43 9d 33 bf
       -0.44492096 -0.38621247 -0.3094603 -0.7016184
0000f0 0e bd 1b be b5 83 dc be 3a 43 8f be ad ab 78 be
       -0.15208837 -0.43069234 -0.27980977 -0.24284239
000100 3d 9f 4e bf 3f c6 04 bf bd 30 9c be 52 82 6e bf
       -0.8071173 -0.51865 -0.30505934 -0.93167603
000110 8c e0 b0 be d1 ff b7 3c 44 cf 32 bf c0 63 5a be
       -0.34546316 0.02246085 -0.6984751 -0.21327114
000120 4f cb 09 be e7 a6 70 bd 29 ab f0 be 76 77 3d be
       -0.13456462 -0.05875292 -0.47005585 -0.18502602
000130 86 fb ad be 33 23 c0 be 33 30 33 be 19 cc ed 3d
       -0.3398096 -0.37526855 -0.17498855 0.11611194
000140 5c 0b 91 be fb fe 8e bd 9e 95 ad be 85 d7 82 be
       -0.2832898 -0.069822274 -0.3390321 -0.25555053
000150 6d a9 73 be df 1f c0 be 4f 85 8f be 1d 03 98 be
       -0.237951 -0.37524316 -0.28031394 -0.29689875
000160 09 85 ab be 47 a3 1c be d7 59 96 be 68 9a 28 be
       -0.33499935 -0.1529666 -0.29365417 -0.16465151
000170 bd c2 de be c9 71 c4 be c7 93 b8 be 71 8c d7 3c
       -0.4350795 -0.3836806 -0.36050245 0.026312085
000180 ee 25 5d bc 02 23 a2 be f8 d4 9a be 3a ed 6f be
       -0.013497813 -0.31667334 -0.30240607 -0.23430339
000190 46 95 cf be e5 f7 73 3d ea cf 9c be de 74 24 bf
       -0.40543574 0.059562583 -0.30627376 -0.64240825
0001a0 a4 fb 93 be 90 e3 28 bf 8f f6 00 3e 81 b4 68 be
       -0.28902924 -0.6597223 0.12594055 -0.22725107
0001b0 55 02 fe bc 9d 4b 44 bd 2c 20 72 be ba 24 68 3e
       -0.031006971 -0.047923673 -0.23645085 0.2267026
0001c0 87 35 f9 be 54 18 f2 be c2 58 26 bf 8e 7a 5e bf
       -0.4867365 -0.47284186 -0.64979184 -0.86905754
0001d0 12 1a 3c bf 4f 83 a6 3d ef 88 cd be 24 25 96 be
       -0.7347728 0.08130514 -0.40143535 -0.2932521
0001e0 dd 80 a7 be d8 bc ab be a4 00 f8 bd be 7f 3b be
       -0.32715502 -0.33542514 -0.12109497 -0.18310449
0001f0 d7 3b b0 be a6 af 1a bf aa 66 d0 bd 8b 13 04 be
       -0.34420654 -0.6042427 -0.101758316 -0.1289808

gnn_node.convs.0.mlp.0.weight f4 [256, 128]
000000 90 b1 cf bb 70 2f b5 bc de 12 1f bf b1 ae 50 bf
       -0.006338306 -0.022117347 -0.62138164 -0.8151656
000010 32 f7 09 be a0 de 14 be 38 b0 cc be 1a 3d 17 be
       -0.13473204 -0.1453805 -0.39978194 -0.14769402
000020 5c e5 9f 3c c0 6f 89 bf c2 f6 4a 3b 27 5a cb be
       0.019518547 -1.0737228 0.0030969833 -0.39717218
000030 89 71 72 bb c4 79 ef 3b da a8 97 3d 36 ff 0e bd
       -0.0036993942 0.0073082168 0.07405253 -0.034911357
000040 d6 ab 5b bc 0c 43 87 be 76 ee 04 be 43 63 8c be
       -0.013407668 -0.2641834 -0.1298159 -0.2741948
000050 69 98 88 bd aa ad 4f 3e e7 de b7 be d7 11 09 be
       -0.06669695 0.20281091 -0.35912248 -0.13385712
000060 a4 57 aa 3e 46 8f 03 3f ca 54 26 3e a3 d5 2c bc
       0.3326999 0.5139049 0.16243282 -0.010548982
000070 00 fc f1 bd 33 af 7c 3e 02 98 b8 3e fd 05 5b be
       -0.11815643 0.24676208 0.36053473 -0.21389003
000080 2d 8f aa bf d9 eb db bd 09 ca 36 3d 7f a1 29 be
       -1.3324944 -0.10738344 0.04462627 -0.16565512
000090 15 a1 a6 bb eb 3a ee be 4a 64 68 be 1e 82 74 3c
       -0.0050851204 -0.46529326 -0.22694507 0.0149236005
0000a0 af 40 6d 3e 36 20 9f bf db 8f aa bd 22 62 c0 3d
       0.23169206 -1.2431705 -0.083282195 0.09393717
0000b0 05 f8 9a 3d 01 af a0 3e 78 f3 8c 3d 54 5b 4b 3f
       0.07566837 0.31383517 0.068823755 0.7943623
0000c0 63 0a 9e bd ce bb 21 bd 15 b4 6d bc 79 44 63 3d
       -0.07716825 -0.039485745 -0.014508267 0.055485222
0000d0 72 15 8a bd a1 74 b7 bd 71 0e 3c be 27 b4 7f bd
       -0.067423716 -0.08957792 -0.18364884 -0.062427666
0000e0 bc 63 f4 3c 0f 85 27 bd 66 5b 68 3c 7f 89 8e be
       0.029832713 -0.04089838 0.014181947 -0.27839276
0000f0 c5 7e 04 3f 1c 2f c7 bd cb 19 9a 3e 87 51 05 be
       0.51755935 -0.09725782 0.30097803 -0.13019381
000100 91 ca 95 3d 02 99 aa be 16 85 93 bd 40 31 6b be
       0.07314027 -0.3331986 -0.072031185 -0.22968006
000110 ee d6 ca 3e 80 8d 84 be c5 57 b6 be b7 0a ad 3d
       0.39617103 -0.25889206 -0.35613838 0.08449309
000120 50 06 1d be 00 e5 b6 ba 7d b4 ff bc c7 68 be 3e
       -0.1533444 -0.0013953745 -0.031213993 0.37189314
000130 9c c6 84 bd f2 98 0c 3e 6f 34 72 bd 9c fe 44 bf
       -0.06483194 0.13730219 -0.059132036 -0.76951003
000140 6f de bb be 2b 51 45 be ad 20 a5 3d 56 f0 d2 3e
       -0.3669314 -0.19269244 0.08062873 0.41198987
000150 53 a3 2d bd 04 7a 19 bf 1c b4 c4 bf 68 61 e9 be
       -0.042392086 -0.59951806 -1.5367465 -0.45582128
000160 e2 b0 a0 3e 1e c3 07 3e 8b 01 02 bf 2d 1c a4 be
       0.3138495 0.13258025 -0.50783604 -0.32052746
000170 fc 3e de bc 5f fe a5 be dd a0 ab 3c 51 42 5e 3d
       -0.027129643 -0.32420632 0.020950729 0.054262463
000180 ad 75 ee bf e7 c2 e1 3c b8 90 24 bf 78 05 f1 be
       -1.8629662 0.027558757 -0.64283323 -0.47074485
000190 dc fe bc bd 48 8d 29 3b f2 f3 3a bf da fd 1b be
       -0.09228298 0.0025871564 -0.7302848 -0.15233555
0001a0 61 42 46 be a0 19 5f be 55 99 e0 3c ef 3e 18 3e
       -0.19361259 -0.21787119 0.027416864 0.14867757
0001b0 69 00 ff 3d f2 5b 48 be 2f ac 8c 3f 48 9f b7 3c
       0.1245125 -0.19566324 1.0990046 0.022414818
0001c0 7c de d5 be fc 98 e0 bd 51 c3 29 be f4 36 54 be
       -0.41771305 -0.109666795 -0.16578414 -0.20724088
0001d0 90 64 83 be d2 78 11 3c 59 1a 13 bf 1d 79 a3 3e
       -0.2566266 0.008878903 -0.5746208 0.3192834
0001e0 8c 2e 1e 3d 73 ee c5 be 4e df 5d be bf af 6a bf
       0.03861861 -0.38658485 -0.21667215 -0.9167442
0001f0 2b 36 23 3e 8d de 4d 3c c6 e5 01 3c 7c 4c 07 bc
       0.15938632 0.012565267 0.007928317 -0.008257981
000200 83 fc d5 3d 8f 1c 44 3e 2b c2 d1 3d 72 c4 0f 3f
       0.104485534 0.19151519 0.10242113 0.56159127
000210 66 3d a9 3d 03 e1 b9 3e 66 55 1b 3e 08 53 1b 3e
       0.08263664 0.36304483 0.15169296 0.15168393
000220 ce 55 05 3e 48 a1 16 3e f5 e3 0b bd f8 a6 26 3e
       0.13021013 0.14709961 -0.034152944 0.16274631
000230 5b 6b 67 bd 3d 79 80 bd 14 2c 2d bc fc 87 0c 3d
       -0.056498867 -0.06273124 -0.010569591 0.034309372
000240 39 3f 07 3d 87 61 cf bb a4 1d 01 3e 6a ad c4 3c
       0.03301928 -0.006328765 0.12608963 0.024008472
000250 81 47 97 3b 8a 89 f2 3d 0f 41 31 be 1f 87 37 bc
       0.004616678 0.1184264 -0.17309974 -0.011201649
000260 f6 dd 4d 3c fd 1d 04 3f c7 59 e3 3d 91 1f 1f 3e
       0.012565127 0.5160826 0.11101108 0.15539385
000270 37 37 3e 3e ad 6d 07 bc aa bc 69 bd 35 3d 50 3d
       0.1857575 -0.008265895 -0.05706469 0.05083962
000280 e0 25 dc be b3 00 7d 3e eb 63 ad 3b 5a 56 61 3d
       -0.42997646 0.24707298 0.005291452 0.055013992
000290 17 d7 bb 3d 67 be 3a 3e 5e d2 50 3e 06 c3 07 3e
       0.091718845 0.18236695 0.20392749 0.1325799
0002a0 f8 dd 72 be 8c dd 9b 3d 70 b9 1d 3c 55 43 01 3d
       -0.23717487 0.07610616 0.009626731 0.031558353
0002b0 c9 e0 28 3e 94 2b 80 3d ef ed 48 3e db 5d 40 3e
       0.16491999 0.06258312 0.19622014 0.18785803
0002c0 ca 7c eb bd 34 09 8d bd 2f 1d 88 3c cb c9 4c bd
       -0.11498411 -0.06886521 0.016615478 -0.049997132
0002d0 97 03 d7 3e 48 6b 9f bd 75 e6 8d 3d 1c fa 9f 3d
       0.41994926 -0.07784134 0.06928722 0.078113765
0002e0 dd 83 bc 3d 0c c0 17 bb 45 8d 8d 3d 50 f2 35 3e
       0.092048384 -0.002315524 0.06911711 0.17768216
0002f0 03 11 21 bf 2a 12 91 bd 61 79 c4 bd e0 3b 56 3d
       -0.6291658 -0.07083543 -0.09593464 0.052303195
000300 75 48 0d 3d bc 5b 32 3e cd 31 51 bd e1 49 32 3e
       0.03449293 0.17417806 -0.051072884 0.17410995
000310 ae 0b 21 3e 75 58 e8 3e 0b eb 32 3d 34 a6 38 bf
       0.15727112 0.45379987 0.043681186 -0.72128606
000320 e1 1d cc bc 93 f4 d5 3e 38 4f 6c 3d 60 8b e0 bd
       -0.024916591 0.41788158 0.057692736 -0.10964084
000330 11 88 80 3d b7 43 80 3e e9 5a 0f bf c0 89 f6 bd
       0.062759526 0.25051662 -0.5599809 -0.120379925
000340 97 b5 92 3e bc 39 f7 3e f1 7e 20 3e 11 a6 61 3f
       0.28654167 0.48286235 0.15673424 0.8814402
000350 97 1c 90 bd 43 76 b7 bd 06 1f 8d 3d 5e 4a 70 3e
       -0.07036703 -0.089581035 0.06890683 0.23465869
000360 22 a7 70 3d a8 25 cd bd ad 12 08 3e 0c 8d 07 3f
       0.05875314 -0.10016948 0.13288374 0.52949595
000370 c2 d0 53 be 10 f6 4d 3e d1 a1 a3 bd 04 78 b0 3d
       -0.20685104 0.20113397 -0.079898484 0.08616641
000380 ba 86 b7 be 9b d0 9f 3d f3 3e e5 3d da 95 65 bb
       -0.35844976 0.0780346 0.11193647 -0.0035031945
000390 a5 78 a2 bb 5d a2 0f 3f d6 b3 fe 3d a4 09 b9 3d
       -0.0049582296 0.5610712 0.12436645 0.09035042
0003a0 1d c9 ee 3d 16 8c 5c 3e f1 c7 1e 3d 1f 27 f8 3e
       0.11659453 0.21537814 0.038764898 0.48467347
0003b0 0c 6d 8c bd 68 0f 46 3d 8e 75 82 be 6e 51 44 3d
       -0.068567365 0.048354536 -0.25480312 0.04792922
0003c0 0d d1 6e 3e 80 3b 3e bc 09 ba 38 3e fc 61 a6 3c
       0.23321934 -0.011610866 0.18039717 0.020310394
0003d0 e1 33 cb 3d 5c 62 ff 3e 12 73 3f 3e de 60 6f 3e
       0.099220045 0.4987973 0.1869624 0.23376796
0003e0 c3 b3 b9 3d 75 72 c8 be 7c 93 1b 3e bc 1b 96 3d
       0.0906749 -0.39149824 0.1519298 0.07329509
0003f0 29 e0 11 3e 36 bb d6 3d ac 33 0f 3d 20 b9 0c bc
       0.14245667 0.104849264 0.034961388 -0.008589059

gnn_node.convs.0.mlp.0.bias f4 [256]
000000 0f 82 88 bc c0 87 92 3d 5b 0f 81 bd da 7a 50 bc
       -0.01666358 0.071547985 -0.06301757 -0.012724603
000010 d7 d7 ed bc bf 2a 3a 3d a4 1f 57 3c 1c 80 6a 3c
       -0.029033585 0.045450922 0.013130102 0.01431277
000020 64 ab 8f bd aa b7 88 bc 57 1a 92 bd 05 ba 3b bd
       -0.07015112 -0.01668914 -0.0713393 -0.0458317
000030 fe 56 bc bd 70 95 34 3d 66 b4 eb bc 85 4f 93 bd
       -0.0919628 0.044087827 -0.028772544 -0.071929015
000040 9e 17 b6 3c d5 e9 41 3d 7c 03 20 bd 16 2f 99 3a
       0.022228058 0.04734214 -0.039065823 0.0011687006
000050 a0 94 ae 3d cf c2 1b 3d 21 15 2d bd 52 ba 8b 3d
       0.08524442 0.03802758 -0.04225648 0.06822647
000060 58 c7 59 bc 83 67 27 bd 29 09 31 3d d2 f9 b1 3d
       -0.013292156 -0.0408702 0.043221626 0.086902276
000070 a6 e6 e9 bc b4 f5 d7 3c 34 09 7d 3d 95 b1 95 bd
       -0.028552365 0.026362278 0.061776355 -0.07309262
000080 c4 87 02 bd 0d 95 4a bd 8a 4e c1 3c 1f 4a 8c 39
       -0.031867757 -0.049458552 0.02359702 0.00026758105
000090 43 57 59 3d 72 a6 45 bc 13 16 9f bd bd cc 59 bd
       0.053061735 -0.012063609 -0.07767882 -0.05317377
0000a0 c7 0b 04 3d 18 02 fb 3c 80 47 04 3d af 18 c2 3c
       0.032237794 0.030640647 0.03229475 0.02369341
0000b0 93 e9 1f bd 42 fe a8 bd 64 c9 9b bd a5 3a 29 bd
       -0.039041113 -0.08251621 -0.076067716 -0.041315693
0000c0 8f e6 8e 3d 19 a1 82 bd 53 46 4e 3d cc 5d 5d bb
       0.06977569 -0.06378383 0.050360035 -0.003377783
0000d0 4e 64 fe 3c 5a 5c 83 3d fe 7c 74 3d 79 56 2e 3d
       0.031053688 0.06414099 0.059689514 0.042562936
0000e0 63 94 91 3d 6e 08 c6 bc 10 4a 96 bc fc 21 1f bd
       0.07108381 -0.024173941 -0.018345863 -0.03885077
0000f0 e0 fd d5 3c e6 68 b1 3c c6 2f ae bd 67 5a d8 3c
       0.026122034 0.021656465 -0.08505206 0.026410295
000100 ef ee 70 3d 6d ca 45 bd de 91 c6 3c f6 65 08 3d
       0.058821615 -0.04828875 0.024239477 0.033300363
000110 a1 46 77 bd e7 60 af 3b e0 33 98 3d 84 4a 32 3c
       -0.06037009 0.005352128 0.07431769 0.010882024
000120 49 a0 8d 3d f5 dd cc bc d2 a2 71 3a ac 99 73 3d
       0.069153376 -0.025008181 0.00092176825 0.059472725
000130 00 34 ae bd d5 1a 0d 3d e3 3f d5 bc c8 7a 8e bd
       -0.08506012 0.034449417 -0.02603144 -0.069570124
000140 b6 7b c1 3d 4b 05 4f 3d 41 19 7b bc d4 a5 98 3d
       0.09447424 0.050542157 -0.015325845 0.07453504
000150 a9 03 cb 3c 5b e6 7a bd e8 1a 79 3c 08 42 34 bd
       0.024782019 -0.06125484 0.015204169 -0.044008285
000160 88 58 03 3d cd f3 25 3d 91 ec 86 3d c4 5f 76 3d
       0.03206685 0.04051571 0.0658809 0.060149923
000170 b6 72 1d bc 68 c5 09 bd a4 a5 f3 3c 81 13 b0 3d
       -0.009609869 -0.033635527 0.02974207 0.0859747
000180 6e 31 a8 3d 56 f4 9f 3d 40 d7 73 3d 95 d7 66 bd
       0.08212553 0.07810275 0.05953145 -0.05635794
000190 56 06 a8 3d 88 11 2e bd 3e 49 14 3c 31 89 c5 3c
       0.082043335 -0.042497188 0.009050665 0.02411327
0001a0 b2 30 78 bb 51 a6 04 3b ca 0d a9 bd e5 d1 e0 3b
       -0.0037870822 0.0020240734 -0.08254583 0.006860959
0001b0 1a 4b 4f 3d d0 10 fc 3c f1 f9 b3 3c c3 eb 19 bc
       0.05060873 0.030769736 0.021969767 -0.009394589
0001c0 25 ac af 3a 74 fc 5e 3b c1 a3 3b bd ea ba 70 3d
       0.0013402743 0.0034024986 -0.045810465 0.058772005
0001d0 74 37 fa 3c 02 c6 ac 3d b3 1c 99 3c c8 53 47 bd
       0.03054402 0.084362045 0.018690443 -0.048663884
0001e0 89 d4 6e 3d 5a c8 74 3d f6 37 0e bd 0b 21 03 3d
       0.058308158 0.059761383 -0.034721337 0.032013934
0001f0 9c 2f a9 bb ea c3 42 3d 84 e3 ca 3c f5 23 3e bd
       -0.005163146 0.04755012 0.024766691 -0.04642101
000200 ba d4 32 bb 67 38 71 bd 7c 75 3f bc b1 0f 1c 3d
       -0.002728744 -0.05889168 -0.011685725 0.038100902
000210 f9 99 87 bd 9b 58 b4 bd f3 11 99 3c 19 a7 c1 3c
       -0.06621165 -0.08805963 0.018685317 0.023639249
000220 b3 e7 64 3d e3 83 8f 3c 3f 54 aa bd 73 a6 8a bd
       0.055885028 0.017518943 -0.0831685 -0.06770029
000230 1b 94 68 bd dc 34 8a bd a0 b0 bf bc 60 d3 73 3d
       -0.05678187 -0.067483634 -0.023399651 0.059527755
000240 2e 02 0d 3d 7d 16 97 3d 09 32 24 bd 3a bb 96 bb
       0.034425907 0.07377336 -0.04008678 -0.004599956
000250 1d d2 8c bc f4 d2 95 3c c7 eb 1e bd 2c 0d 89 3d
       -0.017190034 0.018289067 -0.038799074 0.066919655
000260 26 89 39 bd 5a 26 80 bc 71 19 b7 39 6e bf ad bd
       -0.04529681 -0.015643287 0.00034923435 -0.08483778
000270 05 dd 89 bd 60 8e 35 3d a9 24 7b bd 1c e1 78 bd
       -0.06731609 0.044325233 -0.06131426 -0.060761556
000280 c1 16 54 3d bc 6c 06 3d a2 16 39 3b a2 c5 7e bb
       0.051779512 0.03281854 0.002824225 -0.0038875123
000290 f5 ac cd 3c c9 f4 71 3d 43 08 b5 bd 7e 79 27 3c
       0.025106886 0.059071336 -0.088394664 0.010221837
0002a0 9d 4c 72 bd 4b 04 70 3d 60 e6 82 3c b1 66 d8 bc
       -0.059155095 0.058597844 0.015978992 -0.026416155
0002b0 63 9a 20 3d 33 76 94 3d c0 2c 2a 3b c9 bc 97 3d
       0.039209735 0.07249107 0.0025966614 0.07409055
0002c0 9e 9a 37 3c c5 35 26 3d 3d 1d 9c bd 9d 5d 95 3d
       0.011206297 0.040578622 -0.07622764 0.07293246
0002d0 d3 08 ec bc de 7f e9 3c af 22 63 3d dc 6c 1a bc
       -0.028812801 0.028503355 0.055453 -0.009425368
0002e0 d8 2d 57 bd e1 9d 88 3d 8b b6 89 3d 12 aa 3e bc
       -0.052533954 0.06670738 0.067242704 -0.011637228
0002f0 78 ae c5 38 17 f7 44 bc ad 9f db bc 54 fc a3 bd
       9.426189e-05 -0.012021801 -0.026809538 -0.08007112
000300 d7 85 8c bd dc dd d9 bc 34 54 9e 3d a7 af 68 bb
       -0.068614654 -0.026595049 0.07730904 -0.0035505088
000310 8f 73 df 3c 54 e7 81 3d 00 a5 d5 bb 29 52 1f bb
       0.027276782 0.063429505 -0.0065199137 -0.0024310446
000320 6c f3 e0 3c 3e de 26 3d eb 51 91 3b 6c 9f 4b bd
       0.027459823 0.04073929 0.004434814 -0.049712583
000330 c2 b6 8c bd 00 29 4f bd 33 dd 7c 3d dd 81 31 3d
       -0.06870796 -0.05057621 0.06173439 0.043336738
000340 c7 44 8a bd c9 19 30 bd 43 2c 81 bc a0 28 6d 3d
       -0.067513995 -0.04299334 -0.015768176 0.05790007
000350 60 c6 1f 3c 7b f7 3e bd 13 04 9a bd 6a 07 31 bd
       0.009751886 -0.046622735 -0.07520308 -0.04321996
000360 4c 4e 71 bd 1a 11 2f 3d 2b b8 1e 3c e3 85 11 bd
       -0.05891256 0.04274092 0.009687464 -0.035528075
000370 e9 a2 36 bd 06 b6 87 3d 63 a2 a1 3d 73 32 ae bd
       -0.044588957 0.06626515 0.07892301 -0.08505716
000380 4b 25 5f 3d e5 5f ad 3b 04 62 ac 3d 5d da a9 bd
       0.054478925 0.0052909725 0.084171325 -0.082936026
000390 d0 ec 10 3d 36 1b f3 3c ab 8e 18 bc 19 0b 96 bd
       0.035382092 0.029676061 -0.009311358 -0.073263355
0003a0 d0 fd 55 bd ca 97 c1 3c 05 82 57 bd 5c 4f c0 3c
       -0.052244008 0.023631949 -0.05261423 0.023475341
0003b0 ed 58 9f 3d 0c a0 98 bc 41 0d 76 3d 56 a2 83 bc
       0.07780633 -0.018631004 0.060071234 -0.016068619
0003c0 ab 75 40 bd da d1 a7 3d f6 f3 0c bc 00 a4 8f 3b
       -0.046987217 0.08194323 -0.008603087 0.004383564
0003d0 31 c0 23 bd 46 2f 18 3d b4 be cf 3c 15 01 a4 bd
       -0.03997821 0.03715446 0.025359489 -0.08008019
0003e0 ca 95 af bd bd e7 fc 3c 56 54 e3 3c 49 1f 8c bd
       -0.08573492 0.03087222 0.027750175 -0.06841905
0003f0 6b 89 3c 3d 08 80 18 3d 9d a1 8f bd e4 a5 28 3c
       0.04602949 0.037231475 -0.07013247 0.010293458

gnn_node.convs.0.mlp.1.weight f4 [256]
000000 4a db cd 3f 58 2e 5e 3c a4 60 87 3f db 02 68 3f
       1.6082547 0.013560854 1.0576367 0.9062936
000010 b1 1b 6a 3e 9a 69 25 3f cb 7a c4 3f 4c a9 bd 3f
       0.22862126 0.6461426 1.5349973 1.481729
000020 21 6a 8d 3f 49 d9 b0 3f fd 66 ac 3f 82 41 7c 3d
       1.1048013 1.381631 1.346893 0.06158591
000030 cd e9 6d 3f 73 21 a3 3e 12 81 9e 3e 7a a5 8a 3f
       0.92934877 0.31861457 0.30957848 1.083175
000040 e9 c4 3e 3f 68 d1 a1 3f de 25 de 3f d0 1e 76 3f
       0.7451921 1.2642031 1.7355306 0.96140766
000050 08 44 35 3f 3b 1b b5 3f 7b 98 57 3e 73 2b 99 3e
       0.7080693 1.4148935 0.2105426 0.29915962
000060 f7 db 61 3f fb 07 a0 3f 50 b2 7e 3f fe bb 03 3f
       0.88226265 1.2502435 0.99490833 0.5145873
000070 8b 1d cd 3f 83 67 a2 3f bf af a2 3f 1a af 8e 3f
       1.6024641 1.2687839 1.2709883 1.1147187
000080 c1 ed ec 3f 99 24 a9 3f 19 18 d1 3f 58 cf b0 3c
       1.8510057 1.3214294 1.6335479 0.021583244
000090 cb 17 66 3e 65 07 b4 3e 33 9d 9a 3f e0 4b a0 3f
       0.22470014 0.35161892 1.2079223 1.2523155
0000a0 de f5 74 3f aa bc a5 3f a2 a9 1a 3f 4e c1 c8 3f
       0.95687664 1.2948201 0.6041509 1.5683992
0000b0 60 98 8c 3f dc 16 00 40 46 93 91 3f b0 b6 69 3f
       1.0984001 2.0013952 1.1373069 0.91294384
0000c0 71 69 d2 3f 63 f0 3c 3f 53 68 bc 3f f0 a2 1c 40
       1.6438428 0.738043 1.4719337 2.447445
0000d0 79 99 d2 3f ad bd 6f 3f 7b 68 f7 3c 68 70 9c 3f
       1.6453086 0.936488 0.030201187 1.2221804
0000e0 76 ec 1f 3f ca d4 66 3f 85 b3 35 3f 4a 16 b8 3f
       0.62470186 0.9016844 0.7097705 1.4381802
0000f0 fa 25 d0 3f 4b 20 96 3f 28 b4 b6 3f 12 ff bc 3f
       1.626159 1.1728605 1.4273729 1.4765341
000100 7e e7 c6 3f e5 34 56 3f f0 e1 bf 3f c6 f3 b9 3f
       1.5539396 0.8367446 1.4990826 1.4527519
000110 c9 16 65 3f da 0d a0 3f c9 9f c0 3f 52 8b 4c 3f
       0.8948789 1.2504227 1.5048763 0.79900086
000120 d5 14 8f 3f f7 a9 a1 3f 8c dd 84 3f f7 41 a0 bb
       1.1178232 1.2629994 1.0380111 -0.004890676
000130 14 3e 75 3f 92 5f a3 3f 0a 0e 88 3f 1b 89 a5 3f
       0.9579785 1.2763541 1.0629284 1.2932466
000140 b0 12 c7 3f 75 ff 96 3e ce 08 38 3f d5 de 9f 3f
       1.5552578 0.29491773 0.71888435 1.2489878
000150 66 69 c6 3f ff 9e 16 3f 00 f2 63 3f a7 0d fb 3f
       1.5500915 0.5883636 0.8904114 1.9613541
000160 85 1d 25 3f 47 1e bd 3f f9 ec 81 3f 62 4b b1 3e
       0.6449817 1.4774865 1.0150443 0.34627825
000170 fd b5 77 3f 41 aa ac 3f 90 ad 8b 3f bc af 77 3e
       0.9676207 1.3489457 1.0912342 0.24188131
000180 bc b0 ea 3e f5 84 e8 3f 4b d7 80 3f 26 f5 ed 3e
       0.45837963 1.8165575 1.0065702 0.46476096
000190 6c 61 8e 3f 3a 27 81 3f 32 f6 74 3f 72 31 91 3e
       1.1123481 1.0090096 0.95688164 0.28358036
0001a0 2d 1e da 3f 21 45 85 3e 43 35 9c 3f 6b 83 9f 3f
       1.7040459 0.26029304 1.2203754 1.246198
0001b0 0b 44 88 3f d2 1d f1 3e 7b 4e 29 3f b9 38 8b 3f
       1.0645765 0.47093064 0.66135377 1.0876685
0001c0 07 eb 3d 3f 1f 5c 9b 3e 8f e1 b7 3e dd 84 8c 3f
       0.7418675 0.3034372 0.35914275 1.0978047
0001d0 65 45 9f 3f 68 f1 9d 3f 82 dc cd 3f 60 ca 85 3f
       1.2443053 1.2339296 1.6082919 1.0452385
0001e0 6a 3a 95 3e 82 b8 81 3e 71 e2 f5 3e d3 6f 9f 3e
       0.2914613 0.2533608 0.48024324 0.31140003
0001f0 ae 70 ca 3f 9a aa 98 3f af e7 c1 3f bb 21 98 3c
       1.5815637 1.1927063 1.5148829 0.018570771
000200 4b 1d b5 3e 4c 16 23 3f c3 9e d6 3f b6 86 a7 3f
       0.3537391 0.637059 1.67672 1.3087986
000210 f0 15 86 3c cb a1 9b 3f 77 26 91 3f bf 99 96 3f
       0.016367882 1.215875 1.1339864 1.176567
000220 2a c5 bf 3f 4f 87 a7 3f 71 9e a3 3d f1 b0 d9 3f
       1.4982045 1.3088168 0.07989205 1.7007123
000230 14 93 1d 3f cf 6d df 3e ce 73 ac 3f 9a 79 87 3f
       0.6155255 0.43638465 1.3472841 1.0583985
000240 55 48 e9 3e 8f 35 a1 3f 8e 41 bb 3d 1f 6a c3 3f
       0.45562997 1.259447 0.09143363 1.526676
000250 a3 07 7e 3f 45 5f 57 3f d6 25 d7 3f 97 eb 8b 3e
       0.992304 0.84129745 1.6808422 0.27328178
000260 aa a1 b3 3f fc 8a 7a 3f 67 27 6e 3f 4d d1 b8 3e
       1.4033711 0.97868323 0.93028873 0.36097184
000270 cf 94 94 3f f0 ec e2 3f 87 52 dc 3f 3b a8 ba 3f
       1.1607913 1.7728558 1.7212685 1.458259
000280 8c b0 db 3f 67 a9 be 3f 8d 1a a0 3f d2 74 64 3f
       1.7163253 1.4895447 1.2508103 0.89240754
000290 ff e9 86 3f a0 25 5b 3f 54 d4 1b 3f 46 2a 8e 3f
       1.054016 0.85604286 0.6087086 1.1106651
0002a0 1f 3e 9a 3f e3 7e d8 3f 6a 20 7f 3f 29 18 a4 3e
       1.2050208 1.6913723 0.99658835 0.32049683
0002b0 81 16 8d 3f 34 f3 0b 3f 2d dd 7b 3f fb b9 ce 3f
       1.1022493 0.54667974 0.9838436 1.6150507
0002c0 b6 36 bb 3f 08 0a e6 3f 0f 73 94 3f a8 aa 08 40
       1.4626071 1.7971811 1.1597613 2.135416
0002d0 51 c3 82 3f 63 d4 56 3f 1f cc 27 3f 66 44 e9 3f
       1.0215856 0.83917826 0.6554584 1.8223999
0002e0 5a 23 96 3f 90 6e 10 3f 46 15 a3 3f d3 51 30 3f
       1.1729538 0.56418705 1.2740867 0.68874854
0002f0 cd 26 b1 3f b4 15 9c 3f c3 1a 8c 3e 7e 78 38 3f
       1.3839966 1.2194123 0.27364168 0.72058856
000300 36 b2 a0 3f 94 e7 73 3f 61 62 f3 3e 3b 97 c4 3f
       1.2554386 0.95275235 0.47535995 1.5358652
000310 85 93 73 3f d1 33 db 3e 6b b8 88 3f a1 16 59 3f
       0.9514697 0.4281297 1.068128 0.84800154
000320 e4 a1 e0 3e 93 7f b7 3f 39 21 e5 3f 04 22 8d 3f
       0.43873513 1.4335808 1.7900764 1.1026006
000330 ee 74 79 3f 34 96 a9 3f ec d7 bd 3f 73 10 75 3f
       0.97444046 1.3248963 1.4831519 0.95728225
000340 30 b3 71 3f e6 97 d2 3f af db 54 3e 12 ba 9b 3e
       0.94414043 1.6452606 0.20786928 0.30415398
000350 2d 4f 28 3e e2 6c a7 3f 5a 47 68 3f 06 49 73 3f
       0.16436453 1.3080103 0.90733874 0.950333
000360 87 be 95 3f 69 ee c3 3e 40 6a dd 3f 42 00 c9 3f
       1.1698769 0.3826783 1.729805 1.5703204
000370 a8 70 13 3f 70 97 ad 3f bf 36 24 3f 01 95 43 3f
       0.57593775 1.356184 0.64146036 0.76399237
000380 42 7a bc 3f 4d 7d cd 3e 2f 19 86 3f db 3a 97 3f
       1.472481 0.4013466 1.0476435 1.1814836
000390 97 c6 9d 3f 13 ca 89 3f 25 24 9a 3f 39 fd a8 3f
       1.232623 1.0764793 1.204228 1.3202277
0003a0 c1 ad a7 3d 68 c5 be 3f 48 ce df 3e 66 5e 40 3d
       0.08187438 1.4903994 0.43712068 0.046965025
0003b0 ed 67 aa 3f 18 3f 9d 3f c7 30 16 3f 34 f9 7f 3f
       1.3312966 1.228488 0.5866818 0.9998963
0003c0 96 c7 b4 3f 4f ed 8d 3f ff 87 c0 3f 2b f8 c9 3f
       1.4123409 1.1088046 1.5041503 1.577886
0003d0 71 d0 01 40 c0 da d4 3f b0 8b 98 3f 3a 7b ab 3f
       2.0283473 1.6629257 1.1917629 1.3396981
0003e0 78 62 8e 3f 1d 1f 5f 3f 1c 33 ca 3f d4 7a 24 3f
       1.11238 0.8715685 1.5796847 0.6424992
0003f0 51 8e 6f 3f b0 b1 46 3f 8a 11 a1 3f ac 01 b2 3f
       0.9357653 0.7761488 1.2583477 1.390676

gnn_node.convs.0.mlp.1.bias f4 [256]
000000 00 f4 a4 be 05 7e 8d be ff 4f 07 bf 38 c6 c0 3c
       -0.32217407 -0.27635208 -0.5285644 0.023532018
000010 7a e0 22 bf 9e ff f3 be b6 e7 c5 be 1e 0a bd be
       -0.63623774 -0.47655958 -0.38653344 -0.3692178
000020 c3 76 15 3e 43 9a 51 3e 1d 21 8d 3e b7 e9 99 3e
       0.14596085 0.20469002 0.27564326 0.30061123
000030 00 b8 10 be 0d b1 9b 3e 2b 3f a2 bc 86 10 a9 be
       -0.1413269 0.30408517 -0.019805511 -0.3302042
000040 ef d1 dd 3d 97 db 33 be c8 62 94 be 01 23 9a be
       0.10831057 -0.17564236 -0.28981614 -0.3010483
000050 d5 1c bb be 02 22 1f bf 5e fe cd 3e 24 b8 3f bf
       -0.36545435 -0.62161267 0.4023313 -0.7489035
000060 5c 79 14 bf 9d b7 a7 be 6e 6f cb be ce e8 a3 3e
       -0.5799768 -0.32757273 -0.39733452 0.32013553
000070 82 0d 54 be 15 4c 94 be 5d 6c 89 be 7d fc 6d be
       -0.20708278 -0.28964296 -0.26840487 -0.23240848
000080 7a 90 89 be 2a af 01 bf 5f 07 c1 be 27 b1 9a 3e
       -0.2686804 -0.50657904 -0.37700936 0.30213282
000090 9b cf 32 be 5b 6f 90 be d5 01 13 bf fd 3c 92 3e
       -0.17462008 -0.28209957 -0.5742467 0.28562155
0000a0 de 57 1c bd 75 54 a1 be 5e 0a c6 be 50 25 05 bf
       -0.038169734 -0.31509748 -0.38679785 -0.5201006
0000b0 70 6e 6c 3e 31 cd fc bd f4 3f b1 be c7 d6 9a be
       0.23089004 -0.12343825 -0.34619105 -0.30241987
0000c0 8e 16 91 bd b9 42 8c bc f4 15 bb bc 66 42 0e 3f
       -0.0708438 -0.01712166 -0.022837617 0.55570066
0000d0 bf b7 00 be e9 f4 76 be b7 e8 a4 3d cc 43 60 bd
       -0.12570094 -0.24116863 0.08052199 -0.054752156
0000e0 15 4e 49 bf 60 da 89 bf 6f 44 59 bf 51 29 bb be
       -0.7863477 -1.0769768 -0.84870046 -0.3655496
0000f0 f6 b6 8c be 3c 87 ce be f4 96 cd 3e cd f6 6b bd
       -0.27483338 -0.4033755 0.4015423 -0.057608414
000100 28 3d 93 3d 7f b0 c2 3d 15 3f 96 be 13 70 b3 be
       0.07189399 0.0950632 -0.29345003 -0.35046443
000110 64 6e f5 be 2a 79 dc bd 4f 61 57 be 32 f3 36 3e
       -0.47935784 -0.10765298 -0.21033214 0.17866209
000120 5b 3b fd be c4 7c b0 3e fa cb f3 be 7d a7 86 be
       -0.49459347 0.3447019 -0.4761656 -0.26299658
000130 f5 41 c9 be 0f b4 94 be 98 17 a7 be c3 c4 8e bd
       -0.39308134 -0.29043624 -0.32635188 -0.06971123
000140 0b 57 f4 be d3 66 92 be f5 a4 18 be 15 12 cf be
       -0.4772266 -0.28594074 -0.14906676 -0.40443483
000150 f4 1d a2 be 74 49 32 3e dc 4f df bc bf e0 fe be
       -0.31663477 0.17410833 -0.02725976 -0.49780843
000160 8a ac a6 be a4 d1 c1 be 89 3a b6 be 45 28 2a bf
       -0.32553512 -0.37855256 -0.35591534 -0.66467696
000170 30 2d bd be 69 dc 9a be e9 a4 d4 bd 1a b7 ff be
       -0.36948538 -0.30246285 -0.103830166 -0.49944383
000180 2f da 6b be 6a 19 8e be 2d 40 b0 be 31 f8 5c be
       -0.23032449 -0.27753764 -0.34423962 -0.21579053
000190 ef 3f 0d be 7f 27 b2 be 88 54 25 be 72 12 a2 be
       -0.1379392 -0.34795758 -0.16145527 -0.31654698
0001a0 b1 6e 84 bd 69 8b d4 3e 01 d5 ba be 6c 57 cd bd
       -0.06466425 0.41512612 -0.36490634 -0.1002644
0001b0 1e a8 27 be ff 6e 2c bf 8a e0 5a be 72 b7 2a be
       -0.16372725 -0.67356867 -0.21374717 -0.16671541
0001c0 5d a0 34 3e 48 b6 25 bf 33 0c c7 3e 90 d8 a5 be
       0.17639299 -0.64731264 0.38876495 -0.32391787
0001d0 b4 41 d5 be 41 51 ab 3e 8b 6e f0 be 68 a4 c0 be
       -0.4165169 0.3346043 -0.46959338 -0.37625432
0001e0 0b ff 6b bc bd ff 63 bd 24 4c 09 bf 99 01 47 bf
       -0.014404069 -0.055663813 -0.53631806 -0.7773681
0001f0 2f ed f2 be 62 ca e1 3d 63 2a 0b be 51 2e 73 3e
       -0.47446582 0.110249296 -0.13590388 0.23748137
000200 05 c2 be 3e fc ec e7 be 02 cd 22 bf 4a de e2 be
       0.372574 -0.45297992 -0.6359407 -0.44310218
000210 14 44 81 3e 05 8b f0 bc 7c f4 60 be a2 7d 9f be
       0.25247252 -0.029363165 -0.21968263 -0.31150538
000220 5e 43 ee bd ed 96 4b be 2b 01 4b bf 36 6e bc be
       -0.11633943 -0.19881792 -0.7929866 -0.36802834
000230 30 dd 67 be f4 ff 03 bf 89 0d d1 be c0 c5 b5 3d
       -0.2264297 -0.5156243 -0.4083064 0.088756084
000240 ca d5 99 be fa 0b 15 3d 7b 44 06 bf 78 36 c1 be
       -0.3004592 0.036388375 -0.5244824 -0.3773687
000250 97 2b 8d bc 7c 38 bd 3e a5 03 36 be a6 50 df 3e
       -0.0172327 0.36957157 -0.17774828 0.43616217
000260 29 61 b8 3d e0 08 f3 be f7 94 c2 be 8c a8 96 bf
       0.09002907 -0.4746771 -0.38004276 -1.1770186
000270 0f 81 89 be 5c 35 53 bd b3 bd 94 bd 32 03 e8 be
       -0.26856276 -0.05156456 -0.07262745 -0.45314938
000280 e4 d7 04 be dc f6 06 bf ca 58 01 bf b8 5a fa be
       -0.1297298 -0.5272043 -0.50526106 -0.48897338
000290 94 e2 76 be 8e 4a e6 3e e0 58 5b bf 4d 68 e1 be
       -0.2410987 0.44978756 -0.8568249 -0.44024888
0002a0 68 bb 09 be 77 6b 6c be 0f 94 07 3e 4b e8 fb ba
       -0.13450396 -0.2308787 0.13240074 -0.0019219009
0002b0 f4 1f 74 be b1 4b 12 bf e9 30 b6 be c9 44 c9 bd
       -0.23840314 -0.57146746 -0.3558419 -0.09827573
0002c0 a0 24 a6 be 22 20 d2 be 72 37 cc be b5 ca 06 be
       -0.32449818 -0.4104014 -0.3988605 -0.13163264
0002d0 23 21 5e 3d da 6f 9f bc 42 10 98 be e9 c0 c4 3d
       0.05423082 -0.019462515 -0.29699904 0.09607107
0002e0 72 c6 12 bf dc 26 32 3c c5 03 0f bf 57 a5 04 bf
       -0.57334054 0.010873523 -0.55865127 -0.5181479
0002f0 57 4a 2a 3d 34 1e 4d bd d2 8b 1b 3f 47 90 5a be
       0.041574802 -0.050077632 0.60760224 -0.213441
000300 28 91 83 be d0 44 93 be e1 26 60 bd 96 4b bb be
       -0.25696683 -0.28763437 -0.054724578 -0.36581105
000310 d0 10 29 be c2 66 76 3e 27 14 0a bf 86 70 af bd
       -0.1651032 0.24062636 -0.53937 -0.08566384
000320 ef 68 3c bf cc e8 77 be d8 35 25 be d9 38 e6 be
       -0.73597616 -0.24209899 -0.16133821 -0.44965246
000330 08 cb 8e be a7 87 6d be bd b7 17 bf 70 a8 d4 3e
       -0.27889276 -0.23196279 -0.5926474 0.41534758
000340 49 00 1a bf 64 18 52 bd 98 fd ef be b5 59 ec bc
       -0.60156685 -0.051292792 -0.46873164 -0.02885137
000350 de 8b 1f be f5 79 a1 be fe 31 12 3e cf af 1b be
       -0.15580699 -0.31538358 0.14276883 -0.15203784
000360 19 53 91 bd a7 49 86 bf 44 f3 78 bc f4 d4 0d bf
       -0.07095928 -1.0491227 -0.015194718 -0.55403066
000370 c5 a7 f9 be d3 31 f7 be 9e 96 7a 3e 7d 10 9f be
       -0.4876081 -0.482802 0.24471518 -0.31067267
000380 7b 5c e0 bd 4a 25 e3 be 41 ff f7 be 8a e9 40 3e
       -0.10955139 -0.44364387 -0.4843693 0.18839088
000390 c8 a2 b8 be 8c 2c f5 be 35 92 3d be 3d 4f 0a bf
       -0.36061692 -0.4788555 -0.18512805 -0.5402716
0003a0 12 9b 62 bd 85 74 28 be e7 8f cd be 61 2d 0c 3e
       -0.055323668 -0.16450699 -0.4014885 0.13689186
0003b0 a7 5f 4a be 29 35 6a be 23 19 84 3e 35 11 d6 bd
       -0.19763051 -0.22871841 0.25800428 -0.10452501
0003c0 d8 26 c5 be d7 6d e7 be 0f 5a 99 3d 47 72 47 be
       -0.38506198 -0.4520099 0.074878804 -0.19477187
0003d0 ec 28 8d bd c0 bb c3 be 1b e5 f3 bd c5 99 ca bd
       -0.06892571 -0.3822918 -0.11908933 -0.098926105
0003e0 77 6e e1 be a7 57 89 be 5c e6 43 be eb 06 ed be
       -0.4402959 -0.26824686 -0.19130844 -0.4629434
0003f0 02 93 85 be 91 32 a4 3d fa f7 9a 3c 70 98 0d bf
       -0.2608872 0.08017457 0.018917073 -0.55310726

gnn_node.convs.0.mlp.1.running_mean f4 [256]
000000 0f b4 b5 3f a4 1b cc 40 48 49 9e bf 23 8f 65 c0
       1.4195575 6.378374 -1.2366114 -3.5868614
000010 fa cf 23 41 f3 f4 ef bf c7 ab d9 c0 43 a7 8a c0
       10.238276 -1.8746628 -6.802219 -4.3329177
000020 8d dc f5 c0 10 4e d1 3f 97 7f 49 40 3e 30 07 41
       -7.6831727 1.6351948 3.1484125 8.449278
000030 0f 80 c6 c0 31 a0 83 40 24 b6 b3 3f 97 9e 3c c0
       -6.203132 4.1133046 1.403996 -2.9471796
000040 06 15 f0 40 90 bf 43 40 ed 09 b1 be 8d 2b 4a c1
       7.5025663 3.058567 -0.34577885 -12.6356325
000050 e6 6e eb c0 d8 b0 5d c0 4f 06 cf 40 fd 3c 64 c0
       -7.3572874 -3.4639187 6.46952 -3.5662224
000060 82 79 2c c0 0e 27 c4 c0 31 f9 31 40 8c 71 60 40
       -2.6949162 -6.1297674 2.7808344 3.5069304
000070 37 19 e4 bf 0c 94 24 bf 7c 71 91 40 33 a6 f1 3e
       -1.7820195 -0.642884 4.545103 0.47197112
000080 b5 cf 3e 3f 89 aa 37 bf ea 60 bb 40 04 09 16 41
       0.74535686 -0.7174459 5.8555803 9.377201
000090 3d b9 50 40 aa 5a cb 40 39 be 45 c0 82 1f b3 40
       3.261306 6.3548174 -3.0897353 5.597596
0000a0 29 30 7b bf 4b 25 06 40 f9 00 d1 c0 9d 56 94 40
       -0.9812036 2.0960262 -6.5313687 4.635573
0000b0 32 ff 0c bc 92 a8 91 c0 cb 40 b6 c0 6d a7 21 40
       -0.008605765 -4.5518274 -5.6954093 2.5258439
0000c0 bd 73 d2 bf 50 86 4f 41 44 b5 b3 bf 61 4c 4c 40
       -1.644157 12.970291 -1.4039693 3.1921618
0000d0 ba 0b 21 40 31 df dd c0 78 3e 3b 40 08 10 ab c0
       2.5163407 -6.933495 2.9256878 -5.345707
0000e0 b0 59 cc 40 36 45 1a 41 75 2f 46 c0 2d d0 bf 3f
       6.385948 9.641897 -3.0966465 1.4985405
0000f0 e2 94 3a 41 46 95 0c c1 19 0c dc c0 42 61 f2 40
       11.661348 -8.786444 -6.876477 7.5743723
000100 c4 4e c7 40 c2 4b 36 c1 43 48 fa 40 9b e5 d8 40
       6.228365 -11.393496 7.821321 6.778028
000110 60 0a 21 c1 9b 38 b8 3f 6b b6 8a c0 a3 cb c3 40
       -10.065033 1.4392275 -4.334768 6.118608
000120 32 70 80 c0 bf ad a2 c0 3b 89 5c 40 17 16 81 40
       -4.0136957 -5.0837092 3.445876 4.0339465
000130 d4 33 6b c0 9a 61 8e c0 d5 66 ae 40 45 40 b6 bf
       -3.6750383 -4.4494143 5.4500527 -1.4238364
000140 ef ff 0d c1 3e 71 de 40 01 bc 44 40 78 ef 92 3f
       -8.874984 6.9513235 3.0739748 1.147933
000150 c3 ba b8 bf c7 91 1f 40 e2 6a 9a 3f c4 4b 8b c0
       -1.4431995 2.4932725 1.2063868 -4.3529987
000160 11 e8 80 c0 8c ac 18 40 78 61 77 bf 10 5f cd 3f
       -4.0283284 2.3855314 -0.966331 1.6044636
000170 66 ea a5 c0 f0 f9 12 c0 74 f3 15 41 b1 86 3e 41
       -5.184863 -2.296505 9.371937 11.907884
000180 95 86 0e c1 db c7 4c 3e 9b 71 be 3e 4d 97 81 c0
       -8.907857 0.19998114 0.3719605 -4.0497193
000190 3a a6 a8 c0 ca 3c 91 c0 ad 19 f4 40 5f cb 06 c1
       -5.2702913 -4.5386705 7.6281343 -8.424651
0001a0 83 16 6a c0 e5 b1 d8 40 e4 d4 b4 40 bc dd 25 c1
       -3.657624 6.7717156 5.6509876 -10.366634
0001b0 6a 1f 50 bf 9c c0 01 41 8b 8b ca c0 dd b4 b6 3f
       -0.81297934 8.109524 -6.329534 1.4273945
0001c0 d3 4b 27 c1 8d 7e 05 41 9c 69 02 41 0e fc 78 40
       -10.456012 8.343396 8.150784 3.8903842
0001d0 6a cb 04 c0 83 c9 28 40 74 29 b1 3f 83 8e ee c0
       -2.0749154 2.6372993 1.3840775 -7.4548965
0001e0 ed e2 1d 41 10 a9 d6 bf 66 8c 1a 3e 4c f8 c4 40
       9.867902 -1.6770344 0.1509262 6.1553097
0001f0 b8 86 ce 3f 15 08 a6 bf 80 3b da c0 da 73 4b 40
       1.6134863 -1.2971216 -6.819763 3.178946
000200 6e 7f f2 40 e4 00 93 bf 6b ae c0 bf 1b 63 0f c1
       7.5780554 -1.1484647 -1.5053228 -8.961696
000210 01 b3 1b 41 cf 31 58 3f f5 23 a2 40 be a8 f1 bf
       9.731202 0.84451 5.0668893 -1.8879621
000220 1f 40 a3 c0 a2 3c 6e c0 1b 7b 5d bf 07 c0 16 c1
       -5.1015773 -3.7224507 -0.8651597 -9.421882
000230 92 81 b9 c0 e7 6d d7 c0 68 bb 08 41 1d e0 64 40
       -5.7970667 -6.732166 8.5457535 3.5761788
000240 b5 61 ae c0 d6 b0 2f c1 22 89 d9 40 ca 88 29 bf
       -5.449427 -10.980673 6.79799 -0.6622435
000250 6f ed b5 3f 47 59 04 41 7f 2f de 40 96 0d 0e 41
       1.4213084 8.271796 6.943298 8.878317
000260 00 ba de 3f ac 9e 43 c1 cc f5 a2 c0 40 1c cf be
       1.7400513 -12.226238 -5.0925045 -0.4045124
000270 44 eb e4 c0 d2 4e 4b 41 4c ab 40 bc 0d 43 39 c1
       -7.153719 12.706743 -0.01175959 -11.57887
000280 df 27 d1 be 30 31 fe c0 dc 4c 91 c0 f3 1f d7 c0
       -0.40850732 -7.9435043 -4.5406322 -6.72265
000290 fc 9c 7c c0 33 79 9b 40 ea 01 3a 40 5c 4f 34 be
       -3.9470816 4.858545 2.9063668 -0.17608398
0002a0 ce 7b 09 41 47 97 1f bf 8c 33 09 c0 c8 17 8e be
       8.592726 -0.62340206 -2.1437712 -0.2775252
0002b0 a2 ae b1 40 d1 db eb c0 09 c9 ad c0 96 3d c0 c0
       5.5525675 -7.370583 -5.4307904 -6.007518
0002c0 f0 9d 32 bf aa 51 b1 3e f1 da a6 c0 50 f8 9b 40
       -0.69772243 0.34632617 -5.2142262 4.8740616
0002d0 46 d3 aa c0 00 05 62 c0 cb 61 60 3f 0e 71 a2 bd
       -5.33829 -3.5315552 0.8764922 -0.0793172
0002e0 81 86 5a c0 57 9f 33 3d ff f6 85 c0 b9 8f 2a bf
       -3.4144595 0.04385313 -4.186401 -0.66625553
0002f0 ca 29 62 c0 3e df 9b bf 1f 81 04 41 27 b7 3a c1
       -3.5338006 -1.2177503 8.281524 -11.669715
000300 61 3f d3 40 73 bf 4e c0 f0 8a ea 40 d2 61 ab 40
       6.6014867 -3.2304351 7.32946 5.355691
000310 73 1c 3d 3f 8b 4d 2d c0 e3 ac 22 c0 06 84 06 41
       0.73871535 -2.7078578 -2.5418022 8.407232
000320 ad 4e ef 3f 1f 0a 7a 40 0f 79 77 c0 b4 4f 6d 3f
       1.8695885 3.9068677 -3.8667638 0.9269974
000330 96 20 8a c0 41 89 5e c0 53 fc cc c0 fb a0 85 40
       -4.316478 -3.4771273 -6.4058013 4.175901
000340 89 30 ae c0 58 70 1c 41 df 06 90 3f ec 9f cf 40
       -5.4434247 9.777428 1.1252097 6.4882717
000350 6f ee b1 bf da 44 d9 3f 5a c6 04 c1 ed 70 bf 40
       -1.3900889 1.6974137 -8.298426 5.982535
000360 54 47 80 c0 44 5a 3a 40 9f 03 cf 40 90 b8 ef 3f
       -4.008707 2.9117594 6.469192 1.8728199
000370 b6 cd 76 c0 50 31 13 c1 e2 4a 23 41 8e ec 5d c0
       -3.8563056 -9.199539 10.205782 -3.4675632
000380 46 43 f8 40 18 8a f6 40 d4 fd b6 c0 cb 6a 09 40
       7.758212 7.704357 -5.718485 2.1471431
000390 c1 75 5c 40 ca 21 c3 bf b1 c5 18 c0 dd d9 da 3e
       3.4446871 -1.5244687 -2.3870661 0.42744341
0003a0 d0 9b 86 40 cc 5f 4b 41 ff 2f 3d c1 70 dd 76 40
       4.20652 12.710888 -11.824218 3.8572655
0003b0 53 d9 4f 40 63 d7 d2 c0 b4 73 db 3f 46 1d f3 bf
       3.2476394 -6.5887923 1.7144685 -1.8993309
0003c0 60 9b 14 c1 26 b1 33 c1 53 a0 8d 3f c4 d8 92 3d
       -9.287933 -11.230749 1.1064552 0.07170251
0003d0 c8 be 41 c0 f6 b4 5f c0 c6 ba 34 3e 68 d4 44 c0
       -3.0272694 -3.49542 0.17649373 -3.0754642
0003e0 bc a2 21 c0 5c 93 76 c0 9e c4 85 c0 72 68 38 c0
       -2.5255575 -3.852744 -4.180251 -2.8813748
0003f0 ba f1 c3 40 53 08 2c 40 0d 22 86 be b7 22 a1 c0
       6.1232576 2.688008 -0.26197854 -5.0354877

gnn_node.convs.0.mlp.1.running_var f4 [256]
000000 7a 88 f0 41 35 4c 44 42 d1 6c 9b 42 1a dd d6 41
       30.066639 49.07442 77.71253 26.85796
000010 77 79 1f 42 d7 6a f2 41 f2 39 70 41 4d 30 34 42
       39.868618 30.302168 15.014147 45.04717
000020 1b f8 ac 41 cc d6 8d 42 f7 91 ca 41 c4 65 35 42
       21.621145 70.919525 25.321272 45.34938
000030 2b 6c 9f 41 fd 11 d9 41 61 8e 2f 41 be ef 82 42
       19.927816 27.133783 10.97226 65.46825
000040 b2 0d d4 41 82 46 7f 42 ef 5f 95 42 93 15 7d 42
       26.506687 63.818855 74.68737 63.27107
000050 3f 5c b0 42 fa d8 f3 41 ac 47 de 41 d3 62 df 41
       88.18017 30.480946 27.784996 27.923254
000060 36 d4 33 42 9e ce 62 41 6f cb 2b 42 19 4b e8 41
       44.957237 14.175444 42.948666 29.036669
000070 26 0d cf 42 de 96 96 42 74 7f d3 42 a0 ff 69 42
       103.52568 75.29466 105.74893 58.499634
000080 ca de 82 42 a4 0a dd 41 d7 9d 23 42 70 d9 45 42
       65.435135 27.630196 40.90414 49.46234
000090 55 2e ea 41 1b c5 f2 41 37 24 85 42 b9 cc 90 42
       29.272623 30.346243 66.57073 72.39985
0000a0 b7 81 d1 42 2e af 69 42 7d f2 82 42 ad 77 ee 41
       104.75335 58.421074 65.47361 29.808435
0000b0 fd 8e 31 42 76 ee 04 42 5a 58 8a 42 d8 d2 07 42
       44.389637 33.232872 69.17256 33.955902
0000c0 58 19 28 42 34 a0 89 42 81 bc 66 41 8b 2f e4 41
       42.02475 68.8129 14.421021 28.523214
0000d0 53 f3 9c 42 20 4b 21 42 80 e0 cf 41 a7 28 fd 41
       78.47524 40.323364 25.98462 31.64485
0000e0 33 1c 2c 42 03 7a 11 42 e4 83 19 42 32 05 57 41
       43.02754 36.369152 38.3788 13.438768
0000f0 6b 1a 1b 42 41 68 35 42 13 54 33 42 63 fa 06 42
       38.7758 45.35181 44.832104 33.74452
000100 a7 8a dc 41 e7 c5 af 41 d0 86 9a 42 76 b1 83 42
       27.567701 21.971632 77.263306 65.8466
000110 25 84 19 42 5d 86 5e 42 f3 e5 1d 42 ad 01 d2 41
       38.379047 55.631214 39.47456 26.250818
000120 09 76 b5 42 da e6 cb 42 1e 36 26 42 9e 61 af 41
       90.73054 101.95088 41.55285 21.922665
000130 c2 15 55 42 8f 11 41 42 91 0f 58 42 df f6 b6 41
       53.271248 48.267147 54.0152 22.870543
000140 ef 1d bd 41 cc 08 08 42 19 6c 8f 42 87 97 4a 42
       23.639616 34.00859 71.71113 50.647976
000150 59 58 20 42 45 f8 db 41 92 39 69 42 32 33 78 42
       40.086277 27.496225 58.30622 62.049995
000160 8c 9d 1e 42 5e 8f 63 42 1d 48 b7 42 26 df 2a 42
       39.653854 56.890007 91.64085 42.71792
000170 a1 2c 1d 41 5d 29 6e 42 b9 62 45 42 90 69 1a 42
       9.823396 59.540394 49.34641 38.60309
000180 7e 24 80 41 d9 f2 db 42 62 0b e7 41 11 8c 41 42
       16.017818 109.97431 28.880558 48.386784
000190 dc 6c 3e 42 5b 31 52 42 60 32 59 42 38 8a a0 41
       47.606308 52.5482 54.299194 20.06749
0001a0 b7 4f a4 41 de 2d fa 41 69 1e 26 42 0a 38 62 41
       20.538923 31.272396 41.529697 14.138681
0001b0 16 80 0e 42 35 31 7f 41 0e 63 86 41 41 65 3f 41
       35.625084 15.949513 16.798367 11.96222
0001c0 c8 fe 8f 41 5d 78 5b 42 5c 37 10 42 94 42 ad 42
       17.999405 54.867542 36.05406 86.630035
0001d0 87 75 1b 42 62 81 92 41 ec 8b 98 42 cf be 4d 42
       38.864773 18.313175 76.273285 51.436337
0001e0 1e 67 94 42 fa a2 8e 41 88 0c 49 42 b2 73 91 42
       74.2014 17.829578 50.262238 72.72597
0001f0 f8 d4 9e 42 72 f4 17 42 6c a9 6c 42 49 56 1c 42
       79.415955 37.988716 59.16545 39.084263
000200 44 be 20 42 7d ac 7d 42 d8 02 06 42 4c 3e 32 42
       40.185806 63.418446 33.502777 44.560837
000210 ac 27 2a 42 48 1d b3 42 d6 c7 0b 42 00 9a 85 42
       42.538742 89.55719 34.945152 66.80078
000220 01 c8 2e 42 6f e1 26 42 05 87 8e 41 45 ab 69 42
       43.695316 41.72015 17.815928 58.417255
000230 9e 3d 1f 42 c8 51 f2 41 57 b4 81 42 d1 ac 99 42
       39.810173 30.289932 64.85223 76.83753
000240 23 d6 80 42 f8 ca cd 41 df dc 6e 42 18 31 8e 41
       64.418236 25.724106 59.715694 17.773972
000250 b1 32 81 42 68 b8 5f 42 8e 8e 7c 42 a1 a4 7d 42
       64.59901 55.930084 63.139214 63.41077
000260 93 cc 7f 42 37 82 58 42 3a 4a 97 42 79 fc b8 41
       63.94978 54.127163 75.64497 23.123278
000270 92 d7 69 42 ef 02 3d 42 10 00 73 42 d5 31 8c 42
       58.460518 47.252865 60.75006 70.09733
000280 49 a6 98 42 f1 dc c2 42 de 75 b2 42 a3 1a fa 41
       76.324776 97.431526 89.23021 31.263006
000290 a8 a6 3f 42 ba 59 c6 41 be 2b a8 41 49 60 72 42
       47.91275 24.793812 21.021358 60.59403
0002a0 6f fd 6a 42 7e 9e 25 42 2c 80 0b 42 b8 45 1e 42
       58.747494 41.404778 34.875168 39.568085
0002b0 bc a1 9f 41 37 bf b5 41 6f cf 4d 42 13 d2 74 41
       19.953972 22.718367 51.45257 15.301288
0002c0 6e 66 2b 42 d9 45 15 42 60 f1 b1 41 44 a5 71 42
       42.85003 37.31821 22.242859 60.411392
0002d0 f7 72 f2 41 27 88 51 42 68 b9 bd 41 e9 e9 2a 42
       30.306135 52.38296 23.71553 42.728428
0002e0 0b ab 31 42 0b a3 e0 41 ce 54 3f 42 6a d2 1f 42
       44.417034 28.07961 47.832817 39.955482
0002f0 bd 9b 31 42 a7 ca e5 41 93 7e 07 42 f5 02 97 41
       44.40209 28.723951 33.873608 18.876444
000300 7d 39 99 41 ab da 6c 42 40 1b 73 42 06 1f 8f 42
       19.15307 59.213543 60.77661 71.56059
000310 75 da 14 42 a6 6b 82 41 fa 8f a4 42 82 c0 0b 42
       37.213337 16.302563 82.281204 34.937996
000320 93 96 2e 42 de 3f 6a 42 59 69 a3 42 39 65 56 42
       43.647045 58.56237 81.70576 53.59885
000330 ca ce 20 42 61 97 b8 42 cb e9 de 41 cc 50 88 42
       40.201942 92.29566 27.864157 68.15781
000340 ce 15 09 42 d8 39 00 42 20 fa 47 42 d2 79 79 42
       34.271294 32.056488 49.994263 62.368965
000350 69 5e 23 42 37 ee 13 42 66 47 c5 41 aa 2e 33 42
       40.842197 36.98263 24.659863 44.79557
000360 b6 49 70 42 41 e5 20 42 9c 76 18 42 37 65 86 42
       60.071983 40.22388 38.11583 67.197685
000370 c3 a1 c7 41 9b ed 3e 42 88 6a 4e 42 c3 ea d2 41
       24.953985 47.732037 51.604034 26.36463
000380 6a d7 a0 42 83 af 8a 41 e5 86 6e 42 d4 6a b1 42
       80.42073 17.3357 59.631733 88.70865
000390 f5 d5 9d 42 3a 80 9a 42 d8 f6 82 42 9e 10 be 42
       78.917885 77.25044 65.48212 95.032455
0003a0 3e 6f 0a 41 b2 e7 86 42 bf d6 d1 41 dd 56 e6 41
       8.652159 67.45253 26.229856 28.792414
0003b0 b4 87 89 41 ff 4b 46 42 82 44 00 42 5d 88 54 42
       17.191261 49.574215 32.066902 53.133167
0003c0 14 0d 72 42 a1 1e 68 42 1c 6f 22 42 4d 06 94 42
       60.51277 58.02991 40.608505 74.01231
0003d0 dc 0a d4 41 3e ae 27 42 23 15 87 42 be f0 66 41
       26.505302 41.92016 67.54128 14.433775
0003e0 d1 f2 b2 42 47 01 7b 42 a9 ee fc 41 5f 7a 9c 42
       89.47425 62.751247 31.616533 78.239006
0003f0 fe 09 f2 41 eb 45 f6 41 1a 6c 60 42 08 d5 88 42
       30.254879 30.78414 56.105568 68.41608
