checkpoints/D_epoch_120.pth (torch, 843999 bytes, 48 tensors)

gnn_node.node_encoder.weight f4 [1, 128]
0	0x3e9e46c4	0.30913365
1	0xbd6037f2	-0.054740854
2	0x3de157da	0.110030845
3	0x3e174c83	0.1477528
4	0x3f97a94a	1.1848538
5	0xbee617a1	-0.44939902
6	0xbf02a5a8	-0.5103402
7	0x3ece22b8	0.40260863
8	0x3eca15b4	0.39469683
9	0x3c5e8ca1	0.013583333
10	0xbf81627b	-1.0108179
11	0x3d8a151b	0.06742307
12	0xbf5c3f0d	-0.8603371
13	0x3f005b59	0.50139385
14	0xbf9895f3	-1.1920761
15	0xbf807d5d	-1.0038258
16	0xbf0e275b	-0.555288
17	0xbf14f749	-0.5818983
18	0x3f4a4cb7	0.7902331
19	0x3e93a524	0.2883693
20	0xbf8e90dd	-1.1137959
21	0xbcbb8b06	-0.02289344
22	0xbe05987c	-0.1304645
23	0x3dd3d057	0.10342472
24	0xbf78f128	-0.97242975
25	0x3ef1fbde	0.47262472
26	0xbd422c3f	-0.047405478
27	0x3f23e38f	0.640191
28	0x3e22291f	0.15835999
29	0xbf62fabb	-0.88663834
30	0xbf3b0ed5	-0.73069507
31	0x3f828f6f	1.0200022
32	0xbf0f4399	-0.5596252
33	0x3e3dd7f0	0.18539405
34	0x3e672d69	0.22575916
35	0x3e2dadd1	0.16960837
36	0x3f8af85f	1.0857047
37	0x3ef1f5d9	0.4725788
38	0x3deecc44	0.11660054
39	0x3f75c6fa	0.9600674
40	0xbe8a9369	-0.2706559
41	0xbe70fc66	-0.23533782
42	0xbfe1e980	-1.7649384
43	0xbff56173	-1.9170364
44	0xbe8b70fe	-0.27234644
45	0x3f8543a5	1.0411268
46	0xbeb5f825	-0.35540882
47	0x3d7a1566	0.061055563
48	0xbf9016bc	-1.1256938
49	0xbfab180d	-1.3366715
50	0x3f8e2d15	1.1107508
51	0xbff46786	-1.9094093
52	0xbe74d9e1	-0.23911239
53	0x3ee1a9b5	0.4407479
54	0x3e874218	0.26417613
55	0xbfa027ac	-1.2512107
56	0x3ec7fb6c	0.39059007
57	0xbf31d303	-0.69462603
58	0xbf805379	-1.0025474
59	0x3f293820	0.66101265
60	0x3d2d86dc	0.04236494
61	0xbe1c804b	-0.15283315
62	0x3f39cf5a	0.7258202
63	0xbf48c8a2	-0.7843114
64	0xbfb7e68f	-1.4367236
65	0x3f1f3329	0.6218744
66	0xbf2800b8	-0.65626097
67	0x4012157c	2.2825613
68	0x3f86760d	1.0504776
69	0xbea91951	-0.33027127
70	0x3f8100b6	1.0078342
71	0xbf01ef66	-0.5075592
72	0x3e93bcab	0.2885488
73	0x3ce3d2c8	0.02781047
74	0x3e41fb75	0.1894358
75	0xbe921d3e	-0.28537935
76	0xbf8e0b36	-1.1097171
77	0xbe2ed40f	-0.17073081
78	0xbf709ac8	-0.9398618
79	0xbf07da81	-0.53067786
80	0x3dc0ac2c	0.09407839
81	0xbf8362ef	-1.0264567
82	0x3d57a7a1	0.052650098
83	0xbe897bdd	-0.26852313
84	0xbff06848	-1.8781824
85	0x3e0be451	0.13661315
86	0xbd61b6cb	-0.055105966
87	0xbd50f9ed	-0.051019598
88	0x3dacab78	0.084311426
89	0xbf791713	-0.97300833
90	0x3f02b7f3	0.51061934
91	0xbc074e48	-0.00825841
92	0x3e1097d4	0.14120418
93	0x3e34ff20	0.17675447
94	0xbf8faa6c	-1.1223884
95	0x3eb64cac	0.3560537
96	0xbfce5353	-1.6119179
97	0xbf92331a	-1.1421845
98	0xbe2ecc3b	-0.17070095
99	0xbbdd34ca	-0.0067506777
100	0x3f375654	0.716161
101	0xbdcb90cb	-0.099397264
102	0xbe093a25	-0.13401087
103	0x3ead80ee	0.33887428
104	0xbe0a41d6	-0.13501677
105	0xbd5dc998	-0.054147333
106	0xbfdb3b80	-1.7127533
107	0xbe4c2cc7	-0.19938956
108	0xbf950ab4	-1.1643891
109	0xbfb5c595	-1.4200922
110	0xbf588205	-0.84573394
111	0xc008c198	-2.136816
112	0x3ea16019	0.3151863
113	0x3f7bed91	0.9840937
114	0x3f128316	0.5723127
115	0x3dd82572	0.10554017
116	0x3f147410	0.579896
117	0xbe529c76	-0.20567498
118	0xbd8e0b2d	-0.06935725
119	0x3d2955ae	0.041341476
120	0x3e06cec8	0.13164818
121	0xbf81673a	-1.0109627
122	0x3ebbffb4	0.36718524
123	0x3f5c2443	0.8599283
124	0xbf048802	-0.5177003
125	0x3f19ef57	0.6013083
126	0xbf85ff8d	-1.0468613
127	0xbfa09317	-1.2544888

gnn_node.virtualnode_embedding.weight f4 [1, 128]
0	0xbf231f1d	-0.6371935
1	0xbf302844	-0.6881144
2	0xbdb9bb58	-0.09068936
3	0xbe315b1c	-0.17319912
4	0xbf35bdb1	-0.7099257
5	0xbdbfceb6	-0.09365599
6	0xbf11f8c5	-0.5702022
7	0xbf21317d	-0.6296614
8	0xbf6dd994	-0.9291012
9	0x3d0be774	0.034156278
10	0xbdd1d8dd	-0.102464415
11	0xbec07095	-0.37585893
12	0xbe811e65	-0.25218502
13	0xbf566ebc	-0.8376272
14	0xbe497a5b	-0.19675581
15	0xbc8b88c2	-0.017032985
16	0xbe51d834	-0.20492631
17	0xbed1e9b0	-0.40998602
18	0xbf0724df	-0.52790636
19	0xbee09b74	-0.438686
20	0xbe58dc9d	-0.21177907
21	0xbe14c5f1	-0.14528634
22	0xbe827c5b	-0.254855
23	0xbf011c7b	-0.5043408
24	0xbd93c355	-0.07214991
25	0xbd6b0824	-0.05738081
26	0xbed93ff2	-0.424316
27	0xbf7df3af	-0.99199957
28	0xbf2aacc6	-0.6666988
29	0xbe3bc675	-0.18337424
30	0xbe917e30	-0.28416586
31	0xbf592a0e	-0.84829795
32	0xbe85de02	-0.2614594
33	0xbf2cb5a9	-0.6746469
34	0xbefab35a	-0.4896496
35	0xbe9b03cf	-0.30276343
36	0xbf508993	-0.8145992
37	0xbec97ee9	-0.39354637
38	0xbebdb6fb	-0.37053666
39	0xbf0dd969	-0.55409867
40	0x3d239ab7	0.03994247
41	0xbe242c66	-0.16032562
42	0xbd990485	-0.07471565
43	0xbf764364	-0.9619658
44	0xbf223dfd	-0.63375837
45	0xbeca4d19	-0.39511946
46	0xbee1c899	-0.44098356
47	0xbf0d3551	-0.5515948
48	0xbeadbadc	-0.33931625
49	0x3e44b566	0.19209823
50	0xbf48dc8e	-0.7846154
51	0xbdba1428	-0.09085876
52	0xbd90fa44	-0.070789844
53	0xbf2f3b53	-0.68449897
54	0xbebfa9ae	-0.37434143
55	0xbe3f7ffd	-0.18701167
56	0xbee61894	-0.44940627
57	0xbef632d7	-0.48085663
58	0xbea2858a	-0.31742507
59	0xbf52a0ef	-0.82276815
60	0xbe3f8ec4	-0.18706805
61	0xbeed1b81	-0.46310046
62	0xbe8e9cb9	-0.27853945
63	0xbe69cfd9	-0.22833194
64	0xbf80266a	-1.0011723
65	0xbf281319	-0.6565414
66	0xbe6054d5	-0.21907361
67	0xbf6b3f13	-0.9189312
68	0xbea1d723	-0.3160945
69	0xbbcff77c	-0.006346641
70	0xbf337f9d	-0.701166
71	0xbe78605f	-0.24255513
72	0xbe5a15d8	-0.21297395
73	0xbd8aea56	-0.06782977
74	0xbf1fe599	-0.62459713
75	0xbe50f603	-0.20406346
76	0xbe90722a	-0.282121
77	0xbec83ff0	-0.3911128
78	0xbe53ae5c	-0.20671982
79	0x3ddcc65e	0.10780023
80	0xbf13ad0c	-0.57685924
81	0xbe0850eb	-0.13312118
82	0xbec16a02	-0.3777619
83	0xbe847265	-0.25868526
84	0xbe88a66e	-0.26689476
85	0xbeccfb5e	-0.40035528
86	0xbe862ad3	-0.26204547
87	0xbeaa6f70	-0.33288145
88	0xbeca1216	-0.39466923
89	0xbdcc51b6	-0.099765226
90	0xbe7bda17	-0.24594913
91	0xbeaee25b	-0.3415707
92	0xbf07f51b	-0.53108376
93	0xbec74936	-0.38923043
94	0xbed54928	-0.41657376
95	0x3d13713b	0.035996657
96	0xbd915c14	-0.07097641
97	0xbec22c7e	-0.3792457
98	0xbeb17c8c	-0.34665334
99	0xbe9d0db3	-0.30674514
100	0xbec18822	-0.37799174
101	0x3d3ec3f6	0.0465736
102	0xbeb8c794	-0.36089766
103	0xbf4fff51	-0.81248957
104	0xbeb533e3	-0.3539115
105	0xbf5eb6c6	-0.8699764
106	0x3ea4dcae	0.32199615
107	0xbe69acf5	-0.22819884
108	0xbd456b53	-0.048198055
109	0xbe5bc8ca	-0.21463314
110	0xbe814413	-0.2524725
111	0x3b7ddaf2	0.0038735238
112	0xbf1beb82	-0.6090623
113	0xbf0691b3	-0.5256607
114	0xbf19c247	-0.6006207
115	0xbf702c93	-0.93818015
116	0xbf310995	-0.69155246
117	0x3dbaea27	0.09126692
118	0xbed23df4	-0.4106289
119	0xbe9d715a	-0.30750543
120	0xbe9fc105	-0.3120195
121	0xbed87243	-0.42274675
122	0xbde08f24	-0.10964802
123	0xbe083279	-0.13300504
124	0xbecceb8f	-0.40023467
125	0xbefbc09e	-0.49170393
126	0xbe494257	-0.19654213
127	0xbd289e7f	-0.04116678

gnn_node.convs.0.mlp.0.weight f4 [256, 128]
0	0xba613bd3	-0.00085919834
1	0xbee96447	-0.45584318
2	0xbf0466d9	-0.51719433
3	0xbf8125a6	-1.0089614
4	0xbe07e778	-0.13271892
5	0xbe5c2cec	-0.21501511
6	0xbf491891	-0.7855311
7	0xbe4a2ca2	-0.19743589
8	0x3c9f63bb	0.019456735
9	0xbf9c9102	-1.2231753
10	0xbc853f32	-0.016265485
11	0xbeca9cf1	-0.39572862
12	0x3c66767a	0.014066333
13	0x3bf2dbae	0.0074114418
14	0x3dc88157	0.097902946
15	0xbca9d80b	-0.0207329
16	0xbd42e645	-0.047582883
17	0xbf102311	-0.5630351
18	0xbe2e72b5	-0.17035945
19	0xbec2375c	-0.3793286
20	0xbd34d563	-0.044148814
21	0x3e4ea1fa	0.20178977
22	0xbecebdb7	-0.40379116
23	0xbd8581e2	-0.06518914
24	0x3ec9074a	0.39263374
25	0x3f0bf2d2	0.5466739
26	0x3e80525d	0.25062838
27	0xbc2cc9a0	-0.010546118
28	0xbced19a3	-0.028942889
29	0x3e13d153	0.1443532
30	0x3f058828	0.5216088
31	0xbe5b04ff	-0.21388625
32	0xc000f92d	-2.0152085
33	0x3d91186e	0.07084738
34	0xbe8bb091	-0.27283147
35	0xbe241ce5	-0.16026647
36	0xbba68245	-0.0050814473
37	0xbf20dec3	-0.6283991
38	0xbe685d40	-0.22691822
39	0x3c764c61	0.015032859
40	0x3f063985	0.5243152
41	0xbfc9bf07	-1.5761422
42	0xbdcbf5d3	-0.099589966
43	0x3cfd03dd	0.030885631
44	0x3d9ab45d	0.07553933
45	0x3ed4f3a3	0.4159213
46	0x3d8d50d6	0.06900184
47	0x3f78dc3c	0.9721105
48	0xbe91b570	-0.28458738
49	0xbbaf80c1	-0.005355925
50	0xbc6cf3bd	-0.014462409
51	0x3c4012eb	0.01172326
52	0xbe108891	-0.14114596
53	0x3d0c04f7	0.034184422
54	0xbe3c027e	-0.18360326
55	0xbd1e3564	-0.038625136
56	0x3cf16567	0.029467298
57	0xbd3af9b1	-0.04564828
58	0xbcd5cfa4	-0.026099987
59	0xbe7864fb	-0.24257271
60	0x3f44fb3a	0.7694584
61	0xbdc6b470	-0.097023845
62	0x3ecee09e	0.40405744
63	0xbe2a5940	-0.16635609
64	0x3d37130a	0.04469589
65	0xbf041520	-0.51594734
66	0xbd8b06ce	-0.06788407
67	0xbd9b38d9	-0.07579202
68	0x3ebd290b	0.36945376
69	0xbea92671	-0.3303714
70	0xbeb14369	-0.34621742
71	0x3d86a214	0.06573883
72	0xbe1cefad	-0.15325804
73	0xbe3ec333	-0.1862915
74	0xbcff9374	-0.03119824
75	0x3ee23b33	0.4418579
76	0xbd407f41	-0.04699636
77	0xbc0a7c58	-0.008452497
78	0xbdcca4a2	-0.09992339
79	0xbf4aec84	-0.79267144
80	0xbed0c7d9	-0.40777472
81	0xbc3dd948	-0.011587448
82	0x3d526b0a	0.05137161
83	0x3f11dea8	0.5698037
84	0xbda0cc13	-0.07851424
85	0xbf25c04c	-0.64746547
86	0xc01366c3	-2.303147
87	0xbf4e1208	-0.80496264
88	0x3ec6919a	0.3878296
89	0x3e081e67	0.13292848
90	0xbeaba35f	-0.3352308
91	0xbea416de	-0.32048696
92	0xbe7fd62b	-0.24984042
93	0xbf01cd4b	-0.5070388
94	0x3c155d54	0.009116489
95	0x3e67d471	0.22639634
96	0xc01f15f1	-2.4857142
97	0xbc6e4118	-0.014541887
98	0xbfb306f2	-1.3986495
99	0xbefe48dc	-0.49664962
100	0x3c477230	0.0121732205
101	0xbdc8e9fc	-0.09810254
102	0xbf4651fe	-0.7746886
103	0xbef3ac41	-0.47592357
104	0xbe46996d	-0.19394465
105	0xbeaaedc1	-0.33384517
106	0x3c9676af	0.01836714
107	0x3e8e215e	0.27759832
108	0x3e0c0882	0.1367512
109	0xbe3d2968	-0.18472826
110	0x3f2e96ae	0.6819867
111	0xbc220ca1	-0.009890706
112	0xbec9d667	-0.39421389
113	0xbe6a7874	-0.22897512
114	0xbe8d9dbf	-0.27659413
115	0xbea869f8	-0.32893348
116	0xbe28fead	-0.16503401
117	0xbd186fab	-0.03721587
118	0xbf40a020	-0.7524433
119	0x3ee99ae5	0.45625988
120	0x3f464683	0.7745134
121	0xbe55fb17	-0.20896564
122	0xbe543a50	-0.2072537
123	0xbf889453	-1.0670265
124	0x3e86f713	0.26360378
125	0x3c4dceda	0.012561524
126	0x3abf769f	0.0014607495
127	0xbade6c05	-0.0016969448
128	0x3dd601d8	0.104495704
129	0x3e440f8f	0.1914656
130	0x3dd3bcfc	0.1033878
131	0x3f0ec97f	0.5577621
132	0x3da9885b	0.08277961
133	0x3eba7692	0.36418587
134	0x3e1b86a6	0.15188083
135	0x3e1b4f9c	0.15167087
136	0x3e0555ce	0.13021013
137	0x3e1815ef	0.14852117
138	0xbd0be3e7	-0.03415289
139	0x3e26a6f8	0.16274631
140	0xbd676b46	-0.05649879
141	0xbd80793d	-0.06273124
142	0xbc2d2cfa	-0.010569805
143	0x3d0c8807	0.034309413
144	0x3d073f45	0.033019323
145	0xbbc6f58c	-0.006071752
146	0x3e012aa7	0.12613927
147	0x3cc578d1	0.024105461
148	0x3b97465f	0.004616543
149	0x3df2898b	0.118426405
150	0xbe30f3fe	-0.17280576
151	0xbc32e125	-0.010917936
152	0x3c4f2e98	0.012645386
153	0x3f03eeb8	0.5153613
154	0x3de3361d	0.11094306
155	0x3e1f1f91	0.15539385
156	0x3e3e37f0	0.18576026
157	0xbbd41c80	-0.006473124
158	0xbd69ee05	-0.05711176
159	0x3d503d35	0.05083962
160	0xbedbbe84	-0.4291879
161	0x3e7d0309	0.24708189
162	0x3badb69e	0.0053013107
163	0x3d614a9d	0.055002797
164	0x3dbbd717	0.091718845
165	0x3e3ac99d	0.18240972
166	0x3e50d25e	0.20392749
167	0x3e07c306	0.1325799
168	0xbe74fb6e	-0.23924038
169	0x3d9deb04	0.07710841
170	0x3c1db9da	0.00962683
171	0x3d014382	0.03155852
172	0x3e28e0c9	0.16491999
173	0x3d7fcb55	0.062449772
174	0x3e48edef	0.19622014
175	0x3e40399f	0.1877198
176	0xbdeb316b	-0.11484035
177	0xbd8d092e	-0.068865165
178	0x3c881d2f	0.016615478
179	0xbd4cc990	-0.049996912
180	0x3ed6be7f	0.41942212
181	0xbd9f6903	-0.07783701
182	0x3d8de675	0.06928722
183	0x3d9ffa20	0.078113794
184	0x3dbc82c2	0.092046276
185	0xbb17bf1a	-0.0023154677
186	0x3d8d8d47	0.06911712
187	0x3e35efae	0.17767212
188	0xbf20e97c	-0.6285627
189	0xbd91122a	-0.07083543
190	0xbdc81fdd	-0.097717024
191	0x3d5637a7	0.052299168
192	0x3d0d4883	0.03449298
193	0x3e32632d	0.17420645
194	0xbd5131b8	-0.051072806
195	0x3e338822	0.175324
196	0x3e20eb67	0.15714799
197	0x3ee90aaa	0.4551595
198	0x3d32f622	0.04369176
199	0xbf39528e	-0.72391593
200	0xbccc1de1	-0.024916591
201	0x3ed52cdf	0.41635796
202	0x3d6c4f38	0.057692736
203	0xbde0a65b	-0.1096923
204	0x3d808806	0.062759444
205	0x3e8005b9	0.25004366
206	0xbf10349d	-0.5633028
207	0xbdf619be	-0.12016629
208	0x3e92b595	0.2865416
209	0x3ef77f49	0.48339298
210	0x3e209b80	0.15684319
211	0x3f610bdd	0.87908727
212	0xbd901c69	-0.07036669
213	0xbdb5cd55	-0.088770546
214	0x3d8e4fb8	0.06948799
215	0x3e6f453b	0.23366253
216	0x3d71682d	0.05893724
217	0xbdcd25af	-0.10016953
218	0x3e088ff2	0.13336161
219	0x3f078d0c	0.52949595
220	0xbe53c3db	-0.20680182
221	0x3e4e90e8	0.20172465
222	0xbda3a1da	-0.07989855
223	0x3db0d880	0.08635044
224	0xbeb74428	-0.35794187
225	0x3d9fd0ab	0.07803472
226	0x3de60590	0.1123153
227	0xbb5862d2	-0.0033017886
228	0xbbdaa4d0	-0.006672479
229	0x3f1007a1	0.5626164
230	0x3dff0425	0.124519624
231	0x3db90fe5	0.09036235
232	0x3deec454	0.1165854
233	0x3e5cb2fa	0.21552649
234	0x3d1ec827	0.0387651
235	0x3ef855ca	0.48502952
236	0xbd8c6d29	-0.06856758
237	0x3d460f7b	0.048354607
238	0xbe82a81e	-0.25518888
239	0x3d445185	0.047929306
240	0x3e6efd80	0.2333889
241	0xbc5b98f8	-0.01340317
242	0x3e38ba38	0.18039787
243	0x3ca736ee	0.020411935
244	0x3dcb4e43	0.099270366
245	0x3f003a43	0.500889
246	0x3e3fae69	0.18718876
247	0x3e6e6294	0.23279792
248	0x3db9c235	0.09070245
249	0xbec84abb	-0.39119515
250	0x3e1ba71f	0.1520047
251	0x3d976e09	0.073940344
252	0x3e1145a4	0.14186722
253	0x3dd6bb40	0.10484934
254	0x3d0f33b9	0.034961436
255	0xbc0cb8ac	-0.008588951

gnn_node.convs.0.mlp.0.bias f4 [256]
0	0xbcabe366	-0.020982455
1	0x3d9287c0	0.071547985
2	0xbd7baa1b	-0.061441522
3	0xbc568ca6	-0.013095057
4	0xbce3b598	-0.027796552
5	0x3d384388	0.044986278
6	0x3c238699	0.009980821
7	0x3c6e2d0c	0.014537107
8	0xbd89069d	-0.066907145
9	0xbc8a0dc7	-0.016852273
10	0xbd8ee1cb	-0.0697666
11	0xbd3c68fe	-0.045998566
12	0xbdb9ebf0	-0.09078205
13	0x3d33e898	0.04392299
14	0xbce9220e	-0.028458621
15	0xbd93a2d6	-0.07208793
16	0x3c9f36ed	0.01943537
17	0x3d50b886	0.050957225
18	0xbd44b0ac	-0.04802005
19	0x3b28078c	0.0025639264
20	0x3db08f38	0.08621067
21	0x3d145a51	0.036218945
22	0xbd2be4a7	-0.041966107
23	0x3d8c7676	0.06858532
24	0xbc5ccdb8	-0.013476782
25	0xbd1ba354	-0.03799756
26	0x3d3f17c1	0.046653513
27	0x3db3228a	0.08746822
28	0xbce75057	-0.028236551
29	0x3ce307b0	0.027713627
30	0x3d7e746e	0.062122755
31	0xbd95f4ad	-0.07322059
32	0xbd033795	-0.03203543
33	0xbd5bd8c7	-0.05367353
34	0x3cec4712	0.028842483
35	0x38e3b778	0.00010858377
36	0x3d581fb9	0.052764628
37	0xbc471499	-0.012150907
38	0xbd9c69c0	-0.07637358
39	0xbd5f3c9c	-0.05450116
40	0x3d013906	0.031548522
41	0x3ceda619	0.029009866
42	0x3d047e46	0.032346986
43	0x3c8f90d3	0.017525112
44	0xbd1a4f16	-0.03767308
45	0xbdaf9955	-0.08574168
46	0xbd978e43	-0.07400181
47	0xbd31001b	-0.04321299
48	0x3d980b0f	0.07423984
49	0xbd8219c6	-0.06352572
50	0x3d68423b	0.056703787
51	0xbc1de646	-0.009637421
52	0x3cfcf832	0.030880067
53	0x3d81fd85	0.06347183
54	0x3d746380	0.059665203
55	0x3d46f05f	0.04856908
56	0x3d913d23	0.07091739
57	0xbcb70988	-0.022343412
58	0xbc94ac63	-0.018148607
59	0xbd0e85d2	-0.03479559
60	0x3cbbc881	0.022922756
61	0x3cb5c5bf	0.02218902
62	0xbdbba9e0	-0.091632605
63	0x3cd6b6fc	0.0262103
64	0x3d6f49d4	0.058420017
65	0xbd466b69	-0.048442278
66	0x3cd60de7	0.026129676
67	0x3d073430	0.033008754
68	0xbd7fba40	-0.06243348
69	0x3b9a79ca	0.0047142254
70	0x3da0dea9	0.07854969
71	0x3c2cec35	0.010554363
72	0x3d907e9b	0.07055398
73	0xbce7b5a7	-0.02828486
74	0x3b3ceec0	0.002882883
75	0x3d7399ac	0.059472725
76	0xbda98cee	-0.08278833
77	0x3cf4f522	0.029902045
78	0xbcc22845	-0.023700843
79	0xbd8baf09	-0.06820495
80	0x3dbac191	0.09118951
81	0x3d50b472	0.050953336
82	0xbc7d9b56	-0.0154789295
83	0x3d98ed9b	0.07467195
84	0x3cd2365e	0.02566069
85	0xbd7a80f0	-0.06115812
86	0x3c798076	0.015228381
87	0xbd485744	-0.048911348
88	0x3cfee947	0.031117095
89	0x3d378cfc	0.044812188
90	0x3d888bd9	0.06667299
91	0x3d76377c	0.060111508
92	0x3b5d5d24	0.003377744
93	0xbd10eddc	-0.03538309
94	0x3ceaa02b	0.028640827
95	0x3db11310	0.08646214
96	0x3dab7d7c	0.083735436
97	0x3d9f5bb1	0.077811606
98	0x3d73a045	0.059479017
99	0xbd670f93	-0.056411337
100	0x3da6472d	0.081190445
101	0xbd38e3bc	-0.04513906
102	0x3c1c11ea	0.009525755
103	0x3cc6014e	0.024170544
104	0x3a0cc94e	0.0005370573
105	0x3acb59e1	0.0015514457
106	0xbda19e1f	-0.07891487
107	0xbbe7a7ea	-0.0070695775
108	0x3d48433c	0.048892245
109	0x3d082f3a	0.033248164
110	0x3ca423da	0.020036627
111	0xbb49bb76	-0.0030781901
112	0x3b98aec3	0.004659505
113	0x3b5053c2	0.0031788205
114	0xbd3b4e24	-0.045728818
115	0x3d718039	0.058960173
116	0x3cfb9328	0.030709818
117	0x3dbe69a3	0.09297492
118	0x3c279693	0.010228771
119	0xbd4a2d0a	-0.04935936
120	0x3d6e5411	0.05818564
121	0x3d74b050	0.059738457
122	0xbd0c50f7	-0.0342569
123	0x3d021687	0.031759765
124	0x3b61e735	0.0034470086
125	0x3d3b3d80	0.045712948
126	0x3ce557db	0.027995994
127	0xbd3e89d6	-0.04651817
128	0xbae8a225	-0.0017748518
129	0xbd760fe1	-0.060073737
130	0xbca469e6	-0.020070028
131	0x3d2c8aae	0.042124443
132	0xbd8810f9	-0.06643862
133	0xbdad69d8	-0.08467454
134	0x3c9eb468	0.019373134
135	0x3cd848d0	0.026401907
136	0x3d70c4b9	0.05878136
137	0x3ca1a53a	0.019732106
138	0xbdaa5cc7	-0.08318477
139	0xbd842705	-0.06452755
140	0xbd6bd909	-0.057580028
141	0xbd8d90c3	-0.06912377
142	0xbcb12d25	-0.021627972
143	0x3d71555e	0.058919303
144	0x3d0cbe34	0.03436108
145	0x3da8e561	0.082468756
146	0xbd241aa7	-0.04006448
147	0xbbc02386	-0.0058636097
148	0xbc7a2525	-0.015267645
149	0x3c7114f7	0.014714471
150	0xbd2f59e8	-0.04281035
151	0x3d8872d8	0.0666253
152	0xbd37b6f0	-0.044852197
153	0xbc58fd5e	-0.013244001
154	0xba8f75a3	-0.0010945093
155	0xbdad9f44	-0.08477643
156	0xbd88ad15	-0.06673638
157	0x3d3e9ca7	0.046536114
158	0xbd795aeb	-0.06087772
159	0xbd723154	-0.059129074
160	0x3d510515	0.051030237
161	0x3cfc5f7c	0.03080725
162	0x3b3f7015	0.0029211093
163	0xbb5c798d	-0.0033641786
164	0x3cdb8bfd	0.02680015
165	0x3d6720a5	0.056427617
166	0xbdb494bc	-0.08817431
167	0x3c18e80a	0.009332666
168	0xbd6a8583	-0.057256233
169	0x3d8145b8	0.06312126
170	0x3c8cc49b	0.017183593
171	0xbcd3fae6	-0.025876474
172	0x3d1b83c5	0.037967462
173	0x3d934a63	0.071919225
174	0x3b5adbf3	0.003339526
175	0x3da69bf3	0.08135214
176	0x3cb14221	0.021637978
177	0x3cff21c6	0.031144034
178	0xbdb244cc	-0.08704528
179	0x3d941719	0.07230968
180	0xbd110cb9	-0.035412524
181	0x3cee6afd	0.02910375
182	0x3d5ac672	0.05341191
183	0xbc2ca61f	-0.010537653
184	0xbd5401d4	-0.051759556
185	0x3d8b1c3a	0.06792493
186	0x3d862e61	0.06551815
187	0xbc3c5579	-0.011494988
188	0xbb5d96ea	-0.0033811876
189	0xbc35a221	-0.011086018
190	0xbcdf0960	-0.02722615
191	0xbda10510	-0.07862294
192	0xbd81f941	-0.063463695
193	0xbcd6970b	-0.02619507
194	0x3d9daf53	0.07699456
195	0xba853459	-0.0010162696
196	0x3cc8e5b1	0.024523588
197	0x3d878773	0.06617632
198	0xbbd6eeb0	-0.0065592155
199	0x3af88e19	0.0018963247
200	0x3cdecbc1	0.027196767
201	0x3d155a6c	0.036463186
202	0xbaa8fe53	-0.0012893177
203	0xbd4b50a0	-0.049637437
204	0xbd88f9ce	-0.066882715
205	0xbd5fb447	-0.054615285
206	0x3d88de72	0.06683053
207	0x3d2866f6	0.041113816
208	0xbd88db8a	-0.06682499
209	0xbd21fab5	-0.039545733
210	0xbc818b3c	-0.015813462
211	0x3d6cde71	0.057829324
212	0x3c1f8c0b	0.009737979
213	0xbd3eb905	-0.046563167
214	0xbd952b16	-0.072836086
215	0xbd3073a6	-0.04307904
216	0xbd61a37c	-0.05508755
217	0x3d2ef383	0.0427127
218	0x3c59d824	0.013296161
219	0xbd28cf44	-0.04121329
220	0xbd35ae0b	-0.044355433
221	0x3d8a4aa1	0.067525156
222	0x3da0f2bf	0.078588
223	0xbdadb8b2	-0.084824935
224	0x3d67e399	0.05661354
225	0x3c231ad9	0.009955131
226	0x3dab9553	0.08378091
227	0xbdae1836	-0.085007116
228	0x3d0eba15	0.03484543
229	0x3ceb6761	0.028735818
230	0xbc09e4f9	-0.008416408
231	0xbd996d82	-0.0749159
232	0xbd561b5a	-0.05227218
233	0x3cb27f71	0.021789284
234	0xbd54720e	-0.051866584
235	0x3cc056a8	0.02347882
236	0x3d9b03ac	0.0756906
237	0xbcadc70f	-0.021213083
238	0x3d76aeda	0.060225345
239	0xbc7b3d2e	-0.015334411
240	0xbd4cf669	-0.050039683
241	0x3da336f4	0.07969466
242	0xbb5b5ef3	-0.0033473342
243	0x3a32efeb	0.00068259117
244	0xbc707b42	-0.014677824
245	0x3cf8dadf	0.030377803
246	0x3cb05229	0.021523552
247	0xbd9fa3fd	-0.0779495
248	0xbdaee890	-0.085404515
249	0x3d02ced5	0.03193553
250	0x3d02a2cd	0.03189354
251	0xbd8c05c8	-0.0683704
252	0x3d3d13f6	0.046161614
253	0x3d0bb99f	0.03411257
254	0xbd90d63b	-0.07072111
255	0x3bff0d57	0.0077835727

gnn_node.convs.0.mlp.1.weight f4 [256]
0	0x3fd1112f	1.6333369
1	0x3bbd4b96	0.005776833
2	0x3f8758aa	1.0573933
3	0x3f2c90b1	0.6740828
4	0x3eedb724	0.46428788
5	0x3f5c386d	0.860236
6	0x3fc1c0b9	1.5136939
7	0x3fc76568	1.5577822
8	0x3fa1254d	1.2589508
9	0x3fa7e3fa	1.3116448
10	0x3fa0069c	1.2502017
11	0x3bb57d8f	0.0055386494
12	0x3f84a2de	1.0362203
13	0x3ee551fd	0.44789115
14	0x3ee5d863	0.44891652
15	0x3f80e95b	1.0071214
16	0x3f279fb1	0.65478045
17	0x3fdfa917	1.7473477
18	0x3fda855d	1.7071949
19	0x3f89980e	1.0749528
20	0x3f5869ca	0.8453642
21	0x3fcd31b1	1.603079
22	0x3e44e34b	0.1922733
23	0x3e4a94bd	0.19783302
24	0x3f839c4c	1.0282073
25	0x3fbc93e9	1.4732639
26	0x3f96d3e0	1.1783409
27	0x3ea668f6	0.32501954
28	0x3fbfc7e2	1.4982874
29	0x3f95c88c	1.1701827
30	0x3fa4d569	1.2877628
31	0x3fa2d260	1.2720451
32	0x3ff406ec	1.9064612
33	0x3fc21ab3	1.5164398
34	0x3fd90e6f	1.695753
35	0x3c317fce	0.010833694
36	0x3e8fe71f	0.2810602
37	0x3e8153df	0.252593
38	0x3fb1590d	1.3855301
39	0x3f9cf8b5	1.2263399
40	0x3f85ad5b	1.0443529
41	0x3fc5807a	1.5429833
42	0x3f464ebf	0.77463907
43	0x3fde289e	1.7356145
44	0x3f97c5b6	1.1857212
45	0x3ff2c89c	1.8967471
46	0x3f833322	1.024998
47	0x3f811004	1.0083013
48	0x3fd73041	1.6811601
49	0x3f1ed976	0.6205057
50	0x3fb9cde5	1.4515959
51	0x400b7a19	2.1793272
52	0x3fccf4a3	1.6012157
53	0x3f825c60	1.0184441
54	0xba6259f1	-0.0008634618
55	0x3f8ff81f	1.1247596
56	0x3f302f18	0.6882186
57	0x3f932fd1	1.1498967
58	0x3f3ac491	0.72956187
59	0x3fc0342a	1.5015919
60	0x3fc65207	1.5493783
61	0x3f939c00	1.1531982
62	0x3fc0d65c	1.5065417
63	0x3fc28164	1.5195737
64	0x401091a6	2.2588897
65	0x3f6abf4b	0.9169814
66	0x3fb1e1cf	1.3897036
67	0x3fb67263	1.4253658
68	0x3f96cfe5	1.1782194
69	0x3f91de2b	1.1395925
70	0x3fc31ebd	1.5243756
71	0x3f47889b	0.7794282
72	0x3f8d9728	1.1061754
73	0x3f96cd30	1.1781368
74	0x3f90cbb7	1.1312169
75	0xbba041f7	-0.004890676
76	0x3fa74b24	1.3069806
77	0x3fbb7be1	1.464718
78	0x3f9861ea	1.1904881
79	0x3fcb0f72	1.5864089
80	0x3fc1a15e	1.512737
81	0x3e9ceceb	0.30649504
82	0x3f3c1e52	0.73483765
83	0x3f9b0044	1.2109456
84	0x3fd7dd76	1.686446
85	0x3ed46adc	0.41487777
86	0x3f8493c8	1.0357599
87	0x3ffa9ab6	1.9578464
88	0x3f6c696c	0.9234836
89	0x3fe7aec2	1.8100207
90	0x3f8b205b	1.0869249
91	0x3ed126b5	0.40849844
92	0x3f943a7c	1.1580348
93	0x3fa3f5ee	1.2809427
94	0x3f5e9e06	0.86959875
95	0x3ec9123a	0.39271718
96	0x3e73c704	0.23806387
97	0x3fdf6bff	1.7454833
98	0x3fad376b	1.3532537
99	0x3eb6a3a2	0.35671717
100	0x3f924a57	1.1428937
101	0x3f84b32b	1.0367178
102	0x3f8ad33c	1.0845714
103	0x3e35ff50	0.17773175
104	0x3fcbed46	1.5931785
105	0x3e732034	0.23742753
106	0x3fbaa176	1.4580524
107	0x3faacd89	1.3343974
108	0x3f7e9854	0.99451184
109	0x3f4e8875	0.80676967
110	0x3e8fa877	0.28058216
111	0x3f9e1aab	1.2351888
112	0x3f606921	0.87660414
113	0x3f0ecb8e	0.5577935
114	0x3e4e4bb1	0.20146061
115	0x3f96e016	1.1787136
116	0x3fba797e	1.4568326
117	0x3f8e2805	1.1105963
118	0x3fccd342	1.6001971
119	0x3f8bf1b1	1.0933133
120	0x3d76fba4	0.060298577
121	0x38fa4366	0.00011933483
122	0x3ee48f40	0.4464054
123	0x3ea312d7	0.3185031
124	0x3fd527c7	1.6652764
125	0x3fc68381	1.5508882
126	0x3fbab765	1.4587218
127	0x3ca8631c	0.020555072
128	0x3d9ffba0	0.078116655
129	0x3f55c8f6	0.8350977
130	0x3fea4ee0	1.8305321
131	0x3fb99d23	1.4501079
132	0x3c3feef3	0.011714685
133	0x3fb202fd	1.3907162
134	0x3fa1e0f7	1.2646779
135	0x3f8d16cf	1.1022586
136	0x3fb21890	1.3913746
137	0x3fa6e008	1.3037119
138	0x3e4000c4	0.18750292
139	0x3fdf90f4	1.7466111
140	0x3f17e7e4	0.5933821
141	0x3f4fc81f	0.81164736
142	0x3fc2282d	1.5168511
143	0x3f1de60c	0.6167915
144	0x3efac9b2	0.48982006
145	0x3f9555d8	1.1666822
146	0x3c9ba590	0.018999845
147	0x3fd56169	1.6670352
148	0x3f7e9ba3	0.9945623
149	0x3f1a4fbe	0.60277927
150	0x3fc21ae9	1.5164462
151	0x3c6f5dbb	0.014609749
152	0x3fa39dac	1.2782493
153	0x3fa067be	1.253166
154	0x3f815b3a	1.0105965
155	0x3e55e79a	0.2088913
156	0x3fbb6b2f	1.4642085
157	0x3fe2dc2b	1.772344
158	0x400e381f	2.2221754
159	0x3fcdf751	1.60911
160	0x3fda7a52	1.7068579
161	0x3fc6fce7	1.554593
162	0x3f971c74	1.1805558
163	0x3fa55a80	1.2918243
164	0x3f936611	1.1515523
165	0x3f4640e1	0.7744275
166	0x3f571d8b	0.84029454
167	0x3fa0871c	1.2541232
168	0x3f9db844	1.2321858
169	0x3fe970ab	1.8237509
170	0x3f4c8278	0.7988658
171	0x3d204d3a	0.03913615
172	0x3f7ad53d	0.97981626
173	0x3f4de8a4	0.80433106
174	0x3f9baf3b	1.2162851
175	0x3fcb3e30	1.5878353
176	0x3fd9f314	1.7027307
177	0x4002483a	2.0356584
178	0x3f92c355	1.1465861
179	0x400f2447	2.2365892
180	0x3f8f2135	1.1182009
181	0x3f5644fc	0.8369901
182	0x3f209306	0.6272434
183	0x40006285	2.0060132
184	0x3fa60a8a	1.2971966
185	0x3f37e80c	0.7183845
186	0x3fb3bfb4	1.4042878
187	0x3f4a66a8	0.7906289
188	0x3fa3358d	1.2750717
189	0x3f9bab12	1.2161582
190	0x3c83d5ee	0.01609322
191	0x3f3129ef	0.6920461
192	0x3fac18f3	1.3445114
193	0x3fb15832	1.385504
194	0x3f564d4e	0.8371171
195	0x3fc861ec	1.5654883
196	0x3f5ddf02	0.8666841
197	0x3eee5f45	0.4655706
198	0x3f9aa18a	1.2080548
199	0x3f844a0a	1.0335095
200	0x3f0df3aa	0.55449927
201	0x3fb6834b	1.4258817
202	0x3fed2c22	1.8529093
203	0x3fa2f54f	1.2731112
204	0x3f8be322	1.092869
205	0x3f9876f7	1.1911305
206	0x3fb9d97f	1.45195
207	0x3f7f9e7f	0.9985122
208	0x3f815f70	1.010725
209	0x3fccc26c	1.5996833
210	0x3dbc5d51	0.09197486
211	0x3de21d7e	0.110407814
212	0x3b7546ad	0.003742616
213	0x3fb33e99	1.4003478
214	0x3f4c9f2f	0.79930395
215	0x3f768bf9	0.9630733
216	0x3f91f414	1.1402612
217	0x3f05bd14	0.52241635
218	0x3fd3d6ae	1.654989
219	0x3fdad00c	1.7094741
220	0x3f0d8725	0.5528434
221	0x3fae94b7	1.3639134
222	0x3e6372a3	0.22211699
223	0x3f30cf37	0.69066185
224	0x3fa30bb7	1.273795
225	0x3f36dfae	0.7143506
226	0x3f9d7882	1.2302401
227	0x3f8c02f4	1.0938401
228	0x3fa7791b	1.3083833
229	0x3f9784b8	1.1837378
230	0x3faffbd6	1.3748729
231	0x3fb84a41	1.439766
232	0x3c99ef88	0.018790975
233	0x3faa5c13	1.3309349
234	0x3f185a76	0.5951303
235	0x3bcff01c	0.006345762
236	0x3fe0c184	1.7559056
237	0x3fabc1ed	1.3418556
238	0x3e810f07	0.25206777
239	0x3f7194a5	0.9436744
240	0x3fc7a1a1	1.55962
241	0x3fa8863c	1.3165965
242	0x3fc6a124	1.5517926
243	0x3fbe51cd	1.4868714
244	0x4008955c	2.1341162
245	0x3fe9b0d0	1.8257084
246	0x3f8a984b	1.0827726
247	0x3fb1e1e0	1.3897057
248	0x3f91eaae	1.1399744
249	0x3f8e362e	1.1110284
250	0x3ff119d9	1.8836013
251	0x3f397fed	0.72460824
252	0x3f824624	1.0177655
253	0x3f432c3d	0.7623938
254	0x3f8f1fe0	1.1181602
255	0x3fb3463e	1.4005811

gnn_node.convs.0.mlp.1.bias f4 [256]
0	0xbef7c0fe	-0.4838943
1	0xbe8e56e2	-0.2780066
2	0xbf0ba6cb	-0.5455138
3	0xbe953e4d	-0.29149094
4	0xbf5a2f57	-0.85228485
5	0xbf3206bf	-0.69541544
6	0xbf2c9cd8	-0.67426825
7	0xbf0b9b46	-0.54533803
8	0xbd60b23b	-0.054857474
9	0x3c7bb979	0.015364044
10	0xb98d2135	-0.00026918357
11	0x3ebdcc8a	0.37070113
12	0xbe81b701	-0.25334933
13	0x3e819c60	0.25314617
14	0xbe5068df	-0.20352505
15	0xbf1151fe	-0.56765735
16	0xbd9afcc4	-0.075677425
17	0xbe188b80	-0.14896965
18	0xbee74116	-0.45166844
19	0xbeeac622	-0.45854288
20	0xbeb008d0	-0.34381723
21	0xbf45d83e	-0.77283084
22	0x3e073cd9	0.13206805
23	0xbf69ad67	-0.91280216
24	0xbf0dbfec	-0.55370975
25	0xbeda6c9f	-0.42660996
26	0xbef18a41	-0.47175792
27	0x3db1c75b	0.08680602
28	0xbedc6168	-0.43043065
29	0xbecd6291	-0.40114263
30	0xbec8f191	-0.392468
31	0xbe69d316	-0.22834429
32	0xbea51cfd	-0.3224868
33	0xbf029e9b	-0.5102326
34	0xbf12f052	-0.5739795
35	0x3ee0e411	0.43924
36	0xbeb1359e	-0.3461122
37	0xbed4fa96	-0.41597432
38	0xbf1bc895	-0.6085294
39	0x3e1c7b7d	0.15281482
40	0xbec548c6	-0.38532084
41	0xbe7a5f27	-0.2445036
42	0xbeeca7f7	-0.46221897
43	0xbf1036b0	-0.56333447
44	0x3e3e32d7	0.18574081
45	0xbe89d56a	-0.26920635
46	0xbefbbed0	-0.49169016
47	0xbed12839	-0.40851
48	0xbeb117ca	-0.34588462
49	0xbe779b16	-0.24180254
50	0xbec38b09	-0.38192013
51	0x3e7931d6	0.24335417
52	0xbe89055a	-0.26761895
53	0xbeb36a2d	-0.35041943
54	0xbd4ad29b	-0.049517255
55	0xbe255399	-0.16145171
56	0xbf885b25	-1.0652815
57	0xbfb1a204	-1.3877568
58	0xbf76b8d7	-0.96375793
59	0xbe8ddf81	-0.27709582
60	0xbf1cc23b	-0.6123387
61	0xbee05070	-0.4381137
62	0x3ed572b3	0.4168907
63	0xbe2d0231	-0.16895367
64	0xbe344f6b	-0.1760842
65	0xbd1e07bb	-0.03858159
66	0xbed2e5a8	-0.4119084
67	0xbec2e1d9	-0.38062933
68	0xbeab0218	-0.33400035
69	0xbe68c504	-0.22731405
70	0xbed38354	-0.41311133
71	0x3c0abbe7	0.008467651
72	0xbf10dd4e	-0.56587684
73	0x3e9e7268	0.3094666
74	0xbf0e1b6f	-0.5551061
75	0xbe86a77d	-0.26299658
76	0xbeed24a1	-0.46317008
77	0xbea7bdc4	-0.32761967
78	0xbeef06d4	-0.46684897
79	0x3d81aa34	0.06331292
80	0xbf38b8d9	-0.72157055
81	0xbec898e4	-0.39179146
82	0xbe44af69	-0.19207539
83	0xbf07820e	-0.5293282
84	0xbf146399	-0.57964474
85	0x3d45c52b	0.048283737
86	0xbea47664	-0.32121575
87	0xbf383d9e	-0.7196902
88	0xbf0bb52d	-0.5457333
89	0xbf03dd5e	-0.51509655
90	0xbebc0363	-0.36721334
91	0xbf519493	-0.8186733
92	0xbef3f229	-0.4764569
93	0xbecec63b	-0.40385613
94	0xbe79a33d	-0.24378677
95	0xbf0ca7e0	-0.54943657
96	0xbeb2be34	-0.34910738
97	0xbeb5f761	-0.35540298
98	0xbf01c4a0	-0.5069065
99	0xbec3a7bd	-0.38213912
100	0xbe7d10b8	-0.24713409
101	0xbee7240c	-0.4514469
102	0xbe8ade92	-0.27122933
103	0xbebfec4a	-0.37484962
104	0xbd99eeb2	-0.07516231
105	0x3e0c2768	0.13686907
106	0xbee9541e	-0.4557199
107	0xbe919c83	-0.2843972
108	0xbe8c24ac	-0.27371728
109	0xbf704120	-0.9384937
110	0xbe5f0db9	-0.21782579
111	0xbe12da96	-0.14341196
112	0xba212aad	-0.0006148022
113	0xbf8c5e2a	-1.0966237
114	0x3cb5adde	0.022177633
115	0xbee62186	-0.4494745
116	0xbf1a5d75	-0.60298854
117	0x3dcecc68	0.10097581
118	0xbf262196	-0.64895
119	0xbeedf913	-0.4647909
120	0xbe0f596b	-0.13998954
121	0xbd925967	-0.071459584
122	0xbefc9395	-0.49331346
123	0xbfb3e3b3	-1.4053863
124	0xbf2a30b7	-0.6648058
125	0xbd049766	-0.032370947
126	0xbec5ecdc	-0.38657272
127	0x3ea538ea	0.32269984
128	0x3e2d80d4	0.16943675
129	0xbf09529d	-0.5364168
130	0xbf25d4af	-0.64777654
131	0xbef5530c	-0.47914922
132	0x3e0c56fd	0.13705058
133	0xbdeca0a1	-0.11554075
134	0xbec253c3	-0.3795453
135	0xbf0d339f	-0.5515689
136	0xbe837831	-0.25677636
137	0xbebb533e	-0.36586946
138	0xbf6e84c1	-0.93171316
139	0xbedf2503	-0.43582925
140	0xbe5807bb	-0.21096699
141	0xbef9f061	-0.48816207
142	0xbf139d6c	-0.5766208
143	0xbc153dce	-0.009108974
144	0xbec4d0e1	-0.38440612
145	0xbd7a84c6	-0.06116178
146	0xbf2f91e2	-0.68581975
147	0xbedfe8de	-0.4373235
148	0xbd171e2d	-0.036894012
149	0x3ed36584	0.41288388
150	0xbe94fc34	-0.29098666
151	0x3eb9d00e	0.36291546
152	0xbcdf1bd6	-0.027234953
153	0xbf0b8687	-0.5450215
154	0xbf045f82	-0.51708233
155	0xbfae433b	-1.3614267
156	0xbedbc27f	-0.42921826
157	0xbe7f9c35	-0.24961932
158	0xbe920b7c	-0.28524387
159	0xbefff22c	-0.4998945
160	0xbe625216	-0.22101626
161	0xbf050137	-0.5195498
162	0xbf1b0c93	-0.6056606
163	0xbf07146f	-0.52765554
164	0xbec4e9d5	-0.3845965
165	0x3edfb0f9	0.43689707
166	0xbf9195a7	-1.1373795
167	0xbf0708a1	-0.5274754
168	0xbda9f8b9	-0.08299393
169	0xbedacdf0	-0.42735243
170	0xbe74327f	-0.23847388
171	0xbd3447b4	-0.044013694
172	0xbf196bd1	-0.5993014
173	0xbee66084	-0.4499551
174	0xbec41ded	-0.38304082
175	0xbe2d4ca4	-0.16923767
176	0xbf1d3ffe	-0.6142577
177	0xbed23449	-0.41055515
178	0xbe839031	-0.25695947
179	0xbea631f7	-0.32459995
180	0xbb4ec8f0	-0.0031552874
181	0xbea4cd80	-0.32188034
182	0xbef79c5e	-0.48361486
183	0x3c118dd5	0.008883913
184	0xbf310180	-0.69142914
185	0xbdc8ce8b	-0.0980502
186	0xbf39051c	-0.7227342
187	0xbf0508b4	-0.51966405
188	0xbe0c35d7	-0.13692413
189	0xbeb79304	-0.35854352
190	0x3ee936e9	0.45549706
191	0xbeb4f4ec	-0.3534311
192	0xbe8e6ca7	-0.2781727
193	0xbea8f27b	-0.32997498
194	0xbd6ce6c6	-0.05783727
195	0xbed57406	-0.4169008
196	0xbeb26803	-0.3484498
197	0x3e33509d	0.1751122
198	0xbefb1dda	-0.49046212
199	0xbe523ced	-0.20531054
200	0xbf77422c	-0.96585345
201	0xbed59ec8	-0.41722703
202	0xbea118db	-0.31464276
203	0xbee13738	-0.4398744
204	0xbee2c677	-0.44292042
205	0xbeaf15d2	-0.34196335
206	0xbf5154fa	-0.8177029
207	0x3ea5f9c3	0.32417116
208	0xbf5199b6	-0.8187517
209	0xbde38784	-0.11109832
210	0xbf30261a	-0.6880814
211	0xbdcd99b1	-0.1003908
212	0xbe7912af	-0.24323533
213	0xbe5bf729	-0.21481003
214	0x3c92948a	0.017893095
215	0xbe6a01cd	-0.2285225
216	0xbe8e2830	-0.27765036
217	0xbfa43048	-1.2827234
218	0xbe2af7cb	-0.16696088
219	0xbf107e5e	-0.5644282
220	0xbedae914	-0.4275595
221	0xbf12dd08	-0.57368517
222	0x3eb7e55b	0.35917172
223	0xbe816b92	-0.25277382
224	0xbe7b257d	-0.2452602
225	0xbf6a5087	-0.91529125
226	0xbef3b322	-0.47597605
227	0x3da9475a	0.08265562
228	0xbf0ebcde	-0.5575694
229	0xbf12eb16	-0.5738996
230	0xbed9ca52	-0.4253717
231	0xbf178633	-0.59189147
232	0xbe5d284b	-0.21597402
233	0xbeaec80e	-0.34137005
234	0xbeeeb450	-0.46621943
235	0xbdddef54	-0.10836664
236	0xbebc838a	-0.36819106
237	0xbec24bf3	-0.3794857
238	0x3ea5c928	0.32380033
239	0xbec44be9	-0.38339165
240	0xbeccc1ec	-0.399917
241	0xbf1d4358	-0.61430883
242	0xbd8a1a47	-0.06743293
243	0xbec6dff2	-0.38842732
244	0xbe3fb72f	-0.18722223
245	0xbe857257	-0.26063797
246	0xbe555d90	-0.20836473
247	0xbdeceece	-0.11568986
248	0xbf132c70	-0.5748968
249	0xbec2ab54	-0.38021338
250	0xbe707cd9	-0.23485126
251	0xbee9b2b7	-0.4564416
252	0xbec9436f	-0.3930926
253	0xbc96894a	-0.018376011
254	0xbc0be994	-0.008539576
255	0xbf3dd7e2	-0.74157536

gnn_node.convs.0.mlp.1.running_mean f4 [256]
0	0x411315e9	9.192849
1	0x40b0c468	5.5239754
2	0x4094d9f7	4.651607
3	0xc0a498db	-5.143659
4	0x41298c2d	10.596723
5	0xc103d7e9	-8.240212
6	0xc11b58ec	-9.709209
7	0xc063b06d	-3.5576432
8	0xc0ae5c7b	-5.448789
9	0x4058c306	3.3869033
10	0x3e22a8fc	0.15884775
11	0x415c237b	13.758662
12	0xc12b312c	-10.699505
13	0x40baef21	5.8416905
14	0x40c762b2	6.230798
15	0xc137bc1d	-11.483426
16	0x41700187	15.000373
17	0x4066b20d	3.6046174
18	0xbd8bea1f	-0.068317644
19	0xc1695b79	-14.584832
20	0xc1174fbe	-9.456968
21	0xbf7b772a	-0.98228705
22	0x415db8cf	13.857619
23	0xc0aa5a66	-5.323535
24	0xc0d03465	-6.506396
25	0xc0e1eaa0	-7.0598907
26	0xbf012339	-0.5044437
27	0x40ce3dcc	6.4450436
28	0x3f9a7280	1.2066193
29	0x3ee822d4	0.45339072
30	0x410b1a49	8.693917
31	0x3f6176ab	0.880717
32	0x40de50e0	6.9473724
33	0xc0e51db7	-7.1598773
34	0x3fc22d2f	1.5170039
35	0x418346d0	16.409576
36	0x4101de1c	8.116726
37	0x40cf3bb4	6.476038
38	0xc0646af8	-3.5690289
39	0x4126ced3	10.425494
40	0xc0a0611e	-5.011855
41	0x40a4b6fa	5.147336
42	0xc130c606	-11.048346
43	0x410c537f	8.770385
44	0xc0819e8f	-4.0506053
45	0xc081b577	-4.0534015
46	0xc0578871	-3.3677027
47	0x40c54578	6.16473
48	0xbdb1ee02	-0.086879745
49	0x41556561	13.337251
50	0xc0067ab0	-2.1012383
51	0x40893693	4.287912
52	0x411035b7	9.013114
53	0xc10d90ef	-8.847884
54	0x40098d05	2.1492321
55	0xc10e02e0	-8.875702
56	0x414426ea	12.2595005
57	0x418ad75b	17.355154
58	0xc115b4a6	-9.356604
59	0x3fc8307a	1.5639794
60	0x41a601f5	20.750956
61	0xc12ecd9f	-10.9252
62	0xc1031fa6	-8.195227
63	0x4135c879	11.3614435
64	0x405e53b7	3.4738595
65	0xc1750391	-15.313371
66	0x4179effa	15.621088
67	0x414d763a	12.841364
68	0xc16e28a9	-14.884927
69	0x410548d3	8.330279
70	0xc02eeceb	-2.7332103
71	0x41018c26	8.096716
72	0xc0090205	-2.1407483
73	0xc1027342	-8.153139
74	0x401d64ee	2.4592853
75	0x40792fd0	3.8935432
76	0xc09c09db	-4.876203
77	0xc0a14f51	-5.040932
78	0x413b11a6	11.691809
79	0xc055eed5	-3.3427022
80	0xc1686630	-14.524948
81	0x4111a13b	9.101863
82	0x40f96bad	7.794394
83	0x40b2f48c	5.592352
84	0xc0775149	-3.8643363
85	0x4048e38e	3.1388888
86	0xbf2a222c	-0.6645839
87	0xc10dd9e3	-8.865695
88	0xbf80a590	-1.0050526
89	0x4117b98e	9.482801
90	0xc0b9c6f8	-5.805538
91	0x3e790d87	0.24321567
92	0xc0949f0f	-4.6444163
93	0x3fe44580	1.783371
94	0x41960625	18.753
95	0x418f14bb	17.885122
96	0xc18b688c	-17.426048
97	0x40efe113	7.496225
98	0xbe958f23	-0.29210767
99	0xc0debbdc	-6.960432
100	0xc08da64f	-4.4265513
101	0xc0920032	-4.562524
102	0x40dfcd63	6.9938216
103	0xc15c5e71	-13.773057
104	0xc045a6b8	-3.0883007
105	0x415692b3	13.410815
106	0x40ecd469	7.400929
107	0xc1a24144	-20.281868
108	0x3fd3e89c	1.6555362
109	0x4145ff15	12.374776
110	0xc1025586	-8.14588
111	0xbfab4dc7	-1.3383111
112	0xc1464b91	-12.393449
113	0x41444c11	12.268571
114	0x414b4a88	12.705696
115	0x40e8b6a7	7.2722964
116	0x3ee70bb0	0.45126104
117	0x40df3360	6.9750214
118	0x40717fe9	3.773432
119	0xc0c4ea15	-6.1535745
120	0x415feedc	13.995815
121	0xbf83ea98	-1.0305967
122	0x3f78f75b	0.97252434
123	0x4128987b	10.537227
124	0x3f434356	0.7627462
125	0x3f125b23	0.57170314
126	0xc0ab6dec	-5.357168
127	0x408cb60c	4.3972225
128	0x415b8de9	13.722146
129	0xc0d19c1b	-6.550306
130	0xbe674b2d	-0.22587271
131	0xc17b5814	-15.709003
132	0x415db6f7	13.857169
133	0x4116e0f0	9.429916
134	0x411bb0b7	9.730643
135	0xc07d8cad	-3.9617112
136	0xc113be47	-9.233954
137	0xc0779b65	-3.8688595
138	0x40a0048d	5.0005555
139	0xc09000d6	-4.500102
140	0xc12129a1	-10.072663
141	0xc0c63b28	-6.194721
142	0x41337069	11.214944
143	0x416c81c5	14.781682
144	0xc0d3b218	-6.61549
145	0xc1b4759d	-22.557428
146	0x40d6c112	6.711068
147	0xc0b74961	-5.7277074
148	0x40290785	2.641084
149	0x4167592d	14.459271
150	0x418c02cd	17.501368
151	0x41633417	14.200217
152	0x40ca1337	6.3148456
153	0xc169ca48	-14.611885
154	0xc11d2e72	-9.823839
155	0xc09617e0	-4.6904144
156	0xc15e0705	-13.876714
157	0x419ac3d4	19.34562
158	0x40ac3392	5.381295
159	0xc1920642	-18.253056
160	0x3f1e6175	0.6186746
161	0xc1337f24	-11.21854
162	0x3f3ecdd0	0.74532795
163	0xc0c85398	-6.2602043
164	0x3e1928fe	0.14957044
165	0x3ff4ff9e	1.9140508
166	0xbf5e7d02	-0.86909497
167	0x3f7592e5	0.9592727
168	0x412d3773	10.826037
169	0x3f81e3c4	1.0147634
170	0xc0c7b09a	-6.240308
171	0xc0066e10	-2.1004677
172	0x411b6841	9.712953
173	0xc1041847	-8.255927
174	0xc10e2af9	-8.885491
175	0xc09f14d2	-4.9712915
176	0x40a27789	5.0770917
177	0xc0053bf4	-2.0817842
178	0xc0f34f9a	-7.603467
179	0x40e1636f	7.043388
180	0xc0d9e94e	-6.8097296
181	0xc06d6ab9	-3.7096388
182	0x3f3cd327	0.7375969
183	0x40a11a65	5.034472
184	0xbf835db5	-1.0262972
185	0x4038fe87	2.890535
186	0xc0964a8b	-4.6965995
187	0xc06478c1	-3.5698702
188	0xc0ecd5f1	-7.401116
189	0xbfeacf52	-1.8344519
190	0x4160e2e1	14.05539
191	0xc16879ac	-14.529705
192	0x411e5a4b	9.897044
193	0xc11be1f6	-9.742666
194	0x410df367	8.871924
195	0x411f63a6	9.961828
196	0x411f5c09	9.9599695
197	0xc0891697	-4.2840075
198	0x3f0b5174	0.5442116
199	0x41741ae4	15.256565
200	0x409ce379	4.9027677
201	0x40d888be	6.766692
202	0x3ffb29e2	1.9622157
203	0x40a1f24c	5.0608273
204	0xc0b329a9	-5.5988355
205	0xbf10a94d	-0.5650833
206	0xc1338a3c	-11.221249
207	0x413f17d8	11.943321
208	0xc1084870	-8.517685
209	0x41765107	15.394782
210	0x3fc3d5ef	1.5299662
211	0x41179a22	9.47513
212	0xc010cc85	-2.262483
213	0x3ff509a6	1.914357
214	0xc12a936d	-10.660993
215	0x40dee690	6.965645
216	0xc04d8b2b	-3.2116191
217	0x406be2f3	3.685727
218	0x4124a962	10.291353
219	0x41136e79	9.214471
220	0xc0ba30f6	-5.8184767
221	0xc0d485fe	-6.6413565
222	0x418cb6c2	17.589237
223	0xc037da5a	-2.8727021
224	0x4159d0bd	13.6134615
225	0x41349626	11.286657
226	0x3f32f616	0.6990675
227	0x414e1233	12.879443
228	0x40aebffe	5.4609365
229	0x3f1fe2ad	0.62455255
230	0xc0633415	-3.5500538
231	0x40675e3b	3.6151264
232	0x40b50b85	5.657656
233	0x419351ce	18.414944
234	0xc1d0118e	-26.008572
235	0x40455f56	3.0839438
236	0x4085e8ee	4.184684
237	0xc10767ea	-8.46287
238	0x40de9eb3	6.9568725
239	0xbf85f102	-1.0464175
240	0xc11bb8a3	-9.732577
241	0xc1871160	-16.883484
242	0x403cfa1b	2.9527652
243	0x41039eca	8.226267
244	0xbf102a16	-0.5631422
245	0x3f7198f1	0.94373995
246	0x402930f2	2.6436124
247	0xc0e09454	-7.0181065
248	0x3f7c62d5	0.98588306
249	0xc06bf766	-3.686975
250	0xc0a8cf83	-5.275331
251	0xc04ceef8	-3.2020855
252	0x40e6c1ac	7.2111416
253	0x3fe5a41d	1.7940708
254	0xbe2f6f83	-0.17132382
255	0xc03211be	-2.782333

gnn_node.convs.0.mlp.1.running_var f4 [256]
0	0x4279189c	62.274033
1	0x4252f7ae	52.741875
2	0x42e2a9db	113.33175
3	0x42139ec8	36.90506
4	0x41b62edc	22.77288
5	0x41f0d4fc	30.103996
6	0x4228c047	42.18777
7	0x42541c01	53.027348
8	0x42250ec8	41.264435
9	0x43095352	137.32547
10	0x4249d599	50.45859
11	0x42215e80	40.342285
12	0x423ab0dc	46.672714
13	0x42834d9c	65.65158
14	0x41e8f5d8	29.12004
15	0x42bfc8df	95.89233
16	0x422e18d0	43.52423
17	0x42557f76	53.374474
18	0x42f727f2	123.57802
19	0x429102f4	72.50577
20	0x42ee01f7	119.00384
21	0x4263ea64	56.978897
22	0x423c95df	47.14636
23	0x423f3765	47.804096
24	0x427bbdac	62.935226
25	0x41eee532	29.861912
26	0x4285522f	66.660515
27	0x4234c7dd	45.19518
28	0x431a963c	154.58685
29	0x43089a0a	136.60172
30	0x430a9674	138.5877
31	0x42986553	76.1979
32	0x4305116b	133.06804
33	0x424299fa	48.650368
34	0x4251cbdc	52.44908
35	0x4237f251	45.986637
36	0x4233ae64	44.920303
37	0x427867b8	62.101288
38	0x4297b0f4	75.84561
39	0x42f34c5f	121.64916
40	0x42df3c3e	111.61766
41	0x42b73199	91.59687
42	0x42910e74	72.52823
43	0x4282d6bf	65.419426
44	0x429866cc	76.200775
45	0x42bc8bb3	94.27285
46	0x430415e0	132.08545
47	0x42a3da65	81.92655
48	0x42af057d	87.51072
49	0x42eae3cf	117.44494
50	0x421362c0	36.846436
51	0x42386047	46.09402
52	0x42ddc5f9	110.886665
53	0x4309d840	137.84473
54	0x41ccd0fd	25.602045
55	0x422f210d	43.782276
56	0x424c2703	51.038097
57	0x421b983d	38.89867
58	0x42491983	50.274914
59	0x41c9d04c	25.226707
60	0x4266ac19	57.668064
61	0x42d4f330	106.474976
62	0x4291c7e7	72.890434
63	0x424f788f	51.867733
64	0x42590760	54.257202
65	0x42277e2a	41.873207
66	0x4313cf72	147.81033
67	0x42d9ac70	108.83679
68	0x424d1668	51.27188
69	0x42876ff7	67.71868
70	0x427a72a7	62.611965
71	0x421c9012	39.140694
72	0x4336fe7a	182.99405
73	0x430009d9	128.03847
74	0x427934ed	62.301685
75	0x41dc272e	27.51913
76	0x421218ed	36.52434
77	0x42e843f3	116.13271
78	0x42c1b9ba	96.86275
79	0x427f5446	63.8323
80	0x4265179a	57.27305
81	0x41a330b1	20.398775
82	0x4298dfbf	76.437004
83	0x430fbc35	143.73518
84	0x423d3af9	47.30759
85	0x4243b40c	48.925827
86	0x42a0eafa	80.45894
87	0x42c37031	97.719124
88	0x42112dcb	36.29472
89	0x42881b7b	68.05367
90	0x430cefc8	140.93665
91	0x423bb846	46.929955
92	0x41c2a7a8	24.331863
93	0x4280d614	64.41812
94	0x42ab4498	85.63397
95	0x42295553	42.333324
96	0x420f6d0b	35.856487
97	0x432811c9	168.06947
98	0x429a3ee5	77.12284
99	0x429d0518	78.50995
100	0x427bb5be	62.927483
101	0x428c746d	70.227394
102	0x42b0f3a3	88.47585
103	0x42ad7c8a	86.74324
104	0x41f33ec0	30.40564
105	0x42779dc4	61.904068
106	0x42bb9d78	93.807556
107	0x41bd9a13	23.700232
108	0x42823b99	65.1164
109	0x41af7068	21.929886
110	0x4207130a	33.768593
111	0x41e59888	28.699478
112	0x41cae515	25.361856
113	0x42159b64	37.40175
114	0x4285c38d	66.881935
115	0x427b34ba	62.80149
116	0x42b330ec	89.59555
117	0x41cc960c	25.573265
118	0x42c970af	100.720085
119	0x42b1ad24	88.838165
120	0x429adf8b	77.43661
121	0x41f2dc16	30.357464
122	0x429a6c85	77.21195
123	0x42741e0d	61.029346
124	0x42cc3b74	102.11612
125	0x4220bc09	40.183628
126	0x42ccd33f	102.41259
127	0x426b493a	58.82151
128	0x424f31e1	51.79871
129	0x425caf74	55.17134
130	0x429bd1bd	77.909645
131	0x42c68132	99.252335
132	0x42127ae0	36.619995
133	0x42ee93ae	119.28844
134	0x42a6ca83	83.39553
135	0x42ad4437	86.63323
136	0x4303a96f	131.66185
137	0x427f0487	63.75442
138	0x41ea06d0	29.253326
139	0x42d1f405	104.9766
140	0x4299d4cc	76.91562
141	0x41e30432	28.377048
142	0x42f5e5f3	122.94912
143	0x42f9693d	124.70554
144	0x42ae0203	87.00393
145	0x421bdba6	38.9645
146	0x42b55aee	90.6776
147	0x41f5c1a3	30.71955
148	0x42d9f849	108.98493
149	0x429b3a87	77.61431
150	0x43034653	131.2747
151	0x4283a7cd	65.827736
152	0x42c7d965	99.9246
153	0x42823d8c	65.12021
154	0x4281cba5	64.89774
155	0x41ef2f38	29.898056
156	0x42e69402	115.28908
157	0x4286b90b	67.36141
158	0x424feb9e	51.980095
159	0x42d5c7f0	106.8905
160	0x42c2277f	97.07714
161	0x43150ff7	149.06236
162	0x432bff6c	171.99774
163	0x41ed2642	29.64368
164	0x425be103	54.969738
165	0x42633d45	56.809834
166	0x42163cab	37.559246
167	0x42d33a3f	105.61376
168	0x42cd4607	102.63677
169	0x422ba765	42.91347
170	0x42acaf2d	86.34214
171	0x42846990	66.20618
172	0x42030a5b	32.760113
173	0x41eabf92	29.34354
174	0x42891172	68.53407
175	0x420e2993	35.5406
176	0x425ccd0e	55.20025
177	0x429a4cde	77.15013
178	0x4213935d	36.89391
179	0x42f047bc	120.14011
180	0x4230a5f9	44.162083
181	0x42c125e6	96.57402
182	0x4220e903	40.22755
183	0x42682496	58.03573
184	0x42b1d439	88.9145
185	0x42501b92	52.026924
186	0x4273c3ab	60.941082
187	0x4222c1bc	40.689194
188	0x42262213	41.533276
189	0x422e9d2b	43.653484
190	0x423322da	44.784035
191	0x4269207f	58.281734
192	0x422e049d	43.504505
193	0x423cbe3d	47.18578
194	0x42727ab3	60.619823
195	0x428caf64	70.34256
196	0x429e7c13	79.24233
197	0x420b8eac	34.889328
198	0x42caf9b0	101.48767
199	0x41fde8bb	31.738638
200	0x4222446b	40.566814
201	0x430fb6c0	143.71387
202	0x4305e7a5	133.90486
203	0x42c82a07	100.082085
204	0x42813ac8	64.61481
205	0x4309f4b7	137.95592
206	0x42969706	75.29497
207	0x42da03dd	109.007545
208	0x41f4fa8a	30.622334
209	0x42520a57	52.510098
210	0x4288f05a	68.46944
211	0x4260613c	56.094955
212	0x423dc9db	47.447124
213	0x421cb3d8	39.17563
214	0x428cb4f6	70.35344
215	0x423d83a0	47.37854
216	0x4299f385	76.975624
217	0x424632b6	49.549522
218	0x428e592f	71.17419
219	0x42fff69d	127.98167
220	0x422ff3f6	43.988243
221	0x42bdb500	94.853516
222	0x42ad848c	86.75888
223	0x42447790	49.11676
224	0x431a8ccb	154.54997
225	0x41a233fa	20.27538
226	0x42bd2bd5	94.58561
227	0x42809f36	64.31096
228	0x42ee3cd7	119.11883
229	0x42baca10	93.39465
230	0x42a7e3b1	83.94471
231	0x43128b97	146.54527
232	0x4195f699	18.745409
233	0x42a9e05f	84.938225
234	0x4205ff4a	33.499306
235	0x41bf2aa0	23.895813
236	0x41ddf911	27.746614
237	0x423d828b	47.377483
238	0x426f4a53	59.822582
239	0x42801d0b	64.056725
240	0x42f4c1d8	122.3786
241	0x427fb51a	63.926857
242	0x425b8377	54.878384
243	0x43227653	162.4622
244	0x42784a7d	62.072742
245	0x42eda05a	118.81319
246	0x42c6289c	99.079315
247	0x4208e9bf	34.228268
248	0x42ddb07c	110.844696
249	0x430e9688	142.58801
250	0x423e7aea	47.620033
251	0x42a94586	84.63579
252	0x42ab0671	85.51258
253	0x420c5dd5	35.091633
254	0x42b0c703	88.388695
255	0x42e0af15	112.34196
