checkpoints/D_epoch_30.pth (torch, 843938 bytes, 48 tensors)

gnn_node.node_encoder.weight f4 [1, 128]
00000000: f28e 003f d3bb 623d 1c66 c13d ba92 3f3e
00000010: f2cc a23f 496e acbe ee7d ccbe 042a fe3e
00000020: 5eed 303f 03bd 7cbd 89e8 84bf d988 1e3e
00000030: fd62 47bf a8c7 253f b25a 7ebf 1fdb 8bbf
00000040: cfd6 febe 51ca cfbe f0e8 613f 238e be3e
00000050: c66a 81bf 7ef3 5b3e 5457 c0bc 753e 503e
00000060: b7d6 69bf f2fd ff3e 1a2f de3c 80e4 913f
00000070: b506 8a3e 9e09 50bf e8c1 16bf 52a9 903f
00000080: 5c2a fabe 0850 743e 3cbe 9d3e 0f05 9c3e
00000090: e03d 9d3f 7ec3 f33e 97e9 943e ad69 7b3f
000000a0: 6c24 86be 2e38 20be c114 f1bf ab22 a9bf
000000b0: 536b 80bd 399b 7d3f f199 d8bd f24e 473e
000000c0: 8e57 73bf d7f4 b9bf 82d1 ab3f 7166 03c0
000000d0: 980d 7cbe 91c1 223f b31e 733e 8450 86bf
000000e0: 763e e53e bafd febe 3e63 90bf d1c1 533f
000000f0: 2d87 d63d e9f4 3abc a08e 363f 2671 31bf
00000100: 1f3d 8dbf b117 583f ec5e 45bf 4099 1140
00000110: 6aab 803f 24ce 96be c995 8b3f 881e e8be
00000120: 46a6 c13e 9d6c 763d 9690 bd3e 78b9 5cbe
00000130: c8d1 8fbf ab72 7cbd 8f13 62bf b454 04bf
00000140: 71ec b83e d8f0 6bbf a496 ea3d 5a70 9bbe
00000150: 7d1a dfbf 2246 2e3e 0867 e53a 051e 1cbd
00000160: eb22 5d3e 2b51 5cbf 544b 023f b81b 443e
00000170: fac1 b93e bde1 6e3e 7b58 88bf 1d41 aa3e
00000180: ecdd bfbf 7ed6 8cbf 2cec 10be 1c58 ff3d
00000190: 9586 3e3f 9ddb babd be07 85bc d6a8 193f
000001a0: ca6c 233c 9da4 7b3e b5ff ebbf adcc 15be
000001b0: cfee 91bf a871 94bf be00 49bf 31cf f8bf
000001c0: d294 e53e 3f69 863f 925e 233f 8091 8d3e
000001d0: 8b3c 1f3f 2002 83be fe53 66bd d83d 893d
000001e0: 9c93 c63d 2547 69bf 7be9 b23e 228c 473f
000001f0: 57e1 e6be 0941 f63e 844c 7abf 65d7 acbf
0.5021812 0.055354904 0.09443304 0.18708315 1.2718794 -0.3367789 -0.39939827 0.4964143
0.69112194 -0.061703693 -1.0383464 0.1548189 -0.7788542 0.64757776 -0.9935714 -1.0926245
-0.4977326 -0.40584043 0.8824606 0.37217817 -1.011071 0.21479604 -0.023479141 0.20336325
-0.91343254 0.49998432 0.02712207 1.1397858 0.26958242 -0.81264675 -0.5888963 1.1301672
-0.48860443 0.23858654 0.308092 0.3047261 1.2284508 0.47610086 0.29084465 0.98208123
-0.26199663 -0.15646431 -1.8834459 -1.3213705 -0.062704705 0.99064976 -0.10576237 0.19463709
-0.9505547 -1.4527844 1.3423312 -2.0531275 -0.2461456 0.6357661 0.2374218 -1.0493321
0.44774216 -0.49802953 -1.1280286 0.82717615 0.104750015 -0.01141093 0.7131138 -0.69313276
-1.1034278 0.8441115 -0.77097964 2.2749786 1.0052311 -0.29454148 1.0905086 -0.45335793
0.3782217 0.060162175 0.37024373 -0.21555126 -1.1235895 -0.061632793 -0.88311094 -0.51691747
0.3611789 -0.92164373 0.11454514 -0.30359155 -1.7429959 0.17018941 0.0017502019 -0.038114566
0.21595351 -0.8606135 0.5089619 0.19151199 0.36280805 0.233283 -1.0652002 0.33252802
-1.49896 -1.1002958 -0.14152592 0.124679774 0.74424106 -0.09123919 -0.016239043 0.6002325
0.009974668 0.24574514 -1.843741 -0.14628859 -1.1401004 -1.1597185 -0.7851676 -1.943823
0.44840103 1.0500869 0.6381618 0.2765007 0.62201756 -0.2558756 -0.056232445 0.06701249
0.09696123 -0.9112418 0.34943756 0.779482 -0.45093796 0.48096493 -0.97773004 -1.3503233

gnn_node.virtualnode_embedding.weight f4 [1, 128]
00000000: 09dc e5be 4ac3 14bf 3f93 93bd 5ebd 08be
00000010: 449d 10bf 8a66 ba3b 1861 dcbe e2e6 f6be
00000020: de4b 21bf 6097 c4bc 501e 05be 9665 92be
00000030: 8fcd 2ebe c5d2 31bf 3d2e e63a a7bf d8bd
00000040: fae7 16be 6f81 62be f55f d9be f91b a6be
00000050: 5559 dfbd f73d bd3d 6833 21be 7b0d e0be
00000060: 2e8a 3dbc 99e0 edbc ebca c1be 7a6c f3be
00000070: 3e2e 0fbf f415 dbbd 5925 0ebe 8ed8 2fbf
00000080: 3519 40be ca54 23bf 0946 d2be 6c33 24be
00000090: 7bbe 2bbf 862d adbe 896e 0cbe 1fd6 fabe
000000a0: 0359 463d bb5e aabd ebde 45be 778a bbbe
000000b0: 54c1 dcbe 7823 e2be 62da 3dbe 9480 d0be
000000c0: 435d 2cbe 4b9c 9b3d 014b 0abf 8436 70be
000000d0: 8be3 9bbd ab7f fcbe 207a c4be 4099 733c
000000e0: 4b4f cebe bb8a 91be 32c5 e2be b043 26bf
000000f0: a293 ffbd 4a8b a0be fed8 8ebe b282 36be
00000100: 43fa 2abf 1e03 dfbe e1e6 aabe b530 6dbf
00000110: 3e5b b9be 773d 013d 0bfe 20bf ce8a 3fbe
00000120: 5080 05be a4a0 0dbd 4ae4 bebe 49bc 08be
00000130: b88e 97be 93d0 96be 024f 19be 4d17 fa3d
00000140: 20b3 30be 2e58 41bc 2c45 9abe 5459 96be
00000150: b4de 06be 19a6 b9be 58d2 4ebe b466 a0be
00000160: bc7b 85be 8c67 503c 1853 81be a6b4 87bd
00000170: 1bdc adbe 2c62 9dbe b101 b8be 35d3 ee3b
00000180: 8c8c 283d b9b9 acbe bb66 8ebe 8c33 25be
00000190: 6f94 b0be b8a8 593d 72e6 7cbe ac4c 15bf
000001a0: 35c6 57be 6cf0 00bf 7895 433e 2792 23be
000001b0: f1ea c3bc f756 3b3d b957 42be ab96 493e
000001c0: 4d7a cabe 2d01 e5be 521c 05bf 0da0 33bf
000001d0: 6646 24bf c72e 2c3d 64a4 c0be 634b 8bbe
000001e0: c65b 96be 747c a6be f574 eebd 158e 53be
000001f0: 7019 a8be d560 21bf 9878 02be 864a 0cbe
-0.44894436 -0.5811049 -0.07205819 -0.13353488 -0.5648997 0.005688493 -0.43042827 -0.48223025
-0.6300639 -0.023997962 -0.12999845 -0.2859313 -0.17070602 -0.69462234 0.0017561388 -0.1058343
-0.1473693 -0.22119687 -0.42456022 -0.32443216 -0.109057106 0.092403345 -0.15742266 -0.43760285
-0.011568589 -0.02903776 -0.37850127 -0.475437 -0.55929935 -0.106975466 -0.13881435 -0.6868981
-0.18759616 -0.6380125 -0.41069058 -0.16035241 -0.67087525 -0.33823794 -0.13714041 -0.48991486
0.048424732 -0.0831885 -0.19323318 -0.36629078 -0.43116248 -0.44167686 -0.18540338 -0.40723097
-0.16832452 0.0759817 -0.54020697 -0.23458296 -0.0761176 -0.49316153 -0.38374424 0.014868081
-0.4029487 -0.28426155 -0.44291073 -0.6494703 -0.124793306 -0.3135627 -0.27899927 -0.17823294
-0.6678812 -0.43557066 -0.33379272 -0.92652446 -0.36202425 0.031552758 -0.6288764 -0.18705294
-0.13037229 -0.034577027 -0.37283546 -0.13353075 -0.29601073 -0.29456005 -0.14971545 0.122114755
-0.17255831 -0.011800809 -0.301309 -0.29365027 -0.13170892 -0.36259535 -0.20197427 -0.31328356
-0.26070964 0.01272 -0.25258708 -0.06626253 -0.3395699 -0.30738962 -0.3593879 0.0072883614
0.04114966 -0.33735445 -0.27812752 -0.16132945 -0.34488246 0.05313942 -0.24697283 -0.58320117
-0.21071704 -0.50366855 0.19099987 -0.15973721 -0.02391574 0.045737233 -0.18978776 0.19686382
-0.39546433 -0.4472746 -0.5199634 -0.70166093 -0.6416992 0.042036798 -0.3762542 -0.27205953
-0.29366893 -0.32516825 -0.116434015 -0.20659669 -0.32831907 -0.6303838 -0.12741315 -0.13700303

gnn_node.convs.0.mlp.0.weight f4 [256, 128]
00000000: 79f3 a8bc a4d5 6b3e 10c0 c1be b624 0cbf
00000010: faf5 37be 84e0 3b3c 48c7 89be 1919 1ebe
00000020: c7e5 9f3c 49c5 2bbf 3c60 e0bc 30c8 cabe
00000030: 9f47 5e3b e37a ef3b 02e4 4b3d 135f 05bd
00000040: 2fa5 90bc b9a0 bebd 8e57 d4bd a4a6 fbbd
00000050: db19 5bbd bbbd 513e a860 613d a98f a5bd
00000060: dd82 9f3e 75d0 023f 94c6 c73d dff0 80bc
00000070: 1f6c 11be 2f71 c03e e0c1 8f3e 0206 5bbe
00000080: 404a 6cbf 770c d7bc 0bef abbd 49ce 29be
00000090: 1b91 a6bb 20fc 89be 4c64 68be 7a87 743c
000000a0: 638f 8a3e 211e 66bf a2ca a7bd 0001 ac3d
000000b0: e3ca 9a3d 9974 403e a9f7 8c3d 0a2d ee3d
000000c0: f76d b9bd 1ef9 cfbc 4db5 6dbc 5cd1 ab3c
000000d0: 6f1b 03be c771 d4bd 300e 3cbe 0a7a c2bc
000000e0: 7e15 21bd 036a 38bd 7d6d 86ba fded 6ebe
000000f0: 2071 f2bd 812c c7bd 2036 ab3e e36d 02be
00000100: fec1 9d3d 469f a4be bcf4 afbd 6b9d 1bbe
00000110: dbbf d23e 354e 58be 9aef 97bc b562 953e
00000120: dc77 1ebe 1a5d 0bbe f0b2 ffbc 6fbb d83e
00000130: 0f9d a6bd a78e 5ebe 4d58 6f3d 9df5 e9be
00000140: 8523 79be cb8e 56be 6217 ae3d 3fa4 903e
00000150: 2874 43bd 6353 c5be e941 5abf a4f2 81be
00000160: 1c05 173e 170c 083e c157 e7be 4614 a4be
00000170: dc3b 943c ada5 29be adfe e43a fc27 023c
00000180: 396f a6bf 56fd 1a3d de70 babe 7567 eabd
00000190: 92d8 c83d 05c1 483e 5581 8cbe be87 00be
000001a0: a0ea 46be b568 41be 16d5 2f3d d098 7a3e
000001b0: 2366 ba3d 07de 40be 2783 a03f 0e6d 763d
000001c0: 4e27 47be ee75 d03d c7eb 1dbe 5abb 30be
000001d0: 81b2 1ebe dfa6 30be 6b0f 05be fe82 3abd
000001e0: 2a78 083e 5073 07bf 0eaf 5bbe ee7a eabe
000001f0: 5115 32bd 5d7a 3e3c 0c0c 01bc 0bcb 003c
00000200: 6023 bf3d 17c6 063e cbfa 223e df7f d23e
00000210: faba b93d 12a4 f13e d66c 293e dc12 1c3e
00000220: ce55 053e d75f 083e 3b31 0cbd b0dd 2a3e
00000230: 6da2 67bd 3d79 80bd 39d3 33bc f18a 0b3d
00000240: 3f45 073d 3e46 233d b62d c03d bbd9 ccbc
00000250: 04ef 933b 79ae f23d 65a8 ec39 63ec 4bbc
00000260: 357c cf3d 5433 8b3e bba8 c43d c73a 1d3e
00000270: 3ccc 2b3e 7e97 ee3d 01b5 96bc 353d 503d
00000280: 7b6b 6cbe ddba 623e 490b 1f3d e15b 613d
00000290: 17d7 bb3d 7417 2e3e 6ed2 503e 06c3 073e
000002a0: 3af9 11be 961f 233e 4e9f 183c 738e 013d
000002b0: bee2 283e b46f c33c 03ed 483e 3e67 823e
000002c0: ead2 cebc 9e6d 8dbd 221d 883c afc4 4ebd
000002d0: ce00 543e 03f1 a3bd 75e6 8d3d 3b82 9f3d
000002e0: 664b af3d 68f4 24bb f7c8 8c3d 20f5 313e
000002f0: b294 02bf 2a12 91bd 2f4f b3bd 50db 973d
00000300: 5983 0d3d 5580 203e dac8 50bd 1d7d 253e
00000310: ece9 143e 937a d73e 818a b73c 1bff 30bf
00000320: 2776 cdbc 5b48 8e3e 384f 6c3d 6f34 c6bd
00000330: e3b6 803d a95b 873e e1cf 1ebf 2194 313e
00000340: 8237 933e 8974 db3e 49ae 203e b40d 1d3f
00000350: 6474 90bd e056 10bc 6ea6 b4bd 7d44 713e
00000360: 1011 e63c 1c1d cdbd fe78 eb3d 198c 073f
00000370: ba6e 04be 1bdc 583e a49e a3bd 87ec 033e
00000380: 75a3 ecbe 0fa2 9f3d 3aa2 0f3e d50f 9d3d
00000390: 1510 453d 096d e13e aa58 1a3e 5b22 be3d
000003a0: 4147 f23d aa4f 603e 5fae 1e3d dda7 e43e
000003b0: 69ed 8bbd e66c 453d c7d4 adbe dc59 443d
000003c0: 468f 5c3e aef2 963c ead7 383e b583 e03c
000003d0: 182e b93d 4639 123f b172 1f3e ad2a 8f3e
000003e0: 2bc8 b73d aba4 acbe dcc1 d53d 3231 f93c
000003f0: 4b47 613e c1ea d73d 1bd8 0f3d db30 12bc
-0.02062391 0.23030716 -0.37841845 -0.54743516 -0.17964926 0.011467103 -0.26909852 -0.15439261
0.019518746 -0.6709791 -0.027389638 -0.39605856 0.0033917201 0.0073083504 0.049777992 -0.032561373
-0.01765689 -0.09307999 -0.10368262 -0.122876436 -0.053491455 0.20482533 0.05502382 -0.080840416
0.31154528 0.5109933 0.09754673 -0.015739856 -0.14201401 0.37586352 0.28077602 -0.2138901
-0.92300797 -0.02625106 -0.08395203 -0.16582598 -0.005083216 -0.2695017 -0.2269451 0.014924878
0.2706252 -0.89889723 -0.08192946 0.08398628 0.07558229 0.18794478 0.06883175 0.11629684
-0.09054177 -0.025387343 -0.0145085575 0.020973854 -0.12803434 -0.10373264 -0.18364787 -0.023739833
-0.039327137 -0.045022976 -0.0010256019 -0.23332973 -0.11837983 -0.09725285 0.33439732 -0.12737231
0.07703017 -0.32152766 -0.08591601 -0.15196769 0.41162 -0.21123584 -0.018546868 0.2917687
-0.1547541 -0.13609734 -0.031213254 0.423305 -0.08135425 -0.21734105 0.05843382 -0.456952
-0.24329956 -0.20952909 0.08500554 0.2825031 -0.047718197 -0.38540182 -0.8525682 -0.25380433
0.14748043 0.13285862 -0.45184138 -0.32046717 0.01809495 -0.16567107 0.0017470919 0.007944103
-1.3002692 0.037839256 -0.36414236 -0.11445514 0.098069325 0.19604881 -0.27442423 -0.12551782
-0.1942544 -0.18887599 0.042927824 0.24472356 0.09101512 -0.18834697 1.2540025 0.060162596
-0.19448587 0.10178743 -0.15421973 -0.17258969 -0.15497781 -0.17251156 -0.12994163 -0.04553508
0.13327089 -0.5291033 -0.21453497 -0.45796913 -0.04347736 0.011625853 -0.007876407 0.007860909
0.09332919 0.13161503 0.15915982 0.41113183 0.09068866 0.47195488 0.16545424 0.1524157
0.13021013 0.1331781 -0.034226637 0.1668613 -0.056551386 -0.06273124 -0.010975652 0.03406805
0.033025023 0.03986191 0.09383719 -0.025006166 0.004514577 0.11849684 0.0004513889 -0.012446496
0.101311125 0.27187598 0.09602495 0.15354453 0.16777128 0.116499886 -0.018396856 0.05083962
-0.23087876 0.22141595 0.03882912 0.055019263 0.091718845 0.17001134 0.20392773 0.1325799
-0.14255229 0.15930018 0.009315325 0.03162999 0.16492745 0.023856975 0.19621663 0.25469393
-0.025247056 -0.069056734 0.016615454 -0.05048054 0.20703432 -0.08004954 0.06928722 0.07788511
0.08559303 -0.0025170092 0.068742685 0.17378664 -0.5100814 -0.07083543 -0.087553374 0.074148774
0.03454909 0.15673955 -0.050972797 0.16161008 0.14542359 0.42085704 0.022404911 -0.6913926
-0.025080753 0.27789578 0.057692736 -0.0967797 0.06284883 0.2643712 -0.6203595 0.17341663
0.28753287 0.42862347 0.15691485 0.61349034 -0.0705345 -0.008809775 -0.088208064 0.23561282
0.028084308 -0.10015318 0.11497687 0.5294815 -0.12932864 0.21177714 -0.07989243 0.12883197
-0.46218458 0.07794582 0.14026728 0.07669035 0.04811104 0.440285 0.15072885 0.092838965
0.11829997 0.2190539 0.038740512 0.4465932 -0.06832392 0.048199557 -0.339514 0.04793726
0.2153903 0.018426266 0.18051115 0.027406553 0.09041995 0.5711864 0.15571095 0.27962247
0.08973726 -0.33719382 0.10437366 0.030418966 0.21999852 0.10542823 0.035118204 -0.008922781

gnn_node.convs.0.mlp.0.bias f4 [256]
00000000: e12e 93bc 18ac 923d 1fba 80bd bf90 4abc
00000010: 8961 ebbc 1a20 3a3d e34a 9b3c 9ef8 023c
00000020: 5b56 91bd edf9 80bc 8b21 98bd 13a6 3abd
00000030: da36 b2bd 656f 343d fb8c dfbc 7ecd 8cbd
00000040: 362a bc3c 21f7 3f3d eb5e 22bd e0da 9ab8
00000050: aa3d af3d 899a 153d aa47 2abd f482 8b3d
00000060: ccb2 5ebc 1f77 18bd ad50 2d3d 36f3 b13d
00000070: da10 e1bc a649 e13c 715c 793d b5ae 91bd
00000080: d283 0abd 4422 3cbd 95d2 b23c a6a4 c739
00000090: 8c6d 593d d7a7 45bc f355 a7bd ef9f 4fbd
000000a0: fb71 023d 2581 d63c 7a48 053d 21b1 f63c
000000b0: 6b6b 0ebd 8df3 96bd d6c8 9dbd 68ca 24bd
000000c0: e36f 6e3d 6f34 85bd 33df 5c3d 11e5 4a3c
000000d0: 9ab2 083d 957b 843d 278e 743d effb 303d
000000e0: c76b 913d 7d53 d3bc edf7 98bc 2d99 15bd
000000f0: b8bc d93c d848 aa3c 02ac a6bd 5f0f d23c
00000100: aa1d 633d ab57 44bd c5ca b53c ea96 083d
00000110: c79d 76bd 8ea6 cd3b ea3b 993d eb3e 463c
00000120: 48da 8f3d cfe0 b2bc 8ef6 6239 389a 733d
00000130: 81e2 aebd 0b92 0b3d 7bd5 e0bc a04b a2bd
00000140: 0b60 ab3d 2332 4f3d b605 71bc 62f6 983d
00000150: d6d2 9c3c ad66 7fbd 9f6b 743c 97f8 04bd
00000160: 3c39 033d 8eac 163d 0318 823d 3435 763d
00000170: 199f e5bb fae6 07bd 7e74 fe3c 59d6 af3d
00000180: e257 a83d 8522 9d3d 0bce 733d 7094 66bd
00000190: 8d73 aa3d d196 28bd 3b04 293c 5511 c23c
000001a0: 3563 49bb 44c5 f13a 8091 abbd ac42 bd3b
000001b0: f40f 5b3d a7f8 f63c 9db3 a43c 370a f339
000001c0: 9f19 f239 e4f6 673b 4773 40bd 6b91 703d
000001d0: d319 063d fb06 ad3d 69fc 6f3c 10cf 49bd
000001e0: 4091 6e3d 1892 733d 6558 0ebd bc93 033d
000001f0: f0b3 da3a a4eb 3a3d e411 c23c e8f2 3dbd
00000200: 57af 7abb 2698 73bd b4b3 0dbc 3e3d 1c3d
00000210: b499 87bd 0322 b2bd 1c2c 9e3c fda7 ce3c
00000220: cdb7 823d ebfb 9f3c 1940 aabd 890b 9dbd
00000230: 7306 69bd 7365 89bd 374d dbbc ae7c 743d
00000240: fbd4 0c3d 0e0d a73d 06ce 23bd 8de9 1e3a
00000250: c7ee 7abc e24a a23c c5eb 25bd c518 883d
00000260: 5558 49bd 6331 7dbc b335 833a 733c adbd
00000270: 4ad6 89bd b013 303d f8bb 81bd 1018 74bd
00000280: 45d3 873d cce1 0d3d f959 173b 2d26 b9bb
00000290: d5d5 cd3c 7be7 6f3d db62 b4bd 3a08 3d3c
000002a0: af55 70bd f712 823d d08d 933c 1643 ddbc
000002b0: bced 1a3d 4b8f 963d 333a 393b f172 993d
000002c0: c632 4b3c dd62 263d 5126 8ebd 33ea 903d
000002d0: 3a4e d2bc 0fd7 f33c 3da7 653d e1bd 14bc
000002e0: 47cd 66bd 4b8e 883d ad69 893d f13d 42bc
000002f0: eab2 123c 3fe3 26bc 8cd9 e4bc 7dea a5bd
00000300: 24fe 7fbd 0baf dabc 31ac 9e3d 7528 6cbb
00000310: 1bd1 da3c 57d3 823d fc18 12bc a7f6 23bb
00000320: c356 e03c f992 263d 8f7d 013a 4e6b 48bd
00000330: 1f26 8fbd 36c8 4fbd 124a 7b3d 2cf9 3b3d
00000340: bd85 8abd 2476 65bd 45d5 7dbc 60a1 6e3d
00000350: e756 233c 71a7 58bd e6e1 99bd be22 23bd
00000360: 3ae6 77bd 8c3b 303d f83d ab3b 6136 14bd
00000370: 4848 36bd df7d 7a3d ee7d a43d 67da abbd
00000380: d905 593d 2105 b73b 7197 ac3d 0093 aabd
00000390: 28d6 033d 7db1 ef3c 50b1 18bc 2271 99bd
000003a0: 4da6 55bd bcf7 bb3c 0c7f 56bd fcf8 bf3c
000003b0: 5a6f ab3d 03d1 b3bc a027 7e3d dd40 89bc
000003c0: 478f 46bd a672 a83d 741b 0fbb b6e7 b7bb
000003d0: d84e 07bd 7d37 123d 3327 c53c 8ac3 afbd
000003e0: 2520 aebd b04e f93c 988e c63c be02 8dbd
000003f0: f2ff 343d 73bb 1c3d 3654 9ebd fe18 853c
-0.01796669 0.071617305 -0.062855 -0.012363612 -0.028733032 0.04544077 0.018956607 0.007993845
-0.07096549 -0.015744174 -0.07428273 -0.045568537 -0.08701868 0.044051547 -0.027288904 -0.06875132
0.022969346 0.04686654 -0.039641302 -7.384061e-05 0.08556683 0.03652433 -0.04157225 0.06812087
-0.013592433 -0.037222978 0.042313267 0.08688967 -0.027473856 0.027500939 0.060879175 -0.07113401
-0.03381712 -0.045931116 0.021828929 0.0003807891 0.053082988 -0.012063942 -0.081706904 -0.050689634
0.03184698 0.026184628 0.032539822 0.030113759 -0.03477041 -0.073706724 -0.07704322 -0.040232092
0.058212172 -0.065041415 0.053923797 0.012383715 0.033373453 0.06468884 0.05970588 0.043209013
0.07100635 -0.025796646 -0.018672908 -0.036523033 0.026579246 0.020786688 -0.08138277 0.025642095
0.05544821 -0.04793517 0.022191415 0.033347048 -0.060209062 0.0062759584 0.07482131 0.012099962
0.07024056 -0.021835713 0.00021644888 0.059473246 -0.08539296 0.034074824 -0.027445545 -0.079245806
0.08367928 0.050584923 -0.014710834 0.07468869 0.019143503 -0.06235378 0.014918237 -0.032463636
0.032037005 0.036785655 0.06352236 0.060109332 -0.0070074913 -0.03317926 0.031061407 0.085858054
0.08219887 0.076726 0.05952267 -0.056293905 0.08322821 -0.041159455 0.01031595 0.023689905
-0.0030729298 0.001844563 -0.08377361 0.00577577 0.05348201 0.030147864 0.020105178 0.00046356182
0.00046176926 0.003539496 -0.046984937 0.05873243 0.03273947 0.08448597 0.014647582 -0.049269736
0.05824399 0.059465498 -0.03475227 0.032123312 0.0016685706 0.04563488 0.023690172 -0.04637423
-0.0038251483 -0.059471272 -0.008648802 0.038144343 -0.066211134 -0.086978935 0.019308142 0.025226587
0.063827135 0.019529304 -0.08313007 -0.07668216 -0.056890916 -0.06708803 -0.026770217 0.059689216
0.0343828 0.08156787 -0.0399914 0.00060620235 -0.015315718 0.019811098 -0.04050805 0.066453494
-0.049156506 -0.015453669 0.001001051 -0.084587954 -0.067303255 0.042987525 -0.0633468 -0.05959326
0.06632093 0.034639165 0.00230944 -0.005650303 0.025126377 0.058570366 -0.08807918 0.011537606
-0.058675464 0.063512735 0.018011957 -0.027009528 0.037824377 0.0735155 0.002826345 0.074926265
0.012402242 0.040621627 -0.06940902 0.0707592 -0.025672067 0.029765634 0.056067694 -0.009078474
-0.05634811 0.06667765 0.06709609 -0.011855588 0.008953789 -0.010186016 -0.027935766 -0.08101366
-0.062498227 -0.026694795 0.07747687 -0.0036034856 0.026711037 0.06387966 -0.00891709 -0.0025018842
0.027385121 0.040667508 0.0004939669 -0.04893046 -0.06989693 -0.050728045 0.061349936 0.045891926
-0.0676379 -0.05602087 -0.015492742 0.058259368 0.00996945 -0.05289406 -0.0751379 -0.039828055
-0.060522296 0.04302554 0.005225893 -0.036184672 -0.044502527 0.061155196 0.08031832 -0.08391266
0.052984092 0.005585328 0.08427323 -0.08328819 0.032186657 0.029259438 -0.009319618 -0.074922815
-0.05216055 0.022945277 -0.052367255 0.023434155 0.08370848 -0.02195025 0.062049508 -0.016754562
-0.048476484 0.082249925 -0.0021836432 -0.005612339 -0.033034176 0.03569745 0.024066543 -0.08582218
-0.08502225 0.030433029 0.024237916 -0.06885289 0.0441894 0.038264703 -0.07730906 0.016247269

gnn_node.convs.0.mlp.1.weight f4 [256]
00000000: fbaf b83f 7443 453e 6eac 893f fa03 6d3f
00000010: 59ae 8e3e f2e3 3a3f 1ad4 ac3f b679 bb3f
00000020: 70f5 743f 80d6 a73f cd5a a53f c757 473e
00000030: c5cb 5e3f d670 e73e 238d 063f 9b40 9e3f
00000040: 87cb 393f 285b 753f 19ff b53f aa33 763f
00000050: ca84 3f3f 0704 b33f dfbc ad3e 8238 dc3e
00000060: 934e 6b3f fb75 933f de1b 7e3f eaae 6f3f
00000070: b829 c43f 4893 b83f 20cc 993f 2972 603f
00000080: 16f7 d83f 57dc 903f b5e7 bf3f 4a8a 1f3e
00000090: 4229 b73e 3c34 e23e 6ca5 9a3f 1bca a93f
000000a0: a11e 513f 5a29 a93f 3187 1e3f 56c9 bc3f
000000b0: 96b9 973f 31ea e93f 1c91 9b3f 2de9 583f
000000c0: ed69 bc3f 03fb 3b3f 9a51 bf3f e5bb 1740
000000d0: f860 d83f e219 753f 6a36 e73d f030 873f
000000e0: ac3f 0e3f f031 2d3f dbd6 2c3f a3bf a83f
000000f0: 175d d03f ce2d 943f f10c 8c3f 5fb4 a13f
00000100: 65f4 893f 819e 5a3f 6a4e b93f f7f6 b73f
00000110: f769 473f 138e a03f 55ce a73f 8577 5b3f
00000120: fda7 923f 3c68 a43f fc6b 603f e4fb f43c
00000130: e074 7a3f 5fdf 803f 9b28 773f e64a 9c3f
00000140: 8ca4 d13f b897 8d3e c7e8 4c3f c5ca 8d3f
00000150: 254c c63f 1095 5f3f 6edf 563f e8e0 fd3f
00000160: 36c5 293f cb58 963f 40bc 953f 266e e43e
00000170: 16d1 493f c768 a63f 8f70 a33f 8639 5e3e
00000180: 0ead 353f 1b74 e43f 2ae6 4c3f cc8e 013f
00000190: 9131 8d3f 6566 833f 7c89 843f 3530 c03e
000001a0: f75f cb3f 5c92 a63e 0052 863f 949b a13f
000001b0: f376 993f a483 603e cf20 6a3f 0d28 7f3f
000001c0: 160c 463f 1a1c b63e e316 ff3e 2562 7f3f
000001d0: 1781 8e3f f0a2 ab3f 6489 b83f d0e9 833f
000001e0: 9efd e83e 3b40 063f a85f 223f 607b cf3e
000001f0: 4537 bd3f 5d33 853f 1f0d af3f 53fc 603e
00000200: 0db7 033f 8431 363f 85eb bb3f 7eaa 9c3f
00000210: bf93 e43d a75f 953f cc8a 863f f3ec 9e3f
00000220: f0f6 b93f 27e1 a53f e698 833e a95c d03f
00000230: f5c8 4b3f 20cd e03e b49d 9a3f 7790 8f3f
00000240: 4294 0d3f 677d 943f 016a 6d3e 5654 ae3f
00000250: a233 8f3f 6911 693f b5eb d03f f97f e63e
00000260: 1ad5 b53f 2205 463f d62d 763f 8371 ea3e
00000270: 4792 833f 00ca e63f 9de2 983f fc61 ab3f
00000280: 0c73 e63f 54d8 ba3f 6940 9e3f 0aff 3c3f
00000290: 4753 8f3f fcff 7a3f ddec 093f 7a6f 8c3f
000002a0: 1e98 953f 937d c63f 365f 983f 8283 1a3f
000002b0: dbe3 863f f487 273f 0e7a 883f 642a b03f
000002c0: 0c11 a53f 6b8d c73f a96b 953f 5f5b e83f
000002d0: b69d 613f 28f8 5a3f ee42 383f 3ed2 d63f
000002e0: 1584 893f 3a96 2d3f 2f57 993f 20cb 403f
000002f0: 6ba3 a73f 48bc 853f fe18 023f d7dd 1d3f
00000300: 4888 a03f 4649 453f 3e0f 063f 90e6 c83f
00000310: 6446 633f e4f3 0b3f a4dd 8b3f c5cb 473f
00000320: 465c 0c3f 2bcf a83f 3dd7 db3f c738 833f
00000330: 8be5 643f a059 ab3f 56f1 b23f c2e6 873f
00000340: c7c3 613f 8b67 be3f c64c 013f a2ed f43e
00000350: 93c5 e13e ff27 8c3f ba49 593f 78e4 8e3f
00000360: 860f 9b3f b1e9 033f 5e55 d13f 5c00 b63f
00000370: a305 293f 2c96 ac3f f99e 3d3f c7d9 573f
00000380: d246 b13f 7c1d c63e d2ac 563f a866 993f
00000390: b5d7 9c3f 1bff 833f 98ce 603f 821a a43f
000003a0: 3d19 4b3d fb33 c03f 72ff 0a3f 8702 133e
000003b0: ac42 a23f 0b89 973f bafd 413f fea3 913f
000003c0: 0071 af3f ef6f 843f f640 bb3f 932b bd3f
000003d0: b36b d63f 03f3 c53f 2fd0 ab3f 69d0 943f
000003e0: 1fd1 853f f0a8 3e3f 5942 b03f 5228 3f3f
000003f0: d4f8 5e3f 28c5 513f dcee ad3f 29e6 ac3f
1.4428705 0.19264013 1.0755746 0.9258419 0.27867392 0.73004067 1.3502228 1.4646518
0.9568701 1.3112335 1.2918335 0.19467078 0.8702968 0.45203274 0.5255911 1.2363466
0.72576183 0.9584222 1.4218475 0.96172583 0.74811995 1.3985604 0.3393316 0.43011862
0.9191677 1.152038 0.9926127 0.9362627 1.5325232 1.4419947 1.2015419 0.87674195
1.6950405 1.1317242 1.4992586 0.15580097 0.35773665 0.44180477 1.2081733 1.3264803
0.8168736 1.3215744 0.61925036 1.4748943 1.1853511 1.8274595 1.2153659 0.847308
1.4719826 0.7342989 1.4946778 2.3708432 1.6904593 0.9574262 0.112896755 1.056181
0.55565906 0.67654324 0.67515343 1.3183483 1.6278409 1.1576478 1.0941449 1.263317
1.0777708 0.8539811 1.4477055 1.4372243 0.77896065 1.2543358 1.3109843 0.8572925
1.1457516 1.284431 0.8766477 0.029905267 0.9783459 1.0068167 0.96546334 1.2210357
1.6378341 0.27654815 0.8004269 1.1077505 1.5491987 0.87336826 0.83934677 1.9834261
0.66316545 1.1745847 1.1698074 0.44615287 0.78834665 1.3000726 1.2768725 0.21701631
0.70967185 1.7847933 0.800387 0.50608516 1.1030751 1.0265623 1.0354457 0.3753678
1.5888661 0.32533538 1.0493774 1.2625604 1.1989425 0.21925217 0.9145631 0.9967049
0.7736219 0.35568315 0.4982215 0.9975913 1.1133145 1.34091 1.4416928 1.0305729
0.45505995 0.5244176 0.6342721 0.40523815 1.4782492 1.04063 1.3675879 0.21971254
0.5145119 0.71169305 1.468125 1.223953 0.11160993 1.1669816 1.0511107 1.2416061
1.4528484 1.2959336 0.2570259 1.6278278 0.7960351 0.43906498 1.2079377 1.1215962
0.5530435 1.160077 0.23184969 1.3619487 1.1187632 0.9104219 1.6321932 0.4501951
1.4205658 0.7735158 0.9616369 0.45789728 1.0279015 1.8030396 1.1944157 1.3389277
1.800386 1.4597268 1.2363406 0.7382666 1.1197289 0.9804685 0.5387705 1.097152
1.1687047 1.5507072 1.1904056 0.60356915 1.0538286 0.65441823 1.0662248 1.3762937
1.2895827 1.5590032 1.167348 1.8152884 0.8813127 0.85534906 0.71977127 1.6782911
1.0743433 0.6780735 1.1979731 0.75309944 1.3096746 1.0448084 0.50819385 0.61666626
1.254159 0.7706493 0.5236701 1.5695362 0.8877928 0.5466902 1.0927014 0.780453
0.548283 1.3188223 1.717506 1.0251702 0.89412755 1.3386726 1.39799 1.0617297
0.8818936 1.4875349 0.5050777 0.4783755 0.4409605 1.0949706 0.8487812 1.1163473
1.2114112 0.5152846 1.6354177 1.421886 0.66024226 1.3483329 0.740707 0.84316677
1.3849738 0.3869437 0.8385745 1.1984453 1.2253329 1.0312227 0.8781524 1.282059
0.049584616 1.5015863 0.5429603 0.14356433 1.2676597 1.1838697 0.7577778 1.1378171
1.370636 1.034666 1.46292 1.4778923 1.6751617 1.5464786 1.3422908 1.1626102
1.0454444 0.7447653 1.3770248 0.746709 0.8709843 0.8194146 1.3588519 1.3507739

gnn_node.convs.0.mlp.1.bias f4 [256]
00000000: d85f 9abe a8d9 cabd 1707 fdbe 9161 5c3d
00000010: fad1 8cbe 92df 8fbe 024f 2bbe e0a5 71be
00000020: 9246 903e 6648 7c3e 02a5 003f 1f76 973e
00000030: f60b ddbc c70d d13e 5f8b 843d 2dbc 31be
00000040: 073b 753e f58b 85be 4d25 cdbe 035c 5ebe
00000050: 5307 a6be 54e6 debe 48eb 073f 4862 1fbf
00000060: 9a5b f1be 5898 38be d37e 88be 2b2d c93e
00000070: f866 cbbd e415 4ebe 8bb7 96be 989a afbe
00000080: e481 36be c19b 52be 456a 9bbe fb39 953e
00000090: b5d7 16be 5ab5 2bbe 48c8 e8be ab84 4f3e
000000a0: 1435 103d fe56 25be 6a93 62be 2d67 e3be
000000b0: d8d4 383d 653c d03d 3961 35be 9e20 b1be
000000c0: f828 99bc 563a 6c3d 1dbd 843d 8824 053f
000000d0: 8d3b 80bd a9ab 713c d676 943e e5a6 cfbd
000000e0: 13b9 35bf b16c 57bf c451 36bf fd56 3fbd
000000f0: 2237 bfbd 852e 9ebe 9de0 953e c722 61be
00000100: 58e5 38bd e490 4b3e 1d0c 92be c0c6 80be
00000110: de29 c3be 9486 373c a7fd b2bd 3328 793e
00000120: c15e fdbe 7e5f 753e 5bed f4be 54b6 82be
00000130: 15b6 4abe 331f 3bbe 7de2 cabe ae3c 9a3c
00000140: 5207 41be f380 d0bd e5bb 49bc 7d12 b8be
00000150: d893 29be 2184 883e e50a 743d 17aa 89be
00000160: f9f1 32be e52f 94be 2a51 98be 54ee 10bf
00000170: a849 82be a069 05be f3ab bc3c 4dac 6bbe
00000180: 253a 33bd 93c0 40be 9ff3 90be b553 4cbe
00000190: 4eab 883c 52a0 45be a5a3 823d 6fb3 80be
000001a0: 38d2 00bd 21b2 133f 65a8 cdbe c267 37be
000001b0: 47fb 3dbd 9695 ccbe 0d19 143d 17a5 0ebd
000001c0: 6411 6a3e 1870 e6be c454 0a3f abe9 babe
000001d0: 6fff 9cbe a0de 893e ef3a cabe f65e 8fbe
000001e0: 41cd 5a3e 2156 883e 57f1 acbe ff66 0ebf
000001f0: 01c4 00bf c4ee aaba 58f6 6abd 70e3 703e
00000200: 4f67 023f eaef acbe e209 ebbe dc77 b7be
00000210: 4743 773e 6964 6bbd 17db 92bd 3854 cfbd
00000220: a565 98bc 34ac 48bd 576c 15bf 491e 95be
00000230: 39c1 f33c a6fe 01bf 6bed d7be 9d1c 8a3e
00000240: 4428 28be a4af 1dbd 5b6b a7be 3f4b 01be
00000250: 608e 8f3d 4d33 ec3e 028e 58be 7607 e33e
00000260: 06aa 743e 818d a4be 8b02 bebe 5b06 6cbf
00000270: 7fd5 2fbe 931b fc3d 85a6 cfbd 566c edbe
00000280: 05e3 e6bb 95c8 13bf 26ca f7be c9be f2be
00000290: 6d9a 763c 365a 5f3e 6276 c4be 60f6 b8be
000002a0: 13a5 6fbe f938 2ebe b660 923e 9f98 463e
000002b0: eb2e 1bbe 7cb9 f7be 705f 04be 7b36 fabc
000002c0: 52cf 95be 95e9 cdbe 8988 9dbe 48e1 aabd
000002d0: 1cb7 4d3d 78a5 3b3d 5ffb 02be 8f94 283e
000002e0: d842 c2be ef27 8f3e 4782 fabe 542f dabe
000002f0: 7c63 d73d 9ce4 883c 7ea2 0d3f b745 733c
00000300: b705 efbd 3924 72be 5a64 003c 4457 33be
00000310: f377 20be 06bb 8e3e ede9 fabe 83b7 d3bc
00000320: 4fbc 0cbf fdf7 7abe 43f8 34be 557c 94be
00000330: f41a 41be 2460 b1bd 4c86 d2be 601a 863e
00000340: 8661 f9be 28e9 2c3c 3bcd 8ebe dbee a63c
00000350: 638c f73c 9d81 8abe 3a57 c93e d278 c13b
00000360: 4fd6 403d 21f3 37bf c2b5 623d b39d f3be
00000370: 8cdd 0cbf eba6 c7be 8817 dd3e 0550 b5be
00000380: 43bd 3fbe 042f 54be ead3 dcbe 6ab0 913e
00000390: de35 89be ad77 e6be f6ec 45be 1b07 04bf
000003a0: 85a9 823d 0199 ecbd f79e bcbe 1108 8b3e
000003b0: b659 d9bc 399d c7bd 119c 163f d516 7e3d
000003c0: 15fb a9be 714c d6be f96a 153e d063 f2bd
000003d0: c16c d0bd 4b6b cbbe c418 733d a4a3 cbbc
000003e0: b985 e3be 7e50 45be 7950 aa3c 5cd2 bebe
000003f0: 300a 32be f1ef 90bc 9e0e 283c d02e 98be
-0.30151248 -0.09904796 -0.49419472 0.053803984 -0.2750395 -0.28100258 -0.16729358 -0.23598433
0.2817884 0.24636993 0.5025178 0.29582307 -0.026983242 0.40830824 0.064718954 -0.1735694
0.23948298 -0.2608334 -0.4006752 -0.21714787 -0.32427463 -0.435351 0.53093386 -0.6225934
-0.471402 -0.18026865 -0.2665926 0.39292273 -0.09931749 -0.20125538 -0.29436907 -0.34297633
-0.17822987 -0.20567228 -0.30354515 0.29145798 -0.14730723 -0.16768399 -0.45465302 0.20265453
0.03520687 -0.16146466 -0.22126547 -0.44414654 0.04512486 0.10167769 -0.17712869 -0.34595197
-0.018696293 0.05767282 0.06481383 0.5200887 -0.062613584 0.0147504 0.28996915 -0.101392545
-0.70985526 -0.84150225 -0.71218514 -0.046713818 -0.093366876 -0.30894867 0.2927293 -0.21985923
-0.045140594 0.1987949 -0.28524867 -0.25151634 -0.3811788 0.0112015195 -0.087397866 0.24331741
-0.49486354 0.23962209 -0.47837338 -0.2552973 -0.19796021 -0.1827362 -0.39625922 0.018827762
-0.18850449 -0.10180845 -0.012312864 -0.35951605 -0.16560304 0.26663306 0.059580702 -0.2688758
-0.17475118 -0.2894279 -0.29749423 -0.5661366 -0.2544682 -0.13028574 0.02303121 -0.23014946
-0.043756623 -0.18823461 -0.28310868 -0.19953807 0.016683247 -0.19299439 0.06378869 -0.25136897
-0.03145048 0.5769368 -0.40167537 -0.17910674 -0.046382215 -0.39957875 0.036156703 -0.03482541
0.22858196 -0.45007396 0.5403559 -0.365064 -0.3066363 0.26927662 -0.39498088 -0.28002137
0.2136736 0.2662821 -0.33777878 -0.5562591 -0.5029908 -0.0013041128 -0.057363838 0.2352426
0.50938886 -0.3377679 -0.45905977 -0.35833633 0.24146758 -0.057468805 -0.07170694 -0.10123485
-0.018603155 -0.04899235 -0.5836844 -0.29124668 0.029755222 -0.5077919 -0.42173323 0.26974955
-0.1642161 -0.038497582 -0.32699093 -0.1262636 0.07009578 0.4613289 -0.21147922 0.4434163
0.23892984 -0.3213921 -0.37111315 -0.921972 -0.17171286 0.12309947 -0.10139183 -0.46371716
-0.007046106 -0.5772794 -0.48396415 -0.47411183 0.015051466 0.21811756 -0.3837157 -0.3612547
-0.23402815 -0.17013921 0.2858941 0.19394158 -0.15154617 -0.483837 -0.12927032 -0.030543556
-0.29259735 -0.4021727 -0.3076823 -0.0834375 0.050223455 0.0458121 -0.12791203 0.1646292
-0.37941623 0.27960154 -0.4892752 -0.42614233 0.10517022 0.016710572 0.5532607 0.014848164
-0.11671012 -0.2364663 0.007836426 -0.17513758 -0.15670757 0.27877063 -0.49006596 -0.025844341
-0.54974836 -0.24508663 -0.1767283 -0.29001108 -0.18857938 -0.086609155 -0.41118085 0.26191998
-0.48707217 0.010553636 -0.27890953 0.020377567 0.030218309 -0.27052012 0.3932436 0.0059042955
0.04707938 -0.7185536 0.05534912 -0.47581252 -0.55025554 -0.38994536 0.43182015 -0.35412613
-0.18724541 -0.2072106 -0.43130428 0.28454906 -0.2679891 -0.4501318 -0.19328675 -0.5157334
0.063799895 -0.11552621 -0.3684003 0.27154592 -0.026532035 -0.09746785 0.5883189 0.062033493
-0.33199373 -0.41855195 0.14591588 -0.11835444 -0.10176993 -0.39730296 0.05934979 -0.024858303
-0.4443796 -0.19268987 0.020790325 -0.37269866 -0.17386699 -0.017692538 0.010257391 -0.29723215

gnn_node.convs.0.mlp.1.running_mean f4 [256]
00000000: 131e a7bf 110c aa40 4e11 09c0 1f6a 53be
00000010: b4b7 bc40 5675 fdbe 827a 92c0 678b 93c0
00000020: e61a b8c0 4611 84bd 1fec 953f 8802 dc40
00000030: 2e21 4f3f a383 8040 3f20 e93f 2f43 13c0
00000040: f748 8e40 4ad5 2bbf 0877 2abf b890 07c1
00000050: a010 7cc0 82e3 2ec0 ae01 8b40 b807 b4bf
00000060: 9408 06c0 963b 7fc0 4ccc bd3f bf30 b53e
00000070: 5888 58c0 b3e4 6fbf c924 a83f 6b42 68bf
00000080: e7d0 0bc0 8e5a 19c0 17a4 cb3f 2f36 f540
00000090: 0d98 0e40 1129 b540 604c 19c0 9834 0e3f
000000a0: 78d3 793e 3da0 96bd d036 86c0 51f6 1240
000000b0: 681a d2be d55d 49c0 0e0f 8ec0 b7dd d4bd
000000c0: e44f b9bf 61c5 1541 fd46 ecbf d910 ab3f
000000d0: 792d 853f 0bf0 9fc0 f911 3040 d008 82c0
000000e0: be0d 7240 3467 c640 5294 e63f 0ada 503f
000000f0: bed1 c040 c18e c7c0 9b44 c0c0 6087 d43f
00000100: 2390 c83e 376c c7c0 ff05 b63f f0a3 6a3f
00000110: cda2 9ec0 375f cc3e 7e47 82c0 6c18 d740
00000120: cd5d 7dc0 fbbe bac0 e562 2abf 4579 9240
00000130: ddd9 51c0 858c 16c0 0f9a b93f b22f 46c0
00000140: e49e aec0 af00 0141 6edf 6b3f dc66 a3be
00000150: 2fd0 dabf abac e03f 54a4 d7bf 23f2 07c0
00000160: 9bfa e3bf 9438 663e f9ad e0bf 1030 803f
00000170: e743 5ac0 9e52 eabf 76b5 8240 06f9 0241
00000180: 58cc 3fc0 0116 c2bf 5a14 b6bf 1bf7 ddbf
00000190: 5bc6 5fc0 bba9 e1bf b57a 7840 3a9f 39c0
000001a0: 943f c6bf 4fc9 7640 37c8 9f3d 77fc 9fc0
000001b0: cc8e 3b3e 54aa 9440 7aa3 26c0 e3a6 f13e
000001c0: 5d01 d3c0 9b4c af40 cf14 7c40 8ccf 853f
000001d0: cc90 a8c0 a4cd 0740 f99a 67bf f556 a5c0
000001e0: 9d0f dc40 8817 febe d9be 773d 0b6e 7140
000001f0: 159c eebf b8fa bebf b8b7 ccc0 6e37 5440
00000200: 794a 8e40 af1d e1bf 3924 4bbf 247e ddc0
00000210: fa08 da40 3aca 17c0 b4ae ae3f cacb 25c0
00000220: e497 a8c0 95ce 45c0 675c 9b3f 121e e0c0
00000230: 931e 45c0 90cf 4ac0 a622 4c40 f445 d63f
00000240: 890d 83c0 d0a4 47c0 f048 9b40 784d 89bf
00000250: 7a48 7ebf c70f d540 5d94 963f 6e68 cb40
00000260: 55d8 3cbf e992 b3c0 6b6c 59c0 d3aa 523f
00000270: 9b68 a9c0 c6d4 bc40 b0d3 9cbf 7835 05c1
00000280: bbc3 81bf a202 99c0 717c 86c0 56dc 64c0
00000290: ef0e fdbf 6811 e93f d25f 7140 6b7a babe
000002a0: 6a59 f23f 9e53 55c0 006e 0ac0 fcaf a7bf
000002b0: 4e32 763f 6b08 27c0 3f04 47c0 4594 a2c0
000002c0: e873 adc0 1bde 48bf f2e8 46c0 eed3 3d40
000002d0: ddbc b93f 4c98 31c0 df6f 3c3f 2839 a2bf
000002e0: cd3d 52c0 6cbe 2a40 7e17 66c0 d039 5abf
000002f0: b790 2ebf f05a 563f 3d4b b940 c5cd c1c0
00000300: 7b45 4340 3a33 56c0 7505 7640 2e26 093f
00000310: 0c9e ffbf c9c9 833f 47d9 10c0 f865 8640
00000320: eab8 7440 231a 7dbe 965f 0fc0 fe83 33c0
00000330: 58a7 33c0 e53b 89c0 9ab8 85c0 f6f0 27bd
00000340: 415a 0ac0 2b6b bb40 45de 3c40 34c9 a540
00000350: c30c f63d 7a38 613f 8b2d a1c0 be20 3a40
00000360: c5f6 25c0 9882 d13f 2f53 6240 e034 c2be
00000370: 1544 31bf 8dcc c2c0 04eb d140 9254 c8bf
00000380: a1e6 2640 b33f 0141 07ef 89c0 525c a93f
00000390: 55aa 0b40 e927 4dc0 a7df 34c0 3d18 63bf
000003a0: f745 3d40 c0b7 9f40 2b6b 75c0 aa2b 5040
000003b0: 7116 343f 6bca 43c0 8699 ba3f 4810 8abf
000003c0: 728d d7c0 c656 cdc0 db38 0bbf 0e2a 50c0
000003d0: 3eac 77c0 8c52 7cc0 4518 16be 7ea6 02bf
000003e0: 8b2c 4ec0 bc50 2ec0 66d3 0fc0 6ad8 38c0
000003f0: 0e35 8d40 b76f 803f c0d6 bebf 42b3 a5c0
-1.3056053 5.313973 -2.1416812 -0.2064595 5.8974247 -0.49503583 -4.5774546 -4.610767
-5.7532835 -0.06448607 1.1712683 6.875309 0.80910003 4.016069 1.8212966 -2.3009756
4.446407 -0.6712233 -0.6658788 -8.472832 -3.9385147 -2.732636 4.343955 -1.4064856
-2.0942736 -3.9880118 1.4827971 0.35388753 -3.3833218 -0.9370834 1.3136226 -0.90726346
-2.1846254 -2.396152 1.5909451 7.662864 2.2280304 5.661263 -2.3952866 0.55549
0.24397075 -0.07354782 -4.194191 2.296284 -0.4103577 -3.146352 -4.4393377 -0.10393851
-1.4477506 9.360688 -1.8459164 1.3364516 1.0404502 -4.998052 2.751097 -4.0635757
3.7820888 6.200098 1.8014014 0.815827 6.0256033 -6.236176 -6.0083747 1.6603813
0.39172468 -6.23196 1.422058 0.916564 -4.957373 0.39916393 -4.071227 6.721731
-3.9588501 -5.835813 -0.6655715 4.5773034 -3.2789223 -2.3523266 1.450014 -3.096661
-5.456896 8.062667 0.921378 -0.31914413 -1.7094783 1.7552694 -1.6847024 -2.1241539
-1.7810854 0.2248252 -1.7553092 1.0014668 -3.4103944 -1.8306463 4.084651 8.185797
-2.9968472 -1.5162965 -1.4224961 -1.7341036 -3.4964817 -1.7629923 3.8824894 -2.9003434
-1.5488153 3.856037 0.0780186 -4.9995685 0.18316191 4.645792 -2.6037278 0.47197637
-6.5939164 5.4781013 3.93877 1.0453963 -5.2676754 2.1219263 -0.90470845 -5.166865
6.876906 -0.49627328 0.06048474 3.7723415 -1.8641382 -1.4920263 -6.3974266 3.3158832
4.446591 -1.7587184 -0.79352146 -6.921648 6.813596 -2.371718 1.3647065 -2.5905633
-5.2685413 -3.0907338 1.2137574 -7.0036707 -3.079991 -3.1689186 3.1896148 1.6740098
-4.0954022 -3.1194344 4.8526535 -1.0726767 -0.9932934 6.658176 1.1764027 6.356498
-0.73767596 -5.6116834 -3.3972423 0.8229191 -5.294019 5.9009733 -1.2252102 -8.325554
-1.0137857 -4.7815714 -4.2026906 -3.5759482 -1.9770182 1.8208437 3.7714734 -0.36421522
1.8933537 -3.3332286 -2.1629639 -1.3100581 0.9617051 -2.6098888 -3.1096342 -5.0805993
-5.4203987 -0.78463906 -3.1079679 2.9660602 1.4510761 -2.7749205 0.736082 -1.2673693
-3.285022 2.6678724 -3.5951838 -0.85244465 -0.6818957 0.8373251 5.7904344 -6.0563684
3.0511158 -3.3468766 3.844083 0.5357388 -1.9970107 1.0295955 -2.2632616 4.1999474
3.8237863 -0.24717002 -2.240209 -2.8049312 -2.8070889 -4.2885613 -4.1787844 -0.041001283
-2.1617587 5.856832 2.9510663 5.180811 0.12014153 0.879768 -5.0368094 2.9082484
-2.5931866 1.6367979 3.5363271 -0.37930965 -0.6924451 -6.0874696 6.5599384 -1.5650809
2.6078265 8.078052 -4.310428 1.3231299 2.1822712 -3.205561 -2.8261507 -0.8870886
2.9573953 4.9911804 -3.834666 3.252665 0.7034674 -3.0592296 1.4578102 -1.0786219
-6.7360163 -6.4168425 -0.5438363 -3.2525668 -3.8698878 -3.9425383 -0.14657696 -0.51035297
-3.2214687 -2.7236776 -2.2472777 -2.8882089 4.4127264 1.0034093 -1.4909286 -5.178132

gnn_node.convs.0.mlp.1.running_var f4 [256]
00000000: d597 ba41 2a83 0742 d947 3642 b72c 0f42
00000010: a218 ee41 4b04 c541 2c31 3a41 36e2 1142
00000020: bee2 8941 aa27 3b42 8a3c a941 6e67 f141
00000030: fa5a ad41 8754 a741 9ddf 1e41 c062 1042
00000040: 8515 b341 18d4 5542 0a74 2142 81d9 0342
00000050: 034a 6142 5147 8a41 7f22 ad41 fa5d ab41
00000060: e906 f341 7a5b 9641 6134 0e42 4fc7 b241
00000070: 1747 bc42 5f90 2442 c051 9542 8acf 3d42
00000080: 7ac6 5c42 3850 ff41 90a9 3142 1abb 0b42
00000090: 4e39 9041 12e6 0b42 a5cc 4742 d3e8 6242
000000a0: 8121 0642 6ffe cf41 71a3 f041 214a cc41
000000b0: dea6 e441 1674 b041 493a 0b42 f4a8 bf41
000000c0: 7fa0 0142 2870 5942 daef b241 85c7 a641
000000d0: fd7e 3d42 20e4 c841 3088 8041 9a2b da41
000000e0: e438 e141 f329 2542 461d 3242 490e 1741
000000f0: 8dcb 7042 ffc2 f741 db50 0542 b614 f141
00000100: dc07 2b42 7475 4041 f787 9542 4014 7342
00000110: 9a55 0042 be75 4742 29fd 2442 dd72 e141
00000120: ba19 4542 145a 8142 026e 4542 186e a341
00000130: 71a4 d041 2fe9 de41 7fdb 2542 ffa8 cc41
00000140: ffa1 2e41 26b7 c541 bddd 4c42 9b27 4e42
00000150: aee3 b741 b3d6 a441 04aa 0a42 7a3d c841
00000160: b26f cc41 e58a 4842 9db6 4242 376a f741
00000170: 532c 6a41 b91b 2f42 4b3b 4542 d315 9241
00000180: b3f7 a641 bf54 8342 307d b141 ed7c 8e41
00000190: 6750 ea41 c685 8a41 95e9 6742 94cb 8441
000001a0: d303 7641 c761 ab41 60d4 eb41 6fff 9c41
000001b0: e42e 6141 f2be 5941 216b b141 25bd 6f41
000001c0: a0cc 2e41 c18e 8b42 c361 b441 839c 8b42
000001d0: d4a4 1d42 2f43 3041 ae54 6542 a43d 9841
000001e0: c05c 5842 4473 8241 f5bc 0042 ba51 4542
000001f0: f662 3042 1a7b c841 23d5 2942 3f34 4342
00000200: 9aa4 aa41 42db 2d42 1f53 b741 cf0c f841
00000210: 8661 d041 766d 8342 b153 d841 8c72 4542
00000220: fca1 0142 177c b041 4cf7 9b41 1034 0042
00000230: d8cb b441 13b7 7e41 433b 4e42 2982 5042
00000240: 5700 0f42 a388 ee41 e35d 2542 9c67 2e41
00000250: 51fd 2a42 d372 7442 10de 6242 cd00 da41
00000260: 16ef 6442 e573 1342 31d8 2842 4700 9341
00000270: c3b7 1442 030e 6842 b352 1442 ba23 5d42
00000280: 0e12 1642 6c57 5a42 c867 3c42 4f8d ba41
00000290: edb6 1242 1365 8641 046d 5241 5c5b 5242
000002a0: c7dc 9342 dcb8 0142 ee79 0e42 31bd ed41
000002b0: 8401 7241 3787 8b41 07cf 5042 2a62 d941
000002c0: ac29 2142 d11d a441 78fc ad41 8b8d e741
000002d0: d657 1342 96dd e041 6c0a 4d41 eca6 9441
000002e0: 1834 0d42 b65d 4f41 8ef5 3f42 d91c 9641
000002f0: c814 fc41 3c7f 8141 ae67 8741 a748 2a41
00000300: 640c 5a41 b12b 1e42 fed9 0442 d76a 6242
00000310: 5a84 9841 d0f2 8041 8554 3b42 72d1 a441
00000320: 486b 5f42 7d0d 4542 dfab 0642 34af 5642
00000330: 7686 2142 bfe2 8c42 7645 9541 6e82 3842
00000340: 9bb3 2542 280a e741 86b2 0d42 60bc 1f42
00000350: 351b 0942 fbd4 a141 95a5 4c41 7acb ed41
00000360: e341 2342 8042 b941 d022 e541 090d 2042
00000370: 46da aa41 1ca9 b441 36b4 4c42 caba 9841
00000380: abd9 a942 0ad6 1e42 1b19 9842 098c 4f42
00000390: 8bf2 4f42 1862 5642 485d 1242 350b 7f42
000003a0: 0d7a 0e41 7144 ab42 332d cf41 a222 6c41
000003b0: c524 4a41 b58f 0942 c2bb ca41 036b 1042
000003c0: 7204 0642 4b63 3842 3d37 0d42 a61a 8042
000003d0: 49bd dc41 a862 ad41 2a05 f341 df58 4141
000003e0: 6723 4942 0c29 f241 c9d8 9a41 192a 5442
000003f0: 89fb bb41 b04d 8e41 31c3 0f42 6483 7b42
23.324137 33.87809 45.570164 35.793667 29.762028 24.627096 11.637005 36.47091
17.235714 46.788734 21.15456 30.175503 21.669422 20.916273 9.929593 36.096436
22.385508 53.457123 40.36332 32.962406 56.322277 17.284822 21.641844 21.420887
30.378374 18.794666 35.55115 22.347319 94.13885 41.140987 74.65967 47.452675
55.193825 31.91417 44.41559 34.932716 18.02798 34.974678 49.94985 56.727367
33.53272 25.999235 30.079805 25.536196 28.581478 22.056683 34.80692 23.957497
32.406734 54.359528 22.367115 20.847422 47.374012 25.11139 16.066498 27.27129
28.152779 41.290966 44.528587 9.440988 60.19878 30.970213 33.32896 30.135113
42.757675 12.028675 74.76556 60.769775 32.083595 49.864983 41.247227 28.181086
49.275124 64.675934 49.35743 20.428757 26.080294 27.86386 41.46435 25.582518
10.91455 24.714428 51.21654 51.538677 22.986172 20.604834 34.66603 25.030018
25.554539 50.13564 48.678333 30.926863 14.635821 43.777073 49.307903 18.260656
20.870947 65.66552 22.186127 17.810999 29.289259 17.31532 57.978107 16.599403
15.375934 21.422743 29.478699 19.624723 14.073948 13.6091175 22.177309 14.983678
10.924957 69.77882 22.547735 69.80569 39.410965 11.016402 57.332695 19.030098
54.090576 16.306282 32.18453 49.32981 44.09664 25.060108 42.45814 48.80102
21.330372 43.46412 22.915586 31.006254 26.047619 65.71379 27.040865 49.361862
32.408188 22.06059 19.49575 32.050842 22.599533 15.919696 51.557873 52.12711
35.75033 29.816717 41.341686 10.900295 42.74738 61.112133 56.716858 27.250391
57.233482 36.86318 42.211124 18.375135 37.179455 58.013683 37.08076 55.28489
37.51763 54.585373 47.10135 23.318998 36.67864 16.799353 13.151615 52.58922
73.931206 32.430527 35.619072 29.717379 15.12537 17.441023 52.202175 27.172932
40.290695 20.514559 21.748276 28.944113 36.835777 28.108196 12.815044 18.581505
35.300873 12.960379 47.9898 18.764086 31.510147 16.187126 16.925625 10.642737
13.628025 39.542667 33.212883 56.604336 19.064625 16.11856 46.83254 20.602268
55.854767 49.263172 33.667843 53.671097 40.38131 70.44286 18.658916 46.127373
41.425396 28.87996 35.42434 39.93396 34.27657 20.228994 12.790425 29.724354
40.814342 23.15747 28.641998 40.01273 21.356579 22.582573 51.175987 19.091206
84.92513 39.709023 76.049034 51.886753 51.98686 53.595795 36.591095 63.760944
8.904798 85.633675 25.89707 14.758455 12.633977 34.39034 25.341679 36.104504
33.50434 46.096966 35.303944 64.05205 27.592424 21.673172 30.377522 12.084197
50.284573 30.270042 19.355852 53.04111 23.49782 17.787933 35.940617 62.87831

gnn_node.convs.0.mlp.3.weight f4 [128, 256]
00000000: 6887 ebbe b442 edbd 4f97 b6bd f346 21be
00000010: 360f 90bd 6111 f33d 8ac5 d2be fd41 d33e
00000020: 7b12 df3c a00e 9cbe 4601 c6be 72c9 37be
00000030: aebe 163d c744 b9bb eb41 17be cc99 fd3b
00000040: 6b2f 73be 4db3 123e ee22 83be 7e21 13be
00000050: 1081 1a3e 6c5b ecbe 4540 d1bd a842 f4bd
00000060: 501c 04be 3ddb aa3d c7f2 3abe f883 dabe
00000070: e93a ec3e fb26 dbbc c230 68be 6299 9d3d
00000080: 39f4 213f 645c 953e acc1 febe fbd6 32be
00000090: 9fd8 d4bd c747 f1bd 86b6 9bbd c9a9 623e
000000a0: eb79 ff3e c2fb 633c 40ab a43e 69fa 26bf
000000b0: ff97 113e cca6 3f3f f3c7 3a3d ce2a 43be
000000c0: f5dd 363f 0072 00bf e391 453c 63b0 ac3e
000000d0: 4d8f 93bb bc8f ad3e 3989 533c d7d0 283f
000000e0: 8826 87be cd65 97be 2bf1 303d 7029 bebd
000000f0: 36a7 f9be a3c7 a8be b85f 98bd d5b3 bebe
00000100: 3a9a 373e 319b a6bd adbf bcbe 0ff2 c5be
00000110: fd99 e03e ef9e 2d3d 6aed 713d d0d9 dfbe
00000120: 112c b8ba 9536 f23d 7389 cfbd ab94 cbbd
00000130: dd60 8c3e 0995 c53e ac43 c2bd 28a9 153e
00000140: 4acc bfbe bb6a 99bd c114 a8bd 59b6 bdbe
00000150: 00f4 3b3d 2f76 043d fea9 ac3e c336 7bbf
00000160: ba43 563d e537 83be e453 d33d 2285 aabd
00000170: 4afc d739 af27 97bd 95f3 68be 6595 54bd
00000180: 7f7a a93e fd58 63be c1e1 e93c d050 1d3e
00000190: 73cb 68bd bcd2 debe 1e2a 84be 0686 f93d
000001a0: 127e 333f d3d2 bcbd e2c8 743c e693 9dbe
000001b0: afa0 15bf d8c6 27be 61b6 413d e4b2 25be
000001c0: e438 033d d0d3 17be 8ee2 693d c694 00be
000001d0: 904c a6bd ced0 293e d55f c1bd b74b 15be
000001e0: 1968 66be db50 6e3d 9162 e83c a75e 97be
000001f0: b989 eebe d4c0 5cbd 2903 49be 3234 61be
00000200: 218a f6bc 49dc be3d d1ec 12bf 215d 8ebe
00000210: 5cd6 cdbd b349 f13d ba56 8ebe 3801 713e
00000220: 786f b0bd 36c8 033f aa6d efbd 0a0f a7be
00000230: 6b75 b23e e597 3c3e 8087 05bf 0d55 38bd
00000240: 10fd 783e 436c 153f 2bc5 23be e6d0 b83c
00000250: 42d1 8ebe c708 f1be c1e8 07bf 579c 68be
00000260: 97c2 2d3d 3d37 fc3e 8e37 393e 2bc2 623d
00000270: cb3a 883d f647 0abf 5df5 b13e bf92 32be
00000280: c2bd 2a3c 7ee8 3bbc fc16 8fbe 61c8 f63e
00000290: 8843 09ba a065 0dbe 11bb 62be f586 cc3d
000002a0: edd6 d5be 6b73 55be d3dd c83d e4cf 8abd
000002b0: 838f 01bf bc5d 713e cce6 df3d 36e0 2abd
000002c0: e0a8 36be 0839 1bbf d047 d33e 13d7 2bbe
000002d0: c8ef 66bc ab6f a93e 9674 94be 0f73 e13e
000002e0: 359f 9f3e 2d0c 75bd 0a40 f83c a786 163e
000002f0: cd38 98be efe0 bd3e 3058 5dbe 8516 c13d
00000300: 585e edbe 4d17 973e 11f7 f03d d13a 0abf
00000310: 0577 873e 33b3 babd c6c7 26bd a8f0 fdbd
00000320: 1fe8 3cbe 4215 b2be 8779 1ebf ab34 c33e
00000330: f55e 7e3d 55a6 f33e ce53 18bf 736f e53d
00000340: cd93 87bd 2cfc 3ebe aeb6 0bbd 17d8 f5bd
00000350: 09ab 0b3d 3e48 c1be 1767 e03d 72b4 393e
00000360: 91bb 473e 4cea 8cbe 209a 43bf b0e6 7dbe
00000370: d1e9 123e d78f d2be da78 92be 77e6 363e
00000380: 6491 aebe 8d39 56be 86c0 253c 2b84 523b
00000390: 34e8 86be 869b cb3c 7589 873e 8a06 79be
000003a0: 5125 00be 9ecc bebe 0ce6 083e 78f0 5cbd
000003b0: d528 94bc d248 503d 3175 27be 28d3 963d
000003c0: c6e1 dfbe aaf5 7cbd 9a5b 253d 1c1e 7b3e
000003d0: 495a c4be 8ee9 10bf 1fae 77bc 00bd 32bf
000003e0: 61da 2c3c f3be a03e 234b 08bf 7bb7 d03d
000003f0: df39 d4bd 565c 67be 80cd 0f3c c62d f23e
-0.46001744 -0.11584988 -0.089155786 -0.15749721 -0.07034151 0.11868549 -0.41166335 0.41261283
0.027230492 -0.30479908 -0.38672847 -0.17947939 0.03680294 -0.005653951 -0.1477124 0.0077392813
-0.23748557 0.1432621 -0.25612587 -0.14368245 0.15088296 -0.461635 -0.102173366 -0.11926776
-0.12901425 0.08342598 -0.18256675 -0.4267881 0.46138695 -0.026751986 -0.2267485 0.07695271
0.6326328 0.2917205 -0.49757135 -0.17464821 -0.1039288 -0.117812686 -0.07603173 0.2213508
0.49897704 0.013915004 0.32161903 -0.65225846 0.14218138 0.74863887 0.045600843 -0.19059297
0.7143243 -0.5017395 0.012058708 0.33728322 -0.004503167 0.33898723 0.012911134 0.65943664
-0.26396585 -0.29569855 0.043198746 -0.09285247 -0.48760384 -0.3296481 -0.07440132 -0.37246576
0.17929927 -0.08135069 -0.36864987 -0.3866124 0.43867484 0.0423879 0.059064306 -0.43720865
-0.0014051219 0.11826817 -0.10133638 -0.099404655 0.2741765 0.38590267 -0.09485564 0.14615309
-0.37460548 -0.0749106 -0.082070835 -0.37053183 0.045886993 0.03233927 0.33723444 -0.98130435
0.052310683 -0.25628582 0.10318735 -0.08326174 0.00041195966 -0.07380616 -0.22749169 -0.051900286
0.3310127 -0.22201915 0.02855003 0.15362859 -0.05683465 -0.43520153 -0.25813383 0.12183766
0.70114243 -0.09219899 0.014940472 -0.307769 -0.5844831 -0.16384447 0.04729307 -0.16181523
0.032036677 -0.14826894 0.057100825 -0.12556753 -0.08120072 0.16583559 -0.09442107 -0.14579664
-0.22500648 0.05818258 0.028367313 -0.29564402 -0.4658945 -0.053894833 -0.19630112 -0.21992567
-0.030095162 0.0931936 -0.57392603 -0.27805427 -0.100506514 0.11781635 -0.27800542 0.23535621
-0.08615011 0.5147737 -0.11690839 -0.3262866 0.34855208 0.18417318 -0.5215988 -0.045002986
0.24315286 0.5836832 -0.15993182 0.022560548 -0.27894026 -0.4707701 -0.5308953 -0.22715889
0.042421903 0.49260893 0.18087599 0.055360954 0.06651839 -0.54016054 0.3475751 -0.17438792
0.010421218 -0.011469005 -0.27947223 0.48199752 -0.0005236198 -0.13808298 -0.22141673 0.099866785
-0.41765538 -0.2084481 0.098079346 -0.06777933 -0.50609607 0.23570913 0.10932693 -0.04171773
-0.17837858 -0.606339 0.41265726 -0.16781263 -0.014095254 0.33093008 -0.28995198 0.44033095
0.31176153 -0.059826065 0.030303974 0.14699803 -0.29730836 0.37085673 -0.21615672 0.094281234
-0.4636104 0.29509965 0.11765874 -0.53995997 0.26457992 -0.09116211 -0.040717863 -0.12399417
-0.18447922 -0.34781843 -0.61904186 0.3812612 0.062102277 0.4758784 -0.59502876 0.11202898
-0.06619988 -0.18650883 -0.034109764 -0.120041065 0.03409866 -0.3775043 0.10957163 0.1813524
0.19505145 -0.27522504 -0.7640705 -0.24795032 0.14347006 -0.41125366 -0.28607827 0.17861353
-0.340953 -0.20920391 0.010116702 0.0032122235 -0.26349032 0.024854433 0.2647206 -0.243189
-0.12514235 -0.37265486 0.13369006 -0.053940266 -0.018085876 0.050850697 -0.16353299 0.073644936
-0.4372694 -0.06175772 0.04037056 0.24523205 -0.38350132 -0.56606376 -0.015117197 -0.6981964
0.010550112 0.31395683 -0.5323965 0.10191246 -0.103626005 -0.22593817 0.008777022 0.47300547
