checkpoints/D_epoch_90.pth (torch, 843938 bytes, 48 tensors)

gnn_node.node_encoder.weight f4 [1, 128]
000000 93 7c ba 3e dc 52 82 bd 05 26 e1 3d 95 9a 14 3e
       0.36423168 -0.063634604 0.1099358 0.14512093
000010 c6 c0 9c 3f 02 5d cd be 92 e2 03 bf 63 23 c9 3e
       1.224633 -0.40110022 -0.51517594 0.3928481
000020 f3 27 08 3f 36 f1 7f bc fb 3a 80 bf ed 36 99 3d
       0.5318596 -0.015621474 -1.0018 0.074811794
000030 89 cc 55 bf cb c3 e6 3e 06 c1 9d bf 53 bb 8c bf
       -0.8351522 0.45071253 -1.2324531 -1.0994667
000040 ec 0b 09 bf 90 df 17 bf 92 41 54 3f e3 cd b0 3e
       -0.53533816 -0.59325504 0.8291255 0.3453208
000050 61 b5 90 bf 27 9e 89 3c 7b 29 12 be b8 3f 81 3d
       -1.1305352 0.016799046 -0.14273636 0.063109815
000060 ae f6 78 bf 8e 27 f6 3e 4c 3f 2b bd 62 be 3e 3f
       -0.97251403 0.48077053 -0.04180841 0.7450925
000070 b9 01 22 3e 08 9a 5e bf de 63 3a bf d9 e4 83 3f
       0.1582097 -0.86953783 -0.72808635 1.0304214
000080 04 92 0f bf a5 3b 29 3e d1 13 80 3e ba 4b 12 3e
       -0.5608218 0.16526659 0.2501512 0.142867
000090 9f b5 90 3f fe 92 f9 3e 7c f9 4e 3e f0 99 7d 3f
       1.1305426 0.4874496 0.20212358 0.99063015
0000a0 7f 2b 87 be e5 80 7b be ee 15 df bf 08 ab e4 bf
       -0.26400372 -0.24560888 -1.7428567 -1.7864695
0000b0 55 1b 8e be 72 d5 83 3f c2 46 92 be 37 17 b3 3d
       -0.27755228 1.0299513 -0.2856961 0.08744662
0000c0 d6 72 8d bf 56 fe a8 bf 0f 81 9c 3f c1 9e f3 bf
       -1.105067 -1.3202617 1.2226886 -1.9032823
0000d0 79 0d 4f be 08 0f 00 3f dd 9d 88 3e af ec 9c bf
       -0.20219983 0.50022936 0.2668294 -1.225973
0000e0 05 8c d5 3e 77 8c 26 bf ac 4c 74 bf 74 97 35 3f
       0.4170839 -0.6505808 -0.9542949 0.70934224
0000f0 04 1a 6c 3d cb 9e 1d be e1 ab 34 3f 9c 21 51 bf
       0.057641998 -0.15392606 0.70574766 -0.8169191
000100 bc bd a9 bf b4 48 28 3f 74 65 21 bf d2 bf 11 40
       -1.3261027 0.65735936 -0.6304543 2.2773328
000110 5f 99 84 3f 85 4b a2 be 52 b6 7a 3f ff 93 01 bf
       1.0359305 -0.31698242 0.9793445 -0.5061645
000120 21 f1 a2 3e 60 a1 a9 3c 62 57 4a 3e 38 6c 98 be
       0.31824592 0.020706832 0.19759896 -0.29770064
000130 6d b8 97 bf be a7 17 be 0d 47 6e bf 31 62 0f bf
       -1.1853157 -0.14810082 -0.93077165 -0.56009203
000140 b6 86 0e 3e 4c 32 83 bf 33 e5 99 3d e5 76 87 be
       0.13918576 -1.0249724 0.075144194 -0.26457897
000150 b3 44 f2 bf 74 98 f4 3d 10 fa 71 bd a6 cd b7 bc
       -1.8927215 0.119431406 -0.05907637 -0.022436928
000160 14 ca a3 3d 5a 3a 89 bf 63 85 0a 3f 6b b8 a3 bc
       0.07997528 -1.0720932 0.5410978 -0.019985398
000170 47 7f 80 3e 26 d1 34 3e 70 27 8e bf 84 60 be 3e
       0.25097105 0.17657909 -1.1105785 0.3718301
000180 fe 96 cd bf 0c 46 8a bf 40 cb 36 be 99 39 f2 3b
       -1.6061704 -1.0802627 -0.17850971 0.00739212
000190 30 bd 38 3f 24 11 d6 bd 09 3a 11 be 0e f8 c7 3e
       0.7216368 -0.10452488 -0.14182295 0.39056438
0001a0 7b 81 cf bd b1 f2 52 bc d8 c9 d8 bf b0 e3 5a be
       -0.10132118 -0.012875245 -1.6936598 -0.21375918
0001b0 29 d5 93 bf e3 f0 bd bf 4c 5f 53 bf 1b 43 07 c0
       -1.1549426 -1.4839138 -0.82567286 -2.1134708
0001c0 68 88 ac 3e 94 1d 80 3f 2f 08 20 3f 38 b6 aa 3d
       0.3369782 1.0009027 0.6251249 0.08335537
0001d0 2a 48 11 3f 83 12 54 be 38 cc d8 bd e8 01 8c 3c
       0.5675074 -0.20710187 -0.10585827 0.017090753
0001e0 77 ed 21 3e 0c 6b 80 bf a1 d2 b2 3e 3d 13 5b 3f
       0.15813242 -1.0032668 0.34926322 0.8557623
0001f0 7a 85 00 bf 7b 01 29 3f ee 06 7d bf 71 ac a3 bf
       -0.5020367 0.66017884 -0.988387 -1.2787

gnn_node.virtualnode_embedding.weight f4 [1, 128]
000000 6f 4a 14 bf 26 e4 32 bf 78 82 a7 bd 50 1f 34 be
       -0.57926077 -0.69879377 -0.08179182 -0.1759007
000010 46 d1 26 bf 90 db 61 bd d6 34 12 bf ca 06 1b bf
       -0.65163076 -0.05514103 -0.5711187 -0.60557234
000020 66 bc 4a bf e5 12 14 3c 2f 61 bf bd 0c 93 c3 be
       -0.79193723 0.009037708 -0.09344708 -0.38198125
000030 c3 72 68 be 3a 68 63 bf 99 d2 72 be 35 c1 e6 bd
       -0.22700028 -0.8883091 -0.23713149 -0.1126732
000040 75 6a 3d be ce b7 d9 be 02 26 01 bf a4 d4 ba be
       -0.18497641 -0.42523044 -0.5044862 -0.36490357
000050 33 01 6a be 3b 41 d8 bd b4 1b 85 be 83 a5 0c bf
       -0.2285202 -0.10559317 -0.25997698 -0.5494005
000060 20 77 93 bd cd d2 4b bd b6 5b d9 be c4 18 63 bf
       -0.07200456 -0.049761582 -0.42452782 -0.88709664
000070 9c 28 2b bf ff b6 29 be 22 73 8f be 15 82 56 bf
       -0.6685884 -0.16573714 -0.28017527 -0.8379224
000080 57 e3 85 be 97 93 34 bf 09 4d ee be fd b7 a8 be
       -0.2615001 -0.70537704 -0.46543148 -0.32952872
000090 58 0f 45 bf e6 1b c3 be c0 fb 91 be ae 03 06 bf
       -0.7697654 -0.38107222 -0.28512383 -0.52349365
0000a0 3d f1 3e 3d 3a 09 2e be 2e 96 57 bd 83 d6 54 bf
       0.04661678 -0.16995707 -0.052633457 -0.8313982
0000b0 49 93 23 bf 82 d1 cf be 01 17 be be f3 12 07 bf
       -0.63896614 -0.4058953 -0.37126926 -0.5276329
0000c0 d3 79 a1 be e5 82 55 3e ec 33 2c bf 4e 88 ad bd
       -0.31538257 0.20850714 -0.67266726 -0.08473264
0000d0 57 71 0f bd 93 11 24 bf 75 4d be be 49 a8 25 be
       -0.0350202 -0.64089316 -0.3716847 -0.16177477
0000e0 f0 0c ce be f0 a5 df be e6 d0 89 be 42 79 44 bf
       -0.40244246 -0.43681288 -0.2691719 -0.76747525
0000f0 19 26 30 be a2 aa ed be 25 40 97 be 40 52 a5 be
       -0.17202033 -0.46419245 -0.29541126 -0.32289314
000100 eb fa 63 bf 5a d0 1b bf 1e e7 45 be 03 7b 6c bf
       -0.89054745 -0.60864794 -0.19326445 -0.923752
000110 90 0c aa be 59 8b f5 3b 62 e5 3b bf da 90 77 be
       -0.3321271 0.007493418 -0.73396885 -0.2417635
000120 5a ac 3b be 99 9c 9c bd 6d d8 1d bf a8 b9 5c be
       -0.18327466 -0.07647056 -0.61658365 -0.21555197
000130 54 27 b7 be 12 3a c5 be 9d 3b 4a be ae 20 a0 3d
       -0.35772192 -0.38520867 -0.19749303 0.07818733
000140 e3 fb f9 be 71 1f 04 be 35 e3 b5 be c7 64 82 be
       -0.48824987 -0.12902619 -0.35524908 -0.25467512
000150 88 17 90 be db 3e d6 be 14 40 88 be 87 92 9b be
       -0.28142953 -0.4184483 -0.26611388 -0.3038523
000160 49 34 c9 be b0 9e 4b be 73 f6 62 be 4b df b4 be
       -0.39297703 -0.19884753 -0.22164325 -0.3532661
000170 86 f8 d5 be 80 61 c7 be 5e 3d cf be 41 2c 5c 3d
       -0.4179117 -0.38941574 -0.40476507 0.05375314
000180 80 84 85 bd 7d 78 a2 be f6 b0 bc be 86 77 98 be
       -0.06519413 -0.3173255 -0.3685376 -0.2977869
000190 b3 83 be be 7a 6f 28 3d d5 08 c0 be d6 d7 45 bf
       -0.37209854 0.041121937 -0.37506738 -0.77282465
0001a0 a7 ef a3 be 47 ba 51 bf 76 a3 ae 3e 5f 55 70 be
       -0.32018778 -0.8192486 0.34109086 -0.23470066
0001b0 c4 b9 1e bd 04 92 8e be 4e 49 6d be 68 f1 de 3c
       -0.03875138 -0.27845776 -0.23172495 0.02721472
0001c0 18 bc 10 bf 7d cf 00 bf 50 75 0d bf b3 3f 75 bf
       -0.5653701 -0.503166 -0.5525713 -0.9580032
0001d0 bc a4 38 bf 72 44 bc 3d e2 6c e2 be 83 76 a9 be
       -0.72126365 0.091927424 -0.44223696 -0.3309823
0001e0 7c 9c 90 be c6 e0 d5 be 24 0b ff bd db af 0b be
       -0.28244388 -0.4177305 -0.12453297 -0.13641302
0001f0 1f 4c c4 be 49 9e dd be 22 62 0d be e0 e1 85 bd
       -0.38339326 -0.43284824 -0.13806966 -0.06537223

gnn_node.convs.0.mlp.0.weight f4 [256, 128]
000000 ed b3 bd 39 20 2b ce be 83 e6 01 bf a2 7b 6d bf
       0.00036182944 -0.40267277 -0.5074236 -0.92766774
000010 96 55 ac bc b4 9e 59 be 05 f4 2a bf 65 77 86 be
       -0.021036904 -0.21251947 -0.66778594 -0.26262966
000020 54 d6 9f 3c 6e e3 94 bf 34 e0 16 bd 67 62 cb be
       0.01951138 -1.1631906 -0.03683491 -0.39723513
000030 57 cc af 3b f5 f3 ef 3b 22 cd c0 3d 5e 09 2e bc
       0.0053649354 0.007322783 0.09414126 -0.0106223505
000040 b7 8a 29 bd 22 61 d1 be 71 21 15 bb 0b 4f 6f be
       -0.041392054 -0.4089442 -0.0022755528 -0.23369996
000050 a1 a8 78 bd 50 e4 50 3e b3 b2 b1 be 2f 9e 28 be
       -0.060707692 0.20399594 -0.3470665 -0.16466592
000060 4f 19 bd 3e b2 fe 08 3f 57 7f 66 bc 28 e0 2c bc
       0.3693337 0.53513634 -0.014068446 -0.01055149
000070 f3 9d 58 be 14 30 52 3e 68 64 03 3f b3 05 5b be
       -0.21154003 0.20526153 0.5132508 -0.21388893
000080 0d 82 f6 bf 46 dd 25 be b2 68 39 be 9f 1c 24 be
       -1.9258438 -0.1619769 -0.18106344 -0.16026543
000090 fa 92 a6 bb 69 0f ca be fd 63 68 be fd db 74 3c
       -0.005083439 -0.39464882 -0.22694393 0.014945027
0000a0 95 73 ef 3e 0e 0e c6 bf e9 8a e4 bd 02 c4 32 3d
       0.4676787 -1.5473039 -0.111593075 0.04364396
0000b0 d1 e7 9a 3d d3 f2 b4 3e bb f9 8c 3d 86 44 69 3f
       0.07563747 0.3534151 0.0688357 0.91120183
0000c0 31 ee 71 be b9 14 2d 3b e7 d1 6d bc 7a a1 fa 3c
       -0.23626019 0.0026410057 -0.014515377 0.030594576
0000d0 64 ed a4 3b 09 be 0f 3c f3 11 3c be 3c 84 3b bd
       0.005033182 0.008773335 -0.18366222 -0.045780405
0000e0 fb e2 26 3e 9c 54 70 bd 30 8b 24 ba fe 64 78 be
       0.16297524 -0.05867444 -0.0006276844 -0.24257275
0000f0 47 2d 29 3f aa 1e c7 bd ff ad c4 3e f4 2f 2f be
       0.6608471 -0.097226456 0.38413998 -0.17108136
000100 ee 10 55 3d ea 42 de be 63 6e 7f bd 2f c6 04 be
       0.0520181 -0.43410426 -0.062361132 -0.12966226
000110 9f 80 c4 3e 98 ab b5 be c0 78 be be 72 2c fa 3d
       0.3837938 -0.35482478 -0.372015 0.122155085
000120 3c fd 1c be f1 f2 4e bd ba dc ff bc 23 08 e4 3e
       -0.15330976 -0.050524656 -0.03123318 0.44537458
000130 18 89 4d bd fb 30 0b 3d 77 40 98 bd 51 60 49 bf
       -0.05017957 0.03398226 -0.07434171 -0.7866259
000140 c7 5e aa be 26 27 91 bc 68 87 52 3d 59 a8 1c 3f
       -0.33275434 -0.017718863 0.051398665 0.6119438
000150 7e 91 cb bd 4e 75 33 bf 4b a1 11 c0 f7 5d 3c bf
       -0.0993986 -0.7010087 -2.2754695 -0.7358088
000160 23 17 c9 3e e1 4e 06 3e 92 09 7f be f4 1f a4 be
       0.39275464 0.13116027 -0.24905995 -0.32055628
000170 02 18 ec bd d5 8b d9 be 1f 9f a1 3c 96 67 1d 3e
       -0.115280166 -0.42489496 0.019729195 0.15371546
000180 f8 44 17 c0 51 b1 04 bc 41 ce 9e bf 7d f7 eb be
       -2.3635845 -0.008098916 -1.2406694 -0.46087256
000190 5a 1a e8 bc 18 a7 f2 bd b9 45 49 bf 5b 84 cf be
       -0.028332878 -0.11848277 -0.78622013 -0.40530667
0001a0 a5 99 46 be 4e d0 b6 be d7 12 c1 3c 04 ee 76 3e
       -0.19394548 -0.357058 0.023568554 0.24114233
0001b0 a2 8f fe 3d 97 b1 3a be 93 00 49 3f 9d 19 29 bb
       0.124297395 -0.18231808 0.785165 -0.002580262
0001c0 76 f2 ae be 0b ed 1e be e4 53 16 be 57 ac 9f be
       -0.34169358 -0.15520112 -0.14680439 -0.31186172
0001d0 4c 59 4d be dc e2 4c bd bb ed 40 bf c5 7d fd 3e
       -0.20053595 -0.050021037 -0.7536275 0.49510017
0001e0 bd 11 17 3f 97 9f 96 be 00 62 60 be f8 d2 8a bf
       0.5901144 -0.29418632 -0.21912384 -1.0845633
0001f0 4f 2a 94 3e ae ba 4d 3c 26 1e d7 3c 0a 99 87 3c
       0.2893853 0.012556715 0.026259493 0.016552467
000200 d8 01 d6 3d 8f 0f 44 3e fc bc d3 3d 7f c9 0e 3f
       0.104495704 0.1914656 0.1033878 0.5577621
000210 5b 88 a9 3d 92 76 ba 3e a6 86 1b 3e 9c 4f 1b 3e
       0.08277961 0.36418587 0.15188083 0.15167087
000220 ce 55 05 3e ef 15 18 3e e7 e3 0b bd f8 a6 26 3e
       0.13021013 0.14852117 -0.03415289 0.16274631
000230 46 6b 67 bd 3d 79 80 bd fa 2c 2d bc 07 88 0c 3d
       -0.05649879 -0.06273124 -0.010569805 0.034309413
000240 45 3f 07 3d 8c f5 c6 bb a7 2a 01 3e d1 78 c5 3c
       0.033019323 -0.006071752 0.12613927 0.024105461
000250 5f 46 97 3b 8b 89 f2 3d fe f3 30 be 25 e1 32 bc
       0.004616543 0.118426405 -0.17280576 -0.010917936
000260 98 2e 4f 3c b8 ee 03 3f 1d 36 e3 3d 91 1f 1f 3e
       0.012645386 0.5153613 0.11094306 0.15539385
000270 f0 37 3e 3e 80 1c d4 bb 05 ee 69 bd 35 3d 50 3d
       0.18576026 -0.006473124 -0.05711176 0.05083962
000280 84 be db be 09 03 7d 3e 9e b6 ad 3b 9d 4a 61 3d
       -0.4291879 0.24708189 0.0053013107 0.055002797
000290 17 d7 bb 3d 9d c9 3a 3e 5e d2 50 3e 06 c3 07 3e
       0.091718845 0.18240972 0.20392749 0.1325799
0002a0 6e fb 74 be 04 eb 9d 3d da b9 1d 3c 82 43 01 3d
       -0.23924038 0.07710841 0.00962683 0.03155852
0002b0 c9 e0 28 3e 55 cb 7f 3d ef ed 48 3e 9f 39 40 3e
       0.16491999 0.062449772 0.19622014 0.1877198
0002c0 6b 31 eb bd 2e 09 8d bd 2f 1d 88 3c 90 c9 4c bd
       -0.11484035 -0.068865165 0.016615478 -0.049996912
0002d0 7f be d6 3e 03 69 9f bd 75 e6 8d 3d 20 fa 9f 3d
       0.41942212 -0.07783701 0.06928722 0.078113794
0002e0 c2 82 bc 3d 1a bf 17 bb 47 8d 8d 3d ae ef 35 3e
       0.092046276 -0.0023154677 0.06911712 0.17767212
0002f0 7c e9 20 bf 2a 12 91 bd dd 1f c8 bd a7 37 56 3d
       -0.6285627 -0.07083543 -0.097717024 0.052299168
000300 83 48 0d 3d 2d 63 32 3e b8 31 51 bd 22 88 33 3e
       0.03449298 0.17420645 -0.051072806 0.175324
000310 67 eb 20 3e aa 0a e9 3e 22 f6 32 3d 8e 52 39 bf
       0.15714799 0.4551595 0.04369176 -0.72391593
000320 e1 1d cc bc df 2c d5 3e 38 4f 6c 3d 5b a6 e0 bd
       -0.024916591 0.41635796 0.057692736 -0.1096923
000330 06 88 80 3d b9 05 80 3e 9d 34 10 bf be 19 f6 bd
       0.062759444 0.25004366 -0.5633028 -0.12016629
000340 95 b5 92 3e 49 7f f7 3e 80 9b 20 3e dd 0b 61 3f
       0.2865416 0.48339298 0.15684319 0.87908727
000350 69 1c 90 bd 55 cd b5 bd b8 4f 8e 3d 3b 45 6f 3e
       -0.07036669 -0.088770546 0.06948799 0.23366253
000360 2d 68 71 3d af 25 cd bd f2 8f 08 3e 0c 8d 07 3f
       0.05893724 -0.10016953 0.13336161 0.52949595
000370 db c3 53 be e8 90 4e 3e da a1 a3 bd 80 d8 b0 3d
       -0.20680182 0.20172465 -0.07989855 0.08635044
000380 28 44 b7 be ab d0 9f 3d 90 05 e6 3d d2 62 58 bb
       -0.35794187 0.07803472 0.1123153 -0.0033017886
000390 d0 a4 da bb a1 07 10 3f 25 04 ff 3d e5 0f b9 3d
       -0.006672479 0.5626164 0.124519624 0.09036235
0003a0 54 c4 ee 3d fa b2 5c 3e 27 c8 1e 3d ca 55 f8 3e
       0.1165854 0.21552649 0.0387651 0.48502952
0003b0 29 6d 8c bd 7b 0f 46 3d 1e a8 82 be 85 51 44 3d
       -0.06856758 0.048354607 -0.25518888 0.047929306
0003c0 80 fd 6e 3e f8 98 5b bc 38 ba 38 3e ee 36 a7 3c
       0.2333889 -0.01340317 0.18039787 0.020411935
0003d0 43 4e cb 3d 43 3a 00 3f 69 ae 3f 3e 94 62 6e 3e
       0.099270366 0.500889 0.18718876 0.23279792
0003e0 35 c2 b9 3d bb 4a c8 be 1f a7 1b 3e 09 6e 97 3d
       0.09070245 -0.39119515 0.1520047 0.073940344
0003f0 a4 45 11 3e 40 bb d6 3d b9 33 0f 3d ac b8 0c bc
       0.14186722 0.10484934 0.034961436 -0.008588951

gnn_node.convs.0.mlp.0.bias f4 [256]
000000 ab d7 af bc c0 87 92 3d b6 78 7b bd d8 3e 5a bc
       -0.021465143 0.071547985 -0.061394416 -0.013320647
000010 fe 8f e6 bc 72 37 38 3d f5 94 d9 3b f5 7a 8d 3c
       -0.028144833 0.04497475 0.0066400715 0.017270545
000020 3d f5 8f bd 99 e5 8e bc 12 19 92 bd 48 35 3c bd
       -0.07029197 -0.017443465 -0.07133688 -0.04594925
000030 47 ee b7 bd f7 d9 33 3d f7 a6 ed bc a3 f5 91 bd
       -0.08980995 0.04390904 -0.02901028 -0.071269296
000040 31 e3 9f 3c bd 07 44 3d 25 24 31 bd 5d 57 29 3b
       0.019517513 0.047858942 -0.04324736 0.0025839426
000050 ae 14 af 3d 44 cc 20 3d f9 25 2b bd 33 38 8c 3d
       0.08548866 0.039257303 -0.04178426 0.06846657
000060 82 46 60 bc 56 71 25 bd 18 f3 3e 3d 18 c6 b3 3d
       -0.013688685 -0.04039129 0.04661855 0.08778018
000070 5d 27 d0 bc c8 36 df 3c 23 ad 7b 3d b7 83 98 bd
       -0.025409395 0.027247801 0.061444413 -0.074469976
000080 1f 06 18 bd 8b 99 4d bd ff 83 fe 3c 44 97 25 39
       -0.037115213 -0.050195258 0.0310688 0.00015791977
000090 46 4b 59 3d 90 00 44 bc 76 80 9d bd b4 ae 65 bd
       0.053050302 -0.011963025 -0.076905176 -0.056074813
0000a0 bf 91 09 3d 72 3e f8 3c f9 74 04 3d a5 23 a8 3c
       0.03358626 0.030303214 0.032338116 0.02052481
0000b0 24 26 1a bd 29 7b b4 bd 48 a4 97 bd 54 22 30 bd
       -0.03763403 -0.088125534 -0.07404381 -0.043001488
0000c0 e4 bd 93 3d c6 0b 82 bd e9 f6 63 3d 02 ac 1f bc
       0.07213953 -0.06349902 0.055655394 -0.0097456
0000d0 0e 6d 02 3d 95 d4 82 3d 80 63 74 3d ab af 41 3d
       0.031842284 0.06388203 0.059665203 0.04728667
0000e0 48 8e 92 3d d0 c4 bf bc a1 bb 94 bc 64 d8 02 bd
       0.07156044 -0.023409277 -0.018155875 -0.031944647
0000f0 c9 c4 cb 3c a0 9c b6 3c 1e 08 bc bd 3d 4e df 3c
       0.024874108 0.022291481 -0.09181236 0.027258987
000100 8e 6e 76 3d 21 ad 4c bd c1 a1 d1 3c 30 23 02 3d
       0.060164027 -0.049969796 0.025589826 0.03177184
000110 02 d2 82 bd f6 2d 99 3b e2 dc a1 3d d9 05 f8 3b
       -0.06387712 0.0046746684 0.07903458 0.0075690565
000120 73 26 90 3d 64 92 e9 bc 74 65 00 3b ac 99 73 3d
       0.070385836 -0.028512187 0.001959172 0.059472725
000130 d9 26 ae bd 88 b9 ef 3c cc cd cb bc c4 62 8e bd
       -0.08503503 0.029263273 -0.024878405 -0.06952432
000140 32 62 b5 3d cf 71 51 3d 75 22 84 bc fb 57 99 3d
       0.0885662 0.051133927 -0.016129712 0.07487484
000150 44 54 c9 3c 74 78 77 bd 4a 19 6e 3c 42 55 3d bd
       0.024576314 -0.060417607 0.014532397 -0.046223886
000160 9a 3e 00 3d 11 06 36 3d b7 3f 87 3d 17 ce 75 3d
       0.0313097 0.04443938 0.066039495 0.060010996
000170 21 e9 b8 3b a2 c2 0d bd a2 2d f3 3c 61 f4 b1 3d
       0.0056430255 -0.034609444 0.029684845 0.0868919
000180 ef 5c aa 3d dc fd a1 3d 8c df 75 3d b8 1d 67 bd
       0.08318507 0.07909748 0.060027644 -0.056424826
000190 5f 45 a6 3d 23 f5 39 bd 36 25 12 3c a1 f3 c5 3c
       0.081187 -0.045399796 0.008920005 0.024164023
0001a0 dd 05 23 3b e6 05 d8 3a c2 38 a4 bd a9 60 3c bc
       0.002487532 0.001648125 -0.08018638 -0.011497655
0001b0 eb 90 48 3d 65 e0 07 3d 35 c1 a8 3c e1 51 18 bc
       0.04896633 0.033172984 0.02059994 -0.009296865
0001c0 d2 f3 c4 3b 9c 45 3a 3b c4 d9 3b bd de ac 70 3d
       0.006010511 0.0028422838 -0.045861974 0.05875861
0001d0 f7 2d f5 3c 81 7a bf 3d 2a de 44 3c d9 ec 47 bd
       0.029929144 0.09349538 0.012015859 -0.04880986
0001e0 00 b1 6e 3d 50 b0 74 3d 2e ab 0d bd be b6 02 3d
       0.05827427 0.059738457 -0.034587078 0.031912558
0001f0 62 fc 6f 39 48 76 2d 3d 29 9c e3 3c ae 7b 3e bd
       0.00022886836 0.04234913 0.027784424 -0.04650467
000200 d0 0c d2 ba 09 f2 71 bd dd a1 95 bc 5e 97 22 3d
       -0.0016025547 -0.059068713 -0.018265659 0.039695136
000210 de ec 87 bd 87 fe ae bd ea 08 a3 3c 07 aa d5 3c
       -0.06636976 -0.08544641 0.019901711 0.026082052
000220 a7 60 6a 3d cb 44 9f 3c 54 57 aa bd a2 55 83 bd
       0.05722108 0.019441983 -0.08317438 -0.064128175
000230 c4 2e 68 bd 6e 00 8b bd e6 40 a3 bc 3b 4f 71 3d
       -0.056685224 -0.06787191 -0.019928407 0.05891345
000240 e1 d9 0c 3d 0d b0 a5 3d c4 19 24 bd b3 67 ed ba
       0.034387473 0.0809022 -0.040063635 -0.001811257
000250 f7 da 82 bc 28 ee 83 3c 21 d8 26 bd 2a 86 88 3d
       -0.015973551 0.016104773 -0.04073346 0.06666215
000260 0a d5 36 bd ee ca 43 bc b0 92 87 38 cd c8 ad bd
       -0.044636764 -0.011950238 6.464624e-05 -0.08485565
000270 08 d1 85 bd 54 3c 3b 3d 78 d1 76 bd 27 3c 70 bd
       -0.0653401 0.04571183 -0.06025836 -0.058651116
000280 8a bd 67 3d e6 47 05 3d bc 90 22 3b ee a9 59 bb
       0.056577243 0.03253927 0.0024805507 -0.0033212858
000290 bf bb d6 3c b2 c5 6d 3d 97 0e b5 bd dc c7 22 3c
       0.026212571 0.058049865 -0.088406734 0.0099353455
0002a0 e8 3f 72 bd 89 ed 7a 3d 30 c8 8c 3c 4b 65 d3 bc
       -0.059142977 0.061261687 0.0171853 -0.025805136
0002b0 b4 1c 1b 3d 52 c7 94 3d 7a bd 6d 3b 7f 1d a8 3d
       0.03786917 0.0726458 0.0036276267 0.08208751
0002c0 90 80 a0 3c d7 f0 09 3d 9c 4d ab bd e0 40 91 3d
       0.019592553 0.03367695 -0.08364412 0.07092452
0002d0 44 05 0d bd cc 94 ee 3c 49 40 5c 3d 85 4d 58 bc
       -0.03442885 0.029123686 0.053772245 -0.013202076
0002e0 6e 37 50 bd 6e 77 8a 3d d0 6a 8a 3d 04 3f 3d bc
       -0.050834112 0.06761061 0.06758654 -0.011550669
0002f0 70 89 b1 bb 8b 0c 1b bc 64 55 de bc 9d 2c a1 bd
       -0.005417995 -0.00946344 -0.027140327 -0.078698374
000300 8a e6 7e bd 1a 82 d0 bc bb 64 9f 3d df 7b 89 ba
       -0.062231578 -0.025452662 0.07782885 -0.0010489187
000310 a8 70 c8 3c e6 67 88 3d f4 a2 d4 bb f2 a1 f9 3a
       0.024467781 0.06660442 -0.006489152 0.0019045456
000320 30 67 e2 3c bc b2 13 3d e2 ff 31 bb 28 49 4e bd
       0.027637094 0.036059126 -0.0027160575 -0.050362736
000330 c8 19 88 bd b8 3f 5c bd 96 a4 83 3d 9e 16 29 3d
       -0.066455424 -0.053771704 0.06427877 0.041281335
000340 a4 ef 88 bd a2 76 25 bd 50 7f 81 bc e6 8e 6d 3d
       -0.06686333 -0.04039634 -0.015807778 0.057997607
000350 0b 8c 1f 3c 2b 7f 3b bd 04 31 98 bd 5c af 2f bd
       0.009737979 -0.045775574 -0.07431224 -0.042891845
000360 54 0e 64 bd 5d 36 2f 3d 36 33 46 3c ad 9c 18 bd
       -0.055677727 0.042776454 0.012097171 -0.037258793
000370 1f 48 37 bd c8 49 88 3d bf af a1 3d c3 f1 ae bd
       -0.044746514 0.06654698 0.07894849 -0.08542206
000380 75 d1 66 3d dd 1d 28 3c 8f 92 ac 3d fc 1a ae bd
       0.056352098 0.010261026 0.08426391 -0.085012406
000390 9b d7 11 3d e6 a5 ef 3c 89 eb 01 bc c5 87 99 bd
       0.035606008 0.029253911 -0.007929691 -0.07496599
0003a0 5a 1b 56 bd 13 fc b2 3c 24 8e 55 bd a8 56 c0 3c
       -0.05227218 0.021848714 -0.05213751 0.02347882
0003b0 b9 68 9d 3d ee 1a a3 bc 68 cb 75 3d 1d 12 74 bc
       0.0768599 -0.019910302 0.060008436 -0.014896897
0003c0 76 72 49 bd 6f 7f ab 3d 3f 00 99 bb e6 df aa 3a
       -0.049181424 0.083739154 -0.004669219 0.0013036698
0003d0 47 7a 8e bc 31 86 06 3d 82 5c b0 3c c2 5b a7 bd
       -0.01739229 0.03284282 0.021528486 -0.08171798
0003e0 c0 b2 ae bd dc a1 03 3d 64 81 f1 3c 6e 2c 8c bd
       -0.085301876 0.032136783 0.029480644 -0.06844412
0003f0 04 4e 3b 3d b3 78 11 3d 7b cc 8e bd c3 b7 35 3c
       0.0457287 0.0355155 -0.06972595 0.0110911755

gnn_node.convs.0.mlp.1.weight f4 [256]
000000 7c 1d d6 3f 96 4b bd 3b 39 80 89 3f 7b 0e 41 3f
       1.6727748 0.005776833 1.0742255 0.7541272
000010 50 21 cd 3e bc 26 38 3f b5 ed c6 3f 2e ad b6 3f
       0.40064478 0.71934104 1.5541292 1.42716
000020 11 f8 9b 3f 5a ce a8 3f 13 d2 a5 3f 60 de 14 3d
       1.2185079 1.3187973 1.2954735 0.036344886
000030 64 a5 81 3f 80 c1 c2 3e 6a 69 9c 3e 11 e0 85 3f
       1.0128598 0.38038254 0.30549175 1.0459005
000040 a3 c7 2d 3f 03 50 d5 3f b2 cf d9 3f 15 f3 82 3f
       0.67882746 1.6665043 1.7016509 1.0230433
000050 29 f9 48 3f 12 30 c9 3f 3f c2 28 3e 4b a1 8f 3e
       0.7850519 1.5717795 0.16480349 0.28052744
000060 19 48 81 3f f2 bd b4 3f b6 f0 8f 3f fb 3c 9d 3e
       1.0100127 1.4120467 1.1245334 0.30710587
000070 66 aa c6 3f 4b 33 98 3f 4e 5b 9f 3f 52 50 9e 3f
       1.5520751 1.1890653 1.2449739 1.2368262
000080 ec 4a f6 3f f3 76 be 3f b5 82 d8 3f 03 01 17 3d
       1.9241614 1.488005 1.6914889 0.0368662
000090 26 74 74 3e 49 2c a3 3e bb 43 a7 3f be 81 aa 3f
       0.23872432 0.31869724 1.3067545 1.3320844
0000a0 3a d8 84 3f d7 a9 bb 3f 7a 50 2f 3f 4f 16 df 3f
       1.0378487 1.4661206 0.6848217 1.7428683
0000b0 d5 c8 99 3f 11 50 f7 3f 7a 06 87 3f 10 a4 83 3f
       1.2014414 1.9321309 1.0548851 1.0284443
0000c0 88 97 d7 3f 6b cd 2f 3f e4 82 c1 3f 8c 29 12 40
       1.6843119 0.6867282 1.511807 2.2837858
0000d0 c4 8d ca 3f 8f c5 64 3f f1 59 62 ba 28 89 97 3f
       1.5824513 0.8936395 -0.0008634618 1.1838732
0000e0 6d 81 2c 3f 4e d7 8d 3f 39 ea 36 3f 48 0d cf 3f
       0.6738499 1.1081331 0.71451145 1.6175928
0000f0 19 91 c9 3f 89 b5 9c 3f 6d 34 c3 3f ab d8 bf 3f
       1.5747405 1.22429 1.5250374 1.4987997
000100 b6 9b 03 40 56 6c 68 3f 20 fe b6 3f 0e 2a b5 3f
       2.0563788 0.9079031 1.4296303 1.4153459
000110 12 f3 9d 3f 9f d9 97 3f 36 0e c7 3f f4 fb 32 3f
       1.2339804 1.1863288 1.5551212 0.699157
000120 c9 bc 91 3f 43 0a 9c 3f b9 f2 8d 3f f7 41 a0 bb
       1.1385738 1.2190632 1.1089698 -0.004890676
000130 3c ba 91 3f 4c 66 bb 3f 17 7c 9a 3f 5a ef bb 3f
       1.1384959 1.4640594 1.2069119 1.4682419
000140 b8 99 c8 3f b0 a8 b4 3e b3 9e 25 3f 6c cf 9b 3f
       1.5671911 0.35284948 0.6469528 1.2172675
000150 ba 81 d1 3f 24 24 c7 3e 68 03 67 3f d5 88 fb 3f
       1.6367714 0.3889476 0.9023957 1.9651133
000160 cf f4 68 3f 7b 52 e2 3f 0c 89 81 3f 82 63 b1 3e
       0.9099855 1.7681421 1.0119948 0.3464623
000170 76 d6 94 3f 3d c1 aa 3f d9 28 76 3f cf d5 b9 3e
       1.1627948 1.3340222 0.9615608 0.36295936
000180 b6 8e 91 3e a6 63 e5 3f 8a 89 9c 3f ab 37 b0 3e
       0.28429192 1.7921035 1.2229474 0.3441747
000190 8a b5 88 3f dd be 7e 3f ed a1 84 3f bf 79 6d 3e
       1.0680401 0.99509984 1.0361916 0.23190974
0001a0 fe f8 d5 3f 44 78 3f 3e d8 a7 b6 3f 25 3e a5 3f
       1.6716611 0.18698221 1.4269972 1.290959
0001b0 cd fa 7a 3f ce bf 30 3f bb 6f c3 3e c1 5a 9c 3f
       0.9803894 0.6904267 0.3817118 1.2215196
0001c0 ce 27 45 3f a4 e3 eb 3e df b3 6e 3e 3c 88 86 3f
       0.7701386 0.46072114 0.23310803 1.0510325
0001d0 2c 62 b4 3f c3 0e 96 3f b1 4c c6 3f ab ef 94 3f
       1.409246 1.1723255 1.5492154 1.1635641
0001e0 c6 b5 08 3e 66 43 fa 38 0d 3a e7 3e 83 f0 9e 3e
       0.13350591 0.00011933483 0.45161477 0.3104287
0001f0 a1 7d cc 3f b7 4e b6 3f 08 c2 bf 3f 33 48 b4 ba
       1.5975839 1.4242772 1.4981089 -0.0013754427
000200 86 5d 33 3e 2e ce 3d 3f 4d a8 e9 3f f3 40 b2 3f
       0.17516145 0.7414273 1.8254486 1.3926071
000210 b5 b2 90 3c 8f 86 ae 3f 1b ff 95 3f 9d 6d 8f 3f
       0.01766334 1.3634814 1.1718477 1.1205326
000220 17 45 b9 3f 8b c9 a1 3f e8 c0 a6 3d c8 29 e0 3f
       1.447421 1.2639631 0.08142263 1.7512751
000230 97 0e 15 3f d7 3a 2e 3f 86 fd bd 3f ec e4 3d 3f
       0.5822539 0.6805853 1.4842994 0.7417743
000240 8c 71 dd 3e 7b 85 9d 3f ef 47 c9 3c 26 9d d1 3f
       0.43250692 1.230636 0.024570433 1.6376083
000250 a8 76 76 3f b6 85 31 3f 3e 4e c6 3f 0e 1e 59 3d
       0.96274805 0.6934465 1.5492628 0.053007178
000260 fe c0 a7 3f 53 a8 9d 3f 24 db 72 3f e3 d9 a6 3e
       1.3105772 1.2316993 0.9486563 0.3258811
000270 a0 eb b1 3f 7b 11 e5 3f d5 35 03 40 fb ae c5 3f
       1.3900032 1.789596 2.0501606 1.5444025
000280 a4 80 d5 3f df bd c1 3f 7d 0a 9f 3f 1f fa 96 3f
       1.6679883 1.5136069 1.2425076 1.1795081
000290 b9 95 92 3f 9a 05 52 3f 8a f1 4d 3f f5 c2 9c 3f
       1.1451942 0.820398 0.80446684 1.2246996
0002a0 e2 d9 9e 3f 2c b8 e7 3f 31 14 65 3f e3 e4 da 3d
       1.2410243 1.810308 0.89483935 0.10688188
0002b0 c0 ca 88 3f 58 2e 37 3f 30 68 91 3f ee 94 d0 3f
       1.0686874 0.7155509 1.135992 1.629545
0002c0 88 dc ce 3f d5 87 01 40 b5 95 91 3f 1b 60 11 40
       1.6161051 2.0239155 1.1373812 2.2714908
0002d0 88 f9 8c 3f a6 30 3d 3f 9b 00 3b 3f 18 d6 fa 3f
       1.1013651 0.73902357 0.730478 1.9596586
0002e0 76 c0 9c 3f 18 a5 2a 3f 20 bf af 3f 48 45 40 3f
       1.2246234 0.66658163 1.3730202 0.75105715
0002f0 79 a3 aa 3f 27 b5 a0 3f 83 cb 82 3d 02 7c 34 3f
       1.3331138 1.2555283 0.06386473 0.7050172
000300 7d db a8 3f 97 5b a0 3f 60 9c 2e 3f a3 03 c5 3f
       1.3191983 1.2527951 0.6820736 1.5391735
000310 a4 bf 59 3f 3f 29 ee 3e 2c ee 8f 3f 93 8e 80 3f
       0.85058045 0.46515843 1.1244559 1.004351
000320 d0 10 14 3f a3 ab ba 3f 35 a7 f1 3f f1 fc 9a 3f
       0.57838154 1.4583629 1.8879153 1.2108442
000330 d4 d8 87 3f 9e c3 a0 3f ca 3e bc 3f 94 7e 89 3f
       1.0613046 1.2559698 1.4706662 1.0741754
000340 a6 c3 5c 3f 47 dc cd 3f c0 b7 7d 3d cd 21 2d 3e
       0.86236036 1.6082848 0.061942816 0.16907425
000350 4d aa 76 3b 33 cf b6 3f dc b3 51 3f 4f 60 6f 3f
       0.0037638128 1.4281982 0.8191507 0.9350633
000360 1d 9d 8e 3f e8 e6 ef 3e e3 45 d5 3f c1 ce de 3f
       1.1141697 0.46855855 1.6661953 1.7406846
000370 ab 2a 11 3f 70 9e b7 3f c2 85 c7 3e c1 e4 3d 3f
       0.5670573 1.4345226 0.38969237 0.74177176
000380 1a 2d ab 3f a5 98 2b 3f 0a 13 a1 3f 52 b2 94 3f
       1.3373139 0.6702979 1.2583935 1.1616919
000390 47 c7 aa 3f 64 bd 96 3f 58 58 b7 3f 8c c1 ba 3f
       1.3342065 1.1776547 1.4323835 1.4590316
0003a0 8c e6 e7 3c 90 be af 3f 34 b9 00 3f 1c f0 cf 3b
       0.028308176 1.373003 0.502826 0.006345762
0003b0 52 42 cc 3f d3 7d a0 3f 13 8e a6 3e 86 8f 6c 3f
       1.5957739 1.2538399 0.3253027 0.924065
0003c0 51 db c2 3f f6 c5 a0 3f 6c a2 bd 3f 58 eb c8 3f
       1.522318 1.2560413 1.4815192 1.5696821
0003d0 ce a4 07 40 7b fd e3 3f 8e 7a 85 3f ed b8 b4 3f
       2.1194339 1.7811731 1.0428026 1.4118935
0003e0 6b 3e 92 3f 0c 91 83 3f 03 9c ec 3f 97 fc 28 3f
       1.1425298 1.027864 1.8485111 0.6601042
0003f0 f6 f4 80 3f 76 b2 4d 3f 11 b9 8c 3f 29 85 ae 3f
       1.0074756 0.80350435 1.0993978 1.3634387

gnn_node.convs.0.mlp.1.bias f4 [256]
000000 ea 75 da be e2 56 8e be a3 0f 02 bf ad b9 64 bd
       -0.42668086 -0.2780066 -0.5080511 -0.055841137
000010 e0 54 48 bf d2 cd 29 bf 0c 92 14 bf 92 37 19 bf
       -0.7825451 -0.6632968 -0.5803535 -0.5985042
000020 52 3c 26 bc 61 b4 be 3d 0c 21 1a 3e 3b 1c 98 3e
       -0.010146217 0.09311748 0.15051669 0.29709038
000030 94 b5 20 be 03 ba ac 3e eb 9f 82 bd 42 05 f1 be
       -0.15694267 0.33735666 -0.06378158 -0.47074324
000040 bf 80 a0 bc 5d cd 08 be af fe d1 be ff 5e d6 be
       -0.01959264 -0.1335959 -0.4101462 -0.4186935
000050 eb 18 c5 be 36 b6 34 bf 2c ce 4f 3e 7f 8c 4b bf
       -0.38495573 -0.7059053 0.20293492 -0.79511255
000060 6e 6a 0a bf d1 14 d4 be 73 9b e5 be 28 64 26 3e
       -0.5406865 -0.41422132 -0.4484516 0.16249144
000070 ae 5e aa be a1 03 b8 be e2 6e c1 be 2d ff 63 be
       -0.3327536 -0.3594027 -0.3777991 -0.2226531
000080 17 5e 86 be f8 36 02 bf 0f 49 03 bf 73 82 80 3e
       -0.2624366 -0.50865126 -0.51283354 0.25099525
000090 89 f9 96 be b4 0e b1 be 22 60 2a bf f7 10 75 3e
       -0.29487255 -0.3458153 -0.6655294 0.23932253
0000a0 12 c5 a1 be 40 ce 6f be 57 47 dd be ab b0 fe be
       -0.31595665 -0.23418522 -0.4321849 -0.49744162
0000b0 ed f7 5e 3e cb 6d 70 be a1 6d e5 be 03 e6 c2 be
       0.21774264 -0.23479383 -0.44810203 -0.3806611
0000c0 99 9b 57 be 94 d0 03 be cd 87 7d be f8 aa a1 3e
       -0.2105545 -0.12872535 -0.24758835 0.3157575
0000d0 d6 74 6d be 06 d7 c1 be 9b d2 4a bd 97 84 03 be
       -0.231891 -0.37859362 -0.049517255 -0.12843548
0000e0 8c 03 7c bf 09 00 ad bf d5 d7 72 bf 74 29 8f be
       -0.9844291 -1.3515636 -0.94860584 -0.27961314
0000f0 81 2c 0b bf bc 53 cc be cb dd ea 3e b5 4e c2 bd
       -0.5436478 -0.39907634 0.4587234 -0.094876684
000100 36 ba 42 be 52 2d 9e bd 15 0c a3 be 30 2a c6 be
       -0.19016346 -0.07723488 -0.31845155 -0.38704062
000110 44 e0 bd be da 1a 4f be af 7d ae be 0f a9 87 3d
       -0.37085164 -0.20225087 -0.34080264 0.06624042
000120 53 85 03 bf 4a 2d b0 3e 35 5d 02 bf 7d a7 86 be
       -0.5137531 0.34409553 -0.5092347 -0.26299658
000130 b5 48 fc be 98 18 99 be b2 c0 be be 57 65 9c 3d
       -0.4927422 -0.29901576 -0.3725639 0.076365165
000140 45 7c 1d bf 0c 73 9a be 17 84 66 be 99 2f 02 bf
       -0.61517745 -0.301659 -0.22511326 -0.5085388
000150 68 bf fa be 75 f6 de 3d df 37 a8 be 45 37 33 bf
       -0.48974156 0.10886852 -0.32855126 -0.7000621
000160 77 3d d3 be 36 fd fb be 34 94 cb be 9b d4 3e bf
       -0.4125783 -0.49216622 -0.39761508 -0.7454316
000170 67 84 d4 be 11 53 c0 be fc ee 2c be e0 43 0a bf
       -0.41507265 -0.37563375 -0.1688804 -0.5400982
000180 d0 28 99 be 81 4c a7 be 3d 00 f1 be a8 5f b1 be
       -0.2991395 -0.32675555 -0.47070494 -0.34643292
000190 af ea 88 be ce 57 00 bf 04 be 71 be a4 3e c5 be
       -0.2674155 -0.5013398 -0.23607641 -0.38524354
0001a0 e1 a6 34 be 2f f1 94 3e 83 01 d9 be 51 2e 3d be
       -0.17641784 0.29090258 -0.42383966 -0.184747
0001b0 a0 e7 83 be 67 19 86 bf 90 50 2a be e6 98 1d be
       -0.25762653 -1.0476502 -0.16632295 -0.15390357
0001c0 17 7b 4d 3c d1 15 87 bf f9 97 77 3e 3d 86 e3 be
       0.012541554 -1.0553533 0.24179067 -0.44438353
0001d0 94 dd 04 bf cd 33 5f 3e fe cd 1b bf 29 b8 ba be
       -0.519006 0.21797104 -0.60861194 -0.36468628
0001e0 98 31 83 bd 67 59 92 bd 1c 3c f4 be 25 51 97 bf
       -0.06405944 -0.071459584 -0.4770211 -1.1821638
0001f0 75 b7 29 bf cc 80 08 bd 17 b9 75 be 82 d3 7d 3e
       -0.6629556 -0.033325955 -0.23996387 0.24787715
000200 6a f3 82 3e 15 dd 01 bf 45 40 1e bf 29 48 04 bf
       0.25576335 -0.5072797 -0.6181682 -0.5167261
000210 a0 2c e3 3d bc c5 b6 bd 34 94 b9 be 36 43 f8 be
       0.11092496 -0.089244336 -0.36245883 -0.48488778
000220 76 48 2a be 67 77 af be b0 c7 55 bf b4 ed d6 be
       -0.16629204 -0.34270784 -0.83507824 -0.41978228
000230 b0 16 72 be 91 2c f5 be 20 2d 03 bf bb aa 19 bc
       -0.23641467 -0.47885564 -0.5124073 -0.009379084
000240 8f 79 ab be b2 4d b0 bc 76 f8 2d bf ee 48 e2 be
       -0.3349118 -0.021521423 -0.67957246 -0.44196266
000250 65 0f 2f bc c5 17 d5 3e b1 f0 83 be 69 a0 b8 3e
       -0.010684823 0.41619697 -0.2576957 0.36059883
000260 4e f3 34 bc 3f c4 03 bf 5a ad ee be a7 6b a1 bf
       -0.0110443365 -0.5147132 -0.46616632 -1.2610978
000270 2f 37 e2 be 77 24 32 be b2 67 90 be 14 ec 09 bf
       -0.44182727 -0.17396723 -0.28204113 -0.5387585
000280 8d 6a 31 be cd fd 0c bf 97 cd 08 bf e4 48 05 bf
       -0.17325802 -0.5507477 -0.53438705 -0.5206435
000290 8a b9 b6 be 28 5a df 3e 1d 8e 8b bf 78 b9 06 bf
       -0.3568843 0.4362347 -1.0902745 -0.5262675
0002a0 63 65 25 be 29 7c d0 be 47 ac 0f be 96 78 68 3d
       -0.16151957 -0.40719727 -0.14030562 0.056755625
0002b0 24 31 d0 be 67 0e f2 be 85 3f bb be 5c 61 12 be
       -0.4066249 -0.47276613 -0.365719 -0.14294952
0002c0 17 69 ec be 5f 7d b2 be b0 d2 a7 be 51 01 75 be
       -0.46173927 -0.34861276 -0.3277793 -0.23926283
0002d0 87 a4 be 3d ad 17 9a be 2f b6 ae be 26 88 86 bd
       0.09308725 -0.30096188 -0.3412337 -0.06568937
0002e0 43 fa 2e bf c7 87 8a bd 1d 15 27 bf 9b df f9 be
       -0.6835062 -0.06764179 -0.6526659 -0.4880341
0002f0 69 41 3b 3d 63 ac 58 be 07 67 db 3e e0 4e b3 be
       0.045716677 -0.2115951 0.4285204 -0.35021114
000300 b7 c9 9e be e3 6d a3 be ed f6 02 be 2f 26 b0 be
       -0.3101327 -0.31919774 -0.12789507 -0.34404132
000310 30 41 b5 be fa f5 6c 3e 17 c7 00 bf 8d 6f ed bd
       -0.35401297 0.23140708 -0.50303787 -0.11593542
000320 61 6c 5a bf 2c d6 b6 be 87 9d 7b be 51 91 dd be
       -0.85321623 -0.35710275 -0.2457181 -0.4327493
000330 2a d8 d8 be 57 aa 92 be 3f 7f 47 bf a5 82 db 3e
       -0.4235242 -0.28645584 -0.7792854 0.4287311
000340 b8 69 63 bf b2 0e 8e bd 8b 4e 26 bf 9b 7d a4 bd
       -0.8883319 -0.06936397 -0.649636 -0.0803177
000350 73 12 79 be 4c 02 75 be 54 d0 87 3c c5 08 6e be
       -0.24323444 -0.23926657 0.01657883 -0.23245533
000360 b5 c2 8c be c5 ef 9f bf 7e 43 40 bd 3f 15 f9 be
       -0.274923 -1.2495047 -0.046939366 -0.48649022
000370 62 78 c5 be 86 56 01 bf 8b e6 66 3e 89 70 38 be
       -0.38568407 -0.5052265 0.22548883 -0.18011679
000380 25 82 74 be e5 87 32 bf 9d ef d6 be e2 bf eb 3d
       -0.23877771 -0.6973861 -0.41979685 0.11511208
000390 e4 19 f0 be 20 f9 f7 be c4 84 a5 be 5c 70 03 bf
       -0.46894753 -0.48432255 -0.32327855 -0.5134332
0003a0 08 36 5b be 9b 33 70 be 8d 23 f0 be 54 ef dd bd
       -0.2140733 -0.23457186 -0.46902123 -0.10836664
0003b0 ed d3 92 be e9 14 c8 be b4 2f 2a 3e bb aa c1 be
       -0.28677312 -0.39078453 0.1661976 -0.3782557
0003c0 8d a6 d6 be 74 d8 0e bf 70 9b 5a bd 11 ed 8b be
       -0.41923943 -0.5579903 -0.053370893 -0.27329305
0003d0 9b 2c 3d be d0 2b b0 be e4 00 70 be d5 cd 03 be
       -0.18474047 -0.34408426 -0.2343784 -0.12871487
0003e0 4a f5 07 bf cb 32 c9 be c7 10 35 be 19 ce f3 be
       -0.53108656 -0.39296564 -0.17682181 -0.47618178
0003f0 7a 10 c0 be 4b 20 3d bd 6a f2 08 bd 5e c3 3c bf
       -0.3751257 -0.046173375 -0.03343431 -0.73735607

gnn_node.convs.0.mlp.1.running_mean f4 [256]
000000 40 a6 13 41 85 ad bb 40 38 e4 b4 40 76 66 cb c0
       9.228088 5.8649316 5.6528587 -6.3562574
000010 a5 40 49 41 86 fb 9d c0 dc 80 1b c1 ce 2e d6 bf
       12.578282 -4.9369535 -9.71896 -1.6733034
000020 4f 27 cc c0 c7 6f 76 40 95 ab 86 3f 9f 72 23 41
       -6.3797984 3.8505723 1.0521113 10.215484
000030 4e b1 22 c1 c0 06 ac 40 ac 46 e2 40 aa 78 18 c1
       -10.168287 5.375824 7.071127 -9.529459
000040 64 08 5c 41 cc 0a 83 40 24 75 c2 3f 53 03 70 c1
       13.7520485 4.095068 1.5191998 -15.000812
000050 2a e8 14 c1 ac 6c 34 c0 0f 20 59 41 8a 4e cd c0
       -9.306681 -2.8191328 13.570327 -6.4158373
000060 65 e8 42 c0 66 03 19 c1 60 65 8e 3f 43 a9 a8 40
       -3.0454342 -9.56333 1.1124687 5.270662
000070 b6 8c 1e be 1d a8 af 3f 67 cc 08 41 4f c2 87 be
       -0.15483364 1.3723179 8.549903 -0.26515433
000080 24 d7 e7 40 24 d8 f8 c0 b0 f8 d3 40 0b 99 45 41
       7.2450123 -7.7763844 6.6241074 12.349864
000090 79 ff 79 40 6c f1 ba 40 d1 13 90 bf 5d 84 42 41
       3.9062178 5.8419704 -1.1256047 12.157315
0000a0 0b 63 86 bf be 11 1e 41 b0 40 0b c1 5d 74 fe 40
       -1.0498976 9.879332 -8.703293 7.9517045
0000b0 9b 64 b7 bf e8 43 9e c0 5b 9f 53 c0 22 a7 cd 40
       -1.4327577 -4.9457893 -3.3066013 6.426652
0000c0 14 4d 11 be 22 15 80 41 30 0b ea bf fa 72 b1 40
       -0.14189559 16.010319 -1.8284664 5.545285
0000d0 c6 f2 0f 41 8b 07 10 c1 5b 07 ff 3f 7d 76 0a c1
       8.996771 -9.001842 1.992412 -8.653928
0000e0 8e a2 11 41 22 0e 72 41 a2 58 00 c1 b3 c2 0f 40
       9.102186 15.12845 -8.021639 2.2462585
0000f0 78 2e a7 41 96 c4 3f c1 49 b5 02 c1 b8 f3 6d 41
       20.89769 -11.985495 -8.169259 14.872002
000100 fd 71 be 40 d8 da 7d c1 5a 85 8f 41 98 be 72 41
       5.9514146 -15.865929 17.940113 15.171532
000110 f2 a4 70 c1 b7 ef d1 40 bf 97 38 c0 ad 92 01 41
       -15.04027 6.560512 -2.8842618 8.0983095
000120 19 0e b1 be 99 d4 ea c0 43 75 b8 40 60 08 7f 40
       -0.34581068 -7.338452 5.764314 3.9848862
000130 5c 64 f3 c0 ff 78 8a c0 a5 41 41 41 1e 32 50 c0
       -7.606001 -4.32727 12.0785265 -3.253059
000140 c8 0e 73 c1 f9 57 db 40 17 8b df 40 50 20 c0 40
       -15.191109 6.854489 6.9857287 6.0039444
000150 3f 26 8f bd f7 44 2a 40 e0 a8 00 3f 90 2a 9b c0
       -0.06989717 2.6604593 0.5025768 -4.8489456
000160 71 ab 37 3f 6c 4a 07 41 ad d4 96 c0 38 b1 96 3f
       0.71745974 8.455669 -4.7134614 1.1772833
000170 38 e8 fc c0 6f c1 ac 3c f8 23 7f 41 e3 01 95 41
       -7.903347 0.02108833 15.946281 18.625921
000180 e9 33 90 c1 ee 91 fc 40 e0 55 d2 be 4d 1e c4 c0
       -18.025347 7.8928137 -0.41081142 -6.128699
000190 1b 4e 59 c0 c9 d2 02 c0 85 6c 03 41 c9 3d 52 c1
       -3.3953922 -2.0441153 8.213994 -13.140084
0001a0 69 d4 09 c0 df c8 47 41 1d bd 17 41 dd d3 a0 c1
       -2.1535895 12.486541 9.48367 -20.103449
0001b0 56 0a 83 40 56 01 3e 41 b7 87 29 c1 2a 7c 41 be
       4.0950117 11.875326 -10.5956335 -0.18895021
0001c0 66 a2 47 c1 0f f3 4b 41 33 bd 74 41 8d bc 09 41
       -12.477148 12.7468405 15.296191 8.608533
0001d0 93 88 95 bf 57 76 ba 40 23 25 fd 40 3e fa db c0
       -1.1682304 5.826946 7.9107833 -6.874297
0001e0 5a f9 5f 41 d0 e9 d7 bf ac fa c2 be fc a0 14 41
       13.998377 -1.6868229 -0.38081872 9.289303
0001f0 a1 a8 b2 40 11 50 2e 40 b0 c5 04 c1 b1 0d 6e 40
       5.5830846 2.7236369 -8.298264 3.7195857
000200 c9 8f 5b 41 16 1f 2f c0 3f 28 e2 bf d3 0b 73 c1
       13.722604 -2.7362723 -1.7668532 -15.190387
000210 d2 d4 52 41 4c 6c 12 41 63 77 1b 41 81 84 99 c0
       13.176958 9.15144 9.716647 -4.797425
000220 e9 7a 00 c1 a9 9a 4e c0 12 e6 02 c0 73 6b d7 c0
       -8.030007 -3.2281897 -2.0452924 -6.7318664
000230 e0 4f 20 c1 77 ed 9a c0 21 2b 54 41 9f da 3e 41
       -10.019501 -4.8414874 13.2605295 11.928374
000240 57 89 9e c0 ea 65 bc c1 d6 ac d0 40 f3 6b 3e c0
       -4.954265 -23.549763 6.521098 -2.9753387
000250 41 07 81 3f db 44 64 41 50 58 92 41 64 60 4d 41
       1.0080339 14.26681 18.293121 12.836033
000260 7d 3d 70 40 47 1e 73 c1 d4 20 0b c1 62 34 8e c0
       3.753753 -15.194892 -8.695515 -4.4438944
000270 2a 5d 60 c1 13 a1 a4 41 64 ef 96 40 5c e7 87 c1
       -14.022745 20.57865 4.7167225 -16.987968
000280 47 6d 83 be fc f0 33 c1 17 72 40 3f a5 de 0d c1
       -0.2566931 -11.246334 0.7517409 -8.866857
000290 f0 27 3f bf ea 31 2a 40 5c 91 6d 40 60 0d b0 3f
       -0.74670315 2.6592965 3.711997 1.3754082
0002a0 06 7b de 40 50 f1 31 40 34 a1 70 c0 d2 32 b0 bf
       6.9525175 2.7803535 -3.759839 -1.3765509
0002b0 f4 51 17 41 32 43 0a c1 07 1f f8 c0 61 ae aa c0
       9.457508 -8.641405 -7.7537875 -5.3337865
0002c0 43 d8 cd 3f 1c 21 0d 40 b3 dd 18 c1 19 ef 16 41
       1.6081623 2.2051458 -9.554126 9.433373
0002d0 17 82 1f c1 ec 8d 18 c0 60 29 a7 3f 5a 54 90 40
       -9.96926 -2.3836622 1.3059502 4.510297
0002e0 4b cc 18 c0 f3 34 fc 3f c0 e6 9f c0 ce 17 20 bf
       -2.387469 1.9703659 -4.9969177 -0.62536323
0002f0 51 c4 04 c1 18 74 3f 3e 48 bb 44 41 e0 f3 77 c1
       -8.297929 0.1869663 12.295723 -15.49704
000300 6c ac 37 41 23 4b 0e c1 31 40 22 41 fd b4 19 41
       11.479595 -8.893344 10.140672 9.606687
000310 04 71 13 41 5b eb 95 c0 14 a0 55 40 86 80 66 41
       9.215092 -4.68498 3.3378954 14.406378
000320 b2 d9 85 40 58 6a 10 41 9e 81 70 3e 13 f2 ea 40
       4.182824 9.025963 0.23486945 7.34205
000330 89 f4 3a c0 5a 7f f3 be d5 6a 27 c1 a5 89 54 41
       -2.9211752 -0.475581 -10.463582 13.283605
000340 8d 9b 77 c0 65 23 6d 41 b2 f7 f7 3f da dc 0d 41
       -3.868869 14.821141 1.9372466 8.866419
000350 d2 a2 23 c0 28 08 6d 40 8e a8 2b c1 34 e8 c1 40
       -2.5568128 3.7036228 -10.728651 6.059595
000360 1f d1 60 c0 82 f8 bb 40 06 51 4c 41 da ec 18 41
       -3.5127637 5.8740854 12.769781 9.557825
000370 f6 e9 8c c0 ac d5 11 c1 7f 21 8f 41 55 37 60 c0
       -4.4035597 -9.114666 17.891356 -3.5033772
000380 2d 91 42 41 a4 04 38 41 a3 1f e8 be f1 33 15 41
       12.160443 11.501133 -0.45336637 9.325181
000390 ea c3 de 40 1d 7a 82 40 88 5d 87 c0 25 b6 c9 40
       6.9614153 4.0774064 -4.2301674 6.3034844
0003a0 9d 2a c3 40 80 4d 9d 41 7d 4e d9 c1 86 66 44 40
       6.098952 19.662842 -27.163324 3.0687575
0003b0 b1 ab 1c 40 b2 35 dd c0 44 71 92 40 46 4f 35 c0
       2.4479792 -6.9128046 4.5763264 -2.8329635
0003c0 d7 b4 32 c1 95 6d 75 c1 0e 75 02 40 1d 79 03 41
       -11.16915 -15.339253 2.0383945 8.217069
0003d0 65 d5 e8 bf c1 0d 65 3e 72 06 c6 3f 45 4b e1 c0
       -1.8190123 0.22368528 1.5470717 -7.040438
0003e0 0e ce 09 3e 03 54 89 c0 57 52 bd c0 37 c6 73 bf
       0.1345751 -4.2915053 -5.9163013 -0.95224327
0003f0 80 82 fc 40 13 07 b1 40 9e 60 13 bf 0a 79 d0 bf
       7.89093 5.5321136 -0.575693 -1.6286938

gnn_node.convs.0.mlp.1.running_var f4 [256]
000000 46 60 2b 42 0e 8f 55 42 9d 5c be 42 47 77 fd 41
       42.844017 53.3897 95.180885 31.68324
000010 62 e0 a2 41 e8 87 cf 41 9d 4a 18 42 f9 46 6b 42
       20.359562 25.94136 38.072865 58.81931
000020 5d 03 db 41 69 3a e3 42 fa 88 25 42 0e e1 13 42
       27.376642 113.61408 41.383766 36.96978
000030 01 49 0a 42 44 2a 75 42 33 de 81 41 4c 00 9c 42
       34.571293 61.291275 16.233496 78.00058
000040 9b 24 11 42 b0 3e 80 42 f3 60 b5 42 dc 1c c8 42
       36.285748 64.12244 90.689354 100.056366
000050 45 f0 aa 42 f2 fa 35 42 e6 54 11 42 48 89 0b 42
       85.46928 45.495064 36.33291 34.884064
000060 24 e0 17 42 b1 8d bc 41 fc 12 a0 42 e0 37 45 42
       37.968887 23.569185 80.03708 49.304565
000070 59 82 11 43 ec fb c4 42 d7 cf f5 42 cc 78 7c 42
       145.50917 98.492035 122.90594 63.117966
000080 cf 90 d3 42 c1 6e 20 42 06 a1 55 42 14 60 0c 42
       105.78283 40.10816 53.40725 35.093826
000090 0b b4 30 42 e7 3d 31 42 d6 b0 20 42 ea 8a bc 42
       44.175823 44.31045 40.17269 94.27132
0000a0 93 fb f4 42 23 c8 44 42 cc 03 8e 42 ae d4 11 42
       122.491356 49.195446 71.007416 36.457695
0000b0 89 05 5b 42 de 57 88 42 a6 b7 f7 42 4c 12 83 42
       54.755405 68.171616 123.85869 65.535736
0000c0 77 fb a2 42 e0 51 d3 42 f3 f0 1d 42 0e b0 09 42
       81.49114 105.65991 39.485302 34.42193
0000d0 fb 40 a5 42 0c 3d d2 42 72 d1 ac 41 6a 1a 25 42
       82.626915 105.11923 21.602268 41.275795
0000e0 d5 aa 1d 42 03 a5 e3 41 2f 41 31 42 17 b9 58 41
       39.41683 28.455572 44.313656 13.545188
0000f0 73 8f 13 42 77 f4 b5 42 6f 35 7e 42 43 1d 1e 42
       36.890087 90.97747 63.55218 39.528576
000100 6a 72 1d 42 8f 76 f8 41 96 df d9 42 56 6d ab 42
       39.361732 31.05789 108.93669 85.71355
000110 6a 91 29 42 4b 73 4e 42 18 ce 21 42 97 3e 0a 42
       42.392006 51.61259 40.451263 34.561123
000120 b3 a2 10 43 36 ef f8 42 b1 68 76 42 9f a8 d3 41
       144.63554 124.46721 61.602238 26.457335
000130 93 24 4e 42 a6 6f ae 42 c5 5c 8a 42 70 67 30 42
       51.535717 87.21806 69.18119 44.101013
000140 79 c1 50 42 f6 65 b4 41 0b c2 bf 42 76 e8 d2 42
       52.18894 22.549786 95.87899 105.454025
000150 98 95 10 42 ce fa 09 42 e1 b7 b5 42 d4 25 5f 42
       36.146088 34.494926 90.85914 55.78694
000160 3e aa 07 42 dd 19 56 42 3f fa ed 42 90 60 19 42
       33.916252 53.525257 118.98876 38.3443
000170 a4 c0 85 41 01 43 3d 42 82 e1 64 42 9e ff 30 42
       16.719063 47.315434 57.220222 44.249626
000180 65 0f e5 41 6b 75 ff 42 bc ed 8a 42 54 8e 90 42
       28.632517 127.72933 69.464325 72.277985
000190 68 ef 82 42 8a 45 26 42 36 27 b7 42 68 64 73 42
       65.46759 41.56791 91.576584 60.848053
0001a0 48 f9 e6 41 ed 39 1f 42 0b 93 56 42 23 92 8e 41
       28.87172 39.80657 53.643597 17.821356
0001b0 05 da 2f 42 d7 66 8b 41 d6 c2 a1 41 8c 81 ae 41
       43.96291 17.425215 20.220135 21.813255
0001c0 90 22 d1 41 3d f1 b7 41 f0 bd 35 42 84 bb 32 42
       26.141876 22.992792 45.435486 44.68312
0001d0 35 ab af 42 a8 e8 c4 41 4d 4d b9 42 28 66 81 42
       87.83439 24.613602 92.65098 64.699524
0001e0 1e aa 93 42 8b 1e ac 41 f8 72 85 42 fe cb 46 42
       73.83226 21.514914 66.72455 49.69921
0001f0 52 aa 76 42 de 48 06 42 f5 1c d1 42 a7 ab 2c 42
       61.66633 33.57116 104.55656 43.16763
000200 06 af 24 42 b7 d6 15 42 a1 b5 6b 42 fc 94 9d 42
       41.17092 37.459682 58.927372 78.790985
000210 08 a9 f3 41 5c a9 e4 42 ff b5 88 42 de 8c 96 42
       30.457535 114.33078 68.35546 75.27513
000220 87 d5 c7 42 a2 3f 73 42 d6 04 b0 41 c8 ae 9c 42
       99.917046 60.81214 22.002361 78.34137
000230 6b c8 72 42 03 2a e9 41 61 e7 a8 42 94 60 a8 42
       60.69572 29.145514 84.45191 84.18863
000240 f9 0d d3 42 54 92 07 42 7e 22 b3 42 70 99 aa 41
       105.52729 33.8929 89.56737 21.32492
000250 73 4a c1 42 c6 7b 99 42 7a 5a b9 42 7b ab 8b 42
       96.64541 76.741745 92.67671 69.83492
000260 66 a0 e2 42 9d 56 61 42 ac b0 72 42 fd 8b bc 41
       113.31328 56.334583 60.67253 23.568354
000270 3e f9 af 42 5e 88 46 42 0f c2 a3 42 af dd a5 42
       87.9868 49.63317 81.87902 82.932976
000280 61 ae 82 42 30 f2 26 43 af 7b 08 43 cd f0 10 42
       65.34058 166.94604 136.48314 36.235157
000290 90 3f 3e 42 88 13 23 42 33 c1 26 42 f7 5f a5 42
       47.562073 40.769073 41.68867 82.68743
0002a0 5e 04 90 42 7b bf 14 42 83 f1 99 42 fc 92 64 42
       72.00853 37.186993 76.9717 57.14354
0002b0 bd 6d 0f 42 46 3a 27 42 1a c7 4d 42 f0 ba 99 41
       35.857166 41.806908 51.444435 19.216278
0002c0 39 6f 64 42 a3 8b 3d 42 43 af c3 41 40 a2 bd 42
       57.108616 47.386364 24.460577 94.816895
0002d0 3d c9 04 42 4b 17 b2 42 42 a0 20 42 f3 bf 52 42
       33.19652 89.045494 40.1565 52.68745
0002e0 23 9d 8a 42 7d 6a 52 42 7b 34 25 42 5f 5b 89 42
       69.30691 52.603992 41.30125 68.67846
0002f0 c4 87 1b 42 32 bb 10 42 be 46 05 42 e0 08 28 42
       38.882584 36.182808 33.319084 42.008667
000300 70 ab 17 42 ea c5 2c 42 02 5c 6e 42 88 02 7f 42
       37.91742 43.193275 59.58985 63.752472
000310 8d 28 66 42 c4 35 ee 41 ac 1f e8 42 c7 2b da 41
       57.5396 29.776253 116.06186 27.271376
000320 5d 64 14 42 da 47 da 42 49 84 d1 42 71 3d 91 42
       37.09801 109.140335 104.75837 72.62
000330 97 e4 51 42 f8 6c f6 42 6c f0 88 42 e7 b5 aa 42
       52.473232 123.21283 68.469574 85.35528
000340 f1 bd 47 42 65 55 00 42 bc 3c 69 42 53 ce 80 42
       49.93549 32.083393 58.30931 64.40298
000350 9a b5 0d 42 73 68 cc 41 39 48 6d 42 17 9f 26 42
       35.427345 25.551 59.32053 41.65536
000360 a2 03 8c 42 d8 09 44 42 dc 9d 34 42 ca ff 9c 42
       70.007095 49.009613 45.15416 78.49959
000370 2c d8 f3 41 c3 65 ab 42 af 5f 8c 42 21 01 04 42
       30.480553 85.69875 70.18688 33.001102
000380 b2 38 ca 42 11 2f 65 41 e0 2e 8a 42 66 5f 74 42
       101.11073 14.323991 69.09155 61.093163
000390 d7 5b a6 42 49 1d 8c 42 11 04 85 42 eb e4 db 42
       83.179375 70.0572 66.50794 109.947105
0003a0 f3 06 59 41 d4 68 90 42 3c 2d 23 42 80 37 b2 41
       13.564197 72.20474 40.794174 22.2771
0003b0 35 f7 ea 41 0a 95 50 42 27 b3 1d 42 c2 a0 58 42
       29.370707 52.145546 39.424953 54.15699
0003c0 d0 83 db 42 18 23 34 42 a4 05 9e 42 25 65 e6 42
       109.75745 45.03427 79.01102 115.19755
0003d0 27 63 23 42 7d b9 ac 42 8c 73 9b 42 e9 29 c9 41
       40.84683 86.36228 77.72568 25.145464
0003e0 eb 55 b5 42 83 b8 f3 42 b7 ae 2a 42 f3 69 8e 42
       90.66781 121.860374 42.67062 71.20693
0003f0 d5 ae 4a 42 79 de e6 41 87 3c 8d 42 37 a0 ae 42
       50.670734 28.85863 70.61822 87.31292
