checkpoints/D_epoch_60.pth (torch, 843938 bytes, 48 tensors)

gnn_node.node_encoder.weight f4 [1, 128]
0	0x3ebaa97d	0.36457434
1	0xbce5c13a	-0.02804624
2	0x3e1508a1	0.14554073
3	0x3e1809f8	0.14847553
4	0x3fa3296d	1.2747017
5	0xbea98800	-0.33111572
6	0xbeef674c	-0.46758497
7	0x3eddd80b	0.4332889
8	0x3f028e2f	0.50998205
9	0xbbfe66eb	-0.0077637336
10	0xbf85f585	-1.0465552
11	0x3db340e6	0.08752613
12	0xbf443df8	-0.76657057
13	0x3f22c954	0.6358845
14	0xbf9af15f	-1.2104911
15	0xbf917a95	-1.1365534
16	0xbeff49d6	-0.4986102
17	0xbf1121a2	-0.56691945
18	0x3f58a848	0.84631777
19	0x3ea61784	0.32439816
20	0xbf956db9	-1.167411
21	0x3df64f6d	0.12026868
22	0xbe1b23e8	-0.15150416
23	0x3ded0142	0.115725055
24	0xbf734e4e	-0.9504136
25	0x3eefd859	0.46844748
26	0xbd847a0f	-0.06468593
27	0x3f66545c	0.8997247
28	0x3e34001e	0.1757817
29	0xbf5bba2b	-0.85830945
30	0xbf2e4bda	-0.6808449
31	0x3f89c874	1.0764298
32	0xbf039b40	-0.5140877
33	0x3e43394f	0.1906483
34	0x3e75c836	0.24002156
35	0x3e850b2a	0.2598508
36	0x3f99657b	1.1984094
37	0x3f00d6c8	0.5032773
38	0x3e5ede4f	0.21764491
39	0x3f6e3e7a	0.9306408
40	0xbe8b0dcb	-0.2715896
41	0xbe4e65bc	-0.20155996
42	0xbfe10a26	-1.7581222
43	0xbfd713bd	-1.6802899
44	0xbe79918d	-0.2437193
45	0x3f80ec64	1.0072141
46	0xbe8ac1c4	-0.27100956
47	0x3df0ea95	0.11763493
48	0xbf8d7faf	-1.1054591
49	0xbfa9aa76	-1.3255146
50	0x3f9e52df	1.236904
51	0xc005b6a3	-2.0892723
52	0xbe86f254	-0.26356757
53	0x3eeb1f4a	0.4592231
54	0x3e04b2f7	0.12958895
55	0xbf92dabf	-1.1473006
56	0x3ec5ee50	0.3865838
57	0xbf233d23	-0.6376516
58	0xbf8c2cc5	-1.0951163
59	0x3f39531b	0.72392434
60	0x3d8c9f51	0.06866325
61	0xbd647eb7	-0.055784907
62	0x3f357fd5	0.7089818
63	0xbf4f653a	-0.81013834
64	0xbf9ad031	-1.2094785
65	0x3f35be4f	0.7099351
66	0xbf174f4a	-0.5910536
67	0x4011e95e	2.2798686
68	0x3f825ee0	1.0185204
69	0xbea8b751	-0.3295236
70	0x3f7f9517	0.9983687
71	0xbef5dd1d	-0.4802026
72	0x3ec91f17	0.39281532
73	0x3ca3b424	0.019983359
74	0x3e8297cb	0.25506434
75	0xbe8540c8	-0.26025987
76	0xbfa727e3	-1.3059047
77	0xbe1805c8	-0.14845955
78	0xbf6cb0de	-0.9245738
79	0xbf0be1d9	-0.5464149
80	0x3e6a3227	0.22870694
81	0xbf8056be	-1.0026472
82	0x3d707d66	0.05871334
83	0xbe6563cf	-0.22401355
84	0xbfeb6579	-1.8390342
85	0x3e1d445e	0.15358111
86	0xbda02c7e	-0.07820986
87	0xbc46b664	-0.012128446
88	0x3e0d19e2	0.13779405
89	0xbf8186bd	-1.0119244
90	0x3f072da0	0.52803993
91	0x3d4e4c6f	0.05036586
92	0x3e3246bd	0.17409797
93	0x3e34f887	0.1767293
94	0xbf8c973f	-1.0983657
95	0x3eb9879e	0.3623628
96	0xbfcd82ed	-1.605558
97	0xbf86b4dd	-1.0523945
98	0xbdf561ae	-0.119815215
99	0xbba2e236	-0.004970814
100	0x3f40f19e	0.7536868
101	0xbe08f7ad	-0.13375731
102	0xbe1bb3d3	-0.15205316
103	0x3ed5c82a	0.41754276
104	0xbd69a249	-0.057039533
105	0x3d3feede	0.04685866
106	0xbfff6680	-1.9953156
107	0xbe2cce24	-0.16875511
108	0xbf8b58c5	-1.0886465
109	0xbfaa87d8	-1.3322706
110	0xbf53c12a	-0.8271662
111	0xc002563e	-2.0365138
112	0x3eb74450	0.35794306
113	0x3f83b505	1.0289618
114	0x3f146c7b	0.5797803
115	0x3e168ab2	0.14701346
116	0x3f1a5b0a	0.60295165
117	0xbe6574a8	-0.22407782
118	0xbdc4c2f4	-0.09607497
119	0x3c147d0a	0.009063015
120	0x3d87cb15	0.06630532
121	0xbf6e25d7	-0.9302649
122	0x3ea2eb7a	0.3182028
123	0x3f559e26	0.8344444
124	0xbf070136	-0.5273622
125	0x3f0a4169	0.5400606
126	0xbf6770bb	-0.9040639
127	0xbfa91b84	-1.3211522

gnn_node.virtualnode_embedding.weight f4 [1, 128]
0	0xbf0e5aef	-0.55607504
1	0xbf2a7b75	-0.6659463
2	0xbd2b9e7c	-0.04189919
3	0xbe306d0a	-0.17229095
4	0xbf13b74e	-0.57701576
5	0x3c5bd6c8	0.013417907
6	0xbf04f87d	-0.51941663
7	0xbf1156fc	-0.5677335
8	0xbf50574b	-0.813832
9	0x3cbf76e4	0.023372121
10	0xbe0d8536	-0.13820347
11	0xbeb74703	-0.35796365
12	0xbe2238ad	-0.15841933
13	0xbf340078	-0.70313215
14	0xbe5c543e	-0.21516511
15	0xbe195abc	-0.14976019
16	0xbe17ce6b	-0.14824836
17	0xbeccdb73	-0.40011176
18	0xbeef2226	-0.4670574
19	0xbec60f61	-0.38683608
20	0xbe87e200	-0.26539612
21	0xbb0b30d4	-0.002123882
22	0xbe8c096b	-0.27350935
23	0xbefeae12	-0.4974218
24	0xbd4b1eac	-0.049589798
25	0xbd7bbd0e	-0.061459593
26	0xbee74cbb	-0.45175728
27	0xbf3b5747	-0.7318005
28	0xbf25da44	-0.6478617
29	0xbe1dea0a	-0.1542131
30	0xbe6dedd4	-0.23235255
31	0xbf4914d9	-0.78547436
32	0xbe5b9dd0	-0.2144692
33	0xbf2ead7c	-0.68233466
34	0xbeec622a	-0.46168643
35	0xbe5b55a6	-0.21419391
36	0xbf33b1a0	-0.7019291
37	0xbeae35ea	-0.34025508
38	0xbe85b8a2	-0.26117426
39	0xbf13f0ca	-0.5778929
40	0x3d1bb398	0.03801307
41	0xbe032dbc	-0.12810415
42	0xbd8b1044	-0.06790212
43	0xbf39a81f	-0.7252216
44	0xbf1b2194	-0.6059811
45	0xbedab5b2	-0.42716748
46	0xbeb680f9	-0.35645273
47	0xbefdb437	-0.49551556
48	0xbea601f3	-0.32423362
49	0x3e502216	0.20325503
50	0xbf289de6	-0.65865934
51	0xbe8a9ca7	-0.2707264
52	0xbdc37957	-0.09544628
53	0xbf26e2ef	-0.65190023
54	0xbf026be1	-0.5094586
55	0xbdaa3086	-0.08310036
56	0xbee62519	-0.44950178
57	0xbed90758	-0.42388415
58	0xbed1eabc	-0.409994
59	0xbf40c33e	-0.75297916
60	0xbe25080b	-0.1611635
61	0xbebb7162	-0.36609942
62	0xbe960d76	-0.29307145
63	0xbe9f528d	-0.3111767
64	0xbf461fd8	-0.7739234
65	0xbf118427	-0.56842273
66	0xbe1d8e4b	-0.15386312
67	0xbf6be4eb	-0.92146176
68	0xbeb186c9	-0.34673145
69	0xbba756f9	-0.0051068035
70	0xbf355578	-0.7083354
71	0xbe5ca569	-0.21547474
72	0xbddeae78	-0.10873121
73	0xbd996337	-0.07489627
74	0xbf0d888c	-0.5528648
75	0xbe355a70	-0.1771028
76	0xbef4e72b	-0.47832617
77	0xbec3859c	-0.38187873
78	0xbe43fffb	-0.19140618
79	0x3dbf483e	0.09339951
80	0xbebc7f3e	-0.36815828
81	0xbdd1e5a1	-0.10248876
82	0xbebcdc37	-0.3688676
83	0xbe5b2f3c	-0.21404737
84	0xbe6935af	-0.22774385
85	0xbec5009e	-0.38477033
86	0xbe919209	-0.28431728
87	0xbe95958c	-0.29215658
88	0xbea8ae07	-0.32945272
89	0xbe0e022d	-0.13868017
90	0xbe6e5239	-0.23273553
91	0xbe924227	-0.28566095
92	0xbeffea6b	-0.49983534
93	0xbec6fbdc	-0.38864028
94	0xbec8fc8f	-0.39255187
95	0x3d35f92f	0.044427093
96	0xbd87d30f	-0.06632053
97	0xbe943382	-0.28945547
98	0xbea18fd5	-0.31555048
99	0xbe9f997e	-0.31171793
100	0xbeacb33f	-0.33730504
101	0x3c491207	0.012272364
102	0xbec68f84	-0.3878137
103	0xbf3ac2ce	-0.729535
104	0xbe949251	-0.2901788
105	0xbf43bacf	-0.7645692
106	0x3d217e12	0.03942687
107	0xbe40cdf8	-0.18828571
108	0x3ce19efb	0.027541628
109	0xbe01dcd7	-0.126819
110	0xbe6ef5de	-0.23335978
111	0x3dd556e9	0.104169674
112	0xbf105960	-0.56386375
113	0xbef16241	-0.47145274
114	0xbf199bd5	-0.60003406
115	0xbf632413	-0.8872692
116	0xbf2cf0b7	-0.675548
117	0x3d953cd5	0.072869934
118	0xbed940b5	-0.4243218
119	0xbead2ee8	-0.3382485
120	0xbebd0747	-0.36919615
121	0xbeb94d30	-0.36191702
122	0xbe1820e4	-0.14856297
123	0xbe1da1a8	-0.15393698
124	0xbed0b58a	-0.40763503
125	0xbf0da04c	-0.5532272
126	0xbd5c269b	-0.053747755
127	0xbddcd35c	-0.10782501

gnn_node.convs.0.mlp.0.weight f4 [256, 128]
0	0xbccc3f5d	-0.024932558
1	0xbe50358d	-0.20332928
2	0xbf1f7534	-0.6228821
3	0xbf5ba076	-0.8579172
4	0xbd6c4e9d	-0.05769216
5	0xbe51566b	-0.20443122
6	0xbeb0b56d	-0.34513417
7	0xbe88b6b7	-0.267019
8	0x3c9fe5e3	0.019518798
9	0xbf977ee4	-1.1835599
10	0xbc675e2f	-0.014121576
11	0xbecb7062	-0.3973418
12	0x3705d55a	7.9770925e-06
13	0x3bef7ce8	0.007308591
14	0x3d89e1ed	0.06732545
15	0xbca6ebea	-0.020376164
16	0xbce74fe7	-0.028236343
17	0xbe759da5	-0.23985918
18	0xbe4e4e0e	-0.20146963
19	0xbea47a28	-0.32124448
20	0xbd6d3aeb	-0.057917517
21	0x3e502d43	0.20329766
22	0xbe75c3bb	-0.24000446
23	0xbe6f4afe	-0.23368451
24	0x3ec153ef	0.3775935
25	0x3f0f92b5	0.5608323
26	0x3dec62b3	0.11542263
27	0xbc2cda88	-0.010550149
28	0xbe46b509	-0.19404997
29	0x3e3d9666	0.18514404
30	0x3ee4f5b9	0.44718722
31	0xbe5b060a	-0.21389022
32	0xbfd4981b	-1.6608919
33	0xbde8151f	-0.113321535
34	0x3d7c26d5	0.06156047
35	0xbe2415b3	-0.16023903
36	0xbba6a122	-0.0050851265
37	0xbf03676a	-0.5132967
38	0xbe686447	-0.22694503
39	0x3c748b44	0.014925782
40	0x3ec46dcf	0.38365027
41	0xbfac2e57	-1.3451642
42	0xbdba78ff	-0.091051094
43	0x3df723f3	0.12067404
44	0x3d9af75f	0.075667135
45	0x3ec9205f	0.3928251
46	0x3d8cedd4	0.068812996
47	0x3f645f23	0.8920767
48	0xbe717f48	-0.2358371
49	0xbcd54df1	-0.026038142
50	0xbc6dd4d5	-0.014516075
51	0x3d7cf8a1	0.06176055
52	0xbd6a8a8f	-0.057261046
53	0xbddc986a	-0.10771258
54	0xbe3c0d93	-0.18364553
55	0xbd7f3565	-0.06230678
56	0x3d68bee8	0.056822687
57	0xbd41e3ef	-0.047336515
58	0xbbcacc5e	-0.0061889132
59	0xbe78644d	-0.24257012
60	0x3ecbde3a	0.39817983
61	0xbdc72c37	-0.0972523
62	0x3ea12f1b	0.3148125
63	0xbdafefa9	-0.085906334
64	0x3d90552c	0.07047495
65	0xbebd6bf2	-0.36996418
66	0xbd978abf	-0.073995106
67	0xbe05a8c7	-0.13052665
68	0x3ebb1055	0.36535898
69	0xbe5eed15	-0.21770127
70	0xbed14afe	-0.40877527
71	0x3e4e5150	0.20148206
72	0xbe1d074d	-0.15334816
73	0xbce2540e	-0.027627971
74	0xbcffb0e4	-0.031212278
75	0x3ee10898	0.4395187
76	0xbd352419	-0.04422388
77	0x3e1a98e9	0.15097393
78	0x3d8be517	0.06830805
79	0xbf37b009	-0.71752983
80	0xbebbce74	-0.3668095
81	0xbd81894e	-0.06325017
82	0x3d52823a	0.051393725
83	0x3f064be1	0.5245953
84	0xbcb08b23	-0.02155072
85	0xbf388eaf	-0.7209272
86	0xbfef227b	-1.8682398
87	0xbf0a5091	-0.54029185
88	0x3ea75318	0.32680583
89	0x3e08247a	0.13295165
90	0xbf15bb63	-0.58489054
91	0xbea41c58	-0.32052875
92	0xbe190bd5	-0.1494592
93	0xbe55e5b3	-0.20888405
94	0x3cc5b0b8	0.024132118
95	0x3da08af2	0.07839002
96	0xc00780a5	-2.1172268
97	0x3cc1c07a	0.02365135
98	0xbf81f71d	-1.0153538
99	0xbf054dd6	-0.52071893
100	0xbda5ba69	-0.080921955
101	0xbe0e09e1	-0.13870956
102	0xbf462d63	-0.77413005
103	0xbe5b28af	-0.21402238
104	0xbe48a99c	-0.19595951
105	0xbe8609f9	-0.26179484
106	0x3d688d96	0.056775652
107	0x3e10ea6a	0.14151922
108	0x3e0d1aaa	0.13779703
109	0xbe290dde	-0.16509196
110	0x3f8bd83b	1.0925363
111	0x3c50a553	0.012734729
112	0xbec4ee0e	-0.3846287
113	0xbe2d2ee2	-0.16912416
114	0xbe2dcb34	-0.16972047
115	0xbe488dc7	-0.19585334
116	0xbea3c618	-0.3198707
117	0xbc3efe48	-0.011657305
118	0xbf1a146e	-0.60187423
119	0x3ec631d0	0.3870988
120	0x3e37f550	0.17964673
121	0xbede11e3	-0.4337302
122	0xbe53ce3f	-0.20684145
123	0xbf73a01e	-0.95166194
124	0x3e1cbccf	0.153064
125	0x3c4de180	0.01256597
126	0x3b959733	0.0045651435
127	0x3b05ae9f	0.0020398272
128	0x3dd601d0	0.104495645
129	0x3e440bda	0.19145146
130	0x3dd3b4c7	0.10337215
131	0x3f0eca8d	0.5577782
132	0x3da9883b	0.08277937
133	0x3eba7691	0.36418584
134	0x3e1b8439	0.15187158
135	0x3e1b4f9c	0.15167087
136	0x3e0555ce	0.13021013
137	0x3e18108c	0.14850062
138	0xbd0be3e7	-0.03415289
139	0x3e26a6f8	0.16274631
140	0xbd676b46	-0.05649879
141	0xbd80793d	-0.06273124
142	0xbc2d2d01	-0.010569812
143	0x3d0c8807	0.034309413
144	0x3d073f45	0.033019323
145	0xbbc70088	-0.0060730614
146	0x3e012a83	0.12613873
147	0x3cc57302	0.024102692
148	0x3b974659	0.0046165404
149	0x3df2898b	0.118426405
150	0xbe30f545	-0.17281063
151	0xbc32dfb9	-0.010917597
152	0x3c4f08ae	0.012636347
153	0x3f03ee45	0.51535445
154	0x3de335b5	0.11094228
155	0x3e1f1f91	0.15539385
156	0x3e3e37c5	0.18575962
157	0xbbd50cf3	-0.006501788
158	0xbd69ef3c	-0.057112917
159	0x3d503d35	0.05083962
160	0xbedbc0e2	-0.42920595
161	0x3e7d022a	0.24707857
162	0x3baedf46	0.005336675
163	0x3d614a9d	0.055002797
164	0x3dbbd717	0.091718845
165	0x3e3ac956	0.18240866
166	0x3e50d25e	0.20392749
167	0x3e07c306	0.1325799
168	0xbe74f373	-0.23920994
169	0x3d9de3fa	0.07709499
170	0x3c1db9d1	0.009626822
171	0x3d014382	0.03155852
172	0x3e28e0c9	0.16491999
173	0x3d7fc8fc	0.062447533
174	0x3e48edef	0.19622014
175	0x3e402f25	0.18767984
176	0xbdeb326b	-0.11484226
177	0xbd8d092e	-0.068865165
178	0x3c881d2f	0.016615478
179	0xbd4cc990	-0.049996912
180	0x3ed6bd41	0.41941264
181	0xbd9f691a	-0.077837184
182	0x3d8de675	0.06928722
183	0x3d9ffa20	0.078113794
184	0x3dbc82c2	0.092046276
185	0xbb17bf24	-0.00231547
186	0x3d8d8d47	0.06911712
187	0x3e35efae	0.17767212
188	0xbf20eb2b	-0.6285884
189	0xbd91122a	-0.07083543
190	0xbdc7f0db	-0.097627364
191	0x3d5636dd	0.052298415
192	0x3d0d4883	0.03449298
193	0x3e3266f3	0.17422085
194	0xbd5131b8	-0.051072806
195	0x3e3385d8	0.17531526
196	0x3e20e810	0.15713525
197	0x3ee906cf	0.45513007
198	0x3d32f331	0.043688957
199	0xbf39563a	-0.72397196
200	0xbccc1de1	-0.024916591
201	0x3ed52b70	0.41634703
202	0x3d6c4f38	0.057692736
203	0xbde0a988	-0.109698355
204	0x3d808806	0.062759444
205	0x3e800508	0.2500384
206	0xbf103817	-0.56335586
207	0xbdf5f219	-0.12009067
208	0x3e92b595	0.2865416
209	0x3ef77d52	0.483378
210	0x3e209b80	0.15684319
211	0x3f6110e7	0.87916416
212	0xbd901c69	-0.07036669
213	0xbdb5cefd	-0.088773705
214	0x3d8e46c1	0.06947089
215	0x3e6f6166	0.23376998
216	0x3d716893	0.05893762
217	0xbdcd25af	-0.10016953
218	0x3e088cc0	0.13334942
219	0x3f078d0c	0.52949595
220	0xbe53c3ec	-0.20680207
221	0x3e4e8f54	0.20171863
222	0xbda3a1da	-0.07989855
223	0x3db0da2d	0.08635364
224	0xbeb746a1	-0.35796073
225	0x3d9fd0ab	0.07803472
226	0x3de6011b	0.112306796
227	0xbb58e4c7	-0.0033095346
228	0xbbd7da13	-0.006587276
229	0x3f10041d	0.56256276
230	0x3dff018f	0.12451469
231	0x3db90fd3	0.09036221
232	0x3deec454	0.1165854
233	0x3e5cb1c3	0.21552186
234	0x3d1ec827	0.0387651
235	0x3ef85512	0.48502403
236	0xbd8c6d29	-0.06856758
237	0x3d460f7b	0.048354607
238	0xbe82a713	-0.25518093
239	0x3d445185	0.047929306
240	0x3e6efd3c	0.23338789
241	0xbc5aadca	-0.013347099
242	0x3e38ba38	0.18039787
243	0x3ca733ae	0.020410385
244	0x3dcb4dc8	0.09926945
245	0x3f00375e	0.50084484
246	0x3e3face3	0.18718295
247	0x3e6e61f8	0.2327956
248	0x3db9c1bd	0.09070156
249	0xbec84ba4	-0.3912021
250	0x3e1babba	0.15202227
251	0x3d97668b	0.073926054
252	0x3e1141dd	0.14185281
253	0x3dd6bb40	0.10484934
254	0x3d0f33b9	0.034961436
255	0xbc0cb8b0	-0.008588955

gnn_node.convs.0.mlp.0.bias f4 [256]
0	0xbc9ae200	-0.018906593
1	0x3d9287c0	0.071547985
2	0xbd7d774e	-0.061881356
3	0xbc409e7a	-0.011756534
4	0xbce9eedd	-0.028556282
5	0x3d38adce	0.045087628
6	0x3c05a76a	0.00815759
7	0x3c53fdd5	0.012938936
8	0xbd90dc3f	-0.070732586
9	0xbc8175a6	-0.01580317
10	0xbd930b91	-0.071799405
11	0xbd3bcbdf	-0.045848724
12	0xbdb7dfd5	-0.089782394
13	0x3d33b713	0.043875765
14	0xbcec435f	-0.028840719
15	0xbd9380c7	-0.07202297
16	0x3ca4ebf7	0.020132048
17	0x3d470034	0.048584178
18	0xbd2ba2d5	-0.041903336
19	0x3b31d02c	0.0027132137
20	0x3daf7dc8	0.08568913
21	0x3d170f2e	0.03687971
22	0xbd2c6182	-0.04208518
23	0x3d8bcda0	0.06826329
24	0xbc58e3a4	-0.0132378675
25	0xbd1613a5	-0.03663983
26	0x3d37d75f	0.04488313
27	0x3db2ab5b	0.0872409
28	0xbcd02305	-0.025407324
29	0x3ccb36ee	0.024806466
30	0x3d7a2090	0.06106621
31	0xbd9aaeb1	-0.07552851
32	0xbd09aef2	-0.033614106
33	0xbd437401	-0.04771805
34	0x3cda1bba	0.02662455
35	0x39751189	0.00023371553
36	0x3d599c26	0.05312743
37	0xbc452307	-0.012032277
38	0xbd9d14ba	-0.07669969
39	0xbd5f572f	-0.054526504
40	0x3d0df8cf	0.03466111
41	0x3d003f9b	0.03131066
42	0x3d0422d6	0.032259785
43	0x3ca1d641	0.019755485
44	0xbd18d532	-0.037312694
45	0xbdadea4a	-0.08491953
46	0xbd9864d6	-0.07441108
47	0xbd2c229e	-0.0420252
48	0x3d8fddd9	0.07024736
49	0xbd82ea51	-0.063923486
50	0x3d63ac62	0.05558432
51	0xbc15fc0a	-0.009154329
52	0x3ced7017	0.028984113
53	0x3d83d7d1	0.06437648
54	0x3d746380	0.059665203
55	0x3d326910	0.043557227
56	0x3d922d70	0.07137573
57	0xbcb8cf08	-0.022559658
58	0xbc93aaa1	-0.018025698
59	0xbcf7d6f8	-0.030253872
60	0x3ccc32cb	0.024926564
61	0x3cb0c99f	0.021580515
62	0xbdb5321d	-0.08847449
63	0x3cb76122	0.022385184
64	0x3d800afe	0.062520966
65	0xbd4f953d	-0.050679434
66	0x3cc29362	0.023751918
67	0x3d0ad037	0.033889975
68	0xbd769c9b	-0.060207944
69	0x3b9b4e1e	0.004739537
70	0x3d93f156	0.072237656
71	0x3c09177b	0.008367415
72	0x3d8ec49e	0.069710955
73	0xbcd2c9ad	-0.025730932
74	0x3ad7d736	0.0016467336
75	0x3d7399ac	0.059472725
76	0xbdae0ecd	-0.08498917
77	0x3cf938f8	0.030422673
78	0xbcd4848a	-0.025942106
79	0xbd907504	-0.07053569
80	0x3db2e83d	0.08735702
81	0x3d5010ba	0.0507972
82	0xbc7decb1	-0.015498326
83	0x3d985eac	0.07439932
84	0x3ccc0fc0	0.024909854
85	0xbd7a0721	-0.061041955
86	0x3c7ff032	0.015621232
87	0xbd487a72	-0.048944898
88	0x3d030313	0.031985354
89	0x3d280ac4	0.041025892
90	0x3d865132	0.065584555
91	0x3d767dc5	0.060178537
92	0xbb877f5d	-0.004135056
93	0xbd097a29	-0.033563767
94	0x3cf3cdeb	0.029761275
95	0x3db0d0a0	0.08633542
96	0x3da9d4a0	0.08292508
97	0x3d9c80f2	0.07641782
98	0x3d76690a	0.060158767
99	0xbd67f5e2	-0.056630976
100	0x3da9da80	0.08293629
101	0xbd3283a2	-0.043582566
102	0x3c07de30	0.00829272
103	0x3cc68def	0.024237601
104	0xbb094cc9	-0.0020950309
105	0x3ae9a31f	0.0017825103
106	0xbda87b4b	-0.08226641
107	0xbbe5e142	-0.007015378
108	0x3d4ae150	0.04953128
109	0x3d03a416	0.032138906
110	0x3cabe7de	0.020984586
111	0xbc2266f1	-0.009912238
112	0x3b56e3b9	0.0032789542
113	0x3b522b85	0.0032069397
114	0xbd37deb4	-0.04489012
115	0x3d7193ee	0.058978967
116	0x3d00a984	0.031411663
117	0x3dba04b5	0.09082929
118	0x3c62000b	0.013793956
119	0xbd45527d	-0.04817437
120	0x3d6ee954	0.058327988
121	0x3d751cfc	0.059842095
122	0xbd0eb44e	-0.03483992
123	0x3d03122c	0.031999752
124	0xbb12578a	-0.002233001
125	0x3d34ccf8	0.044140786
126	0x3cd3320b	0.025780698
127	0xbd3e620a	-0.046480216
128	0xbab0736d	-0.0013462134
129	0xbd73085d	-0.059334148
130	0xbc758ed0	-0.014987662
131	0x3d1eec6c	0.03879969
132	0xbd87aa3a	-0.06624265
133	0xbdb2a0e0	-0.08722091
134	0x3c913663	0.017726129
135	0x3ccbdd31	0.024885746
136	0x3d645f44	0.055754915
137	0x3c9fa2e8	0.01948686
138	0xbdaa5753	-0.08317437
139	0xbd84e2ea	-0.06488593
140	0xbd695167	-0.056962397
141	0xbd8a3c10	-0.06749737
142	0xbcb229af	-0.021748392
143	0x3d75f241	0.060045484
144	0x3d0cf442	0.03441263
145	0x3d96deee	0.07366739
146	0xbd2418fb	-0.040062886
147	0xbb8387f3	-0.004014009
148	0xbc8b8ec4	-0.01703585
149	0x3c90f88b	0.01769664
150	0xbd2f6873	-0.04282422
151	0x3d892e55	0.0669829
152	0xbd427994	-0.047479227
153	0xbc8279e4	-0.015927263
154	0x3a172196	0.00057651976
155	0xbdadb4d6	-0.08481757
156	0xbd872199	-0.06598205
157	0x3d393c00	0.045223236
158	0xbd785c69	-0.060635004
159	0xbd75d313	-0.06001575
160	0x3d5e91c3	0.054338228
161	0x3d081eb1	0.033232395
162	0x3ab1492c	0.0013525835
163	0xbb100a8c	-0.0021978943
164	0x3cce60fc	0.02519273
165	0x3d6cf566	0.057851218
166	0xbdb55606	-0.08854298
167	0x3c27b961	0.010237069
168	0xbd741af2	-0.05959601
169	0x3d734b63	0.059398066
170	0x3c939576	0.018015604
171	0xbcd55944	-0.026043542
172	0x3d176c67	0.036968615
173	0x3d95ee4b	0.073208414
174	0x3b404abf	0.0029341427
175	0x3d9e87ea	0.07740767
176	0x3c674e9f	0.014117866
177	0x3d152022	0.036407597
178	0xbd9b0fbd	-0.07571361
179	0x3d8c6795	0.06855694
180	0xbcf0da7b	-0.029401055
181	0x3cece269	0.028916555
182	0x3d60c0ca	0.054871358
183	0xbbb8beaf	-0.0056379656
184	0xbd56b08c	-0.052414462
185	0x3d8a9c1d	0.067680575
186	0x3d898d71	0.06716431
187	0xbc3dbe17	-0.0115809655
188	0xbb2dab9f	-0.00265
189	0xbc2568df	-0.010095804
190	0xbcdcc874	-0.026951052
191	0xbda3b156	-0.079928085
192	0xbd81fad7	-0.06346672
193	0xbcdf60dc	-0.027267866
194	0x3d9e9994	0.077441365
195	0xbb4cbf9a	-0.0031242133
196	0x3cd643f3	0.026155448
197	0x3d853985	0.065051116
198	0xbbd29107	-0.00642598
199	0x3ae87f4f	0.0017738136
200	0x3ce0233c	0.027360551
201	0x3d276205	0.040864963
202	0x396bcdf2	0.00022488067
203	0xbd4a0944	-0.049325243
204	0xbd8dfc7d	-0.06932924
205	0xbd4b8f15	-0.049697
206	0x3d7dd6cb	0.06197242
207	0x3d293fe8	0.04132071
208	0xbd8922a6	-0.06696062
209	0xbd33d07f	-0.04390001
210	0xbc814d26	-0.015783858
211	0x3d6d56e6	0.0579442
212	0x3c1f89a1	0.009737403
213	0xbd2e0515	-0.042485315
214	0xbd9a0ef8	-0.07522386
215	0xbd3377a1	-0.04381526
216	0xbd66add3	-0.056318115
217	0x3d2f8377	0.042849984
218	0x3bfe56b0	0.007761799
219	0xbd19d9b3	-0.03756113
220	0xbd39cb7b	-0.04536007
221	0x3d840f74	0.0644826
222	0x3da31c06	0.079643294
223	0xbdaff93a	-0.08592458
224	0x3d5fabfc	0.054607376
225	0x3b9bd9e6	0.0047562
226	0x3dacc172	0.08435334
227	0xbda8ce05	-0.0824242
228	0x3d0d680f	0.034523066
229	0x3cf0e468	0.029405788
230	0xbbd7676d	-0.0065736086
231	0xbd92a196	-0.07159726
232	0xbd561a57	-0.052271213
233	0x3cad7a66	0.021176528
234	0xbd576fc4	-0.052596822
235	0x3cc056a8	0.02347882
236	0x3d9f1588	0.07767779
237	0xbc9174fa	-0.017755974
238	0x3d74ad6b	0.059735697
239	0xbc77472f	-0.015092655
240	0xbd5d8f96	-0.054092012
241	0x3daa3146	0.083101794
242	0xbc1a6e56	-0.00942572
243	0x3b66587c	0.0035147956
244	0xbd032b11	-0.032023493
245	0x3d15462a	0.036443867
246	0x3cc5c53e	0.024141904
247	0xbda20725	-0.07911519
248	0xbdaf79d9	-0.085681625
249	0x3cff3edb	0.031157902
250	0x3ce63f16	0.028106254
251	0xbd8c309c	-0.06845209
252	0x3d3a28d5	0.045449097
253	0x3d1dd975	0.03853746
254	0xbd8d52ea	-0.0690058
255	0x3c28a654	0.010293562

gnn_node.convs.0.mlp.1.weight f4 [256]
0	0x3fce9353	1.613871
1	0x3bf1b6b7	0.0073765176
2	0x3f8a784d	1.0817963
3	0x3f5b4a56	0.856603
4	0x3e9ee57a	0.31034452
5	0x3f38f6c1	0.72251517
6	0x3fca0054	1.578135
7	0x3fb8d3ba	1.4439614
8	0x3f8bf2f0	1.0933514
9	0x3fa5d009	1.2954112
10	0x3fbd91e7	1.4810151
11	0x3c3f1715	0.011663218
12	0x3f7b7cbf	0.9823722
13	0x3e917991	0.2841306
14	0x3ea228e9	0.31671837
15	0x3f846d5a	1.0345871
16	0x3f1bad71	0.60811526
17	0x3faef78e	1.3669298
18	0x3fdee58b	1.7413801
19	0x3f800333	1.0000976
20	0x3f3f8bc2	0.7482263
21	0x3fbacb09	1.4593211
22	0x3e0dd0e0	0.1384921
23	0x3e856cf3	0.26059684
24	0x3f6d4a5c	0.9269159
25	0x3f9d5c76	1.2293842
26	0x3f8d5a3b	1.1043161
27	0x3f087db9	0.5331684
28	0x3fcaf55e	1.585613
29	0x3f9d70c6	1.2300041
30	0x3f9c2b00	1.2200623
31	0x3f98714b	1.1909574
32	0x3ff0ea42	1.882149
33	0x3fb23d64	1.3924985
34	0x3fd95085	1.6977698
35	0x3c3d2f31	0.011546896
36	0x3e813243	0.2523366
37	0x3ea8459d	0.3286561
38	0x3f9cd405	1.2252203
39	0x3fa08bd6	1.2542675
40	0x3f806598	1.0031004
41	0x3fadad74	1.3568559
42	0x3f1644c7	0.58698696
43	0x3fd3ee85	1.6557165
44	0x3f97ba2b	1.1853689
45	0x40023ad1	2.0348399
46	0x3f8f6093	1.1201347
47	0x3f6a5cb8	0.9154773
48	0x3fde0425	1.7345015
49	0x3f2633e0	0.64922905
50	0x3fc653dc	1.5494342
51	0x40199476	2.3996863
52	0x3fd2d053	1.6469826
53	0x3f6560e3	0.8960096
54	0xba6259f1	-0.0008634618
55	0x3f950de9	1.164487
56	0x3f287b3f	0.6581306
57	0x3f719730	0.9437132
58	0x3f2b7483	0.6697466
59	0x3fc35b12	1.5262167
60	0x3fdc4f28	1.7211657
61	0x3f9f5ae4	1.2449613
62	0x3fb6d654	1.4284158
63	0x3fb2ae22	1.3959391
64	0x3fe7edaa	1.8119404
65	0x3f638849	0.8887983
66	0x3fbd9911	1.4812337
67	0x3fb981fa	1.4492791
68	0x3f803ff8	1.0019522
69	0x3f9505fb	1.164245
70	0x3fc09fb1	1.5048734
71	0x3f306d56	0.68916833
72	0x3f8fec86	1.1244056
73	0x3fa1c759	1.2638961
74	0x3f869fca	1.0517514
75	0xbba041f7	-0.004890676
76	0x3f7bd36a	0.9836947
77	0x3fae1a5d	1.3601795
78	0x3f8fb40c	1.1226821
79	0x3fa3a9ca	1.278619
80	0x3fc62db0	1.5482693
81	0x3e99cd2f	0.30039355
82	0x3f42632b	0.7593257
83	0x3f9d7cea	1.2303746
84	0x3fc2e5b3	1.5226349
85	0x3f10314f	0.5632524
86	0x3f6dff76	0.9296793
87	0x40014f27	2.020456
88	0x3f2234f8	0.63362074
89	0x3fd8755e	1.6910818
90	0x3f82badb	1.0213274
91	0x3ebb4b87	0.3658106
92	0x3f881861	1.063244
93	0x3faba4e1	1.3409692
94	0x3f84e931	1.0383664
95	0x3ea088c1	0.31354335
96	0x3ec22583	0.37919244
97	0x3fecbc40	1.8494949
98	0x3f923a21	1.142399
99	0x3f0727f9	0.5279537
100	0x3f89cde1	1.0765954
101	0x3f839441	1.0279619
102	0x3f85ffe7	1.046872
103	0x3e1e5ff6	0.15466294
104	0x3fdb11dd	1.7114826
105	0x3e3ccf79	0.1843852
106	0x3f9f9060	1.2465935
107	0x3fa0a434	1.2550111
108	0x3f88226c	1.0635505
109	0x3f0199f0	0.50625515
110	0x3f0079fe	0.50186145
111	0x3f9ca3f0	1.223753
112	0x3f3dad53	0.74092597
113	0x3e9d94f2	0.307777
114	0x3ebd3182	0.36951834
115	0x3f84a9cc	1.0364318
116	0x3fb1b67d	1.3883816
117	0x3fa19bc2	1.2625659
118	0x3fcf65dc	1.620296
119	0x3f86b478	1.0523825
120	0x3e6b7c4d	0.22996636
121	0x3e207a20	0.15671587
122	0x3f02c079	0.5107494
123	0x3e932628	0.28740048
124	0x3fd137bd	1.6345135
125	0x3f97eb84	1.1868749
126	0x3fbcdb0e	1.475435
127	0x3cef26f8	0.029193386
128	0x3e9c9472	0.30582005
129	0x3f2c9cb4	0.6742661
130	0x3fe4d7ae	1.787832
131	0x3fb01461	1.3756219
132	0x3cbf3619	0.023341225
133	0x3fa103ae	1.2579248
134	0x3f9e23d5	1.2354685
135	0x3f91f0ca	1.1401608
136	0x3fbe0d26	1.4847763
137	0x3fa6126e	1.2974374
138	0x3d46120e	0.048357062
139	0x3fdafd16	1.7108486
140	0x3f152ee4	0.58274674
141	0x3f04d540	0.51887894
142	0x3fae055a	1.3595383
143	0x3f6c7fcb	0.92382497
144	0x3ec55aaa	0.38545734
145	0x3faab4b0	1.3336391
146	0x3d2d8ee0	0.042372584
147	0x3fc69aa5	1.5515944
148	0x3f6fb492	0.93634903
149	0x3f37ffce	0.718747
150	0x3fd374d3	1.6520027
151	0x3e3651e9	0.17804684
152	0x3fad725d	1.3550526
153	0x3f8c8eab	1.0981039
154	0x3f6d109e	0.9260348
155	0x3ea8edcf	0.32993934
156	0x3f943f9c	1.1581912
157	0x3fe6c519	1.80289
158	0x3ff63395	1.9234492
159	0x3fbef1cc	1.491754
160	0x3fda4dcc	1.7054992
161	0x3fc0e3cf	1.5069522
162	0x3fa27792	1.269274
163	0x3f82cc5b	1.0218614
164	0x3f8b0b77	1.0862874
165	0x3f5764c1	0.84138113
166	0x3f1b3432	0.6062652
167	0x3f96c9e0	1.1780357
168	0x3f9c8ade	1.2229879
169	0x3fe27130	1.7690792
170	0x3f7e2dd4	0.9928868
171	0x3e974e10	0.29551744
172	0x3f8a1ec5	1.079064
173	0x3f06d3fa	0.526672
174	0x3f842e80	1.0326691
175	0x3fc67ef4	1.5507493
176	0x3fca6280	1.581131
177	0x3ff423d5	1.9073435
178	0x3f91f355	1.1402384
179	0x400e69b5	2.2252018
180	0x3f89dd8f	1.0770739
181	0x3f4d73f3	0.8025505
182	0x3f395fa0	0.7241154
183	0x3fef3afc	1.8689876
184	0x3f985330	1.1900387
185	0x3f1d6f26	0.61497724
186	0x3fa23b5a	1.2674363
187	0x3f3b7d93	0.73238486
188	0x3fb49456	1.4107769
189	0x3fa16657	1.2609357
190	0x3e0c7d70	0.13719726
191	0x3f36c20a	0.7138983
192	0x3fa3fb5c	1.2811084
193	0x3f849134	1.0356812
194	0x3f121f30	0.5707884
195	0x3fc1a808	1.5129404
196	0x3f6c9f54	0.92430615
197	0x3edd92b6	0.43275994
198	0x3f8cff7c	1.1015468
199	0x3f6b516c	0.91921115
200	0x3efb28c3	0.49054536
201	0x3fbb6102	1.463898
202	0x3fed4644	1.8537068
203	0x3f93f2bb	1.155845
204	0x3f84321d	1.0327793
205	0x3fa6fb59	1.3045455
206	0x3fbcea9f	1.4759101
207	0x3f780326	0.96879804
208	0x3f6d0d19	0.9259811
209	0x3fcab495	1.5836359
210	0x3e1dcc89	0.15410055
211	0x3e682a4e	0.22672388
212	0x3d7127dd	0.058875907
213	0x3fb1273a	1.3840096
214	0x3f5272c8	0.8220639
215	0x3f5ecb04	0.8702853
216	0x3f945043	1.1586994
217	0x3ef64a8f	0.4810376
218	0x3fd585b7	1.6681432
219	0x3fcb8b44	1.5901875
220	0x3f2f7c56	0.68549097
221	0x3fb8af4a	1.4428494
222	0x3efe8d73	0.49717292
223	0x3f4bd3a4	0.7961981
224	0x3fbde145	1.4834372
225	0x3ed4887f	0.41510388
226	0x3f8be5cb	1.0929502
227	0x3f979b5f	1.184429
228	0x3fabdeeb	1.3427404
229	0x3f8a4a96	1.0804012
230	0x3fad6f15	1.3549525
231	0x3fb7edc4	1.4369435
232	0x3d3bbc71	0.04583401
233	0x3fc35651	1.5260717
234	0x3ef316e9	0.47478417
235	0x3c0167f8	0.007898323
236	0x3fa89167	1.3169373
237	0x3fa615cc	1.2975402
238	0x3f0194de	0.5061778
239	0x3f7ac598	0.97957754
240	0x3fbed093	1.4907402
241	0x3f92be6f	1.1464366
242	0x3fbb449c	1.4630313
243	0x3fc85972	1.5652297
244	0x40066a30	2.1002312
245	0x3fd90813	1.6955589
246	0x3f8fda9b	1.1238588
247	0x3faa8293	1.3321098
248	0x3f8b5226	1.0884445
249	0x3f792edf	0.97337145
250	0x3fe711c0	1.8052292
251	0x3f20a71e	0.62755
252	0x3f6c7f5e	0.92381847
253	0x3f562a4a	0.8365828
254	0x3f9dbd0b	1.2323316
255	0x3fafe9cc	1.3743224

gnn_node.convs.0.mlp.1.bias f4 [256]
0	0xbece9ea6	-0.40355414
1	0xbe8e4c67	-0.27792665
2	0xbefec655	-0.4976069
3	0xbd7c0ad1	-0.061533753
4	0xbf3a55e8	-0.7278733
5	0xbf035ecf	-0.5131654
6	0xbed4ac66	-0.4153778
7	0xbf032cb7	-0.51240104
8	0x3df85fa4	0.12127617
9	0x3e7de4f2	0.24794367
10	0x3e3524f6	0.1768988
11	0x3e99d672	0.3004642
12	0xbdbf3c20	-0.0933764
13	0x3e4db098	0.20086896
14	0xbc9666d7	-0.018359585
15	0xbeca2f72	-0.39489323
16	0x3d66f79d	0.056388486
17	0xbe72cf07	-0.23711787
18	0xbec56487	-0.3855326
19	0xbeac92d4	-0.3370577
20	0xbe9b477b	-0.30327973
21	0xbf2cc388	-0.67485857
22	0x3e5a96bb	0.21346562
23	0xbf4c3928	-0.79774714
24	0xbf11ce35	-0.5695527
25	0xbecdc0b3	-0.4018608
26	0xbeabae32	-0.33531338
27	0x3e81e59e	0.25370497
28	0xbe91b79b	-0.28460392
29	0xbea4578b	-0.3209804
30	0xbeaa4987	-0.33259222
31	0xbe658a01	-0.22415926
32	0xbe8c83a6	-0.2744419
33	0xbf0d92cb	-0.55302113
34	0xbec6bb1d	-0.3881463
35	0x3e9ee9e7	0.31037828
36	0xbd9da893	-0.076981686
37	0xbe8a27e5	-0.26983562
38	0xbf177f03	-0.5917818
39	0x3e77f285	0.24213608
40	0xbe0edb15	-0.1395076
41	0xbe96f4cc	-0.2948364
42	0xbed71c58	-0.42013812
43	0xbf002aee	-0.50065506
44	0x3e629c4b	0.22129934
45	0xbe17ea62	-0.14835504
46	0xbebeeaa8	-0.37288404
47	0xbeded8d5	-0.43524805
48	0xbdcae281	-0.099064834
49	0xbde89763	-0.11357
50	0xbce16751	-0.027515085
51	0x3eedb1eb	0.46424803
52	0xbe3d25ce	-0.18471453
53	0xbea3b2bb	-0.31972298
54	0xbd4ad29b	-0.049517255
55	0xbdb81719	-0.089887805
56	0xbf53f3ee	-0.8279408
57	0xbfa2018b	-1.2656721
58	0xbf670a5d	-0.9025019
59	0xbe93039b	-0.28713688
60	0xbeb79a4b	-0.35859904
61	0xbec01234	-0.37513888
62	0x3edc6214	0.43043578
63	0xbdcc905c	-0.09988472
64	0xbd8d9783	-0.06913664
65	0x3d85c6f5	0.06532089
66	0xbe9c5d32	-0.30539852
67	0xbeb749dc	-0.35798538
68	0xbf048e87	-0.5177998
69	0xbdf43998	-0.11925048
70	0xbe620bef	-0.22074865
71	0x3e3232aa	0.1740214
72	0xbf025ff4	-0.5092766
73	0x3ea50179	0.32227686
74	0xbf027b15	-0.5096906
75	0xbe86a77d	-0.26299658
76	0xbeef3d4d	-0.46726456
77	0xbe8c950d	-0.27457467
78	0xbebcfe98	-0.3691299
79	0xbddbd218	-0.107334316
80	0xbf0dc35c	-0.5537622
81	0xbe8db63c	-0.27678096
82	0xbe0258ac	-0.12729138
83	0xbee1f8ba	-0.44135076
84	0xbecf1363	-0.40444478
85	0x3e434242	0.19068244
86	0xbe115f2b	-0.1419646
87	0xbf0a5581	-0.5403672
88	0xbedd8d56	-0.43271893
89	0xbe9830e3	-0.29724798
90	0xbeaee6b9	-0.34160402
91	0xbf2c8972	-0.67397225
92	0xbec8377e	-0.39104837
93	0xbea0caab	-0.31404623
94	0xbcaac7d1	-0.020847233
95	0xbf0fb045	-0.5612834
96	0xbe8a2848	-0.26983857
97	0xbe6f091a	-0.23343316
98	0xbed0f05a	-0.40808374
99	0xbe75004f	-0.23925899
100	0xbe44a4cd	-0.19203492
101	0xbed4ed7a	-0.4158743
102	0xbe57bb5a	-0.21067563
103	0xbed7b5be	-0.42130846
104	0xbe0e9055	-0.13922246
105	0x3ea0fc62	0.31442553
106	0xbed108ef	-0.40827128
107	0xbe2aba24	-0.1667257
108	0xbe4d2324	-0.20032936
109	0xbf725b1a	-0.9467026
110	0xbe13c76e	-0.14431545
111	0xbe30a8da	-0.17251912
112	0x3e3f4735	0.18679507
113	0xbf5339b4	-0.82509923
114	0x3e8029fe	0.25032037
115	0xbed0adc7	-0.40757582
116	0xbeeec9c6	-0.46638316
117	0x3e80efae	0.2518286
118	0xbef84a0d	-0.48493996
119	0xbecce60c	-0.40019262
120	0xbd5669e5	-0.052347083
121	0xbd8c639d	-0.06854937
122	0xbf02f3e8	-0.5115342
123	0xbf63af4e	-0.8893937
124	0xbf08c745	-0.5342906
125	0xbcb41170	-0.021980971
126	0xbe337809	-0.17526259
127	0x3e733b6c	0.23753136
128	0x3e929432	0.2862869
129	0xbef0b4ee	-0.47013038
130	0xbf0a1494	-0.5393765
131	0xbeede703	-0.4646531
132	0x3e7f7bc5	0.24949558
133	0xbd78b1fe	-0.06071662
134	0xbe52f875	-0.20602591
135	0xbed413fe	-0.41421503
136	0xbe15a865	-0.14615019
137	0xbe44c5c4	-0.19216067
138	0xbf56a029	-0.83838135
139	0xbeceba8b	-0.40376696
140	0xbe5e7400	-0.21723938
141	0xbec33b9d	-0.3813142
142	0xbef80489	-0.4844096
143	0x3d44513f	0.047929045
144	0xbeb0f25a	-0.345599
145	0x3d263b8f	0.040584143
146	0xbf1f9090	-0.6232996
147	0xbedd3e85	-0.4321176
148	0x3d34a6e7	0.044104483
149	0x3ebf2c28	0.37338376
150	0xbe38f1dd	-0.18061014
151	0x3ece2b6d	0.40267506
152	0x3dbd0d8d	0.092311
153	0xbedb6808	-0.42852807
154	0xbecccae7	-0.39998552
155	0xbf9eb2bf	-1.2398299
156	0xbee62c2e	-0.4495558
157	0xbd611371	-0.05495018
158	0xbe0cd634	-0.13753587
159	0xbf02af49	-0.51048714
160	0xbdb552f7	-0.08853715
161	0xbf094793	-0.5362484
162	0xbf0162de	-0.50541484
163	0xbf184732	-0.59483635
164	0xbe815187	-0.25257513
165	0x3ed80c2e	0.42196792
166	0xbf8ab428	-1.0836229
167	0xbee5d927	-0.44892237
168	0xbd4cf6fd	-0.050040234
169	0xbea4e9c5	-0.32209602
170	0x3d8b8793	0.06812968
171	0x3d55f991	0.05223996
172	0xbe461470	-0.19343734
173	0xbef98d76	-0.4874074
174	0xbebb8111	-0.36621907
175	0xbddf29a5	-0.10896615
176	0xbed4bbba	-0.41549474
177	0xbeaf3eac	-0.34227502
178	0xbed3d28a	-0.41371566
179	0xbe0d78c7	-0.13815604
180	0x3d9cf913	0.07664695
181	0xbd895fd2	-0.067077294
182	0xbe5cdb38	-0.21568
183	0xbd18b277	-0.037279572
184	0xbf1c6c35	-0.6110261
185	0xbc24d377	-0.010060183
186	0xbf1bc1a0	-0.60842323
187	0xbef90caf	-0.4864249
188	0x3e0ae951	0.13565566
189	0xbe073553	-0.13203935
190	0x3f146136	0.5796083
191	0xbe8eb7b8	-0.2787454
192	0xbe90bfa7	-0.2827122
193	0xbeaa152e	-0.33219284
194	0xbdda31eb	-0.10654052
195	0xbeb6eadb	-0.35726056
196	0xbea82254	-0.3283869
197	0x3e5fba8e	0.21848509
198	0xbefba901	-0.49152377
199	0xbddf6116	-0.109071895
200	0xbf3d75f4	-0.7400811
201	0xbe92e3e4	-0.28689492
202	0xbe36d87a	-0.17856017
203	0xbed5f416	-0.41787785
204	0xbe92acf8	-0.2864759
205	0xbe94af24	-0.29039872
206	0xbf3ab0d3	-0.7292606
207	0x3efba6e8	0.49150777
208	0xbf41d93f	-0.75722116
209	0xbe015f3c	-0.12633985
210	0xbefae8ac	-0.4900564
211	0xbd8123c7	-0.06305652
212	0xbe66482f	-0.22488473
213	0xbeb4c00c	-0.3530277
214	0x3dfa6928	0.12227088
215	0xbe1eec17	-0.15519749
216	0xbe482589	-0.19545569
217	0xbf88183b	-1.0632395
218	0xbcf55d69	-0.029951768
219	0xbf0b56d5	-0.5442937
220	0xbea108af	-0.31451938
221	0xbee44703	-0.44585428
222	0x3e75bc32	0.23997572
223	0xbe6576c4	-0.22408587
224	0xbdfd1c3c	-0.12358901
225	0xbf07800b	-0.52929753
226	0xbefbb5e3	-0.49162206
227	0x3e607cec	0.21922654
228	0xbea0f89c	-0.31439674
229	0xbefd7c8a	-0.49509078
230	0xbe85e4a9	-0.26151016
231	0xbee4b899	-0.44672087
232	0xbe52e364	-0.20594555
233	0xbdf5ff2c	-0.12011561
234	0xbee7e4b1	-0.45291665
235	0xbddbdc22	-0.107353464
236	0xbe84131d	-0.25795832
237	0xbe7fb956	-0.24973044
238	0x3e8d3f4d	0.27587357
239	0xbe7d15d0	-0.24715352
240	0xbeb650dc	-0.35608566
241	0xbf0253a1	-0.5090886
242	0x3d2e3b06	0.042536758
243	0xbe860c2c	-0.2618116
244	0xbd2461f3	-0.040132474
245	0xbebf6026	-0.37378043
246	0xbe3cf8f5	-0.18454345
247	0xbd9679ca	-0.07347448
248	0xbef34751	-0.47515348
249	0xbe994512	-0.2993551
250	0xbd92e995	-0.071734585
251	0xbeefd655	-0.4684321
252	0xbea734ac	-0.32657373
253	0xbc0c5598	-0.008565329
254	0x3cf44b76	0.029821139
255	0xbf1db9a6	-0.616114

gnn_node.convs.0.mlp.1.running_mean f4 [256]
0	0x408bc266	4.3674803
1	0x40b0b62e	5.5222387
2	0x402fafbc	2.745101
3	0xc0b204f1	-5.563103
4	0x413bb79d	11.732327
5	0xbfa27460	-1.2691765
6	0xc119de50	-9.6167755
7	0xc079db86	-3.9040236
8	0xc0caa8f6	-6.333125
9	0x4026fc7a	2.60916
10	0x3fcedcb1	1.61611
11	0x410eeab4	8.932301
12	0xc0f94075	-7.7891183
13	0x3fceeee5	1.6166655
14	0x400628ab	2.0962322
15	0xc03c6a58	-2.9439907
16	0x40ef1cfb	7.4722877
17	0x40aa9056	5.330119
18	0x3f569127	0.83815235
19	0xc1640591	-14.251359
20	0xc0de5b6a	-6.948659
21	0xc031f432	-2.7805295
22	0x411217a9	9.130776
23	0xc080814a	-4.0157824
24	0xbf46b37d	-0.7761763
25	0xc0f5f601	-7.68628
26	0x40499182	3.149506
27	0x40acc260	5.3987274
28	0x3dd71cd0	0.105035424
29	0x3f89cda8	1.0765886
30	0x40cd0089	6.4063153
31	0x3f7c6d99	0.9860473
32	0x40578b90	3.3678932
33	0xbfae686e	-1.362562
34	0x40df5505	6.9791284
35	0x4121cfcf	10.1132345
36	0x3d29cd45	0.041455526
37	0x40aef723	5.467668
38	0xbfc7c01b	-1.5605501
39	0x4126ad0a	10.417246
40	0x3fd0f597	1.6324948
41	0x40dd34f2	6.912713
42	0xc0fab551	-7.8346334
43	0x40fd0533	7.9068847
44	0x3e8fbc29	0.28073242
45	0xc08c00e0	-4.375107
46	0xc0473e0c	-3.113162
47	0x40703312	3.753117
48	0xbeebc5df	-0.460494
49	0x4173ae71	15.230088
50	0xc0665fb7	-3.599592
51	0x40cd9d13	6.425424
52	0x40c787c8	6.235325
53	0xc11b64ad	-9.712079
54	0x402534af	2.5813406
55	0xc1028726	-8.157995
56	0x40b0478c	5.5087337
57	0x413c7edb	11.780971
58	0xc1026af7	-8.151114
59	0x40167051	2.3506052
60	0x416b97f2	14.724596
61	0xc110d396	-9.051657
62	0xc0d1c23a	-6.5549593
63	0x4125c54c	10.360668
64	0x40ac1d02	5.378541
65	0xc163c06e	-14.23448
66	0x41552e4c	13.323803
67	0x41431259	12.191979
68	0xc132d3aa	-11.176676
69	0x40a9b523	5.3033614
70	0xc02e2b3b	-2.7213886
71	0x41091566	8.567724
72	0xbfd52eb3	-1.6654876
73	0xc01e501a	-2.473639
74	0x409a7a7c	4.8274517
75	0x406d25c3	3.7054298
76	0xc041641d	-3.0217354
77	0xc092ff61	-4.593674
78	0x410dde70	8.866806
79	0xc06cb281	-3.698395
80	0xc13dc00e	-11.859388
81	0x40693620	3.6439285
82	0x40a87ed4	5.265482
83	0x408b8347	4.359775
84	0x3f4140ce	0.7548951
85	0x401c01b2	2.4376035
86	0x3ff920f5	1.9463183
87	0xc04a9d8f	-3.1658666
88	0xc058828f	-3.3829687
89	0x40919ce8	4.5504036
90	0xbd9942dd	-0.07483456
91	0x40093e66	2.1444335
92	0xc0eb01a4	-7.3439503
93	0xbee5ac8e	-0.4485821
94	0x4167e1fd	14.492673
95	0x41600395	14.0008745
96	0xc170e1ac	-15.055096
97	0x40a6aee6	5.20885
98	0xbfdb56d0	-1.7135868
99	0xc048a2ad	-3.134929
100	0xc0a61880	-5.1904907
101	0xc00039b4	-2.003522
102	0x412fdca7	10.99137
103	0xc13ffdb2	-11.999437
104	0xc09071a3	-4.5138717
105	0x4110d422	9.05179
106	0x41031375	8.19225
107	0xc17be557	-15.743491
108	0x400223ff	2.033447
109	0x41206337	10.024222
110	0xc1134af2	-9.205797
111	0x3e9d4ec5	0.3072416
112	0xc1477f5d	-12.468595
113	0x41440af9	12.252679
114	0x4137b56e	11.481794
115	0x40cbceb0	6.3689804
116	0xc0240e92	-2.5633893
117	0x40aa1b82	5.315858
118	0x40ba78cf	5.827247
119	0xc0c515da	-6.1589174
120	0x4117d3ad	9.489179
121	0xbfebfb77	-1.8436116
122	0xbfe948b6	-1.8225315
123	0x410c25f6	8.759268
124	0x40836d7d	4.1071153
125	0xbf3ca523	-0.7368948
126	0xc109271a	-8.572046
127	0x401aa684	2.4164133
128	0x4132951f	11.1614065
129	0x3e19d655	0.15023167
130	0xbfb5f2af	-1.4214686
131	0xc11aca43	-9.67438
132	0x4125d384	10.36414
133	0x409fb59b	4.9909186
134	0x40fc88be	7.891692
135	0xc0383c30	-2.8786736
136	0xc0c79ce0	-6.2379
137	0xc0734539	-3.8011
138	0xbfac80e6	-1.3476837
139	0xc0dfa650	-6.989052
140	0xc0ef176f	-7.4716105
141	0xc0d2358a	-6.5690355
142	0x4157cedb	13.488002
143	0x40f53393	7.6625457
144	0xc0c42271	-6.1292043
145	0xc1973b16	-18.90385
146	0x40cab6aa	6.334798
147	0xc04c49a3	-3.1919944
148	0x3f469792	0.7757503
149	0x412b4e96	10.706686
150	0x412d19f0	10.818832
151	0x411e62ea	9.899149
152	0x400e56f6	2.2240577
153	0xc16d84dd	-14.844937
154	0xc08e1eb9	-4.4412503
155	0xbee0ad80	-0.4388237
156	0xc11c4df0	-9.769028
157	0x418cf886	17.62135
158	0x3ff7acad	1.9349571
159	0xc14a0f58	-12.628746
160	0x3f4de185	0.8042224
161	0xc0db670a	-6.856328
162	0xbf754f2a	-0.9582392
163	0xc0f9dae0	-7.807968
164	0xc020d486	-2.5129714
165	0x40a69f8e	5.206977
166	0x408f94bd	4.4869065
167	0x3e7ced36	0.24699864
168	0x4107b20b	8.4809675
169	0x3fbdef66	1.4838684
170	0xc054ec66	-3.3269286
171	0x3ee119dd	0.43965045
172	0x409e0507	4.9381137
173	0xc116cee5	-9.425511
174	0xc0ced09f	-6.4629664
175	0xc0c8e61d	-6.27809
176	0xc000a774	-2.0102205
177	0xbf0cf0a8	-0.5505471
178	0xc0c0040c	-6.000494
179	0x40e9b2d2	7.3030787
180	0xc1040584	-8.251347
181	0xc04a5bf7	-3.161863
182	0x3f52e717	0.82383865
183	0x4016cb89	2.3561728
184	0xc0859e0e	-4.175544
185	0x3f9f1aa0	1.243
186	0xc085fdb7	-4.187221
187	0x3e737cce	0.23778078
188	0xc0c8a134	-6.269678
189	0x3f3a1c14	0.72699094
190	0x41166ded	9.401837
191	0xc180c7f1	-16.097628
192	0x4129c522	10.610628
193	0xc0bba54b	-5.8639274
194	0x411eeda7	9.933021
195	0x40e963fb	7.2934546
196	0x4036cbfa	2.8561997
197	0xc0773b21	-3.862984
198	0x4000d762	2.013146
199	0x4145ab4f	12.354323
200	0xbf3effec	-0.74609256
201	0x40e6d981	7.214051
202	0xc00dc081	-2.2148745
203	0x404f3c04	3.238038
204	0xc0906438	-4.5122337
205	0xbfcff50e	-1.624666
206	0xc0f61ec3	-7.691255
207	0x412f35d2	10.95064
208	0xc0406d16	-3.006658
209	0x413ea08c	11.914196
210	0x3f23da24	0.6400473
211	0x40b8ae19	5.771252
212	0xbfbb3032	-1.4624083
213	0x409f6e90	4.9822464
214	0xc10bfd4b	-8.749339
215	0x40f69765	7.705981
216	0xc0737506	-3.8040175
217	0x40b6f92a	5.7179155
218	0x410c4d67	8.768897
219	0x40cef2bb	6.46713
220	0xc08890fb	-4.267698
221	0xc10014fd	-8.005124
222	0x4144fa70	12.311142
223	0xc08cea25	-4.403582
224	0x4119c44d	9.610425
225	0x40f4d198	7.650585
226	0xc0bd9d93	-5.925485
227	0x40b55bd7	5.667461
228	0x40e316dc	7.0965405
229	0x403f2df5	2.98718
230	0xbf90a03d	-1.1298901
231	0x40bab699	5.8347898
232	0x40b345b4	5.6022587
233	0x4177361d	15.450711
234	0xc1a1233b	-20.142202
235	0x40560df4	3.3446016
236	0x407e0b54	3.9694414
237	0xc0d3e3a3	-6.6215377
238	0x3e2f26db	0.17104666
239	0xbfb77a9a	-1.433429
240	0xc11ba65f	-9.728118
241	0xc15742ae	-13.453779
242	0x3fad682a	1.3547413
243	0x40382565	2.8772824
244	0xbf8a9beb	-1.0828832
245	0xbfb378fe	-1.4021299
246	0x3fd21ea8	1.6415606
247	0xc05cccde	-3.450004
248	0x3fdea53c	1.7394176
249	0xc0a18871	-5.0479054
250	0xc0af0309	-5.4691205
251	0xbef6ad40	-0.48179054
252	0x4102869f	8.1578665
253	0x4085dd7a	4.1832857
254	0x3fccbe3f	1.5995559
255	0xc092360f	-4.569099

gnn_node.convs.0.mlp.1.running_var f4 [256]
0	0x42231d7d	40.778797
1	0x422afcd4	42.746902
2	0x42aacec0	85.40381
3	0x41d250ad	26.289392
4	0x41dd5746	27.667614
5	0x4208dbda	34.2147
6	0x41e40145	28.50062
7	0x4256fa4e	53.74444
8	0x41e732a5	28.899729
9	0x42b8c3c3	92.38235
10	0x4212e3f0	36.722595
11	0x4234e4ee	45.223564
12	0x41c20d3f	24.256468
13	0x424286a0	48.63147
14	0x416f6d01	14.964112
15	0x42715255	60.330402
16	0x422d0d3c	43.262924
17	0x4282201c	65.06271
18	0x427558b5	61.336628
19	0x42831a84	65.55179
20	0x427f6161	63.845097
21	0x420b8e59	34.88901
22	0x42176846	37.85183
23	0x422bb875	42.930134
24	0x42597b40	54.37036
25	0x41cc134e	25.509426
26	0x4265f699	57.490818
27	0x422efada	43.744972
28	0x42f5681a	122.70332
29	0x4293d38e	73.91319
30	0x430d2f24	141.18414
31	0x421fcfec	39.95305
32	0x42a9cafe	84.89647
33	0x4234d66f	45.209408
34	0x42519d77	52.403774
35	0x42362985	45.540546
36	0x42315c1f	44.339962
37	0x42277e62	41.87342
38	0x4280f413	64.47671
39	0x42a6b223	83.34792
40	0x42d4bd93	106.37026
41	0x427523ea	61.285072
42	0x42a89cfa	84.306595
43	0x41e68748	28.816055
44	0x4226a6af	41.662777
45	0x42627471	56.613712
46	0x42a5198d	82.549904
47	0x422cb978	43.18112
48	0x428e1270	71.03601
49	0x42bf083d	95.51609
50	0x41d21c80	26.263916
51	0x41e8d94b	29.1061
52	0x429d3cd3	78.6188
53	0x42a6773d	83.23289
54	0x41b2d075	22.351786
55	0x425922fb	54.28416
56	0x423dc6c6	47.444115
57	0x420c8baf	35.13641
58	0x422d360c	43.30278
59	0x419805d2	19.002842
60	0x4220c0f1	40.18842
61	0x426fbf7e	59.937004
62	0x4285e721	66.95142
63	0x421bc800	38.945312
64	0x42121064	36.516006
65	0x41b88eb9	23.069689
66	0x42a3b85e	81.86009
67	0x42a2e727	81.45147
68	0x4230c7e1	44.195194
69	0x4280373e	64.107895
70	0x425e0dec	55.513596
71	0x421153ee	36.331963
72	0x42d40ed4	106.02896
73	0x42ded3fd	111.41404
74	0x424bb5e5	50.92763
75	0x41a57408	20.681656
76	0x4280ad9a	64.339066
77	0x42222cb1	40.543644
78	0x428fcaa9	71.89582
79	0x421eee61	39.73279
80	0x41df314e	27.899075
81	0x41d5a9a8	26.70784
82	0x42b4c608	90.38678
83	0x428ef030	71.46912
84	0x425c6300	55.09668
85	0x41e497dc	28.57415
86	0x4290eb0a	72.45906
87	0x426dc2ed	59.440357
88	0x4213fd7f	36.997555
89	0x4235ed27	45.481594
90	0x42b99a21	92.80103
91	0x423f10d9	47.766453
92	0x41668602	14.407717
93	0x42849ba5	66.30399
94	0x425c53bb	55.081768
95	0x422ff4b5	43.98897
96	0x41c0b1e3	24.086859
97	0x42c2742c	97.2269
98	0x423d02e7	47.252834
99	0x42384023	46.062634
100	0x42699752	58.397774
101	0x4232c78e	44.694878
102	0x4294045a	74.0085
103	0x42098ce4	34.38759
104	0x420158d7	32.336758
105	0x42363ee1	45.561405
106	0x4280fdd3	64.49575
107	0x416ce175	14.805043
108	0x41eb5f2a	29.421467
109	0x419dc6c7	19.72206
110	0x41906fa5	18.054514
111	0x41987f41	19.062136
112	0x4195e1ca	18.735249
113	0x42276a3c	41.853745
114	0x4228c41e	42.19152
115	0x42a233f3	81.10146
116	0x427dc6db	63.444195
117	0x41837257	16.43083
118	0x42a25c0e	81.179794
119	0x424e0648	51.506134
120	0x42949a6d	74.30161
121	0x41b38486	22.439709
122	0x425fcec3	55.951916
123	0x429ac0bb	77.37643
124	0x42817db7	64.74554
125	0x4203778f	32.866756
126	0x429d8015	78.75016
127	0x420afc8e	34.746635
128	0x420dff6e	35.499443
129	0x425c82f0	55.12787
130	0x421cfd99	39.247654
131	0x424e5604	51.584
132	0x420bb0dc	34.922714
133	0x42ba1ae9	93.05256
134	0x425da0db	55.407085
135	0x42853d51	66.61976
136	0x428dd186	70.909225
137	0x42851061	66.53199
138	0x41ca1e7d	25.264887
139	0x426b79a7	58.8688
140	0x42701611	60.02155
141	0x41e817a7	29.011549
142	0x42c2c812	97.39076
143	0x42b05fb5	88.18693
144	0x42aa727b	85.223595
145	0x41e712dc	28.884209
146	0x4295c4d4	74.88443
147	0x41cc3677	25.526594
148	0x42b2a52d	89.32261
149	0x42a18abb	80.77096
150	0x4290122e	72.03551
151	0x424d853e	51.38012
152	0x42b42185	90.06547
153	0x426f4a6c	59.822678
154	0x4287b131	67.84608
155	0x42273c26	41.80874
156	0x4268534c	58.081345
157	0x42808f8b	64.28036
158	0x428fabcc	71.83554
159	0x428647da	67.140335
160	0x42982eda	76.09151
161	0x42bc6638	94.199646
162	0x42c93e18	100.62128
163	0x423bae58	46.920258
164	0x4282e1a1	65.44068
165	0x41cc81b8	25.56334
166	0x42034766	32.819725
167	0x4287536a	67.66292
168	0x427d65ca	63.349403
169	0x42441f4a	49.030556
170	0x42510f43	52.264904
171	0x421f7eb1	39.873722
172	0x4206039e	33.503532
173	0x420ac6c3	34.694103
174	0x425c5fb0	55.093445
175	0x420ae98f	34.728085
176	0x42792826	62.289207
177	0x42332f2c	44.796066
178	0x41cffe2e	25.999111
179	0x42a8e570	84.44812
180	0x42175258	37.830414
181	0x4290288b	72.079185
182	0x420de29c	35.4713
183	0x427397f0	60.898376
184	0x429961ed	76.69126
185	0x421bd47a	38.957497
186	0x424c303c	51.047104
187	0x42535708	52.83499
188	0x42158168	37.376373
189	0x4214bf6a	37.186928
190	0x41dfae40	27.960083
191	0x41e11c98	28.138962
192	0x423b8aba	46.885475
193	0x42091012	34.265694
194	0x427c4b22	63.07337
195	0x42a69b30	83.3031
196	0x42525638	52.584198
197	0x41ca6fc1	25.304567
198	0x42bf236f	95.56921
199	0x41c4a5d8	24.580978
200	0x422b2c3f	42.79321
201	0x42914d0d	72.65049
202	0x42c420b9	98.06391
203	0x4299e1a6	76.94072
204	0x4269b97e	58.431145
205	0x42cc7287	102.22369
206	0x420074cc	32.11406
207	0x429902ed	76.505714
208	0x418a6418	17.298874
209	0x421f0042	39.75025
210	0x426e24a9	59.5358
211	0x429f6a01	79.70704
212	0x4225e9fd	41.478504
213	0x41ddcee9	27.72603
214	0x421d11cf	39.26739
215	0x4280f9d6	64.48796
216	0x427a6d39	62.606663
217	0x4241eb1d	48.479603
218	0x423f2ab4	47.791702
219	0x42a1e4e9	80.94709
220	0x420affa7	34.74966
221	0x4254515d	53.079456
222	0x427d6db0	63.357117
223	0x420b3137	34.79806
224	0x42a961d1	84.69105
225	0x417f22c4	15.945988
226	0x4295e3ab	74.944664
227	0x42b614fa	91.04097
228	0x428c789b	70.23556
229	0x42a20d11	81.02552
230	0x4208a0c2	34.15699
231	0x42a121e0	80.56616
232	0x41875b2e	16.919521
233	0x428b83b3	69.757225
234	0x420e5b1a	35.588966
235	0x41bbd535	23.479105
236	0x41d86ac3	27.05213
237	0x42710c13	60.26179
238	0x4207c8a1	33.945927
239	0x425bc261	54.939823
240	0x428aa5a8	69.32355
241	0x425a45e6	54.56826
242	0x4288e1ac	68.440765
243	0x42ba4e90	93.15344
244	0x42524a9d	52.572865
245	0x4262a03d	56.656483
246	0x4289d0fa	68.90816
247	0x41ab4df8	21.41307
248	0x42c3e670	97.95007
249	0x42a26bf8	81.21088
250	0x421bccfd	38.950184
251	0x427b5dd7	62.84164
252	0x42869d6f	67.30749
253	0x41f5f5b2	30.744968
254	0x424bd22c	50.955246
255	0x42b8dc30	92.43005
